…
I0818 12:02:49.357431 20702 solver.cpp:91] Creating training net from net file: CIFAR-10/train_test.prototxt
I0818 12:02:49.358717 20702 net.cpp:313] The NetState phase (0) differed from the phase (1) specified by a rule in layer cifar
I0818 12:02:49.359117 20702 net.cpp:49] Initializing net from parameters: 
name: "CIFAR10_full"
state {
  phase: TRAIN
}
layer {
  name: "cifar"
  type: "Data"
  top: "data"
  top: "label"
  include {
    phase: TRAIN
  }
  transform_param {
    mirror: true
    mean_file: "CIFAR-10/mean.binaryproto"
  }
  data_param {
    source: "CIFAR-10/cifar10_train_lmdb"
    batch_size: 200
    backend: LMDB
  }
}
layer {
  name: "conv1"
  type: "Convolution"
  bottom: "data"
  top: "conv1"
  param {
    lr_mult: 1
    decay_mult: 1
  }
  param {
    lr_mult: 2
    decay_mult: 0
  }
  convolution_param {
    num_output: 32
    pad: 2
    kernel_size: 5
    stride: 1
    weight_filler {
      type: "xavier"
    }
    bias_filler {
      type: "constant"
    }
  }
}
layer {
  name: "pool1"
  type: "Pooling"
  bottom: "conv1"
  top: "pool1"
  pooling_param {
    pool: MAX
    kernel_size: 3
    stride: 2
  }
}
layer {
  name: "relu1"
  type: "ReLU"
  bottom: "pool1"
  top: "pool1"
}
layer {
  name: "norm1"
  type: "LRN"
  bottom: "pool1"
  top: "norm1"
  lrn_param {
    local_size: 3
    alpha: 5e-05
    beta: 0.75
    norm_region: WITHIN_CHANNEL
  }
}
layer {
  name: "conv2"
  type: "Convolution"
  bottom: "norm1"
  top: "conv2"
  param {
    lr_mult: 1
    decay_mult: 1
  }
  param {
    lr_mult: 2
    decay_mult: 0
  }
  convolution_param {
    num_output: 32
    pad: 2
    kernel_size: 5
    stride: 1
    weight_filler {
      type: "xavier"
    }
    bias_filler {
      type: "constant"
    }
  }
}
layer {
  name: "pool2"
  type: "Pooling"
  bottom: "conv2"
  top: "pool2"
  pooling_param {
    pool: AVE
    kernel_size: 3
    stride: 2
  }
}
layer {
  name: "relu2"
  type: "ReLU"
  bottom: "pool2"
  top: "pool2"
}
layer {
  name: "norm2"
  type: "LRN"
  bottom: "pool2"
  top: "norm2"
  lrn_param {
    local_size: 3
    alpha: 5e-05
    beta: 0.75
    norm_region: WITHIN_CHANNEL
  }
}
layer {
  name: "conv3"
  type: "Convolution"
  bottom: "norm2"
  top: "conv3"
  param {
    lr_mult: 1
    decay_mult: 1
  }
  param {
    lr_mult: 2
    decay_mult: 0
  }
  convolution_param {
    num_output: 64
    pad: 2
    kernel_size: 5
    stride: 1
    weight_filler {
      type: "xavier"
    }
    bias_filler {
      type: "constant"
    }
  }
}
layer {
  name: "relu3"
  type: "ReLU"
  bottom: "conv3"
  top: "conv3"
}
layer {
  name: "pool3"
  type: "Pooling"
  bottom: "conv3"
  top: "pool3"
  pooling_param {
    pool: AVE
    kernel_size: 3
    stride: 2
  }
}
layer {
  name: "ip2"
  type: "InnerProduct"
  bottom: "pool3"
  top: "ip2"
  param {
    lr_mult: 1
    decay_mult: 1
  }
  param {
    lr_mult: 2
    decay_mult: 0
  }
  inner_product_param {
    num_output: 500
    weight_filler {
      type: "xavier"
    }
    bias_filler {
      type: "constant"
    }
  }
}
layer {
  name: "relu_ip2"
  type: "ReLU"
  bottom: "ip2"
  top: "ip2"
}
layer {
  name: "ip1"
  type: "InnerProduct"
  bottom: "ip2"
  top: "ip1"
  param {
    lr_mult: 1
    decay_mult: 1
  }
  param {
    lr_mult: 2
    decay_mult: 0
  }
  inner_product_param {
    num_output: 12
    weight_filler {
      type: "xavier"
    }
    bias_filler {
      type: "constant"
    }
  }
}
layer {
  name: "loss"
  type: "HashingLoss"
  bottom: "ip1"
  bottom: "label"
  top: "loss"
  hashing_loss_param {
    bi_margin: 24
    tradeoff: 0.01
  }
}
I0818 12:02:49.361382 20702 layer_factory.hpp:77] Creating layer cifar
I0818 12:02:49.362927 20702 net.cpp:91] Creating Layer cifar
I0818 12:02:49.363014 20702 net.cpp:399] cifar -> data
I0818 12:02:49.363131 20702 net.cpp:399] cifar -> label
I0818 12:02:49.363214 20702 data_transformer.cpp:25] Loading mean file from: CIFAR-10/mean.binaryproto
I0818 12:02:49.364855 20707 db_lmdb.cpp:38] Opened lmdb CIFAR-10/cifar10_train_lmdb
I0818 12:02:49.395066 20702 data_layer.cpp:41] output data size: 200,3,32,32
I0818 12:02:49.404775 20702 net.cpp:141] Setting up cifar
I0818 12:02:49.404876 20702 net.cpp:148] Top shape: 200 3 32 32 (614400)
I0818 12:02:49.404930 20702 net.cpp:148] Top shape: 200 1 1 1 (200)
I0818 12:02:49.404966 20702 net.cpp:156] Memory required for data: 2458400
I0818 12:02:49.405011 20702 layer_factory.hpp:77] Creating layer conv1
I0818 12:02:49.405102 20702 net.cpp:91] Creating Layer conv1
I0818 12:02:49.405149 20702 net.cpp:425] conv1 <- data
I0818 12:02:49.405213 20702 net.cpp:399] conv1 -> conv1
I0818 12:02:49.407022 20702 net.cpp:141] Setting up conv1
I0818 12:02:49.407083 20702 net.cpp:148] Top shape: 200 32 32 32 (6553600)
I0818 12:02:49.407115 20702 net.cpp:156] Memory required for data: 28672800
I0818 12:02:49.407184 20702 layer_factory.hpp:77] Creating layer pool1
I0818 12:02:49.407243 20702 net.cpp:91] Creating Layer pool1
I0818 12:02:49.407284 20702 net.cpp:425] pool1 <- conv1
I0818 12:02:49.407331 20702 net.cpp:399] pool1 -> pool1
I0818 12:02:49.407804 20702 net.cpp:141] Setting up pool1
I0818 12:02:49.407867 20702 net.cpp:148] Top shape: 200 32 16 16 (1638400)
I0818 12:02:49.407912 20702 net.cpp:156] Memory required for data: 35226400
I0818 12:02:49.407948 20702 layer_factory.hpp:77] Creating layer relu1
I0818 12:02:49.407984 20702 net.cpp:91] Creating Layer relu1
I0818 12:02:49.408017 20702 net.cpp:425] relu1 <- pool1
I0818 12:02:49.408068 20702 net.cpp:386] relu1 -> pool1 (in-place)
I0818 12:02:49.408118 20702 net.cpp:141] Setting up relu1
I0818 12:02:49.408165 20702 net.cpp:148] Top shape: 200 32 16 16 (1638400)
I0818 12:02:49.408198 20702 net.cpp:156] Memory required for data: 41780000
I0818 12:02:49.408232 20702 layer_factory.hpp:77] Creating layer norm1
I0818 12:02:49.408282 20702 net.cpp:91] Creating Layer norm1
I0818 12:02:49.408320 20702 net.cpp:425] norm1 <- pool1
I0818 12:02:49.408365 20702 net.cpp:399] norm1 -> norm1
I0818 12:02:49.408690 20702 net.cpp:141] Setting up norm1
I0818 12:02:49.408746 20702 net.cpp:148] Top shape: 200 32 16 16 (1638400)
I0818 12:02:49.408783 20702 net.cpp:156] Memory required for data: 48333600
I0818 12:02:49.408818 20702 layer_factory.hpp:77] Creating layer conv2
I0818 12:02:49.408874 20702 net.cpp:91] Creating Layer conv2
I0818 12:02:49.408910 20702 net.cpp:425] conv2 <- norm1
I0818 12:02:49.408960 20702 net.cpp:399] conv2 -> conv2
I0818 12:02:49.411044 20702 net.cpp:141] Setting up conv2
I0818 12:02:49.411109 20702 net.cpp:148] Top shape: 200 32 16 16 (1638400)
I0818 12:02:49.411146 20702 net.cpp:156] Memory required for data: 54887200
I0818 12:02:49.411190 20702 layer_factory.hpp:77] Creating layer pool2
I0818 12:02:49.411238 20702 net.cpp:91] Creating Layer pool2
I0818 12:02:49.411283 20702 net.cpp:425] pool2 <- conv2
I0818 12:02:49.411322 20702 net.cpp:399] pool2 -> pool2
I0818 12:02:49.411402 20702 net.cpp:141] Setting up pool2
I0818 12:02:49.411448 20702 net.cpp:148] Top shape: 200 32 8 8 (409600)
I0818 12:02:49.411483 20702 net.cpp:156] Memory required for data: 56525600
I0818 12:02:49.411511 20702 layer_factory.hpp:77] Creating layer relu2
I0818 12:02:49.411550 20702 net.cpp:91] Creating Layer relu2
I0818 12:02:49.411590 20702 net.cpp:425] relu2 <- pool2
I0818 12:02:49.411623 20702 net.cpp:386] relu2 -> pool2 (in-place)
I0818 12:02:49.411664 20702 net.cpp:141] Setting up relu2
I0818 12:02:49.411700 20702 net.cpp:148] Top shape: 200 32 8 8 (409600)
I0818 12:02:49.411731 20702 net.cpp:156] Memory required for data: 58164000
I0818 12:02:49.411769 20702 layer_factory.hpp:77] Creating layer norm2
I0818 12:02:49.411813 20702 net.cpp:91] Creating Layer norm2
I0818 12:02:49.411845 20702 net.cpp:425] norm2 <- pool2
I0818 12:02:49.411957 20702 net.cpp:399] norm2 -> norm2
I0818 12:02:49.412205 20702 net.cpp:141] Setting up norm2
I0818 12:02:49.412256 20702 net.cpp:148] Top shape: 200 32 8 8 (409600)
I0818 12:02:49.412289 20702 net.cpp:156] Memory required for data: 59802400
I0818 12:02:49.412322 20702 layer_factory.hpp:77] Creating layer conv3
I0818 12:02:49.412375 20702 net.cpp:91] Creating Layer conv3
I0818 12:02:49.412410 20702 net.cpp:425] conv3 <- norm2
I0818 12:02:49.412448 20702 net.cpp:399] conv3 -> conv3
I0818 12:02:49.413801 20702 net.cpp:141] Setting up conv3
I0818 12:02:49.413874 20702 net.cpp:148] Top shape: 200 64 8 8 (819200)
I0818 12:02:49.413905 20702 net.cpp:156] Memory required for data: 63079200
I0818 12:02:49.413949 20702 layer_factory.hpp:77] Creating layer relu3
I0818 12:02:49.414005 20702 net.cpp:91] Creating Layer relu3
I0818 12:02:49.414036 20702 net.cpp:425] relu3 <- conv3
I0818 12:02:49.414069 20702 net.cpp:386] relu3 -> conv3 (in-place)
I0818 12:02:49.414110 20702 net.cpp:141] Setting up relu3
I0818 12:02:49.414147 20702 net.cpp:148] Top shape: 200 64 8 8 (819200)
I0818 12:02:49.414183 20702 net.cpp:156] Memory required for data: 66356000
I0818 12:02:49.414217 20702 layer_factory.hpp:77] Creating layer pool3
I0818 12:02:49.414258 20702 net.cpp:91] Creating Layer pool3
I0818 12:02:49.414294 20702 net.cpp:425] pool3 <- conv3
I0818 12:02:49.414332 20702 net.cpp:399] pool3 -> pool3
I0818 12:02:49.414412 20702 net.cpp:141] Setting up pool3
I0818 12:02:49.414458 20702 net.cpp:148] Top shape: 200 64 4 4 (204800)
I0818 12:02:49.414491 20702 net.cpp:156] Memory required for data: 67175200
I0818 12:02:49.414525 20702 layer_factory.hpp:77] Creating layer ip2
I0818 12:02:49.414575 20702 net.cpp:91] Creating Layer ip2
I0818 12:02:49.414613 20702 net.cpp:425] ip2 <- pool3
I0818 12:02:49.414654 20702 net.cpp:399] ip2 -> ip2
I0818 12:02:49.425508 20702 net.cpp:141] Setting up ip2
I0818 12:02:49.425565 20702 net.cpp:148] Top shape: 200 500 (100000)
I0818 12:02:49.425596 20702 net.cpp:156] Memory required for data: 67575200
I0818 12:02:49.425634 20702 layer_factory.hpp:77] Creating layer relu_ip2
I0818 12:02:49.425685 20702 net.cpp:91] Creating Layer relu_ip2
I0818 12:02:49.425721 20702 net.cpp:425] relu_ip2 <- ip2
I0818 12:02:49.425765 20702 net.cpp:386] relu_ip2 -> ip2 (in-place)
I0818 12:02:49.425817 20702 net.cpp:141] Setting up relu_ip2
I0818 12:02:49.425855 20702 net.cpp:148] Top shape: 200 500 (100000)
I0818 12:02:49.425890 20702 net.cpp:156] Memory required for data: 67975200
I0818 12:02:49.425926 20702 layer_factory.hpp:77] Creating layer ip1
I0818 12:02:49.425966 20702 net.cpp:91] Creating Layer ip1
I0818 12:02:49.426002 20702 net.cpp:425] ip1 <- ip2
I0818 12:02:49.426048 20702 net.cpp:399] ip1 -> ip1
I0818 12:02:49.427697 20702 net.cpp:141] Setting up ip1
I0818 12:02:49.427758 20702 net.cpp:148] Top shape: 200 12 (2400)
I0818 12:02:49.427790 20702 net.cpp:156] Memory required for data: 67984800
I0818 12:02:49.427840 20702 layer_factory.hpp:77] Creating layer loss
I0818 12:02:49.427892 20702 net.cpp:91] Creating Layer loss
I0818 12:02:49.427929 20702 net.cpp:425] loss <- ip1
I0818 12:02:49.427968 20702 net.cpp:425] loss <- label
I0818 12:02:49.428012 20702 net.cpp:399] loss -> loss
I0818 12:02:49.428232 20702 net.cpp:141] Setting up loss
…
I0818 12:02:49.430074 20702 solver.cpp:181] Creating test net (#0) specified by net file: CIFAR-10/train_test.prototxt
I0818 12:02:49.430192 20702 net.cpp:313] The NetState phase (1) differed from the phase (0) specified by a rule in layer cifar
I0818 12:02:49.430550 20702 net.cpp:49] Initializing net from parameters: 
name: "CIFAR10_full"
state {
  phase: TEST
}
layer {
  name: "cifar"
  type: "Data"
  top: "data"
  top: "label"
  include {
    phase: TEST
  }
  transform_param {
    mirror: false
    mean_file: "CIFAR-10/mean.binaryproto"
  }
  data_param {
    source: "CIFAR-10/cifar10_test_lmdb"
    batch_size: 100
    backend: LMDB
  }
}
layer {
  name: "conv1"
  type: "Convolution"
  bottom: "data"
  top: "conv1"
  param {
    lr_mult: 1
    decay_mult: 1
  }
  param {
    lr_mult: 2
    decay_mult: 0
  }
  convolution_param {
    num_output: 32
    pad: 2
    kernel_size: 5
    stride: 1
    weight_filler {
      type: "xavier"
    }
    bias_filler {
      type: "constant"
    }
  }
}
layer {
  name: "pool1"
  type: "Pooling"
  bottom: "conv1"
  top: "pool1"
  pooling_param {
    pool: MAX
    kernel_size: 3
    stride: 2
  }
}
layer {
  name: "relu1"
  type: "ReLU"
  bottom: "pool1"
  top: "pool1"
}
layer {
  name: "norm1"
  type: "LRN"
  bottom: "pool1"
  top: "norm1"
  lrn_param {
    local_size: 3
    alpha: 5e-05
    beta: 0.75
    norm_region: WITHIN_CHANNEL
  }
}
layer {
  name: "conv2"
  type: "Convolution"
  bottom: "norm1"
  top: "conv2"
  param {
    lr_mult: 1
    decay_mult: 1
  }
  param {
    lr_mult: 2
    decay_mult: 0
  }
  convolution_param {
    num_output: 32
    pad: 2
    kernel_size: 5
    stride: 1
    weight_filler {
      type: "xavier"
    }
    bias_filler {
      type: "constant"
    }
  }
}
layer {
  name: "pool2"
  type: "Pooling"
  bottom: "conv2"
  top: "pool2"
  pooling_param {
    pool: AVE
    kernel_size: 3
    stride: 2
  }
}
layer {
  name: "relu2"
  type: "ReLU"
  bottom: "pool2"
  top: "pool2"
}
layer {
  name: "norm2"
  type: "LRN"
  bottom: "pool2"
  top: "norm2"
  lrn_param {
    local_size: 3
    alpha: 5e-05
    beta: 0.75
    norm_region: WITHIN_CHANNEL
  }
}
layer {
  name: "conv3"
  type: "Convolution"
  bottom: "norm2"
  top: "conv3"
  param {
    lr_mult: 1
    decay_mult: 1
  }
  param {
    lr_mult: 2
    decay_mult: 0
  }
  convolution_param {
    num_output: 64
    pad: 2
    kernel_size: 5
    stride: 1
    weight_filler {
      type: "xavier"
    }
    bias_filler {
      type: "constant"
    }
  }
}
layer {
  name: "relu3"
  type: "ReLU"
  bottom: "conv3"
  top: "conv3"
}
layer {
  name: "pool3"
  type: "Pooling"
  bottom: "conv3"
  top: "pool3"
  pooling_param {
    pool: AVE
    kernel_size: 3
    stride: 2
  }
}
layer {
  name: "ip2"
  type: "InnerProduct"
  bottom: "pool3"
  top: "ip2"
  param {
    lr_mult: 1
    decay_mult: 1
  }
  param {
    lr_mult: 2
    decay_mult: 0
  }
  inner_product_param {
    num_output: 500
    weight_filler {
      type: "xavier"
    }
    bias_filler {
      type: "constant"
    }
  }
}
layer {
  name: "relu_ip2"
  type: "ReLU"
  bottom: "ip2"
  top: "ip2"
}
layer {
  name: "ip1"
  type: "InnerProduct"
  bottom: "ip2"
  top: "ip1"
  param {
    lr_mult: 1
    decay_mult: 1
  }
  param {
    lr_mult: 2
    decay_mult: 0
  }
  inner_product_param {
    num_output: 12
    weight_filler {
      type: "xavier"
    }
    bias_filler {
      type: "constant"
    }
  }
}
layer {
  name: "loss"
  type: "HashingLoss"
  bottom: "ip1"
  bottom: "label"
  top: "loss"
  hashing_loss_param {
    bi_margin: 24
    tradeoff: 0.01
  }
}
I0818 12:02:49.432801 20702 layer_factory.hpp:77] Creating layer cifar
I0818 12:02:49.433109 20702 net.cpp:91] Creating Layer cifar
I0818 12:02:49.433168 20702 net.cpp:399] cifar -> data
I0818 12:02:49.433220 20702 net.cpp:399] cifar -> label
I0818 12:02:49.433269 20702 data_transformer.cpp:25] Loading mean file from: CIFAR-10/mean.binaryproto
I0818 12:02:49.434911 20709 db_lmdb.cpp:38] Opened lmdb CIFAR-10/cifar10_test_lmdb
I0818 12:02:49.435220 20702 data_layer.cpp:41] output data size: 100,3,32,32
I0818 12:02:49.441107 20702 net.cpp:141] Setting up cifar
I0818 12:02:49.441177 20702 net.cpp:148] Top shape: 100 3 32 32 (307200)
I0818 12:02:49.441218 20702 net.cpp:148] Top shape: 100 1 1 1 (100)
I0818 12:02:49.441248 20702 net.cpp:156] Memory required for data: 1229200
I0818 12:02:49.441284 20702 layer_factory.hpp:77] Creating layer conv1
I0818 12:02:49.441355 20702 net.cpp:91] Creating Layer conv1
I0818 12:02:49.441395 20702 net.cpp:425] conv1 <- data
I0818 12:02:49.441448 20702 net.cpp:399] conv1 -> conv1
I0818 12:02:49.442068 20702 net.cpp:141] Setting up conv1
I0818 12:02:49.442121 20702 net.cpp:148] Top shape: 100 32 32 32 (3276800)
I0818 12:02:49.442153 20702 net.cpp:156] Memory required for data: 14336400
I0818 12:02:49.442198 20702 layer_factory.hpp:77] Creating layer pool1
I0818 12:02:49.442263 20702 net.cpp:91] Creating Layer pool1
I0818 12:02:49.442301 20702 net.cpp:425] pool1 <- conv1
I0818 12:02:49.442335 20702 net.cpp:399] pool1 -> pool1
I0818 12:02:49.442457 20702 net.cpp:141] Setting up pool1
I0818 12:02:49.442505 20702 net.cpp:148] Top shape: 100 32 16 16 (819200)
I0818 12:02:49.442538 20702 net.cpp:156] Memory required for data: 17613200
I0818 12:02:49.442570 20702 layer_factory.hpp:77] Creating layer relu1
I0818 12:02:49.442607 20702 net.cpp:91] Creating Layer relu1
I0818 12:02:49.442639 20702 net.cpp:425] relu1 <- pool1
I0818 12:02:49.442680 20702 net.cpp:386] relu1 -> pool1 (in-place)
I0818 12:02:49.442723 20702 net.cpp:141] Setting up relu1
I0818 12:02:49.442764 20702 net.cpp:148] Top shape: 100 32 16 16 (819200)
I0818 12:02:49.442796 20702 net.cpp:156] Memory required for data: 20890000
I0818 12:02:49.442826 20702 layer_factory.hpp:77] Creating layer norm1
I0818 12:02:49.442867 20702 net.cpp:91] Creating Layer norm1
I0818 12:02:49.442900 20702 net.cpp:425] norm1 <- pool1
I0818 12:02:49.442939 20702 net.cpp:399] norm1 -> norm1
I0818 12:02:49.443392 20702 net.cpp:141] Setting up norm1
I0818 12:02:49.443444 20702 net.cpp:148] Top shape: 100 32 16 16 (819200)
I0818 12:02:49.443476 20702 net.cpp:156] Memory required for data: 24166800
I0818 12:02:49.443509 20702 layer_factory.hpp:77] Creating layer conv2
I0818 12:02:49.443558 20702 net.cpp:91] Creating Layer conv2
I0818 12:02:49.443593 20702 net.cpp:425] conv2 <- norm1
I0818 12:02:49.443634 20702 net.cpp:399] conv2 -> conv2
I0818 12:02:49.444561 20702 net.cpp:141] Setting up conv2
I0818 12:02:49.444634 20702 net.cpp:148] Top shape: 100 32 16 16 (819200)
I0818 12:02:49.444685 20702 net.cpp:156] Memory required for data: 27443600
I0818 12:02:49.444733 20702 layer_factory.hpp:77] Creating layer pool2
I0818 12:02:49.444780 20702 net.cpp:91] Creating Layer pool2
I0818 12:02:49.444818 20702 net.cpp:425] pool2 <- conv2
I0818 12:02:49.444855 20702 net.cpp:399] pool2 -> pool2
I0818 12:02:49.444928 20702 net.cpp:141] Setting up pool2
I0818 12:02:49.444972 20702 net.cpp:148] Top shape: 100 32 8 8 (204800)
I0818 12:02:49.445004 20702 net.cpp:156] Memory required for data: 28262800
I0818 12:02:49.445034 20702 layer_factory.hpp:77] Creating layer relu2
I0818 12:02:49.445076 20702 net.cpp:91] Creating Layer relu2
I0818 12:02:49.445111 20702 net.cpp:425] relu2 <- pool2
I0818 12:02:49.445145 20702 net.cpp:386] relu2 -> pool2 (in-place)
I0818 12:02:49.445194 20702 net.cpp:141] Setting up relu2
I0818 12:02:49.445273 20702 net.cpp:148] Top shape: 100 32 8 8 (204800)
I0818 12:02:49.445308 20702 net.cpp:156] Memory required for data: 29082000
I0818 12:02:49.445340 20702 layer_factory.hpp:77] Creating layer norm2
I0818 12:02:49.445387 20702 net.cpp:91] Creating Layer norm2
I0818 12:02:49.445422 20702 net.cpp:425] norm2 <- pool2
I0818 12:02:49.445461 20702 net.cpp:399] norm2 -> norm2
I0818 12:02:49.445704 20702 net.cpp:141] Setting up norm2
I0818 12:02:49.445752 20702 net.cpp:148] Top shape: 100 32 8 8 (204800)
I0818 12:02:49.445785 20702 net.cpp:156] Memory required for data: 29901200
I0818 12:02:49.445817 20702 layer_factory.hpp:77] Creating layer conv3
I0818 12:02:49.445868 20702 net.cpp:91] Creating Layer conv3
I0818 12:02:49.445904 20702 net.cpp:425] conv3 <- norm2
I0818 12:02:49.445943 20702 net.cpp:399] conv3 -> conv3
I0818 12:02:49.447341 20702 net.cpp:141] Setting up conv3
I0818 12:02:49.447392 20702 net.cpp:148] Top shape: 100 64 8 8 (409600)
I0818 12:02:49.447427 20702 net.cpp:156] Memory required for data: 31539600
I0818 12:02:49.447473 20702 layer_factory.hpp:77] Creating layer relu3
I0818 12:02:49.447516 20702 net.cpp:91] Creating Layer relu3
I0818 12:02:49.447549 20702 net.cpp:425] relu3 <- conv3
I0818 12:02:49.447585 20702 net.cpp:386] relu3 -> conv3 (in-place)
I0818 12:02:49.447624 20702 net.cpp:141] Setting up relu3
I0818 12:02:49.447660 20702 net.cpp:148] Top shape: 100 64 8 8 (409600)
I0818 12:02:49.447691 20702 net.cpp:156] Memory required for data: 33178000
I0818 12:02:49.447723 20702 layer_factory.hpp:77] Creating layer pool3
I0818 12:02:49.447765 20702 net.cpp:91] Creating Layer pool3
I0818 12:02:49.447798 20702 net.cpp:425] pool3 <- conv3
I0818 12:02:49.447834 20702 net.cpp:399] pool3 -> pool3
I0818 12:02:49.447928 20702 net.cpp:141] Setting up pool3
I0818 12:02:49.447978 20702 net.cpp:148] Top shape: 100 64 4 4 (102400)
I0818 12:02:49.448015 20702 net.cpp:156] Memory required for data: 33587600
I0818 12:02:49.448047 20702 layer_factory.hpp:77] Creating layer ip2
I0818 12:02:49.448086 20702 net.cpp:91] Creating Layer ip2
I0818 12:02:49.448118 20702 net.cpp:425] ip2 <- pool3
I0818 12:02:49.448166 20702 net.cpp:399] ip2 -> ip2
I0818 12:02:49.459003 20702 net.cpp:141] Setting up ip2
I0818 12:02:49.459065 20702 net.cpp:148] Top shape: 100 500 (50000)
I0818 12:02:49.459098 20702 net.cpp:156] Memory required for data: 33787600
I0818 12:02:49.459144 20702 layer_factory.hpp:77] Creating layer relu_ip2
I0818 12:02:49.459184 20702 net.cpp:91] Creating Layer relu_ip2
I0818 12:02:49.459218 20702 net.cpp:425] relu_ip2 <- ip2
I0818 12:02:49.459267 20702 net.cpp:386] relu_ip2 -> ip2 (in-place)
I0818 12:02:49.459311 20702 net.cpp:141] Setting up relu_ip2
I0818 12:02:49.459347 20702 net.cpp:148] Top shape: 100 500 (50000)
I0818 12:02:49.459378 20702 net.cpp:156] Memory required for data: 33987600
I0818 12:02:49.459410 20702 layer_factory.hpp:77] Creating layer ip1
I0818 12:02:49.459450 20702 net.cpp:91] Creating Layer ip1
I0818 12:02:49.459481 20702 net.cpp:425] ip1 <- ip2
I0818 12:02:49.459525 20702 net.cpp:399] ip1 -> ip1
I0818 12:02:49.459873 20702 net.cpp:141] Setting up ip1
I0818 12:02:49.459923 20702 net.cpp:148] Top shape: 100 12 (1200)
I0818 12:02:49.459954 20702 net.cpp:156] Memory required for data: 33992400
I0818 12:02:49.460000 20702 layer_factory.hpp:77] Creating layer loss
I0818 12:02:49.460047 20702 net.cpp:91] Creating Layer loss
I0818 12:02:49.460079 20702 net.cpp:425] loss <- ip1
I0818 12:02:49.460114 20702 net.cpp:425] loss <- label
I0818 12:02:49.460150 20702 net.cpp:399] loss -> loss
I0818 12:02:49.460319 20702 net.cpp:141] Setting up loss
…
