…
I0908 13:01:39.797551 16147 net.cpp:313] The NetState phase (0) differed from the phase (1) specified by a rule in layer accuracy_at_1
I0908 13:01:39.798331 16147 net.cpp:49] Initializing net from parameters: 
name: "docomo_VGG16"
state {
  phase: TRAIN
}
layer {
  name: "data"
  type: "Data"
  top: "data"
  top: "label"
  include {
    phase: TRAIN
  }
  transform_param {
    mirror: true
    crop_size: 224
    mean_value: 103.939
    mean_value: 116.779
    mean_value: 123.68
  }
  data_param {
    source: "FASHION/fashion_train_lmdb/"
    batch_size: 10
    backend: LMDB
  }
}
layer {
  name: "conv1_1"
  type: "Convolution"
  bottom: "data"
  top: "conv1_1"
  param {
    lr_mult: 1
    decay_mult: 1
  }
  param {
    lr_mult: 2
    decay_mult: 0
  }
  convolution_param {
    num_output: 64
    pad: 1
    kernel_size: 3
    weight_filler {
      type: "gaussian"
      std: 0.01
    }
    bias_filler {
      type: "constant"
      value: 0
    }
  }
}
layer {
  name: "relu1_1"
  type: "ReLU"
  bottom: "conv1_1"
  top: "conv1_1"
}
layer {
  name: "conv1_2"
  type: "Convolution"
  bottom: "conv1_1"
  top: "conv1_2"
  param {
    lr_mult: 1
    decay_mult: 1
  }
  param {
    lr_mult: 2
    decay_mult: 0
  }
  convolution_param {
    num_output: 64
    pad: 1
    kernel_size: 3
    weight_filler {
      type: "gaussian"
      std: 0.01
    }
    bias_filler {
      type: "constant"
      value: 0
    }
  }
}
layer {
  name: "relu1_2"
  type: "ReLU"
  bottom: "conv1_2"
  top: "conv1_2"
}
layer {
  name: "pool1"
  type: "Pooling"
  bottom: "conv1_2"
  top: "pool1"
  pooling_param {
    pool: MAX
    kernel_size: 2
    stride: 2
  }
}
layer {
  name: "conv2_1"
  type: "Convolution"
  bottom: "pool1"
  top: "conv2_1"
  param {
    lr_mult: 1
    decay_mult: 1
  }
  param {
    lr_mult: 2
    decay_mult: 0
  }
  convolution_param {
    num_output: 128
    pad: 1
    kernel_size: 3
    weight_filler {
      type: "gaussian"
      std: 0.01
    }
    bias_filler {
      type: "constant"
      value: 0
    }
  }
}
layer {
  name: "relu2_1"
  type: "ReLU"
  bottom: "conv2_1"
  top: "conv2_1"
}
layer {
  name: "conv2_2"
  type: "Convolution"
  bottom: "conv2_1"
  top: "conv2_2"
  param {
    lr_mult: 1
    decay_mult: 1
  }
  param {
    lr_mult: 2
    decay_mult: 0
  }
  convolution_param {
    num_output: 128
    pad: 1
    kernel_size: 3
    weight_filler {
      type: "gaussian"
      std: 0.01
    }
    bias_filler {
      type: "constant"
      value: 0
    }
  }
}
layer {
  name: "relu2_2"
  type: "ReLU"
  bottom: "conv2_2"
  top: "conv2_2"
}
layer {
  name: "pool2"
  type: "Pooling"
  bottom: "conv2_2"
  top: "pool2"
  pooling_param {
    pool: MAX
    kernel_size: 2
    stride: 2
  }
}
layer {
  name: "conv3_1"
  type: "Convolution"
  bottom: "pool2"
  top: "conv3_1"
  param {
    lr_mult: 1
    decay_mult: 1
  }
  param {
    lr_mult: 2
    decay_mult: 0
  }
  convolution_param {
    num_output: 256
    pad: 1
    kernel_size: 3
    weight_filler {
      type: "gaussian"
      std: 0.01
    }
    bias_filler {
      type: "constant"
      value: 0
    }
  }
}
layer {
  name: "relu3_1"
  type: "ReLU"
  bottom: "conv3_1"
  top: "conv3_1"
}
layer {
  name: "conv3_2"
  type: "Convolution"
  bottom: "conv3_1"
  top: "conv3_2"
  param {
    lr_mult: 1
    decay_mult: 1
  }
  param {
    lr_mult: 2
    decay_mult: 0
  }
  convolution_param {
    num_output: 256
    pad: 1
    kernel_size: 3
    weight_filler {
      type: "gaussian"
      std: 0.01
    }
    bias_filler {
      type: "constant"
      value: 0
    }
  }
}
layer {
  name: "relu3_2"
  type: "ReLU"
  bottom: "conv3_2"
  top: "conv3_2"
}
layer {
  name: "conv3_3"
  type: "Convolution"
  bottom: "conv3_2"
  top: "conv3_3"
  param {
    lr_mult: 1
    decay_mult: 1
  }
  param {
    lr_mult: 2
    decay_mult: 0
  }
  convolution_param {
    num_output: 256
    pad: 1
    kernel_size: 3
    weight_filler {
      type: "gaussian"
      std: 0.01
    }
    bias_filler {
      type: "constant"
      value: 0
    }
  }
}
layer {
  name: "relu3_3"
  type: "ReLU"
  bottom: "conv3_3"
  top: "conv3_3"
}
layer {
  name: "pool3"
  type: "Pooling"
  bottom: "conv3_3"
  top: "pool3"
  pooling_param {
    pool: MAX
    kernel_size: 2
    stride: 2
  }
}
layer {
  name: "conv4_1"
  type: "Convolution"
  bottom: "pool3"
  top: "conv4_1"
  param {
    lr_mult: 1
    decay_mult: 1
  }
  param {
    lr_mult: 2
    decay_mult: 0
  }
  convolution_param {
    num_output: 512
    pad: 1
    kernel_size: 3
    weight_filler {
      type: "gaussian"
      std: 0.01
    }
    bias_filler {
      type: "constant"
      value: 0
    }
  }
}
layer {
  name: "relu4_1"
  type: "ReLU"
  bottom: "conv4_1"
  top: "conv4_1"
}
layer {
  name: "conv4_2"
  type: "Convolution"
  bottom: "conv4_1"
  top: "conv4_2"
  param {
    lr_mult: 1
    decay_mult: 1
  }
  param {
    lr_mult: 2
    decay_mult: 0
  }
  convolution_param {
    num_output: 512
    pad: 1
    kernel_size: 3
    weight_filler {
      type: "gaussian"
      std: 0.01
    }
    bias_filler {
      type: "constant"
      value: 0
    }
  }
}
layer {
  name: "relu4_2"
  type: "ReLU"
  bottom: "conv4_2"
  top: "conv4_2"
}
layer {
  name: "conv4_3"
  type: "Convolution"
  bottom: "conv4_2"
  top: "conv4_3"
  param {
    lr_mult: 1
    decay_mult: 1
  }
  param {
    lr_mult: 2
    decay_mult: 0
  }
  convolution_param {
    num_output: 512
    pad: 1
    kernel_size: 3
    weight_filler {
      type: "gaussian"
      std: 0.01
    }
    bias_filler {
      type: "constant"
      value: 0
    }
  }
}
layer {
  name: "relu4_3"
  type: "ReLU"
  bottom: "conv4_3"
  top: "conv4_3"
}
layer {
  name: "pool4"
  type: "Pooling"
  bottom: "conv4_3"
  top: "pool4"
  pooling_param {
    pool: MAX
    kernel_size: 2
    stride: 2
  }
}
layer {
  name: "conv5_1"
  type: "Convolution"
  bottom: "pool4"
  top: "conv5_1"
  param {
    lr_mult: 1
    decay_mult: 1
  }
  param {
    lr_mult: 2
    decay_mult: 0
  }
  convolution_param {
    num_output: 512
    pad: 1
    kernel_size: 3
    weight_filler {
      type: "gaussian"
      std: 0.01
    }
    bias_filler {
      type: "constant"
      value: 0
    }
  }
}
layer {
  name: "relu5_1"
  type: "ReLU"
  bottom: "conv5_1"
  top: "conv5_1"
}
layer {
  name: "conv5_2"
  type: "Convolution"
  bottom: "conv5_1"
  top: "conv5_2"
  param {
    lr_mult: 1
    decay_mult: 1
  }
  param {
    lr_mult: 2
    decay_mult: 0
  }
  convolution_param {
    num_output: 512
    pad: 1
    kernel_size: 3
    weight_filler {
      type: "gaussian"
      std: 0.01
    }
    bias_filler {
      type: "constant"
      value: 0
    }
  }
}
layer {
  name: "relu5_2"
  type: "ReLU"
  bottom: "conv5_2"
  top: "conv5_2"
}
layer {
  name: "conv5_3"
  type: "Convolution"
  bottom: "conv5_2"
  top: "conv5_3"
  param {
    lr_mult: 1
    decay_mult: 1
  }
  param {
    lr_mult: 2
    decay_mult: 0
  }
  convolution_param {
    num_output: 512
    pad: 1
    kernel_size: 3
    weight_filler {
      type: "gaussian"
      std: 0.01
    }
    bias_filler {
      type: "constant"
      value: 0
    }
  }
}
layer {
  name: "relu5_3"
  type: "ReLU"
  bottom: "conv5_3"
  top: "conv5_3"
}
layer {
  name: "pool5"
  type: "Pooling"
  bottom: "conv5_3"
  top: "pool5"
  pooling_param {
    pool: MAX
    kernel_size: 2
    stride: 2
  }
}
layer {
  name: "fc6"
  type: "InnerProduct"
  bottom: "pool5"
  top: "fc6"
  param {
    lr_mult: 1
    decay_mult: 1
  }
  param {
    lr_mult: 2
    decay_mult: 0
  }
  inner_product_param {
    num_output: 4096
    weight_filler {
      type: "gaussian"
      std: 0.005
    }
    bias_filler {
      type: "constant"
      value: 0.1
    }
  }
}
layer {
  name: "relu6"
  type: "ReLU"
  bottom: "fc6"
  top: "fc6"
}
layer {
  name: "drop6"
  type: "Dropout"
  bottom: "fc6"
  top: "fc6"
  dropout_param {
    dropout_ratio: 0.5
  }
}
layer {
  name: "fc7"
  type: "InnerProduct"
  bottom: "fc6"
  top: "fc7"
  param {
    lr_mult: 1
    decay_mult: 1
  }
  param {
    lr_mult: 2
    decay_mult: 0
  }
  inner_product_param {
    num_output: 4096
    weight_filler {
      type: "gaussian"
      std: 0.005
    }
    bias_filler {
      type: "constant"
      value: 0.1
    }
  }
}
layer {
  name: "relu7"
  type: "ReLU"
  bottom: "fc7"
  top: "fc7"
}
layer {
  name: "drop7"
  type: "Dropout"
  bottom: "fc7"
  top: "fc7"
  dropout_param {
    dropout_ratio: 0.5
  }
}
layer {
  name: "fc8_binary_f48"
  type: "InnerProduct"
  bottom: "fc7"
  top: "fc8_binary_f48"
  param {
    lr_mult: 10
    decay_mult: 1
  }
  param {
    lr_mult: 20
    decay_mult: 0
  }
  inner_product_param {
    num_output: 48
    weight_filler {
      type: "gaussian"
      std: 0.005
    }
    bias_filler {
      type: "constant"
      value: 0.1
    }
  }
}
layer {
  name: "fc8_classification"
  type: "InnerProduct"
  bottom: "fc7"
  top: "fc8_classification"
  param {
    lr_mult: 1
    decay_mult: 1
  }
  param {
    lr_mult: 2
    decay_mult: 0
  }
  inner_product_param {
    num_output: 25
    weight_filler {
      type: "gaussian"
      std: 0.05
    }
    bias_filler {
      type: "constant"
      value: 0.1
    }
  }
}
layer {
  name: "loss_hashing"
  type: "HashingLoss"
  bottom: "fc8_binary_f48"
  bottom: "label"
  top: "loss_hashing"
  loss_weight: 0.8
  hashing_loss_param {
    bi_margin: 96
    tradeoff: 0.01
  }
}
layer {
  name: "loss_classification"
  type: "SoftmaxWithLoss"
  bottom: "fc8_classification"
  bottom: "label"
  top: "loss_classification"
}
I0908 13:01:39.803444 16147 layer_factory.hpp:77] Creating layer data
I0908 13:01:39.804666 16147 net.cpp:91] Creating Layer data
I0908 13:01:39.804731 16147 net.cpp:399] data -> data
I0908 13:01:39.804834 16147 net.cpp:399] data -> label
I0908 13:01:39.806540 16154 db_lmdb.cpp:38] Opened lmdb FASHION/fashion_train_lmdb/
I0908 13:01:39.837961 16147 data_layer.cpp:41] output data size: 10,3,224,224
I0908 13:01:39.861652 16147 net.cpp:141] Setting up data
I0908 13:01:39.861786 16147 net.cpp:148] Top shape: 10 3 224 224 (1505280)
I0908 13:01:39.861829 16147 net.cpp:148] Top shape: 10 1 1 1 (10)
I0908 13:01:39.861860 16147 net.cpp:156] Memory required for data: 6021160
I0908 13:01:39.861905 16147 layer_factory.hpp:77] Creating layer label_data_1_split
I0908 13:01:39.861965 16147 net.cpp:91] Creating Layer label_data_1_split
I0908 13:01:39.862016 16147 net.cpp:425] label_data_1_split <- label
I0908 13:01:39.862083 16147 net.cpp:399] label_data_1_split -> label_data_1_split_0
I0908 13:01:39.862141 16147 net.cpp:399] label_data_1_split -> label_data_1_split_1
I0908 13:01:39.862272 16147 net.cpp:141] Setting up label_data_1_split
I0908 13:01:39.862323 16147 net.cpp:148] Top shape: 10 1 1 1 (10)
I0908 13:01:39.862356 16147 net.cpp:148] Top shape: 10 1 1 1 (10)
I0908 13:01:39.862399 16147 net.cpp:156] Memory required for data: 6021240
I0908 13:01:39.862432 16147 layer_factory.hpp:77] Creating layer conv1_1
I0908 13:01:39.862516 16147 net.cpp:91] Creating Layer conv1_1
I0908 13:01:39.862555 16147 net.cpp:425] conv1_1 <- data
I0908 13:01:39.862594 16147 net.cpp:399] conv1_1 -> conv1_1
I0908 13:01:39.866578 16147 net.cpp:141] Setting up conv1_1
I0908 13:01:39.866657 16147 net.cpp:148] Top shape: 10 64 224 224 (32112640)
I0908 13:01:39.866695 16147 net.cpp:156] Memory required for data: 134471800
I0908 13:01:39.866760 16147 layer_factory.hpp:77] Creating layer relu1_1
I0908 13:01:39.866813 16147 net.cpp:91] Creating Layer relu1_1
I0908 13:01:39.866847 16147 net.cpp:425] relu1_1 <- conv1_1
I0908 13:01:39.866947 16147 net.cpp:386] relu1_1 -> conv1_1 (in-place)
I0908 13:01:39.866997 16147 net.cpp:141] Setting up relu1_1
I0908 13:01:39.867033 16147 net.cpp:148] Top shape: 10 64 224 224 (32112640)
I0908 13:01:39.867063 16147 net.cpp:156] Memory required for data: 262922360
I0908 13:01:39.867092 16147 layer_factory.hpp:77] Creating layer conv1_2
I0908 13:01:39.867148 16147 net.cpp:91] Creating Layer conv1_2
I0908 13:01:39.867182 16147 net.cpp:425] conv1_2 <- conv1_1
I0908 13:01:39.867225 16147 net.cpp:399] conv1_2 -> conv1_2
I0908 13:01:39.870543 16147 net.cpp:141] Setting up conv1_2
I0908 13:01:39.870609 16147 net.cpp:148] Top shape: 10 64 224 224 (32112640)
I0908 13:01:39.870641 16147 net.cpp:156] Memory required for data: 391372920
I0908 13:01:39.870684 16147 layer_factory.hpp:77] Creating layer relu1_2
I0908 13:01:39.870723 16147 net.cpp:91] Creating Layer relu1_2
I0908 13:01:39.870754 16147 net.cpp:425] relu1_2 <- conv1_2
I0908 13:01:39.870795 16147 net.cpp:386] relu1_2 -> conv1_2 (in-place)
I0908 13:01:39.870836 16147 net.cpp:141] Setting up relu1_2
I0908 13:01:39.870870 16147 net.cpp:148] Top shape: 10 64 224 224 (32112640)
I0908 13:01:39.870899 16147 net.cpp:156] Memory required for data: 519823480
I0908 13:01:39.870929 16147 layer_factory.hpp:77] Creating layer pool1
I0908 13:01:39.870967 16147 net.cpp:91] Creating Layer pool1
I0908 13:01:39.870996 16147 net.cpp:425] pool1 <- conv1_2
I0908 13:01:39.871038 16147 net.cpp:399] pool1 -> pool1
I0908 13:01:39.871187 16147 net.cpp:141] Setting up pool1
I0908 13:01:39.871237 16147 net.cpp:148] Top shape: 10 64 112 112 (8028160)
I0908 13:01:39.871266 16147 net.cpp:156] Memory required for data: 551936120
I0908 13:01:39.871296 16147 layer_factory.hpp:77] Creating layer conv2_1
I0908 13:01:39.871346 16147 net.cpp:91] Creating Layer conv2_1
I0908 13:01:39.871379 16147 net.cpp:425] conv2_1 <- pool1
I0908 13:01:39.871423 16147 net.cpp:399] conv2_1 -> conv2_1
I0908 13:01:39.879997 16147 net.cpp:141] Setting up conv2_1
I0908 13:01:39.880064 16147 net.cpp:148] Top shape: 10 128 112 112 (16056320)
I0908 13:01:39.880096 16147 net.cpp:156] Memory required for data: 616161400
I0908 13:01:39.880151 16147 layer_factory.hpp:77] Creating layer relu2_1
I0908 13:01:39.880194 16147 net.cpp:91] Creating Layer relu2_1
I0908 13:01:39.880228 16147 net.cpp:425] relu2_1 <- conv2_1
I0908 13:01:39.880262 16147 net.cpp:386] relu2_1 -> conv2_1 (in-place)
I0908 13:01:39.880302 16147 net.cpp:141] Setting up relu2_1
I0908 13:01:39.880337 16147 net.cpp:148] Top shape: 10 128 112 112 (16056320)
I0908 13:01:39.880367 16147 net.cpp:156] Memory required for data: 680386680
I0908 13:01:39.880396 16147 layer_factory.hpp:77] Creating layer conv2_2
I0908 13:01:39.880447 16147 net.cpp:91] Creating Layer conv2_2
I0908 13:01:39.880480 16147 net.cpp:425] conv2_2 <- conv2_1
I0908 13:01:39.880523 16147 net.cpp:399] conv2_2 -> conv2_2
I0908 13:01:39.892091 16147 net.cpp:141] Setting up conv2_2
I0908 13:01:39.892153 16147 net.cpp:148] Top shape: 10 128 112 112 (16056320)
I0908 13:01:39.892185 16147 net.cpp:156] Memory required for data: 744611960
I0908 13:01:39.892225 16147 layer_factory.hpp:77] Creating layer relu2_2
I0908 13:01:39.892261 16147 net.cpp:91] Creating Layer relu2_2
I0908 13:01:39.892292 16147 net.cpp:425] relu2_2 <- conv2_2
I0908 13:01:39.892335 16147 net.cpp:386] relu2_2 -> conv2_2 (in-place)
I0908 13:01:39.892376 16147 net.cpp:141] Setting up relu2_2
I0908 13:01:39.892412 16147 net.cpp:148] Top shape: 10 128 112 112 (16056320)
I0908 13:01:39.892442 16147 net.cpp:156] Memory required for data: 808837240
I0908 13:01:39.892472 16147 layer_factory.hpp:77] Creating layer pool2
I0908 13:01:39.892510 16147 net.cpp:91] Creating Layer pool2
I0908 13:01:39.892541 16147 net.cpp:425] pool2 <- conv2_2
I0908 13:01:39.892583 16147 net.cpp:399] pool2 -> pool2
I0908 13:01:39.892694 16147 net.cpp:141] Setting up pool2
I0908 13:01:39.892748 16147 net.cpp:148] Top shape: 10 128 56 56 (4014080)
I0908 13:01:39.892779 16147 net.cpp:156] Memory required for data: 824893560
I0908 13:01:39.892809 16147 layer_factory.hpp:77] Creating layer conv3_1
I0908 13:01:39.892906 16147 net.cpp:91] Creating Layer conv3_1
I0908 13:01:39.892940 16147 net.cpp:425] conv3_1 <- pool2
I0908 13:01:39.892987 16147 net.cpp:399] conv3_1 -> conv3_1
I0908 13:01:39.916924 16147 net.cpp:141] Setting up conv3_1
I0908 13:01:39.917003 16147 net.cpp:148] Top shape: 10 256 56 56 (8028160)
I0908 13:01:39.917037 16147 net.cpp:156] Memory required for data: 857006200
I0908 13:01:39.917093 16147 layer_factory.hpp:77] Creating layer relu3_1
I0908 13:01:39.917136 16147 net.cpp:91] Creating Layer relu3_1
I0908 13:01:39.917167 16147 net.cpp:425] relu3_1 <- conv3_1
I0908 13:01:39.917202 16147 net.cpp:386] relu3_1 -> conv3_1 (in-place)
I0908 13:01:39.917243 16147 net.cpp:141] Setting up relu3_1
I0908 13:01:39.917279 16147 net.cpp:148] Top shape: 10 256 56 56 (8028160)
I0908 13:01:39.917309 16147 net.cpp:156] Memory required for data: 889118840
I0908 13:01:39.917338 16147 layer_factory.hpp:77] Creating layer conv3_2
I0908 13:01:39.917388 16147 net.cpp:91] Creating Layer conv3_2
I0908 13:01:39.917421 16147 net.cpp:425] conv3_2 <- conv3_1
I0908 13:01:39.917464 16147 net.cpp:399] conv3_2 -> conv3_2
I0908 13:01:39.964481 16147 net.cpp:141] Setting up conv3_2
I0908 13:01:39.964545 16147 net.cpp:148] Top shape: 10 256 56 56 (8028160)
I0908 13:01:39.964576 16147 net.cpp:156] Memory required for data: 921231480
I0908 13:01:39.964615 16147 layer_factory.hpp:77] Creating layer relu3_2
I0908 13:01:39.964653 16147 net.cpp:91] Creating Layer relu3_2
I0908 13:01:39.964684 16147 net.cpp:425] relu3_2 <- conv3_2
I0908 13:01:39.964725 16147 net.cpp:386] relu3_2 -> conv3_2 (in-place)
I0908 13:01:39.964766 16147 net.cpp:141] Setting up relu3_2
I0908 13:01:39.964802 16147 net.cpp:148] Top shape: 10 256 56 56 (8028160)
I0908 13:01:39.964830 16147 net.cpp:156] Memory required for data: 953344120
I0908 13:01:39.964859 16147 layer_factory.hpp:77] Creating layer conv3_3
I0908 13:01:39.964915 16147 net.cpp:91] Creating Layer conv3_3
I0908 13:01:39.964948 16147 net.cpp:425] conv3_3 <- conv3_2
I0908 13:01:39.964987 16147 net.cpp:399] conv3_3 -> conv3_3
I0908 13:01:40.012101 16147 net.cpp:141] Setting up conv3_3
I0908 13:01:40.012166 16147 net.cpp:148] Top shape: 10 256 56 56 (8028160)
I0908 13:01:40.012198 16147 net.cpp:156] Memory required for data: 985456760
I0908 13:01:40.012238 16147 layer_factory.hpp:77] Creating layer relu3_3
I0908 13:01:40.012275 16147 net.cpp:91] Creating Layer relu3_3
I0908 13:01:40.012306 16147 net.cpp:425] relu3_3 <- conv3_3
I0908 13:01:40.012341 16147 net.cpp:386] relu3_3 -> conv3_3 (in-place)
I0908 13:01:40.012379 16147 net.cpp:141] Setting up relu3_3
I0908 13:01:40.012413 16147 net.cpp:148] Top shape: 10 256 56 56 (8028160)
I0908 13:01:40.012442 16147 net.cpp:156] Memory required for data: 1017569400
I0908 13:01:40.012471 16147 layer_factory.hpp:77] Creating layer pool3
I0908 13:01:40.012522 16147 net.cpp:91] Creating Layer pool3
I0908 13:01:40.012554 16147 net.cpp:425] pool3 <- conv3_3
I0908 13:01:40.012591 16147 net.cpp:399] pool3 -> pool3
I0908 13:01:40.012712 16147 net.cpp:141] Setting up pool3
I0908 13:01:40.012760 16147 net.cpp:148] Top shape: 10 256 28 28 (2007040)
I0908 13:01:40.012790 16147 net.cpp:156] Memory required for data: 1025597560
I0908 13:01:40.012820 16147 layer_factory.hpp:77] Creating layer conv4_1
I0908 13:01:40.012868 16147 net.cpp:91] Creating Layer conv4_1
I0908 13:01:40.012902 16147 net.cpp:425] conv4_1 <- pool3
I0908 13:01:40.012938 16147 net.cpp:399] conv4_1 -> conv4_1
I0908 13:01:40.107272 16147 net.cpp:141] Setting up conv4_1
I0908 13:01:40.107337 16147 net.cpp:148] Top shape: 10 512 28 28 (4014080)
I0908 13:01:40.107369 16147 net.cpp:156] Memory required for data: 1041653880
I0908 13:01:40.107408 16147 layer_factory.hpp:77] Creating layer relu4_1
I0908 13:01:40.107446 16147 net.cpp:91] Creating Layer relu4_1
I0908 13:01:40.107476 16147 net.cpp:425] relu4_1 <- conv4_1
I0908 13:01:40.107519 16147 net.cpp:386] relu4_1 -> conv4_1 (in-place)
I0908 13:01:40.107560 16147 net.cpp:141] Setting up relu4_1
I0908 13:01:40.107594 16147 net.cpp:148] Top shape: 10 512 28 28 (4014080)
I0908 13:01:40.107681 16147 net.cpp:156] Memory required for data: 1057710200
I0908 13:01:40.107714 16147 layer_factory.hpp:77] Creating layer conv4_2
I0908 13:01:40.107765 16147 net.cpp:91] Creating Layer conv4_2
I0908 13:01:40.107798 16147 net.cpp:425] conv4_2 <- conv4_1
I0908 13:01:40.107837 16147 net.cpp:399] conv4_2 -> conv4_2
I0908 13:01:40.293589 16147 net.cpp:141] Setting up conv4_2
I0908 13:01:40.293668 16147 net.cpp:148] Top shape: 10 512 28 28 (4014080)
I0908 13:01:40.293700 16147 net.cpp:156] Memory required for data: 1073766520
I0908 13:01:40.293752 16147 layer_factory.hpp:77] Creating layer relu4_2
I0908 13:01:40.293802 16147 net.cpp:91] Creating Layer relu4_2
I0908 13:01:40.293835 16147 net.cpp:425] relu4_2 <- conv4_2
I0908 13:01:40.293871 16147 net.cpp:386] relu4_2 -> conv4_2 (in-place)
I0908 13:01:40.293915 16147 net.cpp:141] Setting up relu4_2
I0908 13:01:40.293949 16147 net.cpp:148] Top shape: 10 512 28 28 (4014080)
I0908 13:01:40.293978 16147 net.cpp:156] Memory required for data: 1089822840
I0908 13:01:40.294008 16147 layer_factory.hpp:77] Creating layer conv4_3
I0908 13:01:40.294057 16147 net.cpp:91] Creating Layer conv4_3
I0908 13:01:40.294090 16147 net.cpp:425] conv4_3 <- conv4_2
I0908 13:01:40.294132 16147 net.cpp:399] conv4_3 -> conv4_3
I0908 13:01:40.480080 16147 net.cpp:141] Setting up conv4_3
I0908 13:01:40.480164 16147 net.cpp:148] Top shape: 10 512 28 28 (4014080)
I0908 13:01:40.480197 16147 net.cpp:156] Memory required for data: 1105879160
I0908 13:01:40.480237 16147 layer_factory.hpp:77] Creating layer relu4_3
I0908 13:01:40.480279 16147 net.cpp:91] Creating Layer relu4_3
I0908 13:01:40.480311 16147 net.cpp:425] relu4_3 <- conv4_3
I0908 13:01:40.480360 16147 net.cpp:386] relu4_3 -> conv4_3 (in-place)
I0908 13:01:40.480406 16147 net.cpp:141] Setting up relu4_3
I0908 13:01:40.480442 16147 net.cpp:148] Top shape: 10 512 28 28 (4014080)
I0908 13:01:40.480470 16147 net.cpp:156] Memory required for data: 1121935480
I0908 13:01:40.480499 16147 layer_factory.hpp:77] Creating layer pool4
I0908 13:01:40.480540 16147 net.cpp:91] Creating Layer pool4
I0908 13:01:40.480569 16147 net.cpp:425] pool4 <- conv4_3
I0908 13:01:40.480612 16147 net.cpp:399] pool4 -> pool4
I0908 13:01:40.480727 16147 net.cpp:141] Setting up pool4
I0908 13:01:40.480774 16147 net.cpp:148] Top shape: 10 512 14 14 (1003520)
I0908 13:01:40.480804 16147 net.cpp:156] Memory required for data: 1125949560
I0908 13:01:40.480834 16147 layer_factory.hpp:77] Creating layer conv5_1
I0908 13:01:40.480885 16147 net.cpp:91] Creating Layer conv5_1
I0908 13:01:40.480918 16147 net.cpp:425] conv5_1 <- pool4
I0908 13:01:40.480967 16147 net.cpp:399] conv5_1 -> conv5_1
I0908 13:01:40.581883 16147 net.cpp:141] Setting up conv5_1
I0908 13:01:40.581938 16147 net.cpp:148] Top shape: 10 512 14 14 (1003520)
I0908 13:01:40.581955 16147 net.cpp:156] Memory required for data: 1129963640
I0908 13:01:40.581977 16147 layer_factory.hpp:77] Creating layer relu5_1
I0908 13:01:40.582003 16147 net.cpp:91] Creating Layer relu5_1
I0908 13:01:40.582020 16147 net.cpp:425] relu5_1 <- conv5_1
I0908 13:01:40.582038 16147 net.cpp:386] relu5_1 -> conv5_1 (in-place)
I0908 13:01:40.582072 16147 net.cpp:141] Setting up relu5_1
I0908 13:01:40.582090 16147 net.cpp:148] Top shape: 10 512 14 14 (1003520)
I0908 13:01:40.582104 16147 net.cpp:156] Memory required for data: 1133977720
I0908 13:01:40.582119 16147 layer_factory.hpp:77] Creating layer conv5_2
I0908 13:01:40.582146 16147 net.cpp:91] Creating Layer conv5_2
I0908 13:01:40.582170 16147 net.cpp:425] conv5_2 <- conv5_1
I0908 13:01:40.582193 16147 net.cpp:399] conv5_2 -> conv5_2
I0908 13:01:40.669981 16147 net.cpp:141] Setting up conv5_2
I0908 13:01:40.670024 16147 net.cpp:148] Top shape: 10 512 14 14 (1003520)
I0908 13:01:40.670053 16147 net.cpp:156] Memory required for data: 1137991800
I0908 13:01:40.670073 16147 layer_factory.hpp:77] Creating layer relu5_2
I0908 13:01:40.670092 16147 net.cpp:91] Creating Layer relu5_2
I0908 13:01:40.670109 16147 net.cpp:425] relu5_2 <- conv5_2
I0908 13:01:40.670130 16147 net.cpp:386] relu5_2 -> conv5_2 (in-place)
I0908 13:01:40.670207 16147 net.cpp:141] Setting up relu5_2
I0908 13:01:40.670230 16147 net.cpp:148] Top shape: 10 512 14 14 (1003520)
I0908 13:01:40.670245 16147 net.cpp:156] Memory required for data: 1142005880
I0908 13:01:40.670259 16147 layer_factory.hpp:77] Creating layer conv5_3
I0908 13:01:40.670287 16147 net.cpp:91] Creating Layer conv5_3
I0908 13:01:40.670305 16147 net.cpp:425] conv5_3 <- conv5_2
I0908 13:01:40.670323 16147 net.cpp:399] conv5_3 -> conv5_3
I0908 13:01:40.758371 16147 net.cpp:141] Setting up conv5_3
I0908 13:01:40.758427 16147 net.cpp:148] Top shape: 10 512 14 14 (1003520)
I0908 13:01:40.758445 16147 net.cpp:156] Memory required for data: 1146019960
I0908 13:01:40.758466 16147 layer_factory.hpp:77] Creating layer relu5_3
I0908 13:01:40.758486 16147 net.cpp:91] Creating Layer relu5_3
I0908 13:01:40.758503 16147 net.cpp:425] relu5_3 <- conv5_3
I0908 13:01:40.758522 16147 net.cpp:386] relu5_3 -> conv5_3 (in-place)
I0908 13:01:40.758555 16147 net.cpp:141] Setting up relu5_3
I0908 13:01:40.758572 16147 net.cpp:148] Top shape: 10 512 14 14 (1003520)
I0908 13:01:40.758587 16147 net.cpp:156] Memory required for data: 1150034040
I0908 13:01:40.758602 16147 layer_factory.hpp:77] Creating layer pool5
I0908 13:01:40.758635 16147 net.cpp:91] Creating Layer pool5
I0908 13:01:40.758659 16147 net.cpp:425] pool5 <- conv5_3
I0908 13:01:40.758678 16147 net.cpp:399] pool5 -> pool5
I0908 13:01:40.758749 16147 net.cpp:141] Setting up pool5
I0908 13:01:40.758774 16147 net.cpp:148] Top shape: 10 512 7 7 (250880)
I0908 13:01:40.758788 16147 net.cpp:156] Memory required for data: 1151037560
I0908 13:01:40.758803 16147 layer_factory.hpp:77] Creating layer fc6
I0908 13:01:40.758841 16147 net.cpp:91] Creating Layer fc6
I0908 13:01:40.758859 16147 net.cpp:425] fc6 <- pool5
I0908 13:01:40.758877 16147 net.cpp:399] fc6 -> fc6
I0908 13:01:44.607100 16147 net.cpp:141] Setting up fc6
I0908 13:01:44.607208 16147 net.cpp:148] Top shape: 10 4096 (40960)
I0908 13:01:44.607242 16147 net.cpp:156] Memory required for data: 1151201400
I0908 13:01:44.607290 16147 layer_factory.hpp:77] Creating layer relu6
I0908 13:01:44.607347 16147 net.cpp:91] Creating Layer relu6
I0908 13:01:44.607404 16147 net.cpp:425] relu6 <- fc6
I0908 13:01:44.607436 16147 net.cpp:386] relu6 -> fc6 (in-place)
I0908 13:01:44.607465 16147 net.cpp:141] Setting up relu6
I0908 13:01:44.607483 16147 net.cpp:148] Top shape: 10 4096 (40960)
I0908 13:01:44.607498 16147 net.cpp:156] Memory required for data: 1151365240
I0908 13:01:44.607513 16147 layer_factory.hpp:77] Creating layer drop6
I0908 13:01:44.607540 16147 net.cpp:91] Creating Layer drop6
I0908 13:01:44.607563 16147 net.cpp:425] drop6 <- fc6
I0908 13:01:44.607590 16147 net.cpp:386] drop6 -> fc6 (in-place)
I0908 13:01:44.607676 16147 net.cpp:141] Setting up drop6
I0908 13:01:44.607699 16147 net.cpp:148] Top shape: 10 4096 (40960)
I0908 13:01:44.607714 16147 net.cpp:156] Memory required for data: 1151529080
I0908 13:01:44.607729 16147 layer_factory.hpp:77] Creating layer fc7
I0908 13:01:44.607754 16147 net.cpp:91] Creating Layer fc7
I0908 13:01:44.607770 16147 net.cpp:425] fc7 <- fc6
I0908 13:01:44.607795 16147 net.cpp:399] fc7 -> fc7
I0908 13:01:45.235826 16147 net.cpp:141] Setting up fc7
I0908 13:01:45.235913 16147 net.cpp:148] Top shape: 10 4096 (40960)
I0908 13:01:45.235930 16147 net.cpp:156] Memory required for data: 1151692920
I0908 13:01:45.235955 16147 layer_factory.hpp:77] Creating layer relu7
I0908 13:01:45.235991 16147 net.cpp:91] Creating Layer relu7
I0908 13:01:45.236009 16147 net.cpp:425] relu7 <- fc7
I0908 13:01:45.236029 16147 net.cpp:386] relu7 -> fc7 (in-place)
I0908 13:01:45.236068 16147 net.cpp:141] Setting up relu7
I0908 13:01:45.236086 16147 net.cpp:148] Top shape: 10 4096 (40960)
I0908 13:01:45.236101 16147 net.cpp:156] Memory required for data: 1151856760
I0908 13:01:45.236116 16147 layer_factory.hpp:77] Creating layer drop7
I0908 13:01:45.236145 16147 net.cpp:91] Creating Layer drop7
I0908 13:01:45.236172 16147 net.cpp:425] drop7 <- fc7
I0908 13:01:45.236191 16147 net.cpp:386] drop7 -> fc7 (in-place)
I0908 13:01:45.236280 16147 net.cpp:141] Setting up drop7
I0908 13:01:45.236304 16147 net.cpp:148] Top shape: 10 4096 (40960)
I0908 13:01:45.236318 16147 net.cpp:156] Memory required for data: 1152020600
I0908 13:01:45.236333 16147 layer_factory.hpp:77] Creating layer fc7_drop7_0_split
I0908 13:01:45.236352 16147 net.cpp:91] Creating Layer fc7_drop7_0_split
I0908 13:01:45.236366 16147 net.cpp:425] fc7_drop7_0_split <- fc7
I0908 13:01:45.236387 16147 net.cpp:399] fc7_drop7_0_split -> fc7_drop7_0_split_0
I0908 13:01:45.236408 16147 net.cpp:399] fc7_drop7_0_split -> fc7_drop7_0_split_1
I0908 13:01:45.236461 16147 net.cpp:141] Setting up fc7_drop7_0_split
I0908 13:01:45.236485 16147 net.cpp:148] Top shape: 10 4096 (40960)
I0908 13:01:45.236502 16147 net.cpp:148] Top shape: 10 4096 (40960)
I0908 13:01:45.236517 16147 net.cpp:156] Memory required for data: 1152348280
I0908 13:01:45.236532 16147 layer_factory.hpp:77] Creating layer fc8_binary_f48
I0908 13:01:45.236557 16147 net.cpp:91] Creating Layer fc8_binary_f48
I0908 13:01:45.236573 16147 net.cpp:425] fc8_binary_f48 <- fc7_drop7_0_split_0
I0908 13:01:45.236591 16147 net.cpp:399] fc8_binary_f48 -> fc8_binary_f48
I0908 13:01:45.244670 16147 net.cpp:141] Setting up fc8_binary_f48
I0908 13:01:45.244712 16147 net.cpp:148] Top shape: 10 48 (480)
I0908 13:01:45.244729 16147 net.cpp:156] Memory required for data: 1152350200
I0908 13:01:45.244748 16147 layer_factory.hpp:77] Creating layer fc8_classification
I0908 13:01:45.244781 16147 net.cpp:91] Creating Layer fc8_classification
I0908 13:01:45.244798 16147 net.cpp:425] fc8_classification <- fc7_drop7_0_split_1
I0908 13:01:45.244817 16147 net.cpp:399] fc8_classification -> fc8_classification
I0908 13:01:45.250066 16147 net.cpp:141] Setting up fc8_classification
I0908 13:01:45.250128 16147 net.cpp:148] Top shape: 10 25 (250)
I0908 13:01:45.250145 16147 net.cpp:156] Memory required for data: 1152351200
I0908 13:01:45.250205 16147 layer_factory.hpp:77] Creating layer loss_hashing
I0908 13:01:45.250243 16147 net.cpp:91] Creating Layer loss_hashing
I0908 13:01:45.250267 16147 net.cpp:425] loss_hashing <- fc8_binary_f48
I0908 13:01:45.250288 16147 net.cpp:425] loss_hashing <- label_data_1_split_0
I0908 13:01:45.250310 16147 net.cpp:399] loss_hashing -> loss_hashing
…
I0908 13:01:45.253262 16147 net.cpp:313] The NetState phase (1) differed from the phase (0) specified by a rule in layer data
I0908 13:01:45.253679 16147 net.cpp:49] Initializing net from parameters: 
name: "docomo_VGG16"
state {
  phase: TEST
}
layer {
  name: "data"
  type: "Data"
  top: "data"
  top: "label"
  include {
    phase: TEST
  }
  transform_param {
    mirror: false
    crop_size: 224
    mean_value: 103.939
    mean_value: 116.779
    mean_value: 123.68
  }
  data_param {
    source: "FASHION/fashion_val_lmdb/"
    batch_size: 10
    backend: LMDB
  }
}
layer {
  name: "conv1_1"
  type: "Convolution"
  bottom: "data"
  top: "conv1_1"
  param {
    lr_mult: 1
    decay_mult: 1
  }
  param {
    lr_mult: 2
    decay_mult: 0
  }
  convolution_param {
    num_output: 64
    pad: 1
    kernel_size: 3
    weight_filler {
      type: "gaussian"
      std: 0.01
    }
    bias_filler {
      type: "constant"
      value: 0
    }
  }
}
layer {
  name: "relu1_1"
  type: "ReLU"
  bottom: "conv1_1"
  top: "conv1_1"
}
layer {
  name: "conv1_2"
  type: "Convolution"
  bottom: "conv1_1"
  top: "conv1_2"
  param {
    lr_mult: 1
    decay_mult: 1
  }
  param {
    lr_mult: 2
    decay_mult: 0
  }
  convolution_param {
    num_output: 64
    pad: 1
    kernel_size: 3
    weight_filler {
      type: "gaussian"
      std: 0.01
    }
    bias_filler {
      type: "constant"
      value: 0
    }
  }
}
layer {
  name: "relu1_2"
  type: "ReLU"
  bottom: "conv1_2"
  top: "conv1_2"
}
layer {
  name: "pool1"
  type: "Pooling"
  bottom: "conv1_2"
  top: "pool1"
  pooling_param {
    pool: MAX
    kernel_size: 2
    stride: 2
  }
}
layer {
  name: "conv2_1"
  type: "Convolution"
  bottom: "pool1"
  top: "conv2_1"
  param {
    lr_mult: 1
    decay_mult: 1
  }
  param {
    lr_mult: 2
    decay_mult: 0
  }
  convolution_param {
    num_output: 128
    pad: 1
    kernel_size: 3
    weight_filler {
      type: "gaussian"
      std: 0.01
    }
    bias_filler {
      type: "constant"
      value: 0
    }
  }
}
layer {
  name: "relu2_1"
  type: "ReLU"
  bottom: "conv2_1"
  top: "conv2_1"
}
layer {
  name: "conv2_2"
  type: "Convolution"
  bottom: "conv2_1"
  top: "conv2_2"
  param {
    lr_mult: 1
    decay_mult: 1
  }
  param {
    lr_mult: 2
    decay_mult: 0
  }
  convolution_param {
    num_output: 128
    pad: 1
    kernel_size: 3
    weight_filler {
      type: "gaussian"
      std: 0.01
    }
    bias_filler {
      type: "constant"
      value: 0
    }
  }
}
layer {
  name: "relu2_2"
  type: "ReLU"
  bottom: "conv2_2"
  top: "conv2_2"
}
layer {
  name: "pool2"
  type: "Pooling"
  bottom: "conv2_2"
  top: "pool2"
  pooling_param {
    pool: MAX
    kernel_size: 2
    stride: 2
  }
}
layer {
  name: "conv3_1"
  type: "Convolution"
  bottom: "pool2"
  top: "conv3_1"
  param {
    lr_mult: 1
    decay_mult: 1
  }
  param {
    lr_mult: 2
    decay_mult: 0
  }
  convolution_param {
    num_output: 256
    pad: 1
    kernel_size: 3
    weight_filler {
      type: "gaussian"
      std: 0.01
    }
    bias_filler {
      type: "constant"
      value: 0
    }
  }
}
layer {
  name: "relu3_1"
  type: "ReLU"
  bottom: "conv3_1"
  top: "conv3_1"
}
layer {
  name: "conv3_2"
  type: "Convolution"
  bottom: "conv3_1"
  top: "conv3_2"
  param {
    lr_mult: 1
    decay_mult: 1
  }
  param {
    lr_mult: 2
    decay_mult: 0
  }
  convolution_param {
    num_output: 256
    pad: 1
    kernel_size: 3
    weight_filler {
      type: "gaussian"
      std: 0.01
    }
    bias_filler {
      type: "constant"
      value: 0
    }
  }
}
layer {
  name: "relu3_2"
  type: "ReLU"
  bottom: "conv3_2"
  top: "conv3_2"
}
layer {
  name: "conv3_3"
  type: "Convolution"
  bottom: "conv3_2"
  top: "conv3_3"
  param {
    lr_mult: 1
    decay_mult: 1
  }
  param {
    lr_mult: 2
    decay_mult: 0
  }
  convolution_param {
    num_output: 256
    pad: 1
    kernel_size: 3
    weight_filler {
      type: "gaussian"
      std: 0.01
    }
    bias_filler {
      type: "constant"
      value: 0
    }
  }
}
layer {
  name: "relu3_3"
  type: "ReLU"
  bottom: "conv3_3"
  top: "conv3_3"
}
layer {
  name: "pool3"
  type: "Pooling"
  bottom: "conv3_3"
  top: "pool3"
  pooling_param {
    pool: MAX
    kernel_size: 2
    stride: 2
  }
}
layer {
  name: "conv4_1"
  type: "Convolution"
  bottom: "pool3"
  top: "conv4_1"
  param {
    lr_mult: 1
    decay_mult: 1
  }
  param {
    lr_mult: 2
    decay_mult: 0
  }
  convolution_param {
    num_output: 512
    pad: 1
    kernel_size: 3
    weight_filler {
      type: "gaussian"
      std: 0.01
    }
    bias_filler {
      type: "constant"
      value: 0
    }
  }
}
layer {
  name: "relu4_1"
  type: "ReLU"
  bottom: "conv4_1"
  top: "conv4_1"
}
layer {
  name: "conv4_2"
  type: "Convolution"
  bottom: "conv4_1"
  top: "conv4_2"
  param {
    lr_mult: 1
    decay_mult: 1
  }
  param {
    lr_mult: 2
    decay_mult: 0
  }
  convolution_param {
    num_output: 512
    pad: 1
    kernel_size: 3
    weight_filler {
      type: "gaussian"
      std: 0.01
    }
    bias_filler {
      type: "constant"
      value: 0
    }
  }
}
layer {
  name: "relu4_2"
  type: "ReLU"
  bottom: "conv4_2"
  top: "conv4_2"
}
layer {
  name: "conv4_3"
  type: "Convolution"
  bottom: "conv4_2"
  top: "conv4_3"
  param {
    lr_mult: 1
    decay_mult: 1
  }
  param {
    lr_mult: 2
    decay_mult: 0
  }
  convolution_param {
    num_output: 512
    pad: 1
    kernel_size: 3
    weight_filler {
      type: "gaussian"
      std: 0.01
    }
    bias_filler {
      type: "constant"
      value: 0
    }
  }
}
layer {
  name: "relu4_3"
  type: "ReLU"
  bottom: "conv4_3"
  top: "conv4_3"
}
layer {
  name: "pool4"
  type: "Pooling"
  bottom: "conv4_3"
  top: "pool4"
  pooling_param {
    pool: MAX
    kernel_size: 2
    stride: 2
  }
}
layer {
  name: "conv5_1"
  type: "Convolution"
  bottom: "pool4"
  top: "conv5_1"
  param {
    lr_mult: 1
    decay_mult: 1
  }
  param {
    lr_mult: 2
    decay_mult: 0
  }
  convolution_param {
    num_output: 512
    pad: 1
    kernel_size: 3
    weight_filler {
      type: "gaussian"
      std: 0.01
    }
    bias_filler {
      type: "constant"
      value: 0
    }
  }
}
layer {
  name: "relu5_1"
  type: "ReLU"
  bottom: "conv5_1"
  top: "conv5_1"
}
layer {
  name: "conv5_2"
  type: "Convolution"
  bottom: "conv5_1"
  top: "conv5_2"
  param {
    lr_mult: 1
    decay_mult: 1
  }
  param {
    lr_mult: 2
    decay_mult: 0
  }
  convolution_param {
    num_output: 512
    pad: 1
    kernel_size: 3
    weight_filler {
      type: "gaussian"
      std: 0.01
    }
    bias_filler {
      type: "constant"
      value: 0
    }
  }
}
layer {
  name: "relu5_2"
  type: "ReLU"
  bottom: "conv5_2"
  top: "conv5_2"
}
layer {
  name: "conv5_3"
  type: "Convolution"
  bottom: "conv5_2"
  top: "conv5_3"
  param {
    lr_mult: 1
    decay_mult: 1
  }
  param {
    lr_mult: 2
    decay_mult: 0
  }
  convolution_param {
    num_output: 512
    pad: 1
    kernel_size: 3
    weight_filler {
      type: "gaussian"
      std: 0.01
    }
    bias_filler {
      type: "constant"
      value: 0
    }
  }
}
layer {
  name: "relu5_3"
  type: "ReLU"
  bottom: "conv5_3"
  top: "conv5_3"
}
layer {
  name: "pool5"
  type: "Pooling"
  bottom: "conv5_3"
  top: "pool5"
  pooling_param {
    pool: MAX
    kernel_size: 2
    stride: 2
  }
}
layer {
  name: "fc6"
  type: "InnerProduct"
  bottom: "pool5"
  top: "fc6"
  param {
    lr_mult: 1
    decay_mult: 1
  }
  param {
    lr_mult: 2
    decay_mult: 0
  }
  inner_product_param {
    num_output: 4096
    weight_filler {
      type: "gaussian"
      std: 0.005
    }
    bias_filler {
      type: "constant"
      value: 0.1
    }
  }
}
layer {
  name: "relu6"
  type: "ReLU"
  bottom: "fc6"
  top: "fc6"
}
layer {
  name: "drop6"
  type: "Dropout"
  bottom: "fc6"
  top: "fc6"
  dropout_param {
    dropout_ratio: 0.5
  }
}
layer {
  name: "fc7"
  type: "InnerProduct"
  bottom: "fc6"
  top: "fc7"
  param {
    lr_mult: 1
    decay_mult: 1
  }
  param {
    lr_mult: 2
    decay_mult: 0
  }
  inner_product_param {
    num_output: 4096
    weight_filler {
      type: "gaussian"
      std: 0.005
    }
    bias_filler {
      type: "constant"
      value: 0.1
    }
  }
}
layer {
  name: "relu7"
  type: "ReLU"
  bottom: "fc7"
  top: "fc7"
}
layer {
  name: "drop7"
  type: "Dropout"
  bottom: "fc7"
  top: "fc7"
  dropout_param {
    dropout_ratio: 0.5
  }
}
layer {
  name: "fc8_binary_f48"
  type: "InnerProduct"
  bottom: "fc7"
  top: "fc8_binary_f48"
  param {
    lr_mult: 10
    decay_mult: 1
  }
  param {
    lr_mult: 20
    decay_mult: 0
  }
  inner_product_param {
    num_output: 48
    weight_filler {
      type: "gaussian"
      std: 0.005
    }
    bias_filler {
      type: "constant"
      value: 0.1
    }
  }
}
layer {
  name: "fc8_classification"
  type: "InnerProduct"
  bottom: "fc7"
  top: "fc8_classification"
  param {
    lr_mult: 1
    decay_mult: 1
  }
  param {
    lr_mult: 2
    decay_mult: 0
  }
  inner_product_param {
    num_output: 25
    weight_filler {
      type: "gaussian"
      std: 0.05
    }
    bias_filler {
      type: "constant"
      value: 0.1
    }
  }
}
layer {
  name: "accuracy_at_1"
  type: "Accuracy"
  bottom: "fc8_classification"
  bottom: "label"
  top: "accuracy_at_1"
  include {
    phase: TEST
  }
  accuracy_param {
    top_k: 1
  }
}
layer {
  name: "loss_hashing"
  type: "HashingLoss"
  bottom: "fc8_binary_f48"
  bottom: "label"
  top: "loss_hashing"
  loss_weight: 0.8
  hashing_loss_param {
    bi_margin: 96
    tradeoff: 0.01
  }
}
layer {
  name: "loss_classification"
  type: "SoftmaxWithLoss"
  bottom: "fc8_classification"
  bottom: "label"
  top: "loss_classification"
}
I0908 13:01:45.256455 16147 layer_factory.hpp:77] Creating layer data
I0908 13:01:45.256588 16147 net.cpp:91] Creating Layer data
I0908 13:01:45.256616 16147 net.cpp:399] data -> data
I0908 13:01:45.256646 16147 net.cpp:399] data -> label
I0908 13:01:45.257882 16160 db_lmdb.cpp:38] Opened lmdb FASHION/fashion_val_lmdb/
I0908 13:01:45.258411 16147 data_layer.cpp:41] output data size: 10,3,224,224
I0908 13:01:45.273695 16147 net.cpp:141] Setting up data
I0908 13:01:45.273769 16147 net.cpp:148] Top shape: 10 3 224 224 (1505280)
I0908 13:01:45.273789 16147 net.cpp:148] Top shape: 10 1 1 1 (10)
I0908 13:01:45.273805 16147 net.cpp:156] Memory required for data: 6021160
I0908 13:01:45.273825 16147 layer_factory.hpp:77] Creating layer label_data_1_split
I0908 13:01:45.273864 16147 net.cpp:91] Creating Layer label_data_1_split
I0908 13:01:45.273882 16147 net.cpp:425] label_data_1_split <- label
I0908 13:01:45.273911 16147 net.cpp:399] label_data_1_split -> label_data_1_split_0
I0908 13:01:45.273942 16147 net.cpp:399] label_data_1_split -> label_data_1_split_1
I0908 13:01:45.273963 16147 net.cpp:399] label_data_1_split -> label_data_1_split_2
I0908 13:01:45.274060 16147 net.cpp:141] Setting up label_data_1_split
I0908 13:01:45.274085 16147 net.cpp:148] Top shape: 10 1 1 1 (10)
I0908 13:01:45.274102 16147 net.cpp:148] Top shape: 10 1 1 1 (10)
I0908 13:01:45.274121 16147 net.cpp:148] Top shape: 10 1 1 1 (10)
I0908 13:01:45.274137 16147 net.cpp:156] Memory required for data: 6021280
I0908 13:01:45.274152 16147 layer_factory.hpp:77] Creating layer conv1_1
I0908 13:01:45.274199 16147 net.cpp:91] Creating Layer conv1_1
I0908 13:01:45.274219 16147 net.cpp:425] conv1_1 <- data
I0908 13:01:45.274240 16147 net.cpp:399] conv1_1 -> conv1_1
I0908 13:01:45.274724 16147 net.cpp:141] Setting up conv1_1
I0908 13:01:45.274755 16147 net.cpp:148] Top shape: 10 64 224 224 (32112640)
I0908 13:01:45.274780 16147 net.cpp:156] Memory required for data: 134471840
I0908 13:01:45.274806 16147 layer_factory.hpp:77] Creating layer relu1_1
I0908 13:01:45.274827 16147 net.cpp:91] Creating Layer relu1_1
I0908 13:01:45.274844 16147 net.cpp:425] relu1_1 <- conv1_1
I0908 13:01:45.274868 16147 net.cpp:386] relu1_1 -> conv1_1 (in-place)
I0908 13:01:45.274889 16147 net.cpp:141] Setting up relu1_1
I0908 13:01:45.274907 16147 net.cpp:148] Top shape: 10 64 224 224 (32112640)
I0908 13:01:45.274924 16147 net.cpp:156] Memory required for data: 262922400
I0908 13:01:45.274943 16147 layer_factory.hpp:77] Creating layer conv1_2
I0908 13:01:45.274972 16147 net.cpp:91] Creating Layer conv1_2
I0908 13:01:45.274991 16147 net.cpp:425] conv1_2 <- conv1_1
I0908 13:01:45.275012 16147 net.cpp:399] conv1_2 -> conv1_2
I0908 13:01:45.277976 16147 net.cpp:141] Setting up conv1_2
I0908 13:01:45.278018 16147 net.cpp:148] Top shape: 10 64 224 224 (32112640)
I0908 13:01:45.278038 16147 net.cpp:156] Memory required for data: 391372960
I0908 13:01:45.278062 16147 layer_factory.hpp:77] Creating layer relu1_2
I0908 13:01:45.278084 16147 net.cpp:91] Creating Layer relu1_2
I0908 13:01:45.278102 16147 net.cpp:425] relu1_2 <- conv1_2
I0908 13:01:45.278126 16147 net.cpp:386] relu1_2 -> conv1_2 (in-place)
I0908 13:01:45.278148 16147 net.cpp:141] Setting up relu1_2
I0908 13:01:45.278167 16147 net.cpp:148] Top shape: 10 64 224 224 (32112640)
I0908 13:01:45.278184 16147 net.cpp:156] Memory required for data: 519823520
I0908 13:01:45.278200 16147 layer_factory.hpp:77] Creating layer pool1
I0908 13:01:45.278223 16147 net.cpp:91] Creating Layer pool1
I0908 13:01:45.278239 16147 net.cpp:425] pool1 <- conv1_2
I0908 13:01:45.278261 16147 net.cpp:399] pool1 -> pool1
I0908 13:01:45.278374 16147 net.cpp:141] Setting up pool1
I0908 13:01:45.278400 16147 net.cpp:148] Top shape: 10 64 112 112 (8028160)
I0908 13:01:45.278417 16147 net.cpp:156] Memory required for data: 551936160
I0908 13:01:45.278434 16147 layer_factory.hpp:77] Creating layer conv2_1
I0908 13:01:45.278461 16147 net.cpp:91] Creating Layer conv2_1
I0908 13:01:45.278479 16147 net.cpp:425] conv2_1 <- pool1
I0908 13:01:45.278503 16147 net.cpp:399] conv2_1 -> conv2_1
I0908 13:01:45.281570 16147 net.cpp:141] Setting up conv2_1
I0908 13:01:45.281599 16147 net.cpp:148] Top shape: 10 128 112 112 (16056320)
I0908 13:01:45.281615 16147 net.cpp:156] Memory required for data: 616161440
I0908 13:01:45.281639 16147 layer_factory.hpp:77] Creating layer relu2_1
I0908 13:01:45.281661 16147 net.cpp:91] Creating Layer relu2_1
I0908 13:01:45.281679 16147 net.cpp:425] relu2_1 <- conv2_1
I0908 13:01:45.281697 16147 net.cpp:386] relu2_1 -> conv2_1 (in-place)
I0908 13:01:45.281718 16147 net.cpp:141] Setting up relu2_1
I0908 13:01:45.281736 16147 net.cpp:148] Top shape: 10 128 112 112 (16056320)
I0908 13:01:45.281752 16147 net.cpp:156] Memory required for data: 680386720
I0908 13:01:45.281769 16147 layer_factory.hpp:77] Creating layer conv2_2
I0908 13:01:45.281795 16147 net.cpp:91] Creating Layer conv2_2
I0908 13:01:45.281814 16147 net.cpp:425] conv2_2 <- conv2_1
I0908 13:01:45.281837 16147 net.cpp:399] conv2_2 -> conv2_2
I0908 13:01:45.288455 16147 net.cpp:141] Setting up conv2_2
I0908 13:01:45.288489 16147 net.cpp:148] Top shape: 10 128 112 112 (16056320)
I0908 13:01:45.288511 16147 net.cpp:156] Memory required for data: 744612000
I0908 13:01:45.288532 16147 layer_factory.hpp:77] Creating layer relu2_2
I0908 13:01:45.288558 16147 net.cpp:91] Creating Layer relu2_2
I0908 13:01:45.288576 16147 net.cpp:425] relu2_2 <- conv2_2
I0908 13:01:45.288595 16147 net.cpp:386] relu2_2 -> conv2_2 (in-place)
I0908 13:01:45.288616 16147 net.cpp:141] Setting up relu2_2
I0908 13:01:45.288635 16147 net.cpp:148] Top shape: 10 128 112 112 (16056320)
I0908 13:01:45.288651 16147 net.cpp:156] Memory required for data: 808837280
I0908 13:01:45.288667 16147 layer_factory.hpp:77] Creating layer pool2
I0908 13:01:45.288687 16147 net.cpp:91] Creating Layer pool2
I0908 13:01:45.288704 16147 net.cpp:425] pool2 <- conv2_2
I0908 13:01:45.288727 16147 net.cpp:399] pool2 -> pool2
I0908 13:01:45.288791 16147 net.cpp:141] Setting up pool2
I0908 13:01:45.288815 16147 net.cpp:148] Top shape: 10 128 56 56 (4014080)
I0908 13:01:45.288831 16147 net.cpp:156] Memory required for data: 824893600
I0908 13:01:45.288849 16147 layer_factory.hpp:77] Creating layer conv3_1
I0908 13:01:45.288880 16147 net.cpp:91] Creating Layer conv3_1
I0908 13:01:45.288899 16147 net.cpp:425] conv3_1 <- pool2
I0908 13:01:45.288920 16147 net.cpp:399] conv3_1 -> conv3_1
I0908 13:01:45.301066 16147 net.cpp:141] Setting up conv3_1
I0908 13:01:45.301112 16147 net.cpp:148] Top shape: 10 256 56 56 (8028160)
I0908 13:01:45.301131 16147 net.cpp:156] Memory required for data: 857006240
I0908 13:01:45.301161 16147 layer_factory.hpp:77] Creating layer relu3_1
I0908 13:01:45.301182 16147 net.cpp:91] Creating Layer relu3_1
I0908 13:01:45.301214 16147 net.cpp:425] relu3_1 <- conv3_1
I0908 13:01:45.301234 16147 net.cpp:386] relu3_1 -> conv3_1 (in-place)
I0908 13:01:45.301257 16147 net.cpp:141] Setting up relu3_1
I0908 13:01:45.301276 16147 net.cpp:148] Top shape: 10 256 56 56 (8028160)
I0908 13:01:45.301292 16147 net.cpp:156] Memory required for data: 889118880
I0908 13:01:45.301308 16147 layer_factory.hpp:77] Creating layer conv3_2
I0908 13:01:45.301337 16147 net.cpp:91] Creating Layer conv3_2
I0908 13:01:45.301355 16147 net.cpp:425] conv3_2 <- conv3_1
I0908 13:01:45.301379 16147 net.cpp:399] conv3_2 -> conv3_2
I0908 13:01:45.324436 16147 net.cpp:141] Setting up conv3_2
I0908 13:01:45.324468 16147 net.cpp:148] Top shape: 10 256 56 56 (8028160)
I0908 13:01:45.324486 16147 net.cpp:156] Memory required for data: 921231520
I0908 13:01:45.324506 16147 layer_factory.hpp:77] Creating layer relu3_2
I0908 13:01:45.324560 16147 net.cpp:91] Creating Layer relu3_2
I0908 13:01:45.324579 16147 net.cpp:425] relu3_2 <- conv3_2
I0908 13:01:45.324599 16147 net.cpp:386] relu3_2 -> conv3_2 (in-place)
I0908 13:01:45.324621 16147 net.cpp:141] Setting up relu3_2
I0908 13:01:45.324640 16147 net.cpp:148] Top shape: 10 256 56 56 (8028160)
I0908 13:01:45.324656 16147 net.cpp:156] Memory required for data: 953344160
I0908 13:01:45.324671 16147 layer_factory.hpp:77] Creating layer conv3_3
I0908 13:01:45.324700 16147 net.cpp:91] Creating Layer conv3_3
I0908 13:01:45.324717 16147 net.cpp:425] conv3_3 <- conv3_2
I0908 13:01:45.324740 16147 net.cpp:399] conv3_3 -> conv3_3
I0908 13:01:45.347690 16147 net.cpp:141] Setting up conv3_3
I0908 13:01:45.347721 16147 net.cpp:148] Top shape: 10 256 56 56 (8028160)
I0908 13:01:45.347738 16147 net.cpp:156] Memory required for data: 985456800
I0908 13:01:45.347757 16147 layer_factory.hpp:77] Creating layer relu3_3
I0908 13:01:45.347777 16147 net.cpp:91] Creating Layer relu3_3
I0908 13:01:45.347793 16147 net.cpp:425] relu3_3 <- conv3_3
I0908 13:01:45.347811 16147 net.cpp:386] relu3_3 -> conv3_3 (in-place)
I0908 13:01:45.347836 16147 net.cpp:141] Setting up relu3_3
I0908 13:01:45.347856 16147 net.cpp:148] Top shape: 10 256 56 56 (8028160)
I0908 13:01:45.347870 16147 net.cpp:156] Memory required for data: 1017569440
I0908 13:01:45.347885 16147 layer_factory.hpp:77] Creating layer pool3
I0908 13:01:45.347906 16147 net.cpp:91] Creating Layer pool3
I0908 13:01:45.347921 16147 net.cpp:425] pool3 <- conv3_3
I0908 13:01:45.347940 16147 net.cpp:399] pool3 -> pool3
I0908 13:01:45.348003 16147 net.cpp:141] Setting up pool3
I0908 13:01:45.348026 16147 net.cpp:148] Top shape: 10 256 28 28 (2007040)
I0908 13:01:45.348042 16147 net.cpp:156] Memory required for data: 1025597600
I0908 13:01:45.348057 16147 layer_factory.hpp:77] Creating layer conv4_1
I0908 13:01:45.348083 16147 net.cpp:91] Creating Layer conv4_1
I0908 13:01:45.348101 16147 net.cpp:425] conv4_1 <- pool3
I0908 13:01:45.348124 16147 net.cpp:399] conv4_1 -> conv4_1
I0908 13:01:45.393575 16147 net.cpp:141] Setting up conv4_1
I0908 13:01:45.393606 16147 net.cpp:148] Top shape: 10 512 28 28 (4014080)
I0908 13:01:45.393627 16147 net.cpp:156] Memory required for data: 1041653920
I0908 13:01:45.393647 16147 layer_factory.hpp:77] Creating layer relu4_1
I0908 13:01:45.393671 16147 net.cpp:91] Creating Layer relu4_1
I0908 13:01:45.393689 16147 net.cpp:425] relu4_1 <- conv4_1
I0908 13:01:45.393707 16147 net.cpp:386] relu4_1 -> conv4_1 (in-place)
I0908 13:01:45.393728 16147 net.cpp:141] Setting up relu4_1
I0908 13:01:45.393745 16147 net.cpp:148] Top shape: 10 512 28 28 (4014080)
I0908 13:01:45.393760 16147 net.cpp:156] Memory required for data: 1057710240
I0908 13:01:45.393776 16147 layer_factory.hpp:77] Creating layer conv4_2
I0908 13:01:45.393803 16147 net.cpp:91] Creating Layer conv4_2
I0908 13:01:45.393821 16147 net.cpp:425] conv4_2 <- conv4_1
I0908 13:01:45.393842 16147 net.cpp:399] conv4_2 -> conv4_2
I0908 13:01:45.484750 16147 net.cpp:141] Setting up conv4_2
I0908 13:01:45.484797 16147 net.cpp:148] Top shape: 10 512 28 28 (4014080)
I0908 13:01:45.484815 16147 net.cpp:156] Memory required for data: 1073766560
I0908 13:01:45.484848 16147 layer_factory.hpp:77] Creating layer relu4_2
I0908 13:01:45.484870 16147 net.cpp:91] Creating Layer relu4_2
I0908 13:01:45.484889 16147 net.cpp:425] relu4_2 <- conv4_2
I0908 13:01:45.484911 16147 net.cpp:386] relu4_2 -> conv4_2 (in-place)
I0908 13:01:45.484933 16147 net.cpp:141] Setting up relu4_2
I0908 13:01:45.484951 16147 net.cpp:148] Top shape: 10 512 28 28 (4014080)
I0908 13:01:45.484966 16147 net.cpp:156] Memory required for data: 1089822880
I0908 13:01:45.484982 16147 layer_factory.hpp:77] Creating layer conv4_3
I0908 13:01:45.485005 16147 net.cpp:91] Creating Layer conv4_3
I0908 13:01:45.485021 16147 net.cpp:425] conv4_3 <- conv4_2
I0908 13:01:45.485044 16147 net.cpp:399] conv4_3 -> conv4_3
I0908 13:01:45.575953 16147 net.cpp:141] Setting up conv4_3
I0908 13:01:45.575999 16147 net.cpp:148] Top shape: 10 512 28 28 (4014080)
I0908 13:01:45.576053 16147 net.cpp:156] Memory required for data: 1105879200
I0908 13:01:45.576076 16147 layer_factory.hpp:77] Creating layer relu4_3
I0908 13:01:45.576099 16147 net.cpp:91] Creating Layer relu4_3
I0908 13:01:45.576117 16147 net.cpp:425] relu4_3 <- conv4_3
I0908 13:01:45.576140 16147 net.cpp:386] relu4_3 -> conv4_3 (in-place)
I0908 13:01:45.576164 16147 net.cpp:141] Setting up relu4_3
I0908 13:01:45.576182 16147 net.cpp:148] Top shape: 10 512 28 28 (4014080)
I0908 13:01:45.576197 16147 net.cpp:156] Memory required for data: 1121935520
I0908 13:01:45.576213 16147 layer_factory.hpp:77] Creating layer pool4
I0908 13:01:45.576234 16147 net.cpp:91] Creating Layer pool4
I0908 13:01:45.576251 16147 net.cpp:425] pool4 <- conv4_3
I0908 13:01:45.576272 16147 net.cpp:399] pool4 -> pool4
I0908 13:01:45.576337 16147 net.cpp:141] Setting up pool4
I0908 13:01:45.576360 16147 net.cpp:148] Top shape: 10 512 14 14 (1003520)
I0908 13:01:45.576375 16147 net.cpp:156] Memory required for data: 1125949600
I0908 13:01:45.576391 16147 layer_factory.hpp:77] Creating layer conv5_1
I0908 13:01:45.576421 16147 net.cpp:91] Creating Layer conv5_1
I0908 13:01:45.576439 16147 net.cpp:425] conv5_1 <- pool4
I0908 13:01:45.576462 16147 net.cpp:399] conv5_1 -> conv5_1
I0908 13:01:45.667753 16147 net.cpp:141] Setting up conv5_1
I0908 13:01:45.667798 16147 net.cpp:148] Top shape: 10 512 14 14 (1003520)
I0908 13:01:45.667821 16147 net.cpp:156] Memory required for data: 1129963680
I0908 13:01:45.667842 16147 layer_factory.hpp:77] Creating layer relu5_1
I0908 13:01:45.667870 16147 net.cpp:91] Creating Layer relu5_1
I0908 13:01:45.667888 16147 net.cpp:425] relu5_1 <- conv5_1
I0908 13:01:45.667907 16147 net.cpp:386] relu5_1 -> conv5_1 (in-place)
I0908 13:01:45.667929 16147 net.cpp:141] Setting up relu5_1
I0908 13:01:45.667948 16147 net.cpp:148] Top shape: 10 512 14 14 (1003520)
I0908 13:01:45.667963 16147 net.cpp:156] Memory required for data: 1133977760
I0908 13:01:45.667979 16147 layer_factory.hpp:77] Creating layer conv5_2
I0908 13:01:45.668007 16147 net.cpp:91] Creating Layer conv5_2
I0908 13:01:45.668025 16147 net.cpp:425] conv5_2 <- conv5_1
I0908 13:01:45.668047 16147 net.cpp:399] conv5_2 -> conv5_2
I0908 13:01:45.759016 16147 net.cpp:141] Setting up conv5_2
I0908 13:01:45.759057 16147 net.cpp:148] Top shape: 10 512 14 14 (1003520)
I0908 13:01:45.759075 16147 net.cpp:156] Memory required for data: 1137991840
I0908 13:01:45.759097 16147 layer_factory.hpp:77] Creating layer relu5_2
I0908 13:01:45.759120 16147 net.cpp:91] Creating Layer relu5_2
I0908 13:01:45.759138 16147 net.cpp:425] relu5_2 <- conv5_2
I0908 13:01:45.759162 16147 net.cpp:386] relu5_2 -> conv5_2 (in-place)
I0908 13:01:45.759186 16147 net.cpp:141] Setting up relu5_2
I0908 13:01:45.759203 16147 net.cpp:148] Top shape: 10 512 14 14 (1003520)
I0908 13:01:45.759218 16147 net.cpp:156] Memory required for data: 1142005920
I0908 13:01:45.759234 16147 layer_factory.hpp:77] Creating layer conv5_3
I0908 13:01:45.759263 16147 net.cpp:91] Creating Layer conv5_3
I0908 13:01:45.759279 16147 net.cpp:425] conv5_3 <- conv5_2
I0908 13:01:45.759299 16147 net.cpp:399] conv5_3 -> conv5_3
I0908 13:01:45.850235 16147 net.cpp:141] Setting up conv5_3
I0908 13:01:45.850277 16147 net.cpp:148] Top shape: 10 512 14 14 (1003520)
I0908 13:01:45.850294 16147 net.cpp:156] Memory required for data: 1146020000
I0908 13:01:45.850317 16147 layer_factory.hpp:77] Creating layer relu5_3
I0908 13:01:45.850337 16147 net.cpp:91] Creating Layer relu5_3
I0908 13:01:45.850355 16147 net.cpp:425] relu5_3 <- conv5_3
I0908 13:01:45.850395 16147 net.cpp:386] relu5_3 -> conv5_3 (in-place)
I0908 13:01:45.850421 16147 net.cpp:141] Setting up relu5_3
I0908 13:01:45.850441 16147 net.cpp:148] Top shape: 10 512 14 14 (1003520)
I0908 13:01:45.850457 16147 net.cpp:156] Memory required for data: 1150034080
I0908 13:01:45.850473 16147 layer_factory.hpp:77] Creating layer pool5
I0908 13:01:45.850507 16147 net.cpp:91] Creating Layer pool5
I0908 13:01:45.850525 16147 net.cpp:425] pool5 <- conv5_3
I0908 13:01:45.850545 16147 net.cpp:399] pool5 -> pool5
I0908 13:01:45.850658 16147 net.cpp:141] Setting up pool5
I0908 13:01:45.850682 16147 net.cpp:148] Top shape: 10 512 7 7 (250880)
I0908 13:01:45.850699 16147 net.cpp:156] Memory required for data: 1151037600
I0908 13:01:45.850715 16147 layer_factory.hpp:77] Creating layer fc6
I0908 13:01:45.850756 16147 net.cpp:91] Creating Layer fc6
I0908 13:01:45.850775 16147 net.cpp:425] fc6 <- pool5
I0908 13:01:45.850793 16147 net.cpp:399] fc6 -> fc6
I0908 13:01:49.681740 16147 net.cpp:141] Setting up fc6
I0908 13:01:49.681875 16147 net.cpp:148] Top shape: 10 4096 (40960)
I0908 13:01:49.681895 16147 net.cpp:156] Memory required for data: 1151201440
I0908 13:01:49.681967 16147 layer_factory.hpp:77] Creating layer relu6
I0908 13:01:49.682018 16147 net.cpp:91] Creating Layer relu6
I0908 13:01:49.682070 16147 net.cpp:425] relu6 <- fc6
I0908 13:01:49.682104 16147 net.cpp:386] relu6 -> fc6 (in-place)
I0908 13:01:49.682132 16147 net.cpp:141] Setting up relu6
I0908 13:01:49.682150 16147 net.cpp:148] Top shape: 10 4096 (40960)
I0908 13:01:49.682166 16147 net.cpp:156] Memory required for data: 1151365280
I0908 13:01:49.682181 16147 layer_factory.hpp:77] Creating layer drop6
I0908 13:01:49.682205 16147 net.cpp:91] Creating Layer drop6
I0908 13:01:49.682221 16147 net.cpp:425] drop6 <- fc6
I0908 13:01:49.682240 16147 net.cpp:386] drop6 -> fc6 (in-place)
I0908 13:01:49.682312 16147 net.cpp:141] Setting up drop6
I0908 13:01:49.682335 16147 net.cpp:148] Top shape: 10 4096 (40960)
I0908 13:01:49.682350 16147 net.cpp:156] Memory required for data: 1151529120
I0908 13:01:49.682371 16147 layer_factory.hpp:77] Creating layer fc7
I0908 13:01:49.682416 16147 net.cpp:91] Creating Layer fc7
I0908 13:01:49.682436 16147 net.cpp:425] fc7 <- fc6
I0908 13:01:49.682462 16147 net.cpp:399] fc7 -> fc7
I0908 13:01:50.312839 16147 net.cpp:141] Setting up fc7
I0908 13:01:50.312925 16147 net.cpp:148] Top shape: 10 4096 (40960)
I0908 13:01:50.312943 16147 net.cpp:156] Memory required for data: 1151692960
I0908 13:01:50.312969 16147 layer_factory.hpp:77] Creating layer relu7
I0908 13:01:50.312996 16147 net.cpp:91] Creating Layer relu7
I0908 13:01:50.313015 16147 net.cpp:425] relu7 <- fc7
I0908 13:01:50.313037 16147 net.cpp:386] relu7 -> fc7 (in-place)
I0908 13:01:50.313063 16147 net.cpp:141] Setting up relu7
I0908 13:01:50.313081 16147 net.cpp:148] Top shape: 10 4096 (40960)
I0908 13:01:50.313097 16147 net.cpp:156] Memory required for data: 1151856800
I0908 13:01:50.313122 16147 layer_factory.hpp:77] Creating layer drop7
I0908 13:01:50.313145 16147 net.cpp:91] Creating Layer drop7
I0908 13:01:50.313163 16147 net.cpp:425] drop7 <- fc7
I0908 13:01:50.313186 16147 net.cpp:386] drop7 -> fc7 (in-place)
I0908 13:01:50.313241 16147 net.cpp:141] Setting up drop7
I0908 13:01:50.313262 16147 net.cpp:148] Top shape: 10 4096 (40960)
I0908 13:01:50.313278 16147 net.cpp:156] Memory required for data: 1152020640
I0908 13:01:50.313293 16147 layer_factory.hpp:77] Creating layer fc7_drop7_0_split
I0908 13:01:50.313313 16147 net.cpp:91] Creating Layer fc7_drop7_0_split
I0908 13:01:50.313328 16147 net.cpp:425] fc7_drop7_0_split <- fc7
I0908 13:01:50.313355 16147 net.cpp:399] fc7_drop7_0_split -> fc7_drop7_0_split_0
I0908 13:01:50.313377 16147 net.cpp:399] fc7_drop7_0_split -> fc7_drop7_0_split_1
I0908 13:01:50.313441 16147 net.cpp:141] Setting up fc7_drop7_0_split
I0908 13:01:50.313463 16147 net.cpp:148] Top shape: 10 4096 (40960)
I0908 13:01:50.313482 16147 net.cpp:148] Top shape: 10 4096 (40960)
I0908 13:01:50.313496 16147 net.cpp:156] Memory required for data: 1152348320
I0908 13:01:50.313511 16147 layer_factory.hpp:77] Creating layer fc8_binary_f48
I0908 13:01:50.313544 16147 net.cpp:91] Creating Layer fc8_binary_f48
I0908 13:01:50.313562 16147 net.cpp:425] fc8_binary_f48 <- fc7_drop7_0_split_0
I0908 13:01:50.313581 16147 net.cpp:399] fc8_binary_f48 -> fc8_binary_f48
I0908 13:01:50.321655 16147 net.cpp:141] Setting up fc8_binary_f48
I0908 13:01:50.321686 16147 net.cpp:148] Top shape: 10 48 (480)
I0908 13:01:50.321702 16147 net.cpp:156] Memory required for data: 1152350240
I0908 13:01:50.321729 16147 layer_factory.hpp:77] Creating layer fc8_classification
I0908 13:01:50.321805 16147 net.cpp:91] Creating Layer fc8_classification
I0908 13:01:50.321825 16147 net.cpp:425] fc8_classification <- fc7_drop7_0_split_1
I0908 13:01:50.321846 16147 net.cpp:399] fc8_classification -> fc8_classification
I0908 13:01:50.325781 16147 net.cpp:141] Setting up fc8_classification
I0908 13:01:50.325809 16147 net.cpp:148] Top shape: 10 25 (250)
I0908 13:01:50.325824 16147 net.cpp:156] Memory required for data: 1152351240
I0908 13:01:50.325906 16147 layer_factory.hpp:77] Creating layer fc8_classification_fc8_classification_0_split
I0908 13:01:50.325929 16147 net.cpp:91] Creating Layer fc8_classification_fc8_classification_0_split
I0908 13:01:50.325947 16147 net.cpp:425] fc8_classification_fc8_classification_0_split <- fc8_classification
I0908 13:01:50.325971 16147 net.cpp:399] fc8_classification_fc8_classification_0_split -> fc8_classification_fc8_classification_0_split_0
I0908 13:01:50.325994 16147 net.cpp:399] fc8_classification_fc8_classification_0_split -> fc8_classification_fc8_classification_0_split_1
I0908 13:01:50.326059 16147 net.cpp:141] Setting up fc8_classification_fc8_classification_0_split
I0908 13:01:50.326083 16147 net.cpp:148] Top shape: 10 25 (250)
I0908 13:01:50.326100 16147 net.cpp:148] Top shape: 10 25 (250)
I0908 13:01:50.326117 16147 net.cpp:156] Memory required for data: 1152353240
I0908 13:01:50.326131 16147 layer_factory.hpp:77] Creating layer accuracy_at_1
I0908 13:01:50.326167 16147 net.cpp:91] Creating Layer accuracy_at_1
I0908 13:01:50.326185 16147 net.cpp:425] accuracy_at_1 <- fc8_classification_fc8_classification_0_split_0
I0908 13:01:50.326205 16147 net.cpp:425] accuracy_at_1 <- label_data_1_split_0
…
