…
I0907 16:53:08.476878 18814 net.cpp:313] The NetState phase (0) differed from the phase (1) specified by a rule in layer accuracy_at_1
I0907 16:53:08.477283 18814 net.cpp:49] Initializing net from parameters: 
name: "docomo_VGG16"
state {
  phase: TRAIN
}
layer {
  name: "data"
  type: "Data"
  top: "data"
  top: "label"
  include {
    phase: TRAIN
  }
  transform_param {
    mirror: true
    crop_size: 224
    mean_value: 103.939
    mean_value: 116.779
    mean_value: 123.68
  }
  data_param {
    source: "FASHION/fashion_train_lmdb/"
    batch_size: 10
    backend: LMDB
  }
}
layer {
  name: "conv1_1"
  type: "Convolution"
  bottom: "data"
  top: "conv1_1"
  param {
    lr_mult: 1
    decay_mult: 1
  }
  param {
    lr_mult: 2
    decay_mult: 0
  }
  convolution_param {
    num_output: 64
    pad: 1
    kernel_size: 3
    weight_filler {
      type: "gaussian"
      std: 0.01
    }
    bias_filler {
      type: "constant"
      value: 0
    }
  }
}
layer {
  name: "relu1_1"
  type: "ReLU"
  bottom: "conv1_1"
  top: "conv1_1"
}
layer {
  name: "conv1_2"
  type: "Convolution"
  bottom: "conv1_1"
  top: "conv1_2"
  param {
    lr_mult: 1
    decay_mult: 1
  }
  param {
    lr_mult: 2
    decay_mult: 0
  }
  convolution_param {
    num_output: 64
    pad: 1
    kernel_size: 3
    weight_filler {
      type: "gaussian"
      std: 0.01
    }
    bias_filler {
      type: "constant"
      value: 0
    }
  }
}
layer {
  name: "relu1_2"
  type: "ReLU"
  bottom: "conv1_2"
  top: "conv1_2"
}
layer {
  name: "pool1"
  type: "Pooling"
  bottom: "conv1_2"
  top: "pool1"
  pooling_param {
    pool: MAX
    kernel_size: 2
    stride: 2
  }
}
layer {
  name: "conv2_1"
  type: "Convolution"
  bottom: "pool1"
  top: "conv2_1"
  param {
    lr_mult: 1
    decay_mult: 1
  }
  param {
    lr_mult: 2
    decay_mult: 0
  }
  convolution_param {
    num_output: 128
    pad: 1
    kernel_size: 3
    weight_filler {
      type: "gaussian"
      std: 0.01
    }
    bias_filler {
      type: "constant"
      value: 0
    }
  }
}
layer {
  name: "relu2_1"
  type: "ReLU"
  bottom: "conv2_1"
  top: "conv2_1"
}
layer {
  name: "conv2_2"
  type: "Convolution"
  bottom: "conv2_1"
  top: "conv2_2"
  param {
    lr_mult: 1
    decay_mult: 1
  }
  param {
    lr_mult: 2
    decay_mult: 0
  }
  convolution_param {
    num_output: 128
    pad: 1
    kernel_size: 3
    weight_filler {
      type: "gaussian"
      std: 0.01
    }
    bias_filler {
      type: "constant"
      value: 0
    }
  }
}
layer {
  name: "relu2_2"
  type: "ReLU"
  bottom: "conv2_2"
  top: "conv2_2"
}
layer {
  name: "pool2"
  type: "Pooling"
  bottom: "conv2_2"
  top: "pool2"
  pooling_param {
    pool: MAX
    kernel_size: 2
    stride: 2
  }
}
layer {
  name: "conv3_1"
  type: "Convolution"
  bottom: "pool2"
  top: "conv3_1"
  param {
    lr_mult: 1
    decay_mult: 1
  }
  param {
    lr_mult: 2
    decay_mult: 0
  }
  convolution_param {
    num_output: 256
    pad: 1
    kernel_size: 3
    weight_filler {
      type: "gaussian"
      std: 0.01
    }
    bias_filler {
      type: "constant"
      value: 0
    }
  }
}
layer {
  name: "relu3_1"
  type: "ReLU"
  bottom: "conv3_1"
  top: "conv3_1"
}
layer {
  name: "conv3_2"
  type: "Convolution"
  bottom: "conv3_1"
  top: "conv3_2"
  param {
    lr_mult: 1
    decay_mult: 1
  }
  param {
    lr_mult: 2
    decay_mult: 0
  }
  convolution_param {
    num_output: 256
    pad: 1
    kernel_size: 3
    weight_filler {
      type: "gaussian"
      std: 0.01
    }
    bias_filler {
      type: "constant"
      value: 0
    }
  }
}
layer {
  name: "relu3_2"
  type: "ReLU"
  bottom: "conv3_2"
  top: "conv3_2"
}
layer {
  name: "conv3_3"
  type: "Convolution"
  bottom: "conv3_2"
  top: "conv3_3"
  param {
    lr_mult: 1
    decay_mult: 1
  }
  param {
    lr_mult: 2
    decay_mult: 0
  }
  convolution_param {
    num_output: 256
    pad: 1
    kernel_size: 3
    weight_filler {
      type: "gaussian"
      std: 0.01
    }
    bias_filler {
      type: "constant"
      value: 0
    }
  }
}
layer {
  name: "relu3_3"
  type: "ReLU"
  bottom: "conv3_3"
  top: "conv3_3"
}
layer {
  name: "pool3"
  type: "Pooling"
  bottom: "conv3_3"
  top: "pool3"
  pooling_param {
    pool: MAX
    kernel_size: 2
    stride: 2
  }
}
layer {
  name: "conv4_1"
  type: "Convolution"
  bottom: "pool3"
  top: "conv4_1"
  param {
    lr_mult: 1
    decay_mult: 1
  }
  param {
    lr_mult: 2
    decay_mult: 0
  }
  convolution_param {
    num_output: 512
    pad: 1
    kernel_size: 3
    weight_filler {
      type: "gaussian"
      std: 0.01
    }
    bias_filler {
      type: "constant"
      value: 0
    }
  }
}
layer {
  name: "relu4_1"
  type: "ReLU"
  bottom: "conv4_1"
  top: "conv4_1"
}
layer {
  name: "conv4_2"
  type: "Convolution"
  bottom: "conv4_1"
  top: "conv4_2"
  param {
    lr_mult: 1
    decay_mult: 1
  }
  param {
    lr_mult: 2
    decay_mult: 0
  }
  convolution_param {
    num_output: 512
    pad: 1
    kernel_size: 3
    weight_filler {
      type: "gaussian"
      std: 0.01
    }
    bias_filler {
      type: "constant"
      value: 0
    }
  }
}
layer {
  name: "relu4_2"
  type: "ReLU"
  bottom: "conv4_2"
  top: "conv4_2"
}
layer {
  name: "conv4_3"
  type: "Convolution"
  bottom: "conv4_2"
  top: "conv4_3"
  param {
    lr_mult: 1
    decay_mult: 1
  }
  param {
    lr_mult: 2
    decay_mult: 0
  }
  convolution_param {
    num_output: 512
    pad: 1
    kernel_size: 3
    weight_filler {
      type: "gaussian"
      std: 0.01
    }
    bias_filler {
      type: "constant"
      value: 0
    }
  }
}
layer {
  name: "relu4_3"
  type: "ReLU"
  bottom: "conv4_3"
  top: "conv4_3"
}
layer {
  name: "pool4"
  type: "Pooling"
  bottom: "conv4_3"
  top: "pool4"
  pooling_param {
    pool: MAX
    kernel_size: 2
    stride: 2
  }
}
layer {
  name: "conv5_1"
  type: "Convolution"
  bottom: "pool4"
  top: "conv5_1"
  param {
    lr_mult: 1
    decay_mult: 1
  }
  param {
    lr_mult: 2
    decay_mult: 0
  }
  convolution_param {
    num_output: 512
    pad: 1
    kernel_size: 3
    weight_filler {
      type: "gaussian"
      std: 0.01
    }
    bias_filler {
      type: "constant"
      value: 0
    }
  }
}
layer {
  name: "relu5_1"
  type: "ReLU"
  bottom: "conv5_1"
  top: "conv5_1"
}
layer {
  name: "conv5_2"
  type: "Convolution"
  bottom: "conv5_1"
  top: "conv5_2"
  param {
    lr_mult: 1
    decay_mult: 1
  }
  param {
    lr_mult: 2
    decay_mult: 0
  }
  convolution_param {
    num_output: 512
    pad: 1
    kernel_size: 3
    weight_filler {
      type: "gaussian"
      std: 0.01
    }
    bias_filler {
      type: "constant"
      value: 0
    }
  }
}
layer {
  name: "relu5_2"
  type: "ReLU"
  bottom: "conv5_2"
  top: "conv5_2"
}
layer {
  name: "conv5_3"
  type: "Convolution"
  bottom: "conv5_2"
  top: "conv5_3"
  param {
    lr_mult: 1
    decay_mult: 1
  }
  param {
    lr_mult: 2
    decay_mult: 0
  }
  convolution_param {
    num_output: 512
    pad: 1
    kernel_size: 3
    weight_filler {
      type: "gaussian"
      std: 0.01
    }
    bias_filler {
      type: "constant"
      value: 0
    }
  }
}
layer {
  name: "relu5_3"
  type: "ReLU"
  bottom: "conv5_3"
  top: "conv5_3"
}
layer {
  name: "pool5"
  type: "Pooling"
  bottom: "conv5_3"
  top: "pool5"
  pooling_param {
    pool: MAX
    kernel_size: 2
    stride: 2
  }
}
layer {
  name: "fc6"
  type: "InnerProduct"
  bottom: "pool5"
  top: "fc6"
  param {
    lr_mult: 1
    decay_mult: 1
  }
  param {
    lr_mult: 2
    decay_mult: 0
  }
  inner_product_param {
    num_output: 4096
    weight_filler {
      type: "gaussian"
      std: 0.005
    }
    bias_filler {
      type: "constant"
      value: 0.1
    }
  }
}
layer {
  name: "relu6"
  type: "ReLU"
  bottom: "fc6"
  top: "fc6"
}
layer {
  name: "drop6"
  type: "Dropout"
  bottom: "fc6"
  top: "fc6"
  dropout_param {
    dropout_ratio: 0.5
  }
}
layer {
  name: "fc7"
  type: "InnerProduct"
  bottom: "fc6"
  top: "fc7"
  param {
    lr_mult: 1
    decay_mult: 1
  }
  param {
    lr_mult: 2
    decay_mult: 0
  }
  inner_product_param {
    num_output: 4096
    weight_filler {
      type: "gaussian"
      std: 0.005
    }
    bias_filler {
      type: "constant"
      value: 0.1
    }
  }
}
layer {
  name: "relu7"
  type: "ReLU"
  bottom: "fc7"
  top: "fc7"
}
layer {
  name: "drop7"
  type: "Dropout"
  bottom: "fc7"
  top: "fc7"
  dropout_param {
    dropout_ratio: 0.5
  }
}
layer {
  name: "fc8_binary_f24"
  type: "InnerProduct"
  bottom: "fc7"
  top: "fc8_binary_f24"
  param {
    lr_mult: 10
    decay_mult: 1
  }
  param {
    lr_mult: 20
    decay_mult: 0
  }
  inner_product_param {
    num_output: 24
    weight_filler {
      type: "gaussian"
      std: 0.005
    }
    bias_filler {
      type: "constant"
      value: 0.1
    }
  }
}
layer {
  name: "fc8_classification"
  type: "InnerProduct"
  bottom: "fc7"
  top: "fc8_classification"
  param {
    lr_mult: 1
    decay_mult: 1
  }
  param {
    lr_mult: 2
    decay_mult: 0
  }
  inner_product_param {
    num_output: 25
    weight_filler {
      type: "gaussian"
      std: 0.05
    }
    bias_filler {
      type: "constant"
      value: 0.1
    }
  }
}
layer {
  name: "loss_hashing"
  type: "HashingLoss"
  bottom: "fc8_binary_f24"
  bottom: "label"
  top: "loss_hashing"
  loss_weight: 0.5
  hashing_loss_param {
    bi_margin: 48
    tradeoff: 0.01
  }
}
layer {
  name: "loss_classification"
  type: "SoftmaxWithLoss"
  bottom: "fc8_classification"
  bottom: "label"
  top: "loss_classification"
}
I0907 16:53:08.479935 18814 layer_factory.hpp:77] Creating layer data
I0907 16:53:08.481098 18814 net.cpp:91] Creating Layer data
I0907 16:53:08.481147 18814 net.cpp:399] data -> data
I0907 16:53:08.481374 18814 net.cpp:399] data -> label
I0907 16:53:08.483067 18819 db_lmdb.cpp:38] Opened lmdb FASHION/fashion_train_lmdb/
I0907 16:53:08.512214 18814 data_layer.cpp:41] output data size: 10,3,224,224
I0907 16:53:08.531252 18814 net.cpp:141] Setting up data
I0907 16:53:08.531348 18814 net.cpp:148] Top shape: 10 3 224 224 (1505280)
I0907 16:53:08.531376 18814 net.cpp:148] Top shape: 10 1 1 1 (10)
I0907 16:53:08.531396 18814 net.cpp:156] Memory required for data: 6021160
I0907 16:53:08.531426 18814 layer_factory.hpp:77] Creating layer label_data_1_split
I0907 16:53:08.531464 18814 net.cpp:91] Creating Layer label_data_1_split
I0907 16:53:08.531492 18814 net.cpp:425] label_data_1_split <- label
I0907 16:53:08.531534 18814 net.cpp:399] label_data_1_split -> label_data_1_split_0
I0907 16:53:08.531569 18814 net.cpp:399] label_data_1_split -> label_data_1_split_1
I0907 16:53:08.531711 18814 net.cpp:141] Setting up label_data_1_split
I0907 16:53:08.531760 18814 net.cpp:148] Top shape: 10 1 1 1 (10)
I0907 16:53:08.531795 18814 net.cpp:148] Top shape: 10 1 1 1 (10)
I0907 16:53:08.531826 18814 net.cpp:156] Memory required for data: 6021240
I0907 16:53:08.531862 18814 layer_factory.hpp:77] Creating layer conv1_1
I0907 16:53:08.531937 18814 net.cpp:91] Creating Layer conv1_1
I0907 16:53:08.531973 18814 net.cpp:425] conv1_1 <- data
I0907 16:53:08.532011 18814 net.cpp:399] conv1_1 -> conv1_1
I0907 16:53:08.535641 18814 net.cpp:141] Setting up conv1_1
I0907 16:53:08.535724 18814 net.cpp:148] Top shape: 10 64 224 224 (32112640)
I0907 16:53:08.535758 18814 net.cpp:156] Memory required for data: 134471800
I0907 16:53:08.535821 18814 layer_factory.hpp:77] Creating layer relu1_1
I0907 16:53:08.535874 18814 net.cpp:91] Creating Layer relu1_1
I0907 16:53:08.535907 18814 net.cpp:425] relu1_1 <- conv1_1
I0907 16:53:08.536015 18814 net.cpp:386] relu1_1 -> conv1_1 (in-place)
I0907 16:53:08.536063 18814 net.cpp:141] Setting up relu1_1
I0907 16:53:08.536099 18814 net.cpp:148] Top shape: 10 64 224 224 (32112640)
I0907 16:53:08.536129 18814 net.cpp:156] Memory required for data: 262922360
I0907 16:53:08.536157 18814 layer_factory.hpp:77] Creating layer conv1_2
I0907 16:53:08.536209 18814 net.cpp:91] Creating Layer conv1_2
I0907 16:53:08.536247 18814 net.cpp:425] conv1_2 <- conv1_1
I0907 16:53:08.536285 18814 net.cpp:399] conv1_2 -> conv1_2
I0907 16:53:08.539618 18814 net.cpp:141] Setting up conv1_2
I0907 16:53:08.539674 18814 net.cpp:148] Top shape: 10 64 224 224 (32112640)
I0907 16:53:08.539705 18814 net.cpp:156] Memory required for data: 391372920
I0907 16:53:08.539748 18814 layer_factory.hpp:77] Creating layer relu1_2
I0907 16:53:08.539786 18814 net.cpp:91] Creating Layer relu1_2
I0907 16:53:08.539818 18814 net.cpp:425] relu1_2 <- conv1_2
I0907 16:53:08.539857 18814 net.cpp:386] relu1_2 -> conv1_2 (in-place)
I0907 16:53:08.539896 18814 net.cpp:141] Setting up relu1_2
I0907 16:53:08.539930 18814 net.cpp:148] Top shape: 10 64 224 224 (32112640)
I0907 16:53:08.539959 18814 net.cpp:156] Memory required for data: 519823480
I0907 16:53:08.539988 18814 layer_factory.hpp:77] Creating layer pool1
I0907 16:53:08.540024 18814 net.cpp:91] Creating Layer pool1
I0907 16:53:08.540061 18814 net.cpp:425] pool1 <- conv1_2
I0907 16:53:08.540100 18814 net.cpp:399] pool1 -> pool1
I0907 16:53:08.540241 18814 net.cpp:141] Setting up pool1
I0907 16:53:08.540292 18814 net.cpp:148] Top shape: 10 64 112 112 (8028160)
I0907 16:53:08.540323 18814 net.cpp:156] Memory required for data: 551936120
I0907 16:53:08.540351 18814 layer_factory.hpp:77] Creating layer conv2_1
I0907 16:53:08.540405 18814 net.cpp:91] Creating Layer conv2_1
I0907 16:53:08.540436 18814 net.cpp:425] conv2_1 <- pool1
I0907 16:53:08.540477 18814 net.cpp:399] conv2_1 -> conv2_1
I0907 16:53:08.548516 18814 net.cpp:141] Setting up conv2_1
I0907 16:53:08.548581 18814 net.cpp:148] Top shape: 10 128 112 112 (16056320)
I0907 16:53:08.548614 18814 net.cpp:156] Memory required for data: 616161400
I0907 16:53:08.548660 18814 layer_factory.hpp:77] Creating layer relu2_1
I0907 16:53:08.548707 18814 net.cpp:91] Creating Layer relu2_1
I0907 16:53:08.548740 18814 net.cpp:425] relu2_1 <- conv2_1
I0907 16:53:08.548774 18814 net.cpp:386] relu2_1 -> conv2_1 (in-place)
I0907 16:53:08.548820 18814 net.cpp:141] Setting up relu2_1
I0907 16:53:08.548856 18814 net.cpp:148] Top shape: 10 128 112 112 (16056320)
I0907 16:53:08.548883 18814 net.cpp:156] Memory required for data: 680386680
I0907 16:53:08.548912 18814 layer_factory.hpp:77] Creating layer conv2_2
I0907 16:53:08.548960 18814 net.cpp:91] Creating Layer conv2_2
I0907 16:53:08.548993 18814 net.cpp:425] conv2_2 <- conv2_1
I0907 16:53:08.549034 18814 net.cpp:399] conv2_2 -> conv2_2
I0907 16:53:08.560168 18814 net.cpp:141] Setting up conv2_2
I0907 16:53:08.560227 18814 net.cpp:148] Top shape: 10 128 112 112 (16056320)
I0907 16:53:08.560258 18814 net.cpp:156] Memory required for data: 744611960
I0907 16:53:08.560294 18814 layer_factory.hpp:77] Creating layer relu2_2
I0907 16:53:08.560330 18814 net.cpp:91] Creating Layer relu2_2
I0907 16:53:08.560360 18814 net.cpp:425] relu2_2 <- conv2_2
I0907 16:53:08.560403 18814 net.cpp:386] relu2_2 -> conv2_2 (in-place)
I0907 16:53:08.560443 18814 net.cpp:141] Setting up relu2_2
I0907 16:53:08.560483 18814 net.cpp:148] Top shape: 10 128 112 112 (16056320)
I0907 16:53:08.560513 18814 net.cpp:156] Memory required for data: 808837240
I0907 16:53:08.560541 18814 layer_factory.hpp:77] Creating layer pool2
I0907 16:53:08.560578 18814 net.cpp:91] Creating Layer pool2
I0907 16:53:08.560609 18814 net.cpp:425] pool2 <- conv2_2
I0907 16:53:08.560654 18814 net.cpp:399] pool2 -> pool2
I0907 16:53:08.560765 18814 net.cpp:141] Setting up pool2
I0907 16:53:08.560811 18814 net.cpp:148] Top shape: 10 128 56 56 (4014080)
I0907 16:53:08.560840 18814 net.cpp:156] Memory required for data: 824893560
I0907 16:53:08.560869 18814 layer_factory.hpp:77] Creating layer conv3_1
I0907 16:53:08.560967 18814 net.cpp:91] Creating Layer conv3_1
I0907 16:53:08.561017 18814 net.cpp:425] conv3_1 <- pool2
I0907 16:53:08.561060 18814 net.cpp:399] conv3_1 -> conv3_1
I0907 16:53:08.584256 18814 net.cpp:141] Setting up conv3_1
I0907 16:53:08.584326 18814 net.cpp:148] Top shape: 10 256 56 56 (8028160)
I0907 16:53:08.584357 18814 net.cpp:156] Memory required for data: 857006200
I0907 16:53:08.584408 18814 layer_factory.hpp:77] Creating layer relu3_1
I0907 16:53:08.584450 18814 net.cpp:91] Creating Layer relu3_1
I0907 16:53:08.584481 18814 net.cpp:425] relu3_1 <- conv3_1
I0907 16:53:08.584514 18814 net.cpp:386] relu3_1 -> conv3_1 (in-place)
I0907 16:53:08.584553 18814 net.cpp:141] Setting up relu3_1
I0907 16:53:08.584595 18814 net.cpp:148] Top shape: 10 256 56 56 (8028160)
I0907 16:53:08.584623 18814 net.cpp:156] Memory required for data: 889118840
I0907 16:53:08.584652 18814 layer_factory.hpp:77] Creating layer conv3_2
I0907 16:53:08.584698 18814 net.cpp:91] Creating Layer conv3_2
I0907 16:53:08.584729 18814 net.cpp:425] conv3_2 <- conv3_1
I0907 16:53:08.584771 18814 net.cpp:399] conv3_2 -> conv3_2
I0907 16:53:08.631161 18814 net.cpp:141] Setting up conv3_2
I0907 16:53:08.631222 18814 net.cpp:148] Top shape: 10 256 56 56 (8028160)
I0907 16:53:08.631256 18814 net.cpp:156] Memory required for data: 921231480
I0907 16:53:08.631294 18814 layer_factory.hpp:77] Creating layer relu3_2
I0907 16:53:08.631330 18814 net.cpp:91] Creating Layer relu3_2
I0907 16:53:08.631361 18814 net.cpp:425] relu3_2 <- conv3_2
I0907 16:53:08.631398 18814 net.cpp:386] relu3_2 -> conv3_2 (in-place)
I0907 16:53:08.631438 18814 net.cpp:141] Setting up relu3_2
I0907 16:53:08.631480 18814 net.cpp:148] Top shape: 10 256 56 56 (8028160)
I0907 16:53:08.631511 18814 net.cpp:156] Memory required for data: 953344120
I0907 16:53:08.631539 18814 layer_factory.hpp:77] Creating layer conv3_3
I0907 16:53:08.631590 18814 net.cpp:91] Creating Layer conv3_3
I0907 16:53:08.631623 18814 net.cpp:425] conv3_3 <- conv3_2
I0907 16:53:08.631660 18814 net.cpp:399] conv3_3 -> conv3_3
I0907 16:53:08.678020 18814 net.cpp:141] Setting up conv3_3
I0907 16:53:08.678081 18814 net.cpp:148] Top shape: 10 256 56 56 (8028160)
I0907 16:53:08.678110 18814 net.cpp:156] Memory required for data: 985456760
I0907 16:53:08.678148 18814 layer_factory.hpp:77] Creating layer relu3_3
I0907 16:53:08.678182 18814 net.cpp:91] Creating Layer relu3_3
I0907 16:53:08.678212 18814 net.cpp:425] relu3_3 <- conv3_3
I0907 16:53:08.678247 18814 net.cpp:386] relu3_3 -> conv3_3 (in-place)
I0907 16:53:08.678284 18814 net.cpp:141] Setting up relu3_3
I0907 16:53:08.678318 18814 net.cpp:148] Top shape: 10 256 56 56 (8028160)
I0907 16:53:08.678345 18814 net.cpp:156] Memory required for data: 1017569400
I0907 16:53:08.678386 18814 layer_factory.hpp:77] Creating layer pool3
I0907 16:53:08.678432 18814 net.cpp:91] Creating Layer pool3
I0907 16:53:08.678469 18814 net.cpp:425] pool3 <- conv3_3
I0907 16:53:08.678504 18814 net.cpp:399] pool3 -> pool3
I0907 16:53:08.678622 18814 net.cpp:141] Setting up pool3
I0907 16:53:08.678669 18814 net.cpp:148] Top shape: 10 256 28 28 (2007040)
I0907 16:53:08.678699 18814 net.cpp:156] Memory required for data: 1025597560
I0907 16:53:08.678726 18814 layer_factory.hpp:77] Creating layer conv4_1
I0907 16:53:08.678781 18814 net.cpp:91] Creating Layer conv4_1
I0907 16:53:08.678818 18814 net.cpp:425] conv4_1 <- pool3
I0907 16:53:08.678854 18814 net.cpp:399] conv4_1 -> conv4_1
I0907 16:53:08.771864 18814 net.cpp:141] Setting up conv4_1
I0907 16:53:08.771930 18814 net.cpp:148] Top shape: 10 512 28 28 (4014080)
I0907 16:53:08.771961 18814 net.cpp:156] Memory required for data: 1041653880
I0907 16:53:08.771999 18814 layer_factory.hpp:77] Creating layer relu4_1
I0907 16:53:08.772044 18814 net.cpp:91] Creating Layer relu4_1
I0907 16:53:08.772075 18814 net.cpp:425] relu4_1 <- conv4_1
I0907 16:53:08.772115 18814 net.cpp:386] relu4_1 -> conv4_1 (in-place)
I0907 16:53:08.772156 18814 net.cpp:141] Setting up relu4_1
I0907 16:53:08.772191 18814 net.cpp:148] Top shape: 10 512 28 28 (4014080)
I0907 16:53:08.772284 18814 net.cpp:156] Memory required for data: 1057710200
I0907 16:53:08.772317 18814 layer_factory.hpp:77] Creating layer conv4_2
I0907 16:53:08.772366 18814 net.cpp:91] Creating Layer conv4_2
I0907 16:53:08.772404 18814 net.cpp:425] conv4_2 <- conv4_1
I0907 16:53:08.772441 18814 net.cpp:399] conv4_2 -> conv4_2
I0907 16:53:08.955556 18814 net.cpp:141] Setting up conv4_2
I0907 16:53:08.955624 18814 net.cpp:148] Top shape: 10 512 28 28 (4014080)
I0907 16:53:08.955657 18814 net.cpp:156] Memory required for data: 1073766520
I0907 16:53:08.955704 18814 layer_factory.hpp:77] Creating layer relu4_2
I0907 16:53:08.955749 18814 net.cpp:91] Creating Layer relu4_2
I0907 16:53:08.955782 18814 net.cpp:425] relu4_2 <- conv4_2
I0907 16:53:08.955816 18814 net.cpp:386] relu4_2 -> conv4_2 (in-place)
I0907 16:53:08.955862 18814 net.cpp:141] Setting up relu4_2
I0907 16:53:08.955898 18814 net.cpp:148] Top shape: 10 512 28 28 (4014080)
I0907 16:53:08.955925 18814 net.cpp:156] Memory required for data: 1089822840
I0907 16:53:08.955955 18814 layer_factory.hpp:77] Creating layer conv4_3
I0907 16:53:08.956001 18814 net.cpp:91] Creating Layer conv4_3
I0907 16:53:08.956032 18814 net.cpp:425] conv4_3 <- conv4_2
I0907 16:53:08.956068 18814 net.cpp:399] conv4_3 -> conv4_3
I0907 16:53:09.139272 18814 net.cpp:141] Setting up conv4_3
I0907 16:53:09.139343 18814 net.cpp:148] Top shape: 10 512 28 28 (4014080)
I0907 16:53:09.139375 18814 net.cpp:156] Memory required for data: 1105879160
I0907 16:53:09.139413 18814 layer_factory.hpp:77] Creating layer relu4_3
I0907 16:53:09.139451 18814 net.cpp:91] Creating Layer relu4_3
I0907 16:53:09.139482 18814 net.cpp:425] relu4_3 <- conv4_3
I0907 16:53:09.139524 18814 net.cpp:386] relu4_3 -> conv4_3 (in-place)
I0907 16:53:09.139565 18814 net.cpp:141] Setting up relu4_3
I0907 16:53:09.139607 18814 net.cpp:148] Top shape: 10 512 28 28 (4014080)
I0907 16:53:09.139636 18814 net.cpp:156] Memory required for data: 1121935480
I0907 16:53:09.139664 18814 layer_factory.hpp:77] Creating layer pool4
I0907 16:53:09.139700 18814 net.cpp:91] Creating Layer pool4
I0907 16:53:09.139729 18814 net.cpp:425] pool4 <- conv4_3
I0907 16:53:09.139768 18814 net.cpp:399] pool4 -> pool4
I0907 16:53:09.139883 18814 net.cpp:141] Setting up pool4
I0907 16:53:09.139930 18814 net.cpp:148] Top shape: 10 512 14 14 (1003520)
I0907 16:53:09.139961 18814 net.cpp:156] Memory required for data: 1125949560
I0907 16:53:09.139988 18814 layer_factory.hpp:77] Creating layer conv5_1
I0907 16:53:09.140048 18814 net.cpp:91] Creating Layer conv5_1
I0907 16:53:09.140085 18814 net.cpp:425] conv5_1 <- pool4
I0907 16:53:09.140127 18814 net.cpp:399] conv5_1 -> conv5_1
I0907 16:53:09.268770 18814 net.cpp:141] Setting up conv5_1
I0907 16:53:09.268805 18814 net.cpp:148] Top shape: 10 512 14 14 (1003520)
I0907 16:53:09.268833 18814 net.cpp:156] Memory required for data: 1129963640
I0907 16:53:09.268853 18814 layer_factory.hpp:77] Creating layer relu5_1
I0907 16:53:09.268875 18814 net.cpp:91] Creating Layer relu5_1
I0907 16:53:09.268892 18814 net.cpp:425] relu5_1 <- conv5_1
I0907 16:53:09.268908 18814 net.cpp:386] relu5_1 -> conv5_1 (in-place)
I0907 16:53:09.268926 18814 net.cpp:141] Setting up relu5_1
I0907 16:53:09.268942 18814 net.cpp:148] Top shape: 10 512 14 14 (1003520)
I0907 16:53:09.268975 18814 net.cpp:156] Memory required for data: 1133977720
I0907 16:53:09.268990 18814 layer_factory.hpp:77] Creating layer conv5_2
I0907 16:53:09.269013 18814 net.cpp:91] Creating Layer conv5_2
I0907 16:53:09.269031 18814 net.cpp:425] conv5_2 <- conv5_1
I0907 16:53:09.269050 18814 net.cpp:399] conv5_2 -> conv5_2
I0907 16:53:09.354523 18814 net.cpp:141] Setting up conv5_2
I0907 16:53:09.354557 18814 net.cpp:148] Top shape: 10 512 14 14 (1003520)
I0907 16:53:09.354585 18814 net.cpp:156] Memory required for data: 1137991800
I0907 16:53:09.354605 18814 layer_factory.hpp:77] Creating layer relu5_2
I0907 16:53:09.354624 18814 net.cpp:91] Creating Layer relu5_2
I0907 16:53:09.354640 18814 net.cpp:425] relu5_2 <- conv5_2
I0907 16:53:09.354658 18814 net.cpp:386] relu5_2 -> conv5_2 (in-place)
I0907 16:53:09.354727 18814 net.cpp:141] Setting up relu5_2
I0907 16:53:09.354748 18814 net.cpp:148] Top shape: 10 512 14 14 (1003520)
I0907 16:53:09.354763 18814 net.cpp:156] Memory required for data: 1142005880
I0907 16:53:09.354779 18814 layer_factory.hpp:77] Creating layer conv5_3
I0907 16:53:09.354804 18814 net.cpp:91] Creating Layer conv5_3
I0907 16:53:09.354820 18814 net.cpp:425] conv5_3 <- conv5_2
I0907 16:53:09.354838 18814 net.cpp:399] conv5_3 -> conv5_3
I0907 16:53:09.440347 18814 net.cpp:141] Setting up conv5_3
I0907 16:53:09.440397 18814 net.cpp:148] Top shape: 10 512 14 14 (1003520)
I0907 16:53:09.440412 18814 net.cpp:156] Memory required for data: 1146019960
I0907 16:53:09.440431 18814 layer_factory.hpp:77] Creating layer relu5_3
I0907 16:53:09.440449 18814 net.cpp:91] Creating Layer relu5_3
I0907 16:53:09.440464 18814 net.cpp:425] relu5_3 <- conv5_3
I0907 16:53:09.440480 18814 net.cpp:386] relu5_3 -> conv5_3 (in-place)
I0907 16:53:09.440500 18814 net.cpp:141] Setting up relu5_3
I0907 16:53:09.440515 18814 net.cpp:148] Top shape: 10 512 14 14 (1003520)
I0907 16:53:09.440529 18814 net.cpp:156] Memory required for data: 1150034040
I0907 16:53:09.440543 18814 layer_factory.hpp:77] Creating layer pool5
I0907 16:53:09.440569 18814 net.cpp:91] Creating Layer pool5
I0907 16:53:09.440601 18814 net.cpp:425] pool5 <- conv5_3
I0907 16:53:09.440620 18814 net.cpp:399] pool5 -> pool5
I0907 16:53:09.440685 18814 net.cpp:141] Setting up pool5
I0907 16:53:09.440708 18814 net.cpp:148] Top shape: 10 512 7 7 (250880)
I0907 16:53:09.440723 18814 net.cpp:156] Memory required for data: 1151037560
I0907 16:53:09.440737 18814 layer_factory.hpp:77] Creating layer fc6
I0907 16:53:09.440768 18814 net.cpp:91] Creating Layer fc6
I0907 16:53:09.440785 18814 net.cpp:425] fc6 <- pool5
I0907 16:53:09.440804 18814 net.cpp:399] fc6 -> fc6
I0907 16:53:13.176786 18814 net.cpp:141] Setting up fc6
I0907 16:53:13.176872 18814 net.cpp:148] Top shape: 10 4096 (40960)
I0907 16:53:13.176890 18814 net.cpp:156] Memory required for data: 1151201400
I0907 16:53:13.176934 18814 layer_factory.hpp:77] Creating layer relu6
I0907 16:53:13.176980 18814 net.cpp:91] Creating Layer relu6
I0907 16:53:13.177038 18814 net.cpp:425] relu6 <- fc6
I0907 16:53:13.177064 18814 net.cpp:386] relu6 -> fc6 (in-place)
I0907 16:53:13.177091 18814 net.cpp:141] Setting up relu6
I0907 16:53:13.177109 18814 net.cpp:148] Top shape: 10 4096 (40960)
I0907 16:53:13.177124 18814 net.cpp:156] Memory required for data: 1151365240
I0907 16:53:13.177137 18814 layer_factory.hpp:77] Creating layer drop6
I0907 16:53:13.177162 18814 net.cpp:91] Creating Layer drop6
I0907 16:53:13.177179 18814 net.cpp:425] drop6 <- fc6
I0907 16:53:13.177206 18814 net.cpp:386] drop6 -> fc6 (in-place)
I0907 16:53:13.177271 18814 net.cpp:141] Setting up drop6
I0907 16:53:13.177297 18814 net.cpp:148] Top shape: 10 4096 (40960)
I0907 16:53:13.177314 18814 net.cpp:156] Memory required for data: 1151529080
I0907 16:53:13.177328 18814 layer_factory.hpp:77] Creating layer fc7
I0907 16:53:13.177356 18814 net.cpp:91] Creating Layer fc7
I0907 16:53:13.177371 18814 net.cpp:425] fc7 <- fc6
I0907 16:53:13.177392 18814 net.cpp:399] fc7 -> fc7
I0907 16:53:13.788143 18814 net.cpp:141] Setting up fc7
I0907 16:53:13.788214 18814 net.cpp:148] Top shape: 10 4096 (40960)
I0907 16:53:13.788231 18814 net.cpp:156] Memory required for data: 1151692920
I0907 16:53:13.788255 18814 layer_factory.hpp:77] Creating layer relu7
I0907 16:53:13.788295 18814 net.cpp:91] Creating Layer relu7
I0907 16:53:13.788312 18814 net.cpp:425] relu7 <- fc7
I0907 16:53:13.788331 18814 net.cpp:386] relu7 -> fc7 (in-place)
I0907 16:53:13.788372 18814 net.cpp:141] Setting up relu7
I0907 16:53:13.788390 18814 net.cpp:148] Top shape: 10 4096 (40960)
I0907 16:53:13.788404 18814 net.cpp:156] Memory required for data: 1151856760
I0907 16:53:13.788419 18814 layer_factory.hpp:77] Creating layer drop7
I0907 16:53:13.788441 18814 net.cpp:91] Creating Layer drop7
I0907 16:53:13.788457 18814 net.cpp:425] drop7 <- fc7
I0907 16:53:13.788473 18814 net.cpp:386] drop7 -> fc7 (in-place)
I0907 16:53:13.788561 18814 net.cpp:141] Setting up drop7
I0907 16:53:13.788585 18814 net.cpp:148] Top shape: 10 4096 (40960)
I0907 16:53:13.788599 18814 net.cpp:156] Memory required for data: 1152020600
I0907 16:53:13.788614 18814 layer_factory.hpp:77] Creating layer fc7_drop7_0_split
I0907 16:53:13.788632 18814 net.cpp:91] Creating Layer fc7_drop7_0_split
I0907 16:53:13.788646 18814 net.cpp:425] fc7_drop7_0_split <- fc7
I0907 16:53:13.788671 18814 net.cpp:399] fc7_drop7_0_split -> fc7_drop7_0_split_0
I0907 16:53:13.788697 18814 net.cpp:399] fc7_drop7_0_split -> fc7_drop7_0_split_1
I0907 16:53:13.788748 18814 net.cpp:141] Setting up fc7_drop7_0_split
I0907 16:53:13.788772 18814 net.cpp:148] Top shape: 10 4096 (40960)
I0907 16:53:13.788789 18814 net.cpp:148] Top shape: 10 4096 (40960)
I0907 16:53:13.788802 18814 net.cpp:156] Memory required for data: 1152348280
I0907 16:53:13.788816 18814 layer_factory.hpp:77] Creating layer fc8_binary_f24
I0907 16:53:13.788841 18814 net.cpp:91] Creating Layer fc8_binary_f24
I0907 16:53:13.788856 18814 net.cpp:425] fc8_binary_f24 <- fc7_drop7_0_split_0
I0907 16:53:13.788874 18814 net.cpp:399] fc8_binary_f24 -> fc8_binary_f24
I0907 16:53:13.793118 18814 net.cpp:141] Setting up fc8_binary_f24
I0907 16:53:13.793145 18814 net.cpp:148] Top shape: 10 24 (240)
I0907 16:53:13.793174 18814 net.cpp:156] Memory required for data: 1152349240
I0907 16:53:13.793192 18814 layer_factory.hpp:77] Creating layer fc8_classification
I0907 16:53:13.793215 18814 net.cpp:91] Creating Layer fc8_classification
I0907 16:53:13.793231 18814 net.cpp:425] fc8_classification <- fc7_drop7_0_split_1
I0907 16:53:13.793248 18814 net.cpp:399] fc8_classification -> fc8_classification
I0907 16:53:13.796939 18814 net.cpp:141] Setting up fc8_classification
I0907 16:53:13.796964 18814 net.cpp:148] Top shape: 10 25 (250)
I0907 16:53:13.796993 18814 net.cpp:156] Memory required for data: 1152350240
I0907 16:53:13.797034 18814 layer_factory.hpp:77] Creating layer loss_hashing
I0907 16:53:13.797089 18814 net.cpp:91] Creating Layer loss_hashing
I0907 16:53:13.797106 18814 net.cpp:425] loss_hashing <- fc8_binary_f24
I0907 16:53:13.797122 18814 net.cpp:425] loss_hashing <- label_data_1_split_0
I0907 16:53:13.797158 18814 net.cpp:399] loss_hashing -> loss_hashing
…
I0907 16:53:13.799996 18814 net.cpp:313] The NetState phase (1) differed from the phase (0) specified by a rule in layer data
I0907 16:53:13.800439 18814 net.cpp:49] Initializing net from parameters: 
name: "docomo_VGG16"
state {
  phase: TEST
}
layer {
  name: "data"
  type: "Data"
  top: "data"
  top: "label"
  include {
    phase: TEST
  }
  transform_param {
    mirror: false
    crop_size: 224
    mean_value: 103.939
    mean_value: 116.779
    mean_value: 123.68
  }
  data_param {
    source: "FASHION/fashion_val_lmdb/"
    batch_size: 10
    backend: LMDB
  }
}
layer {
  name: "conv1_1"
  type: "Convolution"
  bottom: "data"
  top: "conv1_1"
  param {
    lr_mult: 1
    decay_mult: 1
  }
  param {
    lr_mult: 2
    decay_mult: 0
  }
  convolution_param {
    num_output: 64
    pad: 1
    kernel_size: 3
    weight_filler {
      type: "gaussian"
      std: 0.01
    }
    bias_filler {
      type: "constant"
      value: 0
    }
  }
}
layer {
  name: "relu1_1"
  type: "ReLU"
  bottom: "conv1_1"
  top: "conv1_1"
}
layer {
  name: "conv1_2"
  type: "Convolution"
  bottom: "conv1_1"
  top: "conv1_2"
  param {
    lr_mult: 1
    decay_mult: 1
  }
  param {
    lr_mult: 2
    decay_mult: 0
  }
  convolution_param {
    num_output: 64
    pad: 1
    kernel_size: 3
    weight_filler {
      type: "gaussian"
      std: 0.01
    }
    bias_filler {
      type: "constant"
      value: 0
    }
  }
}
layer {
  name: "relu1_2"
  type: "ReLU"
  bottom: "conv1_2"
  top: "conv1_2"
}
layer {
  name: "pool1"
  type: "Pooling"
  bottom: "conv1_2"
  top: "pool1"
  pooling_param {
    pool: MAX
    kernel_size: 2
    stride: 2
  }
}
layer {
  name: "conv2_1"
  type: "Convolution"
  bottom: "pool1"
  top: "conv2_1"
  param {
    lr_mult: 1
    decay_mult: 1
  }
  param {
    lr_mult: 2
    decay_mult: 0
  }
  convolution_param {
    num_output: 128
    pad: 1
    kernel_size: 3
    weight_filler {
      type: "gaussian"
      std: 0.01
    }
    bias_filler {
      type: "constant"
      value: 0
    }
  }
}
layer {
  name: "relu2_1"
  type: "ReLU"
  bottom: "conv2_1"
  top: "conv2_1"
}
layer {
  name: "conv2_2"
  type: "Convolution"
  bottom: "conv2_1"
  top: "conv2_2"
  param {
    lr_mult: 1
    decay_mult: 1
  }
  param {
    lr_mult: 2
    decay_mult: 0
  }
  convolution_param {
    num_output: 128
    pad: 1
    kernel_size: 3
    weight_filler {
      type: "gaussian"
      std: 0.01
    }
    bias_filler {
      type: "constant"
      value: 0
    }
  }
}
layer {
  name: "relu2_2"
  type: "ReLU"
  bottom: "conv2_2"
  top: "conv2_2"
}
layer {
  name: "pool2"
  type: "Pooling"
  bottom: "conv2_2"
  top: "pool2"
  pooling_param {
    pool: MAX
    kernel_size: 2
    stride: 2
  }
}
layer {
  name: "conv3_1"
  type: "Convolution"
  bottom: "pool2"
  top: "conv3_1"
  param {
    lr_mult: 1
    decay_mult: 1
  }
  param {
    lr_mult: 2
    decay_mult: 0
  }
  convolution_param {
    num_output: 256
    pad: 1
    kernel_size: 3
    weight_filler {
      type: "gaussian"
      std: 0.01
    }
    bias_filler {
      type: "constant"
      value: 0
    }
  }
}
layer {
  name: "relu3_1"
  type: "ReLU"
  bottom: "conv3_1"
  top: "conv3_1"
}
layer {
  name: "conv3_2"
  type: "Convolution"
  bottom: "conv3_1"
  top: "conv3_2"
  param {
    lr_mult: 1
    decay_mult: 1
  }
  param {
    lr_mult: 2
    decay_mult: 0
  }
  convolution_param {
    num_output: 256
    pad: 1
    kernel_size: 3
    weight_filler {
      type: "gaussian"
      std: 0.01
    }
    bias_filler {
      type: "constant"
      value: 0
    }
  }
}
layer {
  name: "relu3_2"
  type: "ReLU"
  bottom: "conv3_2"
  top: "conv3_2"
}
layer {
  name: "conv3_3"
  type: "Convolution"
  bottom: "conv3_2"
  top: "conv3_3"
  param {
    lr_mult: 1
    decay_mult: 1
  }
  param {
    lr_mult: 2
    decay_mult: 0
  }
  convolution_param {
    num_output: 256
    pad: 1
    kernel_size: 3
    weight_filler {
      type: "gaussian"
      std: 0.01
    }
    bias_filler {
      type: "constant"
      value: 0
    }
  }
}
layer {
  name: "relu3_3"
  type: "ReLU"
  bottom: "conv3_3"
  top: "conv3_3"
}
layer {
  name: "pool3"
  type: "Pooling"
  bottom: "conv3_3"
  top: "pool3"
  pooling_param {
    pool: MAX
    kernel_size: 2
    stride: 2
  }
}
layer {
  name: "conv4_1"
  type: "Convolution"
  bottom: "pool3"
  top: "conv4_1"
  param {
    lr_mult: 1
    decay_mult: 1
  }
  param {
    lr_mult: 2
    decay_mult: 0
  }
  convolution_param {
    num_output: 512
    pad: 1
    kernel_size: 3
    weight_filler {
      type: "gaussian"
      std: 0.01
    }
    bias_filler {
      type: "constant"
      value: 0
    }
  }
}
layer {
  name: "relu4_1"
  type: "ReLU"
  bottom: "conv4_1"
  top: "conv4_1"
}
layer {
  name: "conv4_2"
  type: "Convolution"
  bottom: "conv4_1"
  top: "conv4_2"
  param {
    lr_mult: 1
    decay_mult: 1
  }
  param {
    lr_mult: 2
    decay_mult: 0
  }
  convolution_param {
    num_output: 512
    pad: 1
    kernel_size: 3
    weight_filler {
      type: "gaussian"
      std: 0.01
    }
    bias_filler {
      type: "constant"
      value: 0
    }
  }
}
layer {
  name: "relu4_2"
  type: "ReLU"
  bottom: "conv4_2"
  top: "conv4_2"
}
layer {
  name: "conv4_3"
  type: "Convolution"
  bottom: "conv4_2"
  top: "conv4_3"
  param {
    lr_mult: 1
    decay_mult: 1
  }
  param {
    lr_mult: 2
    decay_mult: 0
  }
  convolution_param {
    num_output: 512
    pad: 1
    kernel_size: 3
    weight_filler {
      type: "gaussian"
      std: 0.01
    }
    bias_filler {
      type: "constant"
      value: 0
    }
  }
}
layer {
  name: "relu4_3"
  type: "ReLU"
  bottom: "conv4_3"
  top: "conv4_3"
}
layer {
  name: "pool4"
  type: "Pooling"
  bottom: "conv4_3"
  top: "pool4"
  pooling_param {
    pool: MAX
    kernel_size: 2
    stride: 2
  }
}
layer {
  name: "conv5_1"
  type: "Convolution"
  bottom: "pool4"
  top: "conv5_1"
  param {
    lr_mult: 1
    decay_mult: 1
  }
  param {
    lr_mult: 2
    decay_mult: 0
  }
  convolution_param {
    num_output: 512
    pad: 1
    kernel_size: 3
    weight_filler {
      type: "gaussian"
      std: 0.01
    }
    bias_filler {
      type: "constant"
      value: 0
    }
  }
}
layer {
  name: "relu5_1"
  type: "ReLU"
  bottom: "conv5_1"
  top: "conv5_1"
}
layer {
  name: "conv5_2"
  type: "Convolution"
  bottom: "conv5_1"
  top: "conv5_2"
  param {
    lr_mult: 1
    decay_mult: 1
  }
  param {
    lr_mult: 2
    decay_mult: 0
  }
  convolution_param {
    num_output: 512
    pad: 1
    kernel_size: 3
    weight_filler {
      type: "gaussian"
      std: 0.01
    }
    bias_filler {
      type: "constant"
      value: 0
    }
  }
}
layer {
  name: "relu5_2"
  type: "ReLU"
  bottom: "conv5_2"
  top: "conv5_2"
}
layer {
  name: "conv5_3"
  type: "Convolution"
  bottom: "conv5_2"
  top: "conv5_3"
  param {
    lr_mult: 1
    decay_mult: 1
  }
  param {
    lr_mult: 2
    decay_mult: 0
  }
  convolution_param {
    num_output: 512
    pad: 1
    kernel_size: 3
    weight_filler {
      type: "gaussian"
      std: 0.01
    }
    bias_filler {
      type: "constant"
      value: 0
    }
  }
}
layer {
  name: "relu5_3"
  type: "ReLU"
  bottom: "conv5_3"
  top: "conv5_3"
}
layer {
  name: "pool5"
  type: "Pooling"
  bottom: "conv5_3"
  top: "pool5"
  pooling_param {
    pool: MAX
    kernel_size: 2
    stride: 2
  }
}
layer {
  name: "fc6"
  type: "InnerProduct"
  bottom: "pool5"
  top: "fc6"
  param {
    lr_mult: 1
    decay_mult: 1
  }
  param {
    lr_mult: 2
    decay_mult: 0
  }
  inner_product_param {
    num_output: 4096
    weight_filler {
      type: "gaussian"
      std: 0.005
    }
    bias_filler {
      type: "constant"
      value: 0.1
    }
  }
}
layer {
  name: "relu6"
  type: "ReLU"
  bottom: "fc6"
  top: "fc6"
}
layer {
  name: "drop6"
  type: "Dropout"
  bottom: "fc6"
  top: "fc6"
  dropout_param {
    dropout_ratio: 0.5
  }
}
layer {
  name: "fc7"
  type: "InnerProduct"
  bottom: "fc6"
  top: "fc7"
  param {
    lr_mult: 1
    decay_mult: 1
  }
  param {
    lr_mult: 2
    decay_mult: 0
  }
  inner_product_param {
    num_output: 4096
    weight_filler {
      type: "gaussian"
      std: 0.005
    }
    bias_filler {
      type: "constant"
      value: 0.1
    }
  }
}
layer {
  name: "relu7"
  type: "ReLU"
  bottom: "fc7"
  top: "fc7"
}
layer {
  name: "drop7"
  type: "Dropout"
  bottom: "fc7"
  top: "fc7"
  dropout_param {
    dropout_ratio: 0.5
  }
}
layer {
  name: "fc8_binary_f24"
  type: "InnerProduct"
  bottom: "fc7"
  top: "fc8_binary_f24"
  param {
    lr_mult: 10
    decay_mult: 1
  }
  param {
    lr_mult: 20
    decay_mult: 0
  }
  inner_product_param {
    num_output: 24
    weight_filler {
      type: "gaussian"
      std: 0.005
    }
    bias_filler {
      type: "constant"
      value: 0.1
    }
  }
}
layer {
  name: "fc8_classification"
  type: "InnerProduct"
  bottom: "fc7"
  top: "fc8_classification"
  param {
    lr_mult: 1
    decay_mult: 1
  }
  param {
    lr_mult: 2
    decay_mult: 0
  }
  inner_product_param {
    num_output: 25
    weight_filler {
      type: "gaussian"
      std: 0.05
    }
    bias_filler {
      type: "constant"
      value: 0.1
    }
  }
}
layer {
  name: "accuracy_at_1"
  type: "Accuracy"
  bottom: "fc8_classification"
  bottom: "label"
  top: "accuracy_at_1"
  include {
    phase: TEST
  }
  accuracy_param {
    top_k: 1
  }
}
layer {
  name: "loss_hashing"
  type: "HashingLoss"
  bottom: "fc8_binary_f24"
  bottom: "label"
  top: "loss_hashing"
  loss_weight: 0.5
  hashing_loss_param {
    bi_margin: 48
    tradeoff: 0.01
  }
}
layer {
  name: "loss_classification"
  type: "SoftmaxWithLoss"
  bottom: "fc8_classification"
  bottom: "label"
  top: "loss_classification"
}
I0907 16:53:13.802964 18814 layer_factory.hpp:77] Creating layer data
I0907 16:53:13.803076 18814 net.cpp:91] Creating Layer data
I0907 16:53:13.803102 18814 net.cpp:399] data -> data
I0907 16:53:13.803128 18814 net.cpp:399] data -> label
I0907 16:53:13.804256 18821 db_lmdb.cpp:38] Opened lmdb FASHION/fashion_val_lmdb/
I0907 16:53:13.804710 18814 data_layer.cpp:41] output data size: 10,3,224,224
I0907 16:53:13.816000 18814 net.cpp:141] Setting up data
I0907 16:53:13.816066 18814 net.cpp:148] Top shape: 10 3 224 224 (1505280)
I0907 16:53:13.816087 18814 net.cpp:148] Top shape: 10 1 1 1 (10)
I0907 16:53:13.816100 18814 net.cpp:156] Memory required for data: 6021160
I0907 16:53:13.816119 18814 layer_factory.hpp:77] Creating layer label_data_1_split
I0907 16:53:13.816148 18814 net.cpp:91] Creating Layer label_data_1_split
I0907 16:53:13.816164 18814 net.cpp:425] label_data_1_split <- label
I0907 16:53:13.816187 18814 net.cpp:399] label_data_1_split -> label_data_1_split_0
I0907 16:53:13.816213 18814 net.cpp:399] label_data_1_split -> label_data_1_split_1
I0907 16:53:13.816232 18814 net.cpp:399] label_data_1_split -> label_data_1_split_2
I0907 16:53:13.816319 18814 net.cpp:141] Setting up label_data_1_split
I0907 16:53:13.816344 18814 net.cpp:148] Top shape: 10 1 1 1 (10)
I0907 16:53:13.816360 18814 net.cpp:148] Top shape: 10 1 1 1 (10)
I0907 16:53:13.816376 18814 net.cpp:148] Top shape: 10 1 1 1 (10)
I0907 16:53:13.816390 18814 net.cpp:156] Memory required for data: 6021280
I0907 16:53:13.816406 18814 layer_factory.hpp:77] Creating layer conv1_1
I0907 16:53:13.816442 18814 net.cpp:91] Creating Layer conv1_1
I0907 16:53:13.816458 18814 net.cpp:425] conv1_1 <- data
I0907 16:53:13.816476 18814 net.cpp:399] conv1_1 -> conv1_1
I0907 16:53:13.816889 18814 net.cpp:141] Setting up conv1_1
I0907 16:53:13.816915 18814 net.cpp:148] Top shape: 10 64 224 224 (32112640)
I0907 16:53:13.816931 18814 net.cpp:156] Memory required for data: 134471840
I0907 16:53:13.816956 18814 layer_factory.hpp:77] Creating layer relu1_1
I0907 16:53:13.816984 18814 net.cpp:91] Creating Layer relu1_1
I0907 16:53:13.817003 18814 net.cpp:425] relu1_1 <- conv1_1
I0907 16:53:13.817019 18814 net.cpp:386] relu1_1 -> conv1_1 (in-place)
I0907 16:53:13.817039 18814 net.cpp:141] Setting up relu1_1
I0907 16:53:13.817055 18814 net.cpp:148] Top shape: 10 64 224 224 (32112640)
I0907 16:53:13.817071 18814 net.cpp:156] Memory required for data: 262922400
I0907 16:53:13.817086 18814 layer_factory.hpp:77] Creating layer conv1_2
I0907 16:53:13.817111 18814 net.cpp:91] Creating Layer conv1_2
I0907 16:53:13.817129 18814 net.cpp:425] conv1_2 <- conv1_1
I0907 16:53:13.817150 18814 net.cpp:399] conv1_2 -> conv1_2
I0907 16:53:13.819999 18814 net.cpp:141] Setting up conv1_2
I0907 16:53:13.820042 18814 net.cpp:148] Top shape: 10 64 224 224 (32112640)
I0907 16:53:13.820060 18814 net.cpp:156] Memory required for data: 391372960
I0907 16:53:13.820083 18814 layer_factory.hpp:77] Creating layer relu1_2
I0907 16:53:13.820103 18814 net.cpp:91] Creating Layer relu1_2
I0907 16:53:13.820122 18814 net.cpp:425] relu1_2 <- conv1_2
I0907 16:53:13.820140 18814 net.cpp:386] relu1_2 -> conv1_2 (in-place)
I0907 16:53:13.820161 18814 net.cpp:141] Setting up relu1_2
I0907 16:53:13.820178 18814 net.cpp:148] Top shape: 10 64 224 224 (32112640)
I0907 16:53:13.820194 18814 net.cpp:156] Memory required for data: 519823520
I0907 16:53:13.820207 18814 layer_factory.hpp:77] Creating layer pool1
I0907 16:53:13.820226 18814 net.cpp:91] Creating Layer pool1
I0907 16:53:13.820241 18814 net.cpp:425] pool1 <- conv1_2
I0907 16:53:13.820261 18814 net.cpp:399] pool1 -> pool1
I0907 16:53:13.820360 18814 net.cpp:141] Setting up pool1
I0907 16:53:13.820385 18814 net.cpp:148] Top shape: 10 64 112 112 (8028160)
I0907 16:53:13.820400 18814 net.cpp:156] Memory required for data: 551936160
I0907 16:53:13.820415 18814 layer_factory.hpp:77] Creating layer conv2_1
I0907 16:53:13.820439 18814 net.cpp:91] Creating Layer conv2_1
I0907 16:53:13.820456 18814 net.cpp:425] conv2_1 <- pool1
I0907 16:53:13.820477 18814 net.cpp:399] conv2_1 -> conv2_1
I0907 16:53:13.824105 18814 net.cpp:141] Setting up conv2_1
I0907 16:53:13.824141 18814 net.cpp:148] Top shape: 10 128 112 112 (16056320)
I0907 16:53:13.824158 18814 net.cpp:156] Memory required for data: 616161440
I0907 16:53:13.824180 18814 layer_factory.hpp:77] Creating layer relu2_1
I0907 16:53:13.824201 18814 net.cpp:91] Creating Layer relu2_1
I0907 16:53:13.824216 18814 net.cpp:425] relu2_1 <- conv2_1
I0907 16:53:13.824232 18814 net.cpp:386] relu2_1 -> conv2_1 (in-place)
I0907 16:53:13.824251 18814 net.cpp:141] Setting up relu2_1
I0907 16:53:13.824268 18814 net.cpp:148] Top shape: 10 128 112 112 (16056320)
I0907 16:53:13.824282 18814 net.cpp:156] Memory required for data: 680386720
I0907 16:53:13.824296 18814 layer_factory.hpp:77] Creating layer conv2_2
I0907 16:53:13.824321 18814 net.cpp:91] Creating Layer conv2_2
I0907 16:53:13.824337 18814 net.cpp:425] conv2_2 <- conv2_1
I0907 16:53:13.824357 18814 net.cpp:399] conv2_2 -> conv2_2
I0907 16:53:13.830130 18814 net.cpp:141] Setting up conv2_2
I0907 16:53:13.830160 18814 net.cpp:148] Top shape: 10 128 112 112 (16056320)
I0907 16:53:13.830175 18814 net.cpp:156] Memory required for data: 744612000
I0907 16:53:13.830193 18814 layer_factory.hpp:77] Creating layer relu2_2
I0907 16:53:13.830217 18814 net.cpp:91] Creating Layer relu2_2
I0907 16:53:13.830232 18814 net.cpp:425] relu2_2 <- conv2_2
I0907 16:53:13.830255 18814 net.cpp:386] relu2_2 -> conv2_2 (in-place)
I0907 16:53:13.830273 18814 net.cpp:141] Setting up relu2_2
I0907 16:53:13.830292 18814 net.cpp:148] Top shape: 10 128 112 112 (16056320)
I0907 16:53:13.830307 18814 net.cpp:156] Memory required for data: 808837280
I0907 16:53:13.830322 18814 layer_factory.hpp:77] Creating layer pool2
I0907 16:53:13.830340 18814 net.cpp:91] Creating Layer pool2
I0907 16:53:13.830356 18814 net.cpp:425] pool2 <- conv2_2
I0907 16:53:13.830390 18814 net.cpp:399] pool2 -> pool2
I0907 16:53:13.830453 18814 net.cpp:141] Setting up pool2
I0907 16:53:13.830480 18814 net.cpp:148] Top shape: 10 128 56 56 (4014080)
I0907 16:53:13.830495 18814 net.cpp:156] Memory required for data: 824893600
I0907 16:53:13.830510 18814 layer_factory.hpp:77] Creating layer conv3_1
I0907 16:53:13.830531 18814 net.cpp:91] Creating Layer conv3_1
I0907 16:53:13.830546 18814 net.cpp:425] conv3_1 <- pool2
I0907 16:53:13.830567 18814 net.cpp:399] conv3_1 -> conv3_1
I0907 16:53:13.842528 18814 net.cpp:141] Setting up conv3_1
I0907 16:53:13.842581 18814 net.cpp:148] Top shape: 10 256 56 56 (8028160)
I0907 16:53:13.842597 18814 net.cpp:156] Memory required for data: 857006240
I0907 16:53:13.842628 18814 layer_factory.hpp:77] Creating layer relu3_1
I0907 16:53:13.842649 18814 net.cpp:91] Creating Layer relu3_1
I0907 16:53:13.842665 18814 net.cpp:425] relu3_1 <- conv3_1
I0907 16:53:13.842682 18814 net.cpp:386] relu3_1 -> conv3_1 (in-place)
I0907 16:53:13.842703 18814 net.cpp:141] Setting up relu3_1
I0907 16:53:13.842720 18814 net.cpp:148] Top shape: 10 256 56 56 (8028160)
I0907 16:53:13.842736 18814 net.cpp:156] Memory required for data: 889118880
I0907 16:53:13.842751 18814 layer_factory.hpp:77] Creating layer conv3_2
I0907 16:53:13.842782 18814 net.cpp:91] Creating Layer conv3_2
I0907 16:53:13.842808 18814 net.cpp:425] conv3_2 <- conv3_1
I0907 16:53:13.842828 18814 net.cpp:399] conv3_2 -> conv3_2
I0907 16:53:13.865317 18814 net.cpp:141] Setting up conv3_2
I0907 16:53:13.865360 18814 net.cpp:148] Top shape: 10 256 56 56 (8028160)
I0907 16:53:13.865375 18814 net.cpp:156] Memory required for data: 921231520
I0907 16:53:13.865394 18814 layer_factory.hpp:77] Creating layer relu3_2
I0907 16:53:13.865461 18814 net.cpp:91] Creating Layer relu3_2
I0907 16:53:13.865478 18814 net.cpp:425] relu3_2 <- conv3_2
I0907 16:53:13.865499 18814 net.cpp:386] relu3_2 -> conv3_2 (in-place)
I0907 16:53:13.865519 18814 net.cpp:141] Setting up relu3_2
I0907 16:53:13.865535 18814 net.cpp:148] Top shape: 10 256 56 56 (8028160)
I0907 16:53:13.865550 18814 net.cpp:156] Memory required for data: 953344160
I0907 16:53:13.865563 18814 layer_factory.hpp:77] Creating layer conv3_3
I0907 16:53:13.865592 18814 net.cpp:91] Creating Layer conv3_3
I0907 16:53:13.865607 18814 net.cpp:425] conv3_3 <- conv3_2
I0907 16:53:13.865625 18814 net.cpp:399] conv3_3 -> conv3_3
I0907 16:53:13.888159 18814 net.cpp:141] Setting up conv3_3
I0907 16:53:13.888200 18814 net.cpp:148] Top shape: 10 256 56 56 (8028160)
I0907 16:53:13.888216 18814 net.cpp:156] Memory required for data: 985456800
I0907 16:53:13.888234 18814 layer_factory.hpp:77] Creating layer relu3_3
I0907 16:53:13.888252 18814 net.cpp:91] Creating Layer relu3_3
I0907 16:53:13.888267 18814 net.cpp:425] relu3_3 <- conv3_3
I0907 16:53:13.888283 18814 net.cpp:386] relu3_3 -> conv3_3 (in-place)
I0907 16:53:13.888303 18814 net.cpp:141] Setting up relu3_3
I0907 16:53:13.888319 18814 net.cpp:148] Top shape: 10 256 56 56 (8028160)
I0907 16:53:13.888332 18814 net.cpp:156] Memory required for data: 1017569440
I0907 16:53:13.888347 18814 layer_factory.hpp:77] Creating layer pool3
I0907 16:53:13.888368 18814 net.cpp:91] Creating Layer pool3
I0907 16:53:13.888384 18814 net.cpp:425] pool3 <- conv3_3
I0907 16:53:13.888401 18814 net.cpp:399] pool3 -> pool3
I0907 16:53:13.888473 18814 net.cpp:141] Setting up pool3
I0907 16:53:13.888499 18814 net.cpp:148] Top shape: 10 256 28 28 (2007040)
I0907 16:53:13.888514 18814 net.cpp:156] Memory required for data: 1025597600
I0907 16:53:13.888527 18814 layer_factory.hpp:77] Creating layer conv4_1
I0907 16:53:13.888552 18814 net.cpp:91] Creating Layer conv4_1
I0907 16:53:13.888569 18814 net.cpp:425] conv4_1 <- pool3
I0907 16:53:13.888587 18814 net.cpp:399] conv4_1 -> conv4_1
I0907 16:53:13.933130 18814 net.cpp:141] Setting up conv4_1
I0907 16:53:13.933173 18814 net.cpp:148] Top shape: 10 512 28 28 (4014080)
I0907 16:53:13.933189 18814 net.cpp:156] Memory required for data: 1041653920
I0907 16:53:13.933208 18814 layer_factory.hpp:77] Creating layer relu4_1
I0907 16:53:13.933225 18814 net.cpp:91] Creating Layer relu4_1
I0907 16:53:13.933241 18814 net.cpp:425] relu4_1 <- conv4_1
I0907 16:53:13.933257 18814 net.cpp:386] relu4_1 -> conv4_1 (in-place)
I0907 16:53:13.933276 18814 net.cpp:141] Setting up relu4_1
I0907 16:53:13.933292 18814 net.cpp:148] Top shape: 10 512 28 28 (4014080)
I0907 16:53:13.933306 18814 net.cpp:156] Memory required for data: 1057710240
I0907 16:53:13.933321 18814 layer_factory.hpp:77] Creating layer conv4_2
I0907 16:53:13.933344 18814 net.cpp:91] Creating Layer conv4_2
I0907 16:53:13.933362 18814 net.cpp:425] conv4_2 <- conv4_1
I0907 16:53:13.933382 18814 net.cpp:399] conv4_2 -> conv4_2
I0907 16:53:14.022106 18814 net.cpp:141] Setting up conv4_2
I0907 16:53:14.022159 18814 net.cpp:148] Top shape: 10 512 28 28 (4014080)
I0907 16:53:14.022176 18814 net.cpp:156] Memory required for data: 1073766560
I0907 16:53:14.022203 18814 layer_factory.hpp:77] Creating layer relu4_2
I0907 16:53:14.022223 18814 net.cpp:91] Creating Layer relu4_2
I0907 16:53:14.022248 18814 net.cpp:425] relu4_2 <- conv4_2
I0907 16:53:14.022265 18814 net.cpp:386] relu4_2 -> conv4_2 (in-place)
I0907 16:53:14.022286 18814 net.cpp:141] Setting up relu4_2
I0907 16:53:14.022302 18814 net.cpp:148] Top shape: 10 512 28 28 (4014080)
I0907 16:53:14.022317 18814 net.cpp:156] Memory required for data: 1089822880
I0907 16:53:14.022331 18814 layer_factory.hpp:77] Creating layer conv4_3
I0907 16:53:14.022354 18814 net.cpp:91] Creating Layer conv4_3
I0907 16:53:14.022377 18814 net.cpp:425] conv4_3 <- conv4_2
I0907 16:53:14.022398 18814 net.cpp:399] conv4_3 -> conv4_3
I0907 16:53:14.111091 18814 net.cpp:141] Setting up conv4_3
I0907 16:53:14.111145 18814 net.cpp:148] Top shape: 10 512 28 28 (4014080)
I0907 16:53:14.111194 18814 net.cpp:156] Memory required for data: 1105879200
I0907 16:53:14.111225 18814 layer_factory.hpp:77] Creating layer relu4_3
I0907 16:53:14.111248 18814 net.cpp:91] Creating Layer relu4_3
I0907 16:53:14.111265 18814 net.cpp:425] relu4_3 <- conv4_3
I0907 16:53:14.111282 18814 net.cpp:386] relu4_3 -> conv4_3 (in-place)
I0907 16:53:14.111302 18814 net.cpp:141] Setting up relu4_3
I0907 16:53:14.111320 18814 net.cpp:148] Top shape: 10 512 28 28 (4014080)
I0907 16:53:14.111333 18814 net.cpp:156] Memory required for data: 1121935520
I0907 16:53:14.111347 18814 layer_factory.hpp:77] Creating layer pool4
I0907 16:53:14.111366 18814 net.cpp:91] Creating Layer pool4
I0907 16:53:14.111379 18814 net.cpp:425] pool4 <- conv4_3
I0907 16:53:14.111398 18814 net.cpp:399] pool4 -> pool4
I0907 16:53:14.111461 18814 net.cpp:141] Setting up pool4
I0907 16:53:14.111485 18814 net.cpp:148] Top shape: 10 512 14 14 (1003520)
I0907 16:53:14.111500 18814 net.cpp:156] Memory required for data: 1125949600
I0907 16:53:14.111515 18814 layer_factory.hpp:77] Creating layer conv5_1
I0907 16:53:14.111541 18814 net.cpp:91] Creating Layer conv5_1
I0907 16:53:14.111560 18814 net.cpp:425] conv5_1 <- pool4
I0907 16:53:14.111578 18814 net.cpp:399] conv5_1 -> conv5_1
I0907 16:53:14.200484 18814 net.cpp:141] Setting up conv5_1
I0907 16:53:14.200532 18814 net.cpp:148] Top shape: 10 512 14 14 (1003520)
I0907 16:53:14.200549 18814 net.cpp:156] Memory required for data: 1129963680
I0907 16:53:14.200568 18814 layer_factory.hpp:77] Creating layer relu5_1
I0907 16:53:14.200587 18814 net.cpp:91] Creating Layer relu5_1
I0907 16:53:14.200603 18814 net.cpp:425] relu5_1 <- conv5_1
I0907 16:53:14.200621 18814 net.cpp:386] relu5_1 -> conv5_1 (in-place)
I0907 16:53:14.200640 18814 net.cpp:141] Setting up relu5_1
I0907 16:53:14.200656 18814 net.cpp:148] Top shape: 10 512 14 14 (1003520)
I0907 16:53:14.200670 18814 net.cpp:156] Memory required for data: 1133977760
I0907 16:53:14.200685 18814 layer_factory.hpp:77] Creating layer conv5_2
I0907 16:53:14.200709 18814 net.cpp:91] Creating Layer conv5_2
I0907 16:53:14.200726 18814 net.cpp:425] conv5_2 <- conv5_1
I0907 16:53:14.200747 18814 net.cpp:399] conv5_2 -> conv5_2
I0907 16:53:14.289574 18814 net.cpp:141] Setting up conv5_2
I0907 16:53:14.289628 18814 net.cpp:148] Top shape: 10 512 14 14 (1003520)
I0907 16:53:14.289644 18814 net.cpp:156] Memory required for data: 1137991840
I0907 16:53:14.289664 18814 layer_factory.hpp:77] Creating layer relu5_2
I0907 16:53:14.289683 18814 net.cpp:91] Creating Layer relu5_2
I0907 16:53:14.289700 18814 net.cpp:425] relu5_2 <- conv5_2
I0907 16:53:14.289729 18814 net.cpp:386] relu5_2 -> conv5_2 (in-place)
I0907 16:53:14.289750 18814 net.cpp:141] Setting up relu5_2
I0907 16:53:14.289768 18814 net.cpp:148] Top shape: 10 512 14 14 (1003520)
I0907 16:53:14.289783 18814 net.cpp:156] Memory required for data: 1142005920
I0907 16:53:14.289796 18814 layer_factory.hpp:77] Creating layer conv5_3
I0907 16:53:14.289822 18814 net.cpp:91] Creating Layer conv5_3
I0907 16:53:14.289839 18814 net.cpp:425] conv5_3 <- conv5_2
I0907 16:53:14.289856 18814 net.cpp:399] conv5_3 -> conv5_3
I0907 16:53:14.378543 18814 net.cpp:141] Setting up conv5_3
I0907 16:53:14.378592 18814 net.cpp:148] Top shape: 10 512 14 14 (1003520)
I0907 16:53:14.378607 18814 net.cpp:156] Memory required for data: 1146020000
I0907 16:53:14.378628 18814 layer_factory.hpp:77] Creating layer relu5_3
I0907 16:53:14.378648 18814 net.cpp:91] Creating Layer relu5_3
I0907 16:53:14.378665 18814 net.cpp:425] relu5_3 <- conv5_3
I0907 16:53:14.378687 18814 net.cpp:386] relu5_3 -> conv5_3 (in-place)
I0907 16:53:14.378706 18814 net.cpp:141] Setting up relu5_3
I0907 16:53:14.378723 18814 net.cpp:148] Top shape: 10 512 14 14 (1003520)
I0907 16:53:14.378737 18814 net.cpp:156] Memory required for data: 1150034080
I0907 16:53:14.378752 18814 layer_factory.hpp:77] Creating layer pool5
I0907 16:53:14.378780 18814 net.cpp:91] Creating Layer pool5
I0907 16:53:14.378798 18814 net.cpp:425] pool5 <- conv5_3
I0907 16:53:14.378814 18814 net.cpp:399] pool5 -> pool5
I0907 16:53:14.378917 18814 net.cpp:141] Setting up pool5
I0907 16:53:14.378943 18814 net.cpp:148] Top shape: 10 512 7 7 (250880)
I0907 16:53:14.378958 18814 net.cpp:156] Memory required for data: 1151037600
I0907 16:53:14.378973 18814 layer_factory.hpp:77] Creating layer fc6
I0907 16:53:14.379004 18814 net.cpp:91] Creating Layer fc6
I0907 16:53:14.379019 18814 net.cpp:425] fc6 <- pool5
I0907 16:53:14.379039 18814 net.cpp:399] fc6 -> fc6
I0907 16:53:18.126516 18814 net.cpp:141] Setting up fc6
I0907 16:53:18.126605 18814 net.cpp:148] Top shape: 10 4096 (40960)
I0907 16:53:18.126621 18814 net.cpp:156] Memory required for data: 1151201440
I0907 16:53:18.126663 18814 layer_factory.hpp:77] Creating layer relu6
I0907 16:53:18.126704 18814 net.cpp:91] Creating Layer relu6
I0907 16:53:18.126734 18814 net.cpp:425] relu6 <- fc6
I0907 16:53:18.126762 18814 net.cpp:386] relu6 -> fc6 (in-place)
I0907 16:53:18.126785 18814 net.cpp:141] Setting up relu6
I0907 16:53:18.126802 18814 net.cpp:148] Top shape: 10 4096 (40960)
I0907 16:53:18.126816 18814 net.cpp:156] Memory required for data: 1151365280
I0907 16:53:18.126830 18814 layer_factory.hpp:77] Creating layer drop6
I0907 16:53:18.126850 18814 net.cpp:91] Creating Layer drop6
I0907 16:53:18.126865 18814 net.cpp:425] drop6 <- fc6
I0907 16:53:18.126888 18814 net.cpp:386] drop6 -> fc6 (in-place)
I0907 16:53:18.126945 18814 net.cpp:141] Setting up drop6
I0907 16:53:18.126967 18814 net.cpp:148] Top shape: 10 4096 (40960)
I0907 16:53:18.126981 18814 net.cpp:156] Memory required for data: 1151529120
I0907 16:53:18.126996 18814 layer_factory.hpp:77] Creating layer fc7
I0907 16:53:18.127018 18814 net.cpp:91] Creating Layer fc7
I0907 16:53:18.127033 18814 net.cpp:425] fc7 <- fc6
I0907 16:53:18.127058 18814 net.cpp:399] fc7 -> fc7
I0907 16:53:18.737651 18814 net.cpp:141] Setting up fc7
I0907 16:53:18.737720 18814 net.cpp:148] Top shape: 10 4096 (40960)
I0907 16:53:18.737737 18814 net.cpp:156] Memory required for data: 1151692960
I0907 16:53:18.737761 18814 layer_factory.hpp:77] Creating layer relu7
I0907 16:53:18.737787 18814 net.cpp:91] Creating Layer relu7
I0907 16:53:18.737803 18814 net.cpp:425] relu7 <- fc7
I0907 16:53:18.737839 18814 net.cpp:386] relu7 -> fc7 (in-place)
I0907 16:53:18.737864 18814 net.cpp:141] Setting up relu7
I0907 16:53:18.737880 18814 net.cpp:148] Top shape: 10 4096 (40960)
I0907 16:53:18.737895 18814 net.cpp:156] Memory required for data: 1151856800
I0907 16:53:18.737908 18814 layer_factory.hpp:77] Creating layer drop7
I0907 16:53:18.737927 18814 net.cpp:91] Creating Layer drop7
I0907 16:53:18.737943 18814 net.cpp:425] drop7 <- fc7
I0907 16:53:18.737959 18814 net.cpp:386] drop7 -> fc7 (in-place)
I0907 16:53:18.738008 18814 net.cpp:141] Setting up drop7
I0907 16:53:18.738032 18814 net.cpp:148] Top shape: 10 4096 (40960)
I0907 16:53:18.738046 18814 net.cpp:156] Memory required for data: 1152020640
I0907 16:53:18.738060 18814 layer_factory.hpp:77] Creating layer fc7_drop7_0_split
I0907 16:53:18.738078 18814 net.cpp:91] Creating Layer fc7_drop7_0_split
I0907 16:53:18.738092 18814 net.cpp:425] fc7_drop7_0_split <- fc7
I0907 16:53:18.738112 18814 net.cpp:399] fc7_drop7_0_split -> fc7_drop7_0_split_0
I0907 16:53:18.738132 18814 net.cpp:399] fc7_drop7_0_split -> fc7_drop7_0_split_1
I0907 16:53:18.738194 18814 net.cpp:141] Setting up fc7_drop7_0_split
I0907 16:53:18.738220 18814 net.cpp:148] Top shape: 10 4096 (40960)
I0907 16:53:18.738236 18814 net.cpp:148] Top shape: 10 4096 (40960)
I0907 16:53:18.738250 18814 net.cpp:156] Memory required for data: 1152348320
I0907 16:53:18.738265 18814 layer_factory.hpp:77] Creating layer fc8_binary_f24
I0907 16:53:18.738291 18814 net.cpp:91] Creating Layer fc8_binary_f24
I0907 16:53:18.738306 18814 net.cpp:425] fc8_binary_f24 <- fc7_drop7_0_split_0
I0907 16:53:18.738327 18814 net.cpp:399] fc8_binary_f24 -> fc8_binary_f24
I0907 16:53:18.742733 18814 net.cpp:141] Setting up fc8_binary_f24
I0907 16:53:18.742776 18814 net.cpp:148] Top shape: 10 24 (240)
I0907 16:53:18.742791 18814 net.cpp:156] Memory required for data: 1152349280
I0907 16:53:18.742810 18814 layer_factory.hpp:77] Creating layer fc8_classification
I0907 16:53:18.742871 18814 net.cpp:91] Creating Layer fc8_classification
I0907 16:53:18.742895 18814 net.cpp:425] fc8_classification <- fc7_drop7_0_split_1
I0907 16:53:18.742913 18814 net.cpp:399] fc8_classification -> fc8_classification
I0907 16:53:18.746734 18814 net.cpp:141] Setting up fc8_classification
I0907 16:53:18.746773 18814 net.cpp:148] Top shape: 10 25 (250)
I0907 16:53:18.746788 18814 net.cpp:156] Memory required for data: 1152350280
I0907 16:53:18.746829 18814 layer_factory.hpp:77] Creating layer fc8_classification_fc8_classification_0_split
I0907 16:53:18.746850 18814 net.cpp:91] Creating Layer fc8_classification_fc8_classification_0_split
I0907 16:53:18.746865 18814 net.cpp:425] fc8_classification_fc8_classification_0_split <- fc8_classification
I0907 16:53:18.746882 18814 net.cpp:399] fc8_classification_fc8_classification_0_split -> fc8_classification_fc8_classification_0_split_0
I0907 16:53:18.746903 18814 net.cpp:399] fc8_classification_fc8_classification_0_split -> fc8_classification_fc8_classification_0_split_1
I0907 16:53:18.746964 18814 net.cpp:141] Setting up fc8_classification_fc8_classification_0_split
I0907 16:53:18.746991 18814 net.cpp:148] Top shape: 10 25 (250)
I0907 16:53:18.747007 18814 net.cpp:148] Top shape: 10 25 (250)
I0907 16:53:18.747022 18814 net.cpp:156] Memory required for data: 1152352280
I0907 16:53:18.747036 18814 layer_factory.hpp:77] Creating layer accuracy_at_1
I0907 16:53:18.747062 18814 net.cpp:91] Creating Layer accuracy_at_1
I0907 16:53:18.747078 18814 net.cpp:425] accuracy_at_1 <- fc8_classification_fc8_classification_0_split_0
I0907 16:53:18.747094 18814 net.cpp:425] accuracy_at_1 <- label_data_1_split_0
…
