…
I0831 13:17:59.449312 12026 net.cpp:313] The NetState phase (0) differed from the phase (1) specified by a rule in layer accuracy_at_5
I0831 13:17:59.449668 12026 net.cpp:49] Initializing net from parameters: 
name: "docomo_pattern_CNN"
state {
  phase: TRAIN
}
layer {
  name: "pattern"
  type: "Data"
  top: "data"
  top: "label"
  include {
    phase: TRAIN
  }
  transform_param {
    mirror: true
    mean_value: 103.939
    mean_value: 116.779
    mean_value: 123.68
  }
  data_param {
    source: "PATTERN/pattern_train_lmdb"
    batch_size: 50
    backend: LMDB
  }
}
layer {
  name: "conv1"
  type: "Convolution"
  bottom: "data"
  top: "conv1"
  param {
    lr_mult: 1
    decay_mult: 1
  }
  param {
    lr_mult: 2
    decay_mult: 0
  }
  convolution_param {
    num_output: 32
    pad: 2
    kernel_size: 5
    stride: 1
    weight_filler {
      type: "xavier"
    }
    bias_filler {
      type: "constant"
    }
  }
}
layer {
  name: "pool1"
  type: "Pooling"
  bottom: "conv1"
  top: "pool1"
  pooling_param {
    pool: MAX
    kernel_size: 3
    stride: 2
  }
}
layer {
  name: "relu1"
  type: "ReLU"
  bottom: "pool1"
  top: "pool1"
}
layer {
  name: "norm1"
  type: "LRN"
  bottom: "pool1"
  top: "norm1"
  lrn_param {
    local_size: 3
    alpha: 5e-05
    beta: 0.75
    norm_region: WITHIN_CHANNEL
  }
}
layer {
  name: "conv2"
  type: "Convolution"
  bottom: "norm1"
  top: "conv2"
  param {
    lr_mult: 1
    decay_mult: 1
  }
  param {
    lr_mult: 2
    decay_mult: 0
  }
  convolution_param {
    num_output: 32
    pad: 2
    kernel_size: 5
    stride: 1
    weight_filler {
      type: "xavier"
    }
    bias_filler {
      type: "constant"
    }
  }
}
layer {
  name: "pool2"
  type: "Pooling"
  bottom: "conv2"
  top: "pool2"
  pooling_param {
    pool: AVE
    kernel_size: 3
    stride: 2
  }
}
layer {
  name: "relu2"
  type: "ReLU"
  bottom: "pool2"
  top: "pool2"
}
layer {
  name: "norm2"
  type: "LRN"
  bottom: "pool2"
  top: "norm2"
  lrn_param {
    local_size: 3
    alpha: 5e-05
    beta: 0.75
    norm_region: WITHIN_CHANNEL
  }
}
layer {
  name: "conv3"
  type: "Convolution"
  bottom: "norm2"
  top: "conv3"
  param {
    lr_mult: 1
    decay_mult: 1
  }
  param {
    lr_mult: 2
    decay_mult: 0
  }
  convolution_param {
    num_output: 64
    pad: 2
    kernel_size: 5
    stride: 1
    weight_filler {
      type: "xavier"
    }
    bias_filler {
      type: "constant"
    }
  }
}
layer {
  name: "relu3"
  type: "ReLU"
  bottom: "conv3"
  top: "conv3"
}
layer {
  name: "pool3"
  type: "Pooling"
  bottom: "conv3"
  top: "pool3"
  pooling_param {
    pool: AVE
    kernel_size: 3
    stride: 2
  }
}
layer {
  name: "dropout_conv3"
  type: "Dropout"
  bottom: "pool3"
  top: "dropout_conv3"
  dropout_param {
    dropout_ratio: 0.5
  }
}
layer {
  name: "ip500"
  type: "InnerProduct"
  bottom: "dropout_conv3"
  top: "ip500"
  param {
    lr_mult: 1
    decay_mult: 1
  }
  param {
    lr_mult: 2
    decay_mult: 0
  }
  inner_product_param {
    num_output: 500
    weight_filler {
      type: "gaussian"
      std: 0.005
    }
    bias_filler {
      type: "constant"
      value: 0.1
    }
  }
}
layer {
  name: "relu_ip500"
  type: "ReLU"
  bottom: "ip500"
  top: "ip500"
}
layer {
  name: "dropout_ip500"
  type: "Dropout"
  bottom: "ip500"
  top: "ip500"
  dropout_param {
    dropout_ratio: 0.5
  }
}
layer {
  name: "ip_hash"
  type: "InnerProduct"
  bottom: "ip500"
  top: "ip_hash"
  param {
    lr_mult: 1
    decay_mult: 1
  }
  param {
    lr_mult: 2
    decay_mult: 0
  }
  inner_product_param {
    num_output: 12
    weight_filler {
      type: "gaussian"
      std: 0.005
    }
    bias_filler {
      type: "constant"
      value: 0.1
    }
  }
}
layer {
  name: "ip_classification"
  type: "InnerProduct"
  bottom: "ip500"
  top: "ip_classification"
  param {
    lr_mult: 1
    decay_mult: 1
  }
  param {
    lr_mult: 2
    decay_mult: 0
  }
  inner_product_param {
    num_output: 7
    weight_filler {
      type: "gaussian"
      std: 0.005
    }
    bias_filler {
      type: "constant"
      value: 0.1
    }
  }
}
layer {
  name: "loss_hash"
  type: "HashingLoss"
  bottom: "ip_hash"
  bottom: "label"
  top: "loss_hash"
  loss_weight: 0.1
  hashing_loss_param {
    bi_margin: 24
    tradeoff: 0.01
  }
}
layer {
  name: "loss_classification"
  type: "SoftmaxWithLoss"
  bottom: "ip_classification"
  bottom: "label"
  top: "loss_classification"
}
I0831 13:17:59.451855 12026 layer_factory.hpp:77] Creating layer pattern
I0831 13:17:59.452941 12026 net.cpp:91] Creating Layer pattern
I0831 13:17:59.453023 12026 net.cpp:399] pattern -> data
I0831 13:17:59.453109 12026 net.cpp:399] pattern -> label
I0831 13:17:59.454581 12032 db_lmdb.cpp:38] Opened lmdb PATTERN/pattern_train_lmdb
I0831 13:17:59.480590 12026 data_layer.cpp:41] output data size: 50,3,224,224
I0831 13:17:59.568032 12026 net.cpp:141] Setting up pattern
I0831 13:17:59.568130 12026 net.cpp:148] Top shape: 50 3 224 224 (7526400)
I0831 13:17:59.568159 12026 net.cpp:148] Top shape: 50 1 1 1 (50)
I0831 13:17:59.568179 12026 net.cpp:156] Memory required for data: 30105800
I0831 13:17:59.568210 12026 layer_factory.hpp:77] Creating layer label_pattern_1_split
I0831 13:17:59.568248 12026 net.cpp:91] Creating Layer label_pattern_1_split
I0831 13:17:59.568274 12026 net.cpp:425] label_pattern_1_split <- label
I0831 13:17:59.568312 12026 net.cpp:399] label_pattern_1_split -> label_pattern_1_split_0
I0831 13:17:59.568351 12026 net.cpp:399] label_pattern_1_split -> label_pattern_1_split_1
I0831 13:17:59.568441 12026 net.cpp:141] Setting up label_pattern_1_split
I0831 13:17:59.568475 12026 net.cpp:148] Top shape: 50 1 1 1 (50)
I0831 13:17:59.568496 12026 net.cpp:148] Top shape: 50 1 1 1 (50)
I0831 13:17:59.568517 12026 net.cpp:156] Memory required for data: 30106200
I0831 13:17:59.568536 12026 layer_factory.hpp:77] Creating layer conv1
I0831 13:17:59.568593 12026 net.cpp:91] Creating Layer conv1
I0831 13:17:59.568617 12026 net.cpp:425] conv1 <- data
I0831 13:17:59.568646 12026 net.cpp:399] conv1 -> conv1
I0831 13:17:59.571121 12026 net.cpp:141] Setting up conv1
I0831 13:17:59.571188 12026 net.cpp:148] Top shape: 50 32 224 224 (80281600)
I0831 13:17:59.571218 12026 net.cpp:156] Memory required for data: 351232600
I0831 13:17:59.571275 12026 layer_factory.hpp:77] Creating layer pool1
I0831 13:17:59.571318 12026 net.cpp:91] Creating Layer pool1
I0831 13:17:59.571352 12026 net.cpp:425] pool1 <- conv1
I0831 13:17:59.571382 12026 net.cpp:399] pool1 -> pool1
I0831 13:17:59.573590 12026 net.cpp:141] Setting up pool1
I0831 13:17:59.573624 12026 net.cpp:148] Top shape: 50 32 112 112 (20070400)
I0831 13:17:59.573644 12026 net.cpp:156] Memory required for data: 431514200
I0831 13:17:59.573664 12026 layer_factory.hpp:77] Creating layer relu1
I0831 13:17:59.573689 12026 net.cpp:91] Creating Layer relu1
I0831 13:17:59.573709 12026 net.cpp:425] relu1 <- pool1
I0831 13:17:59.573734 12026 net.cpp:386] relu1 -> pool1 (in-place)
I0831 13:17:59.573763 12026 net.cpp:141] Setting up relu1
I0831 13:17:59.573786 12026 net.cpp:148] Top shape: 50 32 112 112 (20070400)
I0831 13:17:59.573807 12026 net.cpp:156] Memory required for data: 511795800
I0831 13:17:59.573825 12026 layer_factory.hpp:77] Creating layer norm1
I0831 13:17:59.573854 12026 net.cpp:91] Creating Layer norm1
I0831 13:17:59.573925 12026 net.cpp:425] norm1 <- pool1
I0831 13:17:59.573951 12026 net.cpp:399] norm1 -> norm1
I0831 13:17:59.574144 12026 net.cpp:141] Setting up norm1
I0831 13:17:59.574177 12026 net.cpp:148] Top shape: 50 32 112 112 (20070400)
I0831 13:17:59.574196 12026 net.cpp:156] Memory required for data: 592077400
I0831 13:17:59.574215 12026 layer_factory.hpp:77] Creating layer conv2
I0831 13:17:59.574247 12026 net.cpp:91] Creating Layer conv2
I0831 13:17:59.574271 12026 net.cpp:425] conv2 <- norm1
I0831 13:17:59.574296 12026 net.cpp:399] conv2 -> conv2
I0831 13:17:59.575883 12026 net.cpp:141] Setting up conv2
I0831 13:17:59.575934 12026 net.cpp:148] Top shape: 50 32 112 112 (20070400)
I0831 13:17:59.575960 12026 net.cpp:156] Memory required for data: 672359000
I0831 13:17:59.575999 12026 layer_factory.hpp:77] Creating layer pool2
I0831 13:17:59.576036 12026 net.cpp:91] Creating Layer pool2
I0831 13:17:59.576067 12026 net.cpp:425] pool2 <- conv2
I0831 13:17:59.576097 12026 net.cpp:399] pool2 -> pool2
I0831 13:17:59.576172 12026 net.cpp:141] Setting up pool2
I0831 13:17:59.576215 12026 net.cpp:148] Top shape: 50 32 56 56 (5017600)
I0831 13:17:59.576239 12026 net.cpp:156] Memory required for data: 692429400
I0831 13:17:59.576264 12026 layer_factory.hpp:77] Creating layer relu2
I0831 13:17:59.576297 12026 net.cpp:91] Creating Layer relu2
I0831 13:17:59.576321 12026 net.cpp:425] relu2 <- pool2
I0831 13:17:59.576354 12026 net.cpp:386] relu2 -> pool2 (in-place)
I0831 13:17:59.576386 12026 net.cpp:141] Setting up relu2
I0831 13:17:59.576416 12026 net.cpp:148] Top shape: 50 32 56 56 (5017600)
I0831 13:17:59.576442 12026 net.cpp:156] Memory required for data: 712499800
I0831 13:17:59.576467 12026 layer_factory.hpp:77] Creating layer norm2
I0831 13:17:59.576495 12026 net.cpp:91] Creating Layer norm2
I0831 13:17:59.576519 12026 net.cpp:425] norm2 <- pool2
I0831 13:17:59.576558 12026 net.cpp:399] norm2 -> norm2
I0831 13:17:59.576761 12026 net.cpp:141] Setting up norm2
I0831 13:17:59.576802 12026 net.cpp:148] Top shape: 50 32 56 56 (5017600)
I0831 13:17:59.576828 12026 net.cpp:156] Memory required for data: 732570200
I0831 13:17:59.576851 12026 layer_factory.hpp:77] Creating layer conv3
I0831 13:17:59.576896 12026 net.cpp:91] Creating Layer conv3
I0831 13:17:59.576927 12026 net.cpp:425] conv3 <- norm2
I0831 13:17:59.576959 12026 net.cpp:399] conv3 -> conv3
I0831 13:17:59.578104 12026 net.cpp:141] Setting up conv3
I0831 13:17:59.578147 12026 net.cpp:148] Top shape: 50 64 56 56 (10035200)
I0831 13:17:59.578173 12026 net.cpp:156] Memory required for data: 772711000
I0831 13:17:59.578305 12026 layer_factory.hpp:77] Creating layer relu3
I0831 13:17:59.578327 12026 net.cpp:91] Creating Layer relu3
I0831 13:17:59.578343 12026 net.cpp:425] relu3 <- conv3
I0831 13:17:59.578359 12026 net.cpp:386] relu3 -> conv3 (in-place)
I0831 13:17:59.578385 12026 net.cpp:141] Setting up relu3
I0831 13:17:59.578403 12026 net.cpp:148] Top shape: 50 64 56 56 (10035200)
I0831 13:17:59.578418 12026 net.cpp:156] Memory required for data: 812851800
I0831 13:17:59.578433 12026 layer_factory.hpp:77] Creating layer pool3
I0831 13:17:59.578450 12026 net.cpp:91] Creating Layer pool3
I0831 13:17:59.578464 12026 net.cpp:425] pool3 <- conv3
I0831 13:17:59.578485 12026 net.cpp:399] pool3 -> pool3
I0831 13:17:59.578526 12026 net.cpp:141] Setting up pool3
I0831 13:17:59.578557 12026 net.cpp:148] Top shape: 50 64 28 28 (2508800)
I0831 13:17:59.578577 12026 net.cpp:156] Memory required for data: 822887000
I0831 13:17:59.578591 12026 layer_factory.hpp:77] Creating layer dropout_conv3
I0831 13:17:59.578613 12026 net.cpp:91] Creating Layer dropout_conv3
I0831 13:17:59.578629 12026 net.cpp:425] dropout_conv3 <- pool3
I0831 13:17:59.578644 12026 net.cpp:399] dropout_conv3 -> dropout_conv3
I0831 13:17:59.578707 12026 net.cpp:141] Setting up dropout_conv3
I0831 13:17:59.578730 12026 net.cpp:148] Top shape: 50 64 28 28 (2508800)
I0831 13:17:59.578744 12026 net.cpp:156] Memory required for data: 832922200
I0831 13:17:59.578758 12026 layer_factory.hpp:77] Creating layer ip500
I0831 13:17:59.578805 12026 net.cpp:91] Creating Layer ip500
I0831 13:17:59.578824 12026 net.cpp:425] ip500 <- dropout_conv3
I0831 13:17:59.578842 12026 net.cpp:399] ip500 -> ip500
I0831 13:18:00.517841 12026 net.cpp:141] Setting up ip500
I0831 13:18:00.517917 12026 net.cpp:148] Top shape: 50 500 (25000)
I0831 13:18:00.517935 12026 net.cpp:156] Memory required for data: 833022200
I0831 13:18:00.517958 12026 layer_factory.hpp:77] Creating layer relu_ip500
I0831 13:18:00.517982 12026 net.cpp:91] Creating Layer relu_ip500
I0831 13:18:00.517997 12026 net.cpp:425] relu_ip500 <- ip500
I0831 13:18:00.518020 12026 net.cpp:386] relu_ip500 -> ip500 (in-place)
I0831 13:18:00.518043 12026 net.cpp:141] Setting up relu_ip500
I0831 13:18:00.518074 12026 net.cpp:148] Top shape: 50 500 (25000)
I0831 13:18:00.518087 12026 net.cpp:156] Memory required for data: 833122200
I0831 13:18:00.518102 12026 layer_factory.hpp:77] Creating layer dropout_ip500
I0831 13:18:00.518126 12026 net.cpp:91] Creating Layer dropout_ip500
I0831 13:18:00.518141 12026 net.cpp:425] dropout_ip500 <- ip500
I0831 13:18:00.518157 12026 net.cpp:386] dropout_ip500 -> ip500 (in-place)
I0831 13:18:00.518199 12026 net.cpp:141] Setting up dropout_ip500
I0831 13:18:00.518221 12026 net.cpp:148] Top shape: 50 500 (25000)
I0831 13:18:00.518235 12026 net.cpp:156] Memory required for data: 833222200
I0831 13:18:00.518249 12026 layer_factory.hpp:77] Creating layer ip500_dropout_ip500_0_split
I0831 13:18:00.518267 12026 net.cpp:91] Creating Layer ip500_dropout_ip500_0_split
I0831 13:18:00.518281 12026 net.cpp:425] ip500_dropout_ip500_0_split <- ip500
I0831 13:18:00.518308 12026 net.cpp:399] ip500_dropout_ip500_0_split -> ip500_dropout_ip500_0_split_0
I0831 13:18:00.518329 12026 net.cpp:399] ip500_dropout_ip500_0_split -> ip500_dropout_ip500_0_split_1
I0831 13:18:00.518398 12026 net.cpp:141] Setting up ip500_dropout_ip500_0_split
I0831 13:18:00.518422 12026 net.cpp:148] Top shape: 50 500 (25000)
I0831 13:18:00.518441 12026 net.cpp:148] Top shape: 50 500 (25000)
I0831 13:18:00.518455 12026 net.cpp:156] Memory required for data: 833422200
I0831 13:18:00.518473 12026 layer_factory.hpp:77] Creating layer ip_hash
I0831 13:18:00.518494 12026 net.cpp:91] Creating Layer ip_hash
I0831 13:18:00.518508 12026 net.cpp:425] ip_hash <- ip500_dropout_ip500_0_split_0
I0831 13:18:00.518527 12026 net.cpp:399] ip_hash -> ip_hash
I0831 13:18:00.518889 12026 net.cpp:141] Setting up ip_hash
I0831 13:18:00.518913 12026 net.cpp:148] Top shape: 50 12 (600)
I0831 13:18:00.518926 12026 net.cpp:156] Memory required for data: 833424600
I0831 13:18:00.518949 12026 layer_factory.hpp:77] Creating layer ip_classification
I0831 13:18:00.518971 12026 net.cpp:91] Creating Layer ip_classification
I0831 13:18:00.518990 12026 net.cpp:425] ip_classification <- ip500_dropout_ip500_0_split_1
I0831 13:18:00.519006 12026 net.cpp:399] ip_classification -> ip_classification
I0831 13:18:00.519248 12026 net.cpp:141] Setting up ip_classification
I0831 13:18:00.519270 12026 net.cpp:148] Top shape: 50 7 (350)
I0831 13:18:00.519284 12026 net.cpp:156] Memory required for data: 833426000
I0831 13:18:00.519301 12026 layer_factory.hpp:77] Creating layer loss_hash
I0831 13:18:00.519326 12026 net.cpp:91] Creating Layer loss_hash
I0831 13:18:00.519347 12026 net.cpp:425] loss_hash <- ip_hash
I0831 13:18:00.519362 12026 net.cpp:425] loss_hash <- label_pattern_1_split_0
I0831 13:18:00.519379 12026 net.cpp:399] loss_hash -> loss_hash
…
I0831 13:18:00.520979 12026 net.cpp:313] The NetState phase (1) differed from the phase (0) specified by a rule in layer pattern
I0831 13:18:00.521206 12026 net.cpp:49] Initializing net from parameters: 
name: "docomo_pattern_CNN"
state {
  phase: TEST
}
layer {
  name: "pattern"
  type: "Data"
  top: "data"
  top: "label"
  include {
    phase: TEST
  }
  transform_param {
    mirror: false
    mean_value: 103.939
    mean_value: 116.779
    mean_value: 123.68
  }
  data_param {
    source: "PATTERN/pattern_val_lmdb"
    batch_size: 50
    backend: LMDB
  }
}
layer {
  name: "conv1"
  type: "Convolution"
  bottom: "data"
  top: "conv1"
  param {
    lr_mult: 1
    decay_mult: 1
  }
  param {
    lr_mult: 2
    decay_mult: 0
  }
  convolution_param {
    num_output: 32
    pad: 2
    kernel_size: 5
    stride: 1
    weight_filler {
      type: "xavier"
    }
    bias_filler {
      type: "constant"
    }
  }
}
layer {
  name: "pool1"
  type: "Pooling"
  bottom: "conv1"
  top: "pool1"
  pooling_param {
    pool: MAX
    kernel_size: 3
    stride: 2
  }
}
layer {
  name: "relu1"
  type: "ReLU"
  bottom: "pool1"
  top: "pool1"
}
layer {
  name: "norm1"
  type: "LRN"
  bottom: "pool1"
  top: "norm1"
  lrn_param {
    local_size: 3
    alpha: 5e-05
    beta: 0.75
    norm_region: WITHIN_CHANNEL
  }
}
layer {
  name: "conv2"
  type: "Convolution"
  bottom: "norm1"
  top: "conv2"
  param {
    lr_mult: 1
    decay_mult: 1
  }
  param {
    lr_mult: 2
    decay_mult: 0
  }
  convolution_param {
    num_output: 32
    pad: 2
    kernel_size: 5
    stride: 1
    weight_filler {
      type: "xavier"
    }
    bias_filler {
      type: "constant"
    }
  }
}
layer {
  name: "pool2"
  type: "Pooling"
  bottom: "conv2"
  top: "pool2"
  pooling_param {
    pool: AVE
    kernel_size: 3
    stride: 2
  }
}
layer {
  name: "relu2"
  type: "ReLU"
  bottom: "pool2"
  top: "pool2"
}
layer {
  name: "norm2"
  type: "LRN"
  bottom: "pool2"
  top: "norm2"
  lrn_param {
    local_size: 3
    alpha: 5e-05
    beta: 0.75
    norm_region: WITHIN_CHANNEL
  }
}
layer {
  name: "conv3"
  type: "Convolution"
  bottom: "norm2"
  top: "conv3"
  param {
    lr_mult: 1
    decay_mult: 1
  }
  param {
    lr_mult: 2
    decay_mult: 0
  }
  convolution_param {
    num_output: 64
    pad: 2
    kernel_size: 5
    stride: 1
    weight_filler {
      type: "xavier"
    }
    bias_filler {
      type: "constant"
    }
  }
}
layer {
  name: "relu3"
  type: "ReLU"
  bottom: "conv3"
  top: "conv3"
}
layer {
  name: "pool3"
  type: "Pooling"
  bottom: "conv3"
  top: "pool3"
  pooling_param {
    pool: AVE
    kernel_size: 3
    stride: 2
  }
}
layer {
  name: "dropout_conv3"
  type: "Dropout"
  bottom: "pool3"
  top: "dropout_conv3"
  dropout_param {
    dropout_ratio: 0.5
  }
}
layer {
  name: "ip500"
  type: "InnerProduct"
  bottom: "dropout_conv3"
  top: "ip500"
  param {
    lr_mult: 1
    decay_mult: 1
  }
  param {
    lr_mult: 2
    decay_mult: 0
  }
  inner_product_param {
    num_output: 500
    weight_filler {
      type: "gaussian"
      std: 0.005
    }
    bias_filler {
      type: "constant"
      value: 0.1
    }
  }
}
layer {
  name: "relu_ip500"
  type: "ReLU"
  bottom: "ip500"
  top: "ip500"
}
layer {
  name: "dropout_ip500"
  type: "Dropout"
  bottom: "ip500"
  top: "ip500"
  dropout_param {
    dropout_ratio: 0.5
  }
}
layer {
  name: "ip_hash"
  type: "InnerProduct"
  bottom: "ip500"
  top: "ip_hash"
  param {
    lr_mult: 1
    decay_mult: 1
  }
  param {
    lr_mult: 2
    decay_mult: 0
  }
  inner_product_param {
    num_output: 12
    weight_filler {
      type: "gaussian"
      std: 0.005
    }
    bias_filler {
      type: "constant"
      value: 0.1
    }
  }
}
layer {
  name: "ip_classification"
  type: "InnerProduct"
  bottom: "ip500"
  top: "ip_classification"
  param {
    lr_mult: 1
    decay_mult: 1
  }
  param {
    lr_mult: 2
    decay_mult: 0
  }
  inner_product_param {
    num_output: 7
    weight_filler {
      type: "gaussian"
      std: 0.005
    }
    bias_filler {
      type: "constant"
      value: 0.1
    }
  }
}
layer {
  name: "loss_hash"
  type: "HashingLoss"
  bottom: "ip_hash"
  bottom: "label"
  top: "loss_hash"
  loss_weight: 0.1
  hashing_loss_param {
    bi_margin: 24
    tradeoff: 0.01
  }
}
layer {
  name: "loss_classification"
  type: "SoftmaxWithLoss"
  bottom: "ip_classification"
  bottom: "label"
  top: "loss_classification"
}
layer {
  name: "accuracy_at_1"
  type: "Accuracy"
  bottom: "ip_classification"
  bottom: "label"
  top: "accuracy_at_1"
  include {
    phase: TEST
  }
  accuracy_param {
    top_k: 1
  }
}
layer {
  name: "accuracy_at_5"
  type: "Accuracy"
  bottom: "ip_classification"
  bottom: "label"
  top: "accuracy_at_5"
  include {
    phase: TEST
  }
  accuracy_param {
    top_k: 5
  }
}
I0831 13:18:00.522480 12026 layer_factory.hpp:77] Creating layer pattern
I0831 13:18:00.522614 12026 net.cpp:91] Creating Layer pattern
I0831 13:18:00.522655 12026 net.cpp:399] pattern -> data
I0831 13:18:00.522677 12026 net.cpp:399] pattern -> label
I0831 13:18:00.523813 12034 db_lmdb.cpp:38] Opened lmdb PATTERN/pattern_val_lmdb
I0831 13:18:00.524224 12026 data_layer.cpp:41] output data size: 50,3,224,224
I0831 13:18:00.582200 12026 net.cpp:141] Setting up pattern
I0831 13:18:00.582279 12026 net.cpp:148] Top shape: 50 3 224 224 (7526400)
I0831 13:18:00.582300 12026 net.cpp:148] Top shape: 50 1 1 1 (50)
I0831 13:18:00.582316 12026 net.cpp:156] Memory required for data: 30105800
I0831 13:18:00.582335 12026 layer_factory.hpp:77] Creating layer label_pattern_1_split
I0831 13:18:00.582363 12026 net.cpp:91] Creating Layer label_pattern_1_split
I0831 13:18:00.582438 12026 net.cpp:425] label_pattern_1_split <- label
I0831 13:18:00.582463 12026 net.cpp:399] label_pattern_1_split -> label_pattern_1_split_0
I0831 13:18:00.582491 12026 net.cpp:399] label_pattern_1_split -> label_pattern_1_split_1
I0831 13:18:00.582516 12026 net.cpp:399] label_pattern_1_split -> label_pattern_1_split_2
I0831 13:18:00.582537 12026 net.cpp:399] label_pattern_1_split -> label_pattern_1_split_3
I0831 13:18:00.582638 12026 net.cpp:141] Setting up label_pattern_1_split
I0831 13:18:00.582662 12026 net.cpp:148] Top shape: 50 1 1 1 (50)
I0831 13:18:00.582679 12026 net.cpp:148] Top shape: 50 1 1 1 (50)
I0831 13:18:00.582696 12026 net.cpp:148] Top shape: 50 1 1 1 (50)
I0831 13:18:00.582712 12026 net.cpp:148] Top shape: 50 1 1 1 (50)
I0831 13:18:00.582727 12026 net.cpp:156] Memory required for data: 30106600
I0831 13:18:00.582743 12026 layer_factory.hpp:77] Creating layer conv1
I0831 13:18:00.582777 12026 net.cpp:91] Creating Layer conv1
I0831 13:18:00.582795 12026 net.cpp:425] conv1 <- data
I0831 13:18:00.582818 12026 net.cpp:399] conv1 -> conv1
I0831 13:18:00.583178 12026 net.cpp:141] Setting up conv1
I0831 13:18:00.583210 12026 net.cpp:148] Top shape: 50 32 224 224 (80281600)
I0831 13:18:00.583225 12026 net.cpp:156] Memory required for data: 351233000
I0831 13:18:00.583261 12026 layer_factory.hpp:77] Creating layer pool1
I0831 13:18:00.583286 12026 net.cpp:91] Creating Layer pool1
I0831 13:18:00.583302 12026 net.cpp:425] pool1 <- conv1
I0831 13:18:00.583328 12026 net.cpp:399] pool1 -> pool1
I0831 13:18:00.585762 12026 net.cpp:141] Setting up pool1
I0831 13:18:00.585810 12026 net.cpp:148] Top shape: 50 32 112 112 (20070400)
I0831 13:18:00.585827 12026 net.cpp:156] Memory required for data: 431514600
I0831 13:18:00.585844 12026 layer_factory.hpp:77] Creating layer relu1
I0831 13:18:00.585865 12026 net.cpp:91] Creating Layer relu1
I0831 13:18:00.585881 12026 net.cpp:425] relu1 <- pool1
I0831 13:18:00.585899 12026 net.cpp:386] relu1 -> pool1 (in-place)
I0831 13:18:00.585921 12026 net.cpp:141] Setting up relu1
I0831 13:18:00.585938 12026 net.cpp:148] Top shape: 50 32 112 112 (20070400)
I0831 13:18:00.585963 12026 net.cpp:156] Memory required for data: 511796200
I0831 13:18:00.585978 12026 layer_factory.hpp:77] Creating layer norm1
I0831 13:18:00.586002 12026 net.cpp:91] Creating Layer norm1
I0831 13:18:00.586030 12026 net.cpp:425] norm1 <- pool1
I0831 13:18:00.586050 12026 net.cpp:399] norm1 -> norm1
I0831 13:18:00.586182 12026 net.cpp:141] Setting up norm1
I0831 13:18:00.586213 12026 net.cpp:148] Top shape: 50 32 112 112 (20070400)
I0831 13:18:00.586230 12026 net.cpp:156] Memory required for data: 592077800
I0831 13:18:00.586243 12026 layer_factory.hpp:77] Creating layer conv2
I0831 13:18:00.586269 12026 net.cpp:91] Creating Layer conv2
I0831 13:18:00.586290 12026 net.cpp:425] conv2 <- norm1
I0831 13:18:00.586308 12026 net.cpp:399] conv2 -> conv2
I0831 13:18:00.586818 12026 net.cpp:141] Setting up conv2
I0831 13:18:00.586846 12026 net.cpp:148] Top shape: 50 32 112 112 (20070400)
I0831 13:18:00.586865 12026 net.cpp:156] Memory required for data: 672359400
I0831 13:18:00.586887 12026 layer_factory.hpp:77] Creating layer pool2
I0831 13:18:00.586910 12026 net.cpp:91] Creating Layer pool2
I0831 13:18:00.586926 12026 net.cpp:425] pool2 <- conv2
I0831 13:18:00.586943 12026 net.cpp:399] pool2 -> pool2
I0831 13:18:00.586992 12026 net.cpp:141] Setting up pool2
I0831 13:18:00.587018 12026 net.cpp:148] Top shape: 50 32 56 56 (5017600)
I0831 13:18:00.587034 12026 net.cpp:156] Memory required for data: 692429800
I0831 13:18:00.587049 12026 layer_factory.hpp:77] Creating layer relu2
I0831 13:18:00.587067 12026 net.cpp:91] Creating Layer relu2
I0831 13:18:00.587086 12026 net.cpp:425] relu2 <- pool2
I0831 13:18:00.587106 12026 net.cpp:386] relu2 -> pool2 (in-place)
I0831 13:18:00.587131 12026 net.cpp:141] Setting up relu2
I0831 13:18:00.587147 12026 net.cpp:148] Top shape: 50 32 56 56 (5017600)
I0831 13:18:00.587163 12026 net.cpp:156] Memory required for data: 712500200
I0831 13:18:00.587178 12026 layer_factory.hpp:77] Creating layer norm2
I0831 13:18:00.587224 12026 net.cpp:91] Creating Layer norm2
I0831 13:18:00.587241 12026 net.cpp:425] norm2 <- pool2
I0831 13:18:00.587266 12026 net.cpp:399] norm2 -> norm2
I0831 13:18:00.587393 12026 net.cpp:141] Setting up norm2
I0831 13:18:00.587419 12026 net.cpp:148] Top shape: 50 32 56 56 (5017600)
I0831 13:18:00.587435 12026 net.cpp:156] Memory required for data: 732570600
I0831 13:18:00.587448 12026 layer_factory.hpp:77] Creating layer conv3
I0831 13:18:00.587473 12026 net.cpp:91] Creating Layer conv3
I0831 13:18:00.587494 12026 net.cpp:425] conv3 <- norm2
I0831 13:18:00.587512 12026 net.cpp:399] conv3 -> conv3
I0831 13:18:00.588224 12026 net.cpp:141] Setting up conv3
I0831 13:18:00.588251 12026 net.cpp:148] Top shape: 50 64 56 56 (10035200)
I0831 13:18:00.588274 12026 net.cpp:156] Memory required for data: 772711400
I0831 13:18:00.588295 12026 layer_factory.hpp:77] Creating layer relu3
I0831 13:18:00.588317 12026 net.cpp:91] Creating Layer relu3
I0831 13:18:00.588332 12026 net.cpp:425] relu3 <- conv3
I0831 13:18:00.588349 12026 net.cpp:386] relu3 -> conv3 (in-place)
I0831 13:18:00.588372 12026 net.cpp:141] Setting up relu3
I0831 13:18:00.588390 12026 net.cpp:148] Top shape: 50 64 56 56 (10035200)
I0831 13:18:00.588407 12026 net.cpp:156] Memory required for data: 812852200
I0831 13:18:00.588428 12026 layer_factory.hpp:77] Creating layer pool3
I0831 13:18:00.588446 12026 net.cpp:91] Creating Layer pool3
I0831 13:18:00.588461 12026 net.cpp:425] pool3 <- conv3
I0831 13:18:00.588480 12026 net.cpp:399] pool3 -> pool3
I0831 13:18:00.588521 12026 net.cpp:141] Setting up pool3
I0831 13:18:00.588541 12026 net.cpp:148] Top shape: 50 64 28 28 (2508800)
I0831 13:18:00.588557 12026 net.cpp:156] Memory required for data: 822887400
I0831 13:18:00.588577 12026 layer_factory.hpp:77] Creating layer dropout_conv3
I0831 13:18:00.588599 12026 net.cpp:91] Creating Layer dropout_conv3
I0831 13:18:00.588618 12026 net.cpp:425] dropout_conv3 <- pool3
I0831 13:18:00.588636 12026 net.cpp:399] dropout_conv3 -> dropout_conv3
I0831 13:18:00.588698 12026 net.cpp:141] Setting up dropout_conv3
I0831 13:18:00.588726 12026 net.cpp:148] Top shape: 50 64 28 28 (2508800)
I0831 13:18:00.588740 12026 net.cpp:156] Memory required for data: 832922600
I0831 13:18:00.588755 12026 layer_factory.hpp:77] Creating layer ip500
I0831 13:18:00.588778 12026 net.cpp:91] Creating Layer ip500
I0831 13:18:00.588793 12026 net.cpp:425] ip500 <- dropout_conv3
I0831 13:18:00.588811 12026 net.cpp:399] ip500 -> ip500
I0831 13:18:01.517550 12026 net.cpp:141] Setting up ip500
I0831 13:18:01.517624 12026 net.cpp:148] Top shape: 50 500 (25000)
I0831 13:18:01.517639 12026 net.cpp:156] Memory required for data: 833022600
I0831 13:18:01.517663 12026 layer_factory.hpp:77] Creating layer relu_ip500
I0831 13:18:01.517685 12026 net.cpp:91] Creating Layer relu_ip500
I0831 13:18:01.517701 12026 net.cpp:425] relu_ip500 <- ip500
I0831 13:18:01.517722 12026 net.cpp:386] relu_ip500 -> ip500 (in-place)
I0831 13:18:01.517745 12026 net.cpp:141] Setting up relu_ip500
I0831 13:18:01.517760 12026 net.cpp:148] Top shape: 50 500 (25000)
I0831 13:18:01.517774 12026 net.cpp:156] Memory required for data: 833122600
I0831 13:18:01.517792 12026 layer_factory.hpp:77] Creating layer dropout_ip500
I0831 13:18:01.517813 12026 net.cpp:91] Creating Layer dropout_ip500
I0831 13:18:01.517828 12026 net.cpp:425] dropout_ip500 <- ip500
I0831 13:18:01.517844 12026 net.cpp:386] dropout_ip500 -> ip500 (in-place)
I0831 13:18:01.517887 12026 net.cpp:141] Setting up dropout_ip500
I0831 13:18:01.517916 12026 net.cpp:148] Top shape: 50 500 (25000)
I0831 13:18:01.517931 12026 net.cpp:156] Memory required for data: 833222600
I0831 13:18:01.517944 12026 layer_factory.hpp:77] Creating layer ip500_dropout_ip500_0_split
I0831 13:18:01.517964 12026 net.cpp:91] Creating Layer ip500_dropout_ip500_0_split
I0831 13:18:01.517979 12026 net.cpp:425] ip500_dropout_ip500_0_split <- ip500
I0831 13:18:01.517995 12026 net.cpp:399] ip500_dropout_ip500_0_split -> ip500_dropout_ip500_0_split_0
I0831 13:18:01.518054 12026 net.cpp:399] ip500_dropout_ip500_0_split -> ip500_dropout_ip500_0_split_1
I0831 13:18:01.518108 12026 net.cpp:141] Setting up ip500_dropout_ip500_0_split
I0831 13:18:01.518131 12026 net.cpp:148] Top shape: 50 500 (25000)
I0831 13:18:01.518146 12026 net.cpp:148] Top shape: 50 500 (25000)
I0831 13:18:01.518159 12026 net.cpp:156] Memory required for data: 833422600
I0831 13:18:01.518173 12026 layer_factory.hpp:77] Creating layer ip_hash
I0831 13:18:01.518193 12026 net.cpp:91] Creating Layer ip_hash
I0831 13:18:01.518208 12026 net.cpp:425] ip_hash <- ip500_dropout_ip500_0_split_0
I0831 13:18:01.518226 12026 net.cpp:399] ip_hash -> ip_hash
I0831 13:18:01.518569 12026 net.cpp:141] Setting up ip_hash
I0831 13:18:01.518592 12026 net.cpp:148] Top shape: 50 12 (600)
I0831 13:18:01.518606 12026 net.cpp:156] Memory required for data: 833425000
I0831 13:18:01.518632 12026 layer_factory.hpp:77] Creating layer ip_classification
I0831 13:18:01.518653 12026 net.cpp:91] Creating Layer ip_classification
I0831 13:18:01.518668 12026 net.cpp:425] ip_classification <- ip500_dropout_ip500_0_split_1
I0831 13:18:01.518684 12026 net.cpp:399] ip_classification -> ip_classification
I0831 13:18:01.518923 12026 net.cpp:141] Setting up ip_classification
I0831 13:18:01.518945 12026 net.cpp:148] Top shape: 50 7 (350)
I0831 13:18:01.518959 12026 net.cpp:156] Memory required for data: 833426400
I0831 13:18:01.518976 12026 layer_factory.hpp:77] Creating layer ip_classification_ip_classification_0_split
I0831 13:18:01.518995 12026 net.cpp:91] Creating Layer ip_classification_ip_classification_0_split
I0831 13:18:01.519008 12026 net.cpp:425] ip_classification_ip_classification_0_split <- ip_classification
I0831 13:18:01.519024 12026 net.cpp:399] ip_classification_ip_classification_0_split -> ip_classification_ip_classification_0_split_0
I0831 13:18:01.519043 12026 net.cpp:399] ip_classification_ip_classification_0_split -> ip_classification_ip_classification_0_split_1
I0831 13:18:01.519062 12026 net.cpp:399] ip_classification_ip_classification_0_split -> ip_classification_ip_classification_0_split_2
I0831 13:18:01.519127 12026 net.cpp:141] Setting up ip_classification_ip_classification_0_split
I0831 13:18:01.519151 12026 net.cpp:148] Top shape: 50 7 (350)
I0831 13:18:01.519166 12026 net.cpp:148] Top shape: 50 7 (350)
I0831 13:18:01.519181 12026 net.cpp:148] Top shape: 50 7 (350)
I0831 13:18:01.519194 12026 net.cpp:156] Memory required for data: 833430600
I0831 13:18:01.519207 12026 layer_factory.hpp:77] Creating layer loss_hash
I0831 13:18:01.519229 12026 net.cpp:91] Creating Layer loss_hash
I0831 13:18:01.519249 12026 net.cpp:425] loss_hash <- ip_hash
I0831 13:18:01.519264 12026 net.cpp:425] loss_hash <- label_pattern_1_split_0
I0831 13:18:01.519281 12026 net.cpp:399] loss_hash -> loss_hash
…
