…
I0901 10:54:39.587450 22581 net.cpp:313] The NetState phase (1) differed from the phase (0) specified by a rule in layer pattern
I0901 10:54:39.588045 22581 net.cpp:49] Initializing net from parameters: 
name: "docomo_pattern_CNN"
state {
  phase: TEST
}
layer {
  name: "pattern"
  type: "Data"
  top: "data"
  top: "label"
  include {
    phase: TEST
  }
  transform_param {
    mirror: false
    mean_value: 103.939
    mean_value: 116.779
    mean_value: 123.68
  }
  data_param {
    source: "PATTERN/pattern_train_lmdb"
    batch_size: 30
    backend: LMDB
  }
}
layer {
  name: "conv1"
  type: "Convolution"
  bottom: "data"
  top: "conv1"
  param {
    lr_mult: 1
    decay_mult: 1
  }
  param {
    lr_mult: 2
    decay_mult: 0
  }
  convolution_param {
    num_output: 32
    pad: 2
    kernel_size: 5
    stride: 1
    weight_filler {
      type: "xavier"
    }
    bias_filler {
      type: "constant"
    }
  }
}
layer {
  name: "pool1"
  type: "Pooling"
  bottom: "conv1"
  top: "pool1"
  pooling_param {
    pool: MAX
    kernel_size: 3
    stride: 2
  }
}
layer {
  name: "relu1"
  type: "ReLU"
  bottom: "pool1"
  top: "pool1"
}
layer {
  name: "norm1"
  type: "LRN"
  bottom: "pool1"
  top: "norm1"
  lrn_param {
    local_size: 3
    alpha: 5e-05
    beta: 0.75
    norm_region: WITHIN_CHANNEL
  }
}
layer {
  name: "conv2"
  type: "Convolution"
  bottom: "norm1"
  top: "conv2"
  param {
    lr_mult: 1
    decay_mult: 1
  }
  param {
    lr_mult: 2
    decay_mult: 0
  }
  convolution_param {
    num_output: 32
    pad: 2
    kernel_size: 5
    stride: 1
    weight_filler {
      type: "xavier"
    }
    bias_filler {
      type: "constant"
    }
  }
}
layer {
  name: "pool2"
  type: "Pooling"
  bottom: "conv2"
  top: "pool2"
  pooling_param {
    pool: AVE
    kernel_size: 3
    stride: 2
  }
}
layer {
  name: "relu2"
  type: "ReLU"
  bottom: "pool2"
  top: "pool2"
}
layer {
  name: "norm2"
  type: "LRN"
  bottom: "pool2"
  top: "norm2"
  lrn_param {
    local_size: 3
    alpha: 5e-05
    beta: 0.75
    norm_region: WITHIN_CHANNEL
  }
}
layer {
  name: "conv3"
  type: "Convolution"
  bottom: "norm2"
  top: "conv3"
  param {
    lr_mult: 1
    decay_mult: 1
  }
  param {
    lr_mult: 2
    decay_mult: 0
  }
  convolution_param {
    num_output: 64
    pad: 2
    kernel_size: 5
    stride: 1
    weight_filler {
      type: "xavier"
    }
    bias_filler {
      type: "constant"
    }
  }
}
layer {
  name: "relu3"
  type: "ReLU"
  bottom: "conv3"
  top: "conv3"
}
layer {
  name: "pool3"
  type: "Pooling"
  bottom: "conv3"
  top: "pool3"
  pooling_param {
    pool: AVE
    kernel_size: 3
    stride: 2
  }
}
layer {
  name: "dropout_conv3"
  type: "Dropout"
  bottom: "pool3"
  top: "dropout_conv3"
  dropout_param {
    dropout_ratio: 0.5
  }
}
layer {
  name: "ip500"
  type: "InnerProduct"
  bottom: "dropout_conv3"
  top: "ip500"
  param {
    lr_mult: 1
    decay_mult: 1
  }
  param {
    lr_mult: 2
    decay_mult: 0
  }
  inner_product_param {
    num_output: 500
    weight_filler {
      type: "gaussian"
      std: 0.005
    }
    bias_filler {
      type: "constant"
      value: 0.1
    }
  }
}
layer {
  name: "relu_ip500"
  type: "ReLU"
  bottom: "ip500"
  top: "ip500"
}
layer {
  name: "dropout_ip500"
  type: "Dropout"
  bottom: "ip500"
  top: "ip500"
  dropout_param {
    dropout_ratio: 0.5
  }
}
layer {
  name: "ip_hash"
  type: "InnerProduct"
  bottom: "ip500"
  top: "ip_hash"
  param {
    lr_mult: 1
    decay_mult: 1
  }
  param {
    lr_mult: 2
    decay_mult: 0
  }
  inner_product_param {
    num_output: 12
    weight_filler {
      type: "gaussian"
      std: 0.005
    }
    bias_filler {
      type: "constant"
      value: 0.1
    }
  }
}
layer {
  name: "ip_classification"
  type: "InnerProduct"
  bottom: "ip500"
  top: "ip_classification"
  param {
    lr_mult: 1
    decay_mult: 1
  }
  param {
    lr_mult: 2
    decay_mult: 0
  }
  inner_product_param {
    num_output: 7
    weight_filler {
      type: "gaussian"
      std: 0.005
    }
    bias_filler {
      type: "constant"
      value: 0.1
    }
  }
}
layer {
  name: "loss_hash"
  type: "HashingLoss"
  bottom: "ip_hash"
  bottom: "label"
  top: "loss_hash"
  loss_weight: 0.1
  hashing_loss_param {
    bi_margin: 24
    tradeoff: 0.01
  }
}
layer {
  name: "loss_classification"
  type: "SoftmaxWithLoss"
  bottom: "ip_classification"
  bottom: "label"
  top: "loss_classification"
}
layer {
  name: "accuracy_at_1"
  type: "Accuracy"
  bottom: "ip_classification"
  bottom: "label"
  top: "accuracy_at_1"
  include {
    phase: TEST
  }
  accuracy_param {
    top_k: 1
  }
}
layer {
  name: "accuracy_at_5"
  type: "Accuracy"
  bottom: "ip_classification"
  bottom: "label"
  top: "accuracy_at_5"
  include {
    phase: TEST
  }
  accuracy_param {
    top_k: 5
  }
}
I0901 10:54:39.591317 22581 layer_factory.hpp:77] Creating layer pattern
I0901 10:54:39.592538 22581 net.cpp:91] Creating Layer pattern
I0901 10:54:39.592703 22581 net.cpp:399] pattern -> data
I0901 10:54:39.592845 22581 net.cpp:399] pattern -> label
I0901 10:54:39.593883 22587 db_lmdb.cpp:38] Opened lmdb PATTERN/pattern_train_lmdb
I0901 10:54:39.610821 22581 data_layer.cpp:41] output data size: 30,3,224,224
I0901 10:54:39.648612 22581 net.cpp:141] Setting up pattern
I0901 10:54:39.648715 22581 net.cpp:148] Top shape: 30 3 224 224 (4515840)
I0901 10:54:39.648737 22581 net.cpp:148] Top shape: 30 1 1 1 (30)
I0901 10:54:39.648752 22581 net.cpp:156] Memory required for data: 18063480
I0901 10:54:39.648778 22581 layer_factory.hpp:77] Creating layer label_pattern_1_split
I0901 10:54:39.648816 22581 net.cpp:91] Creating Layer label_pattern_1_split
I0901 10:54:39.648843 22581 net.cpp:425] label_pattern_1_split <- label
I0901 10:54:39.648875 22581 net.cpp:399] label_pattern_1_split -> label_pattern_1_split_0
I0901 10:54:39.648910 22581 net.cpp:399] label_pattern_1_split -> label_pattern_1_split_1
I0901 10:54:39.648933 22581 net.cpp:399] label_pattern_1_split -> label_pattern_1_split_2
I0901 10:54:39.648952 22581 net.cpp:399] label_pattern_1_split -> label_pattern_1_split_3
I0901 10:54:39.649047 22581 net.cpp:141] Setting up label_pattern_1_split
I0901 10:54:39.649072 22581 net.cpp:148] Top shape: 30 1 1 1 (30)
I0901 10:54:39.649089 22581 net.cpp:148] Top shape: 30 1 1 1 (30)
I0901 10:54:39.649106 22581 net.cpp:148] Top shape: 30 1 1 1 (30)
I0901 10:54:39.649125 22581 net.cpp:148] Top shape: 30 1 1 1 (30)
I0901 10:54:39.649139 22581 net.cpp:156] Memory required for data: 18063960
I0901 10:54:39.649154 22581 layer_factory.hpp:77] Creating layer conv1
I0901 10:54:39.649196 22581 net.cpp:91] Creating Layer conv1
I0901 10:54:39.649215 22581 net.cpp:425] conv1 <- data
I0901 10:54:39.649238 22581 net.cpp:399] conv1 -> conv1
I0901 10:54:39.652401 22581 net.cpp:141] Setting up conv1
I0901 10:54:39.652451 22581 net.cpp:148] Top shape: 30 32 224 224 (48168960)
I0901 10:54:39.652467 22581 net.cpp:156] Memory required for data: 210739800
I0901 10:54:39.652500 22581 layer_factory.hpp:77] Creating layer pool1
I0901 10:54:39.652524 22581 net.cpp:91] Creating Layer pool1
I0901 10:54:39.652544 22581 net.cpp:425] pool1 <- conv1
I0901 10:54:39.652565 22581 net.cpp:399] pool1 -> pool1
I0901 10:54:39.652662 22581 net.cpp:141] Setting up pool1
I0901 10:54:39.652688 22581 net.cpp:148] Top shape: 30 32 112 112 (12042240)
I0901 10:54:39.652704 22581 net.cpp:156] Memory required for data: 258908760
I0901 10:54:39.652717 22581 layer_factory.hpp:77] Creating layer relu1
I0901 10:54:39.652740 22581 net.cpp:91] Creating Layer relu1
I0901 10:54:39.652760 22581 net.cpp:425] relu1 <- pool1
I0901 10:54:39.652776 22581 net.cpp:386] relu1 -> pool1 (in-place)
I0901 10:54:39.652798 22581 net.cpp:141] Setting up relu1
I0901 10:54:39.652815 22581 net.cpp:148] Top shape: 30 32 112 112 (12042240)
I0901 10:54:39.652830 22581 net.cpp:156] Memory required for data: 307077720
I0901 10:54:39.652844 22581 layer_factory.hpp:77] Creating layer norm1
I0901 10:54:39.652869 22581 net.cpp:91] Creating Layer norm1
I0901 10:54:39.652885 22581 net.cpp:425] norm1 <- pool1
I0901 10:54:39.652902 22581 net.cpp:399] norm1 -> norm1
I0901 10:54:39.653110 22581 net.cpp:141] Setting up norm1
I0901 10:54:39.653136 22581 net.cpp:148] Top shape: 30 32 112 112 (12042240)
I0901 10:54:39.653151 22581 net.cpp:156] Memory required for data: 355246680
I0901 10:54:39.653165 22581 layer_factory.hpp:77] Creating layer conv2
I0901 10:54:39.653192 22581 net.cpp:91] Creating Layer conv2
I0901 10:54:39.653209 22581 net.cpp:425] conv2 <- norm1
I0901 10:54:39.653228 22581 net.cpp:399] conv2 -> conv2
I0901 10:54:39.654312 22581 net.cpp:141] Setting up conv2
I0901 10:54:39.654357 22581 net.cpp:148] Top shape: 30 32 112 112 (12042240)
I0901 10:54:39.654381 22581 net.cpp:156] Memory required for data: 403415640
I0901 10:54:39.654404 22581 layer_factory.hpp:77] Creating layer pool2
I0901 10:54:39.654425 22581 net.cpp:91] Creating Layer pool2
I0901 10:54:39.654441 22581 net.cpp:425] pool2 <- conv2
I0901 10:54:39.654462 22581 net.cpp:399] pool2 -> pool2
I0901 10:54:39.654517 22581 net.cpp:141] Setting up pool2
I0901 10:54:39.654539 22581 net.cpp:148] Top shape: 30 32 56 56 (3010560)
I0901 10:54:39.654553 22581 net.cpp:156] Memory required for data: 415457880
I0901 10:54:39.654567 22581 layer_factory.hpp:77] Creating layer relu2
I0901 10:54:39.654590 22581 net.cpp:91] Creating Layer relu2
I0901 10:54:39.654609 22581 net.cpp:425] relu2 <- pool2
I0901 10:54:39.654625 22581 net.cpp:386] relu2 -> pool2 (in-place)
I0901 10:54:39.654645 22581 net.cpp:141] Setting up relu2
I0901 10:54:39.654661 22581 net.cpp:148] Top shape: 30 32 56 56 (3010560)
I0901 10:54:39.654675 22581 net.cpp:156] Memory required for data: 427500120
I0901 10:54:39.654690 22581 layer_factory.hpp:77] Creating layer norm2
I0901 10:54:39.654729 22581 net.cpp:91] Creating Layer norm2
I0901 10:54:39.654747 22581 net.cpp:425] norm2 <- pool2
I0901 10:54:39.654765 22581 net.cpp:399] norm2 -> norm2
I0901 10:54:39.654889 22581 net.cpp:141] Setting up norm2
I0901 10:54:39.654914 22581 net.cpp:148] Top shape: 30 32 56 56 (3010560)
I0901 10:54:39.654928 22581 net.cpp:156] Memory required for data: 439542360
I0901 10:54:39.654943 22581 layer_factory.hpp:77] Creating layer conv3
I0901 10:54:39.654968 22581 net.cpp:91] Creating Layer conv3
I0901 10:54:39.654986 22581 net.cpp:425] conv3 <- norm2
I0901 10:54:39.655005 22581 net.cpp:399] conv3 -> conv3
I0901 10:54:39.655680 22581 net.cpp:141] Setting up conv3
I0901 10:54:39.655721 22581 net.cpp:148] Top shape: 30 64 56 56 (6021120)
I0901 10:54:39.655737 22581 net.cpp:156] Memory required for data: 463626840
I0901 10:54:39.655758 22581 layer_factory.hpp:77] Creating layer relu3
I0901 10:54:39.655777 22581 net.cpp:91] Creating Layer relu3
I0901 10:54:39.655792 22581 net.cpp:425] relu3 <- conv3
I0901 10:54:39.655809 22581 net.cpp:386] relu3 -> conv3 (in-place)
I0901 10:54:39.655827 22581 net.cpp:141] Setting up relu3
I0901 10:54:39.655844 22581 net.cpp:148] Top shape: 30 64 56 56 (6021120)
I0901 10:54:39.655863 22581 net.cpp:156] Memory required for data: 487711320
I0901 10:54:39.655876 22581 layer_factory.hpp:77] Creating layer pool3
I0901 10:54:39.655894 22581 net.cpp:91] Creating Layer pool3
I0901 10:54:39.655908 22581 net.cpp:425] pool3 <- conv3
I0901 10:54:39.655928 22581 net.cpp:399] pool3 -> pool3
I0901 10:54:39.655972 22581 net.cpp:141] Setting up pool3
I0901 10:54:39.655994 22581 net.cpp:148] Top shape: 30 64 28 28 (1505280)
I0901 10:54:39.656009 22581 net.cpp:156] Memory required for data: 493732440
I0901 10:54:39.656023 22581 layer_factory.hpp:77] Creating layer dropout_conv3
I0901 10:54:39.656044 22581 net.cpp:91] Creating Layer dropout_conv3
I0901 10:54:39.656062 22581 net.cpp:425] dropout_conv3 <- pool3
I0901 10:54:39.656082 22581 net.cpp:399] dropout_conv3 -> dropout_conv3
I0901 10:54:39.656146 22581 net.cpp:141] Setting up dropout_conv3
I0901 10:54:39.656170 22581 net.cpp:148] Top shape: 30 64 28 28 (1505280)
I0901 10:54:39.656184 22581 net.cpp:156] Memory required for data: 499753560
I0901 10:54:39.656199 22581 layer_factory.hpp:77] Creating layer ip500
I0901 10:54:39.656242 22581 net.cpp:91] Creating Layer ip500
I0901 10:54:39.656261 22581 net.cpp:425] ip500 <- dropout_conv3
I0901 10:54:39.656301 22581 net.cpp:399] ip500 -> ip500
I0901 10:54:40.636425 22581 net.cpp:141] Setting up ip500
I0901 10:54:40.636503 22581 net.cpp:148] Top shape: 30 500 (15000)
I0901 10:54:40.636520 22581 net.cpp:156] Memory required for data: 499813560
I0901 10:54:40.636545 22581 layer_factory.hpp:77] Creating layer relu_ip500
I0901 10:54:40.636574 22581 net.cpp:91] Creating Layer relu_ip500
I0901 10:54:40.636591 22581 net.cpp:425] relu_ip500 <- ip500
I0901 10:54:40.636610 22581 net.cpp:386] relu_ip500 -> ip500 (in-place)
I0901 10:54:40.636636 22581 net.cpp:141] Setting up relu_ip500
I0901 10:54:40.636667 22581 net.cpp:148] Top shape: 30 500 (15000)
I0901 10:54:40.636682 22581 net.cpp:156] Memory required for data: 499873560
I0901 10:54:40.636698 22581 layer_factory.hpp:77] Creating layer dropout_ip500
I0901 10:54:40.636721 22581 net.cpp:91] Creating Layer dropout_ip500
I0901 10:54:40.636736 22581 net.cpp:425] dropout_ip500 <- ip500
I0901 10:54:40.636754 22581 net.cpp:386] dropout_ip500 -> ip500 (in-place)
I0901 10:54:40.636798 22581 net.cpp:141] Setting up dropout_ip500
I0901 10:54:40.636821 22581 net.cpp:148] Top shape: 30 500 (15000)
I0901 10:54:40.636835 22581 net.cpp:156] Memory required for data: 499933560
I0901 10:54:40.636850 22581 layer_factory.hpp:77] Creating layer ip500_dropout_ip500_0_split
I0901 10:54:40.636873 22581 net.cpp:91] Creating Layer ip500_dropout_ip500_0_split
I0901 10:54:40.636891 22581 net.cpp:425] ip500_dropout_ip500_0_split <- ip500
I0901 10:54:40.636909 22581 net.cpp:399] ip500_dropout_ip500_0_split -> ip500_dropout_ip500_0_split_0
I0901 10:54:40.636934 22581 net.cpp:399] ip500_dropout_ip500_0_split -> ip500_dropout_ip500_0_split_1
I0901 10:54:40.636987 22581 net.cpp:141] Setting up ip500_dropout_ip500_0_split
I0901 10:54:40.637012 22581 net.cpp:148] Top shape: 30 500 (15000)
I0901 10:54:40.637029 22581 net.cpp:148] Top shape: 30 500 (15000)
I0901 10:54:40.637044 22581 net.cpp:156] Memory required for data: 500053560
I0901 10:54:40.637059 22581 layer_factory.hpp:77] Creating layer ip_hash
I0901 10:54:40.637081 22581 net.cpp:91] Creating Layer ip_hash
I0901 10:54:40.637096 22581 net.cpp:425] ip_hash <- ip500_dropout_ip500_0_split_0
I0901 10:54:40.637117 22581 net.cpp:399] ip_hash -> ip_hash
I0901 10:54:40.637501 22581 net.cpp:141] Setting up ip_hash
I0901 10:54:40.637539 22581 net.cpp:148] Top shape: 30 12 (360)
I0901 10:54:40.637554 22581 net.cpp:156] Memory required for data: 500055000
I0901 10:54:40.637578 22581 layer_factory.hpp:77] Creating layer ip_classification
I0901 10:54:40.637615 22581 net.cpp:91] Creating Layer ip_classification
I0901 10:54:40.637631 22581 net.cpp:425] ip_classification <- ip500_dropout_ip500_0_split_1
I0901 10:54:40.637648 22581 net.cpp:399] ip_classification -> ip_classification
I0901 10:54:40.637912 22581 net.cpp:141] Setting up ip_classification
I0901 10:54:40.637938 22581 net.cpp:148] Top shape: 30 7 (210)
I0901 10:54:40.637953 22581 net.cpp:156] Memory required for data: 500055840
I0901 10:54:40.637970 22581 layer_factory.hpp:77] Creating layer ip_classification_ip_classification_0_split
I0901 10:54:40.637989 22581 net.cpp:91] Creating Layer ip_classification_ip_classification_0_split
I0901 10:54:40.638005 22581 net.cpp:425] ip_classification_ip_classification_0_split <- ip_classification
I0901 10:54:40.638021 22581 net.cpp:399] ip_classification_ip_classification_0_split -> ip_classification_ip_classification_0_split_0
I0901 10:54:40.638044 22581 net.cpp:399] ip_classification_ip_classification_0_split -> ip_classification_ip_classification_0_split_1
I0901 10:54:40.638065 22581 net.cpp:399] ip_classification_ip_classification_0_split -> ip_classification_ip_classification_0_split_2
I0901 10:54:40.638126 22581 net.cpp:141] Setting up ip_classification_ip_classification_0_split
I0901 10:54:40.638150 22581 net.cpp:148] Top shape: 30 7 (210)
I0901 10:54:40.638166 22581 net.cpp:148] Top shape: 30 7 (210)
I0901 10:54:40.638182 22581 net.cpp:148] Top shape: 30 7 (210)
I0901 10:54:40.638196 22581 net.cpp:156] Memory required for data: 500058360
I0901 10:54:40.638249 22581 layer_factory.hpp:77] Creating layer loss_hash
I0901 10:54:40.638280 22581 net.cpp:91] Creating Layer loss_hash
I0901 10:54:40.638298 22581 net.cpp:425] loss_hash <- ip_hash
I0901 10:54:40.638314 22581 net.cpp:425] loss_hash <- label_pattern_1_split_0
I0901 10:54:40.638332 22581 net.cpp:399] loss_hash -> loss_hash
…
