…
I0803 18:13:06.099493 19253 net.cpp:313] The NetState phase (0) differed from the phase (1) specified by a rule in layer data
I0803 18:13:06.099910 19253 net.cpp:49] Initializing net from parameters: 
name: "docomo_VGG16"
state {
  phase: TRAIN
}
layer {
  name: "data"
  type: "Data"
  top: "data"
  top: "label"
  include {
    phase: TRAIN
  }
  transform_param {
    mirror: true
    crop_size: 224
    mean_value: 103.939
    mean_value: 116.779
    mean_value: 123.68
  }
  data_param {
    source: "FASHION/fashion_train_lmdb/"
    batch_size: 10
    backend: LMDB
  }
}
layer {
  name: "conv1_1"
  type: "Convolution"
  bottom: "data"
  top: "conv1_1"
  param {
    lr_mult: 1
    decay_mult: 1
  }
  param {
    lr_mult: 2
    decay_mult: 0
  }
  convolution_param {
    num_output: 64
    pad: 1
    kernel_size: 3
    weight_filler {
      type: "gaussian"
      std: 0.01
    }
    bias_filler {
      type: "constant"
      value: 0
    }
  }
}
layer {
  name: "relu1_1"
  type: "ReLU"
  bottom: "conv1_1"
  top: "conv1_1"
}
layer {
  name: "conv1_2"
  type: "Convolution"
  bottom: "conv1_1"
  top: "conv1_2"
  param {
    lr_mult: 1
    decay_mult: 1
  }
  param {
    lr_mult: 2
    decay_mult: 0
  }
  convolution_param {
    num_output: 64
    pad: 1
    kernel_size: 3
    weight_filler {
      type: "gaussian"
      std: 0.01
    }
    bias_filler {
      type: "constant"
      value: 0
    }
  }
}
layer {
  name: "relu1_2"
  type: "ReLU"
  bottom: "conv1_2"
  top: "conv1_2"
}
layer {
  name: "pool1"
  type: "Pooling"
  bottom: "conv1_2"
  top: "pool1"
  pooling_param {
    pool: MAX
    kernel_size: 2
    stride: 2
  }
}
layer {
  name: "conv2_1"
  type: "Convolution"
  bottom: "pool1"
  top: "conv2_1"
  param {
    lr_mult: 1
    decay_mult: 1
  }
  param {
    lr_mult: 2
    decay_mult: 0
  }
  convolution_param {
    num_output: 128
    pad: 1
    kernel_size: 3
    weight_filler {
      type: "gaussian"
      std: 0.01
    }
    bias_filler {
      type: "constant"
      value: 0
    }
  }
}
layer {
  name: "relu2_1"
  type: "ReLU"
  bottom: "conv2_1"
  top: "conv2_1"
}
layer {
  name: "conv2_2"
  type: "Convolution"
  bottom: "conv2_1"
  top: "conv2_2"
  param {
    lr_mult: 1
    decay_mult: 1
  }
  param {
    lr_mult: 2
    decay_mult: 0
  }
  convolution_param {
    num_output: 128
    pad: 1
    kernel_size: 3
    weight_filler {
      type: "gaussian"
      std: 0.01
    }
    bias_filler {
      type: "constant"
      value: 0
    }
  }
}
layer {
  name: "relu2_2"
  type: "ReLU"
  bottom: "conv2_2"
  top: "conv2_2"
}
layer {
  name: "pool2"
  type: "Pooling"
  bottom: "conv2_2"
  top: "pool2"
  pooling_param {
    pool: MAX
    kernel_size: 2
    stride: 2
  }
}
layer {
  name: "conv3_1"
  type: "Convolution"
  bottom: "pool2"
  top: "conv3_1"
  param {
    lr_mult: 1
    decay_mult: 1
  }
  param {
    lr_mult: 2
    decay_mult: 0
  }
  convolution_param {
    num_output: 256
    pad: 1
    kernel_size: 3
    weight_filler {
      type: "gaussian"
      std: 0.01
    }
    bias_filler {
      type: "constant"
      value: 0
    }
  }
}
layer {
  name: "relu3_1"
  type: "ReLU"
  bottom: "conv3_1"
  top: "conv3_1"
}
layer {
  name: "conv3_2"
  type: "Convolution"
  bottom: "conv3_1"
  top: "conv3_2"
  param {
    lr_mult: 1
    decay_mult: 1
  }
  param {
    lr_mult: 2
    decay_mult: 0
  }
  convolution_param {
    num_output: 256
    pad: 1
    kernel_size: 3
    weight_filler {
      type: "gaussian"
      std: 0.01
    }
    bias_filler {
      type: "constant"
      value: 0
    }
  }
}
layer {
  name: "relu3_2"
  type: "ReLU"
  bottom: "conv3_2"
  top: "conv3_2"
}
layer {
  name: "conv3_3"
  type: "Convolution"
  bottom: "conv3_2"
  top: "conv3_3"
  param {
    lr_mult: 1
    decay_mult: 1
  }
  param {
    lr_mult: 2
    decay_mult: 0
  }
  convolution_param {
    num_output: 256
    pad: 1
    kernel_size: 3
    weight_filler {
      type: "gaussian"
      std: 0.01
    }
    bias_filler {
      type: "constant"
      value: 0
    }
  }
}
layer {
  name: "relu3_3"
  type: "ReLU"
  bottom: "conv3_3"
  top: "conv3_3"
}
layer {
  name: "pool3"
  type: "Pooling"
  bottom: "conv3_3"
  top: "pool3"
  pooling_param {
    pool: MAX
    kernel_size: 2
    stride: 2
  }
}
layer {
  name: "conv4_1"
  type: "Convolution"
  bottom: "pool3"
  top: "conv4_1"
  param {
    lr_mult: 1
    decay_mult: 1
  }
  param {
    lr_mult: 2
    decay_mult: 0
  }
  convolution_param {
    num_output: 512
    pad: 1
    kernel_size: 3
    weight_filler {
      type: "gaussian"
      std: 0.01
    }
    bias_filler {
      type: "constant"
      value: 0
    }
  }
}
layer {
  name: "relu4_1"
  type: "ReLU"
  bottom: "conv4_1"
  top: "conv4_1"
}
layer {
  name: "conv4_2"
  type: "Convolution"
  bottom: "conv4_1"
  top: "conv4_2"
  param {
    lr_mult: 1
    decay_mult: 1
  }
  param {
    lr_mult: 2
    decay_mult: 0
  }
  convolution_param {
    num_output: 512
    pad: 1
    kernel_size: 3
    weight_filler {
      type: "gaussian"
      std: 0.01
    }
    bias_filler {
      type: "constant"
      value: 0
    }
  }
}
layer {
  name: "relu4_2"
  type: "ReLU"
  bottom: "conv4_2"
  top: "conv4_2"
}
layer {
  name: "conv4_3"
  type: "Convolution"
  bottom: "conv4_2"
  top: "conv4_3"
  param {
    lr_mult: 1
    decay_mult: 1
  }
  param {
    lr_mult: 2
    decay_mult: 0
  }
  convolution_param {
    num_output: 512
    pad: 1
    kernel_size: 3
    weight_filler {
      type: "gaussian"
      std: 0.01
    }
    bias_filler {
      type: "constant"
      value: 0
    }
  }
}
layer {
  name: "relu4_3"
  type: "ReLU"
  bottom: "conv4_3"
  top: "conv4_3"
}
layer {
  name: "pool4"
  type: "Pooling"
  bottom: "conv4_3"
  top: "pool4"
  pooling_param {
    pool: MAX
    kernel_size: 2
    stride: 2
  }
}
layer {
  name: "conv5_1"
  type: "Convolution"
  bottom: "pool4"
  top: "conv5_1"
  param {
    lr_mult: 1
    decay_mult: 1
  }
  param {
    lr_mult: 2
    decay_mult: 0
  }
  convolution_param {
    num_output: 512
    pad: 1
    kernel_size: 3
    weight_filler {
      type: "gaussian"
      std: 0.01
    }
    bias_filler {
      type: "constant"
      value: 0
    }
  }
}
layer {
  name: "relu5_1"
  type: "ReLU"
  bottom: "conv5_1"
  top: "conv5_1"
}
layer {
  name: "conv5_2"
  type: "Convolution"
  bottom: "conv5_1"
  top: "conv5_2"
  param {
    lr_mult: 1
    decay_mult: 1
  }
  param {
    lr_mult: 2
    decay_mult: 0
  }
  convolution_param {
    num_output: 512
    pad: 1
    kernel_size: 3
    weight_filler {
      type: "gaussian"
      std: 0.01
    }
    bias_filler {
      type: "constant"
      value: 0
    }
  }
}
layer {
  name: "relu5_2"
  type: "ReLU"
  bottom: "conv5_2"
  top: "conv5_2"
}
layer {
  name: "conv5_3"
  type: "Convolution"
  bottom: "conv5_2"
  top: "conv5_3"
  param {
    lr_mult: 1
    decay_mult: 1
  }
  param {
    lr_mult: 2
    decay_mult: 0
  }
  convolution_param {
    num_output: 512
    pad: 1
    kernel_size: 3
    weight_filler {
      type: "gaussian"
      std: 0.01
    }
    bias_filler {
      type: "constant"
      value: 0
    }
  }
}
layer {
  name: "relu5_3"
  type: "ReLU"
  bottom: "conv5_3"
  top: "conv5_3"
}
layer {
  name: "pool5"
  type: "Pooling"
  bottom: "conv5_3"
  top: "pool5"
  pooling_param {
    pool: MAX
    kernel_size: 2
    stride: 2
  }
}
layer {
  name: "fc6"
  type: "InnerProduct"
  bottom: "pool5"
  top: "fc6"
  param {
    lr_mult: 1
    decay_mult: 1
  }
  param {
    lr_mult: 2
    decay_mult: 0
  }
  inner_product_param {
    num_output: 4096
    weight_filler {
      type: "gaussian"
      std: 0.005
    }
    bias_filler {
      type: "constant"
      value: 0.1
    }
  }
}
layer {
  name: "relu6"
  type: "ReLU"
  bottom: "fc6"
  top: "fc6"
}
layer {
  name: "drop6"
  type: "Dropout"
  bottom: "fc6"
  top: "fc6"
  dropout_param {
    dropout_ratio: 0.5
  }
}
layer {
  name: "fc7"
  type: "InnerProduct"
  bottom: "fc6"
  top: "fc7"
  param {
    lr_mult: 1
    decay_mult: 1
  }
  param {
    lr_mult: 2
    decay_mult: 0
  }
  inner_product_param {
    num_output: 4096
    weight_filler {
      type: "gaussian"
      std: 0.005
    }
    bias_filler {
      type: "constant"
      value: 0.1
    }
  }
}
layer {
  name: "relu7"
  type: "ReLU"
  bottom: "fc7"
  top: "fc7"
}
layer {
  name: "drop7"
  type: "Dropout"
  bottom: "fc7"
  top: "fc7"
  dropout_param {
    dropout_ratio: 0.5
  }
}
layer {
  name: "fc8_binary_f"
  type: "InnerProduct"
  bottom: "fc7"
  top: "fc8_binary_f"
  param {
    lr_mult: 10
    decay_mult: 1
  }
  param {
    lr_mult: 20
    decay_mult: 0
  }
  inner_product_param {
    num_output: 24
    weight_filler {
      type: "gaussian"
      std: 0.005
    }
    bias_filler {
      type: "constant"
      value: 0.1
    }
  }
}
layer {
  name: "loss_hashing"
  type: "HashingLoss"
  bottom: "fc8_binary_f"
  bottom: "label"
  top: "loss_hashing"
  hashing_loss_param {
    bi_margin: 48
    tradeoff: 0.01
  }
}
I0803 18:13:06.102428 19253 layer_factory.hpp:77] Creating layer data
I0803 18:13:06.103049 19253 net.cpp:91] Creating Layer data
I0803 18:13:06.103086 19253 net.cpp:399] data -> data
I0803 18:13:06.103268 19253 net.cpp:399] data -> label
I0803 18:13:06.104295 19257 db_lmdb.cpp:38] Opened lmdb FASHION/fashion_train_lmdb/
I0803 18:13:06.120326 19253 data_layer.cpp:41] output data size: 10,3,224,224
I0803 18:13:06.132814 19253 net.cpp:141] Setting up data
I0803 18:13:06.132896 19253 net.cpp:148] Top shape: 10 3 224 224 (1505280)
I0803 18:13:06.132917 19253 net.cpp:148] Top shape: 10 1 1 1 (10)
I0803 18:13:06.132933 19253 net.cpp:156] Memory required for data: 6021160
I0803 18:13:06.132957 19253 layer_factory.hpp:77] Creating layer conv1_1
I0803 18:13:06.133013 19253 net.cpp:91] Creating Layer conv1_1
I0803 18:13:06.133039 19253 net.cpp:425] conv1_1 <- data
I0803 18:13:06.133080 19253 net.cpp:399] conv1_1 -> conv1_1
I0803 18:13:06.135481 19253 net.cpp:141] Setting up conv1_1
I0803 18:13:06.135537 19253 net.cpp:148] Top shape: 10 64 224 224 (32112640)
I0803 18:13:06.135555 19253 net.cpp:156] Memory required for data: 134471720
I0803 18:13:06.135591 19253 layer_factory.hpp:77] Creating layer relu1_1
I0803 18:13:06.135622 19253 net.cpp:91] Creating Layer relu1_1
I0803 18:13:06.135645 19253 net.cpp:425] relu1_1 <- conv1_1
I0803 18:13:06.135664 19253 net.cpp:386] relu1_1 -> conv1_1 (in-place)
I0803 18:13:06.135691 19253 net.cpp:141] Setting up relu1_1
I0803 18:13:06.135710 19253 net.cpp:148] Top shape: 10 64 224 224 (32112640)
I0803 18:13:06.135730 19253 net.cpp:156] Memory required for data: 262922280
I0803 18:13:06.135746 19253 layer_factory.hpp:77] Creating layer conv1_2
I0803 18:13:06.135774 19253 net.cpp:91] Creating Layer conv1_2
I0803 18:13:06.135792 19253 net.cpp:425] conv1_2 <- conv1_1
I0803 18:13:06.135814 19253 net.cpp:399] conv1_2 -> conv1_2
I0803 18:13:06.137480 19253 net.cpp:141] Setting up conv1_2
I0803 18:13:06.137508 19253 net.cpp:148] Top shape: 10 64 224 224 (32112640)
I0803 18:13:06.137531 19253 net.cpp:156] Memory required for data: 391372840
I0803 18:13:06.137554 19253 layer_factory.hpp:77] Creating layer relu1_2
I0803 18:13:06.137573 19253 net.cpp:91] Creating Layer relu1_2
I0803 18:13:06.137589 19253 net.cpp:425] relu1_2 <- conv1_2
I0803 18:13:06.137606 19253 net.cpp:386] relu1_2 -> conv1_2 (in-place)
I0803 18:13:06.137629 19253 net.cpp:141] Setting up relu1_2
I0803 18:13:06.137645 19253 net.cpp:148] Top shape: 10 64 224 224 (32112640)
I0803 18:13:06.137662 19253 net.cpp:156] Memory required for data: 519823400
I0803 18:13:06.137677 19253 layer_factory.hpp:77] Creating layer pool1
I0803 18:13:06.137704 19253 net.cpp:91] Creating Layer pool1
I0803 18:13:06.137722 19253 net.cpp:425] pool1 <- conv1_2
I0803 18:13:06.137742 19253 net.cpp:399] pool1 -> pool1
I0803 18:13:06.137850 19253 net.cpp:141] Setting up pool1
I0803 18:13:06.137876 19253 net.cpp:148] Top shape: 10 64 112 112 (8028160)
I0803 18:13:06.137892 19253 net.cpp:156] Memory required for data: 551936040
I0803 18:13:06.137907 19253 layer_factory.hpp:77] Creating layer conv2_1
I0803 18:13:06.137935 19253 net.cpp:91] Creating Layer conv2_1
I0803 18:13:06.137954 19253 net.cpp:425] conv2_1 <- pool1
I0803 18:13:06.137972 19253 net.cpp:399] conv2_1 -> conv2_1
I0803 18:13:06.142256 19253 net.cpp:141] Setting up conv2_1
I0803 18:13:06.142288 19253 net.cpp:148] Top shape: 10 128 112 112 (16056320)
I0803 18:13:06.142304 19253 net.cpp:156] Memory required for data: 616161320
I0803 18:13:06.142328 19253 layer_factory.hpp:77] Creating layer relu2_1
I0803 18:13:06.142351 19253 net.cpp:91] Creating Layer relu2_1
I0803 18:13:06.142367 19253 net.cpp:425] relu2_1 <- conv2_1
I0803 18:13:06.142387 19253 net.cpp:386] relu2_1 -> conv2_1 (in-place)
I0803 18:13:06.142410 19253 net.cpp:141] Setting up relu2_1
I0803 18:13:06.142431 19253 net.cpp:148] Top shape: 10 128 112 112 (16056320)
I0803 18:13:06.142446 19253 net.cpp:156] Memory required for data: 680386600
I0803 18:13:06.142462 19253 layer_factory.hpp:77] Creating layer conv2_2
I0803 18:13:06.142485 19253 net.cpp:91] Creating Layer conv2_2
I0803 18:13:06.142500 19253 net.cpp:425] conv2_2 <- conv2_1
I0803 18:13:06.142523 19253 net.cpp:399] conv2_2 -> conv2_2
I0803 18:13:06.148283 19253 net.cpp:141] Setting up conv2_2
I0803 18:13:06.148322 19253 net.cpp:148] Top shape: 10 128 112 112 (16056320)
I0803 18:13:06.148337 19253 net.cpp:156] Memory required for data: 744611880
I0803 18:13:06.148362 19253 layer_factory.hpp:77] Creating layer relu2_2
I0803 18:13:06.148380 19253 net.cpp:91] Creating Layer relu2_2
I0803 18:13:06.148398 19253 net.cpp:425] relu2_2 <- conv2_2
I0803 18:13:06.148416 19253 net.cpp:386] relu2_2 -> conv2_2 (in-place)
I0803 18:13:06.148435 19253 net.cpp:141] Setting up relu2_2
I0803 18:13:06.148453 19253 net.cpp:148] Top shape: 10 128 112 112 (16056320)
I0803 18:13:06.148473 19253 net.cpp:156] Memory required for data: 808837160
I0803 18:13:06.148488 19253 layer_factory.hpp:77] Creating layer pool2
I0803 18:13:06.148506 19253 net.cpp:91] Creating Layer pool2
I0803 18:13:06.148520 19253 net.cpp:425] pool2 <- conv2_2
I0803 18:13:06.148540 19253 net.cpp:399] pool2 -> pool2
I0803 18:13:06.148597 19253 net.cpp:141] Setting up pool2
I0803 18:13:06.148630 19253 net.cpp:148] Top shape: 10 128 56 56 (4014080)
I0803 18:13:06.148648 19253 net.cpp:156] Memory required for data: 824893480
I0803 18:13:06.148663 19253 layer_factory.hpp:77] Creating layer conv3_1
I0803 18:13:06.148694 19253 net.cpp:91] Creating Layer conv3_1
I0803 18:13:06.148713 19253 net.cpp:425] conv3_1 <- pool2
I0803 18:13:06.148733 19253 net.cpp:399] conv3_1 -> conv3_1
I0803 18:13:06.160784 19253 net.cpp:141] Setting up conv3_1
I0803 18:13:06.160817 19253 net.cpp:148] Top shape: 10 256 56 56 (8028160)
I0803 18:13:06.160833 19253 net.cpp:156] Memory required for data: 857006120
I0803 18:13:06.160856 19253 layer_factory.hpp:77] Creating layer relu3_1
I0803 18:13:06.160876 19253 net.cpp:91] Creating Layer relu3_1
I0803 18:13:06.160894 19253 net.cpp:425] relu3_1 <- conv3_1
I0803 18:13:06.160910 19253 net.cpp:386] relu3_1 -> conv3_1 (in-place)
I0803 18:13:06.160930 19253 net.cpp:141] Setting up relu3_1
I0803 18:13:06.160946 19253 net.cpp:148] Top shape: 10 256 56 56 (8028160)
I0803 18:13:06.160969 19253 net.cpp:156] Memory required for data: 889118760
I0803 18:13:06.160984 19253 layer_factory.hpp:77] Creating layer conv3_2
I0803 18:13:06.161010 19253 net.cpp:91] Creating Layer conv3_2
I0803 18:13:06.161038 19253 net.cpp:425] conv3_2 <- conv3_1
I0803 18:13:06.161056 19253 net.cpp:399] conv3_2 -> conv3_2
I0803 18:13:06.183619 19253 net.cpp:141] Setting up conv3_2
I0803 18:13:06.183652 19253 net.cpp:148] Top shape: 10 256 56 56 (8028160)
I0803 18:13:06.183670 19253 net.cpp:156] Memory required for data: 921231400
I0803 18:13:06.183688 19253 layer_factory.hpp:77] Creating layer relu3_2
I0803 18:13:06.183706 19253 net.cpp:91] Creating Layer relu3_2
I0803 18:13:06.183775 19253 net.cpp:425] relu3_2 <- conv3_2
I0803 18:13:06.183794 19253 net.cpp:386] relu3_2 -> conv3_2 (in-place)
I0803 18:13:06.183814 19253 net.cpp:141] Setting up relu3_2
I0803 18:13:06.183830 19253 net.cpp:148] Top shape: 10 256 56 56 (8028160)
I0803 18:13:06.183845 19253 net.cpp:156] Memory required for data: 953344040
I0803 18:13:06.183859 19253 layer_factory.hpp:77] Creating layer conv3_3
I0803 18:13:06.183883 19253 net.cpp:91] Creating Layer conv3_3
I0803 18:13:06.183900 19253 net.cpp:425] conv3_3 <- conv3_2
I0803 18:13:06.183925 19253 net.cpp:399] conv3_3 -> conv3_3
I0803 18:13:06.206460 19253 net.cpp:141] Setting up conv3_3
I0803 18:13:06.206490 19253 net.cpp:148] Top shape: 10 256 56 56 (8028160)
I0803 18:13:06.206508 19253 net.cpp:156] Memory required for data: 985456680
I0803 18:13:06.206526 19253 layer_factory.hpp:77] Creating layer relu3_3
I0803 18:13:06.206547 19253 net.cpp:91] Creating Layer relu3_3
I0803 18:13:06.206562 19253 net.cpp:425] relu3_3 <- conv3_3
I0803 18:13:06.206581 19253 net.cpp:386] relu3_3 -> conv3_3 (in-place)
I0803 18:13:06.206600 19253 net.cpp:141] Setting up relu3_3
I0803 18:13:06.206616 19253 net.cpp:148] Top shape: 10 256 56 56 (8028160)
I0803 18:13:06.206629 19253 net.cpp:156] Memory required for data: 1017569320
I0803 18:13:06.206645 19253 layer_factory.hpp:77] Creating layer pool3
I0803 18:13:06.206662 19253 net.cpp:91] Creating Layer pool3
I0803 18:13:06.206676 19253 net.cpp:425] pool3 <- conv3_3
I0803 18:13:06.206692 19253 net.cpp:399] pool3 -> pool3
I0803 18:13:06.206749 19253 net.cpp:141] Setting up pool3
I0803 18:13:06.206771 19253 net.cpp:148] Top shape: 10 256 28 28 (2007040)
I0803 18:13:06.206786 19253 net.cpp:156] Memory required for data: 1025597480
I0803 18:13:06.206802 19253 layer_factory.hpp:77] Creating layer conv4_1
I0803 18:13:06.206825 19253 net.cpp:91] Creating Layer conv4_1
I0803 18:13:06.206840 19253 net.cpp:425] conv4_1 <- pool3
I0803 18:13:06.206861 19253 net.cpp:399] conv4_1 -> conv4_1
I0803 18:13:06.252120 19253 net.cpp:141] Setting up conv4_1
I0803 18:13:06.252156 19253 net.cpp:148] Top shape: 10 512 28 28 (4014080)
I0803 18:13:06.252172 19253 net.cpp:156] Memory required for data: 1041653800
I0803 18:13:06.252192 19253 layer_factory.hpp:77] Creating layer relu4_1
I0803 18:13:06.252210 19253 net.cpp:91] Creating Layer relu4_1
I0803 18:13:06.252224 19253 net.cpp:425] relu4_1 <- conv4_1
I0803 18:13:06.252240 19253 net.cpp:386] relu4_1 -> conv4_1 (in-place)
I0803 18:13:06.252259 19253 net.cpp:141] Setting up relu4_1
I0803 18:13:06.252279 19253 net.cpp:148] Top shape: 10 512 28 28 (4014080)
I0803 18:13:06.252298 19253 net.cpp:156] Memory required for data: 1057710120
I0803 18:13:06.252315 19253 layer_factory.hpp:77] Creating layer conv4_2
I0803 18:13:06.252339 19253 net.cpp:91] Creating Layer conv4_2
I0803 18:13:06.252357 19253 net.cpp:425] conv4_2 <- conv4_1
I0803 18:13:06.252384 19253 net.cpp:399] conv4_2 -> conv4_2
I0803 18:13:06.341552 19253 net.cpp:141] Setting up conv4_2
I0803 18:13:06.341595 19253 net.cpp:148] Top shape: 10 512 28 28 (4014080)
I0803 18:13:06.341616 19253 net.cpp:156] Memory required for data: 1073766440
I0803 18:13:06.341646 19253 layer_factory.hpp:77] Creating layer relu4_2
I0803 18:13:06.341667 19253 net.cpp:91] Creating Layer relu4_2
I0803 18:13:06.341683 19253 net.cpp:425] relu4_2 <- conv4_2
I0803 18:13:06.341702 19253 net.cpp:386] relu4_2 -> conv4_2 (in-place)
I0803 18:13:06.341722 19253 net.cpp:141] Setting up relu4_2
I0803 18:13:06.341742 19253 net.cpp:148] Top shape: 10 512 28 28 (4014080)
I0803 18:13:06.341760 19253 net.cpp:156] Memory required for data: 1089822760
I0803 18:13:06.341775 19253 layer_factory.hpp:77] Creating layer conv4_3
I0803 18:13:06.341800 19253 net.cpp:91] Creating Layer conv4_3
I0803 18:13:06.341814 19253 net.cpp:425] conv4_3 <- conv4_2
I0803 18:13:06.341836 19253 net.cpp:399] conv4_3 -> conv4_3
I0803 18:13:06.431032 19253 net.cpp:141] Setting up conv4_3
I0803 18:13:06.431087 19253 net.cpp:148] Top shape: 10 512 28 28 (4014080)
I0803 18:13:06.431103 19253 net.cpp:156] Memory required for data: 1105879080
I0803 18:13:06.431159 19253 layer_factory.hpp:77] Creating layer relu4_3
I0803 18:13:06.431193 19253 net.cpp:91] Creating Layer relu4_3
I0803 18:13:06.431210 19253 net.cpp:425] relu4_3 <- conv4_3
I0803 18:13:06.431228 19253 net.cpp:386] relu4_3 -> conv4_3 (in-place)
I0803 18:13:06.431248 19253 net.cpp:141] Setting up relu4_3
I0803 18:13:06.431265 19253 net.cpp:148] Top shape: 10 512 28 28 (4014080)
I0803 18:13:06.431282 19253 net.cpp:156] Memory required for data: 1121935400
I0803 18:13:06.431298 19253 layer_factory.hpp:77] Creating layer pool4
I0803 18:13:06.431318 19253 net.cpp:91] Creating Layer pool4
I0803 18:13:06.431334 19253 net.cpp:425] pool4 <- conv4_3
I0803 18:13:06.431354 19253 net.cpp:399] pool4 -> pool4
I0803 18:13:06.431412 19253 net.cpp:141] Setting up pool4
I0803 18:13:06.431434 19253 net.cpp:148] Top shape: 10 512 14 14 (1003520)
I0803 18:13:06.431449 19253 net.cpp:156] Memory required for data: 1125949480
I0803 18:13:06.431464 19253 layer_factory.hpp:77] Creating layer conv5_1
I0803 18:13:06.431490 19253 net.cpp:91] Creating Layer conv5_1
I0803 18:13:06.431514 19253 net.cpp:425] conv5_1 <- pool4
I0803 18:13:06.431533 19253 net.cpp:399] conv5_1 -> conv5_1
I0803 18:13:06.520664 19253 net.cpp:141] Setting up conv5_1
I0803 18:13:06.520715 19253 net.cpp:148] Top shape: 10 512 14 14 (1003520)
I0803 18:13:06.520731 19253 net.cpp:156] Memory required for data: 1129963560
I0803 18:13:06.520751 19253 layer_factory.hpp:77] Creating layer relu5_1
I0803 18:13:06.520771 19253 net.cpp:91] Creating Layer relu5_1
I0803 18:13:06.520787 19253 net.cpp:425] relu5_1 <- conv5_1
I0803 18:13:06.520805 19253 net.cpp:386] relu5_1 -> conv5_1 (in-place)
I0803 18:13:06.520825 19253 net.cpp:141] Setting up relu5_1
I0803 18:13:06.520848 19253 net.cpp:148] Top shape: 10 512 14 14 (1003520)
I0803 18:13:06.520861 19253 net.cpp:156] Memory required for data: 1133977640
I0803 18:13:06.520876 19253 layer_factory.hpp:77] Creating layer conv5_2
I0803 18:13:06.520900 19253 net.cpp:91] Creating Layer conv5_2
I0803 18:13:06.520920 19253 net.cpp:425] conv5_2 <- conv5_1
I0803 18:13:06.520937 19253 net.cpp:399] conv5_2 -> conv5_2
I0803 18:13:06.610088 19253 net.cpp:141] Setting up conv5_2
I0803 18:13:06.610132 19253 net.cpp:148] Top shape: 10 512 14 14 (1003520)
I0803 18:13:06.610154 19253 net.cpp:156] Memory required for data: 1137991720
I0803 18:13:06.610174 19253 layer_factory.hpp:77] Creating layer relu5_2
I0803 18:13:06.610198 19253 net.cpp:91] Creating Layer relu5_2
I0803 18:13:06.610218 19253 net.cpp:425] relu5_2 <- conv5_2
I0803 18:13:06.610234 19253 net.cpp:386] relu5_2 -> conv5_2 (in-place)
I0803 18:13:06.610255 19253 net.cpp:141] Setting up relu5_2
I0803 18:13:06.610272 19253 net.cpp:148] Top shape: 10 512 14 14 (1003520)
I0803 18:13:06.610291 19253 net.cpp:156] Memory required for data: 1142005800
I0803 18:13:06.610312 19253 layer_factory.hpp:77] Creating layer conv5_3
I0803 18:13:06.610337 19253 net.cpp:91] Creating Layer conv5_3
I0803 18:13:06.610353 19253 net.cpp:425] conv5_3 <- conv5_2
I0803 18:13:06.610373 19253 net.cpp:399] conv5_3 -> conv5_3
I0803 18:13:06.701153 19253 net.cpp:141] Setting up conv5_3
I0803 18:13:06.701225 19253 net.cpp:148] Top shape: 10 512 14 14 (1003520)
I0803 18:13:06.701242 19253 net.cpp:156] Memory required for data: 1146019880
I0803 18:13:06.701267 19253 layer_factory.hpp:77] Creating layer relu5_3
I0803 18:13:06.701295 19253 net.cpp:91] Creating Layer relu5_3
I0803 18:13:06.701316 19253 net.cpp:425] relu5_3 <- conv5_3
I0803 18:13:06.701341 19253 net.cpp:386] relu5_3 -> conv5_3 (in-place)
I0803 18:13:06.701380 19253 net.cpp:141] Setting up relu5_3
I0803 18:13:06.701397 19253 net.cpp:148] Top shape: 10 512 14 14 (1003520)
I0803 18:13:06.701416 19253 net.cpp:156] Memory required for data: 1150033960
I0803 18:13:06.701429 19253 layer_factory.hpp:77] Creating layer pool5
I0803 18:13:06.701450 19253 net.cpp:91] Creating Layer pool5
I0803 18:13:06.701469 19253 net.cpp:425] pool5 <- conv5_3
I0803 18:13:06.701489 19253 net.cpp:399] pool5 -> pool5
I0803 18:13:06.701602 19253 net.cpp:141] Setting up pool5
I0803 18:13:06.701628 19253 net.cpp:148] Top shape: 10 512 7 7 (250880)
I0803 18:13:06.701644 19253 net.cpp:156] Memory required for data: 1151037480
I0803 18:13:06.701660 19253 layer_factory.hpp:77] Creating layer fc6
I0803 18:13:06.701701 19253 net.cpp:91] Creating Layer fc6
I0803 18:13:06.701721 19253 net.cpp:425] fc6 <- pool5
I0803 18:13:06.701742 19253 net.cpp:399] fc6 -> fc6
I0803 18:13:10.654108 19253 net.cpp:141] Setting up fc6
I0803 18:13:10.654232 19253 net.cpp:148] Top shape: 10 4096 (40960)
I0803 18:13:10.654251 19253 net.cpp:156] Memory required for data: 1151201320
I0803 18:13:10.654294 19253 layer_factory.hpp:77] Creating layer relu6
I0803 18:13:10.654350 19253 net.cpp:91] Creating Layer relu6
I0803 18:13:10.654377 19253 net.cpp:425] relu6 <- fc6
I0803 18:13:10.654402 19253 net.cpp:386] relu6 -> fc6 (in-place)
I0803 18:13:10.654428 19253 net.cpp:141] Setting up relu6
I0803 18:13:10.654446 19253 net.cpp:148] Top shape: 10 4096 (40960)
I0803 18:13:10.654467 19253 net.cpp:156] Memory required for data: 1151365160
I0803 18:13:10.654485 19253 layer_factory.hpp:77] Creating layer drop6
I0803 18:13:10.654520 19253 net.cpp:91] Creating Layer drop6
I0803 18:13:10.654538 19253 net.cpp:425] drop6 <- fc6
I0803 18:13:10.654556 19253 net.cpp:386] drop6 -> fc6 (in-place)
I0803 18:13:10.654644 19253 net.cpp:141] Setting up drop6
I0803 18:13:10.654667 19253 net.cpp:148] Top shape: 10 4096 (40960)
I0803 18:13:10.654685 19253 net.cpp:156] Memory required for data: 1151529000
I0803 18:13:10.654700 19253 layer_factory.hpp:77] Creating layer fc7
I0803 18:13:10.654723 19253 net.cpp:91] Creating Layer fc7
I0803 18:13:10.654741 19253 net.cpp:425] fc7 <- fc6
I0803 18:13:10.654762 19253 net.cpp:399] fc7 -> fc7
I0803 18:13:11.298933 19253 net.cpp:141] Setting up fc7
I0803 18:13:11.299018 19253 net.cpp:148] Top shape: 10 4096 (40960)
I0803 18:13:11.299036 19253 net.cpp:156] Memory required for data: 1151692840
I0803 18:13:11.299069 19253 layer_factory.hpp:77] Creating layer relu7
I0803 18:13:11.299103 19253 net.cpp:91] Creating Layer relu7
I0803 18:13:11.299130 19253 net.cpp:425] relu7 <- fc7
I0803 18:13:11.299154 19253 net.cpp:386] relu7 -> fc7 (in-place)
I0803 18:13:11.299181 19253 net.cpp:141] Setting up relu7
I0803 18:13:11.299201 19253 net.cpp:148] Top shape: 10 4096 (40960)
I0803 18:13:11.299219 19253 net.cpp:156] Memory required for data: 1151856680
I0803 18:13:11.299237 19253 layer_factory.hpp:77] Creating layer drop7
I0803 18:13:11.299260 19253 net.cpp:91] Creating Layer drop7
I0803 18:13:11.299278 19253 net.cpp:425] drop7 <- fc7
I0803 18:13:11.299295 19253 net.cpp:386] drop7 -> fc7 (in-place)
I0803 18:13:11.299351 19253 net.cpp:141] Setting up drop7
I0803 18:13:11.299373 19253 net.cpp:148] Top shape: 10 4096 (40960)
I0803 18:13:11.299391 19253 net.cpp:156] Memory required for data: 1152020520
I0803 18:13:11.299407 19253 layer_factory.hpp:77] Creating layer fc8_binary_f
I0803 18:13:11.299432 19253 net.cpp:91] Creating Layer fc8_binary_f
I0803 18:13:11.299449 19253 net.cpp:425] fc8_binary_f <- fc7
I0803 18:13:11.299468 19253 net.cpp:399] fc8_binary_f -> fc8_binary_f
I0803 18:13:11.303916 19253 net.cpp:141] Setting up fc8_binary_f
I0803 18:13:11.303946 19253 net.cpp:148] Top shape: 10 24 (240)
I0803 18:13:11.303963 19253 net.cpp:156] Memory required for data: 1152021480
I0803 18:13:11.303987 19253 layer_factory.hpp:77] Creating layer loss_hashing
I0803 18:13:11.304015 19253 net.cpp:91] Creating Layer loss_hashing
I0803 18:13:11.304033 19253 net.cpp:425] loss_hashing <- fc8_binary_f
I0803 18:13:11.304051 19253 net.cpp:425] loss_hashing <- label
I0803 18:13:11.304083 19253 net.cpp:399] loss_hashing -> loss_hashing
…
