…
I0901 10:58:17.766149 23354 net.cpp:313] The NetState phase (1) differed from the phase (0) specified by a rule in layer pattern
I0901 10:58:17.766517 23354 net.cpp:49] Initializing net from parameters: 
name: "docomo_pattern_CNN"
state {
  phase: TEST
}
layer {
  name: "pattern"
  type: "Data"
  top: "data"
  top: "label"
  include {
    phase: TEST
  }
  transform_param {
    mirror: false
    mean_value: 103.939
    mean_value: 116.779
    mean_value: 123.68
  }
  data_param {
    source: "PATTERN/pattern_val_lmdb"
    batch_size: 30
    backend: LMDB
  }
}
layer {
  name: "conv1"
  type: "Convolution"
  bottom: "data"
  top: "conv1"
  param {
    lr_mult: 1
    decay_mult: 1
  }
  param {
    lr_mult: 2
    decay_mult: 0
  }
  convolution_param {
    num_output: 32
    pad: 2
    kernel_size: 5
    stride: 1
    weight_filler {
      type: "xavier"
    }
    bias_filler {
      type: "constant"
    }
  }
}
layer {
  name: "pool1"
  type: "Pooling"
  bottom: "conv1"
  top: "pool1"
  pooling_param {
    pool: MAX
    kernel_size: 3
    stride: 2
  }
}
layer {
  name: "relu1"
  type: "ReLU"
  bottom: "pool1"
  top: "pool1"
}
layer {
  name: "norm1"
  type: "LRN"
  bottom: "pool1"
  top: "norm1"
  lrn_param {
    local_size: 3
    alpha: 5e-05
    beta: 0.75
    norm_region: WITHIN_CHANNEL
  }
}
layer {
  name: "conv2"
  type: "Convolution"
  bottom: "norm1"
  top: "conv2"
  param {
    lr_mult: 1
    decay_mult: 1
  }
  param {
    lr_mult: 2
    decay_mult: 0
  }
  convolution_param {
    num_output: 32
    pad: 2
    kernel_size: 5
    stride: 1
    weight_filler {
      type: "xavier"
    }
    bias_filler {
      type: "constant"
    }
  }
}
layer {
  name: "pool2"
  type: "Pooling"
  bottom: "conv2"
  top: "pool2"
  pooling_param {
    pool: AVE
    kernel_size: 3
    stride: 2
  }
}
layer {
  name: "relu2"
  type: "ReLU"
  bottom: "pool2"
  top: "pool2"
}
layer {
  name: "norm2"
  type: "LRN"
  bottom: "pool2"
  top: "norm2"
  lrn_param {
    local_size: 3
    alpha: 5e-05
    beta: 0.75
    norm_region: WITHIN_CHANNEL
  }
}
layer {
  name: "conv3"
  type: "Convolution"
  bottom: "norm2"
  top: "conv3"
  param {
    lr_mult: 1
    decay_mult: 1
  }
  param {
    lr_mult: 2
    decay_mult: 0
  }
  convolution_param {
    num_output: 64
    pad: 2
    kernel_size: 5
    stride: 1
    weight_filler {
      type: "xavier"
    }
    bias_filler {
      type: "constant"
    }
  }
}
layer {
  name: "relu3"
  type: "ReLU"
  bottom: "conv3"
  top: "conv3"
}
layer {
  name: "pool3"
  type: "Pooling"
  bottom: "conv3"
  top: "pool3"
  pooling_param {
    pool: AVE
    kernel_size: 3
    stride: 2
  }
}
layer {
  name: "dropout_conv3"
  type: "Dropout"
  bottom: "pool3"
  top: "dropout_conv3"
  dropout_param {
    dropout_ratio: 0.5
  }
}
layer {
  name: "ip500"
  type: "InnerProduct"
  bottom: "dropout_conv3"
  top: "ip500"
  param {
    lr_mult: 1
    decay_mult: 1
  }
  param {
    lr_mult: 2
    decay_mult: 0
  }
  inner_product_param {
    num_output: 500
    weight_filler {
      type: "gaussian"
      std: 0.005
    }
    bias_filler {
      type: "constant"
      value: 0.1
    }
  }
}
layer {
  name: "relu_ip500"
  type: "ReLU"
  bottom: "ip500"
  top: "ip500"
}
layer {
  name: "dropout_ip500"
  type: "Dropout"
  bottom: "ip500"
  top: "ip500"
  dropout_param {
    dropout_ratio: 0.5
  }
}
layer {
  name: "ip_hash"
  type: "InnerProduct"
  bottom: "ip500"
  top: "ip_hash"
  param {
    lr_mult: 1
    decay_mult: 1
  }
  param {
    lr_mult: 2
    decay_mult: 0
  }
  inner_product_param {
    num_output: 12
    weight_filler {
      type: "gaussian"
      std: 0.005
    }
    bias_filler {
      type: "constant"
      value: 0.1
    }
  }
}
layer {
  name: "ip_classification"
  type: "InnerProduct"
  bottom: "ip500"
  top: "ip_classification"
  param {
    lr_mult: 1
    decay_mult: 1
  }
  param {
    lr_mult: 2
    decay_mult: 0
  }
  inner_product_param {
    num_output: 7
    weight_filler {
      type: "gaussian"
      std: 0.005
    }
    bias_filler {
      type: "constant"
      value: 0.1
    }
  }
}
layer {
  name: "loss_hash"
  type: "HashingLoss"
  bottom: "ip_hash"
  bottom: "label"
  top: "loss_hash"
  loss_weight: 0.1
  hashing_loss_param {
    bi_margin: 24
    tradeoff: 0.01
  }
}
layer {
  name: "loss_classification"
  type: "SoftmaxWithLoss"
  bottom: "ip_classification"
  bottom: "label"
  top: "loss_classification"
}
layer {
  name: "accuracy_at_1"
  type: "Accuracy"
  bottom: "ip_classification"
  bottom: "label"
  top: "accuracy_at_1"
  include {
    phase: TEST
  }
  accuracy_param {
    top_k: 1
  }
}
layer {
  name: "accuracy_at_5"
  type: "Accuracy"
  bottom: "ip_classification"
  bottom: "label"
  top: "accuracy_at_5"
  include {
    phase: TEST
  }
  accuracy_param {
    top_k: 5
  }
}
I0901 10:58:17.767911 23354 layer_factory.hpp:77] Creating layer pattern
I0901 10:58:17.768584 23354 net.cpp:91] Creating Layer pattern
I0901 10:58:17.768632 23354 net.cpp:399] pattern -> data
I0901 10:58:17.768875 23354 net.cpp:399] pattern -> label
I0901 10:58:17.770645 23359 db_lmdb.cpp:38] Opened lmdb PATTERN/pattern_val_lmdb
I0901 10:58:17.800487 23354 data_layer.cpp:41] output data size: 30,3,224,224
I0901 10:58:17.858738 23354 net.cpp:141] Setting up pattern
I0901 10:58:17.858839 23354 net.cpp:148] Top shape: 30 3 224 224 (4515840)
I0901 10:58:17.858868 23354 net.cpp:148] Top shape: 30 1 1 1 (30)
I0901 10:58:17.858887 23354 net.cpp:156] Memory required for data: 18063480
I0901 10:58:17.858917 23354 layer_factory.hpp:77] Creating layer label_pattern_1_split
I0901 10:58:17.858958 23354 net.cpp:91] Creating Layer label_pattern_1_split
I0901 10:58:17.858985 23354 net.cpp:425] label_pattern_1_split <- label
I0901 10:58:17.859028 23354 net.cpp:399] label_pattern_1_split -> label_pattern_1_split_0
I0901 10:58:17.859064 23354 net.cpp:399] label_pattern_1_split -> label_pattern_1_split_1
I0901 10:58:17.859091 23354 net.cpp:399] label_pattern_1_split -> label_pattern_1_split_2
I0901 10:58:17.859115 23354 net.cpp:399] label_pattern_1_split -> label_pattern_1_split_3
I0901 10:58:17.859235 23354 net.cpp:141] Setting up label_pattern_1_split
I0901 10:58:17.859271 23354 net.cpp:148] Top shape: 30 1 1 1 (30)
I0901 10:58:17.859293 23354 net.cpp:148] Top shape: 30 1 1 1 (30)
I0901 10:58:17.859314 23354 net.cpp:148] Top shape: 30 1 1 1 (30)
I0901 10:58:17.859336 23354 net.cpp:148] Top shape: 30 1 1 1 (30)
I0901 10:58:17.859355 23354 net.cpp:156] Memory required for data: 18063960
I0901 10:58:17.859375 23354 layer_factory.hpp:77] Creating layer conv1
I0901 10:58:17.859426 23354 net.cpp:91] Creating Layer conv1
I0901 10:58:17.859453 23354 net.cpp:425] conv1 <- data
I0901 10:58:17.859479 23354 net.cpp:399] conv1 -> conv1
I0901 10:58:17.862265 23354 net.cpp:141] Setting up conv1
I0901 10:58:17.862334 23354 net.cpp:148] Top shape: 30 32 224 224 (48168960)
I0901 10:58:17.862381 23354 net.cpp:156] Memory required for data: 210739800
I0901 10:58:17.862462 23354 layer_factory.hpp:77] Creating layer pool1
I0901 10:58:17.862516 23354 net.cpp:91] Creating Layer pool1
I0901 10:58:17.862550 23354 net.cpp:425] pool1 <- conv1
I0901 10:58:17.862593 23354 net.cpp:399] pool1 -> pool1
I0901 10:58:17.864133 23354 net.cpp:141] Setting up pool1
I0901 10:58:17.864169 23354 net.cpp:148] Top shape: 30 32 112 112 (12042240)
I0901 10:58:17.864189 23354 net.cpp:156] Memory required for data: 258908760
I0901 10:58:17.864209 23354 layer_factory.hpp:77] Creating layer relu1
I0901 10:58:17.864240 23354 net.cpp:91] Creating Layer relu1
I0901 10:58:17.864261 23354 net.cpp:425] relu1 <- pool1
I0901 10:58:17.864284 23354 net.cpp:386] relu1 -> pool1 (in-place)
I0901 10:58:17.864316 23354 net.cpp:141] Setting up relu1
I0901 10:58:17.864339 23354 net.cpp:148] Top shape: 30 32 112 112 (12042240)
I0901 10:58:17.864359 23354 net.cpp:156] Memory required for data: 307077720
I0901 10:58:17.864378 23354 layer_factory.hpp:77] Creating layer norm1
I0901 10:58:17.864404 23354 net.cpp:91] Creating Layer norm1
I0901 10:58:17.864424 23354 net.cpp:425] norm1 <- pool1
I0901 10:58:17.864446 23354 net.cpp:399] norm1 -> norm1
I0901 10:58:17.864681 23354 net.cpp:141] Setting up norm1
I0901 10:58:17.864715 23354 net.cpp:148] Top shape: 30 32 112 112 (12042240)
I0901 10:58:17.864763 23354 net.cpp:156] Memory required for data: 355246680
I0901 10:58:17.864792 23354 layer_factory.hpp:77] Creating layer conv2
I0901 10:58:17.864840 23354 net.cpp:91] Creating Layer conv2
I0901 10:58:17.864873 23354 net.cpp:425] conv2 <- norm1
I0901 10:58:17.864910 23354 net.cpp:399] conv2 -> conv2
I0901 10:58:17.866945 23354 net.cpp:141] Setting up conv2
I0901 10:58:17.867004 23354 net.cpp:148] Top shape: 30 32 112 112 (12042240)
I0901 10:58:17.867035 23354 net.cpp:156] Memory required for data: 403415640
I0901 10:58:17.867089 23354 layer_factory.hpp:77] Creating layer pool2
I0901 10:58:17.867128 23354 net.cpp:91] Creating Layer pool2
I0901 10:58:17.867159 23354 net.cpp:425] pool2 <- conv2
I0901 10:58:17.867193 23354 net.cpp:399] pool2 -> pool2
I0901 10:58:17.867280 23354 net.cpp:141] Setting up pool2
I0901 10:58:17.867336 23354 net.cpp:148] Top shape: 30 32 56 56 (3010560)
I0901 10:58:17.867367 23354 net.cpp:156] Memory required for data: 415457880
I0901 10:58:17.867394 23354 layer_factory.hpp:77] Creating layer relu2
I0901 10:58:17.867431 23354 net.cpp:91] Creating Layer relu2
I0901 10:58:17.867461 23354 net.cpp:425] relu2 <- pool2
I0901 10:58:17.867493 23354 net.cpp:386] relu2 -> pool2 (in-place)
I0901 10:58:17.867529 23354 net.cpp:141] Setting up relu2
I0901 10:58:17.867561 23354 net.cpp:148] Top shape: 30 32 56 56 (3010560)
I0901 10:58:17.867590 23354 net.cpp:156] Memory required for data: 427500120
I0901 10:58:17.867619 23354 layer_factory.hpp:77] Creating layer norm2
I0901 10:58:17.867660 23354 net.cpp:91] Creating Layer norm2
I0901 10:58:17.867696 23354 net.cpp:425] norm2 <- pool2
I0901 10:58:17.867728 23354 net.cpp:399] norm2 -> norm2
I0901 10:58:17.867971 23354 net.cpp:141] Setting up norm2
I0901 10:58:17.868021 23354 net.cpp:148] Top shape: 30 32 56 56 (3010560)
I0901 10:58:17.868052 23354 net.cpp:156] Memory required for data: 439542360
I0901 10:58:17.868080 23354 layer_factory.hpp:77] Creating layer conv3
I0901 10:58:17.868130 23354 net.cpp:91] Creating Layer conv3
I0901 10:58:17.868168 23354 net.cpp:425] conv3 <- norm2
I0901 10:58:17.868212 23354 net.cpp:399] conv3 -> conv3
I0901 10:58:17.869557 23354 net.cpp:141] Setting up conv3
I0901 10:58:17.869608 23354 net.cpp:148] Top shape: 30 64 56 56 (6021120)
I0901 10:58:17.869639 23354 net.cpp:156] Memory required for data: 463626840
I0901 10:58:17.869681 23354 layer_factory.hpp:77] Creating layer relu3
I0901 10:58:17.869719 23354 net.cpp:91] Creating Layer relu3
I0901 10:58:17.869750 23354 net.cpp:425] relu3 <- conv3
I0901 10:58:17.869783 23354 net.cpp:386] relu3 -> conv3 (in-place)
I0901 10:58:17.869819 23354 net.cpp:141] Setting up relu3
I0901 10:58:17.869853 23354 net.cpp:148] Top shape: 30 64 56 56 (6021120)
I0901 10:58:17.869881 23354 net.cpp:156] Memory required for data: 487711320
I0901 10:58:17.869910 23354 layer_factory.hpp:77] Creating layer pool3
I0901 10:58:17.869951 23354 net.cpp:91] Creating Layer pool3
I0901 10:58:17.869990 23354 net.cpp:425] pool3 <- conv3
I0901 10:58:17.870026 23354 net.cpp:399] pool3 -> pool3
I0901 10:58:17.870112 23354 net.cpp:141] Setting up pool3
I0901 10:58:17.870158 23354 net.cpp:148] Top shape: 30 64 28 28 (1505280)
I0901 10:58:17.870189 23354 net.cpp:156] Memory required for data: 493732440
I0901 10:58:17.870218 23354 layer_factory.hpp:77] Creating layer dropout_conv3
I0901 10:58:17.870260 23354 net.cpp:91] Creating Layer dropout_conv3
I0901 10:58:17.870291 23354 net.cpp:425] dropout_conv3 <- pool3
I0901 10:58:17.870332 23354 net.cpp:399] dropout_conv3 -> dropout_conv3
I0901 10:58:17.870471 23354 net.cpp:141] Setting up dropout_conv3
I0901 10:58:17.870520 23354 net.cpp:148] Top shape: 30 64 28 28 (1505280)
I0901 10:58:17.870551 23354 net.cpp:156] Memory required for data: 499753560
I0901 10:58:17.870582 23354 layer_factory.hpp:77] Creating layer ip500
I0901 10:58:17.870632 23354 net.cpp:91] Creating Layer ip500
I0901 10:58:17.870671 23354 net.cpp:425] ip500 <- dropout_conv3
I0901 10:58:17.870754 23354 net.cpp:399] ip500 -> ip500
I0901 10:58:19.212636 23354 net.cpp:141] Setting up ip500
I0901 10:58:19.212712 23354 net.cpp:148] Top shape: 30 500 (15000)
I0901 10:58:19.212729 23354 net.cpp:156] Memory required for data: 499813560
I0901 10:58:19.212754 23354 layer_factory.hpp:77] Creating layer relu_ip500
I0901 10:58:19.212781 23354 net.cpp:91] Creating Layer relu_ip500
I0901 10:58:19.212800 23354 net.cpp:425] relu_ip500 <- ip500
I0901 10:58:19.212818 23354 net.cpp:386] relu_ip500 -> ip500 (in-place)
I0901 10:58:19.212841 23354 net.cpp:141] Setting up relu_ip500
I0901 10:58:19.212858 23354 net.cpp:148] Top shape: 30 500 (15000)
I0901 10:58:19.212872 23354 net.cpp:156] Memory required for data: 499873560
I0901 10:58:19.212887 23354 layer_factory.hpp:77] Creating layer dropout_ip500
I0901 10:58:19.212909 23354 net.cpp:91] Creating Layer dropout_ip500
I0901 10:58:19.212940 23354 net.cpp:425] dropout_ip500 <- ip500
I0901 10:58:19.212959 23354 net.cpp:386] dropout_ip500 -> ip500 (in-place)
I0901 10:58:19.213006 23354 net.cpp:141] Setting up dropout_ip500
I0901 10:58:19.213030 23354 net.cpp:148] Top shape: 30 500 (15000)
I0901 10:58:19.213045 23354 net.cpp:156] Memory required for data: 499933560
I0901 10:58:19.213069 23354 layer_factory.hpp:77] Creating layer ip500_dropout_ip500_0_split
I0901 10:58:19.213088 23354 net.cpp:91] Creating Layer ip500_dropout_ip500_0_split
I0901 10:58:19.213102 23354 net.cpp:425] ip500_dropout_ip500_0_split <- ip500
I0901 10:58:19.213120 23354 net.cpp:399] ip500_dropout_ip500_0_split -> ip500_dropout_ip500_0_split_0
I0901 10:58:19.213143 23354 net.cpp:399] ip500_dropout_ip500_0_split -> ip500_dropout_ip500_0_split_1
I0901 10:58:19.213197 23354 net.cpp:141] Setting up ip500_dropout_ip500_0_split
I0901 10:58:19.213219 23354 net.cpp:148] Top shape: 30 500 (15000)
I0901 10:58:19.213237 23354 net.cpp:148] Top shape: 30 500 (15000)
I0901 10:58:19.213251 23354 net.cpp:156] Memory required for data: 500053560
I0901 10:58:19.213265 23354 layer_factory.hpp:77] Creating layer ip_hash
I0901 10:58:19.213291 23354 net.cpp:91] Creating Layer ip_hash
I0901 10:58:19.213306 23354 net.cpp:425] ip_hash <- ip500_dropout_ip500_0_split_0
I0901 10:58:19.213328 23354 net.cpp:399] ip_hash -> ip_hash
I0901 10:58:19.213682 23354 net.cpp:141] Setting up ip_hash
I0901 10:58:19.213708 23354 net.cpp:148] Top shape: 30 12 (360)
I0901 10:58:19.213724 23354 net.cpp:156] Memory required for data: 500055000
I0901 10:58:19.213763 23354 layer_factory.hpp:77] Creating layer ip_classification
I0901 10:58:19.213784 23354 net.cpp:91] Creating Layer ip_classification
I0901 10:58:19.213799 23354 net.cpp:425] ip_classification <- ip500_dropout_ip500_0_split_1
I0901 10:58:19.213824 23354 net.cpp:399] ip_classification -> ip_classification
I0901 10:58:19.214084 23354 net.cpp:141] Setting up ip_classification
I0901 10:58:19.214109 23354 net.cpp:148] Top shape: 30 7 (210)
I0901 10:58:19.214123 23354 net.cpp:156] Memory required for data: 500055840
I0901 10:58:19.214141 23354 layer_factory.hpp:77] Creating layer ip_classification_ip_classification_0_split
I0901 10:58:19.214160 23354 net.cpp:91] Creating Layer ip_classification_ip_classification_0_split
I0901 10:58:19.214175 23354 net.cpp:425] ip_classification_ip_classification_0_split <- ip_classification
I0901 10:58:19.214292 23354 net.cpp:399] ip_classification_ip_classification_0_split -> ip_classification_ip_classification_0_split_0
I0901 10:58:19.214314 23354 net.cpp:399] ip_classification_ip_classification_0_split -> ip_classification_ip_classification_0_split_1
I0901 10:58:19.214335 23354 net.cpp:399] ip_classification_ip_classification_0_split -> ip_classification_ip_classification_0_split_2
I0901 10:58:19.214406 23354 net.cpp:141] Setting up ip_classification_ip_classification_0_split
I0901 10:58:19.214434 23354 net.cpp:148] Top shape: 30 7 (210)
I0901 10:58:19.214452 23354 net.cpp:148] Top shape: 30 7 (210)
I0901 10:58:19.214467 23354 net.cpp:148] Top shape: 30 7 (210)
I0901 10:58:19.214480 23354 net.cpp:156] Memory required for data: 500058360
I0901 10:58:19.214526 23354 layer_factory.hpp:77] Creating layer loss_hash
I0901 10:58:19.214566 23354 net.cpp:91] Creating Layer loss_hash
I0901 10:58:19.214582 23354 net.cpp:425] loss_hash <- ip_hash
I0901 10:58:19.214597 23354 net.cpp:425] loss_hash <- label_pattern_1_split_0
I0901 10:58:19.214614 23354 net.cpp:399] loss_hash -> loss_hash
…
