…
I0914 18:31:16.594626 11472 net.cpp:313] The NetState phase (0) differed from the phase (1) specified by a rule in layer accuracy_at_1_Type
I0914 18:31:16.595477 11472 net.cpp:49] Initializing net from parameters: 
name: "docomo_VGG16"
state {
  phase: TRAIN
}
layer {
  name: "data"
  type: "Data"
  top: "data"
  top: "label"
  include {
    phase: TRAIN
  }
  transform_param {
    mirror: true
    crop_size: 224
    mean_value: 103.939
    mean_value: 116.779
    mean_value: 123.68
  }
  data_param {
    source: "FASHION/fashion_train_lmdb/"
    batch_size: 10
    backend: LMDB
  }
}
layer {
  name: "conv1_1"
  type: "Convolution"
  bottom: "data"
  top: "conv1_1"
  param {
    lr_mult: 1
    decay_mult: 1
  }
  param {
    lr_mult: 2
    decay_mult: 0
  }
  convolution_param {
    num_output: 64
    pad: 1
    kernel_size: 3
    weight_filler {
      type: "gaussian"
      std: 0.01
    }
    bias_filler {
      type: "constant"
      value: 0
    }
  }
}
layer {
  name: "relu1_1"
  type: "ReLU"
  bottom: "conv1_1"
  top: "conv1_1"
}
layer {
  name: "conv1_2"
  type: "Convolution"
  bottom: "conv1_1"
  top: "conv1_2"
  param {
    lr_mult: 1
    decay_mult: 1
  }
  param {
    lr_mult: 2
    decay_mult: 0
  }
  convolution_param {
    num_output: 64
    pad: 1
    kernel_size: 3
    weight_filler {
      type: "gaussian"
      std: 0.01
    }
    bias_filler {
      type: "constant"
      value: 0
    }
  }
}
layer {
  name: "relu1_2"
  type: "ReLU"
  bottom: "conv1_2"
  top: "conv1_2"
}
layer {
  name: "pool1"
  type: "Pooling"
  bottom: "conv1_2"
  top: "pool1"
  pooling_param {
    pool: MAX
    kernel_size: 2
    stride: 2
  }
}
layer {
  name: "conv2_1"
  type: "Convolution"
  bottom: "pool1"
  top: "conv2_1"
  param {
    lr_mult: 1
    decay_mult: 1
  }
  param {
    lr_mult: 2
    decay_mult: 0
  }
  convolution_param {
    num_output: 128
    pad: 1
    kernel_size: 3
    weight_filler {
      type: "gaussian"
      std: 0.01
    }
    bias_filler {
      type: "constant"
      value: 0
    }
  }
}
layer {
  name: "relu2_1"
  type: "ReLU"
  bottom: "conv2_1"
  top: "conv2_1"
}
layer {
  name: "conv2_2"
  type: "Convolution"
  bottom: "conv2_1"
  top: "conv2_2"
  param {
    lr_mult: 1
    decay_mult: 1
  }
  param {
    lr_mult: 2
    decay_mult: 0
  }
  convolution_param {
    num_output: 128
    pad: 1
    kernel_size: 3
    weight_filler {
      type: "gaussian"
      std: 0.01
    }
    bias_filler {
      type: "constant"
      value: 0
    }
  }
}
layer {
  name: "relu2_2"
  type: "ReLU"
  bottom: "conv2_2"
  top: "conv2_2"
}
layer {
  name: "pool2"
  type: "Pooling"
  bottom: "conv2_2"
  top: "pool2"
  pooling_param {
    pool: MAX
    kernel_size: 2
    stride: 2
  }
}
layer {
  name: "conv3_1"
  type: "Convolution"
  bottom: "pool2"
  top: "conv3_1"
  param {
    lr_mult: 1
    decay_mult: 1
  }
  param {
    lr_mult: 2
    decay_mult: 0
  }
  convolution_param {
    num_output: 256
    pad: 1
    kernel_size: 3
    weight_filler {
      type: "gaussian"
      std: 0.01
    }
    bias_filler {
      type: "constant"
      value: 0
    }
  }
}
layer {
  name: "relu3_1"
  type: "ReLU"
  bottom: "conv3_1"
  top: "conv3_1"
}
layer {
  name: "conv3_2"
  type: "Convolution"
  bottom: "conv3_1"
  top: "conv3_2"
  param {
    lr_mult: 1
    decay_mult: 1
  }
  param {
    lr_mult: 2
    decay_mult: 0
  }
  convolution_param {
    num_output: 256
    pad: 1
    kernel_size: 3
    weight_filler {
      type: "gaussian"
      std: 0.01
    }
    bias_filler {
      type: "constant"
      value: 0
    }
  }
}
layer {
  name: "relu3_2"
  type: "ReLU"
  bottom: "conv3_2"
  top: "conv3_2"
}
layer {
  name: "conv3_3"
  type: "Convolution"
  bottom: "conv3_2"
  top: "conv3_3"
  param {
    lr_mult: 1
    decay_mult: 1
  }
  param {
    lr_mult: 2
    decay_mult: 0
  }
  convolution_param {
    num_output: 256
    pad: 1
    kernel_size: 3
    weight_filler {
      type: "gaussian"
      std: 0.01
    }
    bias_filler {
      type: "constant"
      value: 0
    }
  }
}
layer {
  name: "relu3_3"
  type: "ReLU"
  bottom: "conv3_3"
  top: "conv3_3"
}
layer {
  name: "pool3"
  type: "Pooling"
  bottom: "conv3_3"
  top: "pool3"
  pooling_param {
    pool: MAX
    kernel_size: 2
    stride: 2
  }
}
layer {
  name: "conv4_1"
  type: "Convolution"
  bottom: "pool3"
  top: "conv4_1"
  param {
    lr_mult: 1
    decay_mult: 1
  }
  param {
    lr_mult: 2
    decay_mult: 0
  }
  convolution_param {
    num_output: 512
    pad: 1
    kernel_size: 3
    weight_filler {
      type: "gaussian"
      std: 0.01
    }
    bias_filler {
      type: "constant"
      value: 0
    }
  }
}
layer {
  name: "relu4_1"
  type: "ReLU"
  bottom: "conv4_1"
  top: "conv4_1"
}
layer {
  name: "conv4_2"
  type: "Convolution"
  bottom: "conv4_1"
  top: "conv4_2"
  param {
    lr_mult: 1
    decay_mult: 1
  }
  param {
    lr_mult: 2
    decay_mult: 0
  }
  convolution_param {
    num_output: 512
    pad: 1
    kernel_size: 3
    weight_filler {
      type: "gaussian"
      std: 0.01
    }
    bias_filler {
      type: "constant"
      value: 0
    }
  }
}
layer {
  name: "relu4_2"
  type: "ReLU"
  bottom: "conv4_2"
  top: "conv4_2"
}
layer {
  name: "conv4_3"
  type: "Convolution"
  bottom: "conv4_2"
  top: "conv4_3"
  param {
    lr_mult: 1
    decay_mult: 1
  }
  param {
    lr_mult: 2
    decay_mult: 0
  }
  convolution_param {
    num_output: 512
    pad: 1
    kernel_size: 3
    weight_filler {
      type: "gaussian"
      std: 0.01
    }
    bias_filler {
      type: "constant"
      value: 0
    }
  }
}
layer {
  name: "relu4_3"
  type: "ReLU"
  bottom: "conv4_3"
  top: "conv4_3"
}
layer {
  name: "pool4"
  type: "Pooling"
  bottom: "conv4_3"
  top: "pool4"
  pooling_param {
    pool: MAX
    kernel_size: 2
    stride: 2
  }
}
layer {
  name: "conv5_1"
  type: "Convolution"
  bottom: "pool4"
  top: "conv5_1"
  param {
    lr_mult: 1
    decay_mult: 1
  }
  param {
    lr_mult: 2
    decay_mult: 0
  }
  convolution_param {
    num_output: 512
    pad: 1
    kernel_size: 3
    weight_filler {
      type: "gaussian"
      std: 0.01
    }
    bias_filler {
      type: "constant"
      value: 0
    }
  }
}
layer {
  name: "relu5_1"
  type: "ReLU"
  bottom: "conv5_1"
  top: "conv5_1"
}
layer {
  name: "conv5_2"
  type: "Convolution"
  bottom: "conv5_1"
  top: "conv5_2"
  param {
    lr_mult: 1
    decay_mult: 1
  }
  param {
    lr_mult: 2
    decay_mult: 0
  }
  convolution_param {
    num_output: 512
    pad: 1
    kernel_size: 3
    weight_filler {
      type: "gaussian"
      std: 0.01
    }
    bias_filler {
      type: "constant"
      value: 0
    }
  }
}
layer {
  name: "relu5_2"
  type: "ReLU"
  bottom: "conv5_2"
  top: "conv5_2"
}
layer {
  name: "conv5_3"
  type: "Convolution"
  bottom: "conv5_2"
  top: "conv5_3"
  param {
    lr_mult: 1
    decay_mult: 1
  }
  param {
    lr_mult: 2
    decay_mult: 0
  }
  convolution_param {
    num_output: 512
    pad: 1
    kernel_size: 3
    weight_filler {
      type: "gaussian"
      std: 0.01
    }
    bias_filler {
      type: "constant"
      value: 0
    }
  }
}
layer {
  name: "relu5_3"
  type: "ReLU"
  bottom: "conv5_3"
  top: "conv5_3"
}
layer {
  name: "pool5"
  type: "Pooling"
  bottom: "conv5_3"
  top: "pool5"
  pooling_param {
    pool: MAX
    kernel_size: 2
    stride: 2
  }
}
layer {
  name: "fc6"
  type: "InnerProduct"
  bottom: "pool5"
  top: "fc6"
  param {
    lr_mult: 1
    decay_mult: 1
  }
  param {
    lr_mult: 2
    decay_mult: 0
  }
  inner_product_param {
    num_output: 4096
    weight_filler {
      type: "gaussian"
      std: 0.005
    }
    bias_filler {
      type: "constant"
      value: 0.1
    }
  }
}
layer {
  name: "relu6"
  type: "ReLU"
  bottom: "fc6"
  top: "fc6"
}
layer {
  name: "drop6"
  type: "Dropout"
  bottom: "fc6"
  top: "fc6"
  dropout_param {
    dropout_ratio: 0.5
  }
}
layer {
  name: "fc7"
  type: "InnerProduct"
  bottom: "fc6"
  top: "fc7"
  param {
    lr_mult: 1
    decay_mult: 1
  }
  param {
    lr_mult: 2
    decay_mult: 0
  }
  inner_product_param {
    num_output: 4096
    weight_filler {
      type: "gaussian"
      std: 0.005
    }
    bias_filler {
      type: "constant"
      value: 0.1
    }
  }
}
layer {
  name: "relu7"
  type: "ReLU"
  bottom: "fc7"
  top: "fc7"
}
layer {
  name: "drop7"
  type: "Dropout"
  bottom: "fc7"
  top: "fc7"
  dropout_param {
    dropout_ratio: 0.5
  }
}
layer {
  name: "fc8_binary_Type"
  type: "InnerProduct"
  bottom: "fc7"
  top: "fc8_binary_Type"
  param {
    lr_mult: 1
    decay_mult: 1
  }
  param {
    lr_mult: 2
    decay_mult: 0
  }
  inner_product_param {
    num_output: 12
    weight_filler {
      type: "gaussian"
      std: 0.005
    }
    bias_filler {
      type: "constant"
      value: 0.1
    }
  }
}
layer {
  name: "fc8_classification_Type"
  type: "InnerProduct"
  bottom: "fc7"
  top: "fc8_classification_Type"
  param {
    lr_mult: 1
    decay_mult: 1
  }
  param {
    lr_mult: 2
    decay_mult: 0
  }
  inner_product_param {
    num_output: 25
    weight_filler {
      type: "gaussian"
      std: 0.05
    }
    bias_filler {
      type: "constant"
      value: 0.1
    }
  }
}
layer {
  name: "fc_binary_Pattern"
  type: "InnerProduct"
  bottom: "fc7"
  top: "fc_binary_Pattern"
  param {
    lr_mult: 0
    decay_mult: 0
  }
  param {
    lr_mult: 0
    decay_mult: 0
  }
  inner_product_param {
    num_output: 12
    weight_filler {
      type: "gaussian"
      std: 0.005
    }
    bias_filler {
      type: "constant"
      value: 0.1
    }
  }
}
layer {
  name: "fc_classification_Pattern"
  type: "InnerProduct"
  bottom: "fc7"
  top: "fc_classification_Pattern"
  param {
    lr_mult: 0
    decay_mult: 0
  }
  param {
    lr_mult: 0
    decay_mult: 0
  }
  inner_product_param {
    num_output: 7
    weight_filler {
      type: "gaussian"
      std: 0.05
    }
    bias_filler {
      type: "constant"
      value: 0.1
    }
  }
}
layer {
  name: "loss_hashing_Type"
  type: "HashingLoss"
  bottom: "fc8_binary_Type"
  bottom: "label"
  top: "loss_hashing_Type"
  loss_weight: 0.1
  hashing_loss_param {
    bi_margin: 24
    tradeoff: 0.01
  }
}
layer {
  name: "loss_classification_Type"
  type: "SoftmaxWithLoss"
  bottom: "fc8_classification_Type"
  bottom: "label"
  top: "loss_classification_Type"
}
layer {
  name: "loss_hashing"
  type: "HashingLoss"
  bottom: "fc_binary_Pattern"
  bottom: "label"
  top: "loss_hashing"
  loss_weight: 0
  hashing_loss_param {
    bi_margin: 24
    tradeoff: 0.01
  }
}
layer {
  name: "loss_classification"
  type: "SoftmaxWithLoss"
  bottom: "fc_classification_Pattern"
  bottom: "label"
  top: "loss_classification"
  loss_weight: 0
}
I0914 18:31:16.602366 11472 layer_factory.hpp:77] Creating layer data
I0914 18:31:16.603566 11472 net.cpp:91] Creating Layer data
I0914 18:31:16.603643 11472 net.cpp:399] data -> data
I0914 18:31:16.603749 11472 net.cpp:399] data -> label
I0914 18:31:16.643136 11477 db_lmdb.cpp:38] Opened lmdb FASHION/fashion_train_lmdb/
I0914 18:31:16.737263 11472 data_layer.cpp:41] output data size: 10,3,224,224
I0914 18:31:16.763916 11472 net.cpp:141] Setting up data
I0914 18:31:16.764040 11472 net.cpp:148] Top shape: 10 3 224 224 (1505280)
I0914 18:31:16.764083 11472 net.cpp:148] Top shape: 10 1 1 1 (10)
I0914 18:31:16.764113 11472 net.cpp:156] Memory required for data: 6021160
I0914 18:31:16.764158 11472 layer_factory.hpp:77] Creating layer label_data_1_split
I0914 18:31:16.764216 11472 net.cpp:91] Creating Layer label_data_1_split
I0914 18:31:16.764324 11472 net.cpp:425] label_data_1_split <- label
I0914 18:31:16.764396 11472 net.cpp:399] label_data_1_split -> label_data_1_split_0
I0914 18:31:16.764451 11472 net.cpp:399] label_data_1_split -> label_data_1_split_1
I0914 18:31:16.764492 11472 net.cpp:399] label_data_1_split -> label_data_1_split_2
I0914 18:31:16.764546 11472 net.cpp:399] label_data_1_split -> label_data_1_split_3
I0914 18:31:16.764734 11472 net.cpp:141] Setting up label_data_1_split
I0914 18:31:16.764786 11472 net.cpp:148] Top shape: 10 1 1 1 (10)
I0914 18:31:16.764819 11472 net.cpp:148] Top shape: 10 1 1 1 (10)
I0914 18:31:16.764853 11472 net.cpp:148] Top shape: 10 1 1 1 (10)
I0914 18:31:16.764883 11472 net.cpp:148] Top shape: 10 1 1 1 (10)
I0914 18:31:16.764911 11472 net.cpp:156] Memory required for data: 6021320
I0914 18:31:16.764941 11472 layer_factory.hpp:77] Creating layer conv1_1
I0914 18:31:16.765019 11472 net.cpp:91] Creating Layer conv1_1
I0914 18:31:16.765058 11472 net.cpp:425] conv1_1 <- data
I0914 18:31:16.765103 11472 net.cpp:399] conv1_1 -> conv1_1
I0914 18:31:16.768728 11472 net.cpp:141] Setting up conv1_1
I0914 18:31:16.768807 11472 net.cpp:148] Top shape: 10 64 224 224 (32112640)
I0914 18:31:16.768841 11472 net.cpp:156] Memory required for data: 134471880
I0914 18:31:16.768908 11472 layer_factory.hpp:77] Creating layer relu1_1
I0914 18:31:16.768962 11472 net.cpp:91] Creating Layer relu1_1
I0914 18:31:16.769003 11472 net.cpp:425] relu1_1 <- conv1_1
I0914 18:31:16.769038 11472 net.cpp:386] relu1_1 -> conv1_1 (in-place)
I0914 18:31:16.769084 11472 net.cpp:141] Setting up relu1_1
I0914 18:31:16.769120 11472 net.cpp:148] Top shape: 10 64 224 224 (32112640)
I0914 18:31:16.769157 11472 net.cpp:156] Memory required for data: 262922440
I0914 18:31:16.769186 11472 layer_factory.hpp:77] Creating layer conv1_2
I0914 18:31:16.769240 11472 net.cpp:91] Creating Layer conv1_2
I0914 18:31:16.769273 11472 net.cpp:425] conv1_2 <- conv1_1
I0914 18:31:16.769315 11472 net.cpp:399] conv1_2 -> conv1_2
I0914 18:31:16.772639 11472 net.cpp:141] Setting up conv1_2
I0914 18:31:16.772696 11472 net.cpp:148] Top shape: 10 64 224 224 (32112640)
I0914 18:31:16.772728 11472 net.cpp:156] Memory required for data: 391373000
I0914 18:31:16.772773 11472 layer_factory.hpp:77] Creating layer relu1_2
I0914 18:31:16.772811 11472 net.cpp:91] Creating Layer relu1_2
I0914 18:31:16.772842 11472 net.cpp:425] relu1_2 <- conv1_2
I0914 18:31:16.772874 11472 net.cpp:386] relu1_2 -> conv1_2 (in-place)
I0914 18:31:16.772912 11472 net.cpp:141] Setting up relu1_2
I0914 18:31:16.772946 11472 net.cpp:148] Top shape: 10 64 224 224 (32112640)
I0914 18:31:16.772984 11472 net.cpp:156] Memory required for data: 519823560
I0914 18:31:16.773015 11472 layer_factory.hpp:77] Creating layer pool1
I0914 18:31:16.773057 11472 net.cpp:91] Creating Layer pool1
I0914 18:31:16.773088 11472 net.cpp:425] pool1 <- conv1_2
I0914 18:31:16.773146 11472 net.cpp:399] pool1 -> pool1
I0914 18:31:16.773290 11472 net.cpp:141] Setting up pool1
I0914 18:31:16.773341 11472 net.cpp:148] Top shape: 10 64 112 112 (8028160)
I0914 18:31:16.773371 11472 net.cpp:156] Memory required for data: 551936200
I0914 18:31:16.773401 11472 layer_factory.hpp:77] Creating layer conv2_1
I0914 18:31:16.773447 11472 net.cpp:91] Creating Layer conv2_1
I0914 18:31:16.773483 11472 net.cpp:425] conv2_1 <- pool1
I0914 18:31:16.773522 11472 net.cpp:399] conv2_1 -> conv2_1
I0914 18:31:16.781646 11472 net.cpp:141] Setting up conv2_1
I0914 18:31:16.781718 11472 net.cpp:148] Top shape: 10 128 112 112 (16056320)
I0914 18:31:16.781751 11472 net.cpp:156] Memory required for data: 616161480
I0914 18:31:16.781798 11472 layer_factory.hpp:77] Creating layer relu2_1
I0914 18:31:16.781841 11472 net.cpp:91] Creating Layer relu2_1
I0914 18:31:16.781874 11472 net.cpp:425] relu2_1 <- conv2_1
I0914 18:31:16.781914 11472 net.cpp:386] relu2_1 -> conv2_1 (in-place)
I0914 18:31:16.781956 11472 net.cpp:141] Setting up relu2_1
I0914 18:31:16.781996 11472 net.cpp:148] Top shape: 10 128 112 112 (16056320)
I0914 18:31:16.782025 11472 net.cpp:156] Memory required for data: 680386760
I0914 18:31:16.782114 11472 layer_factory.hpp:77] Creating layer conv2_2
I0914 18:31:16.782162 11472 net.cpp:91] Creating Layer conv2_2
I0914 18:31:16.782198 11472 net.cpp:425] conv2_2 <- conv2_1
I0914 18:31:16.782243 11472 net.cpp:399] conv2_2 -> conv2_2
I0914 18:31:16.793390 11472 net.cpp:141] Setting up conv2_2
I0914 18:31:16.793462 11472 net.cpp:148] Top shape: 10 128 112 112 (16056320)
I0914 18:31:16.793493 11472 net.cpp:156] Memory required for data: 744612040
I0914 18:31:16.793531 11472 layer_factory.hpp:77] Creating layer relu2_2
I0914 18:31:16.793570 11472 net.cpp:91] Creating Layer relu2_2
I0914 18:31:16.793602 11472 net.cpp:425] relu2_2 <- conv2_2
I0914 18:31:16.793648 11472 net.cpp:386] relu2_2 -> conv2_2 (in-place)
I0914 18:31:16.793691 11472 net.cpp:141] Setting up relu2_2
I0914 18:31:16.793727 11472 net.cpp:148] Top shape: 10 128 112 112 (16056320)
I0914 18:31:16.793763 11472 net.cpp:156] Memory required for data: 808837320
I0914 18:31:16.793792 11472 layer_factory.hpp:77] Creating layer pool2
I0914 18:31:16.793833 11472 net.cpp:91] Creating Layer pool2
I0914 18:31:16.793864 11472 net.cpp:425] pool2 <- conv2_2
I0914 18:31:16.793898 11472 net.cpp:399] pool2 -> pool2
I0914 18:31:16.794018 11472 net.cpp:141] Setting up pool2
I0914 18:31:16.794065 11472 net.cpp:148] Top shape: 10 128 56 56 (4014080)
I0914 18:31:16.794095 11472 net.cpp:156] Memory required for data: 824893640
I0914 18:31:16.794123 11472 layer_factory.hpp:77] Creating layer conv3_1
I0914 18:31:16.794190 11472 net.cpp:91] Creating Layer conv3_1
I0914 18:31:16.794224 11472 net.cpp:425] conv3_1 <- pool2
I0914 18:31:16.794262 11472 net.cpp:399] conv3_1 -> conv3_1
I0914 18:31:16.817577 11472 net.cpp:141] Setting up conv3_1
I0914 18:31:16.817682 11472 net.cpp:148] Top shape: 10 256 56 56 (8028160)
I0914 18:31:16.817718 11472 net.cpp:156] Memory required for data: 857006280
I0914 18:31:16.817771 11472 layer_factory.hpp:77] Creating layer relu3_1
I0914 18:31:16.817821 11472 net.cpp:91] Creating Layer relu3_1
I0914 18:31:16.817855 11472 net.cpp:425] relu3_1 <- conv3_1
I0914 18:31:16.817890 11472 net.cpp:386] relu3_1 -> conv3_1 (in-place)
I0914 18:31:16.817936 11472 net.cpp:141] Setting up relu3_1
I0914 18:31:16.817976 11472 net.cpp:148] Top shape: 10 256 56 56 (8028160)
I0914 18:31:16.818006 11472 net.cpp:156] Memory required for data: 889118920
I0914 18:31:16.818035 11472 layer_factory.hpp:77] Creating layer conv3_2
I0914 18:31:16.818085 11472 net.cpp:91] Creating Layer conv3_2
I0914 18:31:16.818119 11472 net.cpp:425] conv3_2 <- conv3_1
I0914 18:31:16.818155 11472 net.cpp:399] conv3_2 -> conv3_2
I0914 18:31:16.866009 11472 net.cpp:141] Setting up conv3_2
I0914 18:31:16.866101 11472 net.cpp:148] Top shape: 10 256 56 56 (8028160)
I0914 18:31:16.866138 11472 net.cpp:156] Memory required for data: 921231560
I0914 18:31:16.866179 11472 layer_factory.hpp:77] Creating layer relu3_2
I0914 18:31:16.866219 11472 net.cpp:91] Creating Layer relu3_2
I0914 18:31:16.866252 11472 net.cpp:425] relu3_2 <- conv3_2
I0914 18:31:16.866288 11472 net.cpp:386] relu3_2 -> conv3_2 (in-place)
I0914 18:31:16.866330 11472 net.cpp:141] Setting up relu3_2
I0914 18:31:16.866374 11472 net.cpp:148] Top shape: 10 256 56 56 (8028160)
I0914 18:31:16.866405 11472 net.cpp:156] Memory required for data: 953344200
I0914 18:31:16.866435 11472 layer_factory.hpp:77] Creating layer conv3_3
I0914 18:31:16.866489 11472 net.cpp:91] Creating Layer conv3_3
I0914 18:31:16.866523 11472 net.cpp:425] conv3_3 <- conv3_2
I0914 18:31:16.866565 11472 net.cpp:399] conv3_3 -> conv3_3
I0914 18:31:16.913048 11472 net.cpp:141] Setting up conv3_3
I0914 18:31:16.913111 11472 net.cpp:148] Top shape: 10 256 56 56 (8028160)
I0914 18:31:16.913144 11472 net.cpp:156] Memory required for data: 985456840
I0914 18:31:16.913182 11472 layer_factory.hpp:77] Creating layer relu3_3
I0914 18:31:16.913216 11472 net.cpp:91] Creating Layer relu3_3
I0914 18:31:16.913246 11472 net.cpp:425] relu3_3 <- conv3_3
I0914 18:31:16.913285 11472 net.cpp:386] relu3_3 -> conv3_3 (in-place)
I0914 18:31:16.913336 11472 net.cpp:141] Setting up relu3_3
I0914 18:31:16.913434 11472 net.cpp:148] Top shape: 10 256 56 56 (8028160)
I0914 18:31:16.913466 11472 net.cpp:156] Memory required for data: 1017569480
I0914 18:31:16.913499 11472 layer_factory.hpp:77] Creating layer pool3
I0914 18:31:16.913537 11472 net.cpp:91] Creating Layer pool3
I0914 18:31:16.913573 11472 net.cpp:425] pool3 <- conv3_3
I0914 18:31:16.913609 11472 net.cpp:399] pool3 -> pool3
I0914 18:31:16.913741 11472 net.cpp:141] Setting up pool3
I0914 18:31:16.913789 11472 net.cpp:148] Top shape: 10 256 28 28 (2007040)
I0914 18:31:16.913820 11472 net.cpp:156] Memory required for data: 1025597640
I0914 18:31:16.913848 11472 layer_factory.hpp:77] Creating layer conv4_1
I0914 18:31:16.913895 11472 net.cpp:91] Creating Layer conv4_1
I0914 18:31:16.913933 11472 net.cpp:425] conv4_1 <- pool3
I0914 18:31:16.913976 11472 net.cpp:399] conv4_1 -> conv4_1
I0914 18:31:16.974792 11472 net.cpp:141] Setting up conv4_1
I0914 18:31:16.974853 11472 net.cpp:148] Top shape: 10 512 28 28 (4014080)
I0914 18:31:16.974871 11472 net.cpp:156] Memory required for data: 1041653960
I0914 18:31:16.974895 11472 layer_factory.hpp:77] Creating layer relu4_1
I0914 18:31:16.974920 11472 net.cpp:91] Creating Layer relu4_1
I0914 18:31:16.974936 11472 net.cpp:425] relu4_1 <- conv4_1
I0914 18:31:16.974956 11472 net.cpp:386] relu4_1 -> conv4_1 (in-place)
I0914 18:31:16.974979 11472 net.cpp:141] Setting up relu4_1
I0914 18:31:16.974997 11472 net.cpp:148] Top shape: 10 512 28 28 (4014080)
I0914 18:31:16.975011 11472 net.cpp:156] Memory required for data: 1057710280
I0914 18:31:16.975026 11472 layer_factory.hpp:77] Creating layer conv4_2
I0914 18:31:16.975054 11472 net.cpp:91] Creating Layer conv4_2
I0914 18:31:16.975073 11472 net.cpp:425] conv4_2 <- conv4_1
I0914 18:31:16.975095 11472 net.cpp:399] conv4_2 -> conv4_2
I0914 18:31:17.067826 11472 net.cpp:141] Setting up conv4_2
I0914 18:31:17.067884 11472 net.cpp:148] Top shape: 10 512 28 28 (4014080)
I0914 18:31:17.067901 11472 net.cpp:156] Memory required for data: 1073766600
I0914 18:31:17.067934 11472 layer_factory.hpp:77] Creating layer relu4_2
I0914 18:31:17.067960 11472 net.cpp:91] Creating Layer relu4_2
I0914 18:31:17.067977 11472 net.cpp:425] relu4_2 <- conv4_2
I0914 18:31:17.067999 11472 net.cpp:386] relu4_2 -> conv4_2 (in-place)
I0914 18:31:17.068023 11472 net.cpp:141] Setting up relu4_2
I0914 18:31:17.068044 11472 net.cpp:148] Top shape: 10 512 28 28 (4014080)
I0914 18:31:17.068058 11472 net.cpp:156] Memory required for data: 1089822920
I0914 18:31:17.068073 11472 layer_factory.hpp:77] Creating layer conv4_3
I0914 18:31:17.068100 11472 net.cpp:91] Creating Layer conv4_3
I0914 18:31:17.068116 11472 net.cpp:425] conv4_3 <- conv4_2
I0914 18:31:17.068136 11472 net.cpp:399] conv4_3 -> conv4_3
I0914 18:31:17.162518 11472 net.cpp:141] Setting up conv4_3
I0914 18:31:17.162585 11472 net.cpp:148] Top shape: 10 512 28 28 (4014080)
I0914 18:31:17.162602 11472 net.cpp:156] Memory required for data: 1105879240
I0914 18:31:17.162626 11472 layer_factory.hpp:77] Creating layer relu4_3
I0914 18:31:17.162650 11472 net.cpp:91] Creating Layer relu4_3
I0914 18:31:17.162668 11472 net.cpp:425] relu4_3 <- conv4_3
I0914 18:31:17.162688 11472 net.cpp:386] relu4_3 -> conv4_3 (in-place)
I0914 18:31:17.162711 11472 net.cpp:141] Setting up relu4_3
I0914 18:31:17.162729 11472 net.cpp:148] Top shape: 10 512 28 28 (4014080)
I0914 18:31:17.162744 11472 net.cpp:156] Memory required for data: 1121935560
I0914 18:31:17.162758 11472 layer_factory.hpp:77] Creating layer pool4
I0914 18:31:17.162777 11472 net.cpp:91] Creating Layer pool4
I0914 18:31:17.162796 11472 net.cpp:425] pool4 <- conv4_3
I0914 18:31:17.162818 11472 net.cpp:399] pool4 -> pool4
I0914 18:31:17.162879 11472 net.cpp:141] Setting up pool4
I0914 18:31:17.162904 11472 net.cpp:148] Top shape: 10 512 14 14 (1003520)
I0914 18:31:17.162919 11472 net.cpp:156] Memory required for data: 1125949640
I0914 18:31:17.162933 11472 layer_factory.hpp:77] Creating layer conv5_1
I0914 18:31:17.162966 11472 net.cpp:91] Creating Layer conv5_1
I0914 18:31:17.162983 11472 net.cpp:425] conv5_1 <- pool4
I0914 18:31:17.163053 11472 net.cpp:399] conv5_1 -> conv5_1
I0914 18:31:17.258195 11472 net.cpp:141] Setting up conv5_1
I0914 18:31:17.258273 11472 net.cpp:148] Top shape: 10 512 14 14 (1003520)
I0914 18:31:17.258291 11472 net.cpp:156] Memory required for data: 1129963720
I0914 18:31:17.258325 11472 layer_factory.hpp:77] Creating layer relu5_1
I0914 18:31:17.258357 11472 net.cpp:91] Creating Layer relu5_1
I0914 18:31:17.258380 11472 net.cpp:425] relu5_1 <- conv5_1
I0914 18:31:17.258404 11472 net.cpp:386] relu5_1 -> conv5_1 (in-place)
I0914 18:31:17.258435 11472 net.cpp:141] Setting up relu5_1
I0914 18:31:17.258452 11472 net.cpp:148] Top shape: 10 512 14 14 (1003520)
I0914 18:31:17.258466 11472 net.cpp:156] Memory required for data: 1133977800
I0914 18:31:17.258481 11472 layer_factory.hpp:77] Creating layer conv5_2
I0914 18:31:17.258512 11472 net.cpp:91] Creating Layer conv5_2
I0914 18:31:17.258528 11472 net.cpp:425] conv5_2 <- conv5_1
I0914 18:31:17.258548 11472 net.cpp:399] conv5_2 -> conv5_2
I0914 18:31:17.353124 11472 net.cpp:141] Setting up conv5_2
I0914 18:31:17.353190 11472 net.cpp:148] Top shape: 10 512 14 14 (1003520)
I0914 18:31:17.353209 11472 net.cpp:156] Memory required for data: 1137991880
I0914 18:31:17.353230 11472 layer_factory.hpp:77] Creating layer relu5_2
I0914 18:31:17.353260 11472 net.cpp:91] Creating Layer relu5_2
I0914 18:31:17.353279 11472 net.cpp:425] relu5_2 <- conv5_2
I0914 18:31:17.353299 11472 net.cpp:386] relu5_2 -> conv5_2 (in-place)
I0914 18:31:17.353323 11472 net.cpp:141] Setting up relu5_2
I0914 18:31:17.353340 11472 net.cpp:148] Top shape: 10 512 14 14 (1003520)
I0914 18:31:17.353355 11472 net.cpp:156] Memory required for data: 1142005960
I0914 18:31:17.353369 11472 layer_factory.hpp:77] Creating layer conv5_3
I0914 18:31:17.353396 11472 net.cpp:91] Creating Layer conv5_3
I0914 18:31:17.353415 11472 net.cpp:425] conv5_3 <- conv5_2
I0914 18:31:17.353437 11472 net.cpp:399] conv5_3 -> conv5_3
I0914 18:31:17.446419 11472 net.cpp:141] Setting up conv5_3
I0914 18:31:17.446482 11472 net.cpp:148] Top shape: 10 512 14 14 (1003520)
I0914 18:31:17.446499 11472 net.cpp:156] Memory required for data: 1146020040
I0914 18:31:17.446523 11472 layer_factory.hpp:77] Creating layer relu5_3
I0914 18:31:17.446547 11472 net.cpp:91] Creating Layer relu5_3
I0914 18:31:17.446564 11472 net.cpp:425] relu5_3 <- conv5_3
I0914 18:31:17.446588 11472 net.cpp:386] relu5_3 -> conv5_3 (in-place)
I0914 18:31:17.446612 11472 net.cpp:141] Setting up relu5_3
I0914 18:31:17.446630 11472 net.cpp:148] Top shape: 10 512 14 14 (1003520)
I0914 18:31:17.446645 11472 net.cpp:156] Memory required for data: 1150034120
I0914 18:31:17.446658 11472 layer_factory.hpp:77] Creating layer pool5
I0914 18:31:17.446699 11472 net.cpp:91] Creating Layer pool5
I0914 18:31:17.446717 11472 net.cpp:425] pool5 <- conv5_3
I0914 18:31:17.446738 11472 net.cpp:399] pool5 -> pool5
I0914 18:31:17.446808 11472 net.cpp:141] Setting up pool5
I0914 18:31:17.446832 11472 net.cpp:148] Top shape: 10 512 7 7 (250880)
I0914 18:31:17.446848 11472 net.cpp:156] Memory required for data: 1151037640
I0914 18:31:17.446864 11472 layer_factory.hpp:77] Creating layer fc6
I0914 18:31:17.446899 11472 net.cpp:91] Creating Layer fc6
I0914 18:31:17.446918 11472 net.cpp:425] fc6 <- pool5
I0914 18:31:17.446944 11472 net.cpp:399] fc6 -> fc6
I0914 18:31:21.543815 11472 net.cpp:141] Setting up fc6
I0914 18:31:21.543898 11472 net.cpp:148] Top shape: 10 4096 (40960)
I0914 18:31:21.543917 11472 net.cpp:156] Memory required for data: 1151201480
I0914 18:31:21.543951 11472 layer_factory.hpp:77] Creating layer relu6
I0914 18:31:21.543982 11472 net.cpp:91] Creating Layer relu6
I0914 18:31:21.544008 11472 net.cpp:425] relu6 <- fc6
I0914 18:31:21.544030 11472 net.cpp:386] relu6 -> fc6 (in-place)
I0914 18:31:21.544055 11472 net.cpp:141] Setting up relu6
I0914 18:31:21.544072 11472 net.cpp:148] Top shape: 10 4096 (40960)
I0914 18:31:21.544086 11472 net.cpp:156] Memory required for data: 1151365320
I0914 18:31:21.544100 11472 layer_factory.hpp:77] Creating layer drop6
I0914 18:31:21.544168 11472 net.cpp:91] Creating Layer drop6
I0914 18:31:21.544186 11472 net.cpp:425] drop6 <- fc6
I0914 18:31:21.544203 11472 net.cpp:386] drop6 -> fc6 (in-place)
I0914 18:31:21.544276 11472 net.cpp:141] Setting up drop6
I0914 18:31:21.544298 11472 net.cpp:148] Top shape: 10 4096 (40960)
I0914 18:31:21.544313 11472 net.cpp:156] Memory required for data: 1151529160
I0914 18:31:21.544327 11472 layer_factory.hpp:77] Creating layer fc7
I0914 18:31:21.544348 11472 net.cpp:91] Creating Layer fc7
I0914 18:31:21.544363 11472 net.cpp:425] fc7 <- fc6
I0914 18:31:21.544384 11472 net.cpp:399] fc7 -> fc7
I0914 18:31:22.213965 11472 net.cpp:141] Setting up fc7
I0914 18:31:22.214035 11472 net.cpp:148] Top shape: 10 4096 (40960)
I0914 18:31:22.214051 11472 net.cpp:156] Memory required for data: 1151693000
I0914 18:31:22.214074 11472 layer_factory.hpp:77] Creating layer relu7
I0914 18:31:22.214105 11472 net.cpp:91] Creating Layer relu7
I0914 18:31:22.214123 11472 net.cpp:425] relu7 <- fc7
I0914 18:31:22.214143 11472 net.cpp:386] relu7 -> fc7 (in-place)
I0914 18:31:22.214166 11472 net.cpp:141] Setting up relu7
I0914 18:31:22.214184 11472 net.cpp:148] Top shape: 10 4096 (40960)
I0914 18:31:22.214198 11472 net.cpp:156] Memory required for data: 1151856840
I0914 18:31:22.214212 11472 layer_factory.hpp:77] Creating layer drop7
I0914 18:31:22.214231 11472 net.cpp:91] Creating Layer drop7
I0914 18:31:22.214246 11472 net.cpp:425] drop7 <- fc7
I0914 18:31:22.214265 11472 net.cpp:386] drop7 -> fc7 (in-place)
I0914 18:31:22.214309 11472 net.cpp:141] Setting up drop7
I0914 18:31:22.214330 11472 net.cpp:148] Top shape: 10 4096 (40960)
I0914 18:31:22.214344 11472 net.cpp:156] Memory required for data: 1152020680
I0914 18:31:22.214359 11472 layer_factory.hpp:77] Creating layer fc7_drop7_0_split
I0914 18:31:22.214380 11472 net.cpp:91] Creating Layer fc7_drop7_0_split
I0914 18:31:22.214395 11472 net.cpp:425] fc7_drop7_0_split <- fc7
I0914 18:31:22.214412 11472 net.cpp:399] fc7_drop7_0_split -> fc7_drop7_0_split_0
I0914 18:31:22.214432 11472 net.cpp:399] fc7_drop7_0_split -> fc7_drop7_0_split_1
I0914 18:31:22.214453 11472 net.cpp:399] fc7_drop7_0_split -> fc7_drop7_0_split_2
I0914 18:31:22.214473 11472 net.cpp:399] fc7_drop7_0_split -> fc7_drop7_0_split_3
I0914 18:31:22.214548 11472 net.cpp:141] Setting up fc7_drop7_0_split
I0914 18:31:22.214570 11472 net.cpp:148] Top shape: 10 4096 (40960)
I0914 18:31:22.214592 11472 net.cpp:148] Top shape: 10 4096 (40960)
I0914 18:31:22.214607 11472 net.cpp:148] Top shape: 10 4096 (40960)
I0914 18:31:22.214622 11472 net.cpp:148] Top shape: 10 4096 (40960)
I0914 18:31:22.214637 11472 net.cpp:156] Memory required for data: 1152676040
I0914 18:31:22.214650 11472 layer_factory.hpp:77] Creating layer fc8_binary_Type
I0914 18:31:22.214673 11472 net.cpp:91] Creating Layer fc8_binary_Type
I0914 18:31:22.214689 11472 net.cpp:425] fc8_binary_Type <- fc7_drop7_0_split_0
I0914 18:31:22.214710 11472 net.cpp:399] fc8_binary_Type -> fc8_binary_Type
I0914 18:31:22.216707 11472 net.cpp:141] Setting up fc8_binary_Type
I0914 18:31:22.216732 11472 net.cpp:148] Top shape: 10 12 (120)
I0914 18:31:22.216747 11472 net.cpp:156] Memory required for data: 1152676520
I0914 18:31:22.216768 11472 layer_factory.hpp:77] Creating layer fc8_classification_Type
I0914 18:31:22.216787 11472 net.cpp:91] Creating Layer fc8_classification_Type
I0914 18:31:22.216802 11472 net.cpp:425] fc8_classification_Type <- fc7_drop7_0_split_1
I0914 18:31:22.216820 11472 net.cpp:399] fc8_classification_Type -> fc8_classification_Type
I0914 18:31:22.221604 11472 net.cpp:141] Setting up fc8_classification_Type
I0914 18:31:22.221652 11472 net.cpp:148] Top shape: 10 25 (250)
I0914 18:31:22.221673 11472 net.cpp:156] Memory required for data: 1152677520
I0914 18:31:22.221716 11472 layer_factory.hpp:77] Creating layer fc_binary_Pattern
I0914 18:31:22.221741 11472 net.cpp:91] Creating Layer fc_binary_Pattern
I0914 18:31:22.221758 11472 net.cpp:425] fc_binary_Pattern <- fc7_drop7_0_split_2
I0914 18:31:22.221777 11472 net.cpp:399] fc_binary_Pattern -> fc_binary_Pattern
I0914 18:31:22.223826 11472 net.cpp:141] Setting up fc_binary_Pattern
I0914 18:31:22.223856 11472 net.cpp:148] Top shape: 10 12 (120)
I0914 18:31:22.223872 11472 net.cpp:156] Memory required for data: 1152678000
I0914 18:31:22.223891 11472 layer_factory.hpp:77] Creating layer fc_classification_Pattern
I0914 18:31:22.223912 11472 net.cpp:91] Creating Layer fc_classification_Pattern
I0914 18:31:22.223927 11472 net.cpp:425] fc_classification_Pattern <- fc7_drop7_0_split_3
I0914 18:31:22.223951 11472 net.cpp:399] fc_classification_Pattern -> fc_classification_Pattern
I0914 18:31:22.225865 11472 net.cpp:141] Setting up fc_classification_Pattern
I0914 18:31:22.225900 11472 net.cpp:148] Top shape: 10 7 (70)
I0914 18:31:22.225926 11472 net.cpp:156] Memory required for data: 1152678280
I0914 18:31:22.225949 11472 layer_factory.hpp:77] Creating layer loss_hashing_Type
I0914 18:31:22.225987 11472 net.cpp:91] Creating Layer loss_hashing_Type
I0914 18:31:22.226004 11472 net.cpp:425] loss_hashing_Type <- fc8_binary_Type
I0914 18:31:22.226020 11472 net.cpp:425] loss_hashing_Type <- label_data_1_split_0
…
I0914 18:31:22.229353 11472 net.cpp:313] The NetState phase (1) differed from the phase (0) specified by a rule in layer data
I0914 18:31:22.229802 11472 net.cpp:49] Initializing net from parameters: 
name: "docomo_VGG16"
state {
  phase: TEST
}
layer {
  name: "data"
  type: "Data"
  top: "data"
  top: "label"
  include {
    phase: TEST
  }
  transform_param {
    mirror: false
    crop_size: 224
    mean_value: 103.939
    mean_value: 116.779
    mean_value: 123.68
  }
  data_param {
    source: "FASHION/fashion_val_lmdb/"
    batch_size: 10
    backend: LMDB
  }
}
layer {
  name: "conv1_1"
  type: "Convolution"
  bottom: "data"
  top: "conv1_1"
  param {
    lr_mult: 1
    decay_mult: 1
  }
  param {
    lr_mult: 2
    decay_mult: 0
  }
  convolution_param {
    num_output: 64
    pad: 1
    kernel_size: 3
    weight_filler {
      type: "gaussian"
      std: 0.01
    }
    bias_filler {
      type: "constant"
      value: 0
    }
  }
}
layer {
  name: "relu1_1"
  type: "ReLU"
  bottom: "conv1_1"
  top: "conv1_1"
}
layer {
  name: "conv1_2"
  type: "Convolution"
  bottom: "conv1_1"
  top: "conv1_2"
  param {
    lr_mult: 1
    decay_mult: 1
  }
  param {
    lr_mult: 2
    decay_mult: 0
  }
  convolution_param {
    num_output: 64
    pad: 1
    kernel_size: 3
    weight_filler {
      type: "gaussian"
      std: 0.01
    }
    bias_filler {
      type: "constant"
      value: 0
    }
  }
}
layer {
  name: "relu1_2"
  type: "ReLU"
  bottom: "conv1_2"
  top: "conv1_2"
}
layer {
  name: "pool1"
  type: "Pooling"
  bottom: "conv1_2"
  top: "pool1"
  pooling_param {
    pool: MAX
    kernel_size: 2
    stride: 2
  }
}
layer {
  name: "conv2_1"
  type: "Convolution"
  bottom: "pool1"
  top: "conv2_1"
  param {
    lr_mult: 1
    decay_mult: 1
  }
  param {
    lr_mult: 2
    decay_mult: 0
  }
  convolution_param {
    num_output: 128
    pad: 1
    kernel_size: 3
    weight_filler {
      type: "gaussian"
      std: 0.01
    }
    bias_filler {
      type: "constant"
      value: 0
    }
  }
}
layer {
  name: "relu2_1"
  type: "ReLU"
  bottom: "conv2_1"
  top: "conv2_1"
}
layer {
  name: "conv2_2"
  type: "Convolution"
  bottom: "conv2_1"
  top: "conv2_2"
  param {
    lr_mult: 1
    decay_mult: 1
  }
  param {
    lr_mult: 2
    decay_mult: 0
  }
  convolution_param {
    num_output: 128
    pad: 1
    kernel_size: 3
    weight_filler {
      type: "gaussian"
      std: 0.01
    }
    bias_filler {
      type: "constant"
      value: 0
    }
  }
}
layer {
  name: "relu2_2"
  type: "ReLU"
  bottom: "conv2_2"
  top: "conv2_2"
}
layer {
  name: "pool2"
  type: "Pooling"
  bottom: "conv2_2"
  top: "pool2"
  pooling_param {
    pool: MAX
    kernel_size: 2
    stride: 2
  }
}
layer {
  name: "conv3_1"
  type: "Convolution"
  bottom: "pool2"
  top: "conv3_1"
  param {
    lr_mult: 1
    decay_mult: 1
  }
  param {
    lr_mult: 2
    decay_mult: 0
  }
  convolution_param {
    num_output: 256
    pad: 1
    kernel_size: 3
    weight_filler {
      type: "gaussian"
      std: 0.01
    }
    bias_filler {
      type: "constant"
      value: 0
    }
  }
}
layer {
  name: "relu3_1"
  type: "ReLU"
  bottom: "conv3_1"
  top: "conv3_1"
}
layer {
  name: "conv3_2"
  type: "Convolution"
  bottom: "conv3_1"
  top: "conv3_2"
  param {
    lr_mult: 1
    decay_mult: 1
  }
  param {
    lr_mult: 2
    decay_mult: 0
  }
  convolution_param {
    num_output: 256
    pad: 1
    kernel_size: 3
    weight_filler {
      type: "gaussian"
      std: 0.01
    }
    bias_filler {
      type: "constant"
      value: 0
    }
  }
}
layer {
  name: "relu3_2"
  type: "ReLU"
  bottom: "conv3_2"
  top: "conv3_2"
}
layer {
  name: "conv3_3"
  type: "Convolution"
  bottom: "conv3_2"
  top: "conv3_3"
  param {
    lr_mult: 1
    decay_mult: 1
  }
  param {
    lr_mult: 2
    decay_mult: 0
  }
  convolution_param {
    num_output: 256
    pad: 1
    kernel_size: 3
    weight_filler {
      type: "gaussian"
      std: 0.01
    }
    bias_filler {
      type: "constant"
      value: 0
    }
  }
}
layer {
  name: "relu3_3"
  type: "ReLU"
  bottom: "conv3_3"
  top: "conv3_3"
}
layer {
  name: "pool3"
  type: "Pooling"
  bottom: "conv3_3"
  top: "pool3"
  pooling_param {
    pool: MAX
    kernel_size: 2
    stride: 2
  }
}
layer {
  name: "conv4_1"
  type: "Convolution"
  bottom: "pool3"
  top: "conv4_1"
  param {
    lr_mult: 1
    decay_mult: 1
  }
  param {
    lr_mult: 2
    decay_mult: 0
  }
  convolution_param {
    num_output: 512
    pad: 1
    kernel_size: 3
    weight_filler {
      type: "gaussian"
      std: 0.01
    }
    bias_filler {
      type: "constant"
      value: 0
    }
  }
}
layer {
  name: "relu4_1"
  type: "ReLU"
  bottom: "conv4_1"
  top: "conv4_1"
}
layer {
  name: "conv4_2"
  type: "Convolution"
  bottom: "conv4_1"
  top: "conv4_2"
  param {
    lr_mult: 1
    decay_mult: 1
  }
  param {
    lr_mult: 2
    decay_mult: 0
  }
  convolution_param {
    num_output: 512
    pad: 1
    kernel_size: 3
    weight_filler {
      type: "gaussian"
      std: 0.01
    }
    bias_filler {
      type: "constant"
      value: 0
    }
  }
}
layer {
  name: "relu4_2"
  type: "ReLU"
  bottom: "conv4_2"
  top: "conv4_2"
}
layer {
  name: "conv4_3"
  type: "Convolution"
  bottom: "conv4_2"
  top: "conv4_3"
  param {
    lr_mult: 1
    decay_mult: 1
  }
  param {
    lr_mult: 2
    decay_mult: 0
  }
  convolution_param {
    num_output: 512
    pad: 1
    kernel_size: 3
    weight_filler {
      type: "gaussian"
      std: 0.01
    }
    bias_filler {
      type: "constant"
      value: 0
    }
  }
}
layer {
  name: "relu4_3"
  type: "ReLU"
  bottom: "conv4_3"
  top: "conv4_3"
}
layer {
  name: "pool4"
  type: "Pooling"
  bottom: "conv4_3"
  top: "pool4"
  pooling_param {
    pool: MAX
    kernel_size: 2
    stride: 2
  }
}
layer {
  name: "conv5_1"
  type: "Convolution"
  bottom: "pool4"
  top: "conv5_1"
  param {
    lr_mult: 1
    decay_mult: 1
  }
  param {
    lr_mult: 2
    decay_mult: 0
  }
  convolution_param {
    num_output: 512
    pad: 1
    kernel_size: 3
    weight_filler {
      type: "gaussian"
      std: 0.01
    }
    bias_filler {
      type: "constant"
      value: 0
    }
  }
}
layer {
  name: "relu5_1"
  type: "ReLU"
  bottom: "conv5_1"
  top: "conv5_1"
}
layer {
  name: "conv5_2"
  type: "Convolution"
  bottom: "conv5_1"
  top: "conv5_2"
  param {
    lr_mult: 1
    decay_mult: 1
  }
  param {
    lr_mult: 2
    decay_mult: 0
  }
  convolution_param {
    num_output: 512
    pad: 1
    kernel_size: 3
    weight_filler {
      type: "gaussian"
      std: 0.01
    }
    bias_filler {
      type: "constant"
      value: 0
    }
  }
}
layer {
  name: "relu5_2"
  type: "ReLU"
  bottom: "conv5_2"
  top: "conv5_2"
}
layer {
  name: "conv5_3"
  type: "Convolution"
  bottom: "conv5_2"
  top: "conv5_3"
  param {
    lr_mult: 1
    decay_mult: 1
  }
  param {
    lr_mult: 2
    decay_mult: 0
  }
  convolution_param {
    num_output: 512
    pad: 1
    kernel_size: 3
    weight_filler {
      type: "gaussian"
      std: 0.01
    }
    bias_filler {
      type: "constant"
      value: 0
    }
  }
}
layer {
  name: "relu5_3"
  type: "ReLU"
  bottom: "conv5_3"
  top: "conv5_3"
}
layer {
  name: "pool5"
  type: "Pooling"
  bottom: "conv5_3"
  top: "pool5"
  pooling_param {
    pool: MAX
    kernel_size: 2
    stride: 2
  }
}
layer {
  name: "fc6"
  type: "InnerProduct"
  bottom: "pool5"
  top: "fc6"
  param {
    lr_mult: 1
    decay_mult: 1
  }
  param {
    lr_mult: 2
    decay_mult: 0
  }
  inner_product_param {
    num_output: 4096
    weight_filler {
      type: "gaussian"
      std: 0.005
    }
    bias_filler {
      type: "constant"
      value: 0.1
    }
  }
}
layer {
  name: "relu6"
  type: "ReLU"
  bottom: "fc6"
  top: "fc6"
}
layer {
  name: "drop6"
  type: "Dropout"
  bottom: "fc6"
  top: "fc6"
  dropout_param {
    dropout_ratio: 0.5
  }
}
layer {
  name: "fc7"
  type: "InnerProduct"
  bottom: "fc6"
  top: "fc7"
  param {
    lr_mult: 1
    decay_mult: 1
  }
  param {
    lr_mult: 2
    decay_mult: 0
  }
  inner_product_param {
    num_output: 4096
    weight_filler {
      type: "gaussian"
      std: 0.005
    }
    bias_filler {
      type: "constant"
      value: 0.1
    }
  }
}
layer {
  name: "relu7"
  type: "ReLU"
  bottom: "fc7"
  top: "fc7"
}
layer {
  name: "drop7"
  type: "Dropout"
  bottom: "fc7"
  top: "fc7"
  dropout_param {
    dropout_ratio: 0.5
  }
}
layer {
  name: "fc8_binary_Type"
  type: "InnerProduct"
  bottom: "fc7"
  top: "fc8_binary_Type"
  param {
    lr_mult: 1
    decay_mult: 1
  }
  param {
    lr_mult: 2
    decay_mult: 0
  }
  inner_product_param {
    num_output: 12
    weight_filler {
      type: "gaussian"
      std: 0.005
    }
    bias_filler {
      type: "constant"
      value: 0.1
    }
  }
}
layer {
  name: "fc8_classification_Type"
  type: "InnerProduct"
  bottom: "fc7"
  top: "fc8_classification_Type"
  param {
    lr_mult: 1
    decay_mult: 1
  }
  param {
    lr_mult: 2
    decay_mult: 0
  }
  inner_product_param {
    num_output: 25
    weight_filler {
      type: "gaussian"
      std: 0.05
    }
    bias_filler {
      type: "constant"
      value: 0.1
    }
  }
}
layer {
  name: "fc_binary_Pattern"
  type: "InnerProduct"
  bottom: "fc7"
  top: "fc_binary_Pattern"
  param {
    lr_mult: 0
    decay_mult: 0
  }
  param {
    lr_mult: 0
    decay_mult: 0
  }
  inner_product_param {
    num_output: 12
    weight_filler {
      type: "gaussian"
      std: 0.005
    }
    bias_filler {
      type: "constant"
      value: 0.1
    }
  }
}
layer {
  name: "fc_classification_Pattern"
  type: "InnerProduct"
  bottom: "fc7"
  top: "fc_classification_Pattern"
  param {
    lr_mult: 0
    decay_mult: 0
  }
  param {
    lr_mult: 0
    decay_mult: 0
  }
  inner_product_param {
    num_output: 7
    weight_filler {
      type: "gaussian"
      std: 0.05
    }
    bias_filler {
      type: "constant"
      value: 0.1
    }
  }
}
layer {
  name: "accuracy_at_1_Type"
  type: "Accuracy"
  bottom: "fc8_classification_Type"
  bottom: "label"
  top: "accuracy_at_1_Type"
  include {
    phase: TEST
  }
  accuracy_param {
    top_k: 1
  }
}
layer {
  name: "loss_hashing_Type"
  type: "HashingLoss"
  bottom: "fc8_binary_Type"
  bottom: "label"
  top: "loss_hashing_Type"
  loss_weight: 0.1
  hashing_loss_param {
    bi_margin: 24
    tradeoff: 0.01
  }
}
layer {
  name: "loss_classification_Type"
  type: "SoftmaxWithLoss"
  bottom: "fc8_classification_Type"
  bottom: "label"
  top: "loss_classification_Type"
}
layer {
  name: "loss_hashing"
  type: "HashingLoss"
  bottom: "fc_binary_Pattern"
  bottom: "label"
  top: "loss_hashing"
  loss_weight: 0
  hashing_loss_param {
    bi_margin: 24
    tradeoff: 0.01
  }
}
layer {
  name: "loss_classification"
  type: "SoftmaxWithLoss"
  bottom: "fc_classification_Pattern"
  bottom: "label"
  top: "loss_classification"
  loss_weight: 0
}
I0914 18:31:22.232589 11472 layer_factory.hpp:77] Creating layer data
I0914 18:31:22.232713 11472 net.cpp:91] Creating Layer data
I0914 18:31:22.232740 11472 net.cpp:399] data -> data
I0914 18:31:22.232765 11472 net.cpp:399] data -> label
I0914 18:31:22.296280 11479 db_lmdb.cpp:38] Opened lmdb FASHION/fashion_val_lmdb/
I0914 18:31:22.387327 11472 data_layer.cpp:41] output data size: 10,3,224,224
I0914 18:31:22.401022 11472 net.cpp:141] Setting up data
I0914 18:31:22.401093 11472 net.cpp:148] Top shape: 10 3 224 224 (1505280)
I0914 18:31:22.401111 11472 net.cpp:148] Top shape: 10 1 1 1 (10)
I0914 18:31:22.401127 11472 net.cpp:156] Memory required for data: 6021160
I0914 18:31:22.401147 11472 layer_factory.hpp:77] Creating layer label_data_1_split
I0914 18:31:22.401175 11472 net.cpp:91] Creating Layer label_data_1_split
I0914 18:31:22.401192 11472 net.cpp:425] label_data_1_split <- label
I0914 18:31:22.401213 11472 net.cpp:399] label_data_1_split -> label_data_1_split_0
I0914 18:31:22.401238 11472 net.cpp:399] label_data_1_split -> label_data_1_split_1
I0914 18:31:22.401262 11472 net.cpp:399] label_data_1_split -> label_data_1_split_2
I0914 18:31:22.401283 11472 net.cpp:399] label_data_1_split -> label_data_1_split_3
I0914 18:31:22.401300 11472 net.cpp:399] label_data_1_split -> label_data_1_split_4
I0914 18:31:22.401418 11472 net.cpp:141] Setting up label_data_1_split
I0914 18:31:22.401442 11472 net.cpp:148] Top shape: 10 1 1 1 (10)
I0914 18:31:22.401458 11472 net.cpp:148] Top shape: 10 1 1 1 (10)
I0914 18:31:22.401473 11472 net.cpp:148] Top shape: 10 1 1 1 (10)
I0914 18:31:22.401489 11472 net.cpp:148] Top shape: 10 1 1 1 (10)
I0914 18:31:22.401542 11472 net.cpp:148] Top shape: 10 1 1 1 (10)
I0914 18:31:22.401567 11472 net.cpp:156] Memory required for data: 6021360
I0914 18:31:22.401582 11472 layer_factory.hpp:77] Creating layer conv1_1
I0914 18:31:22.401615 11472 net.cpp:91] Creating Layer conv1_1
I0914 18:31:22.401648 11472 net.cpp:425] conv1_1 <- data
I0914 18:31:22.401670 11472 net.cpp:399] conv1_1 -> conv1_1
I0914 18:31:22.402117 11472 net.cpp:141] Setting up conv1_1
I0914 18:31:22.402153 11472 net.cpp:148] Top shape: 10 64 224 224 (32112640)
I0914 18:31:22.402171 11472 net.cpp:156] Memory required for data: 134471920
I0914 18:31:22.402197 11472 layer_factory.hpp:77] Creating layer relu1_1
I0914 18:31:22.402217 11472 net.cpp:91] Creating Layer relu1_1
I0914 18:31:22.402232 11472 net.cpp:425] relu1_1 <- conv1_1
I0914 18:31:22.402249 11472 net.cpp:386] relu1_1 -> conv1_1 (in-place)
I0914 18:31:22.402267 11472 net.cpp:141] Setting up relu1_1
I0914 18:31:22.402309 11472 net.cpp:148] Top shape: 10 64 224 224 (32112640)
I0914 18:31:22.402323 11472 net.cpp:156] Memory required for data: 262922480
I0914 18:31:22.402338 11472 layer_factory.hpp:77] Creating layer conv1_2
I0914 18:31:22.402376 11472 net.cpp:91] Creating Layer conv1_2
I0914 18:31:22.402395 11472 net.cpp:425] conv1_2 <- conv1_1
I0914 18:31:22.402413 11472 net.cpp:399] conv1_2 -> conv1_2
I0914 18:31:22.404167 11480 blocking_queue.cpp:50] Waiting for data
I0914 18:31:22.404538 11472 net.cpp:141] Setting up conv1_2
I0914 18:31:22.404568 11472 net.cpp:148] Top shape: 10 64 224 224 (32112640)
I0914 18:31:22.404583 11472 net.cpp:156] Memory required for data: 391373040
I0914 18:31:22.404604 11472 layer_factory.hpp:77] Creating layer relu1_2
I0914 18:31:22.404623 11472 net.cpp:91] Creating Layer relu1_2
I0914 18:31:22.404637 11472 net.cpp:425] relu1_2 <- conv1_2
I0914 18:31:22.404659 11472 net.cpp:386] relu1_2 -> conv1_2 (in-place)
I0914 18:31:22.404678 11472 net.cpp:141] Setting up relu1_2
I0914 18:31:22.404695 11472 net.cpp:148] Top shape: 10 64 224 224 (32112640)
I0914 18:31:22.404708 11472 net.cpp:156] Memory required for data: 519823600
I0914 18:31:22.404722 11472 layer_factory.hpp:77] Creating layer pool1
I0914 18:31:22.404742 11472 net.cpp:91] Creating Layer pool1
I0914 18:31:22.404755 11472 net.cpp:425] pool1 <- conv1_2
I0914 18:31:22.404772 11472 net.cpp:399] pool1 -> pool1
I0914 18:31:22.404835 11472 net.cpp:141] Setting up pool1
I0914 18:31:22.404857 11472 net.cpp:148] Top shape: 10 64 112 112 (8028160)
I0914 18:31:22.404871 11472 net.cpp:156] Memory required for data: 551936240
I0914 18:31:22.404886 11472 layer_factory.hpp:77] Creating layer conv2_1
I0914 18:31:22.404911 11472 net.cpp:91] Creating Layer conv2_1
I0914 18:31:22.404927 11472 net.cpp:425] conv2_1 <- pool1
I0914 18:31:22.404950 11472 net.cpp:399] conv2_1 -> conv2_1
I0914 18:31:22.408006 11472 net.cpp:141] Setting up conv2_1
I0914 18:31:22.408031 11472 net.cpp:148] Top shape: 10 128 112 112 (16056320)
I0914 18:31:22.408046 11472 net.cpp:156] Memory required for data: 616161520
I0914 18:31:22.408067 11472 layer_factory.hpp:77] Creating layer relu2_1
I0914 18:31:22.408090 11472 net.cpp:91] Creating Layer relu2_1
I0914 18:31:22.408107 11472 net.cpp:425] relu2_1 <- conv2_1
I0914 18:31:22.408123 11472 net.cpp:386] relu2_1 -> conv2_1 (in-place)
I0914 18:31:22.408141 11472 net.cpp:141] Setting up relu2_1
I0914 18:31:22.408159 11472 net.cpp:148] Top shape: 10 128 112 112 (16056320)
I0914 18:31:22.408172 11472 net.cpp:156] Memory required for data: 680386800
I0914 18:31:22.408185 11472 layer_factory.hpp:77] Creating layer conv2_2
I0914 18:31:22.408210 11472 net.cpp:91] Creating Layer conv2_2
I0914 18:31:22.408226 11472 net.cpp:425] conv2_2 <- conv2_1
I0914 18:31:22.408243 11472 net.cpp:399] conv2_2 -> conv2_2
I0914 18:31:22.414810 11472 net.cpp:141] Setting up conv2_2
I0914 18:31:22.414839 11472 net.cpp:148] Top shape: 10 128 112 112 (16056320)
I0914 18:31:22.414855 11472 net.cpp:156] Memory required for data: 744612080
I0914 18:31:22.414872 11472 layer_factory.hpp:77] Creating layer relu2_2
I0914 18:31:22.414891 11472 net.cpp:91] Creating Layer relu2_2
I0914 18:31:22.414927 11472 net.cpp:425] relu2_2 <- conv2_2
I0914 18:31:22.414944 11472 net.cpp:386] relu2_2 -> conv2_2 (in-place)
I0914 18:31:22.414963 11472 net.cpp:141] Setting up relu2_2
I0914 18:31:22.414981 11472 net.cpp:148] Top shape: 10 128 112 112 (16056320)
I0914 18:31:22.414995 11472 net.cpp:156] Memory required for data: 808837360
I0914 18:31:22.415009 11472 layer_factory.hpp:77] Creating layer pool2
I0914 18:31:22.415030 11472 net.cpp:91] Creating Layer pool2
I0914 18:31:22.415047 11472 net.cpp:425] pool2 <- conv2_2
I0914 18:31:22.415065 11472 net.cpp:399] pool2 -> pool2
I0914 18:31:22.415132 11472 net.cpp:141] Setting up pool2
I0914 18:31:22.415154 11472 net.cpp:148] Top shape: 10 128 56 56 (4014080)
I0914 18:31:22.415169 11472 net.cpp:156] Memory required for data: 824893680
I0914 18:31:22.415184 11472 layer_factory.hpp:77] Creating layer conv3_1
I0914 18:31:22.415208 11472 net.cpp:91] Creating Layer conv3_1
I0914 18:31:22.415223 11472 net.cpp:425] conv3_1 <- pool2
I0914 18:31:22.415246 11472 net.cpp:399] conv3_1 -> conv3_1
I0914 18:31:22.427347 11472 net.cpp:141] Setting up conv3_1
I0914 18:31:22.427376 11472 net.cpp:148] Top shape: 10 256 56 56 (8028160)
I0914 18:31:22.427392 11472 net.cpp:156] Memory required for data: 857006320
I0914 18:31:22.427417 11472 layer_factory.hpp:77] Creating layer relu3_1
I0914 18:31:22.427436 11472 net.cpp:91] Creating Layer relu3_1
I0914 18:31:22.427451 11472 net.cpp:425] relu3_1 <- conv3_1
I0914 18:31:22.427467 11472 net.cpp:386] relu3_1 -> conv3_1 (in-place)
I0914 18:31:22.427485 11472 net.cpp:141] Setting up relu3_1
I0914 18:31:22.427502 11472 net.cpp:148] Top shape: 10 256 56 56 (8028160)
I0914 18:31:22.427516 11472 net.cpp:156] Memory required for data: 889118960
I0914 18:31:22.427530 11472 layer_factory.hpp:77] Creating layer conv3_2
I0914 18:31:22.427553 11472 net.cpp:91] Creating Layer conv3_2
I0914 18:31:22.427568 11472 net.cpp:425] conv3_2 <- conv3_1
I0914 18:31:22.427589 11472 net.cpp:399] conv3_2 -> conv3_2
I0914 18:31:22.451520 11472 net.cpp:141] Setting up conv3_2
I0914 18:31:22.451551 11472 net.cpp:148] Top shape: 10 256 56 56 (8028160)
I0914 18:31:22.451566 11472 net.cpp:156] Memory required for data: 921231600
I0914 18:31:22.451586 11472 layer_factory.hpp:77] Creating layer relu3_2
I0914 18:31:22.451603 11472 net.cpp:91] Creating Layer relu3_2
I0914 18:31:22.451618 11472 net.cpp:425] relu3_2 <- conv3_2
I0914 18:31:22.451638 11472 net.cpp:386] relu3_2 -> conv3_2 (in-place)
I0914 18:31:22.451658 11472 net.cpp:141] Setting up relu3_2
I0914 18:31:22.451676 11472 net.cpp:148] Top shape: 10 256 56 56 (8028160)
I0914 18:31:22.451691 11472 net.cpp:156] Memory required for data: 953344240
I0914 18:31:22.451704 11472 layer_factory.hpp:77] Creating layer conv3_3
I0914 18:31:22.451731 11472 net.cpp:91] Creating Layer conv3_3
I0914 18:31:22.451748 11472 net.cpp:425] conv3_3 <- conv3_2
I0914 18:31:22.451766 11472 net.cpp:399] conv3_3 -> conv3_3
I0914 18:31:22.476718 11472 net.cpp:141] Setting up conv3_3
I0914 18:31:22.476749 11472 net.cpp:148] Top shape: 10 256 56 56 (8028160)
I0914 18:31:22.476765 11472 net.cpp:156] Memory required for data: 985456880
I0914 18:31:22.476784 11472 layer_factory.hpp:77] Creating layer relu3_3
I0914 18:31:22.476801 11472 net.cpp:91] Creating Layer relu3_3
I0914 18:31:22.476817 11472 net.cpp:425] relu3_3 <- conv3_3
I0914 18:31:22.476833 11472 net.cpp:386] relu3_3 -> conv3_3 (in-place)
I0914 18:31:22.476852 11472 net.cpp:141] Setting up relu3_3
I0914 18:31:22.476869 11472 net.cpp:148] Top shape: 10 256 56 56 (8028160)
I0914 18:31:22.476883 11472 net.cpp:156] Memory required for data: 1017569520
I0914 18:31:22.476897 11472 layer_factory.hpp:77] Creating layer pool3
I0914 18:31:22.476918 11472 net.cpp:91] Creating Layer pool3
I0914 18:31:22.476933 11472 net.cpp:425] pool3 <- conv3_3
I0914 18:31:22.476949 11472 net.cpp:399] pool3 -> pool3
I0914 18:31:22.477015 11472 net.cpp:141] Setting up pool3
I0914 18:31:22.477036 11472 net.cpp:148] Top shape: 10 256 28 28 (2007040)
I0914 18:31:22.477051 11472 net.cpp:156] Memory required for data: 1025597680
I0914 18:31:22.477087 11472 layer_factory.hpp:77] Creating layer conv4_1
I0914 18:31:22.477113 11472 net.cpp:91] Creating Layer conv4_1
I0914 18:31:22.477128 11472 net.cpp:425] conv4_1 <- pool3
I0914 18:31:22.477149 11472 net.cpp:399] conv4_1 -> conv4_1
I0914 18:31:22.523466 11472 net.cpp:141] Setting up conv4_1
I0914 18:31:22.523499 11472 net.cpp:148] Top shape: 10 512 28 28 (4014080)
I0914 18:31:22.523514 11472 net.cpp:156] Memory required for data: 1041654000
I0914 18:31:22.523533 11472 layer_factory.hpp:77] Creating layer relu4_1
I0914 18:31:22.523551 11472 net.cpp:91] Creating Layer relu4_1
I0914 18:31:22.523566 11472 net.cpp:425] relu4_1 <- conv4_1
I0914 18:31:22.523583 11472 net.cpp:386] relu4_1 -> conv4_1 (in-place)
I0914 18:31:22.523602 11472 net.cpp:141] Setting up relu4_1
I0914 18:31:22.523618 11472 net.cpp:148] Top shape: 10 512 28 28 (4014080)
I0914 18:31:22.523633 11472 net.cpp:156] Memory required for data: 1057710320
I0914 18:31:22.523646 11472 layer_factory.hpp:77] Creating layer conv4_2
I0914 18:31:22.523670 11472 net.cpp:91] Creating Layer conv4_2
I0914 18:31:22.523686 11472 net.cpp:425] conv4_2 <- conv4_1
I0914 18:31:22.523707 11472 net.cpp:399] conv4_2 -> conv4_2
I0914 18:31:22.617173 11472 net.cpp:141] Setting up conv4_2
I0914 18:31:22.617233 11472 net.cpp:148] Top shape: 10 512 28 28 (4014080)
I0914 18:31:22.617249 11472 net.cpp:156] Memory required for data: 1073766640
I0914 18:31:22.617285 11472 layer_factory.hpp:77] Creating layer relu4_2
I0914 18:31:22.617311 11472 net.cpp:91] Creating Layer relu4_2
I0914 18:31:22.617336 11472 net.cpp:425] relu4_2 <- conv4_2
I0914 18:31:22.617354 11472 net.cpp:386] relu4_2 -> conv4_2 (in-place)
I0914 18:31:22.617377 11472 net.cpp:141] Setting up relu4_2
I0914 18:31:22.617394 11472 net.cpp:148] Top shape: 10 512 28 28 (4014080)
I0914 18:31:22.617408 11472 net.cpp:156] Memory required for data: 1089822960
I0914 18:31:22.617421 11472 layer_factory.hpp:77] Creating layer conv4_3
I0914 18:31:22.617449 11472 net.cpp:91] Creating Layer conv4_3
I0914 18:31:22.617463 11472 net.cpp:425] conv4_3 <- conv4_2
I0914 18:31:22.617485 11472 net.cpp:399] conv4_3 -> conv4_3
I0914 18:31:22.711297 11472 net.cpp:141] Setting up conv4_3
I0914 18:31:22.711360 11472 net.cpp:148] Top shape: 10 512 28 28 (4014080)
I0914 18:31:22.711376 11472 net.cpp:156] Memory required for data: 1105879280
I0914 18:31:22.711400 11472 layer_factory.hpp:77] Creating layer relu4_3
I0914 18:31:22.711424 11472 net.cpp:91] Creating Layer relu4_3
I0914 18:31:22.711441 11472 net.cpp:425] relu4_3 <- conv4_3
I0914 18:31:22.711464 11472 net.cpp:386] relu4_3 -> conv4_3 (in-place)
I0914 18:31:22.711488 11472 net.cpp:141] Setting up relu4_3
I0914 18:31:22.711505 11472 net.cpp:148] Top shape: 10 512 28 28 (4014080)
I0914 18:31:22.711519 11472 net.cpp:156] Memory required for data: 1121935600
I0914 18:31:22.711534 11472 layer_factory.hpp:77] Creating layer pool4
I0914 18:31:22.711552 11472 net.cpp:91] Creating Layer pool4
I0914 18:31:22.711567 11472 net.cpp:425] pool4 <- conv4_3
I0914 18:31:22.711585 11472 net.cpp:399] pool4 -> pool4
I0914 18:31:22.711652 11472 net.cpp:141] Setting up pool4
I0914 18:31:22.711673 11472 net.cpp:148] Top shape: 10 512 14 14 (1003520)
I0914 18:31:22.711688 11472 net.cpp:156] Memory required for data: 1125949680
I0914 18:31:22.711701 11472 layer_factory.hpp:77] Creating layer conv5_1
I0914 18:31:22.711729 11472 net.cpp:91] Creating Layer conv5_1
I0914 18:31:22.711745 11472 net.cpp:425] conv5_1 <- pool4
I0914 18:31:22.711771 11472 net.cpp:399] conv5_1 -> conv5_1
I0914 18:31:22.804658 11472 net.cpp:141] Setting up conv5_1
I0914 18:31:22.804702 11472 net.cpp:148] Top shape: 10 512 14 14 (1003520)
I0914 18:31:22.804718 11472 net.cpp:156] Memory required for data: 1129963760
I0914 18:31:22.804738 11472 layer_factory.hpp:77] Creating layer relu5_1
I0914 18:31:22.804761 11472 net.cpp:91] Creating Layer relu5_1
I0914 18:31:22.804778 11472 net.cpp:425] relu5_1 <- conv5_1
I0914 18:31:22.804795 11472 net.cpp:386] relu5_1 -> conv5_1 (in-place)
I0914 18:31:22.804816 11472 net.cpp:141] Setting up relu5_1
I0914 18:31:22.804874 11472 net.cpp:148] Top shape: 10 512 14 14 (1003520)
I0914 18:31:22.804889 11472 net.cpp:156] Memory required for data: 1133977840
I0914 18:31:22.804903 11472 layer_factory.hpp:77] Creating layer conv5_2
I0914 18:31:22.804929 11472 net.cpp:91] Creating Layer conv5_2
I0914 18:31:22.804944 11472 net.cpp:425] conv5_2 <- conv5_1
I0914 18:31:22.804965 11472 net.cpp:399] conv5_2 -> conv5_2
I0914 18:31:22.897780 11472 net.cpp:141] Setting up conv5_2
I0914 18:31:22.897838 11472 net.cpp:148] Top shape: 10 512 14 14 (1003520)
I0914 18:31:22.897855 11472 net.cpp:156] Memory required for data: 1137991920
I0914 18:31:22.897877 11472 layer_factory.hpp:77] Creating layer relu5_2
I0914 18:31:22.897902 11472 net.cpp:91] Creating Layer relu5_2
I0914 18:31:22.897918 11472 net.cpp:425] relu5_2 <- conv5_2
I0914 18:31:22.897946 11472 net.cpp:386] relu5_2 -> conv5_2 (in-place)
I0914 18:31:22.897970 11472 net.cpp:141] Setting up relu5_2
I0914 18:31:22.897989 11472 net.cpp:148] Top shape: 10 512 14 14 (1003520)
I0914 18:31:22.898003 11472 net.cpp:156] Memory required for data: 1142006000
I0914 18:31:22.898017 11472 layer_factory.hpp:77] Creating layer conv5_3
I0914 18:31:22.898043 11472 net.cpp:91] Creating Layer conv5_3
I0914 18:31:22.898059 11472 net.cpp:425] conv5_3 <- conv5_2
I0914 18:31:22.898082 11472 net.cpp:399] conv5_3 -> conv5_3
I0914 18:31:22.992558 11472 net.cpp:141] Setting up conv5_3
I0914 18:31:22.992610 11472 net.cpp:148] Top shape: 10 512 14 14 (1003520)
I0914 18:31:22.992626 11472 net.cpp:156] Memory required for data: 1146020080
I0914 18:31:22.992650 11472 layer_factory.hpp:77] Creating layer relu5_3
I0914 18:31:22.992674 11472 net.cpp:91] Creating Layer relu5_3
I0914 18:31:22.992691 11472 net.cpp:425] relu5_3 <- conv5_3
I0914 18:31:22.992715 11472 net.cpp:386] relu5_3 -> conv5_3 (in-place)
I0914 18:31:22.992739 11472 net.cpp:141] Setting up relu5_3
I0914 18:31:22.992758 11472 net.cpp:148] Top shape: 10 512 14 14 (1003520)
I0914 18:31:22.992771 11472 net.cpp:156] Memory required for data: 1150034160
I0914 18:31:22.992789 11472 layer_factory.hpp:77] Creating layer pool5
I0914 18:31:22.992820 11472 net.cpp:91] Creating Layer pool5
I0914 18:31:22.992835 11472 net.cpp:425] pool5 <- conv5_3
I0914 18:31:22.992853 11472 net.cpp:399] pool5 -> pool5
I0914 18:31:22.992923 11472 net.cpp:141] Setting up pool5
I0914 18:31:22.992945 11472 net.cpp:148] Top shape: 10 512 7 7 (250880)
I0914 18:31:22.992959 11472 net.cpp:156] Memory required for data: 1151037680
I0914 18:31:22.992974 11472 layer_factory.hpp:77] Creating layer fc6
I0914 18:31:22.992993 11472 net.cpp:91] Creating Layer fc6
I0914 18:31:22.993008 11472 net.cpp:425] fc6 <- pool5
I0914 18:31:22.993031 11472 net.cpp:399] fc6 -> fc6
I0914 18:31:27.190074 11472 net.cpp:141] Setting up fc6
I0914 18:31:27.190181 11472 net.cpp:148] Top shape: 10 4096 (40960)
I0914 18:31:27.190201 11472 net.cpp:156] Memory required for data: 1151201520
I0914 18:31:27.190248 11472 layer_factory.hpp:77] Creating layer relu6
I0914 18:31:27.190289 11472 net.cpp:91] Creating Layer relu6
I0914 18:31:27.190333 11472 net.cpp:425] relu6 <- fc6
I0914 18:31:27.190359 11472 net.cpp:386] relu6 -> fc6 (in-place)
I0914 18:31:27.190387 11472 net.cpp:141] Setting up relu6
I0914 18:31:27.190408 11472 net.cpp:148] Top shape: 10 4096 (40960)
I0914 18:31:27.190423 11472 net.cpp:156] Memory required for data: 1151365360
I0914 18:31:27.190438 11472 layer_factory.hpp:77] Creating layer drop6
I0914 18:31:27.190459 11472 net.cpp:91] Creating Layer drop6
I0914 18:31:27.190475 11472 net.cpp:425] drop6 <- fc6
I0914 18:31:27.190495 11472 net.cpp:386] drop6 -> fc6 (in-place)
I0914 18:31:27.190553 11472 net.cpp:141] Setting up drop6
I0914 18:31:27.190578 11472 net.cpp:148] Top shape: 10 4096 (40960)
I0914 18:31:27.190594 11472 net.cpp:156] Memory required for data: 1151529200
I0914 18:31:27.190615 11472 layer_factory.hpp:77] Creating layer fc7
I0914 18:31:27.190645 11472 net.cpp:91] Creating Layer fc7
I0914 18:31:27.190665 11472 net.cpp:425] fc7 <- fc6
I0914 18:31:27.190686 11472 net.cpp:399] fc7 -> fc7
I0914 18:31:27.904736 11472 net.cpp:141] Setting up fc7
I0914 18:31:27.904829 11472 net.cpp:148] Top shape: 10 4096 (40960)
I0914 18:31:27.904847 11472 net.cpp:156] Memory required for data: 1151693040
I0914 18:31:27.904873 11472 layer_factory.hpp:77] Creating layer relu7
I0914 18:31:27.904904 11472 net.cpp:91] Creating Layer relu7
I0914 18:31:27.904924 11472 net.cpp:425] relu7 <- fc7
I0914 18:31:27.904949 11472 net.cpp:386] relu7 -> fc7 (in-place)
I0914 18:31:27.904975 11472 net.cpp:141] Setting up relu7
I0914 18:31:27.904997 11472 net.cpp:148] Top shape: 10 4096 (40960)
I0914 18:31:27.905011 11472 net.cpp:156] Memory required for data: 1151856880
I0914 18:31:27.905026 11472 layer_factory.hpp:77] Creating layer drop7
I0914 18:31:27.905050 11472 net.cpp:91] Creating Layer drop7
I0914 18:31:27.905066 11472 net.cpp:425] drop7 <- fc7
I0914 18:31:27.905083 11472 net.cpp:386] drop7 -> fc7 (in-place)
I0914 18:31:27.905130 11472 net.cpp:141] Setting up drop7
I0914 18:31:27.905154 11472 net.cpp:148] Top shape: 10 4096 (40960)
I0914 18:31:27.905170 11472 net.cpp:156] Memory required for data: 1152020720
I0914 18:31:27.905186 11472 layer_factory.hpp:77] Creating layer fc7_drop7_0_split
I0914 18:31:27.905208 11472 net.cpp:91] Creating Layer fc7_drop7_0_split
I0914 18:31:27.905230 11472 net.cpp:425] fc7_drop7_0_split <- fc7
I0914 18:31:27.905251 11472 net.cpp:399] fc7_drop7_0_split -> fc7_drop7_0_split_0
I0914 18:31:27.905274 11472 net.cpp:399] fc7_drop7_0_split -> fc7_drop7_0_split_1
I0914 18:31:27.905294 11472 net.cpp:399] fc7_drop7_0_split -> fc7_drop7_0_split_2
I0914 18:31:27.905318 11472 net.cpp:399] fc7_drop7_0_split -> fc7_drop7_0_split_3
I0914 18:31:27.905397 11472 net.cpp:141] Setting up fc7_drop7_0_split
I0914 18:31:27.905421 11472 net.cpp:148] Top shape: 10 4096 (40960)
I0914 18:31:27.905438 11472 net.cpp:148] Top shape: 10 4096 (40960)
I0914 18:31:27.905454 11472 net.cpp:148] Top shape: 10 4096 (40960)
I0914 18:31:27.905472 11472 net.cpp:148] Top shape: 10 4096 (40960)
I0914 18:31:27.905485 11472 net.cpp:156] Memory required for data: 1152676080
I0914 18:31:27.905503 11472 layer_factory.hpp:77] Creating layer fc8_binary_Type
I0914 18:31:27.905530 11472 net.cpp:91] Creating Layer fc8_binary_Type
I0914 18:31:27.905551 11472 net.cpp:425] fc8_binary_Type <- fc7_drop7_0_split_0
I0914 18:31:27.905575 11472 net.cpp:399] fc8_binary_Type -> fc8_binary_Type
I0914 18:31:27.907721 11472 net.cpp:141] Setting up fc8_binary_Type
I0914 18:31:27.907783 11472 net.cpp:148] Top shape: 10 12 (120)
I0914 18:31:27.907799 11472 net.cpp:156] Memory required for data: 1152676560
I0914 18:31:27.907820 11472 layer_factory.hpp:77] Creating layer fc8_classification_Type
I0914 18:31:27.907850 11472 net.cpp:91] Creating Layer fc8_classification_Type
I0914 18:31:27.907868 11472 net.cpp:425] fc8_classification_Type <- fc7_drop7_0_split_1
I0914 18:31:27.907889 11472 net.cpp:399] fc8_classification_Type -> fc8_classification_Type
I0914 18:31:27.913051 11472 net.cpp:141] Setting up fc8_classification_Type
I0914 18:31:27.913126 11472 net.cpp:148] Top shape: 10 25 (250)
I0914 18:31:27.913143 11472 net.cpp:156] Memory required for data: 1152677560
I0914 18:31:27.913189 11472 layer_factory.hpp:77] Creating layer fc8_classification_Type_fc8_classification_Type_0_split
I0914 18:31:27.913220 11472 net.cpp:91] Creating Layer fc8_classification_Type_fc8_classification_Type_0_split
I0914 18:31:27.913244 11472 net.cpp:425] fc8_classification_Type_fc8_classification_Type_0_split <- fc8_classification_Type
I0914 18:31:27.913264 11472 net.cpp:399] fc8_classification_Type_fc8_classification_Type_0_split -> fc8_classification_Type_fc8_classification_Type_0_split_0
I0914 18:31:27.913293 11472 net.cpp:399] fc8_classification_Type_fc8_classification_Type_0_split -> fc8_classification_Type_fc8_classification_Type_0_split_1
I0914 18:31:27.913360 11472 net.cpp:141] Setting up fc8_classification_Type_fc8_classification_Type_0_split
I0914 18:31:27.913386 11472 net.cpp:148] Top shape: 10 25 (250)
I0914 18:31:27.913403 11472 net.cpp:148] Top shape: 10 25 (250)
I0914 18:31:27.913417 11472 net.cpp:156] Memory required for data: 1152679560
I0914 18:31:27.913480 11472 layer_factory.hpp:77] Creating layer fc_binary_Pattern
I0914 18:31:27.913508 11472 net.cpp:91] Creating Layer fc_binary_Pattern
I0914 18:31:27.913532 11472 net.cpp:425] fc_binary_Pattern <- fc7_drop7_0_split_2
I0914 18:31:27.913552 11472 net.cpp:399] fc_binary_Pattern -> fc_binary_Pattern
I0914 18:31:27.916369 11472 net.cpp:141] Setting up fc_binary_Pattern
I0914 18:31:27.916437 11472 net.cpp:148] Top shape: 10 12 (120)
I0914 18:31:27.916455 11472 net.cpp:156] Memory required for data: 1152680040
I0914 18:31:27.916476 11472 layer_factory.hpp:77] Creating layer fc_classification_Pattern
I0914 18:31:27.916509 11472 net.cpp:91] Creating Layer fc_classification_Pattern
I0914 18:31:27.916528 11472 net.cpp:425] fc_classification_Pattern <- fc7_drop7_0_split_3
I0914 18:31:27.916558 11472 net.cpp:399] fc_classification_Pattern -> fc_classification_Pattern
I0914 18:31:27.917836 11472 net.cpp:141] Setting up fc_classification_Pattern
I0914 18:31:27.917865 11472 net.cpp:148] Top shape: 10 7 (70)
I0914 18:31:27.917879 11472 net.cpp:156] Memory required for data: 1152680320
I0914 18:31:27.917901 11472 layer_factory.hpp:77] Creating layer accuracy_at_1_Type
I0914 18:31:27.917932 11472 net.cpp:91] Creating Layer accuracy_at_1_Type
I0914 18:31:27.917950 11472 net.cpp:425] accuracy_at_1_Type <- fc8_classification_Type_fc8_classification_Type_0_split_0
I0914 18:31:27.917968 11472 net.cpp:425] accuracy_at_1_Type <- label_data_1_split_0
…
