…
I0919 11:10:06.112488 41869 net.cpp:313] The NetState phase (0) differed from the phase (1) specified by a rule in layer accuracy_at_1_Color
I0919 11:10:06.113026 41869 net.cpp:49] Initializing net from parameters: 
name: "docomo_AlexNet"
state {
  phase: TRAIN
}
layer {
  name: "data"
  type: "Data"
  top: "data"
  top: "label"
  include {
    phase: TRAIN
  }
  transform_param {
    mirror: true
    crop_size: 224
    mean_value: 103.939
    mean_value: 116.779
    mean_value: 123.68
  }
  data_param {
    source: "COLOR/color_train_lmdb"
    batch_size: 30
    backend: LMDB
  }
}
layer {
  name: "conv1"
  type: "Convolution"
  bottom: "data"
  top: "conv1"
  param {
    lr_mult: 1
    decay_mult: 1
  }
  param {
    lr_mult: 2
    decay_mult: 0
  }
  convolution_param {
    num_output: 96
    kernel_size: 11
    stride: 4
    weight_filler {
      type: "gaussian"
      std: 0.01
    }
    bias_filler {
      type: "constant"
      value: 0
    }
  }
}
layer {
  name: "relu1"
  type: "ReLU"
  bottom: "conv1"
  top: "conv1"
}
layer {
  name: "norm1"
  type: "LRN"
  bottom: "conv1"
  top: "norm1"
  lrn_param {
    local_size: 5
    alpha: 0.0001
    beta: 0.75
  }
}
layer {
  name: "pool1"
  type: "Pooling"
  bottom: "norm1"
  top: "pool1"
  pooling_param {
    pool: MAX
    kernel_size: 3
    stride: 2
  }
}
layer {
  name: "conv2"
  type: "Convolution"
  bottom: "pool1"
  top: "conv2"
  param {
    lr_mult: 1
    decay_mult: 1
  }
  param {
    lr_mult: 2
    decay_mult: 0
  }
  convolution_param {
    num_output: 256
    pad: 2
    kernel_size: 5
    group: 2
    weight_filler {
      type: "gaussian"
      std: 0.01
    }
    bias_filler {
      type: "constant"
      value: 0.1
    }
  }
}
layer {
  name: "relu2"
  type: "ReLU"
  bottom: "conv2"
  top: "conv2"
}
layer {
  name: "norm2"
  type: "LRN"
  bottom: "conv2"
  top: "norm2"
  lrn_param {
    local_size: 5
    alpha: 0.0001
    beta: 0.75
  }
}
layer {
  name: "pool2"
  type: "Pooling"
  bottom: "norm2"
  top: "pool2"
  pooling_param {
    pool: MAX
    kernel_size: 3
    stride: 2
  }
}
layer {
  name: "conv3"
  type: "Convolution"
  bottom: "pool2"
  top: "conv3"
  param {
    lr_mult: 1
    decay_mult: 1
  }
  param {
    lr_mult: 2
    decay_mult: 0
  }
  convolution_param {
    num_output: 384
    pad: 1
    kernel_size: 3
    weight_filler {
      type: "gaussian"
      std: 0.01
    }
    bias_filler {
      type: "constant"
      value: 0
    }
  }
}
layer {
  name: "relu3"
  type: "ReLU"
  bottom: "conv3"
  top: "conv3"
}
layer {
  name: "conv4"
  type: "Convolution"
  bottom: "conv3"
  top: "conv4"
  param {
    lr_mult: 1
    decay_mult: 1
  }
  param {
    lr_mult: 2
    decay_mult: 0
  }
  convolution_param {
    num_output: 384
    pad: 1
    kernel_size: 3
    group: 2
    weight_filler {
      type: "gaussian"
      std: 0.01
    }
    bias_filler {
      type: "constant"
      value: 0.1
    }
  }
}
layer {
  name: "relu4"
  type: "ReLU"
  bottom: "conv4"
  top: "conv4"
}
layer {
  name: "conv5"
  type: "Convolution"
  bottom: "conv4"
  top: "conv5"
  param {
    lr_mult: 1
    decay_mult: 1
  }
  param {
    lr_mult: 2
    decay_mult: 0
  }
  convolution_param {
    num_output: 256
    pad: 1
    kernel_size: 3
    group: 2
    weight_filler {
      type: "gaussian"
      std: 0.01
    }
    bias_filler {
      type: "constant"
      value: 0.1
    }
  }
}
layer {
  name: "relu5"
  type: "ReLU"
  bottom: "conv5"
  top: "conv5"
}
layer {
  name: "pool5"
  type: "Pooling"
  bottom: "conv5"
  top: "pool5"
  pooling_param {
    pool: MAX
    kernel_size: 3
    stride: 2
  }
}
layer {
  name: "fc6"
  type: "InnerProduct"
  bottom: "pool5"
  top: "fc6"
  param {
    lr_mult: 1
    decay_mult: 1
  }
  param {
    lr_mult: 2
    decay_mult: 0
  }
  inner_product_param {
    num_output: 4096
    weight_filler {
      type: "gaussian"
      std: 0.005
    }
    bias_filler {
      type: "constant"
      value: 0.1
    }
  }
}
layer {
  name: "relu6"
  type: "ReLU"
  bottom: "fc6"
  top: "fc6"
}
layer {
  name: "drop6"
  type: "Dropout"
  bottom: "fc6"
  top: "fc6"
  dropout_param {
    dropout_ratio: 0.5
  }
}
layer {
  name: "fc7"
  type: "InnerProduct"
  bottom: "fc6"
  top: "fc7"
  param {
    lr_mult: 1
    decay_mult: 1
  }
  param {
    lr_mult: 2
    decay_mult: 0
  }
  inner_product_param {
    num_output: 4096
    weight_filler {
      type: "gaussian"
      std: 0.005
    }
    bias_filler {
      type: "constant"
      value: 0.1
    }
  }
}
layer {
  name: "relu7"
  type: "ReLU"
  bottom: "fc7"
  top: "fc7"
}
layer {
  name: "drop7"
  type: "Dropout"
  bottom: "fc7"
  top: "fc7"
  dropout_param {
    dropout_ratio: 0.5
  }
}
layer {
  name: "fc_binary_Color_f48"
  type: "InnerProduct"
  bottom: "fc7"
  top: "fc_binary_Color_f48"
  param {
    lr_mult: 10
    decay_mult: 1
  }
  param {
    lr_mult: 20
    decay_mult: 0
  }
  inner_product_param {
    num_output: 48
    weight_filler {
      type: "gaussian"
      std: 0.005
    }
    bias_filler {
      type: "constant"
      value: 0.1
    }
  }
}
layer {
  name: "fc_classification_Color"
  type: "InnerProduct"
  bottom: "fc7"
  top: "fc_classification_Color"
  param {
    lr_mult: 2.5
    decay_mult: 1
  }
  param {
    lr_mult: 5
    decay_mult: 0
  }
  inner_product_param {
    num_output: 8
    weight_filler {
      type: "gaussian"
      std: 0.05
    }
    bias_filler {
      type: "constant"
      value: 0.1
    }
  }
}
layer {
  name: "loss_hashing"
  type: "HashingLoss"
  bottom: "fc_binary_Color_f48"
  bottom: "label"
  top: "loss_hashing"
  loss_weight: 0.5
  hashing_loss_param {
    bi_margin: 96
    tradeoff: 0.01
  }
}
layer {
  name: "loss"
  type: "SoftmaxWithLoss"
  bottom: "fc_classification_Color"
  bottom: "label"
  top: "loss"
}
I0919 11:10:06.116593 41869 layer_factory.hpp:77] Creating layer data
I0919 11:10:06.117849 41869 net.cpp:91] Creating Layer data
I0919 11:10:06.117923 41869 net.cpp:399] data -> data
I0919 11:10:06.118036 41869 net.cpp:399] data -> label
I0919 11:10:06.141036 41930 db_lmdb.cpp:38] Opened lmdb COLOR/color_train_lmdb
I0919 11:10:06.171761 41869 data_layer.cpp:41] output data size: 30,3,224,224
I0919 11:10:06.233290 41869 net.cpp:141] Setting up data
I0919 11:10:06.233392 41869 net.cpp:148] Top shape: 30 3 224 224 (4515840)
I0919 11:10:06.233422 41869 net.cpp:148] Top shape: 30 1 1 1 (30)
I0919 11:10:06.233449 41869 net.cpp:156] Memory required for data: 18063480
I0919 11:10:06.233484 41869 layer_factory.hpp:77] Creating layer label_data_1_split
I0919 11:10:06.233527 41869 net.cpp:91] Creating Layer label_data_1_split
I0919 11:10:06.233559 41869 net.cpp:425] label_data_1_split <- label
I0919 11:10:06.233603 41869 net.cpp:399] label_data_1_split -> label_data_1_split_0
I0919 11:10:06.233661 41869 net.cpp:399] label_data_1_split -> label_data_1_split_1
I0919 11:10:06.233767 41869 net.cpp:141] Setting up label_data_1_split
I0919 11:10:06.233803 41869 net.cpp:148] Top shape: 30 1 1 1 (30)
I0919 11:10:06.233827 41869 net.cpp:148] Top shape: 30 1 1 1 (30)
I0919 11:10:06.233850 41869 net.cpp:156] Memory required for data: 18063720
I0919 11:10:06.233871 41869 layer_factory.hpp:77] Creating layer conv1
I0919 11:10:06.233929 41869 net.cpp:91] Creating Layer conv1
I0919 11:10:06.233956 41869 net.cpp:425] conv1 <- data
I0919 11:10:06.233989 41869 net.cpp:399] conv1 -> conv1
I0919 11:10:06.238996 41869 net.cpp:141] Setting up conv1
I0919 11:10:06.239068 41869 net.cpp:148] Top shape: 30 96 54 54 (8398080)
I0919 11:10:06.239164 41869 net.cpp:156] Memory required for data: 51656040
I0919 11:10:06.239236 41869 layer_factory.hpp:77] Creating layer relu1
I0919 11:10:06.239293 41869 net.cpp:91] Creating Layer relu1
I0919 11:10:06.239331 41869 net.cpp:425] relu1 <- conv1
I0919 11:10:06.239369 41869 net.cpp:386] relu1 -> conv1 (in-place)
I0919 11:10:06.239418 41869 net.cpp:141] Setting up relu1
I0919 11:10:06.239456 41869 net.cpp:148] Top shape: 30 96 54 54 (8398080)
I0919 11:10:06.239490 41869 net.cpp:156] Memory required for data: 85248360
I0919 11:10:06.239521 41869 layer_factory.hpp:77] Creating layer norm1
I0919 11:10:06.239572 41869 net.cpp:91] Creating Layer norm1
I0919 11:10:06.239608 41869 net.cpp:425] norm1 <- conv1
I0919 11:10:06.239645 41869 net.cpp:399] norm1 -> norm1
I0919 11:10:06.239775 41869 net.cpp:141] Setting up norm1
I0919 11:10:06.239825 41869 net.cpp:148] Top shape: 30 96 54 54 (8398080)
I0919 11:10:06.239858 41869 net.cpp:156] Memory required for data: 118840680
I0919 11:10:06.239892 41869 layer_factory.hpp:77] Creating layer pool1
I0919 11:10:06.239931 41869 net.cpp:91] Creating Layer pool1
I0919 11:10:06.239964 41869 net.cpp:425] pool1 <- norm1
I0919 11:10:06.240015 41869 net.cpp:399] pool1 -> pool1
I0919 11:10:06.240159 41869 net.cpp:141] Setting up pool1
I0919 11:10:06.240207 41869 net.cpp:148] Top shape: 30 96 27 27 (2099520)
I0919 11:10:06.240239 41869 net.cpp:156] Memory required for data: 127238760
I0919 11:10:06.240272 41869 layer_factory.hpp:77] Creating layer conv2
I0919 11:10:06.240330 41869 net.cpp:91] Creating Layer conv2
I0919 11:10:06.240368 41869 net.cpp:425] conv2 <- pool1
I0919 11:10:06.240409 41869 net.cpp:399] conv2 -> conv2
I0919 11:10:06.266368 41869 net.cpp:141] Setting up conv2
I0919 11:10:06.266472 41869 net.cpp:148] Top shape: 30 256 27 27 (5598720)
I0919 11:10:06.266521 41869 net.cpp:156] Memory required for data: 149633640
I0919 11:10:06.266578 41869 layer_factory.hpp:77] Creating layer relu2
I0919 11:10:06.266624 41869 net.cpp:91] Creating Layer relu2
I0919 11:10:06.266660 41869 net.cpp:425] relu2 <- conv2
I0919 11:10:06.266705 41869 net.cpp:386] relu2 -> conv2 (in-place)
I0919 11:10:06.266753 41869 net.cpp:141] Setting up relu2
I0919 11:10:06.266827 41869 net.cpp:148] Top shape: 30 256 27 27 (5598720)
I0919 11:10:06.266862 41869 net.cpp:156] Memory required for data: 172028520
I0919 11:10:06.266893 41869 layer_factory.hpp:77] Creating layer norm2
I0919 11:10:06.266947 41869 net.cpp:91] Creating Layer norm2
I0919 11:10:06.266983 41869 net.cpp:425] norm2 <- conv2
I0919 11:10:06.267019 41869 net.cpp:399] norm2 -> norm2
I0919 11:10:06.267143 41869 net.cpp:141] Setting up norm2
I0919 11:10:06.267190 41869 net.cpp:148] Top shape: 30 256 27 27 (5598720)
I0919 11:10:06.267225 41869 net.cpp:156] Memory required for data: 194423400
I0919 11:10:06.267256 41869 layer_factory.hpp:77] Creating layer pool2
I0919 11:10:06.267297 41869 net.cpp:91] Creating Layer pool2
I0919 11:10:06.267329 41869 net.cpp:425] pool2 <- norm2
I0919 11:10:06.267372 41869 net.cpp:399] pool2 -> pool2
I0919 11:10:06.267482 41869 net.cpp:141] Setting up pool2
I0919 11:10:06.267529 41869 net.cpp:148] Top shape: 30 256 13 13 (1297920)
I0919 11:10:06.267562 41869 net.cpp:156] Memory required for data: 199615080
I0919 11:10:06.267594 41869 layer_factory.hpp:77] Creating layer conv3
I0919 11:10:06.267652 41869 net.cpp:91] Creating Layer conv3
I0919 11:10:06.267688 41869 net.cpp:425] conv3 <- pool2
I0919 11:10:06.267730 41869 net.cpp:399] conv3 -> conv3
I0919 11:10:06.334334 41869 net.cpp:141] Setting up conv3
I0919 11:10:06.334432 41869 net.cpp:148] Top shape: 30 384 13 13 (1946880)
I0919 11:10:06.334483 41869 net.cpp:156] Memory required for data: 207402600
I0919 11:10:06.334542 41869 layer_factory.hpp:77] Creating layer relu3
I0919 11:10:06.334589 41869 net.cpp:91] Creating Layer relu3
I0919 11:10:06.334625 41869 net.cpp:425] relu3 <- conv3
I0919 11:10:06.334664 41869 net.cpp:386] relu3 -> conv3 (in-place)
I0919 11:10:06.334712 41869 net.cpp:141] Setting up relu3
I0919 11:10:06.334812 41869 net.cpp:148] Top shape: 30 384 13 13 (1946880)
I0919 11:10:06.334848 41869 net.cpp:156] Memory required for data: 215190120
I0919 11:10:06.334882 41869 layer_factory.hpp:77] Creating layer conv4
I0919 11:10:06.334939 41869 net.cpp:91] Creating Layer conv4
I0919 11:10:06.334986 41869 net.cpp:425] conv4 <- conv3
I0919 11:10:06.335032 41869 net.cpp:399] conv4 -> conv4
I0919 11:10:06.386606 41869 net.cpp:141] Setting up conv4
I0919 11:10:06.386705 41869 net.cpp:148] Top shape: 30 384 13 13 (1946880)
I0919 11:10:06.386755 41869 net.cpp:156] Memory required for data: 222977640
I0919 11:10:06.386802 41869 layer_factory.hpp:77] Creating layer relu4
I0919 11:10:06.386855 41869 net.cpp:91] Creating Layer relu4
I0919 11:10:06.386896 41869 net.cpp:425] relu4 <- conv4
I0919 11:10:06.386936 41869 net.cpp:386] relu4 -> conv4 (in-place)
I0919 11:10:06.386984 41869 net.cpp:141] Setting up relu4
I0919 11:10:06.387022 41869 net.cpp:148] Top shape: 30 384 13 13 (1946880)
I0919 11:10:06.387055 41869 net.cpp:156] Memory required for data: 230765160
I0919 11:10:06.387089 41869 layer_factory.hpp:77] Creating layer conv5
I0919 11:10:06.387142 41869 net.cpp:91] Creating Layer conv5
I0919 11:10:06.387178 41869 net.cpp:425] conv5 <- conv4
I0919 11:10:06.387224 41869 net.cpp:399] conv5 -> conv5
I0919 11:10:06.422497 41869 net.cpp:141] Setting up conv5
I0919 11:10:06.422557 41869 net.cpp:148] Top shape: 30 256 13 13 (1297920)
I0919 11:10:06.422592 41869 net.cpp:156] Memory required for data: 235956840
I0919 11:10:06.422652 41869 layer_factory.hpp:77] Creating layer relu5
I0919 11:10:06.422694 41869 net.cpp:91] Creating Layer relu5
I0919 11:10:06.422729 41869 net.cpp:425] relu5 <- conv5
I0919 11:10:06.422765 41869 net.cpp:386] relu5 -> conv5 (in-place)
I0919 11:10:06.422807 41869 net.cpp:141] Setting up relu5
I0919 11:10:06.422844 41869 net.cpp:148] Top shape: 30 256 13 13 (1297920)
I0919 11:10:06.422876 41869 net.cpp:156] Memory required for data: 241148520
I0919 11:10:06.422909 41869 layer_factory.hpp:77] Creating layer pool5
I0919 11:10:06.422953 41869 net.cpp:91] Creating Layer pool5
I0919 11:10:06.422986 41869 net.cpp:425] pool5 <- conv5
I0919 11:10:06.423030 41869 net.cpp:399] pool5 -> pool5
I0919 11:10:06.423147 41869 net.cpp:141] Setting up pool5
I0919 11:10:06.423197 41869 net.cpp:148] Top shape: 30 256 6 6 (276480)
I0919 11:10:06.423229 41869 net.cpp:156] Memory required for data: 242254440
I0919 11:10:06.423261 41869 layer_factory.hpp:77] Creating layer fc6
I0919 11:10:06.423319 41869 net.cpp:91] Creating Layer fc6
I0919 11:10:06.423355 41869 net.cpp:425] fc6 <- pool5
I0919 11:10:06.423400 41869 net.cpp:399] fc6 -> fc6
I0919 11:10:08.109292 41869 net.cpp:141] Setting up fc6
I0919 11:10:08.109370 41869 net.cpp:148] Top shape: 30 4096 (122880)
I0919 11:10:08.109388 41869 net.cpp:156] Memory required for data: 242745960
I0919 11:10:08.109414 41869 layer_factory.hpp:77] Creating layer relu6
I0919 11:10:08.109452 41869 net.cpp:91] Creating Layer relu6
I0919 11:10:08.109472 41869 net.cpp:425] relu6 <- fc6
I0919 11:10:08.109493 41869 net.cpp:386] relu6 -> fc6 (in-place)
I0919 11:10:08.109519 41869 net.cpp:141] Setting up relu6
I0919 11:10:08.109537 41869 net.cpp:148] Top shape: 30 4096 (122880)
I0919 11:10:08.109553 41869 net.cpp:156] Memory required for data: 243237480
I0919 11:10:08.109570 41869 layer_factory.hpp:77] Creating layer drop6
I0919 11:10:08.109599 41869 net.cpp:91] Creating Layer drop6
I0919 11:10:08.109617 41869 net.cpp:425] drop6 <- fc6
I0919 11:10:08.109663 41869 net.cpp:386] drop6 -> fc6 (in-place)
I0919 11:10:08.109731 41869 net.cpp:141] Setting up drop6
I0919 11:10:08.109760 41869 net.cpp:148] Top shape: 30 4096 (122880)
I0919 11:10:08.109777 41869 net.cpp:156] Memory required for data: 243729000
I0919 11:10:08.109793 41869 layer_factory.hpp:77] Creating layer fc7
I0919 11:10:08.109820 41869 net.cpp:91] Creating Layer fc7
I0919 11:10:08.109838 41869 net.cpp:425] fc7 <- fc6
I0919 11:10:08.109858 41869 net.cpp:399] fc7 -> fc7
I0919 11:10:08.736150 41869 net.cpp:141] Setting up fc7
I0919 11:10:08.736222 41869 net.cpp:148] Top shape: 30 4096 (122880)
I0919 11:10:08.736284 41869 net.cpp:156] Memory required for data: 244220520
I0919 11:10:08.736313 41869 layer_factory.hpp:77] Creating layer relu7
I0919 11:10:08.736340 41869 net.cpp:91] Creating Layer relu7
I0919 11:10:08.736358 41869 net.cpp:425] relu7 <- fc7
I0919 11:10:08.736379 41869 net.cpp:386] relu7 -> fc7 (in-place)
I0919 11:10:08.736405 41869 net.cpp:141] Setting up relu7
I0919 11:10:08.736423 41869 net.cpp:148] Top shape: 30 4096 (122880)
I0919 11:10:08.736438 41869 net.cpp:156] Memory required for data: 244712040
I0919 11:10:08.736454 41869 layer_factory.hpp:77] Creating layer drop7
I0919 11:10:08.736477 41869 net.cpp:91] Creating Layer drop7
I0919 11:10:08.736495 41869 net.cpp:425] drop7 <- fc7
I0919 11:10:08.736511 41869 net.cpp:386] drop7 -> fc7 (in-place)
I0919 11:10:08.736559 41869 net.cpp:141] Setting up drop7
I0919 11:10:08.736582 41869 net.cpp:148] Top shape: 30 4096 (122880)
I0919 11:10:08.736598 41869 net.cpp:156] Memory required for data: 245203560
I0919 11:10:08.736613 41869 layer_factory.hpp:77] Creating layer fc7_drop7_0_split
I0919 11:10:08.736631 41869 net.cpp:91] Creating Layer fc7_drop7_0_split
I0919 11:10:08.736647 41869 net.cpp:425] fc7_drop7_0_split <- fc7
I0919 11:10:08.736665 41869 net.cpp:399] fc7_drop7_0_split -> fc7_drop7_0_split_0
I0919 11:10:08.736694 41869 net.cpp:399] fc7_drop7_0_split -> fc7_drop7_0_split_1
I0919 11:10:08.736747 41869 net.cpp:141] Setting up fc7_drop7_0_split
I0919 11:10:08.736770 41869 net.cpp:148] Top shape: 30 4096 (122880)
I0919 11:10:08.736788 41869 net.cpp:148] Top shape: 30 4096 (122880)
I0919 11:10:08.736804 41869 net.cpp:156] Memory required for data: 246186600
I0919 11:10:08.736819 41869 layer_factory.hpp:77] Creating layer fc_binary_Color_f48
I0919 11:10:08.736845 41869 net.cpp:91] Creating Layer fc_binary_Color_f48
I0919 11:10:08.736861 41869 net.cpp:425] fc_binary_Color_f48 <- fc7_drop7_0_split_0
I0919 11:10:08.736881 41869 net.cpp:399] fc_binary_Color_f48 -> fc_binary_Color_f48
I0919 11:10:08.744822 41869 net.cpp:141] Setting up fc_binary_Color_f48
I0919 11:10:08.744853 41869 net.cpp:148] Top shape: 30 48 (1440)
I0919 11:10:08.744869 41869 net.cpp:156] Memory required for data: 246192360
I0919 11:10:08.744890 41869 layer_factory.hpp:77] Creating layer fc_classification_Color
I0919 11:10:08.744915 41869 net.cpp:91] Creating Layer fc_classification_Color
I0919 11:10:08.744933 41869 net.cpp:425] fc_classification_Color <- fc7_drop7_0_split_1
I0919 11:10:08.744952 41869 net.cpp:399] fc_classification_Color -> fc_classification_Color
I0919 11:10:08.746268 41869 net.cpp:141] Setting up fc_classification_Color
I0919 11:10:08.746294 41869 net.cpp:148] Top shape: 30 8 (240)
I0919 11:10:08.746309 41869 net.cpp:156] Memory required for data: 246193320
I0919 11:10:08.746335 41869 layer_factory.hpp:77] Creating layer loss_hashing
I0919 11:10:08.746363 41869 net.cpp:91] Creating Layer loss_hashing
I0919 11:10:08.746381 41869 net.cpp:425] loss_hashing <- fc_binary_Color_f48
I0919 11:10:08.746398 41869 net.cpp:425] loss_hashing <- label_data_1_split_0
I0919 11:10:08.746421 41869 net.cpp:399] loss_hashing -> loss_hashing
…
I0919 11:10:08.748369 41869 net.cpp:313] The NetState phase (1) differed from the phase (0) specified by a rule in layer data
I0919 11:10:08.748664 41869 net.cpp:49] Initializing net from parameters: 
name: "docomo_AlexNet"
state {
  phase: TEST
}
layer {
  name: "data"
  type: "Data"
  top: "data"
  top: "label"
  include {
    phase: TEST
  }
  transform_param {
    mirror: false
    crop_size: 224
    mean_value: 103.939
    mean_value: 116.779
    mean_value: 123.68
  }
  data_param {
    source: "COLOR/color_val_lmdb"
    batch_size: 40
    backend: LMDB
  }
}
layer {
  name: "conv1"
  type: "Convolution"
  bottom: "data"
  top: "conv1"
  param {
    lr_mult: 1
    decay_mult: 1
  }
  param {
    lr_mult: 2
    decay_mult: 0
  }
  convolution_param {
    num_output: 96
    kernel_size: 11
    stride: 4
    weight_filler {
      type: "gaussian"
      std: 0.01
    }
    bias_filler {
      type: "constant"
      value: 0
    }
  }
}
layer {
  name: "relu1"
  type: "ReLU"
  bottom: "conv1"
  top: "conv1"
}
layer {
  name: "norm1"
  type: "LRN"
  bottom: "conv1"
  top: "norm1"
  lrn_param {
    local_size: 5
    alpha: 0.0001
    beta: 0.75
  }
}
layer {
  name: "pool1"
  type: "Pooling"
  bottom: "norm1"
  top: "pool1"
  pooling_param {
    pool: MAX
    kernel_size: 3
    stride: 2
  }
}
layer {
  name: "conv2"
  type: "Convolution"
  bottom: "pool1"
  top: "conv2"
  param {
    lr_mult: 1
    decay_mult: 1
  }
  param {
    lr_mult: 2
    decay_mult: 0
  }
  convolution_param {
    num_output: 256
    pad: 2
    kernel_size: 5
    group: 2
    weight_filler {
      type: "gaussian"
      std: 0.01
    }
    bias_filler {
      type: "constant"
      value: 0.1
    }
  }
}
layer {
  name: "relu2"
  type: "ReLU"
  bottom: "conv2"
  top: "conv2"
}
layer {
  name: "norm2"
  type: "LRN"
  bottom: "conv2"
  top: "norm2"
  lrn_param {
    local_size: 5
    alpha: 0.0001
    beta: 0.75
  }
}
layer {
  name: "pool2"
  type: "Pooling"
  bottom: "norm2"
  top: "pool2"
  pooling_param {
    pool: MAX
    kernel_size: 3
    stride: 2
  }
}
layer {
  name: "conv3"
  type: "Convolution"
  bottom: "pool2"
  top: "conv3"
  param {
    lr_mult: 1
    decay_mult: 1
  }
  param {
    lr_mult: 2
    decay_mult: 0
  }
  convolution_param {
    num_output: 384
    pad: 1
    kernel_size: 3
    weight_filler {
      type: "gaussian"
      std: 0.01
    }
    bias_filler {
      type: "constant"
      value: 0
    }
  }
}
layer {
  name: "relu3"
  type: "ReLU"
  bottom: "conv3"
  top: "conv3"
}
layer {
  name: "conv4"
  type: "Convolution"
  bottom: "conv3"
  top: "conv4"
  param {
    lr_mult: 1
    decay_mult: 1
  }
  param {
    lr_mult: 2
    decay_mult: 0
  }
  convolution_param {
    num_output: 384
    pad: 1
    kernel_size: 3
    group: 2
    weight_filler {
      type: "gaussian"
      std: 0.01
    }
    bias_filler {
      type: "constant"
      value: 0.1
    }
  }
}
layer {
  name: "relu4"
  type: "ReLU"
  bottom: "conv4"
  top: "conv4"
}
layer {
  name: "conv5"
  type: "Convolution"
  bottom: "conv4"
  top: "conv5"
  param {
    lr_mult: 1
    decay_mult: 1
  }
  param {
    lr_mult: 2
    decay_mult: 0
  }
  convolution_param {
    num_output: 256
    pad: 1
    kernel_size: 3
    group: 2
    weight_filler {
      type: "gaussian"
      std: 0.01
    }
    bias_filler {
      type: "constant"
      value: 0.1
    }
  }
}
layer {
  name: "relu5"
  type: "ReLU"
  bottom: "conv5"
  top: "conv5"
}
layer {
  name: "pool5"
  type: "Pooling"
  bottom: "conv5"
  top: "pool5"
  pooling_param {
    pool: MAX
    kernel_size: 3
    stride: 2
  }
}
layer {
  name: "fc6"
  type: "InnerProduct"
  bottom: "pool5"
  top: "fc6"
  param {
    lr_mult: 1
    decay_mult: 1
  }
  param {
    lr_mult: 2
    decay_mult: 0
  }
  inner_product_param {
    num_output: 4096
    weight_filler {
      type: "gaussian"
      std: 0.005
    }
    bias_filler {
      type: "constant"
      value: 0.1
    }
  }
}
layer {
  name: "relu6"
  type: "ReLU"
  bottom: "fc6"
  top: "fc6"
}
layer {
  name: "drop6"
  type: "Dropout"
  bottom: "fc6"
  top: "fc6"
  dropout_param {
    dropout_ratio: 0.5
  }
}
layer {
  name: "fc7"
  type: "InnerProduct"
  bottom: "fc6"
  top: "fc7"
  param {
    lr_mult: 1
    decay_mult: 1
  }
  param {
    lr_mult: 2
    decay_mult: 0
  }
  inner_product_param {
    num_output: 4096
    weight_filler {
      type: "gaussian"
      std: 0.005
    }
    bias_filler {
      type: "constant"
      value: 0.1
    }
  }
}
layer {
  name: "relu7"
  type: "ReLU"
  bottom: "fc7"
  top: "fc7"
}
layer {
  name: "drop7"
  type: "Dropout"
  bottom: "fc7"
  top: "fc7"
  dropout_param {
    dropout_ratio: 0.5
  }
}
layer {
  name: "fc_binary_Color_f48"
  type: "InnerProduct"
  bottom: "fc7"
  top: "fc_binary_Color_f48"
  param {
    lr_mult: 10
    decay_mult: 1
  }
  param {
    lr_mult: 20
    decay_mult: 0
  }
  inner_product_param {
    num_output: 48
    weight_filler {
      type: "gaussian"
      std: 0.005
    }
    bias_filler {
      type: "constant"
      value: 0.1
    }
  }
}
layer {
  name: "fc_classification_Color"
  type: "InnerProduct"
  bottom: "fc7"
  top: "fc_classification_Color"
  param {
    lr_mult: 2.5
    decay_mult: 1
  }
  param {
    lr_mult: 5
    decay_mult: 0
  }
  inner_product_param {
    num_output: 8
    weight_filler {
      type: "gaussian"
      std: 0.05
    }
    bias_filler {
      type: "constant"
      value: 0.1
    }
  }
}
layer {
  name: "accuracy_at_1_Color"
  type: "Accuracy"
  bottom: "fc_classification_Color"
  bottom: "label"
  top: "accuracy_at_1_Color"
  include {
    phase: TEST
  }
}
layer {
  name: "loss_hashing"
  type: "HashingLoss"
  bottom: "fc_binary_Color_f48"
  bottom: "label"
  top: "loss_hashing"
  loss_weight: 0.5
  hashing_loss_param {
    bi_margin: 96
    tradeoff: 0.01
  }
}
layer {
  name: "loss"
  type: "SoftmaxWithLoss"
  bottom: "fc_classification_Color"
  bottom: "label"
  top: "loss"
}
I0919 11:10:08.750383 41869 layer_factory.hpp:77] Creating layer data
I0919 11:10:08.750522 41869 net.cpp:91] Creating Layer data
I0919 11:10:08.750550 41869 net.cpp:399] data -> data
I0919 11:10:08.750578 41869 net.cpp:399] data -> label
I0919 11:10:08.751708 42198 db_lmdb.cpp:38] Opened lmdb COLOR/color_val_lmdb
I0919 11:10:08.752115 41869 data_layer.cpp:41] output data size: 40,3,224,224
I0919 11:10:08.804358 41869 net.cpp:141] Setting up data
I0919 11:10:08.804426 41869 net.cpp:148] Top shape: 40 3 224 224 (6021120)
I0919 11:10:08.804447 41869 net.cpp:148] Top shape: 40 1 1 1 (40)
I0919 11:10:08.804464 41869 net.cpp:156] Memory required for data: 24084640
I0919 11:10:08.804484 41869 layer_factory.hpp:77] Creating layer label_data_1_split
I0919 11:10:08.804515 41869 net.cpp:91] Creating Layer label_data_1_split
I0919 11:10:08.804534 41869 net.cpp:425] label_data_1_split <- label
I0919 11:10:08.804560 41869 net.cpp:399] label_data_1_split -> label_data_1_split_0
I0919 11:10:08.804590 41869 net.cpp:399] label_data_1_split -> label_data_1_split_1
I0919 11:10:08.804611 41869 net.cpp:399] label_data_1_split -> label_data_1_split_2
I0919 11:10:08.804705 41869 net.cpp:141] Setting up label_data_1_split
I0919 11:10:08.804730 41869 net.cpp:148] Top shape: 40 1 1 1 (40)
I0919 11:10:08.804749 41869 net.cpp:148] Top shape: 40 1 1 1 (40)
I0919 11:10:08.804767 41869 net.cpp:148] Top shape: 40 1 1 1 (40)
I0919 11:10:08.804783 41869 net.cpp:156] Memory required for data: 24085120
I0919 11:10:08.804801 41869 layer_factory.hpp:77] Creating layer conv1
I0919 11:10:08.804839 41869 net.cpp:91] Creating Layer conv1
I0919 11:10:08.804857 41869 net.cpp:425] conv1 <- data
I0919 11:10:08.804878 41869 net.cpp:399] conv1 -> conv1
I0919 11:10:08.807418 41869 net.cpp:141] Setting up conv1
I0919 11:10:08.807451 41869 net.cpp:148] Top shape: 40 96 54 54 (11197440)
I0919 11:10:08.807469 41869 net.cpp:156] Memory required for data: 68874880
I0919 11:10:08.807497 41869 layer_factory.hpp:77] Creating layer relu1
I0919 11:10:08.807519 41869 net.cpp:91] Creating Layer relu1
I0919 11:10:08.807536 41869 net.cpp:425] relu1 <- conv1
I0919 11:10:08.807561 41869 net.cpp:386] relu1 -> conv1 (in-place)
I0919 11:10:08.807585 41869 net.cpp:141] Setting up relu1
I0919 11:10:08.807605 41869 net.cpp:148] Top shape: 40 96 54 54 (11197440)
I0919 11:10:08.807621 41869 net.cpp:156] Memory required for data: 113664640
I0919 11:10:08.807637 41869 layer_factory.hpp:77] Creating layer norm1
I0919 11:10:08.807662 41869 net.cpp:91] Creating Layer norm1
I0919 11:10:08.807678 41869 net.cpp:425] norm1 <- conv1
I0919 11:10:08.807701 41869 net.cpp:399] norm1 -> norm1
I0919 11:10:08.807761 41869 net.cpp:141] Setting up norm1
I0919 11:10:08.807785 41869 net.cpp:148] Top shape: 40 96 54 54 (11197440)
I0919 11:10:08.807802 41869 net.cpp:156] Memory required for data: 158454400
I0919 11:10:08.807818 41869 layer_factory.hpp:77] Creating layer pool1
I0919 11:10:08.807844 41869 net.cpp:91] Creating Layer pool1
I0919 11:10:08.807862 41869 net.cpp:425] pool1 <- norm1
I0919 11:10:08.807880 41869 net.cpp:399] pool1 -> pool1
I0919 11:10:08.807942 41869 net.cpp:141] Setting up pool1
I0919 11:10:08.807965 41869 net.cpp:148] Top shape: 40 96 27 27 (2799360)
I0919 11:10:08.807982 41869 net.cpp:156] Memory required for data: 169651840
I0919 11:10:08.807999 41869 layer_factory.hpp:77] Creating layer conv2
I0919 11:10:08.808027 41869 net.cpp:91] Creating Layer conv2
I0919 11:10:08.808045 41869 net.cpp:425] conv2 <- pool1
I0919 11:10:08.808069 41869 net.cpp:399] conv2 -> conv2
I0919 11:10:08.820686 41869 net.cpp:141] Setting up conv2
I0919 11:10:08.820752 41869 net.cpp:148] Top shape: 40 256 27 27 (7464960)
I0919 11:10:08.820780 41869 net.cpp:156] Memory required for data: 199511680
I0919 11:10:08.820811 41869 layer_factory.hpp:77] Creating layer relu2
I0919 11:10:08.820871 41869 net.cpp:91] Creating Layer relu2
I0919 11:10:08.820891 41869 net.cpp:425] relu2 <- conv2
I0919 11:10:08.820924 41869 net.cpp:386] relu2 -> conv2 (in-place)
I0919 11:10:08.820950 41869 net.cpp:141] Setting up relu2
I0919 11:10:08.820971 41869 net.cpp:148] Top shape: 40 256 27 27 (7464960)
I0919 11:10:08.820987 41869 net.cpp:156] Memory required for data: 229371520
I0919 11:10:08.821003 41869 layer_factory.hpp:77] Creating layer norm2
I0919 11:10:08.821029 41869 net.cpp:91] Creating Layer norm2
I0919 11:10:08.821050 41869 net.cpp:425] norm2 <- conv2
I0919 11:10:08.821070 41869 net.cpp:399] norm2 -> norm2
I0919 11:10:08.821135 41869 net.cpp:141] Setting up norm2
I0919 11:10:08.821158 41869 net.cpp:148] Top shape: 40 256 27 27 (7464960)
I0919 11:10:08.821175 41869 net.cpp:156] Memory required for data: 259231360
I0919 11:10:08.821192 41869 layer_factory.hpp:77] Creating layer pool2
I0919 11:10:08.821213 41869 net.cpp:91] Creating Layer pool2
I0919 11:10:08.821230 41869 net.cpp:425] pool2 <- norm2
I0919 11:10:08.821249 41869 net.cpp:399] pool2 -> pool2
I0919 11:10:08.821307 41869 net.cpp:141] Setting up pool2
I0919 11:10:08.821331 41869 net.cpp:148] Top shape: 40 256 13 13 (1730560)
I0919 11:10:08.821347 41869 net.cpp:156] Memory required for data: 266153600
I0919 11:10:08.821363 41869 layer_factory.hpp:77] Creating layer conv3
I0919 11:10:08.821394 41869 net.cpp:91] Creating Layer conv3
I0919 11:10:08.821413 41869 net.cpp:425] conv3 <- pool2
I0919 11:10:08.821436 41869 net.cpp:399] conv3 -> conv3
I0919 11:10:08.856920 41869 net.cpp:141] Setting up conv3
I0919 11:10:08.856981 41869 net.cpp:148] Top shape: 40 384 13 13 (2595840)
I0919 11:10:08.856998 41869 net.cpp:156] Memory required for data: 276536960
I0919 11:10:08.857030 41869 layer_factory.hpp:77] Creating layer relu3
I0919 11:10:08.857061 41869 net.cpp:91] Creating Layer relu3
I0919 11:10:08.857081 41869 net.cpp:425] relu3 <- conv3
I0919 11:10:08.857101 41869 net.cpp:386] relu3 -> conv3 (in-place)
I0919 11:10:08.857127 41869 net.cpp:141] Setting up relu3
I0919 11:10:08.857146 41869 net.cpp:148] Top shape: 40 384 13 13 (2595840)
I0919 11:10:08.857163 41869 net.cpp:156] Memory required for data: 286920320
I0919 11:10:08.857179 41869 layer_factory.hpp:77] Creating layer conv4
I0919 11:10:08.857208 41869 net.cpp:91] Creating Layer conv4
I0919 11:10:08.857226 41869 net.cpp:425] conv4 <- conv3
I0919 11:10:08.857250 41869 net.cpp:399] conv4 -> conv4
I0919 11:10:08.884168 41869 net.cpp:141] Setting up conv4
I0919 11:10:08.884245 41869 net.cpp:148] Top shape: 40 384 13 13 (2595840)
I0919 11:10:08.884263 41869 net.cpp:156] Memory required for data: 297303680
I0919 11:10:08.884289 41869 layer_factory.hpp:77] Creating layer relu4
I0919 11:10:08.884313 41869 net.cpp:91] Creating Layer relu4
I0919 11:10:08.884332 41869 net.cpp:425] relu4 <- conv4
I0919 11:10:08.884357 41869 net.cpp:386] relu4 -> conv4 (in-place)
I0919 11:10:08.884384 41869 net.cpp:141] Setting up relu4
I0919 11:10:08.884403 41869 net.cpp:148] Top shape: 40 384 13 13 (2595840)
I0919 11:10:08.884420 41869 net.cpp:156] Memory required for data: 307687040
I0919 11:10:08.884436 41869 layer_factory.hpp:77] Creating layer conv5
I0919 11:10:08.884464 41869 net.cpp:91] Creating Layer conv5
I0919 11:10:08.884480 41869 net.cpp:425] conv5 <- conv4
I0919 11:10:08.884505 41869 net.cpp:399] conv5 -> conv5
I0919 11:10:08.902493 41869 net.cpp:141] Setting up conv5
I0919 11:10:08.902551 41869 net.cpp:148] Top shape: 40 256 13 13 (1730560)
I0919 11:10:08.902580 41869 net.cpp:156] Memory required for data: 314609280
I0919 11:10:08.902617 41869 layer_factory.hpp:77] Creating layer relu5
I0919 11:10:08.902645 41869 net.cpp:91] Creating Layer relu5
I0919 11:10:08.902664 41869 net.cpp:425] relu5 <- conv5
I0919 11:10:08.902688 41869 net.cpp:386] relu5 -> conv5 (in-place)
I0919 11:10:08.902715 41869 net.cpp:141] Setting up relu5
I0919 11:10:08.902734 41869 net.cpp:148] Top shape: 40 256 13 13 (1730560)
I0919 11:10:08.902750 41869 net.cpp:156] Memory required for data: 321531520
I0919 11:10:08.902766 41869 layer_factory.hpp:77] Creating layer pool5
I0919 11:10:08.902822 41869 net.cpp:91] Creating Layer pool5
I0919 11:10:08.902839 41869 net.cpp:425] pool5 <- conv5
I0919 11:10:08.902859 41869 net.cpp:399] pool5 -> pool5
I0919 11:10:08.902930 41869 net.cpp:141] Setting up pool5
I0919 11:10:08.902954 41869 net.cpp:148] Top shape: 40 256 6 6 (368640)
I0919 11:10:08.902971 41869 net.cpp:156] Memory required for data: 323006080
I0919 11:10:08.902987 41869 layer_factory.hpp:77] Creating layer fc6
I0919 11:10:08.903017 41869 net.cpp:91] Creating Layer fc6
I0919 11:10:08.903034 41869 net.cpp:425] fc6 <- pool5
I0919 11:10:08.903053 41869 net.cpp:399] fc6 -> fc6
I0919 11:10:10.306342 41869 net.cpp:141] Setting up fc6
I0919 11:10:10.306430 41869 net.cpp:148] Top shape: 40 4096 (163840)
I0919 11:10:10.306449 41869 net.cpp:156] Memory required for data: 323661440
I0919 11:10:10.306486 41869 layer_factory.hpp:77] Creating layer relu6
I0919 11:10:10.306519 41869 net.cpp:91] Creating Layer relu6
I0919 11:10:10.306542 41869 net.cpp:425] relu6 <- fc6
I0919 11:10:10.306568 41869 net.cpp:386] relu6 -> fc6 (in-place)
I0919 11:10:10.306596 41869 net.cpp:141] Setting up relu6
I0919 11:10:10.306614 41869 net.cpp:148] Top shape: 40 4096 (163840)
I0919 11:10:10.306630 41869 net.cpp:156] Memory required for data: 324316800
I0919 11:10:10.306645 41869 layer_factory.hpp:77] Creating layer drop6
I0919 11:10:10.306665 41869 net.cpp:91] Creating Layer drop6
I0919 11:10:10.306681 41869 net.cpp:425] drop6 <- fc6
I0919 11:10:10.306699 41869 net.cpp:386] drop6 -> fc6 (in-place)
I0919 11:10:10.306756 41869 net.cpp:141] Setting up drop6
I0919 11:10:10.306779 41869 net.cpp:148] Top shape: 40 4096 (163840)
I0919 11:10:10.306795 41869 net.cpp:156] Memory required for data: 324972160
I0919 11:10:10.306813 41869 layer_factory.hpp:77] Creating layer fc7
I0919 11:10:10.306839 41869 net.cpp:91] Creating Layer fc7
I0919 11:10:10.306855 41869 net.cpp:425] fc7 <- fc6
I0919 11:10:10.306875 41869 net.cpp:399] fc7 -> fc7
I0919 11:10:10.926496 41869 net.cpp:141] Setting up fc7
I0919 11:10:10.926584 41869 net.cpp:148] Top shape: 40 4096 (163840)
I0919 11:10:10.926602 41869 net.cpp:156] Memory required for data: 325627520
I0919 11:10:10.926628 41869 layer_factory.hpp:77] Creating layer relu7
I0919 11:10:10.926666 41869 net.cpp:91] Creating Layer relu7
I0919 11:10:10.926684 41869 net.cpp:425] relu7 <- fc7
I0919 11:10:10.926707 41869 net.cpp:386] relu7 -> fc7 (in-place)
I0919 11:10:10.926733 41869 net.cpp:141] Setting up relu7
I0919 11:10:10.926753 41869 net.cpp:148] Top shape: 40 4096 (163840)
I0919 11:10:10.926769 41869 net.cpp:156] Memory required for data: 326282880
I0919 11:10:10.926784 41869 layer_factory.hpp:77] Creating layer drop7
I0919 11:10:10.926805 41869 net.cpp:91] Creating Layer drop7
I0919 11:10:10.926820 41869 net.cpp:425] drop7 <- fc7
I0919 11:10:10.926846 41869 net.cpp:386] drop7 -> fc7 (in-place)
I0919 11:10:10.926892 41869 net.cpp:141] Setting up drop7
I0919 11:10:10.926918 41869 net.cpp:148] Top shape: 40 4096 (163840)
I0919 11:10:10.926934 41869 net.cpp:156] Memory required for data: 326938240
I0919 11:10:10.926950 41869 layer_factory.hpp:77] Creating layer fc7_drop7_0_split
I0919 11:10:10.926970 41869 net.cpp:91] Creating Layer fc7_drop7_0_split
I0919 11:10:10.926985 41869 net.cpp:425] fc7_drop7_0_split <- fc7
I0919 11:10:10.927003 41869 net.cpp:399] fc7_drop7_0_split -> fc7_drop7_0_split_0
I0919 11:10:10.927026 41869 net.cpp:399] fc7_drop7_0_split -> fc7_drop7_0_split_1
I0919 11:10:10.927080 41869 net.cpp:141] Setting up fc7_drop7_0_split
I0919 11:10:10.927103 41869 net.cpp:148] Top shape: 40 4096 (163840)
I0919 11:10:10.927120 41869 net.cpp:148] Top shape: 40 4096 (163840)
I0919 11:10:10.927136 41869 net.cpp:156] Memory required for data: 328248960
I0919 11:10:10.927151 41869 layer_factory.hpp:77] Creating layer fc_binary_Color_f48
I0919 11:10:10.927178 41869 net.cpp:91] Creating Layer fc_binary_Color_f48
I0919 11:10:10.927196 41869 net.cpp:425] fc_binary_Color_f48 <- fc7_drop7_0_split_0
I0919 11:10:10.927217 41869 net.cpp:399] fc_binary_Color_f48 -> fc_binary_Color_f48
I0919 11:10:10.935286 41869 net.cpp:141] Setting up fc_binary_Color_f48
I0919 11:10:10.935317 41869 net.cpp:148] Top shape: 40 48 (1920)
I0919 11:10:10.935335 41869 net.cpp:156] Memory required for data: 328256640
I0919 11:10:10.935358 41869 layer_factory.hpp:77] Creating layer fc_classification_Color
I0919 11:10:10.935379 41869 net.cpp:91] Creating Layer fc_classification_Color
I0919 11:10:10.935397 41869 net.cpp:425] fc_classification_Color <- fc7_drop7_0_split_1
I0919 11:10:10.935421 41869 net.cpp:399] fc_classification_Color -> fc_classification_Color
I0919 11:10:10.936772 41869 net.cpp:141] Setting up fc_classification_Color
I0919 11:10:10.936800 41869 net.cpp:148] Top shape: 40 8 (320)
I0919 11:10:10.936815 41869 net.cpp:156] Memory required for data: 328257920
I0919 11:10:10.936847 41869 layer_factory.hpp:77] Creating layer fc_classification_Color_fc_classification_Color_0_split
I0919 11:10:10.936869 41869 net.cpp:91] Creating Layer fc_classification_Color_fc_classification_Color_0_split
I0919 11:10:10.936887 41869 net.cpp:425] fc_classification_Color_fc_classification_Color_0_split <- fc_classification_Color
I0919 11:10:10.936904 41869 net.cpp:399] fc_classification_Color_fc_classification_Color_0_split -> fc_classification_Color_fc_classification_Color_0_split_0
I0919 11:10:10.936925 41869 net.cpp:399] fc_classification_Color_fc_classification_Color_0_split -> fc_classification_Color_fc_classification_Color_0_split_1
I0919 11:10:10.936985 41869 net.cpp:141] Setting up fc_classification_Color_fc_classification_Color_0_split
I0919 11:10:10.937007 41869 net.cpp:148] Top shape: 40 8 (320)
I0919 11:10:10.937026 41869 net.cpp:148] Top shape: 40 8 (320)
I0919 11:10:10.937041 41869 net.cpp:156] Memory required for data: 328260480
I0919 11:10:10.937057 41869 layer_factory.hpp:77] Creating layer accuracy_at_1_Color
I0919 11:10:10.937085 41869 net.cpp:91] Creating Layer accuracy_at_1_Color
I0919 11:10:10.937103 41869 net.cpp:425] accuracy_at_1_Color <- fc_classification_Color_fc_classification_Color_0_split_0
I0919 11:10:10.937120 41869 net.cpp:425] accuracy_at_1_Color <- label_data_1_split_0
…
