…
I0919 15:50:39.817605 38839 net.cpp:313] The NetState phase (0) differed from the phase (1) specified by a rule in layer accuracy_at_1_Color
I0919 15:50:39.818030 38839 net.cpp:49] Initializing net from parameters: 
name: "docomo_VGG16"
state {
  phase: TRAIN
}
layer {
  name: "data"
  type: "Data"
  top: "data"
  top: "label"
  include {
    phase: TRAIN
  }
  transform_param {
    mirror: true
    crop_size: 224
    mean_value: 103.939
    mean_value: 116.779
    mean_value: 123.68
  }
  data_param {
    source: "COLOR/color_train_lmdb/"
    batch_size: 10
    backend: LMDB
  }
}
layer {
  name: "conv1_1"
  type: "Convolution"
  bottom: "data"
  top: "conv1_1"
  param {
    lr_mult: 1
    decay_mult: 1
  }
  param {
    lr_mult: 2
    decay_mult: 0
  }
  convolution_param {
    num_output: 64
    pad: 1
    kernel_size: 3
    weight_filler {
      type: "gaussian"
      std: 0.01
    }
    bias_filler {
      type: "constant"
      value: 0
    }
  }
}
layer {
  name: "relu1_1"
  type: "ReLU"
  bottom: "conv1_1"
  top: "conv1_1"
}
layer {
  name: "conv1_2"
  type: "Convolution"
  bottom: "conv1_1"
  top: "conv1_2"
  param {
    lr_mult: 1
    decay_mult: 1
  }
  param {
    lr_mult: 2
    decay_mult: 0
  }
  convolution_param {
    num_output: 64
    pad: 1
    kernel_size: 3
    weight_filler {
      type: "gaussian"
      std: 0.01
    }
    bias_filler {
      type: "constant"
      value: 0
    }
  }
}
layer {
  name: "relu1_2"
  type: "ReLU"
  bottom: "conv1_2"
  top: "conv1_2"
}
layer {
  name: "pool1"
  type: "Pooling"
  bottom: "conv1_2"
  top: "pool1"
  pooling_param {
    pool: MAX
    kernel_size: 2
    stride: 2
  }
}
layer {
  name: "conv2_1"
  type: "Convolution"
  bottom: "pool1"
  top: "conv2_1"
  param {
    lr_mult: 1
    decay_mult: 1
  }
  param {
    lr_mult: 2
    decay_mult: 0
  }
  convolution_param {
    num_output: 128
    pad: 1
    kernel_size: 3
    weight_filler {
      type: "gaussian"
      std: 0.01
    }
    bias_filler {
      type: "constant"
      value: 0
    }
  }
}
layer {
  name: "relu2_1"
  type: "ReLU"
  bottom: "conv2_1"
  top: "conv2_1"
}
layer {
  name: "conv2_2"
  type: "Convolution"
  bottom: "conv2_1"
  top: "conv2_2"
  param {
    lr_mult: 1
    decay_mult: 1
  }
  param {
    lr_mult: 2
    decay_mult: 0
  }
  convolution_param {
    num_output: 128
    pad: 1
    kernel_size: 3
    weight_filler {
      type: "gaussian"
      std: 0.01
    }
    bias_filler {
      type: "constant"
      value: 0
    }
  }
}
layer {
  name: "relu2_2"
  type: "ReLU"
  bottom: "conv2_2"
  top: "conv2_2"
}
layer {
  name: "pool2"
  type: "Pooling"
  bottom: "conv2_2"
  top: "pool2"
  pooling_param {
    pool: MAX
    kernel_size: 2
    stride: 2
  }
}
layer {
  name: "conv3_1"
  type: "Convolution"
  bottom: "pool2"
  top: "conv3_1"
  param {
    lr_mult: 1
    decay_mult: 1
  }
  param {
    lr_mult: 2
    decay_mult: 0
  }
  convolution_param {
    num_output: 256
    pad: 1
    kernel_size: 3
    weight_filler {
      type: "gaussian"
      std: 0.01
    }
    bias_filler {
      type: "constant"
      value: 0
    }
  }
}
layer {
  name: "relu3_1"
  type: "ReLU"
  bottom: "conv3_1"
  top: "conv3_1"
}
layer {
  name: "conv3_2"
  type: "Convolution"
  bottom: "conv3_1"
  top: "conv3_2"
  param {
    lr_mult: 1
    decay_mult: 1
  }
  param {
    lr_mult: 2
    decay_mult: 0
  }
  convolution_param {
    num_output: 256
    pad: 1
    kernel_size: 3
    weight_filler {
      type: "gaussian"
      std: 0.01
    }
    bias_filler {
      type: "constant"
      value: 0
    }
  }
}
layer {
  name: "relu3_2"
  type: "ReLU"
  bottom: "conv3_2"
  top: "conv3_2"
}
layer {
  name: "conv3_3"
  type: "Convolution"
  bottom: "conv3_2"
  top: "conv3_3"
  param {
    lr_mult: 1
    decay_mult: 1
  }
  param {
    lr_mult: 2
    decay_mult: 0
  }
  convolution_param {
    num_output: 256
    pad: 1
    kernel_size: 3
    weight_filler {
      type: "gaussian"
      std: 0.01
    }
    bias_filler {
      type: "constant"
      value: 0
    }
  }
}
layer {
  name: "relu3_3"
  type: "ReLU"
  bottom: "conv3_3"
  top: "conv3_3"
}
layer {
  name: "pool3"
  type: "Pooling"
  bottom: "conv3_3"
  top: "pool3"
  pooling_param {
    pool: MAX
    kernel_size: 2
    stride: 2
  }
}
layer {
  name: "conv4_1"
  type: "Convolution"
  bottom: "pool3"
  top: "conv4_1"
  param {
    lr_mult: 1
    decay_mult: 1
  }
  param {
    lr_mult: 2
    decay_mult: 0
  }
  convolution_param {
    num_output: 512
    pad: 1
    kernel_size: 3
    weight_filler {
      type: "gaussian"
      std: 0.01
    }
    bias_filler {
      type: "constant"
      value: 0
    }
  }
}
layer {
  name: "relu4_1"
  type: "ReLU"
  bottom: "conv4_1"
  top: "conv4_1"
}
layer {
  name: "conv4_2"
  type: "Convolution"
  bottom: "conv4_1"
  top: "conv4_2"
  param {
    lr_mult: 1
    decay_mult: 1
  }
  param {
    lr_mult: 2
    decay_mult: 0
  }
  convolution_param {
    num_output: 512
    pad: 1
    kernel_size: 3
    weight_filler {
      type: "gaussian"
      std: 0.01
    }
    bias_filler {
      type: "constant"
      value: 0
    }
  }
}
layer {
  name: "relu4_2"
  type: "ReLU"
  bottom: "conv4_2"
  top: "conv4_2"
}
layer {
  name: "conv4_3"
  type: "Convolution"
  bottom: "conv4_2"
  top: "conv4_3"
  param {
    lr_mult: 1
    decay_mult: 1
  }
  param {
    lr_mult: 2
    decay_mult: 0
  }
  convolution_param {
    num_output: 512
    pad: 1
    kernel_size: 3
    weight_filler {
      type: "gaussian"
      std: 0.01
    }
    bias_filler {
      type: "constant"
      value: 0
    }
  }
}
layer {
  name: "relu4_3"
  type: "ReLU"
  bottom: "conv4_3"
  top: "conv4_3"
}
layer {
  name: "pool4"
  type: "Pooling"
  bottom: "conv4_3"
  top: "pool4"
  pooling_param {
    pool: MAX
    kernel_size: 2
    stride: 2
  }
}
layer {
  name: "conv5_1"
  type: "Convolution"
  bottom: "pool4"
  top: "conv5_1"
  param {
    lr_mult: 1
    decay_mult: 1
  }
  param {
    lr_mult: 2
    decay_mult: 0
  }
  convolution_param {
    num_output: 512
    pad: 1
    kernel_size: 3
    weight_filler {
      type: "gaussian"
      std: 0.01
    }
    bias_filler {
      type: "constant"
      value: 0
    }
  }
}
layer {
  name: "relu5_1"
  type: "ReLU"
  bottom: "conv5_1"
  top: "conv5_1"
}
layer {
  name: "conv5_2"
  type: "Convolution"
  bottom: "conv5_1"
  top: "conv5_2"
  param {
    lr_mult: 1
    decay_mult: 1
  }
  param {
    lr_mult: 2
    decay_mult: 0
  }
  convolution_param {
    num_output: 512
    pad: 1
    kernel_size: 3
    weight_filler {
      type: "gaussian"
      std: 0.01
    }
    bias_filler {
      type: "constant"
      value: 0
    }
  }
}
layer {
  name: "relu5_2"
  type: "ReLU"
  bottom: "conv5_2"
  top: "conv5_2"
}
layer {
  name: "conv5_3"
  type: "Convolution"
  bottom: "conv5_2"
  top: "conv5_3"
  param {
    lr_mult: 1
    decay_mult: 1
  }
  param {
    lr_mult: 2
    decay_mult: 0
  }
  convolution_param {
    num_output: 512
    pad: 1
    kernel_size: 3
    weight_filler {
      type: "gaussian"
      std: 0.01
    }
    bias_filler {
      type: "constant"
      value: 0
    }
  }
}
layer {
  name: "relu5_3"
  type: "ReLU"
  bottom: "conv5_3"
  top: "conv5_3"
}
layer {
  name: "pool5"
  type: "Pooling"
  bottom: "conv5_3"
  top: "pool5"
  pooling_param {
    pool: MAX
    kernel_size: 2
    stride: 2
  }
}
layer {
  name: "fc6"
  type: "InnerProduct"
  bottom: "pool5"
  top: "fc6"
  param {
    lr_mult: 1
    decay_mult: 1
  }
  param {
    lr_mult: 2
    decay_mult: 0
  }
  inner_product_param {
    num_output: 4096
    weight_filler {
      type: "gaussian"
      std: 0.005
    }
    bias_filler {
      type: "constant"
      value: 0.1
    }
  }
}
layer {
  name: "relu6"
  type: "ReLU"
  bottom: "fc6"
  top: "fc6"
}
layer {
  name: "drop6"
  type: "Dropout"
  bottom: "fc6"
  top: "fc6"
  dropout_param {
    dropout_ratio: 0.5
  }
}
layer {
  name: "fc7"
  type: "InnerProduct"
  bottom: "fc6"
  top: "fc7"
  param {
    lr_mult: 1
    decay_mult: 1
  }
  param {
    lr_mult: 2
    decay_mult: 0
  }
  inner_product_param {
    num_output: 4096
    weight_filler {
      type: "gaussian"
      std: 0.005
    }
    bias_filler {
      type: "constant"
      value: 0.1
    }
  }
}
layer {
  name: "relu7"
  type: "ReLU"
  bottom: "fc7"
  top: "fc7"
}
layer {
  name: "drop7"
  type: "Dropout"
  bottom: "fc7"
  top: "fc7"
  dropout_param {
    dropout_ratio: 0.5
  }
}
layer {
  name: "fc_binary_Color_f24"
  type: "InnerProduct"
  bottom: "fc7"
  top: "fc_binary_Color_f24"
  param {
    lr_mult: 10
    decay_mult: 1
  }
  param {
    lr_mult: 20
    decay_mult: 0
  }
  inner_product_param {
    num_output: 24
    weight_filler {
      type: "gaussian"
      std: 0.005
    }
    bias_filler {
      type: "constant"
      value: 0.1
    }
  }
}
layer {
  name: "fc_classification_Color"
  type: "InnerProduct"
  bottom: "fc7"
  top: "fc_classification_Color"
  param {
    lr_mult: 1
    decay_mult: 1
  }
  param {
    lr_mult: 2
    decay_mult: 0
  }
  inner_product_param {
    num_output: 8
    weight_filler {
      type: "gaussian"
      std: 0.05
    }
    bias_filler {
      type: "constant"
      value: 0.1
    }
  }
}
layer {
  name: "loss_hashing"
  type: "HashingLoss"
  bottom: "fc_binary_Color_f24"
  bottom: "label"
  top: "loss_hashing"
  loss_weight: 0.1
  hashing_loss_param {
    bi_margin: 48
    tradeoff: 0.01
  }
}
layer {
  name: "loss_classification"
  type: "SoftmaxWithLoss"
  bottom: "fc_classification_Color"
  bottom: "label"
  top: "loss_classification"
}
I0919 15:50:39.820894 38839 layer_factory.hpp:77] Creating layer data
I0919 15:50:39.821558 38839 net.cpp:91] Creating Layer data
I0919 15:50:39.821597 38839 net.cpp:399] data -> data
I0919 15:50:39.821674 38839 net.cpp:399] data -> label
I0919 15:50:39.822592 38844 db_lmdb.cpp:38] Opened lmdb COLOR/color_train_lmdb/
I0919 15:50:39.838567 38839 data_layer.cpp:41] output data size: 10,3,224,224
I0919 15:50:39.851289 38839 net.cpp:141] Setting up data
I0919 15:50:39.851374 38839 net.cpp:148] Top shape: 10 3 224 224 (1505280)
I0919 15:50:39.851397 38839 net.cpp:148] Top shape: 10 1 1 1 (10)
I0919 15:50:39.851414 38839 net.cpp:156] Memory required for data: 6021160
I0919 15:50:39.851442 38839 layer_factory.hpp:77] Creating layer label_data_1_split
I0919 15:50:39.851476 38839 net.cpp:91] Creating Layer label_data_1_split
I0919 15:50:39.851500 38839 net.cpp:425] label_data_1_split <- label
I0919 15:50:39.851536 38839 net.cpp:399] label_data_1_split -> label_data_1_split_0
I0919 15:50:39.851564 38839 net.cpp:399] label_data_1_split -> label_data_1_split_1
I0919 15:50:39.851639 38839 net.cpp:141] Setting up label_data_1_split
I0919 15:50:39.851663 38839 net.cpp:148] Top shape: 10 1 1 1 (10)
I0919 15:50:39.851681 38839 net.cpp:148] Top shape: 10 1 1 1 (10)
I0919 15:50:39.851696 38839 net.cpp:156] Memory required for data: 6021240
I0919 15:50:39.851712 38839 layer_factory.hpp:77] Creating layer conv1_1
I0919 15:50:39.851758 38839 net.cpp:91] Creating Layer conv1_1
I0919 15:50:39.851776 38839 net.cpp:425] conv1_1 <- data
I0919 15:50:39.851799 38839 net.cpp:399] conv1_1 -> conv1_1
I0919 15:50:39.854044 38839 net.cpp:141] Setting up conv1_1
I0919 15:50:39.854079 38839 net.cpp:148] Top shape: 10 64 224 224 (32112640)
I0919 15:50:39.854095 38839 net.cpp:156] Memory required for data: 134471800
I0919 15:50:39.854128 38839 layer_factory.hpp:77] Creating layer relu1_1
I0919 15:50:39.854156 38839 net.cpp:91] Creating Layer relu1_1
I0919 15:50:39.854173 38839 net.cpp:425] relu1_1 <- conv1_1
I0919 15:50:39.854192 38839 net.cpp:386] relu1_1 -> conv1_1 (in-place)
I0919 15:50:39.854260 38839 net.cpp:141] Setting up relu1_1
I0919 15:50:39.854281 38839 net.cpp:148] Top shape: 10 64 224 224 (32112640)
I0919 15:50:39.854297 38839 net.cpp:156] Memory required for data: 262922360
I0919 15:50:39.854313 38839 layer_factory.hpp:77] Creating layer conv1_2
I0919 15:50:39.854341 38839 net.cpp:91] Creating Layer conv1_2
I0919 15:50:39.854358 38839 net.cpp:425] conv1_2 <- conv1_1
I0919 15:50:39.854382 38839 net.cpp:399] conv1_2 -> conv1_2
I0919 15:50:39.856035 38839 net.cpp:141] Setting up conv1_2
I0919 15:50:39.856063 38839 net.cpp:148] Top shape: 10 64 224 224 (32112640)
I0919 15:50:39.856081 38839 net.cpp:156] Memory required for data: 391372920
I0919 15:50:39.856103 38839 layer_factory.hpp:77] Creating layer relu1_2
I0919 15:50:39.856124 38839 net.cpp:91] Creating Layer relu1_2
I0919 15:50:39.856140 38839 net.cpp:425] relu1_2 <- conv1_2
I0919 15:50:39.856158 38839 net.cpp:386] relu1_2 -> conv1_2 (in-place)
I0919 15:50:39.856178 38839 net.cpp:141] Setting up relu1_2
I0919 15:50:39.856197 38839 net.cpp:148] Top shape: 10 64 224 224 (32112640)
I0919 15:50:39.856214 38839 net.cpp:156] Memory required for data: 519823480
I0919 15:50:39.856228 38839 layer_factory.hpp:77] Creating layer pool1
I0919 15:50:39.856252 38839 net.cpp:91] Creating Layer pool1
I0919 15:50:39.856271 38839 net.cpp:425] pool1 <- conv1_2
I0919 15:50:39.856288 38839 net.cpp:399] pool1 -> pool1
I0919 15:50:39.856360 38839 net.cpp:141] Setting up pool1
I0919 15:50:39.856385 38839 net.cpp:148] Top shape: 10 64 112 112 (8028160)
I0919 15:50:39.856401 38839 net.cpp:156] Memory required for data: 551936120
I0919 15:50:39.856417 38839 layer_factory.hpp:77] Creating layer conv2_1
I0919 15:50:39.856446 38839 net.cpp:91] Creating Layer conv2_1
I0919 15:50:39.856463 38839 net.cpp:425] conv2_1 <- pool1
I0919 15:50:39.856483 38839 net.cpp:399] conv2_1 -> conv2_1
I0919 15:50:39.860842 38839 net.cpp:141] Setting up conv2_1
I0919 15:50:39.860877 38839 net.cpp:148] Top shape: 10 128 112 112 (16056320)
I0919 15:50:39.860895 38839 net.cpp:156] Memory required for data: 616161400
I0919 15:50:39.860924 38839 layer_factory.hpp:77] Creating layer relu2_1
I0919 15:50:39.860947 38839 net.cpp:91] Creating Layer relu2_1
I0919 15:50:39.860965 38839 net.cpp:425] relu2_1 <- conv2_1
I0919 15:50:39.860987 38839 net.cpp:386] relu2_1 -> conv2_1 (in-place)
I0919 15:50:39.861009 38839 net.cpp:141] Setting up relu2_1
I0919 15:50:39.861027 38839 net.cpp:148] Top shape: 10 128 112 112 (16056320)
I0919 15:50:39.861043 38839 net.cpp:156] Memory required for data: 680386680
I0919 15:50:39.861059 38839 layer_factory.hpp:77] Creating layer conv2_2
I0919 15:50:39.861083 38839 net.cpp:91] Creating Layer conv2_2
I0919 15:50:39.861099 38839 net.cpp:425] conv2_2 <- conv2_1
I0919 15:50:39.861122 38839 net.cpp:399] conv2_2 -> conv2_2
I0919 15:50:39.866888 38839 net.cpp:141] Setting up conv2_2
I0919 15:50:39.866921 38839 net.cpp:148] Top shape: 10 128 112 112 (16056320)
I0919 15:50:39.866938 38839 net.cpp:156] Memory required for data: 744611960
I0919 15:50:39.866958 38839 layer_factory.hpp:77] Creating layer relu2_2
I0919 15:50:39.866978 38839 net.cpp:91] Creating Layer relu2_2
I0919 15:50:39.866996 38839 net.cpp:425] relu2_2 <- conv2_2
I0919 15:50:39.867012 38839 net.cpp:386] relu2_2 -> conv2_2 (in-place)
I0919 15:50:39.867033 38839 net.cpp:141] Setting up relu2_2
I0919 15:50:39.867051 38839 net.cpp:148] Top shape: 10 128 112 112 (16056320)
I0919 15:50:39.867067 38839 net.cpp:156] Memory required for data: 808837240
I0919 15:50:39.867084 38839 layer_factory.hpp:77] Creating layer pool2
I0919 15:50:39.867108 38839 net.cpp:91] Creating Layer pool2
I0919 15:50:39.867125 38839 net.cpp:425] pool2 <- conv2_2
I0919 15:50:39.867144 38839 net.cpp:399] pool2 -> pool2
I0919 15:50:39.867202 38839 net.cpp:141] Setting up pool2
I0919 15:50:39.867226 38839 net.cpp:148] Top shape: 10 128 56 56 (4014080)
I0919 15:50:39.867242 38839 net.cpp:156] Memory required for data: 824893560
I0919 15:50:39.867259 38839 layer_factory.hpp:77] Creating layer conv3_1
I0919 15:50:39.867317 38839 net.cpp:91] Creating Layer conv3_1
I0919 15:50:39.867336 38839 net.cpp:425] conv3_1 <- pool2
I0919 15:50:39.867357 38839 net.cpp:399] conv3_1 -> conv3_1
I0919 15:50:39.879369 38839 net.cpp:141] Setting up conv3_1
I0919 15:50:39.879410 38839 net.cpp:148] Top shape: 10 256 56 56 (8028160)
I0919 15:50:39.879426 38839 net.cpp:156] Memory required for data: 857006200
I0919 15:50:39.879457 38839 layer_factory.hpp:77] Creating layer relu3_1
I0919 15:50:39.879480 38839 net.cpp:91] Creating Layer relu3_1
I0919 15:50:39.879498 38839 net.cpp:425] relu3_1 <- conv3_1
I0919 15:50:39.879519 38839 net.cpp:386] relu3_1 -> conv3_1 (in-place)
I0919 15:50:39.879542 38839 net.cpp:141] Setting up relu3_1
I0919 15:50:39.879561 38839 net.cpp:148] Top shape: 10 256 56 56 (8028160)
I0919 15:50:39.879576 38839 net.cpp:156] Memory required for data: 889118840
I0919 15:50:39.879592 38839 layer_factory.hpp:77] Creating layer conv3_2
I0919 15:50:39.879619 38839 net.cpp:91] Creating Layer conv3_2
I0919 15:50:39.879637 38839 net.cpp:425] conv3_2 <- conv3_1
I0919 15:50:39.879657 38839 net.cpp:399] conv3_2 -> conv3_2
I0919 15:50:39.903159 38839 net.cpp:141] Setting up conv3_2
I0919 15:50:39.903193 38839 net.cpp:148] Top shape: 10 256 56 56 (8028160)
I0919 15:50:39.903211 38839 net.cpp:156] Memory required for data: 921231480
I0919 15:50:39.903231 38839 layer_factory.hpp:77] Creating layer relu3_2
I0919 15:50:39.903252 38839 net.cpp:91] Creating Layer relu3_2
I0919 15:50:39.903268 38839 net.cpp:425] relu3_2 <- conv3_2
I0919 15:50:39.903287 38839 net.cpp:386] relu3_2 -> conv3_2 (in-place)
I0919 15:50:39.903307 38839 net.cpp:141] Setting up relu3_2
I0919 15:50:39.903326 38839 net.cpp:148] Top shape: 10 256 56 56 (8028160)
I0919 15:50:39.903342 38839 net.cpp:156] Memory required for data: 953344120
I0919 15:50:39.903357 38839 layer_factory.hpp:77] Creating layer conv3_3
I0919 15:50:39.903390 38839 net.cpp:91] Creating Layer conv3_3
I0919 15:50:39.903409 38839 net.cpp:425] conv3_3 <- conv3_2
I0919 15:50:39.903431 38839 net.cpp:399] conv3_3 -> conv3_3
I0919 15:50:39.926863 38839 net.cpp:141] Setting up conv3_3
I0919 15:50:39.926894 38839 net.cpp:148] Top shape: 10 256 56 56 (8028160)
I0919 15:50:39.926911 38839 net.cpp:156] Memory required for data: 985456760
I0919 15:50:39.926933 38839 layer_factory.hpp:77] Creating layer relu3_3
I0919 15:50:39.926952 38839 net.cpp:91] Creating Layer relu3_3
I0919 15:50:39.926973 38839 net.cpp:425] relu3_3 <- conv3_3
I0919 15:50:39.926991 38839 net.cpp:386] relu3_3 -> conv3_3 (in-place)
I0919 15:50:39.927012 38839 net.cpp:141] Setting up relu3_3
I0919 15:50:39.927031 38839 net.cpp:148] Top shape: 10 256 56 56 (8028160)
I0919 15:50:39.927047 38839 net.cpp:156] Memory required for data: 1017569400
I0919 15:50:39.927062 38839 layer_factory.hpp:77] Creating layer pool3
I0919 15:50:39.927083 38839 net.cpp:91] Creating Layer pool3
I0919 15:50:39.927098 38839 net.cpp:425] pool3 <- conv3_3
I0919 15:50:39.927116 38839 net.cpp:399] pool3 -> pool3
I0919 15:50:39.927177 38839 net.cpp:141] Setting up pool3
I0919 15:50:39.927201 38839 net.cpp:148] Top shape: 10 256 28 28 (2007040)
I0919 15:50:39.927217 38839 net.cpp:156] Memory required for data: 1025597560
I0919 15:50:39.927233 38839 layer_factory.hpp:77] Creating layer conv4_1
I0919 15:50:39.927259 38839 net.cpp:91] Creating Layer conv4_1
I0919 15:50:39.927276 38839 net.cpp:425] conv4_1 <- pool3
I0919 15:50:39.927299 38839 net.cpp:399] conv4_1 -> conv4_1
I0919 15:50:39.974401 38839 net.cpp:141] Setting up conv4_1
I0919 15:50:39.974434 38839 net.cpp:148] Top shape: 10 512 28 28 (4014080)
I0919 15:50:39.974452 38839 net.cpp:156] Memory required for data: 1041653880
I0919 15:50:39.974472 38839 layer_factory.hpp:77] Creating layer relu4_1
I0919 15:50:39.974493 38839 net.cpp:91] Creating Layer relu4_1
I0919 15:50:39.974510 38839 net.cpp:425] relu4_1 <- conv4_1
I0919 15:50:39.974529 38839 net.cpp:386] relu4_1 -> conv4_1 (in-place)
I0919 15:50:39.974548 38839 net.cpp:141] Setting up relu4_1
I0919 15:50:39.974567 38839 net.cpp:148] Top shape: 10 512 28 28 (4014080)
I0919 15:50:39.974627 38839 net.cpp:156] Memory required for data: 1057710200
I0919 15:50:39.974643 38839 layer_factory.hpp:77] Creating layer conv4_2
I0919 15:50:39.974670 38839 net.cpp:91] Creating Layer conv4_2
I0919 15:50:39.974689 38839 net.cpp:425] conv4_2 <- conv4_1
I0919 15:50:39.974711 38839 net.cpp:399] conv4_2 -> conv4_2
I0919 15:50:40.067508 38839 net.cpp:141] Setting up conv4_2
I0919 15:50:40.067556 38839 net.cpp:148] Top shape: 10 512 28 28 (4014080)
I0919 15:50:40.067580 38839 net.cpp:156] Memory required for data: 1073766520
I0919 15:50:40.067610 38839 layer_factory.hpp:77] Creating layer relu4_2
I0919 15:50:40.067633 38839 net.cpp:91] Creating Layer relu4_2
I0919 15:50:40.067651 38839 net.cpp:425] relu4_2 <- conv4_2
I0919 15:50:40.067670 38839 net.cpp:386] relu4_2 -> conv4_2 (in-place)
I0919 15:50:40.067692 38839 net.cpp:141] Setting up relu4_2
I0919 15:50:40.067710 38839 net.cpp:148] Top shape: 10 512 28 28 (4014080)
I0919 15:50:40.067725 38839 net.cpp:156] Memory required for data: 1089822840
I0919 15:50:40.067741 38839 layer_factory.hpp:77] Creating layer conv4_3
I0919 15:50:40.067767 38839 net.cpp:91] Creating Layer conv4_3
I0919 15:50:40.067786 38839 net.cpp:425] conv4_3 <- conv4_2
I0919 15:50:40.067806 38839 net.cpp:399] conv4_3 -> conv4_3
I0919 15:50:40.160640 38839 net.cpp:141] Setting up conv4_3
I0919 15:50:40.160699 38839 net.cpp:148] Top shape: 10 512 28 28 (4014080)
I0919 15:50:40.160719 38839 net.cpp:156] Memory required for data: 1105879160
I0919 15:50:40.160742 38839 layer_factory.hpp:77] Creating layer relu4_3
I0919 15:50:40.160764 38839 net.cpp:91] Creating Layer relu4_3
I0919 15:50:40.160781 38839 net.cpp:425] relu4_3 <- conv4_3
I0919 15:50:40.160800 38839 net.cpp:386] relu4_3 -> conv4_3 (in-place)
I0919 15:50:40.160823 38839 net.cpp:141] Setting up relu4_3
I0919 15:50:40.160842 38839 net.cpp:148] Top shape: 10 512 28 28 (4014080)
I0919 15:50:40.160858 38839 net.cpp:156] Memory required for data: 1121935480
I0919 15:50:40.160873 38839 layer_factory.hpp:77] Creating layer pool4
I0919 15:50:40.160894 38839 net.cpp:91] Creating Layer pool4
I0919 15:50:40.160910 38839 net.cpp:425] pool4 <- conv4_3
I0919 15:50:40.160933 38839 net.cpp:399] pool4 -> pool4
I0919 15:50:40.160992 38839 net.cpp:141] Setting up pool4
I0919 15:50:40.161015 38839 net.cpp:148] Top shape: 10 512 14 14 (1003520)
I0919 15:50:40.161031 38839 net.cpp:156] Memory required for data: 1125949560
I0919 15:50:40.161047 38839 layer_factory.hpp:77] Creating layer conv5_1
I0919 15:50:40.161078 38839 net.cpp:91] Creating Layer conv5_1
I0919 15:50:40.161097 38839 net.cpp:425] conv5_1 <- pool4
I0919 15:50:40.161116 38839 net.cpp:399] conv5_1 -> conv5_1
I0919 15:50:40.254127 38839 net.cpp:141] Setting up conv5_1
I0919 15:50:40.254168 38839 net.cpp:148] Top shape: 10 512 14 14 (1003520)
I0919 15:50:40.254185 38839 net.cpp:156] Memory required for data: 1129963640
I0919 15:50:40.254204 38839 layer_factory.hpp:77] Creating layer relu5_1
I0919 15:50:40.254225 38839 net.cpp:91] Creating Layer relu5_1
I0919 15:50:40.254247 38839 net.cpp:425] relu5_1 <- conv5_1
I0919 15:50:40.254266 38839 net.cpp:386] relu5_1 -> conv5_1 (in-place)
I0919 15:50:40.254288 38839 net.cpp:141] Setting up relu5_1
I0919 15:50:40.254307 38839 net.cpp:148] Top shape: 10 512 14 14 (1003520)
I0919 15:50:40.254323 38839 net.cpp:156] Memory required for data: 1133977720
I0919 15:50:40.254339 38839 layer_factory.hpp:77] Creating layer conv5_2
I0919 15:50:40.254369 38839 net.cpp:91] Creating Layer conv5_2
I0919 15:50:40.254386 38839 net.cpp:425] conv5_2 <- conv5_1
I0919 15:50:40.254406 38839 net.cpp:399] conv5_2 -> conv5_2
I0919 15:50:40.347517 38839 net.cpp:141] Setting up conv5_2
I0919 15:50:40.347565 38839 net.cpp:148] Top shape: 10 512 14 14 (1003520)
I0919 15:50:40.347584 38839 net.cpp:156] Memory required for data: 1137991800
I0919 15:50:40.347604 38839 layer_factory.hpp:77] Creating layer relu5_2
I0919 15:50:40.347626 38839 net.cpp:91] Creating Layer relu5_2
I0919 15:50:40.347645 38839 net.cpp:425] relu5_2 <- conv5_2
I0919 15:50:40.347664 38839 net.cpp:386] relu5_2 -> conv5_2 (in-place)
I0919 15:50:40.347730 38839 net.cpp:141] Setting up relu5_2
I0919 15:50:40.347751 38839 net.cpp:148] Top shape: 10 512 14 14 (1003520)
I0919 15:50:40.347767 38839 net.cpp:156] Memory required for data: 1142005880
I0919 15:50:40.347782 38839 layer_factory.hpp:77] Creating layer conv5_3
I0919 15:50:40.347810 38839 net.cpp:91] Creating Layer conv5_3
I0919 15:50:40.347827 38839 net.cpp:425] conv5_3 <- conv5_2
I0919 15:50:40.347851 38839 net.cpp:399] conv5_3 -> conv5_3
I0919 15:50:40.440979 38839 net.cpp:141] Setting up conv5_3
I0919 15:50:40.441023 38839 net.cpp:148] Top shape: 10 512 14 14 (1003520)
I0919 15:50:40.441040 38839 net.cpp:156] Memory required for data: 1146019960
I0919 15:50:40.441063 38839 layer_factory.hpp:77] Creating layer relu5_3
I0919 15:50:40.441084 38839 net.cpp:91] Creating Layer relu5_3
I0919 15:50:40.441102 38839 net.cpp:425] relu5_3 <- conv5_3
I0919 15:50:40.441124 38839 net.cpp:386] relu5_3 -> conv5_3 (in-place)
I0919 15:50:40.441148 38839 net.cpp:141] Setting up relu5_3
I0919 15:50:40.441167 38839 net.cpp:148] Top shape: 10 512 14 14 (1003520)
I0919 15:50:40.441182 38839 net.cpp:156] Memory required for data: 1150034040
I0919 15:50:40.441198 38839 layer_factory.hpp:77] Creating layer pool5
I0919 15:50:40.441226 38839 net.cpp:91] Creating Layer pool5
I0919 15:50:40.441242 38839 net.cpp:425] pool5 <- conv5_3
I0919 15:50:40.441264 38839 net.cpp:399] pool5 -> pool5
I0919 15:50:40.441329 38839 net.cpp:141] Setting up pool5
I0919 15:50:40.441352 38839 net.cpp:148] Top shape: 10 512 7 7 (250880)
I0919 15:50:40.441370 38839 net.cpp:156] Memory required for data: 1151037560
I0919 15:50:40.441385 38839 layer_factory.hpp:77] Creating layer fc6
I0919 15:50:40.441419 38839 net.cpp:91] Creating Layer fc6
I0919 15:50:40.441437 38839 net.cpp:425] fc6 <- pool5
I0919 15:50:40.441460 38839 net.cpp:399] fc6 -> fc6
I0919 15:50:44.351019 38839 net.cpp:141] Setting up fc6
I0919 15:50:44.351105 38839 net.cpp:148] Top shape: 10 4096 (40960)
I0919 15:50:44.351124 38839 net.cpp:156] Memory required for data: 1151201400
I0919 15:50:44.351160 38839 layer_factory.hpp:77] Creating layer relu6
I0919 15:50:44.351200 38839 net.cpp:91] Creating Layer relu6
I0919 15:50:44.351227 38839 net.cpp:425] relu6 <- fc6
I0919 15:50:44.351253 38839 net.cpp:386] relu6 -> fc6 (in-place)
I0919 15:50:44.351279 38839 net.cpp:141] Setting up relu6
I0919 15:50:44.351297 38839 net.cpp:148] Top shape: 10 4096 (40960)
I0919 15:50:44.351316 38839 net.cpp:156] Memory required for data: 1151365240
I0919 15:50:44.351333 38839 layer_factory.hpp:77] Creating layer drop6
I0919 15:50:44.351366 38839 net.cpp:91] Creating Layer drop6
I0919 15:50:44.351383 38839 net.cpp:425] drop6 <- fc6
I0919 15:50:44.351402 38839 net.cpp:386] drop6 -> fc6 (in-place)
I0919 15:50:44.351467 38839 net.cpp:141] Setting up drop6
I0919 15:50:44.351490 38839 net.cpp:148] Top shape: 10 4096 (40960)
I0919 15:50:44.351507 38839 net.cpp:156] Memory required for data: 1151529080
I0919 15:50:44.351523 38839 layer_factory.hpp:77] Creating layer fc7
I0919 15:50:44.351547 38839 net.cpp:91] Creating Layer fc7
I0919 15:50:44.351563 38839 net.cpp:425] fc7 <- fc6
I0919 15:50:44.351585 38839 net.cpp:399] fc7 -> fc7
I0919 15:50:44.999608 38839 net.cpp:141] Setting up fc7
I0919 15:50:44.999681 38839 net.cpp:148] Top shape: 10 4096 (40960)
I0919 15:50:44.999698 38839 net.cpp:156] Memory required for data: 1151692920
I0919 15:50:44.999723 38839 layer_factory.hpp:77] Creating layer relu7
I0919 15:50:44.999752 38839 net.cpp:91] Creating Layer relu7
I0919 15:50:44.999773 38839 net.cpp:425] relu7 <- fc7
I0919 15:50:44.999800 38839 net.cpp:386] relu7 -> fc7 (in-place)
I0919 15:50:44.999827 38839 net.cpp:141] Setting up relu7
I0919 15:50:44.999846 38839 net.cpp:148] Top shape: 10 4096 (40960)
I0919 15:50:44.999864 38839 net.cpp:156] Memory required for data: 1151856760
I0919 15:50:44.999879 38839 layer_factory.hpp:77] Creating layer drop7
I0919 15:50:44.999902 38839 net.cpp:91] Creating Layer drop7
I0919 15:50:44.999918 38839 net.cpp:425] drop7 <- fc7
I0919 15:50:44.999939 38839 net.cpp:386] drop7 -> fc7 (in-place)
I0919 15:50:45.000032 38839 net.cpp:141] Setting up drop7
I0919 15:50:45.000056 38839 net.cpp:148] Top shape: 10 4096 (40960)
I0919 15:50:45.000072 38839 net.cpp:156] Memory required for data: 1152020600
I0919 15:50:45.000088 38839 layer_factory.hpp:77] Creating layer fc7_drop7_0_split
I0919 15:50:45.000113 38839 net.cpp:91] Creating Layer fc7_drop7_0_split
I0919 15:50:45.000129 38839 net.cpp:425] fc7_drop7_0_split <- fc7
I0919 15:50:45.000147 38839 net.cpp:399] fc7_drop7_0_split -> fc7_drop7_0_split_0
I0919 15:50:45.000169 38839 net.cpp:399] fc7_drop7_0_split -> fc7_drop7_0_split_1
I0919 15:50:45.000223 38839 net.cpp:141] Setting up fc7_drop7_0_split
I0919 15:50:45.000247 38839 net.cpp:148] Top shape: 10 4096 (40960)
I0919 15:50:45.000263 38839 net.cpp:148] Top shape: 10 4096 (40960)
I0919 15:50:45.000278 38839 net.cpp:156] Memory required for data: 1152348280
I0919 15:50:45.000295 38839 layer_factory.hpp:77] Creating layer fc_binary_Color_f24
I0919 15:50:45.000321 38839 net.cpp:91] Creating Layer fc_binary_Color_f24
I0919 15:50:45.000339 38839 net.cpp:425] fc_binary_Color_f24 <- fc7_drop7_0_split_0
I0919 15:50:45.000360 38839 net.cpp:399] fc_binary_Color_f24 -> fc_binary_Color_f24
I0919 15:50:45.004822 38839 net.cpp:141] Setting up fc_binary_Color_f24
I0919 15:50:45.004851 38839 net.cpp:148] Top shape: 10 24 (240)
I0919 15:50:45.004869 38839 net.cpp:156] Memory required for data: 1152349240
I0919 15:50:45.004894 38839 layer_factory.hpp:77] Creating layer fc_classification_Color
I0919 15:50:45.004916 38839 net.cpp:91] Creating Layer fc_classification_Color
I0919 15:50:45.004935 38839 net.cpp:425] fc_classification_Color <- fc7_drop7_0_split_1
I0919 15:50:45.004956 38839 net.cpp:399] fc_classification_Color -> fc_classification_Color
I0919 15:50:45.006292 38839 net.cpp:141] Setting up fc_classification_Color
I0919 15:50:45.006319 38839 net.cpp:148] Top shape: 10 8 (80)
I0919 15:50:45.006335 38839 net.cpp:156] Memory required for data: 1152349560
I0919 15:50:45.006379 38839 layer_factory.hpp:77] Creating layer loss_hashing
I0919 15:50:45.006412 38839 net.cpp:91] Creating Layer loss_hashing
I0919 15:50:45.006430 38839 net.cpp:425] loss_hashing <- fc_binary_Color_f24
I0919 15:50:45.006448 38839 net.cpp:425] loss_hashing <- label_data_1_split_0
I0919 15:50:45.006472 38839 net.cpp:399] loss_hashing -> loss_hashing
…
I0919 15:50:45.009212 38839 net.cpp:313] The NetState phase (1) differed from the phase (0) specified by a rule in layer data
I0919 15:50:45.009639 38839 net.cpp:49] Initializing net from parameters: 
name: "docomo_VGG16"
state {
  phase: TEST
}
layer {
  name: "data"
  type: "Data"
  top: "data"
  top: "label"
  include {
    phase: TEST
  }
  transform_param {
    mirror: false
    crop_size: 224
    mean_value: 103.939
    mean_value: 116.779
    mean_value: 123.68
  }
  data_param {
    source: "COLOR/color_val_lmdb/"
    batch_size: 10
    backend: LMDB
  }
}
layer {
  name: "conv1_1"
  type: "Convolution"
  bottom: "data"
  top: "conv1_1"
  param {
    lr_mult: 1
    decay_mult: 1
  }
  param {
    lr_mult: 2
    decay_mult: 0
  }
  convolution_param {
    num_output: 64
    pad: 1
    kernel_size: 3
    weight_filler {
      type: "gaussian"
      std: 0.01
    }
    bias_filler {
      type: "constant"
      value: 0
    }
  }
}
layer {
  name: "relu1_1"
  type: "ReLU"
  bottom: "conv1_1"
  top: "conv1_1"
}
layer {
  name: "conv1_2"
  type: "Convolution"
  bottom: "conv1_1"
  top: "conv1_2"
  param {
    lr_mult: 1
    decay_mult: 1
  }
  param {
    lr_mult: 2
    decay_mult: 0
  }
  convolution_param {
    num_output: 64
    pad: 1
    kernel_size: 3
    weight_filler {
      type: "gaussian"
      std: 0.01
    }
    bias_filler {
      type: "constant"
      value: 0
    }
  }
}
layer {
  name: "relu1_2"
  type: "ReLU"
  bottom: "conv1_2"
  top: "conv1_2"
}
layer {
  name: "pool1"
  type: "Pooling"
  bottom: "conv1_2"
  top: "pool1"
  pooling_param {
    pool: MAX
    kernel_size: 2
    stride: 2
  }
}
layer {
  name: "conv2_1"
  type: "Convolution"
  bottom: "pool1"
  top: "conv2_1"
  param {
    lr_mult: 1
    decay_mult: 1
  }
  param {
    lr_mult: 2
    decay_mult: 0
  }
  convolution_param {
    num_output: 128
    pad: 1
    kernel_size: 3
    weight_filler {
      type: "gaussian"
      std: 0.01
    }
    bias_filler {
      type: "constant"
      value: 0
    }
  }
}
layer {
  name: "relu2_1"
  type: "ReLU"
  bottom: "conv2_1"
  top: "conv2_1"
}
layer {
  name: "conv2_2"
  type: "Convolution"
  bottom: "conv2_1"
  top: "conv2_2"
  param {
    lr_mult: 1
    decay_mult: 1
  }
  param {
    lr_mult: 2
    decay_mult: 0
  }
  convolution_param {
    num_output: 128
    pad: 1
    kernel_size: 3
    weight_filler {
      type: "gaussian"
      std: 0.01
    }
    bias_filler {
      type: "constant"
      value: 0
    }
  }
}
layer {
  name: "relu2_2"
  type: "ReLU"
  bottom: "conv2_2"
  top: "conv2_2"
}
layer {
  name: "pool2"
  type: "Pooling"
  bottom: "conv2_2"
  top: "pool2"
  pooling_param {
    pool: MAX
    kernel_size: 2
    stride: 2
  }
}
layer {
  name: "conv3_1"
  type: "Convolution"
  bottom: "pool2"
  top: "conv3_1"
  param {
    lr_mult: 1
    decay_mult: 1
  }
  param {
    lr_mult: 2
    decay_mult: 0
  }
  convolution_param {
    num_output: 256
    pad: 1
    kernel_size: 3
    weight_filler {
      type: "gaussian"
      std: 0.01
    }
    bias_filler {
      type: "constant"
      value: 0
    }
  }
}
layer {
  name: "relu3_1"
  type: "ReLU"
  bottom: "conv3_1"
  top: "conv3_1"
}
layer {
  name: "conv3_2"
  type: "Convolution"
  bottom: "conv3_1"
  top: "conv3_2"
  param {
    lr_mult: 1
    decay_mult: 1
  }
  param {
    lr_mult: 2
    decay_mult: 0
  }
  convolution_param {
    num_output: 256
    pad: 1
    kernel_size: 3
    weight_filler {
      type: "gaussian"
      std: 0.01
    }
    bias_filler {
      type: "constant"
      value: 0
    }
  }
}
layer {
  name: "relu3_2"
  type: "ReLU"
  bottom: "conv3_2"
  top: "conv3_2"
}
layer {
  name: "conv3_3"
  type: "Convolution"
  bottom: "conv3_2"
  top: "conv3_3"
  param {
    lr_mult: 1
    decay_mult: 1
  }
  param {
    lr_mult: 2
    decay_mult: 0
  }
  convolution_param {
    num_output: 256
    pad: 1
    kernel_size: 3
    weight_filler {
      type: "gaussian"
      std: 0.01
    }
    bias_filler {
      type: "constant"
      value: 0
    }
  }
}
layer {
  name: "relu3_3"
  type: "ReLU"
  bottom: "conv3_3"
  top: "conv3_3"
}
layer {
  name: "pool3"
  type: "Pooling"
  bottom: "conv3_3"
  top: "pool3"
  pooling_param {
    pool: MAX
    kernel_size: 2
    stride: 2
  }
}
layer {
  name: "conv4_1"
  type: "Convolution"
  bottom: "pool3"
  top: "conv4_1"
  param {
    lr_mult: 1
    decay_mult: 1
  }
  param {
    lr_mult: 2
    decay_mult: 0
  }
  convolution_param {
    num_output: 512
    pad: 1
    kernel_size: 3
    weight_filler {
      type: "gaussian"
      std: 0.01
    }
    bias_filler {
      type: "constant"
      value: 0
    }
  }
}
layer {
  name: "relu4_1"
  type: "ReLU"
  bottom: "conv4_1"
  top: "conv4_1"
}
layer {
  name: "conv4_2"
  type: "Convolution"
  bottom: "conv4_1"
  top: "conv4_2"
  param {
    lr_mult: 1
    decay_mult: 1
  }
  param {
    lr_mult: 2
    decay_mult: 0
  }
  convolution_param {
    num_output: 512
    pad: 1
    kernel_size: 3
    weight_filler {
      type: "gaussian"
      std: 0.01
    }
    bias_filler {
      type: "constant"
      value: 0
    }
  }
}
layer {
  name: "relu4_2"
  type: "ReLU"
  bottom: "conv4_2"
  top: "conv4_2"
}
layer {
  name: "conv4_3"
  type: "Convolution"
  bottom: "conv4_2"
  top: "conv4_3"
  param {
    lr_mult: 1
    decay_mult: 1
  }
  param {
    lr_mult: 2
    decay_mult: 0
  }
  convolution_param {
    num_output: 512
    pad: 1
    kernel_size: 3
    weight_filler {
      type: "gaussian"
      std: 0.01
    }
    bias_filler {
      type: "constant"
      value: 0
    }
  }
}
layer {
  name: "relu4_3"
  type: "ReLU"
  bottom: "conv4_3"
  top: "conv4_3"
}
layer {
  name: "pool4"
  type: "Pooling"
  bottom: "conv4_3"
  top: "pool4"
  pooling_param {
    pool: MAX
    kernel_size: 2
    stride: 2
  }
}
layer {
  name: "conv5_1"
  type: "Convolution"
  bottom: "pool4"
  top: "conv5_1"
  param {
    lr_mult: 1
    decay_mult: 1
  }
  param {
    lr_mult: 2
    decay_mult: 0
  }
  convolution_param {
    num_output: 512
    pad: 1
    kernel_size: 3
    weight_filler {
      type: "gaussian"
      std: 0.01
    }
    bias_filler {
      type: "constant"
      value: 0
    }
  }
}
layer {
  name: "relu5_1"
  type: "ReLU"
  bottom: "conv5_1"
  top: "conv5_1"
}
layer {
  name: "conv5_2"
  type: "Convolution"
  bottom: "conv5_1"
  top: "conv5_2"
  param {
    lr_mult: 1
    decay_mult: 1
  }
  param {
    lr_mult: 2
    decay_mult: 0
  }
  convolution_param {
    num_output: 512
    pad: 1
    kernel_size: 3
    weight_filler {
      type: "gaussian"
      std: 0.01
    }
    bias_filler {
      type: "constant"
      value: 0
    }
  }
}
layer {
  name: "relu5_2"
  type: "ReLU"
  bottom: "conv5_2"
  top: "conv5_2"
}
layer {
  name: "conv5_3"
  type: "Convolution"
  bottom: "conv5_2"
  top: "conv5_3"
  param {
    lr_mult: 1
    decay_mult: 1
  }
  param {
    lr_mult: 2
    decay_mult: 0
  }
  convolution_param {
    num_output: 512
    pad: 1
    kernel_size: 3
    weight_filler {
      type: "gaussian"
      std: 0.01
    }
    bias_filler {
      type: "constant"
      value: 0
    }
  }
}
layer {
  name: "relu5_3"
  type: "ReLU"
  bottom: "conv5_3"
  top: "conv5_3"
}
layer {
  name: "pool5"
  type: "Pooling"
  bottom: "conv5_3"
  top: "pool5"
  pooling_param {
    pool: MAX
    kernel_size: 2
    stride: 2
  }
}
layer {
  name: "fc6"
  type: "InnerProduct"
  bottom: "pool5"
  top: "fc6"
  param {
    lr_mult: 1
    decay_mult: 1
  }
  param {
    lr_mult: 2
    decay_mult: 0
  }
  inner_product_param {
    num_output: 4096
    weight_filler {
      type: "gaussian"
      std: 0.005
    }
    bias_filler {
      type: "constant"
      value: 0.1
    }
  }
}
layer {
  name: "relu6"
  type: "ReLU"
  bottom: "fc6"
  top: "fc6"
}
layer {
  name: "drop6"
  type: "Dropout"
  bottom: "fc6"
  top: "fc6"
  dropout_param {
    dropout_ratio: 0.5
  }
}
layer {
  name: "fc7"
  type: "InnerProduct"
  bottom: "fc6"
  top: "fc7"
  param {
    lr_mult: 1
    decay_mult: 1
  }
  param {
    lr_mult: 2
    decay_mult: 0
  }
  inner_product_param {
    num_output: 4096
    weight_filler {
      type: "gaussian"
      std: 0.005
    }
    bias_filler {
      type: "constant"
      value: 0.1
    }
  }
}
layer {
  name: "relu7"
  type: "ReLU"
  bottom: "fc7"
  top: "fc7"
}
layer {
  name: "drop7"
  type: "Dropout"
  bottom: "fc7"
  top: "fc7"
  dropout_param {
    dropout_ratio: 0.5
  }
}
layer {
  name: "fc_binary_Color_f24"
  type: "InnerProduct"
  bottom: "fc7"
  top: "fc_binary_Color_f24"
  param {
    lr_mult: 10
    decay_mult: 1
  }
  param {
    lr_mult: 20
    decay_mult: 0
  }
  inner_product_param {
    num_output: 24
    weight_filler {
      type: "gaussian"
      std: 0.005
    }
    bias_filler {
      type: "constant"
      value: 0.1
    }
  }
}
layer {
  name: "fc_classification_Color"
  type: "InnerProduct"
  bottom: "fc7"
  top: "fc_classification_Color"
  param {
    lr_mult: 1
    decay_mult: 1
  }
  param {
    lr_mult: 2
    decay_mult: 0
  }
  inner_product_param {
    num_output: 8
    weight_filler {
      type: "gaussian"
      std: 0.05
    }
    bias_filler {
      type: "constant"
      value: 0.1
    }
  }
}
layer {
  name: "accuracy_at_1_Color"
  type: "Accuracy"
  bottom: "fc_classification_Color"
  bottom: "label"
  top: "accuracy_at_1"
  include {
    phase: TEST
  }
}
layer {
  name: "loss_hashing"
  type: "HashingLoss"
  bottom: "fc_binary_Color_f24"
  bottom: "label"
  top: "loss_hashing"
  loss_weight: 0.1
  hashing_loss_param {
    bi_margin: 48
    tradeoff: 0.01
  }
}
layer {
  name: "loss_classification"
  type: "SoftmaxWithLoss"
  bottom: "fc_classification_Color"
  bottom: "label"
  top: "loss_classification"
}
I0919 15:50:45.013216 38839 layer_factory.hpp:77] Creating layer data
I0919 15:50:45.013348 38839 net.cpp:91] Creating Layer data
I0919 15:50:45.013388 38839 net.cpp:399] data -> data
I0919 15:50:45.013414 38839 net.cpp:399] data -> label
I0919 15:50:45.014614 38862 db_lmdb.cpp:38] Opened lmdb COLOR/color_val_lmdb/
I0919 15:50:45.015048 38839 data_layer.cpp:41] output data size: 10,3,224,224
I0919 15:50:45.027997 38839 net.cpp:141] Setting up data
I0919 15:50:45.028071 38839 net.cpp:148] Top shape: 10 3 224 224 (1505280)
I0919 15:50:45.028100 38839 net.cpp:148] Top shape: 10 1 1 1 (10)
I0919 15:50:45.028120 38839 net.cpp:156] Memory required for data: 6021160
I0919 15:50:45.028146 38839 layer_factory.hpp:77] Creating layer label_data_1_split
I0919 15:50:45.028182 38839 net.cpp:91] Creating Layer label_data_1_split
I0919 15:50:45.028203 38839 net.cpp:425] label_data_1_split <- label
I0919 15:50:45.028228 38839 net.cpp:399] label_data_1_split -> label_data_1_split_0
I0919 15:50:45.028256 38839 net.cpp:399] label_data_1_split -> label_data_1_split_1
I0919 15:50:45.028281 38839 net.cpp:399] label_data_1_split -> label_data_1_split_2
I0919 15:50:45.028375 38839 net.cpp:141] Setting up label_data_1_split
I0919 15:50:45.028400 38839 net.cpp:148] Top shape: 10 1 1 1 (10)
I0919 15:50:45.028419 38839 net.cpp:148] Top shape: 10 1 1 1 (10)
I0919 15:50:45.028439 38839 net.cpp:148] Top shape: 10 1 1 1 (10)
I0919 15:50:45.028455 38839 net.cpp:156] Memory required for data: 6021280
I0919 15:50:45.028471 38839 layer_factory.hpp:77] Creating layer conv1_1
I0919 15:50:45.028506 38839 net.cpp:91] Creating Layer conv1_1
I0919 15:50:45.028525 38839 net.cpp:425] conv1_1 <- data
I0919 15:50:45.028549 38839 net.cpp:399] conv1_1 -> conv1_1
I0919 15:50:45.028970 38839 net.cpp:141] Setting up conv1_1
I0919 15:50:45.028997 38839 net.cpp:148] Top shape: 10 64 224 224 (32112640)
I0919 15:50:45.029019 38839 net.cpp:156] Memory required for data: 134471840
I0919 15:50:45.029047 38839 layer_factory.hpp:77] Creating layer relu1_1
I0919 15:50:45.029079 38839 net.cpp:91] Creating Layer relu1_1
I0919 15:50:45.029099 38839 net.cpp:425] relu1_1 <- conv1_1
I0919 15:50:45.029119 38839 net.cpp:386] relu1_1 -> conv1_1 (in-place)
I0919 15:50:45.029146 38839 net.cpp:141] Setting up relu1_1
I0919 15:50:45.029170 38839 net.cpp:148] Top shape: 10 64 224 224 (32112640)
I0919 15:50:45.029186 38839 net.cpp:156] Memory required for data: 262922400
I0919 15:50:45.029203 38839 layer_factory.hpp:77] Creating layer conv1_2
I0919 15:50:45.029232 38839 net.cpp:91] Creating Layer conv1_2
I0919 15:50:45.029253 38839 net.cpp:425] conv1_2 <- conv1_1
I0919 15:50:45.029278 38839 net.cpp:399] conv1_2 -> conv1_2
I0919 15:50:45.032107 38839 net.cpp:141] Setting up conv1_2
I0919 15:50:45.032148 38839 net.cpp:148] Top shape: 10 64 224 224 (32112640)
I0919 15:50:45.032168 38839 net.cpp:156] Memory required for data: 391372960
I0919 15:50:45.032193 38839 layer_factory.hpp:77] Creating layer relu1_2
I0919 15:50:45.032218 38839 net.cpp:91] Creating Layer relu1_2
I0919 15:50:45.032238 38839 net.cpp:425] relu1_2 <- conv1_2
I0919 15:50:45.032258 38839 net.cpp:386] relu1_2 -> conv1_2 (in-place)
I0919 15:50:45.032279 38839 net.cpp:141] Setting up relu1_2
I0919 15:50:45.032299 38839 net.cpp:148] Top shape: 10 64 224 224 (32112640)
I0919 15:50:45.032316 38839 net.cpp:156] Memory required for data: 519823520
I0919 15:50:45.032332 38839 layer_factory.hpp:77] Creating layer pool1
I0919 15:50:45.032357 38839 net.cpp:91] Creating Layer pool1
I0919 15:50:45.032376 38839 net.cpp:425] pool1 <- conv1_2
I0919 15:50:45.032443 38839 net.cpp:399] pool1 -> pool1
I0919 15:50:45.032511 38839 net.cpp:141] Setting up pool1
I0919 15:50:45.032536 38839 net.cpp:148] Top shape: 10 64 112 112 (8028160)
I0919 15:50:45.032553 38839 net.cpp:156] Memory required for data: 551936160
I0919 15:50:45.032569 38839 layer_factory.hpp:77] Creating layer conv2_1
I0919 15:50:45.032598 38839 net.cpp:91] Creating Layer conv2_1
I0919 15:50:45.032615 38839 net.cpp:425] conv2_1 <- pool1
I0919 15:50:45.032637 38839 net.cpp:399] conv2_1 -> conv2_1
I0919 15:50:45.035696 38839 net.cpp:141] Setting up conv2_1
I0919 15:50:45.035724 38839 net.cpp:148] Top shape: 10 128 112 112 (16056320)
I0919 15:50:45.035742 38839 net.cpp:156] Memory required for data: 616161440
I0919 15:50:45.035766 38839 layer_factory.hpp:77] Creating layer relu2_1
I0919 15:50:45.035790 38839 net.cpp:91] Creating Layer relu2_1
I0919 15:50:45.035809 38839 net.cpp:425] relu2_1 <- conv2_1
I0919 15:50:45.035830 38839 net.cpp:386] relu2_1 -> conv2_1 (in-place)
I0919 15:50:45.035852 38839 net.cpp:141] Setting up relu2_1
I0919 15:50:45.035872 38839 net.cpp:148] Top shape: 10 128 112 112 (16056320)
I0919 15:50:45.035888 38839 net.cpp:156] Memory required for data: 680386720
I0919 15:50:45.035905 38839 layer_factory.hpp:77] Creating layer conv2_2
I0919 15:50:45.035931 38839 net.cpp:91] Creating Layer conv2_2
I0919 15:50:45.035949 38839 net.cpp:425] conv2_2 <- conv2_1
I0919 15:50:45.035970 38839 net.cpp:399] conv2_2 -> conv2_2
I0919 15:50:45.042465 38839 net.cpp:141] Setting up conv2_2
I0919 15:50:45.042502 38839 net.cpp:148] Top shape: 10 128 112 112 (16056320)
I0919 15:50:45.042520 38839 net.cpp:156] Memory required for data: 744612000
I0919 15:50:45.042547 38839 layer_factory.hpp:77] Creating layer relu2_2
I0919 15:50:45.042569 38839 net.cpp:91] Creating Layer relu2_2
I0919 15:50:45.042587 38839 net.cpp:425] relu2_2 <- conv2_2
I0919 15:50:45.042609 38839 net.cpp:386] relu2_2 -> conv2_2 (in-place)
I0919 15:50:45.042630 38839 net.cpp:141] Setting up relu2_2
I0919 15:50:45.042650 38839 net.cpp:148] Top shape: 10 128 112 112 (16056320)
I0919 15:50:45.042666 38839 net.cpp:156] Memory required for data: 808837280
I0919 15:50:45.042682 38839 layer_factory.hpp:77] Creating layer pool2
I0919 15:50:45.042707 38839 net.cpp:91] Creating Layer pool2
I0919 15:50:45.042726 38839 net.cpp:425] pool2 <- conv2_2
I0919 15:50:45.042747 38839 net.cpp:399] pool2 -> pool2
I0919 15:50:45.042811 38839 net.cpp:141] Setting up pool2
I0919 15:50:45.042836 38839 net.cpp:148] Top shape: 10 128 56 56 (4014080)
I0919 15:50:45.042853 38839 net.cpp:156] Memory required for data: 824893600
I0919 15:50:45.042870 38839 layer_factory.hpp:77] Creating layer conv3_1
I0919 15:50:45.042896 38839 net.cpp:91] Creating Layer conv3_1
I0919 15:50:45.042915 38839 net.cpp:425] conv3_1 <- pool2
I0919 15:50:45.042935 38839 net.cpp:399] conv3_1 -> conv3_1
I0919 15:50:45.054949 38839 net.cpp:141] Setting up conv3_1
I0919 15:50:45.054992 38839 net.cpp:148] Top shape: 10 256 56 56 (8028160)
I0919 15:50:45.055011 38839 net.cpp:156] Memory required for data: 857006240
I0919 15:50:45.055043 38839 layer_factory.hpp:77] Creating layer relu3_1
I0919 15:50:45.055066 38839 net.cpp:91] Creating Layer relu3_1
I0919 15:50:45.055085 38839 net.cpp:425] relu3_1 <- conv3_1
I0919 15:50:45.055110 38839 net.cpp:386] relu3_1 -> conv3_1 (in-place)
I0919 15:50:45.055135 38839 net.cpp:141] Setting up relu3_1
I0919 15:50:45.055153 38839 net.cpp:148] Top shape: 10 256 56 56 (8028160)
I0919 15:50:45.055169 38839 net.cpp:156] Memory required for data: 889118880
I0919 15:50:45.055186 38839 layer_factory.hpp:77] Creating layer conv3_2
I0919 15:50:45.055212 38839 net.cpp:91] Creating Layer conv3_2
I0919 15:50:45.055229 38839 net.cpp:425] conv3_2 <- conv3_1
I0919 15:50:45.055248 38839 net.cpp:399] conv3_2 -> conv3_2
I0919 15:50:45.077893 38839 net.cpp:141] Setting up conv3_2
I0919 15:50:45.077926 38839 net.cpp:148] Top shape: 10 256 56 56 (8028160)
I0919 15:50:45.077944 38839 net.cpp:156] Memory required for data: 921231520
I0919 15:50:45.077970 38839 layer_factory.hpp:77] Creating layer relu3_2
I0919 15:50:45.078037 38839 net.cpp:91] Creating Layer relu3_2
I0919 15:50:45.078054 38839 net.cpp:425] relu3_2 <- conv3_2
I0919 15:50:45.078078 38839 net.cpp:386] relu3_2 -> conv3_2 (in-place)
I0919 15:50:45.078099 38839 net.cpp:141] Setting up relu3_2
I0919 15:50:45.078117 38839 net.cpp:148] Top shape: 10 256 56 56 (8028160)
I0919 15:50:45.078132 38839 net.cpp:156] Memory required for data: 953344160
I0919 15:50:45.078148 38839 layer_factory.hpp:77] Creating layer conv3_3
I0919 15:50:45.078177 38839 net.cpp:91] Creating Layer conv3_3
I0919 15:50:45.078197 38839 net.cpp:425] conv3_3 <- conv3_2
I0919 15:50:45.078223 38839 net.cpp:399] conv3_3 -> conv3_3
I0919 15:50:45.100845 38839 net.cpp:141] Setting up conv3_3
I0919 15:50:45.100877 38839 net.cpp:148] Top shape: 10 256 56 56 (8028160)
I0919 15:50:45.100894 38839 net.cpp:156] Memory required for data: 985456800
I0919 15:50:45.100919 38839 layer_factory.hpp:77] Creating layer relu3_3
I0919 15:50:45.100939 38839 net.cpp:91] Creating Layer relu3_3
I0919 15:50:45.100961 38839 net.cpp:425] relu3_3 <- conv3_3
I0919 15:50:45.100982 38839 net.cpp:386] relu3_3 -> conv3_3 (in-place)
I0919 15:50:45.101004 38839 net.cpp:141] Setting up relu3_3
I0919 15:50:45.101022 38839 net.cpp:148] Top shape: 10 256 56 56 (8028160)
I0919 15:50:45.101038 38839 net.cpp:156] Memory required for data: 1017569440
I0919 15:50:45.101054 38839 layer_factory.hpp:77] Creating layer pool3
I0919 15:50:45.101074 38839 net.cpp:91] Creating Layer pool3
I0919 15:50:45.101090 38839 net.cpp:425] pool3 <- conv3_3
I0919 15:50:45.101112 38839 net.cpp:399] pool3 -> pool3
I0919 15:50:45.101173 38839 net.cpp:141] Setting up pool3
I0919 15:50:45.101197 38839 net.cpp:148] Top shape: 10 256 28 28 (2007040)
I0919 15:50:45.101212 38839 net.cpp:156] Memory required for data: 1025597600
I0919 15:50:45.101227 38839 layer_factory.hpp:77] Creating layer conv4_1
I0919 15:50:45.101253 38839 net.cpp:91] Creating Layer conv4_1
I0919 15:50:45.101271 38839 net.cpp:425] conv4_1 <- pool3
I0919 15:50:45.101294 38839 net.cpp:399] conv4_1 -> conv4_1
I0919 15:50:45.146375 38839 net.cpp:141] Setting up conv4_1
I0919 15:50:45.146425 38839 net.cpp:148] Top shape: 10 512 28 28 (4014080)
I0919 15:50:45.146442 38839 net.cpp:156] Memory required for data: 1041653920
I0919 15:50:45.146462 38839 layer_factory.hpp:77] Creating layer relu4_1
I0919 15:50:45.146489 38839 net.cpp:91] Creating Layer relu4_1
I0919 15:50:45.146507 38839 net.cpp:425] relu4_1 <- conv4_1
I0919 15:50:45.146529 38839 net.cpp:386] relu4_1 -> conv4_1 (in-place)
I0919 15:50:45.146551 38839 net.cpp:141] Setting up relu4_1
I0919 15:50:45.146570 38839 net.cpp:148] Top shape: 10 512 28 28 (4014080)
I0919 15:50:45.146585 38839 net.cpp:156] Memory required for data: 1057710240
I0919 15:50:45.146601 38839 layer_factory.hpp:77] Creating layer conv4_2
I0919 15:50:45.146625 38839 net.cpp:91] Creating Layer conv4_2
I0919 15:50:45.146641 38839 net.cpp:425] conv4_2 <- conv4_1
I0919 15:50:45.146663 38839 net.cpp:399] conv4_2 -> conv4_2
I0919 15:50:45.239125 38839 net.cpp:141] Setting up conv4_2
I0919 15:50:45.239189 38839 net.cpp:148] Top shape: 10 512 28 28 (4014080)
I0919 15:50:45.239207 38839 net.cpp:156] Memory required for data: 1073766560
I0919 15:50:45.239236 38839 layer_factory.hpp:77] Creating layer relu4_2
I0919 15:50:45.239262 38839 net.cpp:91] Creating Layer relu4_2
I0919 15:50:45.239281 38839 net.cpp:425] relu4_2 <- conv4_2
I0919 15:50:45.239301 38839 net.cpp:386] relu4_2 -> conv4_2 (in-place)
I0919 15:50:45.239326 38839 net.cpp:141] Setting up relu4_2
I0919 15:50:45.239343 38839 net.cpp:148] Top shape: 10 512 28 28 (4014080)
I0919 15:50:45.239359 38839 net.cpp:156] Memory required for data: 1089822880
I0919 15:50:45.239374 38839 layer_factory.hpp:77] Creating layer conv4_3
I0919 15:50:45.239401 38839 net.cpp:91] Creating Layer conv4_3
I0919 15:50:45.239419 38839 net.cpp:425] conv4_3 <- conv4_2
I0919 15:50:45.239439 38839 net.cpp:399] conv4_3 -> conv4_3
I0919 15:50:45.332475 38839 net.cpp:141] Setting up conv4_3
I0919 15:50:45.332522 38839 net.cpp:148] Top shape: 10 512 28 28 (4014080)
I0919 15:50:45.332584 38839 net.cpp:156] Memory required for data: 1105879200
I0919 15:50:45.332607 38839 layer_factory.hpp:77] Creating layer relu4_3
I0919 15:50:45.332633 38839 net.cpp:91] Creating Layer relu4_3
I0919 15:50:45.332651 38839 net.cpp:425] relu4_3 <- conv4_3
I0919 15:50:45.332671 38839 net.cpp:386] relu4_3 -> conv4_3 (in-place)
I0919 15:50:45.332695 38839 net.cpp:141] Setting up relu4_3
I0919 15:50:45.332712 38839 net.cpp:148] Top shape: 10 512 28 28 (4014080)
I0919 15:50:45.332728 38839 net.cpp:156] Memory required for data: 1121935520
I0919 15:50:45.332743 38839 layer_factory.hpp:77] Creating layer pool4
I0919 15:50:45.332767 38839 net.cpp:91] Creating Layer pool4
I0919 15:50:45.332784 38839 net.cpp:425] pool4 <- conv4_3
I0919 15:50:45.332803 38839 net.cpp:399] pool4 -> pool4
I0919 15:50:45.332871 38839 net.cpp:141] Setting up pool4
I0919 15:50:45.332895 38839 net.cpp:148] Top shape: 10 512 14 14 (1003520)
I0919 15:50:45.332911 38839 net.cpp:156] Memory required for data: 1125949600
I0919 15:50:45.332927 38839 layer_factory.hpp:77] Creating layer conv5_1
I0919 15:50:45.332953 38839 net.cpp:91] Creating Layer conv5_1
I0919 15:50:45.332972 38839 net.cpp:425] conv5_1 <- pool4
I0919 15:50:45.332991 38839 net.cpp:399] conv5_1 -> conv5_1
I0919 15:50:45.426206 38839 net.cpp:141] Setting up conv5_1
I0919 15:50:45.426255 38839 net.cpp:148] Top shape: 10 512 14 14 (1003520)
I0919 15:50:45.426272 38839 net.cpp:156] Memory required for data: 1129963680
I0919 15:50:45.426295 38839 layer_factory.hpp:77] Creating layer relu5_1
I0919 15:50:45.426316 38839 net.cpp:91] Creating Layer relu5_1
I0919 15:50:45.426333 38839 net.cpp:425] relu5_1 <- conv5_1
I0919 15:50:45.426355 38839 net.cpp:386] relu5_1 -> conv5_1 (in-place)
I0919 15:50:45.426378 38839 net.cpp:141] Setting up relu5_1
I0919 15:50:45.426398 38839 net.cpp:148] Top shape: 10 512 14 14 (1003520)
I0919 15:50:45.426414 38839 net.cpp:156] Memory required for data: 1133977760
I0919 15:50:45.426429 38839 layer_factory.hpp:77] Creating layer conv5_2
I0919 15:50:45.426451 38839 net.cpp:91] Creating Layer conv5_2
I0919 15:50:45.426467 38839 net.cpp:425] conv5_2 <- conv5_1
I0919 15:50:45.426489 38839 net.cpp:399] conv5_2 -> conv5_2
I0919 15:50:45.517536 38839 net.cpp:141] Setting up conv5_2
I0919 15:50:45.517588 38839 net.cpp:148] Top shape: 10 512 14 14 (1003520)
I0919 15:50:45.517604 38839 net.cpp:156] Memory required for data: 1137991840
I0919 15:50:45.517629 38839 layer_factory.hpp:77] Creating layer relu5_2
I0919 15:50:45.517653 38839 net.cpp:91] Creating Layer relu5_2
I0919 15:50:45.517675 38839 net.cpp:425] relu5_2 <- conv5_2
I0919 15:50:45.517694 38839 net.cpp:386] relu5_2 -> conv5_2 (in-place)
I0919 15:50:45.517721 38839 net.cpp:141] Setting up relu5_2
I0919 15:50:45.517740 38839 net.cpp:148] Top shape: 10 512 14 14 (1003520)
I0919 15:50:45.517755 38839 net.cpp:156] Memory required for data: 1142005920
I0919 15:50:45.517769 38839 layer_factory.hpp:77] Creating layer conv5_3
I0919 15:50:45.517796 38839 net.cpp:91] Creating Layer conv5_3
I0919 15:50:45.517818 38839 net.cpp:425] conv5_3 <- conv5_2
I0919 15:50:45.517839 38839 net.cpp:399] conv5_3 -> conv5_3
I0919 15:50:45.607116 38839 net.cpp:141] Setting up conv5_3
I0919 15:50:45.607165 38839 net.cpp:148] Top shape: 10 512 14 14 (1003520)
I0919 15:50:45.607180 38839 net.cpp:156] Memory required for data: 1146020000
I0919 15:50:45.607201 38839 layer_factory.hpp:77] Creating layer relu5_3
I0919 15:50:45.607221 38839 net.cpp:91] Creating Layer relu5_3
I0919 15:50:45.607239 38839 net.cpp:425] relu5_3 <- conv5_3
I0919 15:50:45.607259 38839 net.cpp:386] relu5_3 -> conv5_3 (in-place)
I0919 15:50:45.607278 38839 net.cpp:141] Setting up relu5_3
I0919 15:50:45.607300 38839 net.cpp:148] Top shape: 10 512 14 14 (1003520)
I0919 15:50:45.607314 38839 net.cpp:156] Memory required for data: 1150034080
I0919 15:50:45.607328 38839 layer_factory.hpp:77] Creating layer pool5
I0919 15:50:45.607360 38839 net.cpp:91] Creating Layer pool5
I0919 15:50:45.607376 38839 net.cpp:425] pool5 <- conv5_3
I0919 15:50:45.607436 38839 net.cpp:399] pool5 -> pool5
I0919 15:50:45.607501 38839 net.cpp:141] Setting up pool5
I0919 15:50:45.607530 38839 net.cpp:148] Top shape: 10 512 7 7 (250880)
I0919 15:50:45.607547 38839 net.cpp:156] Memory required for data: 1151037600
I0919 15:50:45.607563 38839 layer_factory.hpp:77] Creating layer fc6
I0919 15:50:45.607587 38839 net.cpp:91] Creating Layer fc6
I0919 15:50:45.607606 38839 net.cpp:425] fc6 <- pool5
I0919 15:50:45.607626 38839 net.cpp:399] fc6 -> fc6
I0919 15:50:49.530647 38839 net.cpp:141] Setting up fc6
I0919 15:50:49.530732 38839 net.cpp:148] Top shape: 10 4096 (40960)
I0919 15:50:49.530750 38839 net.cpp:156] Memory required for data: 1151201440
I0919 15:50:49.530789 38839 layer_factory.hpp:77] Creating layer relu6
I0919 15:50:49.530822 38839 net.cpp:91] Creating Layer relu6
I0919 15:50:49.530848 38839 net.cpp:425] relu6 <- fc6
I0919 15:50:49.530874 38839 net.cpp:386] relu6 -> fc6 (in-place)
I0919 15:50:49.530902 38839 net.cpp:141] Setting up relu6
I0919 15:50:49.530920 38839 net.cpp:148] Top shape: 10 4096 (40960)
I0919 15:50:49.530935 38839 net.cpp:156] Memory required for data: 1151365280
I0919 15:50:49.530951 38839 layer_factory.hpp:77] Creating layer drop6
I0919 15:50:49.530969 38839 net.cpp:91] Creating Layer drop6
I0919 15:50:49.530984 38839 net.cpp:425] drop6 <- fc6
I0919 15:50:49.531000 38839 net.cpp:386] drop6 -> fc6 (in-place)
I0919 15:50:49.531059 38839 net.cpp:141] Setting up drop6
I0919 15:50:49.531082 38839 net.cpp:148] Top shape: 10 4096 (40960)
I0919 15:50:49.531101 38839 net.cpp:156] Memory required for data: 1151529120
I0919 15:50:49.531117 38839 layer_factory.hpp:77] Creating layer fc7
I0919 15:50:49.531146 38839 net.cpp:91] Creating Layer fc7
I0919 15:50:49.531165 38839 net.cpp:425] fc7 <- fc6
I0919 15:50:49.531184 38839 net.cpp:399] fc7 -> fc7
I0919 15:50:50.169116 38839 net.cpp:141] Setting up fc7
I0919 15:50:50.169203 38839 net.cpp:148] Top shape: 10 4096 (40960)
I0919 15:50:50.169220 38839 net.cpp:156] Memory required for data: 1151692960
I0919 15:50:50.169258 38839 layer_factory.hpp:77] Creating layer relu7
I0919 15:50:50.169289 38839 net.cpp:91] Creating Layer relu7
I0919 15:50:50.169313 38839 net.cpp:425] relu7 <- fc7
I0919 15:50:50.169338 38839 net.cpp:386] relu7 -> fc7 (in-place)
I0919 15:50:50.169368 38839 net.cpp:141] Setting up relu7
I0919 15:50:50.169384 38839 net.cpp:148] Top shape: 10 4096 (40960)
I0919 15:50:50.169399 38839 net.cpp:156] Memory required for data: 1151856800
I0919 15:50:50.169412 38839 layer_factory.hpp:77] Creating layer drop7
I0919 15:50:50.169433 38839 net.cpp:91] Creating Layer drop7
I0919 15:50:50.169447 38839 net.cpp:425] drop7 <- fc7
I0919 15:50:50.169467 38839 net.cpp:386] drop7 -> fc7 (in-place)
I0919 15:50:50.169535 38839 net.cpp:141] Setting up drop7
I0919 15:50:50.169559 38839 net.cpp:148] Top shape: 10 4096 (40960)
I0919 15:50:50.169575 38839 net.cpp:156] Memory required for data: 1152020640
I0919 15:50:50.169591 38839 layer_factory.hpp:77] Creating layer fc7_drop7_0_split
I0919 15:50:50.169612 38839 net.cpp:91] Creating Layer fc7_drop7_0_split
I0919 15:50:50.169638 38839 net.cpp:425] fc7_drop7_0_split <- fc7
I0919 15:50:50.169656 38839 net.cpp:399] fc7_drop7_0_split -> fc7_drop7_0_split_0
I0919 15:50:50.169677 38839 net.cpp:399] fc7_drop7_0_split -> fc7_drop7_0_split_1
I0919 15:50:50.169739 38839 net.cpp:141] Setting up fc7_drop7_0_split
I0919 15:50:50.169761 38839 net.cpp:148] Top shape: 10 4096 (40960)
I0919 15:50:50.169778 38839 net.cpp:148] Top shape: 10 4096 (40960)
I0919 15:50:50.169792 38839 net.cpp:156] Memory required for data: 1152348320
I0919 15:50:50.169812 38839 layer_factory.hpp:77] Creating layer fc_binary_Color_f24
I0919 15:50:50.169836 38839 net.cpp:91] Creating Layer fc_binary_Color_f24
I0919 15:50:50.169854 38839 net.cpp:425] fc_binary_Color_f24 <- fc7_drop7_0_split_0
I0919 15:50:50.169873 38839 net.cpp:399] fc_binary_Color_f24 -> fc_binary_Color_f24
I0919 15:50:50.173575 38839 net.cpp:141] Setting up fc_binary_Color_f24
I0919 15:50:50.173601 38839 net.cpp:148] Top shape: 10 24 (240)
I0919 15:50:50.173698 38839 net.cpp:156] Memory required for data: 1152349280
I0919 15:50:50.173723 38839 layer_factory.hpp:77] Creating layer fc_classification_Color
I0919 15:50:50.173750 38839 net.cpp:91] Creating Layer fc_classification_Color
I0919 15:50:50.173768 38839 net.cpp:425] fc_classification_Color <- fc7_drop7_0_split_1
I0919 15:50:50.173795 38839 net.cpp:399] fc_classification_Color -> fc_classification_Color
I0919 15:50:50.175169 38839 net.cpp:141] Setting up fc_classification_Color
I0919 15:50:50.175196 38839 net.cpp:148] Top shape: 10 8 (80)
I0919 15:50:50.175211 38839 net.cpp:156] Memory required for data: 1152349600
I0919 15:50:50.175256 38839 layer_factory.hpp:77] Creating layer fc_classification_Color_fc_classification_Color_0_split
I0919 15:50:50.175276 38839 net.cpp:91] Creating Layer fc_classification_Color_fc_classification_Color_0_split
I0919 15:50:50.175292 38839 net.cpp:425] fc_classification_Color_fc_classification_Color_0_split <- fc_classification_Color
I0919 15:50:50.175310 38839 net.cpp:399] fc_classification_Color_fc_classification_Color_0_split -> fc_classification_Color_fc_classification_Color_0_split_0
I0919 15:50:50.175331 38839 net.cpp:399] fc_classification_Color_fc_classification_Color_0_split -> fc_classification_Color_fc_classification_Color_0_split_1
I0919 15:50:50.175395 38839 net.cpp:141] Setting up fc_classification_Color_fc_classification_Color_0_split
I0919 15:50:50.175420 38839 net.cpp:148] Top shape: 10 8 (80)
I0919 15:50:50.175436 38839 net.cpp:148] Top shape: 10 8 (80)
I0919 15:50:50.175451 38839 net.cpp:156] Memory required for data: 1152350240
I0919 15:50:50.175467 38839 layer_factory.hpp:77] Creating layer accuracy_at_1_Color
I0919 15:50:50.175503 38839 net.cpp:91] Creating Layer accuracy_at_1_Color
I0919 15:50:50.175521 38839 net.cpp:425] accuracy_at_1_Color <- fc_classification_Color_fc_classification_Color_0_split_0
I0919 15:50:50.175541 38839 net.cpp:425] accuracy_at_1_Color <- label_data_1_split_0
…
