…
I0913 17:10:45.586217  7458 net.cpp:313] The NetState phase (0) differed from the phase (1) specified by a rule in layer accuracy_at_1_Color
I0913 17:10:45.586488  7458 net.cpp:49] Initializing net from parameters: 
name: "docomo_AlexNet"
state {
  phase: TRAIN
}
layer {
  name: "data"
  type: "Data"
  top: "data"
  top: "label"
  include {
    phase: TRAIN
  }
  transform_param {
    mirror: true
    crop_size: 224
    mean_value: 103.939
    mean_value: 116.779
    mean_value: 123.68
  }
  data_param {
    source: "COLOR/color_train_lmdb"
    batch_size: 30
    backend: LMDB
  }
}
layer {
  name: "conv1"
  type: "Convolution"
  bottom: "data"
  top: "conv1"
  param {
    lr_mult: 1
    decay_mult: 1
  }
  param {
    lr_mult: 2
    decay_mult: 0
  }
  convolution_param {
    num_output: 96
    kernel_size: 11
    stride: 4
    weight_filler {
      type: "gaussian"
      std: 0.01
    }
    bias_filler {
      type: "constant"
      value: 0
    }
  }
}
layer {
  name: "relu1"
  type: "ReLU"
  bottom: "conv1"
  top: "conv1"
}
layer {
  name: "norm1"
  type: "LRN"
  bottom: "conv1"
  top: "norm1"
  lrn_param {
    local_size: 5
    alpha: 0.0001
    beta: 0.75
  }
}
layer {
  name: "pool1"
  type: "Pooling"
  bottom: "norm1"
  top: "pool1"
  pooling_param {
    pool: MAX
    kernel_size: 3
    stride: 2
  }
}
layer {
  name: "conv2"
  type: "Convolution"
  bottom: "pool1"
  top: "conv2"
  param {
    lr_mult: 1
    decay_mult: 1
  }
  param {
    lr_mult: 2
    decay_mult: 0
  }
  convolution_param {
    num_output: 256
    pad: 2
    kernel_size: 5
    group: 2
    weight_filler {
      type: "gaussian"
      std: 0.01
    }
    bias_filler {
      type: "constant"
      value: 0.1
    }
  }
}
layer {
  name: "relu2"
  type: "ReLU"
  bottom: "conv2"
  top: "conv2"
}
layer {
  name: "norm2"
  type: "LRN"
  bottom: "conv2"
  top: "norm2"
  lrn_param {
    local_size: 5
    alpha: 0.0001
    beta: 0.75
  }
}
layer {
  name: "pool2"
  type: "Pooling"
  bottom: "norm2"
  top: "pool2"
  pooling_param {
    pool: MAX
    kernel_size: 3
    stride: 2
  }
}
layer {
  name: "conv3"
  type: "Convolution"
  bottom: "pool2"
  top: "conv3"
  param {
    lr_mult: 1
    decay_mult: 1
  }
  param {
    lr_mult: 2
    decay_mult: 0
  }
  convolution_param {
    num_output: 384
    pad: 1
    kernel_size: 3
    weight_filler {
      type: "gaussian"
      std: 0.01
    }
    bias_filler {
      type: "constant"
      value: 0
    }
  }
}
layer {
  name: "relu3"
  type: "ReLU"
  bottom: "conv3"
  top: "conv3"
}
layer {
  name: "conv4"
  type: "Convolution"
  bottom: "conv3"
  top: "conv4"
  param {
    lr_mult: 1
    decay_mult: 1
  }
  param {
    lr_mult: 2
    decay_mult: 0
  }
  convolution_param {
    num_output: 384
    pad: 1
    kernel_size: 3
    group: 2
    weight_filler {
      type: "gaussian"
      std: 0.01
    }
    bias_filler {
      type: "constant"
      value: 0.1
    }
  }
}
layer {
  name: "relu4"
  type: "ReLU"
  bottom: "conv4"
  top: "conv4"
}
layer {
  name: "conv5"
  type: "Convolution"
  bottom: "conv4"
  top: "conv5"
  param {
    lr_mult: 1
    decay_mult: 1
  }
  param {
    lr_mult: 2
    decay_mult: 0
  }
  convolution_param {
    num_output: 256
    pad: 1
    kernel_size: 3
    group: 2
    weight_filler {
      type: "gaussian"
      std: 0.01
    }
    bias_filler {
      type: "constant"
      value: 0.1
    }
  }
}
layer {
  name: "relu5"
  type: "ReLU"
  bottom: "conv5"
  top: "conv5"
}
layer {
  name: "pool5"
  type: "Pooling"
  bottom: "conv5"
  top: "pool5"
  pooling_param {
    pool: MAX
    kernel_size: 3
    stride: 2
  }
}
layer {
  name: "fc6"
  type: "InnerProduct"
  bottom: "pool5"
  top: "fc6"
  param {
    lr_mult: 1
    decay_mult: 1
  }
  param {
    lr_mult: 2
    decay_mult: 0
  }
  inner_product_param {
    num_output: 4096
    weight_filler {
      type: "gaussian"
      std: 0.005
    }
    bias_filler {
      type: "constant"
      value: 0.1
    }
  }
}
layer {
  name: "relu6"
  type: "ReLU"
  bottom: "fc6"
  top: "fc6"
}
layer {
  name: "drop6"
  type: "Dropout"
  bottom: "fc6"
  top: "fc6"
  dropout_param {
    dropout_ratio: 0.5
  }
}
layer {
  name: "fc7"
  type: "InnerProduct"
  bottom: "fc6"
  top: "fc7"
  param {
    lr_mult: 1
    decay_mult: 1
  }
  param {
    lr_mult: 2
    decay_mult: 0
  }
  inner_product_param {
    num_output: 4096
    weight_filler {
      type: "gaussian"
      std: 0.005
    }
    bias_filler {
      type: "constant"
      value: 0.1
    }
  }
}
layer {
  name: "relu7"
  type: "ReLU"
  bottom: "fc7"
  top: "fc7"
}
layer {
  name: "drop7"
  type: "Dropout"
  bottom: "fc7"
  top: "fc7"
  dropout_param {
    dropout_ratio: 0.5
  }
}
layer {
  name: "fc_binary_Color"
  type: "InnerProduct"
  bottom: "fc7"
  top: "fc_binary_Color"
  param {
    lr_mult: 10
    decay_mult: 1
  }
  param {
    lr_mult: 20
    decay_mult: 0
  }
  inner_product_param {
    num_output: 12
    weight_filler {
      type: "gaussian"
      std: 0.005
    }
    bias_filler {
      type: "constant"
      value: 0.1
    }
  }
}
layer {
  name: "fc_classification_Color"
  type: "InnerProduct"
  bottom: "fc7"
  top: "fc_classification_Color"
  param {
    lr_mult: 10
    decay_mult: 1
  }
  param {
    lr_mult: 20
    decay_mult: 0
  }
  inner_product_param {
    num_output: 8
    weight_filler {
      type: "gaussian"
      std: 0.05
    }
    bias_filler {
      type: "constant"
      value: 0.1
    }
  }
}
layer {
  name: "loss_hashing"
  type: "HashingLoss"
  bottom: "fc_binary_Color"
  bottom: "label"
  top: "loss_hashing"
  loss_weight: 0.1
  hashing_loss_param {
    bi_margin: 24
    tradeoff: 0.01
  }
}
layer {
  name: "loss_classification"
  type: "SoftmaxWithLoss"
  bottom: "fc_classification_Color"
  bottom: "label"
  top: "loss"
}
I0913 17:10:45.588140  7458 layer_factory.hpp:77] Creating layer data
I0913 17:10:45.588784  7458 net.cpp:91] Creating Layer data
I0913 17:10:45.588819  7458 net.cpp:399] data -> data
I0913 17:10:45.588989  7458 net.cpp:399] data -> label
I0913 17:10:45.624680  7462 db_lmdb.cpp:38] Opened lmdb COLOR/color_train_lmdb
I0913 17:10:45.676975  7458 data_layer.cpp:41] output data size: 30,3,224,224
I0913 17:10:45.713109  7458 net.cpp:141] Setting up data
I0913 17:10:45.713263  7458 net.cpp:148] Top shape: 30 3 224 224 (4515840)
I0913 17:10:45.713294  7458 net.cpp:148] Top shape: 30 1 1 1 (30)
I0913 17:10:45.713302  7458 net.cpp:156] Memory required for data: 18063480
I0913 17:10:45.713318  7458 layer_factory.hpp:77] Creating layer label_data_1_split
I0913 17:10:45.713338  7458 net.cpp:91] Creating Layer label_data_1_split
I0913 17:10:45.713352  7458 net.cpp:425] label_data_1_split <- label
I0913 17:10:45.713380  7458 net.cpp:399] label_data_1_split -> label_data_1_split_0
I0913 17:10:45.713400  7458 net.cpp:399] label_data_1_split -> label_data_1_split_1
I0913 17:10:45.713485  7458 net.cpp:141] Setting up label_data_1_split
I0913 17:10:45.713500  7458 net.cpp:148] Top shape: 30 1 1 1 (30)
I0913 17:10:45.713510  7458 net.cpp:148] Top shape: 30 1 1 1 (30)
I0913 17:10:45.713517  7458 net.cpp:156] Memory required for data: 18063720
I0913 17:10:45.713526  7458 layer_factory.hpp:77] Creating layer conv1
I0913 17:10:45.713557  7458 net.cpp:91] Creating Layer conv1
I0913 17:10:45.713567  7458 net.cpp:425] conv1 <- data
I0913 17:10:45.713578  7458 net.cpp:399] conv1 -> conv1
I0913 17:10:45.716769  7458 net.cpp:141] Setting up conv1
I0913 17:10:45.716814  7458 net.cpp:148] Top shape: 30 96 54 54 (8398080)
I0913 17:10:45.716856  7458 net.cpp:156] Memory required for data: 51656040
I0913 17:10:45.716891  7458 layer_factory.hpp:77] Creating layer relu1
I0913 17:10:45.716923  7458 net.cpp:91] Creating Layer relu1
I0913 17:10:45.716943  7458 net.cpp:425] relu1 <- conv1
I0913 17:10:45.716959  7458 net.cpp:386] relu1 -> conv1 (in-place)
I0913 17:10:45.716986  7458 net.cpp:141] Setting up relu1
I0913 17:10:45.717005  7458 net.cpp:148] Top shape: 30 96 54 54 (8398080)
I0913 17:10:45.717020  7458 net.cpp:156] Memory required for data: 85248360
I0913 17:10:45.717033  7458 layer_factory.hpp:77] Creating layer norm1
I0913 17:10:45.717056  7458 net.cpp:91] Creating Layer norm1
I0913 17:10:45.717074  7458 net.cpp:425] norm1 <- conv1
I0913 17:10:45.717099  7458 net.cpp:399] norm1 -> norm1
I0913 17:10:45.717164  7458 net.cpp:141] Setting up norm1
I0913 17:10:45.717188  7458 net.cpp:148] Top shape: 30 96 54 54 (8398080)
I0913 17:10:45.717202  7458 net.cpp:156] Memory required for data: 118840680
I0913 17:10:45.717217  7458 layer_factory.hpp:77] Creating layer pool1
I0913 17:10:45.717236  7458 net.cpp:91] Creating Layer pool1
I0913 17:10:45.717249  7458 net.cpp:425] pool1 <- norm1
I0913 17:10:45.717268  7458 net.cpp:399] pool1 -> pool1
I0913 17:10:45.717339  7458 net.cpp:141] Setting up pool1
I0913 17:10:45.717365  7458 net.cpp:148] Top shape: 30 96 27 27 (2099520)
I0913 17:10:45.717381  7458 net.cpp:156] Memory required for data: 127238760
I0913 17:10:45.717396  7458 layer_factory.hpp:77] Creating layer conv2
I0913 17:10:45.717417  7458 net.cpp:91] Creating Layer conv2
I0913 17:10:45.717432  7458 net.cpp:425] conv2 <- pool1
I0913 17:10:45.717458  7458 net.cpp:399] conv2 -> conv2
I0913 17:10:45.730659  7458 net.cpp:141] Setting up conv2
I0913 17:10:45.730716  7458 net.cpp:148] Top shape: 30 256 27 27 (5598720)
I0913 17:10:45.730733  7458 net.cpp:156] Memory required for data: 149633640
I0913 17:10:45.730765  7458 layer_factory.hpp:77] Creating layer relu2
I0913 17:10:45.730798  7458 net.cpp:91] Creating Layer relu2
I0913 17:10:45.730816  7458 net.cpp:425] relu2 <- conv2
I0913 17:10:45.730835  7458 net.cpp:386] relu2 -> conv2 (in-place)
I0913 17:10:45.730859  7458 net.cpp:141] Setting up relu2
I0913 17:10:45.730876  7458 net.cpp:148] Top shape: 30 256 27 27 (5598720)
I0913 17:10:45.730896  7458 net.cpp:156] Memory required for data: 172028520
I0913 17:10:45.730911  7458 layer_factory.hpp:77] Creating layer norm2
I0913 17:10:45.730934  7458 net.cpp:91] Creating Layer norm2
I0913 17:10:45.730949  7458 net.cpp:425] norm2 <- conv2
I0913 17:10:45.730971  7458 net.cpp:399] norm2 -> norm2
I0913 17:10:45.731035  7458 net.cpp:141] Setting up norm2
I0913 17:10:45.731060  7458 net.cpp:148] Top shape: 30 256 27 27 (5598720)
I0913 17:10:45.731076  7458 net.cpp:156] Memory required for data: 194423400
I0913 17:10:45.731089  7458 layer_factory.hpp:77] Creating layer pool2
I0913 17:10:45.731109  7458 net.cpp:91] Creating Layer pool2
I0913 17:10:45.731127  7458 net.cpp:425] pool2 <- norm2
I0913 17:10:45.731147  7458 net.cpp:399] pool2 -> pool2
I0913 17:10:45.731201  7458 net.cpp:141] Setting up pool2
I0913 17:10:45.731227  7458 net.cpp:148] Top shape: 30 256 13 13 (1297920)
I0913 17:10:45.731246  7458 net.cpp:156] Memory required for data: 199615080
I0913 17:10:45.731261  7458 layer_factory.hpp:77] Creating layer conv3
I0913 17:10:45.731287  7458 net.cpp:91] Creating Layer conv3
I0913 17:10:45.731308  7458 net.cpp:425] conv3 <- pool2
I0913 17:10:45.731329  7458 net.cpp:399] conv3 -> conv3
I0913 17:10:45.766341  7458 net.cpp:141] Setting up conv3
I0913 17:10:45.766399  7458 net.cpp:148] Top shape: 30 384 13 13 (1946880)
I0913 17:10:45.766415  7458 net.cpp:156] Memory required for data: 207402600
I0913 17:10:45.766448  7458 layer_factory.hpp:77] Creating layer relu3
I0913 17:10:45.766475  7458 net.cpp:91] Creating Layer relu3
I0913 17:10:45.766494  7458 net.cpp:425] relu3 <- conv3
I0913 17:10:45.766517  7458 net.cpp:386] relu3 -> conv3 (in-place)
I0913 17:10:45.766542  7458 net.cpp:141] Setting up relu3
I0913 17:10:45.766559  7458 net.cpp:148] Top shape: 30 384 13 13 (1946880)
I0913 17:10:45.766618  7458 net.cpp:156] Memory required for data: 215190120
I0913 17:10:45.766634  7458 layer_factory.hpp:77] Creating layer conv4
I0913 17:10:45.766659  7458 net.cpp:91] Creating Layer conv4
I0913 17:10:45.766676  7458 net.cpp:425] conv4 <- conv3
I0913 17:10:45.766700  7458 net.cpp:399] conv4 -> conv4
I0913 17:10:45.793160  7458 net.cpp:141] Setting up conv4
I0913 17:10:45.793218  7458 net.cpp:148] Top shape: 30 384 13 13 (1946880)
I0913 17:10:45.793236  7458 net.cpp:156] Memory required for data: 222977640
I0913 17:10:45.793259  7458 layer_factory.hpp:77] Creating layer relu4
I0913 17:10:45.793285  7458 net.cpp:91] Creating Layer relu4
I0913 17:10:45.793303  7458 net.cpp:425] relu4 <- conv4
I0913 17:10:45.793325  7458 net.cpp:386] relu4 -> conv4 (in-place)
I0913 17:10:45.793350  7458 net.cpp:141] Setting up relu4
I0913 17:10:45.793367  7458 net.cpp:148] Top shape: 30 384 13 13 (1946880)
I0913 17:10:45.793382  7458 net.cpp:156] Memory required for data: 230765160
I0913 17:10:45.793396  7458 layer_factory.hpp:77] Creating layer conv5
I0913 17:10:45.793423  7458 net.cpp:91] Creating Layer conv5
I0913 17:10:45.793443  7458 net.cpp:425] conv5 <- conv4
I0913 17:10:45.793462  7458 net.cpp:399] conv5 -> conv5
I0913 17:10:45.810514  7458 net.cpp:141] Setting up conv5
I0913 17:10:45.810557  7458 net.cpp:148] Top shape: 30 256 13 13 (1297920)
I0913 17:10:45.810573  7458 net.cpp:156] Memory required for data: 235956840
I0913 17:10:45.810598  7458 layer_factory.hpp:77] Creating layer relu5
I0913 17:10:45.810618  7458 net.cpp:91] Creating Layer relu5
I0913 17:10:45.810633  7458 net.cpp:425] relu5 <- conv5
I0913 17:10:45.810652  7458 net.cpp:386] relu5 -> conv5 (in-place)
I0913 17:10:45.810675  7458 net.cpp:141] Setting up relu5
I0913 17:10:45.810691  7458 net.cpp:148] Top shape: 30 256 13 13 (1297920)
I0913 17:10:45.810706  7458 net.cpp:156] Memory required for data: 241148520
I0913 17:10:45.810720  7458 layer_factory.hpp:77] Creating layer pool5
I0913 17:10:45.810742  7458 net.cpp:91] Creating Layer pool5
I0913 17:10:45.810757  7458 net.cpp:425] pool5 <- conv5
I0913 17:10:45.810778  7458 net.cpp:399] pool5 -> pool5
I0913 17:10:45.810837  7458 net.cpp:141] Setting up pool5
I0913 17:10:45.810863  7458 net.cpp:148] Top shape: 30 256 6 6 (276480)
I0913 17:10:45.810878  7458 net.cpp:156] Memory required for data: 242254440
I0913 17:10:45.810891  7458 layer_factory.hpp:77] Creating layer fc6
I0913 17:10:45.810919  7458 net.cpp:91] Creating Layer fc6
I0913 17:10:45.810935  7458 net.cpp:425] fc6 <- pool5
I0913 17:10:45.810951  7458 net.cpp:399] fc6 -> fc6
I0913 17:10:47.246796  7458 net.cpp:141] Setting up fc6
I0913 17:10:47.246906  7458 net.cpp:148] Top shape: 30 4096 (122880)
I0913 17:10:47.246924  7458 net.cpp:156] Memory required for data: 242745960
I0913 17:10:47.246968  7458 layer_factory.hpp:77] Creating layer relu6
I0913 17:10:47.247017  7458 net.cpp:91] Creating Layer relu6
I0913 17:10:47.247047  7458 net.cpp:425] relu6 <- fc6
I0913 17:10:47.247074  7458 net.cpp:386] relu6 -> fc6 (in-place)
I0913 17:10:47.247102  7458 net.cpp:141] Setting up relu6
I0913 17:10:47.247120  7458 net.cpp:148] Top shape: 30 4096 (122880)
I0913 17:10:47.247134  7458 net.cpp:156] Memory required for data: 243237480
I0913 17:10:47.247148  7458 layer_factory.hpp:77] Creating layer drop6
I0913 17:10:47.247171  7458 net.cpp:91] Creating Layer drop6
I0913 17:10:47.247187  7458 net.cpp:425] drop6 <- fc6
I0913 17:10:47.247203  7458 net.cpp:386] drop6 -> fc6 (in-place)
I0913 17:10:47.247328  7458 net.cpp:141] Setting up drop6
I0913 17:10:47.247352  7458 net.cpp:148] Top shape: 30 4096 (122880)
I0913 17:10:47.247367  7458 net.cpp:156] Memory required for data: 243729000
I0913 17:10:47.247381  7458 layer_factory.hpp:77] Creating layer fc7
I0913 17:10:47.247406  7458 net.cpp:91] Creating Layer fc7
I0913 17:10:47.247422  7458 net.cpp:425] fc7 <- fc6
I0913 17:10:47.247442  7458 net.cpp:399] fc7 -> fc7
I0913 17:10:47.887979  7458 net.cpp:141] Setting up fc7
I0913 17:10:47.888063  7458 net.cpp:148] Top shape: 30 4096 (122880)
I0913 17:10:47.888119  7458 net.cpp:156] Memory required for data: 244220520
I0913 17:10:47.888145  7458 layer_factory.hpp:77] Creating layer relu7
I0913 17:10:47.888175  7458 net.cpp:91] Creating Layer relu7
I0913 17:10:47.888196  7458 net.cpp:425] relu7 <- fc7
I0913 17:10:47.888216  7458 net.cpp:386] relu7 -> fc7 (in-place)
I0913 17:10:47.888242  7458 net.cpp:141] Setting up relu7
I0913 17:10:47.888258  7458 net.cpp:148] Top shape: 30 4096 (122880)
I0913 17:10:47.888272  7458 net.cpp:156] Memory required for data: 244712040
I0913 17:10:47.888288  7458 layer_factory.hpp:77] Creating layer drop7
I0913 17:10:47.888310  7458 net.cpp:91] Creating Layer drop7
I0913 17:10:47.888325  7458 net.cpp:425] drop7 <- fc7
I0913 17:10:47.888342  7458 net.cpp:386] drop7 -> fc7 (in-place)
I0913 17:10:47.888386  7458 net.cpp:141] Setting up drop7
I0913 17:10:47.888408  7458 net.cpp:148] Top shape: 30 4096 (122880)
I0913 17:10:47.888424  7458 net.cpp:156] Memory required for data: 245203560
I0913 17:10:47.888438  7458 layer_factory.hpp:77] Creating layer fc7_drop7_0_split
I0913 17:10:47.888459  7458 net.cpp:91] Creating Layer fc7_drop7_0_split
I0913 17:10:47.888475  7458 net.cpp:425] fc7_drop7_0_split <- fc7
I0913 17:10:47.888492  7458 net.cpp:399] fc7_drop7_0_split -> fc7_drop7_0_split_0
I0913 17:10:47.888537  7458 net.cpp:399] fc7_drop7_0_split -> fc7_drop7_0_split_1
I0913 17:10:47.888593  7458 net.cpp:141] Setting up fc7_drop7_0_split
I0913 17:10:47.888617  7458 net.cpp:148] Top shape: 30 4096 (122880)
I0913 17:10:47.888633  7458 net.cpp:148] Top shape: 30 4096 (122880)
I0913 17:10:47.888648  7458 net.cpp:156] Memory required for data: 246186600
I0913 17:10:47.888661  7458 layer_factory.hpp:77] Creating layer fc_binary_Color
I0913 17:10:47.888684  7458 net.cpp:91] Creating Layer fc_binary_Color
I0913 17:10:47.888700  7458 net.cpp:425] fc_binary_Color <- fc7_drop7_0_split_0
I0913 17:10:47.888718  7458 net.cpp:399] fc_binary_Color -> fc_binary_Color
I0913 17:10:47.890707  7458 net.cpp:141] Setting up fc_binary_Color
I0913 17:10:47.890746  7458 net.cpp:148] Top shape: 30 12 (360)
I0913 17:10:47.890763  7458 net.cpp:156] Memory required for data: 246188040
I0913 17:10:47.890780  7458 layer_factory.hpp:77] Creating layer fc_classification_Color
I0913 17:10:47.890805  7458 net.cpp:91] Creating Layer fc_classification_Color
I0913 17:10:47.890820  7458 net.cpp:425] fc_classification_Color <- fc7_drop7_0_split_1
I0913 17:10:47.890838  7458 net.cpp:399] fc_classification_Color -> fc_classification_Color
I0913 17:10:47.892177  7458 net.cpp:141] Setting up fc_classification_Color
I0913 17:10:47.892215  7458 net.cpp:148] Top shape: 30 8 (240)
I0913 17:10:47.892231  7458 net.cpp:156] Memory required for data: 246189000
I0913 17:10:47.892254  7458 layer_factory.hpp:77] Creating layer loss_hashing
I0913 17:10:47.892282  7458 net.cpp:91] Creating Layer loss_hashing
I0913 17:10:47.892298  7458 net.cpp:425] loss_hashing <- fc_binary_Color
I0913 17:10:47.892313  7458 net.cpp:425] loss_hashing <- label_data_1_split_0
I0913 17:10:47.892334  7458 net.cpp:399] loss_hashing -> loss_hashing
…
I0913 17:10:47.894635  7458 net.cpp:313] The NetState phase (1) differed from the phase (0) specified by a rule in layer data
I0913 17:10:47.894919  7458 net.cpp:49] Initializing net from parameters: 
name: "docomo_AlexNet"
state {
  phase: TEST
}
layer {
  name: "data"
  type: "Data"
  top: "data"
  top: "label"
  include {
    phase: TEST
  }
  transform_param {
    mirror: false
    crop_size: 224
    mean_value: 103.939
    mean_value: 116.779
    mean_value: 123.68
  }
  data_param {
    source: "COLOR/color_val_lmdb"
    batch_size: 40
    backend: LMDB
  }
}
layer {
  name: "conv1"
  type: "Convolution"
  bottom: "data"
  top: "conv1"
  param {
    lr_mult: 1
    decay_mult: 1
  }
  param {
    lr_mult: 2
    decay_mult: 0
  }
  convolution_param {
    num_output: 96
    kernel_size: 11
    stride: 4
    weight_filler {
      type: "gaussian"
      std: 0.01
    }
    bias_filler {
      type: "constant"
      value: 0
    }
  }
}
layer {
  name: "relu1"
  type: "ReLU"
  bottom: "conv1"
  top: "conv1"
}
layer {
  name: "norm1"
  type: "LRN"
  bottom: "conv1"
  top: "norm1"
  lrn_param {
    local_size: 5
    alpha: 0.0001
    beta: 0.75
  }
}
layer {
  name: "pool1"
  type: "Pooling"
  bottom: "norm1"
  top: "pool1"
  pooling_param {
    pool: MAX
    kernel_size: 3
    stride: 2
  }
}
layer {
  name: "conv2"
  type: "Convolution"
  bottom: "pool1"
  top: "conv2"
  param {
    lr_mult: 1
    decay_mult: 1
  }
  param {
    lr_mult: 2
    decay_mult: 0
  }
  convolution_param {
    num_output: 256
    pad: 2
    kernel_size: 5
    group: 2
    weight_filler {
      type: "gaussian"
      std: 0.01
    }
    bias_filler {
      type: "constant"
      value: 0.1
    }
  }
}
layer {
  name: "relu2"
  type: "ReLU"
  bottom: "conv2"
  top: "conv2"
}
layer {
  name: "norm2"
  type: "LRN"
  bottom: "conv2"
  top: "norm2"
  lrn_param {
    local_size: 5
    alpha: 0.0001
    beta: 0.75
  }
}
layer {
  name: "pool2"
  type: "Pooling"
  bottom: "norm2"
  top: "pool2"
  pooling_param {
    pool: MAX
    kernel_size: 3
    stride: 2
  }
}
layer {
  name: "conv3"
  type: "Convolution"
  bottom: "pool2"
  top: "conv3"
  param {
    lr_mult: 1
    decay_mult: 1
  }
  param {
    lr_mult: 2
    decay_mult: 0
  }
  convolution_param {
    num_output: 384
    pad: 1
    kernel_size: 3
    weight_filler {
      type: "gaussian"
      std: 0.01
    }
    bias_filler {
      type: "constant"
      value: 0
    }
  }
}
layer {
  name: "relu3"
  type: "ReLU"
  bottom: "conv3"
  top: "conv3"
}
layer {
  name: "conv4"
  type: "Convolution"
  bottom: "conv3"
  top: "conv4"
  param {
    lr_mult: 1
    decay_mult: 1
  }
  param {
    lr_mult: 2
    decay_mult: 0
  }
  convolution_param {
    num_output: 384
    pad: 1
    kernel_size: 3
    group: 2
    weight_filler {
      type: "gaussian"
      std: 0.01
    }
    bias_filler {
      type: "constant"
      value: 0.1
    }
  }
}
layer {
  name: "relu4"
  type: "ReLU"
  bottom: "conv4"
  top: "conv4"
}
layer {
  name: "conv5"
  type: "Convolution"
  bottom: "conv4"
  top: "conv5"
  param {
    lr_mult: 1
    decay_mult: 1
  }
  param {
    lr_mult: 2
    decay_mult: 0
  }
  convolution_param {
    num_output: 256
    pad: 1
    kernel_size: 3
    group: 2
    weight_filler {
      type: "gaussian"
      std: 0.01
    }
    bias_filler {
      type: "constant"
      value: 0.1
    }
  }
}
layer {
  name: "relu5"
  type: "ReLU"
  bottom: "conv5"
  top: "conv5"
}
layer {
  name: "pool5"
  type: "Pooling"
  bottom: "conv5"
  top: "pool5"
  pooling_param {
    pool: MAX
    kernel_size: 3
    stride: 2
  }
}
layer {
  name: "fc6"
  type: "InnerProduct"
  bottom: "pool5"
  top: "fc6"
  param {
    lr_mult: 1
    decay_mult: 1
  }
  param {
    lr_mult: 2
    decay_mult: 0
  }
  inner_product_param {
    num_output: 4096
    weight_filler {
      type: "gaussian"
      std: 0.005
    }
    bias_filler {
      type: "constant"
      value: 0.1
    }
  }
}
layer {
  name: "relu6"
  type: "ReLU"
  bottom: "fc6"
  top: "fc6"
}
layer {
  name: "drop6"
  type: "Dropout"
  bottom: "fc6"
  top: "fc6"
  dropout_param {
    dropout_ratio: 0.5
  }
}
layer {
  name: "fc7"
  type: "InnerProduct"
  bottom: "fc6"
  top: "fc7"
  param {
    lr_mult: 1
    decay_mult: 1
  }
  param {
    lr_mult: 2
    decay_mult: 0
  }
  inner_product_param {
    num_output: 4096
    weight_filler {
      type: "gaussian"
      std: 0.005
    }
    bias_filler {
      type: "constant"
      value: 0.1
    }
  }
}
layer {
  name: "relu7"
  type: "ReLU"
  bottom: "fc7"
  top: "fc7"
}
layer {
  name: "drop7"
  type: "Dropout"
  bottom: "fc7"
  top: "fc7"
  dropout_param {
    dropout_ratio: 0.5
  }
}
layer {
  name: "fc_binary_Color"
  type: "InnerProduct"
  bottom: "fc7"
  top: "fc_binary_Color"
  param {
    lr_mult: 10
    decay_mult: 1
  }
  param {
    lr_mult: 20
    decay_mult: 0
  }
  inner_product_param {
    num_output: 12
    weight_filler {
      type: "gaussian"
      std: 0.005
    }
    bias_filler {
      type: "constant"
      value: 0.1
    }
  }
}
layer {
  name: "fc_classification_Color"
  type: "InnerProduct"
  bottom: "fc7"
  top: "fc_classification_Color"
  param {
    lr_mult: 10
    decay_mult: 1
  }
  param {
    lr_mult: 20
    decay_mult: 0
  }
  inner_product_param {
    num_output: 8
    weight_filler {
      type: "gaussian"
      std: 0.05
    }
    bias_filler {
      type: "constant"
      value: 0.1
    }
  }
}
layer {
  name: "accuracy_at_1_Color"
  type: "Accuracy"
  bottom: "fc_classification_Color"
  bottom: "label"
  top: "accuracy_at_1_Color"
  include {
    phase: TEST
  }
}
layer {
  name: "loss_hashing"
  type: "HashingLoss"
  bottom: "fc_binary_Color"
  bottom: "label"
  top: "loss_hashing"
  loss_weight: 0.1
  hashing_loss_param {
    bi_margin: 24
    tradeoff: 0.01
  }
}
layer {
  name: "loss_classification"
  type: "SoftmaxWithLoss"
  bottom: "fc_classification_Color"
  bottom: "label"
  top: "loss"
}
I0913 17:10:47.896540  7458 layer_factory.hpp:77] Creating layer data
I0913 17:10:47.896723  7458 net.cpp:91] Creating Layer data
I0913 17:10:47.896751  7458 net.cpp:399] data -> data
I0913 17:10:47.896844  7458 net.cpp:399] data -> label
I0913 17:10:47.930649  7464 db_lmdb.cpp:38] Opened lmdb COLOR/color_val_lmdb
I0913 17:10:47.952314  7458 data_layer.cpp:41] output data size: 40,3,224,224
I0913 17:10:48.000697  7458 net.cpp:141] Setting up data
I0913 17:10:48.000763  7458 net.cpp:148] Top shape: 40 3 224 224 (6021120)
I0913 17:10:48.000785  7458 net.cpp:148] Top shape: 40 1 1 1 (40)
I0913 17:10:48.000800  7458 net.cpp:156] Memory required for data: 24084640
I0913 17:10:48.000819  7458 layer_factory.hpp:77] Creating layer label_data_1_split
I0913 17:10:48.000847  7458 net.cpp:91] Creating Layer label_data_1_split
I0913 17:10:48.000864  7458 net.cpp:425] label_data_1_split <- label
I0913 17:10:48.000890  7458 net.cpp:399] label_data_1_split -> label_data_1_split_0
I0913 17:10:48.000916  7458 net.cpp:399] label_data_1_split -> label_data_1_split_1
I0913 17:10:48.000938  7458 net.cpp:399] label_data_1_split -> label_data_1_split_2
I0913 17:10:48.001035  7458 net.cpp:141] Setting up label_data_1_split
I0913 17:10:48.001060  7458 net.cpp:148] Top shape: 40 1 1 1 (40)
I0913 17:10:48.001075  7458 net.cpp:148] Top shape: 40 1 1 1 (40)
I0913 17:10:48.001091  7458 net.cpp:148] Top shape: 40 1 1 1 (40)
I0913 17:10:48.001106  7458 net.cpp:156] Memory required for data: 24085120
I0913 17:10:48.001127  7458 layer_factory.hpp:77] Creating layer conv1
I0913 17:10:48.001163  7458 net.cpp:91] Creating Layer conv1
I0913 17:10:48.001181  7458 net.cpp:425] conv1 <- data
I0913 17:10:48.001200  7458 net.cpp:399] conv1 -> conv1
I0913 17:10:48.004166  7458 net.cpp:141] Setting up conv1
I0913 17:10:48.004217  7458 net.cpp:148] Top shape: 40 96 54 54 (11197440)
I0913 17:10:48.004235  7458 net.cpp:156] Memory required for data: 68874880
I0913 17:10:48.004259  7458 layer_factory.hpp:77] Creating layer relu1
I0913 17:10:48.004279  7458 net.cpp:91] Creating Layer relu1
I0913 17:10:48.004294  7458 net.cpp:425] relu1 <- conv1
I0913 17:10:48.004317  7458 net.cpp:386] relu1 -> conv1 (in-place)
I0913 17:10:48.004340  7458 net.cpp:141] Setting up relu1
I0913 17:10:48.004359  7458 net.cpp:148] Top shape: 40 96 54 54 (11197440)
I0913 17:10:48.004372  7458 net.cpp:156] Memory required for data: 113664640
I0913 17:10:48.004386  7458 layer_factory.hpp:77] Creating layer norm1
I0913 17:10:48.004407  7458 net.cpp:91] Creating Layer norm1
I0913 17:10:48.004422  7458 net.cpp:425] norm1 <- conv1
I0913 17:10:48.004442  7458 net.cpp:399] norm1 -> norm1
I0913 17:10:48.004508  7458 net.cpp:141] Setting up norm1
I0913 17:10:48.004531  7458 net.cpp:148] Top shape: 40 96 54 54 (11197440)
I0913 17:10:48.004547  7458 net.cpp:156] Memory required for data: 158454400
I0913 17:10:48.004561  7458 layer_factory.hpp:77] Creating layer pool1
I0913 17:10:48.004588  7458 net.cpp:91] Creating Layer pool1
I0913 17:10:48.004608  7458 net.cpp:425] pool1 <- norm1
I0913 17:10:48.004632  7458 net.cpp:399] pool1 -> pool1
I0913 17:10:48.004691  7458 net.cpp:141] Setting up pool1
I0913 17:10:48.004729  7458 net.cpp:148] Top shape: 40 96 27 27 (2799360)
I0913 17:10:48.004743  7458 net.cpp:156] Memory required for data: 169651840
I0913 17:10:48.004758  7458 layer_factory.hpp:77] Creating layer conv2
I0913 17:10:48.004789  7458 net.cpp:91] Creating Layer conv2
I0913 17:10:48.004808  7458 net.cpp:425] conv2 <- pool1
I0913 17:10:48.004832  7458 net.cpp:399] conv2 -> conv2
I0913 17:10:48.016993  7458 net.cpp:141] Setting up conv2
I0913 17:10:48.017040  7458 net.cpp:148] Top shape: 40 256 27 27 (7464960)
I0913 17:10:48.017056  7458 net.cpp:156] Memory required for data: 199511680
I0913 17:10:48.017118  7458 layer_factory.hpp:77] Creating layer relu2
I0913 17:10:48.017141  7458 net.cpp:91] Creating Layer relu2
I0913 17:10:48.017156  7458 net.cpp:425] relu2 <- conv2
I0913 17:10:48.017184  7458 net.cpp:386] relu2 -> conv2 (in-place)
I0913 17:10:48.017206  7458 net.cpp:141] Setting up relu2
I0913 17:10:48.017225  7458 net.cpp:148] Top shape: 40 256 27 27 (7464960)
I0913 17:10:48.017243  7458 net.cpp:156] Memory required for data: 229371520
I0913 17:10:48.017262  7458 layer_factory.hpp:77] Creating layer norm2
I0913 17:10:48.017282  7458 net.cpp:91] Creating Layer norm2
I0913 17:10:48.017298  7458 net.cpp:425] norm2 <- conv2
I0913 17:10:48.017319  7458 net.cpp:399] norm2 -> norm2
I0913 17:10:48.017385  7458 net.cpp:141] Setting up norm2
I0913 17:10:48.017411  7458 net.cpp:148] Top shape: 40 256 27 27 (7464960)
I0913 17:10:48.017426  7458 net.cpp:156] Memory required for data: 259231360
I0913 17:10:48.017441  7458 layer_factory.hpp:77] Creating layer pool2
I0913 17:10:48.017463  7458 net.cpp:91] Creating Layer pool2
I0913 17:10:48.017483  7458 net.cpp:425] pool2 <- norm2
I0913 17:10:48.017500  7458 net.cpp:399] pool2 -> pool2
I0913 17:10:48.017556  7458 net.cpp:141] Setting up pool2
I0913 17:10:48.017580  7458 net.cpp:148] Top shape: 40 256 13 13 (1730560)
I0913 17:10:48.017596  7458 net.cpp:156] Memory required for data: 266153600
I0913 17:10:48.017609  7458 layer_factory.hpp:77] Creating layer conv3
I0913 17:10:48.017652  7458 net.cpp:91] Creating Layer conv3
I0913 17:10:48.017674  7458 net.cpp:425] conv3 <- pool2
I0913 17:10:48.017696  7458 net.cpp:399] conv3 -> conv3
I0913 17:10:48.052290  7458 net.cpp:141] Setting up conv3
I0913 17:10:48.052335  7458 net.cpp:148] Top shape: 40 384 13 13 (2595840)
I0913 17:10:48.052351  7458 net.cpp:156] Memory required for data: 276536960
I0913 17:10:48.052374  7458 layer_factory.hpp:77] Creating layer relu3
I0913 17:10:48.052393  7458 net.cpp:91] Creating Layer relu3
I0913 17:10:48.052408  7458 net.cpp:425] relu3 <- conv3
I0913 17:10:48.052428  7458 net.cpp:386] relu3 -> conv3 (in-place)
I0913 17:10:48.052451  7458 net.cpp:141] Setting up relu3
I0913 17:10:48.052469  7458 net.cpp:148] Top shape: 40 384 13 13 (2595840)
I0913 17:10:48.052484  7458 net.cpp:156] Memory required for data: 286920320
I0913 17:10:48.052497  7458 layer_factory.hpp:77] Creating layer conv4
I0913 17:10:48.052521  7458 net.cpp:91] Creating Layer conv4
I0913 17:10:48.052537  7458 net.cpp:425] conv4 <- conv3
I0913 17:10:48.052556  7458 net.cpp:399] conv4 -> conv4
I0913 17:10:48.078128  7458 net.cpp:141] Setting up conv4
I0913 17:10:48.078173  7458 net.cpp:148] Top shape: 40 384 13 13 (2595840)
I0913 17:10:48.078189  7458 net.cpp:156] Memory required for data: 297303680
I0913 17:10:48.078207  7458 layer_factory.hpp:77] Creating layer relu4
I0913 17:10:48.078229  7458 net.cpp:91] Creating Layer relu4
I0913 17:10:48.078245  7458 net.cpp:425] relu4 <- conv4
I0913 17:10:48.078263  7458 net.cpp:386] relu4 -> conv4 (in-place)
I0913 17:10:48.078285  7458 net.cpp:141] Setting up relu4
I0913 17:10:48.078302  7458 net.cpp:148] Top shape: 40 384 13 13 (2595840)
I0913 17:10:48.078317  7458 net.cpp:156] Memory required for data: 307687040
I0913 17:10:48.078331  7458 layer_factory.hpp:77] Creating layer conv5
I0913 17:10:48.078356  7458 net.cpp:91] Creating Layer conv5
I0913 17:10:48.078372  7458 net.cpp:425] conv5 <- conv4
I0913 17:10:48.078404  7458 net.cpp:399] conv5 -> conv5
I0913 17:10:48.095626  7458 net.cpp:141] Setting up conv5
I0913 17:10:48.095671  7458 net.cpp:148] Top shape: 40 256 13 13 (1730560)
I0913 17:10:48.095688  7458 net.cpp:156] Memory required for data: 314609280
I0913 17:10:48.095719  7458 layer_factory.hpp:77] Creating layer relu5
I0913 17:10:48.095744  7458 net.cpp:91] Creating Layer relu5
I0913 17:10:48.095763  7458 net.cpp:425] relu5 <- conv5
I0913 17:10:48.095782  7458 net.cpp:386] relu5 -> conv5 (in-place)
I0913 17:10:48.095800  7458 net.cpp:141] Setting up relu5
I0913 17:10:48.095816  7458 net.cpp:148] Top shape: 40 256 13 13 (1730560)
I0913 17:10:48.095852  7458 net.cpp:156] Memory required for data: 321531520
I0913 17:10:48.095868  7458 layer_factory.hpp:77] Creating layer pool5
I0913 17:10:48.095892  7458 net.cpp:91] Creating Layer pool5
I0913 17:10:48.095916  7458 net.cpp:425] pool5 <- conv5
I0913 17:10:48.095937  7458 net.cpp:399] pool5 -> pool5
I0913 17:10:48.095999  7458 net.cpp:141] Setting up pool5
I0913 17:10:48.096026  7458 net.cpp:148] Top shape: 40 256 6 6 (368640)
I0913 17:10:48.096042  7458 net.cpp:156] Memory required for data: 323006080
I0913 17:10:48.096056  7458 layer_factory.hpp:77] Creating layer fc6
I0913 17:10:48.096076  7458 net.cpp:91] Creating Layer fc6
I0913 17:10:48.096096  7458 net.cpp:425] fc6 <- pool5
I0913 17:10:48.096119  7458 net.cpp:399] fc6 -> fc6
I0913 17:10:49.535266  7458 net.cpp:141] Setting up fc6
I0913 17:10:49.535341  7458 net.cpp:148] Top shape: 40 4096 (163840)
I0913 17:10:49.535359  7458 net.cpp:156] Memory required for data: 323661440
I0913 17:10:49.535382  7458 layer_factory.hpp:77] Creating layer relu6
I0913 17:10:49.535408  7458 net.cpp:91] Creating Layer relu6
I0913 17:10:49.535425  7458 net.cpp:425] relu6 <- fc6
I0913 17:10:49.535444  7458 net.cpp:386] relu6 -> fc6 (in-place)
I0913 17:10:49.535468  7458 net.cpp:141] Setting up relu6
I0913 17:10:49.535487  7458 net.cpp:148] Top shape: 40 4096 (163840)
I0913 17:10:49.535502  7458 net.cpp:156] Memory required for data: 324316800
I0913 17:10:49.535516  7458 layer_factory.hpp:77] Creating layer drop6
I0913 17:10:49.535539  7458 net.cpp:91] Creating Layer drop6
I0913 17:10:49.535555  7458 net.cpp:425] drop6 <- fc6
I0913 17:10:49.535571  7458 net.cpp:386] drop6 -> fc6 (in-place)
I0913 17:10:49.535615  7458 net.cpp:141] Setting up drop6
I0913 17:10:49.535639  7458 net.cpp:148] Top shape: 40 4096 (163840)
I0913 17:10:49.535653  7458 net.cpp:156] Memory required for data: 324972160
I0913 17:10:49.535667  7458 layer_factory.hpp:77] Creating layer fc7
I0913 17:10:49.535689  7458 net.cpp:91] Creating Layer fc7
I0913 17:10:49.535708  7458 net.cpp:425] fc7 <- fc6
I0913 17:10:49.535737  7458 net.cpp:399] fc7 -> fc7
I0913 17:10:50.176895  7458 net.cpp:141] Setting up fc7
I0913 17:10:50.176991  7458 net.cpp:148] Top shape: 40 4096 (163840)
I0913 17:10:50.177011  7458 net.cpp:156] Memory required for data: 325627520
I0913 17:10:50.177060  7458 layer_factory.hpp:77] Creating layer relu7
I0913 17:10:50.177098  7458 net.cpp:91] Creating Layer relu7
I0913 17:10:50.177125  7458 net.cpp:425] relu7 <- fc7
I0913 17:10:50.177150  7458 net.cpp:386] relu7 -> fc7 (in-place)
I0913 17:10:50.177176  7458 net.cpp:141] Setting up relu7
I0913 17:10:50.177196  7458 net.cpp:148] Top shape: 40 4096 (163840)
I0913 17:10:50.177211  7458 net.cpp:156] Memory required for data: 326282880
I0913 17:10:50.177227  7458 layer_factory.hpp:77] Creating layer drop7
I0913 17:10:50.177245  7458 net.cpp:91] Creating Layer drop7
I0913 17:10:50.177260  7458 net.cpp:425] drop7 <- fc7
I0913 17:10:50.177276  7458 net.cpp:386] drop7 -> fc7 (in-place)
I0913 17:10:50.177345  7458 net.cpp:141] Setting up drop7
I0913 17:10:50.177371  7458 net.cpp:148] Top shape: 40 4096 (163840)
I0913 17:10:50.177386  7458 net.cpp:156] Memory required for data: 326938240
I0913 17:10:50.177402  7458 layer_factory.hpp:77] Creating layer fc7_drop7_0_split
I0913 17:10:50.177426  7458 net.cpp:91] Creating Layer fc7_drop7_0_split
I0913 17:10:50.177446  7458 net.cpp:425] fc7_drop7_0_split <- fc7
I0913 17:10:50.177464  7458 net.cpp:399] fc7_drop7_0_split -> fc7_drop7_0_split_0
I0913 17:10:50.177484  7458 net.cpp:399] fc7_drop7_0_split -> fc7_drop7_0_split_1
I0913 17:10:50.177543  7458 net.cpp:141] Setting up fc7_drop7_0_split
I0913 17:10:50.177567  7458 net.cpp:148] Top shape: 40 4096 (163840)
I0913 17:10:50.177584  7458 net.cpp:148] Top shape: 40 4096 (163840)
I0913 17:10:50.177598  7458 net.cpp:156] Memory required for data: 328248960
I0913 17:10:50.177613  7458 layer_factory.hpp:77] Creating layer fc_binary_Color
I0913 17:10:50.177644  7458 net.cpp:91] Creating Layer fc_binary_Color
I0913 17:10:50.177665  7458 net.cpp:425] fc_binary_Color <- fc7_drop7_0_split_0
I0913 17:10:50.177728  7458 net.cpp:399] fc_binary_Color -> fc_binary_Color
I0913 17:10:50.179790  7458 net.cpp:141] Setting up fc_binary_Color
I0913 17:10:50.179817  7458 net.cpp:148] Top shape: 40 12 (480)
I0913 17:10:50.179833  7458 net.cpp:156] Memory required for data: 328250880
I0913 17:10:50.179852  7458 layer_factory.hpp:77] Creating layer fc_classification_Color
I0913 17:10:50.179877  7458 net.cpp:91] Creating Layer fc_classification_Color
I0913 17:10:50.179893  7458 net.cpp:425] fc_classification_Color <- fc7_drop7_0_split_1
I0913 17:10:50.179913  7458 net.cpp:399] fc_classification_Color -> fc_classification_Color
I0913 17:10:50.181287  7458 net.cpp:141] Setting up fc_classification_Color
I0913 17:10:50.181313  7458 net.cpp:148] Top shape: 40 8 (320)
I0913 17:10:50.181327  7458 net.cpp:156] Memory required for data: 328252160
I0913 17:10:50.181365  7458 layer_factory.hpp:77] Creating layer fc_classification_Color_fc_classification_Color_0_split
I0913 17:10:50.181390  7458 net.cpp:91] Creating Layer fc_classification_Color_fc_classification_Color_0_split
I0913 17:10:50.181404  7458 net.cpp:425] fc_classification_Color_fc_classification_Color_0_split <- fc_classification_Color
I0913 17:10:50.181424  7458 net.cpp:399] fc_classification_Color_fc_classification_Color_0_split -> fc_classification_Color_fc_classification_Color_0_split_0
I0913 17:10:50.181443  7458 net.cpp:399] fc_classification_Color_fc_classification_Color_0_split -> fc_classification_Color_fc_classification_Color_0_split_1
I0913 17:10:50.181498  7458 net.cpp:141] Setting up fc_classification_Color_fc_classification_Color_0_split
I0913 17:10:50.181521  7458 net.cpp:148] Top shape: 40 8 (320)
I0913 17:10:50.181537  7458 net.cpp:148] Top shape: 40 8 (320)
I0913 17:10:50.181550  7458 net.cpp:156] Memory required for data: 328254720
I0913 17:10:50.181565  7458 layer_factory.hpp:77] Creating layer accuracy_at_1_Color
I0913 17:10:50.181589  7458 net.cpp:91] Creating Layer accuracy_at_1_Color
I0913 17:10:50.181607  7458 net.cpp:425] accuracy_at_1_Color <- fc_classification_Color_fc_classification_Color_0_split_0
I0913 17:10:50.181630  7458 net.cpp:425] accuracy_at_1_Color <- label_data_1_split_0
…
