…
I0913 15:31:30.930804 45398 net.cpp:313] The NetState phase (0) differed from the phase (1) specified by a rule in layer accuracy_at_1_Color
I0913 15:31:30.931087 45398 net.cpp:49] Initializing net from parameters: 
name: "docomo_AlexNet"
state {
  phase: TRAIN
}
layer {
  name: "data"
  type: "Data"
  top: "data"
  top: "label"
  include {
    phase: TRAIN
  }
  transform_param {
    mirror: true
    crop_size: 224
    mean_value: 103.939
    mean_value: 116.779
    mean_value: 123.68
  }
  data_param {
    source: "COLOR/color_train_lmdb"
    batch_size: 30
    backend: LMDB
  }
}
layer {
  name: "conv1"
  type: "Convolution"
  bottom: "data"
  top: "conv1"
  param {
    lr_mult: 1
    decay_mult: 1
  }
  param {
    lr_mult: 2
    decay_mult: 0
  }
  convolution_param {
    num_output: 96
    kernel_size: 11
    stride: 4
    weight_filler {
      type: "gaussian"
      std: 0.01
    }
    bias_filler {
      type: "constant"
      value: 0
    }
  }
}
layer {
  name: "relu1"
  type: "ReLU"
  bottom: "conv1"
  top: "conv1"
}
layer {
  name: "norm1"
  type: "LRN"
  bottom: "conv1"
  top: "norm1"
  lrn_param {
    local_size: 5
    alpha: 0.0001
    beta: 0.75
  }
}
layer {
  name: "pool1"
  type: "Pooling"
  bottom: "norm1"
  top: "pool1"
  pooling_param {
    pool: MAX
    kernel_size: 3
    stride: 2
  }
}
layer {
  name: "conv2"
  type: "Convolution"
  bottom: "pool1"
  top: "conv2"
  param {
    lr_mult: 1
    decay_mult: 1
  }
  param {
    lr_mult: 2
    decay_mult: 0
  }
  convolution_param {
    num_output: 256
    pad: 2
    kernel_size: 5
    group: 2
    weight_filler {
      type: "gaussian"
      std: 0.01
    }
    bias_filler {
      type: "constant"
      value: 0.1
    }
  }
}
layer {
  name: "relu2"
  type: "ReLU"
  bottom: "conv2"
  top: "conv2"
}
layer {
  name: "norm2"
  type: "LRN"
  bottom: "conv2"
  top: "norm2"
  lrn_param {
    local_size: 5
    alpha: 0.0001
    beta: 0.75
  }
}
layer {
  name: "pool2"
  type: "Pooling"
  bottom: "norm2"
  top: "pool2"
  pooling_param {
    pool: MAX
    kernel_size: 3
    stride: 2
  }
}
layer {
  name: "conv3"
  type: "Convolution"
  bottom: "pool2"
  top: "conv3"
  param {
    lr_mult: 1
    decay_mult: 1
  }
  param {
    lr_mult: 2
    decay_mult: 0
  }
  convolution_param {
    num_output: 384
    pad: 1
    kernel_size: 3
    weight_filler {
      type: "gaussian"
      std: 0.01
    }
    bias_filler {
      type: "constant"
      value: 0
    }
  }
}
layer {
  name: "relu3"
  type: "ReLU"
  bottom: "conv3"
  top: "conv3"
}
layer {
  name: "conv4"
  type: "Convolution"
  bottom: "conv3"
  top: "conv4"
  param {
    lr_mult: 1
    decay_mult: 1
  }
  param {
    lr_mult: 2
    decay_mult: 0
  }
  convolution_param {
    num_output: 384
    pad: 1
    kernel_size: 3
    group: 2
    weight_filler {
      type: "gaussian"
      std: 0.01
    }
    bias_filler {
      type: "constant"
      value: 0.1
    }
  }
}
layer {
  name: "relu4"
  type: "ReLU"
  bottom: "conv4"
  top: "conv4"
}
layer {
  name: "conv5"
  type: "Convolution"
  bottom: "conv4"
  top: "conv5"
  param {
    lr_mult: 1
    decay_mult: 1
  }
  param {
    lr_mult: 2
    decay_mult: 0
  }
  convolution_param {
    num_output: 256
    pad: 1
    kernel_size: 3
    group: 2
    weight_filler {
      type: "gaussian"
      std: 0.01
    }
    bias_filler {
      type: "constant"
      value: 0.1
    }
  }
}
layer {
  name: "relu5"
  type: "ReLU"
  bottom: "conv5"
  top: "conv5"
}
layer {
  name: "pool5"
  type: "Pooling"
  bottom: "conv5"
  top: "pool5"
  pooling_param {
    pool: MAX
    kernel_size: 3
    stride: 2
  }
}
layer {
  name: "fc6"
  type: "InnerProduct"
  bottom: "pool5"
  top: "fc6"
  param {
    lr_mult: 1
    decay_mult: 1
  }
  param {
    lr_mult: 2
    decay_mult: 0
  }
  inner_product_param {
    num_output: 4096
    weight_filler {
      type: "gaussian"
      std: 0.005
    }
    bias_filler {
      type: "constant"
      value: 0.1
    }
  }
}
layer {
  name: "relu6"
  type: "ReLU"
  bottom: "fc6"
  top: "fc6"
}
layer {
  name: "drop6"
  type: "Dropout"
  bottom: "fc6"
  top: "fc6"
  dropout_param {
    dropout_ratio: 0.5
  }
}
layer {
  name: "fc7"
  type: "InnerProduct"
  bottom: "fc6"
  top: "fc7"
  param {
    lr_mult: 1
    decay_mult: 1
  }
  param {
    lr_mult: 2
    decay_mult: 0
  }
  inner_product_param {
    num_output: 4096
    weight_filler {
      type: "gaussian"
      std: 0.005
    }
    bias_filler {
      type: "constant"
      value: 0.1
    }
  }
}
layer {
  name: "relu7"
  type: "ReLU"
  bottom: "fc7"
  top: "fc7"
}
layer {
  name: "drop7"
  type: "Dropout"
  bottom: "fc7"
  top: "fc7"
  dropout_param {
    dropout_ratio: 0.5
  }
}
layer {
  name: "fc_binary_Color"
  type: "InnerProduct"
  bottom: "fc7"
  top: "fc_binary_Color"
  param {
    lr_mult: 10
    decay_mult: 1
  }
  param {
    lr_mult: 20
    decay_mult: 0
  }
  inner_product_param {
    num_output: 12
    weight_filler {
      type: "gaussian"
      std: 0.005
    }
    bias_filler {
      type: "constant"
      value: 0.1
    }
  }
}
layer {
  name: "fc_classification_Color"
  type: "InnerProduct"
  bottom: "fc7"
  top: "fc_classification_Color"
  param {
    lr_mult: 10
    decay_mult: 1
  }
  param {
    lr_mult: 20
    decay_mult: 0
  }
  inner_product_param {
    num_output: 8
    weight_filler {
      type: "gaussian"
      std: 0.05
    }
    bias_filler {
      type: "constant"
      value: 0.1
    }
  }
}
layer {
  name: "loss_hashing"
  type: "HashingLoss"
  bottom: "fc_binary_Color"
  bottom: "label"
  top: "loss_hashing"
  loss_weight: 0.1
  hashing_loss_param {
    bi_margin: 24
    tradeoff: 0.01
  }
}
layer {
  name: "loss_classification"
  type: "SoftmaxWithLoss"
  bottom: "fc_classification_Color"
  bottom: "label"
  top: "loss"
}
I0913 15:31:30.932737 45398 layer_factory.hpp:77] Creating layer data
I0913 15:31:30.933408 45398 net.cpp:91] Creating Layer data
I0913 15:31:30.933558 45398 net.cpp:399] data -> data
I0913 15:31:30.933670 45398 net.cpp:399] data -> label
I0913 15:31:30.934666 45402 db_lmdb.cpp:38] Opened lmdb COLOR/color_train_lmdb
I0913 15:31:30.950938 45398 data_layer.cpp:41] output data size: 30,3,224,224
I0913 15:31:30.988345 45398 net.cpp:141] Setting up data
I0913 15:31:30.988445 45398 net.cpp:148] Top shape: 30 3 224 224 (4515840)
I0913 15:31:30.988468 45398 net.cpp:148] Top shape: 30 1 1 1 (30)
I0913 15:31:30.988483 45398 net.cpp:156] Memory required for data: 18063480
I0913 15:31:30.988508 45398 layer_factory.hpp:77] Creating layer label_data_1_split
I0913 15:31:30.988541 45398 net.cpp:91] Creating Layer label_data_1_split
I0913 15:31:30.988566 45398 net.cpp:425] label_data_1_split <- label
I0913 15:31:30.988597 45398 net.cpp:399] label_data_1_split -> label_data_1_split_0
I0913 15:31:30.988625 45398 net.cpp:399] label_data_1_split -> label_data_1_split_1
I0913 15:31:30.988708 45398 net.cpp:141] Setting up label_data_1_split
I0913 15:31:30.988734 45398 net.cpp:148] Top shape: 30 1 1 1 (30)
I0913 15:31:30.988750 45398 net.cpp:148] Top shape: 30 1 1 1 (30)
I0913 15:31:30.988765 45398 net.cpp:156] Memory required for data: 18063720
I0913 15:31:30.988780 45398 layer_factory.hpp:77] Creating layer conv1
I0913 15:31:30.988819 45398 net.cpp:91] Creating Layer conv1
I0913 15:31:30.988842 45398 net.cpp:425] conv1 <- data
I0913 15:31:30.988863 45398 net.cpp:399] conv1 -> conv1
I0913 15:31:30.991966 45398 net.cpp:141] Setting up conv1
I0913 15:31:30.992019 45398 net.cpp:148] Top shape: 30 96 54 54 (8398080)
I0913 15:31:30.992076 45398 net.cpp:156] Memory required for data: 51656040
I0913 15:31:30.992112 45398 layer_factory.hpp:77] Creating layer relu1
I0913 15:31:30.992137 45398 net.cpp:91] Creating Layer relu1
I0913 15:31:30.992153 45398 net.cpp:425] relu1 <- conv1
I0913 15:31:30.992171 45398 net.cpp:386] relu1 -> conv1 (in-place)
I0913 15:31:30.992193 45398 net.cpp:141] Setting up relu1
I0913 15:31:30.992214 45398 net.cpp:148] Top shape: 30 96 54 54 (8398080)
I0913 15:31:30.992229 45398 net.cpp:156] Memory required for data: 85248360
I0913 15:31:30.992244 45398 layer_factory.hpp:77] Creating layer norm1
I0913 15:31:30.992269 45398 net.cpp:91] Creating Layer norm1
I0913 15:31:30.992285 45398 net.cpp:425] norm1 <- conv1
I0913 15:31:30.992305 45398 net.cpp:399] norm1 -> norm1
I0913 15:31:31.005578 45398 net.cpp:141] Setting up norm1
I0913 15:31:31.005615 45398 net.cpp:148] Top shape: 30 96 54 54 (8398080)
I0913 15:31:31.005632 45398 net.cpp:156] Memory required for data: 118840680
I0913 15:31:31.005648 45398 layer_factory.hpp:77] Creating layer pool1
I0913 15:31:31.005669 45398 net.cpp:91] Creating Layer pool1
I0913 15:31:31.005686 45398 net.cpp:425] pool1 <- norm1
I0913 15:31:31.005707 45398 net.cpp:399] pool1 -> pool1
I0913 15:31:31.005779 45398 net.cpp:141] Setting up pool1
I0913 15:31:31.005806 45398 net.cpp:148] Top shape: 30 96 27 27 (2099520)
I0913 15:31:31.005825 45398 net.cpp:156] Memory required for data: 127238760
I0913 15:31:31.005849 45398 layer_factory.hpp:77] Creating layer conv2
I0913 15:31:31.005882 45398 net.cpp:91] Creating Layer conv2
I0913 15:31:31.005899 45398 net.cpp:425] conv2 <- pool1
I0913 15:31:31.005930 45398 net.cpp:399] conv2 -> conv2
I0913 15:31:31.018998 45398 net.cpp:141] Setting up conv2
I0913 15:31:31.019037 45398 net.cpp:148] Top shape: 30 256 27 27 (5598720)
I0913 15:31:31.019054 45398 net.cpp:156] Memory required for data: 149633640
I0913 15:31:31.019080 45398 layer_factory.hpp:77] Creating layer relu2
I0913 15:31:31.019100 45398 net.cpp:91] Creating Layer relu2
I0913 15:31:31.019115 45398 net.cpp:425] relu2 <- conv2
I0913 15:31:31.019134 45398 net.cpp:386] relu2 -> conv2 (in-place)
I0913 15:31:31.019153 45398 net.cpp:141] Setting up relu2
I0913 15:31:31.019173 45398 net.cpp:148] Top shape: 30 256 27 27 (5598720)
I0913 15:31:31.019188 45398 net.cpp:156] Memory required for data: 172028520
I0913 15:31:31.019203 45398 layer_factory.hpp:77] Creating layer norm2
I0913 15:31:31.019227 45398 net.cpp:91] Creating Layer norm2
I0913 15:31:31.019244 45398 net.cpp:425] norm2 <- conv2
I0913 15:31:31.019263 45398 net.cpp:399] norm2 -> norm2
I0913 15:31:31.019325 45398 net.cpp:141] Setting up norm2
I0913 15:31:31.019349 45398 net.cpp:148] Top shape: 30 256 27 27 (5598720)
I0913 15:31:31.019364 45398 net.cpp:156] Memory required for data: 194423400
I0913 15:31:31.019381 45398 layer_factory.hpp:77] Creating layer pool2
I0913 15:31:31.019402 45398 net.cpp:91] Creating Layer pool2
I0913 15:31:31.019418 45398 net.cpp:425] pool2 <- norm2
I0913 15:31:31.019435 45398 net.cpp:399] pool2 -> pool2
I0913 15:31:31.019491 45398 net.cpp:141] Setting up pool2
I0913 15:31:31.019513 45398 net.cpp:148] Top shape: 30 256 13 13 (1297920)
I0913 15:31:31.019528 45398 net.cpp:156] Memory required for data: 199615080
I0913 15:31:31.019544 45398 layer_factory.hpp:77] Creating layer conv3
I0913 15:31:31.019570 45398 net.cpp:91] Creating Layer conv3
I0913 15:31:31.019588 45398 net.cpp:425] conv3 <- pool2
I0913 15:31:31.019608 45398 net.cpp:399] conv3 -> conv3
I0913 15:31:31.055081 45398 net.cpp:141] Setting up conv3
I0913 15:31:31.055153 45398 net.cpp:148] Top shape: 30 384 13 13 (1946880)
I0913 15:31:31.055171 45398 net.cpp:156] Memory required for data: 207402600
I0913 15:31:31.055197 45398 layer_factory.hpp:77] Creating layer relu3
I0913 15:31:31.055220 45398 net.cpp:91] Creating Layer relu3
I0913 15:31:31.055236 45398 net.cpp:425] relu3 <- conv3
I0913 15:31:31.055259 45398 net.cpp:386] relu3 -> conv3 (in-place)
I0913 15:31:31.055282 45398 net.cpp:141] Setting up relu3
I0913 15:31:31.055304 45398 net.cpp:148] Top shape: 30 384 13 13 (1946880)
I0913 15:31:31.055369 45398 net.cpp:156] Memory required for data: 215190120
I0913 15:31:31.055387 45398 layer_factory.hpp:77] Creating layer conv4
I0913 15:31:31.055414 45398 net.cpp:91] Creating Layer conv4
I0913 15:31:31.055433 45398 net.cpp:425] conv4 <- conv3
I0913 15:31:31.055452 45398 net.cpp:399] conv4 -> conv4
I0913 15:31:31.081208 45398 net.cpp:141] Setting up conv4
I0913 15:31:31.081252 45398 net.cpp:148] Top shape: 30 384 13 13 (1946880)
I0913 15:31:31.081269 45398 net.cpp:156] Memory required for data: 222977640
I0913 15:31:31.081290 45398 layer_factory.hpp:77] Creating layer relu4
I0913 15:31:31.081311 45398 net.cpp:91] Creating Layer relu4
I0913 15:31:31.081327 45398 net.cpp:425] relu4 <- conv4
I0913 15:31:31.081344 45398 net.cpp:386] relu4 -> conv4 (in-place)
I0913 15:31:31.081363 45398 net.cpp:141] Setting up relu4
I0913 15:31:31.081384 45398 net.cpp:148] Top shape: 30 384 13 13 (1946880)
I0913 15:31:31.081399 45398 net.cpp:156] Memory required for data: 230765160
I0913 15:31:31.081415 45398 layer_factory.hpp:77] Creating layer conv5
I0913 15:31:31.081440 45398 net.cpp:91] Creating Layer conv5
I0913 15:31:31.081457 45398 net.cpp:425] conv5 <- conv4
I0913 15:31:31.081478 45398 net.cpp:399] conv5 -> conv5
I0913 15:31:31.098455 45398 net.cpp:141] Setting up conv5
I0913 15:31:31.098498 45398 net.cpp:148] Top shape: 30 256 13 13 (1297920)
I0913 15:31:31.098515 45398 net.cpp:156] Memory required for data: 235956840
I0913 15:31:31.098538 45398 layer_factory.hpp:77] Creating layer relu5
I0913 15:31:31.098565 45398 net.cpp:91] Creating Layer relu5
I0913 15:31:31.098582 45398 net.cpp:425] relu5 <- conv5
I0913 15:31:31.098599 45398 net.cpp:386] relu5 -> conv5 (in-place)
I0913 15:31:31.098623 45398 net.cpp:141] Setting up relu5
I0913 15:31:31.098640 45398 net.cpp:148] Top shape: 30 256 13 13 (1297920)
I0913 15:31:31.098654 45398 net.cpp:156] Memory required for data: 241148520
I0913 15:31:31.098670 45398 layer_factory.hpp:77] Creating layer pool5
I0913 15:31:31.098696 45398 net.cpp:91] Creating Layer pool5
I0913 15:31:31.098712 45398 net.cpp:425] pool5 <- conv5
I0913 15:31:31.098731 45398 net.cpp:399] pool5 -> pool5
I0913 15:31:31.098789 45398 net.cpp:141] Setting up pool5
I0913 15:31:31.098814 45398 net.cpp:148] Top shape: 30 256 6 6 (276480)
I0913 15:31:31.098829 45398 net.cpp:156] Memory required for data: 242254440
I0913 15:31:31.098845 45398 layer_factory.hpp:77] Creating layer fc6
I0913 15:31:31.098872 45398 net.cpp:91] Creating Layer fc6
I0913 15:31:31.098888 45398 net.cpp:425] fc6 <- pool5
I0913 15:31:31.098915 45398 net.cpp:399] fc6 -> fc6
I0913 15:31:32.553005 45398 net.cpp:141] Setting up fc6
I0913 15:31:32.553133 45398 net.cpp:148] Top shape: 30 4096 (122880)
I0913 15:31:32.553151 45398 net.cpp:156] Memory required for data: 242745960
I0913 15:31:32.553208 45398 layer_factory.hpp:77] Creating layer relu6
I0913 15:31:32.553257 45398 net.cpp:91] Creating Layer relu6
I0913 15:31:32.553288 45398 net.cpp:425] relu6 <- fc6
I0913 15:31:32.553310 45398 net.cpp:386] relu6 -> fc6 (in-place)
I0913 15:31:32.553339 45398 net.cpp:141] Setting up relu6
I0913 15:31:32.553356 45398 net.cpp:148] Top shape: 30 4096 (122880)
I0913 15:31:32.553371 45398 net.cpp:156] Memory required for data: 243237480
I0913 15:31:32.553386 45398 layer_factory.hpp:77] Creating layer drop6
I0913 15:31:32.553413 45398 net.cpp:91] Creating Layer drop6
I0913 15:31:32.553429 45398 net.cpp:425] drop6 <- fc6
I0913 15:31:32.553453 45398 net.cpp:386] drop6 -> fc6 (in-place)
I0913 15:31:32.553572 45398 net.cpp:141] Setting up drop6
I0913 15:31:32.553598 45398 net.cpp:148] Top shape: 30 4096 (122880)
I0913 15:31:32.553614 45398 net.cpp:156] Memory required for data: 243729000
I0913 15:31:32.553629 45398 layer_factory.hpp:77] Creating layer fc7
I0913 15:31:32.553656 45398 net.cpp:91] Creating Layer fc7
I0913 15:31:32.553674 45398 net.cpp:425] fc7 <- fc6
I0913 15:31:32.553697 45398 net.cpp:399] fc7 -> fc7
I0913 15:31:33.194452 45398 net.cpp:141] Setting up fc7
I0913 15:31:33.194530 45398 net.cpp:148] Top shape: 30 4096 (122880)
I0913 15:31:33.194586 45398 net.cpp:156] Memory required for data: 244220520
I0913 15:31:33.194628 45398 layer_factory.hpp:77] Creating layer relu7
I0913 15:31:33.194656 45398 net.cpp:91] Creating Layer relu7
I0913 15:31:33.194677 45398 net.cpp:425] relu7 <- fc7
I0913 15:31:33.194701 45398 net.cpp:386] relu7 -> fc7 (in-place)
I0913 15:31:33.194726 45398 net.cpp:141] Setting up relu7
I0913 15:31:33.194744 45398 net.cpp:148] Top shape: 30 4096 (122880)
I0913 15:31:33.194759 45398 net.cpp:156] Memory required for data: 244712040
I0913 15:31:33.194773 45398 layer_factory.hpp:77] Creating layer drop7
I0913 15:31:33.194792 45398 net.cpp:91] Creating Layer drop7
I0913 15:31:33.194808 45398 net.cpp:425] drop7 <- fc7
I0913 15:31:33.194824 45398 net.cpp:386] drop7 -> fc7 (in-place)
I0913 15:31:33.194886 45398 net.cpp:141] Setting up drop7
I0913 15:31:33.194908 45398 net.cpp:148] Top shape: 30 4096 (122880)
I0913 15:31:33.194924 45398 net.cpp:156] Memory required for data: 245203560
I0913 15:31:33.194938 45398 layer_factory.hpp:77] Creating layer fc7_drop7_0_split
I0913 15:31:33.194957 45398 net.cpp:91] Creating Layer fc7_drop7_0_split
I0913 15:31:33.194972 45398 net.cpp:425] fc7_drop7_0_split <- fc7
I0913 15:31:33.194993 45398 net.cpp:399] fc7_drop7_0_split -> fc7_drop7_0_split_0
I0913 15:31:33.195036 45398 net.cpp:399] fc7_drop7_0_split -> fc7_drop7_0_split_1
I0913 15:31:33.195094 45398 net.cpp:141] Setting up fc7_drop7_0_split
I0913 15:31:33.195118 45398 net.cpp:148] Top shape: 30 4096 (122880)
I0913 15:31:33.195135 45398 net.cpp:148] Top shape: 30 4096 (122880)
I0913 15:31:33.195150 45398 net.cpp:156] Memory required for data: 246186600
I0913 15:31:33.195165 45398 layer_factory.hpp:77] Creating layer fc_binary_Color
I0913 15:31:33.195204 45398 net.cpp:91] Creating Layer fc_binary_Color
I0913 15:31:33.195225 45398 net.cpp:425] fc_binary_Color <- fc7_drop7_0_split_0
I0913 15:31:33.195246 45398 net.cpp:399] fc_binary_Color -> fc_binary_Color
I0913 15:31:33.197209 45398 net.cpp:141] Setting up fc_binary_Color
I0913 15:31:33.197248 45398 net.cpp:148] Top shape: 30 12 (360)
I0913 15:31:33.197264 45398 net.cpp:156] Memory required for data: 246188040
I0913 15:31:33.197283 45398 layer_factory.hpp:77] Creating layer fc_classification_Color
I0913 15:31:33.197306 45398 net.cpp:91] Creating Layer fc_classification_Color
I0913 15:31:33.197324 45398 net.cpp:425] fc_classification_Color <- fc7_drop7_0_split_1
I0913 15:31:33.197341 45398 net.cpp:399] fc_classification_Color -> fc_classification_Color
I0913 15:31:33.198690 45398 net.cpp:141] Setting up fc_classification_Color
I0913 15:31:33.198729 45398 net.cpp:148] Top shape: 30 8 (240)
I0913 15:31:33.198745 45398 net.cpp:156] Memory required for data: 246189000
I0913 15:31:33.198768 45398 layer_factory.hpp:77] Creating layer loss_hashing
I0913 15:31:33.198812 45398 net.cpp:91] Creating Layer loss_hashing
I0913 15:31:33.198832 45398 net.cpp:425] loss_hashing <- fc_binary_Color
I0913 15:31:33.198849 45398 net.cpp:425] loss_hashing <- label_data_1_split_0
I0913 15:31:33.198868 45398 net.cpp:399] loss_hashing -> loss_hashing
…
I0913 15:31:33.201197 45398 net.cpp:313] The NetState phase (1) differed from the phase (0) specified by a rule in layer data
I0913 15:31:33.201490 45398 net.cpp:49] Initializing net from parameters: 
name: "docomo_AlexNet"
state {
  phase: TEST
}
layer {
  name: "data"
  type: "Data"
  top: "data"
  top: "label"
  include {
    phase: TEST
  }
  transform_param {
    mirror: false
    crop_size: 224
    mean_value: 103.939
    mean_value: 116.779
    mean_value: 123.68
  }
  data_param {
    source: "COLOR/color_val_lmdb"
    batch_size: 40
    backend: LMDB
  }
}
layer {
  name: "conv1"
  type: "Convolution"
  bottom: "data"
  top: "conv1"
  param {
    lr_mult: 1
    decay_mult: 1
  }
  param {
    lr_mult: 2
    decay_mult: 0
  }
  convolution_param {
    num_output: 96
    kernel_size: 11
    stride: 4
    weight_filler {
      type: "gaussian"
      std: 0.01
    }
    bias_filler {
      type: "constant"
      value: 0
    }
  }
}
layer {
  name: "relu1"
  type: "ReLU"
  bottom: "conv1"
  top: "conv1"
}
layer {
  name: "norm1"
  type: "LRN"
  bottom: "conv1"
  top: "norm1"
  lrn_param {
    local_size: 5
    alpha: 0.0001
    beta: 0.75
  }
}
layer {
  name: "pool1"
  type: "Pooling"
  bottom: "norm1"
  top: "pool1"
  pooling_param {
    pool: MAX
    kernel_size: 3
    stride: 2
  }
}
layer {
  name: "conv2"
  type: "Convolution"
  bottom: "pool1"
  top: "conv2"
  param {
    lr_mult: 1
    decay_mult: 1
  }
  param {
    lr_mult: 2
    decay_mult: 0
  }
  convolution_param {
    num_output: 256
    pad: 2
    kernel_size: 5
    group: 2
    weight_filler {
      type: "gaussian"
      std: 0.01
    }
    bias_filler {
      type: "constant"
      value: 0.1
    }
  }
}
layer {
  name: "relu2"
  type: "ReLU"
  bottom: "conv2"
  top: "conv2"
}
layer {
  name: "norm2"
  type: "LRN"
  bottom: "conv2"
  top: "norm2"
  lrn_param {
    local_size: 5
    alpha: 0.0001
    beta: 0.75
  }
}
layer {
  name: "pool2"
  type: "Pooling"
  bottom: "norm2"
  top: "pool2"
  pooling_param {
    pool: MAX
    kernel_size: 3
    stride: 2
  }
}
layer {
  name: "conv3"
  type: "Convolution"
  bottom: "pool2"
  top: "conv3"
  param {
    lr_mult: 1
    decay_mult: 1
  }
  param {
    lr_mult: 2
    decay_mult: 0
  }
  convolution_param {
    num_output: 384
    pad: 1
    kernel_size: 3
    weight_filler {
      type: "gaussian"
      std: 0.01
    }
    bias_filler {
      type: "constant"
      value: 0
    }
  }
}
layer {
  name: "relu3"
  type: "ReLU"
  bottom: "conv3"
  top: "conv3"
}
layer {
  name: "conv4"
  type: "Convolution"
  bottom: "conv3"
  top: "conv4"
  param {
    lr_mult: 1
    decay_mult: 1
  }
  param {
    lr_mult: 2
    decay_mult: 0
  }
  convolution_param {
    num_output: 384
    pad: 1
    kernel_size: 3
    group: 2
    weight_filler {
      type: "gaussian"
      std: 0.01
    }
    bias_filler {
      type: "constant"
      value: 0.1
    }
  }
}
layer {
  name: "relu4"
  type: "ReLU"
  bottom: "conv4"
  top: "conv4"
}
layer {
  name: "conv5"
  type: "Convolution"
  bottom: "conv4"
  top: "conv5"
  param {
    lr_mult: 1
    decay_mult: 1
  }
  param {
    lr_mult: 2
    decay_mult: 0
  }
  convolution_param {
    num_output: 256
    pad: 1
    kernel_size: 3
    group: 2
    weight_filler {
      type: "gaussian"
      std: 0.01
    }
    bias_filler {
      type: "constant"
      value: 0.1
    }
  }
}
layer {
  name: "relu5"
  type: "ReLU"
  bottom: "conv5"
  top: "conv5"
}
layer {
  name: "pool5"
  type: "Pooling"
  bottom: "conv5"
  top: "pool5"
  pooling_param {
    pool: MAX
    kernel_size: 3
    stride: 2
  }
}
layer {
  name: "fc6"
  type: "InnerProduct"
  bottom: "pool5"
  top: "fc6"
  param {
    lr_mult: 1
    decay_mult: 1
  }
  param {
    lr_mult: 2
    decay_mult: 0
  }
  inner_product_param {
    num_output: 4096
    weight_filler {
      type: "gaussian"
      std: 0.005
    }
    bias_filler {
      type: "constant"
      value: 0.1
    }
  }
}
layer {
  name: "relu6"
  type: "ReLU"
  bottom: "fc6"
  top: "fc6"
}
layer {
  name: "drop6"
  type: "Dropout"
  bottom: "fc6"
  top: "fc6"
  dropout_param {
    dropout_ratio: 0.5
  }
}
layer {
  name: "fc7"
  type: "InnerProduct"
  bottom: "fc6"
  top: "fc7"
  param {
    lr_mult: 1
    decay_mult: 1
  }
  param {
    lr_mult: 2
    decay_mult: 0
  }
  inner_product_param {
    num_output: 4096
    weight_filler {
      type: "gaussian"
      std: 0.005
    }
    bias_filler {
      type: "constant"
      value: 0.1
    }
  }
}
layer {
  name: "relu7"
  type: "ReLU"
  bottom: "fc7"
  top: "fc7"
}
layer {
  name: "drop7"
  type: "Dropout"
  bottom: "fc7"
  top: "fc7"
  dropout_param {
    dropout_ratio: 0.5
  }
}
layer {
  name: "fc_binary_Color"
  type: "InnerProduct"
  bottom: "fc7"
  top: "fc_binary_Color"
  param {
    lr_mult: 10
    decay_mult: 1
  }
  param {
    lr_mult: 20
    decay_mult: 0
  }
  inner_product_param {
    num_output: 12
    weight_filler {
      type: "gaussian"
      std: 0.005
    }
    bias_filler {
      type: "constant"
      value: 0.1
    }
  }
}
layer {
  name: "fc_classification_Color"
  type: "InnerProduct"
  bottom: "fc7"
  top: "fc_classification_Color"
  param {
    lr_mult: 10
    decay_mult: 1
  }
  param {
    lr_mult: 20
    decay_mult: 0
  }
  inner_product_param {
    num_output: 8
    weight_filler {
      type: "gaussian"
      std: 0.05
    }
    bias_filler {
      type: "constant"
      value: 0.1
    }
  }
}
layer {
  name: "accuracy_at_1_Color"
  type: "Accuracy"
  bottom: "fc_classification_Color"
  bottom: "label"
  top: "accuracy_at_1_Color"
  include {
    phase: TEST
  }
}
layer {
  name: "loss_hashing"
  type: "HashingLoss"
  bottom: "fc_binary_Color"
  bottom: "label"
  top: "loss_hashing"
  loss_weight: 0.1
  hashing_loss_param {
    bi_margin: 24
    tradeoff: 0.01
  }
}
layer {
  name: "loss_classification"
  type: "SoftmaxWithLoss"
  bottom: "fc_classification_Color"
  bottom: "label"
  top: "loss"
}
I0913 15:31:33.203146 45398 layer_factory.hpp:77] Creating layer data
I0913 15:31:33.203341 45398 net.cpp:91] Creating Layer data
I0913 15:31:33.203369 45398 net.cpp:399] data -> data
I0913 15:31:33.203397 45398 net.cpp:399] data -> label
I0913 15:31:33.204715 45404 db_lmdb.cpp:38] Opened lmdb COLOR/color_val_lmdb
I0913 15:31:33.205207 45398 data_layer.cpp:41] output data size: 40,3,224,224
I0913 15:31:33.258725 45398 net.cpp:141] Setting up data
I0913 15:31:33.258801 45398 net.cpp:148] Top shape: 40 3 224 224 (6021120)
I0913 15:31:33.258822 45398 net.cpp:148] Top shape: 40 1 1 1 (40)
I0913 15:31:33.258837 45398 net.cpp:156] Memory required for data: 24084640
I0913 15:31:33.258857 45398 layer_factory.hpp:77] Creating layer label_data_1_split
I0913 15:31:33.258888 45398 net.cpp:91] Creating Layer label_data_1_split
I0913 15:31:33.258903 45398 net.cpp:425] label_data_1_split <- label
I0913 15:31:33.258927 45398 net.cpp:399] label_data_1_split -> label_data_1_split_0
I0913 15:31:33.258955 45398 net.cpp:399] label_data_1_split -> label_data_1_split_1
I0913 15:31:33.258977 45398 net.cpp:399] label_data_1_split -> label_data_1_split_2
I0913 15:31:33.259069 45398 net.cpp:141] Setting up label_data_1_split
I0913 15:31:33.259094 45398 net.cpp:148] Top shape: 40 1 1 1 (40)
I0913 15:31:33.259111 45398 net.cpp:148] Top shape: 40 1 1 1 (40)
I0913 15:31:33.259129 45398 net.cpp:148] Top shape: 40 1 1 1 (40)
I0913 15:31:33.259145 45398 net.cpp:156] Memory required for data: 24085120
I0913 15:31:33.259160 45398 layer_factory.hpp:77] Creating layer conv1
I0913 15:31:33.259196 45398 net.cpp:91] Creating Layer conv1
I0913 15:31:33.259213 45398 net.cpp:425] conv1 <- data
I0913 15:31:33.259238 45398 net.cpp:399] conv1 -> conv1
I0913 15:31:33.262060 45398 net.cpp:141] Setting up conv1
I0913 15:31:33.262102 45398 net.cpp:148] Top shape: 40 96 54 54 (11197440)
I0913 15:31:33.262120 45398 net.cpp:156] Memory required for data: 68874880
I0913 15:31:33.262145 45398 layer_factory.hpp:77] Creating layer relu1
I0913 15:31:33.262166 45398 net.cpp:91] Creating Layer relu1
I0913 15:31:33.262182 45398 net.cpp:425] relu1 <- conv1
I0913 15:31:33.262209 45398 net.cpp:386] relu1 -> conv1 (in-place)
I0913 15:31:33.262234 45398 net.cpp:141] Setting up relu1
I0913 15:31:33.262253 45398 net.cpp:148] Top shape: 40 96 54 54 (11197440)
I0913 15:31:33.262274 45398 net.cpp:156] Memory required for data: 113664640
I0913 15:31:33.262289 45398 layer_factory.hpp:77] Creating layer norm1
I0913 15:31:33.262310 45398 net.cpp:91] Creating Layer norm1
I0913 15:31:33.262328 45398 net.cpp:425] norm1 <- conv1
I0913 15:31:33.262349 45398 net.cpp:399] norm1 -> norm1
I0913 15:31:33.262411 45398 net.cpp:141] Setting up norm1
I0913 15:31:33.262435 45398 net.cpp:148] Top shape: 40 96 54 54 (11197440)
I0913 15:31:33.262451 45398 net.cpp:156] Memory required for data: 158454400
I0913 15:31:33.262466 45398 layer_factory.hpp:77] Creating layer pool1
I0913 15:31:33.262490 45398 net.cpp:91] Creating Layer pool1
I0913 15:31:33.262508 45398 net.cpp:425] pool1 <- norm1
I0913 15:31:33.262528 45398 net.cpp:399] pool1 -> pool1
I0913 15:31:33.262588 45398 net.cpp:141] Setting up pool1
I0913 15:31:33.262611 45398 net.cpp:148] Top shape: 40 96 27 27 (2799360)
I0913 15:31:33.262629 45398 net.cpp:156] Memory required for data: 169651840
I0913 15:31:33.262643 45398 layer_factory.hpp:77] Creating layer conv2
I0913 15:31:33.262670 45398 net.cpp:91] Creating Layer conv2
I0913 15:31:33.262689 45398 net.cpp:425] conv2 <- pool1
I0913 15:31:33.262712 45398 net.cpp:399] conv2 -> conv2
I0913 15:31:33.275234 45398 net.cpp:141] Setting up conv2
I0913 15:31:33.275290 45398 net.cpp:148] Top shape: 40 256 27 27 (7464960)
I0913 15:31:33.275306 45398 net.cpp:156] Memory required for data: 199511680
I0913 15:31:33.275382 45398 layer_factory.hpp:77] Creating layer relu2
I0913 15:31:33.275435 45398 net.cpp:91] Creating Layer relu2
I0913 15:31:33.275454 45398 net.cpp:425] relu2 <- conv2
I0913 15:31:33.275475 45398 net.cpp:386] relu2 -> conv2 (in-place)
I0913 15:31:33.275498 45398 net.cpp:141] Setting up relu2
I0913 15:31:33.275519 45398 net.cpp:148] Top shape: 40 256 27 27 (7464960)
I0913 15:31:33.275534 45398 net.cpp:156] Memory required for data: 229371520
I0913 15:31:33.275552 45398 layer_factory.hpp:77] Creating layer norm2
I0913 15:31:33.275578 45398 net.cpp:91] Creating Layer norm2
I0913 15:31:33.275595 45398 net.cpp:425] norm2 <- conv2
I0913 15:31:33.275614 45398 net.cpp:399] norm2 -> norm2
I0913 15:31:33.275677 45398 net.cpp:141] Setting up norm2
I0913 15:31:33.275703 45398 net.cpp:148] Top shape: 40 256 27 27 (7464960)
I0913 15:31:33.275719 45398 net.cpp:156] Memory required for data: 259231360
I0913 15:31:33.275734 45398 layer_factory.hpp:77] Creating layer pool2
I0913 15:31:33.275753 45398 net.cpp:91] Creating Layer pool2
I0913 15:31:33.275771 45398 net.cpp:425] pool2 <- norm2
I0913 15:31:33.275791 45398 net.cpp:399] pool2 -> pool2
I0913 15:31:33.275847 45398 net.cpp:141] Setting up pool2
I0913 15:31:33.275871 45398 net.cpp:148] Top shape: 40 256 13 13 (1730560)
I0913 15:31:33.275885 45398 net.cpp:156] Memory required for data: 266153600
I0913 15:31:33.275899 45398 layer_factory.hpp:77] Creating layer conv3
I0913 15:31:33.275930 45398 net.cpp:91] Creating Layer conv3
I0913 15:31:33.275949 45398 net.cpp:425] conv3 <- pool2
I0913 15:31:33.275969 45398 net.cpp:399] conv3 -> conv3
I0913 15:31:33.311162 45398 net.cpp:141] Setting up conv3
I0913 15:31:33.311224 45398 net.cpp:148] Top shape: 40 384 13 13 (2595840)
I0913 15:31:33.311241 45398 net.cpp:156] Memory required for data: 276536960
I0913 15:31:33.311269 45398 layer_factory.hpp:77] Creating layer relu3
I0913 15:31:33.311293 45398 net.cpp:91] Creating Layer relu3
I0913 15:31:33.311311 45398 net.cpp:425] relu3 <- conv3
I0913 15:31:33.311329 45398 net.cpp:386] relu3 -> conv3 (in-place)
I0913 15:31:33.311352 45398 net.cpp:141] Setting up relu3
I0913 15:31:33.311369 45398 net.cpp:148] Top shape: 40 384 13 13 (2595840)
I0913 15:31:33.311384 45398 net.cpp:156] Memory required for data: 286920320
I0913 15:31:33.311400 45398 layer_factory.hpp:77] Creating layer conv4
I0913 15:31:33.311427 45398 net.cpp:91] Creating Layer conv4
I0913 15:31:33.311447 45398 net.cpp:425] conv4 <- conv3
I0913 15:31:33.311480 45398 net.cpp:399] conv4 -> conv4
I0913 15:31:33.338034 45398 net.cpp:141] Setting up conv4
I0913 15:31:33.338094 45398 net.cpp:148] Top shape: 40 384 13 13 (2595840)
I0913 15:31:33.338111 45398 net.cpp:156] Memory required for data: 297303680
I0913 15:31:33.338135 45398 layer_factory.hpp:77] Creating layer relu4
I0913 15:31:33.338158 45398 net.cpp:91] Creating Layer relu4
I0913 15:31:33.338177 45398 net.cpp:425] relu4 <- conv4
I0913 15:31:33.338209 45398 net.cpp:386] relu4 -> conv4 (in-place)
I0913 15:31:33.338233 45398 net.cpp:141] Setting up relu4
I0913 15:31:33.338255 45398 net.cpp:148] Top shape: 40 384 13 13 (2595840)
I0913 15:31:33.338270 45398 net.cpp:156] Memory required for data: 307687040
I0913 15:31:33.338286 45398 layer_factory.hpp:77] Creating layer conv5
I0913 15:31:33.338315 45398 net.cpp:91] Creating Layer conv5
I0913 15:31:33.338330 45398 net.cpp:425] conv5 <- conv4
I0913 15:31:33.338349 45398 net.cpp:399] conv5 -> conv5
I0913 15:31:33.356215 45398 net.cpp:141] Setting up conv5
I0913 15:31:33.356272 45398 net.cpp:148] Top shape: 40 256 13 13 (1730560)
I0913 15:31:33.356289 45398 net.cpp:156] Memory required for data: 314609280
I0913 15:31:33.356317 45398 layer_factory.hpp:77] Creating layer relu5
I0913 15:31:33.356344 45398 net.cpp:91] Creating Layer relu5
I0913 15:31:33.356362 45398 net.cpp:425] relu5 <- conv5
I0913 15:31:33.356381 45398 net.cpp:386] relu5 -> conv5 (in-place)
I0913 15:31:33.356405 45398 net.cpp:141] Setting up relu5
I0913 15:31:33.356426 45398 net.cpp:148] Top shape: 40 256 13 13 (1730560)
I0913 15:31:33.356441 45398 net.cpp:156] Memory required for data: 321531520
I0913 15:31:33.356506 45398 layer_factory.hpp:77] Creating layer pool5
I0913 15:31:33.356530 45398 net.cpp:91] Creating Layer pool5
I0913 15:31:33.356549 45398 net.cpp:425] pool5 <- conv5
I0913 15:31:33.356570 45398 net.cpp:399] pool5 -> pool5
I0913 15:31:33.356637 45398 net.cpp:141] Setting up pool5
I0913 15:31:33.356659 45398 net.cpp:148] Top shape: 40 256 6 6 (368640)
I0913 15:31:33.356675 45398 net.cpp:156] Memory required for data: 323006080
I0913 15:31:33.356689 45398 layer_factory.hpp:77] Creating layer fc6
I0913 15:31:33.356714 45398 net.cpp:91] Creating Layer fc6
I0913 15:31:33.356741 45398 net.cpp:425] fc6 <- pool5
I0913 15:31:33.356762 45398 net.cpp:399] fc6 -> fc6
I0913 15:31:34.807211 45398 net.cpp:141] Setting up fc6
I0913 15:31:34.807289 45398 net.cpp:148] Top shape: 40 4096 (163840)
I0913 15:31:34.807307 45398 net.cpp:156] Memory required for data: 323661440
I0913 15:31:34.807332 45398 layer_factory.hpp:77] Creating layer relu6
I0913 15:31:34.807354 45398 net.cpp:91] Creating Layer relu6
I0913 15:31:34.807371 45398 net.cpp:425] relu6 <- fc6
I0913 15:31:34.807395 45398 net.cpp:386] relu6 -> fc6 (in-place)
I0913 15:31:34.807420 45398 net.cpp:141] Setting up relu6
I0913 15:31:34.807440 45398 net.cpp:148] Top shape: 40 4096 (163840)
I0913 15:31:34.807456 45398 net.cpp:156] Memory required for data: 324316800
I0913 15:31:34.807471 45398 layer_factory.hpp:77] Creating layer drop6
I0913 15:31:34.807489 45398 net.cpp:91] Creating Layer drop6
I0913 15:31:34.807505 45398 net.cpp:425] drop6 <- fc6
I0913 15:31:34.807524 45398 net.cpp:386] drop6 -> fc6 (in-place)
I0913 15:31:34.807571 45398 net.cpp:141] Setting up drop6
I0913 15:31:34.807595 45398 net.cpp:148] Top shape: 40 4096 (163840)
I0913 15:31:34.807610 45398 net.cpp:156] Memory required for data: 324972160
I0913 15:31:34.807626 45398 layer_factory.hpp:77] Creating layer fc7
I0913 15:31:34.807648 45398 net.cpp:91] Creating Layer fc7
I0913 15:31:34.807667 45398 net.cpp:425] fc7 <- fc6
I0913 15:31:34.807685 45398 net.cpp:399] fc7 -> fc7
I0913 15:31:35.447767 45398 net.cpp:141] Setting up fc7
I0913 15:31:35.447855 45398 net.cpp:148] Top shape: 40 4096 (163840)
I0913 15:31:35.447875 45398 net.cpp:156] Memory required for data: 325627520
I0913 15:31:35.447906 45398 layer_factory.hpp:77] Creating layer relu7
I0913 15:31:35.447937 45398 net.cpp:91] Creating Layer relu7
I0913 15:31:35.447958 45398 net.cpp:425] relu7 <- fc7
I0913 15:31:35.447983 45398 net.cpp:386] relu7 -> fc7 (in-place)
I0913 15:31:35.448006 45398 net.cpp:141] Setting up relu7
I0913 15:31:35.448024 45398 net.cpp:148] Top shape: 40 4096 (163840)
I0913 15:31:35.448038 45398 net.cpp:156] Memory required for data: 326282880
I0913 15:31:35.448055 45398 layer_factory.hpp:77] Creating layer drop7
I0913 15:31:35.448081 45398 net.cpp:91] Creating Layer drop7
I0913 15:31:35.448097 45398 net.cpp:425] drop7 <- fc7
I0913 15:31:35.448113 45398 net.cpp:386] drop7 -> fc7 (in-place)
I0913 15:31:35.448191 45398 net.cpp:141] Setting up drop7
I0913 15:31:35.448215 45398 net.cpp:148] Top shape: 40 4096 (163840)
I0913 15:31:35.448230 45398 net.cpp:156] Memory required for data: 326938240
I0913 15:31:35.448246 45398 layer_factory.hpp:77] Creating layer fc7_drop7_0_split
I0913 15:31:35.448264 45398 net.cpp:91] Creating Layer fc7_drop7_0_split
I0913 15:31:35.448282 45398 net.cpp:425] fc7_drop7_0_split <- fc7
I0913 15:31:35.448305 45398 net.cpp:399] fc7_drop7_0_split -> fc7_drop7_0_split_0
I0913 15:31:35.448328 45398 net.cpp:399] fc7_drop7_0_split -> fc7_drop7_0_split_1
I0913 15:31:35.448381 45398 net.cpp:141] Setting up fc7_drop7_0_split
I0913 15:31:35.448405 45398 net.cpp:148] Top shape: 40 4096 (163840)
I0913 15:31:35.448421 45398 net.cpp:148] Top shape: 40 4096 (163840)
I0913 15:31:35.448437 45398 net.cpp:156] Memory required for data: 328248960
I0913 15:31:35.448452 45398 layer_factory.hpp:77] Creating layer fc_binary_Color
I0913 15:31:35.448479 45398 net.cpp:91] Creating Layer fc_binary_Color
I0913 15:31:35.448498 45398 net.cpp:425] fc_binary_Color <- fc7_drop7_0_split_0
I0913 15:31:35.448563 45398 net.cpp:399] fc_binary_Color -> fc_binary_Color
I0913 15:31:35.450594 45398 net.cpp:141] Setting up fc_binary_Color
I0913 15:31:35.450621 45398 net.cpp:148] Top shape: 40 12 (480)
I0913 15:31:35.450637 45398 net.cpp:156] Memory required for data: 328250880
I0913 15:31:35.450656 45398 layer_factory.hpp:77] Creating layer fc_classification_Color
I0913 15:31:35.450677 45398 net.cpp:91] Creating Layer fc_classification_Color
I0913 15:31:35.450692 45398 net.cpp:425] fc_classification_Color <- fc7_drop7_0_split_1
I0913 15:31:35.450713 45398 net.cpp:399] fc_classification_Color -> fc_classification_Color
I0913 15:31:35.452070 45398 net.cpp:141] Setting up fc_classification_Color
I0913 15:31:35.452096 45398 net.cpp:148] Top shape: 40 8 (320)
I0913 15:31:35.452112 45398 net.cpp:156] Memory required for data: 328252160
I0913 15:31:35.452147 45398 layer_factory.hpp:77] Creating layer fc_classification_Color_fc_classification_Color_0_split
I0913 15:31:35.452167 45398 net.cpp:91] Creating Layer fc_classification_Color_fc_classification_Color_0_split
I0913 15:31:35.452183 45398 net.cpp:425] fc_classification_Color_fc_classification_Color_0_split <- fc_classification_Color
I0913 15:31:35.452203 45398 net.cpp:399] fc_classification_Color_fc_classification_Color_0_split -> fc_classification_Color_fc_classification_Color_0_split_0
I0913 15:31:35.452224 45398 net.cpp:399] fc_classification_Color_fc_classification_Color_0_split -> fc_classification_Color_fc_classification_Color_0_split_1
I0913 15:31:35.452277 45398 net.cpp:141] Setting up fc_classification_Color_fc_classification_Color_0_split
I0913 15:31:35.452306 45398 net.cpp:148] Top shape: 40 8 (320)
I0913 15:31:35.452323 45398 net.cpp:148] Top shape: 40 8 (320)
I0913 15:31:35.452337 45398 net.cpp:156] Memory required for data: 328254720
I0913 15:31:35.452353 45398 layer_factory.hpp:77] Creating layer accuracy_at_1_Color
I0913 15:31:35.452378 45398 net.cpp:91] Creating Layer accuracy_at_1_Color
I0913 15:31:35.452394 45398 net.cpp:425] accuracy_at_1_Color <- fc_classification_Color_fc_classification_Color_0_split_0
I0913 15:31:35.452410 45398 net.cpp:425] accuracy_at_1_Color <- label_data_1_split_0
…
