…
I0914 13:40:10.487031 10855 net.cpp:313] The NetState phase (0) differed from the phase (1) specified by a rule in layer accuracy_at_1_Color
I0914 13:40:10.487320 10855 net.cpp:49] Initializing net from parameters: 
name: "docomo_AlexNet"
state {
  phase: TRAIN
}
layer {
  name: "data"
  type: "Data"
  top: "data"
  top: "label"
  include {
    phase: TRAIN
  }
  transform_param {
    mirror: true
    crop_size: 224
    mean_value: 103.939
    mean_value: 116.779
    mean_value: 123.68
  }
  data_param {
    source: "COLOR/color_train_lmdb"
    batch_size: 30
    backend: LMDB
  }
}
layer {
  name: "conv1"
  type: "Convolution"
  bottom: "data"
  top: "conv1"
  param {
    lr_mult: 1
    decay_mult: 1
  }
  param {
    lr_mult: 2
    decay_mult: 0
  }
  convolution_param {
    num_output: 96
    kernel_size: 11
    stride: 4
    weight_filler {
      type: "gaussian"
      std: 0.01
    }
    bias_filler {
      type: "constant"
      value: 0
    }
  }
}
layer {
  name: "relu1"
  type: "ReLU"
  bottom: "conv1"
  top: "conv1"
}
layer {
  name: "norm1"
  type: "LRN"
  bottom: "conv1"
  top: "norm1"
  lrn_param {
    local_size: 5
    alpha: 0.0001
    beta: 0.75
  }
}
layer {
  name: "pool1"
  type: "Pooling"
  bottom: "norm1"
  top: "pool1"
  pooling_param {
    pool: MAX
    kernel_size: 3
    stride: 2
  }
}
layer {
  name: "conv2"
  type: "Convolution"
  bottom: "pool1"
  top: "conv2"
  param {
    lr_mult: 1
    decay_mult: 1
  }
  param {
    lr_mult: 2
    decay_mult: 0
  }
  convolution_param {
    num_output: 256
    pad: 2
    kernel_size: 5
    group: 2
    weight_filler {
      type: "gaussian"
      std: 0.01
    }
    bias_filler {
      type: "constant"
      value: 0.1
    }
  }
}
layer {
  name: "relu2"
  type: "ReLU"
  bottom: "conv2"
  top: "conv2"
}
layer {
  name: "norm2"
  type: "LRN"
  bottom: "conv2"
  top: "norm2"
  lrn_param {
    local_size: 5
    alpha: 0.0001
    beta: 0.75
  }
}
layer {
  name: "pool2"
  type: "Pooling"
  bottom: "norm2"
  top: "pool2"
  pooling_param {
    pool: MAX
    kernel_size: 3
    stride: 2
  }
}
layer {
  name: "conv3"
  type: "Convolution"
  bottom: "pool2"
  top: "conv3"
  param {
    lr_mult: 1
    decay_mult: 1
  }
  param {
    lr_mult: 2
    decay_mult: 0
  }
  convolution_param {
    num_output: 384
    pad: 1
    kernel_size: 3
    weight_filler {
      type: "gaussian"
      std: 0.01
    }
    bias_filler {
      type: "constant"
      value: 0
    }
  }
}
layer {
  name: "relu3"
  type: "ReLU"
  bottom: "conv3"
  top: "conv3"
}
layer {
  name: "conv4"
  type: "Convolution"
  bottom: "conv3"
  top: "conv4"
  param {
    lr_mult: 1
    decay_mult: 1
  }
  param {
    lr_mult: 2
    decay_mult: 0
  }
  convolution_param {
    num_output: 384
    pad: 1
    kernel_size: 3
    group: 2
    weight_filler {
      type: "gaussian"
      std: 0.01
    }
    bias_filler {
      type: "constant"
      value: 0.1
    }
  }
}
layer {
  name: "relu4"
  type: "ReLU"
  bottom: "conv4"
  top: "conv4"
}
layer {
  name: "conv5"
  type: "Convolution"
  bottom: "conv4"
  top: "conv5"
  param {
    lr_mult: 1
    decay_mult: 1
  }
  param {
    lr_mult: 2
    decay_mult: 0
  }
  convolution_param {
    num_output: 256
    pad: 1
    kernel_size: 3
    group: 2
    weight_filler {
      type: "gaussian"
      std: 0.01
    }
    bias_filler {
      type: "constant"
      value: 0.1
    }
  }
}
layer {
  name: "relu5"
  type: "ReLU"
  bottom: "conv5"
  top: "conv5"
}
layer {
  name: "pool5"
  type: "Pooling"
  bottom: "conv5"
  top: "pool5"
  pooling_param {
    pool: MAX
    kernel_size: 3
    stride: 2
  }
}
layer {
  name: "fc6"
  type: "InnerProduct"
  bottom: "pool5"
  top: "fc6"
  param {
    lr_mult: 1
    decay_mult: 1
  }
  param {
    lr_mult: 2
    decay_mult: 0
  }
  inner_product_param {
    num_output: 4096
    weight_filler {
      type: "gaussian"
      std: 0.005
    }
    bias_filler {
      type: "constant"
      value: 0.1
    }
  }
}
layer {
  name: "relu6"
  type: "ReLU"
  bottom: "fc6"
  top: "fc6"
}
layer {
  name: "drop6"
  type: "Dropout"
  bottom: "fc6"
  top: "fc6"
  dropout_param {
    dropout_ratio: 0.5
  }
}
layer {
  name: "fc7"
  type: "InnerProduct"
  bottom: "fc6"
  top: "fc7"
  param {
    lr_mult: 1
    decay_mult: 1
  }
  param {
    lr_mult: 2
    decay_mult: 0
  }
  inner_product_param {
    num_output: 4096
    weight_filler {
      type: "gaussian"
      std: 0.005
    }
    bias_filler {
      type: "constant"
      value: 0.1
    }
  }
}
layer {
  name: "relu7"
  type: "ReLU"
  bottom: "fc7"
  top: "fc7"
}
layer {
  name: "drop7"
  type: "Dropout"
  bottom: "fc7"
  top: "fc7"
  dropout_param {
    dropout_ratio: 0.5
  }
}
layer {
  name: "fc_binary_Color"
  type: "InnerProduct"
  bottom: "fc7"
  top: "fc_binary_Color"
  param {
    lr_mult: 10
    decay_mult: 1
  }
  param {
    lr_mult: 20
    decay_mult: 0
  }
  inner_product_param {
    num_output: 12
    weight_filler {
      type: "gaussian"
      std: 0.005
    }
    bias_filler {
      type: "constant"
      value: 0.1
    }
  }
}
layer {
  name: "fc_classification_Color"
  type: "InnerProduct"
  bottom: "fc7"
  top: "fc_classification_Color"
  param {
    lr_mult: 10
    decay_mult: 1
  }
  param {
    lr_mult: 20
    decay_mult: 0
  }
  inner_product_param {
    num_output: 8
    weight_filler {
      type: "gaussian"
      std: 0.05
    }
    bias_filler {
      type: "constant"
      value: 0.1
    }
  }
}
layer {
  name: "loss_hashing"
  type: "HashingLoss"
  bottom: "fc_binary_Color"
  bottom: "label"
  top: "loss_hashing"
  loss_weight: 0.1
  hashing_loss_param {
    bi_margin: 24
    tradeoff: 0.01
  }
}
layer {
  name: "loss_classification"
  type: "SoftmaxWithLoss"
  bottom: "fc_classification_Color"
  bottom: "label"
  top: "loss"
}
I0914 13:40:10.488999 10855 layer_factory.hpp:77] Creating layer data
I0914 13:40:10.489714 10855 net.cpp:91] Creating Layer data
I0914 13:40:10.489755 10855 net.cpp:399] data -> data
I0914 13:40:10.489897 10855 net.cpp:399] data -> label
I0914 13:40:10.502161 10859 db_lmdb.cpp:38] Opened lmdb COLOR/color_train_lmdb
I0914 13:40:10.612614 10855 data_layer.cpp:41] output data size: 30,3,224,224
I0914 13:40:10.659086 10855 net.cpp:141] Setting up data
I0914 13:40:10.659178 10855 net.cpp:148] Top shape: 30 3 224 224 (4515840)
I0914 13:40:10.659199 10855 net.cpp:148] Top shape: 30 1 1 1 (30)
I0914 13:40:10.659214 10855 net.cpp:156] Memory required for data: 18063480
I0914 13:40:10.659238 10855 layer_factory.hpp:77] Creating layer label_data_1_split
I0914 13:40:10.659270 10855 net.cpp:91] Creating Layer label_data_1_split
I0914 13:40:10.659291 10855 net.cpp:425] label_data_1_split <- label
I0914 13:40:10.659324 10855 net.cpp:399] label_data_1_split -> label_data_1_split_0
I0914 13:40:10.659353 10855 net.cpp:399] label_data_1_split -> label_data_1_split_1
I0914 13:40:10.659440 10855 net.cpp:141] Setting up label_data_1_split
I0914 13:40:10.659464 10855 net.cpp:148] Top shape: 30 1 1 1 (30)
I0914 13:40:10.659482 10855 net.cpp:148] Top shape: 30 1 1 1 (30)
I0914 13:40:10.659495 10855 net.cpp:156] Memory required for data: 18063720
I0914 13:40:10.659510 10855 layer_factory.hpp:77] Creating layer conv1
I0914 13:40:10.659553 10855 net.cpp:91] Creating Layer conv1
I0914 13:40:10.659577 10855 net.cpp:425] conv1 <- data
I0914 13:40:10.659597 10855 net.cpp:399] conv1 -> conv1
I0914 13:40:10.662781 10855 net.cpp:141] Setting up conv1
I0914 13:40:10.662856 10855 net.cpp:148] Top shape: 30 96 54 54 (8398080)
I0914 13:40:10.662875 10855 net.cpp:156] Memory required for data: 51656040
I0914 13:40:10.662906 10855 layer_factory.hpp:77] Creating layer relu1
I0914 13:40:10.662931 10855 net.cpp:91] Creating Layer relu1
I0914 13:40:10.662950 10855 net.cpp:425] relu1 <- conv1
I0914 13:40:10.662967 10855 net.cpp:386] relu1 -> conv1 (in-place)
I0914 13:40:10.662991 10855 net.cpp:141] Setting up relu1
I0914 13:40:10.663007 10855 net.cpp:148] Top shape: 30 96 54 54 (8398080)
I0914 13:40:10.663022 10855 net.cpp:156] Memory required for data: 85248360
I0914 13:40:10.663036 10855 layer_factory.hpp:77] Creating layer norm1
I0914 13:40:10.663056 10855 net.cpp:91] Creating Layer norm1
I0914 13:40:10.663070 10855 net.cpp:425] norm1 <- conv1
I0914 13:40:10.663094 10855 net.cpp:399] norm1 -> norm1
I0914 13:40:10.663164 10855 net.cpp:141] Setting up norm1
I0914 13:40:10.663188 10855 net.cpp:148] Top shape: 30 96 54 54 (8398080)
I0914 13:40:10.663203 10855 net.cpp:156] Memory required for data: 118840680
I0914 13:40:10.663216 10855 layer_factory.hpp:77] Creating layer pool1
I0914 13:40:10.663240 10855 net.cpp:91] Creating Layer pool1
I0914 13:40:10.663259 10855 net.cpp:425] pool1 <- norm1
I0914 13:40:10.663283 10855 net.cpp:399] pool1 -> pool1
I0914 13:40:10.663352 10855 net.cpp:141] Setting up pool1
I0914 13:40:10.663379 10855 net.cpp:148] Top shape: 30 96 27 27 (2099520)
I0914 13:40:10.663394 10855 net.cpp:156] Memory required for data: 127238760
I0914 13:40:10.663409 10855 layer_factory.hpp:77] Creating layer conv2
I0914 13:40:10.663434 10855 net.cpp:91] Creating Layer conv2
I0914 13:40:10.663455 10855 net.cpp:425] conv2 <- pool1
I0914 13:40:10.663478 10855 net.cpp:399] conv2 -> conv2
I0914 13:40:10.676470 10855 net.cpp:141] Setting up conv2
I0914 13:40:10.676503 10855 net.cpp:148] Top shape: 30 256 27 27 (5598720)
I0914 13:40:10.676518 10855 net.cpp:156] Memory required for data: 149633640
I0914 13:40:10.676542 10855 layer_factory.hpp:77] Creating layer relu2
I0914 13:40:10.676563 10855 net.cpp:91] Creating Layer relu2
I0914 13:40:10.676584 10855 net.cpp:425] relu2 <- conv2
I0914 13:40:10.676600 10855 net.cpp:386] relu2 -> conv2 (in-place)
I0914 13:40:10.676620 10855 net.cpp:141] Setting up relu2
I0914 13:40:10.676636 10855 net.cpp:148] Top shape: 30 256 27 27 (5598720)
I0914 13:40:10.676651 10855 net.cpp:156] Memory required for data: 172028520
I0914 13:40:10.676664 10855 layer_factory.hpp:77] Creating layer norm2
I0914 13:40:10.676683 10855 net.cpp:91] Creating Layer norm2
I0914 13:40:10.676697 10855 net.cpp:425] norm2 <- conv2
I0914 13:40:10.676718 10855 net.cpp:399] norm2 -> norm2
I0914 13:40:10.676782 10855 net.cpp:141] Setting up norm2
I0914 13:40:10.676806 10855 net.cpp:148] Top shape: 30 256 27 27 (5598720)
I0914 13:40:10.676820 10855 net.cpp:156] Memory required for data: 194423400
I0914 13:40:10.676834 10855 layer_factory.hpp:77] Creating layer pool2
I0914 13:40:10.676852 10855 net.cpp:91] Creating Layer pool2
I0914 13:40:10.676867 10855 net.cpp:425] pool2 <- norm2
I0914 13:40:10.676887 10855 net.cpp:399] pool2 -> pool2
I0914 13:40:10.676940 10855 net.cpp:141] Setting up pool2
I0914 13:40:10.676964 10855 net.cpp:148] Top shape: 30 256 13 13 (1297920)
I0914 13:40:10.676980 10855 net.cpp:156] Memory required for data: 199615080
I0914 13:40:10.676993 10855 layer_factory.hpp:77] Creating layer conv3
I0914 13:40:10.677014 10855 net.cpp:91] Creating Layer conv3
I0914 13:40:10.677033 10855 net.cpp:425] conv3 <- pool2
I0914 13:40:10.677053 10855 net.cpp:399] conv3 -> conv3
I0914 13:40:10.681720 10860 blocking_queue.cpp:50] Waiting for data
I0914 13:40:10.712389 10855 net.cpp:141] Setting up conv3
I0914 13:40:10.712433 10855 net.cpp:148] Top shape: 30 384 13 13 (1946880)
I0914 13:40:10.712450 10855 net.cpp:156] Memory required for data: 207402600
I0914 13:40:10.712473 10855 layer_factory.hpp:77] Creating layer relu3
I0914 13:40:10.712497 10855 net.cpp:91] Creating Layer relu3
I0914 13:40:10.712512 10855 net.cpp:425] relu3 <- conv3
I0914 13:40:10.712535 10855 net.cpp:386] relu3 -> conv3 (in-place)
I0914 13:40:10.712584 10855 net.cpp:141] Setting up relu3
I0914 13:40:10.712604 10855 net.cpp:148] Top shape: 30 384 13 13 (1946880)
I0914 13:40:10.712618 10855 net.cpp:156] Memory required for data: 215190120
I0914 13:40:10.712632 10855 layer_factory.hpp:77] Creating layer conv4
I0914 13:40:10.712658 10855 net.cpp:91] Creating Layer conv4
I0914 13:40:10.712677 10855 net.cpp:425] conv4 <- conv3
I0914 13:40:10.712695 10855 net.cpp:399] conv4 -> conv4
I0914 13:40:10.739384 10855 net.cpp:141] Setting up conv4
I0914 13:40:10.739426 10855 net.cpp:148] Top shape: 30 384 13 13 (1946880)
I0914 13:40:10.739442 10855 net.cpp:156] Memory required for data: 222977640
I0914 13:40:10.739461 10855 layer_factory.hpp:77] Creating layer relu4
I0914 13:40:10.739481 10855 net.cpp:91] Creating Layer relu4
I0914 13:40:10.739496 10855 net.cpp:425] relu4 <- conv4
I0914 13:40:10.739516 10855 net.cpp:386] relu4 -> conv4 (in-place)
I0914 13:40:10.739537 10855 net.cpp:141] Setting up relu4
I0914 13:40:10.739557 10855 net.cpp:148] Top shape: 30 384 13 13 (1946880)
I0914 13:40:10.739573 10855 net.cpp:156] Memory required for data: 230765160
I0914 13:40:10.739586 10855 layer_factory.hpp:77] Creating layer conv5
I0914 13:40:10.739611 10855 net.cpp:91] Creating Layer conv5
I0914 13:40:10.739626 10855 net.cpp:425] conv5 <- conv4
I0914 13:40:10.739645 10855 net.cpp:399] conv5 -> conv5
I0914 13:40:10.757369 10855 net.cpp:141] Setting up conv5
I0914 13:40:10.757400 10855 net.cpp:148] Top shape: 30 256 13 13 (1297920)
I0914 13:40:10.757417 10855 net.cpp:156] Memory required for data: 235956840
I0914 13:40:10.757441 10855 layer_factory.hpp:77] Creating layer relu5
I0914 13:40:10.757462 10855 net.cpp:91] Creating Layer relu5
I0914 13:40:10.757477 10855 net.cpp:425] relu5 <- conv5
I0914 13:40:10.757496 10855 net.cpp:386] relu5 -> conv5 (in-place)
I0914 13:40:10.757516 10855 net.cpp:141] Setting up relu5
I0914 13:40:10.757534 10855 net.cpp:148] Top shape: 30 256 13 13 (1297920)
I0914 13:40:10.757552 10855 net.cpp:156] Memory required for data: 241148520
I0914 13:40:10.757566 10855 layer_factory.hpp:77] Creating layer pool5
I0914 13:40:10.757587 10855 net.cpp:91] Creating Layer pool5
I0914 13:40:10.757601 10855 net.cpp:425] pool5 <- conv5
I0914 13:40:10.757622 10855 net.cpp:399] pool5 -> pool5
I0914 13:40:10.757685 10855 net.cpp:141] Setting up pool5
I0914 13:40:10.757712 10855 net.cpp:148] Top shape: 30 256 6 6 (276480)
I0914 13:40:10.757728 10855 net.cpp:156] Memory required for data: 242254440
I0914 13:40:10.757742 10855 layer_factory.hpp:77] Creating layer fc6
I0914 13:40:10.757771 10855 net.cpp:91] Creating Layer fc6
I0914 13:40:10.757789 10855 net.cpp:425] fc6 <- pool5
I0914 13:40:10.757807 10855 net.cpp:399] fc6 -> fc6
I0914 13:40:12.223832 10855 net.cpp:141] Setting up fc6
I0914 13:40:12.223922 10855 net.cpp:148] Top shape: 30 4096 (122880)
I0914 13:40:12.223942 10855 net.cpp:156] Memory required for data: 242745960
I0914 13:40:12.223974 10855 layer_factory.hpp:77] Creating layer relu6
I0914 13:40:12.224004 10855 net.cpp:91] Creating Layer relu6
I0914 13:40:12.224030 10855 net.cpp:425] relu6 <- fc6
I0914 13:40:12.224063 10855 net.cpp:386] relu6 -> fc6 (in-place)
I0914 13:40:12.224092 10855 net.cpp:141] Setting up relu6
I0914 13:40:12.224109 10855 net.cpp:148] Top shape: 30 4096 (122880)
I0914 13:40:12.224123 10855 net.cpp:156] Memory required for data: 243237480
I0914 13:40:12.224138 10855 layer_factory.hpp:77] Creating layer drop6
I0914 13:40:12.224160 10855 net.cpp:91] Creating Layer drop6
I0914 13:40:12.224175 10855 net.cpp:425] drop6 <- fc6
I0914 13:40:12.224191 10855 net.cpp:386] drop6 -> fc6 (in-place)
I0914 13:40:12.224265 10855 net.cpp:141] Setting up drop6
I0914 13:40:12.224289 10855 net.cpp:148] Top shape: 30 4096 (122880)
I0914 13:40:12.224304 10855 net.cpp:156] Memory required for data: 243729000
I0914 13:40:12.224318 10855 layer_factory.hpp:77] Creating layer fc7
I0914 13:40:12.224344 10855 net.cpp:91] Creating Layer fc7
I0914 13:40:12.224365 10855 net.cpp:425] fc7 <- fc6
I0914 13:40:12.224385 10855 net.cpp:399] fc7 -> fc7
I0914 13:40:12.873208 10855 net.cpp:141] Setting up fc7
I0914 13:40:12.873286 10855 net.cpp:148] Top shape: 30 4096 (122880)
I0914 13:40:12.873303 10855 net.cpp:156] Memory required for data: 244220520
I0914 13:40:12.873327 10855 layer_factory.hpp:77] Creating layer relu7
I0914 13:40:12.873350 10855 net.cpp:91] Creating Layer relu7
I0914 13:40:12.873368 10855 net.cpp:425] relu7 <- fc7
I0914 13:40:12.873389 10855 net.cpp:386] relu7 -> fc7 (in-place)
I0914 13:40:12.873415 10855 net.cpp:141] Setting up relu7
I0914 13:40:12.873437 10855 net.cpp:148] Top shape: 30 4096 (122880)
I0914 13:40:12.873451 10855 net.cpp:156] Memory required for data: 244712040
I0914 13:40:12.873467 10855 layer_factory.hpp:77] Creating layer drop7
I0914 13:40:12.873486 10855 net.cpp:91] Creating Layer drop7
I0914 13:40:12.873499 10855 net.cpp:425] drop7 <- fc7
I0914 13:40:12.873519 10855 net.cpp:386] drop7 -> fc7 (in-place)
I0914 13:40:12.873561 10855 net.cpp:141] Setting up drop7
I0914 13:40:12.873584 10855 net.cpp:148] Top shape: 30 4096 (122880)
I0914 13:40:12.873600 10855 net.cpp:156] Memory required for data: 245203560
I0914 13:40:12.873613 10855 layer_factory.hpp:77] Creating layer fc7_drop7_0_split
I0914 13:40:12.873641 10855 net.cpp:91] Creating Layer fc7_drop7_0_split
I0914 13:40:12.873657 10855 net.cpp:425] fc7_drop7_0_split <- fc7
I0914 13:40:12.873679 10855 net.cpp:399] fc7_drop7_0_split -> fc7_drop7_0_split_0
I0914 13:40:12.873715 10855 net.cpp:399] fc7_drop7_0_split -> fc7_drop7_0_split_1
I0914 13:40:12.873775 10855 net.cpp:141] Setting up fc7_drop7_0_split
I0914 13:40:12.873802 10855 net.cpp:148] Top shape: 30 4096 (122880)
I0914 13:40:12.873822 10855 net.cpp:148] Top shape: 30 4096 (122880)
I0914 13:40:12.873836 10855 net.cpp:156] Memory required for data: 246186600
I0914 13:40:12.873852 10855 layer_factory.hpp:77] Creating layer fc_binary_Color
I0914 13:40:12.873872 10855 net.cpp:91] Creating Layer fc_binary_Color
I0914 13:40:12.873888 10855 net.cpp:425] fc_binary_Color <- fc7_drop7_0_split_0
I0914 13:40:12.873904 10855 net.cpp:399] fc_binary_Color -> fc_binary_Color
I0914 13:40:12.875890 10855 net.cpp:141] Setting up fc_binary_Color
I0914 13:40:12.875929 10855 net.cpp:148] Top shape: 30 12 (360)
I0914 13:40:12.875944 10855 net.cpp:156] Memory required for data: 246188040
I0914 13:40:12.875962 10855 layer_factory.hpp:77] Creating layer fc_classification_Color
I0914 13:40:12.875988 10855 net.cpp:91] Creating Layer fc_classification_Color
I0914 13:40:12.876003 10855 net.cpp:425] fc_classification_Color <- fc7_drop7_0_split_1
I0914 13:40:12.876021 10855 net.cpp:399] fc_classification_Color -> fc_classification_Color
I0914 13:40:12.877355 10855 net.cpp:141] Setting up fc_classification_Color
I0914 13:40:12.877394 10855 net.cpp:148] Top shape: 30 8 (240)
I0914 13:40:12.877409 10855 net.cpp:156] Memory required for data: 246189000
I0914 13:40:12.877432 10855 layer_factory.hpp:77] Creating layer loss_hashing
I0914 13:40:12.877460 10855 net.cpp:91] Creating Layer loss_hashing
I0914 13:40:12.877476 10855 net.cpp:425] loss_hashing <- fc_binary_Color
I0914 13:40:12.877492 10855 net.cpp:425] loss_hashing <- label_data_1_split_0
I0914 13:40:12.877511 10855 net.cpp:399] loss_hashing -> loss_hashing
…
I0914 13:40:12.879534 10855 net.cpp:313] The NetState phase (1) differed from the phase (0) specified by a rule in layer data
I0914 13:40:12.879812 10855 net.cpp:49] Initializing net from parameters: 
name: "docomo_AlexNet"
state {
  phase: TEST
}
layer {
  name: "data"
  type: "Data"
  top: "data"
  top: "label"
  include {
    phase: TEST
  }
  transform_param {
    mirror: false
    crop_size: 224
    mean_value: 103.939
    mean_value: 116.779
    mean_value: 123.68
  }
  data_param {
    source: "COLOR/color_test_lmdb"
    batch_size: 40
    backend: LMDB
  }
}
layer {
  name: "conv1"
  type: "Convolution"
  bottom: "data"
  top: "conv1"
  param {
    lr_mult: 1
    decay_mult: 1
  }
  param {
    lr_mult: 2
    decay_mult: 0
  }
  convolution_param {
    num_output: 96
    kernel_size: 11
    stride: 4
    weight_filler {
      type: "gaussian"
      std: 0.01
    }
    bias_filler {
      type: "constant"
      value: 0
    }
  }
}
layer {
  name: "relu1"
  type: "ReLU"
  bottom: "conv1"
  top: "conv1"
}
layer {
  name: "norm1"
  type: "LRN"
  bottom: "conv1"
  top: "norm1"
  lrn_param {
    local_size: 5
    alpha: 0.0001
    beta: 0.75
  }
}
layer {
  name: "pool1"
  type: "Pooling"
  bottom: "norm1"
  top: "pool1"
  pooling_param {
    pool: MAX
    kernel_size: 3
    stride: 2
  }
}
layer {
  name: "conv2"
  type: "Convolution"
  bottom: "pool1"
  top: "conv2"
  param {
    lr_mult: 1
    decay_mult: 1
  }
  param {
    lr_mult: 2
    decay_mult: 0
  }
  convolution_param {
    num_output: 256
    pad: 2
    kernel_size: 5
    group: 2
    weight_filler {
      type: "gaussian"
      std: 0.01
    }
    bias_filler {
      type: "constant"
      value: 0.1
    }
  }
}
layer {
  name: "relu2"
  type: "ReLU"
  bottom: "conv2"
  top: "conv2"
}
layer {
  name: "norm2"
  type: "LRN"
  bottom: "conv2"
  top: "norm2"
  lrn_param {
    local_size: 5
    alpha: 0.0001
    beta: 0.75
  }
}
layer {
  name: "pool2"
  type: "Pooling"
  bottom: "norm2"
  top: "pool2"
  pooling_param {
    pool: MAX
    kernel_size: 3
    stride: 2
  }
}
layer {
  name: "conv3"
  type: "Convolution"
  bottom: "pool2"
  top: "conv3"
  param {
    lr_mult: 1
    decay_mult: 1
  }
  param {
    lr_mult: 2
    decay_mult: 0
  }
  convolution_param {
    num_output: 384
    pad: 1
    kernel_size: 3
    weight_filler {
      type: "gaussian"
      std: 0.01
    }
    bias_filler {
      type: "constant"
      value: 0
    }
  }
}
layer {
  name: "relu3"
  type: "ReLU"
  bottom: "conv3"
  top: "conv3"
}
layer {
  name: "conv4"
  type: "Convolution"
  bottom: "conv3"
  top: "conv4"
  param {
    lr_mult: 1
    decay_mult: 1
  }
  param {
    lr_mult: 2
    decay_mult: 0
  }
  convolution_param {
    num_output: 384
    pad: 1
    kernel_size: 3
    group: 2
    weight_filler {
      type: "gaussian"
      std: 0.01
    }
    bias_filler {
      type: "constant"
      value: 0.1
    }
  }
}
layer {
  name: "relu4"
  type: "ReLU"
  bottom: "conv4"
  top: "conv4"
}
layer {
  name: "conv5"
  type: "Convolution"
  bottom: "conv4"
  top: "conv5"
  param {
    lr_mult: 1
    decay_mult: 1
  }
  param {
    lr_mult: 2
    decay_mult: 0
  }
  convolution_param {
    num_output: 256
    pad: 1
    kernel_size: 3
    group: 2
    weight_filler {
      type: "gaussian"
      std: 0.01
    }
    bias_filler {
      type: "constant"
      value: 0.1
    }
  }
}
layer {
  name: "relu5"
  type: "ReLU"
  bottom: "conv5"
  top: "conv5"
}
layer {
  name: "pool5"
  type: "Pooling"
  bottom: "conv5"
  top: "pool5"
  pooling_param {
    pool: MAX
    kernel_size: 3
    stride: 2
  }
}
layer {
  name: "fc6"
  type: "InnerProduct"
  bottom: "pool5"
  top: "fc6"
  param {
    lr_mult: 1
    decay_mult: 1
  }
  param {
    lr_mult: 2
    decay_mult: 0
  }
  inner_product_param {
    num_output: 4096
    weight_filler {
      type: "gaussian"
      std: 0.005
    }
    bias_filler {
      type: "constant"
      value: 0.1
    }
  }
}
layer {
  name: "relu6"
  type: "ReLU"
  bottom: "fc6"
  top: "fc6"
}
layer {
  name: "drop6"
  type: "Dropout"
  bottom: "fc6"
  top: "fc6"
  dropout_param {
    dropout_ratio: 0.5
  }
}
layer {
  name: "fc7"
  type: "InnerProduct"
  bottom: "fc6"
  top: "fc7"
  param {
    lr_mult: 1
    decay_mult: 1
  }
  param {
    lr_mult: 2
    decay_mult: 0
  }
  inner_product_param {
    num_output: 4096
    weight_filler {
      type: "gaussian"
      std: 0.005
    }
    bias_filler {
      type: "constant"
      value: 0.1
    }
  }
}
layer {
  name: "relu7"
  type: "ReLU"
  bottom: "fc7"
  top: "fc7"
}
layer {
  name: "drop7"
  type: "Dropout"
  bottom: "fc7"
  top: "fc7"
  dropout_param {
    dropout_ratio: 0.5
  }
}
layer {
  name: "fc_binary_Color"
  type: "InnerProduct"
  bottom: "fc7"
  top: "fc_binary_Color"
  param {
    lr_mult: 10
    decay_mult: 1
  }
  param {
    lr_mult: 20
    decay_mult: 0
  }
  inner_product_param {
    num_output: 12
    weight_filler {
      type: "gaussian"
      std: 0.005
    }
    bias_filler {
      type: "constant"
      value: 0.1
    }
  }
}
layer {
  name: "fc_classification_Color"
  type: "InnerProduct"
  bottom: "fc7"
  top: "fc_classification_Color"
  param {
    lr_mult: 10
    decay_mult: 1
  }
  param {
    lr_mult: 20
    decay_mult: 0
  }
  inner_product_param {
    num_output: 8
    weight_filler {
      type: "gaussian"
      std: 0.05
    }
    bias_filler {
      type: "constant"
      value: 0.1
    }
  }
}
layer {
  name: "accuracy_at_1_Color"
  type: "Accuracy"
  bottom: "fc_classification_Color"
  bottom: "label"
  top: "accuracy_at_1_Color"
  include {
    phase: TEST
  }
}
layer {
  name: "loss_hashing"
  type: "HashingLoss"
  bottom: "fc_binary_Color"
  bottom: "label"
  top: "loss_hashing"
  loss_weight: 0.1
  hashing_loss_param {
    bi_margin: 24
    tradeoff: 0.01
  }
}
layer {
  name: "loss_classification"
  type: "SoftmaxWithLoss"
  bottom: "fc_classification_Color"
  bottom: "label"
  top: "loss"
}
I0914 13:40:12.881418 10855 layer_factory.hpp:77] Creating layer data
I0914 13:40:12.881556 10855 net.cpp:91] Creating Layer data
I0914 13:40:12.881587 10855 net.cpp:399] data -> data
I0914 13:40:12.881610 10855 net.cpp:399] data -> label
I0914 13:40:12.920428 10861 db_lmdb.cpp:38] Opened lmdb COLOR/color_test_lmdb
I0914 13:40:13.013432 10855 data_layer.cpp:41] output data size: 40,3,224,224
I0914 13:40:13.068819 10855 net.cpp:141] Setting up data
I0914 13:40:13.068914 10855 net.cpp:148] Top shape: 40 3 224 224 (6021120)
I0914 13:40:13.068935 10855 net.cpp:148] Top shape: 40 1 1 1 (40)
I0914 13:40:13.068950 10855 net.cpp:156] Memory required for data: 24084640
I0914 13:40:13.068969 10855 layer_factory.hpp:77] Creating layer label_data_1_split
I0914 13:40:13.069000 10855 net.cpp:91] Creating Layer label_data_1_split
I0914 13:40:13.069016 10855 net.cpp:425] label_data_1_split <- label
I0914 13:40:13.069039 10855 net.cpp:399] label_data_1_split -> label_data_1_split_0
I0914 13:40:13.069063 10855 net.cpp:399] label_data_1_split -> label_data_1_split_1
I0914 13:40:13.069083 10855 net.cpp:399] label_data_1_split -> label_data_1_split_2
I0914 13:40:13.069173 10855 net.cpp:141] Setting up label_data_1_split
I0914 13:40:13.069197 10855 net.cpp:148] Top shape: 40 1 1 1 (40)
I0914 13:40:13.069213 10855 net.cpp:148] Top shape: 40 1 1 1 (40)
I0914 13:40:13.069229 10855 net.cpp:148] Top shape: 40 1 1 1 (40)
I0914 13:40:13.069243 10855 net.cpp:156] Memory required for data: 24085120
I0914 13:40:13.069258 10855 layer_factory.hpp:77] Creating layer conv1
I0914 13:40:13.069291 10855 net.cpp:91] Creating Layer conv1
I0914 13:40:13.069309 10855 net.cpp:425] conv1 <- data
I0914 13:40:13.069329 10855 net.cpp:399] conv1 -> conv1
I0914 13:40:13.072263 10855 net.cpp:141] Setting up conv1
I0914 13:40:13.072301 10855 net.cpp:148] Top shape: 40 96 54 54 (11197440)
I0914 13:40:13.072319 10855 net.cpp:156] Memory required for data: 68874880
I0914 13:40:13.072343 10855 layer_factory.hpp:77] Creating layer relu1
I0914 13:40:13.072365 10855 net.cpp:91] Creating Layer relu1
I0914 13:40:13.072379 10855 net.cpp:425] relu1 <- conv1
I0914 13:40:13.072399 10855 net.cpp:386] relu1 -> conv1 (in-place)
I0914 13:40:13.072424 10855 net.cpp:141] Setting up relu1
I0914 13:40:13.072443 10855 net.cpp:148] Top shape: 40 96 54 54 (11197440)
I0914 13:40:13.072456 10855 net.cpp:156] Memory required for data: 113664640
I0914 13:40:13.072471 10855 layer_factory.hpp:77] Creating layer norm1
I0914 13:40:13.072492 10855 net.cpp:91] Creating Layer norm1
I0914 13:40:13.072509 10855 net.cpp:425] norm1 <- conv1
I0914 13:40:13.072530 10855 net.cpp:399] norm1 -> norm1
I0914 13:40:13.072594 10855 net.cpp:141] Setting up norm1
I0914 13:40:13.072618 10855 net.cpp:148] Top shape: 40 96 54 54 (11197440)
I0914 13:40:13.072633 10855 net.cpp:156] Memory required for data: 158454400
I0914 13:40:13.072649 10855 layer_factory.hpp:77] Creating layer pool1
I0914 13:40:13.072671 10855 net.cpp:91] Creating Layer pool1
I0914 13:40:13.072693 10855 net.cpp:425] pool1 <- norm1
I0914 13:40:13.072710 10855 net.cpp:399] pool1 -> pool1
I0914 13:40:13.072773 10855 net.cpp:141] Setting up pool1
I0914 13:40:13.072803 10855 net.cpp:148] Top shape: 40 96 27 27 (2799360)
I0914 13:40:13.072818 10855 net.cpp:156] Memory required for data: 169651840
I0914 13:40:13.072834 10855 layer_factory.hpp:77] Creating layer conv2
I0914 13:40:13.072859 10855 net.cpp:91] Creating Layer conv2
I0914 13:40:13.072880 10855 net.cpp:425] conv2 <- pool1
I0914 13:40:13.072903 10855 net.cpp:399] conv2 -> conv2
I0914 13:40:13.085260 10855 net.cpp:141] Setting up conv2
I0914 13:40:13.085309 10855 net.cpp:148] Top shape: 40 256 27 27 (7464960)
I0914 13:40:13.085366 10855 net.cpp:156] Memory required for data: 199511680
I0914 13:40:13.085391 10855 layer_factory.hpp:77] Creating layer relu2
I0914 13:40:13.085410 10855 net.cpp:91] Creating Layer relu2
I0914 13:40:13.085425 10855 net.cpp:425] relu2 <- conv2
I0914 13:40:13.085445 10855 net.cpp:386] relu2 -> conv2 (in-place)
I0914 13:40:13.085465 10855 net.cpp:141] Setting up relu2
I0914 13:40:13.085482 10855 net.cpp:148] Top shape: 40 256 27 27 (7464960)
I0914 13:40:13.085497 10855 net.cpp:156] Memory required for data: 229371520
I0914 13:40:13.085517 10855 layer_factory.hpp:77] Creating layer norm2
I0914 13:40:13.085541 10855 net.cpp:91] Creating Layer norm2
I0914 13:40:13.085556 10855 net.cpp:425] norm2 <- conv2
I0914 13:40:13.085573 10855 net.cpp:399] norm2 -> norm2
I0914 13:40:13.085641 10855 net.cpp:141] Setting up norm2
I0914 13:40:13.085665 10855 net.cpp:148] Top shape: 40 256 27 27 (7464960)
I0914 13:40:13.085680 10855 net.cpp:156] Memory required for data: 259231360
I0914 13:40:13.085693 10855 layer_factory.hpp:77] Creating layer pool2
I0914 13:40:13.085711 10855 net.cpp:91] Creating Layer pool2
I0914 13:40:13.085726 10855 net.cpp:425] pool2 <- norm2
I0914 13:40:13.085743 10855 net.cpp:399] pool2 -> pool2
I0914 13:40:13.085804 10855 net.cpp:141] Setting up pool2
I0914 13:40:13.085829 10855 net.cpp:148] Top shape: 40 256 13 13 (1730560)
I0914 13:40:13.085842 10855 net.cpp:156] Memory required for data: 266153600
I0914 13:40:13.085856 10855 layer_factory.hpp:77] Creating layer conv3
I0914 13:40:13.085891 10855 net.cpp:91] Creating Layer conv3
I0914 13:40:13.085911 10855 net.cpp:425] conv3 <- pool2
I0914 13:40:13.085932 10855 net.cpp:399] conv3 -> conv3
I0914 13:40:13.120805 10855 net.cpp:141] Setting up conv3
I0914 13:40:13.120841 10855 net.cpp:148] Top shape: 40 384 13 13 (2595840)
I0914 13:40:13.120857 10855 net.cpp:156] Memory required for data: 276536960
I0914 13:40:13.120878 10855 layer_factory.hpp:77] Creating layer relu3
I0914 13:40:13.120898 10855 net.cpp:91] Creating Layer relu3
I0914 13:40:13.120913 10855 net.cpp:425] relu3 <- conv3
I0914 13:40:13.120929 10855 net.cpp:386] relu3 -> conv3 (in-place)
I0914 13:40:13.120949 10855 net.cpp:141] Setting up relu3
I0914 13:40:13.120970 10855 net.cpp:148] Top shape: 40 384 13 13 (2595840)
I0914 13:40:13.120983 10855 net.cpp:156] Memory required for data: 286920320
I0914 13:40:13.120999 10855 layer_factory.hpp:77] Creating layer conv4
I0914 13:40:13.121028 10855 net.cpp:91] Creating Layer conv4
I0914 13:40:13.121044 10855 net.cpp:425] conv4 <- conv3
I0914 13:40:13.121063 10855 net.cpp:399] conv4 -> conv4
I0914 13:40:13.147476 10855 net.cpp:141] Setting up conv4
I0914 13:40:13.147508 10855 net.cpp:148] Top shape: 40 384 13 13 (2595840)
I0914 13:40:13.147523 10855 net.cpp:156] Memory required for data: 297303680
I0914 13:40:13.147542 10855 layer_factory.hpp:77] Creating layer relu4
I0914 13:40:13.147560 10855 net.cpp:91] Creating Layer relu4
I0914 13:40:13.147575 10855 net.cpp:425] relu4 <- conv4
I0914 13:40:13.147594 10855 net.cpp:386] relu4 -> conv4 (in-place)
I0914 13:40:13.147614 10855 net.cpp:141] Setting up relu4
I0914 13:40:13.147635 10855 net.cpp:148] Top shape: 40 384 13 13 (2595840)
I0914 13:40:13.147650 10855 net.cpp:156] Memory required for data: 307687040
I0914 13:40:13.147663 10855 layer_factory.hpp:77] Creating layer conv5
I0914 13:40:13.147683 10855 net.cpp:91] Creating Layer conv5
I0914 13:40:13.147699 10855 net.cpp:425] conv5 <- conv4
I0914 13:40:13.147720 10855 net.cpp:399] conv5 -> conv5
I0914 13:40:13.165551 10855 net.cpp:141] Setting up conv5
I0914 13:40:13.165596 10855 net.cpp:148] Top shape: 40 256 13 13 (1730560)
I0914 13:40:13.165612 10855 net.cpp:156] Memory required for data: 314609280
I0914 13:40:13.165644 10855 layer_factory.hpp:77] Creating layer relu5
I0914 13:40:13.165664 10855 net.cpp:91] Creating Layer relu5
I0914 13:40:13.165679 10855 net.cpp:425] relu5 <- conv5
I0914 13:40:13.165700 10855 net.cpp:386] relu5 -> conv5 (in-place)
I0914 13:40:13.165724 10855 net.cpp:141] Setting up relu5
I0914 13:40:13.165765 10855 net.cpp:148] Top shape: 40 256 13 13 (1730560)
I0914 13:40:13.165779 10855 net.cpp:156] Memory required for data: 321531520
I0914 13:40:13.165796 10855 layer_factory.hpp:77] Creating layer pool5
I0914 13:40:13.165814 10855 net.cpp:91] Creating Layer pool5
I0914 13:40:13.165829 10855 net.cpp:425] pool5 <- conv5
I0914 13:40:13.165845 10855 net.cpp:399] pool5 -> pool5
I0914 13:40:13.165915 10855 net.cpp:141] Setting up pool5
I0914 13:40:13.165940 10855 net.cpp:148] Top shape: 40 256 6 6 (368640)
I0914 13:40:13.165954 10855 net.cpp:156] Memory required for data: 323006080
I0914 13:40:13.165968 10855 layer_factory.hpp:77] Creating layer fc6
I0914 13:40:13.165990 10855 net.cpp:91] Creating Layer fc6
I0914 13:40:13.166009 10855 net.cpp:425] fc6 <- pool5
I0914 13:40:13.166028 10855 net.cpp:399] fc6 -> fc6
I0914 13:40:14.648530 10855 net.cpp:141] Setting up fc6
I0914 13:40:14.648591 10855 net.cpp:148] Top shape: 40 4096 (163840)
I0914 13:40:14.648602 10855 net.cpp:156] Memory required for data: 323661440
I0914 13:40:14.648628 10855 layer_factory.hpp:77] Creating layer relu6
I0914 13:40:14.648650 10855 net.cpp:91] Creating Layer relu6
I0914 13:40:14.648663 10855 net.cpp:425] relu6 <- fc6
I0914 13:40:14.648679 10855 net.cpp:386] relu6 -> fc6 (in-place)
I0914 13:40:14.648695 10855 net.cpp:141] Setting up relu6
I0914 13:40:14.648705 10855 net.cpp:148] Top shape: 40 4096 (163840)
I0914 13:40:14.648711 10855 net.cpp:156] Memory required for data: 324316800
I0914 13:40:14.648720 10855 layer_factory.hpp:77] Creating layer drop6
I0914 13:40:14.648733 10855 net.cpp:91] Creating Layer drop6
I0914 13:40:14.648741 10855 net.cpp:425] drop6 <- fc6
I0914 13:40:14.648753 10855 net.cpp:386] drop6 -> fc6 (in-place)
I0914 13:40:14.648798 10855 net.cpp:141] Setting up drop6
I0914 13:40:14.648813 10855 net.cpp:148] Top shape: 40 4096 (163840)
I0914 13:40:14.648820 10855 net.cpp:156] Memory required for data: 324972160
I0914 13:40:14.648828 10855 layer_factory.hpp:77] Creating layer fc7
I0914 13:40:14.648844 10855 net.cpp:91] Creating Layer fc7
I0914 13:40:14.648851 10855 net.cpp:425] fc7 <- fc6
I0914 13:40:14.648874 10855 net.cpp:399] fc7 -> fc7
I0914 13:40:15.274219 10855 net.cpp:141] Setting up fc7
I0914 13:40:15.274297 10855 net.cpp:148] Top shape: 40 4096 (163840)
I0914 13:40:15.274313 10855 net.cpp:156] Memory required for data: 325627520
I0914 13:40:15.274338 10855 layer_factory.hpp:77] Creating layer relu7
I0914 13:40:15.274360 10855 net.cpp:91] Creating Layer relu7
I0914 13:40:15.274376 10855 net.cpp:425] relu7 <- fc7
I0914 13:40:15.274397 10855 net.cpp:386] relu7 -> fc7 (in-place)
I0914 13:40:15.274421 10855 net.cpp:141] Setting up relu7
I0914 13:40:15.274436 10855 net.cpp:148] Top shape: 40 4096 (163840)
I0914 13:40:15.274451 10855 net.cpp:156] Memory required for data: 326282880
I0914 13:40:15.274477 10855 layer_factory.hpp:77] Creating layer drop7
I0914 13:40:15.274503 10855 net.cpp:91] Creating Layer drop7
I0914 13:40:15.274523 10855 net.cpp:425] drop7 <- fc7
I0914 13:40:15.274538 10855 net.cpp:386] drop7 -> fc7 (in-place)
I0914 13:40:15.274585 10855 net.cpp:141] Setting up drop7
I0914 13:40:15.274608 10855 net.cpp:148] Top shape: 40 4096 (163840)
I0914 13:40:15.274622 10855 net.cpp:156] Memory required for data: 326938240
I0914 13:40:15.274636 10855 layer_factory.hpp:77] Creating layer fc7_drop7_0_split
I0914 13:40:15.274653 10855 net.cpp:91] Creating Layer fc7_drop7_0_split
I0914 13:40:15.274672 10855 net.cpp:425] fc7_drop7_0_split <- fc7
I0914 13:40:15.274689 10855 net.cpp:399] fc7_drop7_0_split -> fc7_drop7_0_split_0
I0914 13:40:15.274708 10855 net.cpp:399] fc7_drop7_0_split -> fc7_drop7_0_split_1
I0914 13:40:15.274765 10855 net.cpp:141] Setting up fc7_drop7_0_split
I0914 13:40:15.274786 10855 net.cpp:148] Top shape: 40 4096 (163840)
I0914 13:40:15.274802 10855 net.cpp:148] Top shape: 40 4096 (163840)
I0914 13:40:15.274816 10855 net.cpp:156] Memory required for data: 328248960
I0914 13:40:15.274829 10855 layer_factory.hpp:77] Creating layer fc_binary_Color
I0914 13:40:15.274854 10855 net.cpp:91] Creating Layer fc_binary_Color
I0914 13:40:15.274912 10855 net.cpp:425] fc_binary_Color <- fc7_drop7_0_split_0
I0914 13:40:15.274936 10855 net.cpp:399] fc_binary_Color -> fc_binary_Color
I0914 13:40:15.276876 10855 net.cpp:141] Setting up fc_binary_Color
I0914 13:40:15.276901 10855 net.cpp:148] Top shape: 40 12 (480)
I0914 13:40:15.276928 10855 net.cpp:156] Memory required for data: 328250880
I0914 13:40:15.276947 10855 layer_factory.hpp:77] Creating layer fc_classification_Color
I0914 13:40:15.276969 10855 net.cpp:91] Creating Layer fc_classification_Color
I0914 13:40:15.276985 10855 net.cpp:425] fc_classification_Color <- fc7_drop7_0_split_1
I0914 13:40:15.277003 10855 net.cpp:399] fc_classification_Color -> fc_classification_Color
I0914 13:40:15.278389 10855 net.cpp:141] Setting up fc_classification_Color
I0914 13:40:15.278414 10855 net.cpp:148] Top shape: 40 8 (320)
I0914 13:40:15.278439 10855 net.cpp:156] Memory required for data: 328252160
I0914 13:40:15.278467 10855 layer_factory.hpp:77] Creating layer fc_classification_Color_fc_classification_Color_0_split
I0914 13:40:15.278488 10855 net.cpp:91] Creating Layer fc_classification_Color_fc_classification_Color_0_split
I0914 13:40:15.278504 10855 net.cpp:425] fc_classification_Color_fc_classification_Color_0_split <- fc_classification_Color
I0914 13:40:15.278520 10855 net.cpp:399] fc_classification_Color_fc_classification_Color_0_split -> fc_classification_Color_fc_classification_Color_0_split_0
I0914 13:40:15.278538 10855 net.cpp:399] fc_classification_Color_fc_classification_Color_0_split -> fc_classification_Color_fc_classification_Color_0_split_1
I0914 13:40:15.278592 10855 net.cpp:141] Setting up fc_classification_Color_fc_classification_Color_0_split
I0914 13:40:15.278628 10855 net.cpp:148] Top shape: 40 8 (320)
I0914 13:40:15.278645 10855 net.cpp:148] Top shape: 40 8 (320)
I0914 13:40:15.278659 10855 net.cpp:156] Memory required for data: 328254720
I0914 13:40:15.278674 10855 layer_factory.hpp:77] Creating layer accuracy_at_1_Color
I0914 13:40:15.278702 10855 net.cpp:91] Creating Layer accuracy_at_1_Color
I0914 13:40:15.278717 10855 net.cpp:425] accuracy_at_1_Color <- fc_classification_Color_fc_classification_Color_0_split_0
I0914 13:40:15.278733 10855 net.cpp:425] accuracy_at_1_Color <- label_data_1_split_0
…
