…
I0919 12:31:49.558748  6549 net.cpp:313] The NetState phase (0) differed from the phase (1) specified by a rule in layer accuracy_at_1_Pattern
I0919 12:31:49.559192  6549 net.cpp:49] Initializing net from parameters: 
name: "docomo_VGG16"
state {
  phase: TRAIN
}
layer {
  name: "data"
  type: "Data"
  top: "data"
  top: "label"
  include {
    phase: TRAIN
  }
  transform_param {
    mirror: true
    crop_size: 224
    mean_value: 103.939
    mean_value: 116.779
    mean_value: 123.68
  }
  data_param {
    source: "PATTERN/pattern_train_lmdb/"
    batch_size: 10
    backend: LMDB
  }
}
layer {
  name: "conv1_1"
  type: "Convolution"
  bottom: "data"
  top: "conv1_1"
  param {
    lr_mult: 1
    decay_mult: 1
  }
  param {
    lr_mult: 2
    decay_mult: 0
  }
  convolution_param {
    num_output: 64
    pad: 1
    kernel_size: 3
    weight_filler {
      type: "gaussian"
      std: 0.01
    }
    bias_filler {
      type: "constant"
      value: 0
    }
  }
}
layer {
  name: "relu1_1"
  type: "ReLU"
  bottom: "conv1_1"
  top: "conv1_1"
}
layer {
  name: "conv1_2"
  type: "Convolution"
  bottom: "conv1_1"
  top: "conv1_2"
  param {
    lr_mult: 1
    decay_mult: 1
  }
  param {
    lr_mult: 2
    decay_mult: 0
  }
  convolution_param {
    num_output: 64
    pad: 1
    kernel_size: 3
    weight_filler {
      type: "gaussian"
      std: 0.01
    }
    bias_filler {
      type: "constant"
      value: 0
    }
  }
}
layer {
  name: "relu1_2"
  type: "ReLU"
  bottom: "conv1_2"
  top: "conv1_2"
}
layer {
  name: "pool1"
  type: "Pooling"
  bottom: "conv1_2"
  top: "pool1"
  pooling_param {
    pool: MAX
    kernel_size: 2
    stride: 2
  }
}
layer {
  name: "conv2_1"
  type: "Convolution"
  bottom: "pool1"
  top: "conv2_1"
  param {
    lr_mult: 1
    decay_mult: 1
  }
  param {
    lr_mult: 2
    decay_mult: 0
  }
  convolution_param {
    num_output: 128
    pad: 1
    kernel_size: 3
    weight_filler {
      type: "gaussian"
      std: 0.01
    }
    bias_filler {
      type: "constant"
      value: 0
    }
  }
}
layer {
  name: "relu2_1"
  type: "ReLU"
  bottom: "conv2_1"
  top: "conv2_1"
}
layer {
  name: "conv2_2"
  type: "Convolution"
  bottom: "conv2_1"
  top: "conv2_2"
  param {
    lr_mult: 1
    decay_mult: 1
  }
  param {
    lr_mult: 2
    decay_mult: 0
  }
  convolution_param {
    num_output: 128
    pad: 1
    kernel_size: 3
    weight_filler {
      type: "gaussian"
      std: 0.01
    }
    bias_filler {
      type: "constant"
      value: 0
    }
  }
}
layer {
  name: "relu2_2"
  type: "ReLU"
  bottom: "conv2_2"
  top: "conv2_2"
}
layer {
  name: "pool2"
  type: "Pooling"
  bottom: "conv2_2"
  top: "pool2"
  pooling_param {
    pool: MAX
    kernel_size: 2
    stride: 2
  }
}
layer {
  name: "conv3_1"
  type: "Convolution"
  bottom: "pool2"
  top: "conv3_1"
  param {
    lr_mult: 1
    decay_mult: 1
  }
  param {
    lr_mult: 2
    decay_mult: 0
  }
  convolution_param {
    num_output: 256
    pad: 1
    kernel_size: 3
    weight_filler {
      type: "gaussian"
      std: 0.01
    }
    bias_filler {
      type: "constant"
      value: 0
    }
  }
}
layer {
  name: "relu3_1"
  type: "ReLU"
  bottom: "conv3_1"
  top: "conv3_1"
}
layer {
  name: "conv3_2"
  type: "Convolution"
  bottom: "conv3_1"
  top: "conv3_2"
  param {
    lr_mult: 1
    decay_mult: 1
  }
  param {
    lr_mult: 2
    decay_mult: 0
  }
  convolution_param {
    num_output: 256
    pad: 1
    kernel_size: 3
    weight_filler {
      type: "gaussian"
      std: 0.01
    }
    bias_filler {
      type: "constant"
      value: 0
    }
  }
}
layer {
  name: "relu3_2"
  type: "ReLU"
  bottom: "conv3_2"
  top: "conv3_2"
}
layer {
  name: "conv3_3"
  type: "Convolution"
  bottom: "conv3_2"
  top: "conv3_3"
  param {
    lr_mult: 1
    decay_mult: 1
  }
  param {
    lr_mult: 2
    decay_mult: 0
  }
  convolution_param {
    num_output: 256
    pad: 1
    kernel_size: 3
    weight_filler {
      type: "gaussian"
      std: 0.01
    }
    bias_filler {
      type: "constant"
      value: 0
    }
  }
}
layer {
  name: "relu3_3"
  type: "ReLU"
  bottom: "conv3_3"
  top: "conv3_3"
}
layer {
  name: "pool3"
  type: "Pooling"
  bottom: "conv3_3"
  top: "pool3"
  pooling_param {
    pool: MAX
    kernel_size: 2
    stride: 2
  }
}
layer {
  name: "conv4_1"
  type: "Convolution"
  bottom: "pool3"
  top: "conv4_1"
  param {
    lr_mult: 1
    decay_mult: 1
  }
  param {
    lr_mult: 2
    decay_mult: 0
  }
  convolution_param {
    num_output: 512
    pad: 1
    kernel_size: 3
    weight_filler {
      type: "gaussian"
      std: 0.01
    }
    bias_filler {
      type: "constant"
      value: 0
    }
  }
}
layer {
  name: "relu4_1"
  type: "ReLU"
  bottom: "conv4_1"
  top: "conv4_1"
}
layer {
  name: "conv4_2"
  type: "Convolution"
  bottom: "conv4_1"
  top: "conv4_2"
  param {
    lr_mult: 1
    decay_mult: 1
  }
  param {
    lr_mult: 2
    decay_mult: 0
  }
  convolution_param {
    num_output: 512
    pad: 1
    kernel_size: 3
    weight_filler {
      type: "gaussian"
      std: 0.01
    }
    bias_filler {
      type: "constant"
      value: 0
    }
  }
}
layer {
  name: "relu4_2"
  type: "ReLU"
  bottom: "conv4_2"
  top: "conv4_2"
}
layer {
  name: "conv4_3"
  type: "Convolution"
  bottom: "conv4_2"
  top: "conv4_3"
  param {
    lr_mult: 1
    decay_mult: 1
  }
  param {
    lr_mult: 2
    decay_mult: 0
  }
  convolution_param {
    num_output: 512
    pad: 1
    kernel_size: 3
    weight_filler {
      type: "gaussian"
      std: 0.01
    }
    bias_filler {
      type: "constant"
      value: 0
    }
  }
}
layer {
  name: "relu4_3"
  type: "ReLU"
  bottom: "conv4_3"
  top: "conv4_3"
}
layer {
  name: "pool4"
  type: "Pooling"
  bottom: "conv4_3"
  top: "pool4"
  pooling_param {
    pool: MAX
    kernel_size: 2
    stride: 2
  }
}
layer {
  name: "conv5_1"
  type: "Convolution"
  bottom: "pool4"
  top: "conv5_1"
  param {
    lr_mult: 1
    decay_mult: 1
  }
  param {
    lr_mult: 2
    decay_mult: 0
  }
  convolution_param {
    num_output: 512
    pad: 1
    kernel_size: 3
    weight_filler {
      type: "gaussian"
      std: 0.01
    }
    bias_filler {
      type: "constant"
      value: 0
    }
  }
}
layer {
  name: "relu5_1"
  type: "ReLU"
  bottom: "conv5_1"
  top: "conv5_1"
}
layer {
  name: "conv5_2"
  type: "Convolution"
  bottom: "conv5_1"
  top: "conv5_2"
  param {
    lr_mult: 1
    decay_mult: 1
  }
  param {
    lr_mult: 2
    decay_mult: 0
  }
  convolution_param {
    num_output: 512
    pad: 1
    kernel_size: 3
    weight_filler {
      type: "gaussian"
      std: 0.01
    }
    bias_filler {
      type: "constant"
      value: 0
    }
  }
}
layer {
  name: "relu5_2"
  type: "ReLU"
  bottom: "conv5_2"
  top: "conv5_2"
}
layer {
  name: "conv5_3"
  type: "Convolution"
  bottom: "conv5_2"
  top: "conv5_3"
  param {
    lr_mult: 1
    decay_mult: 1
  }
  param {
    lr_mult: 2
    decay_mult: 0
  }
  convolution_param {
    num_output: 512
    pad: 1
    kernel_size: 3
    weight_filler {
      type: "gaussian"
      std: 0.01
    }
    bias_filler {
      type: "constant"
      value: 0
    }
  }
}
layer {
  name: "relu5_3"
  type: "ReLU"
  bottom: "conv5_3"
  top: "conv5_3"
}
layer {
  name: "pool5"
  type: "Pooling"
  bottom: "conv5_3"
  top: "pool5"
  pooling_param {
    pool: MAX
    kernel_size: 2
    stride: 2
  }
}
layer {
  name: "fc6"
  type: "InnerProduct"
  bottom: "pool5"
  top: "fc6"
  param {
    lr_mult: 1
    decay_mult: 1
  }
  param {
    lr_mult: 2
    decay_mult: 0
  }
  inner_product_param {
    num_output: 4096
    weight_filler {
      type: "gaussian"
      std: 0.005
    }
    bias_filler {
      type: "constant"
      value: 0.1
    }
  }
}
layer {
  name: "relu6"
  type: "ReLU"
  bottom: "fc6"
  top: "fc6"
}
layer {
  name: "drop6"
  type: "Dropout"
  bottom: "fc6"
  top: "fc6"
  dropout_param {
    dropout_ratio: 0.5
  }
}
layer {
  name: "fc7"
  type: "InnerProduct"
  bottom: "fc6"
  top: "fc7"
  param {
    lr_mult: 1
    decay_mult: 1
  }
  param {
    lr_mult: 2
    decay_mult: 0
  }
  inner_product_param {
    num_output: 4096
    weight_filler {
      type: "gaussian"
      std: 0.005
    }
    bias_filler {
      type: "constant"
      value: 0.1
    }
  }
}
layer {
  name: "relu7"
  type: "ReLU"
  bottom: "fc7"
  top: "fc7"
}
layer {
  name: "drop7"
  type: "Dropout"
  bottom: "fc7"
  top: "fc7"
  dropout_param {
    dropout_ratio: 0.5
  }
}
layer {
  name: "fc8_binary_Type_f24"
  type: "InnerProduct"
  bottom: "fc7"
  top: "fc8_binary_Type_f24"
  param {
    lr_mult: 0
    decay_mult: 0
  }
  param {
    lr_mult: 0
    decay_mult: 0
  }
  inner_product_param {
    num_output: 24
    weight_filler {
      type: "gaussian"
      std: 0.005
    }
    bias_filler {
      type: "constant"
      value: 0.1
    }
  }
}
layer {
  name: "fc8_classification_Type"
  type: "InnerProduct"
  bottom: "fc7"
  top: "fc8_classification_Type"
  param {
    lr_mult: 0
    decay_mult: 0
  }
  param {
    lr_mult: 0
    decay_mult: 0
  }
  inner_product_param {
    num_output: 25
    weight_filler {
      type: "gaussian"
      std: 0.05
    }
    bias_filler {
      type: "constant"
      value: 0.1
    }
  }
}
layer {
  name: "fc_binary_Pattern_f24"
  type: "InnerProduct"
  bottom: "fc7"
  top: "fc_binary_Pattern_f24"
  param {
    lr_mult: 2
    decay_mult: 1
  }
  param {
    lr_mult: 4
    decay_mult: 0
  }
  inner_product_param {
    num_output: 24
    weight_filler {
      type: "gaussian"
      std: 0.005
    }
    bias_filler {
      type: "constant"
      value: 0.1
    }
  }
}
layer {
  name: "fc_classification_Pattern"
  type: "InnerProduct"
  bottom: "fc7"
  top: "fc_classification_Pattern"
  param {
    lr_mult: 1
    decay_mult: 1
  }
  param {
    lr_mult: 2
    decay_mult: 0
  }
  inner_product_param {
    num_output: 7
    weight_filler {
      type: "gaussian"
      std: 0.05
    }
    bias_filler {
      type: "constant"
      value: 0.1
    }
  }
}
layer {
  name: "loss_hashing_Type"
  type: "HashingLoss"
  bottom: "fc8_binary_Type_f24"
  bottom: "label"
  top: "loss_hashing_Type"
  loss_weight: 0
  hashing_loss_param {
    bi_margin: 48
    tradeoff: 0.01
  }
}
layer {
  name: "loss_classification_Type"
  type: "SoftmaxWithLoss"
  bottom: "fc8_classification_Type"
  bottom: "label"
  top: "loss_classification_Type"
  loss_weight: 0
}
layer {
  name: "loss_hashing_Pattern"
  type: "HashingLoss"
  bottom: "fc_binary_Pattern_f24"
  bottom: "label"
  top: "loss_hashing_Pattern"
  loss_weight: 0.1
  hashing_loss_param {
    bi_margin: 48
    tradeoff: 0.01
  }
}
layer {
  name: "loss_classification_Pattern"
  type: "SoftmaxWithLoss"
  bottom: "fc_classification_Pattern"
  bottom: "label"
  top: "loss_classification_Pattern"
}
I0919 12:31:49.563398  6549 layer_factory.hpp:77] Creating layer data
I0919 12:31:49.564074  6549 net.cpp:91] Creating Layer data
I0919 12:31:49.564115  6549 net.cpp:399] data -> data
I0919 12:31:49.564188  6549 net.cpp:399] data -> label
I0919 12:31:49.565301  6553 db_lmdb.cpp:38] Opened lmdb PATTERN/pattern_train_lmdb/
I0919 12:31:49.615269  6549 data_layer.cpp:41] output data size: 10,3,224,224
I0919 12:31:49.627792  6549 net.cpp:141] Setting up data
I0919 12:31:49.627878  6549 net.cpp:148] Top shape: 10 3 224 224 (1505280)
I0919 12:31:49.627907  6549 net.cpp:148] Top shape: 10 1 1 1 (10)
I0919 12:31:49.627926  6549 net.cpp:156] Memory required for data: 6021160
I0919 12:31:49.627955  6549 layer_factory.hpp:77] Creating layer label_data_1_split
I0919 12:31:49.627992  6549 net.cpp:91] Creating Layer label_data_1_split
I0919 12:31:49.628062  6549 net.cpp:425] label_data_1_split <- label
I0919 12:31:49.628103  6549 net.cpp:399] label_data_1_split -> label_data_1_split_0
I0919 12:31:49.628136  6549 net.cpp:399] label_data_1_split -> label_data_1_split_1
I0919 12:31:49.628159  6549 net.cpp:399] label_data_1_split -> label_data_1_split_2
I0919 12:31:49.628180  6549 net.cpp:399] label_data_1_split -> label_data_1_split_3
I0919 12:31:49.628284  6549 net.cpp:141] Setting up label_data_1_split
I0919 12:31:49.628312  6549 net.cpp:148] Top shape: 10 1 1 1 (10)
I0919 12:31:49.628332  6549 net.cpp:148] Top shape: 10 1 1 1 (10)
I0919 12:31:49.628351  6549 net.cpp:148] Top shape: 10 1 1 1 (10)
I0919 12:31:49.628370  6549 net.cpp:148] Top shape: 10 1 1 1 (10)
I0919 12:31:49.628384  6549 net.cpp:156] Memory required for data: 6021320
I0919 12:31:49.628401  6549 layer_factory.hpp:77] Creating layer conv1_1
I0919 12:31:49.628449  6549 net.cpp:91] Creating Layer conv1_1
I0919 12:31:49.628469  6549 net.cpp:425] conv1_1 <- data
I0919 12:31:49.628491  6549 net.cpp:399] conv1_1 -> conv1_1
I0919 12:31:49.630774  6549 net.cpp:141] Setting up conv1_1
I0919 12:31:49.630810  6549 net.cpp:148] Top shape: 10 64 224 224 (32112640)
I0919 12:31:49.630828  6549 net.cpp:156] Memory required for data: 134471880
I0919 12:31:49.630866  6549 layer_factory.hpp:77] Creating layer relu1_1
I0919 12:31:49.630893  6549 net.cpp:91] Creating Layer relu1_1
I0919 12:31:49.630911  6549 net.cpp:425] relu1_1 <- conv1_1
I0919 12:31:49.630936  6549 net.cpp:386] relu1_1 -> conv1_1 (in-place)
I0919 12:31:49.630964  6549 net.cpp:141] Setting up relu1_1
I0919 12:31:49.630985  6549 net.cpp:148] Top shape: 10 64 224 224 (32112640)
I0919 12:31:49.631000  6549 net.cpp:156] Memory required for data: 262922440
I0919 12:31:49.631017  6549 layer_factory.hpp:77] Creating layer conv1_2
I0919 12:31:49.631047  6549 net.cpp:91] Creating Layer conv1_2
I0919 12:31:49.631067  6549 net.cpp:425] conv1_2 <- conv1_1
I0919 12:31:49.631088  6549 net.cpp:399] conv1_2 -> conv1_2
I0919 12:31:49.632743  6549 net.cpp:141] Setting up conv1_2
I0919 12:31:49.632771  6549 net.cpp:148] Top shape: 10 64 224 224 (32112640)
I0919 12:31:49.632789  6549 net.cpp:156] Memory required for data: 391373000
I0919 12:31:49.632812  6549 layer_factory.hpp:77] Creating layer relu1_2
I0919 12:31:49.632833  6549 net.cpp:91] Creating Layer relu1_2
I0919 12:31:49.632850  6549 net.cpp:425] relu1_2 <- conv1_2
I0919 12:31:49.632874  6549 net.cpp:386] relu1_2 -> conv1_2 (in-place)
I0919 12:31:49.632895  6549 net.cpp:141] Setting up relu1_2
I0919 12:31:49.632915  6549 net.cpp:148] Top shape: 10 64 224 224 (32112640)
I0919 12:31:49.632931  6549 net.cpp:156] Memory required for data: 519823560
I0919 12:31:49.632948  6549 layer_factory.hpp:77] Creating layer pool1
I0919 12:31:49.632969  6549 net.cpp:91] Creating Layer pool1
I0919 12:31:49.632987  6549 net.cpp:425] pool1 <- conv1_2
I0919 12:31:49.633008  6549 net.cpp:399] pool1 -> pool1
I0919 12:31:49.633087  6549 net.cpp:141] Setting up pool1
I0919 12:31:49.633113  6549 net.cpp:148] Top shape: 10 64 112 112 (8028160)
I0919 12:31:49.633131  6549 net.cpp:156] Memory required for data: 551936200
I0919 12:31:49.633147  6549 layer_factory.hpp:77] Creating layer conv2_1
I0919 12:31:49.633174  6549 net.cpp:91] Creating Layer conv2_1
I0919 12:31:49.633193  6549 net.cpp:425] conv2_1 <- pool1
I0919 12:31:49.633216  6549 net.cpp:399] conv2_1 -> conv2_1
I0919 12:31:49.637475  6549 net.cpp:141] Setting up conv2_1
I0919 12:31:49.637512  6549 net.cpp:148] Top shape: 10 128 112 112 (16056320)
I0919 12:31:49.637531  6549 net.cpp:156] Memory required for data: 616161480
I0919 12:31:49.637555  6549 layer_factory.hpp:77] Creating layer relu2_1
I0919 12:31:49.637583  6549 net.cpp:91] Creating Layer relu2_1
I0919 12:31:49.637601  6549 net.cpp:425] relu2_1 <- conv2_1
I0919 12:31:49.637621  6549 net.cpp:386] relu2_1 -> conv2_1 (in-place)
I0919 12:31:49.637651  6549 net.cpp:141] Setting up relu2_1
I0919 12:31:49.637672  6549 net.cpp:148] Top shape: 10 128 112 112 (16056320)
I0919 12:31:49.637694  6549 net.cpp:156] Memory required for data: 680386760
I0919 12:31:49.637749  6549 layer_factory.hpp:77] Creating layer conv2_2
I0919 12:31:49.637779  6549 net.cpp:91] Creating Layer conv2_2
I0919 12:31:49.637799  6549 net.cpp:425] conv2_2 <- conv2_1
I0919 12:31:49.637823  6549 net.cpp:399] conv2_2 -> conv2_2
I0919 12:31:49.643596  6549 net.cpp:141] Setting up conv2_2
I0919 12:31:49.643631  6549 net.cpp:148] Top shape: 10 128 112 112 (16056320)
I0919 12:31:49.643649  6549 net.cpp:156] Memory required for data: 744612040
I0919 12:31:49.643673  6549 layer_factory.hpp:77] Creating layer relu2_2
I0919 12:31:49.643694  6549 net.cpp:91] Creating Layer relu2_2
I0919 12:31:49.643712  6549 net.cpp:425] relu2_2 <- conv2_2
I0919 12:31:49.643730  6549 net.cpp:386] relu2_2 -> conv2_2 (in-place)
I0919 12:31:49.643750  6549 net.cpp:141] Setting up relu2_2
I0919 12:31:49.643769  6549 net.cpp:148] Top shape: 10 128 112 112 (16056320)
I0919 12:31:49.643785  6549 net.cpp:156] Memory required for data: 808837320
I0919 12:31:49.643802  6549 layer_factory.hpp:77] Creating layer pool2
I0919 12:31:49.643823  6549 net.cpp:91] Creating Layer pool2
I0919 12:31:49.643841  6549 net.cpp:425] pool2 <- conv2_2
I0919 12:31:49.643859  6549 net.cpp:399] pool2 -> pool2
I0919 12:31:49.643920  6549 net.cpp:141] Setting up pool2
I0919 12:31:49.643944  6549 net.cpp:148] Top shape: 10 128 56 56 (4014080)
I0919 12:31:49.643960  6549 net.cpp:156] Memory required for data: 824893640
I0919 12:31:49.643977  6549 layer_factory.hpp:77] Creating layer conv3_1
I0919 12:31:49.644003  6549 net.cpp:91] Creating Layer conv3_1
I0919 12:31:49.644022  6549 net.cpp:425] conv3_1 <- pool2
I0919 12:31:49.644047  6549 net.cpp:399] conv3_1 -> conv3_1
I0919 12:31:49.656054  6549 net.cpp:141] Setting up conv3_1
I0919 12:31:49.656106  6549 net.cpp:148] Top shape: 10 256 56 56 (8028160)
I0919 12:31:49.656131  6549 net.cpp:156] Memory required for data: 857006280
I0919 12:31:49.656168  6549 layer_factory.hpp:77] Creating layer relu3_1
I0919 12:31:49.656196  6549 net.cpp:91] Creating Layer relu3_1
I0919 12:31:49.656217  6549 net.cpp:425] relu3_1 <- conv3_1
I0919 12:31:49.656240  6549 net.cpp:386] relu3_1 -> conv3_1 (in-place)
I0919 12:31:49.656265  6549 net.cpp:141] Setting up relu3_1
I0919 12:31:49.656285  6549 net.cpp:148] Top shape: 10 256 56 56 (8028160)
I0919 12:31:49.656301  6549 net.cpp:156] Memory required for data: 889118920
I0919 12:31:49.656316  6549 layer_factory.hpp:77] Creating layer conv3_2
I0919 12:31:49.656344  6549 net.cpp:91] Creating Layer conv3_2
I0919 12:31:49.656363  6549 net.cpp:425] conv3_2 <- conv3_1
I0919 12:31:49.656386  6549 net.cpp:399] conv3_2 -> conv3_2
I0919 12:31:49.679095  6549 net.cpp:141] Setting up conv3_2
I0919 12:31:49.679126  6549 net.cpp:148] Top shape: 10 256 56 56 (8028160)
I0919 12:31:49.679143  6549 net.cpp:156] Memory required for data: 921231560
I0919 12:31:49.679165  6549 layer_factory.hpp:77] Creating layer relu3_2
I0919 12:31:49.679186  6549 net.cpp:91] Creating Layer relu3_2
I0919 12:31:49.679203  6549 net.cpp:425] relu3_2 <- conv3_2
I0919 12:31:49.679226  6549 net.cpp:386] relu3_2 -> conv3_2 (in-place)
I0919 12:31:49.679250  6549 net.cpp:141] Setting up relu3_2
I0919 12:31:49.679267  6549 net.cpp:148] Top shape: 10 256 56 56 (8028160)
I0919 12:31:49.679283  6549 net.cpp:156] Memory required for data: 953344200
I0919 12:31:49.679298  6549 layer_factory.hpp:77] Creating layer conv3_3
I0919 12:31:49.679327  6549 net.cpp:91] Creating Layer conv3_3
I0919 12:31:49.679345  6549 net.cpp:425] conv3_3 <- conv3_2
I0919 12:31:49.679365  6549 net.cpp:399] conv3_3 -> conv3_3
I0919 12:31:49.702145  6549 net.cpp:141] Setting up conv3_3
I0919 12:31:49.702191  6549 net.cpp:148] Top shape: 10 256 56 56 (8028160)
I0919 12:31:49.702211  6549 net.cpp:156] Memory required for data: 985456840
I0919 12:31:49.702239  6549 layer_factory.hpp:77] Creating layer relu3_3
I0919 12:31:49.702265  6549 net.cpp:91] Creating Layer relu3_3
I0919 12:31:49.702283  6549 net.cpp:425] relu3_3 <- conv3_3
I0919 12:31:49.702306  6549 net.cpp:386] relu3_3 -> conv3_3 (in-place)
I0919 12:31:49.702373  6549 net.cpp:141] Setting up relu3_3
I0919 12:31:49.702395  6549 net.cpp:148] Top shape: 10 256 56 56 (8028160)
I0919 12:31:49.702411  6549 net.cpp:156] Memory required for data: 1017569480
I0919 12:31:49.702427  6549 layer_factory.hpp:77] Creating layer pool3
I0919 12:31:49.702452  6549 net.cpp:91] Creating Layer pool3
I0919 12:31:49.702471  6549 net.cpp:425] pool3 <- conv3_3
I0919 12:31:49.702491  6549 net.cpp:399] pool3 -> pool3
I0919 12:31:49.702555  6549 net.cpp:141] Setting up pool3
I0919 12:31:49.702579  6549 net.cpp:148] Top shape: 10 256 28 28 (2007040)
I0919 12:31:49.702595  6549 net.cpp:156] Memory required for data: 1025597640
I0919 12:31:49.702612  6549 layer_factory.hpp:77] Creating layer conv4_1
I0919 12:31:49.702639  6549 net.cpp:91] Creating Layer conv4_1
I0919 12:31:49.702657  6549 net.cpp:425] conv4_1 <- pool3
I0919 12:31:49.702678  6549 net.cpp:399] conv4_1 -> conv4_1
I0919 12:31:49.749202  6549 net.cpp:141] Setting up conv4_1
I0919 12:31:49.749269  6549 net.cpp:148] Top shape: 10 512 28 28 (4014080)
I0919 12:31:49.749289  6549 net.cpp:156] Memory required for data: 1041653960
I0919 12:31:49.749317  6549 layer_factory.hpp:77] Creating layer relu4_1
I0919 12:31:49.749349  6549 net.cpp:91] Creating Layer relu4_1
I0919 12:31:49.749369  6549 net.cpp:425] relu4_1 <- conv4_1
I0919 12:31:49.749392  6549 net.cpp:386] relu4_1 -> conv4_1 (in-place)
I0919 12:31:49.749418  6549 net.cpp:141] Setting up relu4_1
I0919 12:31:49.749438  6549 net.cpp:148] Top shape: 10 512 28 28 (4014080)
I0919 12:31:49.749454  6549 net.cpp:156] Memory required for data: 1057710280
I0919 12:31:49.749469  6549 layer_factory.hpp:77] Creating layer conv4_2
I0919 12:31:49.749500  6549 net.cpp:91] Creating Layer conv4_2
I0919 12:31:49.749517  6549 net.cpp:425] conv4_2 <- conv4_1
I0919 12:31:49.749541  6549 net.cpp:399] conv4_2 -> conv4_2
I0919 12:31:49.840253  6549 net.cpp:141] Setting up conv4_2
I0919 12:31:49.840322  6549 net.cpp:148] Top shape: 10 512 28 28 (4014080)
I0919 12:31:49.840342  6549 net.cpp:156] Memory required for data: 1073766600
I0919 12:31:49.840381  6549 layer_factory.hpp:77] Creating layer relu4_2
I0919 12:31:49.840412  6549 net.cpp:91] Creating Layer relu4_2
I0919 12:31:49.840432  6549 net.cpp:425] relu4_2 <- conv4_2
I0919 12:31:49.840454  6549 net.cpp:386] relu4_2 -> conv4_2 (in-place)
I0919 12:31:49.840482  6549 net.cpp:141] Setting up relu4_2
I0919 12:31:49.840502  6549 net.cpp:148] Top shape: 10 512 28 28 (4014080)
I0919 12:31:49.840518  6549 net.cpp:156] Memory required for data: 1089822920
I0919 12:31:49.840534  6549 layer_factory.hpp:77] Creating layer conv4_3
I0919 12:31:49.840564  6549 net.cpp:91] Creating Layer conv4_3
I0919 12:31:49.840582  6549 net.cpp:425] conv4_3 <- conv4_2
I0919 12:31:49.840606  6549 net.cpp:399] conv4_3 -> conv4_3
I0919 12:31:49.932328  6549 net.cpp:141] Setting up conv4_3
I0919 12:31:49.932397  6549 net.cpp:148] Top shape: 10 512 28 28 (4014080)
I0919 12:31:49.932417  6549 net.cpp:156] Memory required for data: 1105879240
I0919 12:31:49.932448  6549 layer_factory.hpp:77] Creating layer relu4_3
I0919 12:31:49.932477  6549 net.cpp:91] Creating Layer relu4_3
I0919 12:31:49.932497  6549 net.cpp:425] relu4_3 <- conv4_3
I0919 12:31:49.932523  6549 net.cpp:386] relu4_3 -> conv4_3 (in-place)
I0919 12:31:49.932565  6549 net.cpp:141] Setting up relu4_3
I0919 12:31:49.932585  6549 net.cpp:148] Top shape: 10 512 28 28 (4014080)
I0919 12:31:49.932600  6549 net.cpp:156] Memory required for data: 1121935560
I0919 12:31:49.932615  6549 layer_factory.hpp:77] Creating layer pool4
I0919 12:31:49.932637  6549 net.cpp:91] Creating Layer pool4
I0919 12:31:49.932653  6549 net.cpp:425] pool4 <- conv4_3
I0919 12:31:49.932673  6549 net.cpp:399] pool4 -> pool4
I0919 12:31:49.932735  6549 net.cpp:141] Setting up pool4
I0919 12:31:49.932759  6549 net.cpp:148] Top shape: 10 512 14 14 (1003520)
I0919 12:31:49.932775  6549 net.cpp:156] Memory required for data: 1125949640
I0919 12:31:49.932790  6549 layer_factory.hpp:77] Creating layer conv5_1
I0919 12:31:49.932819  6549 net.cpp:91] Creating Layer conv5_1
I0919 12:31:49.932888  6549 net.cpp:425] conv5_1 <- pool4
I0919 12:31:49.932914  6549 net.cpp:399] conv5_1 -> conv5_1
I0919 12:31:50.023489  6549 net.cpp:141] Setting up conv5_1
I0919 12:31:50.023560  6549 net.cpp:148] Top shape: 10 512 14 14 (1003520)
I0919 12:31:50.023577  6549 net.cpp:156] Memory required for data: 1129963720
I0919 12:31:50.023607  6549 layer_factory.hpp:77] Creating layer relu5_1
I0919 12:31:50.023639  6549 net.cpp:91] Creating Layer relu5_1
I0919 12:31:50.023659  6549 net.cpp:425] relu5_1 <- conv5_1
I0919 12:31:50.023684  6549 net.cpp:386] relu5_1 -> conv5_1 (in-place)
I0919 12:31:50.023710  6549 net.cpp:141] Setting up relu5_1
I0919 12:31:50.023730  6549 net.cpp:148] Top shape: 10 512 14 14 (1003520)
I0919 12:31:50.023746  6549 net.cpp:156] Memory required for data: 1133977800
I0919 12:31:50.023762  6549 layer_factory.hpp:77] Creating layer conv5_2
I0919 12:31:50.023794  6549 net.cpp:91] Creating Layer conv5_2
I0919 12:31:50.023813  6549 net.cpp:425] conv5_2 <- conv5_1
I0919 12:31:50.023835  6549 net.cpp:399] conv5_2 -> conv5_2
I0919 12:31:50.114641  6549 net.cpp:141] Setting up conv5_2
I0919 12:31:50.114709  6549 net.cpp:148] Top shape: 10 512 14 14 (1003520)
I0919 12:31:50.114729  6549 net.cpp:156] Memory required for data: 1137991880
I0919 12:31:50.114758  6549 layer_factory.hpp:77] Creating layer relu5_2
I0919 12:31:50.114787  6549 net.cpp:91] Creating Layer relu5_2
I0919 12:31:50.114807  6549 net.cpp:425] relu5_2 <- conv5_2
I0919 12:31:50.114833  6549 net.cpp:386] relu5_2 -> conv5_2 (in-place)
I0919 12:31:50.114861  6549 net.cpp:141] Setting up relu5_2
I0919 12:31:50.114881  6549 net.cpp:148] Top shape: 10 512 14 14 (1003520)
I0919 12:31:50.114897  6549 net.cpp:156] Memory required for data: 1142005960
I0919 12:31:50.114913  6549 layer_factory.hpp:77] Creating layer conv5_3
I0919 12:31:50.114940  6549 net.cpp:91] Creating Layer conv5_3
I0919 12:31:50.114958  6549 net.cpp:425] conv5_3 <- conv5_2
I0919 12:31:50.114981  6549 net.cpp:399] conv5_3 -> conv5_3
I0919 12:31:50.206969  6549 net.cpp:141] Setting up conv5_3
I0919 12:31:50.207043  6549 net.cpp:148] Top shape: 10 512 14 14 (1003520)
I0919 12:31:50.207062  6549 net.cpp:156] Memory required for data: 1146020040
I0919 12:31:50.207093  6549 layer_factory.hpp:77] Creating layer relu5_3
I0919 12:31:50.207123  6549 net.cpp:91] Creating Layer relu5_3
I0919 12:31:50.207144  6549 net.cpp:425] relu5_3 <- conv5_3
I0919 12:31:50.207170  6549 net.cpp:386] relu5_3 -> conv5_3 (in-place)
I0919 12:31:50.207200  6549 net.cpp:141] Setting up relu5_3
I0919 12:31:50.207219  6549 net.cpp:148] Top shape: 10 512 14 14 (1003520)
I0919 12:31:50.207235  6549 net.cpp:156] Memory required for data: 1150034120
I0919 12:31:50.207252  6549 layer_factory.hpp:77] Creating layer pool5
I0919 12:31:50.207284  6549 net.cpp:91] Creating Layer pool5
I0919 12:31:50.207304  6549 net.cpp:425] pool5 <- conv5_3
I0919 12:31:50.207324  6549 net.cpp:399] pool5 -> pool5
I0919 12:31:50.207397  6549 net.cpp:141] Setting up pool5
I0919 12:31:50.207422  6549 net.cpp:148] Top shape: 10 512 7 7 (250880)
I0919 12:31:50.207439  6549 net.cpp:156] Memory required for data: 1151037640
I0919 12:31:50.207456  6549 layer_factory.hpp:77] Creating layer fc6
I0919 12:31:50.207487  6549 net.cpp:91] Creating Layer fc6
I0919 12:31:50.207505  6549 net.cpp:425] fc6 <- pool5
I0919 12:31:50.207532  6549 net.cpp:399] fc6 -> fc6
I0919 12:31:54.141407  6549 net.cpp:141] Setting up fc6
I0919 12:31:54.141533  6549 net.cpp:148] Top shape: 10 4096 (40960)
I0919 12:31:54.141551  6549 net.cpp:156] Memory required for data: 1151201480
I0919 12:31:54.141595  6549 layer_factory.hpp:77] Creating layer relu6
I0919 12:31:54.141669  6549 net.cpp:91] Creating Layer relu6
I0919 12:31:54.141705  6549 net.cpp:425] relu6 <- fc6
I0919 12:31:54.141731  6549 net.cpp:386] relu6 -> fc6 (in-place)
I0919 12:31:54.141758  6549 net.cpp:141] Setting up relu6
I0919 12:31:54.141777  6549 net.cpp:148] Top shape: 10 4096 (40960)
I0919 12:31:54.141796  6549 net.cpp:156] Memory required for data: 1151365320
I0919 12:31:54.141814  6549 layer_factory.hpp:77] Creating layer drop6
I0919 12:31:54.141896  6549 net.cpp:91] Creating Layer drop6
I0919 12:31:54.141916  6549 net.cpp:425] drop6 <- fc6
I0919 12:31:54.141937  6549 net.cpp:386] drop6 -> fc6 (in-place)
I0919 12:31:54.142035  6549 net.cpp:141] Setting up drop6
I0919 12:31:54.142058  6549 net.cpp:148] Top shape: 10 4096 (40960)
I0919 12:31:54.142076  6549 net.cpp:156] Memory required for data: 1151529160
I0919 12:31:54.142092  6549 layer_factory.hpp:77] Creating layer fc7
I0919 12:31:54.142117  6549 net.cpp:91] Creating Layer fc7
I0919 12:31:54.142133  6549 net.cpp:425] fc7 <- fc6
I0919 12:31:54.142156  6549 net.cpp:399] fc7 -> fc7
I0919 12:31:54.786490  6549 net.cpp:141] Setting up fc7
I0919 12:31:54.786579  6549 net.cpp:148] Top shape: 10 4096 (40960)
I0919 12:31:54.786602  6549 net.cpp:156] Memory required for data: 1151693000
I0919 12:31:54.786653  6549 layer_factory.hpp:77] Creating layer relu7
I0919 12:31:54.786694  6549 net.cpp:91] Creating Layer relu7
I0919 12:31:54.786720  6549 net.cpp:425] relu7 <- fc7
I0919 12:31:54.786757  6549 net.cpp:386] relu7 -> fc7 (in-place)
I0919 12:31:54.786785  6549 net.cpp:141] Setting up relu7
I0919 12:31:54.786804  6549 net.cpp:148] Top shape: 10 4096 (40960)
I0919 12:31:54.786820  6549 net.cpp:156] Memory required for data: 1151856840
I0919 12:31:54.786836  6549 layer_factory.hpp:77] Creating layer drop7
I0919 12:31:54.786860  6549 net.cpp:91] Creating Layer drop7
I0919 12:31:54.786878  6549 net.cpp:425] drop7 <- fc7
I0919 12:31:54.786896  6549 net.cpp:386] drop7 -> fc7 (in-place)
I0919 12:31:54.786954  6549 net.cpp:141] Setting up drop7
I0919 12:31:54.786976  6549 net.cpp:148] Top shape: 10 4096 (40960)
I0919 12:31:54.786993  6549 net.cpp:156] Memory required for data: 1152020680
I0919 12:31:54.787010  6549 layer_factory.hpp:77] Creating layer fc7_drop7_0_split
I0919 12:31:54.787034  6549 net.cpp:91] Creating Layer fc7_drop7_0_split
I0919 12:31:54.787050  6549 net.cpp:425] fc7_drop7_0_split <- fc7
I0919 12:31:54.787072  6549 net.cpp:399] fc7_drop7_0_split -> fc7_drop7_0_split_0
I0919 12:31:54.787096  6549 net.cpp:399] fc7_drop7_0_split -> fc7_drop7_0_split_1
I0919 12:31:54.787134  6549 net.cpp:399] fc7_drop7_0_split -> fc7_drop7_0_split_2
I0919 12:31:54.787156  6549 net.cpp:399] fc7_drop7_0_split -> fc7_drop7_0_split_3
I0919 12:31:54.787238  6549 net.cpp:141] Setting up fc7_drop7_0_split
I0919 12:31:54.787263  6549 net.cpp:148] Top shape: 10 4096 (40960)
I0919 12:31:54.787282  6549 net.cpp:148] Top shape: 10 4096 (40960)
I0919 12:31:54.787299  6549 net.cpp:148] Top shape: 10 4096 (40960)
I0919 12:31:54.787317  6549 net.cpp:148] Top shape: 10 4096 (40960)
I0919 12:31:54.787333  6549 net.cpp:156] Memory required for data: 1152676040
I0919 12:31:54.787349  6549 layer_factory.hpp:77] Creating layer fc8_binary_Type_f24
I0919 12:31:54.787372  6549 net.cpp:91] Creating Layer fc8_binary_Type_f24
I0919 12:31:54.787389  6549 net.cpp:425] fc8_binary_Type_f24 <- fc7_drop7_0_split_0
I0919 12:31:54.787413  6549 net.cpp:399] fc8_binary_Type_f24 -> fc8_binary_Type_f24
I0919 12:31:54.792084  6549 net.cpp:141] Setting up fc8_binary_Type_f24
I0919 12:31:54.792114  6549 net.cpp:148] Top shape: 10 24 (240)
I0919 12:31:54.792132  6549 net.cpp:156] Memory required for data: 1152677000
I0919 12:31:54.792156  6549 layer_factory.hpp:77] Creating layer fc8_classification_Type
I0919 12:31:54.792181  6549 net.cpp:91] Creating Layer fc8_classification_Type
I0919 12:31:54.792197  6549 net.cpp:425] fc8_classification_Type <- fc7_drop7_0_split_1
I0919 12:31:54.792217  6549 net.cpp:399] fc8_classification_Type -> fc8_classification_Type
I0919 12:31:54.796030  6549 net.cpp:141] Setting up fc8_classification_Type
I0919 12:31:54.796056  6549 net.cpp:148] Top shape: 10 25 (250)
I0919 12:31:54.796075  6549 net.cpp:156] Memory required for data: 1152678000
I0919 12:31:54.796124  6549 layer_factory.hpp:77] Creating layer fc_binary_Pattern_f24
I0919 12:31:54.796149  6549 net.cpp:91] Creating Layer fc_binary_Pattern_f24
I0919 12:31:54.796167  6549 net.cpp:425] fc_binary_Pattern_f24 <- fc7_drop7_0_split_2
I0919 12:31:54.796229  6549 net.cpp:399] fc_binary_Pattern_f24 -> fc_binary_Pattern_f24
I0919 12:31:54.800511  6549 net.cpp:141] Setting up fc_binary_Pattern_f24
I0919 12:31:54.800541  6549 net.cpp:148] Top shape: 10 24 (240)
I0919 12:31:54.800560  6549 net.cpp:156] Memory required for data: 1152678960
I0919 12:31:54.800585  6549 layer_factory.hpp:77] Creating layer fc_classification_Pattern
I0919 12:31:54.800611  6549 net.cpp:91] Creating Layer fc_classification_Pattern
I0919 12:31:54.800631  6549 net.cpp:425] fc_classification_Pattern <- fc7_drop7_0_split_3
I0919 12:31:54.800650  6549 net.cpp:399] fc_classification_Pattern -> fc_classification_Pattern
I0919 12:31:54.801859  6549 net.cpp:141] Setting up fc_classification_Pattern
I0919 12:31:54.801885  6549 net.cpp:148] Top shape: 10 7 (70)
I0919 12:31:54.801901  6549 net.cpp:156] Memory required for data: 1152679240
I0919 12:31:54.801921  6549 layer_factory.hpp:77] Creating layer loss_hashing_Type
I0919 12:31:54.801949  6549 net.cpp:91] Creating Layer loss_hashing_Type
I0919 12:31:54.801967  6549 net.cpp:425] loss_hashing_Type <- fc8_binary_Type_f24
I0919 12:31:54.801985  6549 net.cpp:425] loss_hashing_Type <- label_data_1_split_0
…
I0919 12:31:54.805785  6549 net.cpp:313] The NetState phase (1) differed from the phase (0) specified by a rule in layer data
I0919 12:31:54.806228  6549 net.cpp:49] Initializing net from parameters: 
name: "docomo_VGG16"
state {
  phase: TEST
}
layer {
  name: "data"
  type: "Data"
  top: "data"
  top: "label"
  include {
    phase: TEST
  }
  transform_param {
    mirror: false
    crop_size: 224
    mean_value: 103.939
    mean_value: 116.779
    mean_value: 123.68
  }
  data_param {
    source: "PATTERN/pattern_val_lmdb/"
    batch_size: 10
    backend: LMDB
  }
}
layer {
  name: "conv1_1"
  type: "Convolution"
  bottom: "data"
  top: "conv1_1"
  param {
    lr_mult: 1
    decay_mult: 1
  }
  param {
    lr_mult: 2
    decay_mult: 0
  }
  convolution_param {
    num_output: 64
    pad: 1
    kernel_size: 3
    weight_filler {
      type: "gaussian"
      std: 0.01
    }
    bias_filler {
      type: "constant"
      value: 0
    }
  }
}
layer {
  name: "relu1_1"
  type: "ReLU"
  bottom: "conv1_1"
  top: "conv1_1"
}
layer {
  name: "conv1_2"
  type: "Convolution"
  bottom: "conv1_1"
  top: "conv1_2"
  param {
    lr_mult: 1
    decay_mult: 1
  }
  param {
    lr_mult: 2
    decay_mult: 0
  }
  convolution_param {
    num_output: 64
    pad: 1
    kernel_size: 3
    weight_filler {
      type: "gaussian"
      std: 0.01
    }
    bias_filler {
      type: "constant"
      value: 0
    }
  }
}
layer {
  name: "relu1_2"
  type: "ReLU"
  bottom: "conv1_2"
  top: "conv1_2"
}
layer {
  name: "pool1"
  type: "Pooling"
  bottom: "conv1_2"
  top: "pool1"
  pooling_param {
    pool: MAX
    kernel_size: 2
    stride: 2
  }
}
layer {
  name: "conv2_1"
  type: "Convolution"
  bottom: "pool1"
  top: "conv2_1"
  param {
    lr_mult: 1
    decay_mult: 1
  }
  param {
    lr_mult: 2
    decay_mult: 0
  }
  convolution_param {
    num_output: 128
    pad: 1
    kernel_size: 3
    weight_filler {
      type: "gaussian"
      std: 0.01
    }
    bias_filler {
      type: "constant"
      value: 0
    }
  }
}
layer {
  name: "relu2_1"
  type: "ReLU"
  bottom: "conv2_1"
  top: "conv2_1"
}
layer {
  name: "conv2_2"
  type: "Convolution"
  bottom: "conv2_1"
  top: "conv2_2"
  param {
    lr_mult: 1
    decay_mult: 1
  }
  param {
    lr_mult: 2
    decay_mult: 0
  }
  convolution_param {
    num_output: 128
    pad: 1
    kernel_size: 3
    weight_filler {
      type: "gaussian"
      std: 0.01
    }
    bias_filler {
      type: "constant"
      value: 0
    }
  }
}
layer {
  name: "relu2_2"
  type: "ReLU"
  bottom: "conv2_2"
  top: "conv2_2"
}
layer {
  name: "pool2"
  type: "Pooling"
  bottom: "conv2_2"
  top: "pool2"
  pooling_param {
    pool: MAX
    kernel_size: 2
    stride: 2
  }
}
layer {
  name: "conv3_1"
  type: "Convolution"
  bottom: "pool2"
  top: "conv3_1"
  param {
    lr_mult: 1
    decay_mult: 1
  }
  param {
    lr_mult: 2
    decay_mult: 0
  }
  convolution_param {
    num_output: 256
    pad: 1
    kernel_size: 3
    weight_filler {
      type: "gaussian"
      std: 0.01
    }
    bias_filler {
      type: "constant"
      value: 0
    }
  }
}
layer {
  name: "relu3_1"
  type: "ReLU"
  bottom: "conv3_1"
  top: "conv3_1"
}
layer {
  name: "conv3_2"
  type: "Convolution"
  bottom: "conv3_1"
  top: "conv3_2"
  param {
    lr_mult: 1
    decay_mult: 1
  }
  param {
    lr_mult: 2
    decay_mult: 0
  }
  convolution_param {
    num_output: 256
    pad: 1
    kernel_size: 3
    weight_filler {
      type: "gaussian"
      std: 0.01
    }
    bias_filler {
      type: "constant"
      value: 0
    }
  }
}
layer {
  name: "relu3_2"
  type: "ReLU"
  bottom: "conv3_2"
  top: "conv3_2"
}
layer {
  name: "conv3_3"
  type: "Convolution"
  bottom: "conv3_2"
  top: "conv3_3"
  param {
    lr_mult: 1
    decay_mult: 1
  }
  param {
    lr_mult: 2
    decay_mult: 0
  }
  convolution_param {
    num_output: 256
    pad: 1
    kernel_size: 3
    weight_filler {
      type: "gaussian"
      std: 0.01
    }
    bias_filler {
      type: "constant"
      value: 0
    }
  }
}
layer {
  name: "relu3_3"
  type: "ReLU"
  bottom: "conv3_3"
  top: "conv3_3"
}
layer {
  name: "pool3"
  type: "Pooling"
  bottom: "conv3_3"
  top: "pool3"
  pooling_param {
    pool: MAX
    kernel_size: 2
    stride: 2
  }
}
layer {
  name: "conv4_1"
  type: "Convolution"
  bottom: "pool3"
  top: "conv4_1"
  param {
    lr_mult: 1
    decay_mult: 1
  }
  param {
    lr_mult: 2
    decay_mult: 0
  }
  convolution_param {
    num_output: 512
    pad: 1
    kernel_size: 3
    weight_filler {
      type: "gaussian"
      std: 0.01
    }
    bias_filler {
      type: "constant"
      value: 0
    }
  }
}
layer {
  name: "relu4_1"
  type: "ReLU"
  bottom: "conv4_1"
  top: "conv4_1"
}
layer {
  name: "conv4_2"
  type: "Convolution"
  bottom: "conv4_1"
  top: "conv4_2"
  param {
    lr_mult: 1
    decay_mult: 1
  }
  param {
    lr_mult: 2
    decay_mult: 0
  }
  convolution_param {
    num_output: 512
    pad: 1
    kernel_size: 3
    weight_filler {
      type: "gaussian"
      std: 0.01
    }
    bias_filler {
      type: "constant"
      value: 0
    }
  }
}
layer {
  name: "relu4_2"
  type: "ReLU"
  bottom: "conv4_2"
  top: "conv4_2"
}
layer {
  name: "conv4_3"
  type: "Convolution"
  bottom: "conv4_2"
  top: "conv4_3"
  param {
    lr_mult: 1
    decay_mult: 1
  }
  param {
    lr_mult: 2
    decay_mult: 0
  }
  convolution_param {
    num_output: 512
    pad: 1
    kernel_size: 3
    weight_filler {
      type: "gaussian"
      std: 0.01
    }
    bias_filler {
      type: "constant"
      value: 0
    }
  }
}
layer {
  name: "relu4_3"
  type: "ReLU"
  bottom: "conv4_3"
  top: "conv4_3"
}
layer {
  name: "pool4"
  type: "Pooling"
  bottom: "conv4_3"
  top: "pool4"
  pooling_param {
    pool: MAX
    kernel_size: 2
    stride: 2
  }
}
layer {
  name: "conv5_1"
  type: "Convolution"
  bottom: "pool4"
  top: "conv5_1"
  param {
    lr_mult: 1
    decay_mult: 1
  }
  param {
    lr_mult: 2
    decay_mult: 0
  }
  convolution_param {
    num_output: 512
    pad: 1
    kernel_size: 3
    weight_filler {
      type: "gaussian"
      std: 0.01
    }
    bias_filler {
      type: "constant"
      value: 0
    }
  }
}
layer {
  name: "relu5_1"
  type: "ReLU"
  bottom: "conv5_1"
  top: "conv5_1"
}
layer {
  name: "conv5_2"
  type: "Convolution"
  bottom: "conv5_1"
  top: "conv5_2"
  param {
    lr_mult: 1
    decay_mult: 1
  }
  param {
    lr_mult: 2
    decay_mult: 0
  }
  convolution_param {
    num_output: 512
    pad: 1
    kernel_size: 3
    weight_filler {
      type: "gaussian"
      std: 0.01
    }
    bias_filler {
      type: "constant"
      value: 0
    }
  }
}
layer {
  name: "relu5_2"
  type: "ReLU"
  bottom: "conv5_2"
  top: "conv5_2"
}
layer {
  name: "conv5_3"
  type: "Convolution"
  bottom: "conv5_2"
  top: "conv5_3"
  param {
    lr_mult: 1
    decay_mult: 1
  }
  param {
    lr_mult: 2
    decay_mult: 0
  }
  convolution_param {
    num_output: 512
    pad: 1
    kernel_size: 3
    weight_filler {
      type: "gaussian"
      std: 0.01
    }
    bias_filler {
      type: "constant"
      value: 0
    }
  }
}
layer {
  name: "relu5_3"
  type: "ReLU"
  bottom: "conv5_3"
  top: "conv5_3"
}
layer {
  name: "pool5"
  type: "Pooling"
  bottom: "conv5_3"
  top: "pool5"
  pooling_param {
    pool: MAX
    kernel_size: 2
    stride: 2
  }
}
layer {
  name: "fc6"
  type: "InnerProduct"
  bottom: "pool5"
  top: "fc6"
  param {
    lr_mult: 1
    decay_mult: 1
  }
  param {
    lr_mult: 2
    decay_mult: 0
  }
  inner_product_param {
    num_output: 4096
    weight_filler {
      type: "gaussian"
      std: 0.005
    }
    bias_filler {
      type: "constant"
      value: 0.1
    }
  }
}
layer {
  name: "relu6"
  type: "ReLU"
  bottom: "fc6"
  top: "fc6"
}
layer {
  name: "drop6"
  type: "Dropout"
  bottom: "fc6"
  top: "fc6"
  dropout_param {
    dropout_ratio: 0.5
  }
}
layer {
  name: "fc7"
  type: "InnerProduct"
  bottom: "fc6"
  top: "fc7"
  param {
    lr_mult: 1
    decay_mult: 1
  }
  param {
    lr_mult: 2
    decay_mult: 0
  }
  inner_product_param {
    num_output: 4096
    weight_filler {
      type: "gaussian"
      std: 0.005
    }
    bias_filler {
      type: "constant"
      value: 0.1
    }
  }
}
layer {
  name: "relu7"
  type: "ReLU"
  bottom: "fc7"
  top: "fc7"
}
layer {
  name: "drop7"
  type: "Dropout"
  bottom: "fc7"
  top: "fc7"
  dropout_param {
    dropout_ratio: 0.5
  }
}
layer {
  name: "fc8_binary_Type_f24"
  type: "InnerProduct"
  bottom: "fc7"
  top: "fc8_binary_Type_f24"
  param {
    lr_mult: 0
    decay_mult: 0
  }
  param {
    lr_mult: 0
    decay_mult: 0
  }
  inner_product_param {
    num_output: 24
    weight_filler {
      type: "gaussian"
      std: 0.005
    }
    bias_filler {
      type: "constant"
      value: 0.1
    }
  }
}
layer {
  name: "fc8_classification_Type"
  type: "InnerProduct"
  bottom: "fc7"
  top: "fc8_classification_Type"
  param {
    lr_mult: 0
    decay_mult: 0
  }
  param {
    lr_mult: 0
    decay_mult: 0
  }
  inner_product_param {
    num_output: 25
    weight_filler {
      type: "gaussian"
      std: 0.05
    }
    bias_filler {
      type: "constant"
      value: 0.1
    }
  }
}
layer {
  name: "fc_binary_Pattern_f24"
  type: "InnerProduct"
  bottom: "fc7"
  top: "fc_binary_Pattern_f24"
  param {
    lr_mult: 2
    decay_mult: 1
  }
  param {
    lr_mult: 4
    decay_mult: 0
  }
  inner_product_param {
    num_output: 24
    weight_filler {
      type: "gaussian"
      std: 0.005
    }
    bias_filler {
      type: "constant"
      value: 0.1
    }
  }
}
layer {
  name: "fc_classification_Pattern"
  type: "InnerProduct"
  bottom: "fc7"
  top: "fc_classification_Pattern"
  param {
    lr_mult: 1
    decay_mult: 1
  }
  param {
    lr_mult: 2
    decay_mult: 0
  }
  inner_product_param {
    num_output: 7
    weight_filler {
      type: "gaussian"
      std: 0.05
    }
    bias_filler {
      type: "constant"
      value: 0.1
    }
  }
}
layer {
  name: "accuracy_at_1_Pattern"
  type: "Accuracy"
  bottom: "fc_classification_Pattern"
  bottom: "label"
  top: "accuracy_at_1_Pattern"
  include {
    phase: TEST
  }
  accuracy_param {
    top_k: 1
  }
}
layer {
  name: "loss_hashing_Type"
  type: "HashingLoss"
  bottom: "fc8_binary_Type_f24"
  bottom: "label"
  top: "loss_hashing_Type"
  loss_weight: 0
  hashing_loss_param {
    bi_margin: 48
    tradeoff: 0.01
  }
}
layer {
  name: "loss_classification_Type"
  type: "SoftmaxWithLoss"
  bottom: "fc8_classification_Type"
  bottom: "label"
  top: "loss_classification_Type"
  loss_weight: 0
}
layer {
  name: "loss_hashing_Pattern"
  type: "HashingLoss"
  bottom: "fc_binary_Pattern_f24"
  bottom: "label"
  top: "loss_hashing_Pattern"
  loss_weight: 0.1
  hashing_loss_param {
    bi_margin: 48
    tradeoff: 0.01
  }
}
layer {
  name: "loss_classification_Pattern"
  type: "SoftmaxWithLoss"
  bottom: "fc_classification_Pattern"
  bottom: "label"
  top: "loss_classification_Pattern"
}
I0919 12:31:54.810230  6549 layer_factory.hpp:77] Creating layer data
I0919 12:31:54.810380  6549 net.cpp:91] Creating Layer data
I0919 12:31:54.810410  6549 net.cpp:399] data -> data
I0919 12:31:54.810441  6549 net.cpp:399] data -> label
I0919 12:31:54.811738  6555 db_lmdb.cpp:38] Opened lmdb PATTERN/pattern_val_lmdb/
I0919 12:31:54.812139  6549 data_layer.cpp:41] output data size: 10,3,224,224
I0919 12:31:54.827834  6549 net.cpp:141] Setting up data
I0919 12:31:54.827908  6549 net.cpp:148] Top shape: 10 3 224 224 (1505280)
I0919 12:31:54.827927  6549 net.cpp:148] Top shape: 10 1 1 1 (10)
I0919 12:31:54.827942  6549 net.cpp:156] Memory required for data: 6021160
I0919 12:31:54.827962  6549 layer_factory.hpp:77] Creating layer label_data_1_split
I0919 12:31:54.827998  6549 net.cpp:91] Creating Layer label_data_1_split
I0919 12:31:54.828016  6549 net.cpp:425] label_data_1_split <- label
I0919 12:31:54.828043  6549 net.cpp:399] label_data_1_split -> label_data_1_split_0
I0919 12:31:54.828071  6549 net.cpp:399] label_data_1_split -> label_data_1_split_1
I0919 12:31:54.828092  6549 net.cpp:399] label_data_1_split -> label_data_1_split_2
I0919 12:31:54.828114  6549 net.cpp:399] label_data_1_split -> label_data_1_split_3
I0919 12:31:54.828132  6549 net.cpp:399] label_data_1_split -> label_data_1_split_4
I0919 12:31:54.828248  6549 net.cpp:141] Setting up label_data_1_split
I0919 12:31:54.828315  6549 net.cpp:148] Top shape: 10 1 1 1 (10)
I0919 12:31:54.828336  6549 net.cpp:148] Top shape: 10 1 1 1 (10)
I0919 12:31:54.828352  6549 net.cpp:148] Top shape: 10 1 1 1 (10)
I0919 12:31:54.828369  6549 net.cpp:148] Top shape: 10 1 1 1 (10)
I0919 12:31:54.828387  6549 net.cpp:148] Top shape: 10 1 1 1 (10)
I0919 12:31:54.828402  6549 net.cpp:156] Memory required for data: 6021360
I0919 12:31:54.828416  6549 layer_factory.hpp:77] Creating layer conv1_1
I0919 12:31:54.828450  6549 net.cpp:91] Creating Layer conv1_1
I0919 12:31:54.828469  6549 net.cpp:425] conv1_1 <- data
I0919 12:31:54.828490  6549 net.cpp:399] conv1_1 -> conv1_1
I0919 12:31:54.828927  6549 net.cpp:141] Setting up conv1_1
I0919 12:31:54.828955  6549 net.cpp:148] Top shape: 10 64 224 224 (32112640)
I0919 12:31:54.828971  6549 net.cpp:156] Memory required for data: 134471920
I0919 12:31:54.828999  6549 layer_factory.hpp:77] Creating layer relu1_1
I0919 12:31:54.829023  6549 net.cpp:91] Creating Layer relu1_1
I0919 12:31:54.829041  6549 net.cpp:425] relu1_1 <- conv1_1
I0919 12:31:54.829061  6549 net.cpp:386] relu1_1 -> conv1_1 (in-place)
I0919 12:31:54.829082  6549 net.cpp:141] Setting up relu1_1
I0919 12:31:54.829102  6549 net.cpp:148] Top shape: 10 64 224 224 (32112640)
I0919 12:31:54.829116  6549 net.cpp:156] Memory required for data: 262922480
I0919 12:31:54.829131  6549 layer_factory.hpp:77] Creating layer conv1_2
I0919 12:31:54.829159  6549 net.cpp:91] Creating Layer conv1_2
I0919 12:31:54.829177  6549 net.cpp:425] conv1_2 <- conv1_1
I0919 12:31:54.829201  6549 net.cpp:399] conv1_2 -> conv1_2
I0919 12:31:54.831876  6549 net.cpp:141] Setting up conv1_2
I0919 12:31:54.831909  6549 net.cpp:148] Top shape: 10 64 224 224 (32112640)
I0919 12:31:54.831926  6549 net.cpp:156] Memory required for data: 391373040
I0919 12:31:54.831950  6549 layer_factory.hpp:77] Creating layer relu1_2
I0919 12:31:54.831974  6549 net.cpp:91] Creating Layer relu1_2
I0919 12:31:54.831991  6549 net.cpp:425] relu1_2 <- conv1_2
I0919 12:31:54.832010  6549 net.cpp:386] relu1_2 -> conv1_2 (in-place)
I0919 12:31:54.832031  6549 net.cpp:141] Setting up relu1_2
I0919 12:31:54.832048  6549 net.cpp:148] Top shape: 10 64 224 224 (32112640)
I0919 12:31:54.832063  6549 net.cpp:156] Memory required for data: 519823600
I0919 12:31:54.832078  6549 layer_factory.hpp:77] Creating layer pool1
I0919 12:31:54.832099  6549 net.cpp:91] Creating Layer pool1
I0919 12:31:54.832114  6549 net.cpp:425] pool1 <- conv1_2
I0919 12:31:54.832135  6549 net.cpp:399] pool1 -> pool1
I0919 12:31:54.832200  6549 net.cpp:141] Setting up pool1
I0919 12:31:54.832222  6549 net.cpp:148] Top shape: 10 64 112 112 (8028160)
I0919 12:31:54.832238  6549 net.cpp:156] Memory required for data: 551936240
I0919 12:31:54.832253  6549 layer_factory.hpp:77] Creating layer conv2_1
I0919 12:31:54.832281  6549 net.cpp:91] Creating Layer conv2_1
I0919 12:31:54.832299  6549 net.cpp:425] conv2_1 <- pool1
I0919 12:31:54.832319  6549 net.cpp:399] conv2_1 -> conv2_1
I0919 12:31:54.835407  6549 net.cpp:141] Setting up conv2_1
I0919 12:31:54.835446  6549 net.cpp:148] Top shape: 10 128 112 112 (16056320)
I0919 12:31:54.835474  6549 net.cpp:156] Memory required for data: 616161520
I0919 12:31:54.835505  6549 layer_factory.hpp:77] Creating layer relu2_1
I0919 12:31:54.835532  6549 net.cpp:91] Creating Layer relu2_1
I0919 12:31:54.835549  6549 net.cpp:425] relu2_1 <- conv2_1
I0919 12:31:54.835571  6549 net.cpp:386] relu2_1 -> conv2_1 (in-place)
I0919 12:31:54.835592  6549 net.cpp:141] Setting up relu2_1
I0919 12:31:54.835610  6549 net.cpp:148] Top shape: 10 128 112 112 (16056320)
I0919 12:31:54.835626  6549 net.cpp:156] Memory required for data: 680386800
I0919 12:31:54.835641  6549 layer_factory.hpp:77] Creating layer conv2_2
I0919 12:31:54.835664  6549 net.cpp:91] Creating Layer conv2_2
I0919 12:31:54.835680  6549 net.cpp:425] conv2_2 <- conv2_1
I0919 12:31:54.835703  6549 net.cpp:399] conv2_2 -> conv2_2
I0919 12:31:54.842149  6549 net.cpp:141] Setting up conv2_2
I0919 12:31:54.842181  6549 net.cpp:148] Top shape: 10 128 112 112 (16056320)
I0919 12:31:54.842224  6549 net.cpp:156] Memory required for data: 744612080
I0919 12:31:54.842247  6549 layer_factory.hpp:77] Creating layer relu2_2
I0919 12:31:54.842270  6549 net.cpp:91] Creating Layer relu2_2
I0919 12:31:54.842288  6549 net.cpp:425] relu2_2 <- conv2_2
I0919 12:31:54.842306  6549 net.cpp:386] relu2_2 -> conv2_2 (in-place)
I0919 12:31:54.842326  6549 net.cpp:141] Setting up relu2_2
I0919 12:31:54.842345  6549 net.cpp:148] Top shape: 10 128 112 112 (16056320)
I0919 12:31:54.842360  6549 net.cpp:156] Memory required for data: 808837360
I0919 12:31:54.842376  6549 layer_factory.hpp:77] Creating layer pool2
I0919 12:31:54.842394  6549 net.cpp:91] Creating Layer pool2
I0919 12:31:54.842414  6549 net.cpp:425] pool2 <- conv2_2
I0919 12:31:54.842432  6549 net.cpp:399] pool2 -> pool2
I0919 12:31:54.842494  6549 net.cpp:141] Setting up pool2
I0919 12:31:54.842519  6549 net.cpp:148] Top shape: 10 128 56 56 (4014080)
I0919 12:31:54.842536  6549 net.cpp:156] Memory required for data: 824893680
I0919 12:31:54.842551  6549 layer_factory.hpp:77] Creating layer conv3_1
I0919 12:31:54.842573  6549 net.cpp:91] Creating Layer conv3_1
I0919 12:31:54.842591  6549 net.cpp:425] conv3_1 <- pool2
I0919 12:31:54.842613  6549 net.cpp:399] conv3_1 -> conv3_1
I0919 12:31:54.854626  6549 net.cpp:141] Setting up conv3_1
I0919 12:31:54.854657  6549 net.cpp:148] Top shape: 10 256 56 56 (8028160)
I0919 12:31:54.854674  6549 net.cpp:156] Memory required for data: 857006320
I0919 12:31:54.854702  6549 layer_factory.hpp:77] Creating layer relu3_1
I0919 12:31:54.854723  6549 net.cpp:91] Creating Layer relu3_1
I0919 12:31:54.854739  6549 net.cpp:425] relu3_1 <- conv3_1
I0919 12:31:54.854758  6549 net.cpp:386] relu3_1 -> conv3_1 (in-place)
I0919 12:31:54.854782  6549 net.cpp:141] Setting up relu3_1
I0919 12:31:54.854800  6549 net.cpp:148] Top shape: 10 256 56 56 (8028160)
I0919 12:31:54.854815  6549 net.cpp:156] Memory required for data: 889118960
I0919 12:31:54.854830  6549 layer_factory.hpp:77] Creating layer conv3_2
I0919 12:31:54.854852  6549 net.cpp:91] Creating Layer conv3_2
I0919 12:31:54.854868  6549 net.cpp:425] conv3_2 <- conv3_1
I0919 12:31:54.854890  6549 net.cpp:399] conv3_2 -> conv3_2
I0919 12:31:54.878310  6549 net.cpp:141] Setting up conv3_2
I0919 12:31:54.878341  6549 net.cpp:148] Top shape: 10 256 56 56 (8028160)
I0919 12:31:54.878358  6549 net.cpp:156] Memory required for data: 921231600
I0919 12:31:54.878378  6549 layer_factory.hpp:77] Creating layer relu3_2
I0919 12:31:54.878398  6549 net.cpp:91] Creating Layer relu3_2
I0919 12:31:54.878415  6549 net.cpp:425] relu3_2 <- conv3_2
I0919 12:31:54.878437  6549 net.cpp:386] relu3_2 -> conv3_2 (in-place)
I0919 12:31:54.878458  6549 net.cpp:141] Setting up relu3_2
I0919 12:31:54.878475  6549 net.cpp:148] Top shape: 10 256 56 56 (8028160)
I0919 12:31:54.878490  6549 net.cpp:156] Memory required for data: 953344240
I0919 12:31:54.878506  6549 layer_factory.hpp:77] Creating layer conv3_3
I0919 12:31:54.878533  6549 net.cpp:91] Creating Layer conv3_3
I0919 12:31:54.878551  6549 net.cpp:425] conv3_3 <- conv3_2
I0919 12:31:54.878571  6549 net.cpp:399] conv3_3 -> conv3_3
I0919 12:31:54.901980  6549 net.cpp:141] Setting up conv3_3
I0919 12:31:54.902011  6549 net.cpp:148] Top shape: 10 256 56 56 (8028160)
I0919 12:31:54.902029  6549 net.cpp:156] Memory required for data: 985456880
I0919 12:31:54.902048  6549 layer_factory.hpp:77] Creating layer relu3_3
I0919 12:31:54.902068  6549 net.cpp:91] Creating Layer relu3_3
I0919 12:31:54.902086  6549 net.cpp:425] relu3_3 <- conv3_3
I0919 12:31:54.902103  6549 net.cpp:386] relu3_3 -> conv3_3 (in-place)
I0919 12:31:54.902123  6549 net.cpp:141] Setting up relu3_3
I0919 12:31:54.902142  6549 net.cpp:148] Top shape: 10 256 56 56 (8028160)
I0919 12:31:54.902158  6549 net.cpp:156] Memory required for data: 1017569520
I0919 12:31:54.902173  6549 layer_factory.hpp:77] Creating layer pool3
I0919 12:31:54.902195  6549 net.cpp:91] Creating Layer pool3
I0919 12:31:54.902212  6549 net.cpp:425] pool3 <- conv3_3
I0919 12:31:54.902251  6549 net.cpp:399] pool3 -> pool3
I0919 12:31:54.902318  6549 net.cpp:141] Setting up pool3
I0919 12:31:54.902344  6549 net.cpp:148] Top shape: 10 256 28 28 (2007040)
I0919 12:31:54.902360  6549 net.cpp:156] Memory required for data: 1025597680
I0919 12:31:54.902375  6549 layer_factory.hpp:77] Creating layer conv4_1
I0919 12:31:54.902400  6549 net.cpp:91] Creating Layer conv4_1
I0919 12:31:54.902418  6549 net.cpp:425] conv4_1 <- pool3
I0919 12:31:54.902441  6549 net.cpp:399] conv4_1 -> conv4_1
I0919 12:31:54.948983  6549 net.cpp:141] Setting up conv4_1
I0919 12:31:54.949050  6549 net.cpp:148] Top shape: 10 512 28 28 (4014080)
I0919 12:31:54.949066  6549 net.cpp:156] Memory required for data: 1041654000
I0919 12:31:54.949093  6549 layer_factory.hpp:77] Creating layer relu4_1
I0919 12:31:54.949120  6549 net.cpp:91] Creating Layer relu4_1
I0919 12:31:54.949138  6549 net.cpp:425] relu4_1 <- conv4_1
I0919 12:31:54.949159  6549 net.cpp:386] relu4_1 -> conv4_1 (in-place)
I0919 12:31:54.949185  6549 net.cpp:141] Setting up relu4_1
I0919 12:31:54.949204  6549 net.cpp:148] Top shape: 10 512 28 28 (4014080)
I0919 12:31:54.949220  6549 net.cpp:156] Memory required for data: 1057710320
I0919 12:31:54.949235  6549 layer_factory.hpp:77] Creating layer conv4_2
I0919 12:31:54.949266  6549 net.cpp:91] Creating Layer conv4_2
I0919 12:31:54.949285  6549 net.cpp:425] conv4_2 <- conv4_1
I0919 12:31:54.949304  6549 net.cpp:399] conv4_2 -> conv4_2
I0919 12:31:55.042019  6549 net.cpp:141] Setting up conv4_2
I0919 12:31:55.042069  6549 net.cpp:148] Top shape: 10 512 28 28 (4014080)
I0919 12:31:55.042091  6549 net.cpp:156] Memory required for data: 1073766640
I0919 12:31:55.042120  6549 layer_factory.hpp:77] Creating layer relu4_2
I0919 12:31:55.042142  6549 net.cpp:91] Creating Layer relu4_2
I0919 12:31:55.042160  6549 net.cpp:425] relu4_2 <- conv4_2
I0919 12:31:55.042178  6549 net.cpp:386] relu4_2 -> conv4_2 (in-place)
I0919 12:31:55.042201  6549 net.cpp:141] Setting up relu4_2
I0919 12:31:55.042219  6549 net.cpp:148] Top shape: 10 512 28 28 (4014080)
I0919 12:31:55.042234  6549 net.cpp:156] Memory required for data: 1089822960
I0919 12:31:55.042249  6549 layer_factory.hpp:77] Creating layer conv4_3
I0919 12:31:55.042274  6549 net.cpp:91] Creating Layer conv4_3
I0919 12:31:55.042294  6549 net.cpp:425] conv4_3 <- conv4_2
I0919 12:31:55.042315  6549 net.cpp:399] conv4_3 -> conv4_3
I0919 12:31:55.135162  6549 net.cpp:141] Setting up conv4_3
I0919 12:31:55.135227  6549 net.cpp:148] Top shape: 10 512 28 28 (4014080)
I0919 12:31:55.135244  6549 net.cpp:156] Memory required for data: 1105879280
I0919 12:31:55.135272  6549 layer_factory.hpp:77] Creating layer relu4_3
I0919 12:31:55.135300  6549 net.cpp:91] Creating Layer relu4_3
I0919 12:31:55.135320  6549 net.cpp:425] relu4_3 <- conv4_3
I0919 12:31:55.135341  6549 net.cpp:386] relu4_3 -> conv4_3 (in-place)
I0919 12:31:55.135367  6549 net.cpp:141] Setting up relu4_3
I0919 12:31:55.135396  6549 net.cpp:148] Top shape: 10 512 28 28 (4014080)
I0919 12:31:55.135421  6549 net.cpp:156] Memory required for data: 1121935600
I0919 12:31:55.135448  6549 layer_factory.hpp:77] Creating layer pool4
I0919 12:31:55.135476  6549 net.cpp:91] Creating Layer pool4
I0919 12:31:55.135494  6549 net.cpp:425] pool4 <- conv4_3
I0919 12:31:55.135517  6549 net.cpp:399] pool4 -> pool4
I0919 12:31:55.135586  6549 net.cpp:141] Setting up pool4
I0919 12:31:55.135608  6549 net.cpp:148] Top shape: 10 512 14 14 (1003520)
I0919 12:31:55.135624  6549 net.cpp:156] Memory required for data: 1125949680
I0919 12:31:55.135640  6549 layer_factory.hpp:77] Creating layer conv5_1
I0919 12:31:55.135674  6549 net.cpp:91] Creating Layer conv5_1
I0919 12:31:55.135692  6549 net.cpp:425] conv5_1 <- pool4
I0919 12:31:55.135712  6549 net.cpp:399] conv5_1 -> conv5_1
I0919 12:31:55.228590  6549 net.cpp:141] Setting up conv5_1
I0919 12:31:55.228632  6549 net.cpp:148] Top shape: 10 512 14 14 (1003520)
I0919 12:31:55.228653  6549 net.cpp:156] Memory required for data: 1129963760
I0919 12:31:55.228677  6549 layer_factory.hpp:77] Creating layer relu5_1
I0919 12:31:55.228740  6549 net.cpp:91] Creating Layer relu5_1
I0919 12:31:55.228760  6549 net.cpp:425] relu5_1 <- conv5_1
I0919 12:31:55.228778  6549 net.cpp:386] relu5_1 -> conv5_1 (in-place)
I0919 12:31:55.228801  6549 net.cpp:141] Setting up relu5_1
I0919 12:31:55.228819  6549 net.cpp:148] Top shape: 10 512 14 14 (1003520)
I0919 12:31:55.228834  6549 net.cpp:156] Memory required for data: 1133977840
I0919 12:31:55.228849  6549 layer_factory.hpp:77] Creating layer conv5_2
I0919 12:31:55.228875  6549 net.cpp:91] Creating Layer conv5_2
I0919 12:31:55.228893  6549 net.cpp:425] conv5_2 <- conv5_1
I0919 12:31:55.228919  6549 net.cpp:399] conv5_2 -> conv5_2
I0919 12:31:55.321920  6549 net.cpp:141] Setting up conv5_2
I0919 12:31:55.321995  6549 net.cpp:148] Top shape: 10 512 14 14 (1003520)
I0919 12:31:55.322011  6549 net.cpp:156] Memory required for data: 1137991920
I0919 12:31:55.322033  6549 layer_factory.hpp:77] Creating layer relu5_2
I0919 12:31:55.322063  6549 net.cpp:91] Creating Layer relu5_2
I0919 12:31:55.322083  6549 net.cpp:425] relu5_2 <- conv5_2
I0919 12:31:55.322104  6549 net.cpp:386] relu5_2 -> conv5_2 (in-place)
I0919 12:31:55.322130  6549 net.cpp:141] Setting up relu5_2
I0919 12:31:55.322149  6549 net.cpp:148] Top shape: 10 512 14 14 (1003520)
I0919 12:31:55.322165  6549 net.cpp:156] Memory required for data: 1142006000
I0919 12:31:55.322180  6549 layer_factory.hpp:77] Creating layer conv5_3
I0919 12:31:55.322208  6549 net.cpp:91] Creating Layer conv5_3
I0919 12:31:55.322226  6549 net.cpp:425] conv5_3 <- conv5_2
I0919 12:31:55.322245  6549 net.cpp:399] conv5_3 -> conv5_3
I0919 12:31:55.415004  6549 net.cpp:141] Setting up conv5_3
I0919 12:31:55.415072  6549 net.cpp:148] Top shape: 10 512 14 14 (1003520)
I0919 12:31:55.415089  6549 net.cpp:156] Memory required for data: 1146020080
I0919 12:31:55.415113  6549 layer_factory.hpp:77] Creating layer relu5_3
I0919 12:31:55.415143  6549 net.cpp:91] Creating Layer relu5_3
I0919 12:31:55.415163  6549 net.cpp:425] relu5_3 <- conv5_3
I0919 12:31:55.415184  6549 net.cpp:386] relu5_3 -> conv5_3 (in-place)
I0919 12:31:55.415210  6549 net.cpp:141] Setting up relu5_3
I0919 12:31:55.415228  6549 net.cpp:148] Top shape: 10 512 14 14 (1003520)
I0919 12:31:55.415243  6549 net.cpp:156] Memory required for data: 1150034160
I0919 12:31:55.415259  6549 layer_factory.hpp:77] Creating layer pool5
I0919 12:31:55.415289  6549 net.cpp:91] Creating Layer pool5
I0919 12:31:55.415307  6549 net.cpp:425] pool5 <- conv5_3
I0919 12:31:55.415326  6549 net.cpp:399] pool5 -> pool5
I0919 12:31:55.415402  6549 net.cpp:141] Setting up pool5
I0919 12:31:55.415426  6549 net.cpp:148] Top shape: 10 512 7 7 (250880)
I0919 12:31:55.415441  6549 net.cpp:156] Memory required for data: 1151037680
I0919 12:31:55.415457  6549 layer_factory.hpp:77] Creating layer fc6
I0919 12:31:55.415482  6549 net.cpp:91] Creating Layer fc6
I0919 12:31:55.415499  6549 net.cpp:425] fc6 <- pool5
I0919 12:31:55.415518  6549 net.cpp:399] fc6 -> fc6
I0919 12:31:59.348016  6549 net.cpp:141] Setting up fc6
I0919 12:31:59.348109  6549 net.cpp:148] Top shape: 10 4096 (40960)
I0919 12:31:59.348127  6549 net.cpp:156] Memory required for data: 1151201520
I0919 12:31:59.348165  6549 layer_factory.hpp:77] Creating layer relu6
I0919 12:31:59.348201  6549 net.cpp:91] Creating Layer relu6
I0919 12:31:59.348225  6549 net.cpp:425] relu6 <- fc6
I0919 12:31:59.348246  6549 net.cpp:386] relu6 -> fc6 (in-place)
I0919 12:31:59.348273  6549 net.cpp:141] Setting up relu6
I0919 12:31:59.348291  6549 net.cpp:148] Top shape: 10 4096 (40960)
I0919 12:31:59.348307  6549 net.cpp:156] Memory required for data: 1151365360
I0919 12:31:59.348322  6549 layer_factory.hpp:77] Creating layer drop6
I0919 12:31:59.348350  6549 net.cpp:91] Creating Layer drop6
I0919 12:31:59.348366  6549 net.cpp:425] drop6 <- fc6
I0919 12:31:59.348383  6549 net.cpp:386] drop6 -> fc6 (in-place)
I0919 12:31:59.348443  6549 net.cpp:141] Setting up drop6
I0919 12:31:59.348466  6549 net.cpp:148] Top shape: 10 4096 (40960)
I0919 12:31:59.348482  6549 net.cpp:156] Memory required for data: 1151529200
I0919 12:31:59.348557  6549 layer_factory.hpp:77] Creating layer fc7
I0919 12:31:59.348584  6549 net.cpp:91] Creating Layer fc7
I0919 12:31:59.348601  6549 net.cpp:425] fc7 <- fc6
I0919 12:31:59.348625  6549 net.cpp:399] fc7 -> fc7
I0919 12:31:59.995597  6549 net.cpp:141] Setting up fc7
I0919 12:31:59.995663  6549 net.cpp:148] Top shape: 10 4096 (40960)
I0919 12:31:59.995681  6549 net.cpp:156] Memory required for data: 1151693040
I0919 12:31:59.995703  6549 layer_factory.hpp:77] Creating layer relu7
I0919 12:31:59.995734  6549 net.cpp:91] Creating Layer relu7
I0919 12:31:59.995753  6549 net.cpp:425] relu7 <- fc7
I0919 12:31:59.995776  6549 net.cpp:386] relu7 -> fc7 (in-place)
I0919 12:31:59.995803  6549 net.cpp:141] Setting up relu7
I0919 12:31:59.995821  6549 net.cpp:148] Top shape: 10 4096 (40960)
I0919 12:31:59.995837  6549 net.cpp:156] Memory required for data: 1151856880
I0919 12:31:59.995853  6549 layer_factory.hpp:77] Creating layer drop7
I0919 12:31:59.995875  6549 net.cpp:91] Creating Layer drop7
I0919 12:31:59.995892  6549 net.cpp:425] drop7 <- fc7
I0919 12:31:59.995908  6549 net.cpp:386] drop7 -> fc7 (in-place)
I0919 12:31:59.995960  6549 net.cpp:141] Setting up drop7
I0919 12:31:59.995983  6549 net.cpp:148] Top shape: 10 4096 (40960)
I0919 12:31:59.995999  6549 net.cpp:156] Memory required for data: 1152020720
I0919 12:31:59.996014  6549 layer_factory.hpp:77] Creating layer fc7_drop7_0_split
I0919 12:31:59.996034  6549 net.cpp:91] Creating Layer fc7_drop7_0_split
I0919 12:31:59.996053  6549 net.cpp:425] fc7_drop7_0_split <- fc7
I0919 12:31:59.996073  6549 net.cpp:399] fc7_drop7_0_split -> fc7_drop7_0_split_0
I0919 12:31:59.996093  6549 net.cpp:399] fc7_drop7_0_split -> fc7_drop7_0_split_1
I0919 12:31:59.996114  6549 net.cpp:399] fc7_drop7_0_split -> fc7_drop7_0_split_2
I0919 12:31:59.996134  6549 net.cpp:399] fc7_drop7_0_split -> fc7_drop7_0_split_3
I0919 12:31:59.996219  6549 net.cpp:141] Setting up fc7_drop7_0_split
I0919 12:31:59.996243  6549 net.cpp:148] Top shape: 10 4096 (40960)
I0919 12:31:59.996260  6549 net.cpp:148] Top shape: 10 4096 (40960)
I0919 12:31:59.996278  6549 net.cpp:148] Top shape: 10 4096 (40960)
I0919 12:31:59.996294  6549 net.cpp:148] Top shape: 10 4096 (40960)
I0919 12:31:59.996309  6549 net.cpp:156] Memory required for data: 1152676080
I0919 12:31:59.996325  6549 layer_factory.hpp:77] Creating layer fc8_binary_Type_f24
I0919 12:31:59.996348  6549 net.cpp:91] Creating Layer fc8_binary_Type_f24
I0919 12:31:59.996364  6549 net.cpp:425] fc8_binary_Type_f24 <- fc7_drop7_0_split_0
I0919 12:31:59.996387  6549 net.cpp:399] fc8_binary_Type_f24 -> fc8_binary_Type_f24
I0919 12:32:00.000274  6549 net.cpp:141] Setting up fc8_binary_Type_f24
I0919 12:32:00.000303  6549 net.cpp:148] Top shape: 10 24 (240)
I0919 12:32:00.000319  6549 net.cpp:156] Memory required for data: 1152677040
I0919 12:32:00.000339  6549 layer_factory.hpp:77] Creating layer fc8_classification_Type
I0919 12:32:00.000362  6549 net.cpp:91] Creating Layer fc8_classification_Type
I0919 12:32:00.000380  6549 net.cpp:425] fc8_classification_Type <- fc7_drop7_0_split_1
I0919 12:32:00.000399  6549 net.cpp:399] fc8_classification_Type -> fc8_classification_Type
I0919 12:32:00.005115  6549 net.cpp:141] Setting up fc8_classification_Type
I0919 12:32:00.005148  6549 net.cpp:148] Top shape: 10 25 (250)
I0919 12:32:00.005167  6549 net.cpp:156] Memory required for data: 1152678040
I0919 12:32:00.005203  6549 layer_factory.hpp:77] Creating layer fc_binary_Pattern_f24
I0919 12:32:00.005228  6549 net.cpp:91] Creating Layer fc_binary_Pattern_f24
I0919 12:32:00.005244  6549 net.cpp:425] fc_binary_Pattern_f24 <- fc7_drop7_0_split_2
I0919 12:32:00.005267  6549 net.cpp:399] fc_binary_Pattern_f24 -> fc_binary_Pattern_f24
I0919 12:32:00.009068  6549 net.cpp:141] Setting up fc_binary_Pattern_f24
I0919 12:32:00.009094  6549 net.cpp:148] Top shape: 10 24 (240)
I0919 12:32:00.009111  6549 net.cpp:156] Memory required for data: 1152679000
I0919 12:32:00.009130  6549 layer_factory.hpp:77] Creating layer fc_classification_Pattern
I0919 12:32:00.009193  6549 net.cpp:91] Creating Layer fc_classification_Pattern
I0919 12:32:00.009212  6549 net.cpp:425] fc_classification_Pattern <- fc7_drop7_0_split_3
I0919 12:32:00.009235  6549 net.cpp:399] fc_classification_Pattern -> fc_classification_Pattern
I0919 12:32:00.010466  6549 net.cpp:141] Setting up fc_classification_Pattern
I0919 12:32:00.010493  6549 net.cpp:148] Top shape: 10 7 (70)
I0919 12:32:00.010509  6549 net.cpp:156] Memory required for data: 1152679280
I0919 12:32:00.010529  6549 layer_factory.hpp:77] Creating layer fc_classification_Pattern_fc_classification_Pattern_0_split
I0919 12:32:00.010548  6549 net.cpp:91] Creating Layer fc_classification_Pattern_fc_classification_Pattern_0_split
I0919 12:32:00.010565  6549 net.cpp:425] fc_classification_Pattern_fc_classification_Pattern_0_split <- fc_classification_Pattern
I0919 12:32:00.010583  6549 net.cpp:399] fc_classification_Pattern_fc_classification_Pattern_0_split -> fc_classification_Pattern_fc_classification_Pattern_0_split_0
I0919 12:32:00.010604  6549 net.cpp:399] fc_classification_Pattern_fc_classification_Pattern_0_split -> fc_classification_Pattern_fc_classification_Pattern_0_split_1
I0919 12:32:00.010665  6549 net.cpp:141] Setting up fc_classification_Pattern_fc_classification_Pattern_0_split
I0919 12:32:00.010689  6549 net.cpp:148] Top shape: 10 7 (70)
I0919 12:32:00.010706  6549 net.cpp:148] Top shape: 10 7 (70)
I0919 12:32:00.010721  6549 net.cpp:156] Memory required for data: 1152679840
I0919 12:32:00.010738  6549 layer_factory.hpp:77] Creating layer accuracy_at_1_Pattern
I0919 12:32:00.010767  6549 net.cpp:91] Creating Layer accuracy_at_1_Pattern
I0919 12:32:00.010785  6549 net.cpp:425] accuracy_at_1_Pattern <- fc_classification_Pattern_fc_classification_Pattern_0_split_0
I0919 12:32:00.010802  6549 net.cpp:425] accuracy_at_1_Pattern <- label_data_1_split_0
…
