…
I0918 10:36:03.301323 27712 net.cpp:313] The NetState phase (0) differed from the phase (1) specified by a rule in layer accuracy_at_1_Type
I0918 10:36:03.302189 27712 net.cpp:49] Initializing net from parameters: 
name: "docomo_VGG16"
state {
  phase: TRAIN
}
layer {
  name: "data"
  type: "Data"
  top: "data"
  top: "label"
  include {
    phase: TRAIN
  }
  transform_param {
    mirror: true
    crop_size: 224
    mean_value: 103.939
    mean_value: 116.779
    mean_value: 123.68
  }
  data_param {
    source: "FASHION/fashion_train_lmdb/"
    batch_size: 10
    backend: LMDB
  }
}
layer {
  name: "conv1_1"
  type: "Convolution"
  bottom: "data"
  top: "conv1_1"
  param {
    lr_mult: 1
    decay_mult: 1
  }
  param {
    lr_mult: 2
    decay_mult: 0
  }
  convolution_param {
    num_output: 64
    pad: 1
    kernel_size: 3
    weight_filler {
      type: "gaussian"
      std: 0.01
    }
    bias_filler {
      type: "constant"
      value: 0
    }
  }
}
layer {
  name: "relu1_1"
  type: "ReLU"
  bottom: "conv1_1"
  top: "conv1_1"
}
layer {
  name: "conv1_2"
  type: "Convolution"
  bottom: "conv1_1"
  top: "conv1_2"
  param {
    lr_mult: 1
    decay_mult: 1
  }
  param {
    lr_mult: 2
    decay_mult: 0
  }
  convolution_param {
    num_output: 64
    pad: 1
    kernel_size: 3
    weight_filler {
      type: "gaussian"
      std: 0.01
    }
    bias_filler {
      type: "constant"
      value: 0
    }
  }
}
layer {
  name: "relu1_2"
  type: "ReLU"
  bottom: "conv1_2"
  top: "conv1_2"
}
layer {
  name: "pool1"
  type: "Pooling"
  bottom: "conv1_2"
  top: "pool1"
  pooling_param {
    pool: MAX
    kernel_size: 2
    stride: 2
  }
}
layer {
  name: "conv2_1"
  type: "Convolution"
  bottom: "pool1"
  top: "conv2_1"
  param {
    lr_mult: 1
    decay_mult: 1
  }
  param {
    lr_mult: 2
    decay_mult: 0
  }
  convolution_param {
    num_output: 128
    pad: 1
    kernel_size: 3
    weight_filler {
      type: "gaussian"
      std: 0.01
    }
    bias_filler {
      type: "constant"
      value: 0
    }
  }
}
layer {
  name: "relu2_1"
  type: "ReLU"
  bottom: "conv2_1"
  top: "conv2_1"
}
layer {
  name: "conv2_2"
  type: "Convolution"
  bottom: "conv2_1"
  top: "conv2_2"
  param {
    lr_mult: 1
    decay_mult: 1
  }
  param {
    lr_mult: 2
    decay_mult: 0
  }
  convolution_param {
    num_output: 128
    pad: 1
    kernel_size: 3
    weight_filler {
      type: "gaussian"
      std: 0.01
    }
    bias_filler {
      type: "constant"
      value: 0
    }
  }
}
layer {
  name: "relu2_2"
  type: "ReLU"
  bottom: "conv2_2"
  top: "conv2_2"
}
layer {
  name: "pool2"
  type: "Pooling"
  bottom: "conv2_2"
  top: "pool2"
  pooling_param {
    pool: MAX
    kernel_size: 2
    stride: 2
  }
}
layer {
  name: "conv3_1"
  type: "Convolution"
  bottom: "pool2"
  top: "conv3_1"
  param {
    lr_mult: 1
    decay_mult: 1
  }
  param {
    lr_mult: 2
    decay_mult: 0
  }
  convolution_param {
    num_output: 256
    pad: 1
    kernel_size: 3
    weight_filler {
      type: "gaussian"
      std: 0.01
    }
    bias_filler {
      type: "constant"
      value: 0
    }
  }
}
layer {
  name: "relu3_1"
  type: "ReLU"
  bottom: "conv3_1"
  top: "conv3_1"
}
layer {
  name: "conv3_2"
  type: "Convolution"
  bottom: "conv3_1"
  top: "conv3_2"
  param {
    lr_mult: 1
    decay_mult: 1
  }
  param {
    lr_mult: 2
    decay_mult: 0
  }
  convolution_param {
    num_output: 256
    pad: 1
    kernel_size: 3
    weight_filler {
      type: "gaussian"
      std: 0.01
    }
    bias_filler {
      type: "constant"
      value: 0
    }
  }
}
layer {
  name: "relu3_2"
  type: "ReLU"
  bottom: "conv3_2"
  top: "conv3_2"
}
layer {
  name: "conv3_3"
  type: "Convolution"
  bottom: "conv3_2"
  top: "conv3_3"
  param {
    lr_mult: 1
    decay_mult: 1
  }
  param {
    lr_mult: 2
    decay_mult: 0
  }
  convolution_param {
    num_output: 256
    pad: 1
    kernel_size: 3
    weight_filler {
      type: "gaussian"
      std: 0.01
    }
    bias_filler {
      type: "constant"
      value: 0
    }
  }
}
layer {
  name: "relu3_3"
  type: "ReLU"
  bottom: "conv3_3"
  top: "conv3_3"
}
layer {
  name: "pool3"
  type: "Pooling"
  bottom: "conv3_3"
  top: "pool3"
  pooling_param {
    pool: MAX
    kernel_size: 2
    stride: 2
  }
}
layer {
  name: "conv4_1"
  type: "Convolution"
  bottom: "pool3"
  top: "conv4_1"
  param {
    lr_mult: 1
    decay_mult: 1
  }
  param {
    lr_mult: 2
    decay_mult: 0
  }
  convolution_param {
    num_output: 512
    pad: 1
    kernel_size: 3
    weight_filler {
      type: "gaussian"
      std: 0.01
    }
    bias_filler {
      type: "constant"
      value: 0
    }
  }
}
layer {
  name: "relu4_1"
  type: "ReLU"
  bottom: "conv4_1"
  top: "conv4_1"
}
layer {
  name: "conv4_2"
  type: "Convolution"
  bottom: "conv4_1"
  top: "conv4_2"
  param {
    lr_mult: 1
    decay_mult: 1
  }
  param {
    lr_mult: 2
    decay_mult: 0
  }
  convolution_param {
    num_output: 512
    pad: 1
    kernel_size: 3
    weight_filler {
      type: "gaussian"
      std: 0.01
    }
    bias_filler {
      type: "constant"
      value: 0
    }
  }
}
layer {
  name: "relu4_2"
  type: "ReLU"
  bottom: "conv4_2"
  top: "conv4_2"
}
layer {
  name: "conv4_3"
  type: "Convolution"
  bottom: "conv4_2"
  top: "conv4_3"
  param {
    lr_mult: 1
    decay_mult: 1
  }
  param {
    lr_mult: 2
    decay_mult: 0
  }
  convolution_param {
    num_output: 512
    pad: 1
    kernel_size: 3
    weight_filler {
      type: "gaussian"
      std: 0.01
    }
    bias_filler {
      type: "constant"
      value: 0
    }
  }
}
layer {
  name: "relu4_3"
  type: "ReLU"
  bottom: "conv4_3"
  top: "conv4_3"
}
layer {
  name: "pool4"
  type: "Pooling"
  bottom: "conv4_3"
  top: "pool4"
  pooling_param {
    pool: MAX
    kernel_size: 2
    stride: 2
  }
}
layer {
  name: "conv5_1"
  type: "Convolution"
  bottom: "pool4"
  top: "conv5_1"
  param {
    lr_mult: 1
    decay_mult: 1
  }
  param {
    lr_mult: 2
    decay_mult: 0
  }
  convolution_param {
    num_output: 512
    pad: 1
    kernel_size: 3
    weight_filler {
      type: "gaussian"
      std: 0.01
    }
    bias_filler {
      type: "constant"
      value: 0
    }
  }
}
layer {
  name: "relu5_1"
  type: "ReLU"
  bottom: "conv5_1"
  top: "conv5_1"
}
layer {
  name: "conv5_2"
  type: "Convolution"
  bottom: "conv5_1"
  top: "conv5_2"
  param {
    lr_mult: 1
    decay_mult: 1
  }
  param {
    lr_mult: 2
    decay_mult: 0
  }
  convolution_param {
    num_output: 512
    pad: 1
    kernel_size: 3
    weight_filler {
      type: "gaussian"
      std: 0.01
    }
    bias_filler {
      type: "constant"
      value: 0
    }
  }
}
layer {
  name: "relu5_2"
  type: "ReLU"
  bottom: "conv5_2"
  top: "conv5_2"
}
layer {
  name: "conv5_3"
  type: "Convolution"
  bottom: "conv5_2"
  top: "conv5_3"
  param {
    lr_mult: 1
    decay_mult: 1
  }
  param {
    lr_mult: 2
    decay_mult: 0
  }
  convolution_param {
    num_output: 512
    pad: 1
    kernel_size: 3
    weight_filler {
      type: "gaussian"
      std: 0.01
    }
    bias_filler {
      type: "constant"
      value: 0
    }
  }
}
layer {
  name: "relu5_3"
  type: "ReLU"
  bottom: "conv5_3"
  top: "conv5_3"
}
layer {
  name: "pool5"
  type: "Pooling"
  bottom: "conv5_3"
  top: "pool5"
  pooling_param {
    pool: MAX
    kernel_size: 2
    stride: 2
  }
}
layer {
  name: "fc6"
  type: "InnerProduct"
  bottom: "pool5"
  top: "fc6"
  param {
    lr_mult: 1
    decay_mult: 1
  }
  param {
    lr_mult: 2
    decay_mult: 0
  }
  inner_product_param {
    num_output: 4096
    weight_filler {
      type: "gaussian"
      std: 0.005
    }
    bias_filler {
      type: "constant"
      value: 0.1
    }
  }
}
layer {
  name: "relu6"
  type: "ReLU"
  bottom: "fc6"
  top: "fc6"
}
layer {
  name: "drop6"
  type: "Dropout"
  bottom: "fc6"
  top: "fc6"
  dropout_param {
    dropout_ratio: 0.5
  }
}
layer {
  name: "fc7"
  type: "InnerProduct"
  bottom: "fc6"
  top: "fc7"
  param {
    lr_mult: 1
    decay_mult: 1
  }
  param {
    lr_mult: 2
    decay_mult: 0
  }
  inner_product_param {
    num_output: 4096
    weight_filler {
      type: "gaussian"
      std: 0.005
    }
    bias_filler {
      type: "constant"
      value: 0.1
    }
  }
}
layer {
  name: "relu7"
  type: "ReLU"
  bottom: "fc7"
  top: "fc7"
}
layer {
  name: "drop7"
  type: "Dropout"
  bottom: "fc7"
  top: "fc7"
  dropout_param {
    dropout_ratio: 0.5
  }
}
layer {
  name: "fc8_binary_Type_f24"
  type: "InnerProduct"
  bottom: "fc7"
  top: "fc8_binary_Type_f24"
  param {
    lr_mult: 20
    decay_mult: 1
  }
  param {
    lr_mult: 40
    decay_mult: 0
  }
  inner_product_param {
    num_output: 24
    weight_filler {
      type: "gaussian"
      std: 0.005
    }
    bias_filler {
      type: "constant"
      value: 0.1
    }
  }
}
layer {
  name: "fc8_classification_Type"
  type: "InnerProduct"
  bottom: "fc7"
  top: "fc8_classification_Type"
  param {
    lr_mult: 1
    decay_mult: 1
  }
  param {
    lr_mult: 2
    decay_mult: 0
  }
  inner_product_param {
    num_output: 25
    weight_filler {
      type: "gaussian"
      std: 0.05
    }
    bias_filler {
      type: "constant"
      value: 0.1
    }
  }
}
layer {
  name: "fc_binary_Pattern_f24"
  type: "InnerProduct"
  bottom: "fc7"
  top: "fc_binary_Pattern_f24"
  param {
    lr_mult: 0
    decay_mult: 0
  }
  param {
    lr_mult: 0
    decay_mult: 0
  }
  inner_product_param {
    num_output: 24
    weight_filler {
      type: "gaussian"
      std: 0.005
    }
    bias_filler {
      type: "constant"
      value: 0.1
    }
  }
}
layer {
  name: "fc_classification_Pattern"
  type: "InnerProduct"
  bottom: "fc7"
  top: "fc_classification_Pattern"
  param {
    lr_mult: 0
    decay_mult: 0
  }
  param {
    lr_mult: 0
    decay_mult: 0
  }
  inner_product_param {
    num_output: 7
    weight_filler {
      type: "gaussian"
      std: 0.05
    }
    bias_filler {
      type: "constant"
      value: 0.1
    }
  }
}
layer {
  name: "loss_hashing_Type"
  type: "HashingLoss"
  bottom: "fc8_binary_Type_f24"
  bottom: "label"
  top: "loss_hashing_Type"
  loss_weight: 0.4
  hashing_loss_param {
    bi_margin: 48
    tradeoff: 0.01
  }
}
layer {
  name: "loss_classification_Type"
  type: "SoftmaxWithLoss"
  bottom: "fc8_classification_Type"
  bottom: "label"
  top: "loss_classification_Type"
}
layer {
  name: "loss_hashing_Pattern"
  type: "HashingLoss"
  bottom: "fc_binary_Pattern_f24"
  bottom: "label"
  top: "loss_hashing_Pattern"
  loss_weight: 0
  hashing_loss_param {
    bi_margin: 48
    tradeoff: 0.01
  }
}
layer {
  name: "loss_classification_Pattern"
  type: "SoftmaxWithLoss"
  bottom: "fc_classification_Pattern"
  bottom: "label"
  top: "loss_classification_Pattern"
  loss_weight: 0
}
I0918 10:36:03.308650 27712 layer_factory.hpp:77] Creating layer data
I0918 10:36:03.309900 27712 net.cpp:91] Creating Layer data
I0918 10:36:03.309967 27712 net.cpp:399] data -> data
I0918 10:36:03.310070 27712 net.cpp:399] data -> label
I0918 10:36:03.311681 27721 db_lmdb.cpp:38] Opened lmdb FASHION/fashion_train_lmdb/
I0918 10:36:03.340967 27712 data_layer.cpp:41] output data size: 10,3,224,224
I0918 10:36:03.360539 27712 net.cpp:141] Setting up data
I0918 10:36:03.360638 27712 net.cpp:148] Top shape: 10 3 224 224 (1505280)
I0918 10:36:03.360666 27712 net.cpp:148] Top shape: 10 1 1 1 (10)
I0918 10:36:03.360704 27712 net.cpp:156] Memory required for data: 6021160
I0918 10:36:03.360739 27712 layer_factory.hpp:77] Creating layer label_data_1_split
I0918 10:36:03.360782 27712 net.cpp:91] Creating Layer label_data_1_split
I0918 10:36:03.360863 27712 net.cpp:425] label_data_1_split <- label
I0918 10:36:03.360906 27712 net.cpp:399] label_data_1_split -> label_data_1_split_0
I0918 10:36:03.360944 27712 net.cpp:399] label_data_1_split -> label_data_1_split_1
I0918 10:36:03.360977 27712 net.cpp:399] label_data_1_split -> label_data_1_split_2
I0918 10:36:03.361006 27712 net.cpp:399] label_data_1_split -> label_data_1_split_3
I0918 10:36:03.361127 27712 net.cpp:141] Setting up label_data_1_split
I0918 10:36:03.361179 27712 net.cpp:148] Top shape: 10 1 1 1 (10)
I0918 10:36:03.361217 27712 net.cpp:148] Top shape: 10 1 1 1 (10)
I0918 10:36:03.361250 27712 net.cpp:148] Top shape: 10 1 1 1 (10)
I0918 10:36:03.361284 27712 net.cpp:148] Top shape: 10 1 1 1 (10)
I0918 10:36:03.361315 27712 net.cpp:156] Memory required for data: 6021320
I0918 10:36:03.361346 27712 layer_factory.hpp:77] Creating layer conv1_1
I0918 10:36:03.361426 27712 net.cpp:91] Creating Layer conv1_1
I0918 10:36:03.361464 27712 net.cpp:425] conv1_1 <- data
I0918 10:36:03.361508 27712 net.cpp:399] conv1_1 -> conv1_1
I0918 10:36:03.365101 27712 net.cpp:141] Setting up conv1_1
I0918 10:36:03.365185 27712 net.cpp:148] Top shape: 10 64 224 224 (32112640)
I0918 10:36:03.365242 27712 net.cpp:156] Memory required for data: 134471880
I0918 10:36:03.365315 27712 layer_factory.hpp:77] Creating layer relu1_1
I0918 10:36:03.365368 27712 net.cpp:91] Creating Layer relu1_1
I0918 10:36:03.365404 27712 net.cpp:425] relu1_1 <- conv1_1
I0918 10:36:03.365442 27712 net.cpp:386] relu1_1 -> conv1_1 (in-place)
I0918 10:36:03.365497 27712 net.cpp:141] Setting up relu1_1
I0918 10:36:03.365535 27712 net.cpp:148] Top shape: 10 64 224 224 (32112640)
I0918 10:36:03.365566 27712 net.cpp:156] Memory required for data: 262922440
I0918 10:36:03.365597 27712 layer_factory.hpp:77] Creating layer conv1_2
I0918 10:36:03.365669 27712 net.cpp:91] Creating Layer conv1_2
I0918 10:36:03.365711 27712 net.cpp:425] conv1_2 <- conv1_1
I0918 10:36:03.365759 27712 net.cpp:399] conv1_2 -> conv1_2
I0918 10:36:03.369074 27712 net.cpp:141] Setting up conv1_2
I0918 10:36:03.369132 27712 net.cpp:148] Top shape: 10 64 224 224 (32112640)
I0918 10:36:03.369164 27712 net.cpp:156] Memory required for data: 391373000
I0918 10:36:03.369210 27712 layer_factory.hpp:77] Creating layer relu1_2
I0918 10:36:03.369249 27712 net.cpp:91] Creating Layer relu1_2
I0918 10:36:03.369282 27712 net.cpp:425] relu1_2 <- conv1_2
I0918 10:36:03.369316 27712 net.cpp:386] relu1_2 -> conv1_2 (in-place)
I0918 10:36:03.369355 27712 net.cpp:141] Setting up relu1_2
I0918 10:36:03.369391 27712 net.cpp:148] Top shape: 10 64 224 224 (32112640)
I0918 10:36:03.369423 27712 net.cpp:156] Memory required for data: 519823560
I0918 10:36:03.369453 27712 layer_factory.hpp:77] Creating layer pool1
I0918 10:36:03.369498 27712 net.cpp:91] Creating Layer pool1
I0918 10:36:03.369531 27712 net.cpp:425] pool1 <- conv1_2
I0918 10:36:03.369566 27712 net.cpp:399] pool1 -> pool1
I0918 10:36:03.369757 27712 net.cpp:141] Setting up pool1
I0918 10:36:03.369810 27712 net.cpp:148] Top shape: 10 64 112 112 (8028160)
I0918 10:36:03.369843 27712 net.cpp:156] Memory required for data: 551936200
I0918 10:36:03.369875 27712 layer_factory.hpp:77] Creating layer conv2_1
I0918 10:36:03.369925 27712 net.cpp:91] Creating Layer conv2_1
I0918 10:36:03.369961 27712 net.cpp:425] conv2_1 <- pool1
I0918 10:36:03.370004 27712 net.cpp:399] conv2_1 -> conv2_1
I0918 10:36:03.378109 27712 net.cpp:141] Setting up conv2_1
I0918 10:36:03.378176 27712 net.cpp:148] Top shape: 10 128 112 112 (16056320)
I0918 10:36:03.378211 27712 net.cpp:156] Memory required for data: 616161480
I0918 10:36:03.378259 27712 layer_factory.hpp:77] Creating layer relu2_1
I0918 10:36:03.378309 27712 net.cpp:91] Creating Layer relu2_1
I0918 10:36:03.378346 27712 net.cpp:425] relu2_1 <- conv2_1
I0918 10:36:03.378383 27712 net.cpp:386] relu2_1 -> conv2_1 (in-place)
I0918 10:36:03.378425 27712 net.cpp:141] Setting up relu2_1
I0918 10:36:03.378463 27712 net.cpp:148] Top shape: 10 128 112 112 (16056320)
I0918 10:36:03.378494 27712 net.cpp:156] Memory required for data: 680386760
I0918 10:36:03.378579 27712 layer_factory.hpp:77] Creating layer conv2_2
I0918 10:36:03.378635 27712 net.cpp:91] Creating Layer conv2_2
I0918 10:36:03.378671 27712 net.cpp:425] conv2_2 <- conv2_1
I0918 10:36:03.378711 27712 net.cpp:399] conv2_2 -> conv2_2
I0918 10:36:03.390434 27712 net.cpp:141] Setting up conv2_2
I0918 10:36:03.390519 27712 net.cpp:148] Top shape: 10 128 112 112 (16056320)
I0918 10:36:03.390555 27712 net.cpp:156] Memory required for data: 744612040
I0918 10:36:03.390597 27712 layer_factory.hpp:77] Creating layer relu2_2
I0918 10:36:03.390637 27712 net.cpp:91] Creating Layer relu2_2
I0918 10:36:03.390669 27712 net.cpp:425] relu2_2 <- conv2_2
I0918 10:36:03.390707 27712 net.cpp:386] relu2_2 -> conv2_2 (in-place)
I0918 10:36:03.390748 27712 net.cpp:141] Setting up relu2_2
I0918 10:36:03.390785 27712 net.cpp:148] Top shape: 10 128 112 112 (16056320)
I0918 10:36:03.390815 27712 net.cpp:156] Memory required for data: 808837320
I0918 10:36:03.390846 27712 layer_factory.hpp:77] Creating layer pool2
I0918 10:36:03.390889 27712 net.cpp:91] Creating Layer pool2
I0918 10:36:03.390923 27712 net.cpp:425] pool2 <- conv2_2
I0918 10:36:03.390960 27712 net.cpp:399] pool2 -> pool2
I0918 10:36:03.391080 27712 net.cpp:141] Setting up pool2
I0918 10:36:03.391126 27712 net.cpp:148] Top shape: 10 128 56 56 (4014080)
I0918 10:36:03.391158 27712 net.cpp:156] Memory required for data: 824893640
I0918 10:36:03.391189 27712 layer_factory.hpp:77] Creating layer conv3_1
I0918 10:36:03.391245 27712 net.cpp:91] Creating Layer conv3_1
I0918 10:36:03.391280 27712 net.cpp:425] conv3_1 <- pool2
I0918 10:36:03.391319 27712 net.cpp:399] conv3_1 -> conv3_1
I0918 10:36:03.414717 27712 net.cpp:141] Setting up conv3_1
I0918 10:36:03.414788 27712 net.cpp:148] Top shape: 10 256 56 56 (8028160)
I0918 10:36:03.414824 27712 net.cpp:156] Memory required for data: 857006280
I0918 10:36:03.414876 27712 layer_factory.hpp:77] Creating layer relu3_1
I0918 10:36:03.414918 27712 net.cpp:91] Creating Layer relu3_1
I0918 10:36:03.414952 27712 net.cpp:425] relu3_1 <- conv3_1
I0918 10:36:03.414994 27712 net.cpp:386] relu3_1 -> conv3_1 (in-place)
I0918 10:36:03.415040 27712 net.cpp:141] Setting up relu3_1
I0918 10:36:03.415076 27712 net.cpp:148] Top shape: 10 256 56 56 (8028160)
I0918 10:36:03.415107 27712 net.cpp:156] Memory required for data: 889118920
I0918 10:36:03.415138 27712 layer_factory.hpp:77] Creating layer conv3_2
I0918 10:36:03.415186 27712 net.cpp:91] Creating Layer conv3_2
I0918 10:36:03.415220 27712 net.cpp:425] conv3_2 <- conv3_1
I0918 10:36:03.415258 27712 net.cpp:399] conv3_2 -> conv3_2
I0918 10:36:03.461994 27712 net.cpp:141] Setting up conv3_2
I0918 10:36:03.462061 27712 net.cpp:148] Top shape: 10 256 56 56 (8028160)
I0918 10:36:03.462096 27712 net.cpp:156] Memory required for data: 921231560
I0918 10:36:03.462136 27712 layer_factory.hpp:77] Creating layer relu3_2
I0918 10:36:03.462177 27712 net.cpp:91] Creating Layer relu3_2
I0918 10:36:03.462209 27712 net.cpp:425] relu3_2 <- conv3_2
I0918 10:36:03.462246 27712 net.cpp:386] relu3_2 -> conv3_2 (in-place)
I0918 10:36:03.462287 27712 net.cpp:141] Setting up relu3_2
I0918 10:36:03.462323 27712 net.cpp:148] Top shape: 10 256 56 56 (8028160)
I0918 10:36:03.462354 27712 net.cpp:156] Memory required for data: 953344200
I0918 10:36:03.462384 27712 layer_factory.hpp:77] Creating layer conv3_3
I0918 10:36:03.462440 27712 net.cpp:91] Creating Layer conv3_3
I0918 10:36:03.462481 27712 net.cpp:425] conv3_3 <- conv3_2
I0918 10:36:03.462520 27712 net.cpp:399] conv3_3 -> conv3_3
I0918 10:36:03.509117 27712 net.cpp:141] Setting up conv3_3
I0918 10:36:03.509182 27712 net.cpp:148] Top shape: 10 256 56 56 (8028160)
I0918 10:36:03.509223 27712 net.cpp:156] Memory required for data: 985456840
I0918 10:36:03.509264 27712 layer_factory.hpp:77] Creating layer relu3_3
I0918 10:36:03.509310 27712 net.cpp:91] Creating Layer relu3_3
I0918 10:36:03.509346 27712 net.cpp:425] relu3_3 <- conv3_3
I0918 10:36:03.509382 27712 net.cpp:386] relu3_3 -> conv3_3 (in-place)
I0918 10:36:03.509469 27712 net.cpp:141] Setting up relu3_3
I0918 10:36:03.509510 27712 net.cpp:148] Top shape: 10 256 56 56 (8028160)
I0918 10:36:03.509542 27712 net.cpp:156] Memory required for data: 1017569480
I0918 10:36:03.509573 27712 layer_factory.hpp:77] Creating layer pool3
I0918 10:36:03.509613 27712 net.cpp:91] Creating Layer pool3
I0918 10:36:03.509657 27712 net.cpp:425] pool3 <- conv3_3
I0918 10:36:03.509701 27712 net.cpp:399] pool3 -> pool3
I0918 10:36:03.509825 27712 net.cpp:141] Setting up pool3
I0918 10:36:03.509871 27712 net.cpp:148] Top shape: 10 256 28 28 (2007040)
I0918 10:36:03.509903 27712 net.cpp:156] Memory required for data: 1025597640
I0918 10:36:03.509934 27712 layer_factory.hpp:77] Creating layer conv4_1
I0918 10:36:03.509989 27712 net.cpp:91] Creating Layer conv4_1
I0918 10:36:03.510025 27712 net.cpp:425] conv4_1 <- pool3
I0918 10:36:03.510063 27712 net.cpp:399] conv4_1 -> conv4_1
I0918 10:36:03.573933 27712 net.cpp:141] Setting up conv4_1
I0918 10:36:03.573968 27712 net.cpp:148] Top shape: 10 512 28 28 (4014080)
I0918 10:36:03.573985 27712 net.cpp:156] Memory required for data: 1041653960
I0918 10:36:03.574007 27712 layer_factory.hpp:77] Creating layer relu4_1
I0918 10:36:03.574026 27712 net.cpp:91] Creating Layer relu4_1
I0918 10:36:03.574043 27712 net.cpp:425] relu4_1 <- conv4_1
I0918 10:36:03.574064 27712 net.cpp:386] relu4_1 -> conv4_1 (in-place)
I0918 10:36:03.574084 27712 net.cpp:141] Setting up relu4_1
I0918 10:36:03.574101 27712 net.cpp:148] Top shape: 10 512 28 28 (4014080)
I0918 10:36:03.574116 27712 net.cpp:156] Memory required for data: 1057710280
I0918 10:36:03.574131 27712 layer_factory.hpp:77] Creating layer conv4_2
I0918 10:36:03.574156 27712 net.cpp:91] Creating Layer conv4_2
I0918 10:36:03.574172 27712 net.cpp:425] conv4_2 <- conv4_1
I0918 10:36:03.574190 27712 net.cpp:399] conv4_2 -> conv4_2
I0918 10:36:03.663393 27712 net.cpp:141] Setting up conv4_2
I0918 10:36:03.663437 27712 net.cpp:148] Top shape: 10 512 28 28 (4014080)
I0918 10:36:03.663457 27712 net.cpp:156] Memory required for data: 1073766600
I0918 10:36:03.663486 27712 layer_factory.hpp:77] Creating layer relu4_2
I0918 10:36:03.663511 27712 net.cpp:91] Creating Layer relu4_2
I0918 10:36:03.663529 27712 net.cpp:425] relu4_2 <- conv4_2
I0918 10:36:03.663548 27712 net.cpp:386] relu4_2 -> conv4_2 (in-place)
I0918 10:36:03.663570 27712 net.cpp:141] Setting up relu4_2
I0918 10:36:03.663588 27712 net.cpp:148] Top shape: 10 512 28 28 (4014080)
I0918 10:36:03.663601 27712 net.cpp:156] Memory required for data: 1089822920
I0918 10:36:03.663616 27712 layer_factory.hpp:77] Creating layer conv4_3
I0918 10:36:03.663641 27712 net.cpp:91] Creating Layer conv4_3
I0918 10:36:03.663658 27712 net.cpp:425] conv4_3 <- conv4_2
I0918 10:36:03.663676 27712 net.cpp:399] conv4_3 -> conv4_3
I0918 10:36:03.752698 27712 net.cpp:141] Setting up conv4_3
I0918 10:36:03.752743 27712 net.cpp:148] Top shape: 10 512 28 28 (4014080)
I0918 10:36:03.752760 27712 net.cpp:156] Memory required for data: 1105879240
I0918 10:36:03.752780 27712 layer_factory.hpp:77] Creating layer relu4_3
I0918 10:36:03.752801 27712 net.cpp:91] Creating Layer relu4_3
I0918 10:36:03.752818 27712 net.cpp:425] relu4_3 <- conv4_3
I0918 10:36:03.752836 27712 net.cpp:386] relu4_3 -> conv4_3 (in-place)
I0918 10:36:03.752858 27712 net.cpp:141] Setting up relu4_3
I0918 10:36:03.752876 27712 net.cpp:148] Top shape: 10 512 28 28 (4014080)
I0918 10:36:03.752890 27712 net.cpp:156] Memory required for data: 1121935560
I0918 10:36:03.752905 27712 layer_factory.hpp:77] Creating layer pool4
I0918 10:36:03.752928 27712 net.cpp:91] Creating Layer pool4
I0918 10:36:03.752944 27712 net.cpp:425] pool4 <- conv4_3
I0918 10:36:03.752962 27712 net.cpp:399] pool4 -> pool4
I0918 10:36:03.753023 27712 net.cpp:141] Setting up pool4
I0918 10:36:03.753046 27712 net.cpp:148] Top shape: 10 512 14 14 (1003520)
I0918 10:36:03.753062 27712 net.cpp:156] Memory required for data: 1125949640
I0918 10:36:03.753075 27712 layer_factory.hpp:77] Creating layer conv5_1
I0918 10:36:03.753103 27712 net.cpp:91] Creating Layer conv5_1
I0918 10:36:03.753163 27712 net.cpp:425] conv5_1 <- pool4
I0918 10:36:03.753185 27712 net.cpp:399] conv5_1 -> conv5_1
I0918 10:36:03.842239 27712 net.cpp:141] Setting up conv5_1
I0918 10:36:03.842278 27712 net.cpp:148] Top shape: 10 512 14 14 (1003520)
I0918 10:36:03.842300 27712 net.cpp:156] Memory required for data: 1129963720
I0918 10:36:03.842322 27712 layer_factory.hpp:77] Creating layer relu5_1
I0918 10:36:03.842344 27712 net.cpp:91] Creating Layer relu5_1
I0918 10:36:03.842360 27712 net.cpp:425] relu5_1 <- conv5_1
I0918 10:36:03.842382 27712 net.cpp:386] relu5_1 -> conv5_1 (in-place)
I0918 10:36:03.842403 27712 net.cpp:141] Setting up relu5_1
I0918 10:36:03.842422 27712 net.cpp:148] Top shape: 10 512 14 14 (1003520)
I0918 10:36:03.842437 27712 net.cpp:156] Memory required for data: 1133977800
I0918 10:36:03.842452 27712 layer_factory.hpp:77] Creating layer conv5_2
I0918 10:36:03.842478 27712 net.cpp:91] Creating Layer conv5_2
I0918 10:36:03.842494 27712 net.cpp:425] conv5_2 <- conv5_1
I0918 10:36:03.842514 27712 net.cpp:399] conv5_2 -> conv5_2
I0918 10:36:03.931507 27712 net.cpp:141] Setting up conv5_2
I0918 10:36:03.931553 27712 net.cpp:148] Top shape: 10 512 14 14 (1003520)
I0918 10:36:03.931573 27712 net.cpp:156] Memory required for data: 1137991880
I0918 10:36:03.931596 27712 layer_factory.hpp:77] Creating layer relu5_2
I0918 10:36:03.931617 27712 net.cpp:91] Creating Layer relu5_2
I0918 10:36:03.931634 27712 net.cpp:425] relu5_2 <- conv5_2
I0918 10:36:03.931653 27712 net.cpp:386] relu5_2 -> conv5_2 (in-place)
I0918 10:36:03.931674 27712 net.cpp:141] Setting up relu5_2
I0918 10:36:03.931692 27712 net.cpp:148] Top shape: 10 512 14 14 (1003520)
I0918 10:36:03.931707 27712 net.cpp:156] Memory required for data: 1142005960
I0918 10:36:03.931722 27712 layer_factory.hpp:77] Creating layer conv5_3
I0918 10:36:03.931747 27712 net.cpp:91] Creating Layer conv5_3
I0918 10:36:03.931764 27712 net.cpp:425] conv5_3 <- conv5_2
I0918 10:36:03.931787 27712 net.cpp:399] conv5_3 -> conv5_3
I0918 10:36:04.020947 27712 net.cpp:141] Setting up conv5_3
I0918 10:36:04.020987 27712 net.cpp:148] Top shape: 10 512 14 14 (1003520)
I0918 10:36:04.021003 27712 net.cpp:156] Memory required for data: 1146020040
I0918 10:36:04.021024 27712 layer_factory.hpp:77] Creating layer relu5_3
I0918 10:36:04.021045 27712 net.cpp:91] Creating Layer relu5_3
I0918 10:36:04.021062 27712 net.cpp:425] relu5_3 <- conv5_3
I0918 10:36:04.021085 27712 net.cpp:386] relu5_3 -> conv5_3 (in-place)
I0918 10:36:04.021106 27712 net.cpp:141] Setting up relu5_3
I0918 10:36:04.021124 27712 net.cpp:148] Top shape: 10 512 14 14 (1003520)
I0918 10:36:04.021138 27712 net.cpp:156] Memory required for data: 1150034120
I0918 10:36:04.021153 27712 layer_factory.hpp:77] Creating layer pool5
I0918 10:36:04.021179 27712 net.cpp:91] Creating Layer pool5
I0918 10:36:04.021195 27712 net.cpp:425] pool5 <- conv5_3
I0918 10:36:04.021216 27712 net.cpp:399] pool5 -> pool5
I0918 10:36:04.021281 27712 net.cpp:141] Setting up pool5
I0918 10:36:04.021302 27712 net.cpp:148] Top shape: 10 512 7 7 (250880)
I0918 10:36:04.021318 27712 net.cpp:156] Memory required for data: 1151037640
I0918 10:36:04.021333 27712 layer_factory.hpp:77] Creating layer fc6
I0918 10:36:04.021364 27712 net.cpp:91] Creating Layer fc6
I0918 10:36:04.021381 27712 net.cpp:425] fc6 <- pool5
I0918 10:36:04.021404 27712 net.cpp:399] fc6 -> fc6
I0918 10:36:07.881136 27712 net.cpp:141] Setting up fc6
I0918 10:36:07.881216 27712 net.cpp:148] Top shape: 10 4096 (40960)
I0918 10:36:07.881233 27712 net.cpp:156] Memory required for data: 1151201480
I0918 10:36:07.881265 27712 layer_factory.hpp:77] Creating layer relu6
I0918 10:36:07.881299 27712 net.cpp:91] Creating Layer relu6
I0918 10:36:07.881325 27712 net.cpp:425] relu6 <- fc6
I0918 10:36:07.881350 27712 net.cpp:386] relu6 -> fc6 (in-place)
I0918 10:36:07.881377 27712 net.cpp:141] Setting up relu6
I0918 10:36:07.881395 27712 net.cpp:148] Top shape: 10 4096 (40960)
I0918 10:36:07.881413 27712 net.cpp:156] Memory required for data: 1151365320
I0918 10:36:07.881428 27712 layer_factory.hpp:77] Creating layer drop6
I0918 10:36:07.881490 27712 net.cpp:91] Creating Layer drop6
I0918 10:36:07.881510 27712 net.cpp:425] drop6 <- fc6
I0918 10:36:07.881526 27712 net.cpp:386] drop6 -> fc6 (in-place)
I0918 10:36:07.881590 27712 net.cpp:141] Setting up drop6
I0918 10:36:07.881613 27712 net.cpp:148] Top shape: 10 4096 (40960)
I0918 10:36:07.881646 27712 net.cpp:156] Memory required for data: 1151529160
I0918 10:36:07.881664 27712 layer_factory.hpp:77] Creating layer fc7
I0918 10:36:07.881693 27712 net.cpp:91] Creating Layer fc7
I0918 10:36:07.881711 27712 net.cpp:425] fc7 <- fc6
I0918 10:36:07.881731 27712 net.cpp:399] fc7 -> fc7
I0918 10:36:08.516796 27712 net.cpp:141] Setting up fc7
I0918 10:36:08.516865 27712 net.cpp:148] Top shape: 10 4096 (40960)
I0918 10:36:08.516880 27712 net.cpp:156] Memory required for data: 1151693000
I0918 10:36:08.516906 27712 layer_factory.hpp:77] Creating layer relu7
I0918 10:36:08.516942 27712 net.cpp:91] Creating Layer relu7
I0918 10:36:08.516961 27712 net.cpp:425] relu7 <- fc7
I0918 10:36:08.516985 27712 net.cpp:386] relu7 -> fc7 (in-place)
I0918 10:36:08.517011 27712 net.cpp:141] Setting up relu7
I0918 10:36:08.517030 27712 net.cpp:148] Top shape: 10 4096 (40960)
I0918 10:36:08.517046 27712 net.cpp:156] Memory required for data: 1151856840
I0918 10:36:08.517061 27712 layer_factory.hpp:77] Creating layer drop7
I0918 10:36:08.517081 27712 net.cpp:91] Creating Layer drop7
I0918 10:36:08.517096 27712 net.cpp:425] drop7 <- fc7
I0918 10:36:08.517117 27712 net.cpp:386] drop7 -> fc7 (in-place)
I0918 10:36:08.517163 27712 net.cpp:141] Setting up drop7
I0918 10:36:08.517184 27712 net.cpp:148] Top shape: 10 4096 (40960)
I0918 10:36:08.517202 27712 net.cpp:156] Memory required for data: 1152020680
I0918 10:36:08.517217 27712 layer_factory.hpp:77] Creating layer fc7_drop7_0_split
I0918 10:36:08.517236 27712 net.cpp:91] Creating Layer fc7_drop7_0_split
I0918 10:36:08.517252 27712 net.cpp:425] fc7_drop7_0_split <- fc7
I0918 10:36:08.517269 27712 net.cpp:399] fc7_drop7_0_split -> fc7_drop7_0_split_0
I0918 10:36:08.517290 27712 net.cpp:399] fc7_drop7_0_split -> fc7_drop7_0_split_1
I0918 10:36:08.517310 27712 net.cpp:399] fc7_drop7_0_split -> fc7_drop7_0_split_2
I0918 10:36:08.517333 27712 net.cpp:399] fc7_drop7_0_split -> fc7_drop7_0_split_3
I0918 10:36:08.517406 27712 net.cpp:141] Setting up fc7_drop7_0_split
I0918 10:36:08.517428 27712 net.cpp:148] Top shape: 10 4096 (40960)
I0918 10:36:08.517444 27712 net.cpp:148] Top shape: 10 4096 (40960)
I0918 10:36:08.517462 27712 net.cpp:148] Top shape: 10 4096 (40960)
I0918 10:36:08.517477 27712 net.cpp:148] Top shape: 10 4096 (40960)
I0918 10:36:08.517493 27712 net.cpp:156] Memory required for data: 1152676040
I0918 10:36:08.517509 27712 layer_factory.hpp:77] Creating layer fc8_binary_Type_f24
I0918 10:36:08.517534 27712 net.cpp:91] Creating Layer fc8_binary_Type_f24
I0918 10:36:08.517551 27712 net.cpp:425] fc8_binary_Type_f24 <- fc7_drop7_0_split_0
I0918 10:36:08.517571 27712 net.cpp:399] fc8_binary_Type_f24 -> fc8_binary_Type_f24
I0918 10:36:08.521847 27712 net.cpp:141] Setting up fc8_binary_Type_f24
I0918 10:36:08.521875 27712 net.cpp:148] Top shape: 10 24 (240)
I0918 10:36:08.521893 27712 net.cpp:156] Memory required for data: 1152677000
I0918 10:36:08.521912 27712 layer_factory.hpp:77] Creating layer fc8_classification_Type
I0918 10:36:08.521934 27712 net.cpp:91] Creating Layer fc8_classification_Type
I0918 10:36:08.521950 27712 net.cpp:425] fc8_classification_Type <- fc7_drop7_0_split_1
I0918 10:36:08.521971 27712 net.cpp:399] fc8_classification_Type -> fc8_classification_Type
I0918 10:36:08.525678 27712 net.cpp:141] Setting up fc8_classification_Type
I0918 10:36:08.525702 27712 net.cpp:148] Top shape: 10 25 (250)
I0918 10:36:08.525719 27712 net.cpp:156] Memory required for data: 1152678000
I0918 10:36:08.525766 27712 layer_factory.hpp:77] Creating layer fc_binary_Pattern_f24
I0918 10:36:08.525790 27712 net.cpp:91] Creating Layer fc_binary_Pattern_f24
I0918 10:36:08.525807 27712 net.cpp:425] fc_binary_Pattern_f24 <- fc7_drop7_0_split_2
I0918 10:36:08.525880 27712 net.cpp:399] fc_binary_Pattern_f24 -> fc_binary_Pattern_f24
I0918 10:36:08.530242 27712 net.cpp:141] Setting up fc_binary_Pattern_f24
I0918 10:36:08.530272 27712 net.cpp:148] Top shape: 10 24 (240)
I0918 10:36:08.530289 27712 net.cpp:156] Memory required for data: 1152678960
I0918 10:36:08.530313 27712 layer_factory.hpp:77] Creating layer fc_classification_Pattern
I0918 10:36:08.530336 27712 net.cpp:91] Creating Layer fc_classification_Pattern
I0918 10:36:08.530354 27712 net.cpp:425] fc_classification_Pattern <- fc7_drop7_0_split_3
I0918 10:36:08.530376 27712 net.cpp:399] fc_classification_Pattern -> fc_classification_Pattern
I0918 10:36:08.531566 27712 net.cpp:141] Setting up fc_classification_Pattern
I0918 10:36:08.531591 27712 net.cpp:148] Top shape: 10 7 (70)
I0918 10:36:08.531607 27712 net.cpp:156] Memory required for data: 1152679240
I0918 10:36:08.531628 27712 layer_factory.hpp:77] Creating layer loss_hashing_Type
I0918 10:36:08.531661 27712 net.cpp:91] Creating Layer loss_hashing_Type
I0918 10:36:08.531679 27712 net.cpp:425] loss_hashing_Type <- fc8_binary_Type_f24
I0918 10:36:08.531697 27712 net.cpp:425] loss_hashing_Type <- label_data_1_split_0
…
I0918 10:36:08.535094 27712 net.cpp:313] The NetState phase (1) differed from the phase (0) specified by a rule in layer data
I0918 10:36:08.535537 27712 net.cpp:49] Initializing net from parameters: 
name: "docomo_VGG16"
state {
  phase: TEST
}
layer {
  name: "data"
  type: "Data"
  top: "data"
  top: "label"
  include {
    phase: TEST
  }
  transform_param {
    mirror: false
    crop_size: 224
    mean_value: 103.939
    mean_value: 116.779
    mean_value: 123.68
  }
  data_param {
    source: "FASHION/fashion_val_lmdb/"
    batch_size: 10
    backend: LMDB
  }
}
layer {
  name: "conv1_1"
  type: "Convolution"
  bottom: "data"
  top: "conv1_1"
  param {
    lr_mult: 1
    decay_mult: 1
  }
  param {
    lr_mult: 2
    decay_mult: 0
  }
  convolution_param {
    num_output: 64
    pad: 1
    kernel_size: 3
    weight_filler {
      type: "gaussian"
      std: 0.01
    }
    bias_filler {
      type: "constant"
      value: 0
    }
  }
}
layer {
  name: "relu1_1"
  type: "ReLU"
  bottom: "conv1_1"
  top: "conv1_1"
}
layer {
  name: "conv1_2"
  type: "Convolution"
  bottom: "conv1_1"
  top: "conv1_2"
  param {
    lr_mult: 1
    decay_mult: 1
  }
  param {
    lr_mult: 2
    decay_mult: 0
  }
  convolution_param {
    num_output: 64
    pad: 1
    kernel_size: 3
    weight_filler {
      type: "gaussian"
      std: 0.01
    }
    bias_filler {
      type: "constant"
      value: 0
    }
  }
}
layer {
  name: "relu1_2"
  type: "ReLU"
  bottom: "conv1_2"
  top: "conv1_2"
}
layer {
  name: "pool1"
  type: "Pooling"
  bottom: "conv1_2"
  top: "pool1"
  pooling_param {
    pool: MAX
    kernel_size: 2
    stride: 2
  }
}
layer {
  name: "conv2_1"
  type: "Convolution"
  bottom: "pool1"
  top: "conv2_1"
  param {
    lr_mult: 1
    decay_mult: 1
  }
  param {
    lr_mult: 2
    decay_mult: 0
  }
  convolution_param {
    num_output: 128
    pad: 1
    kernel_size: 3
    weight_filler {
      type: "gaussian"
      std: 0.01
    }
    bias_filler {
      type: "constant"
      value: 0
    }
  }
}
layer {
  name: "relu2_1"
  type: "ReLU"
  bottom: "conv2_1"
  top: "conv2_1"
}
layer {
  name: "conv2_2"
  type: "Convolution"
  bottom: "conv2_1"
  top: "conv2_2"
  param {
    lr_mult: 1
    decay_mult: 1
  }
  param {
    lr_mult: 2
    decay_mult: 0
  }
  convolution_param {
    num_output: 128
    pad: 1
    kernel_size: 3
    weight_filler {
      type: "gaussian"
      std: 0.01
    }
    bias_filler {
      type: "constant"
      value: 0
    }
  }
}
layer {
  name: "relu2_2"
  type: "ReLU"
  bottom: "conv2_2"
  top: "conv2_2"
}
layer {
  name: "pool2"
  type: "Pooling"
  bottom: "conv2_2"
  top: "pool2"
  pooling_param {
    pool: MAX
    kernel_size: 2
    stride: 2
  }
}
layer {
  name: "conv3_1"
  type: "Convolution"
  bottom: "pool2"
  top: "conv3_1"
  param {
    lr_mult: 1
    decay_mult: 1
  }
  param {
    lr_mult: 2
    decay_mult: 0
  }
  convolution_param {
    num_output: 256
    pad: 1
    kernel_size: 3
    weight_filler {
      type: "gaussian"
      std: 0.01
    }
    bias_filler {
      type: "constant"
      value: 0
    }
  }
}
layer {
  name: "relu3_1"
  type: "ReLU"
  bottom: "conv3_1"
  top: "conv3_1"
}
layer {
  name: "conv3_2"
  type: "Convolution"
  bottom: "conv3_1"
  top: "conv3_2"
  param {
    lr_mult: 1
    decay_mult: 1
  }
  param {
    lr_mult: 2
    decay_mult: 0
  }
  convolution_param {
    num_output: 256
    pad: 1
    kernel_size: 3
    weight_filler {
      type: "gaussian"
      std: 0.01
    }
    bias_filler {
      type: "constant"
      value: 0
    }
  }
}
layer {
  name: "relu3_2"
  type: "ReLU"
  bottom: "conv3_2"
  top: "conv3_2"
}
layer {
  name: "conv3_3"
  type: "Convolution"
  bottom: "conv3_2"
  top: "conv3_3"
  param {
    lr_mult: 1
    decay_mult: 1
  }
  param {
    lr_mult: 2
    decay_mult: 0
  }
  convolution_param {
    num_output: 256
    pad: 1
    kernel_size: 3
    weight_filler {
      type: "gaussian"
      std: 0.01
    }
    bias_filler {
      type: "constant"
      value: 0
    }
  }
}
layer {
  name: "relu3_3"
  type: "ReLU"
  bottom: "conv3_3"
  top: "conv3_3"
}
layer {
  name: "pool3"
  type: "Pooling"
  bottom: "conv3_3"
  top: "pool3"
  pooling_param {
    pool: MAX
    kernel_size: 2
    stride: 2
  }
}
layer {
  name: "conv4_1"
  type: "Convolution"
  bottom: "pool3"
  top: "conv4_1"
  param {
    lr_mult: 1
    decay_mult: 1
  }
  param {
    lr_mult: 2
    decay_mult: 0
  }
  convolution_param {
    num_output: 512
    pad: 1
    kernel_size: 3
    weight_filler {
      type: "gaussian"
      std: 0.01
    }
    bias_filler {
      type: "constant"
      value: 0
    }
  }
}
layer {
  name: "relu4_1"
  type: "ReLU"
  bottom: "conv4_1"
  top: "conv4_1"
}
layer {
  name: "conv4_2"
  type: "Convolution"
  bottom: "conv4_1"
  top: "conv4_2"
  param {
    lr_mult: 1
    decay_mult: 1
  }
  param {
    lr_mult: 2
    decay_mult: 0
  }
  convolution_param {
    num_output: 512
    pad: 1
    kernel_size: 3
    weight_filler {
      type: "gaussian"
      std: 0.01
    }
    bias_filler {
      type: "constant"
      value: 0
    }
  }
}
layer {
  name: "relu4_2"
  type: "ReLU"
  bottom: "conv4_2"
  top: "conv4_2"
}
layer {
  name: "conv4_3"
  type: "Convolution"
  bottom: "conv4_2"
  top: "conv4_3"
  param {
    lr_mult: 1
    decay_mult: 1
  }
  param {
    lr_mult: 2
    decay_mult: 0
  }
  convolution_param {
    num_output: 512
    pad: 1
    kernel_size: 3
    weight_filler {
      type: "gaussian"
      std: 0.01
    }
    bias_filler {
      type: "constant"
      value: 0
    }
  }
}
layer {
  name: "relu4_3"
  type: "ReLU"
  bottom: "conv4_3"
  top: "conv4_3"
}
layer {
  name: "pool4"
  type: "Pooling"
  bottom: "conv4_3"
  top: "pool4"
  pooling_param {
    pool: MAX
    kernel_size: 2
    stride: 2
  }
}
layer {
  name: "conv5_1"
  type: "Convolution"
  bottom: "pool4"
  top: "conv5_1"
  param {
    lr_mult: 1
    decay_mult: 1
  }
  param {
    lr_mult: 2
    decay_mult: 0
  }
  convolution_param {
    num_output: 512
    pad: 1
    kernel_size: 3
    weight_filler {
      type: "gaussian"
      std: 0.01
    }
    bias_filler {
      type: "constant"
      value: 0
    }
  }
}
layer {
  name: "relu5_1"
  type: "ReLU"
  bottom: "conv5_1"
  top: "conv5_1"
}
layer {
  name: "conv5_2"
  type: "Convolution"
  bottom: "conv5_1"
  top: "conv5_2"
  param {
    lr_mult: 1
    decay_mult: 1
  }
  param {
    lr_mult: 2
    decay_mult: 0
  }
  convolution_param {
    num_output: 512
    pad: 1
    kernel_size: 3
    weight_filler {
      type: "gaussian"
      std: 0.01
    }
    bias_filler {
      type: "constant"
      value: 0
    }
  }
}
layer {
  name: "relu5_2"
  type: "ReLU"
  bottom: "conv5_2"
  top: "conv5_2"
}
layer {
  name: "conv5_3"
  type: "Convolution"
  bottom: "conv5_2"
  top: "conv5_3"
  param {
    lr_mult: 1
    decay_mult: 1
  }
  param {
    lr_mult: 2
    decay_mult: 0
  }
  convolution_param {
    num_output: 512
    pad: 1
    kernel_size: 3
    weight_filler {
      type: "gaussian"
      std: 0.01
    }
    bias_filler {
      type: "constant"
      value: 0
    }
  }
}
layer {
  name: "relu5_3"
  type: "ReLU"
  bottom: "conv5_3"
  top: "conv5_3"
}
layer {
  name: "pool5"
  type: "Pooling"
  bottom: "conv5_3"
  top: "pool5"
  pooling_param {
    pool: MAX
    kernel_size: 2
    stride: 2
  }
}
layer {
  name: "fc6"
  type: "InnerProduct"
  bottom: "pool5"
  top: "fc6"
  param {
    lr_mult: 1
    decay_mult: 1
  }
  param {
    lr_mult: 2
    decay_mult: 0
  }
  inner_product_param {
    num_output: 4096
    weight_filler {
      type: "gaussian"
      std: 0.005
    }
    bias_filler {
      type: "constant"
      value: 0.1
    }
  }
}
layer {
  name: "relu6"
  type: "ReLU"
  bottom: "fc6"
  top: "fc6"
}
layer {
  name: "drop6"
  type: "Dropout"
  bottom: "fc6"
  top: "fc6"
  dropout_param {
    dropout_ratio: 0.5
  }
}
layer {
  name: "fc7"
  type: "InnerProduct"
  bottom: "fc6"
  top: "fc7"
  param {
    lr_mult: 1
    decay_mult: 1
  }
  param {
    lr_mult: 2
    decay_mult: 0
  }
  inner_product_param {
    num_output: 4096
    weight_filler {
      type: "gaussian"
      std: 0.005
    }
    bias_filler {
      type: "constant"
      value: 0.1
    }
  }
}
layer {
  name: "relu7"
  type: "ReLU"
  bottom: "fc7"
  top: "fc7"
}
layer {
  name: "drop7"
  type: "Dropout"
  bottom: "fc7"
  top: "fc7"
  dropout_param {
    dropout_ratio: 0.5
  }
}
layer {
  name: "fc8_binary_Type_f24"
  type: "InnerProduct"
  bottom: "fc7"
  top: "fc8_binary_Type_f24"
  param {
    lr_mult: 20
    decay_mult: 1
  }
  param {
    lr_mult: 40
    decay_mult: 0
  }
  inner_product_param {
    num_output: 24
    weight_filler {
      type: "gaussian"
      std: 0.005
    }
    bias_filler {
      type: "constant"
      value: 0.1
    }
  }
}
layer {
  name: "fc8_classification_Type"
  type: "InnerProduct"
  bottom: "fc7"
  top: "fc8_classification_Type"
  param {
    lr_mult: 1
    decay_mult: 1
  }
  param {
    lr_mult: 2
    decay_mult: 0
  }
  inner_product_param {
    num_output: 25
    weight_filler {
      type: "gaussian"
      std: 0.05
    }
    bias_filler {
      type: "constant"
      value: 0.1
    }
  }
}
layer {
  name: "fc_binary_Pattern_f24"
  type: "InnerProduct"
  bottom: "fc7"
  top: "fc_binary_Pattern_f24"
  param {
    lr_mult: 0
    decay_mult: 0
  }
  param {
    lr_mult: 0
    decay_mult: 0
  }
  inner_product_param {
    num_output: 24
    weight_filler {
      type: "gaussian"
      std: 0.005
    }
    bias_filler {
      type: "constant"
      value: 0.1
    }
  }
}
layer {
  name: "fc_classification_Pattern"
  type: "InnerProduct"
  bottom: "fc7"
  top: "fc_classification_Pattern"
  param {
    lr_mult: 0
    decay_mult: 0
  }
  param {
    lr_mult: 0
    decay_mult: 0
  }
  inner_product_param {
    num_output: 7
    weight_filler {
      type: "gaussian"
      std: 0.05
    }
    bias_filler {
      type: "constant"
      value: 0.1
    }
  }
}
layer {
  name: "accuracy_at_1_Type"
  type: "Accuracy"
  bottom: "fc8_classification_Type"
  bottom: "label"
  top: "accuracy_at_1_Type"
  include {
    phase: TEST
  }
}
layer {
  name: "loss_hashing_Type"
  type: "HashingLoss"
  bottom: "fc8_binary_Type_f24"
  bottom: "label"
  top: "loss_hashing_Type"
  loss_weight: 0.4
  hashing_loss_param {
    bi_margin: 48
    tradeoff: 0.01
  }
}
layer {
  name: "loss_classification_Type"
  type: "SoftmaxWithLoss"
  bottom: "fc8_classification_Type"
  bottom: "label"
  top: "loss_classification_Type"
}
layer {
  name: "loss_hashing_Pattern"
  type: "HashingLoss"
  bottom: "fc_binary_Pattern_f24"
  bottom: "label"
  top: "loss_hashing_Pattern"
  loss_weight: 0
  hashing_loss_param {
    bi_margin: 48
    tradeoff: 0.01
  }
}
layer {
  name: "loss_classification_Pattern"
  type: "SoftmaxWithLoss"
  bottom: "fc_classification_Pattern"
  bottom: "label"
  top: "loss_classification_Pattern"
  loss_weight: 0
}
I0918 10:36:08.539469 27712 layer_factory.hpp:77] Creating layer data
I0918 10:36:08.539592 27712 net.cpp:91] Creating Layer data
I0918 10:36:08.539638 27712 net.cpp:399] data -> data
I0918 10:36:08.539666 27712 net.cpp:399] data -> label
I0918 10:36:08.540797 27729 db_lmdb.cpp:38] Opened lmdb FASHION/fashion_val_lmdb/
I0918 10:36:08.541256 27712 data_layer.cpp:41] output data size: 10,3,224,224
I0918 10:36:08.552845 27712 net.cpp:141] Setting up data
I0918 10:36:08.552927 27712 net.cpp:148] Top shape: 10 3 224 224 (1505280)
I0918 10:36:08.552948 27712 net.cpp:148] Top shape: 10 1 1 1 (10)
I0918 10:36:08.552966 27712 net.cpp:156] Memory required for data: 6021160
I0918 10:36:08.552994 27712 layer_factory.hpp:77] Creating layer label_data_1_split
I0918 10:36:08.553028 27712 net.cpp:91] Creating Layer label_data_1_split
I0918 10:36:08.553050 27712 net.cpp:425] label_data_1_split <- label
I0918 10:36:08.553077 27712 net.cpp:399] label_data_1_split -> label_data_1_split_0
I0918 10:36:08.553110 27712 net.cpp:399] label_data_1_split -> label_data_1_split_1
I0918 10:36:08.553135 27712 net.cpp:399] label_data_1_split -> label_data_1_split_2
I0918 10:36:08.553158 27712 net.cpp:399] label_data_1_split -> label_data_1_split_3
I0918 10:36:08.553177 27712 net.cpp:399] label_data_1_split -> label_data_1_split_4
I0918 10:36:08.553292 27712 net.cpp:141] Setting up label_data_1_split
I0918 10:36:08.553362 27712 net.cpp:148] Top shape: 10 1 1 1 (10)
I0918 10:36:08.553385 27712 net.cpp:148] Top shape: 10 1 1 1 (10)
I0918 10:36:08.553405 27712 net.cpp:148] Top shape: 10 1 1 1 (10)
I0918 10:36:08.553422 27712 net.cpp:148] Top shape: 10 1 1 1 (10)
I0918 10:36:08.553441 27712 net.cpp:148] Top shape: 10 1 1 1 (10)
I0918 10:36:08.553457 27712 net.cpp:156] Memory required for data: 6021360
I0918 10:36:08.553473 27712 layer_factory.hpp:77] Creating layer conv1_1
I0918 10:36:08.553505 27712 net.cpp:91] Creating Layer conv1_1
I0918 10:36:08.553524 27712 net.cpp:425] conv1_1 <- data
I0918 10:36:08.553547 27712 net.cpp:399] conv1_1 -> conv1_1
I0918 10:36:08.554139 27712 net.cpp:141] Setting up conv1_1
I0918 10:36:08.554170 27712 net.cpp:148] Top shape: 10 64 224 224 (32112640)
I0918 10:36:08.554188 27712 net.cpp:156] Memory required for data: 134471920
I0918 10:36:08.554216 27712 layer_factory.hpp:77] Creating layer relu1_1
I0918 10:36:08.554240 27712 net.cpp:91] Creating Layer relu1_1
I0918 10:36:08.554258 27712 net.cpp:425] relu1_1 <- conv1_1
I0918 10:36:08.554280 27712 net.cpp:386] relu1_1 -> conv1_1 (in-place)
I0918 10:36:08.554303 27712 net.cpp:141] Setting up relu1_1
I0918 10:36:08.554323 27712 net.cpp:148] Top shape: 10 64 224 224 (32112640)
I0918 10:36:08.554340 27712 net.cpp:156] Memory required for data: 262922480
I0918 10:36:08.554358 27712 layer_factory.hpp:77] Creating layer conv1_2
I0918 10:36:08.554388 27712 net.cpp:91] Creating Layer conv1_2
I0918 10:36:08.554406 27712 net.cpp:425] conv1_2 <- conv1_1
I0918 10:36:08.554427 27712 net.cpp:399] conv1_2 -> conv1_2
I0918 10:36:08.556947 27712 net.cpp:141] Setting up conv1_2
I0918 10:36:08.556984 27712 net.cpp:148] Top shape: 10 64 224 224 (32112640)
I0918 10:36:08.557004 27712 net.cpp:156] Memory required for data: 391373040
I0918 10:36:08.557029 27712 layer_factory.hpp:77] Creating layer relu1_2
I0918 10:36:08.557051 27712 net.cpp:91] Creating Layer relu1_2
I0918 10:36:08.557068 27712 net.cpp:425] relu1_2 <- conv1_2
I0918 10:36:08.557091 27712 net.cpp:386] relu1_2 -> conv1_2 (in-place)
I0918 10:36:08.557113 27712 net.cpp:141] Setting up relu1_2
I0918 10:36:08.557133 27712 net.cpp:148] Top shape: 10 64 224 224 (32112640)
I0918 10:36:08.557149 27712 net.cpp:156] Memory required for data: 519823600
I0918 10:36:08.557178 27712 layer_factory.hpp:77] Creating layer pool1
I0918 10:36:08.557199 27712 net.cpp:91] Creating Layer pool1
I0918 10:36:08.557216 27712 net.cpp:425] pool1 <- conv1_2
I0918 10:36:08.557237 27712 net.cpp:399] pool1 -> pool1
I0918 10:36:08.557299 27712 net.cpp:141] Setting up pool1
I0918 10:36:08.557322 27712 net.cpp:148] Top shape: 10 64 112 112 (8028160)
I0918 10:36:08.557338 27712 net.cpp:156] Memory required for data: 551936240
I0918 10:36:08.557354 27712 layer_factory.hpp:77] Creating layer conv2_1
I0918 10:36:08.557380 27712 net.cpp:91] Creating Layer conv2_1
I0918 10:36:08.557397 27712 net.cpp:425] conv2_1 <- pool1
I0918 10:36:08.557420 27712 net.cpp:399] conv2_1 -> conv2_1
I0918 10:36:08.560546 27712 net.cpp:141] Setting up conv2_1
I0918 10:36:08.560577 27712 net.cpp:148] Top shape: 10 128 112 112 (16056320)
I0918 10:36:08.560595 27712 net.cpp:156] Memory required for data: 616161520
I0918 10:36:08.560621 27712 layer_factory.hpp:77] Creating layer relu2_1
I0918 10:36:08.560645 27712 net.cpp:91] Creating Layer relu2_1
I0918 10:36:08.560664 27712 net.cpp:425] relu2_1 <- conv2_1
I0918 10:36:08.560684 27712 net.cpp:386] relu2_1 -> conv2_1 (in-place)
I0918 10:36:08.560705 27712 net.cpp:141] Setting up relu2_1
I0918 10:36:08.560725 27712 net.cpp:148] Top shape: 10 128 112 112 (16056320)
I0918 10:36:08.560755 27712 net.cpp:156] Memory required for data: 680386800
I0918 10:36:08.560771 27712 layer_factory.hpp:77] Creating layer conv2_2
I0918 10:36:08.560797 27712 net.cpp:91] Creating Layer conv2_2
I0918 10:36:08.560814 27712 net.cpp:425] conv2_2 <- conv2_1
I0918 10:36:08.560837 27712 net.cpp:399] conv2_2 -> conv2_2
I0918 10:36:08.567296 27712 net.cpp:141] Setting up conv2_2
I0918 10:36:08.567332 27712 net.cpp:148] Top shape: 10 128 112 112 (16056320)
I0918 10:36:08.567384 27712 net.cpp:156] Memory required for data: 744612080
I0918 10:36:08.567410 27712 layer_factory.hpp:77] Creating layer relu2_2
I0918 10:36:08.567433 27712 net.cpp:91] Creating Layer relu2_2
I0918 10:36:08.567453 27712 net.cpp:425] relu2_2 <- conv2_2
I0918 10:36:08.567478 27712 net.cpp:386] relu2_2 -> conv2_2 (in-place)
I0918 10:36:08.567502 27712 net.cpp:141] Setting up relu2_2
I0918 10:36:08.567522 27712 net.cpp:148] Top shape: 10 128 112 112 (16056320)
I0918 10:36:08.567538 27712 net.cpp:156] Memory required for data: 808837360
I0918 10:36:08.567567 27712 layer_factory.hpp:77] Creating layer pool2
I0918 10:36:08.567587 27712 net.cpp:91] Creating Layer pool2
I0918 10:36:08.567603 27712 net.cpp:425] pool2 <- conv2_2
I0918 10:36:08.567621 27712 net.cpp:399] pool2 -> pool2
I0918 10:36:08.567685 27712 net.cpp:141] Setting up pool2
I0918 10:36:08.567708 27712 net.cpp:148] Top shape: 10 128 56 56 (4014080)
I0918 10:36:08.567725 27712 net.cpp:156] Memory required for data: 824893680
I0918 10:36:08.567740 27712 layer_factory.hpp:77] Creating layer conv3_1
I0918 10:36:08.567766 27712 net.cpp:91] Creating Layer conv3_1
I0918 10:36:08.567785 27712 net.cpp:425] conv3_1 <- pool2
I0918 10:36:08.567806 27712 net.cpp:399] conv3_1 -> conv3_1
I0918 10:36:08.579900 27712 net.cpp:141] Setting up conv3_1
I0918 10:36:08.579942 27712 net.cpp:148] Top shape: 10 256 56 56 (8028160)
I0918 10:36:08.579962 27712 net.cpp:156] Memory required for data: 857006320
I0918 10:36:08.579996 27712 layer_factory.hpp:77] Creating layer relu3_1
I0918 10:36:08.580019 27712 net.cpp:91] Creating Layer relu3_1
I0918 10:36:08.580037 27712 net.cpp:425] relu3_1 <- conv3_1
I0918 10:36:08.580060 27712 net.cpp:386] relu3_1 -> conv3_1 (in-place)
I0918 10:36:08.580082 27712 net.cpp:141] Setting up relu3_1
I0918 10:36:08.580101 27712 net.cpp:148] Top shape: 10 256 56 56 (8028160)
I0918 10:36:08.580116 27712 net.cpp:156] Memory required for data: 889118960
I0918 10:36:08.580132 27712 layer_factory.hpp:77] Creating layer conv3_2
I0918 10:36:08.580159 27712 net.cpp:91] Creating Layer conv3_2
I0918 10:36:08.580176 27712 net.cpp:425] conv3_2 <- conv3_1
I0918 10:36:08.580199 27712 net.cpp:399] conv3_2 -> conv3_2
I0918 10:36:08.602730 27712 net.cpp:141] Setting up conv3_2
I0918 10:36:08.602759 27712 net.cpp:148] Top shape: 10 256 56 56 (8028160)
I0918 10:36:08.602777 27712 net.cpp:156] Memory required for data: 921231600
I0918 10:36:08.602802 27712 layer_factory.hpp:77] Creating layer relu3_2
I0918 10:36:08.602823 27712 net.cpp:91] Creating Layer relu3_2
I0918 10:36:08.602839 27712 net.cpp:425] relu3_2 <- conv3_2
I0918 10:36:08.602864 27712 net.cpp:386] relu3_2 -> conv3_2 (in-place)
I0918 10:36:08.602886 27712 net.cpp:141] Setting up relu3_2
I0918 10:36:08.602905 27712 net.cpp:148] Top shape: 10 256 56 56 (8028160)
I0918 10:36:08.602921 27712 net.cpp:156] Memory required for data: 953344240
I0918 10:36:08.602936 27712 layer_factory.hpp:77] Creating layer conv3_3
I0918 10:36:08.602963 27712 net.cpp:91] Creating Layer conv3_3
I0918 10:36:08.602982 27712 net.cpp:425] conv3_3 <- conv3_2
I0918 10:36:08.603001 27712 net.cpp:399] conv3_3 -> conv3_3
I0918 10:36:08.625521 27712 net.cpp:141] Setting up conv3_3
I0918 10:36:08.625551 27712 net.cpp:148] Top shape: 10 256 56 56 (8028160)
I0918 10:36:08.625569 27712 net.cpp:156] Memory required for data: 985456880
I0918 10:36:08.625593 27712 layer_factory.hpp:77] Creating layer relu3_3
I0918 10:36:08.625638 27712 net.cpp:91] Creating Layer relu3_3
I0918 10:36:08.625658 27712 net.cpp:425] relu3_3 <- conv3_3
I0918 10:36:08.625682 27712 net.cpp:386] relu3_3 -> conv3_3 (in-place)
I0918 10:36:08.625704 27712 net.cpp:141] Setting up relu3_3
I0918 10:36:08.625722 27712 net.cpp:148] Top shape: 10 256 56 56 (8028160)
I0918 10:36:08.625739 27712 net.cpp:156] Memory required for data: 1017569520
I0918 10:36:08.625756 27712 layer_factory.hpp:77] Creating layer pool3
I0918 10:36:08.625779 27712 net.cpp:91] Creating Layer pool3
I0918 10:36:08.625797 27712 net.cpp:425] pool3 <- conv3_3
I0918 10:36:08.625816 27712 net.cpp:399] pool3 -> pool3
I0918 10:36:08.625931 27712 net.cpp:141] Setting up pool3
I0918 10:36:08.625957 27712 net.cpp:148] Top shape: 10 256 28 28 (2007040)
I0918 10:36:08.625973 27712 net.cpp:156] Memory required for data: 1025597680
I0918 10:36:08.625989 27712 layer_factory.hpp:77] Creating layer conv4_1
I0918 10:36:08.626015 27712 net.cpp:91] Creating Layer conv4_1
I0918 10:36:08.626034 27712 net.cpp:425] conv4_1 <- pool3
I0918 10:36:08.626055 27712 net.cpp:399] conv4_1 -> conv4_1
I0918 10:36:08.670634 27712 net.cpp:141] Setting up conv4_1
I0918 10:36:08.670665 27712 net.cpp:148] Top shape: 10 512 28 28 (4014080)
I0918 10:36:08.670684 27712 net.cpp:156] Memory required for data: 1041654000
I0918 10:36:08.670711 27712 layer_factory.hpp:77] Creating layer relu4_1
I0918 10:36:08.670733 27712 net.cpp:91] Creating Layer relu4_1
I0918 10:36:08.670753 27712 net.cpp:425] relu4_1 <- conv4_1
I0918 10:36:08.670773 27712 net.cpp:386] relu4_1 -> conv4_1 (in-place)
I0918 10:36:08.670794 27712 net.cpp:141] Setting up relu4_1
I0918 10:36:08.670812 27712 net.cpp:148] Top shape: 10 512 28 28 (4014080)
I0918 10:36:08.670828 27712 net.cpp:156] Memory required for data: 1057710320
I0918 10:36:08.670843 27712 layer_factory.hpp:77] Creating layer conv4_2
I0918 10:36:08.670869 27712 net.cpp:91] Creating Layer conv4_2
I0918 10:36:08.670886 27712 net.cpp:425] conv4_2 <- conv4_1
I0918 10:36:08.670909 27712 net.cpp:399] conv4_2 -> conv4_2
I0918 10:36:08.760373 27712 net.cpp:141] Setting up conv4_2
I0918 10:36:08.760416 27712 net.cpp:148] Top shape: 10 512 28 28 (4014080)
I0918 10:36:08.760435 27712 net.cpp:156] Memory required for data: 1073766640
I0918 10:36:08.760468 27712 layer_factory.hpp:77] Creating layer relu4_2
I0918 10:36:08.760498 27712 net.cpp:91] Creating Layer relu4_2
I0918 10:36:08.760517 27712 net.cpp:425] relu4_2 <- conv4_2
I0918 10:36:08.760540 27712 net.cpp:386] relu4_2 -> conv4_2 (in-place)
I0918 10:36:08.760565 27712 net.cpp:141] Setting up relu4_2
I0918 10:36:08.760584 27712 net.cpp:148] Top shape: 10 512 28 28 (4014080)
I0918 10:36:08.760601 27712 net.cpp:156] Memory required for data: 1089822960
I0918 10:36:08.760617 27712 layer_factory.hpp:77] Creating layer conv4_3
I0918 10:36:08.760644 27712 net.cpp:91] Creating Layer conv4_3
I0918 10:36:08.760663 27712 net.cpp:425] conv4_3 <- conv4_2
I0918 10:36:08.760686 27712 net.cpp:399] conv4_3 -> conv4_3
I0918 10:36:08.849750 27712 net.cpp:141] Setting up conv4_3
I0918 10:36:08.849791 27712 net.cpp:148] Top shape: 10 512 28 28 (4014080)
I0918 10:36:08.849810 27712 net.cpp:156] Memory required for data: 1105879280
I0918 10:36:08.849838 27712 layer_factory.hpp:77] Creating layer relu4_3
I0918 10:36:08.849862 27712 net.cpp:91] Creating Layer relu4_3
I0918 10:36:08.849881 27712 net.cpp:425] relu4_3 <- conv4_3
I0918 10:36:08.849905 27712 net.cpp:386] relu4_3 -> conv4_3 (in-place)
I0918 10:36:08.849942 27712 net.cpp:141] Setting up relu4_3
I0918 10:36:08.849961 27712 net.cpp:148] Top shape: 10 512 28 28 (4014080)
I0918 10:36:08.849977 27712 net.cpp:156] Memory required for data: 1121935600
I0918 10:36:08.849992 27712 layer_factory.hpp:77] Creating layer pool4
I0918 10:36:08.850016 27712 net.cpp:91] Creating Layer pool4
I0918 10:36:08.850034 27712 net.cpp:425] pool4 <- conv4_3
I0918 10:36:08.850054 27712 net.cpp:399] pool4 -> pool4
I0918 10:36:08.850119 27712 net.cpp:141] Setting up pool4
I0918 10:36:08.850142 27712 net.cpp:148] Top shape: 10 512 14 14 (1003520)
I0918 10:36:08.850158 27712 net.cpp:156] Memory required for data: 1125949680
I0918 10:36:08.850174 27712 layer_factory.hpp:77] Creating layer conv5_1
I0918 10:36:08.850201 27712 net.cpp:91] Creating Layer conv5_1
I0918 10:36:08.850219 27712 net.cpp:425] conv5_1 <- pool4
I0918 10:36:08.850242 27712 net.cpp:399] conv5_1 -> conv5_1
I0918 10:36:08.939488 27712 net.cpp:141] Setting up conv5_1
I0918 10:36:08.939528 27712 net.cpp:148] Top shape: 10 512 14 14 (1003520)
I0918 10:36:08.939546 27712 net.cpp:156] Memory required for data: 1129963760
I0918 10:36:08.939574 27712 layer_factory.hpp:77] Creating layer relu5_1
I0918 10:36:08.939596 27712 net.cpp:91] Creating Layer relu5_1
I0918 10:36:08.939649 27712 net.cpp:425] relu5_1 <- conv5_1
I0918 10:36:08.939673 27712 net.cpp:386] relu5_1 -> conv5_1 (in-place)
I0918 10:36:08.939697 27712 net.cpp:141] Setting up relu5_1
I0918 10:36:08.939716 27712 net.cpp:148] Top shape: 10 512 14 14 (1003520)
I0918 10:36:08.939731 27712 net.cpp:156] Memory required for data: 1133977840
I0918 10:36:08.939748 27712 layer_factory.hpp:77] Creating layer conv5_2
I0918 10:36:08.939772 27712 net.cpp:91] Creating Layer conv5_2
I0918 10:36:08.939790 27712 net.cpp:425] conv5_2 <- conv5_1
I0918 10:36:08.939810 27712 net.cpp:399] conv5_2 -> conv5_2
I0918 10:36:09.028825 27712 net.cpp:141] Setting up conv5_2
I0918 10:36:09.028865 27712 net.cpp:148] Top shape: 10 512 14 14 (1003520)
I0918 10:36:09.028883 27712 net.cpp:156] Memory required for data: 1137991920
I0918 10:36:09.028909 27712 layer_factory.hpp:77] Creating layer relu5_2
I0918 10:36:09.028933 27712 net.cpp:91] Creating Layer relu5_2
I0918 10:36:09.028950 27712 net.cpp:425] relu5_2 <- conv5_2
I0918 10:36:09.028972 27712 net.cpp:386] relu5_2 -> conv5_2 (in-place)
I0918 10:36:09.028996 27712 net.cpp:141] Setting up relu5_2
I0918 10:36:09.029014 27712 net.cpp:148] Top shape: 10 512 14 14 (1003520)
I0918 10:36:09.029029 27712 net.cpp:156] Memory required for data: 1142006000
I0918 10:36:09.029044 27712 layer_factory.hpp:77] Creating layer conv5_3
I0918 10:36:09.029072 27712 net.cpp:91] Creating Layer conv5_3
I0918 10:36:09.029088 27712 net.cpp:425] conv5_3 <- conv5_2
I0918 10:36:09.029110 27712 net.cpp:399] conv5_3 -> conv5_3
I0918 10:36:09.118186 27712 net.cpp:141] Setting up conv5_3
I0918 10:36:09.118227 27712 net.cpp:148] Top shape: 10 512 14 14 (1003520)
I0918 10:36:09.118247 27712 net.cpp:156] Memory required for data: 1146020080
I0918 10:36:09.118273 27712 layer_factory.hpp:77] Creating layer relu5_3
I0918 10:36:09.118300 27712 net.cpp:91] Creating Layer relu5_3
I0918 10:36:09.118320 27712 net.cpp:425] relu5_3 <- conv5_3
I0918 10:36:09.118345 27712 net.cpp:386] relu5_3 -> conv5_3 (in-place)
I0918 10:36:09.118369 27712 net.cpp:141] Setting up relu5_3
I0918 10:36:09.118388 27712 net.cpp:148] Top shape: 10 512 14 14 (1003520)
I0918 10:36:09.118404 27712 net.cpp:156] Memory required for data: 1150034160
I0918 10:36:09.118420 27712 layer_factory.hpp:77] Creating layer pool5
I0918 10:36:09.118450 27712 net.cpp:91] Creating Layer pool5
I0918 10:36:09.118468 27712 net.cpp:425] pool5 <- conv5_3
I0918 10:36:09.118487 27712 net.cpp:399] pool5 -> pool5
I0918 10:36:09.118556 27712 net.cpp:141] Setting up pool5
I0918 10:36:09.118580 27712 net.cpp:148] Top shape: 10 512 7 7 (250880)
I0918 10:36:09.118597 27712 net.cpp:156] Memory required for data: 1151037680
I0918 10:36:09.118613 27712 layer_factory.hpp:77] Creating layer fc6
I0918 10:36:09.118634 27712 net.cpp:91] Creating Layer fc6
I0918 10:36:09.118650 27712 net.cpp:425] fc6 <- pool5
I0918 10:36:09.118674 27712 net.cpp:399] fc6 -> fc6
I0918 10:36:12.937177 27712 net.cpp:141] Setting up fc6
I0918 10:36:12.937258 27712 net.cpp:148] Top shape: 10 4096 (40960)
I0918 10:36:12.937274 27712 net.cpp:156] Memory required for data: 1151201520
I0918 10:36:12.937307 27712 layer_factory.hpp:77] Creating layer relu6
I0918 10:36:12.937340 27712 net.cpp:91] Creating Layer relu6
I0918 10:36:12.937366 27712 net.cpp:425] relu6 <- fc6
I0918 10:36:12.937394 27712 net.cpp:386] relu6 -> fc6 (in-place)
I0918 10:36:12.937422 27712 net.cpp:141] Setting up relu6
I0918 10:36:12.937439 27712 net.cpp:148] Top shape: 10 4096 (40960)
I0918 10:36:12.937459 27712 net.cpp:156] Memory required for data: 1151365360
I0918 10:36:12.937476 27712 layer_factory.hpp:77] Creating layer drop6
I0918 10:36:12.937499 27712 net.cpp:91] Creating Layer drop6
I0918 10:36:12.937515 27712 net.cpp:425] drop6 <- fc6
I0918 10:36:12.937536 27712 net.cpp:386] drop6 -> fc6 (in-place)
I0918 10:36:12.937592 27712 net.cpp:141] Setting up drop6
I0918 10:36:12.937613 27712 net.cpp:148] Top shape: 10 4096 (40960)
I0918 10:36:12.937649 27712 net.cpp:156] Memory required for data: 1151529200
I0918 10:36:12.937666 27712 layer_factory.hpp:77] Creating layer fc7
I0918 10:36:12.937729 27712 net.cpp:91] Creating Layer fc7
I0918 10:36:12.937747 27712 net.cpp:425] fc7 <- fc6
I0918 10:36:12.937768 27712 net.cpp:399] fc7 -> fc7
I0918 10:36:13.580210 27712 net.cpp:141] Setting up fc7
I0918 10:36:13.580276 27712 net.cpp:148] Top shape: 10 4096 (40960)
I0918 10:36:13.580293 27712 net.cpp:156] Memory required for data: 1151693040
I0918 10:36:13.580317 27712 layer_factory.hpp:77] Creating layer relu7
I0918 10:36:13.580345 27712 net.cpp:91] Creating Layer relu7
I0918 10:36:13.580363 27712 net.cpp:425] relu7 <- fc7
I0918 10:36:13.580389 27712 net.cpp:386] relu7 -> fc7 (in-place)
I0918 10:36:13.580415 27712 net.cpp:141] Setting up relu7
I0918 10:36:13.580433 27712 net.cpp:148] Top shape: 10 4096 (40960)
I0918 10:36:13.580451 27712 net.cpp:156] Memory required for data: 1151856880
I0918 10:36:13.580467 27712 layer_factory.hpp:77] Creating layer drop7
I0918 10:36:13.580493 27712 net.cpp:91] Creating Layer drop7
I0918 10:36:13.580509 27712 net.cpp:425] drop7 <- fc7
I0918 10:36:13.580526 27712 net.cpp:386] drop7 -> fc7 (in-place)
I0918 10:36:13.580579 27712 net.cpp:141] Setting up drop7
I0918 10:36:13.580600 27712 net.cpp:148] Top shape: 10 4096 (40960)
I0918 10:36:13.580615 27712 net.cpp:156] Memory required for data: 1152020720
I0918 10:36:13.580631 27712 layer_factory.hpp:77] Creating layer fc7_drop7_0_split
I0918 10:36:13.580651 27712 net.cpp:91] Creating Layer fc7_drop7_0_split
I0918 10:36:13.580667 27712 net.cpp:425] fc7_drop7_0_split <- fc7
I0918 10:36:13.580684 27712 net.cpp:399] fc7_drop7_0_split -> fc7_drop7_0_split_0
I0918 10:36:13.580709 27712 net.cpp:399] fc7_drop7_0_split -> fc7_drop7_0_split_1
I0918 10:36:13.580731 27712 net.cpp:399] fc7_drop7_0_split -> fc7_drop7_0_split_2
I0918 10:36:13.580751 27712 net.cpp:399] fc7_drop7_0_split -> fc7_drop7_0_split_3
I0918 10:36:13.580832 27712 net.cpp:141] Setting up fc7_drop7_0_split
I0918 10:36:13.580853 27712 net.cpp:148] Top shape: 10 4096 (40960)
I0918 10:36:13.580870 27712 net.cpp:148] Top shape: 10 4096 (40960)
I0918 10:36:13.580886 27712 net.cpp:148] Top shape: 10 4096 (40960)
I0918 10:36:13.580904 27712 net.cpp:148] Top shape: 10 4096 (40960)
I0918 10:36:13.580919 27712 net.cpp:156] Memory required for data: 1152676080
I0918 10:36:13.580934 27712 layer_factory.hpp:77] Creating layer fc8_binary_Type_f24
I0918 10:36:13.580960 27712 net.cpp:91] Creating Layer fc8_binary_Type_f24
I0918 10:36:13.580976 27712 net.cpp:425] fc8_binary_Type_f24 <- fc7_drop7_0_split_0
I0918 10:36:13.580996 27712 net.cpp:399] fc8_binary_Type_f24 -> fc8_binary_Type_f24
I0918 10:36:13.584579 27712 net.cpp:141] Setting up fc8_binary_Type_f24
I0918 10:36:13.584604 27712 net.cpp:148] Top shape: 10 24 (240)
I0918 10:36:13.584620 27712 net.cpp:156] Memory required for data: 1152677040
I0918 10:36:13.584640 27712 layer_factory.hpp:77] Creating layer fc8_classification_Type
I0918 10:36:13.584662 27712 net.cpp:91] Creating Layer fc8_classification_Type
I0918 10:36:13.584679 27712 net.cpp:425] fc8_classification_Type <- fc7_drop7_0_split_1
I0918 10:36:13.584698 27712 net.cpp:399] fc8_classification_Type -> fc8_classification_Type
I0918 10:36:13.589300 27712 net.cpp:141] Setting up fc8_classification_Type
I0918 10:36:13.589330 27712 net.cpp:148] Top shape: 10 25 (250)
I0918 10:36:13.589347 27712 net.cpp:156] Memory required for data: 1152678040
I0918 10:36:13.589386 27712 layer_factory.hpp:77] Creating layer fc8_classification_Type_fc8_classification_Type_0_split
I0918 10:36:13.589412 27712 net.cpp:91] Creating Layer fc8_classification_Type_fc8_classification_Type_0_split
I0918 10:36:13.589432 27712 net.cpp:425] fc8_classification_Type_fc8_classification_Type_0_split <- fc8_classification_Type
I0918 10:36:13.589449 27712 net.cpp:399] fc8_classification_Type_fc8_classification_Type_0_split -> fc8_classification_Type_fc8_classification_Type_0_split_0
I0918 10:36:13.589471 27712 net.cpp:399] fc8_classification_Type_fc8_classification_Type_0_split -> fc8_classification_Type_fc8_classification_Type_0_split_1
I0918 10:36:13.589530 27712 net.cpp:141] Setting up fc8_classification_Type_fc8_classification_Type_0_split
I0918 10:36:13.589581 27712 net.cpp:148] Top shape: 10 25 (250)
I0918 10:36:13.589601 27712 net.cpp:148] Top shape: 10 25 (250)
I0918 10:36:13.589617 27712 net.cpp:156] Memory required for data: 1152680040
I0918 10:36:13.589648 27712 layer_factory.hpp:77] Creating layer fc_binary_Pattern_f24
I0918 10:36:13.589671 27712 net.cpp:91] Creating Layer fc_binary_Pattern_f24
I0918 10:36:13.589692 27712 net.cpp:425] fc_binary_Pattern_f24 <- fc7_drop7_0_split_2
I0918 10:36:13.589716 27712 net.cpp:399] fc_binary_Pattern_f24 -> fc_binary_Pattern_f24
I0918 10:36:13.593222 27712 net.cpp:141] Setting up fc_binary_Pattern_f24
I0918 10:36:13.593246 27712 net.cpp:148] Top shape: 10 24 (240)
I0918 10:36:13.593262 27712 net.cpp:156] Memory required for data: 1152681000
I0918 10:36:13.593281 27712 layer_factory.hpp:77] Creating layer fc_classification_Pattern
I0918 10:36:13.593302 27712 net.cpp:91] Creating Layer fc_classification_Pattern
I0918 10:36:13.593318 27712 net.cpp:425] fc_classification_Pattern <- fc7_drop7_0_split_3
I0918 10:36:13.593341 27712 net.cpp:399] fc_classification_Pattern -> fc_classification_Pattern
I0918 10:36:13.594483 27712 net.cpp:141] Setting up fc_classification_Pattern
I0918 10:36:13.594507 27712 net.cpp:148] Top shape: 10 7 (70)
I0918 10:36:13.594523 27712 net.cpp:156] Memory required for data: 1152681280
I0918 10:36:13.594542 27712 layer_factory.hpp:77] Creating layer accuracy_at_1_Type
I0918 10:36:13.594574 27712 net.cpp:91] Creating Layer accuracy_at_1_Type
I0918 10:36:13.594591 27712 net.cpp:425] accuracy_at_1_Type <- fc8_classification_Type_fc8_classification_Type_0_split_0
I0918 10:36:13.594609 27712 net.cpp:425] accuracy_at_1_Type <- label_data_1_split_0
…
