…
I0817 18:08:05.091558 35694 solver.cpp:91] Creating training net from net file: CIFAR-10/finetune.prototxt
I0817 18:08:05.092186 35694 net.cpp:313] The NetState phase (0) differed from the phase (1) specified by a rule in layer cifar
I0817 18:08:05.092388 35694 net.cpp:49] Initializing net from parameters: 
name: "CIFAR10_full"
state {
  phase: TRAIN
}
layer {
  name: "cifar"
  type: "Data"
  top: "data"
  top: "label"
  include {
    phase: TRAIN
  }
  transform_param {
    mirror: true
    mean_file: "CIFAR-10/mean.binaryproto"
  }
  data_param {
    source: "CIFAR-10/cifar10_train_lmdb"
    batch_size: 200
    backend: LMDB
  }
}
layer {
  name: "conv1"
  type: "Convolution"
  bottom: "data"
  top: "conv1"
  param {
    lr_mult: 1
    decay_mult: 1
  }
  param {
    lr_mult: 2
    decay_mult: 0
  }
  convolution_param {
    num_output: 32
    pad: 2
    kernel_size: 5
    stride: 1
    weight_filler {
      type: "xavier"
    }
    bias_filler {
      type: "constant"
    }
  }
}
layer {
  name: "pool1"
  type: "Pooling"
  bottom: "conv1"
  top: "pool1"
  pooling_param {
    pool: MAX
    kernel_size: 3
    stride: 2
  }
}
layer {
  name: "relu1"
  type: "ReLU"
  bottom: "pool1"
  top: "pool1"
}
layer {
  name: "norm1"
  type: "LRN"
  bottom: "pool1"
  top: "norm1"
  lrn_param {
    local_size: 3
    alpha: 5e-05
    beta: 0.75
    norm_region: WITHIN_CHANNEL
  }
}
layer {
  name: "conv2"
  type: "Convolution"
  bottom: "norm1"
  top: "conv2"
  param {
    lr_mult: 1
    decay_mult: 1
  }
  param {
    lr_mult: 2
    decay_mult: 0
  }
  convolution_param {
    num_output: 32
    pad: 2
    kernel_size: 5
    stride: 1
    weight_filler {
      type: "xavier"
    }
    bias_filler {
      type: "constant"
    }
  }
}
layer {
  name: "pool2"
  type: "Pooling"
  bottom: "conv2"
  top: "pool2"
  pooling_param {
    pool: AVE
    kernel_size: 3
    stride: 2
  }
}
layer {
  name: "relu2"
  type: "ReLU"
  bottom: "pool2"
  top: "pool2"
}
layer {
  name: "norm2"
  type: "LRN"
  bottom: "pool2"
  top: "norm2"
  lrn_param {
    local_size: 3
    alpha: 5e-05
    beta: 0.75
    norm_region: WITHIN_CHANNEL
  }
}
layer {
  name: "conv3"
  type: "Convolution"
  bottom: "norm2"
  top: "conv3"
  param {
    lr_mult: 1
    decay_mult: 1
  }
  param {
    lr_mult: 2
    decay_mult: 0
  }
  convolution_param {
    num_output: 64
    pad: 2
    kernel_size: 5
    stride: 1
    weight_filler {
      type: "xavier"
    }
    bias_filler {
      type: "constant"
    }
  }
}
layer {
  name: "relu3"
  type: "ReLU"
  bottom: "conv3"
  top: "conv3"
}
layer {
  name: "pool3"
  type: "Pooling"
  bottom: "conv3"
  top: "pool3"
  pooling_param {
    pool: AVE
    kernel_size: 3
    stride: 2
  }
}
layer {
  name: "ip2"
  type: "InnerProduct"
  bottom: "pool3"
  top: "ip2"
  param {
    lr_mult: 1
    decay_mult: 1
  }
  param {
    lr_mult: 2
    decay_mult: 0
  }
  inner_product_param {
    num_output: 500
    weight_filler {
      type: "xavier"
    }
    bias_filler {
      type: "constant"
    }
  }
}
layer {
  name: "relu_ip2"
  type: "ReLU"
  bottom: "ip2"
  top: "ip2"
}
layer {
  name: "ip1_f48"
  type: "InnerProduct"
  bottom: "ip2"
  top: "ip1_f48"
  param {
    lr_mult: 10
    decay_mult: 1
  }
  param {
    lr_mult: 20
    decay_mult: 0
  }
  inner_product_param {
    num_output: 48
    weight_filler {
      type: "xavier"
    }
    bias_filler {
      type: "constant"
    }
  }
}
layer {
  name: "loss"
  type: "HashingLoss"
  bottom: "ip1_f48"
  bottom: "label"
  top: "loss"
  hashing_loss_param {
    bi_margin: 96
    tradeoff: 0.01
  }
}
I0817 18:08:05.093387 35694 layer_factory.hpp:77] Creating layer cifar
I0817 18:08:05.094195 35694 net.cpp:91] Creating Layer cifar
I0817 18:08:05.094350 35694 net.cpp:399] cifar -> data
I0817 18:08:05.094460 35694 net.cpp:399] cifar -> label
I0817 18:08:05.094506 35694 data_transformer.cpp:25] Loading mean file from: CIFAR-10/mean.binaryproto
I0817 18:08:05.095417 35698 db_lmdb.cpp:38] Opened lmdb CIFAR-10/cifar10_train_lmdb
I0817 18:08:05.111610 35694 data_layer.cpp:41] output data size: 200,3,32,32
I0817 18:08:05.117905 35694 net.cpp:141] Setting up cifar
I0817 18:08:05.117962 35694 net.cpp:148] Top shape: 200 3 32 32 (614400)
I0817 18:08:05.117983 35694 net.cpp:148] Top shape: 200 1 1 1 (200)
I0817 18:08:05.118000 35694 net.cpp:156] Memory required for data: 2458400
I0817 18:08:05.118022 35694 layer_factory.hpp:77] Creating layer conv1
I0817 18:08:05.118067 35694 net.cpp:91] Creating Layer conv1
I0817 18:08:05.118091 35694 net.cpp:425] conv1 <- data
I0817 18:08:05.118129 35694 net.cpp:399] conv1 -> conv1
I0817 18:08:05.119179 35694 net.cpp:141] Setting up conv1
I0817 18:08:05.119210 35694 net.cpp:148] Top shape: 200 32 32 32 (6553600)
I0817 18:08:05.119226 35694 net.cpp:156] Memory required for data: 28672800
I0817 18:08:05.119259 35694 layer_factory.hpp:77] Creating layer pool1
I0817 18:08:05.119287 35694 net.cpp:91] Creating Layer pool1
I0817 18:08:05.119307 35694 net.cpp:425] pool1 <- conv1
I0817 18:08:05.119329 35694 net.cpp:399] pool1 -> pool1
I0817 18:08:05.119544 35694 net.cpp:141] Setting up pool1
I0817 18:08:05.119571 35694 net.cpp:148] Top shape: 200 32 16 16 (1638400)
I0817 18:08:05.119586 35694 net.cpp:156] Memory required for data: 35226400
I0817 18:08:05.119601 35694 layer_factory.hpp:77] Creating layer relu1
I0817 18:08:05.119624 35694 net.cpp:91] Creating Layer relu1
I0817 18:08:05.119652 35694 net.cpp:425] relu1 <- pool1
I0817 18:08:05.119668 35694 net.cpp:386] relu1 -> pool1 (in-place)
I0817 18:08:05.119694 35694 net.cpp:141] Setting up relu1
I0817 18:08:05.119714 35694 net.cpp:148] Top shape: 200 32 16 16 (1638400)
I0817 18:08:05.119727 35694 net.cpp:156] Memory required for data: 41780000
I0817 18:08:05.119741 35694 layer_factory.hpp:77] Creating layer norm1
I0817 18:08:05.119766 35694 net.cpp:91] Creating Layer norm1
I0817 18:08:05.119783 35694 net.cpp:425] norm1 <- pool1
I0817 18:08:05.119809 35694 net.cpp:399] norm1 -> norm1
I0817 18:08:05.119969 35694 net.cpp:141] Setting up norm1
I0817 18:08:05.119997 35694 net.cpp:148] Top shape: 200 32 16 16 (1638400)
I0817 18:08:05.120012 35694 net.cpp:156] Memory required for data: 48333600
I0817 18:08:05.120025 35694 layer_factory.hpp:77] Creating layer conv2
I0817 18:08:05.120059 35694 net.cpp:91] Creating Layer conv2
I0817 18:08:05.120075 35694 net.cpp:425] conv2 <- norm1
I0817 18:08:05.120097 35694 net.cpp:399] conv2 -> conv2
I0817 18:08:05.121237 35694 net.cpp:141] Setting up conv2
I0817 18:08:05.121268 35694 net.cpp:148] Top shape: 200 32 16 16 (1638400)
I0817 18:08:05.121292 35694 net.cpp:156] Memory required for data: 54887200
I0817 18:08:05.121317 35694 layer_factory.hpp:77] Creating layer pool2
I0817 18:08:05.121337 35694 net.cpp:91] Creating Layer pool2
I0817 18:08:05.121352 35694 net.cpp:425] pool2 <- conv2
I0817 18:08:05.121373 35694 net.cpp:399] pool2 -> pool2
I0817 18:08:05.121412 35694 net.cpp:141] Setting up pool2
I0817 18:08:05.121438 35694 net.cpp:148] Top shape: 200 32 8 8 (409600)
I0817 18:08:05.121454 35694 net.cpp:156] Memory required for data: 56525600
I0817 18:08:05.121469 35694 layer_factory.hpp:77] Creating layer relu2
I0817 18:08:05.121485 35694 net.cpp:91] Creating Layer relu2
I0817 18:08:05.121505 35694 net.cpp:425] relu2 <- pool2
I0817 18:08:05.121520 35694 net.cpp:386] relu2 -> pool2 (in-place)
I0817 18:08:05.121537 35694 net.cpp:141] Setting up relu2
I0817 18:08:05.121558 35694 net.cpp:148] Top shape: 200 32 8 8 (409600)
I0817 18:08:05.121573 35694 net.cpp:156] Memory required for data: 58164000
I0817 18:08:05.121587 35694 layer_factory.hpp:77] Creating layer norm2
I0817 18:08:05.121609 35694 net.cpp:91] Creating Layer norm2
I0817 18:08:05.121625 35694 net.cpp:425] norm2 <- pool2
I0817 18:08:05.121642 35694 net.cpp:399] norm2 -> norm2
I0817 18:08:05.121801 35694 net.cpp:141] Setting up norm2
I0817 18:08:05.121829 35694 net.cpp:148] Top shape: 200 32 8 8 (409600)
I0817 18:08:05.121846 35694 net.cpp:156] Memory required for data: 59802400
I0817 18:08:05.121863 35694 layer_factory.hpp:77] Creating layer conv3
I0817 18:08:05.121889 35694 net.cpp:91] Creating Layer conv3
I0817 18:08:05.121906 35694 net.cpp:425] conv3 <- norm2
I0817 18:08:05.121927 35694 net.cpp:399] conv3 -> conv3
I0817 18:08:05.122601 35694 net.cpp:141] Setting up conv3
I0817 18:08:05.122632 35694 net.cpp:148] Top shape: 200 64 8 8 (819200)
I0817 18:08:05.122648 35694 net.cpp:156] Memory required for data: 63079200
I0817 18:08:05.122670 35694 layer_factory.hpp:77] Creating layer relu3
I0817 18:08:05.122689 35694 net.cpp:91] Creating Layer relu3
I0817 18:08:05.122704 35694 net.cpp:425] relu3 <- conv3
I0817 18:08:05.122725 35694 net.cpp:386] relu3 -> conv3 (in-place)
I0817 18:08:05.122743 35694 net.cpp:141] Setting up relu3
I0817 18:08:05.122761 35694 net.cpp:148] Top shape: 200 64 8 8 (819200)
I0817 18:08:05.122776 35694 net.cpp:156] Memory required for data: 66356000
I0817 18:08:05.122793 35694 layer_factory.hpp:77] Creating layer pool3
I0817 18:08:05.122809 35694 net.cpp:91] Creating Layer pool3
I0817 18:08:05.122838 35694 net.cpp:425] pool3 <- conv3
I0817 18:08:05.122859 35694 net.cpp:399] pool3 -> pool3
I0817 18:08:05.122898 35694 net.cpp:141] Setting up pool3
I0817 18:08:05.122920 35694 net.cpp:148] Top shape: 200 64 4 4 (204800)
I0817 18:08:05.122936 35694 net.cpp:156] Memory required for data: 67175200
I0817 18:08:05.122949 35694 layer_factory.hpp:77] Creating layer ip2
I0817 18:08:05.122979 35694 net.cpp:91] Creating Layer ip2
I0817 18:08:05.122999 35694 net.cpp:425] ip2 <- pool3
I0817 18:08:05.123020 35694 net.cpp:399] ip2 -> ip2
I0817 18:08:05.128620 35694 net.cpp:141] Setting up ip2
I0817 18:08:05.128654 35694 net.cpp:148] Top shape: 200 500 (100000)
I0817 18:08:05.128672 35694 net.cpp:156] Memory required for data: 67575200
I0817 18:08:05.128693 35694 layer_factory.hpp:77] Creating layer relu_ip2
I0817 18:08:05.128713 35694 net.cpp:91] Creating Layer relu_ip2
I0817 18:08:05.128727 35694 net.cpp:425] relu_ip2 <- ip2
I0817 18:08:05.128744 35694 net.cpp:386] relu_ip2 -> ip2 (in-place)
I0817 18:08:05.128763 35694 net.cpp:141] Setting up relu_ip2
I0817 18:08:05.128780 35694 net.cpp:148] Top shape: 200 500 (100000)
I0817 18:08:05.128794 35694 net.cpp:156] Memory required for data: 67975200
I0817 18:08:05.128808 35694 layer_factory.hpp:77] Creating layer ip1_f48
I0817 18:08:05.128835 35694 net.cpp:91] Creating Layer ip1_f48
I0817 18:08:05.128852 35694 net.cpp:425] ip1_f48 <- ip2
I0817 18:08:05.128872 35694 net.cpp:399] ip1_f48 -> ip1_f48
I0817 18:08:05.129243 35694 net.cpp:141] Setting up ip1_f48
I0817 18:08:05.129271 35694 net.cpp:148] Top shape: 200 48 (9600)
I0817 18:08:05.129286 35694 net.cpp:156] Memory required for data: 68013600
I0817 18:08:05.129308 35694 layer_factory.hpp:77] Creating layer loss
I0817 18:08:05.129333 35694 net.cpp:91] Creating Layer loss
I0817 18:08:05.129348 35694 net.cpp:425] loss <- ip1_f48
I0817 18:08:05.129364 35694 net.cpp:425] loss <- label
I0817 18:08:05.129382 35694 net.cpp:399] loss -> loss
I0817 18:08:05.129480 35694 net.cpp:141] Setting up loss
…
