…
I0824 17:40:54.149247  9024 net.cpp:313] The NetState phase (0) differed from the phase (1) specified by a rule in layer data
I0824 17:40:54.150471  9024 net.cpp:49] Initializing net from parameters: 
name: "docomo_ResNet50"
state {
  phase: TRAIN
}
layer {
  name: "data"
  type: "Data"
  top: "data"
  top: "label"
  include {
    phase: TRAIN
  }
  transform_param {
    mirror: true
    crop_size: 224
    mean_value: 104
    mean_value: 117
    mean_value: 123
  }
  data_param {
    source: "FASHION/fashion_train_lmdb"
    batch_size: 10
    backend: LMDB
  }
}
layer {
  name: "conv1"
  type: "Convolution"
  bottom: "data"
  top: "conv1"
  param {
    lr_mult: 1
    decay_mult: 1
  }
  param {
    lr_mult: 2
    decay_mult: 0
  }
  convolution_param {
    num_output: 64
    pad: 3
    kernel_size: 7
    stride: 2
    weight_filler {
      type: "xavier"
      std: 0.01
    }
    bias_filler {
      type: "constant"
      value: 0
    }
  }
}
layer {
  name: "bn_conv1"
  type: "BatchNorm"
  bottom: "conv1"
  top: "conv1"
  batch_norm_param {
    use_global_stats: true
  }
}
layer {
  name: "scale_conv1"
  type: "Scale"
  bottom: "conv1"
  top: "conv1"
  scale_param {
    bias_term: true
  }
}
layer {
  name: "conv1_relu"
  type: "ReLU"
  bottom: "conv1"
  top: "conv1"
}
layer {
  name: "pool1"
  type: "Pooling"
  bottom: "conv1"
  top: "pool1"
  pooling_param {
    pool: MAX
    kernel_size: 3
    stride: 2
  }
}
layer {
  name: "res2a_branch1"
  type: "Convolution"
  bottom: "pool1"
  top: "res2a_branch1"
  param {
    lr_mult: 1
    decay_mult: 1
  }
  convolution_param {
    num_output: 256
    bias_term: false
    pad: 0
    kernel_size: 1
    stride: 1
    weight_filler {
      type: "xavier"
      std: 0.01
    }
  }
}
layer {
  name: "bn2a_branch1"
  type: "BatchNorm"
  bottom: "res2a_branch1"
  top: "res2a_branch1"
  batch_norm_param {
    use_global_stats: true
  }
}
layer {
  name: "scale2a_branch1"
  type: "Scale"
  bottom: "res2a_branch1"
  top: "res2a_branch1"
  scale_param {
    bias_term: true
  }
}
layer {
  name: "res2a_branch2a"
  type: "Convolution"
  bottom: "pool1"
  top: "res2a_branch2a"
  param {
    lr_mult: 1
    decay_mult: 1
  }
  convolution_param {
    num_output: 64
    bias_term: false
    pad: 0
    kernel_size: 1
    stride: 1
    weight_filler {
      type: "xavier"
      std: 0.01
    }
  }
}
layer {
  name: "bn2a_branch2a"
  type: "BatchNorm"
  bottom: "res2a_branch2a"
  top: "res2a_branch2a"
  batch_norm_param {
    use_global_stats: true
  }
}
layer {
  name: "scale2a_branch2a"
  type: "Scale"
  bottom: "res2a_branch2a"
  top: "res2a_branch2a"
  scale_param {
    bias_term: true
  }
}
layer {
  name: "res2a_branch2a_relu"
  type: "ReLU"
  bottom: "res2a_branch2a"
  top: "res2a_branch2a"
}
layer {
  name: "res2a_branch2b"
  type: "Convolution"
  bottom: "res2a_branch2a"
  top: "res2a_branch2b"
  param {
    lr_mult: 1
    decay_mult: 1
  }
  convolution_param {
    num_output: 64
    bias_term: false
    pad: 1
    kernel_size: 3
    stride: 1
    weight_filler {
      type: "xavier"
      std: 0.01
    }
  }
}
layer {
  name: "bn2a_branch2b"
  type: "BatchNorm"
  bottom: "res2a_branch2b"
  top: "res2a_branch2b"
  batch_norm_param {
    use_global_stats: true
  }
}
layer {
  name: "scale2a_branch2b"
  type: "Scale"
  bottom: "res2a_branch2b"
  top: "res2a_branch2b"
  scale_param {
    bias_term: true
  }
}
layer {
  name: "res2a_branch2b_relu"
  type: "ReLU"
  bottom: "res2a_branch2b"
  top: "res2a_branch2b"
}
layer {
  name: "res2a_branch2c"
  type: "Convolution"
  bottom: "res2a_branch2b"
  top: "res2a_branch2c"
  param {
    lr_mult: 1
    decay_mult: 1
  }
  convolution_param {
    num_output: 256
    bias_term: false
    pad: 0
    kernel_size: 1
    stride: 1
    weight_filler {
      type: "xavier"
      std: 0.01
    }
  }
}
layer {
  name: "bn2a_branch2c"
  type: "BatchNorm"
  bottom: "res2a_branch2c"
  top: "res2a_branch2c"
  batch_norm_param {
    use_global_stats: true
  }
}
layer {
  name: "scale2a_branch2c"
  type: "Scale"
  bottom: "res2a_branch2c"
  top: "res2a_branch2c"
  scale_param {
    bias_term: true
  }
}
layer {
  name: "res2a"
  type: "Eltwise"
  bottom: "res2a_branch1"
  bottom: "res2a_branch2c"
  top: "res2a"
  eltwise_param {
    operation: SUM
  }
}
layer {
  name: "res2a_relu"
  type: "ReLU"
  bottom: "res2a"
  top: "res2a"
}
layer {
  name: "res2b_branch2a"
  type: "Convolution"
  bottom: "res2a"
  top: "res2b_branch2a"
  param {
    lr_mult: 1
    decay_mult: 1
  }
  convolution_param {
    num_output: 64
    bias_term: false
    pad: 0
    kernel_size: 1
    stride: 1
    weight_filler {
      type: "xavier"
      std: 0.01
    }
  }
}
layer {
  name: "bn2b_branch2a"
  type: "BatchNorm"
  bottom: "res2b_branch2a"
  top: "res2b_branch2a"
  batch_norm_param {
    use_global_stats: true
  }
}
layer {
  name: "scale2b_branch2a"
  type: "Scale"
  bottom: "res2b_branch2a"
  top: "res2b_branch2a"
  scale_param {
    bias_term: true
  }
}
layer {
  name: "res2b_branch2a_relu"
  type: "ReLU"
  bottom: "res2b_branch2a"
  top: "res2b_branch2a"
}
layer {
  name: "res2b_branch2b"
  type: "Convolution"
  bottom: "res2b_branch2a"
  top: "res2b_branch2b"
  param {
    lr_mult: 1
    decay_mult: 1
  }
  convolution_param {
    num_output: 64
    bias_term: false
    pad: 1
    kernel_size: 3
    stride: 1
    weight_filler {
      type: "xavier"
      std: 0.01
    }
  }
}
layer {
  name: "bn2b_branch2b"
  type: "BatchNorm"
  bottom: "res2b_branch2b"
  top: "res2b_branch2b"
  batch_norm_param {
    use_global_stats: true
  }
}
layer {
  name: "scale2b_branch2b"
  type: "Scale"
  bottom: "res2b_branch2b"
  top: "res2b_branch2b"
  scale_param {
    bias_term: true
  }
}
layer {
  name: "res2b_branch2b_relu"
  type: "ReLU"
  bottom: "res2b_branch2b"
  top: "res2b_branch2b"
}
layer {
  name: "res2b_branch2c"
  type: "Convolution"
  bottom: "res2b_branch2b"
  top: "res2b_branch2c"
  param {
    lr_mult: 1
    decay_mult: 1
  }
  convolution_param {
    num_output: 256
    bias_term: false
    pad: 0
    kernel_size: 1
    stride: 1
    weight_filler {
      type: "xavier"
      std: 0.01
    }
  }
}
layer {
  name: "bn2b_branch2c"
  type: "BatchNorm"
  bottom: "res2b_branch2c"
  top: "res2b_branch2c"
  batch_norm_param {
    use_global_stats: true
  }
}
layer {
  name: "scale2b_branch2c"
  type: "Scale"
  bottom: "res2b_branch2c"
  top: "res2b_branch2c"
  scale_param {
    bias_term: true
  }
}
layer {
  name: "res2b"
  type: "Eltwise"
  bottom: "res2a"
  bottom: "res2b_branch2c"
  top: "res2b"
  eltwise_param {
    operation: SUM
  }
}
layer {
  name: "res2b_relu"
  type: "ReLU"
  bottom: "res2b"
  top: "res2b"
}
layer {
  name: "res2c_branch2a"
  type: "Convolution"
  bottom: "res2b"
  top: "res2c_branch2a"
  param {
    lr_mult: 1
    decay_mult: 1
  }
  convolution_param {
    num_output: 64
    bias_term: false
    pad: 0
    kernel_size: 1
    stride: 1
    weight_filler {
      type: "xavier"
      std: 0.01
    }
  }
}
layer {
  name: "bn2c_branch2a"
  type: "BatchNorm"
  bottom: "res2c_branch2a"
  top: "res2c_branch2a"
  batch_norm_param {
    use_global_stats: true
  }
}
layer {
  name: "scale2c_branch2a"
  type: "Scale"
  bottom: "res2c_branch2a"
  top: "res2c_branch2a"
  scale_param {
    bias_term: true
  }
}
layer {
  name: "res2c_branch2a_relu"
  type: "ReLU"
  bottom: "res2c_branch2a"
  top: "res2c_branch2a"
}
layer {
  name: "res2c_branch2b"
  type: "Convolution"
  bottom: "res2c_branch2a"
  top: "res2c_branch2b"
  param {
    lr_mult: 1
    decay_mult: 1
  }
  convolution_param {
    num_output: 64
    bias_term: false
    pad: 1
    kernel_size: 3
    stride: 1
    weight_filler {
      type: "xavier"
      std: 0.01
    }
  }
}
layer {
  name: "bn2c_branch2b"
  type: "BatchNorm"
  bottom: "res2c_branch2b"
  top: "res2c_branch2b"
  batch_norm_param {
    use_global_stats: true
  }
}
layer {
  name: "scale2c_branch2b"
  type: "Scale"
  bottom: "res2c_branch2b"
  top: "res2c_branch2b"
  scale_param {
    bias_term: true
  }
}
layer {
  name: "res2c_branch2b_relu"
  type: "ReLU"
  bottom: "res2c_branch2b"
  top: "res2c_branch2b"
}
layer {
  name: "res2c_branch2c"
  type: "Convolution"
  bottom: "res2c_branch2b"
  top: "res2c_branch2c"
  param {
    lr_mult: 1
    decay_mult: 1
  }
  convolution_param {
    num_output: 256
    bias_term: false
    pad: 0
    kernel_size: 1
    stride: 1
    weight_filler {
      type: "xavier"
      std: 0.01
    }
  }
}
layer {
  name: "bn2c_branch2c"
  type: "BatchNorm"
  bottom: "res2c_branch2c"
  top: "res2c_branch2c"
  batch_norm_param {
    use_global_stats: true
  }
}
layer {
  name: "scale2c_branch2c"
  type: "Scale"
  bottom: "res2c_branch2c"
  top: "res2c_branch2c"
  scale_param {
    bias_term: true
  }
}
layer {
  name: "res2c"
  type: "Eltwise"
  bottom: "res2b"
  bottom: "res2c_branch2c"
  top: "res2c"
  eltwise_param {
    operation: SUM
  }
}
layer {
  name: "res2c_relu"
  type: "ReLU"
  bottom: "res2c"
  top: "res2c"
}
layer {
  name: "res3a_branch1"
  type: "Convolution"
  bottom: "res2c"
  top: "res3a_branch1"
  param {
    lr_mult: 1
    decay_mult: 1
  }
  convolution_param {
    num_output: 512
    bias_term: false
    pad: 0
    kernel_size: 1
    stride: 2
    weight_filler {
      type: "xavier"
      std: 0.01
    }
  }
}
layer {
  name: "bn3a_branch1"
  type: "BatchNorm"
  bottom: "res3a_branch1"
  top: "res3a_branch1"
  batch_norm_param {
    use_global_stats: true
  }
}
layer {
  name: "scale3a_branch1"
  type: "Scale"
  bottom: "res3a_branch1"
  top: "res3a_branch1"
  scale_param {
    bias_term: true
  }
}
layer {
  name: "res3a_branch2a"
  type: "Convolution"
  bottom: "res2c"
  top: "res3a_branch2a"
  param {
    lr_mult: 1
    decay_mult: 1
  }
  convolution_param {
    num_output: 128
    bias_term: false
    pad: 0
    kernel_size: 1
    stride: 2
    weight_filler {
      type: "xavier"
      std: 0.01
    }
  }
}
layer {
  name: "bn3a_branch2a"
  type: "BatchNorm"
  bottom: "res3a_branch2a"
  top: "res3a_branch2a"
  batch_norm_param {
    use_global_stats: true
  }
}
layer {
  name: "scale3a_branch2a"
  type: "Scale"
  bottom: "res3a_branch2a"
  top: "res3a_branch2a"
  scale_param {
    bias_term: true
  }
}
layer {
  name: "res3a_branch2a_relu"
  type: "ReLU"
  bottom: "res3a_branch2a"
  top: "res3a_branch2a"
}
layer {
  name: "res3a_branch2b"
  type: "Convolution"
  bottom: "res3a_branch2a"
  top: "res3a_branch2b"
  param {
    lr_mult: 1
    decay_mult: 1
  }
  convolution_param {
    num_output: 128
    bias_term: false
    pad: 1
    kernel_size: 3
    stride: 1
    weight_filler {
      type: "xavier"
      std: 0.01
    }
  }
}
layer {
  name: "bn3a_branch2b"
  type: "BatchNorm"
  bottom: "res3a_branch2b"
  top: "res3a_branch2b"
  batch_norm_param {
    use_global_stats: true
  }
}
layer {
  name: "scale3a_branch2b"
  type: "Scale"
  bottom: "res3a_branch2b"
  top: "res3a_branch2b"
  scale_param {
    bias_term: true
  }
}
layer {
  name: "res3a_branch2b_relu"
  type: "ReLU"
  bottom: "res3a_branch2b"
  top: "res3a_branch2b"
}
layer {
  name: "res3a_branch2c"
  type: "Convolution"
  bottom: "res3a_branch2b"
  top: "res3a_branch2c"
  param {
    lr_mult: 1
    decay_mult: 1
  }
  convolution_param {
    num_output: 512
    bias_term: false
    pad: 0
    kernel_size: 1
    stride: 1
    weight_filler {
      type: "xavier"
      std: 0.01
    }
  }
}
layer {
  name: "bn3a_branch2c"
  type: "BatchNorm"
  bottom: "res3a_branch2c"
  top: "res3a_branch2c"
  batch_norm_param {
    use_global_stats: true
  }
}
layer {
  name: "scale3a_branch2c"
  type: "Scale"
  bottom: "res3a_branch2c"
  top: "res3a_branch2c"
  scale_param {
    bias_term: true
  }
}
layer {
  name: "res3a"
  type: "Eltwise"
  bottom: "res3a_branch1"
  bottom: "res3a_branch2c"
  top: "res3a"
}
layer {
  name: "res3a_relu"
  type: "ReLU"
  bottom: "res3a"
  top: "res3a"
}
layer {
  name: "res3b_branch2a"
  type: "Convolution"
  bottom: "res3a"
  top: "res3b_branch2a"
  param {
    lr_mult: 1
    decay_mult: 1
  }
  convolution_param {
    num_output: 128
    bias_term: false
    pad: 0
    kernel_size: 1
    stride: 1
    weight_filler {
      type: "xavier"
      std: 0.01
    }
  }
}
layer {
  name: "bn3b_branch2a"
  type: "BatchNorm"
  bottom: "res3b_branch2a"
  top: "res3b_branch2a"
  batch_norm_param {
    use_global_stats: true
  }
}
layer {
  name: "scale3b_branch2a"
  type: "Scale"
  bottom: "res3b_branch2a"
  top: "res3b_branch2a"
  scale_param {
    bias_term: true
  }
}
layer {
  name: "res3b_branch2a_relu"
  type: "ReLU"
  bottom: "res3b_branch2a"
  top: "res3b_branch2a"
}
layer {
  name: "res3b_branch2b"
  type: "Convolution"
  bottom: "res3b_branch2a"
  top: "res3b_branch2b"
  param {
    lr_mult: 1
    decay_mult: 1
  }
  convolution_param {
    num_output: 128
    bias_term: false
    pad: 1
    kernel_size: 3
    stride: 1
    weight_filler {
      type: "xavier"
      std: 0.01
    }
  }
}
layer {
  name: "bn3b_branch2b"
  type: "BatchNorm"
  bottom: "res3b_branch2b"
  top: "res3b_branch2b"
  batch_norm_param {
    use_global_stats: true
  }
}
layer {
  name: "scale3b_branch2b"
  type: "Scale"
  bottom: "res3b_branch2b"
  top: "res3b_branch2b"
  scale_param {
    bias_term: true
  }
}
layer {
  name: "res3b_branch2b_relu"
  type: "ReLU"
  bottom: "res3b_branch2b"
  top: "res3b_branch2b"
}
layer {
  name: "res3b_branch2c"
  type: "Convolution"
  bottom: "res3b_branch2b"
  top: "res3b_branch2c"
  param {
    lr_mult: 1
    decay_mult: 1
  }
  convolution_param {
    num_output: 512
    bias_term: false
    pad: 0
    kernel_size: 1
    stride: 1
    weight_filler {
      type: "xavier"
      std: 0.01
    }
  }
}
layer {
  name: "bn3b_branch2c"
  type: "BatchNorm"
  bottom: "res3b_branch2c"
  top: "res3b_branch2c"
  batch_norm_param {
    use_global_stats: true
  }
}
layer {
  name: "scale3b_branch2c"
  type: "Scale"
  bottom: "res3b_branch2c"
  top: "res3b_branch2c"
  scale_param {
    bias_term: true
  }
}
layer {
  name: "res3b"
  type: "Eltwise"
  bottom: "res3a"
  bottom: "res3b_branch2c"
  top: "res3b"
}
layer {
  name: "res3b_relu"
  type: "ReLU"
  bottom: "res3b"
  top: "res3b"
}
layer {
  name: "res3c_branch2a"
  type: "Convolution"
  bottom: "res3b"
  top: "res3c_branch2a"
  param {
    lr_mult: 1
    decay_mult: 1
  }
  convolution_param {
    num_output: 128
    bias_term: false
    pad: 0
    kernel_size: 1
    stride: 1
    weight_filler {
      type: "xavier"
      std: 0.01
    }
  }
}
layer {
  name: "bn3c_branch2a"
  type: "BatchNorm"
  bottom: "res3c_branch2a"
  top: "res3c_branch2a"
  batch_norm_param {
    use_global_stats: true
  }
}
layer {
  name: "scale3c_branch2a"
  type: "Scale"
  bottom: "res3c_branch2a"
  top: "res3c_branch2a"
  scale_param {
    bias_term: true
  }
}
layer {
  name: "res3c_branch2a_relu"
  type: "ReLU"
  bottom: "res3c_branch2a"
  top: "res3c_branch2a"
}
layer {
  name: "res3c_branch2b"
  type: "Convolution"
  bottom: "res3c_branch2a"
  top: "res3c_branch2b"
  param {
    lr_mult: 1
    decay_mult: 1
  }
  convolution_param {
    num_output: 128
    bias_term: false
    pad: 1
    kernel_size: 3
    stride: 1
    weight_filler {
      type: "xavier"
      std: 0.01
    }
  }
}
layer {
  name: "bn3c_branch2b"
  type: "BatchNorm"
  bottom: "res3c_branch2b"
  top: "res3c_branch2b"
  batch_norm_param {
    use_global_stats: true
  }
}
layer {
  name: "scale3c_branch2b"
  type: "Scale"
  bottom: "res3c_branch2b"
  top: "res3c_branch2b"
  scale_param {
    bias_term: true
  }
}
layer {
  name: "res3c_branch2b_relu"
  type: "ReLU"
  bottom: "res3c_branch2b"
  top: "res3c_branch2b"
}
layer {
  name: "res3c_branch2c"
  type: "Convolution"
  bottom: "res3c_branch2b"
  top: "res3c_branch2c"
  param {
    lr_mult: 1
    decay_mult: 1
  }
  convolution_param {
    num_output: 512
    bias_term: false
    pad: 0
    kernel_size: 1
    stride: 1
    weight_filler {
      type: "xavier"
      std: 0.01
    }
  }
}
layer {
  name: "bn3c_branch2c"
  type: "BatchNorm"
  bottom: "res3c_branch2c"
  top: "res3c_branch2c"
  batch_norm_param {
    use_global_stats: true
  }
}
layer {
  name: "scale3c_branch2c"
  type: "Scale"
  bottom: "res3c_branch2c"
  top: "res3c_branch2c"
  scale_param {
    bias_term: true
  }
}
layer {
  name: "res3c"
  type: "Eltwise"
  bottom: "res3b"
  bottom: "res3c_branch2c"
  top: "res3c"
}
layer {
  name: "res3c_relu"
  type: "ReLU"
  bottom: "res3c"
  top: "res3c"
}
layer {
  name: "res3d_branch2a"
  type: "Convolution"
  bottom: "res3c"
  top: "res3d_branch2a"
  param {
    lr_mult: 1
    decay_mult: 1
  }
  convolution_param {
    num_output: 128
    bias_term: false
    pad: 0
    kernel_size: 1
    stride: 1
    weight_filler {
      type: "xavier"
      std: 0.01
    }
  }
}
layer {
  name: "bn3d_branch2a"
  type: "BatchNorm"
  bottom: "res3d_branch2a"
  top: "res3d_branch2a"
  batch_norm_param {
    use_global_stats: true
  }
}
layer {
  name: "scale3d_branch2a"
  type: "Scale"
  bottom: "res3d_branch2a"
  top: "res3d_branch2a"
  scale_param {
    bias_term: true
  }
}
layer {
  name: "res3d_branch2a_relu"
  type: "ReLU"
  bottom: "res3d_branch2a"
  top: "res3d_branch2a"
}
layer {
  name: "res3d_branch2b"
  type: "Convolution"
  bottom: "res3d_branch2a"
  top: "res3d_branch2b"
  param {
    lr_mult: 1
    decay_mult: 1
  }
  convolution_param {
    num_output: 128
    bias_term: false
    pad: 1
    kernel_size: 3
    stride: 1
    weight_filler {
      type: "xavier"
      std: 0.01
    }
  }
}
layer {
  name: "bn3d_branch2b"
  type: "BatchNorm"
  bottom: "res3d_branch2b"
  top: "res3d_branch2b"
  batch_norm_param {
    use_global_stats: true
  }
}
layer {
  name: "scale3d_branch2b"
  type: "Scale"
  bottom: "res3d_branch2b"
  top: "res3d_branch2b"
  scale_param {
    bias_term: true
  }
}
layer {
  name: "res3d_branch2b_relu"
  type: "ReLU"
  bottom: "res3d_branch2b"
  top: "res3d_branch2b"
}
layer {
  name: "res3d_branch2c"
  type: "Convolution"
  bottom: "res3d_branch2b"
  top: "res3d_branch2c"
  param {
    lr_mult: 1
    decay_mult: 1
  }
  convolution_param {
    num_output: 512
    bias_term: false
    pad: 0
    kernel_size: 1
    stride: 1
    weight_filler {
      type: "xavier"
      std: 0.01
    }
  }
}
layer {
  name: "bn3d_branch2c"
  type: "BatchNorm"
  bottom: "res3d_branch2c"
  top: "res3d_branch2c"
  batch_norm_param {
    use_global_stats: true
  }
}
layer {
  name: "scale3d_branch2c"
  type: "Scale"
  bottom: "res3d_branch2c"
  top: "res3d_branch2c"
  scale_param {
    bias_term: true
  }
}
layer {
  name: "res3d"
  type: "Eltwise"
  bottom: "res3c"
  bottom: "res3d_branch2c"
  top: "res3d"
}
layer {
  name: "res3d_relu"
  type: "ReLU"
  bottom: "res3d"
  top: "res3d"
}
layer {
  name: "res4a_branch1"
  type: "Convolution"
  bottom: "res3d"
  top: "res4a_branch1"
  convolution_param {
    num_output: 1024
    bias_term: false
    pad: 0
    kernel_size: 1
    stride: 2
  }
}
layer {
  name: "bn4a_branch1"
  type: "BatchNorm"
  bottom: "res4a_branch1"
  top: "res4a_branch1"
  batch_norm_param {
    use_global_stats: true
  }
}
layer {
  name: "scale4a_branch1"
  type: "Scale"
  bottom: "res4a_branch1"
  top: "res4a_branch1"
  scale_param {
    bias_term: true
  }
}
layer {
  name: "res4a_branch2a"
  type: "Convolution"
  bottom: "res3d"
  top: "res4a_branch2a"
  param {
    lr_mult: 1
    decay_mult: 1
  }
  convolution_param {
    num_output: 256
    bias_term: false
    pad: 0
    kernel_size: 1
    stride: 2
    weight_filler {
      type: "xavier"
      std: 0.01
    }
  }
}
layer {
  name: "bn4a_branch2a"
  type: "BatchNorm"
  bottom: "res4a_branch2a"
  top: "res4a_branch2a"
  batch_norm_param {
    use_global_stats: true
  }
}
layer {
  name: "scale4a_branch2a"
  type: "Scale"
  bottom: "res4a_branch2a"
  top: "res4a_branch2a"
  scale_param {
    bias_term: true
  }
}
layer {
  name: "res4a_branch2a_relu"
  type: "ReLU"
  bottom: "res4a_branch2a"
  top: "res4a_branch2a"
}
layer {
  name: "res4a_branch2b"
  type: "Convolution"
  bottom: "res4a_branch2a"
  top: "res4a_branch2b"
  param {
    lr_mult: 1
    decay_mult: 1
  }
  convolution_param {
    num_output: 256
    bias_term: false
    pad: 1
    kernel_size: 3
    stride: 1
    weight_filler {
      type: "xavier"
      std: 0.01
    }
  }
}
layer {
  name: "bn4a_branch2b"
  type: "BatchNorm"
  bottom: "res4a_branch2b"
  top: "res4a_branch2b"
  batch_norm_param {
    use_global_stats: true
  }
}
layer {
  name: "scale4a_branch2b"
  type: "Scale"
  bottom: "res4a_branch2b"
  top: "res4a_branch2b"
  scale_param {
    bias_term: true
  }
}
layer {
  name: "res4a_branch2b_relu"
  type: "ReLU"
  bottom: "res4a_branch2b"
  top: "res4a_branch2b"
}
layer {
  name: "res4a_branch2c"
  type: "Convolution"
  bottom: "res4a_branch2b"
  top: "res4a_branch2c"
  param {
    lr_mult: 1
    decay_mult: 1
  }
  convolution_param {
    num_output: 1024
    bias_term: false
    pad: 0
    kernel_size: 1
    stride: 1
    weight_filler {
      type: "xavier"
      std: 0.01
    }
  }
}
layer {
  name: "bn4a_branch2c"
  type: "BatchNorm"
  bottom: "res4a_branch2c"
  top: "res4a_branch2c"
  batch_norm_param {
    use_global_stats: true
  }
}
layer {
  name: "scale4a_branch2c"
  type: "Scale"
  bottom: "res4a_branch2c"
  top: "res4a_branch2c"
  scale_param {
    bias_term: true
  }
}
layer {
  name: "res4a"
  type: "Eltwise"
  bottom: "res4a_branch1"
  bottom: "res4a_branch2c"
  top: "res4a"
}
layer {
  name: "res4a_relu"
  type: "ReLU"
  bottom: "res4a"
  top: "res4a"
}
layer {
  name: "res4b_branch2a"
  type: "Convolution"
  bottom: "res4a"
  top: "res4b_branch2a"
  param {
    lr_mult: 1
    decay_mult: 1
  }
  convolution_param {
    num_output: 256
    bias_term: false
    pad: 0
    kernel_size: 1
    stride: 1
    weight_filler {
      type: "xavier"
      std: 0.01
    }
  }
}
layer {
  name: "bn4b_branch2a"
  type: "BatchNorm"
  bottom: "res4b_branch2a"
  top: "res4b_branch2a"
  batch_norm_param {
    use_global_stats: true
  }
}
layer {
  name: "scale4b_branch2a"
  type: "Scale"
  bottom: "res4b_branch2a"
  top: "res4b_branch2a"
  scale_param {
    bias_term: true
  }
}
layer {
  name: "res4b_branch2a_relu"
  type: "ReLU"
  bottom: "res4b_branch2a"
  top: "res4b_branch2a"
}
layer {
  name: "res4b_branch2b"
  type: "Convolution"
  bottom: "res4b_branch2a"
  top: "res4b_branch2b"
  param {
    lr_mult: 1
    decay_mult: 1
  }
  convolution_param {
    num_output: 256
    bias_term: false
    pad: 1
    kernel_size: 3
    stride: 1
    weight_filler {
      type: "xavier"
      std: 0.01
    }
  }
}
layer {
  name: "bn4b_branch2b"
  type: "BatchNorm"
  bottom: "res4b_branch2b"
  top: "res4b_branch2b"
  batch_norm_param {
    use_global_stats: true
  }
}
layer {
  name: "scale4b_branch2b"
  type: "Scale"
  bottom: "res4b_branch2b"
  top: "res4b_branch2b"
  scale_param {
    bias_term: true
  }
}
layer {
  name: "res4b_branch2b_relu"
  type: "ReLU"
  bottom: "res4b_branch2b"
  top: "res4b_branch2b"
}
layer {
  name: "res4b_branch2c"
  type: "Convolution"
  bottom: "res4b_branch2b"
  top: "res4b_branch2c"
  param {
    lr_mult: 1
    decay_mult: 1
  }
  convolution_param {
    num_output: 1024
    bias_term: false
    pad: 0
    kernel_size: 1
    stride: 1
    weight_filler {
      type: "xavier"
      std: 0.01
    }
  }
}
layer {
  name: "bn4b_branch2c"
  type: "BatchNorm"
  bottom: "res4b_branch2c"
  top: "res4b_branch2c"
  batch_norm_param {
    use_global_stats: true
  }
}
layer {
  name: "scale4b_branch2c"
  type: "Scale"
  bottom: "res4b_branch2c"
  top: "res4b_branch2c"
  scale_param {
    bias_term: true
  }
}
layer {
  name: "res4b"
  type: "Eltwise"
  bottom: "res4a"
  bottom: "res4b_branch2c"
  top: "res4b"
}
layer {
  name: "res4b_relu"
  type: "ReLU"
  bottom: "res4b"
  top: "res4b"
}
layer {
  name: "res4c_branch2a"
  type: "Convolution"
  bottom: "res4b"
  top: "res4c_branch2a"
  param {
    lr_mult: 1
    decay_mult: 1
  }
  convolution_param {
    num_output: 256
    bias_term: false
    pad: 0
    kernel_size: 1
    stride: 1
    weight_filler {
      type: "xavier"
      std: 0.01
    }
  }
}
layer {
  name: "bn4c_branch2a"
  type: "BatchNorm"
  bottom: "res4c_branch2a"
  top: "res4c_branch2a"
  batch_norm_param {
    use_global_stats: true
  }
}
layer {
  name: "scale4c_branch2a"
  type: "Scale"
  bottom: "res4c_branch2a"
  top: "res4c_branch2a"
  scale_param {
    bias_term: true
  }
}
layer {
  name: "res4c_branch2a_relu"
  type: "ReLU"
  bottom: "res4c_branch2a"
  top: "res4c_branch2a"
}
layer {
  name: "res4c_branch2b"
  type: "Convolution"
  bottom: "res4c_branch2a"
  top: "res4c_branch2b"
  param {
    lr_mult: 1
    decay_mult: 1
  }
  convolution_param {
    num_output: 256
    bias_term: false
    pad: 1
    kernel_size: 3
    stride: 1
    weight_filler {
      type: "xavier"
      std: 0.01
    }
  }
}
layer {
  name: "bn4c_branch2b"
  type: "BatchNorm"
  bottom: "res4c_branch2b"
  top: "res4c_branch2b"
  batch_norm_param {
    use_global_stats: true
  }
}
layer {
  name: "scale4c_branch2b"
  type: "Scale"
  bottom: "res4c_branch2b"
  top: "res4c_branch2b"
  scale_param {
    bias_term: true
  }
}
layer {
  name: "res4c_branch2b_relu"
  type: "ReLU"
  bottom: "res4c_branch2b"
  top: "res4c_branch2b"
}
layer {
  name: "res4c_branch2c"
  type: "Convolution"
  bottom: "res4c_branch2b"
  top: "res4c_branch2c"
  param {
    lr_mult: 1
    decay_mult: 1
  }
  convolution_param {
    num_output: 1024
    bias_term: false
    pad: 0
    kernel_size: 1
    stride: 1
    weight_filler {
      type: "xavier"
      std: 0.01
    }
  }
}
layer {
  name: "bn4c_branch2c"
  type: "BatchNorm"
  bottom: "res4c_branch2c"
  top: "res4c_branch2c"
  batch_norm_param {
    use_global_stats: true
  }
}
layer {
  name: "scale4c_branch2c"
  type: "Scale"
  bottom: "res4c_branch2c"
  top: "res4c_branch2c"
  scale_param {
    bias_term: true
  }
}
layer {
  name: "res4c"
  type: "Eltwise"
  bottom: "res4b"
  bottom: "res4c_branch2c"
  top: "res4c"
}
layer {
  name: "res4c_relu"
  type: "ReLU"
  bottom: "res4c"
  top: "res4c"
}
layer {
  name: "res4d_branch2a"
  type: "Convolution"
  bottom: "res4c"
  top: "res4d_branch2a"
  param {
    lr_mult: 1
    decay_mult: 1
  }
  convolution_param {
    num_output: 256
    bias_term: false
    pad: 0
    kernel_size: 1
    stride: 1
    weight_filler {
      type: "xavier"
      std: 0.01
    }
  }
}
layer {
  name: "bn4d_branch2a"
  type: "BatchNorm"
  bottom: "res4d_branch2a"
  top: "res4d_branch2a"
  batch_norm_param {
    use_global_stats: true
  }
}
layer {
  name: "scale4d_branch2a"
  type: "Scale"
  bottom: "res4d_branch2a"
  top: "res4d_branch2a"
  scale_param {
    bias_term: true
  }
}
layer {
  name: "res4d_branch2a_relu"
  type: "ReLU"
  bottom: "res4d_branch2a"
  top: "res4d_branch2a"
}
layer {
  name: "res4d_branch2b"
  type: "Convolution"
  bottom: "res4d_branch2a"
  top: "res4d_branch2b"
  param {
    lr_mult: 1
    decay_mult: 1
  }
  convolution_param {
    num_output: 256
    bias_term: false
    pad: 1
    kernel_size: 3
    stride: 1
    weight_filler {
      type: "xavier"
      std: 0.01
    }
  }
}
layer {
  name: "bn4d_branch2b"
  type: "BatchNorm"
  bottom: "res4d_branch2b"
  top: "res4d_branch2b"
  batch_norm_param {
    use_global_stats: true
  }
}
layer {
  name: "scale4d_branch2b"
  type: "Scale"
  bottom: "res4d_branch2b"
  top: "res4d_branch2b"
  scale_param {
    bias_term: true
  }
}
layer {
  name: "res4d_branch2b_relu"
  type: "ReLU"
  bottom: "res4d_branch2b"
  top: "res4d_branch2b"
}
layer {
  name: "res4d_branch2c"
  type: "Convolution"
  bottom: "res4d_branch2b"
  top: "res4d_branch2c"
  param {
    lr_mult: 1
    decay_mult: 1
  }
  convolution_param {
    num_output: 1024
    bias_term: false
    pad: 0
    kernel_size: 1
    stride: 1
    weight_filler {
      type: "xavier"
      std: 0.01
    }
  }
}
layer {
  name: "bn4d_branch2c"
  type: "BatchNorm"
  bottom: "res4d_branch2c"
  top: "res4d_branch2c"
  batch_norm_param {
    use_global_stats: true
  }
}
layer {
  name: "scale4d_branch2c"
  type: "Scale"
  bottom: "res4d_branch2c"
  top: "res4d_branch2c"
  scale_param {
    bias_term: true
  }
}
layer {
  name: "res4d"
  type: "Eltwise"
  bottom: "res4c"
  bottom: "res4d_branch2c"
  top: "res4d"
}
layer {
  name: "res4d_relu"
  type: "ReLU"
  bottom: "res4d"
  top: "res4d"
}
layer {
  name: "res4e_branch2a"
  type: "Convolution"
  bottom: "res4d"
  top: "res4e_branch2a"
  param {
    lr_mult: 1
    decay_mult: 1
  }
  convolution_param {
    num_output: 256
    bias_term: false
    pad: 0
    kernel_size: 1
    stride: 1
    weight_filler {
      type: "xavier"
      std: 0.01
    }
  }
}
layer {
  name: "bn4e_branch2a"
  type: "BatchNorm"
  bottom: "res4e_branch2a"
  top: "res4e_branch2a"
  batch_norm_param {
    use_global_stats: true
  }
}
layer {
  name: "scale4e_branch2a"
  type: "Scale"
  bottom: "res4e_branch2a"
  top: "res4e_branch2a"
  scale_param {
    bias_term: true
  }
}
layer {
  name: "res4e_branch2a_relu"
  type: "ReLU"
  bottom: "res4e_branch2a"
  top: "res4e_branch2a"
}
layer {
  name: "res4e_branch2b"
  type: "Convolution"
  bottom: "res4e_branch2a"
  top: "res4e_branch2b"
  param {
    lr_mult: 1
    decay_mult: 1
  }
  convolution_param {
    num_output: 256
    bias_term: false
    pad: 1
    kernel_size: 3
    stride: 1
    weight_filler {
      type: "xavier"
      std: 0.01
    }
  }
}
layer {
  name: "bn4e_branch2b"
  type: "BatchNorm"
  bottom: "res4e_branch2b"
  top: "res4e_branch2b"
  batch_norm_param {
    use_global_stats: true
  }
}
layer {
  name: "scale4e_branch2b"
  type: "Scale"
  bottom: "res4e_branch2b"
  top: "res4e_branch2b"
  scale_param {
    bias_term: true
  }
}
layer {
  name: "res4e_branch2b_relu"
  type: "ReLU"
  bottom: "res4e_branch2b"
  top: "res4e_branch2b"
}
layer {
  name: "res4e_branch2c"
  type: "Convolution"
  bottom: "res4e_branch2b"
  top: "res4e_branch2c"
  param {
    lr_mult: 1
    decay_mult: 1
  }
  convolution_param {
    num_output: 1024
    bias_term: false
    pad: 0
    kernel_size: 1
    stride: 1
    weight_filler {
      type: "xavier"
      std: 
I0824 17:40:54.158072  9024 layer_factory.hpp:77] Creating layer data
I0824 17:40:54.158710  9024 net.cpp:91] Creating Layer data
I0824 17:40:54.158807  9024 net.cpp:399] data -> data
I0824 17:40:54.158922  9024 net.cpp:399] data -> label
I0824 17:40:54.159929  9028 db_lmdb.cpp:38] Opened lmdb FASHION/fashion_train_lmdb
I0824 17:40:54.176102  9024 data_layer.cpp:41] output data size: 10,3,224,224
I0824 17:40:54.188889  9024 net.cpp:141] Setting up data
I0824 17:40:54.188971  9024 net.cpp:148] Top shape: 10 3 224 224 (1505280)
I0824 17:40:54.188992  9024 net.cpp:148] Top shape: 10 1 1 1 (10)
I0824 17:40:54.189007  9024 net.cpp:156] Memory required for data: 6021160
I0824 17:40:54.189033  9024 layer_factory.hpp:77] Creating layer conv1
I0824 17:40:54.189083  9024 net.cpp:91] Creating Layer conv1
I0824 17:40:54.189110  9024 net.cpp:425] conv1 <- data
I0824 17:40:54.189149  9024 net.cpp:399] conv1 -> conv1
I0824 17:40:54.190273  9024 net.cpp:141] Setting up conv1
I0824 17:40:54.190304  9024 net.cpp:148] Top shape: 10 64 112 112 (8028160)
I0824 17:40:54.190320  9024 net.cpp:156] Memory required for data: 38133800
I0824 17:40:54.190352  9024 layer_factory.hpp:77] Creating layer bn_conv1
I0824 17:40:54.190407  9024 net.cpp:91] Creating Layer bn_conv1
I0824 17:40:54.190428  9024 net.cpp:425] bn_conv1 <- conv1
I0824 17:40:54.190444  9024 net.cpp:386] bn_conv1 -> conv1 (in-place)
I0824 17:40:54.190739  9024 net.cpp:141] Setting up bn_conv1
I0824 17:40:54.190768  9024 net.cpp:148] Top shape: 10 64 112 112 (8028160)
I0824 17:40:54.190783  9024 net.cpp:156] Memory required for data: 70246440
I0824 17:40:54.190809  9024 layer_factory.hpp:77] Creating layer scale_conv1
I0824 17:40:54.190840  9024 net.cpp:91] Creating Layer scale_conv1
I0824 17:40:54.190857  9024 net.cpp:425] scale_conv1 <- conv1
I0824 17:40:54.190874  9024 net.cpp:386] scale_conv1 -> conv1 (in-place)
I0824 17:40:54.191288  9024 layer_factory.hpp:77] Creating layer scale_conv1
I0824 17:40:54.191468  9024 net.cpp:141] Setting up scale_conv1
I0824 17:40:54.191532  9024 net.cpp:148] Top shape: 10 64 112 112 (8028160)
I0824 17:40:54.191548  9024 net.cpp:156] Memory required for data: 102359080
I0824 17:40:54.191566  9024 layer_factory.hpp:77] Creating layer conv1_relu
I0824 17:40:54.191591  9024 net.cpp:91] Creating Layer conv1_relu
I0824 17:40:54.191606  9024 net.cpp:425] conv1_relu <- conv1
I0824 17:40:54.191627  9024 net.cpp:386] conv1_relu -> conv1 (in-place)
I0824 17:40:54.191653  9024 net.cpp:141] Setting up conv1_relu
I0824 17:40:54.191669  9024 net.cpp:148] Top shape: 10 64 112 112 (8028160)
I0824 17:40:54.191684  9024 net.cpp:156] Memory required for data: 134471720
I0824 17:40:54.191697  9024 layer_factory.hpp:77] Creating layer pool1
I0824 17:40:54.191716  9024 net.cpp:91] Creating Layer pool1
I0824 17:40:54.191730  9024 net.cpp:425] pool1 <- conv1
I0824 17:40:54.191745  9024 net.cpp:399] pool1 -> pool1
I0824 17:40:54.191817  9024 net.cpp:141] Setting up pool1
I0824 17:40:54.191840  9024 net.cpp:148] Top shape: 10 64 56 56 (2007040)
I0824 17:40:54.191855  9024 net.cpp:156] Memory required for data: 142499880
I0824 17:40:54.191869  9024 layer_factory.hpp:77] Creating layer pool1_pool1_0_split
I0824 17:40:54.191890  9024 net.cpp:91] Creating Layer pool1_pool1_0_split
I0824 17:40:54.191903  9024 net.cpp:425] pool1_pool1_0_split <- pool1
I0824 17:40:54.191923  9024 net.cpp:399] pool1_pool1_0_split -> pool1_pool1_0_split_0
I0824 17:40:54.191943  9024 net.cpp:399] pool1_pool1_0_split -> pool1_pool1_0_split_1
I0824 17:40:54.191996  9024 net.cpp:141] Setting up pool1_pool1_0_split
I0824 17:40:54.192020  9024 net.cpp:148] Top shape: 10 64 56 56 (2007040)
I0824 17:40:54.192036  9024 net.cpp:148] Top shape: 10 64 56 56 (2007040)
I0824 17:40:54.192050  9024 net.cpp:156] Memory required for data: 158556200
I0824 17:40:54.192065  9024 layer_factory.hpp:77] Creating layer res2a_branch1
I0824 17:40:54.192085  9024 net.cpp:91] Creating Layer res2a_branch1
I0824 17:40:54.192101  9024 net.cpp:425] res2a_branch1 <- pool1_pool1_0_split_0
I0824 17:40:54.192117  9024 net.cpp:399] res2a_branch1 -> res2a_branch1
I0824 17:40:54.192447  9024 net.cpp:141] Setting up res2a_branch1
I0824 17:40:54.192473  9024 net.cpp:148] Top shape: 10 256 56 56 (8028160)
I0824 17:40:54.192488  9024 net.cpp:156] Memory required for data: 190668840
I0824 17:40:54.192507  9024 layer_factory.hpp:77] Creating layer bn2a_branch1
I0824 17:40:54.192528  9024 net.cpp:91] Creating Layer bn2a_branch1
I0824 17:40:54.192544  9024 net.cpp:425] bn2a_branch1 <- res2a_branch1
I0824 17:40:54.192560  9024 net.cpp:386] bn2a_branch1 -> res2a_branch1 (in-place)
I0824 17:40:54.193434  9024 net.cpp:141] Setting up bn2a_branch1
I0824 17:40:54.193464  9024 net.cpp:148] Top shape: 10 256 56 56 (8028160)
I0824 17:40:54.193480  9024 net.cpp:156] Memory required for data: 222781480
I0824 17:40:54.193502  9024 layer_factory.hpp:77] Creating layer scale2a_branch1
I0824 17:40:54.193527  9024 net.cpp:91] Creating Layer scale2a_branch1
I0824 17:40:54.193542  9024 net.cpp:425] scale2a_branch1 <- res2a_branch1
I0824 17:40:54.193560  9024 net.cpp:386] scale2a_branch1 -> res2a_branch1 (in-place)
I0824 17:40:54.193619  9024 layer_factory.hpp:77] Creating layer scale2a_branch1
I0824 17:40:54.193763  9024 net.cpp:141] Setting up scale2a_branch1
I0824 17:40:54.193787  9024 net.cpp:148] Top shape: 10 256 56 56 (8028160)
I0824 17:40:54.193801  9024 net.cpp:156] Memory required for data: 254894120
I0824 17:40:54.193819  9024 layer_factory.hpp:77] Creating layer res2a_branch2a
I0824 17:40:54.193843  9024 net.cpp:91] Creating Layer res2a_branch2a
I0824 17:40:54.193859  9024 net.cpp:425] res2a_branch2a <- pool1_pool1_0_split_1
I0824 17:40:54.193882  9024 net.cpp:399] res2a_branch2a -> res2a_branch2a
I0824 17:40:54.194113  9024 net.cpp:141] Setting up res2a_branch2a
I0824 17:40:54.194139  9024 net.cpp:148] Top shape: 10 64 56 56 (2007040)
I0824 17:40:54.194154  9024 net.cpp:156] Memory required for data: 262922280
I0824 17:40:54.194170  9024 layer_factory.hpp:77] Creating layer bn2a_branch2a
I0824 17:40:54.194188  9024 net.cpp:91] Creating Layer bn2a_branch2a
I0824 17:40:54.194222  9024 net.cpp:425] bn2a_branch2a <- res2a_branch2a
I0824 17:40:54.194242  9024 net.cpp:386] bn2a_branch2a -> res2a_branch2a (in-place)
I0824 17:40:54.194447  9024 net.cpp:141] Setting up bn2a_branch2a
I0824 17:40:54.194471  9024 net.cpp:148] Top shape: 10 64 56 56 (2007040)
I0824 17:40:54.194486  9024 net.cpp:156] Memory required for data: 270950440
I0824 17:40:54.194509  9024 layer_factory.hpp:77] Creating layer scale2a_branch2a
I0824 17:40:54.194528  9024 net.cpp:91] Creating Layer scale2a_branch2a
I0824 17:40:54.194543  9024 net.cpp:425] scale2a_branch2a <- res2a_branch2a
I0824 17:40:54.194562  9024 net.cpp:386] scale2a_branch2a -> res2a_branch2a (in-place)
I0824 17:40:54.194620  9024 layer_factory.hpp:77] Creating layer scale2a_branch2a
I0824 17:40:54.194766  9024 net.cpp:141] Setting up scale2a_branch2a
I0824 17:40:54.194797  9024 net.cpp:148] Top shape: 10 64 56 56 (2007040)
I0824 17:40:54.194810  9024 net.cpp:156] Memory required for data: 278978600
I0824 17:40:54.194828  9024 layer_factory.hpp:77] Creating layer res2a_branch2a_relu
I0824 17:40:54.194845  9024 net.cpp:91] Creating Layer res2a_branch2a_relu
I0824 17:40:54.194860  9024 net.cpp:425] res2a_branch2a_relu <- res2a_branch2a
I0824 17:40:54.194880  9024 net.cpp:386] res2a_branch2a_relu -> res2a_branch2a (in-place)
I0824 17:40:54.194898  9024 net.cpp:141] Setting up res2a_branch2a_relu
I0824 17:40:54.194914  9024 net.cpp:148] Top shape: 10 64 56 56 (2007040)
I0824 17:40:54.194928  9024 net.cpp:156] Memory required for data: 287006760
I0824 17:40:54.194942  9024 layer_factory.hpp:77] Creating layer res2a_branch2b
I0824 17:40:54.194965  9024 net.cpp:91] Creating Layer res2a_branch2b
I0824 17:40:54.194980  9024 net.cpp:425] res2a_branch2b <- res2a_branch2a
I0824 17:40:54.194998  9024 net.cpp:399] res2a_branch2b -> res2a_branch2b
I0824 17:40:54.196164  9024 net.cpp:141] Setting up res2a_branch2b
I0824 17:40:54.196194  9024 net.cpp:148] Top shape: 10 64 56 56 (2007040)
I0824 17:40:54.196210  9024 net.cpp:156] Memory required for data: 295034920
I0824 17:40:54.196228  9024 layer_factory.hpp:77] Creating layer bn2a_branch2b
I0824 17:40:54.196246  9024 net.cpp:91] Creating Layer bn2a_branch2b
I0824 17:40:54.196261  9024 net.cpp:425] bn2a_branch2b <- res2a_branch2b
I0824 17:40:54.196277  9024 net.cpp:386] bn2a_branch2b -> res2a_branch2b (in-place)
I0824 17:40:54.196496  9024 net.cpp:141] Setting up bn2a_branch2b
I0824 17:40:54.196521  9024 net.cpp:148] Top shape: 10 64 56 56 (2007040)
I0824 17:40:54.196537  9024 net.cpp:156] Memory required for data: 303063080
I0824 17:40:54.196555  9024 layer_factory.hpp:77] Creating layer scale2a_branch2b
I0824 17:40:54.196576  9024 net.cpp:91] Creating Layer scale2a_branch2b
I0824 17:40:54.196591  9024 net.cpp:425] scale2a_branch2b <- res2a_branch2b
I0824 17:40:54.196614  9024 net.cpp:386] scale2a_branch2b -> res2a_branch2b (in-place)
I0824 17:40:54.196679  9024 layer_factory.hpp:77] Creating layer scale2a_branch2b
I0824 17:40:54.196828  9024 net.cpp:141] Setting up scale2a_branch2b
I0824 17:40:54.196856  9024 net.cpp:148] Top shape: 10 64 56 56 (2007040)
I0824 17:40:54.196872  9024 net.cpp:156] Memory required for data: 311091240
I0824 17:40:54.196890  9024 layer_factory.hpp:77] Creating layer res2a_branch2b_relu
I0824 17:40:54.196908  9024 net.cpp:91] Creating Layer res2a_branch2b_relu
I0824 17:40:54.196923  9024 net.cpp:425] res2a_branch2b_relu <- res2a_branch2b
I0824 17:40:54.196938  9024 net.cpp:386] res2a_branch2b_relu -> res2a_branch2b (in-place)
I0824 17:40:54.196955  9024 net.cpp:141] Setting up res2a_branch2b_relu
I0824 17:40:54.196971  9024 net.cpp:148] Top shape: 10 64 56 56 (2007040)
I0824 17:40:54.196985  9024 net.cpp:156] Memory required for data: 319119400
I0824 17:40:54.197000  9024 layer_factory.hpp:77] Creating layer res2a_branch2c
I0824 17:40:54.197023  9024 net.cpp:91] Creating Layer res2a_branch2c
I0824 17:40:54.197039  9024 net.cpp:425] res2a_branch2c <- res2a_branch2b
I0824 17:40:54.197057  9024 net.cpp:399] res2a_branch2c -> res2a_branch2c
I0824 17:40:54.197413  9024 net.cpp:141] Setting up res2a_branch2c
I0824 17:40:54.197439  9024 net.cpp:148] Top shape: 10 256 56 56 (8028160)
I0824 17:40:54.197454  9024 net.cpp:156] Memory required for data: 351232040
I0824 17:40:54.197471  9024 layer_factory.hpp:77] Creating layer bn2a_branch2c
I0824 17:40:54.197489  9024 net.cpp:91] Creating Layer bn2a_branch2c
I0824 17:40:54.197504  9024 net.cpp:425] bn2a_branch2c <- res2a_branch2c
I0824 17:40:54.197520  9024 net.cpp:386] bn2a_branch2c -> res2a_branch2c (in-place)
I0824 17:40:54.197720  9024 net.cpp:141] Setting up bn2a_branch2c
I0824 17:40:54.197743  9024 net.cpp:148] Top shape: 10 256 56 56 (8028160)
I0824 17:40:54.197758  9024 net.cpp:156] Memory required for data: 383344680
I0824 17:40:54.197780  9024 layer_factory.hpp:77] Creating layer scale2a_branch2c
I0824 17:40:54.197800  9024 net.cpp:91] Creating Layer scale2a_branch2c
I0824 17:40:54.197815  9024 net.cpp:425] scale2a_branch2c <- res2a_branch2c
I0824 17:40:54.197831  9024 net.cpp:386] scale2a_branch2c -> res2a_branch2c (in-place)
I0824 17:40:54.197890  9024 layer_factory.hpp:77] Creating layer scale2a_branch2c
I0824 17:40:54.198029  9024 net.cpp:141] Setting up scale2a_branch2c
I0824 17:40:54.198052  9024 net.cpp:148] Top shape: 10 256 56 56 (8028160)
I0824 17:40:54.198066  9024 net.cpp:156] Memory required for data: 415457320
I0824 17:40:54.198084  9024 layer_factory.hpp:77] Creating layer res2a
I0824 17:40:54.198110  9024 net.cpp:91] Creating Layer res2a
I0824 17:40:54.198127  9024 net.cpp:425] res2a <- res2a_branch1
I0824 17:40:54.198141  9024 net.cpp:425] res2a <- res2a_branch2c
I0824 17:40:54.198158  9024 net.cpp:399] res2a -> res2a
I0824 17:40:54.198217  9024 net.cpp:141] Setting up res2a
I0824 17:40:54.198241  9024 net.cpp:148] Top shape: 10 256 56 56 (8028160)
I0824 17:40:54.198256  9024 net.cpp:156] Memory required for data: 447569960
I0824 17:40:54.198271  9024 layer_factory.hpp:77] Creating layer res2a_relu
I0824 17:40:54.198287  9024 net.cpp:91] Creating Layer res2a_relu
I0824 17:40:54.198300  9024 net.cpp:425] res2a_relu <- res2a
I0824 17:40:54.198321  9024 net.cpp:386] res2a_relu -> res2a (in-place)
I0824 17:40:54.198340  9024 net.cpp:141] Setting up res2a_relu
I0824 17:40:54.198357  9024 net.cpp:148] Top shape: 10 256 56 56 (8028160)
I0824 17:40:54.198371  9024 net.cpp:156] Memory required for data: 479682600
I0824 17:40:54.198385  9024 layer_factory.hpp:77] Creating layer res2a_res2a_relu_0_split
I0824 17:40:54.198401  9024 net.cpp:91] Creating Layer res2a_res2a_relu_0_split
I0824 17:40:54.198415  9024 net.cpp:425] res2a_res2a_relu_0_split <- res2a
I0824 17:40:54.198431  9024 net.cpp:399] res2a_res2a_relu_0_split -> res2a_res2a_relu_0_split_0
I0824 17:40:54.198449  9024 net.cpp:399] res2a_res2a_relu_0_split -> res2a_res2a_relu_0_split_1
I0824 17:40:54.198501  9024 net.cpp:141] Setting up res2a_res2a_relu_0_split
I0824 17:40:54.198524  9024 net.cpp:148] Top shape: 10 256 56 56 (8028160)
I0824 17:40:54.198540  9024 net.cpp:148] Top shape: 10 256 56 56 (8028160)
I0824 17:40:54.198555  9024 net.cpp:156] Memory required for data: 543907880
I0824 17:40:54.198570  9024 layer_factory.hpp:77] Creating layer res2b_branch2a
I0824 17:40:54.198590  9024 net.cpp:91] Creating Layer res2b_branch2a
I0824 17:40:54.198606  9024 net.cpp:425] res2b_branch2a <- res2a_res2a_relu_0_split_0
I0824 17:40:54.198626  9024 net.cpp:399] res2b_branch2a -> res2b_branch2a
I0824 17:40:54.199352  9024 net.cpp:141] Setting up res2b_branch2a
I0824 17:40:54.199378  9024 net.cpp:148] Top shape: 10 64 56 56 (2007040)
I0824 17:40:54.199393  9024 net.cpp:156] Memory required for data: 551936040
I0824 17:40:54.199410  9024 layer_factory.hpp:77] Creating layer bn2b_branch2a
I0824 17:40:54.199431  9024 net.cpp:91] Creating Layer bn2b_branch2a
I0824 17:40:54.199450  9024 net.cpp:425] bn2b_branch2a <- res2b_branch2a
I0824 17:40:54.199465  9024 net.cpp:386] bn2b_branch2a -> res2b_branch2a (in-place)
I0824 17:40:54.199676  9024 net.cpp:141] Setting up bn2b_branch2a
I0824 17:40:54.199699  9024 net.cpp:148] Top shape: 10 64 56 56 (2007040)
I0824 17:40:54.199735  9024 net.cpp:156] Memory required for data: 559964200
I0824 17:40:54.199766  9024 layer_factory.hpp:77] Creating layer scale2b_branch2a
I0824 17:40:54.199789  9024 net.cpp:91] Creating Layer scale2b_branch2a
I0824 17:40:54.199803  9024 net.cpp:425] scale2b_branch2a <- res2b_branch2a
I0824 17:40:54.199820  9024 net.cpp:386] scale2b_branch2a -> res2b_branch2a (in-place)
I0824 17:40:54.199887  9024 layer_factory.hpp:77] Creating layer scale2b_branch2a
I0824 17:40:54.200039  9024 net.cpp:141] Setting up scale2b_branch2a
I0824 17:40:54.200063  9024 net.cpp:148] Top shape: 10 64 56 56 (2007040)
I0824 17:40:54.200078  9024 net.cpp:156] Memory required for data: 567992360
I0824 17:40:54.200095  9024 layer_factory.hpp:77] Creating layer res2b_branch2a_relu
I0824 17:40:54.200114  9024 net.cpp:91] Creating Layer res2b_branch2a_relu
I0824 17:40:54.200127  9024 net.cpp:425] res2b_branch2a_relu <- res2b_branch2a
I0824 17:40:54.200142  9024 net.cpp:386] res2b_branch2a_relu -> res2b_branch2a (in-place)
I0824 17:40:54.200160  9024 net.cpp:141] Setting up res2b_branch2a_relu
I0824 17:40:54.200176  9024 net.cpp:148] Top shape: 10 64 56 56 (2007040)
I0824 17:40:54.200189  9024 net.cpp:156] Memory required for data: 576020520
I0824 17:40:54.200203  9024 layer_factory.hpp:77] Creating layer res2b_branch2b
I0824 17:40:54.200227  9024 net.cpp:91] Creating Layer res2b_branch2b
I0824 17:40:54.200242  9024 net.cpp:425] res2b_branch2b <- res2b_branch2a
I0824 17:40:54.200260  9024 net.cpp:399] res2b_branch2b -> res2b_branch2b
I0824 17:40:54.200778  9024 net.cpp:141] Setting up res2b_branch2b
I0824 17:40:54.200804  9024 net.cpp:148] Top shape: 10 64 56 56 (2007040)
I0824 17:40:54.200819  9024 net.cpp:156] Memory required for data: 584048680
I0824 17:40:54.200835  9024 layer_factory.hpp:77] Creating layer bn2b_branch2b
I0824 17:40:54.200852  9024 net.cpp:91] Creating Layer bn2b_branch2b
I0824 17:40:54.200867  9024 net.cpp:425] bn2b_branch2b <- res2b_branch2b
I0824 17:40:54.200882  9024 net.cpp:386] bn2b_branch2b -> res2b_branch2b (in-place)
I0824 17:40:54.201098  9024 net.cpp:141] Setting up bn2b_branch2b
I0824 17:40:54.201122  9024 net.cpp:148] Top shape: 10 64 56 56 (2007040)
I0824 17:40:54.201138  9024 net.cpp:156] Memory required for data: 592076840
I0824 17:40:54.201156  9024 layer_factory.hpp:77] Creating layer scale2b_branch2b
I0824 17:40:54.201174  9024 net.cpp:91] Creating Layer scale2b_branch2b
I0824 17:40:54.201189  9024 net.cpp:425] scale2b_branch2b <- res2b_branch2b
I0824 17:40:54.201205  9024 net.cpp:386] scale2b_branch2b -> res2b_branch2b (in-place)
I0824 17:40:54.201267  9024 layer_factory.hpp:77] Creating layer scale2b_branch2b
I0824 17:40:54.201418  9024 net.cpp:141] Setting up scale2b_branch2b
I0824 17:40:54.201443  9024 net.cpp:148] Top shape: 10 64 56 56 (2007040)
I0824 17:40:54.201457  9024 net.cpp:156] Memory required for data: 600105000
I0824 17:40:54.201475  9024 layer_factory.hpp:77] Creating layer res2b_branch2b_relu
I0824 17:40:54.201493  9024 net.cpp:91] Creating Layer res2b_branch2b_relu
I0824 17:40:54.201506  9024 net.cpp:425] res2b_branch2b_relu <- res2b_branch2b
I0824 17:40:54.201521  9024 net.cpp:386] res2b_branch2b_relu -> res2b_branch2b (in-place)
I0824 17:40:54.201539  9024 net.cpp:141] Setting up res2b_branch2b_relu
I0824 17:40:54.201555  9024 net.cpp:148] Top shape: 10 64 56 56 (2007040)
I0824 17:40:54.201568  9024 net.cpp:156] Memory required for data: 608133160
I0824 17:40:54.201582  9024 layer_factory.hpp:77] Creating layer res2b_branch2c
I0824 17:40:54.201616  9024 net.cpp:91] Creating Layer res2b_branch2c
I0824 17:40:54.201635  9024 net.cpp:425] res2b_branch2c <- res2b_branch2b
I0824 17:40:54.201653  9024 net.cpp:399] res2b_branch2c -> res2b_branch2c
I0824 17:40:54.201992  9024 net.cpp:141] Setting up res2b_branch2c
I0824 17:40:54.202018  9024 net.cpp:148] Top shape: 10 256 56 56 (8028160)
I0824 17:40:54.202033  9024 net.cpp:156] Memory required for data: 640245800
I0824 17:40:54.202050  9024 layer_factory.hpp:77] Creating layer bn2b_branch2c
I0824 17:40:54.202069  9024 net.cpp:91] Creating Layer bn2b_branch2c
I0824 17:40:54.202100  9024 net.cpp:425] bn2b_branch2c <- res2b_branch2c
I0824 17:40:54.202126  9024 net.cpp:386] bn2b_branch2c -> res2b_branch2c (in-place)
I0824 17:40:54.202327  9024 net.cpp:141] Setting up bn2b_branch2c
I0824 17:40:54.202353  9024 net.cpp:148] Top shape: 10 256 56 56 (8028160)
I0824 17:40:54.202366  9024 net.cpp:156] Memory required for data: 672358440
I0824 17:40:54.202386  9024 layer_factory.hpp:77] Creating layer scale2b_branch2c
I0824 17:40:54.202405  9024 net.cpp:91] Creating Layer scale2b_branch2c
I0824 17:40:54.202419  9024 net.cpp:425] scale2b_branch2c <- res2b_branch2c
I0824 17:40:54.202440  9024 net.cpp:386] scale2b_branch2c -> res2b_branch2c (in-place)
I0824 17:40:54.202497  9024 layer_factory.hpp:77] Creating layer scale2b_branch2c
I0824 17:40:54.202635  9024 net.cpp:141] Setting up scale2b_branch2c
I0824 17:40:54.202658  9024 net.cpp:148] Top shape: 10 256 56 56 (8028160)
I0824 17:40:54.202672  9024 net.cpp:156] Memory required for data: 704471080
I0824 17:40:54.202690  9024 layer_factory.hpp:77] Creating layer res2b
I0824 17:40:54.202718  9024 net.cpp:91] Creating Layer res2b
I0824 17:40:54.202735  9024 net.cpp:425] res2b <- res2a_res2a_relu_0_split_1
I0824 17:40:54.202751  9024 net.cpp:425] res2b <- res2b_branch2c
I0824 17:40:54.202767  9024 net.cpp:399] res2b -> res2b
I0824 17:40:54.202812  9024 net.cpp:141] Setting up res2b
I0824 17:40:54.202836  9024 net.cpp:148] Top shape: 10 256 56 56 (8028160)
I0824 17:40:54.202850  9024 net.cpp:156] Memory required for data: 736583720
I0824 17:40:54.202864  9024 layer_factory.hpp:77] Creating layer res2b_relu
I0824 17:40:54.202881  9024 net.cpp:91] Creating Layer res2b_relu
I0824 17:40:54.202894  9024 net.cpp:425] res2b_relu <- res2b
I0824 17:40:54.202914  9024 net.cpp:386] res2b_relu -> res2b (in-place)
I0824 17:40:54.202934  9024 net.cpp:141] Setting up res2b_relu
I0824 17:40:54.202949  9024 net.cpp:148] Top shape: 10 256 56 56 (8028160)
I0824 17:40:54.202962  9024 net.cpp:156] Memory required for data: 768696360
I0824 17:40:54.202976  9024 layer_factory.hpp:77] Creating layer res2b_res2b_relu_0_split
I0824 17:40:54.202992  9024 net.cpp:91] Creating Layer res2b_res2b_relu_0_split
I0824 17:40:54.203006  9024 net.cpp:425] res2b_res2b_relu_0_split <- res2b
I0824 17:40:54.203022  9024 net.cpp:399] res2b_res2b_relu_0_split -> res2b_res2b_relu_0_split_0
I0824 17:40:54.203039  9024 net.cpp:399] res2b_res2b_relu_0_split -> res2b_res2b_relu_0_split_1
I0824 17:40:54.203094  9024 net.cpp:141] Setting up res2b_res2b_relu_0_split
I0824 17:40:54.203117  9024 net.cpp:148] Top shape: 10 256 56 56 (8028160)
I0824 17:40:54.203133  9024 net.cpp:148] Top shape: 10 256 56 56 (8028160)
I0824 17:40:54.203147  9024 net.cpp:156] Memory required for data: 832921640
I0824 17:40:54.203162  9024 layer_factory.hpp:77] Creating layer res2c_branch2a
I0824 17:40:54.203186  9024 net.cpp:91] Creating Layer res2c_branch2a
I0824 17:40:54.203200  9024 net.cpp:425] res2c_branch2a <- res2b_res2b_relu_0_split_0
I0824 17:40:54.203218  9024 net.cpp:399] res2c_branch2a -> res2c_branch2a
I0824 17:40:54.203555  9024 net.cpp:141] Setting up res2c_branch2a
I0824 17:40:54.203582  9024 net.cpp:148] Top shape: 10 64 56 56 (2007040)
I0824 17:40:54.203595  9024 net.cpp:156] Memory required for data: 840949800
I0824 17:40:54.203613  9024 layer_factory.hpp:77] Creating layer bn2c_branch2a
I0824 17:40:54.203631  9024 net.cpp:91] Creating Layer bn2c_branch2a
I0824 17:40:54.203645  9024 net.cpp:425] bn2c_branch2a <- res2c_branch2a
I0824 17:40:54.203660  9024 net.cpp:386] bn2c_branch2a -> res2c_branch2a (in-place)
I0824 17:40:54.203874  9024 net.cpp:141] Setting up bn2c_branch2a
I0824 17:40:54.203898  9024 net.cpp:148] Top shape: 10 64 56 56 (2007040)
I0824 17:40:54.203912  9024 net.cpp:156] Memory required for data: 848977960
I0824 17:40:54.203933  9024 layer_factory.hpp:77] Creating layer scale2c_branch2a
I0824 17:40:54.203950  9024 net.cpp:91] Creating Layer scale2c_branch2a
I0824 17:40:54.203965  9024 net.cpp:425] scale2c_branch2a <- res2c_branch2a
I0824 17:40:54.203981  9024 net.cpp:386] scale2c_branch2a -> res2c_branch2a (in-place)
I0824 17:40:54.204061  9024 layer_factory.hpp:77] Creating layer scale2c_branch2a
I0824 17:40:54.204216  9024 net.cpp:141] Setting up scale2c_branch2a
I0824 17:40:54.204246  9024 net.cpp:148] Top shape: 10 64 56 56 (2007040)
I0824 17:40:54.204262  9024 net.cpp:156] Memory required for data: 857006120
I0824 17:40:54.204280  9024 layer_factory.hpp:77] Creating layer res2c_branch2a_relu
I0824 17:40:54.204298  9024 net.cpp:91] Creating Layer res2c_branch2a_relu
I0824 17:40:54.204313  9024 net.cpp:425] res2c_branch2a_relu <- res2c_branch2a
I0824 17:40:54.204327  9024 net.cpp:386] res2c_branch2a_relu -> res2c_branch2a (in-place)
I0824 17:40:54.204345  9024 net.cpp:141] Setting up res2c_branch2a_relu
I0824 17:40:54.204361  9024 net.cpp:148] Top shape: 10 64 56 56 (2007040)
I0824 17:40:54.204375  9024 net.cpp:156] Memory required for data: 865034280
I0824 17:40:54.204390  9024 layer_factory.hpp:77] Creating layer res2c_branch2b
I0824 17:40:54.204412  9024 net.cpp:91] Creating Layer res2c_branch2b
I0824 17:40:54.204427  9024 net.cpp:425] res2c_branch2b <- res2c_branch2a
I0824 17:40:54.204448  9024 net.cpp:399] res2c_branch2b -> res2c_branch2b
I0824 17:40:54.204973  9024 net.cpp:141] Setting up res2c_branch2b
I0824 17:40:54.204999  9024 net.cpp:148] Top shape: 10 64 56 56 (2007040)
I0824 17:40:54.205014  9024 net.cpp:156] Memory required for data: 873062440
I0824 17:40:54.205031  9024 layer_factory.hpp:77] Creating layer bn2c_branch2b
I0824 17:40:54.205049  9024 net.cpp:91] Creating Layer bn2c_branch2b
I0824 17:40:54.205063  9024 net.cpp:425] bn2c_branch2b <- res2c_branch2b
I0824 17:40:54.205080  9024 net.cpp:386] bn2c_branch2b -> res2c_branch2b (in-place)
I0824 17:40:54.205292  9024 net.cpp:141] Setting up bn2c_branch2b
I0824 17:40:54.205317  9024 net.cpp:148] Top shape: 10 64 56 56 (2007040)
I0824 17:40:54.205330  9024 net.cpp:156] Memory required for data: 881090600
I0824 17:40:54.205350  9024 layer_factory.hpp:77] Creating layer scale2c_branch2b
I0824 17:40:54.205368  9024 net.cpp:91] Creating Layer scale2c_branch2b
I0824 17:40:54.205382  9024 net.cpp:425] scale2c_branch2b <- res2c_branch2b
I0824 17:40:54.205399  9024 net.cpp:386] scale2c_branch2b -> res2c_branch2b (in-place)
I0824 17:40:54.205462  9024 layer_factory.hpp:77] Creating layer scale2c_branch2b
I0824 17:40:54.205612  9024 net.cpp:141] Setting up scale2c_branch2b
I0824 17:40:54.205636  9024 net.cpp:148] Top shape: 10 64 56 56 (2007040)
I0824 17:40:54.205651  9024 net.cpp:156] Memory required for data: 889118760
I0824 17:40:54.205668  9024 layer_factory.hpp:77] Creating layer res2c_branch2b_relu
I0824 17:40:54.205687  9024 net.cpp:91] Creating Layer res2c_branch2b_relu
I0824 17:40:54.205700  9024 net.cpp:425] res2c_branch2b_relu <- res2c_branch2b
I0824 17:40:54.205715  9024 net.cpp:386] res2c_branch2b_relu -> res2c_branch2b (in-place)
I0824 17:40:54.205732  9024 net.cpp:141] Setting up res2c_branch2b_relu
I0824 17:40:54.205749  9024 net.cpp:148] Top shape: 10 64 56 56 (2007040)
I0824 17:40:54.205762  9024 net.cpp:156] Memory required for data: 897146920
I0824 17:40:54.205776  9024 layer_factory.hpp:77] Creating layer res2c_branch2c
I0824 17:40:54.205798  9024 net.cpp:91] Creating Layer res2c_branch2c
I0824 17:40:54.205816  9024 net.cpp:425] res2c_branch2c <- res2c_branch2b
I0824 17:40:54.205834  9024 net.cpp:399] res2c_branch2c -> res2c_branch2c
I0824 17:40:54.206185  9024 net.cpp:141] Setting up res2c_branch2c
I0824 17:40:54.206212  9024 net.cpp:148] Top shape: 10 256 56 56 (8028160)
I0824 17:40:54.206225  9024 net.cpp:156] Memory required for data: 929259560
I0824 17:40:54.206244  9024 layer_factory.hpp:77] Creating layer bn2c_branch2c
I0824 17:40:54.206261  9024 net.cpp:91] Creating Layer bn2c_branch2c
I0824 17:40:54.206276  9024 net.cpp:425] bn2c_branch2c <- res2c_branch2c
I0824 17:40:54.206291  9024 net.cpp:386] bn2c_branch2c -> res2c_branch2c (in-place)
I0824 17:40:54.206502  9024 net.cpp:141] Setting up bn2c_branch2c
I0824 17:40:54.206526  9024 net.cpp:148] Top shape: 10 256 56 56 (8028160)
I0824 17:40:54.206542  9024 net.cpp:156] Memory required for data: 961372200
I0824 17:40:54.206591  9024 layer_factory.hpp:77] Creating layer scale2c_branch2c
I0824 17:40:54.206617  9024 net.cpp:91] Creating Layer scale2c_branch2c
I0824 17:40:54.206634  9024 net.cpp:425] scale2c_branch2c <- res2c_branch2c
I0824 17:40:54.206650  9024 net.cpp:386] scale2c_branch2c -> res2c_branch2c (in-place)
I0824 17:40:54.206712  9024 layer_factory.hpp:77] Creating layer scale2c_branch2c
I0824 17:40:54.207335  9024 net.cpp:141] Setting up scale2c_branch2c
I0824 17:40:54.207361  9024 net.cpp:148] Top shape: 10 256 56 56 (8028160)
I0824 17:40:54.207376  9024 net.cpp:156] Memory required for data: 993484840
I0824 17:40:54.207396  9024 layer_factory.hpp:77] Creating layer res2c
I0824 17:40:54.207417  9024 net.cpp:91] Creating Layer res2c
I0824 17:40:54.207432  9024 net.cpp:425] res2c <- res2b_res2b_relu_0_split_1
I0824 17:40:54.207448  9024 net.cpp:425] res2c <- res2c_branch2c
I0824 17:40:54.207464  9024 net.cpp:399] res2c -> res2c
I0824 17:40:54.207506  9024 net.cpp:141] Setting up res2c
I0824 17:40:54.207530  9024 net.cpp:148] Top shape: 10 256 56 56 (8028160)
I0824 17:40:54.207545  9024 net.cpp:156] Memory required for data: 1025597480
I0824 17:40:54.207557  9024 layer_factory.hpp:77] Creating layer res2c_relu
I0824 17:40:54.207574  9024 net.cpp:91] Creating Layer res2c_relu
I0824 17:40:54.207588  9024 net.cpp:425] res2c_relu <- res2c
I0824 17:40:54.207612  9024 net.cpp:386] res2c_relu -> res2c (in-place)
I0824 17:40:54.207630  9024 net.cpp:141] Setting up res2c_relu
I0824 17:40:54.207646  9024 net.cpp:148] Top shape: 10 256 56 56 (8028160)
I0824 17:40:54.207660  9024 net.cpp:156] Memory required for data: 1057710120
I0824 17:40:54.207674  9024 layer_factory.hpp:77] Creating layer res2c_res2c_relu_0_split
I0824 17:40:54.207690  9024 net.cpp:91] Creating Layer res2c_res2c_relu_0_split
I0824 17:40:54.207705  9024 net.cpp:425] res2c_res2c_relu_0_split <- res2c
I0824 17:40:54.207720  9024 net.cpp:399] res2c_res2c_relu_0_split -> res2c_res2c_relu_0_split_0
I0824 17:40:54.207737  9024 net.cpp:399] res2c_res2c_relu_0_split -> res2c_res2c_relu_0_split_1
I0824 17:40:54.207790  9024 net.cpp:141] Setting up res2c_res2c_relu_0_split
I0824 17:40:54.207813  9024 net.cpp:148] Top shape: 10 256 56 56 (8028160)
I0824 17:40:54.207829  9024 net.cpp:148] Top shape: 10 256 56 56 (8028160)
I0824 17:40:54.207844  9024 net.cpp:156] Memory required for data: 1121935400
I0824 17:40:54.207857  9024 layer_factory.hpp:77] Creating layer res3a_branch1
I0824 17:40:54.207876  9024 net.cpp:91] Creating Layer res3a_branch1
I0824 17:40:54.207896  9024 net.cpp:425] res3a_branch1 <- res2c_res2c_relu_0_split_0
I0824 17:40:54.207918  9024 net.cpp:399] res3a_branch1 -> res3a_branch1
I0824 17:40:54.209904  9024 net.cpp:141] Setting up res3a_branch1
I0824 17:40:54.209935  9024 net.cpp:148] Top shape: 10 512 28 28 (4014080)
I0824 17:40:54.209950  9024 net.cpp:156] Memory required for data: 1137991720
I0824 17:40:54.209969  9024 layer_factory.hpp:77] Creating layer bn3a_branch1
I0824 17:40:54.209986  9024 net.cpp:91] Creating Layer bn3a_branch1
I0824 17:40:54.210002  9024 net.cpp:425] bn3a_branch1 <- res3a_branch1
I0824 17:40:54.210018  9024 net.cpp:386] bn3a_branch1 -> res3a_branch1 (in-place)
I0824 17:40:54.210886  9024 net.cpp:141] Setting up bn3a_branch1
I0824 17:40:54.210914  9024 net.cpp:148] Top shape: 10 512 28 28 (4014080)
I0824 17:40:54.210929  9024 net.cpp:156] Memory required for data: 1154048040
I0824 17:40:54.210953  9024 layer_factory.hpp:77] Creating layer scale3a_branch1
I0824 17:40:54.210973  9024 net.cpp:91] Creating Layer scale3a_branch1
I0824 17:40:54.210988  9024 net.cpp:425] scale3a_branch1 <- res3a_branch1
I0824 17:40:54.211004  9024 net.cpp:386] scale3a_branch1 -> res3a_branch1 (in-place)
I0824 17:40:54.211069  9024 layer_factory.hpp:77] Creating layer scale3a_branch1
I0824 17:40:54.211205  9024 net.cpp:141] Setting up scale3a_branch1
I0824 17:40:54.211230  9024 net.cpp:148] Top shape: 10 512 28 28 (4014080)
I0824 17:40:54.211243  9024 net.cpp:156] Memory required for data: 1170104360
I0824 17:40:54.211282  9024 layer_factory.hpp:77] Creating layer res3a_branch2a
I0824 17:40:54.211309  9024 net.cpp:91] Creating Layer res3a_branch2a
I0824 17:40:54.211328  9024 net.cpp:425] res3a_branch2a <- res2c_res2c_relu_0_split_1
I0824 17:40:54.211349  9024 net.cpp:399] res3a_branch2a -> res3a_branch2a
I0824 17:40:54.211843  9024 net.cpp:141] Setting up res3a_branch2a
I0824 17:40:54.211869  9024 net.cpp:148] Top shape: 10 128 28 28 (1003520)
I0824 17:40:54.211884  9024 net.cpp:156] Memory required for data: 1174118440
I0824 17:40:54.211901  9024 layer_factory.hpp:77] Creating layer bn3a_branch2a
I0824 17:40:54.211922  9024 net.cpp:91] Creating Layer bn3a_branch2a
I0824 17:40:54.211938  9024 net.cpp:425] bn3a_branch2a <- res3a_branch2a
I0824 17:40:54.211956  9024 net.cpp:386] bn3a_branch2a -> res3a_branch2a (in-place)
I0824 17:40:54.212159  9024 net.cpp:141] Setting up bn3a_branch2a
I0824 17:40:54.212183  9024 net.cpp:148] Top shape: 10 128 28 28 (1003520)
I0824 17:40:54.212198  9024 net.cpp:156] Memory required for data: 1178132520
I0824 17:40:54.212218  9024 layer_factory.hpp:77] Creating layer scale3a_branch2a
I0824 17:40:54.212236  9024 net.cpp:91] Creating Layer scale3a_branch2a
I0824 17:40:54.212251  9024 net.cpp:425] scale3a_branch2a <- res3a_branch2a
I0824 17:40:54.212271  9024 net.cpp:386] scale3a_branch2a -> res3a_branch2a (in-place)
I0824 17:40:54.212327  9024 layer_factory.hpp:77] Creating layer scale3a_branch2a
I0824 17:40:54.212460  9024 net.cpp:141] Setting up scale3a_branch2a
I0824 17:40:54.212486  9024 net.cpp:148] Top shape: 10 128 28 28 (1003520)
I0824 17:40:54.212502  9024 net.cpp:156] Memory required for data: 1182146600
I0824 17:40:54.212519  9024 layer_factory.hpp:77] Creating layer res3a_branch2a_relu
I0824 17:40:54.212538  9024 net.cpp:91] Creating Layer res3a_branch2a_relu
I0824 17:40:54.212551  9024 net.cpp:425] res3a_branch2a_relu <- res3a_branch2a
I0824 17:40:54.212566  9024 net.cpp:386] res3a_branch2a_relu -> res3a_branch2a (in-place)
I0824 17:40:54.212584  9024 net.cpp:141] Setting up res3a_branch2a_relu
I0824 17:40:54.212606  9024 net.cpp:148] Top shape: 10 128 28 28 (1003520)
I0824 17:40:54.212621  9024 net.cpp:156] Memory required for data: 1186160680
I0824 17:40:54.212637  9024 layer_factory.hpp:77] Creating layer res3a_branch2b
I0824 17:40:54.212662  9024 net.cpp:91] Creating Layer res3a_branch2b
I0824 17:40:54.212678  9024 net.cpp:425] res3a_branch2b <- res3a_branch2a
I0824 17:40:54.212698  9024 net.cpp:399] res3a_branch2b -> res3a_branch2b
I0824 17:40:54.214804  9024 net.cpp:141] Setting up res3a_branch2b
I0824 17:40:54.214834  9024 net.cpp:148] Top shape: 10 128 28 28 (1003520)
I0824 17:40:54.214850  9024 net.cpp:156] Memory required for data: 1190174760
I0824 17:40:54.214866  9024 layer_factory.hpp:77] Creating layer bn3a_branch2b
I0824 17:40:54.214889  9024 net.cpp:91] Creating Layer bn3a_branch2b
I0824 17:40:54.214903  9024 net.cpp:425] bn3a_branch2b <- res3a_branch2b
I0824 17:40:54.214920  9024 net.cpp:386] bn3a_branch2b -> res3a_branch2b (in-place)
I0824 17:40:54.215126  9024 net.cpp:141] Setting up bn3a_branch2b
I0824 17:40:54.215150  9024 net.cpp:148] Top shape: 10 128 28 28 (1003520)
I0824 17:40:54.215165  9024 net.cpp:156] Memory required for data: 1194188840
I0824 17:40:54.215185  9024 layer_factory.hpp:77] Creating layer scale3a_branch2b
I0824 17:40:54.215204  9024 net.cpp:91] Creating Layer scale3a_branch2b
I0824 17:40:54.215219  9024 net.cpp:425] scale3a_branch2b <- res3a_branch2b
I0824 17:40:54.215237  9024 net.cpp:386] scale3a_branch2b -> res3a_branch2b (in-place)
I0824 17:40:54.215294  9024 layer_factory.hpp:77] Creating layer scale3a_branch2b
I0824 17:40:54.215435  9024 net.cpp:141] Setting up scale3a_branch2b
I0824 17:40:54.215463  9024 net.cpp:148] Top shape: 10 128 28 28 (1003520)
I0824 17:40:54.215477  9024 net.cpp:156] Memory required for data: 1198202920
I0824 17:40:54.215495  9024 layer_factory.hpp:77] Creating layer res3a_branch2b_relu
I0824 17:40:54.215513  9024 net.cpp:91] Creating Layer res3a_branch2b_relu
I0824 17:40:54.215528  9024 net.cpp:425] res3a_branch2b_relu <- res3a_branch2b
I0824 17:40:54.215561  9024 net.cpp:386] res3a_branch2b_relu -> res3a_branch2b (in-place)
I0824 17:40:54.215581  9024 net.cpp:141] Setting up res3a_branch2b_relu
I0824 17:40:54.215597  9024 net.cpp:148] Top shape: 10 128 28 28 (1003520)
I0824 17:40:54.215611  9024 net.cpp:156] Memory required for data: 1202217000
I0824 17:40:54.215626  9024 layer_factory.hpp:77] Creating layer res3a_branch2c
I0824 17:40:54.215648  9024 net.cpp:91] Creating Layer res3a_branch2c
I0824 17:40:54.215664  9024 net.cpp:425] res3a_branch2c <- res3a_branch2b
I0824 17:40:54.215685  9024 net.cpp:399] res3a_branch2c -> res3a_branch2c
I0824 17:40:54.216485  9024 net.cpp:141] Setting up res3a_branch2c
I0824 17:40:54.216511  9024 net.cpp:148] Top shape: 10 512 28 28 (4014080)
I0824 17:40:54.216526  9024 net.cpp:156] Memory required for data: 1218273320
I0824 17:40:54.216542  9024 layer_factory.hpp:77] Creating layer bn3a_branch2c
I0824 17:40:54.216570  9024 net.cpp:91] Creating Layer bn3a_branch2c
I0824 17:40:54.216588  9024 net.cpp:425] bn3a_branch2c <- res3a_branch2c
I0824 17:40:54.216610  9024 net.cpp:386] bn3a_branch2c -> res3a_branch2c (in-place)
I0824 17:40:54.216817  9024 net.cpp:141] Setting up bn3a_branch2c
I0824 17:40:54.216842  9024 net.cpp:148] Top shape: 10 512 28 28 (4014080)
I0824 17:40:54.216856  9024 net.cpp:156] Memory required for data: 1234329640
I0824 17:40:54.216876  9024 layer_factory.hpp:77] Creating layer scale3a_branch2c
I0824 17:40:54.216895  9024 net.cpp:91] Creating Layer scale3a_branch2c
I0824 17:40:54.216910  9024 net.cpp:425] scale3a_branch2c <- res3a_branch2c
I0824 17:40:54.216926  9024 net.cpp:386] scale3a_branch2c -> res3a_branch2c (in-place)
I0824 17:40:54.216985  9024 layer_factory.hpp:77] Creating layer scale3a_branch2c
I0824 17:40:54.217119  9024 net.cpp:141] Setting up scale3a_branch2c
I0824 17:40:54.217144  9024 net.cpp:148] Top shape: 10 512 28 28 (4014080)
I0824 17:40:54.217157  9024 net.cpp:156] Memory required for data: 1250385960
I0824 17:40:54.217175  9024 layer_factory.hpp:77] Creating layer res3a
I0824 17:40:54.217195  9024 net.cpp:91] Creating Layer res3a
I0824 17:40:54.217211  9024 net.cpp:425] res3a <- res3a_branch1
I0824 17:40:54.217231  9024 net.cpp:425] res3a <- res3a_branch2c
I0824 17:40:54.217250  9024 net.cpp:399] res3a -> res3a
I0824 17:40:54.217293  9024 net.cpp:141] Setting up res3a
I0824 17:40:54.217317  9024 net.cpp:148] Top shape: 10 512 28 28 (4014080)
I0824 17:40:54.217331  9024 net.cpp:156] Memory required for data: 1266442280
I0824 17:40:54.217345  9024 layer_factory.hpp:77] Creating layer res3a_relu
I0824 17:40:54.217362  9024 net.cpp:91] Creating Layer res3a_relu
I0824 17:40:54.217376  9024 net.cpp:425] res3a_relu <- res3a
I0824 17:40:54.217396  9024 net.cpp:386] res3a_relu -> res3a (in-place)
I0824 17:40:54.217413  9024 net.cpp:141] Setting up res3a_relu
I0824 17:40:54.217429  9024 net.cpp:148] Top shape: 10 512 28 28 (4014080)
I0824 17:40:54.217442  9024 net.cpp:156] Memory required for data: 1282498600
I0824 17:40:54.217456  9024 layer_factory.hpp:77] Creating layer res3a_res3a_relu_0_split
I0824 17:40:54.217473  9024 net.cpp:91] Creating Layer res3a_res3a_relu_0_split
I0824 17:40:54.217486  9024 net.cpp:425] res3a_res3a_relu_0_split <- res3a
I0824 17:40:54.217504  9024 net.cpp:399] res3a_res3a_relu_0_split -> res3a_res3a_relu_0_split_0
I0824 17:40:54.217521  9024 net.cpp:399] res3a_res3a_relu_0_split -> res3a_res3a_relu_0_split_1
I0824 17:40:54.217573  9024 net.cpp:141] Setting up res3a_res3a_relu_0_split
I0824 17:40:54.217595  9024 net.cpp:148] Top shape: 10 512 28 28 (4014080)
I0824 17:40:54.217612  9024 net.cpp:148] Top shape: 10 512 28 28 (4014080)
I0824 17:40:54.217625  9024 net.cpp:156] Memory required for data: 1314611240
I0824 17:40:54.217639  9024 layer_factory.hpp:77] Creating layer res3b_branch2a
I0824 17:40:54.217664  9024 net.cpp:91] Creating Layer res3b_branch2a
I0824 17:40:54.217680  9024 net.cpp:425] res3b_branch2a <- res3a_res3a_relu_0_split_0
I0824 17:40:54.217699  9024 net.cpp:399] res3b_branch2a -> res3b_branch2a
I0824 17:40:54.219139  9024 net.cpp:141] Setting up res3b_branch2a
I0824 17:40:54.219169  9024 net.cpp:148] Top shape: 10 128 28 28 (1003520)
I0824 17:40:54.219185  9024 net.cpp:156] Memory required for data: 1318625320
I0824 17:40:54.219202  9024 layer_factory.hpp:77] Creating layer bn3b_branch2a
I0824 17:40:54.219224  9024 net.cpp:91] Creating Layer bn3b_branch2a
I0824 17:40:54.219239  9024 net.cpp:425] bn3b_branch2a <- res3b_branch2a
I0824 17:40:54.219256  9024 net.cpp:386] bn3b_branch2a -> res3b_branch2a (in-place)
I0824 17:40:54.219461  9024 net.cpp:141] Setting up bn3b_branch2a
I0824 17:40:54.219485  9024 net.cpp:148] Top shape: 10 128 28 28 (1003520)
I0824 17:40:54.219501  9024 net.cpp:156] Memory required for data: 1322639400
I0824 17:40:54.219519  9024 layer_factory.hpp:77] Creating layer scale3b_branch2a
I0824 17:40:54.219542  9024 net.cpp:91] Creating Layer scale3b_branch2a
I0824 17:40:54.219557  9024 net.cpp:425] scale3b_branch2a <- res3b_branch2a
I0824 17:40:54.219573  9024 net.cpp:386] scale3b_branch2a -> res3b_branch2a (in-place)
I0824 17:40:54.219631  9024 layer_factory.hpp:77] Creating layer scale3b_branch2a
I0824 17:40:54.219775  9024 net.cpp:141] Setting up scale3b_branch2a
I0824 17:40:54.219799  9024 net.cpp:148] Top shape: 10 128 28 28 (1003520)
I0824 17:40:54.219815  9024 net.cpp:156] Memory required for data: 1326653480
I0824 17:40:54.219832  9024 layer_factory.hpp:77] Creating layer res3b_branch2a_relu
I0824 17:40:54.219849  9024 net.cpp:91] Creating Layer res3b_branch2a_relu
I0824 17:40:54.219864  9024 net.cpp:425] res3b_branch2a_relu <- res3b_branch2a
I0824 17:40:54.219879  9024 net.cpp:386] res3b_branch2a_relu -> res3b_branch2a (in-place)
I0824 17:40:54.219897  9024 net.cpp:141] Setting up res3b_branch2a_relu
I0824 17:40:54.219913  9024 net.cpp:148] Top shape: 10 128 28 28 (1003520)
I0824 17:40:54.219928  9024 net.cpp:156] Memory required for data: 1330667560
I0824 17:40:54.219940  9024 layer_factory.hpp:77] Creating layer res3b_branch2b
I0824 17:40:54.219965  9024 net.cpp:91] Creating Layer res3b_branch2b
I0824 17:40:54.219981  9024 net.cpp:425] res3b_branch2b <- res3b_branch2a
I0824 17:40:54.220002  9024 net.cpp:399] res3b_branch2b -> res3b_branch2b
I0824 17:40:54.222103  9024 net.cpp:141] Setting up res3b_branch2b
I0824 17:40:54.222133  9024 net.cpp:148] Top shape: 10 128 28 28 (1003520)
I0824 17:40:54.222148  9024 net.cpp:156] Memory required for data: 1334681640
I0824 17:40:54.222165  9024 layer_factory.hpp:77] Creating layer bn3b_branch2b
I0824 17:40:54.222187  9024 net.cpp:91] Creating Layer bn3b_branch2b
I0824 17:40:54.222203  9024 net.cpp:425] bn3b_branch2b <- res3b_branch2b
I0824 17:40:54.222219  9024 net.cpp:386] bn3b_branch2b -> res3b_branch2b (in-place)
I0824 17:40:54.222434  9024 net.cpp:141] Setting up bn3b_branch2b
I0824 17:40:54.222458  9024 net.cpp:148] Top shape: 10 128 28 28 (1003520)
I0824 17:40:54.222473  9024 net.cpp:156] Memory required for data: 1338695720
I0824 17:40:54.222493  9024 layer_factory.hpp:77] Creating layer scale3b_branch2b
I0824 17:40:54.222512  9024 net.cpp:91] Creating Layer scale3b_branch2b
I0824 17:40:54.222527  9024 net.cpp:425] scale3b_branch2b <- res3b_branch2b
I0824 17:40:54.222546  9024 net.cpp:386] scale3b_branch2b -> res3b_branch2b (in-place)
I0824 17:40:54.222604  9024 layer_factory.hpp:77] Creating layer scale3b_branch2b
I0824 17:40:54.222749  9024 net.cpp:141] Setting up scale3b_branch2b
I0824 17:40:54.222774  9024 net.cpp:148] Top shape: 10 128 28 28 (1003520)
I0824 17:40:54.222787  9024 net.cpp:156] Memory required for data: 1342709800
I0824 17:40:54.222805  9024 layer_factory.hpp:77] Creating layer res3b_branch2b_relu
I0824 17:40:54.222822  9024 net.cpp:91] Creating Layer res3b_branch2b_relu
I0824 17:40:54.222837  9024 net.cpp:425] res3b_branch2b_relu <- res3b_branch2b
I0824 17:40:54.222853  9024 net.cpp:386] res3b_branch2b_relu -> res3b_branch2b (in-place)
I0824 17:40:54.222870  9024 net.cpp:141] Setting up res3b_branch2b_relu
I0824 17:40:54.222887  9024 net.cpp:148] Top shape: 10 128 28 28 (1003520)
I0824 17:40:54.222900  9024 net.cpp:156] Memory required for data: 1346723880
I0824 17:40:54.222934  9024 layer_factory.hpp:77] Creating layer res3b_branch2c
I0824 17:40:54.222959  9024 net.cpp:91] Creating Layer res3b_branch2c
I0824 17:40:54.222975  9024 net.cpp:425] res3b_branch2c <- res3b_branch2b
I0824 17:40:54.222995  9024 net.cpp:399] res3b_branch2c -> res3b_branch2c
I0824 17:40:54.223753  9024 net.cpp:141] Setting up res3b_branch2c
I0824 17:40:54.223779  9024 net.cpp:148] Top shape: 10 512 28 28 (4014080)
I0824 17:40:54.223794  9024 net.cpp:156] Memory required for data: 1362780200
I0824 17:40:54.223811  9024 layer_factory.hpp:77] Creating layer bn3b_branch2c
I0824 17:40:54.223829  9024 net.cpp:91] Creating Layer bn3b_branch2c
I0824 17:40:54.223843  9024 net.cpp:425] bn3b_branch2c <- res3b_branch2c
I0824 17:40:54.223860  9024 net.cpp:386] bn3b_branch2c -> res3b_branch2c (in-place)
I0824 17:40:54.224076  9024 net.cpp:141] Setting up bn3b_branch2c
I0824 17:40:54.224102  9024 net.cpp:148] Top shape: 10 512 28 28 (4014080)
I0824 17:40:54.224115  9024 net.cpp:156] Memory required for data: 1378836520
I0824 17:40:54.224134  9024 layer_factory.hpp:77] Creating layer scale3b_branch2c
I0824 17:40:54.224153  9024 net.cpp:91] Creating Layer scale3b_branch2c
I0824 17:40:54.224167  9024 net.cpp:425] scale3b_branch2c <- res3b_branch2c
I0824 17:40:54.224184  9024 net.cpp:386] scale3b_branch2c -> res3b_branch2c (in-place)
I0824 17:40:54.224248  9024 layer_factory.hpp:77] Creating layer scale3b_branch2c
I0824 17:40:54.224388  9024 net.cpp:141] Setting up scale3b_branch2c
I0824 17:40:54.224412  9024 net.cpp:148] Top shape: 10 512 28 28 (4014080)
I0824 17:40:54.224426  9024 net.cpp:156] Memory required for data: 1394892840
I0824 17:40:54.224444  9024 layer_factory.hpp:77] Creating layer res3b
I0824 17:40:54.224468  9024 net.cpp:91] Creating Layer res3b
I0824 17:40:54.224484  9024 net.cpp:425] res3b <- res3a_res3a_relu_0_split_1
I0824 17:40:54.224499  9024 net.cpp:425] res3b <- res3b_branch2c
I0824 17:40:54.224519  9024 net.cpp:399] res3b -> res3b
I0824 17:40:54.224558  9024 net.cpp:141] Setting up res3b
I0824 17:40:54.224581  9024 net.cpp:148] Top shape: 10 512 28 28 (4014080)
I0824 17:40:54.224596  9024 net.cpp:156] Memory required for data: 1410949160
I0824 17:40:54.224617  9024 layer_factory.hpp:77] Creating layer res3b_relu
I0824 17:40:54.224637  9024 net.cpp:91] Creating Layer res3b_relu
I0824 17:40:54.224651  9024 net.cpp:425] res3b_relu <- res3b
I0824 17:40:54.224668  9024 net.cpp:386] res3b_relu -> res3b (in-place)
I0824 17:40:54.224686  9024 net.cpp:141] Setting up res3b_relu
I0824 17:40:54.224704  9024 net.cpp:148] Top shape: 10 512 28 28 (4014080)
I0824 17:40:54.224722  9024 net.cpp:156] Memory required for data: 1427005480
I0824 17:40:54.224738  9024 layer_factory.hpp:77] Creating layer res3b_res3b_relu_0_split
I0824 17:40:54.224756  9024 net.cpp:91] Creating Layer res3b_res3b_relu_0_split
I0824 17:40:54.224769  9024 net.cpp:425] res3b_res3b_relu_0_split <- res3b
I0824 17:40:54.224786  9024 net.cpp:399] res3b_res3b_relu_0_split -> res3b_res3b_relu_0_split_0
I0824 17:40:54.224803  9024 net.cpp:399] res3b_res3b_relu_0_split -> res3b_res3b_relu_0_split_1
I0824 17:40:54.224859  9024 net.cpp:141] Setting up res3b_res3b_relu_0_split
I0824 17:40:54.224882  9024 net.cpp:148] Top shape: 10 512 28 28 (4014080)
I0824 17:40:54.224898  9024 net.cpp:148] Top shape: 10 512 28 28 (4014080)
I0824 17:40:54.224912  9024 net.cpp:156] Memory required for data: 1459118120
I0824 17:40:54.224926  9024 layer_factory.hpp:77] Creating layer res3c_branch2a
I0824 17:40:54.224946  9024 net.cpp:91] Creating Layer res3c_branch2a
I0824 17:40:54.224961  9024 net.cpp:425] res3c_branch2a <- res3b_res3b_relu_0_split_0
I0824 17:40:54.224982  9024 net.cpp:399] res3c_branch2a -> res3c_branch2a
I0824 17:40:54.225734  9024 net.cpp:141] Setting up res3c_branch2a
I0824 17:40:54.225760  9024 net.cpp:148] Top shape: 10 128 28 28 (1003520)
I0824 17:40:54.225775  9024 net.cpp:156] Memory required for data: 1463132200
I0824 17:40:54.225792  9024 layer_factory.hpp:77] Creating layer bn3c_branch2a
I0824 17:40:54.225829  9024 net.cpp:91] Creating Layer bn3c_branch2a
I0824 17:40:54.225847  9024 net.cpp:425] bn3c_branch2a <- res3c_branch2a
I0824 17:40:54.225864  9024 net.cpp:386] bn3c_branch2a -> res3c_branch2a (in-place)
I0824 17:40:54.226075  9024 net.cpp:141] Setting up bn3c_branch2a
I0824 17:40:54.226099  9024 net.cpp:148] Top shape: 10 128 28 28 (1003520)
I0824 17:40:54.226114  9024 net.cpp:156] Memory required for data: 1467146280
I0824 17:40:54.226133  9024 layer_factory.hpp:77] Creating layer scale3c_branch2a
I0824 17:40:54.226155  9024 net.cpp:91] Creating Layer scale3c_branch2a
I0824 17:40:54.226171  9024 net.cpp:425] scale3c_branch2a <- res3c_branch2a
I0824 17:40:54.226186  9024 net.cpp:386] scale3c_branch2a -> res3c_branch2a (in-place)
I0824 17:40:54.226245  9024 layer_factory.hpp:77] Creating layer scale3c_branch2a
I0824 17:40:54.226392  9024 net.cpp:141] Setting up scale3c_branch2a
I0824 17:40:54.226415  9024 net.cpp:148] Top shape: 10 128 28 28 (1003520)
I0824 17:40:54.226430  9024 net.cpp:156] Memory required for data: 1471160360
I0824 17:40:54.226447  9024 layer_factory.hpp:77] Creating layer res3c_branch2a_relu
I0824 17:40:54.226465  9024 net.cpp:91] Creating Layer res3c_branch2a_relu
I0824 17:40:54.226480  9024 net.cpp:425] res3c_branch2a_relu <- res3c_branch2a
I0824 17:40:54.226498  9024 net.cpp:386] res3c_branch2a_relu -> res3c_branch2a (in-place)
I0824 17:40:54.226516  9024 net.cpp:141] Setting up res3c_branch2a_relu
I0824 17:40:54.226532  9024 net.cpp:148] Top shape: 10 128 28 28 (1003520)
I0824 17:40:54.226546  9024 net.cpp:156] Memory required for data: 1475174440
I0824 17:40:54.226559  9024 layer_factory.hpp:77] Creating layer res3c_branch2b
I0824 17:40:54.226583  9024 net.cpp:91] Creating Layer res3c_branch2b
I0824 17:40:54.226598  9024 net.cpp:425] res3c_branch2b <- res3c_branch2a
I0824 17:40:54.226615  9024 net.cpp:399] res3c_branch2b -> res3c_branch2b
I0824 17:40:54.228718  9024 net.cpp:141] Setting up res3c_branch2b
I0824 17:40:54.228747  9024 net.cpp:148] Top shape: 10 128 28 28 (1003520)
I0824 17:40:54.228762  9024 net.cpp:156] Memory required for data: 1479188520
I0824 17:40:54.228780  9024 layer_factory.hpp:77] Creating layer bn3c_branch2b
I0824 17:40:54.228806  9024 net.cpp:91] Creating Layer bn3c_branch2b
I0824 17:40:54.228821  9024 net.cpp:425] bn3c_branch2b <- res3c_branch2b
I0824 17:40:54.228838  9024 net.cpp:386] bn3c_branch2b -> res3c_branch2b (in-place)
I0824 17:40:54.229053  9024 net.cpp:141] Setting up bn3c_branch2b
I0824 17:40:54.229076  9024 net.cpp:148] Top shape: 10 128 28 28 (1003520)
I0824 17:40:54.229091  9024 net.cpp:156] Memory required for data: 1483202600
I0824 17:40:54.229111  9024 layer_factory.hpp:77] Creating layer scale3c_branch2b
I0824 17:40:54.229133  9024 net.cpp:91] Creating Layer scale3c_branch2b
I0824 17:40:54.229148  9024 net.cpp:425] scale3c_branch2b <- res3c_branch2b
I0824 17:40:54.229166  9024 net.cpp:386] scale3c_branch2b -> res3c_branch2b (in-place)
I0824 17:40:54.229226  9024 layer_factory.hpp:77] Creating layer scale3c_branch2b
I0824 17:40:54.229370  9024 net.cpp:141] Setting up scale3c_branch2b
I0824 17:40:54.229394  9024 net.cpp:148] Top shape: 10 128 28 28 (1003520)
I0824 17:40:54.229408  9024 net.cpp:156] Memory required for data: 1487216680
I0824 17:40:54.229426  9024 layer_factory.hpp:77] Creating layer res3c_branch2b_relu
I0824 17:40:54.229444  9024 net.cpp:91] Creating Layer res3c_branch2b_relu
I0824 17:40:54.229459  9024 net.cpp:425] res3c_branch2b_relu <- res3c_branch2b
I0824 17:40:54.229475  9024 net.cpp:386] res3c_branch2b_relu -> res3c_branch2b (in-place)
I0824 17:40:54.229491  9024 net.cpp:141] Setting up res3c_branch2b_relu
I0824 17:40:54.229507  9024 net.cpp:148] Top shape: 10 128 28 28 (1003520)
I0824 17:40:54.229521  9024 net.cpp:156] Memory required for data: 1491230760
I0824 17:40:54.229535  9024 layer_factory.hpp:77] Creating layer res3c_branch2c
I0824 17:40:54.229559  9024 net.cpp:91] Creating Layer res3c_branch2c
I0824 17:40:54.229574  9024 net.cpp:425] res3c_branch2c <- res3c_branch2b
I0824 17:40:54.229595  9024 net.cpp:399] res3c_branch2c -> res3c_branch2c
I0824 17:40:54.230361  9024 net.cpp:141] Setting up res3c_branch2c
I0824 17:40:54.230387  9024 net.cpp:148] Top shape: 10 512 28 28 (4014080)
I0824 17:40:54.230402  9024 net.cpp:156] Memory required for data: 1507287080
I0824 17:40:54.230420  9024 layer_factory.hpp:77] Creating layer bn3c_branch2c
I0824 17:40:54.230438  9024 net.cpp:91] Creating Layer bn3c_branch2c
I0824 17:40:54.230453  9024 net.cpp:425] bn3c_branch2c <- res3c_branch2c
I0824 17:40:54.230469  9024 net.cpp:386] bn3c_branch2c -> res3c_branch2c (in-place)
I0824 17:40:54.230679  9024 net.cpp:141] Setting up bn3c_branch2c
I0824 17:40:54.230703  9024 net.cpp:148] Top shape: 10 512 28 28 (4014080)
I0824 17:40:54.230717  9024 net.cpp:156] Memory required for data: 1523343400
I0824 17:40:54.230739  9024 layer_factory.hpp:77] Creating layer scale3c_branch2c
I0824 17:40:54.230758  9024 net.cpp:91] Creating Layer scale3c_branch2c
I0824 17:40:54.230773  9024 net.cpp:425] scale3c_branch2c <- res3c_branch2c
I0824 17:40:54.230789  9024 net.cpp:386] scale3c_branch2c -> res3c_branch2c (in-place)
I0824 17:40:54.230854  9024 layer_factory.hpp:77] Creating layer scale3c_branch2c
I0824 17:40:54.230994  9024 net.cpp:141] Setting up scale3c_branch2c
I0824 17:40:54.231019  9024 net.cpp:148] Top shape: 10 512 28 28 (4014080)
I0824 17:40:54.231032  9024 net.cpp:156] Memory required for data: 1539399720
I0824 17:40:54.231050  9024 layer_factory.hpp:77] Creating layer res3c
I0824 17:40:54.231070  9024 net.cpp:91] Creating Layer res3c
I0824 17:40:54.231086  9024 net.cpp:425] res3c <- res3b_res3b_relu_0_split_1
I0824 17:40:54.231101  9024 net.cpp:425] res3c <- res3c_branch2c
I0824 17:40:54.231118  9024 net.cpp:399] res3c -> res3c
I0824 17:40:54.231161  9024 net.cpp:141] Setting up res3c
I0824 17:40:54.231184  9024 net.cpp:148] Top shape: 10 512 28 28 (4014080)
I0824 17:40:54.231199  9024 net.cpp:156] Memory required for data: 1555456040
I0824 17:40:54.231212  9024 layer_factory.hpp:77] Creating layer res3c_relu
I0824 17:40:54.231228  9024 net.cpp:91] Creating Layer res3c_relu
I0824 17:40:54.231243  9024 net.cpp:425] res3c_relu <- res3c
I0824 17:40:54.231261  9024 net.cpp:386] res3c_relu -> res3c (in-place)
I0824 17:40:54.231281  9024 net.cpp:141] Setting up res3c_relu
I0824 17:40:54.231297  9024 net.cpp:148] Top shape: 10 512 28 28 (4014080)
I0824 17:40:54.231309  9024 net.cpp:156] Memory required for data: 1571512360
I0824 17:40:54.231323  9024 layer_factory.hpp:77] Creating layer res3c_res3c_relu_0_split
I0824 17:40:54.231340  9024 net.cpp:91] Creating Layer res3c_res3c_relu_0_split
I0824 17:40:54.231354  9024 net.cpp:425] res3c_res3c_relu_0_split <- res3c
I0824 17:40:54.231370  9024 net.cpp:399] res3c_res3c_relu_0_split -> res3c_res3c_relu_0_split_0
I0824 17:40:54.231389  9024 net.cpp:399] res3c_res3c_relu_0_split -> res3c_res3c_relu_0_split_1
I0824 17:40:54.231443  9024 net.cpp:141] Setting up res3c_res3c_relu_0_split
I0824 17:40:54.231467  9024 net.cpp:148] Top shape: 10 512 28 28 (4014080)
I0824 17:40:54.231482  9024 net.cpp:148] Top shape: 10 512 28 28 (4014080)
I0824 17:40:54.231497  9024 net.cpp:156] Memory required for data: 1603625000
I0824 17:40:54.231510  9024 layer_factory.hpp:77] Creating layer res3d_branch2a
I0824 17:40:54.231530  9024 net.cpp:91] Creating Layer res3d_branch2a
I0824 17:40:54.231545  9024 net.cpp:425] res3d_branch2a <- res3c_res3c_relu_0_split_0
I0824 17:40:54.231570  9024 net.cpp:399] res3d_branch2a -> res3d_branch2a
I0824 17:40:54.232986  9024 net.cpp:141] Setting up res3d_branch2a
I0824 17:40:54.233016  9024 net.cpp:148] Top shape: 10 128 28 28 (1003520)
I0824 17:40:54.233031  9024 net.cpp:156] Memory required for data: 1607639080
I0824 17:40:54.233047  9024 layer_factory.hpp:77] Creating layer bn3d_branch2a
I0824 17:40:54.233067  9024 net.cpp:91] Creating Layer bn3d_branch2a
I0824 17:40:54.233081  9024 net.cpp:425] bn3d_branch2a <- res3d_branch2a
I0824 17:40:54.233096  9024 net.cpp:386] bn3d_branch2a -> res3d_branch2a (in-place)
I0824 17:40:54.233309  9024 net.cpp:141] Setting up bn3d_branch2a
I0824 17:40:54.233337  9024 net.cpp:148] Top shape: 10 128 28 28 (1003520)
I0824 17:40:54.233369  9024 net.cpp:156] Memory required for data: 1611653160
I0824 17:40:54.233422  9024 layer_factory.hpp:77] Creating layer scale3d_branch2a
I0824 17:40:54.233446  9024 net.cpp:91] Creating Layer scale3d_branch2a
I0824 17:40:54.233461  9024 net.cpp:425] scale3d_branch2a <- res3d_branch2a
I0824 17:40:54.233479  9024 net.cpp:386] scale3d_branch2a -> res3d_branch2a (in-place)
I0824 17:40:54.233542  9024 layer_factory.hpp:77] Creating layer scale3d_branch2a
I0824 17:40:54.233690  9024 net.cpp:141] Setting up scale3d_branch2a
I0824 17:40:54.233714  9024 net.cpp:148] Top shape: 10 128 28 28 (1003520)
I0824 17:40:54.233729  9024 net.cpp:156] Memory required for data: 1615667240
I0824 17:40:54.233747  9024 layer_factory.hpp:77] Creating layer res3d_branch2a_relu
I0824 17:40:54.233765  9024 net.cpp:91] Creating Layer res3d_branch2a_relu
I0824 17:40:54.233779  9024 net.cpp:425] res3d_branch2a_relu <- res3d_branch2a
I0824 17:40:54.233798  9024 net.cpp:386] res3d_branch2a_relu -> res3d_branch2a (in-place)
I0824 17:40:54.233817  9024 net.cpp:141] Setting up res3d_branch2a_relu
I0824 17:40:54.233834  9024 net.cpp:148] Top shape: 10 128 28 28 (1003520)
I0824 17:40:54.233847  9024 net.cpp:156] Memory required for data: 1619681320
I0824 17:40:54.233860  9024 layer_factory.hpp:77] Creating layer res3d_branch2b
I0824 17:40:54.233880  9024 net.cpp:91] Creating Layer res3d_branch2b
I0824 17:40:54.233896  9024 net.cpp:425] res3d_branch2b <- res3d_branch2a
I0824 17:40:54.233912  9024 net.cpp:399] res3d_branch2b -> res3d_branch2b
I0824 17:40:54.236021  9024 net.cpp:141] Setting up res3d_branch2b
I0824 17:40:54.236049  9024 net.cpp:148] Top shape: 10 128 28 28 (1003520)
I0824 17:40:54.236064  9024 net.cpp:156] Memory required for data: 1623695400
I0824 17:40:54.236081  9024 layer_factory.hpp:77] Creating layer bn3d_branch2b
I0824 17:40:54.236099  9024 net.cpp:91] Creating Layer bn3d_branch2b
I0824 17:40:54.236114  9024 net.cpp:425] bn3d_branch2b <- res3d_branch2b
I0824 17:40:54.236130  9024 net.cpp:386] bn3d_branch2b -> res3d_branch2b (in-place)
I0824 17:40:54.236349  9024 net.cpp:141] Setting up bn3d_branch2b
I0824 17:40:54.236373  9024 net.cpp:148] Top shape: 10 128 28 28 (1003520)
I0824 17:40:54.236388  9024 net.cpp:156] Memory required for data: 1627709480
I0824 17:40:54.236407  9024 layer_factory.hpp:77] Creating layer scale3d_branch2b
I0824 17:40:54.236429  9024 net.cpp:91] Creating Layer scale3d_branch2b
I0824 17:40:54.236445  9024 net.cpp:425] scale3d_branch2b <- res3d_branch2b
I0824 17:40:54.236462  9024 net.cpp:386] scale3d_branch2b -> res3d_branch2b (in-place)
I0824 17:40:54.236524  9024 layer_factory.hpp:77] Creating layer scale3d_branch2b
I0824 17:40:54.236686  9024 net.cpp:141] Setting up scale3d_branch2b
I0824 17:40:54.236711  9024 net.cpp:148] Top shape: 10 128 28 28 (1003520)
I0824 17:40:54.236726  9024 net.cpp:156] Memory required for data: 1631723560
I0824 17:40:54.236742  9024 layer_factory.hpp:77] Creating layer res3d_branch2b_relu
I0824 17:40:54.236759  9024 net.cpp:91] Creating Layer res3d_branch2b_relu
I0824 17:40:54.236774  9024 net.cpp:425] res3d_branch2b_relu <- res3d_branch2b
I0824 17:40:54.236793  9024 net.cpp:386] res3d_branch2b_relu -> res3d_branch2b (in-place)
I0824 17:40:54.236811  9024 net.cpp:141] Setting up res3d_branch2b_relu
I0824 17:40:54.236827  9024 net.cpp:148] Top shape: 10 128 28 28 (1003520)
I0824 17:40:54.236840  9024 net.cpp:156] Memory required for data: 1635737640
I0824 17:40:54.236855  9024 layer_factory.hpp:77] Creating layer res3d_branch2c
I0824 17:40:54.236877  9024 net.cpp:91] Creating Layer res3d_branch2c
I0824 17:40:54.236893  9024 net.cpp:425] res3d_branch2c <- res3d_branch2b
I0824 17:40:54.236910  9024 net.cpp:399] res3d_branch2c -> res3d_branch2c
I0824 17:40:54.237666  9024 net.cpp:141] Setting up res3d_branch2c
I0824 17:40:54.237691  9024 net.cpp:148] Top shape: 10 512 28 28 (4014080)
I0824 17:40:54.237706  9024 net.cpp:156] Memory required for data: 1651793960
I0824 17:40:54.237725  9024 layer_factory.hpp:77] Creating layer bn3d_branch2c
I0824 17:40:54.237759  9024 net.cpp:91] Creating Layer bn3d_branch2c
I0824 17:40:54.237776  9024 net.cpp:425] bn3d_branch2c <- res3d_branch2c
I0824 17:40:54.237794  9024 net.cpp:386] bn3d_branch2c -> res3d_branch2c (in-place)
I0824 17:40:54.238013  9024 net.cpp:141] Setting up bn3d_branch2c
I0824 17:40:54.238039  9024 net.cpp:148] Top shape: 10 512 28 28 (4014080)
I0824 17:40:54.238052  9024 net.cpp:156] Memory required for data: 1667850280
I0824 17:40:54.238072  9024 layer_factory.hpp:77] Creating layer scale3d_branch2c
I0824 17:40:54.238091  9024 net.cpp:91] Creating Layer scale3d_branch2c
I0824 17:40:54.238106  9024 net.cpp:425] scale3d_branch2c <- res3d_branch2c
I0824 17:40:54.238121  9024 net.cpp:386] scale3d_branch2c -> res3d_branch2c (in-place)
I0824 17:40:54.238184  9024 layer_factory.hpp:77] Creating layer scale3d_branch2c
I0824 17:40:54.238327  9024 net.cpp:141] Setting up scale3d_branch2c
I0824 17:40:54.238350  9024 net.cpp:148] Top shape: 10 512 28 28 (4014080)
I0824 17:40:54.238364  9024 net.cpp:156] Memory required for data: 1683906600
I0824 17:40:54.238382  9024 layer_factory.hpp:77] Creating layer res3d
I0824 17:40:54.238400  9024 net.cpp:91] Creating Layer res3d
I0824 17:40:54.238415  9024 net.cpp:425] res3d <- res3c_res3c_relu_0_split_1
I0824 17:40:54.238430  9024 net.cpp:425] res3d <- res3d_branch2c
I0824 17:40:54.238451  9024 net.cpp:399] res3d -> res3d
I0824 17:40:54.238490  9024 net.cpp:141] Setting up res3d
I0824 17:40:54.238513  9024 net.cpp:148] Top shape: 10 512 28 28 (4014080)
I0824 17:40:54.238528  9024 net.cpp:156] Memory required for data: 1699962920
I0824 17:40:54.238543  9024 layer_factory.hpp:77] Creating layer res3d_relu
I0824 17:40:54.238562  9024 net.cpp:91] Creating Layer res3d_relu
I0824 17:40:54.238577  9024 net.cpp:425] res3d_relu <- res3d
I0824 17:40:54.238593  9024 net.cpp:386] res3d_relu -> res3d (in-place)
I0824 17:40:54.238611  9024 net.cpp:141] Setting up res3d_relu
I0824 17:40:54.238626  9024 net.cpp:148] Top shape: 10 512 28 28 (4014080)
I0824 17:40:54.238641  9024 net.cpp:156] Memory required for data: 1716019240
I0824 17:40:54.238654  9024 layer_factory.hpp:77] Creating layer res3d_res3d_relu_0_split
I0824 17:40:54.238673  9024 net.cpp:91] Creating Layer res3d_res3d_relu_0_split
I0824 17:40:54.238688  9024 net.cpp:425] res3d_res3d_relu_0_split <- res3d
I0824 17:40:54.238704  9024 net.cpp:399] res3d_res3d_relu_0_split -> res3d_res3d_relu_0_split_0
I0824 17:40:54.238723  9024 net.cpp:399] res3d_res3d_relu_0_split -> res3d_res3d_relu_0_split_1
I0824 17:40:54.238776  9024 net.cpp:141] Setting up res3d_res3d_relu_0_split
I0824 17:40:54.238798  9024 net.cpp:148] Top shape: 10 512 28 28 (4014080)
I0824 17:40:54.238814  9024 net.cpp:148] Top shape: 10 512 28 28 (4014080)
I0824 17:40:54.238828  9024 net.cpp:156] Memory required for data: 1748131880
I0824 17:40:54.238842  9024 layer_factory.hpp:77] Creating layer res4a_branch1
I0824 17:40:54.238865  9024 net.cpp:91] Creating Layer res4a_branch1
I0824 17:40:54.238881  9024 net.cpp:425] res4a_branch1 <- res3d_res3d_relu_0_split_0
I0824 17:40:54.238898  9024 net.cpp:399] res4a_branch1 -> res4a_branch1
I0824 17:40:54.240671  9024 net.cpp:141] Setting up res4a_branch1
I0824 17:40:54.240700  9024 net.cpp:148] Top shape: 10 1024 14 14 (2007040)
I0824 17:40:54.240716  9024 net.cpp:156] Memory required for data: 1756160040
I0824 17:40:54.240734  9024 layer_factory.hpp:77] Creating layer bn4a_branch1
I0824 17:40:54.240752  9024 net.cpp:91] Creating Layer bn4a_branch1
I0824 17:40:54.240767  9024 net.cpp:425] bn4a_branch1 <- res4a_branch1
I0824 17:40:54.240787  9024 net.cpp:386] bn4a_branch1 -> res4a_branch1 (in-place)
I0824 17:40:54.241019  9024 net.cpp:141] Setting up bn4a_branch1
I0824 17:40:54.241044  9024 net.cpp:148] Top shape: 10 1024 14 14 (2007040)
I0824 17:40:54.241057  9024 net.cpp:156] Memory required for data: 1764188200
I0824 17:40:54.241077  9024 layer_factory.hpp:77] Creating layer scale4a_branch1
I0824 17:40:54.241096  9024 net.cpp:91] Creating Layer scale4a_branch1
I0824 17:40:54.241112  9024 net.cpp:425] scale4a_branch1 <- res4a_branch1
I0824 17:40:54.241147  9024 net.cpp:386] scale4a_branch1 -> res4a_branch1 (in-place)
I0824 17:40:54.241210  9024 layer_factory.hpp:77] Creating layer scale4a_branch1
I0824 17:40:54.241358  9024 net.cpp:141] Setting up scale4a_branch1
I0824 17:40:54.241382  9024 net.cpp:148] Top shape: 10 1024 14 14 (2007040)
I0824 17:40:54.241396  9024 net.cpp:156] Memory required for data: 1772216360
I0824 17:40:54.241415  9024 layer_factory.hpp:77] Creating layer res4a_branch2a
I0824 17:40:54.241439  9024 net.cpp:91] Creating Layer res4a_branch2a
I0824 17:40:54.241456  9024 net.cpp:425] res4a_branch2a <- res3d_res3d_relu_0_split_1
I0824 17:40:54.241477  9024 net.cpp:399] res4a_branch2a -> res4a_branch2a
I0824 17:40:54.242821  9024 net.cpp:141] Setting up res4a_branch2a
I0824 17:40:54.242848  9024 net.cpp:148] Top shape: 10 256 14 14 (501760)
I0824 17:40:54.242862  9024 net.cpp:156] Memory required for data: 1774223400
I0824 17:40:54.242882  9024 layer_factory.hpp:77] Creating layer bn4a_branch2a
I0824 17:40:54.242899  9024 net.cpp:91] Creating Layer bn4a_branch2a
I0824 17:40:54.242913  9024 net.cpp:425] bn4a_branch2a <- res4a_branch2a
I0824 17:40:54.242933  9024 net.cpp:386] bn4a_branch2a -> res4a_branch2a (in-place)
I0824 17:40:54.243142  9024 net.cpp:141] Setting up bn4a_branch2a
I0824 17:40:54.243165  9024 net.cpp:148] Top shape: 10 256 14 14 (501760)
I0824 17:40:54.243180  9024 net.cpp:156] Memory required for data: 1776230440
I0824 17:40:54.243199  9024 layer_factory.hpp:77] Creating layer scale4a_branch2a
I0824 17:40:54.243218  9024 net.cpp:91] Creating Layer scale4a_branch2a
I0824 17:40:54.243233  9024 net.cpp:425] scale4a_branch2a <- res4a_branch2a
I0824 17:40:54.243249  9024 net.cpp:386] scale4a_branch2a -> res4a_branch2a (in-place)
I0824 17:40:54.243309  9024 layer_factory.hpp:77] Creating layer scale4a_branch2a
I0824 17:40:54.243448  9024 net.cpp:141] Setting up scale4a_branch2a
I0824 17:40:54.243471  9024 net.cpp:148] Top shape: 10 256 14 14 (501760)
I0824 17:40:54.243485  9024 net.cpp:156] Memory required for data: 1778237480
I0824 17:40:54.243504  9024 layer_factory.hpp:77] Creating layer res4a_branch2a_relu
I0824 17:40:54.243525  9024 net.cpp:91] Creating Layer res4a_branch2a_relu
I0824 17:40:54.243541  9024 net.cpp:425] res4a_branch2a_relu <- res4a_branch2a
I0824 17:40:54.243556  9024 net.cpp:386] res4a_branch2a_relu -> res4a_branch2a (in-place)
I0824 17:40:54.243573  9024 net.cpp:141] Setting up res4a_branch2a_relu
I0824 17:40:54.243589  9024 net.cpp:148] Top shape: 10 256 14 14 (501760)
I0824 17:40:54.243603  9024 net.cpp:156] Memory required for data: 1780244520
I0824 17:40:54.243618  9024 layer_factory.hpp:77] Creating layer res4a_branch2b
I0824 17:40:54.243640  9024 net.cpp:91] Creating Layer res4a_branch2b
I0824 17:40:54.243656  9024 net.cpp:425] res4a_branch2b <- res4a_branch2a
I0824 17:40:54.243674  9024 net.cpp:399] res4a_branch2b -> res4a_branch2b
I0824 17:40:54.250134  9024 net.cpp:141] Setting up res4a_branch2b
I0824 17:40:54.250164  9024 net.cpp:148] Top shape: 10 256 14 14 (501760)
I0824 17:40:54.250180  9024 net.cpp:156] Memory required for data: 1782251560
I0824 17:40:54.250197  9024 layer_factory.hpp:77] Creating layer bn4a_branch2b
I0824 17:40:54.250216  9024 net.cpp:91] Creating Layer bn4a_branch2b
I0824 17:40:54.250231  9024 net.cpp:425] bn4a_branch2b <- res4a_branch2b
I0824 17:40:54.250247  9024 net.cpp:386] bn4a_branch2b -> res4a_branch2b (in-place)
I0824 17:40:54.250458  9024 net.cpp:141] Setting up bn4a_branch2b
I0824 17:40:54.250483  9024 net.cpp:148] Top shape: 10 256 14 14 (501760)
I0824 17:40:54.250499  9024 net.cpp:156] Memory required for data: 1784258600
I0824 17:40:54.250519  9024 layer_factory.hpp:77] Creating layer scale4a_branch2b
I0824 17:40:54.250536  9024 net.cpp:91] Creating Layer scale4a_branch2b
I0824 17:40:54.250551  9024 net.cpp:425] scale4a_branch2b <- res4a_branch2b
I0824 17:40:54.250567  9024 net.cpp:386] scale4a_branch2b -> res4a_branch2b (in-place)
I0824 17:40:54.250632  9024 layer_factory.hpp:77] Creating layer scale4a_branch2b
I0824 17:40:54.250774  9024 net.cpp:141] Setting up scale4a_branch2b
I0824 17:40:54.250814  9024 net.cpp:148] Top shape: 10 256 14 14 (501760)
I0824 17:40:54.250829  9024 net.cpp:156] Memory required for data: 1786265640
I0824 17:40:54.250847  9024 layer_factory.hpp:77] Creating layer res4a_branch2b_relu
I0824 17:40:54.250866  9024 net.cpp:91] Creating Layer res4a_branch2b_relu
I0824 17:40:54.250880  9024 net.cpp:425] res4a_branch2b_relu <- res4a_branch2b
I0824 17:40:54.250900  9024 net.cpp:386] res4a_branch2b_relu -> res4a_branch2b (in-place)
I0824 17:40:54.250919  9024 net.cpp:141] Setting up res4a_branch2b_relu
I0824 17:40:54.250936  9024 net.cpp:148] Top shape: 10 256 14 14 (501760)
I0824 17:40:54.250950  9024 net.cpp:156] Memory required for data: 1788272680
I0824 17:40:54.250964  9024 layer_factory.hpp:77] Creating layer res4a_branch2c
I0824 17:40:54.250985  9024 net.cpp:91] Creating Layer res4a_branch2c
I0824 17:40:54.251000  9024 net.cpp:425] res4a_branch2c <- res4a_branch2b
I0824 17:40:54.251021  9024 net.cpp:399] res4a_branch2c -> res4a_branch2c
I0824 17:40:54.254092  9024 net.cpp:141] Setting up res4a_branch2c
I0824 17:40:54.254122  9024 net.cpp:148] Top shape: 10 1024 14 14 (2007040)
I0824 17:40:54.254137  9024 net.cpp:156] Memory required for data: 1796300840
I0824 17:40:54.254155  9024 layer_factory.hpp:77] Creating layer bn4a_branch2c
I0824 17:40:54.254174  9024 net.cpp:91] Creating Layer bn4a_branch2c
I0824 17:40:54.254189  9024 net.cpp:425] bn4a_branch2c <- res4a_branch2c
I0824 17:40:54.254205  9024 net.cpp:386] bn4a_branch2c -> res4a_branch2c (in-place)
I0824 17:40:54.254428  9024 net.cpp:141] Setting up bn4a_branch2c
I0824 17:40:54.254453  9024 net.cpp:148] Top shape: 10 1024 14 14 (2007040)
I0824 17:40:54.254468  9024 net.cpp:156] Memory required for data: 1804329000
I0824 17:40:54.254487  9024 layer_factory.hpp:77] Creating layer scale4a_branch2c
I0824 17:40:54.254509  9024 net.cpp:91] Creating Layer scale4a_branch2c
I0824 17:40:54.254525  9024 net.cpp:425] scale4a_branch2c <- res4a_branch2c
I0824 17:40:54.254541  9024 net.cpp:386] scale4a_branch2c -> res4a_branch2c (in-place)
I0824 17:40:54.254601  9024 layer_factory.hpp:77] Creating layer scale4a_branch2c
I0824 17:40:54.254753  9024 net.cpp:141] Setting up scale4a_branch2c
I0824 17:40:54.254777  9024 net.cpp:148] Top shape: 10 1024 14 14 (2007040)
I0824 17:40:54.254792  9024 net.cpp:156] Memory required for data: 1812357160
I0824 17:40:54.254809  9024 layer_factory.hpp:77] Creating layer res4a
I0824 17:40:54.254832  9024 net.cpp:91] Creating Layer res4a
I0824 17:40:54.254848  9024 net.cpp:425] res4a <- res4a_branch1
I0824 17:40:54.254863  9024 net.cpp:425] res4a <- res4a_branch2c
I0824 17:40:54.254878  9024 net.cpp:399] res4a -> res4a
I0824 17:40:54.254926  9024 net.cpp:141] Setting up res4a
I0824 17:40:54.254950  9024 net.cpp:148] Top shape: 10 1024 14 14 (2007040)
I0824 17:40:54.254964  9024 net.cpp:156] Memory required for data: 1820385320
I0824 17:40:54.254978  9024 layer_factory.hpp:77] Creating layer res4a_relu
I0824 17:40:54.254994  9024 net.cpp:91] Creating Layer res4a_relu
I0824 17:40:54.255009  9024 net.cpp:425] res4a_relu <- res4a
I0824 17:40:54.255028  9024 net.cpp:386] res4a_relu -> res4a (in-place)
I0824 17:40:54.255046  9024 net.cpp:141] Setting up res4a_relu
I0824 17:40:54.255062  9024 net.cpp:148] Top shape: 10 1024 14 14 (2007040)
I0824 17:40:54.255076  9024 net.cpp:156] Memory required for data: 1828413480
I0824 17:40:54.255090  9024 layer_factory.hpp:77] Creating layer res4a_res4a_relu_0_split
I0824 17:40:54.255107  9024 net.cpp:91] Creating Layer res4a_res4a_relu_0_split
I0824 17:40:54.255121  9024 net.cpp:425] res4a_res4a_relu_0_split <- res4a
I0824 17:40:54.255136  9024 net.cpp:399] res4a_res4a_relu_0_split -> res4a_res4a_relu_0_split_0
I0824 17:40:54.255154  9024 net.cpp:399] res4a_res4a_relu_0_split -> res4a_res4a_relu_0_split_1
I0824 17:40:54.255213  9024 net.cpp:141] Setting up res4a_res4a_relu_0_split
I0824 17:40:54.255236  9024 net.cpp:148] Top shape: 10 1024 14 14 (2007040)
I0824 17:40:54.255251  9024 net.cpp:148] Top shape: 10 1024 14 14 (2007040)
I0824 17:40:54.255286  9024 net.cpp:156] Memory required for data: 1844469800
I0824 17:40:54.255301  9024 layer_factory.hpp:77] Creating layer res4b_branch2a
I0824 17:40:54.255342  9024 net.cpp:91] Creating Layer res4b_branch2a
I0824 17:40:54.255360  9024 net.cpp:425] res4b_branch2a <- res4a_res4a_relu_0_split_0
I0824 17:40:54.255379  9024 net.cpp:399] res4b_branch2a -> res4b_branch2a
I0824 17:40:54.258442  9024 net.cpp:141] Setting up res4b_branch2a
I0824 17:40:54.258472  9024 net.cpp:148] Top shape: 10 256 14 14 (501760)
I0824 17:40:54.258487  9024 net.cpp:156] Memory required for data: 1846476840
I0824 17:40:54.258505  9024 layer_factory.hpp:77] Creating layer bn4b_branch2a
I0824 17:40:54.258527  9024 net.cpp:91] Creating Layer bn4b_branch2a
I0824 17:40:54.258544  9024 net.cpp:425] bn4b_branch2a <- res4b_branch2a
I0824 17:40:54.258560  9024 net.cpp:386] bn4b_branch2a -> res4b_branch2a (in-place)
I0824 17:40:54.258781  9024 net.cpp:141] Setting up bn4b_branch2a
I0824 17:40:54.258805  9024 net.cpp:148] Top shape: 10 256 14 14 (501760)
I0824 17:40:54.258821  9024 net.cpp:156] Memory required for data: 1848483880
I0824 17:40:54.258841  9024 layer_factory.hpp:77] Creating layer scale4b_branch2a
I0824 17:40:54.258858  9024 net.cpp:91] Creating Layer scale4b_branch2a
I0824 17:40:54.258873  9024 net.cpp:425] scale4b_branch2a <- res4b_branch2a
I0824 17:40:54.258893  9024 net.cpp:386] scale4b_branch2a -> res4b_branch2a (in-place)
I0824 17:40:54.258952  9024 layer_factory.hpp:77] Creating layer scale4b_branch2a
I0824 17:40:54.259097  9024 net.cpp:141] Setting up scale4b_branch2a
I0824 17:40:54.259121  9024 net.cpp:148] Top shape: 10 256 14 14 (501760)
I0824 17:40:54.259136  9024 net.cpp:156] Memory required for data: 1850490920
I0824 17:40:54.259153  9024 layer_factory.hpp:77] Creating layer res4b_branch2a_relu
I0824 17:40:54.259171  9024 net.cpp:91] Creating Layer res4b_branch2a_relu
I0824 17:40:54.259186  9024 net.cpp:425] res4b_branch2a_relu <- res4b_branch2a
I0824 17:40:54.259202  9024 net.cpp:386] res4b_branch2a_relu -> res4b_branch2a (in-place)
I0824 17:40:54.259218  9024 net.cpp:141] Setting up res4b_branch2a_relu
I0824 17:40:54.259234  9024 net.cpp:148] Top shape: 10 256 14 14 (501760)
I0824 17:40:54.259248  9024 net.cpp:156] Memory required for data: 1852497960
I0824 17:40:54.259263  9024 layer_factory.hpp:77] Creating layer res4b_branch2b
I0824 17:40:54.259286  9024 net.cpp:91] Creating Layer res4b_branch2b
I0824 17:40:54.259302  9024 net.cpp:425] res4b_branch2b <- res4b_branch2a
I0824 17:40:54.259323  9024 net.cpp:399] res4b_branch2b -> res4b_branch2b
I0824 17:40:54.265755  9024 net.cpp:141] Setting up res4b_branch2b
I0824 17:40:54.265786  9024 net.cpp:148] Top shape: 10 256 14 14 (501760)
I0824 17:40:54.265802  9024 net.cpp:156] Memory required for data: 1854505000
I0824 17:40:54.265820  9024 layer_factory.hpp:77] Creating layer bn4b_branch2b
I0824 17:40:54.265837  9024 net.cpp:91] Creating Layer bn4b_branch2b
I0824 17:40:54.265852  9024 net.cpp:425] bn4b_branch2b <- res4b_branch2b
I0824 17:40:54.265872  9024 net.cpp:386] bn4b_branch2b -> res4b_branch2b (in-place)
I0824 17:40:54.266091  9024 net.cpp:141] Setting up bn4b_branch2b
I0824 17:40:54.266115  9024 net.cpp:148] Top shape: 10 256 14 14 (501760)
I0824 17:40:54.266130  9024 net.cpp:156] Memory required for data: 1856512040
I0824 17:40:54.266150  9024 layer_factory.hpp:77] Creating layer scale4b_branch2b
I0824 17:40:54.266170  9024 net.cpp:91] Creating Layer scale4b_branch2b
I0824 17:40:54.266185  9024 net.cpp:425] scale4b_branch2b <- res4b_branch2b
I0824 17:40:54.266201  9024 net.cpp:386] scale4b_branch2b -> res4b_branch2b (in-place)
I0824 17:40:54.266263  9024 layer_factory.hpp:77] Creating layer scale4b_branch2b
I0824 17:40:54.266410  9024 net.cpp:141] Setting up scale4b_branch2b
I0824 17:40:54.266434  9024 net.cpp:148] Top shape: 10 256 14 14 (501760)
I0824 17:40:54.266449  9024 net.cpp:156] Memory required for data: 1858519080
I0824 17:40:54.266466  9024 layer_factory.hpp:77] Creating layer res4b_branch2b_relu
I0824 17:40:54.266487  9024 net.cpp:91] Creating Layer res4b_branch2b_relu
I0824 17:40:54.266521  9024 net.cpp:425] res4b_branch2b_relu <- res4b_branch2b
I0824 17:40:54.266540  9024 net.cpp:386] res4b_branch2b_relu -> res4b_branch2b (in-place)
I0824 17:40:54.266557  9024 net.cpp:141] Setting up res4b_branch2b_relu
I0824 17:40:54.266573  9024 net.cpp:148] Top shape: 10 256 14 14 (501760)
I0824 17:40:54.266587  9024 net.cpp:156] Memory required for data: 1860526120
I0824 17:40:54.266600  9024 layer_factory.hpp:77] Creating layer res4b_branch2c
I0824 17:40:54.266623  9024 net.cpp:91] Creating Layer res4b_branch2c
I0824 17:40:54.266639  9024 net.cpp:425] res4b_branch2c <- res4b_branch2b
I0824 17:40:54.266656  9024 net.cpp:399] res4b_branch2c -> res4b_branch2c
I0824 17:40:54.269726  9024 net.cpp:141] Setting up res4b_branch2c
I0824 17:40:54.269755  9024 net.cpp:148] Top shape: 10 1024 14 14 (2007040)
I0824 17:40:54.269770  9024 net.cpp:156] Memory required for data: 1868554280
I0824 17:40:54.269788  9024 layer_factory.hpp:77] Creating layer bn4b_branch2c
I0824 17:40:54.269807  9024 net.cpp:91] Creating Layer bn4b_branch2c
I0824 17:40:54.269822  9024 net.cpp:425] bn4b_branch2c <- res4b_branch2c
I0824 17:40:54.269839  9024 net.cpp:386] bn4b_branch2c -> res4b_branch2c (in-place)
I0824 17:40:54.270064  9024 net.cpp:141] Setting up bn4b_branch2c
I0824 17:40:54.270088  9024 net.cpp:148] Top shape: 10 1024 14 14 (2007040)
I0824 17:40:54.270103  9024 net.cpp:156] Memory required for data: 1876582440
I0824 17:40:54.270123  9024 layer_factory.hpp:77] Creating layer scale4b_branch2c
I0824 17:40:54.270141  9024 net.cpp:91] Creating Layer scale4b_branch2c
I0824 17:40:54.270156  9024 net.cpp:425] scale4b_branch2c <- res4b_branch2c
I0824 17:40:54.270172  9024 net.cpp:386] scale4b_branch2c -> res4b_branch2c (in-place)
I0824 17:40:54.270232  9024 layer_factory.hpp:77] Creating layer scale4b_branch2c
I0824 17:40:54.270392  9024 net.cpp:141] Setting up scale4b_branch2c
I0824 17:40:54.270417  9024 net.cpp:148] Top shape: 10 1024 14 14 (2007040)
I0824 17:40:54.270431  9024 net.cpp:156] Memory required for data: 1884610600
I0824 17:40:54.270449  9024 layer_factory.hpp:77] Creating layer res4b
I0824 17:40:54.270467  9024 net.cpp:91] Creating Layer res4b
I0824 17:40:54.270483  9024 net.cpp:425] res4b <- res4a_res4a_relu_0_split_1
I0824 17:40:54.270498  9024 net.cpp:425] res4b <- res4b_branch2c
I0824 17:40:54.270517  9024 net.cpp:399] res4b -> res4b
I0824 17:40:54.270558  9024 net.cpp:141] Setting up res4b
I0824 17:40:54.270582  9024 net.cpp:148] Top shape: 10 1024 14 14 (2007040)
I0824 17:40:54.270596  9024 net.cpp:156] Memory required for data: 1892638760
I0824 17:40:54.270611  9024 layer_factory.hpp:77] Creating layer res4b_relu
I0824 17:40:54.270630  9024 net.cpp:91] Creating Layer res4b_relu
I0824 17:40:54.270645  9024 net.cpp:425] res4b_relu <- res4b
I0824 17:40:54.270661  9024 net.cpp:386] res4b_relu -> res4b (in-place)
I0824 17:40:54.270678  9024 net.cpp:141] Setting up res4b_relu
I0824 17:40:54.270694  9024 net.cpp:148] Top shape: 10 1024 14 14 (2007040)
I0824 17:40:54.270709  9024 net.cpp:156] Memory required for data: 1900666920
I0824 17:40:54.270721  9024 layer_factory.hpp:77] Creating layer res4b_res4b_relu_0_split
I0824 17:40:54.270737  9024 net.cpp:91] Creating Layer res4b_res4b_relu_0_split
I0824 17:40:54.270756  9024 net.cpp:425] res4b_res4b_relu_0_split <- res4b
I0824 17:40:54.270771  9024 net.cpp:399] res4b_res4b_relu_0_split -> res4b_res4b_relu_0_split_0
I0824 17:40:54.270789  9024 net.cpp:399] res4b_res4b_relu_0_split -> res4b_res4b_relu_0_split_1
I0824 17:40:54.270843  9024 net.cpp:141] Setting up res4b_res4b_relu_0_split
I0824 17:40:54.270866  9024 net.cpp:148] Top shape: 10 1024 14 14 (2007040)
I0824 17:40:54.270882  9024 net.cpp:148] Top shape: 10 1024 14 14 (2007040)
I0824 17:40:54.270896  9024 net.cpp:156] Memory required for data: 1916723240
I0824 17:40:54.270910  9024 layer_factory.hpp:77] Creating layer res4c_branch2a
I0824 17:40:54.270934  9024 net.cpp:91] Creating Layer res4c_branch2a
I0824 17:40:54.270951  9024 net.cpp:425] res4c_branch2a <- res4b_res4b_relu_0_split_0
I0824 17:40:54.270987  9024 net.cpp:399] res4c_branch2a -> res4c_branch2a
I0824 17:40:54.274062  9024 net.cpp:141] Setting up res4c_branch2a
I0824 17:40:54.274091  9024 net.cpp:148] Top shape: 10 256 14 14 (501760)
I0824 17:40:54.274106  9024 net.cpp:156] Memory required for data: 1918730280
I0824 17:40:54.274123  9024 layer_factory.hpp:77] Creating layer bn4c_branch2a
I0824 17:40:54.274142  9024 net.cpp:91] Creating Layer bn4c_branch2a
I0824 17:40:54.274157  9024 net.cpp:425] bn4c_branch2a <- res4c_branch2a
I0824 17:40:54.274173  9024 net.cpp:386] bn4c_branch2a -> res4c_branch2a (in-place)
I0824 17:40:54.274400  9024 net.cpp:141] Setting up bn4c_branch2a
I0824 17:40:54.274425  9024 net.cpp:148] Top shape: 10 256 14 14 (501760)
I0824 17:40:54.274441  9024 net.cpp:156] Memory required for data: 1920737320
I0824 17:40:54.274461  9024 layer_factory.hpp:77] Creating layer scale4c_branch2a
I0824 17:40:54.274479  9024 net.cpp:91] Creating Layer scale4c_branch2a
I0824 17:40:54.274493  9024 net.cpp:425] scale4c_branch2a <- res4c_branch2a
I0824 17:40:54.274510  9024 net.cpp:386] scale4c_branch2a -> res4c_branch2a (in-place)
I0824 17:40:54.274574  9024 layer_factory.hpp:77] Creating layer scale4c_branch2a
I0824 17:40:54.274718  9024 net.cpp:141] Setting up scale4c_branch2a
I0824 17:40:54.274742  9024 net.cpp:148] Top shape: 10 256 14 14 (501760)
I0824 17:40:54.274757  9024 net.cpp:156] Memory required for data: 1922744360
I0824 17:40:54.274775  9024 layer_factory.hpp:77] Creating layer res4c_branch2a_relu
I0824 17:40:54.274801  9024 net.cpp:91] Creating Layer res4c_branch2a_relu
I0824 17:40:54.274816  9024 net.cpp:425] res4c_branch2a_relu <- res4c_branch2a
I0824 17:40:54.274832  9024 net.cpp:386] res4c_branch2a_relu -> res4c_branch2a (in-place)
I0824 17:40:54.274854  9024 net.cpp:141] Setting up res4c_branch2a_relu
I0824 17:40:54.274870  9024 net.cpp:148] Top shape: 10 256 14 14 (501760)
I0824 17:40:54.274884  9024 net.cpp:156] Memory required for data: 1924751400
I0824 17:40:54.274899  9024 layer_factory.hpp:77] Creating layer res4c_branch2b
I0824 17:40:54.274919  9024 net.cpp:91] Creating Layer res4c_branch2b
I0824 17:40:54.274933  9024 net.cpp:425] res4c_branch2b <- res4c_branch2a
I0824 17:40:54.274953  9024 net.cpp:399] res4c_branch2b -> res4c_branch2b
I0824 17:40:54.281417  9024 net.cpp:141] Setting up res4c_branch2b
I0824 17:40:54.281448  9024 net.cpp:148] Top shape: 10 256 14 14 (501760)
I0824 17:40:54.281464  9024 net.cpp:156] Memory required for data: 1926758440
I0824 17:40:54.281481  9024 layer_factory.hpp:77] Creating layer bn4c_branch2b
I0824 17:40:54.281500  9024 net.cpp:91] Creating Layer bn4c_branch2b
I0824 17:40:54.281515  9024 net.cpp:425] bn4c_branch2b <- res4c_branch2b
I0824 17:40:54.281534  9024 net.cpp:386] bn4c_branch2b -> res4c_branch2b (in-place)
I0824 17:40:54.281757  9024 net.cpp:141] Setting up bn4c_branch2b
I0824 17:40:54.281782  9024 net.cpp:148] Top shape: 10 256 14 14 (501760)
I0824 17:40:54.281796  9024 net.cpp:156] Memory required for data: 1928765480
I0824 17:40:54.281816  9024 layer_factory.hpp:77] Creating layer scale4c_branch2b
I0824 17:40:54.281836  9024 net.cpp:91] Creating Layer scale4c_branch2b
I0824 17:40:54.281850  9024 net.cpp:425] scale4c_branch2b <- res4c_branch2b
I0824 17:40:54.281867  9024 net.cpp:386] scale4c_branch2b -> res4c_branch2b (in-place)
I0824 17:40:54.281934  9024 layer_factory.hpp:77] Creating layer scale4c_branch2b
I0824 17:40:54.282078  9024 net.cpp:141] Setting up scale4c_branch2b
I0824 17:40:54.282101  9024 net.cpp:148] Top shape: 10 256 14 14 (501760)
I0824 17:40:54.282115  9024 net.cpp:156] Memory required for data: 1930772520
I0824 17:40:54.282133  9024 layer_factory.hpp:77] Creating layer res4c_branch2b_relu
I0824 17:40:54.282150  9024 net.cpp:91] Creating Layer res4c_branch2b_relu
I0824 17:40:54.282169  9024 net.cpp:425] res4c_branch2b_relu <- res4c_branch2b
I0824 17:40:54.282186  9024 net.cpp:386] res4c_branch2b_relu -> res4c_branch2b (in-place)
I0824 17:40:54.282203  9024 net.cpp:141] Setting up res4c_branch2b_relu
I0824 17:40:54.282219  9024 net.cpp:148] Top shape: 10 256 14 14 (501760)
I0824 17:40:54.282251  9024 net.cpp:156] Memory required for data: 1932779560
I0824 17:40:54.282268  9024 layer_factory.hpp:77] Creating layer res4c_branch2c
I0824 17:40:54.282291  9024 net.cpp:91] Creating Layer res4c_branch2c
I0824 17:40:54.282307  9024 net.cpp:425] res4c_branch2c <- res4c_branch2b
I0824 17:40:54.282325  9024 net.cpp:399] res4c_branch2c -> res4c_branch2c
I0824 17:40:54.285405  9024 net.cpp:141] Setting up res4c_branch2c
I0824 17:40:54.285435  9024 net.cpp:148] Top shape: 10 1024 14 14 (2007040)
I0824 17:40:54.285450  9024 net.cpp:156] Memory required for data: 1940807720
I0824 17:40:54.285470  9024 layer_factory.hpp:77] Creating layer bn4c_branch2c
I0824 17:40:54.285487  9024 net.cpp:91] Creating Layer bn4c_branch2c
I0824 17:40:54.285502  9024 net.cpp:425] bn4c_branch2c <- res4c_branch2c
I0824 17:40:54.285518  9024 net.cpp:386] bn4c_branch2c -> res4c_branch2c (in-place)
I0824 17:40:54.285750  9024 net.cpp:141] Setting up bn4c_branch2c
I0824 17:40:54.285775  9024 net.cpp:148] Top shape: 10 1024 14 14 (2007040)
I0824 17:40:54.285789  9024 net.cpp:156] Memory required for data: 1948835880
I0824 17:40:54.285810  9024 layer_factory.hpp:77] Creating layer scale4c_branch2c
I0824 17:40:54.285828  9024 net.cpp:91] Creating Layer scale4c_branch2c
I0824 17:40:54.285843  9024 net.cpp:425] scale4c_branch2c <- res4c_branch2c
I0824 17:40:54.285859  9024 net.cpp:386] scale4c_branch2c -> res4c_branch2c (in-place)
I0824 17:40:54.285922  9024 layer_factory.hpp:77] Creating layer scale4c_branch2c
I0824 17:40:54.286074  9024 net.cpp:141] Setting up scale4c_branch2c
I0824 17:40:54.286098  9024 net.cpp:148] Top shape: 10 1024 14 14 (2007040)
I0824 17:40:54.286113  9024 net.cpp:156] Memory required for data: 1956864040
I0824 17:40:54.286130  9024 layer_factory.hpp:77] Creating layer res4c
I0824 17:40:54.286151  9024 net.cpp:91] Creating Layer res4c
I0824 17:40:54.286167  9024 net.cpp:425] res4c <- res4b_res4b_relu_0_split_1
I0824 17:40:54.286183  9024 net.cpp:425] res4c <- res4c_branch2c
I0824 17:40:54.286203  9024 net.cpp:399] res4c -> res4c
I0824 17:40:54.286247  9024 net.cpp:141] Setting up res4c
I0824 17:40:54.286268  9024 net.cpp:148] Top shape: 10 1024 14 14 (2007040)
I0824 17:40:54.286283  9024 net.cpp:156] Memory required for data: 1964892200
I0824 17:40:54.286296  9024 layer_factory.hpp:77] Creating layer res4c_relu
I0824 17:40:54.286316  9024 net.cpp:91] Creating Layer res4c_relu
I0824 17:40:54.286332  9024 net.cpp:425] res4c_relu <- res4c
I0824 17:40:54.286347  9024 net.cpp:386] res4c_relu -> res4c (in-place)
I0824 17:40:54.286365  9024 net.cpp:141] Setting up res4c_relu
I0824 17:40:54.286381  9024 net.cpp:148] Top shape: 10 1024 14 14 (2007040)
I0824 17:40:54.286394  9024 net.cpp:156] Memory required for data: 1972920360
I0824 17:40:54.286408  9024 layer_factory.hpp:77] Creating layer res4c_res4c_relu_0_split
I0824 17:40:54.286425  9024 net.cpp:91] Creating Layer res4c_res4c_relu_0_split
I0824 17:40:54.286438  9024 net.cpp:425] res4c_res4c_relu_0_split <- res4c
I0824 17:40:54.286455  9024 net.cpp:399] res4c_res4c_relu_0_split -> res4c_res4c_relu_0_split_0
I0824 17:40:54.286473  9024 net.cpp:399] res4c_res4c_relu_0_split -> res4c_res4c_relu_0_split_1
I0824 17:40:54.286530  9024 net.cpp:141] Setting up res4c_res4c_relu_0_split
I0824 17:40:54.286551  9024 net.cpp:148] Top shape: 10 1024 14 14 (2007040)
I0824 17:40:54.286568  9024 net.cpp:148] Top shape: 10 1024 14 14 (2007040)
I0824 17:40:54.286581  9024 net.cpp:156] Memory required for data: 1988976680
I0824 17:40:54.286595  9024 layer_factory.hpp:77] Creating layer res4d_branch2a
I0824 17:40:54.286615  9024 net.cpp:91] Creating Layer res4d_branch2a
I0824 17:40:54.286631  9024 net.cpp:425] res4d_branch2a <- res4c_res4c_relu_0_split_0
I0824 17:40:54.286651  9024 net.cpp:399] res4d_branch2a -> res4d_branch2a
I0824 17:40:54.289803  9024 net.cpp:141] Setting up res4d_branch2a
I0824 17:40:54.289832  9024 net.cpp:148] Top shape: 10 256 14 14 (501760)
I0824 17:40:54.289847  9024 net.cpp:156] Memory required for data: 1990983720
I0824 17:40:54.289881  9024 layer_factory.hpp:77] Creating layer bn4d_branch2a
I0824 17:40:54.289901  9024 net.cpp:91] Creating Layer bn4d_branch2a
I0824 17:40:54.289917  9024 net.cpp:425] bn4d_branch2a <- res4d_branch2a
I0824 17:40:54.289933  9024 net.cpp:386] bn4d_branch2a -> res4d_branch2a (in-place)
I0824 17:40:54.290168  9024 net.cpp:141] Setting up bn4d_branch2a
I0824 17:40:54.290194  9024 net.cpp:148] Top shape: 10 256 14 14 (501760)
I0824 17:40:54.290207  9024 net.cpp:156] Memory required for data: 1992990760
I0824 17:40:54.290231  9024 layer_factory.hpp:77] Creating layer scale4d_branch2a
I0824 17:40:54.290251  9024 net.cpp:91] Creating Layer scale4d_branch2a
I0824 17:40:54.290266  9024 net.cpp:425] scale4d_branch2a <- res4d_branch2a
I0824 17:40:54.290283  9024 net.cpp:386] scale4d_branch2a -> res4d_branch2a (in-place)
I0824 17:40:54.290347  9024 layer_factory.hpp:77] Creating layer scale4d_branch2a
I0824 17:40:54.290495  9024 net.cpp:141] Setting up scale4d_branch2a
I0824 17:40:54.290520  9024 net.cpp:148] Top shape: 10 256 14 14 (501760)
I0824 17:40:54.290534  9024 net.cpp:156] Memory required for data: 1994997800
I0824 17:40:54.290552  9024 layer_factory.hpp:77] Creating layer res4d_branch2a_relu
I0824 17:40:54.290576  9024 net.cpp:91] Creating Layer res4d_branch2a_relu
I0824 17:40:54.290593  9024 net.cpp:425] res4d_branch2a_relu <- res4d_branch2a
I0824 17:40:54.290609  9024 net.cpp:386] res4d_branch2a_relu -> res4d_branch2a (in-place)
I0824 17:40:54.290627  9024 net.cpp:141] Setting up res4d_branch2a_relu
I0824 17:40:54.290642  9024 net.cpp:148] Top shape: 10 256 14 14 (501760)
I0824 17:40:54.290657  9024 net.cpp:156] Memory required for data: 1997004840
I0824 17:40:54.290670  9024 layer_factory.hpp:77] Creating layer res4d_branch2b
I0824 17:40:54.290694  9024 net.cpp:91] Creating Layer res4d_branch2b
I0824 17:40:54.290709  9024 net.cpp:425] res4d_branch2b <- res4d_branch2a
I0824 17:40:54.290730  9024 net.cpp:399] res4d_branch2b -> res4d_branch2b
I0824 17:40:54.297190  9024 net.cpp:141] Setting up res4d_branch2b
I0824 17:40:54.297220  9024 net.cpp:148] Top shape: 10 256 14 14 (501760)
I0824 17:40:54.297236  9024 net.cpp:156] Memory required for data: 1999011880
I0824 17:40:54.297253  9024 layer_factory.hpp:77] Creating layer bn4d_branch2b
I0824 17:40:54.297271  9024 net.cpp:91] Creating Layer bn4d_branch2b
I0824 17:40:54.297286  9024 net.cpp:425] bn4d_branch2b <- res4d_branch2b
I0824 17:40:54.297302  9024 net.cpp:386] bn4d_branch2b -> res4d_branch2b (in-place)
I0824 17:40:54.297520  9024 net.cpp:141] Setting up bn4d_branch2b
I0824 17:40:54.297545  9024 net.cpp:148] Top shape: 10 256 14 14 (501760)
I0824 17:40:54.297559  9024 net.cpp:156] Memory required for data: 2001018920
I0824 17:40:54.297580  9024 layer_factory.hpp:77] Creating layer scale4d_branch2b
I0824 17:40:54.297602  9024 net.cpp:91] Creating Layer scale4d_branch2b
I0824 17:40:54.297618  9024 net.cpp:425] scale4d_branch2b <- res4d_branch2b
I0824 17:40:54.297634  9024 net.cpp:386] scale4d_branch2b -> res4d_branch2b (in-place)
I0824 17:40:54.297696  9024 layer_factory.hpp:77] Creating layer scale4d_branch2b
I0824 17:40:54.297845  9024 net.cpp:141] Setting up scale4d_branch2b
I0824 17:40:54.297869  9024 net.cpp:148] Top shape: 10 256 14 14 (501760)
I0824 17:40:54.297883  9024 net.cpp:156] Memory required for data: 2003025960
I0824 17:40:54.297901  9024 layer_factory.hpp:77] Creating layer res4d_branch2b_relu
I0824 17:40:54.297919  9024 net.cpp:91] Creating Layer res4d_branch2b_relu
I0824 17:40:54.297933  9024 net.cpp:425] res4d_branch2b_relu <- res4d_branch2b
I0824 17:40:54.297952  9024 net.cpp:386] res4d_branch2b_relu -> res4d_branch2b (in-place)
I0824 17:40:54.297971  9024 net.cpp:141] Setting up res4d_branch2b_relu
I0824 17:40:54.297986  9024 net.cpp:148] Top shape: 10 256 14 14 (501760)
I0824 17:40:54.298001  9024 net.cpp:156] Memory required for data: 2005033000
I0824 17:40:54.298014  9024 layer_factory.hpp:77] Creating layer res4d_branch2c
I0824 17:40:54.298038  9024 net.cpp:91] Creating Layer res4d_branch2c
I0824 17:40:54.298053  9024 net.cpp:425] res4d_branch2c <- res4d_branch2b
I0824 17:40:54.298089  9024 net.cpp:399] res4d_branch2c -> res4d_branch2c
I0824 17:40:54.301161  9024 net.cpp:141] Setting up res4d_branch2c
I0824 17:40:54.301189  9024 net.cpp:148] Top shape: 10 1024 14 14 (2007040)
I0824 17:40:54.301205  9024 net.cpp:156] Memory required for data: 2013061160
I0824 17:40:54.301223  9024 layer_factory.hpp:77] Creating layer bn4d_branch2c
I0824 17:40:54.301244  9024 net.cpp:91] Creating Layer bn4d_branch2c
I0824 17:40:54.301259  9024 net.cpp:425] bn4d_branch2c <- res4d_branch2c
I0824 17:40:54.301276  9024 net.cpp:386] bn4d_branch2c -> res4d_branch2c (in-place)
I0824 17:40:54.301517  9024 net.cpp:141] Setting up bn4d_branch2c
I0824 17:40:54.301542  9024 net.cpp:148] Top shape: 10 1024 14 14 (2007040)
I0824 17:40:54.301558  9024 net.cpp:156] Memory required for data: 2021089320
I0824 17:40:54.301576  9024 layer_factory.hpp:77] Creating layer scale4d_branch2c
I0824 17:40:54.301595  9024 net.cpp:91] Creating Layer scale4d_branch2c
I0824 17:40:54.301610  9024 net.cpp:425] scale4d_branch2c <- res4d_branch2c
I0824 17:40:54.301633  9024 net.cpp:386] scale4d_branch2c -> res4d_branch2c (in-place)
I0824 17:40:54.301693  9024 layer_factory.hpp:77] Creating layer scale4d_branch2c
I0824 17:40:54.301851  9024 net.cpp:141] Setting up scale4d_branch2c
I0824 17:40:54.301877  9024 net.cpp:148] Top shape: 10 1024 14 14 (2007040)
I0824 17:40:54.301890  9024 net.cpp:156] Memory required for data: 2029117480
I0824 17:40:54.301909  9024 layer_factory.hpp:77] Creating layer res4d
I0824 17:40:54.301928  9024 net.cpp:91] Creating Layer res4d
I0824 17:40:54.301942  9024 net.cpp:425] res4d <- res4c_res4c_relu_0_split_1
I0824 17:40:54.301957  9024 net.cpp:425] res4d <- res4d_branch2c
I0824 17:40:54.301973  9024 net.cpp:399] res4d -> res4d
I0824 17:40:54.302017  9024 net.cpp:141] Setting up res4d
I0824 17:40:54.302040  9024 net.cpp:148] Top shape: 10 1024 14 14 (2007040)
I0824 17:40:54.302054  9024 net.cpp:156] Memory required for data: 2037145640
I0824 17:40:54.302068  9024 layer_factory.hpp:77] Creating layer res4d_relu
I0824 17:40:54.302088  9024 net.cpp:91] Creating Layer res4d_relu
I0824 17:40:54.302103  9024 net.cpp:425] res4d_relu <- res4d
I0824 17:40:54.302119  9024 net.cpp:386] res4d_relu -> res4d (in-place)
I0824 17:40:54.302136  9024 net.cpp:141] Setting up res4d_relu
I0824 17:40:54.302152  9024 net.cpp:148] Top shape: 10 1024 14 14 (2007040)
I0824 17:40:54.302165  9024 net.cpp:156] Memory required for data: 2045173800
I0824 17:40:54.302179  9024 layer_factory.hpp:77] Creating layer res4d_res4d_relu_0_split
I0824 17:40:54.302196  9024 net.cpp:91] Creating Layer res4d_res4d_relu_0_split
I0824 17:40:54.302209  9024 net.cpp:425] res4d_res4d_relu_0_split <- res4d
I0824 17:40:54.302227  9024 net.cpp:399] res4d_res4d_relu_0_split -> res4d_res4d_relu_0_split_0
I0824 17:40:54.302248  9024 net.cpp:399] res4d_res4d_relu_0_split -> res4d_res4d_relu_0_split_1
I0824 17:40:54.302300  9024 net.cpp:141] Setting up res4d_res4d_relu_0_split
I0824 17:40:54.302325  9024 net.cpp:148] Top shape: 10 1024 14 14 (2007040)
I0824 17:40:54.302340  9024 net.cpp:148] Top shape: 10 1024 14 14 (2007040)
I0824 17:40:54.302355  9024 net.cpp:156] Memory required for data: 2061230120
I0824 17:40:54.302368  9024 layer_factory.hpp:77] Creating layer res4e_branch2a
I0824 17:40:54.302392  9024 net.cpp:91] Creating Layer res4e_branch2a
I0824 17:40:54.302408  9024 net.cpp:425] res4e_branch2a <- res4d_res4d_relu_0_split_0
I0824 17:40:54.302426  9024 net.cpp:399] res4e_branch2a -> res4e_branch2a
I0824 17:40:54.305488  9024 net.cpp:141] Setting up res4e_branch2a
I0824 17:40:54.305519  9024 net.cpp:148] Top shape: 10 256 14 14 (501760)
I0824 17:40:54.305534  9024 net.cpp:156] Memory required for data: 2063237160
I0824 17:40:54.305552  9024 layer_factory.hpp:77] Creating layer bn4e_branch2a
I0824 17:40:54.305573  9024 net.cpp:91] Creating Layer bn4e_branch2a
I0824 17:40:54.305588  9024 net.cpp:425] bn4e_branch2a <- res4e_branch2a
I0824 17:40:54.305604  9024 net.cpp:386] bn4e_branch2a -> res4e_branch2a (in-place)
I0824 17:40:54.305855  9024 net.cpp:141] Setting up bn4e_branch2a
I0824 17:40:54.305879  9024 net.cpp:148] Top shape: 10 256 14 14 (501760)
I0824 17:40:54.305893  9024 net.cpp:156] Memory required for data: 2065244200
I0824 17:40:54.305914  9024 layer_factory.hpp:77] Creating layer scale4e_branch2a
I0824 17:40:54.305933  9024 net.cpp:91] Creating Layer scale4e_branch2a
I0824 17:40:54.305948  9024 net.cpp:425] scale4e_branch2a <- res4e_branch2a
I0824 17:40:54.305968  9024 net.cpp:386] scale4e_branch2a -> res4e_branch2a (in-place)
I0824 17:40:54.306027  9024 layer_factory.hpp:77] Creating layer scale4e_branch2a
I0824 17:40:54.306174  9024 net.cpp:141] Setting up scale4e_branch2a
I0824 17:40:54.306201  9024 net.cpp:148] Top shape: 10 256 14 14 (501760)
I0824 17:40:54.306216  9024 net.cpp:156] Memory required for data: 2067251240
I0824 17:40:54.306234  9024 layer_factory.hpp:77] Creating layer res4e_branch2a_relu
I0824 17:40:54.306252  9024 net.cpp:91] Creating Layer res4e_branch2a_relu
I0824 17:40:54.306267  9024 net.cpp:425] res4e_branch2a_relu <- res4e_branch2a
I0824 17:40:54.306282  9024 net.cpp:386] res4e_branch2a_relu -> res4e_branch2a (in-place)
I0824 17:40:54.306299  9024 net.cpp:141] Setting up res4e_branch2a_relu
I0824 17:40:54.306315  9024 net.cpp:148] Top shape: 10 256 14 14 (501760)
I0824 17:40:54.306329  9024 net.cpp:156] Memory required for data: 2069258280
I0824 17:40:54.306342  9024 layer_factory.hpp:77] Creating layer res4e_branch2b
I0824 17:40:54.306367  9024 net.cpp:91] Creating Layer res4e_branch2b
I0824 17:40:54.306382  9024 net.cpp:425] res4e_branch2b <- res4e_branch2a
I0824 17:40:54.306403  9024 net.cpp:399] res4e_branch2b -> res4e_branch2b
I0824 17:40:54.312844  9024 net.cpp:141] Setting up res4e_branch2b
I0824 17:40:54.312872  9024 net.cpp:148] Top shape: 10 256 14 14 (501760)
I0824 17:40:54.312888  9024 net.cpp:156] Memory required for data: 2071265320
I0824 17:40:54.312906  9024 layer_factory.hpp:77] Creating layer bn4e_branch2b
I0824 17:40:54.312923  9024 net.cpp:91] Creating Layer bn4e_branch2b
I0824 17:40:54.312938  9024 net.cpp:425] bn4e_branch2b <- res4e_branch2b
I0824 17:40:54.312961  9024 net.cpp:386] bn4e_branch2b -> res4e_branch2b (in-place)
I0824 17:40:54.313190  9024 net.cpp:141] Setting up bn4e_branch2b
I0824 17:40:54.313215  9024 net.cpp:148] Top shape: 10 256 14 14 (501760)
I0824 17:40:54.313230  9024 net.cpp:156] Memory required for data: 2073272360
I0824 17:40:54.313249  9024 layer_factory.hpp:77] Creating layer scale4e_branch2b
I0824 17:40:54.313268  9024 net.cpp:91] Creating Layer scale4e_branch2b
I0824 17:40:54.313284  9024 net.cpp:425] scale4e_branch2b <- res4e_branch2b
I0824 17:40:54.313300  9024 net.cpp:386] scale4e_branch2b -> res4e_branch2b (in-place)
I0824 17:40:54.313364  9024 layer_factory.hpp:77] Creating layer scale4e_branch2b
I0824 17:40:54.313513  9024 net.cpp:141] Setting up scale4e_branch2b
I0824 17:40:54.313536  9024 net.cpp:148] Top shape: 10 256 14 14 (501760)
I0824 17:40:54.313550  9024 net.cpp:156] Memory required for data: 2075279400
I0824 17:40:54.313568  9024 layer_factory.hpp:77] Creating layer res4e_branch2b_relu
I0824 17:40:54.313586  9024 net.cpp:91] Creating Layer res4e_branch2b_relu
I0824 17:40:54.313601  9024 net.cpp:425] res4e_branch2b_relu <- res4e_branch2b
I0824 17:40:54.313619  9024 net.cpp:386] res4e_branch2b_relu -> res4e_branch2b (in-place)
I0824 17:40:54.313638  9024 net.cpp:141] Setting up res4e_branch2b_relu
I0824 17:40:54.313654  9024 net.cpp:148] Top shape: 10 256 14 14 (501760)
I0824 17:40:54.313668  9024 net.cpp:156] Memory required for data: 2077286440
I0824 17:40:54.313683  9024 layer_factory.hpp:77] Creating layer res4e_branch2c
I0824 17:40:54.313702  9024 net.cpp:91] Creating Layer res4e_branch2c
I0824 17:40:54.313717  9024 net.cpp:425] res4e_branch2c <- res4e_branch2b
I0824 17:40:54.313737  9024 net.cpp:399] res4e_branch2c -> res4e_branch2c
I0824 17:40:54.316803  9024 net.cpp:141] Setting up res4e_branch2c
I0824 17:40:54.316833  9024 net.cpp:148] Top shape: 10 1024 14 14 (2007040)
I0824 17:40:54.316848  9024 net.cpp:156] Memory required for data: 2085314600
I0824 17:40:54.316886  9024 layer_factory.hpp:77] Creating layer bn4e_branch2c
I0824 17:40:54.316906  9024 net.cpp:91] Creating Layer bn4e_branch2c
I0824 17:40:54.316921  9024 net.cpp:425] bn4e_branch2c <- res4e_branch2c
I0824 17:40:54.316937  9024 net.cpp:386] bn4e_branch2c -> res4e_branch2c (in-place)
I0824 17:40:54.317174  9024 net.cpp:141] Setting up bn4e_branch2c
I0824 17:40:54.317199  9024 net.cpp:148] Top shape: 10 1024 14 14 (2007040)
I0824 17:40:54.317214  9024 net.cpp:156] Memory required for data: 2093342760
I0824 17:40:54.317239  9024 layer_factory.hpp:77] Creating layer scale4e_branch2c
I0824 17:40:54.317258  9024 net.cpp:91] Creating Layer scale4e_branch2c
I0824 17:40:54.317273  9024 net.cpp:425] scale4e_branch2c <- res4e_branch2c
I0824 17:40:54.317289  9024 net.cpp:386] scale4e_branch2c -> res4e_branch2c (in-place)
I0824 17:40:54.317353  9024 layer_factory.hpp:77] Creating layer scale4e_branch2c
I0824 17:40:54.317512  9024 net.cpp:141] Setting up scale4e_branch2c
I0824 17:40:54.317535  9024 net.cpp:148] Top shape: 10 1024 14 14 (2007040)
I0824 17:40:54.317549  9024 net.cpp:156] Memory required for data: 2101370920
I0824 17:40:54.317567  9024 layer_factory.hpp:77] Creating layer res4e
I0824 17:40:54.317589  9024 net.cpp:91] Creating Layer res4e
I0824 17:40:54.317605  9024 net.cpp:425] res4e <- res4d_res4d_relu_0_split_1
I0824 17:40:54.317620  9024 net.cpp:425] res4e <- res4e_branch2c
I0824 17:40:54.317636  9024 net.cpp:399] res4e -> res4e
I0824 17:40:54.317682  9024 net.cpp:141] Setting up res4e
I0824 17:40:54.317705  9024 net.cpp:148] Top shape: 10 1024 14 14 (2007040)
I0824 17:40:54.317719  9024 net.cpp:156] Memory required for data: 2109399080
I0824 17:40:54.317734  9024 layer_factory.hpp:77] Creating layer res4e_relu
I0824 17:40:54.317750  9024 net.cpp:91] Creating Layer res4e_relu
I0824 17:40:54.317765  9024 net.cpp:425] res4e_relu <- res4e
I0824 17:40:54.317785  9024 net.cpp:386] res4e_relu -> res4e (in-place)
I0824 17:40:54.317802  9024 net.cpp:141] Setting up res4e_relu
I0824 17:40:54.317818  9024 net.cpp:148] Top shape: 10 1024 14 14 (2007040)
I0824 17:40:54.317832  9024 net.cpp:156] Memory required for data: 2117427240
I0824 17:40:54.317845  9024 layer_factory.hpp:77] Creating layer res4e_res4e_relu_0_split
I0824 17:40:54.317862  9024 net.cpp:91] Creating Layer res4e_res4e_relu_0_split
I0824 17:40:54.317876  9024 net.cpp:425] res4e_res4e_relu_0_split <- res4e
I0824 17:40:54.317893  9024 net.cpp:399] res4e_res4e_relu_0_split -> res4e_res4e_relu_0_split_0
I0824 17:40:54.317910  9024 net.cpp:399] res4e_res4e_relu_0_split -> res4e_res4e_relu_0_split_1
I0824 17:40:54.317967  9024 net.cpp:141] Setting up res4e_res4e_relu_0_split
I0824 17:40:54.317991  9024 net.cpp:148] Top shape: 10 1024 14 14 (2007040)
I0824 17:40:54.318007  9024 net.cpp:148] Top shape: 10 1024 14 14 (2007040)
I0824 17:40:54.318022  9024 net.cpp:156] Memory required for data: 2133483560
I0824 17:40:54.318034  9024 layer_factory.hpp:77] Creating layer res4f_branch2a
I0824 17:40:54.318055  9024 net.cpp:91] Creating Layer res4f_branch2a
I0824 17:40:54.318070  9024 net.cpp:425] res4f_branch2a <- res4e_res4e_relu_0_split_0
I0824 17:40:54.318094  9024 net.cpp:399] res4f_branch2a -> res4f_branch2a
I0824 17:40:54.321171  9024 net.cpp:141] Setting up res4f_branch2a
I0824 17:40:54.321199  9024 net.cpp:148] Top shape: 10 256 14 14 (501760)
I0824 17:40:54.321214  9024 net.cpp:156] Memory required for data: 2135490600
I0824 17:40:54.321231  9024 layer_factory.hpp:77] Creating layer bn4f_branch2a
I0824 17:40:54.321249  9024 net.cpp:91] Creating Layer bn4f_branch2a
I0824 17:40:54.321264  9024 net.cpp:425] bn4f_branch2a <- res4f_branch2a
I0824 17:40:54.321281  9024 net.cpp:386] bn4f_branch2a -> res4f_branch2a (in-place)
I0824 17:40:54.321516  9024 net.cpp:141] Setting up bn4f_branch2a
I0824 17:40:54.321539  9024 net.cpp:148] Top shape: 10 256 14 14 (501760)
I0824 17:40:54.321554  9024 net.cpp:156] Memory required for data: 2137497640
I0824 17:40:54.321573  9024 layer_factory.hpp:77] Creating layer scale4f_branch2a
I0824 17:40:54.321614  9024 net.cpp:91] Creating Layer scale4f_branch2a
I0824 17:40:54.321631  9024 net.cpp:425] scale4f_branch2a <- res4f_branch2a
I0824 17:40:54.321648  9024 net.cpp:386] scale4f_branch2a -> res4f_branch2a (in-place)
I0824 17:40:54.321713  9024 layer_factory.hpp:77] Creating layer scale4f_branch2a
I0824 17:40:54.321864  9024 net.cpp:141] Setting up scale4f_branch2a
I0824 17:40:54.321889  9024 net.cpp:148] Top shape: 10 256 14 14 (501760)
I0824 17:40:54.321903  9024 net.cpp:156] Memory required for data: 2139504680
I0824 17:40:54.321921  9024 layer_factory.hpp:77] Creating layer res4f_branch2a_relu
I0824 17:40:54.321943  9024 net.cpp:91] Creating Layer res4f_branch2a_relu
I0824 17:40:54.321959  9024 net.cpp:425] res4f_branch2a_relu <- res4f_branch2a
I0824 17:40:54.321974  9024 net.cpp:386] res4f_branch2a_relu -> res4f_branch2a (in-place)
I0824 17:40:54.321991  9024 net.cpp:141] Setting up res4f_branch2a_relu
I0824 17:40:54.322006  9024 net.cpp:148] Top shape: 10 256 14 14 (501760)
I0824 17:40:54.322021  9024 net.cpp:156] Memory required for data: 2141511720
I0824 17:40:54.322034  9024 layer_factory.hpp:77] Creating layer res4f_branch2b
I0824 17:40:54.322058  9024 net.cpp:91] Creating Layer res4f_branch2b
I0824 17:40:54.322074  9024 net.cpp:425] res4f_branch2b <- res4f_branch2a
I0824 17:40:54.322093  9024 net.cpp:399] res4f_branch2b -> res4f_branch2b
I0824 17:40:54.328511  9024 net.cpp:141] Setting up res4f_branch2b
I0824 17:40:54.328541  9024 net.cpp:148] Top shape: 10 256 14 14 (501760)
I0824 17:40:54.328557  9024 net.cpp:156] Memory required for data: 2143518760
I0824 17:40:54.328574  9024 layer_factory.hpp:77] Creating layer bn4f_branch2b
I0824 17:40:54.328596  9024 net.cpp:91] Creating Layer bn4f_branch2b
I0824 17:40:54.328619  9024 net.cpp:425] bn4f_branch2b <- res4f_branch2b
I0824 17:40:54.328634  9024 net.cpp:386] bn4f_branch2b -> res4f_branch2b (in-place)
I0824 17:40:54.328876  9024 net.cpp:141] Setting up bn4f_branch2b
I0824 17:40:54.328902  9024 net.cpp:148] Top shape: 10 256 14 14 (501760)
I0824 17:40:54.328917  9024 net.cpp:156] Memory required for data: 2145525800
I0824 17:40:54.328936  9024 layer_factory.hpp:77] Creating layer scale4f_branch2b
I0824 17:40:54.328958  9024 net.cpp:91] Creating Layer scale4f_branch2b
I0824 17:40:54.328974  9024 net.cpp:425] scale4f_branch2b <- res4f_branch2b
I0824 17:40:54.328990  9024 net.cpp:386] scale4f_branch2b -> res4f_branch2b (in-place)
I0824 17:40:54.329058  9024 layer_factory.hpp:77] Creating layer scale4f_branch2b
I0824 17:40:54.329213  9024 net.cpp:141] Setting up scale4f_branch2b
I0824 17:40:54.329237  9024 net.cpp:148] Top shape: 10 256 14 14 (501760)
I0824 17:40:54.329252  9024 net.cpp:156] Memory required for data: 2147532840
I0824 17:40:54.329269  9024 layer_factory.hpp:77] Creating layer res4f_branch2b_relu
I0824 17:40:54.329286  9024 net.cpp:91] Creating Layer res4f_branch2b_relu
I0824 17:40:54.329301  9024 net.cpp:425] res4f_branch2b_relu <- res4f_branch2b
I0824 17:40:54.329324  9024 net.cpp:386] res4f_branch2b_relu -> res4f_branch2b (in-place)
I0824 17:40:54.329345  9024 net.cpp:141] Setting up res4f_branch2b_relu
I0824 17:40:54.329361  9024 net.cpp:148] Top shape: 10 256 14 14 (501760)
I0824 17:40:54.329375  9024 net.cpp:156] Memory required for data: 2149539880
I0824 17:40:54.329388  9024 layer_factory.hpp:77] Creating layer res4f_branch2c
I0824 17:40:54.329412  9024 net.cpp:91] Creating Layer res4f_branch2c
I0824 17:40:54.329428  9024 net.cpp:425] res4f_branch2c <- res4f_branch2b
I0824 17:40:54.329445  9024 net.cpp:399] res4f_branch2c -> res4f_branch2c
I0824 17:40:54.332514  9024 net.cpp:141] Setting up res4f_branch2c
I0824 17:40:54.332542  9024 net.cpp:148] Top shape: 10 1024 14 14 (2007040)
I0824 17:40:54.332558  9024 net.cpp:156] Memory required for data: 2157568040
I0824 17:40:54.332576  9024 layer_factory.hpp:77] Creating layer bn4f_branch2c
I0824 17:40:54.332597  9024 net.cpp:91] Creating Layer bn4f_branch2c
I0824 17:40:54.332619  9024 net.cpp:425] bn4f_branch2c <- res4f_branch2c
I0824 17:40:54.332635  9024 net.cpp:386] bn4f_branch2c -> res4f_branch2c (in-place)
I0824 17:40:54.332888  9024 net.cpp:141] Setting up bn4f_branch2c
I0824 17:40:54.332913  9024 net.cpp:148] Top shape: 10 1024 14 14 (2007040)
I0824 17:40:54.332928  9024 net.cpp:156] Memory required for data: 2165596200
I0824 17:40:54.332998  9024 layer_factory.hpp:77] Creating layer scale4f_branch2c
I0824 17:40:54.333022  9024 net.cpp:91] Creating Layer scale4f_branch2c
I0824 17:40:54.333037  9024 net.cpp:425] scale4f_branch2c <- res4f_branch2c
I0824 17:40:54.333053  9024 net.cpp:386] scale4f_branch2c -> res4f_branch2c (in-place)
I0824 17:40:54.333118  9024 layer_factory.hpp:77] Creating layer scale4f_branch2c
I0824 17:40:54.333272  9024 net.cpp:141] Setting up scale4f_branch2c
I0824 17:40:54.333297  9024 net.cpp:148] Top shape: 10 1024 14 14 (2007040)
I0824 17:40:54.333310  9024 net.cpp:156] Memory required for data: 2173624360
I0824 17:40:54.333328  9024 layer_factory.hpp:77] Creating layer res4f
I0824 17:40:54.333349  9024 net.cpp:91] Creating Layer res4f
I0824 17:40:54.333365  9024 net.cpp:425] res4f <- res4e_res4e_relu_0_split_1
I0824 17:40:54.333380  9024 net.cpp:425] res4f <- res4f_branch2c
I0824 17:40:54.333396  9024 net.cpp:399] res4f -> res4f
I0824 17:40:54.333442  9024 net.cpp:141] Setting up res4f
I0824 17:40:54.333465  9024 net.cpp:148] Top shape: 10 1024 14 14 (2007040)
I0824 17:40:54.333480  9024 net.cpp:156] Memory required for data: 2181652520
I0824 17:40:54.333494  9024 layer_factory.hpp:77] Creating layer res4f_relu
I0824 17:40:54.333510  9024 net.cpp:91] Creating Layer res4f_relu
I0824 17:40:54.333524  9024 net.cpp:425] res4f_relu <- res4f
I0824 17:40:54.333544  9024 net.cpp:386] res4f_relu -> res4f (in-place)
I0824 17:40:54.333561  9024 net.cpp:141] Setting up res4f_relu
I0824 17:40:54.333577  9024 net.cpp:148] Top shape: 10 1024 14 14 (2007040)
I0824 17:40:54.333591  9024 net.cpp:156] Memory required for data: 2189680680
I0824 17:40:54.333606  9024 layer_factory.hpp:77] Creating layer res4f_res4f_relu_0_split
I0824 17:40:54.333622  9024 net.cpp:91] Creating Layer res4f_res4f_relu_0_split
I0824 17:40:54.333636  9024 net.cpp:425] res4f_res4f_relu_0_split <- res4f
I0824 17:40:54.333657  9024 net.cpp:399] res4f_res4f_relu_0_split -> res4f_res4f_relu_0_split_0
I0824 17:40:54.333675  9024 net.cpp:399] res4f_res4f_relu_0_split -> res4f_res4f_relu_0_split_1
I0824 17:40:54.333732  9024 net.cpp:141] Setting up res4f_res4f_relu_0_split
I0824 17:40:54.333755  9024 net.cpp:148] Top shape: 10 1024 14 14 (2007040)
I0824 17:40:54.333771  9024 net.cpp:148] Top shape: 10 1024 14 14 (2007040)
I0824 17:40:54.333786  9024 net.cpp:156] Memory required for data: 2205737000
I0824 17:40:54.333799  9024 layer_factory.hpp:77] Creating layer res5a_branch1
I0824 17:40:54.333819  9024 net.cpp:91] Creating Layer res5a_branch1
I0824 17:40:54.333835  9024 net.cpp:425] res5a_branch1 <- res4f_res4f_relu_0_split_0
I0824 17:40:54.333858  9024 net.cpp:399] res5a_branch1 -> res5a_branch1
I0824 17:40:54.355789  9024 net.cpp:141] Setting up res5a_branch1
I0824 17:40:54.355844  9024 net.cpp:148] Top shape: 10 2048 7 7 (1003520)
I0824 17:40:54.355859  9024 net.cpp:156] Memory required for data: 2209751080
I0824 17:40:54.355877  9024 layer_factory.hpp:77] Creating layer bn5a_branch1
I0824 17:40:54.355898  9024 net.cpp:91] Creating Layer bn5a_branch1
I0824 17:40:54.355914  9024 net.cpp:425] bn5a_branch1 <- res5a_branch1
I0824 17:40:54.355931  9024 net.cpp:386] bn5a_branch1 -> res5a_branch1 (in-place)
I0824 17:40:54.356200  9024 net.cpp:141] Setting up bn5a_branch1
I0824 17:40:54.356226  9024 net.cpp:148] Top shape: 10 2048 7 7 (1003520)
I0824 17:40:54.356240  9024 net.cpp:156] Memory required for data: 2213765160
I0824 17:40:54.356261  9024 layer_factory.hpp:77] Creating layer scale5a_branch1
I0824 17:40:54.356281  9024 net.cpp:91] Creating Layer scale5a_branch1
I0824 17:40:54.356297  9024 net.cpp:425] scale5a_branch1 <- res5a_branch1
I0824 17:40:54.356312  9024 net.cpp:386] scale5a_branch1 -> res5a_branch1 (in-place)
I0824 17:40:54.356379  9024 layer_factory.hpp:77] Creating layer scale5a_branch1
I0824 17:40:54.356544  9024 net.cpp:141] Setting up scale5a_branch1
I0824 17:40:54.356590  9024 net.cpp:148] Top shape: 10 2048 7 7 (1003520)
I0824 17:40:54.356611  9024 net.cpp:156] Memory required for data: 2217779240
I0824 17:40:54.356629  9024 layer_factory.hpp:77] Creating layer res5a_branch2a
I0824 17:40:54.356657  9024 net.cpp:91] Creating Layer res5a_branch2a
I0824 17:40:54.356679  9024 net.cpp:425] res5a_branch2a <- res4f_res4f_relu_0_split_1
I0824 17:40:54.356698  9024 net.cpp:399] res5a_branch2a -> res5a_branch2a
I0824 17:40:54.362371  9024 net.cpp:141] Setting up res5a_branch2a
I0824 17:40:54.362414  9024 net.cpp:148] Top shape: 10 512 7 7 (250880)
I0824 17:40:54.362429  9024 net.cpp:156] Memory required for data: 2218782760
I0824 17:40:54.362447  9024 layer_factory.hpp:77] Creating layer bn5a_branch2a
I0824 17:40:54.362470  9024 net.cpp:91] Creating Layer bn5a_branch2a
I0824 17:40:54.362485  9024 net.cpp:425] bn5a_branch2a <- res5a_branch2a
I0824 17:40:54.362502  9024 net.cpp:386] bn5a_branch2a -> res5a_branch2a (in-place)
I0824 17:40:54.362746  9024 net.cpp:141] Setting up bn5a_branch2a
I0824 17:40:54.362771  9024 net.cpp:148] Top shape: 10 512 7 7 (250880)
I0824 17:40:54.362785  9024 net.cpp:156] Memory required for data: 2219786280
I0824 17:40:54.362805  9024 layer_factory.hpp:77] Creating layer scale5a_branch2a
I0824 17:40:54.362824  9024 net.cpp:91] Creating Layer scale5a_branch2a
I0824 17:40:54.362839  9024 net.cpp:425] scale5a_branch2a <- res5a_branch2a
I0824 17:40:54.362859  9024 net.cpp:386] scale5a_branch2a -> res5a_branch2a (in-place)
I0824 17:40:54.362918  9024 layer_factory.hpp:77] Creating layer scale5a_branch2a
I0824 17:40:54.363077  9024 net.cpp:141] Setting up scale5a_branch2a
I0824 17:40:54.363102  9024 net.cpp:148] Top shape: 10 512 7 7 (250880)
I0824 17:40:54.363116  9024 net.cpp:156] Memory required for data: 2220789800
I0824 17:40:54.363134  9024 layer_factory.hpp:77] Creating layer res5a_branch2a_relu
I0824 17:40:54.363152  9024 net.cpp:91] Creating Layer res5a_branch2a_relu
I0824 17:40:54.363167  9024 net.cpp:425] res5a_branch2a_relu <- res5a_branch2a
I0824 17:40:54.363181  9024 net.cpp:386] res5a_branch2a_relu -> res5a_branch2a (in-place)
I0824 17:40:54.363199  9024 net.cpp:141] Setting up res5a_branch2a_relu
I0824 17:40:54.363215  9024 net.cpp:148] Top shape: 10 512 7 7 (250880)
I0824 17:40:54.363229  9024 net.cpp:156] Memory required for data: 2221793320
I0824 17:40:54.363242  9024 layer_factory.hpp:77] Creating layer res5a_branch2b
I0824 17:40:54.363266  9024 net.cpp:91] Creating Layer res5a_branch2b
I0824 17:40:54.363282  9024 net.cpp:425] res5a_branch2b <- res5a_branch2a
I0824 17:40:54.363303  9024 net.cpp:399] res5a_branch2b -> res5a_branch2b
I0824 17:40:54.387773  9024 net.cpp:141] Setting up res5a_branch2b
I0824 17:40:54.387821  9024 net.cpp:148] Top shape: 10 512 7 7 (250880)
I0824 17:40:54.387841  9024 net.cpp:156] Memory required for data: 2222796840
I0824 17:40:54.387861  9024 layer_factory.hpp:77] Creating layer bn5a_branch2b
I0824 17:40:54.387883  9024 net.cpp:91] Creating Layer bn5a_branch2b
I0824 17:40:54.387900  9024 net.cpp:425] bn5a_branch2b <- res5a_branch2b
I0824 17:40:54.387922  9024 net.cpp:386] bn5a_branch2b -> res5a_branch2b (in-place)
I0824 17:40:54.388171  9024 net.cpp:141] Setting up bn5a_branch2b
I0824 17:40:54.388196  9024 net.cpp:148] Top shape: 10 512 7 7 (250880)
I0824 17:40:54.388211  9024 net.cpp:156] Memory required for data: 2223800360
I0824 17:40:54.388232  9024 layer_factory.hpp:77] Creating layer scale5a_branch2b
I0824 17:40:54.388252  9024 net.cpp:91] Creating Layer scale5a_branch2b
I0824 17:40:54.388267  9024 net.cpp:425] scale5a_branch2b <- res5a_branch2b
I0824 17:40:54.388283  9024 net.cpp:386] scale5a_branch2b -> res5a_branch2b (in-place)
I0824 17:40:54.388348  9024 layer_factory.hpp:77] Creating layer scale5a_branch2b
I0824 17:40:54.388506  9024 net.cpp:141] Setting up scale5a_branch2b
I0824 17:40:54.388530  9024 net.cpp:148] Top shape: 10 512 7 7 (250880)
I0824 17:40:54.388545  9024 net.cpp:156] Memory required for data: 2224803880
I0824 17:40:54.388562  9024 layer_factory.hpp:77] Creating layer res5a_branch2b_relu
I0824 17:40:54.388618  9024 net.cpp:91] Creating Layer res5a_branch2b_relu
I0824 17:40:54.388636  9024 net.cpp:425] res5a_branch2b_relu <- res5a_branch2b
I0824 17:40:54.388653  9024 net.cpp:386] res5a_branch2b_relu -> res5a_branch2b (in-place)
I0824 17:40:54.388671  9024 net.cpp:141] Setting up res5a_branch2b_relu
I0824 17:40:54.388689  9024 net.cpp:148] Top shape: 10 512 7 7 (250880)
I0824 17:40:54.388702  9024 net.cpp:156] Memory required for data: 2225807400
I0824 17:40:54.388716  9024 layer_factory.hpp:77] Creating layer res5a_branch2c
I0824 17:40:54.388742  9024 net.cpp:91] Creating Layer res5a_branch2c
I0824 17:40:54.388758  9024 net.cpp:425] res5a_branch2c <- res5a_branch2b
I0824 17:40:54.388775  9024 net.cpp:399] res5a_branch2c -> res5a_branch2c
I0824 17:40:54.400535  9024 net.cpp:141] Setting up res5a_branch2c
I0824 17:40:54.400581  9024 net.cpp:148] Top shape: 10 2048 7 7 (1003520)
I0824 17:40:54.400602  9024 net.cpp:156] Memory required for data: 2229821480
I0824 17:40:54.400621  9024 layer_factory.hpp:77] Creating layer bn5a_branch2c
I0824 17:40:54.400640  9024 net.cpp:91] Creating Layer bn5a_branch2c
I0824 17:40:54.400656  9024 net.cpp:425] bn5a_branch2c <- res5a_branch2c
I0824 17:40:54.400673  9024 net.cpp:386] bn5a_branch2c -> res5a_branch2c (in-place)
I0824 17:40:54.400928  9024 net.cpp:141] Setting up bn5a_branch2c
I0824 17:40:54.400952  9024 net.cpp:148] Top shape: 10 2048 7 7 (1003520)
I0824 17:40:54.400967  9024 net.cpp:156] Memory required for data: 2233835560
I0824 17:40:54.400987  9024 layer_factory.hpp:77] Creating layer scale5a_branch2c
I0824 17:40:54.401007  9024 net.cpp:91] Creating Layer scale5a_branch2c
I0824 17:40:54.401022  9024 net.cpp:425] scale5a_branch2c <- res5a_branch2c
I0824 17:40:54.401038  9024 net.cpp:386] scale5a_branch2c -> res5a_branch2c (in-place)
I0824 17:40:54.401103  9024 layer_factory.hpp:77] Creating layer scale5a_branch2c
I0824 17:40:54.401264  9024 net.cpp:141] Setting up scale5a_branch2c
I0824 17:40:54.401288  9024 net.cpp:148] Top shape: 10 2048 7 7 (1003520)
I0824 17:40:54.401302  9024 net.cpp:156] Memory required for data: 2237849640
I0824 17:40:54.401320  9024 layer_factory.hpp:77] Creating layer res5a
I0824 17:40:54.401342  9024 net.cpp:91] Creating Layer res5a
I0824 17:40:54.401358  9024 net.cpp:425] res5a <- res5a_branch1
I0824 17:40:54.401374  9024 net.cpp:425] res5a <- res5a_branch2c
I0824 17:40:54.401393  9024 net.cpp:399] res5a -> res5a
I0824 17:40:54.401438  9024 net.cpp:141] Setting up res5a
I0824 17:40:54.401463  9024 net.cpp:148] Top shape: 10 2048 7 7 (1003520)
I0824 17:40:54.401476  9024 net.cpp:156] Memory required for data: 2241863720
I0824 17:40:54.401490  9024 layer_factory.hpp:77] Creating layer res5a_relu
I0824 17:40:54.401510  9024 net.cpp:91] Creating Layer res5a_relu
I0824 17:40:54.401525  9024 net.cpp:425] res5a_relu <- res5a
I0824 17:40:54.401540  9024 net.cpp:386] res5a_relu -> res5a (in-place)
I0824 17:40:54.401557  9024 net.cpp:141] Setting up res5a_relu
I0824 17:40:54.401573  9024 net.cpp:148] Top shape: 10 2048 7 7 (1003520)
I0824 17:40:54.401587  9024 net.cpp:156] Memory required for data: 2245877800
I0824 17:40:54.401602  9024 layer_factory.hpp:77] Creating layer res5a_res5a_relu_0_split
I0824 17:40:54.401618  9024 net.cpp:91] Creating Layer res5a_res5a_relu_0_split
I0824 17:40:54.401633  9024 net.cpp:425] res5a_res5a_relu_0_split <- res5a
I0824 17:40:54.401648  9024 net.cpp:399] res5a_res5a_relu_0_split -> res5a_res5a_relu_0_split_0
I0824 17:40:54.401666  9024 net.cpp:399] res5a_res5a_relu_0_split -> res5a_res5a_relu_0_split_1
I0824 17:40:54.401729  9024 net.cpp:141] Setting up res5a_res5a_relu_0_split
I0824 17:40:54.401753  9024 net.cpp:148] Top shape: 10 2048 7 7 (1003520)
I0824 17:40:54.401769  9024 net.cpp:148] Top shape: 10 2048 7 7 (1003520)
I0824 17:40:54.401783  9024 net.cpp:156] Memory required for data: 2253905960
I0824 17:40:54.401798  9024 layer_factory.hpp:77] Creating layer res5b_branch2a
I0824 17:40:54.401818  9024 net.cpp:91] Creating Layer res5b_branch2a
I0824 17:40:54.401854  9024 net.cpp:425] res5b_branch2a <- res5a_res5a_relu_0_split_0
I0824 17:40:54.401876  9024 net.cpp:399] res5b_branch2a -> res5b_branch2a
I0824 17:40:54.412891  9024 net.cpp:141] Setting up res5b_branch2a
I0824 17:40:54.412923  9024 net.cpp:148] Top shape: 10 512 7 7 (250880)
I0824 17:40:54.412938  9024 net.cpp:156] Memory required for data: 2254909480
I0824 17:40:54.412956  9024 layer_factory.hpp:77] Creating layer bn5b_branch2a
I0824 17:40:54.412976  9024 net.cpp:91] Creating Layer bn5b_branch2a
I0824 17:40:54.412992  9024 net.cpp:425] bn5b_branch2a <- res5b_branch2a
I0824 17:40:54.413007  9024 net.cpp:386] bn5b_branch2a -> res5b_branch2a (in-place)
I0824 17:40:54.413257  9024 net.cpp:141] Setting up bn5b_branch2a
I0824 17:40:54.413283  9024 net.cpp:148] Top shape: 10 512 7 7 (250880)
I0824 17:40:54.413298  9024 net.cpp:156] Memory required for data: 2255913000
I0824 17:40:54.413322  9024 layer_factory.hpp:77] Creating layer scale5b_branch2a
I0824 17:40:54.413342  9024 net.cpp:91] Creating Layer scale5b_branch2a
I0824 17:40:54.413358  9024 net.cpp:425] scale5b_branch2a <- res5b_branch2a
I0824 17:40:54.413374  9024 net.cpp:386] scale5b_branch2a -> res5b_branch2a (in-place)
I0824 17:40:54.413439  9024 layer_factory.hpp:77] Creating layer scale5b_branch2a
I0824 17:40:54.413620  9024 net.cpp:141] Setting up scale5b_branch2a
I0824 17:40:54.413646  9024 net.cpp:148] Top shape: 10 512 7 7 (250880)
I0824 17:40:54.413661  9024 net.cpp:156] Memory required for data: 2256916520
I0824 17:40:54.413678  9024 layer_factory.hpp:77] Creating layer res5b_branch2a_relu
I0824 17:40:54.413700  9024 net.cpp:91] Creating Layer res5b_branch2a_relu
I0824 17:40:54.413715  9024 net.cpp:425] res5b_branch2a_relu <- res5b_branch2a
I0824 17:40:54.413731  9024 net.cpp:386] res5b_branch2a_relu -> res5b_branch2a (in-place)
I0824 17:40:54.413749  9024 net.cpp:141] Setting up res5b_branch2a_relu
I0824 17:40:54.413765  9024 net.cpp:148] Top shape: 10 512 7 7 (250880)
I0824 17:40:54.413779  9024 net.cpp:156] Memory required for data: 2257920040
I0824 17:40:54.413794  9024 layer_factory.hpp:77] Creating layer res5b_branch2b
I0824 17:40:54.413817  9024 net.cpp:91] Creating Layer res5b_branch2b
I0824 17:40:54.413832  9024 net.cpp:425] res5b_branch2b <- res5b_branch2a
I0824 17:40:54.413852  9024 net.cpp:399] res5b_branch2b -> res5b_branch2b
I0824 17:40:54.438479  9024 net.cpp:141] Setting up res5b_branch2b
I0824 17:40:54.438539  9024 net.cpp:148] Top shape: 10 512 7 7 (250880)
I0824 17:40:54.438555  9024 net.cpp:156] Memory required for data: 2258923560
I0824 17:40:54.438575  9024 layer_factory.hpp:77] Creating layer bn5b_branch2b
I0824 17:40:54.438596  9024 net.cpp:91] Creating Layer bn5b_branch2b
I0824 17:40:54.438612  9024 net.cpp:425] bn5b_branch2b <- res5b_branch2b
I0824 17:40:54.438630  9024 net.cpp:386] bn5b_branch2b -> res5b_branch2b (in-place)
I0824 17:40:54.438892  9024 net.cpp:141] Setting up bn5b_branch2b
I0824 17:40:54.438918  9024 net.cpp:148] Top shape: 10 512 7 7 (250880)
I0824 17:40:54.438932  9024 net.cpp:156] Memory required for data: 2259927080
I0824 17:40:54.438954  9024 layer_factory.hpp:77] Creating layer scale5b_branch2b
I0824 17:40:54.438982  9024 net.cpp:91] Creating Layer scale5b_branch2b
I0824 17:40:54.438999  9024 net.cpp:425] scale5b_branch2b <- res5b_branch2b
I0824 17:40:54.439016  9024 net.cpp:386] scale5b_branch2b -> res5b_branch2b (in-place)
I0824 17:40:54.439088  9024 layer_factory.hpp:77] Creating layer scale5b_branch2b
I0824 17:40:54.439267  9024 net.cpp:141] Setting up scale5b_branch2b
I0824 17:40:54.439293  9024 net.cpp:148] Top shape: 10 512 7 7 (250880)
I0824 17:40:54.439308  9024 net.cpp:156] Memory required for data: 2260930600
I0824 17:40:54.439327  9024 layer_factory.hpp:77] Creating layer res5b_branch2b_relu
I0824 17:40:54.439344  9024 net.cpp:91] Creating Layer res5b_branch2b_relu
I0824 17:40:54.439359  9024 net.cpp:425] res5b_branch2b_relu <- res5b_branch2b
I0824 17:40:54.439378  9024 net.cpp:386] res5b_branch2b_relu -> res5b_branch2b (in-place)
I0824 17:40:54.439398  9024 net.cpp:141] Setting up res5b_branch2b_relu
I0824 17:40:54.439442  9024 net.cpp:148] Top shape: 10 512 7 7 (250880)
I0824 17:40:54.439457  9024 net.cpp:156] Memory required for data: 2261934120
I0824 17:40:54.439471  9024 layer_factory.hpp:77] Creating layer res5b_branch2c
I0824 17:40:54.439497  9024 net.cpp:91] Creating Layer res5b_branch2c
I0824 17:40:54.439513  9024 net.cpp:425] res5b_branch2c <- res5b_branch2b
I0824 17:40:54.439532  9024 net.cpp:399] res5b_branch2c -> res5b_branch2c
I0824 17:40:54.450778  9024 net.cpp:141] Setting up res5b_branch2c
I0824 17:40:54.450810  9024 net.cpp:148] Top shape: 10 2048 7 7 (1003520)
I0824 17:40:54.450825  9024 net.cpp:156] Memory required for data: 2265948200
I0824 17:40:54.450844  9024 layer_factory.hpp:77] Creating layer bn5b_branch2c
I0824 17:40:54.450866  9024 net.cpp:91] Creating Layer bn5b_branch2c
I0824 17:40:54.450882  9024 net.cpp:425] bn5b_branch2c <- res5b_branch2c
I0824 17:40:54.450899  9024 net.cpp:386] bn5b_branch2c -> res5b_branch2c (in-place)
I0824 17:40:54.451156  9024 net.cpp:141] Setting up bn5b_branch2c
I0824 17:40:54.451182  9024 net.cpp:148] Top shape: 10 2048 7 7 (1003520)
I0824 17:40:54.451196  9024 net.cpp:156] Memory required for data: 2269962280
I0824 17:40:54.451216  9024 layer_factory.hpp:77] Creating layer scale5b_branch2c
I0824 17:40:54.451236  9024 net.cpp:91] Creating Layer scale5b_branch2c
I0824 17:40:54.451251  9024 net.cpp:425] scale5b_branch2c <- res5b_branch2c
I0824 17:40:54.451270  9024 net.cpp:386] scale5b_branch2c -> res5b_branch2c (in-place)
I0824 17:40:54.451333  9024 layer_factory.hpp:77] Creating layer scale5b_branch2c
I0824 17:40:54.451504  9024 net.cpp:141] Setting up scale5b_branch2c
I0824 17:40:54.451530  9024 net.cpp:148] Top shape: 10 2048 7 7 (1003520)
I0824 17:40:54.451545  9024 net.cpp:156] Memory required for data: 2273976360
I0824 17:40:54.451570  9024 layer_factory.hpp:77] Creating layer res5b
I0824 17:40:54.451588  9024 net.cpp:91] Creating Layer res5b
I0824 17:40:54.451603  9024 net.cpp:425] res5b <- res5a_res5a_relu_0_split_1
I0824 17:40:54.451619  9024 net.cpp:425] res5b <- res5b_branch2c
I0824 17:40:54.451637  9024 net.cpp:399] res5b -> res5b
I0824 17:40:54.451684  9024 net.cpp:141] Setting up res5b
I0824 17:40:54.451709  9024 net.cpp:148] Top shape: 10 2048 7 7 (1003520)
I0824 17:40:54.451722  9024 net.cpp:156] Memory required for data: 2277990440
I0824 17:40:54.451736  9024 layer_factory.hpp:77] Creating layer res5b_relu
I0824 17:40:54.451757  9024 net.cpp:91] Creating Layer res5b_relu
I0824 17:40:54.451772  9024 net.cpp:425] res5b_relu <- res5b
I0824 17:40:54.451787  9024 net.cpp:386] res5b_relu -> res5b (in-place)
I0824 17:40:54.451805  9024 net.cpp:141] Setting up res5b_relu
I0824 17:40:54.451820  9024 net.cpp:148] Top shape: 10 2048 7 7 (1003520)
I0824 17:40:54.451834  9024 net.cpp:156] Memory required for data: 2282004520
I0824 17:40:54.451848  9024 layer_factory.hpp:77] Creating layer res5b_res5b_relu_0_split
I0824 17:40:54.451865  9024 net.cpp:91] Creating Layer res5b_res5b_relu_0_split
I0824 17:40:54.451879  9024 net.cpp:425] res5b_res5b_relu_0_split <- res5b
I0824 17:40:54.451898  9024 net.cpp:399] res5b_res5b_relu_0_split -> res5b_res5b_relu_0_split_0
I0824 17:40:54.451918  9024 net.cpp:399] res5b_res5b_relu_0_split -> res5b_res5b_relu_0_split_1
I0824 17:40:54.451975  9024 net.cpp:141] Setting up res5b_res5b_relu_0_split
I0824 17:40:54.451999  9024 net.cpp:148] Top shape: 10 2048 7 7 (1003520)
I0824 17:40:54.452015  9024 net.cpp:148] Top shape: 10 2048 7 7 (1003520)
I0824 17:40:54.452029  9024 net.cpp:156] Memory required for data: 2290032680
I0824 17:40:54.452044  9024 layer_factory.hpp:77] Creating layer res5c_branch2a
I0824 17:40:54.452075  9024 net.cpp:91] Creating Layer res5c_branch2a
I0824 17:40:54.452096  9024 net.cpp:425] res5c_branch2a <- res5b_res5b_relu_0_split_0
I0824 17:40:54.452114  9024 net.cpp:399] res5c_branch2a -> res5c_branch2a
I0824 17:40:54.463292  9024 net.cpp:141] Setting up res5c_branch2a
I0824 17:40:54.463325  9024 net.cpp:148] Top shape: 10 512 7 7 (250880)
I0824 17:40:54.463340  9024 net.cpp:156] Memory required for data: 2291036200
I0824 17:40:54.463380  9024 layer_factory.hpp:77] Creating layer bn5c_branch2a
I0824 17:40:54.463407  9024 net.cpp:91] Creating Layer bn5c_branch2a
I0824 17:40:54.463423  9024 net.cpp:425] bn5c_branch2a <- res5c_branch2a
I0824 17:40:54.463440  9024 net.cpp:386] bn5c_branch2a -> res5c_branch2a (in-place)
I0824 17:40:54.463686  9024 net.cpp:141] Setting up bn5c_branch2a
I0824 17:40:54.463712  9024 net.cpp:148] Top shape: 10 512 7 7 (250880)
I0824 17:40:54.463726  9024 net.cpp:156] Memory required for data: 2292039720
I0824 17:40:54.463747  9024 layer_factory.hpp:77] Creating layer scale5c_branch2a
I0824 17:40:54.463768  9024 net.cpp:91] Creating Layer scale5c_branch2a
I0824 17:40:54.463781  9024 net.cpp:425] scale5c_branch2a <- res5c_branch2a
I0824 17:40:54.463801  9024 net.cpp:386] scale5c_branch2a -> res5c_branch2a (in-place)
I0824 17:40:54.463861  9024 layer_factory.hpp:77] Creating layer scale5c_branch2a
I0824 17:40:54.464025  9024 net.cpp:141] Setting up scale5c_branch2a
I0824 17:40:54.464053  9024 net.cpp:148] Top shape: 10 512 7 7 (250880)
I0824 17:40:54.464068  9024 net.cpp:156] Memory required for data: 2293043240
I0824 17:40:54.464087  9024 layer_factory.hpp:77] Creating layer res5c_branch2a_relu
I0824 17:40:54.464104  9024 net.cpp:91] Creating Layer res5c_branch2a_relu
I0824 17:40:54.464118  9024 net.cpp:425] res5c_branch2a_relu <- res5c_branch2a
I0824 17:40:54.464133  9024 net.cpp:386] res5c_branch2a_relu -> res5c_branch2a (in-place)
I0824 17:40:54.464151  9024 net.cpp:141] Setting up res5c_branch2a_relu
I0824 17:40:54.464167  9024 net.cpp:148] Top shape: 10 512 7 7 (250880)
I0824 17:40:54.464180  9024 net.cpp:156] Memory required for data: 2294046760
I0824 17:40:54.464195  9024 layer_factory.hpp:77] Creating layer res5c_branch2b
I0824 17:40:54.464218  9024 net.cpp:91] Creating Layer res5c_branch2b
I0824 17:40:54.464234  9024 net.cpp:425] res5c_branch2b <- res5c_branch2a
I0824 17:40:54.464256  9024 net.cpp:399] res5c_branch2b -> res5c_branch2b
I0824 17:40:54.488873  9024 net.cpp:141] Setting up res5c_branch2b
I0824 17:40:54.488920  9024 net.cpp:148] Top shape: 10 512 7 7 (250880)
I0824 17:40:54.488937  9024 net.cpp:156] Memory required for data: 2295050280
I0824 17:40:54.488956  9024 layer_factory.hpp:77] Creating layer bn5c_branch2b
I0824 17:40:54.488977  9024 net.cpp:91] Creating Layer bn5c_branch2b
I0824 17:40:54.488996  9024 net.cpp:425] bn5c_branch2b <- res5c_branch2b
I0824 17:40:54.489017  9024 net.cpp:386] bn5c_branch2b -> res5c_branch2b (in-place)
I0824 17:40:54.489281  9024 net.cpp:141] Setting up bn5c_branch2b
I0824 17:40:54.489307  9024 net.cpp:148] Top shape: 10 512 7 7 (250880)
I0824 17:40:54.489321  9024 net.cpp:156] Memory required for data: 2296053800
I0824 17:40:54.489342  9024 layer_factory.hpp:77] Creating layer scale5c_branch2b
I0824 17:40:54.489362  9024 net.cpp:91] Creating Layer scale5c_branch2b
I0824 17:40:54.489377  9024 net.cpp:425] scale5c_branch2b <- res5c_branch2b
I0824 17:40:54.489392  9024 net.cpp:386] scale5c_branch2b -> res5c_branch2b (in-place)
I0824 17:40:54.489460  9024 layer_factory.hpp:77] Creating layer scale5c_branch2b
I0824 17:40:54.489639  9024 net.cpp:141] Setting up scale5c_branch2b
I0824 17:40:54.489665  9024 net.cpp:148] Top shape: 10 512 7 7 (250880)
I0824 17:40:54.489679  9024 net.cpp:156] Memory required for data: 2297057320
I0824 17:40:54.489697  9024 layer_factory.hpp:77] Creating layer res5c_branch2b_relu
I0824 17:40:54.489717  9024 net.cpp:91] Creating Layer res5c_branch2b_relu
I0824 17:40:54.489732  9024 net.cpp:425] res5c_branch2b_relu <- res5c_branch2b
I0824 17:40:54.489749  9024 net.cpp:386] res5c_branch2b_relu -> res5c_branch2b (in-place)
I0824 17:40:54.489769  9024 net.cpp:141] Setting up res5c_branch2b_relu
I0824 17:40:54.489785  9024 net.cpp:148] Top shape: 10 512 7 7 (250880)
I0824 17:40:54.489799  9024 net.cpp:156] Memory required for data: 2298060840
I0824 17:40:54.489812  9024 layer_factory.hpp:77] Creating layer res5c_branch2c
I0824 17:40:54.489835  9024 net.cpp:91] Creating Layer res5c_branch2c
I0824 17:40:54.489848  9024 net.cpp:425] res5c_branch2c <- res5c_branch2b
I0824 17:40:54.489895  9024 net.cpp:399] res5c_branch2c -> res5c_branch2c
I0824 17:40:54.501152  9024 net.cpp:141] Setting up res5c_branch2c
I0824 17:40:54.501183  9024 net.cpp:148] Top shape: 10 2048 7 7 (1003520)
I0824 17:40:54.501199  9024 net.cpp:156] Memory required for data: 2302074920
I0824 17:40:54.501215  9024 layer_factory.hpp:77] Creating layer bn5c_branch2c
I0824 17:40:54.501235  9024 net.cpp:91] Creating Layer bn5c_branch2c
I0824 17:40:54.501248  9024 net.cpp:425] bn5c_branch2c <- res5c_branch2c
I0824 17:40:54.501266  9024 net.cpp:386] bn5c_branch2c -> res5c_branch2c (in-place)
I0824 17:40:54.501530  9024 net.cpp:141] Setting up bn5c_branch2c
I0824 17:40:54.501556  9024 net.cpp:148] Top shape: 10 2048 7 7 (1003520)
I0824 17:40:54.501570  9024 net.cpp:156] Memory required for data: 2306089000
I0824 17:40:54.501595  9024 layer_factory.hpp:77] Creating layer scale5c_branch2c
I0824 17:40:54.501616  9024 net.cpp:91] Creating Layer scale5c_branch2c
I0824 17:40:54.501631  9024 net.cpp:425] scale5c_branch2c <- res5c_branch2c
I0824 17:40:54.501646  9024 net.cpp:386] scale5c_branch2c -> res5c_branch2c (in-place)
I0824 17:40:54.501713  9024 layer_factory.hpp:77] Creating layer scale5c_branch2c
I0824 17:40:54.501894  9024 net.cpp:141] Setting up scale5c_branch2c
I0824 17:40:54.501920  9024 net.cpp:148] Top shape: 10 2048 7 7 (1003520)
I0824 17:40:54.501935  9024 net.cpp:156] Memory required for data: 2310103080
I0824 17:40:54.501953  9024 layer_factory.hpp:77] Creating layer res5c
I0824 17:40:54.501976  9024 net.cpp:91] Creating Layer res5c
I0824 17:40:54.501991  9024 net.cpp:425] res5c <- res5b_res5b_relu_0_split_1
I0824 17:40:54.502007  9024 net.cpp:425] res5c <- res5c_branch2c
I0824 17:40:54.502024  9024 net.cpp:399] res5c -> res5c
I0824 17:40:54.502074  9024 net.cpp:141] Setting up res5c
I0824 17:40:54.502097  9024 net.cpp:148] Top shape: 10 2048 7 7 (1003520)
I0824 17:40:54.502111  9024 net.cpp:156] Memory required for data: 2314117160
I0824 17:40:54.502125  9024 layer_factory.hpp:77] Creating layer res5c_relu
I0824 17:40:54.502142  9024 net.cpp:91] Creating Layer res5c_relu
I0824 17:40:54.502156  9024 net.cpp:425] res5c_relu <- res5c
I0824 17:40:54.502176  9024 net.cpp:386] res5c_relu -> res5c (in-place)
I0824 17:40:54.502194  9024 net.cpp:141] Setting up res5c_relu
I0824 17:40:54.502210  9024 net.cpp:148] Top shape: 10 2048 7 7 (1003520)
I0824 17:40:54.502224  9024 net.cpp:156] Memory required for data: 2318131240
I0824 17:40:54.502238  9024 layer_factory.hpp:77] Creating layer pool5
I0824 17:40:54.502256  9024 net.cpp:91] Creating Layer pool5
I0824 17:40:54.502271  9024 net.cpp:425] pool5 <- res5c
I0824 17:40:54.502288  9024 net.cpp:399] pool5 -> pool5
I0824 17:40:54.502334  9024 net.cpp:141] Setting up pool5
I0824 17:40:54.502357  9024 net.cpp:148] Top shape: 10 2048 1 1 (20480)
I0824 17:40:54.502372  9024 net.cpp:156] Memory required for data: 2318213160
I0824 17:40:54.502385  9024 layer_factory.hpp:77] Creating layer fc_hash24
I0824 17:40:54.502415  9024 net.cpp:91] Creating Layer fc_hash24
I0824 17:40:54.502431  9024 net.cpp:425] fc_hash24 <- pool5
I0824 17:40:54.502449  9024 net.cpp:399] fc_hash24 -> fc_hash24
I0824 17:40:54.504503  9024 net.cpp:141] Setting up fc_hash24
I0824 17:40:54.504534  9024 net.cpp:148] Top shape: 10 24 (240)
I0824 17:40:54.504549  9024 net.cpp:156] Memory required for data: 2318214120
I0824 17:40:54.504568  9024 layer_factory.hpp:77] Creating layer loss_hash
I0824 17:40:54.504591  9024 net.cpp:91] Creating Layer loss_hash
I0824 17:40:54.504614  9024 net.cpp:425] loss_hash <- fc_hash24
I0824 17:40:54.504631  9024 net.cpp:425] loss_hash <- label
I0824 17:40:54.504648  9024 net.cpp:399] loss_hash -> loss_hash
…
