…
I0919 15:37:24.654255 36427 net.cpp:313] The NetState phase (0) differed from the phase (1) specified by a rule in layer accuracy_at_1_Color
I0919 15:37:24.654536 36427 net.cpp:49] Initializing net from parameters: 
name: "docomo_AlexNet"
state {
  phase: TRAIN
}
layer {
  name: "data"
  type: "Data"
  top: "data"
  top: "label"
  include {
    phase: TRAIN
  }
  transform_param {
    mirror: true
    crop_size: 224
    mean_value: 103.939
    mean_value: 116.779
    mean_value: 123.68
  }
  data_param {
    source: "COLOR/color_train_lmdb"
    batch_size: 30
    backend: LMDB
  }
}
layer {
  name: "conv1"
  type: "Convolution"
  bottom: "data"
  top: "conv1"
  param {
    lr_mult: 1
    decay_mult: 1
  }
  param {
    lr_mult: 2
    decay_mult: 0
  }
  convolution_param {
    num_output: 96
    kernel_size: 11
    stride: 4
    weight_filler {
      type: "gaussian"
      std: 0.01
    }
    bias_filler {
      type: "constant"
      value: 0
    }
  }
}
layer {
  name: "relu1"
  type: "ReLU"
  bottom: "conv1"
  top: "conv1"
}
layer {
  name: "norm1"
  type: "LRN"
  bottom: "conv1"
  top: "norm1"
  lrn_param {
    local_size: 5
    alpha: 0.0001
    beta: 0.75
  }
}
layer {
  name: "pool1"
  type: "Pooling"
  bottom: "norm1"
  top: "pool1"
  pooling_param {
    pool: MAX
    kernel_size: 3
    stride: 2
  }
}
layer {
  name: "conv2"
  type: "Convolution"
  bottom: "pool1"
  top: "conv2"
  param {
    lr_mult: 1
    decay_mult: 1
  }
  param {
    lr_mult: 2
    decay_mult: 0
  }
  convolution_param {
    num_output: 256
    pad: 2
    kernel_size: 5
    group: 2
    weight_filler {
      type: "gaussian"
      std: 0.01
    }
    bias_filler {
      type: "constant"
      value: 0.1
    }
  }
}
layer {
  name: "relu2"
  type: "ReLU"
  bottom: "conv2"
  top: "conv2"
}
layer {
  name: "norm2"
  type: "LRN"
  bottom: "conv2"
  top: "norm2"
  lrn_param {
    local_size: 5
    alpha: 0.0001
    beta: 0.75
  }
}
layer {
  name: "pool2"
  type: "Pooling"
  bottom: "norm2"
  top: "pool2"
  pooling_param {
    pool: MAX
    kernel_size: 3
    stride: 2
  }
}
layer {
  name: "conv3"
  type: "Convolution"
  bottom: "pool2"
  top: "conv3"
  param {
    lr_mult: 1
    decay_mult: 1
  }
  param {
    lr_mult: 2
    decay_mult: 0
  }
  convolution_param {
    num_output: 384
    pad: 1
    kernel_size: 3
    weight_filler {
      type: "gaussian"
      std: 0.01
    }
    bias_filler {
      type: "constant"
      value: 0
    }
  }
}
layer {
  name: "relu3"
  type: "ReLU"
  bottom: "conv3"
  top: "conv3"
}
layer {
  name: "conv4"
  type: "Convolution"
  bottom: "conv3"
  top: "conv4"
  param {
    lr_mult: 1
    decay_mult: 1
  }
  param {
    lr_mult: 2
    decay_mult: 0
  }
  convolution_param {
    num_output: 384
    pad: 1
    kernel_size: 3
    group: 2
    weight_filler {
      type: "gaussian"
      std: 0.01
    }
    bias_filler {
      type: "constant"
      value: 0.1
    }
  }
}
layer {
  name: "relu4"
  type: "ReLU"
  bottom: "conv4"
  top: "conv4"
}
layer {
  name: "conv5"
  type: "Convolution"
  bottom: "conv4"
  top: "conv5"
  param {
    lr_mult: 1
    decay_mult: 1
  }
  param {
    lr_mult: 2
    decay_mult: 0
  }
  convolution_param {
    num_output: 256
    pad: 1
    kernel_size: 3
    group: 2
    weight_filler {
      type: "gaussian"
      std: 0.01
    }
    bias_filler {
      type: "constant"
      value: 0.1
    }
  }
}
layer {
  name: "relu5"
  type: "ReLU"
  bottom: "conv5"
  top: "conv5"
}
layer {
  name: "pool5"
  type: "Pooling"
  bottom: "conv5"
  top: "pool5"
  pooling_param {
    pool: MAX
    kernel_size: 3
    stride: 2
  }
}
layer {
  name: "fc6"
  type: "InnerProduct"
  bottom: "pool5"
  top: "fc6"
  param {
    lr_mult: 1
    decay_mult: 1
  }
  param {
    lr_mult: 2
    decay_mult: 0
  }
  inner_product_param {
    num_output: 4096
    weight_filler {
      type: "gaussian"
      std: 0.005
    }
    bias_filler {
      type: "constant"
      value: 0.1
    }
  }
}
layer {
  name: "relu6"
  type: "ReLU"
  bottom: "fc6"
  top: "fc6"
}
layer {
  name: "drop6"
  type: "Dropout"
  bottom: "fc6"
  top: "fc6"
  dropout_param {
    dropout_ratio: 0.5
  }
}
layer {
  name: "fc7"
  type: "InnerProduct"
  bottom: "fc6"
  top: "fc7"
  param {
    lr_mult: 1
    decay_mult: 1
  }
  param {
    lr_mult: 2
    decay_mult: 0
  }
  inner_product_param {
    num_output: 4096
    weight_filler {
      type: "gaussian"
      std: 0.005
    }
    bias_filler {
      type: "constant"
      value: 0.1
    }
  }
}
layer {
  name: "relu7"
  type: "ReLU"
  bottom: "fc7"
  top: "fc7"
}
layer {
  name: "drop7"
  type: "Dropout"
  bottom: "fc7"
  top: "fc7"
  dropout_param {
    dropout_ratio: 0.5
  }
}
layer {
  name: "fc_binary_Color_f48"
  type: "InnerProduct"
  bottom: "fc7"
  top: "fc_binary_Color_f48"
  param {
    lr_mult: 10
    decay_mult: 1
  }
  param {
    lr_mult: 20
    decay_mult: 0
  }
  inner_product_param {
    num_output: 48
    weight_filler {
      type: "gaussian"
      std: 0.005
    }
    bias_filler {
      type: "constant"
      value: 0.1
    }
  }
}
layer {
  name: "fc_classification_Color"
  type: "InnerProduct"
  bottom: "fc7"
  top: "fc_classification_Color"
  param {
    lr_mult: 2.5
    decay_mult: 1
  }
  param {
    lr_mult: 5
    decay_mult: 0
  }
  inner_product_param {
    num_output: 8
    weight_filler {
      type: "gaussian"
      std: 0.05
    }
    bias_filler {
      type: "constant"
      value: 0.1
    }
  }
}
layer {
  name: "loss_hashing"
  type: "HashingLoss"
  bottom: "fc_binary_Color_f48"
  bottom: "label"
  top: "loss_hashing"
  loss_weight: 0.4
  hashing_loss_param {
    bi_margin: 96
    tradeoff: 0.01
  }
}
layer {
  name: "loss"
  type: "SoftmaxWithLoss"
  bottom: "fc_classification_Color"
  bottom: "label"
  top: "loss"
}
I0919 15:37:24.656311 36427 layer_factory.hpp:77] Creating layer data
I0919 15:37:24.656991 36427 net.cpp:91] Creating Layer data
I0919 15:37:24.657028 36427 net.cpp:399] data -> data
I0919 15:37:24.657091 36427 net.cpp:399] data -> label
I0919 15:37:24.657981 36431 db_lmdb.cpp:38] Opened lmdb COLOR/color_train_lmdb
I0919 15:37:24.739011 36427 data_layer.cpp:41] output data size: 30,3,224,224
I0919 15:37:24.786317 36427 net.cpp:141] Setting up data
I0919 15:37:24.786401 36427 net.cpp:148] Top shape: 30 3 224 224 (4515840)
I0919 15:37:24.786422 36427 net.cpp:148] Top shape: 30 1 1 1 (30)
I0919 15:37:24.786437 36427 net.cpp:156] Memory required for data: 18063480
I0919 15:37:24.786468 36427 layer_factory.hpp:77] Creating layer label_data_1_split
I0919 15:37:24.786504 36427 net.cpp:91] Creating Layer label_data_1_split
I0919 15:37:24.786527 36427 net.cpp:425] label_data_1_split <- label
I0919 15:37:24.786561 36427 net.cpp:399] label_data_1_split -> label_data_1_split_0
I0919 15:37:24.786590 36427 net.cpp:399] label_data_1_split -> label_data_1_split_1
I0919 15:37:24.786666 36427 net.cpp:141] Setting up label_data_1_split
I0919 15:37:24.786691 36427 net.cpp:148] Top shape: 30 1 1 1 (30)
I0919 15:37:24.786710 36427 net.cpp:148] Top shape: 30 1 1 1 (30)
I0919 15:37:24.786726 36427 net.cpp:156] Memory required for data: 18063720
I0919 15:37:24.786742 36427 layer_factory.hpp:77] Creating layer conv1
I0919 15:37:24.786787 36427 net.cpp:91] Creating Layer conv1
I0919 15:37:24.786806 36427 net.cpp:425] conv1 <- data
I0919 15:37:24.786829 36427 net.cpp:399] conv1 -> conv1
I0919 15:37:24.790596 36427 net.cpp:141] Setting up conv1
I0919 15:37:24.790632 36427 net.cpp:148] Top shape: 30 96 54 54 (8398080)
I0919 15:37:24.790693 36427 net.cpp:156] Memory required for data: 51656040
I0919 15:37:24.790731 36427 layer_factory.hpp:77] Creating layer relu1
I0919 15:37:24.790760 36427 net.cpp:91] Creating Layer relu1
I0919 15:37:24.790778 36427 net.cpp:425] relu1 <- conv1
I0919 15:37:24.790796 36427 net.cpp:386] relu1 -> conv1 (in-place)
I0919 15:37:24.790822 36427 net.cpp:141] Setting up relu1
I0919 15:37:24.790841 36427 net.cpp:148] Top shape: 30 96 54 54 (8398080)
I0919 15:37:24.790856 36427 net.cpp:156] Memory required for data: 85248360
I0919 15:37:24.790873 36427 layer_factory.hpp:77] Creating layer norm1
I0919 15:37:24.790899 36427 net.cpp:91] Creating Layer norm1
I0919 15:37:24.790916 36427 net.cpp:425] norm1 <- conv1
I0919 15:37:24.790935 36427 net.cpp:399] norm1 -> norm1
I0919 15:37:24.791002 36427 net.cpp:141] Setting up norm1
I0919 15:37:24.791025 36427 net.cpp:148] Top shape: 30 96 54 54 (8398080)
I0919 15:37:24.791041 36427 net.cpp:156] Memory required for data: 118840680
I0919 15:37:24.791057 36427 layer_factory.hpp:77] Creating layer pool1
I0919 15:37:24.791079 36427 net.cpp:91] Creating Layer pool1
I0919 15:37:24.791095 36427 net.cpp:425] pool1 <- norm1
I0919 15:37:24.791117 36427 net.cpp:399] pool1 -> pool1
I0919 15:37:24.791188 36427 net.cpp:141] Setting up pool1
I0919 15:37:24.791216 36427 net.cpp:148] Top shape: 30 96 27 27 (2099520)
I0919 15:37:24.791232 36427 net.cpp:156] Memory required for data: 127238760
I0919 15:37:24.791249 36427 layer_factory.hpp:77] Creating layer conv2
I0919 15:37:24.791275 36427 net.cpp:91] Creating Layer conv2
I0919 15:37:24.791293 36427 net.cpp:425] conv2 <- pool1
I0919 15:37:24.791312 36427 net.cpp:399] conv2 -> conv2
I0919 15:37:24.804566 36427 net.cpp:141] Setting up conv2
I0919 15:37:24.804623 36427 net.cpp:148] Top shape: 30 256 27 27 (5598720)
I0919 15:37:24.804639 36427 net.cpp:156] Memory required for data: 149633640
I0919 15:37:24.804673 36427 layer_factory.hpp:77] Creating layer relu2
I0919 15:37:24.804702 36427 net.cpp:91] Creating Layer relu2
I0919 15:37:24.804720 36427 net.cpp:425] relu2 <- conv2
I0919 15:37:24.804740 36427 net.cpp:386] relu2 -> conv2 (in-place)
I0919 15:37:24.804765 36427 net.cpp:141] Setting up relu2
I0919 15:37:24.804783 36427 net.cpp:148] Top shape: 30 256 27 27 (5598720)
I0919 15:37:24.804800 36427 net.cpp:156] Memory required for data: 172028520
I0919 15:37:24.804816 36427 layer_factory.hpp:77] Creating layer norm2
I0919 15:37:24.804841 36427 net.cpp:91] Creating Layer norm2
I0919 15:37:24.804857 36427 net.cpp:425] norm2 <- conv2
I0919 15:37:24.804880 36427 net.cpp:399] norm2 -> norm2
I0919 15:37:24.804944 36427 net.cpp:141] Setting up norm2
I0919 15:37:24.804967 36427 net.cpp:148] Top shape: 30 256 27 27 (5598720)
I0919 15:37:24.804985 36427 net.cpp:156] Memory required for data: 194423400
I0919 15:37:24.804999 36427 layer_factory.hpp:77] Creating layer pool2
I0919 15:37:24.805021 36427 net.cpp:91] Creating Layer pool2
I0919 15:37:24.805037 36427 net.cpp:425] pool2 <- norm2
I0919 15:37:24.805058 36427 net.cpp:399] pool2 -> pool2
I0919 15:37:24.805112 36427 net.cpp:141] Setting up pool2
I0919 15:37:24.805138 36427 net.cpp:148] Top shape: 30 256 13 13 (1297920)
I0919 15:37:24.805155 36427 net.cpp:156] Memory required for data: 199615080
I0919 15:37:24.805171 36427 layer_factory.hpp:77] Creating layer conv3
I0919 15:37:24.805197 36427 net.cpp:91] Creating Layer conv3
I0919 15:37:24.805214 36427 net.cpp:425] conv3 <- pool2
I0919 15:37:24.805236 36427 net.cpp:399] conv3 -> conv3
I0919 15:37:24.840294 36427 net.cpp:141] Setting up conv3
I0919 15:37:24.840368 36427 net.cpp:148] Top shape: 30 384 13 13 (1946880)
I0919 15:37:24.840387 36427 net.cpp:156] Memory required for data: 207402600
I0919 15:37:24.840417 36427 layer_factory.hpp:77] Creating layer relu3
I0919 15:37:24.840445 36427 net.cpp:91] Creating Layer relu3
I0919 15:37:24.840462 36427 net.cpp:425] relu3 <- conv3
I0919 15:37:24.840487 36427 net.cpp:386] relu3 -> conv3 (in-place)
I0919 15:37:24.840514 36427 net.cpp:141] Setting up relu3
I0919 15:37:24.840581 36427 net.cpp:148] Top shape: 30 384 13 13 (1946880)
I0919 15:37:24.840598 36427 net.cpp:156] Memory required for data: 215190120
I0919 15:37:24.840615 36427 layer_factory.hpp:77] Creating layer conv4
I0919 15:37:24.840641 36427 net.cpp:91] Creating Layer conv4
I0919 15:37:24.840658 36427 net.cpp:425] conv4 <- conv3
I0919 15:37:24.840685 36427 net.cpp:399] conv4 -> conv4
I0919 15:37:24.867169 36427 net.cpp:141] Setting up conv4
I0919 15:37:24.867231 36427 net.cpp:148] Top shape: 30 384 13 13 (1946880)
I0919 15:37:24.867247 36427 net.cpp:156] Memory required for data: 222977640
I0919 15:37:24.867275 36427 layer_factory.hpp:77] Creating layer relu4
I0919 15:37:24.867301 36427 net.cpp:91] Creating Layer relu4
I0919 15:37:24.867319 36427 net.cpp:425] relu4 <- conv4
I0919 15:37:24.867344 36427 net.cpp:386] relu4 -> conv4 (in-place)
I0919 15:37:24.867369 36427 net.cpp:141] Setting up relu4
I0919 15:37:24.867388 36427 net.cpp:148] Top shape: 30 384 13 13 (1946880)
I0919 15:37:24.867404 36427 net.cpp:156] Memory required for data: 230765160
I0919 15:37:24.867420 36427 layer_factory.hpp:77] Creating layer conv5
I0919 15:37:24.867449 36427 net.cpp:91] Creating Layer conv5
I0919 15:37:24.867467 36427 net.cpp:425] conv5 <- conv4
I0919 15:37:24.867487 36427 net.cpp:399] conv5 -> conv5
I0919 15:37:24.885273 36427 net.cpp:141] Setting up conv5
I0919 15:37:24.885304 36427 net.cpp:148] Top shape: 30 256 13 13 (1297920)
I0919 15:37:24.885321 36427 net.cpp:156] Memory required for data: 235956840
I0919 15:37:24.885347 36427 layer_factory.hpp:77] Creating layer relu5
I0919 15:37:24.885371 36427 net.cpp:91] Creating Layer relu5
I0919 15:37:24.885388 36427 net.cpp:425] relu5 <- conv5
I0919 15:37:24.885407 36427 net.cpp:386] relu5 -> conv5 (in-place)
I0919 15:37:24.885428 36427 net.cpp:141] Setting up relu5
I0919 15:37:24.885447 36427 net.cpp:148] Top shape: 30 256 13 13 (1297920)
I0919 15:37:24.885462 36427 net.cpp:156] Memory required for data: 241148520
I0919 15:37:24.885478 36427 layer_factory.hpp:77] Creating layer pool5
I0919 15:37:24.885504 36427 net.cpp:91] Creating Layer pool5
I0919 15:37:24.885522 36427 net.cpp:425] pool5 <- conv5
I0919 15:37:24.885541 36427 net.cpp:399] pool5 -> pool5
I0919 15:37:24.885604 36427 net.cpp:141] Setting up pool5
I0919 15:37:24.885633 36427 net.cpp:148] Top shape: 30 256 6 6 (276480)
I0919 15:37:24.885653 36427 net.cpp:156] Memory required for data: 242254440
I0919 15:37:24.885671 36427 layer_factory.hpp:77] Creating layer fc6
I0919 15:37:24.885701 36427 net.cpp:91] Creating Layer fc6
I0919 15:37:24.885720 36427 net.cpp:425] fc6 <- pool5
I0919 15:37:24.885743 36427 net.cpp:399] fc6 -> fc6
I0919 15:37:26.337159 36427 net.cpp:141] Setting up fc6
I0919 15:37:26.337297 36427 net.cpp:148] Top shape: 30 4096 (122880)
I0919 15:37:26.337321 36427 net.cpp:156] Memory required for data: 242745960
I0919 15:37:26.337406 36427 layer_factory.hpp:77] Creating layer relu6
I0919 15:37:26.337457 36427 net.cpp:91] Creating Layer relu6
I0919 15:37:26.337494 36427 net.cpp:425] relu6 <- fc6
I0919 15:37:26.337519 36427 net.cpp:386] relu6 -> fc6 (in-place)
I0919 15:37:26.337544 36427 net.cpp:141] Setting up relu6
I0919 15:37:26.337564 36427 net.cpp:148] Top shape: 30 4096 (122880)
I0919 15:37:26.337584 36427 net.cpp:156] Memory required for data: 243237480
I0919 15:37:26.337601 36427 layer_factory.hpp:77] Creating layer drop6
I0919 15:37:26.337631 36427 net.cpp:91] Creating Layer drop6
I0919 15:37:26.337651 36427 net.cpp:425] drop6 <- fc6
I0919 15:37:26.337678 36427 net.cpp:386] drop6 -> fc6 (in-place)
I0919 15:37:26.337831 36427 net.cpp:141] Setting up drop6
I0919 15:37:26.337862 36427 net.cpp:148] Top shape: 30 4096 (122880)
I0919 15:37:26.337880 36427 net.cpp:156] Memory required for data: 243729000
I0919 15:37:26.337898 36427 layer_factory.hpp:77] Creating layer fc7
I0919 15:37:26.337927 36427 net.cpp:91] Creating Layer fc7
I0919 15:37:26.337946 36427 net.cpp:425] fc7 <- fc6
I0919 15:37:26.337970 36427 net.cpp:399] fc7 -> fc7
I0919 15:37:26.976164 36427 net.cpp:141] Setting up fc7
I0919 15:37:26.976240 36427 net.cpp:148] Top shape: 30 4096 (122880)
I0919 15:37:26.976301 36427 net.cpp:156] Memory required for data: 244220520
I0919 15:37:26.976332 36427 layer_factory.hpp:77] Creating layer relu7
I0919 15:37:26.976367 36427 net.cpp:91] Creating Layer relu7
I0919 15:37:26.976387 36427 net.cpp:425] relu7 <- fc7
I0919 15:37:26.976413 36427 net.cpp:386] relu7 -> fc7 (in-place)
I0919 15:37:26.976438 36427 net.cpp:141] Setting up relu7
I0919 15:37:26.976457 36427 net.cpp:148] Top shape: 30 4096 (122880)
I0919 15:37:26.976474 36427 net.cpp:156] Memory required for data: 244712040
I0919 15:37:26.976490 36427 layer_factory.hpp:77] Creating layer drop7
I0919 15:37:26.976514 36427 net.cpp:91] Creating Layer drop7
I0919 15:37:26.976532 36427 net.cpp:425] drop7 <- fc7
I0919 15:37:26.976550 36427 net.cpp:386] drop7 -> fc7 (in-place)
I0919 15:37:26.976614 36427 net.cpp:141] Setting up drop7
I0919 15:37:26.976639 36427 net.cpp:148] Top shape: 30 4096 (122880)
I0919 15:37:26.976655 36427 net.cpp:156] Memory required for data: 245203560
I0919 15:37:26.976671 36427 layer_factory.hpp:77] Creating layer fc7_drop7_0_split
I0919 15:37:26.976691 36427 net.cpp:91] Creating Layer fc7_drop7_0_split
I0919 15:37:26.976707 36427 net.cpp:425] fc7_drop7_0_split <- fc7
I0919 15:37:26.976729 36427 net.cpp:399] fc7_drop7_0_split -> fc7_drop7_0_split_0
I0919 15:37:26.976774 36427 net.cpp:399] fc7_drop7_0_split -> fc7_drop7_0_split_1
I0919 15:37:26.976830 36427 net.cpp:141] Setting up fc7_drop7_0_split
I0919 15:37:26.976855 36427 net.cpp:148] Top shape: 30 4096 (122880)
I0919 15:37:26.976872 36427 net.cpp:148] Top shape: 30 4096 (122880)
I0919 15:37:26.976888 36427 net.cpp:156] Memory required for data: 246186600
I0919 15:37:26.976905 36427 layer_factory.hpp:77] Creating layer fc_binary_Color_f48
I0919 15:37:26.976936 36427 net.cpp:91] Creating Layer fc_binary_Color_f48
I0919 15:37:26.976953 36427 net.cpp:425] fc_binary_Color_f48 <- fc7_drop7_0_split_0
I0919 15:37:26.976976 36427 net.cpp:399] fc_binary_Color_f48 -> fc_binary_Color_f48
I0919 15:37:26.984985 36427 net.cpp:141] Setting up fc_binary_Color_f48
I0919 15:37:26.985016 36427 net.cpp:148] Top shape: 30 48 (1440)
I0919 15:37:26.985034 36427 net.cpp:156] Memory required for data: 246192360
I0919 15:37:26.985060 36427 layer_factory.hpp:77] Creating layer fc_classification_Color
I0919 15:37:26.985083 36427 net.cpp:91] Creating Layer fc_classification_Color
I0919 15:37:26.985101 36427 net.cpp:425] fc_classification_Color <- fc7_drop7_0_split_1
I0919 15:37:26.985126 36427 net.cpp:399] fc_classification_Color -> fc_classification_Color
I0919 15:37:26.986491 36427 net.cpp:141] Setting up fc_classification_Color
I0919 15:37:26.986518 36427 net.cpp:148] Top shape: 30 8 (240)
I0919 15:37:26.986536 36427 net.cpp:156] Memory required for data: 246193320
I0919 15:37:26.986565 36427 layer_factory.hpp:77] Creating layer loss_hashing
I0919 15:37:26.986601 36427 net.cpp:91] Creating Layer loss_hashing
I0919 15:37:26.986620 36427 net.cpp:425] loss_hashing <- fc_binary_Color_f48
I0919 15:37:26.986639 36427 net.cpp:425] loss_hashing <- label_data_1_split_0
I0919 15:37:26.986659 36427 net.cpp:399] loss_hashing -> loss_hashing
…
I0919 15:37:26.989087 36427 net.cpp:313] The NetState phase (1) differed from the phase (0) specified by a rule in layer data
I0919 15:37:26.989398 36427 net.cpp:49] Initializing net from parameters: 
name: "docomo_AlexNet"
state {
  phase: TEST
}
layer {
  name: "data"
  type: "Data"
  top: "data"
  top: "label"
  include {
    phase: TEST
  }
  transform_param {
    mirror: false
    crop_size: 224
    mean_value: 103.939
    mean_value: 116.779
    mean_value: 123.68
  }
  data_param {
    source: "COLOR/color_val_lmdb"
    batch_size: 40
    backend: LMDB
  }
}
layer {
  name: "conv1"
  type: "Convolution"
  bottom: "data"
  top: "conv1"
  param {
    lr_mult: 1
    decay_mult: 1
  }
  param {
    lr_mult: 2
    decay_mult: 0
  }
  convolution_param {
    num_output: 96
    kernel_size: 11
    stride: 4
    weight_filler {
      type: "gaussian"
      std: 0.01
    }
    bias_filler {
      type: "constant"
      value: 0
    }
  }
}
layer {
  name: "relu1"
  type: "ReLU"
  bottom: "conv1"
  top: "conv1"
}
layer {
  name: "norm1"
  type: "LRN"
  bottom: "conv1"
  top: "norm1"
  lrn_param {
    local_size: 5
    alpha: 0.0001
    beta: 0.75
  }
}
layer {
  name: "pool1"
  type: "Pooling"
  bottom: "norm1"
  top: "pool1"
  pooling_param {
    pool: MAX
    kernel_size: 3
    stride: 2
  }
}
layer {
  name: "conv2"
  type: "Convolution"
  bottom: "pool1"
  top: "conv2"
  param {
    lr_mult: 1
    decay_mult: 1
  }
  param {
    lr_mult: 2
    decay_mult: 0
  }
  convolution_param {
    num_output: 256
    pad: 2
    kernel_size: 5
    group: 2
    weight_filler {
      type: "gaussian"
      std: 0.01
    }
    bias_filler {
      type: "constant"
      value: 0.1
    }
  }
}
layer {
  name: "relu2"
  type: "ReLU"
  bottom: "conv2"
  top: "conv2"
}
layer {
  name: "norm2"
  type: "LRN"
  bottom: "conv2"
  top: "norm2"
  lrn_param {
    local_size: 5
    alpha: 0.0001
    beta: 0.75
  }
}
layer {
  name: "pool2"
  type: "Pooling"
  bottom: "norm2"
  top: "pool2"
  pooling_param {
    pool: MAX
    kernel_size: 3
    stride: 2
  }
}
layer {
  name: "conv3"
  type: "Convolution"
  bottom: "pool2"
  top: "conv3"
  param {
    lr_mult: 1
    decay_mult: 1
  }
  param {
    lr_mult: 2
    decay_mult: 0
  }
  convolution_param {
    num_output: 384
    pad: 1
    kernel_size: 3
    weight_filler {
      type: "gaussian"
      std: 0.01
    }
    bias_filler {
      type: "constant"
      value: 0
    }
  }
}
layer {
  name: "relu3"
  type: "ReLU"
  bottom: "conv3"
  top: "conv3"
}
layer {
  name: "conv4"
  type: "Convolution"
  bottom: "conv3"
  top: "conv4"
  param {
    lr_mult: 1
    decay_mult: 1
  }
  param {
    lr_mult: 2
    decay_mult: 0
  }
  convolution_param {
    num_output: 384
    pad: 1
    kernel_size: 3
    group: 2
    weight_filler {
      type: "gaussian"
      std: 0.01
    }
    bias_filler {
      type: "constant"
      value: 0.1
    }
  }
}
layer {
  name: "relu4"
  type: "ReLU"
  bottom: "conv4"
  top: "conv4"
}
layer {
  name: "conv5"
  type: "Convolution"
  bottom: "conv4"
  top: "conv5"
  param {
    lr_mult: 1
    decay_mult: 1
  }
  param {
    lr_mult: 2
    decay_mult: 0
  }
  convolution_param {
    num_output: 256
    pad: 1
    kernel_size: 3
    group: 2
    weight_filler {
      type: "gaussian"
      std: 0.01
    }
    bias_filler {
      type: "constant"
      value: 0.1
    }
  }
}
layer {
  name: "relu5"
  type: "ReLU"
  bottom: "conv5"
  top: "conv5"
}
layer {
  name: "pool5"
  type: "Pooling"
  bottom: "conv5"
  top: "pool5"
  pooling_param {
    pool: MAX
    kernel_size: 3
    stride: 2
  }
}
layer {
  name: "fc6"
  type: "InnerProduct"
  bottom: "pool5"
  top: "fc6"
  param {
    lr_mult: 1
    decay_mult: 1
  }
  param {
    lr_mult: 2
    decay_mult: 0
  }
  inner_product_param {
    num_output: 4096
    weight_filler {
      type: "gaussian"
      std: 0.005
    }
    bias_filler {
      type: "constant"
      value: 0.1
    }
  }
}
layer {
  name: "relu6"
  type: "ReLU"
  bottom: "fc6"
  top: "fc6"
}
layer {
  name: "drop6"
  type: "Dropout"
  bottom: "fc6"
  top: "fc6"
  dropout_param {
    dropout_ratio: 0.5
  }
}
layer {
  name: "fc7"
  type: "InnerProduct"
  bottom: "fc6"
  top: "fc7"
  param {
    lr_mult: 1
    decay_mult: 1
  }
  param {
    lr_mult: 2
    decay_mult: 0
  }
  inner_product_param {
    num_output: 4096
    weight_filler {
      type: "gaussian"
      std: 0.005
    }
    bias_filler {
      type: "constant"
      value: 0.1
    }
  }
}
layer {
  name: "relu7"
  type: "ReLU"
  bottom: "fc7"
  top: "fc7"
}
layer {
  name: "drop7"
  type: "Dropout"
  bottom: "fc7"
  top: "fc7"
  dropout_param {
    dropout_ratio: 0.5
  }
}
layer {
  name: "fc_binary_Color_f48"
  type: "InnerProduct"
  bottom: "fc7"
  top: "fc_binary_Color_f48"
  param {
    lr_mult: 10
    decay_mult: 1
  }
  param {
    lr_mult: 20
    decay_mult: 0
  }
  inner_product_param {
    num_output: 48
    weight_filler {
      type: "gaussian"
      std: 0.005
    }
    bias_filler {
      type: "constant"
      value: 0.1
    }
  }
}
layer {
  name: "fc_classification_Color"
  type: "InnerProduct"
  bottom: "fc7"
  top: "fc_classification_Color"
  param {
    lr_mult: 2.5
    decay_mult: 1
  }
  param {
    lr_mult: 5
    decay_mult: 0
  }
  inner_product_param {
    num_output: 8
    weight_filler {
      type: "gaussian"
      std: 0.05
    }
    bias_filler {
      type: "constant"
      value: 0.1
    }
  }
}
layer {
  name: "accuracy_at_1_Color"
  type: "Accuracy"
  bottom: "fc_classification_Color"
  bottom: "label"
  top: "accuracy_at_1_Color"
  include {
    phase: TEST
  }
}
layer {
  name: "loss_hashing"
  type: "HashingLoss"
  bottom: "fc_binary_Color_f48"
  bottom: "label"
  top: "loss_hashing"
  loss_weight: 0.4
  hashing_loss_param {
    bi_margin: 96
    tradeoff: 0.01
  }
}
layer {
  name: "loss"
  type: "SoftmaxWithLoss"
  bottom: "fc_classification_Color"
  bottom: "label"
  top: "loss"
}
I0919 15:37:26.991559 36427 layer_factory.hpp:77] Creating layer data
I0919 15:37:26.991734 36427 net.cpp:91] Creating Layer data
I0919 15:37:26.991780 36427 net.cpp:399] data -> data
I0919 15:37:26.991812 36427 net.cpp:399] data -> label
I0919 15:37:26.993104 36433 db_lmdb.cpp:38] Opened lmdb COLOR/color_val_lmdb
I0919 15:37:26.993571 36427 data_layer.cpp:41] output data size: 40,3,224,224
I0919 15:37:27.050026 36427 net.cpp:141] Setting up data
I0919 15:37:27.050102 36427 net.cpp:148] Top shape: 40 3 224 224 (6021120)
I0919 15:37:27.050122 36427 net.cpp:148] Top shape: 40 1 1 1 (40)
I0919 15:37:27.050138 36427 net.cpp:156] Memory required for data: 24084640
I0919 15:37:27.050158 36427 layer_factory.hpp:77] Creating layer label_data_1_split
I0919 15:37:27.050189 36427 net.cpp:91] Creating Layer label_data_1_split
I0919 15:37:27.050209 36427 net.cpp:425] label_data_1_split <- label
I0919 15:37:27.050230 36427 net.cpp:399] label_data_1_split -> label_data_1_split_0
I0919 15:37:27.050257 36427 net.cpp:399] label_data_1_split -> label_data_1_split_1
I0919 15:37:27.050282 36427 net.cpp:399] label_data_1_split -> label_data_1_split_2
I0919 15:37:27.050377 36427 net.cpp:141] Setting up label_data_1_split
I0919 15:37:27.050402 36427 net.cpp:148] Top shape: 40 1 1 1 (40)
I0919 15:37:27.050421 36427 net.cpp:148] Top shape: 40 1 1 1 (40)
I0919 15:37:27.050439 36427 net.cpp:148] Top shape: 40 1 1 1 (40)
I0919 15:37:27.050456 36427 net.cpp:156] Memory required for data: 24085120
I0919 15:37:27.050472 36427 layer_factory.hpp:77] Creating layer conv1
I0919 15:37:27.050506 36427 net.cpp:91] Creating Layer conv1
I0919 15:37:27.050525 36427 net.cpp:425] conv1 <- data
I0919 15:37:27.050549 36427 net.cpp:399] conv1 -> conv1
I0919 15:37:27.053622 36427 net.cpp:141] Setting up conv1
I0919 15:37:27.053668 36427 net.cpp:148] Top shape: 40 96 54 54 (11197440)
I0919 15:37:27.053685 36427 net.cpp:156] Memory required for data: 68874880
I0919 15:37:27.053712 36427 layer_factory.hpp:77] Creating layer relu1
I0919 15:37:27.053735 36427 net.cpp:91] Creating Layer relu1
I0919 15:37:27.053751 36427 net.cpp:425] relu1 <- conv1
I0919 15:37:27.053771 36427 net.cpp:386] relu1 -> conv1 (in-place)
I0919 15:37:27.053792 36427 net.cpp:141] Setting up relu1
I0919 15:37:27.053812 36427 net.cpp:148] Top shape: 40 96 54 54 (11197440)
I0919 15:37:27.053828 36427 net.cpp:156] Memory required for data: 113664640
I0919 15:37:27.053843 36427 layer_factory.hpp:77] Creating layer norm1
I0919 15:37:27.053869 36427 net.cpp:91] Creating Layer norm1
I0919 15:37:27.053889 36427 net.cpp:425] norm1 <- conv1
I0919 15:37:27.053911 36427 net.cpp:399] norm1 -> norm1
I0919 15:37:27.053972 36427 net.cpp:141] Setting up norm1
I0919 15:37:27.053995 36427 net.cpp:148] Top shape: 40 96 54 54 (11197440)
I0919 15:37:27.054013 36427 net.cpp:156] Memory required for data: 158454400
I0919 15:37:27.054028 36427 layer_factory.hpp:77] Creating layer pool1
I0919 15:37:27.054052 36427 net.cpp:91] Creating Layer pool1
I0919 15:37:27.054069 36427 net.cpp:425] pool1 <- norm1
I0919 15:37:27.054088 36427 net.cpp:399] pool1 -> pool1
I0919 15:37:27.054148 36427 net.cpp:141] Setting up pool1
I0919 15:37:27.054172 36427 net.cpp:148] Top shape: 40 96 27 27 (2799360)
I0919 15:37:27.054188 36427 net.cpp:156] Memory required for data: 169651840
I0919 15:37:27.054204 36427 layer_factory.hpp:77] Creating layer conv2
I0919 15:37:27.054231 36427 net.cpp:91] Creating Layer conv2
I0919 15:37:27.054250 36427 net.cpp:425] conv2 <- pool1
I0919 15:37:27.054275 36427 net.cpp:399] conv2 -> conv2
I0919 15:37:27.066835 36427 net.cpp:141] Setting up conv2
I0919 15:37:27.066905 36427 net.cpp:148] Top shape: 40 256 27 27 (7464960)
I0919 15:37:27.066928 36427 net.cpp:156] Memory required for data: 199511680
I0919 15:37:27.066956 36427 layer_factory.hpp:77] Creating layer relu2
I0919 15:37:27.067018 36427 net.cpp:91] Creating Layer relu2
I0919 15:37:27.067036 36427 net.cpp:425] relu2 <- conv2
I0919 15:37:27.067060 36427 net.cpp:386] relu2 -> conv2 (in-place)
I0919 15:37:27.067085 36427 net.cpp:141] Setting up relu2
I0919 15:37:27.067106 36427 net.cpp:148] Top shape: 40 256 27 27 (7464960)
I0919 15:37:27.067121 36427 net.cpp:156] Memory required for data: 229371520
I0919 15:37:27.067137 36427 layer_factory.hpp:77] Creating layer norm2
I0919 15:37:27.067160 36427 net.cpp:91] Creating Layer norm2
I0919 15:37:27.067178 36427 net.cpp:425] norm2 <- conv2
I0919 15:37:27.067201 36427 net.cpp:399] norm2 -> norm2
I0919 15:37:27.067265 36427 net.cpp:141] Setting up norm2
I0919 15:37:27.067288 36427 net.cpp:148] Top shape: 40 256 27 27 (7464960)
I0919 15:37:27.067306 36427 net.cpp:156] Memory required for data: 259231360
I0919 15:37:27.067322 36427 layer_factory.hpp:77] Creating layer pool2
I0919 15:37:27.067345 36427 net.cpp:91] Creating Layer pool2
I0919 15:37:27.067363 36427 net.cpp:425] pool2 <- norm2
I0919 15:37:27.067384 36427 net.cpp:399] pool2 -> pool2
I0919 15:37:27.067450 36427 net.cpp:141] Setting up pool2
I0919 15:37:27.067473 36427 net.cpp:148] Top shape: 40 256 13 13 (1730560)
I0919 15:37:27.067489 36427 net.cpp:156] Memory required for data: 266153600
I0919 15:37:27.067505 36427 layer_factory.hpp:77] Creating layer conv3
I0919 15:37:27.067535 36427 net.cpp:91] Creating Layer conv3
I0919 15:37:27.067554 36427 net.cpp:425] conv3 <- pool2
I0919 15:37:27.067595 36427 net.cpp:399] conv3 -> conv3
I0919 15:37:27.102929 36427 net.cpp:141] Setting up conv3
I0919 15:37:27.102996 36427 net.cpp:148] Top shape: 40 384 13 13 (2595840)
I0919 15:37:27.103018 36427 net.cpp:156] Memory required for data: 276536960
I0919 15:37:27.103049 36427 layer_factory.hpp:77] Creating layer relu3
I0919 15:37:27.103075 36427 net.cpp:91] Creating Layer relu3
I0919 15:37:27.103092 36427 net.cpp:425] relu3 <- conv3
I0919 15:37:27.103116 36427 net.cpp:386] relu3 -> conv3 (in-place)
I0919 15:37:27.103142 36427 net.cpp:141] Setting up relu3
I0919 15:37:27.103162 36427 net.cpp:148] Top shape: 40 384 13 13 (2595840)
I0919 15:37:27.103178 36427 net.cpp:156] Memory required for data: 286920320
I0919 15:37:27.103194 36427 layer_factory.hpp:77] Creating layer conv4
I0919 15:37:27.103222 36427 net.cpp:91] Creating Layer conv4
I0919 15:37:27.103241 36427 net.cpp:425] conv4 <- conv3
I0919 15:37:27.103261 36427 net.cpp:399] conv4 -> conv4
I0919 15:37:27.129911 36427 net.cpp:141] Setting up conv4
I0919 15:37:27.129987 36427 net.cpp:148] Top shape: 40 384 13 13 (2595840)
I0919 15:37:27.130004 36427 net.cpp:156] Memory required for data: 297303680
I0919 15:37:27.130033 36427 layer_factory.hpp:77] Creating layer relu4
I0919 15:37:27.130058 36427 net.cpp:91] Creating Layer relu4
I0919 15:37:27.130077 36427 net.cpp:425] relu4 <- conv4
I0919 15:37:27.130098 36427 net.cpp:386] relu4 -> conv4 (in-place)
I0919 15:37:27.130123 36427 net.cpp:141] Setting up relu4
I0919 15:37:27.130142 36427 net.cpp:148] Top shape: 40 384 13 13 (2595840)
I0919 15:37:27.130158 36427 net.cpp:156] Memory required for data: 307687040
I0919 15:37:27.130174 36427 layer_factory.hpp:77] Creating layer conv5
I0919 15:37:27.130203 36427 net.cpp:91] Creating Layer conv5
I0919 15:37:27.130223 36427 net.cpp:425] conv5 <- conv4
I0919 15:37:27.130245 36427 net.cpp:399] conv5 -> conv5
I0919 15:37:27.148205 36427 net.cpp:141] Setting up conv5
I0919 15:37:27.148272 36427 net.cpp:148] Top shape: 40 256 13 13 (1730560)
I0919 15:37:27.148293 36427 net.cpp:156] Memory required for data: 314609280
I0919 15:37:27.148324 36427 layer_factory.hpp:77] Creating layer relu5
I0919 15:37:27.148350 36427 net.cpp:91] Creating Layer relu5
I0919 15:37:27.148368 36427 net.cpp:425] relu5 <- conv5
I0919 15:37:27.148388 36427 net.cpp:386] relu5 -> conv5 (in-place)
I0919 15:37:27.148412 36427 net.cpp:141] Setting up relu5
I0919 15:37:27.148432 36427 net.cpp:148] Top shape: 40 256 13 13 (1730560)
I0919 15:37:27.148448 36427 net.cpp:156] Memory required for data: 321531520
I0919 15:37:27.148464 36427 layer_factory.hpp:77] Creating layer pool5
I0919 15:37:27.148531 36427 net.cpp:91] Creating Layer pool5
I0919 15:37:27.148551 36427 net.cpp:425] pool5 <- conv5
I0919 15:37:27.148571 36427 net.cpp:399] pool5 -> pool5
I0919 15:37:27.148641 36427 net.cpp:141] Setting up pool5
I0919 15:37:27.148666 36427 net.cpp:148] Top shape: 40 256 6 6 (368640)
I0919 15:37:27.148682 36427 net.cpp:156] Memory required for data: 323006080
I0919 15:37:27.148699 36427 layer_factory.hpp:77] Creating layer fc6
I0919 15:37:27.148725 36427 net.cpp:91] Creating Layer fc6
I0919 15:37:27.148742 36427 net.cpp:425] fc6 <- pool5
I0919 15:37:27.148762 36427 net.cpp:399] fc6 -> fc6
I0919 15:37:28.590674 36427 net.cpp:141] Setting up fc6
I0919 15:37:28.590760 36427 net.cpp:148] Top shape: 40 4096 (163840)
I0919 15:37:28.590778 36427 net.cpp:156] Memory required for data: 323661440
I0919 15:37:28.590803 36427 layer_factory.hpp:77] Creating layer relu6
I0919 15:37:28.590837 36427 net.cpp:91] Creating Layer relu6
I0919 15:37:28.590855 36427 net.cpp:425] relu6 <- fc6
I0919 15:37:28.590880 36427 net.cpp:386] relu6 -> fc6 (in-place)
I0919 15:37:28.590908 36427 net.cpp:141] Setting up relu6
I0919 15:37:28.590926 36427 net.cpp:148] Top shape: 40 4096 (163840)
I0919 15:37:28.590943 36427 net.cpp:156] Memory required for data: 324316800
I0919 15:37:28.590960 36427 layer_factory.hpp:77] Creating layer drop6
I0919 15:37:28.590979 36427 net.cpp:91] Creating Layer drop6
I0919 15:37:28.590996 36427 net.cpp:425] drop6 <- fc6
I0919 15:37:28.591015 36427 net.cpp:386] drop6 -> fc6 (in-place)
I0919 15:37:28.591075 36427 net.cpp:141] Setting up drop6
I0919 15:37:28.591099 36427 net.cpp:148] Top shape: 40 4096 (163840)
I0919 15:37:28.591116 36427 net.cpp:156] Memory required for data: 324972160
I0919 15:37:28.591132 36427 layer_factory.hpp:77] Creating layer fc7
I0919 15:37:28.591154 36427 net.cpp:91] Creating Layer fc7
I0919 15:37:28.591171 36427 net.cpp:425] fc7 <- fc6
I0919 15:37:28.591192 36427 net.cpp:399] fc7 -> fc7
I0919 15:37:29.233714 36427 net.cpp:141] Setting up fc7
I0919 15:37:29.233808 36427 net.cpp:148] Top shape: 40 4096 (163840)
I0919 15:37:29.233827 36427 net.cpp:156] Memory required for data: 325627520
I0919 15:37:29.233863 36427 layer_factory.hpp:77] Creating layer relu7
I0919 15:37:29.233898 36427 net.cpp:91] Creating Layer relu7
I0919 15:37:29.233922 36427 net.cpp:425] relu7 <- fc7
I0919 15:37:29.233954 36427 net.cpp:386] relu7 -> fc7 (in-place)
I0919 15:37:29.233981 36427 net.cpp:141] Setting up relu7
I0919 15:37:29.234000 36427 net.cpp:148] Top shape: 40 4096 (163840)
I0919 15:37:29.234017 36427 net.cpp:156] Memory required for data: 326282880
I0919 15:37:29.234033 36427 layer_factory.hpp:77] Creating layer drop7
I0919 15:37:29.234061 36427 net.cpp:91] Creating Layer drop7
I0919 15:37:29.234077 36427 net.cpp:425] drop7 <- fc7
I0919 15:37:29.234097 36427 net.cpp:386] drop7 -> fc7 (in-place)
I0919 15:37:29.234161 36427 net.cpp:141] Setting up drop7
I0919 15:37:29.234184 36427 net.cpp:148] Top shape: 40 4096 (163840)
I0919 15:37:29.234200 36427 net.cpp:156] Memory required for data: 326938240
I0919 15:37:29.234216 36427 layer_factory.hpp:77] Creating layer fc7_drop7_0_split
I0919 15:37:29.234241 36427 net.cpp:91] Creating Layer fc7_drop7_0_split
I0919 15:37:29.234257 36427 net.cpp:425] fc7_drop7_0_split <- fc7
I0919 15:37:29.234277 36427 net.cpp:399] fc7_drop7_0_split -> fc7_drop7_0_split_0
I0919 15:37:29.234298 36427 net.cpp:399] fc7_drop7_0_split -> fc7_drop7_0_split_1
I0919 15:37:29.234359 36427 net.cpp:141] Setting up fc7_drop7_0_split
I0919 15:37:29.234382 36427 net.cpp:148] Top shape: 40 4096 (163840)
I0919 15:37:29.234400 36427 net.cpp:148] Top shape: 40 4096 (163840)
I0919 15:37:29.234424 36427 net.cpp:156] Memory required for data: 328248960
I0919 15:37:29.234441 36427 layer_factory.hpp:77] Creating layer fc_binary_Color_f48
I0919 15:37:29.234468 36427 net.cpp:91] Creating Layer fc_binary_Color_f48
I0919 15:37:29.234486 36427 net.cpp:425] fc_binary_Color_f48 <- fc7_drop7_0_split_0
I0919 15:37:29.234506 36427 net.cpp:399] fc_binary_Color_f48 -> fc_binary_Color_f48
I0919 15:37:29.242828 36427 net.cpp:141] Setting up fc_binary_Color_f48
I0919 15:37:29.242861 36427 net.cpp:148] Top shape: 40 48 (1920)
I0919 15:37:29.242877 36427 net.cpp:156] Memory required for data: 328256640
I0919 15:37:29.242898 36427 layer_factory.hpp:77] Creating layer fc_classification_Color
I0919 15:37:29.242923 36427 net.cpp:91] Creating Layer fc_classification_Color
I0919 15:37:29.242941 36427 net.cpp:425] fc_classification_Color <- fc7_drop7_0_split_1
I0919 15:37:29.242961 36427 net.cpp:399] fc_classification_Color -> fc_classification_Color
I0919 15:37:29.244349 36427 net.cpp:141] Setting up fc_classification_Color
I0919 15:37:29.244375 36427 net.cpp:148] Top shape: 40 8 (320)
I0919 15:37:29.244392 36427 net.cpp:156] Memory required for data: 328257920
I0919 15:37:29.244421 36427 layer_factory.hpp:77] Creating layer fc_classification_Color_fc_classification_Color_0_split
I0919 15:37:29.244447 36427 net.cpp:91] Creating Layer fc_classification_Color_fc_classification_Color_0_split
I0919 15:37:29.244465 36427 net.cpp:425] fc_classification_Color_fc_classification_Color_0_split <- fc_classification_Color
I0919 15:37:29.244485 36427 net.cpp:399] fc_classification_Color_fc_classification_Color_0_split -> fc_classification_Color_fc_classification_Color_0_split_0
I0919 15:37:29.244508 36427 net.cpp:399] fc_classification_Color_fc_classification_Color_0_split -> fc_classification_Color_fc_classification_Color_0_split_1
I0919 15:37:29.244566 36427 net.cpp:141] Setting up fc_classification_Color_fc_classification_Color_0_split
I0919 15:37:29.244590 36427 net.cpp:148] Top shape: 40 8 (320)
I0919 15:37:29.244608 36427 net.cpp:148] Top shape: 40 8 (320)
I0919 15:37:29.244624 36427 net.cpp:156] Memory required for data: 328260480
I0919 15:37:29.244640 36427 layer_factory.hpp:77] Creating layer accuracy_at_1_Color
I0919 15:37:29.244668 36427 net.cpp:91] Creating Layer accuracy_at_1_Color
I0919 15:37:29.244686 36427 net.cpp:425] accuracy_at_1_Color <- fc_classification_Color_fc_classification_Color_0_split_0
I0919 15:37:29.244704 36427 net.cpp:425] accuracy_at_1_Color <- label_data_1_split_0
…
