…
I0807 13:38:49.190470  9238 net.cpp:313] The NetState phase (0) differed from the phase (1) specified by a rule in layer data
I0807 13:38:49.190884  9238 net.cpp:49] Initializing net from parameters: 
name: "docomo_VGG16"
state {
  phase: TRAIN
}
layer {
  name: "data"
  type: "Data"
  top: "data"
  top: "label"
  include {
    phase: TRAIN
  }
  transform_param {
    mirror: true
    crop_size: 224
    mean_value: 103.939
    mean_value: 116.779
    mean_value: 123.68
  }
  data_param {
    source: "FASHION/fashion_train_lmdb/"
    batch_size: 10
    backend: LMDB
  }
}
layer {
  name: "conv1_1"
  type: "Convolution"
  bottom: "data"
  top: "conv1_1"
  param {
    lr_mult: 1
    decay_mult: 1
  }
  param {
    lr_mult: 2
    decay_mult: 0
  }
  convolution_param {
    num_output: 64
    pad: 1
    kernel_size: 3
    weight_filler {
      type: "gaussian"
      std: 0.01
    }
    bias_filler {
      type: "constant"
      value: 0
    }
  }
}
layer {
  name: "relu1_1"
  type: "ReLU"
  bottom: "conv1_1"
  top: "conv1_1"
}
layer {
  name: "conv1_2"
  type: "Convolution"
  bottom: "conv1_1"
  top: "conv1_2"
  param {
    lr_mult: 1
    decay_mult: 1
  }
  param {
    lr_mult: 2
    decay_mult: 0
  }
  convolution_param {
    num_output: 64
    pad: 1
    kernel_size: 3
    weight_filler {
      type: "gaussian"
      std: 0.01
    }
    bias_filler {
      type: "constant"
      value: 0
    }
  }
}
layer {
  name: "relu1_2"
  type: "ReLU"
  bottom: "conv1_2"
  top: "conv1_2"
}
layer {
  name: "pool1"
  type: "Pooling"
  bottom: "conv1_2"
  top: "pool1"
  pooling_param {
    pool: MAX
    kernel_size: 2
    stride: 2
  }
}
layer {
  name: "conv2_1"
  type: "Convolution"
  bottom: "pool1"
  top: "conv2_1"
  param {
    lr_mult: 1
    decay_mult: 1
  }
  param {
    lr_mult: 2
    decay_mult: 0
  }
  convolution_param {
    num_output: 128
    pad: 1
    kernel_size: 3
    weight_filler {
      type: "gaussian"
      std: 0.01
    }
    bias_filler {
      type: "constant"
      value: 0
    }
  }
}
layer {
  name: "relu2_1"
  type: "ReLU"
  bottom: "conv2_1"
  top: "conv2_1"
}
layer {
  name: "conv2_2"
  type: "Convolution"
  bottom: "conv2_1"
  top: "conv2_2"
  param {
    lr_mult: 1
    decay_mult: 1
  }
  param {
    lr_mult: 2
    decay_mult: 0
  }
  convolution_param {
    num_output: 128
    pad: 1
    kernel_size: 3
    weight_filler {
      type: "gaussian"
      std: 0.01
    }
    bias_filler {
      type: "constant"
      value: 0
    }
  }
}
layer {
  name: "relu2_2"
  type: "ReLU"
  bottom: "conv2_2"
  top: "conv2_2"
}
layer {
  name: "pool2"
  type: "Pooling"
  bottom: "conv2_2"
  top: "pool2"
  pooling_param {
    pool: MAX
    kernel_size: 2
    stride: 2
  }
}
layer {
  name: "conv3_1"
  type: "Convolution"
  bottom: "pool2"
  top: "conv3_1"
  param {
    lr_mult: 1
    decay_mult: 1
  }
  param {
    lr_mult: 2
    decay_mult: 0
  }
  convolution_param {
    num_output: 256
    pad: 1
    kernel_size: 3
    weight_filler {
      type: "gaussian"
      std: 0.01
    }
    bias_filler {
      type: "constant"
      value: 0
    }
  }
}
layer {
  name: "relu3_1"
  type: "ReLU"
  bottom: "conv3_1"
  top: "conv3_1"
}
layer {
  name: "conv3_2"
  type: "Convolution"
  bottom: "conv3_1"
  top: "conv3_2"
  param {
    lr_mult: 1
    decay_mult: 1
  }
  param {
    lr_mult: 2
    decay_mult: 0
  }
  convolution_param {
    num_output: 256
    pad: 1
    kernel_size: 3
    weight_filler {
      type: "gaussian"
      std: 0.01
    }
    bias_filler {
      type: "constant"
      value: 0
    }
  }
}
layer {
  name: "relu3_2"
  type: "ReLU"
  bottom: "conv3_2"
  top: "conv3_2"
}
layer {
  name: "conv3_3"
  type: "Convolution"
  bottom: "conv3_2"
  top: "conv3_3"
  param {
    lr_mult: 1
    decay_mult: 1
  }
  param {
    lr_mult: 2
    decay_mult: 0
  }
  convolution_param {
    num_output: 256
    pad: 1
    kernel_size: 3
    weight_filler {
      type: "gaussian"
      std: 0.01
    }
    bias_filler {
      type: "constant"
      value: 0
    }
  }
}
layer {
  name: "relu3_3"
  type: "ReLU"
  bottom: "conv3_3"
  top: "conv3_3"
}
layer {
  name: "pool3"
  type: "Pooling"
  bottom: "conv3_3"
  top: "pool3"
  pooling_param {
    pool: MAX
    kernel_size: 2
    stride: 2
  }
}
layer {
  name: "conv4_1"
  type: "Convolution"
  bottom: "pool3"
  top: "conv4_1"
  param {
    lr_mult: 1
    decay_mult: 1
  }
  param {
    lr_mult: 2
    decay_mult: 0
  }
  convolution_param {
    num_output: 512
    pad: 1
    kernel_size: 3
    weight_filler {
      type: "gaussian"
      std: 0.01
    }
    bias_filler {
      type: "constant"
      value: 0
    }
  }
}
layer {
  name: "relu4_1"
  type: "ReLU"
  bottom: "conv4_1"
  top: "conv4_1"
}
layer {
  name: "conv4_2"
  type: "Convolution"
  bottom: "conv4_1"
  top: "conv4_2"
  param {
    lr_mult: 1
    decay_mult: 1
  }
  param {
    lr_mult: 2
    decay_mult: 0
  }
  convolution_param {
    num_output: 512
    pad: 1
    kernel_size: 3
    weight_filler {
      type: "gaussian"
      std: 0.01
    }
    bias_filler {
      type: "constant"
      value: 0
    }
  }
}
layer {
  name: "relu4_2"
  type: "ReLU"
  bottom: "conv4_2"
  top: "conv4_2"
}
layer {
  name: "conv4_3"
  type: "Convolution"
  bottom: "conv4_2"
  top: "conv4_3"
  param {
    lr_mult: 1
    decay_mult: 1
  }
  param {
    lr_mult: 2
    decay_mult: 0
  }
  convolution_param {
    num_output: 512
    pad: 1
    kernel_size: 3
    weight_filler {
      type: "gaussian"
      std: 0.01
    }
    bias_filler {
      type: "constant"
      value: 0
    }
  }
}
layer {
  name: "relu4_3"
  type: "ReLU"
  bottom: "conv4_3"
  top: "conv4_3"
}
layer {
  name: "pool4"
  type: "Pooling"
  bottom: "conv4_3"
  top: "pool4"
  pooling_param {
    pool: MAX
    kernel_size: 2
    stride: 2
  }
}
layer {
  name: "conv5_1"
  type: "Convolution"
  bottom: "pool4"
  top: "conv5_1"
  param {
    lr_mult: 1
    decay_mult: 1
  }
  param {
    lr_mult: 2
    decay_mult: 0
  }
  convolution_param {
    num_output: 512
    pad: 1
    kernel_size: 3
    weight_filler {
      type: "gaussian"
      std: 0.01
    }
    bias_filler {
      type: "constant"
      value: 0
    }
  }
}
layer {
  name: "relu5_1"
  type: "ReLU"
  bottom: "conv5_1"
  top: "conv5_1"
}
layer {
  name: "conv5_2"
  type: "Convolution"
  bottom: "conv5_1"
  top: "conv5_2"
  param {
    lr_mult: 1
    decay_mult: 1
  }
  param {
    lr_mult: 2
    decay_mult: 0
  }
  convolution_param {
    num_output: 512
    pad: 1
    kernel_size: 3
    weight_filler {
      type: "gaussian"
      std: 0.01
    }
    bias_filler {
      type: "constant"
      value: 0
    }
  }
}
layer {
  name: "relu5_2"
  type: "ReLU"
  bottom: "conv5_2"
  top: "conv5_2"
}
layer {
  name: "conv5_3"
  type: "Convolution"
  bottom: "conv5_2"
  top: "conv5_3"
  param {
    lr_mult: 1
    decay_mult: 1
  }
  param {
    lr_mult: 2
    decay_mult: 0
  }
  convolution_param {
    num_output: 512
    pad: 1
    kernel_size: 3
    weight_filler {
      type: "gaussian"
      std: 0.01
    }
    bias_filler {
      type: "constant"
      value: 0
    }
  }
}
layer {
  name: "relu5_3"
  type: "ReLU"
  bottom: "conv5_3"
  top: "conv5_3"
}
layer {
  name: "pool5"
  type: "Pooling"
  bottom: "conv5_3"
  top: "pool5"
  pooling_param {
    pool: MAX
    kernel_size: 2
    stride: 2
  }
}
layer {
  name: "fc6"
  type: "InnerProduct"
  bottom: "pool5"
  top: "fc6"
  param {
    lr_mult: 1
    decay_mult: 1
  }
  param {
    lr_mult: 2
    decay_mult: 0
  }
  inner_product_param {
    num_output: 4096
    weight_filler {
      type: "gaussian"
      std: 0.005
    }
    bias_filler {
      type: "constant"
      value: 0.1
    }
  }
}
layer {
  name: "relu6"
  type: "ReLU"
  bottom: "fc6"
  top: "fc6"
}
layer {
  name: "drop6"
  type: "Dropout"
  bottom: "fc6"
  top: "fc6"
  dropout_param {
    dropout_ratio: 0.5
  }
}
layer {
  name: "fc7"
  type: "InnerProduct"
  bottom: "fc6"
  top: "fc7"
  param {
    lr_mult: 1
    decay_mult: 1
  }
  param {
    lr_mult: 2
    decay_mult: 0
  }
  inner_product_param {
    num_output: 4096
    weight_filler {
      type: "gaussian"
      std: 0.005
    }
    bias_filler {
      type: "constant"
      value: 0.1
    }
  }
}
layer {
  name: "relu7"
  type: "ReLU"
  bottom: "fc7"
  top: "fc7"
}
layer {
  name: "drop7"
  type: "Dropout"
  bottom: "fc7"
  top: "fc7"
  dropout_param {
    dropout_ratio: 0.5
  }
}
layer {
  name: "fc8_binary_f48"
  type: "InnerProduct"
  bottom: "fc7"
  top: "fc8_binary_f48"
  param {
    lr_mult: 10
    decay_mult: 1
  }
  param {
    lr_mult: 20
    decay_mult: 0
  }
  inner_product_param {
    num_output: 48
    weight_filler {
      type: "gaussian"
      std: 0.005
    }
    bias_filler {
      type: "constant"
      value: 0.1
    }
  }
}
layer {
  name: "loss_hashing"
  type: "HashingLoss"
  bottom: "fc8_binary_f48"
  bottom: "label"
  top: "loss_hashing"
  hashing_loss_param {
    bi_margin: 96
    tradeoff: 0.01
  }
}
I0807 13:38:49.193372  9238 layer_factory.hpp:77] Creating layer data
I0807 13:38:49.193996  9238 net.cpp:91] Creating Layer data
I0807 13:38:49.194036  9238 net.cpp:399] data -> data
I0807 13:38:49.194218  9238 net.cpp:399] data -> label
I0807 13:38:49.224679  9242 db_lmdb.cpp:38] Opened lmdb FASHION/fashion_train_lmdb/
I0807 13:38:49.261140  9238 data_layer.cpp:41] output data size: 10,3,224,224
I0807 13:38:49.273303  9238 net.cpp:141] Setting up data
I0807 13:38:49.273381  9238 net.cpp:148] Top shape: 10 3 224 224 (1505280)
I0807 13:38:49.273403  9238 net.cpp:148] Top shape: 10 1 1 1 (10)
I0807 13:38:49.273418  9238 net.cpp:156] Memory required for data: 6021160
I0807 13:38:49.273443  9238 layer_factory.hpp:77] Creating layer conv1_1
I0807 13:38:49.273494  9238 net.cpp:91] Creating Layer conv1_1
I0807 13:38:49.273517  9238 net.cpp:425] conv1_1 <- data
I0807 13:38:49.273555  9238 net.cpp:399] conv1_1 -> conv1_1
I0807 13:38:49.276002  9238 net.cpp:141] Setting up conv1_1
I0807 13:38:49.276057  9238 net.cpp:148] Top shape: 10 64 224 224 (32112640)
I0807 13:38:49.276075  9238 net.cpp:156] Memory required for data: 134471720
I0807 13:38:49.276119  9238 layer_factory.hpp:77] Creating layer relu1_1
I0807 13:38:49.276146  9238 net.cpp:91] Creating Layer relu1_1
I0807 13:38:49.276163  9238 net.cpp:425] relu1_1 <- conv1_1
I0807 13:38:49.276185  9238 net.cpp:386] relu1_1 -> conv1_1 (in-place)
I0807 13:38:49.276219  9238 net.cpp:141] Setting up relu1_1
I0807 13:38:49.276237  9238 net.cpp:148] Top shape: 10 64 224 224 (32112640)
I0807 13:38:49.276252  9238 net.cpp:156] Memory required for data: 262922280
I0807 13:38:49.276266  9238 layer_factory.hpp:77] Creating layer conv1_2
I0807 13:38:49.276293  9238 net.cpp:91] Creating Layer conv1_2
I0807 13:38:49.276309  9238 net.cpp:425] conv1_2 <- conv1_1
I0807 13:38:49.276327  9238 net.cpp:399] conv1_2 -> conv1_2
I0807 13:38:49.278007  9238 net.cpp:141] Setting up conv1_2
I0807 13:38:49.278035  9238 net.cpp:148] Top shape: 10 64 224 224 (32112640)
I0807 13:38:49.278051  9238 net.cpp:156] Memory required for data: 391372840
I0807 13:38:49.278072  9238 layer_factory.hpp:77] Creating layer relu1_2
I0807 13:38:49.278097  9238 net.cpp:91] Creating Layer relu1_2
I0807 13:38:49.278115  9238 net.cpp:425] relu1_2 <- conv1_2
I0807 13:38:49.278132  9238 net.cpp:386] relu1_2 -> conv1_2 (in-place)
I0807 13:38:49.278152  9238 net.cpp:141] Setting up relu1_2
I0807 13:38:49.278169  9238 net.cpp:148] Top shape: 10 64 224 224 (32112640)
I0807 13:38:49.278184  9238 net.cpp:156] Memory required for data: 519823400
I0807 13:38:49.278198  9238 layer_factory.hpp:77] Creating layer pool1
I0807 13:38:49.278216  9238 net.cpp:91] Creating Layer pool1
I0807 13:38:49.278230  9238 net.cpp:425] pool1 <- conv1_2
I0807 13:38:49.278251  9238 net.cpp:399] pool1 -> pool1
I0807 13:38:49.278357  9238 net.cpp:141] Setting up pool1
I0807 13:38:49.278384  9238 net.cpp:148] Top shape: 10 64 112 112 (8028160)
I0807 13:38:49.278400  9238 net.cpp:156] Memory required for data: 551936040
I0807 13:38:49.278415  9238 layer_factory.hpp:77] Creating layer conv2_1
I0807 13:38:49.278442  9238 net.cpp:91] Creating Layer conv2_1
I0807 13:38:49.278465  9238 net.cpp:425] conv2_1 <- pool1
I0807 13:38:49.278484  9238 net.cpp:399] conv2_1 -> conv2_1
I0807 13:38:49.282848  9238 net.cpp:141] Setting up conv2_1
I0807 13:38:49.282886  9238 net.cpp:148] Top shape: 10 128 112 112 (16056320)
I0807 13:38:49.282902  9238 net.cpp:156] Memory required for data: 616161320
I0807 13:38:49.282930  9238 layer_factory.hpp:77] Creating layer relu2_1
I0807 13:38:49.282953  9238 net.cpp:91] Creating Layer relu2_1
I0807 13:38:49.282970  9238 net.cpp:425] relu2_1 <- conv2_1
I0807 13:38:49.282986  9238 net.cpp:386] relu2_1 -> conv2_1 (in-place)
I0807 13:38:49.283007  9238 net.cpp:141] Setting up relu2_1
I0807 13:38:49.283025  9238 net.cpp:148] Top shape: 10 128 112 112 (16056320)
I0807 13:38:49.283041  9238 net.cpp:156] Memory required for data: 680386600
I0807 13:38:49.283056  9238 layer_factory.hpp:77] Creating layer conv2_2
I0807 13:38:49.283083  9238 net.cpp:91] Creating Layer conv2_2
I0807 13:38:49.283100  9238 net.cpp:425] conv2_2 <- conv2_1
I0807 13:38:49.283126  9238 net.cpp:399] conv2_2 -> conv2_2
I0807 13:38:49.288930  9238 net.cpp:141] Setting up conv2_2
I0807 13:38:49.288966  9238 net.cpp:148] Top shape: 10 128 112 112 (16056320)
I0807 13:38:49.288982  9238 net.cpp:156] Memory required for data: 744611880
I0807 13:38:49.289002  9238 layer_factory.hpp:77] Creating layer relu2_2
I0807 13:38:49.289021  9238 net.cpp:91] Creating Layer relu2_2
I0807 13:38:49.289036  9238 net.cpp:425] relu2_2 <- conv2_2
I0807 13:38:49.289054  9238 net.cpp:386] relu2_2 -> conv2_2 (in-place)
I0807 13:38:49.289073  9238 net.cpp:141] Setting up relu2_2
I0807 13:38:49.289094  9238 net.cpp:148] Top shape: 10 128 112 112 (16056320)
I0807 13:38:49.289109  9238 net.cpp:156] Memory required for data: 808837160
I0807 13:38:49.289127  9238 layer_factory.hpp:77] Creating layer pool2
I0807 13:38:49.289146  9238 net.cpp:91] Creating Layer pool2
I0807 13:38:49.289161  9238 net.cpp:425] pool2 <- conv2_2
I0807 13:38:49.289183  9238 net.cpp:399] pool2 -> pool2
I0807 13:38:49.289242  9238 net.cpp:141] Setting up pool2
I0807 13:38:49.289268  9238 net.cpp:148] Top shape: 10 128 56 56 (4014080)
I0807 13:38:49.289283  9238 net.cpp:156] Memory required for data: 824893480
I0807 13:38:49.289297  9238 layer_factory.hpp:77] Creating layer conv3_1
I0807 13:38:49.289327  9238 net.cpp:91] Creating Layer conv3_1
I0807 13:38:49.289345  9238 net.cpp:425] conv3_1 <- pool2
I0807 13:38:49.289364  9238 net.cpp:399] conv3_1 -> conv3_1
I0807 13:38:49.301369  9238 net.cpp:141] Setting up conv3_1
I0807 13:38:49.301420  9238 net.cpp:148] Top shape: 10 256 56 56 (8028160)
I0807 13:38:49.301436  9238 net.cpp:156] Memory required for data: 857006120
I0807 13:38:49.301460  9238 layer_factory.hpp:77] Creating layer relu3_1
I0807 13:38:49.301479  9238 net.cpp:91] Creating Layer relu3_1
I0807 13:38:49.301494  9238 net.cpp:425] relu3_1 <- conv3_1
I0807 13:38:49.301512  9238 net.cpp:386] relu3_1 -> conv3_1 (in-place)
I0807 13:38:49.301532  9238 net.cpp:141] Setting up relu3_1
I0807 13:38:49.301550  9238 net.cpp:148] Top shape: 10 256 56 56 (8028160)
I0807 13:38:49.301564  9238 net.cpp:156] Memory required for data: 889118760
I0807 13:38:49.301582  9238 layer_factory.hpp:77] Creating layer conv3_2
I0807 13:38:49.301605  9238 net.cpp:91] Creating Layer conv3_2
I0807 13:38:49.301623  9238 net.cpp:425] conv3_2 <- conv3_1
I0807 13:38:49.301645  9238 net.cpp:399] conv3_2 -> conv3_2
I0807 13:38:49.324422  9238 net.cpp:141] Setting up conv3_2
I0807 13:38:49.324452  9238 net.cpp:148] Top shape: 10 256 56 56 (8028160)
I0807 13:38:49.324476  9238 net.cpp:156] Memory required for data: 921231400
I0807 13:38:49.324494  9238 layer_factory.hpp:77] Creating layer relu3_2
I0807 13:38:49.324566  9238 net.cpp:91] Creating Layer relu3_2
I0807 13:38:49.324584  9238 net.cpp:425] relu3_2 <- conv3_2
I0807 13:38:49.324618  9238 net.cpp:386] relu3_2 -> conv3_2 (in-place)
I0807 13:38:49.324640  9238 net.cpp:141] Setting up relu3_2
I0807 13:38:49.324659  9238 net.cpp:148] Top shape: 10 256 56 56 (8028160)
I0807 13:38:49.324676  9238 net.cpp:156] Memory required for data: 953344040
I0807 13:38:49.324690  9238 layer_factory.hpp:77] Creating layer conv3_3
I0807 13:38:49.324715  9238 net.cpp:91] Creating Layer conv3_3
I0807 13:38:49.324733  9238 net.cpp:425] conv3_3 <- conv3_2
I0807 13:38:49.324751  9238 net.cpp:399] conv3_3 -> conv3_3
I0807 13:38:49.347404  9238 net.cpp:141] Setting up conv3_3
I0807 13:38:49.347434  9238 net.cpp:148] Top shape: 10 256 56 56 (8028160)
I0807 13:38:49.347455  9238 net.cpp:156] Memory required for data: 985456680
I0807 13:38:49.347472  9238 layer_factory.hpp:77] Creating layer relu3_3
I0807 13:38:49.347496  9238 net.cpp:91] Creating Layer relu3_3
I0807 13:38:49.347512  9238 net.cpp:425] relu3_3 <- conv3_3
I0807 13:38:49.347532  9238 net.cpp:386] relu3_3 -> conv3_3 (in-place)
I0807 13:38:49.347550  9238 net.cpp:141] Setting up relu3_3
I0807 13:38:49.347570  9238 net.cpp:148] Top shape: 10 256 56 56 (8028160)
I0807 13:38:49.347584  9238 net.cpp:156] Memory required for data: 1017569320
I0807 13:38:49.347601  9238 layer_factory.hpp:77] Creating layer pool3
I0807 13:38:49.347620  9238 net.cpp:91] Creating Layer pool3
I0807 13:38:49.347635  9238 net.cpp:425] pool3 <- conv3_3
I0807 13:38:49.347651  9238 net.cpp:399] pool3 -> pool3
I0807 13:38:49.347709  9238 net.cpp:141] Setting up pool3
I0807 13:38:49.347733  9238 net.cpp:148] Top shape: 10 256 28 28 (2007040)
I0807 13:38:49.347748  9238 net.cpp:156] Memory required for data: 1025597480
I0807 13:38:49.347761  9238 layer_factory.hpp:77] Creating layer conv4_1
I0807 13:38:49.347784  9238 net.cpp:91] Creating Layer conv4_1
I0807 13:38:49.347801  9238 net.cpp:425] conv4_1 <- pool3
I0807 13:38:49.347823  9238 net.cpp:399] conv4_1 -> conv4_1
I0807 13:38:49.393694  9238 net.cpp:141] Setting up conv4_1
I0807 13:38:49.393739  9238 net.cpp:148] Top shape: 10 512 28 28 (4014080)
I0807 13:38:49.393756  9238 net.cpp:156] Memory required for data: 1041653800
I0807 13:38:49.393779  9238 layer_factory.hpp:77] Creating layer relu4_1
I0807 13:38:49.393795  9238 net.cpp:91] Creating Layer relu4_1
I0807 13:38:49.393810  9238 net.cpp:425] relu4_1 <- conv4_1
I0807 13:38:49.393826  9238 net.cpp:386] relu4_1 -> conv4_1 (in-place)
I0807 13:38:49.393844  9238 net.cpp:141] Setting up relu4_1
I0807 13:38:49.393862  9238 net.cpp:148] Top shape: 10 512 28 28 (4014080)
I0807 13:38:49.393877  9238 net.cpp:156] Memory required for data: 1057710120
I0807 13:38:49.393889  9238 layer_factory.hpp:77] Creating layer conv4_2
I0807 13:38:49.393916  9238 net.cpp:91] Creating Layer conv4_2
I0807 13:38:49.393932  9238 net.cpp:425] conv4_2 <- conv4_1
I0807 13:38:49.393957  9238 net.cpp:399] conv4_2 -> conv4_2
I0807 13:38:49.485424  9238 net.cpp:141] Setting up conv4_2
I0807 13:38:49.485466  9238 net.cpp:148] Top shape: 10 512 28 28 (4014080)
I0807 13:38:49.485488  9238 net.cpp:156] Memory required for data: 1073766440
I0807 13:38:49.485518  9238 layer_factory.hpp:77] Creating layer relu4_2
I0807 13:38:49.485539  9238 net.cpp:91] Creating Layer relu4_2
I0807 13:38:49.485555  9238 net.cpp:425] relu4_2 <- conv4_2
I0807 13:38:49.485582  9238 net.cpp:386] relu4_2 -> conv4_2 (in-place)
I0807 13:38:49.485602  9238 net.cpp:141] Setting up relu4_2
I0807 13:38:49.485621  9238 net.cpp:148] Top shape: 10 512 28 28 (4014080)
I0807 13:38:49.485635  9238 net.cpp:156] Memory required for data: 1089822760
I0807 13:38:49.485652  9238 layer_factory.hpp:77] Creating layer conv4_3
I0807 13:38:49.485677  9238 net.cpp:91] Creating Layer conv4_3
I0807 13:38:49.485692  9238 net.cpp:425] conv4_3 <- conv4_2
I0807 13:38:49.485715  9238 net.cpp:399] conv4_3 -> conv4_3
I0807 13:38:49.577944  9238 net.cpp:141] Setting up conv4_3
I0807 13:38:49.578009  9238 net.cpp:148] Top shape: 10 512 28 28 (4014080)
I0807 13:38:49.578079  9238 net.cpp:156] Memory required for data: 1105879080
I0807 13:38:49.578105  9238 layer_factory.hpp:77] Creating layer relu4_3
I0807 13:38:49.578137  9238 net.cpp:91] Creating Layer relu4_3
I0807 13:38:49.578155  9238 net.cpp:425] relu4_3 <- conv4_3
I0807 13:38:49.578177  9238 net.cpp:386] relu4_3 -> conv4_3 (in-place)
I0807 13:38:49.578202  9238 net.cpp:141] Setting up relu4_3
I0807 13:38:49.578220  9238 net.cpp:148] Top shape: 10 512 28 28 (4014080)
I0807 13:38:49.578238  9238 net.cpp:156] Memory required for data: 1121935400
I0807 13:38:49.578253  9238 layer_factory.hpp:77] Creating layer pool4
I0807 13:38:49.578272  9238 net.cpp:91] Creating Layer pool4
I0807 13:38:49.578287  9238 net.cpp:425] pool4 <- conv4_3
I0807 13:38:49.578305  9238 net.cpp:399] pool4 -> pool4
I0807 13:38:49.578367  9238 net.cpp:141] Setting up pool4
I0807 13:38:49.578390  9238 net.cpp:148] Top shape: 10 512 14 14 (1003520)
I0807 13:38:49.578405  9238 net.cpp:156] Memory required for data: 1125949480
I0807 13:38:49.578420  9238 layer_factory.hpp:77] Creating layer conv5_1
I0807 13:38:49.578452  9238 net.cpp:91] Creating Layer conv5_1
I0807 13:38:49.578475  9238 net.cpp:425] conv5_1 <- pool4
I0807 13:38:49.578497  9238 net.cpp:399] conv5_1 -> conv5_1
I0807 13:38:49.670133  9238 net.cpp:141] Setting up conv5_1
I0807 13:38:49.670184  9238 net.cpp:148] Top shape: 10 512 14 14 (1003520)
I0807 13:38:49.670200  9238 net.cpp:156] Memory required for data: 1129963560
I0807 13:38:49.670222  9238 layer_factory.hpp:77] Creating layer relu5_1
I0807 13:38:49.670240  9238 net.cpp:91] Creating Layer relu5_1
I0807 13:38:49.670256  9238 net.cpp:425] relu5_1 <- conv5_1
I0807 13:38:49.670272  9238 net.cpp:386] relu5_1 -> conv5_1 (in-place)
I0807 13:38:49.670292  9238 net.cpp:141] Setting up relu5_1
I0807 13:38:49.670308  9238 net.cpp:148] Top shape: 10 512 14 14 (1003520)
I0807 13:38:49.670322  9238 net.cpp:156] Memory required for data: 1133977640
I0807 13:38:49.670341  9238 layer_factory.hpp:77] Creating layer conv5_2
I0807 13:38:49.670367  9238 net.cpp:91] Creating Layer conv5_2
I0807 13:38:49.670382  9238 net.cpp:425] conv5_2 <- conv5_1
I0807 13:38:49.670404  9238 net.cpp:399] conv5_2 -> conv5_2
I0807 13:38:49.764413  9238 net.cpp:141] Setting up conv5_2
I0807 13:38:49.764472  9238 net.cpp:148] Top shape: 10 512 14 14 (1003520)
I0807 13:38:49.764488  9238 net.cpp:156] Memory required for data: 1137991720
I0807 13:38:49.764509  9238 layer_factory.hpp:77] Creating layer relu5_2
I0807 13:38:49.764530  9238 net.cpp:91] Creating Layer relu5_2
I0807 13:38:49.764551  9238 net.cpp:425] relu5_2 <- conv5_2
I0807 13:38:49.764574  9238 net.cpp:386] relu5_2 -> conv5_2 (in-place)
I0807 13:38:49.764595  9238 net.cpp:141] Setting up relu5_2
I0807 13:38:49.764617  9238 net.cpp:148] Top shape: 10 512 14 14 (1003520)
I0807 13:38:49.764633  9238 net.cpp:156] Memory required for data: 1142005800
I0807 13:38:49.764649  9238 layer_factory.hpp:77] Creating layer conv5_3
I0807 13:38:49.764677  9238 net.cpp:91] Creating Layer conv5_3
I0807 13:38:49.764694  9238 net.cpp:425] conv5_3 <- conv5_2
I0807 13:38:49.764714  9238 net.cpp:399] conv5_3 -> conv5_3
I0807 13:38:49.859289  9238 net.cpp:141] Setting up conv5_3
I0807 13:38:49.859340  9238 net.cpp:148] Top shape: 10 512 14 14 (1003520)
I0807 13:38:49.859356  9238 net.cpp:156] Memory required for data: 1146019880
I0807 13:38:49.859377  9238 layer_factory.hpp:77] Creating layer relu5_3
I0807 13:38:49.859401  9238 net.cpp:91] Creating Layer relu5_3
I0807 13:38:49.859418  9238 net.cpp:425] relu5_3 <- conv5_3
I0807 13:38:49.859436  9238 net.cpp:386] relu5_3 -> conv5_3 (in-place)
I0807 13:38:49.859457  9238 net.cpp:141] Setting up relu5_3
I0807 13:38:49.859474  9238 net.cpp:148] Top shape: 10 512 14 14 (1003520)
I0807 13:38:49.859489  9238 net.cpp:156] Memory required for data: 1150033960
I0807 13:38:49.859504  9238 layer_factory.hpp:77] Creating layer pool5
I0807 13:38:49.859531  9238 net.cpp:91] Creating Layer pool5
I0807 13:38:49.859549  9238 net.cpp:425] pool5 <- conv5_3
I0807 13:38:49.859567  9238 net.cpp:399] pool5 -> pool5
I0807 13:38:49.859683  9238 net.cpp:141] Setting up pool5
I0807 13:38:49.859707  9238 net.cpp:148] Top shape: 10 512 7 7 (250880)
I0807 13:38:49.859722  9238 net.cpp:156] Memory required for data: 1151037480
I0807 13:38:49.859737  9238 layer_factory.hpp:77] Creating layer fc6
I0807 13:38:49.859776  9238 net.cpp:91] Creating Layer fc6
I0807 13:38:49.859796  9238 net.cpp:425] fc6 <- pool5
I0807 13:38:49.859814  9238 net.cpp:399] fc6 -> fc6
I0807 13:38:53.923080  9238 net.cpp:141] Setting up fc6
I0807 13:38:53.923171  9238 net.cpp:148] Top shape: 10 4096 (40960)
I0807 13:38:53.923190  9238 net.cpp:156] Memory required for data: 1151201320
I0807 13:38:53.923228  9238 layer_factory.hpp:77] Creating layer relu6
I0807 13:38:53.923271  9238 net.cpp:91] Creating Layer relu6
I0807 13:38:53.923355  9238 net.cpp:425] relu6 <- fc6
I0807 13:38:53.923403  9238 net.cpp:386] relu6 -> fc6 (in-place)
I0807 13:38:53.923431  9238 net.cpp:141] Setting up relu6
I0807 13:38:53.923452  9238 net.cpp:148] Top shape: 10 4096 (40960)
I0807 13:38:53.923468  9238 net.cpp:156] Memory required for data: 1151365160
I0807 13:38:53.923483  9238 layer_factory.hpp:77] Creating layer drop6
I0807 13:38:53.923527  9238 net.cpp:91] Creating Layer drop6
I0807 13:38:53.923543  9238 net.cpp:425] drop6 <- fc6
I0807 13:38:53.923560  9238 net.cpp:386] drop6 -> fc6 (in-place)
I0807 13:38:53.923674  9238 net.cpp:141] Setting up drop6
I0807 13:38:53.923699  9238 net.cpp:148] Top shape: 10 4096 (40960)
I0807 13:38:53.923714  9238 net.cpp:156] Memory required for data: 1151529000
I0807 13:38:53.923728  9238 layer_factory.hpp:77] Creating layer fc7
I0807 13:38:53.923749  9238 net.cpp:91] Creating Layer fc7
I0807 13:38:53.923768  9238 net.cpp:425] fc7 <- fc6
I0807 13:38:53.923789  9238 net.cpp:399] fc7 -> fc7
I0807 13:38:54.560492  9238 net.cpp:141] Setting up fc7
I0807 13:38:54.560582  9238 net.cpp:148] Top shape: 10 4096 (40960)
I0807 13:38:54.560607  9238 net.cpp:156] Memory required for data: 1151692840
I0807 13:38:54.560650  9238 layer_factory.hpp:77] Creating layer relu7
I0807 13:38:54.560681  9238 net.cpp:91] Creating Layer relu7
I0807 13:38:54.560704  9238 net.cpp:425] relu7 <- fc7
I0807 13:38:54.560729  9238 net.cpp:386] relu7 -> fc7 (in-place)
I0807 13:38:54.560753  9238 net.cpp:141] Setting up relu7
I0807 13:38:54.560773  9238 net.cpp:148] Top shape: 10 4096 (40960)
I0807 13:38:54.560787  9238 net.cpp:156] Memory required for data: 1151856680
I0807 13:38:54.560801  9238 layer_factory.hpp:77] Creating layer drop7
I0807 13:38:54.560822  9238 net.cpp:91] Creating Layer drop7
I0807 13:38:54.560837  9238 net.cpp:425] drop7 <- fc7
I0807 13:38:54.560853  9238 net.cpp:386] drop7 -> fc7 (in-place)
I0807 13:38:54.560914  9238 net.cpp:141] Setting up drop7
I0807 13:38:54.560945  9238 net.cpp:148] Top shape: 10 4096 (40960)
I0807 13:38:54.560959  9238 net.cpp:156] Memory required for data: 1152020520
I0807 13:38:54.560973  9238 layer_factory.hpp:77] Creating layer fc8_binary_f48
I0807 13:38:54.560997  9238 net.cpp:91] Creating Layer fc8_binary_f48
I0807 13:38:54.561012  9238 net.cpp:425] fc8_binary_f48 <- fc7
I0807 13:38:54.561029  9238 net.cpp:399] fc8_binary_f48 -> fc8_binary_f48
I0807 13:38:54.569187  9238 net.cpp:141] Setting up fc8_binary_f48
I0807 13:38:54.569232  9238 net.cpp:148] Top shape: 10 48 (480)
I0807 13:38:54.569248  9238 net.cpp:156] Memory required for data: 1152022440
I0807 13:38:54.569267  9238 layer_factory.hpp:77] Creating layer loss_hashing
I0807 13:38:54.569303  9238 net.cpp:91] Creating Layer loss_hashing
I0807 13:38:54.569324  9238 net.cpp:425] loss_hashing <- fc8_binary_f48
I0807 13:38:54.569341  9238 net.cpp:425] loss_hashing <- label
I0807 13:38:54.569373  9238 net.cpp:399] loss_hashing -> loss_hashing
…
