…
I0801 17:54:45.829489 36117 net.cpp:313] The NetState phase (0) differed from the phase (1) specified by a rule in layer accuracy_at_5
I0801 17:54:45.829906 36117 net.cpp:49] Initializing net from parameters: 
name: "docomo_VGG16"
state {
  phase: TRAIN
}
layer {
  name: "data"
  type: "Data"
  top: "data"
  top: "label"
  include {
    phase: TRAIN
  }
  transform_param {
    mirror: true
    crop_size: 224
    mean_value: 103.939
    mean_value: 116.779
    mean_value: 123.68
  }
  data_param {
    source: "FASHION/fashion_train_lmdb/"
    batch_size: 10
    backend: LMDB
  }
}
layer {
  name: "conv1_1"
  type: "Convolution"
  bottom: "data"
  top: "conv1_1"
  param {
    lr_mult: 1
    decay_mult: 1
  }
  param {
    lr_mult: 2
    decay_mult: 0
  }
  convolution_param {
    num_output: 64
    pad: 1
    kernel_size: 3
    weight_filler {
      type: "gaussian"
      std: 0.01
    }
    bias_filler {
      type: "constant"
      value: 0
    }
  }
}
layer {
  name: "relu1_1"
  type: "ReLU"
  bottom: "conv1_1"
  top: "conv1_1"
}
layer {
  name: "conv1_2"
  type: "Convolution"
  bottom: "conv1_1"
  top: "conv1_2"
  param {
    lr_mult: 1
    decay_mult: 1
  }
  param {
    lr_mult: 2
    decay_mult: 0
  }
  convolution_param {
    num_output: 64
    pad: 1
    kernel_size: 3
    weight_filler {
      type: "gaussian"
      std: 0.01
    }
    bias_filler {
      type: "constant"
      value: 0
    }
  }
}
layer {
  name: "relu1_2"
  type: "ReLU"
  bottom: "conv1_2"
  top: "conv1_2"
}
layer {
  name: "pool1"
  type: "Pooling"
  bottom: "conv1_2"
  top: "pool1"
  pooling_param {
    pool: MAX
    kernel_size: 2
    stride: 2
  }
}
layer {
  name: "conv2_1"
  type: "Convolution"
  bottom: "pool1"
  top: "conv2_1"
  param {
    lr_mult: 1
    decay_mult: 1
  }
  param {
    lr_mult: 2
    decay_mult: 0
  }
  convolution_param {
    num_output: 128
    pad: 1
    kernel_size: 3
    weight_filler {
      type: "gaussian"
      std: 0.01
    }
    bias_filler {
      type: "constant"
      value: 0
    }
  }
}
layer {
  name: "relu2_1"
  type: "ReLU"
  bottom: "conv2_1"
  top: "conv2_1"
}
layer {
  name: "conv2_2"
  type: "Convolution"
  bottom: "conv2_1"
  top: "conv2_2"
  param {
    lr_mult: 1
    decay_mult: 1
  }
  param {
    lr_mult: 2
    decay_mult: 0
  }
  convolution_param {
    num_output: 128
    pad: 1
    kernel_size: 3
    weight_filler {
      type: "gaussian"
      std: 0.01
    }
    bias_filler {
      type: "constant"
      value: 0
    }
  }
}
layer {
  name: "relu2_2"
  type: "ReLU"
  bottom: "conv2_2"
  top: "conv2_2"
}
layer {
  name: "pool2"
  type: "Pooling"
  bottom: "conv2_2"
  top: "pool2"
  pooling_param {
    pool: MAX
    kernel_size: 2
    stride: 2
  }
}
layer {
  name: "conv3_1"
  type: "Convolution"
  bottom: "pool2"
  top: "conv3_1"
  param {
    lr_mult: 1
    decay_mult: 1
  }
  param {
    lr_mult: 2
    decay_mult: 0
  }
  convolution_param {
    num_output: 256
    pad: 1
    kernel_size: 3
    weight_filler {
      type: "gaussian"
      std: 0.01
    }
    bias_filler {
      type: "constant"
      value: 0
    }
  }
}
layer {
  name: "relu3_1"
  type: "ReLU"
  bottom: "conv3_1"
  top: "conv3_1"
}
layer {
  name: "conv3_2"
  type: "Convolution"
  bottom: "conv3_1"
  top: "conv3_2"
  param {
    lr_mult: 1
    decay_mult: 1
  }
  param {
    lr_mult: 2
    decay_mult: 0
  }
  convolution_param {
    num_output: 256
    pad: 1
    kernel_size: 3
    weight_filler {
      type: "gaussian"
      std: 0.01
    }
    bias_filler {
      type: "constant"
      value: 0
    }
  }
}
layer {
  name: "relu3_2"
  type: "ReLU"
  bottom: "conv3_2"
  top: "conv3_2"
}
layer {
  name: "conv3_3"
  type: "Convolution"
  bottom: "conv3_2"
  top: "conv3_3"
  param {
    lr_mult: 1
    decay_mult: 1
  }
  param {
    lr_mult: 2
    decay_mult: 0
  }
  convolution_param {
    num_output: 256
    pad: 1
    kernel_size: 3
    weight_filler {
      type: "gaussian"
      std: 0.01
    }
    bias_filler {
      type: "constant"
      value: 0
    }
  }
}
layer {
  name: "relu3_3"
  type: "ReLU"
  bottom: "conv3_3"
  top: "conv3_3"
}
layer {
  name: "pool3"
  type: "Pooling"
  bottom: "conv3_3"
  top: "pool3"
  pooling_param {
    pool: MAX
    kernel_size: 2
    stride: 2
  }
}
layer {
  name: "conv4_1"
  type: "Convolution"
  bottom: "pool3"
  top: "conv4_1"
  param {
    lr_mult: 1
    decay_mult: 1
  }
  param {
    lr_mult: 2
    decay_mult: 0
  }
  convolution_param {
    num_output: 512
    pad: 1
    kernel_size: 3
    weight_filler {
      type: "gaussian"
      std: 0.01
    }
    bias_filler {
      type: "constant"
      value: 0
    }
  }
}
layer {
  name: "relu4_1"
  type: "ReLU"
  bottom: "conv4_1"
  top: "conv4_1"
}
layer {
  name: "conv4_2"
  type: "Convolution"
  bottom: "conv4_1"
  top: "conv4_2"
  param {
    lr_mult: 1
    decay_mult: 1
  }
  param {
    lr_mult: 2
    decay_mult: 0
  }
  convolution_param {
    num_output: 512
    pad: 1
    kernel_size: 3
    weight_filler {
      type: "gaussian"
      std: 0.01
    }
    bias_filler {
      type: "constant"
      value: 0
    }
  }
}
layer {
  name: "relu4_2"
  type: "ReLU"
  bottom: "conv4_2"
  top: "conv4_2"
}
layer {
  name: "conv4_3"
  type: "Convolution"
  bottom: "conv4_2"
  top: "conv4_3"
  param {
    lr_mult: 1
    decay_mult: 1
  }
  param {
    lr_mult: 2
    decay_mult: 0
  }
  convolution_param {
    num_output: 512
    pad: 1
    kernel_size: 3
    weight_filler {
      type: "gaussian"
      std: 0.01
    }
    bias_filler {
      type: "constant"
      value: 0
    }
  }
}
layer {
  name: "relu4_3"
  type: "ReLU"
  bottom: "conv4_3"
  top: "conv4_3"
}
layer {
  name: "pool4"
  type: "Pooling"
  bottom: "conv4_3"
  top: "pool4"
  pooling_param {
    pool: MAX
    kernel_size: 2
    stride: 2
  }
}
layer {
  name: "conv5_1"
  type: "Convolution"
  bottom: "pool4"
  top: "conv5_1"
  param {
    lr_mult: 1
    decay_mult: 1
  }
  param {
    lr_mult: 2
    decay_mult: 0
  }
  convolution_param {
    num_output: 512
    pad: 1
    kernel_size: 3
    weight_filler {
      type: "gaussian"
      std: 0.01
    }
    bias_filler {
      type: "constant"
      value: 0
    }
  }
}
layer {
  name: "relu5_1"
  type: "ReLU"
  bottom: "conv5_1"
  top: "conv5_1"
}
layer {
  name: "conv5_2"
  type: "Convolution"
  bottom: "conv5_1"
  top: "conv5_2"
  param {
    lr_mult: 1
    decay_mult: 1
  }
  param {
    lr_mult: 2
    decay_mult: 0
  }
  convolution_param {
    num_output: 512
    pad: 1
    kernel_size: 3
    weight_filler {
      type: "gaussian"
      std: 0.01
    }
    bias_filler {
      type: "constant"
      value: 0
    }
  }
}
layer {
  name: "relu5_2"
  type: "ReLU"
  bottom: "conv5_2"
  top: "conv5_2"
}
layer {
  name: "conv5_3"
  type: "Convolution"
  bottom: "conv5_2"
  top: "conv5_3"
  param {
    lr_mult: 1
    decay_mult: 1
  }
  param {
    lr_mult: 2
    decay_mult: 0
  }
  convolution_param {
    num_output: 512
    pad: 1
    kernel_size: 3
    weight_filler {
      type: "gaussian"
      std: 0.01
    }
    bias_filler {
      type: "constant"
      value: 0
    }
  }
}
layer {
  name: "relu5_3"
  type: "ReLU"
  bottom: "conv5_3"
  top: "conv5_3"
}
layer {
  name: "pool5"
  type: "Pooling"
  bottom: "conv5_3"
  top: "pool5"
  pooling_param {
    pool: MAX
    kernel_size: 2
    stride: 2
  }
}
layer {
  name: "fc6"
  type: "InnerProduct"
  bottom: "pool5"
  top: "fc6"
  param {
    lr_mult: 1
    decay_mult: 1
  }
  param {
    lr_mult: 2
    decay_mult: 0
  }
  inner_product_param {
    num_output: 4096
    weight_filler {
      type: "gaussian"
      std: 0.005
    }
    bias_filler {
      type: "constant"
      value: 0.1
    }
  }
}
layer {
  name: "relu6"
  type: "ReLU"
  bottom: "fc6"
  top: "fc6"
}
layer {
  name: "drop6"
  type: "Dropout"
  bottom: "fc6"
  top: "fc6"
  dropout_param {
    dropout_ratio: 0.5
  }
}
layer {
  name: "fc7"
  type: "InnerProduct"
  bottom: "fc6"
  top: "fc7"
  param {
    lr_mult: 1
    decay_mult: 1
  }
  param {
    lr_mult: 2
    decay_mult: 0
  }
  inner_product_param {
    num_output: 4096
    weight_filler {
      type: "gaussian"
      std: 0.005
    }
    bias_filler {
      type: "constant"
      value: 0.1
    }
  }
}
layer {
  name: "relu7"
  type: "ReLU"
  bottom: "fc7"
  top: "fc7"
}
layer {
  name: "drop7"
  type: "Dropout"
  bottom: "fc7"
  top: "fc7"
  dropout_param {
    dropout_ratio: 0.5
  }
}
layer {
  name: "fc8_binary"
  type: "InnerProduct"
  bottom: "fc7"
  top: "fc8_binary"
  param {
    lr_mult: 10
    decay_mult: 1
  }
  param {
    lr_mult: 20
    decay_mult: 0
  }
  inner_product_param {
    num_output: 12
    weight_filler {
      type: "gaussian"
      std: 0.005
    }
    bias_filler {
      type: "constant"
      value: 0.1
    }
  }
}
layer {
  name: "fc8_classification"
  type: "InnerProduct"
  bottom: "fc7"
  top: "fc8_classification"
  param {
    lr_mult: 10
    decay_mult: 1
  }
  param {
    lr_mult: 20
    decay_mult: 0
  }
  inner_product_param {
    num_output: 25
    weight_filler {
      type: "gaussian"
      std: 0.05
    }
    bias_filler {
      type: "constant"
      value: 0.1
    }
  }
}
layer {
  name: "loss_hashing"
  type: "HashingLoss"
  bottom: "fc8_binary"
  bottom: "label"
  top: "loss_hashing"
  loss_weight: 0.1
  hashing_loss_param {
    bi_margin: 24
    tradeoff: 0.01
  }
}
layer {
  name: "loss_classification"
  type: "SoftmaxWithLoss"
  bottom: "fc8_classification"
  bottom: "label"
  top: "loss_classification"
}
I0801 17:54:45.832566 36117 layer_factory.hpp:77] Creating layer data
I0801 17:54:45.833277 36117 net.cpp:91] Creating Layer data
I0801 17:54:45.833436 36117 net.cpp:399] data -> data
I0801 17:54:45.833590 36117 net.cpp:399] data -> label
I0801 17:54:45.835124 36122 db_lmdb.cpp:38] Opened lmdb FASHION/fashion_train_lmdb/
I0801 17:54:45.864181 36117 data_layer.cpp:41] output data size: 10,3,224,224
I0801 17:54:45.884790 36117 net.cpp:141] Setting up data
I0801 17:54:45.884915 36117 net.cpp:148] Top shape: 10 3 224 224 (1505280)
I0801 17:54:45.884958 36117 net.cpp:148] Top shape: 10 1 1 1 (10)
I0801 17:54:45.884997 36117 net.cpp:156] Memory required for data: 6021160
I0801 17:54:45.885040 36117 layer_factory.hpp:77] Creating layer label_data_1_split
I0801 17:54:45.885093 36117 net.cpp:91] Creating Layer label_data_1_split
I0801 17:54:45.885133 36117 net.cpp:425] label_data_1_split <- label
I0801 17:54:45.885187 36117 net.cpp:399] label_data_1_split -> label_data_1_split_0
I0801 17:54:45.885246 36117 net.cpp:399] label_data_1_split -> label_data_1_split_1
I0801 17:54:45.885388 36117 net.cpp:141] Setting up label_data_1_split
I0801 17:54:45.885437 36117 net.cpp:148] Top shape: 10 1 1 1 (10)
I0801 17:54:45.885470 36117 net.cpp:148] Top shape: 10 1 1 1 (10)
I0801 17:54:45.885499 36117 net.cpp:156] Memory required for data: 6021240
I0801 17:54:45.885527 36117 layer_factory.hpp:77] Creating layer conv1_1
I0801 17:54:45.885598 36117 net.cpp:91] Creating Layer conv1_1
I0801 17:54:45.885633 36117 net.cpp:425] conv1_1 <- data
I0801 17:54:45.885675 36117 net.cpp:399] conv1_1 -> conv1_1
I0801 17:54:45.889696 36117 net.cpp:141] Setting up conv1_1
I0801 17:54:45.889775 36123 blocking_queue.cpp:50] Waiting for data
I0801 17:54:45.889776 36117 net.cpp:148] Top shape: 10 64 224 224 (32112640)
I0801 17:54:45.889909 36117 net.cpp:156] Memory required for data: 134471800
I0801 17:54:45.890041 36117 layer_factory.hpp:77] Creating layer relu1_1
I0801 17:54:45.890094 36117 net.cpp:91] Creating Layer relu1_1
I0801 17:54:45.890128 36117 net.cpp:425] relu1_1 <- conv1_1
I0801 17:54:45.890162 36117 net.cpp:386] relu1_1 -> conv1_1 (in-place)
I0801 17:54:45.890213 36117 net.cpp:141] Setting up relu1_1
I0801 17:54:45.890250 36117 net.cpp:148] Top shape: 10 64 224 224 (32112640)
I0801 17:54:45.890278 36117 net.cpp:156] Memory required for data: 262922360
I0801 17:54:45.890306 36117 layer_factory.hpp:77] Creating layer conv1_2
I0801 17:54:45.890358 36117 net.cpp:91] Creating Layer conv1_2
I0801 17:54:45.890396 36117 net.cpp:425] conv1_2 <- conv1_1
I0801 17:54:45.890439 36117 net.cpp:399] conv1_2 -> conv1_2
I0801 17:54:45.893759 36117 net.cpp:141] Setting up conv1_2
I0801 17:54:45.893815 36117 net.cpp:148] Top shape: 10 64 224 224 (32112640)
I0801 17:54:45.893844 36117 net.cpp:156] Memory required for data: 391372920
I0801 17:54:45.893887 36117 layer_factory.hpp:77] Creating layer relu1_2
I0801 17:54:45.893931 36117 net.cpp:91] Creating Layer relu1_2
I0801 17:54:45.893963 36117 net.cpp:425] relu1_2 <- conv1_2
I0801 17:54:45.893996 36117 net.cpp:386] relu1_2 -> conv1_2 (in-place)
I0801 17:54:45.894033 36117 net.cpp:141] Setting up relu1_2
I0801 17:54:45.894068 36117 net.cpp:148] Top shape: 10 64 224 224 (32112640)
I0801 17:54:45.894095 36117 net.cpp:156] Memory required for data: 519823480
I0801 17:54:45.894124 36117 layer_factory.hpp:77] Creating layer pool1
I0801 17:54:45.894167 36117 net.cpp:91] Creating Layer pool1
I0801 17:54:45.894208 36117 net.cpp:425] pool1 <- conv1_2
I0801 17:54:45.894243 36117 net.cpp:399] pool1 -> pool1
I0801 17:54:45.894383 36117 net.cpp:141] Setting up pool1
I0801 17:54:45.894439 36117 net.cpp:148] Top shape: 10 64 112 112 (8028160)
I0801 17:54:45.894469 36117 net.cpp:156] Memory required for data: 551936120
I0801 17:54:45.894496 36117 layer_factory.hpp:77] Creating layer conv2_1
I0801 17:54:45.894542 36117 net.cpp:91] Creating Layer conv2_1
I0801 17:54:45.894578 36117 net.cpp:425] conv2_1 <- pool1
I0801 17:54:45.894629 36117 net.cpp:399] conv2_1 -> conv2_1
I0801 17:54:45.902844 36117 net.cpp:141] Setting up conv2_1
I0801 17:54:45.902907 36117 net.cpp:148] Top shape: 10 128 112 112 (16056320)
I0801 17:54:45.902940 36117 net.cpp:156] Memory required for data: 616161400
I0801 17:54:45.902983 36117 layer_factory.hpp:77] Creating layer relu2_1
I0801 17:54:45.903025 36117 net.cpp:91] Creating Layer relu2_1
I0801 17:54:45.903056 36117 net.cpp:425] relu2_1 <- conv2_1
I0801 17:54:45.903096 36117 net.cpp:386] relu2_1 -> conv2_1 (in-place)
I0801 17:54:45.903136 36117 net.cpp:141] Setting up relu2_1
I0801 17:54:45.903178 36117 net.cpp:148] Top shape: 10 128 112 112 (16056320)
I0801 17:54:45.903206 36117 net.cpp:156] Memory required for data: 680386680
I0801 17:54:45.903234 36117 layer_factory.hpp:77] Creating layer conv2_2
I0801 17:54:45.903280 36117 net.cpp:91] Creating Layer conv2_2
I0801 17:54:45.903316 36117 net.cpp:425] conv2_2 <- conv2_1
I0801 17:54:45.903352 36117 net.cpp:399] conv2_2 -> conv2_2
I0801 17:54:45.914852 36117 net.cpp:141] Setting up conv2_2
I0801 17:54:45.914907 36117 net.cpp:148] Top shape: 10 128 112 112 (16056320)
I0801 17:54:45.914938 36117 net.cpp:156] Memory required for data: 744611960
I0801 17:54:45.914975 36117 layer_factory.hpp:77] Creating layer relu2_2
I0801 17:54:45.915010 36117 net.cpp:91] Creating Layer relu2_2
I0801 17:54:45.915040 36117 net.cpp:425] relu2_2 <- conv2_2
I0801 17:54:45.915071 36117 net.cpp:386] relu2_2 -> conv2_2 (in-place)
I0801 17:54:45.915122 36117 net.cpp:141] Setting up relu2_2
I0801 17:54:45.915163 36117 net.cpp:148] Top shape: 10 128 112 112 (16056320)
I0801 17:54:45.915191 36117 net.cpp:156] Memory required for data: 808837240
I0801 17:54:45.915220 36117 layer_factory.hpp:77] Creating layer pool2
I0801 17:54:45.915252 36117 net.cpp:91] Creating Layer pool2
I0801 17:54:45.915282 36117 net.cpp:425] pool2 <- conv2_2
I0801 17:54:45.915314 36117 net.cpp:399] pool2 -> pool2
I0801 17:54:45.915424 36117 net.cpp:141] Setting up pool2
I0801 17:54:45.915503 36117 net.cpp:148] Top shape: 10 128 56 56 (4014080)
I0801 17:54:45.915535 36117 net.cpp:156] Memory required for data: 824893560
I0801 17:54:45.915565 36117 layer_factory.hpp:77] Creating layer conv3_1
I0801 17:54:45.915611 36117 net.cpp:91] Creating Layer conv3_1
I0801 17:54:45.915649 36117 net.cpp:425] conv3_1 <- pool2
I0801 17:54:45.915693 36117 net.cpp:399] conv3_1 -> conv3_1
I0801 17:54:45.939368 36117 net.cpp:141] Setting up conv3_1
I0801 17:54:45.939429 36117 net.cpp:148] Top shape: 10 256 56 56 (8028160)
I0801 17:54:45.939460 36117 net.cpp:156] Memory required for data: 857006200
I0801 17:54:45.939510 36117 layer_factory.hpp:77] Creating layer relu3_1
I0801 17:54:45.939549 36117 net.cpp:91] Creating Layer relu3_1
I0801 17:54:45.939579 36117 net.cpp:425] relu3_1 <- conv3_1
I0801 17:54:45.939611 36117 net.cpp:386] relu3_1 -> conv3_1 (in-place)
I0801 17:54:45.939649 36117 net.cpp:141] Setting up relu3_1
I0801 17:54:45.939693 36117 net.cpp:148] Top shape: 10 256 56 56 (8028160)
I0801 17:54:45.939721 36117 net.cpp:156] Memory required for data: 889118840
I0801 17:54:45.939749 36117 layer_factory.hpp:77] Creating layer conv3_2
I0801 17:54:45.939795 36117 net.cpp:91] Creating Layer conv3_2
I0801 17:54:45.939831 36117 net.cpp:425] conv3_2 <- conv3_1
I0801 17:54:45.939873 36117 net.cpp:399] conv3_2 -> conv3_2
I0801 17:54:45.986524 36117 net.cpp:141] Setting up conv3_2
I0801 17:54:45.986588 36117 net.cpp:148] Top shape: 10 256 56 56 (8028160)
I0801 17:54:45.986621 36117 net.cpp:156] Memory required for data: 921231480
I0801 17:54:45.986657 36117 layer_factory.hpp:77] Creating layer relu3_2
I0801 17:54:45.986695 36117 net.cpp:91] Creating Layer relu3_2
I0801 17:54:45.986724 36117 net.cpp:425] relu3_2 <- conv3_2
I0801 17:54:45.986765 36117 net.cpp:386] relu3_2 -> conv3_2 (in-place)
I0801 17:54:45.986804 36117 net.cpp:141] Setting up relu3_2
I0801 17:54:45.986847 36117 net.cpp:148] Top shape: 10 256 56 56 (8028160)
I0801 17:54:45.986876 36117 net.cpp:156] Memory required for data: 953344120
I0801 17:54:45.986904 36117 layer_factory.hpp:77] Creating layer conv3_3
I0801 17:54:45.986954 36117 net.cpp:91] Creating Layer conv3_3
I0801 17:54:45.986987 36117 net.cpp:425] conv3_3 <- conv3_2
I0801 17:54:45.987026 36117 net.cpp:399] conv3_3 -> conv3_3
I0801 17:54:46.033670 36117 net.cpp:141] Setting up conv3_3
I0801 17:54:46.033735 36117 net.cpp:148] Top shape: 10 256 56 56 (8028160)
I0801 17:54:46.033767 36117 net.cpp:156] Memory required for data: 985456760
I0801 17:54:46.033804 36117 layer_factory.hpp:77] Creating layer relu3_3
I0801 17:54:46.033845 36117 net.cpp:91] Creating Layer relu3_3
I0801 17:54:46.033876 36117 net.cpp:425] relu3_3 <- conv3_3
I0801 17:54:46.033912 36117 net.cpp:386] relu3_3 -> conv3_3 (in-place)
I0801 17:54:46.033951 36117 net.cpp:141] Setting up relu3_3
I0801 17:54:46.033983 36117 net.cpp:148] Top shape: 10 256 56 56 (8028160)
I0801 17:54:46.034013 36117 net.cpp:156] Memory required for data: 1017569400
I0801 17:54:46.034041 36117 layer_factory.hpp:77] Creating layer pool3
I0801 17:54:46.034081 36117 net.cpp:91] Creating Layer pool3
I0801 17:54:46.034117 36117 net.cpp:425] pool3 <- conv3_3
I0801 17:54:46.034152 36117 net.cpp:399] pool3 -> pool3
I0801 17:54:46.034266 36117 net.cpp:141] Setting up pool3
I0801 17:54:46.034313 36117 net.cpp:148] Top shape: 10 256 28 28 (2007040)
I0801 17:54:46.034343 36117 net.cpp:156] Memory required for data: 1025597560
I0801 17:54:46.034370 36117 layer_factory.hpp:77] Creating layer conv4_1
I0801 17:54:46.034416 36117 net.cpp:91] Creating Layer conv4_1
I0801 17:54:46.034456 36117 net.cpp:425] conv4_1 <- pool3
I0801 17:54:46.034492 36117 net.cpp:399] conv4_1 -> conv4_1
I0801 17:54:46.128013 36117 net.cpp:141] Setting up conv4_1
I0801 17:54:46.128083 36117 net.cpp:148] Top shape: 10 512 28 28 (4014080)
I0801 17:54:46.128114 36117 net.cpp:156] Memory required for data: 1041653880
I0801 17:54:46.128151 36117 layer_factory.hpp:77] Creating layer relu4_1
I0801 17:54:46.128196 36117 net.cpp:91] Creating Layer relu4_1
I0801 17:54:46.128226 36117 net.cpp:425] relu4_1 <- conv4_1
I0801 17:54:46.128310 36117 net.cpp:386] relu4_1 -> conv4_1 (in-place)
I0801 17:54:46.128360 36117 net.cpp:141] Setting up relu4_1
I0801 17:54:46.128396 36117 net.cpp:148] Top shape: 10 512 28 28 (4014080)
I0801 17:54:46.128424 36117 net.cpp:156] Memory required for data: 1057710200
I0801 17:54:46.128453 36117 layer_factory.hpp:77] Creating layer conv4_2
I0801 17:54:46.128494 36117 net.cpp:91] Creating Layer conv4_2
I0801 17:54:46.128525 36117 net.cpp:425] conv4_2 <- conv4_1
I0801 17:54:46.128566 36117 net.cpp:399] conv4_2 -> conv4_2
I0801 17:54:46.313060 36117 net.cpp:141] Setting up conv4_2
I0801 17:54:46.313138 36117 net.cpp:148] Top shape: 10 512 28 28 (4014080)
I0801 17:54:46.313169 36117 net.cpp:156] Memory required for data: 1073766520
I0801 17:54:46.313225 36117 layer_factory.hpp:77] Creating layer relu4_2
I0801 17:54:46.313267 36117 net.cpp:91] Creating Layer relu4_2
I0801 17:54:46.313298 36117 net.cpp:425] relu4_2 <- conv4_2
I0801 17:54:46.313331 36117 net.cpp:386] relu4_2 -> conv4_2 (in-place)
I0801 17:54:46.313374 36117 net.cpp:141] Setting up relu4_2
I0801 17:54:46.313416 36117 net.cpp:148] Top shape: 10 512 28 28 (4014080)
I0801 17:54:46.313443 36117 net.cpp:156] Memory required for data: 1089822840
I0801 17:54:46.313472 36117 layer_factory.hpp:77] Creating layer conv4_3
I0801 17:54:46.313519 36117 net.cpp:91] Creating Layer conv4_3
I0801 17:54:46.313550 36117 net.cpp:425] conv4_3 <- conv4_2
I0801 17:54:46.313585 36117 net.cpp:399] conv4_3 -> conv4_3
I0801 17:54:46.497957 36117 net.cpp:141] Setting up conv4_3
I0801 17:54:46.498039 36117 net.cpp:148] Top shape: 10 512 28 28 (4014080)
I0801 17:54:46.498071 36117 net.cpp:156] Memory required for data: 1105879160
I0801 17:54:46.498109 36117 layer_factory.hpp:77] Creating layer relu4_3
I0801 17:54:46.498147 36117 net.cpp:91] Creating Layer relu4_3
I0801 17:54:46.498178 36117 net.cpp:425] relu4_3 <- conv4_3
I0801 17:54:46.498219 36117 net.cpp:386] relu4_3 -> conv4_3 (in-place)
I0801 17:54:46.498261 36117 net.cpp:141] Setting up relu4_3
I0801 17:54:46.498297 36117 net.cpp:148] Top shape: 10 512 28 28 (4014080)
I0801 17:54:46.498325 36117 net.cpp:156] Memory required for data: 1121935480
I0801 17:54:46.498355 36117 layer_factory.hpp:77] Creating layer pool4
I0801 17:54:46.498391 36117 net.cpp:91] Creating Layer pool4
I0801 17:54:46.498430 36117 net.cpp:425] pool4 <- conv4_3
I0801 17:54:46.498464 36117 net.cpp:399] pool4 -> pool4
I0801 17:54:46.498579 36117 net.cpp:141] Setting up pool4
I0801 17:54:46.498626 36117 net.cpp:148] Top shape: 10 512 14 14 (1003520)
I0801 17:54:46.498656 36117 net.cpp:156] Memory required for data: 1125949560
I0801 17:54:46.498683 36117 layer_factory.hpp:77] Creating layer conv5_1
I0801 17:54:46.498741 36117 net.cpp:91] Creating Layer conv5_1
I0801 17:54:46.498778 36117 net.cpp:425] conv5_1 <- pool4
I0801 17:54:46.498823 36117 net.cpp:399] conv5_1 -> conv5_1
I0801 17:54:46.674351 36117 net.cpp:141] Setting up conv5_1
I0801 17:54:46.674408 36117 net.cpp:148] Top shape: 10 512 14 14 (1003520)
I0801 17:54:46.674424 36117 net.cpp:156] Memory required for data: 1129963640
I0801 17:54:46.674445 36117 layer_factory.hpp:77] Creating layer relu5_1
I0801 17:54:46.674473 36117 net.cpp:91] Creating Layer relu5_1
I0801 17:54:46.674489 36117 net.cpp:425] relu5_1 <- conv5_1
I0801 17:54:46.674505 36117 net.cpp:386] relu5_1 -> conv5_1 (in-place)
I0801 17:54:46.674526 36117 net.cpp:141] Setting up relu5_1
I0801 17:54:46.674542 36117 net.cpp:148] Top shape: 10 512 14 14 (1003520)
I0801 17:54:46.674556 36117 net.cpp:156] Memory required for data: 1133977720
I0801 17:54:46.674571 36117 layer_factory.hpp:77] Creating layer conv5_2
I0801 17:54:46.674595 36117 net.cpp:91] Creating Layer conv5_2
I0801 17:54:46.674613 36117 net.cpp:425] conv5_2 <- conv5_1
I0801 17:54:46.674649 36117 net.cpp:399] conv5_2 -> conv5_2
I0801 17:54:46.764130 36117 net.cpp:141] Setting up conv5_2
I0801 17:54:46.764179 36117 net.cpp:148] Top shape: 10 512 14 14 (1003520)
I0801 17:54:46.764194 36117 net.cpp:156] Memory required for data: 1137991800
I0801 17:54:46.764267 36117 layer_factory.hpp:77] Creating layer relu5_2
I0801 17:54:46.764291 36117 net.cpp:91] Creating Layer relu5_2
I0801 17:54:46.764307 36117 net.cpp:425] relu5_2 <- conv5_2
I0801 17:54:46.764324 36117 net.cpp:386] relu5_2 -> conv5_2 (in-place)
I0801 17:54:46.764350 36117 net.cpp:141] Setting up relu5_2
I0801 17:54:46.764370 36117 net.cpp:148] Top shape: 10 512 14 14 (1003520)
I0801 17:54:46.764384 36117 net.cpp:156] Memory required for data: 1142005880
I0801 17:54:46.764400 36117 layer_factory.hpp:77] Creating layer conv5_3
I0801 17:54:46.764421 36117 net.cpp:91] Creating Layer conv5_3
I0801 17:54:46.764436 36117 net.cpp:425] conv5_3 <- conv5_2
I0801 17:54:46.764461 36117 net.cpp:399] conv5_3 -> conv5_3
I0801 17:54:46.854145 36117 net.cpp:141] Setting up conv5_3
I0801 17:54:46.854199 36117 net.cpp:148] Top shape: 10 512 14 14 (1003520)
I0801 17:54:46.854216 36117 net.cpp:156] Memory required for data: 1146019960
I0801 17:54:46.854235 36117 layer_factory.hpp:77] Creating layer relu5_3
I0801 17:54:46.854255 36117 net.cpp:91] Creating Layer relu5_3
I0801 17:54:46.854271 36117 net.cpp:425] relu5_3 <- conv5_3
I0801 17:54:46.854292 36117 net.cpp:386] relu5_3 -> conv5_3 (in-place)
I0801 17:54:46.854315 36117 net.cpp:141] Setting up relu5_3
I0801 17:54:46.854336 36117 net.cpp:148] Top shape: 10 512 14 14 (1003520)
I0801 17:54:46.854349 36117 net.cpp:156] Memory required for data: 1150034040
I0801 17:54:46.854364 36117 layer_factory.hpp:77] Creating layer pool5
I0801 17:54:46.854391 36117 net.cpp:91] Creating Layer pool5
I0801 17:54:46.854408 36117 net.cpp:425] pool5 <- conv5_3
I0801 17:54:46.854425 36117 net.cpp:399] pool5 -> pool5
I0801 17:54:46.854496 36117 net.cpp:141] Setting up pool5
I0801 17:54:46.854517 36117 net.cpp:148] Top shape: 10 512 7 7 (250880)
I0801 17:54:46.854532 36117 net.cpp:156] Memory required for data: 1151037560
I0801 17:54:46.854553 36117 layer_factory.hpp:77] Creating layer fc6
I0801 17:54:46.854579 36117 net.cpp:91] Creating Layer fc6
I0801 17:54:46.854595 36117 net.cpp:425] fc6 <- pool5
I0801 17:54:46.854622 36117 net.cpp:399] fc6 -> fc6
I0801 17:54:50.663308 36117 net.cpp:141] Setting up fc6
I0801 17:54:50.663400 36117 net.cpp:148] Top shape: 10 4096 (40960)
I0801 17:54:50.663419 36117 net.cpp:156] Memory required for data: 1151201400
I0801 17:54:50.663488 36117 layer_factory.hpp:77] Creating layer relu6
I0801 17:54:50.663529 36117 net.cpp:91] Creating Layer relu6
I0801 17:54:50.663574 36117 net.cpp:425] relu6 <- fc6
I0801 17:54:50.663600 36117 net.cpp:386] relu6 -> fc6 (in-place)
I0801 17:54:50.663630 36117 net.cpp:141] Setting up relu6
I0801 17:54:50.663650 36117 net.cpp:148] Top shape: 10 4096 (40960)
I0801 17:54:50.663663 36117 net.cpp:156] Memory required for data: 1151365240
I0801 17:54:50.663676 36117 layer_factory.hpp:77] Creating layer drop6
I0801 17:54:50.663705 36117 net.cpp:91] Creating Layer drop6
I0801 17:54:50.663722 36117 net.cpp:425] drop6 <- fc6
I0801 17:54:50.663743 36117 net.cpp:386] drop6 -> fc6 (in-place)
I0801 17:54:50.663805 36117 net.cpp:141] Setting up drop6
I0801 17:54:50.663826 36117 net.cpp:148] Top shape: 10 4096 (40960)
I0801 17:54:50.663841 36117 net.cpp:156] Memory required for data: 1151529080
I0801 17:54:50.663854 36117 layer_factory.hpp:77] Creating layer fc7
I0801 17:54:50.663875 36117 net.cpp:91] Creating Layer fc7
I0801 17:54:50.663890 36117 net.cpp:425] fc7 <- fc6
I0801 17:54:50.663911 36117 net.cpp:399] fc7 -> fc7
I0801 17:54:51.290302 36117 net.cpp:141] Setting up fc7
I0801 17:54:51.290374 36117 net.cpp:148] Top shape: 10 4096 (40960)
I0801 17:54:51.290390 36117 net.cpp:156] Memory required for data: 1151692920
I0801 17:54:51.290429 36117 layer_factory.hpp:77] Creating layer relu7
I0801 17:54:51.290457 36117 net.cpp:91] Creating Layer relu7
I0801 17:54:51.290488 36117 net.cpp:425] relu7 <- fc7
I0801 17:54:51.290508 36117 net.cpp:386] relu7 -> fc7 (in-place)
I0801 17:54:51.290530 36117 net.cpp:141] Setting up relu7
I0801 17:54:51.290546 36117 net.cpp:148] Top shape: 10 4096 (40960)
I0801 17:54:51.290561 36117 net.cpp:156] Memory required for data: 1151856760
I0801 17:54:51.290614 36117 layer_factory.hpp:77] Creating layer drop7
I0801 17:54:51.290643 36117 net.cpp:91] Creating Layer drop7
I0801 17:54:51.290664 36117 net.cpp:425] drop7 <- fc7
I0801 17:54:51.290683 36117 net.cpp:386] drop7 -> fc7 (in-place)
I0801 17:54:51.290729 36117 net.cpp:141] Setting up drop7
I0801 17:54:51.290748 36117 net.cpp:148] Top shape: 10 4096 (40960)
I0801 17:54:51.290763 36117 net.cpp:156] Memory required for data: 1152020600
I0801 17:54:51.290778 36117 layer_factory.hpp:77] Creating layer fc7_drop7_0_split
I0801 17:54:51.290798 36117 net.cpp:91] Creating Layer fc7_drop7_0_split
I0801 17:54:51.290818 36117 net.cpp:425] fc7_drop7_0_split <- fc7
I0801 17:54:51.290839 36117 net.cpp:399] fc7_drop7_0_split -> fc7_drop7_0_split_0
I0801 17:54:51.290863 36117 net.cpp:399] fc7_drop7_0_split -> fc7_drop7_0_split_1
I0801 17:54:51.290915 36117 net.cpp:141] Setting up fc7_drop7_0_split
I0801 17:54:51.290936 36117 net.cpp:148] Top shape: 10 4096 (40960)
I0801 17:54:51.290951 36117 net.cpp:148] Top shape: 10 4096 (40960)
I0801 17:54:51.290966 36117 net.cpp:156] Memory required for data: 1152348280
I0801 17:54:51.290978 36117 layer_factory.hpp:77] Creating layer fc8_binary
I0801 17:54:51.291014 36117 net.cpp:91] Creating Layer fc8_binary
I0801 17:54:51.291033 36117 net.cpp:425] fc8_binary <- fc7_drop7_0_split_0
I0801 17:54:51.291051 36117 net.cpp:399] fc8_binary -> fc8_binary
I0801 17:54:51.292906 36117 net.cpp:141] Setting up fc8_binary
I0801 17:54:51.292932 36117 net.cpp:148] Top shape: 10 12 (120)
I0801 17:54:51.292944 36117 net.cpp:156] Memory required for data: 1152348760
I0801 17:54:51.292964 36117 layer_factory.hpp:77] Creating layer fc8_classification
I0801 17:54:51.292985 36117 net.cpp:91] Creating Layer fc8_classification
I0801 17:54:51.293000 36117 net.cpp:425] fc8_classification <- fc7_drop7_0_split_1
I0801 17:54:51.293016 36117 net.cpp:399] fc8_classification -> fc8_classification
I0801 17:54:51.297376 36117 net.cpp:141] Setting up fc8_classification
I0801 17:54:51.297405 36117 net.cpp:148] Top shape: 10 25 (250)
I0801 17:54:51.297426 36117 net.cpp:156] Memory required for data: 1152349760
I0801 17:54:51.297462 36117 layer_factory.hpp:77] Creating layer loss_hashing
I0801 17:54:51.297498 36117 net.cpp:91] Creating Layer loss_hashing
I0801 17:54:51.297518 36117 net.cpp:425] loss_hashing <- fc8_binary
I0801 17:54:51.297544 36117 net.cpp:425] loss_hashing <- label_data_1_split_0
I0801 17:54:51.297574 36117 net.cpp:399] loss_hashing -> loss_hashing
…
I0801 17:54:51.300273 36117 net.cpp:313] The NetState phase (1) differed from the phase (0) specified by a rule in layer data
I0801 17:54:51.300684 36117 net.cpp:49] Initializing net from parameters: 
name: "docomo_VGG16"
state {
  phase: TEST
}
layer {
  name: "data"
  type: "Data"
  top: "data"
  top: "label"
  include {
    phase: TEST
  }
  transform_param {
    mirror: false
    crop_size: 224
    mean_value: 103.939
    mean_value: 116.779
    mean_value: 123.68
  }
  data_param {
    source: "FASHION/fashion_val_lmdb/"
    batch_size: 10
    backend: LMDB
  }
}
layer {
  name: "conv1_1"
  type: "Convolution"
  bottom: "data"
  top: "conv1_1"
  param {
    lr_mult: 1
    decay_mult: 1
  }
  param {
    lr_mult: 2
    decay_mult: 0
  }
  convolution_param {
    num_output: 64
    pad: 1
    kernel_size: 3
    weight_filler {
      type: "gaussian"
      std: 0.01
    }
    bias_filler {
      type: "constant"
      value: 0
    }
  }
}
layer {
  name: "relu1_1"
  type: "ReLU"
  bottom: "conv1_1"
  top: "conv1_1"
}
layer {
  name: "conv1_2"
  type: "Convolution"
  bottom: "conv1_1"
  top: "conv1_2"
  param {
    lr_mult: 1
    decay_mult: 1
  }
  param {
    lr_mult: 2
    decay_mult: 0
  }
  convolution_param {
    num_output: 64
    pad: 1
    kernel_size: 3
    weight_filler {
      type: "gaussian"
      std: 0.01
    }
    bias_filler {
      type: "constant"
      value: 0
    }
  }
}
layer {
  name: "relu1_2"
  type: "ReLU"
  bottom: "conv1_2"
  top: "conv1_2"
}
layer {
  name: "pool1"
  type: "Pooling"
  bottom: "conv1_2"
  top: "pool1"
  pooling_param {
    pool: MAX
    kernel_size: 2
    stride: 2
  }
}
layer {
  name: "conv2_1"
  type: "Convolution"
  bottom: "pool1"
  top: "conv2_1"
  param {
    lr_mult: 1
    decay_mult: 1
  }
  param {
    lr_mult: 2
    decay_mult: 0
  }
  convolution_param {
    num_output: 128
    pad: 1
    kernel_size: 3
    weight_filler {
      type: "gaussian"
      std: 0.01
    }
    bias_filler {
      type: "constant"
      value: 0
    }
  }
}
layer {
  name: "relu2_1"
  type: "ReLU"
  bottom: "conv2_1"
  top: "conv2_1"
}
layer {
  name: "conv2_2"
  type: "Convolution"
  bottom: "conv2_1"
  top: "conv2_2"
  param {
    lr_mult: 1
    decay_mult: 1
  }
  param {
    lr_mult: 2
    decay_mult: 0
  }
  convolution_param {
    num_output: 128
    pad: 1
    kernel_size: 3
    weight_filler {
      type: "gaussian"
      std: 0.01
    }
    bias_filler {
      type: "constant"
      value: 0
    }
  }
}
layer {
  name: "relu2_2"
  type: "ReLU"
  bottom: "conv2_2"
  top: "conv2_2"
}
layer {
  name: "pool2"
  type: "Pooling"
  bottom: "conv2_2"
  top: "pool2"
  pooling_param {
    pool: MAX
    kernel_size: 2
    stride: 2
  }
}
layer {
  name: "conv3_1"
  type: "Convolution"
  bottom: "pool2"
  top: "conv3_1"
  param {
    lr_mult: 1
    decay_mult: 1
  }
  param {
    lr_mult: 2
    decay_mult: 0
  }
  convolution_param {
    num_output: 256
    pad: 1
    kernel_size: 3
    weight_filler {
      type: "gaussian"
      std: 0.01
    }
    bias_filler {
      type: "constant"
      value: 0
    }
  }
}
layer {
  name: "relu3_1"
  type: "ReLU"
  bottom: "conv3_1"
  top: "conv3_1"
}
layer {
  name: "conv3_2"
  type: "Convolution"
  bottom: "conv3_1"
  top: "conv3_2"
  param {
    lr_mult: 1
    decay_mult: 1
  }
  param {
    lr_mult: 2
    decay_mult: 0
  }
  convolution_param {
    num_output: 256
    pad: 1
    kernel_size: 3
    weight_filler {
      type: "gaussian"
      std: 0.01
    }
    bias_filler {
      type: "constant"
      value: 0
    }
  }
}
layer {
  name: "relu3_2"
  type: "ReLU"
  bottom: "conv3_2"
  top: "conv3_2"
}
layer {
  name: "conv3_3"
  type: "Convolution"
  bottom: "conv3_2"
  top: "conv3_3"
  param {
    lr_mult: 1
    decay_mult: 1
  }
  param {
    lr_mult: 2
    decay_mult: 0
  }
  convolution_param {
    num_output: 256
    pad: 1
    kernel_size: 3
    weight_filler {
      type: "gaussian"
      std: 0.01
    }
    bias_filler {
      type: "constant"
      value: 0
    }
  }
}
layer {
  name: "relu3_3"
  type: "ReLU"
  bottom: "conv3_3"
  top: "conv3_3"
}
layer {
  name: "pool3"
  type: "Pooling"
  bottom: "conv3_3"
  top: "pool3"
  pooling_param {
    pool: MAX
    kernel_size: 2
    stride: 2
  }
}
layer {
  name: "conv4_1"
  type: "Convolution"
  bottom: "pool3"
  top: "conv4_1"
  param {
    lr_mult: 1
    decay_mult: 1
  }
  param {
    lr_mult: 2
    decay_mult: 0
  }
  convolution_param {
    num_output: 512
    pad: 1
    kernel_size: 3
    weight_filler {
      type: "gaussian"
      std: 0.01
    }
    bias_filler {
      type: "constant"
      value: 0
    }
  }
}
layer {
  name: "relu4_1"
  type: "ReLU"
  bottom: "conv4_1"
  top: "conv4_1"
}
layer {
  name: "conv4_2"
  type: "Convolution"
  bottom: "conv4_1"
  top: "conv4_2"
  param {
    lr_mult: 1
    decay_mult: 1
  }
  param {
    lr_mult: 2
    decay_mult: 0
  }
  convolution_param {
    num_output: 512
    pad: 1
    kernel_size: 3
    weight_filler {
      type: "gaussian"
      std: 0.01
    }
    bias_filler {
      type: "constant"
      value: 0
    }
  }
}
layer {
  name: "relu4_2"
  type: "ReLU"
  bottom: "conv4_2"
  top: "conv4_2"
}
layer {
  name: "conv4_3"
  type: "Convolution"
  bottom: "conv4_2"
  top: "conv4_3"
  param {
    lr_mult: 1
    decay_mult: 1
  }
  param {
    lr_mult: 2
    decay_mult: 0
  }
  convolution_param {
    num_output: 512
    pad: 1
    kernel_size: 3
    weight_filler {
      type: "gaussian"
      std: 0.01
    }
    bias_filler {
      type: "constant"
      value: 0
    }
  }
}
layer {
  name: "relu4_3"
  type: "ReLU"
  bottom: "conv4_3"
  top: "conv4_3"
}
layer {
  name: "pool4"
  type: "Pooling"
  bottom: "conv4_3"
  top: "pool4"
  pooling_param {
    pool: MAX
    kernel_size: 2
    stride: 2
  }
}
layer {
  name: "conv5_1"
  type: "Convolution"
  bottom: "pool4"
  top: "conv5_1"
  param {
    lr_mult: 1
    decay_mult: 1
  }
  param {
    lr_mult: 2
    decay_mult: 0
  }
  convolution_param {
    num_output: 512
    pad: 1
    kernel_size: 3
    weight_filler {
      type: "gaussian"
      std: 0.01
    }
    bias_filler {
      type: "constant"
      value: 0
    }
  }
}
layer {
  name: "relu5_1"
  type: "ReLU"
  bottom: "conv5_1"
  top: "conv5_1"
}
layer {
  name: "conv5_2"
  type: "Convolution"
  bottom: "conv5_1"
  top: "conv5_2"
  param {
    lr_mult: 1
    decay_mult: 1
  }
  param {
    lr_mult: 2
    decay_mult: 0
  }
  convolution_param {
    num_output: 512
    pad: 1
    kernel_size: 3
    weight_filler {
      type: "gaussian"
      std: 0.01
    }
    bias_filler {
      type: "constant"
      value: 0
    }
  }
}
layer {
  name: "relu5_2"
  type: "ReLU"
  bottom: "conv5_2"
  top: "conv5_2"
}
layer {
  name: "conv5_3"
  type: "Convolution"
  bottom: "conv5_2"
  top: "conv5_3"
  param {
    lr_mult: 1
    decay_mult: 1
  }
  param {
    lr_mult: 2
    decay_mult: 0
  }
  convolution_param {
    num_output: 512
    pad: 1
    kernel_size: 3
    weight_filler {
      type: "gaussian"
      std: 0.01
    }
    bias_filler {
      type: "constant"
      value: 0
    }
  }
}
layer {
  name: "relu5_3"
  type: "ReLU"
  bottom: "conv5_3"
  top: "conv5_3"
}
layer {
  name: "pool5"
  type: "Pooling"
  bottom: "conv5_3"
  top: "pool5"
  pooling_param {
    pool: MAX
    kernel_size: 2
    stride: 2
  }
}
layer {
  name: "fc6"
  type: "InnerProduct"
  bottom: "pool5"
  top: "fc6"
  param {
    lr_mult: 1
    decay_mult: 1
  }
  param {
    lr_mult: 2
    decay_mult: 0
  }
  inner_product_param {
    num_output: 4096
    weight_filler {
      type: "gaussian"
      std: 0.005
    }
    bias_filler {
      type: "constant"
      value: 0.1
    }
  }
}
layer {
  name: "relu6"
  type: "ReLU"
  bottom: "fc6"
  top: "fc6"
}
layer {
  name: "drop6"
  type: "Dropout"
  bottom: "fc6"
  top: "fc6"
  dropout_param {
    dropout_ratio: 0.5
  }
}
layer {
  name: "fc7"
  type: "InnerProduct"
  bottom: "fc6"
  top: "fc7"
  param {
    lr_mult: 1
    decay_mult: 1
  }
  param {
    lr_mult: 2
    decay_mult: 0
  }
  inner_product_param {
    num_output: 4096
    weight_filler {
      type: "gaussian"
      std: 0.005
    }
    bias_filler {
      type: "constant"
      value: 0.1
    }
  }
}
layer {
  name: "relu7"
  type: "ReLU"
  bottom: "fc7"
  top: "fc7"
}
layer {
  name: "drop7"
  type: "Dropout"
  bottom: "fc7"
  top: "fc7"
  dropout_param {
    dropout_ratio: 0.5
  }
}
layer {
  name: "fc8_binary"
  type: "InnerProduct"
  bottom: "fc7"
  top: "fc8_binary"
  param {
    lr_mult: 10
    decay_mult: 1
  }
  param {
    lr_mult: 20
    decay_mult: 0
  }
  inner_product_param {
    num_output: 12
    weight_filler {
      type: "gaussian"
      std: 0.005
    }
    bias_filler {
      type: "constant"
      value: 0.1
    }
  }
}
layer {
  name: "fc8_classification"
  type: "InnerProduct"
  bottom: "fc7"
  top: "fc8_classification"
  param {
    lr_mult: 10
    decay_mult: 1
  }
  param {
    lr_mult: 20
    decay_mult: 0
  }
  inner_product_param {
    num_output: 25
    weight_filler {
      type: "gaussian"
      std: 0.05
    }
    bias_filler {
      type: "constant"
      value: 0.1
    }
  }
}
layer {
  name: "accuracy_at_1"
  type: "Accuracy"
  bottom: "fc8_classification"
  bottom: "label"
  top: "accuracy_at_1"
  include {
    phase: TEST
  }
  accuracy_param {
    top_k: 1
  }
}
layer {
  name: "accuracy_at_5"
  type: "Accuracy"
  bottom: "fc8_classification"
  bottom: "label"
  top: "accuracy_at_5"
  include {
    phase: TEST
  }
  accuracy_param {
    top_k: 5
  }
}
layer {
  name: "loss_hashing"
  type: "HashingLoss"
  bottom: "fc8_binary"
  bottom: "label"
  top: "loss_hashing"
  loss_weight: 0.1
  hashing_loss_param {
    bi_margin: 24
    tradeoff: 0.01
  }
}
layer {
  name: "loss_classification"
  type: "SoftmaxWithLoss"
  bottom: "fc8_classification"
  bottom: "label"
  top: "loss_classification"
}
I0801 17:54:51.303182 36117 layer_factory.hpp:77] Creating layer data
I0801 17:54:51.303305 36117 net.cpp:91] Creating Layer data
I0801 17:54:51.303346 36117 net.cpp:399] data -> data
I0801 17:54:51.303375 36117 net.cpp:399] data -> label
I0801 17:54:51.304525 36124 db_lmdb.cpp:38] Opened lmdb FASHION/fashion_val_lmdb/
I0801 17:54:51.305112 36117 data_layer.cpp:41] output data size: 10,3,224,224
I0801 17:54:51.316998 36117 net.cpp:141] Setting up data
I0801 17:54:51.317075 36117 net.cpp:148] Top shape: 10 3 224 224 (1505280)
I0801 17:54:51.317095 36117 net.cpp:148] Top shape: 10 1 1 1 (10)
I0801 17:54:51.317111 36117 net.cpp:156] Memory required for data: 6021160
I0801 17:54:51.317129 36117 layer_factory.hpp:77] Creating layer label_data_1_split
I0801 17:54:51.317160 36117 net.cpp:91] Creating Layer label_data_1_split
I0801 17:54:51.317181 36117 net.cpp:425] label_data_1_split <- label
I0801 17:54:51.317209 36117 net.cpp:399] label_data_1_split -> label_data_1_split_0
I0801 17:54:51.317242 36117 net.cpp:399] label_data_1_split -> label_data_1_split_1
I0801 17:54:51.317266 36117 net.cpp:399] label_data_1_split -> label_data_1_split_2
I0801 17:54:51.317286 36117 net.cpp:399] label_data_1_split -> label_data_1_split_3
I0801 17:54:51.317384 36117 net.cpp:141] Setting up label_data_1_split
I0801 17:54:51.317409 36117 net.cpp:148] Top shape: 10 1 1 1 (10)
I0801 17:54:51.317427 36117 net.cpp:148] Top shape: 10 1 1 1 (10)
I0801 17:54:51.317445 36117 net.cpp:148] Top shape: 10 1 1 1 (10)
I0801 17:54:51.317462 36117 net.cpp:148] Top shape: 10 1 1 1 (10)
I0801 17:54:51.317477 36117 net.cpp:156] Memory required for data: 6021320
I0801 17:54:51.317497 36117 layer_factory.hpp:77] Creating layer conv1_1
I0801 17:54:51.317551 36117 net.cpp:91] Creating Layer conv1_1
I0801 17:54:51.317572 36117 net.cpp:425] conv1_1 <- data
I0801 17:54:51.317595 36117 net.cpp:399] conv1_1 -> conv1_1
I0801 17:54:51.318033 36117 net.cpp:141] Setting up conv1_1
I0801 17:54:51.318068 36117 net.cpp:148] Top shape: 10 64 224 224 (32112640)
I0801 17:54:51.318084 36117 net.cpp:156] Memory required for data: 134471880
I0801 17:54:51.318115 36117 layer_factory.hpp:77] Creating layer relu1_1
I0801 17:54:51.318136 36117 net.cpp:91] Creating Layer relu1_1
I0801 17:54:51.318151 36117 net.cpp:425] relu1_1 <- conv1_1
I0801 17:54:51.318168 36117 net.cpp:386] relu1_1 -> conv1_1 (in-place)
I0801 17:54:51.318187 36117 net.cpp:141] Setting up relu1_1
I0801 17:54:51.318208 36117 net.cpp:148] Top shape: 10 64 224 224 (32112640)
I0801 17:54:51.318222 36117 net.cpp:156] Memory required for data: 262922440
I0801 17:54:51.318236 36117 layer_factory.hpp:77] Creating layer conv1_2
I0801 17:54:51.318265 36117 net.cpp:91] Creating Layer conv1_2
I0801 17:54:51.318284 36117 net.cpp:425] conv1_2 <- conv1_1
I0801 17:54:51.318305 36117 net.cpp:399] conv1_2 -> conv1_2
I0801 17:54:51.321063 36117 net.cpp:141] Setting up conv1_2
I0801 17:54:51.321102 36117 net.cpp:148] Top shape: 10 64 224 224 (32112640)
I0801 17:54:51.321123 36117 net.cpp:156] Memory required for data: 391373000
I0801 17:54:51.321147 36117 layer_factory.hpp:77] Creating layer relu1_2
I0801 17:54:51.321167 36117 net.cpp:91] Creating Layer relu1_2
I0801 17:54:51.321183 36117 net.cpp:425] relu1_2 <- conv1_2
I0801 17:54:51.321261 36117 net.cpp:386] relu1_2 -> conv1_2 (in-place)
I0801 17:54:51.321285 36117 net.cpp:141] Setting up relu1_2
I0801 17:54:51.321302 36117 net.cpp:148] Top shape: 10 64 224 224 (32112640)
I0801 17:54:51.321321 36117 net.cpp:156] Memory required for data: 519823560
I0801 17:54:51.321336 36117 layer_factory.hpp:77] Creating layer pool1
I0801 17:54:51.321357 36117 net.cpp:91] Creating Layer pool1
I0801 17:54:51.321372 36117 net.cpp:425] pool1 <- conv1_2
I0801 17:54:51.321388 36117 net.cpp:399] pool1 -> pool1
I0801 17:54:51.321454 36117 net.cpp:141] Setting up pool1
I0801 17:54:51.321477 36117 net.cpp:148] Top shape: 10 64 112 112 (8028160)
I0801 17:54:51.321492 36117 net.cpp:156] Memory required for data: 551936200
I0801 17:54:51.321506 36117 layer_factory.hpp:77] Creating layer conv2_1
I0801 17:54:51.321530 36117 net.cpp:91] Creating Layer conv2_1
I0801 17:54:51.321561 36117 net.cpp:425] conv2_1 <- pool1
I0801 17:54:51.321588 36117 net.cpp:399] conv2_1 -> conv2_1
I0801 17:54:51.324692 36117 net.cpp:141] Setting up conv2_1
I0801 17:54:51.324731 36117 net.cpp:148] Top shape: 10 128 112 112 (16056320)
I0801 17:54:51.324746 36117 net.cpp:156] Memory required for data: 616161480
I0801 17:54:51.324770 36117 layer_factory.hpp:77] Creating layer relu2_1
I0801 17:54:51.324790 36117 net.cpp:91] Creating Layer relu2_1
I0801 17:54:51.324805 36117 net.cpp:425] relu2_1 <- conv2_1
I0801 17:54:51.324822 36117 net.cpp:386] relu2_1 -> conv2_1 (in-place)
I0801 17:54:51.324841 36117 net.cpp:141] Setting up relu2_1
I0801 17:54:51.324861 36117 net.cpp:148] Top shape: 10 128 112 112 (16056320)
I0801 17:54:51.324877 36117 net.cpp:156] Memory required for data: 680386760
I0801 17:54:51.324897 36117 layer_factory.hpp:77] Creating layer conv2_2
I0801 17:54:51.324934 36117 net.cpp:91] Creating Layer conv2_2
I0801 17:54:51.324954 36117 net.cpp:425] conv2_2 <- conv2_1
I0801 17:54:51.324977 36117 net.cpp:399] conv2_2 -> conv2_2
I0801 17:54:51.331465 36117 net.cpp:141] Setting up conv2_2
I0801 17:54:51.331498 36117 net.cpp:148] Top shape: 10 128 112 112 (16056320)
I0801 17:54:51.331518 36117 net.cpp:156] Memory required for data: 744612040
I0801 17:54:51.331537 36117 layer_factory.hpp:77] Creating layer relu2_2
I0801 17:54:51.331557 36117 net.cpp:91] Creating Layer relu2_2
I0801 17:54:51.331571 36117 net.cpp:425] relu2_2 <- conv2_2
I0801 17:54:51.331593 36117 net.cpp:386] relu2_2 -> conv2_2 (in-place)
I0801 17:54:51.331616 36117 net.cpp:141] Setting up relu2_2
I0801 17:54:51.331650 36117 net.cpp:148] Top shape: 10 128 112 112 (16056320)
I0801 17:54:51.331670 36117 net.cpp:156] Memory required for data: 808837320
I0801 17:54:51.331687 36117 layer_factory.hpp:77] Creating layer pool2
I0801 17:54:51.331706 36117 net.cpp:91] Creating Layer pool2
I0801 17:54:51.331719 36117 net.cpp:425] pool2 <- conv2_2
I0801 17:54:51.331735 36117 net.cpp:399] pool2 -> pool2
I0801 17:54:51.331797 36117 net.cpp:141] Setting up pool2
I0801 17:54:51.331821 36117 net.cpp:148] Top shape: 10 128 56 56 (4014080)
I0801 17:54:51.331836 36117 net.cpp:156] Memory required for data: 824893640
I0801 17:54:51.331851 36117 layer_factory.hpp:77] Creating layer conv3_1
I0801 17:54:51.331874 36117 net.cpp:91] Creating Layer conv3_1
I0801 17:54:51.331897 36117 net.cpp:425] conv3_1 <- pool2
I0801 17:54:51.331923 36117 net.cpp:399] conv3_1 -> conv3_1
I0801 17:54:51.344012 36117 net.cpp:141] Setting up conv3_1
I0801 17:54:51.344049 36117 net.cpp:148] Top shape: 10 256 56 56 (8028160)
I0801 17:54:51.344071 36117 net.cpp:156] Memory required for data: 857006280
I0801 17:54:51.344096 36117 layer_factory.hpp:77] Creating layer relu3_1
I0801 17:54:51.344120 36117 net.cpp:91] Creating Layer relu3_1
I0801 17:54:51.344138 36117 net.cpp:425] relu3_1 <- conv3_1
I0801 17:54:51.344154 36117 net.cpp:386] relu3_1 -> conv3_1 (in-place)
I0801 17:54:51.344173 36117 net.cpp:141] Setting up relu3_1
I0801 17:54:51.344190 36117 net.cpp:148] Top shape: 10 256 56 56 (8028160)
I0801 17:54:51.344204 36117 net.cpp:156] Memory required for data: 889118920
I0801 17:54:51.344221 36117 layer_factory.hpp:77] Creating layer conv3_2
I0801 17:54:51.344290 36117 net.cpp:91] Creating Layer conv3_2
I0801 17:54:51.344310 36117 net.cpp:425] conv3_2 <- conv3_1
I0801 17:54:51.344327 36117 net.cpp:399] conv3_2 -> conv3_2
I0801 17:54:51.366077 36117 net.cpp:141] Setting up conv3_2
I0801 17:54:51.366106 36117 net.cpp:148] Top shape: 10 256 56 56 (8028160)
I0801 17:54:51.366123 36117 net.cpp:156] Memory required for data: 921231560
I0801 17:54:51.366140 36117 layer_factory.hpp:77] Creating layer relu3_2
I0801 17:54:51.366163 36117 net.cpp:91] Creating Layer relu3_2
I0801 17:54:51.366178 36117 net.cpp:425] relu3_2 <- conv3_2
I0801 17:54:51.366197 36117 net.cpp:386] relu3_2 -> conv3_2 (in-place)
I0801 17:54:51.366215 36117 net.cpp:141] Setting up relu3_2
I0801 17:54:51.366231 36117 net.cpp:148] Top shape: 10 256 56 56 (8028160)
I0801 17:54:51.366245 36117 net.cpp:156] Memory required for data: 953344200
I0801 17:54:51.366257 36117 layer_factory.hpp:77] Creating layer conv3_3
I0801 17:54:51.366282 36117 net.cpp:91] Creating Layer conv3_3
I0801 17:54:51.366300 36117 net.cpp:425] conv3_3 <- conv3_2
I0801 17:54:51.366328 36117 net.cpp:399] conv3_3 -> conv3_3
I0801 17:54:51.388001 36117 net.cpp:141] Setting up conv3_3
I0801 17:54:51.388032 36117 net.cpp:148] Top shape: 10 256 56 56 (8028160)
I0801 17:54:51.388051 36117 net.cpp:156] Memory required for data: 985456840
I0801 17:54:51.388069 36117 layer_factory.hpp:77] Creating layer relu3_3
I0801 17:54:51.388089 36117 net.cpp:91] Creating Layer relu3_3
I0801 17:54:51.388104 36117 net.cpp:425] relu3_3 <- conv3_3
I0801 17:54:51.388123 36117 net.cpp:386] relu3_3 -> conv3_3 (in-place)
I0801 17:54:51.388139 36117 net.cpp:141] Setting up relu3_3
I0801 17:54:51.388155 36117 net.cpp:148] Top shape: 10 256 56 56 (8028160)
I0801 17:54:51.388176 36117 net.cpp:156] Memory required for data: 1017569480
I0801 17:54:51.388190 36117 layer_factory.hpp:77] Creating layer pool3
I0801 17:54:51.388206 36117 net.cpp:91] Creating Layer pool3
I0801 17:54:51.388221 36117 net.cpp:425] pool3 <- conv3_3
I0801 17:54:51.388239 36117 net.cpp:399] pool3 -> pool3
I0801 17:54:51.388295 36117 net.cpp:141] Setting up pool3
I0801 17:54:51.388321 36117 net.cpp:148] Top shape: 10 256 28 28 (2007040)
I0801 17:54:51.388336 36117 net.cpp:156] Memory required for data: 1025597640
I0801 17:54:51.388350 36117 layer_factory.hpp:77] Creating layer conv4_1
I0801 17:54:51.388372 36117 net.cpp:91] Creating Layer conv4_1
I0801 17:54:51.388387 36117 net.cpp:425] conv4_1 <- pool3
I0801 17:54:51.388411 36117 net.cpp:399] conv4_1 -> conv4_1
I0801 17:54:51.431951 36117 net.cpp:141] Setting up conv4_1
I0801 17:54:51.431994 36117 net.cpp:148] Top shape: 10 512 28 28 (4014080)
I0801 17:54:51.432018 36117 net.cpp:156] Memory required for data: 1041653960
I0801 17:54:51.432044 36117 layer_factory.hpp:77] Creating layer relu4_1
I0801 17:54:51.432077 36117 net.cpp:91] Creating Layer relu4_1
I0801 17:54:51.432098 36117 net.cpp:425] relu4_1 <- conv4_1
I0801 17:54:51.432126 36117 net.cpp:386] relu4_1 -> conv4_1 (in-place)
I0801 17:54:51.432147 36117 net.cpp:141] Setting up relu4_1
I0801 17:54:51.432164 36117 net.cpp:148] Top shape: 10 512 28 28 (4014080)
I0801 17:54:51.432178 36117 net.cpp:156] Memory required for data: 1057710280
I0801 17:54:51.432193 36117 layer_factory.hpp:77] Creating layer conv4_2
I0801 17:54:51.432221 36117 net.cpp:91] Creating Layer conv4_2
I0801 17:54:51.432236 36117 net.cpp:425] conv4_2 <- conv4_1
I0801 17:54:51.432255 36117 net.cpp:399] conv4_2 -> conv4_2
I0801 17:54:51.518064 36117 net.cpp:141] Setting up conv4_2
I0801 17:54:51.518102 36117 net.cpp:148] Top shape: 10 512 28 28 (4014080)
I0801 17:54:51.518122 36117 net.cpp:156] Memory required for data: 1073766600
I0801 17:54:51.518153 36117 layer_factory.hpp:77] Creating layer relu4_2
I0801 17:54:51.518177 36117 net.cpp:91] Creating Layer relu4_2
I0801 17:54:51.518193 36117 net.cpp:425] relu4_2 <- conv4_2
I0801 17:54:51.518218 36117 net.cpp:386] relu4_2 -> conv4_2 (in-place)
I0801 17:54:51.518239 36117 net.cpp:141] Setting up relu4_2
I0801 17:54:51.518254 36117 net.cpp:148] Top shape: 10 512 28 28 (4014080)
I0801 17:54:51.518301 36117 net.cpp:156] Memory required for data: 1089822920
I0801 17:54:51.518316 36117 layer_factory.hpp:77] Creating layer conv4_3
I0801 17:54:51.518342 36117 net.cpp:91] Creating Layer conv4_3
I0801 17:54:51.518357 36117 net.cpp:425] conv4_3 <- conv4_2
I0801 17:54:51.518375 36117 net.cpp:399] conv4_3 -> conv4_3
I0801 17:54:51.604117 36117 net.cpp:141] Setting up conv4_3
I0801 17:54:51.604158 36117 net.cpp:148] Top shape: 10 512 28 28 (4014080)
I0801 17:54:51.604182 36117 net.cpp:156] Memory required for data: 1105879240
I0801 17:54:51.604202 36117 layer_factory.hpp:77] Creating layer relu4_3
I0801 17:54:51.604220 36117 net.cpp:91] Creating Layer relu4_3
I0801 17:54:51.604235 36117 net.cpp:425] relu4_3 <- conv4_3
I0801 17:54:51.604252 36117 net.cpp:386] relu4_3 -> conv4_3 (in-place)
I0801 17:54:51.604280 36117 net.cpp:141] Setting up relu4_3
I0801 17:54:51.604297 36117 net.cpp:148] Top shape: 10 512 28 28 (4014080)
I0801 17:54:51.604310 36117 net.cpp:156] Memory required for data: 1121935560
I0801 17:54:51.604323 36117 layer_factory.hpp:77] Creating layer pool4
I0801 17:54:51.604344 36117 net.cpp:91] Creating Layer pool4
I0801 17:54:51.604360 36117 net.cpp:425] pool4 <- conv4_3
I0801 17:54:51.604378 36117 net.cpp:399] pool4 -> pool4
I0801 17:54:51.604440 36117 net.cpp:141] Setting up pool4
I0801 17:54:51.604463 36117 net.cpp:148] Top shape: 10 512 14 14 (1003520)
I0801 17:54:51.604477 36117 net.cpp:156] Memory required for data: 1125949640
I0801 17:54:51.604491 36117 layer_factory.hpp:77] Creating layer conv5_1
I0801 17:54:51.604521 36117 net.cpp:91] Creating Layer conv5_1
I0801 17:54:51.604537 36117 net.cpp:425] conv5_1 <- pool4
I0801 17:54:51.604554 36117 net.cpp:399] conv5_1 -> conv5_1
I0801 17:54:51.691057 36117 net.cpp:141] Setting up conv5_1
I0801 17:54:51.691102 36117 net.cpp:148] Top shape: 10 512 14 14 (1003520)
I0801 17:54:51.691125 36117 net.cpp:156] Memory required for data: 1129963720
I0801 17:54:51.691145 36117 layer_factory.hpp:77] Creating layer relu5_1
I0801 17:54:51.691166 36117 net.cpp:91] Creating Layer relu5_1
I0801 17:54:51.691182 36117 net.cpp:425] relu5_1 <- conv5_1
I0801 17:54:51.691202 36117 net.cpp:386] relu5_1 -> conv5_1 (in-place)
I0801 17:54:51.691227 36117 net.cpp:141] Setting up relu5_1
I0801 17:54:51.691244 36117 net.cpp:148] Top shape: 10 512 14 14 (1003520)
I0801 17:54:51.691259 36117 net.cpp:156] Memory required for data: 1133977800
I0801 17:54:51.691275 36117 layer_factory.hpp:77] Creating layer conv5_2
I0801 17:54:51.691303 36117 net.cpp:91] Creating Layer conv5_2
I0801 17:54:51.691320 36117 net.cpp:425] conv5_2 <- conv5_1
I0801 17:54:51.691339 36117 net.cpp:399] conv5_2 -> conv5_2
I0801 17:54:51.780299 36117 net.cpp:141] Setting up conv5_2
I0801 17:54:51.780341 36117 net.cpp:148] Top shape: 10 512 14 14 (1003520)
I0801 17:54:51.780362 36117 net.cpp:156] Memory required for data: 1137991880
I0801 17:54:51.780381 36117 layer_factory.hpp:77] Creating layer relu5_2
I0801 17:54:51.780400 36117 net.cpp:91] Creating Layer relu5_2
I0801 17:54:51.780416 36117 net.cpp:425] relu5_2 <- conv5_2
I0801 17:54:51.780432 36117 net.cpp:386] relu5_2 -> conv5_2 (in-place)
I0801 17:54:51.780460 36117 net.cpp:141] Setting up relu5_2
I0801 17:54:51.780478 36117 net.cpp:148] Top shape: 10 512 14 14 (1003520)
I0801 17:54:51.780491 36117 net.cpp:156] Memory required for data: 1142005960
I0801 17:54:51.780505 36117 layer_factory.hpp:77] Creating layer conv5_3
I0801 17:54:51.780532 36117 net.cpp:91] Creating Layer conv5_3
I0801 17:54:51.780549 36117 net.cpp:425] conv5_3 <- conv5_2
I0801 17:54:51.780576 36117 net.cpp:399] conv5_3 -> conv5_3
I0801 17:54:51.869772 36117 net.cpp:141] Setting up conv5_3
I0801 17:54:51.869812 36117 net.cpp:148] Top shape: 10 512 14 14 (1003520)
I0801 17:54:51.869834 36117 net.cpp:156] Memory required for data: 1146020040
I0801 17:54:51.869853 36117 layer_factory.hpp:77] Creating layer relu5_3
I0801 17:54:51.869874 36117 net.cpp:91] Creating Layer relu5_3
I0801 17:54:51.869887 36117 net.cpp:425] relu5_3 <- conv5_3
I0801 17:54:51.869907 36117 net.cpp:386] relu5_3 -> conv5_3 (in-place)
I0801 17:54:51.869973 36117 net.cpp:141] Setting up relu5_3
I0801 17:54:51.869993 36117 net.cpp:148] Top shape: 10 512 14 14 (1003520)
I0801 17:54:51.870008 36117 net.cpp:156] Memory required for data: 1150034120
I0801 17:54:51.870025 36117 layer_factory.hpp:77] Creating layer pool5
I0801 17:54:51.870054 36117 net.cpp:91] Creating Layer pool5
I0801 17:54:51.870079 36117 net.cpp:425] pool5 <- conv5_3
I0801 17:54:51.870100 36117 net.cpp:399] pool5 -> pool5
I0801 17:54:51.870163 36117 net.cpp:141] Setting up pool5
I0801 17:54:51.870187 36117 net.cpp:148] Top shape: 10 512 7 7 (250880)
I0801 17:54:51.870203 36117 net.cpp:156] Memory required for data: 1151037640
I0801 17:54:51.870218 36117 layer_factory.hpp:77] Creating layer fc6
I0801 17:54:51.870244 36117 net.cpp:91] Creating Layer fc6
I0801 17:54:51.870260 36117 net.cpp:425] fc6 <- pool5
I0801 17:54:51.870280 36117 net.cpp:399] fc6 -> fc6
I0801 17:54:55.669198 36117 net.cpp:141] Setting up fc6
I0801 17:54:55.669283 36117 net.cpp:148] Top shape: 10 4096 (40960)
I0801 17:54:55.669301 36117 net.cpp:156] Memory required for data: 1151201480
I0801 17:54:55.669333 36117 layer_factory.hpp:77] Creating layer relu6
I0801 17:54:55.669373 36117 net.cpp:91] Creating Layer relu6
I0801 17:54:55.669399 36117 net.cpp:425] relu6 <- fc6
I0801 17:54:55.669421 36117 net.cpp:386] relu6 -> fc6 (in-place)
I0801 17:54:55.669456 36117 net.cpp:141] Setting up relu6
I0801 17:54:55.669473 36117 net.cpp:148] Top shape: 10 4096 (40960)
I0801 17:54:55.669487 36117 net.cpp:156] Memory required for data: 1151365320
I0801 17:54:55.669500 36117 layer_factory.hpp:77] Creating layer drop6
I0801 17:54:55.669522 36117 net.cpp:91] Creating Layer drop6
I0801 17:54:55.669536 36117 net.cpp:425] drop6 <- fc6
I0801 17:54:55.669555 36117 net.cpp:386] drop6 -> fc6 (in-place)
I0801 17:54:55.669607 36117 net.cpp:141] Setting up drop6
I0801 17:54:55.669630 36117 net.cpp:148] Top shape: 10 4096 (40960)
I0801 17:54:55.669643 36117 net.cpp:156] Memory required for data: 1151529160
I0801 17:54:55.669658 36117 layer_factory.hpp:77] Creating layer fc7
I0801 17:54:55.669683 36117 net.cpp:91] Creating Layer fc7
I0801 17:54:55.669699 36117 net.cpp:425] fc7 <- fc6
I0801 17:54:55.669718 36117 net.cpp:399] fc7 -> fc7
I0801 17:54:56.294665 36117 net.cpp:141] Setting up fc7
I0801 17:54:56.294740 36117 net.cpp:148] Top shape: 10 4096 (40960)
I0801 17:54:56.294756 36117 net.cpp:156] Memory required for data: 1151693000
I0801 17:54:56.294780 36117 layer_factory.hpp:77] Creating layer relu7
I0801 17:54:56.294807 36117 net.cpp:91] Creating Layer relu7
I0801 17:54:56.294831 36117 net.cpp:425] relu7 <- fc7
I0801 17:54:56.294850 36117 net.cpp:386] relu7 -> fc7 (in-place)
I0801 17:54:56.294874 36117 net.cpp:141] Setting up relu7
I0801 17:54:56.294890 36117 net.cpp:148] Top shape: 10 4096 (40960)
I0801 17:54:56.294904 36117 net.cpp:156] Memory required for data: 1151856840
I0801 17:54:56.294920 36117 layer_factory.hpp:77] Creating layer drop7
I0801 17:54:56.294940 36117 net.cpp:91] Creating Layer drop7
I0801 17:54:56.294955 36117 net.cpp:425] drop7 <- fc7
I0801 17:54:56.294973 36117 net.cpp:386] drop7 -> fc7 (in-place)
I0801 17:54:56.295019 36117 net.cpp:141] Setting up drop7
I0801 17:54:56.295045 36117 net.cpp:148] Top shape: 10 4096 (40960)
I0801 17:54:56.295060 36117 net.cpp:156] Memory required for data: 1152020680
I0801 17:54:56.295074 36117 layer_factory.hpp:77] Creating layer fc7_drop7_0_split
I0801 17:54:56.295094 36117 net.cpp:91] Creating Layer fc7_drop7_0_split
I0801 17:54:56.295109 36117 net.cpp:425] fc7_drop7_0_split <- fc7
I0801 17:54:56.295125 36117 net.cpp:399] fc7_drop7_0_split -> fc7_drop7_0_split_0
I0801 17:54:56.295143 36117 net.cpp:399] fc7_drop7_0_split -> fc7_drop7_0_split_1
I0801 17:54:56.295198 36117 net.cpp:141] Setting up fc7_drop7_0_split
I0801 17:54:56.295220 36117 net.cpp:148] Top shape: 10 4096 (40960)
I0801 17:54:56.295235 36117 net.cpp:148] Top shape: 10 4096 (40960)
I0801 17:54:56.295249 36117 net.cpp:156] Memory required for data: 1152348360
I0801 17:54:56.295485 36117 layer_factory.hpp:77] Creating layer fc8_binary
I0801 17:54:56.295531 36117 net.cpp:91] Creating Layer fc8_binary
I0801 17:54:56.295552 36117 net.cpp:425] fc8_binary <- fc7_drop7_0_split_0
I0801 17:54:56.295583 36117 net.cpp:399] fc8_binary -> fc8_binary
I0801 17:54:56.297751 36117 net.cpp:141] Setting up fc8_binary
I0801 17:54:56.297782 36117 net.cpp:148] Top shape: 10 12 (120)
I0801 17:54:56.297797 36117 net.cpp:156] Memory required for data: 1152348840
I0801 17:54:56.297818 36117 layer_factory.hpp:77] Creating layer fc8_classification
I0801 17:54:56.297847 36117 net.cpp:91] Creating Layer fc8_classification
I0801 17:54:56.297863 36117 net.cpp:425] fc8_classification <- fc7_drop7_0_split_1
I0801 17:54:56.297881 36117 net.cpp:399] fc8_classification -> fc8_classification
I0801 17:54:56.301899 36117 net.cpp:141] Setting up fc8_classification
I0801 17:54:56.301939 36117 net.cpp:148] Top shape: 10 25 (250)
I0801 17:54:56.301954 36117 net.cpp:156] Memory required for data: 1152349840
I0801 17:54:56.302002 36117 layer_factory.hpp:77] Creating layer fc8_classification_fc8_classification_0_split
I0801 17:54:56.302031 36117 net.cpp:91] Creating Layer fc8_classification_fc8_classification_0_split
I0801 17:54:56.302047 36117 net.cpp:425] fc8_classification_fc8_classification_0_split <- fc8_classification
I0801 17:54:56.302064 36117 net.cpp:399] fc8_classification_fc8_classification_0_split -> fc8_classification_fc8_classification_0_split_0
I0801 17:54:56.302084 36117 net.cpp:399] fc8_classification_fc8_classification_0_split -> fc8_classification_fc8_classification_0_split_1
I0801 17:54:56.302104 36117 net.cpp:399] fc8_classification_fc8_classification_0_split -> fc8_classification_fc8_classification_0_split_2
I0801 17:54:56.302201 36117 net.cpp:141] Setting up fc8_classification_fc8_classification_0_split
I0801 17:54:56.302225 36117 net.cpp:148] Top shape: 10 25 (250)
I0801 17:54:56.302242 36117 net.cpp:148] Top shape: 10 25 (250)
I0801 17:54:56.302258 36117 net.cpp:148] Top shape: 10 25 (250)
I0801 17:54:56.302271 36117 net.cpp:156] Memory required for data: 1152352840
I0801 17:54:56.302285 36117 layer_factory.hpp:77] Creating layer accuracy_at_1
I0801 17:54:56.302312 36117 net.cpp:91] Creating Layer accuracy_at_1
I0801 17:54:56.302328 36117 net.cpp:425] accuracy_at_1 <- fc8_classification_fc8_classification_0_split_0
I0801 17:54:56.302345 36117 net.cpp:425] accuracy_at_1 <- label_data_1_split_0
…
