…
I0918 11:43:42.493330 39329 net.cpp:313] The NetState phase (0) differed from the phase (1) specified by a rule in layer accuracy_at_1_Color
I0918 11:43:42.493752 39329 net.cpp:49] Initializing net from parameters: 
name: "docomo_VGG16"
state {
  phase: TRAIN
}
layer {
  name: "data"
  type: "Data"
  top: "data"
  top: "label"
  include {
    phase: TRAIN
  }
  transform_param {
    mirror: true
    crop_size: 224
    mean_value: 103.939
    mean_value: 116.779
    mean_value: 123.68
  }
  data_param {
    source: "COLOR/color_train_lmdb/"
    batch_size: 10
    backend: LMDB
  }
}
layer {
  name: "conv1_1"
  type: "Convolution"
  bottom: "data"
  top: "conv1_1"
  param {
    lr_mult: 1
    decay_mult: 1
  }
  param {
    lr_mult: 2
    decay_mult: 0
  }
  convolution_param {
    num_output: 64
    pad: 1
    kernel_size: 3
    weight_filler {
      type: "gaussian"
      std: 0.01
    }
    bias_filler {
      type: "constant"
      value: 0
    }
  }
}
layer {
  name: "relu1_1"
  type: "ReLU"
  bottom: "conv1_1"
  top: "conv1_1"
}
layer {
  name: "conv1_2"
  type: "Convolution"
  bottom: "conv1_1"
  top: "conv1_2"
  param {
    lr_mult: 1
    decay_mult: 1
  }
  param {
    lr_mult: 2
    decay_mult: 0
  }
  convolution_param {
    num_output: 64
    pad: 1
    kernel_size: 3
    weight_filler {
      type: "gaussian"
      std: 0.01
    }
    bias_filler {
      type: "constant"
      value: 0
    }
  }
}
layer {
  name: "relu1_2"
  type: "ReLU"
  bottom: "conv1_2"
  top: "conv1_2"
}
layer {
  name: "pool1"
  type: "Pooling"
  bottom: "conv1_2"
  top: "pool1"
  pooling_param {
    pool: MAX
    kernel_size: 2
    stride: 2
  }
}
layer {
  name: "conv2_1"
  type: "Convolution"
  bottom: "pool1"
  top: "conv2_1"
  param {
    lr_mult: 1
    decay_mult: 1
  }
  param {
    lr_mult: 2
    decay_mult: 0
  }
  convolution_param {
    num_output: 128
    pad: 1
    kernel_size: 3
    weight_filler {
      type: "gaussian"
      std: 0.01
    }
    bias_filler {
      type: "constant"
      value: 0
    }
  }
}
layer {
  name: "relu2_1"
  type: "ReLU"
  bottom: "conv2_1"
  top: "conv2_1"
}
layer {
  name: "conv2_2"
  type: "Convolution"
  bottom: "conv2_1"
  top: "conv2_2"
  param {
    lr_mult: 1
    decay_mult: 1
  }
  param {
    lr_mult: 2
    decay_mult: 0
  }
  convolution_param {
    num_output: 128
    pad: 1
    kernel_size: 3
    weight_filler {
      type: "gaussian"
      std: 0.01
    }
    bias_filler {
      type: "constant"
      value: 0
    }
  }
}
layer {
  name: "relu2_2"
  type: "ReLU"
  bottom: "conv2_2"
  top: "conv2_2"
}
layer {
  name: "pool2"
  type: "Pooling"
  bottom: "conv2_2"
  top: "pool2"
  pooling_param {
    pool: MAX
    kernel_size: 2
    stride: 2
  }
}
layer {
  name: "conv3_1"
  type: "Convolution"
  bottom: "pool2"
  top: "conv3_1"
  param {
    lr_mult: 1
    decay_mult: 1
  }
  param {
    lr_mult: 2
    decay_mult: 0
  }
  convolution_param {
    num_output: 256
    pad: 1
    kernel_size: 3
    weight_filler {
      type: "gaussian"
      std: 0.01
    }
    bias_filler {
      type: "constant"
      value: 0
    }
  }
}
layer {
  name: "relu3_1"
  type: "ReLU"
  bottom: "conv3_1"
  top: "conv3_1"
}
layer {
  name: "conv3_2"
  type: "Convolution"
  bottom: "conv3_1"
  top: "conv3_2"
  param {
    lr_mult: 1
    decay_mult: 1
  }
  param {
    lr_mult: 2
    decay_mult: 0
  }
  convolution_param {
    num_output: 256
    pad: 1
    kernel_size: 3
    weight_filler {
      type: "gaussian"
      std: 0.01
    }
    bias_filler {
      type: "constant"
      value: 0
    }
  }
}
layer {
  name: "relu3_2"
  type: "ReLU"
  bottom: "conv3_2"
  top: "conv3_2"
}
layer {
  name: "conv3_3"
  type: "Convolution"
  bottom: "conv3_2"
  top: "conv3_3"
  param {
    lr_mult: 1
    decay_mult: 1
  }
  param {
    lr_mult: 2
    decay_mult: 0
  }
  convolution_param {
    num_output: 256
    pad: 1
    kernel_size: 3
    weight_filler {
      type: "gaussian"
      std: 0.01
    }
    bias_filler {
      type: "constant"
      value: 0
    }
  }
}
layer {
  name: "relu3_3"
  type: "ReLU"
  bottom: "conv3_3"
  top: "conv3_3"
}
layer {
  name: "pool3"
  type: "Pooling"
  bottom: "conv3_3"
  top: "pool3"
  pooling_param {
    pool: MAX
    kernel_size: 2
    stride: 2
  }
}
layer {
  name: "conv4_1"
  type: "Convolution"
  bottom: "pool3"
  top: "conv4_1"
  param {
    lr_mult: 1
    decay_mult: 1
  }
  param {
    lr_mult: 2
    decay_mult: 0
  }
  convolution_param {
    num_output: 512
    pad: 1
    kernel_size: 3
    weight_filler {
      type: "gaussian"
      std: 0.01
    }
    bias_filler {
      type: "constant"
      value: 0
    }
  }
}
layer {
  name: "relu4_1"
  type: "ReLU"
  bottom: "conv4_1"
  top: "conv4_1"
}
layer {
  name: "conv4_2"
  type: "Convolution"
  bottom: "conv4_1"
  top: "conv4_2"
  param {
    lr_mult: 1
    decay_mult: 1
  }
  param {
    lr_mult: 2
    decay_mult: 0
  }
  convolution_param {
    num_output: 512
    pad: 1
    kernel_size: 3
    weight_filler {
      type: "gaussian"
      std: 0.01
    }
    bias_filler {
      type: "constant"
      value: 0
    }
  }
}
layer {
  name: "relu4_2"
  type: "ReLU"
  bottom: "conv4_2"
  top: "conv4_2"
}
layer {
  name: "conv4_3"
  type: "Convolution"
  bottom: "conv4_2"
  top: "conv4_3"
  param {
    lr_mult: 1
    decay_mult: 1
  }
  param {
    lr_mult: 2
    decay_mult: 0
  }
  convolution_param {
    num_output: 512
    pad: 1
    kernel_size: 3
    weight_filler {
      type: "gaussian"
      std: 0.01
    }
    bias_filler {
      type: "constant"
      value: 0
    }
  }
}
layer {
  name: "relu4_3"
  type: "ReLU"
  bottom: "conv4_3"
  top: "conv4_3"
}
layer {
  name: "pool4"
  type: "Pooling"
  bottom: "conv4_3"
  top: "pool4"
  pooling_param {
    pool: MAX
    kernel_size: 2
    stride: 2
  }
}
layer {
  name: "conv5_1"
  type: "Convolution"
  bottom: "pool4"
  top: "conv5_1"
  param {
    lr_mult: 1
    decay_mult: 1
  }
  param {
    lr_mult: 2
    decay_mult: 0
  }
  convolution_param {
    num_output: 512
    pad: 1
    kernel_size: 3
    weight_filler {
      type: "gaussian"
      std: 0.01
    }
    bias_filler {
      type: "constant"
      value: 0
    }
  }
}
layer {
  name: "relu5_1"
  type: "ReLU"
  bottom: "conv5_1"
  top: "conv5_1"
}
layer {
  name: "conv5_2"
  type: "Convolution"
  bottom: "conv5_1"
  top: "conv5_2"
  param {
    lr_mult: 1
    decay_mult: 1
  }
  param {
    lr_mult: 2
    decay_mult: 0
  }
  convolution_param {
    num_output: 512
    pad: 1
    kernel_size: 3
    weight_filler {
      type: "gaussian"
      std: 0.01
    }
    bias_filler {
      type: "constant"
      value: 0
    }
  }
}
layer {
  name: "relu5_2"
  type: "ReLU"
  bottom: "conv5_2"
  top: "conv5_2"
}
layer {
  name: "conv5_3"
  type: "Convolution"
  bottom: "conv5_2"
  top: "conv5_3"
  param {
    lr_mult: 1
    decay_mult: 1
  }
  param {
    lr_mult: 2
    decay_mult: 0
  }
  convolution_param {
    num_output: 512
    pad: 1
    kernel_size: 3
    weight_filler {
      type: "gaussian"
      std: 0.01
    }
    bias_filler {
      type: "constant"
      value: 0
    }
  }
}
layer {
  name: "relu5_3"
  type: "ReLU"
  bottom: "conv5_3"
  top: "conv5_3"
}
layer {
  name: "pool5"
  type: "Pooling"
  bottom: "conv5_3"
  top: "pool5"
  pooling_param {
    pool: MAX
    kernel_size: 2
    stride: 2
  }
}
layer {
  name: "fc6"
  type: "InnerProduct"
  bottom: "pool5"
  top: "fc6"
  param {
    lr_mult: 1
    decay_mult: 1
  }
  param {
    lr_mult: 2
    decay_mult: 0
  }
  inner_product_param {
    num_output: 4096
    weight_filler {
      type: "gaussian"
      std: 0.005
    }
    bias_filler {
      type: "constant"
      value: 0.1
    }
  }
}
layer {
  name: "relu6"
  type: "ReLU"
  bottom: "fc6"
  top: "fc6"
}
layer {
  name: "drop6"
  type: "Dropout"
  bottom: "fc6"
  top: "fc6"
  dropout_param {
    dropout_ratio: 0.5
  }
}
layer {
  name: "fc7"
  type: "InnerProduct"
  bottom: "fc6"
  top: "fc7"
  param {
    lr_mult: 1
    decay_mult: 1
  }
  param {
    lr_mult: 2
    decay_mult: 0
  }
  inner_product_param {
    num_output: 4096
    weight_filler {
      type: "gaussian"
      std: 0.005
    }
    bias_filler {
      type: "constant"
      value: 0.1
    }
  }
}
layer {
  name: "relu7"
  type: "ReLU"
  bottom: "fc7"
  top: "fc7"
}
layer {
  name: "drop7"
  type: "Dropout"
  bottom: "fc7"
  top: "fc7"
  dropout_param {
    dropout_ratio: 0.5
  }
}
layer {
  name: "fc_binary_Color"
  type: "InnerProduct"
  bottom: "fc7"
  top: "fc_binary_Color"
  param {
    lr_mult: 10
    decay_mult: 1
  }
  param {
    lr_mult: 20
    decay_mult: 0
  }
  inner_product_param {
    num_output: 12
    weight_filler {
      type: "gaussian"
      std: 0.005
    }
    bias_filler {
      type: "constant"
      value: 0.1
    }
  }
}
layer {
  name: "fc_classification_Color"
  type: "InnerProduct"
  bottom: "fc7"
  top: "fc_classification_Color"
  param {
    lr_mult: 10
    decay_mult: 1
  }
  param {
    lr_mult: 20
    decay_mult: 0
  }
  inner_product_param {
    num_output: 8
    weight_filler {
      type: "gaussian"
      std: 0.05
    }
    bias_filler {
      type: "constant"
      value: 0.1
    }
  }
}
layer {
  name: "loss_hashing"
  type: "HashingLoss"
  bottom: "fc_binary_Color"
  bottom: "label"
  top: "loss_hashing"
  loss_weight: 0.1
  hashing_loss_param {
    bi_margin: 24
    tradeoff: 0.01
  }
}
layer {
  name: "loss_classification"
  type: "SoftmaxWithLoss"
  bottom: "fc_classification_Color"
  bottom: "label"
  top: "loss_classification"
}
I0918 11:43:42.496570 39329 layer_factory.hpp:77] Creating layer data
I0918 11:43:42.497212 39329 net.cpp:91] Creating Layer data
I0918 11:43:42.497249 39329 net.cpp:399] data -> data
I0918 11:43:42.497301 39329 net.cpp:399] data -> label
I0918 11:43:42.498200 39333 db_lmdb.cpp:38] Opened lmdb COLOR/color_train_lmdb/
I0918 11:43:42.513833 39329 data_layer.cpp:41] output data size: 10,3,224,224
I0918 11:43:42.526414 39329 net.cpp:141] Setting up data
I0918 11:43:42.526494 39329 net.cpp:148] Top shape: 10 3 224 224 (1505280)
I0918 11:43:42.526515 39329 net.cpp:148] Top shape: 10 1 1 1 (10)
I0918 11:43:42.526530 39329 net.cpp:156] Memory required for data: 6021160
I0918 11:43:42.526563 39329 layer_factory.hpp:77] Creating layer label_data_1_split
I0918 11:43:42.526595 39329 net.cpp:91] Creating Layer label_data_1_split
I0918 11:43:42.526617 39329 net.cpp:425] label_data_1_split <- label
I0918 11:43:42.526649 39329 net.cpp:399] label_data_1_split -> label_data_1_split_0
I0918 11:43:42.526677 39329 net.cpp:399] label_data_1_split -> label_data_1_split_1
I0918 11:43:42.526746 39329 net.cpp:141] Setting up label_data_1_split
I0918 11:43:42.526770 39329 net.cpp:148] Top shape: 10 1 1 1 (10)
I0918 11:43:42.526787 39329 net.cpp:148] Top shape: 10 1 1 1 (10)
I0918 11:43:42.526803 39329 net.cpp:156] Memory required for data: 6021240
I0918 11:43:42.526818 39329 layer_factory.hpp:77] Creating layer conv1_1
I0918 11:43:42.526857 39329 net.cpp:91] Creating Layer conv1_1
I0918 11:43:42.526875 39329 net.cpp:425] conv1_1 <- data
I0918 11:43:42.526898 39329 net.cpp:399] conv1_1 -> conv1_1
I0918 11:43:42.529182 39329 net.cpp:141] Setting up conv1_1
I0918 11:43:42.529224 39329 net.cpp:148] Top shape: 10 64 224 224 (32112640)
I0918 11:43:42.529243 39329 net.cpp:156] Memory required for data: 134471800
I0918 11:43:42.529276 39329 layer_factory.hpp:77] Creating layer relu1_1
I0918 11:43:42.529305 39329 net.cpp:91] Creating Layer relu1_1
I0918 11:43:42.529322 39329 net.cpp:425] relu1_1 <- conv1_1
I0918 11:43:42.529379 39329 net.cpp:386] relu1_1 -> conv1_1 (in-place)
I0918 11:43:42.529405 39329 net.cpp:141] Setting up relu1_1
I0918 11:43:42.529424 39329 net.cpp:148] Top shape: 10 64 224 224 (32112640)
I0918 11:43:42.529440 39329 net.cpp:156] Memory required for data: 262922360
I0918 11:43:42.529455 39329 layer_factory.hpp:77] Creating layer conv1_2
I0918 11:43:42.529484 39329 net.cpp:91] Creating Layer conv1_2
I0918 11:43:42.529501 39329 net.cpp:425] conv1_2 <- conv1_1
I0918 11:43:42.529525 39329 net.cpp:399] conv1_2 -> conv1_2
I0918 11:43:42.531186 39329 net.cpp:141] Setting up conv1_2
I0918 11:43:42.531215 39329 net.cpp:148] Top shape: 10 64 224 224 (32112640)
I0918 11:43:42.531231 39329 net.cpp:156] Memory required for data: 391372920
I0918 11:43:42.531255 39329 layer_factory.hpp:77] Creating layer relu1_2
I0918 11:43:42.531275 39329 net.cpp:91] Creating Layer relu1_2
I0918 11:43:42.531291 39329 net.cpp:425] relu1_2 <- conv1_2
I0918 11:43:42.531308 39329 net.cpp:386] relu1_2 -> conv1_2 (in-place)
I0918 11:43:42.531328 39329 net.cpp:141] Setting up relu1_2
I0918 11:43:42.531347 39329 net.cpp:148] Top shape: 10 64 224 224 (32112640)
I0918 11:43:42.531361 39329 net.cpp:156] Memory required for data: 519823480
I0918 11:43:42.531378 39329 layer_factory.hpp:77] Creating layer pool1
I0918 11:43:42.531396 39329 net.cpp:91] Creating Layer pool1
I0918 11:43:42.531412 39329 net.cpp:425] pool1 <- conv1_2
I0918 11:43:42.531435 39329 net.cpp:399] pool1 -> pool1
I0918 11:43:42.531505 39329 net.cpp:141] Setting up pool1
I0918 11:43:42.531530 39329 net.cpp:148] Top shape: 10 64 112 112 (8028160)
I0918 11:43:42.531545 39329 net.cpp:156] Memory required for data: 551936120
I0918 11:43:42.531561 39329 layer_factory.hpp:77] Creating layer conv2_1
I0918 11:43:42.531589 39329 net.cpp:91] Creating Layer conv2_1
I0918 11:43:42.531606 39329 net.cpp:425] conv2_1 <- pool1
I0918 11:43:42.531626 39329 net.cpp:399] conv2_1 -> conv2_1
I0918 11:43:42.535910 39329 net.cpp:141] Setting up conv2_1
I0918 11:43:42.535944 39329 net.cpp:148] Top shape: 10 128 112 112 (16056320)
I0918 11:43:42.535961 39329 net.cpp:156] Memory required for data: 616161400
I0918 11:43:42.535985 39329 layer_factory.hpp:77] Creating layer relu2_1
I0918 11:43:42.536010 39329 net.cpp:91] Creating Layer relu2_1
I0918 11:43:42.536028 39329 net.cpp:425] relu2_1 <- conv2_1
I0918 11:43:42.536046 39329 net.cpp:386] relu2_1 -> conv2_1 (in-place)
I0918 11:43:42.536067 39329 net.cpp:141] Setting up relu2_1
I0918 11:43:42.536085 39329 net.cpp:148] Top shape: 10 128 112 112 (16056320)
I0918 11:43:42.536100 39329 net.cpp:156] Memory required for data: 680386680
I0918 11:43:42.536115 39329 layer_factory.hpp:77] Creating layer conv2_2
I0918 11:43:42.536141 39329 net.cpp:91] Creating Layer conv2_2
I0918 11:43:42.536159 39329 net.cpp:425] conv2_2 <- conv2_1
I0918 11:43:42.536180 39329 net.cpp:399] conv2_2 -> conv2_2
I0918 11:43:42.541945 39329 net.cpp:141] Setting up conv2_2
I0918 11:43:42.541983 39329 net.cpp:148] Top shape: 10 128 112 112 (16056320)
I0918 11:43:42.542003 39329 net.cpp:156] Memory required for data: 744611960
I0918 11:43:42.542023 39329 layer_factory.hpp:77] Creating layer relu2_2
I0918 11:43:42.542043 39329 net.cpp:91] Creating Layer relu2_2
I0918 11:43:42.542059 39329 net.cpp:425] relu2_2 <- conv2_2
I0918 11:43:42.542076 39329 net.cpp:386] relu2_2 -> conv2_2 (in-place)
I0918 11:43:42.542096 39329 net.cpp:141] Setting up relu2_2
I0918 11:43:42.542114 39329 net.cpp:148] Top shape: 10 128 112 112 (16056320)
I0918 11:43:42.542129 39329 net.cpp:156] Memory required for data: 808837240
I0918 11:43:42.542145 39329 layer_factory.hpp:77] Creating layer pool2
I0918 11:43:42.542163 39329 net.cpp:91] Creating Layer pool2
I0918 11:43:42.542178 39329 net.cpp:425] pool2 <- conv2_2
I0918 11:43:42.542199 39329 net.cpp:399] pool2 -> pool2
I0918 11:43:42.542258 39329 net.cpp:141] Setting up pool2
I0918 11:43:42.542280 39329 net.cpp:148] Top shape: 10 128 56 56 (4014080)
I0918 11:43:42.542296 39329 net.cpp:156] Memory required for data: 824893560
I0918 11:43:42.542311 39329 layer_factory.hpp:77] Creating layer conv3_1
I0918 11:43:42.542371 39329 net.cpp:91] Creating Layer conv3_1
I0918 11:43:42.542390 39329 net.cpp:425] conv3_1 <- pool2
I0918 11:43:42.542410 39329 net.cpp:399] conv3_1 -> conv3_1
I0918 11:43:42.554391 39329 net.cpp:141] Setting up conv3_1
I0918 11:43:42.554432 39329 net.cpp:148] Top shape: 10 256 56 56 (8028160)
I0918 11:43:42.554453 39329 net.cpp:156] Memory required for data: 857006200
I0918 11:43:42.554478 39329 layer_factory.hpp:77] Creating layer relu3_1
I0918 11:43:42.554502 39329 net.cpp:91] Creating Layer relu3_1
I0918 11:43:42.554517 39329 net.cpp:425] relu3_1 <- conv3_1
I0918 11:43:42.554536 39329 net.cpp:386] relu3_1 -> conv3_1 (in-place)
I0918 11:43:42.554558 39329 net.cpp:141] Setting up relu3_1
I0918 11:43:42.554574 39329 net.cpp:148] Top shape: 10 256 56 56 (8028160)
I0918 11:43:42.554589 39329 net.cpp:156] Memory required for data: 889118840
I0918 11:43:42.554605 39329 layer_factory.hpp:77] Creating layer conv3_2
I0918 11:43:42.554630 39329 net.cpp:91] Creating Layer conv3_2
I0918 11:43:42.554648 39329 net.cpp:425] conv3_2 <- conv3_1
I0918 11:43:42.554671 39329 net.cpp:399] conv3_2 -> conv3_2
I0918 11:43:42.578166 39329 net.cpp:141] Setting up conv3_2
I0918 11:43:42.578197 39329 net.cpp:148] Top shape: 10 256 56 56 (8028160)
I0918 11:43:42.578214 39329 net.cpp:156] Memory required for data: 921231480
I0918 11:43:42.578233 39329 layer_factory.hpp:77] Creating layer relu3_2
I0918 11:43:42.578256 39329 net.cpp:91] Creating Layer relu3_2
I0918 11:43:42.578274 39329 net.cpp:425] relu3_2 <- conv3_2
I0918 11:43:42.578292 39329 net.cpp:386] relu3_2 -> conv3_2 (in-place)
I0918 11:43:42.578312 39329 net.cpp:141] Setting up relu3_2
I0918 11:43:42.578331 39329 net.cpp:148] Top shape: 10 256 56 56 (8028160)
I0918 11:43:42.578346 39329 net.cpp:156] Memory required for data: 953344120
I0918 11:43:42.578361 39329 layer_factory.hpp:77] Creating layer conv3_3
I0918 11:43:42.578390 39329 net.cpp:91] Creating Layer conv3_3
I0918 11:43:42.578408 39329 net.cpp:425] conv3_3 <- conv3_2
I0918 11:43:42.578430 39329 net.cpp:399] conv3_3 -> conv3_3
I0918 11:43:42.601963 39329 net.cpp:141] Setting up conv3_3
I0918 11:43:42.601994 39329 net.cpp:148] Top shape: 10 256 56 56 (8028160)
I0918 11:43:42.602010 39329 net.cpp:156] Memory required for data: 985456760
I0918 11:43:42.602030 39329 layer_factory.hpp:77] Creating layer relu3_3
I0918 11:43:42.602049 39329 net.cpp:91] Creating Layer relu3_3
I0918 11:43:42.602066 39329 net.cpp:425] relu3_3 <- conv3_3
I0918 11:43:42.602087 39329 net.cpp:386] relu3_3 -> conv3_3 (in-place)
I0918 11:43:42.602108 39329 net.cpp:141] Setting up relu3_3
I0918 11:43:42.602125 39329 net.cpp:148] Top shape: 10 256 56 56 (8028160)
I0918 11:43:42.602141 39329 net.cpp:156] Memory required for data: 1017569400
I0918 11:43:42.602156 39329 layer_factory.hpp:77] Creating layer pool3
I0918 11:43:42.602176 39329 net.cpp:91] Creating Layer pool3
I0918 11:43:42.602191 39329 net.cpp:425] pool3 <- conv3_3
I0918 11:43:42.602210 39329 net.cpp:399] pool3 -> pool3
I0918 11:43:42.602272 39329 net.cpp:141] Setting up pool3
I0918 11:43:42.602294 39329 net.cpp:148] Top shape: 10 256 28 28 (2007040)
I0918 11:43:42.602310 39329 net.cpp:156] Memory required for data: 1025597560
I0918 11:43:42.602325 39329 layer_factory.hpp:77] Creating layer conv4_1
I0918 11:43:42.602350 39329 net.cpp:91] Creating Layer conv4_1
I0918 11:43:42.602367 39329 net.cpp:425] conv4_1 <- pool3
I0918 11:43:42.602391 39329 net.cpp:399] conv4_1 -> conv4_1
I0918 11:43:42.649638 39329 net.cpp:141] Setting up conv4_1
I0918 11:43:42.649677 39329 net.cpp:148] Top shape: 10 512 28 28 (4014080)
I0918 11:43:42.649696 39329 net.cpp:156] Memory required for data: 1041653880
I0918 11:43:42.649716 39329 layer_factory.hpp:77] Creating layer relu4_1
I0918 11:43:42.649736 39329 net.cpp:91] Creating Layer relu4_1
I0918 11:43:42.649754 39329 net.cpp:425] relu4_1 <- conv4_1
I0918 11:43:42.649770 39329 net.cpp:386] relu4_1 -> conv4_1 (in-place)
I0918 11:43:42.649791 39329 net.cpp:141] Setting up relu4_1
I0918 11:43:42.649809 39329 net.cpp:148] Top shape: 10 512 28 28 (4014080)
I0918 11:43:42.649859 39329 net.cpp:156] Memory required for data: 1057710200
I0918 11:43:42.649876 39329 layer_factory.hpp:77] Creating layer conv4_2
I0918 11:43:42.649904 39329 net.cpp:91] Creating Layer conv4_2
I0918 11:43:42.649920 39329 net.cpp:425] conv4_2 <- conv4_1
I0918 11:43:42.649943 39329 net.cpp:399] conv4_2 -> conv4_2
I0918 11:43:42.742794 39329 net.cpp:141] Setting up conv4_2
I0918 11:43:42.742835 39329 net.cpp:148] Top shape: 10 512 28 28 (4014080)
I0918 11:43:42.742856 39329 net.cpp:156] Memory required for data: 1073766520
I0918 11:43:42.742885 39329 layer_factory.hpp:77] Creating layer relu4_2
I0918 11:43:42.742908 39329 net.cpp:91] Creating Layer relu4_2
I0918 11:43:42.742925 39329 net.cpp:425] relu4_2 <- conv4_2
I0918 11:43:42.742944 39329 net.cpp:386] relu4_2 -> conv4_2 (in-place)
I0918 11:43:42.742966 39329 net.cpp:141] Setting up relu4_2
I0918 11:43:42.742985 39329 net.cpp:148] Top shape: 10 512 28 28 (4014080)
I0918 11:43:42.743000 39329 net.cpp:156] Memory required for data: 1089822840
I0918 11:43:42.743015 39329 layer_factory.hpp:77] Creating layer conv4_3
I0918 11:43:42.743041 39329 net.cpp:91] Creating Layer conv4_3
I0918 11:43:42.743058 39329 net.cpp:425] conv4_3 <- conv4_2
I0918 11:43:42.743082 39329 net.cpp:399] conv4_3 -> conv4_3
I0918 11:43:42.836024 39329 net.cpp:141] Setting up conv4_3
I0918 11:43:42.836071 39329 net.cpp:148] Top shape: 10 512 28 28 (4014080)
I0918 11:43:42.836088 39329 net.cpp:156] Memory required for data: 1105879160
I0918 11:43:42.836109 39329 layer_factory.hpp:77] Creating layer relu4_3
I0918 11:43:42.836132 39329 net.cpp:91] Creating Layer relu4_3
I0918 11:43:42.836148 39329 net.cpp:425] relu4_3 <- conv4_3
I0918 11:43:42.836169 39329 net.cpp:386] relu4_3 -> conv4_3 (in-place)
I0918 11:43:42.836189 39329 net.cpp:141] Setting up relu4_3
I0918 11:43:42.836208 39329 net.cpp:148] Top shape: 10 512 28 28 (4014080)
I0918 11:43:42.836223 39329 net.cpp:156] Memory required for data: 1121935480
I0918 11:43:42.836238 39329 layer_factory.hpp:77] Creating layer pool4
I0918 11:43:42.836258 39329 net.cpp:91] Creating Layer pool4
I0918 11:43:42.836274 39329 net.cpp:425] pool4 <- conv4_3
I0918 11:43:42.836295 39329 net.cpp:399] pool4 -> pool4
I0918 11:43:42.836355 39329 net.cpp:141] Setting up pool4
I0918 11:43:42.836380 39329 net.cpp:148] Top shape: 10 512 14 14 (1003520)
I0918 11:43:42.836395 39329 net.cpp:156] Memory required for data: 1125949560
I0918 11:43:42.836411 39329 layer_factory.hpp:77] Creating layer conv5_1
I0918 11:43:42.836441 39329 net.cpp:91] Creating Layer conv5_1
I0918 11:43:42.836459 39329 net.cpp:425] conv5_1 <- pool4
I0918 11:43:42.836478 39329 net.cpp:399] conv5_1 -> conv5_1
I0918 11:43:42.929370 39329 net.cpp:141] Setting up conv5_1
I0918 11:43:42.929411 39329 net.cpp:148] Top shape: 10 512 14 14 (1003520)
I0918 11:43:42.929432 39329 net.cpp:156] Memory required for data: 1129963640
I0918 11:43:42.929452 39329 layer_factory.hpp:77] Creating layer relu5_1
I0918 11:43:42.929473 39329 net.cpp:91] Creating Layer relu5_1
I0918 11:43:42.929489 39329 net.cpp:425] relu5_1 <- conv5_1
I0918 11:43:42.929508 39329 net.cpp:386] relu5_1 -> conv5_1 (in-place)
I0918 11:43:42.929529 39329 net.cpp:141] Setting up relu5_1
I0918 11:43:42.929548 39329 net.cpp:148] Top shape: 10 512 14 14 (1003520)
I0918 11:43:42.929563 39329 net.cpp:156] Memory required for data: 1133977720
I0918 11:43:42.929579 39329 layer_factory.hpp:77] Creating layer conv5_2
I0918 11:43:42.929605 39329 net.cpp:91] Creating Layer conv5_2
I0918 11:43:42.929621 39329 net.cpp:425] conv5_2 <- conv5_1
I0918 11:43:42.929654 39329 net.cpp:399] conv5_2 -> conv5_2
I0918 11:43:43.022742 39329 net.cpp:141] Setting up conv5_2
I0918 11:43:43.022788 39329 net.cpp:148] Top shape: 10 512 14 14 (1003520)
I0918 11:43:43.022809 39329 net.cpp:156] Memory required for data: 1137991800
I0918 11:43:43.022830 39329 layer_factory.hpp:77] Creating layer relu5_2
I0918 11:43:43.022855 39329 net.cpp:91] Creating Layer relu5_2
I0918 11:43:43.022873 39329 net.cpp:425] relu5_2 <- conv5_2
I0918 11:43:43.022892 39329 net.cpp:386] relu5_2 -> conv5_2 (in-place)
I0918 11:43:43.022950 39329 net.cpp:141] Setting up relu5_2
I0918 11:43:43.022970 39329 net.cpp:148] Top shape: 10 512 14 14 (1003520)
I0918 11:43:43.022986 39329 net.cpp:156] Memory required for data: 1142005880
I0918 11:43:43.023002 39329 layer_factory.hpp:77] Creating layer conv5_3
I0918 11:43:43.023028 39329 net.cpp:91] Creating Layer conv5_3
I0918 11:43:43.023046 39329 net.cpp:425] conv5_3 <- conv5_2
I0918 11:43:43.023066 39329 net.cpp:399] conv5_3 -> conv5_3
I0918 11:43:43.116147 39329 net.cpp:141] Setting up conv5_3
I0918 11:43:43.116191 39329 net.cpp:148] Top shape: 10 512 14 14 (1003520)
I0918 11:43:43.116210 39329 net.cpp:156] Memory required for data: 1146019960
I0918 11:43:43.116230 39329 layer_factory.hpp:77] Creating layer relu5_3
I0918 11:43:43.116251 39329 net.cpp:91] Creating Layer relu5_3
I0918 11:43:43.116268 39329 net.cpp:425] relu5_3 <- conv5_3
I0918 11:43:43.116287 39329 net.cpp:386] relu5_3 -> conv5_3 (in-place)
I0918 11:43:43.116308 39329 net.cpp:141] Setting up relu5_3
I0918 11:43:43.116327 39329 net.cpp:148] Top shape: 10 512 14 14 (1003520)
I0918 11:43:43.116341 39329 net.cpp:156] Memory required for data: 1150034040
I0918 11:43:43.116358 39329 layer_factory.hpp:77] Creating layer pool5
I0918 11:43:43.116386 39329 net.cpp:91] Creating Layer pool5
I0918 11:43:43.116403 39329 net.cpp:425] pool5 <- conv5_3
I0918 11:43:43.116421 39329 net.cpp:399] pool5 -> pool5
I0918 11:43:43.116488 39329 net.cpp:141] Setting up pool5
I0918 11:43:43.116511 39329 net.cpp:148] Top shape: 10 512 7 7 (250880)
I0918 11:43:43.116528 39329 net.cpp:156] Memory required for data: 1151037560
I0918 11:43:43.116542 39329 layer_factory.hpp:77] Creating layer fc6
I0918 11:43:43.116572 39329 net.cpp:91] Creating Layer fc6
I0918 11:43:43.116590 39329 net.cpp:425] fc6 <- pool5
I0918 11:43:43.116612 39329 net.cpp:399] fc6 -> fc6
I0918 11:43:47.095026 39329 net.cpp:141] Setting up fc6
I0918 11:43:47.095111 39329 net.cpp:148] Top shape: 10 4096 (40960)
I0918 11:43:47.095129 39329 net.cpp:156] Memory required for data: 1151201400
I0918 11:43:47.095163 39329 layer_factory.hpp:77] Creating layer relu6
I0918 11:43:47.095196 39329 net.cpp:91] Creating Layer relu6
I0918 11:43:47.095222 39329 net.cpp:425] relu6 <- fc6
I0918 11:43:47.095247 39329 net.cpp:386] relu6 -> fc6 (in-place)
I0918 11:43:47.095273 39329 net.cpp:141] Setting up relu6
I0918 11:43:47.095291 39329 net.cpp:148] Top shape: 10 4096 (40960)
I0918 11:43:47.095306 39329 net.cpp:156] Memory required for data: 1151365240
I0918 11:43:47.095322 39329 layer_factory.hpp:77] Creating layer drop6
I0918 11:43:47.095350 39329 net.cpp:91] Creating Layer drop6
I0918 11:43:47.095368 39329 net.cpp:425] drop6 <- fc6
I0918 11:43:47.095386 39329 net.cpp:386] drop6 -> fc6 (in-place)
I0918 11:43:47.095448 39329 net.cpp:141] Setting up drop6
I0918 11:43:47.095473 39329 net.cpp:148] Top shape: 10 4096 (40960)
I0918 11:43:47.095489 39329 net.cpp:156] Memory required for data: 1151529080
I0918 11:43:47.095505 39329 layer_factory.hpp:77] Creating layer fc7
I0918 11:43:47.095527 39329 net.cpp:91] Creating Layer fc7
I0918 11:43:47.095544 39329 net.cpp:425] fc7 <- fc6
I0918 11:43:47.095566 39329 net.cpp:399] fc7 -> fc7
I0918 11:43:47.755589 39329 net.cpp:141] Setting up fc7
I0918 11:43:47.755661 39329 net.cpp:148] Top shape: 10 4096 (40960)
I0918 11:43:47.755678 39329 net.cpp:156] Memory required for data: 1151692920
I0918 11:43:47.755700 39329 layer_factory.hpp:77] Creating layer relu7
I0918 11:43:47.755729 39329 net.cpp:91] Creating Layer relu7
I0918 11:43:47.755746 39329 net.cpp:425] relu7 <- fc7
I0918 11:43:47.755770 39329 net.cpp:386] relu7 -> fc7 (in-place)
I0918 11:43:47.755796 39329 net.cpp:141] Setting up relu7
I0918 11:43:47.755815 39329 net.cpp:148] Top shape: 10 4096 (40960)
I0918 11:43:47.755831 39329 net.cpp:156] Memory required for data: 1151856760
I0918 11:43:47.755846 39329 layer_factory.hpp:77] Creating layer drop7
I0918 11:43:47.755866 39329 net.cpp:91] Creating Layer drop7
I0918 11:43:47.755882 39329 net.cpp:425] drop7 <- fc7
I0918 11:43:47.755898 39329 net.cpp:386] drop7 -> fc7 (in-place)
I0918 11:43:47.755986 39329 net.cpp:141] Setting up drop7
I0918 11:43:47.756011 39329 net.cpp:148] Top shape: 10 4096 (40960)
I0918 11:43:47.756026 39329 net.cpp:156] Memory required for data: 1152020600
I0918 11:43:47.756042 39329 layer_factory.hpp:77] Creating layer fc7_drop7_0_split
I0918 11:43:47.756063 39329 net.cpp:91] Creating Layer fc7_drop7_0_split
I0918 11:43:47.756079 39329 net.cpp:425] fc7_drop7_0_split <- fc7
I0918 11:43:47.756099 39329 net.cpp:399] fc7_drop7_0_split -> fc7_drop7_0_split_0
I0918 11:43:47.756122 39329 net.cpp:399] fc7_drop7_0_split -> fc7_drop7_0_split_1
I0918 11:43:47.756180 39329 net.cpp:141] Setting up fc7_drop7_0_split
I0918 11:43:47.756202 39329 net.cpp:148] Top shape: 10 4096 (40960)
I0918 11:43:47.756219 39329 net.cpp:148] Top shape: 10 4096 (40960)
I0918 11:43:47.756234 39329 net.cpp:156] Memory required for data: 1152348280
I0918 11:43:47.756249 39329 layer_factory.hpp:77] Creating layer fc_binary_Color
I0918 11:43:47.756273 39329 net.cpp:91] Creating Layer fc_binary_Color
I0918 11:43:47.756290 39329 net.cpp:425] fc_binary_Color <- fc7_drop7_0_split_0
I0918 11:43:47.756314 39329 net.cpp:399] fc_binary_Color -> fc_binary_Color
I0918 11:43:47.758316 39329 net.cpp:141] Setting up fc_binary_Color
I0918 11:43:47.758342 39329 net.cpp:148] Top shape: 10 12 (120)
I0918 11:43:47.758358 39329 net.cpp:156] Memory required for data: 1152348760
I0918 11:43:47.758378 39329 layer_factory.hpp:77] Creating layer fc_classification_Color
I0918 11:43:47.758399 39329 net.cpp:91] Creating Layer fc_classification_Color
I0918 11:43:47.758414 39329 net.cpp:425] fc_classification_Color <- fc7_drop7_0_split_1
I0918 11:43:47.758440 39329 net.cpp:399] fc_classification_Color -> fc_classification_Color
I0918 11:43:47.759798 39329 net.cpp:141] Setting up fc_classification_Color
I0918 11:43:47.759824 39329 net.cpp:148] Top shape: 10 8 (80)
I0918 11:43:47.759840 39329 net.cpp:156] Memory required for data: 1152349080
I0918 11:43:47.759882 39329 layer_factory.hpp:77] Creating layer loss_hashing
I0918 11:43:47.759913 39329 net.cpp:91] Creating Layer loss_hashing
I0918 11:43:47.759932 39329 net.cpp:425] loss_hashing <- fc_binary_Color
I0918 11:43:47.759948 39329 net.cpp:425] loss_hashing <- label_data_1_split_0
I0918 11:43:47.759973 39329 net.cpp:399] loss_hashing -> loss_hashing
…
I0918 11:43:47.762709 39329 net.cpp:313] The NetState phase (1) differed from the phase (0) specified by a rule in layer data
I0918 11:43:47.763124 39329 net.cpp:49] Initializing net from parameters: 
name: "docomo_VGG16"
state {
  phase: TEST
}
layer {
  name: "data"
  type: "Data"
  top: "data"
  top: "label"
  include {
    phase: TEST
  }
  transform_param {
    mirror: false
    crop_size: 224
    mean_value: 103.939
    mean_value: 116.779
    mean_value: 123.68
  }
  data_param {
    source: "COLOR/color_val_lmdb/"
    batch_size: 10
    backend: LMDB
  }
}
layer {
  name: "conv1_1"
  type: "Convolution"
  bottom: "data"
  top: "conv1_1"
  param {
    lr_mult: 1
    decay_mult: 1
  }
  param {
    lr_mult: 2
    decay_mult: 0
  }
  convolution_param {
    num_output: 64
    pad: 1
    kernel_size: 3
    weight_filler {
      type: "gaussian"
      std: 0.01
    }
    bias_filler {
      type: "constant"
      value: 0
    }
  }
}
layer {
  name: "relu1_1"
  type: "ReLU"
  bottom: "conv1_1"
  top: "conv1_1"
}
layer {
  name: "conv1_2"
  type: "Convolution"
  bottom: "conv1_1"
  top: "conv1_2"
  param {
    lr_mult: 1
    decay_mult: 1
  }
  param {
    lr_mult: 2
    decay_mult: 0
  }
  convolution_param {
    num_output: 64
    pad: 1
    kernel_size: 3
    weight_filler {
      type: "gaussian"
      std: 0.01
    }
    bias_filler {
      type: "constant"
      value: 0
    }
  }
}
layer {
  name: "relu1_2"
  type: "ReLU"
  bottom: "conv1_2"
  top: "conv1_2"
}
layer {
  name: "pool1"
  type: "Pooling"
  bottom: "conv1_2"
  top: "pool1"
  pooling_param {
    pool: MAX
    kernel_size: 2
    stride: 2
  }
}
layer {
  name: "conv2_1"
  type: "Convolution"
  bottom: "pool1"
  top: "conv2_1"
  param {
    lr_mult: 1
    decay_mult: 1
  }
  param {
    lr_mult: 2
    decay_mult: 0
  }
  convolution_param {
    num_output: 128
    pad: 1
    kernel_size: 3
    weight_filler {
      type: "gaussian"
      std: 0.01
    }
    bias_filler {
      type: "constant"
      value: 0
    }
  }
}
layer {
  name: "relu2_1"
  type: "ReLU"
  bottom: "conv2_1"
  top: "conv2_1"
}
layer {
  name: "conv2_2"
  type: "Convolution"
  bottom: "conv2_1"
  top: "conv2_2"
  param {
    lr_mult: 1
    decay_mult: 1
  }
  param {
    lr_mult: 2
    decay_mult: 0
  }
  convolution_param {
    num_output: 128
    pad: 1
    kernel_size: 3
    weight_filler {
      type: "gaussian"
      std: 0.01
    }
    bias_filler {
      type: "constant"
      value: 0
    }
  }
}
layer {
  name: "relu2_2"
  type: "ReLU"
  bottom: "conv2_2"
  top: "conv2_2"
}
layer {
  name: "pool2"
  type: "Pooling"
  bottom: "conv2_2"
  top: "pool2"
  pooling_param {
    pool: MAX
    kernel_size: 2
    stride: 2
  }
}
layer {
  name: "conv3_1"
  type: "Convolution"
  bottom: "pool2"
  top: "conv3_1"
  param {
    lr_mult: 1
    decay_mult: 1
  }
  param {
    lr_mult: 2
    decay_mult: 0
  }
  convolution_param {
    num_output: 256
    pad: 1
    kernel_size: 3
    weight_filler {
      type: "gaussian"
      std: 0.01
    }
    bias_filler {
      type: "constant"
      value: 0
    }
  }
}
layer {
  name: "relu3_1"
  type: "ReLU"
  bottom: "conv3_1"
  top: "conv3_1"
}
layer {
  name: "conv3_2"
  type: "Convolution"
  bottom: "conv3_1"
  top: "conv3_2"
  param {
    lr_mult: 1
    decay_mult: 1
  }
  param {
    lr_mult: 2
    decay_mult: 0
  }
  convolution_param {
    num_output: 256
    pad: 1
    kernel_size: 3
    weight_filler {
      type: "gaussian"
      std: 0.01
    }
    bias_filler {
      type: "constant"
      value: 0
    }
  }
}
layer {
  name: "relu3_2"
  type: "ReLU"
  bottom: "conv3_2"
  top: "conv3_2"
}
layer {
  name: "conv3_3"
  type: "Convolution"
  bottom: "conv3_2"
  top: "conv3_3"
  param {
    lr_mult: 1
    decay_mult: 1
  }
  param {
    lr_mult: 2
    decay_mult: 0
  }
  convolution_param {
    num_output: 256
    pad: 1
    kernel_size: 3
    weight_filler {
      type: "gaussian"
      std: 0.01
    }
    bias_filler {
      type: "constant"
      value: 0
    }
  }
}
layer {
  name: "relu3_3"
  type: "ReLU"
  bottom: "conv3_3"
  top: "conv3_3"
}
layer {
  name: "pool3"
  type: "Pooling"
  bottom: "conv3_3"
  top: "pool3"
  pooling_param {
    pool: MAX
    kernel_size: 2
    stride: 2
  }
}
layer {
  name: "conv4_1"
  type: "Convolution"
  bottom: "pool3"
  top: "conv4_1"
  param {
    lr_mult: 1
    decay_mult: 1
  }
  param {
    lr_mult: 2
    decay_mult: 0
  }
  convolution_param {
    num_output: 512
    pad: 1
    kernel_size: 3
    weight_filler {
      type: "gaussian"
      std: 0.01
    }
    bias_filler {
      type: "constant"
      value: 0
    }
  }
}
layer {
  name: "relu4_1"
  type: "ReLU"
  bottom: "conv4_1"
  top: "conv4_1"
}
layer {
  name: "conv4_2"
  type: "Convolution"
  bottom: "conv4_1"
  top: "conv4_2"
  param {
    lr_mult: 1
    decay_mult: 1
  }
  param {
    lr_mult: 2
    decay_mult: 0
  }
  convolution_param {
    num_output: 512
    pad: 1
    kernel_size: 3
    weight_filler {
      type: "gaussian"
      std: 0.01
    }
    bias_filler {
      type: "constant"
      value: 0
    }
  }
}
layer {
  name: "relu4_2"
  type: "ReLU"
  bottom: "conv4_2"
  top: "conv4_2"
}
layer {
  name: "conv4_3"
  type: "Convolution"
  bottom: "conv4_2"
  top: "conv4_3"
  param {
    lr_mult: 1
    decay_mult: 1
  }
  param {
    lr_mult: 2
    decay_mult: 0
  }
  convolution_param {
    num_output: 512
    pad: 1
    kernel_size: 3
    weight_filler {
      type: "gaussian"
      std: 0.01
    }
    bias_filler {
      type: "constant"
      value: 0
    }
  }
}
layer {
  name: "relu4_3"
  type: "ReLU"
  bottom: "conv4_3"
  top: "conv4_3"
}
layer {
  name: "pool4"
  type: "Pooling"
  bottom: "conv4_3"
  top: "pool4"
  pooling_param {
    pool: MAX
    kernel_size: 2
    stride: 2
  }
}
layer {
  name: "conv5_1"
  type: "Convolution"
  bottom: "pool4"
  top: "conv5_1"
  param {
    lr_mult: 1
    decay_mult: 1
  }
  param {
    lr_mult: 2
    decay_mult: 0
  }
  convolution_param {
    num_output: 512
    pad: 1
    kernel_size: 3
    weight_filler {
      type: "gaussian"
      std: 0.01
    }
    bias_filler {
      type: "constant"
      value: 0
    }
  }
}
layer {
  name: "relu5_1"
  type: "ReLU"
  bottom: "conv5_1"
  top: "conv5_1"
}
layer {
  name: "conv5_2"
  type: "Convolution"
  bottom: "conv5_1"
  top: "conv5_2"
  param {
    lr_mult: 1
    decay_mult: 1
  }
  param {
    lr_mult: 2
    decay_mult: 0
  }
  convolution_param {
    num_output: 512
    pad: 1
    kernel_size: 3
    weight_filler {
      type: "gaussian"
      std: 0.01
    }
    bias_filler {
      type: "constant"
      value: 0
    }
  }
}
layer {
  name: "relu5_2"
  type: "ReLU"
  bottom: "conv5_2"
  top: "conv5_2"
}
layer {
  name: "conv5_3"
  type: "Convolution"
  bottom: "conv5_2"
  top: "conv5_3"
  param {
    lr_mult: 1
    decay_mult: 1
  }
  param {
    lr_mult: 2
    decay_mult: 0
  }
  convolution_param {
    num_output: 512
    pad: 1
    kernel_size: 3
    weight_filler {
      type: "gaussian"
      std: 0.01
    }
    bias_filler {
      type: "constant"
      value: 0
    }
  }
}
layer {
  name: "relu5_3"
  type: "ReLU"
  bottom: "conv5_3"
  top: "conv5_3"
}
layer {
  name: "pool5"
  type: "Pooling"
  bottom: "conv5_3"
  top: "pool5"
  pooling_param {
    pool: MAX
    kernel_size: 2
    stride: 2
  }
}
layer {
  name: "fc6"
  type: "InnerProduct"
  bottom: "pool5"
  top: "fc6"
  param {
    lr_mult: 1
    decay_mult: 1
  }
  param {
    lr_mult: 2
    decay_mult: 0
  }
  inner_product_param {
    num_output: 4096
    weight_filler {
      type: "gaussian"
      std: 0.005
    }
    bias_filler {
      type: "constant"
      value: 0.1
    }
  }
}
layer {
  name: "relu6"
  type: "ReLU"
  bottom: "fc6"
  top: "fc6"
}
layer {
  name: "drop6"
  type: "Dropout"
  bottom: "fc6"
  top: "fc6"
  dropout_param {
    dropout_ratio: 0.5
  }
}
layer {
  name: "fc7"
  type: "InnerProduct"
  bottom: "fc6"
  top: "fc7"
  param {
    lr_mult: 1
    decay_mult: 1
  }
  param {
    lr_mult: 2
    decay_mult: 0
  }
  inner_product_param {
    num_output: 4096
    weight_filler {
      type: "gaussian"
      std: 0.005
    }
    bias_filler {
      type: "constant"
      value: 0.1
    }
  }
}
layer {
  name: "relu7"
  type: "ReLU"
  bottom: "fc7"
  top: "fc7"
}
layer {
  name: "drop7"
  type: "Dropout"
  bottom: "fc7"
  top: "fc7"
  dropout_param {
    dropout_ratio: 0.5
  }
}
layer {
  name: "fc_binary_Color"
  type: "InnerProduct"
  bottom: "fc7"
  top: "fc_binary_Color"
  param {
    lr_mult: 10
    decay_mult: 1
  }
  param {
    lr_mult: 20
    decay_mult: 0
  }
  inner_product_param {
    num_output: 12
    weight_filler {
      type: "gaussian"
      std: 0.005
    }
    bias_filler {
      type: "constant"
      value: 0.1
    }
  }
}
layer {
  name: "fc_classification_Color"
  type: "InnerProduct"
  bottom: "fc7"
  top: "fc_classification_Color"
  param {
    lr_mult: 10
    decay_mult: 1
  }
  param {
    lr_mult: 20
    decay_mult: 0
  }
  inner_product_param {
    num_output: 8
    weight_filler {
      type: "gaussian"
      std: 0.05
    }
    bias_filler {
      type: "constant"
      value: 0.1
    }
  }
}
layer {
  name: "accuracy_at_1_Color"
  type: "Accuracy"
  bottom: "fc_classification_Color"
  bottom: "label"
  top: "accuracy_at_1"
  include {
    phase: TEST
  }
}
layer {
  name: "loss_hashing"
  type: "HashingLoss"
  bottom: "fc_binary_Color"
  bottom: "label"
  top: "loss_hashing"
  loss_weight: 0.1
  hashing_loss_param {
    bi_margin: 24
    tradeoff: 0.01
  }
}
layer {
  name: "loss_classification"
  type: "SoftmaxWithLoss"
  bottom: "fc_classification_Color"
  bottom: "label"
  top: "loss_classification"
}
I0918 11:43:47.765959 39329 layer_factory.hpp:77] Creating layer data
I0918 11:43:47.766070 39329 net.cpp:91] Creating Layer data
I0918 11:43:47.766109 39329 net.cpp:399] data -> data
I0918 11:43:47.766134 39329 net.cpp:399] data -> label
I0918 11:43:47.767284 39341 db_lmdb.cpp:38] Opened lmdb COLOR/color_val_lmdb/
I0918 11:43:47.767724 39329 data_layer.cpp:41] output data size: 10,3,224,224
I0918 11:43:47.780403 39329 net.cpp:141] Setting up data
I0918 11:43:47.780472 39329 net.cpp:148] Top shape: 10 3 224 224 (1505280)
I0918 11:43:47.780495 39329 net.cpp:148] Top shape: 10 1 1 1 (10)
I0918 11:43:47.780510 39329 net.cpp:156] Memory required for data: 6021160
I0918 11:43:47.780529 39329 layer_factory.hpp:77] Creating layer label_data_1_split
I0918 11:43:47.780560 39329 net.cpp:91] Creating Layer label_data_1_split
I0918 11:43:47.780576 39329 net.cpp:425] label_data_1_split <- label
I0918 11:43:47.780598 39329 net.cpp:399] label_data_1_split -> label_data_1_split_0
I0918 11:43:47.780624 39329 net.cpp:399] label_data_1_split -> label_data_1_split_1
I0918 11:43:47.780644 39329 net.cpp:399] label_data_1_split -> label_data_1_split_2
I0918 11:43:47.780733 39329 net.cpp:141] Setting up label_data_1_split
I0918 11:43:47.780757 39329 net.cpp:148] Top shape: 10 1 1 1 (10)
I0918 11:43:47.780776 39329 net.cpp:148] Top shape: 10 1 1 1 (10)
I0918 11:43:47.780791 39329 net.cpp:148] Top shape: 10 1 1 1 (10)
I0918 11:43:47.780807 39329 net.cpp:156] Memory required for data: 6021280
I0918 11:43:47.780822 39329 layer_factory.hpp:77] Creating layer conv1_1
I0918 11:43:47.780854 39329 net.cpp:91] Creating Layer conv1_1
I0918 11:43:47.780872 39329 net.cpp:425] conv1_1 <- data
I0918 11:43:47.780895 39329 net.cpp:399] conv1_1 -> conv1_1
I0918 11:43:47.781985 39329 net.cpp:141] Setting up conv1_1
I0918 11:43:47.782016 39329 net.cpp:148] Top shape: 10 64 224 224 (32112640)
I0918 11:43:47.782032 39329 net.cpp:156] Memory required for data: 134471840
I0918 11:43:47.782058 39329 layer_factory.hpp:77] Creating layer relu1_1
I0918 11:43:47.782088 39329 net.cpp:91] Creating Layer relu1_1
I0918 11:43:47.782106 39329 net.cpp:425] relu1_1 <- conv1_1
I0918 11:43:47.782125 39329 net.cpp:386] relu1_1 -> conv1_1 (in-place)
I0918 11:43:47.782148 39329 net.cpp:141] Setting up relu1_1
I0918 11:43:47.782167 39329 net.cpp:148] Top shape: 10 64 224 224 (32112640)
I0918 11:43:47.782183 39329 net.cpp:156] Memory required for data: 262922400
I0918 11:43:47.782200 39329 layer_factory.hpp:77] Creating layer conv1_2
I0918 11:43:47.782232 39329 net.cpp:91] Creating Layer conv1_2
I0918 11:43:47.782250 39329 net.cpp:425] conv1_2 <- conv1_1
I0918 11:43:47.782274 39329 net.cpp:399] conv1_2 -> conv1_2
I0918 11:43:47.784287 39329 net.cpp:141] Setting up conv1_2
I0918 11:43:47.784330 39329 net.cpp:148] Top shape: 10 64 224 224 (32112640)
I0918 11:43:47.784348 39329 net.cpp:156] Memory required for data: 391372960
I0918 11:43:47.784371 39329 layer_factory.hpp:77] Creating layer relu1_2
I0918 11:43:47.784392 39329 net.cpp:91] Creating Layer relu1_2
I0918 11:43:47.784409 39329 net.cpp:425] relu1_2 <- conv1_2
I0918 11:43:47.784427 39329 net.cpp:386] relu1_2 -> conv1_2 (in-place)
I0918 11:43:47.784447 39329 net.cpp:141] Setting up relu1_2
I0918 11:43:47.784466 39329 net.cpp:148] Top shape: 10 64 224 224 (32112640)
I0918 11:43:47.784482 39329 net.cpp:156] Memory required for data: 519823520
I0918 11:43:47.784497 39329 layer_factory.hpp:77] Creating layer pool1
I0918 11:43:47.784517 39329 net.cpp:91] Creating Layer pool1
I0918 11:43:47.784533 39329 net.cpp:425] pool1 <- conv1_2
I0918 11:43:47.784595 39329 net.cpp:399] pool1 -> pool1
I0918 11:43:47.784659 39329 net.cpp:141] Setting up pool1
I0918 11:43:47.784683 39329 net.cpp:148] Top shape: 10 64 112 112 (8028160)
I0918 11:43:47.784710 39329 net.cpp:156] Memory required for data: 551936160
I0918 11:43:47.784725 39329 layer_factory.hpp:77] Creating layer conv2_1
I0918 11:43:47.784761 39329 net.cpp:91] Creating Layer conv2_1
I0918 11:43:47.784780 39329 net.cpp:425] conv2_1 <- pool1
I0918 11:43:47.784801 39329 net.cpp:399] conv2_1 -> conv2_1
I0918 11:43:47.788575 39329 net.cpp:141] Setting up conv2_1
I0918 11:43:47.788609 39329 net.cpp:148] Top shape: 10 128 112 112 (16056320)
I0918 11:43:47.788627 39329 net.cpp:156] Memory required for data: 616161440
I0918 11:43:47.788650 39329 layer_factory.hpp:77] Creating layer relu2_1
I0918 11:43:47.788672 39329 net.cpp:91] Creating Layer relu2_1
I0918 11:43:47.788689 39329 net.cpp:425] relu2_1 <- conv2_1
I0918 11:43:47.788710 39329 net.cpp:386] relu2_1 -> conv2_1 (in-place)
I0918 11:43:47.788731 39329 net.cpp:141] Setting up relu2_1
I0918 11:43:47.788750 39329 net.cpp:148] Top shape: 10 128 112 112 (16056320)
I0918 11:43:47.788765 39329 net.cpp:156] Memory required for data: 680386720
I0918 11:43:47.788780 39329 layer_factory.hpp:77] Creating layer conv2_2
I0918 11:43:47.788806 39329 net.cpp:91] Creating Layer conv2_2
I0918 11:43:47.788823 39329 net.cpp:425] conv2_2 <- conv2_1
I0918 11:43:47.788843 39329 net.cpp:399] conv2_2 -> conv2_2
I0918 11:43:47.794625 39329 net.cpp:141] Setting up conv2_2
I0918 11:43:47.794658 39329 net.cpp:148] Top shape: 10 128 112 112 (16056320)
I0918 11:43:47.794675 39329 net.cpp:156] Memory required for data: 744612000
I0918 11:43:47.794695 39329 layer_factory.hpp:77] Creating layer relu2_2
I0918 11:43:47.794719 39329 net.cpp:91] Creating Layer relu2_2
I0918 11:43:47.794736 39329 net.cpp:425] relu2_2 <- conv2_2
I0918 11:43:47.794754 39329 net.cpp:386] relu2_2 -> conv2_2 (in-place)
I0918 11:43:47.794773 39329 net.cpp:141] Setting up relu2_2
I0918 11:43:47.794791 39329 net.cpp:148] Top shape: 10 128 112 112 (16056320)
I0918 11:43:47.794806 39329 net.cpp:156] Memory required for data: 808837280
I0918 11:43:47.794821 39329 layer_factory.hpp:77] Creating layer pool2
I0918 11:43:47.794844 39329 net.cpp:91] Creating Layer pool2
I0918 11:43:47.794860 39329 net.cpp:425] pool2 <- conv2_2
I0918 11:43:47.794880 39329 net.cpp:399] pool2 -> pool2
I0918 11:43:47.794945 39329 net.cpp:141] Setting up pool2
I0918 11:43:47.794967 39329 net.cpp:148] Top shape: 10 128 56 56 (4014080)
I0918 11:43:47.794983 39329 net.cpp:156] Memory required for data: 824893600
I0918 11:43:47.794998 39329 layer_factory.hpp:77] Creating layer conv3_1
I0918 11:43:47.795023 39329 net.cpp:91] Creating Layer conv3_1
I0918 11:43:47.795040 39329 net.cpp:425] conv3_1 <- pool2
I0918 11:43:47.795059 39329 net.cpp:399] conv3_1 -> conv3_1
I0918 11:43:47.807121 39329 net.cpp:141] Setting up conv3_1
I0918 11:43:47.807163 39329 net.cpp:148] Top shape: 10 256 56 56 (8028160)
I0918 11:43:47.807183 39329 net.cpp:156] Memory required for data: 857006240
I0918 11:43:47.807209 39329 layer_factory.hpp:77] Creating layer relu3_1
I0918 11:43:47.807231 39329 net.cpp:91] Creating Layer relu3_1
I0918 11:43:47.807248 39329 net.cpp:425] relu3_1 <- conv3_1
I0918 11:43:47.807271 39329 net.cpp:386] relu3_1 -> conv3_1 (in-place)
I0918 11:43:47.807292 39329 net.cpp:141] Setting up relu3_1
I0918 11:43:47.807310 39329 net.cpp:148] Top shape: 10 256 56 56 (8028160)
I0918 11:43:47.807325 39329 net.cpp:156] Memory required for data: 889118880
I0918 11:43:47.807340 39329 layer_factory.hpp:77] Creating layer conv3_2
I0918 11:43:47.807363 39329 net.cpp:91] Creating Layer conv3_2
I0918 11:43:47.807379 39329 net.cpp:425] conv3_2 <- conv3_1
I0918 11:43:47.807401 39329 net.cpp:399] conv3_2 -> conv3_2
I0918 11:43:47.831045 39329 net.cpp:141] Setting up conv3_2
I0918 11:43:47.831076 39329 net.cpp:148] Top shape: 10 256 56 56 (8028160)
I0918 11:43:47.831094 39329 net.cpp:156] Memory required for data: 921231520
I0918 11:43:47.831113 39329 layer_factory.hpp:77] Creating layer relu3_2
I0918 11:43:47.831172 39329 net.cpp:91] Creating Layer relu3_2
I0918 11:43:47.831192 39329 net.cpp:425] relu3_2 <- conv3_2
I0918 11:43:47.831210 39329 net.cpp:386] relu3_2 -> conv3_2 (in-place)
I0918 11:43:47.831231 39329 net.cpp:141] Setting up relu3_2
I0918 11:43:47.831249 39329 net.cpp:148] Top shape: 10 256 56 56 (8028160)
I0918 11:43:47.831264 39329 net.cpp:156] Memory required for data: 953344160
I0918 11:43:47.831280 39329 layer_factory.hpp:77] Creating layer conv3_3
I0918 11:43:47.831310 39329 net.cpp:91] Creating Layer conv3_3
I0918 11:43:47.831326 39329 net.cpp:425] conv3_3 <- conv3_2
I0918 11:43:47.831349 39329 net.cpp:399] conv3_3 -> conv3_3
I0918 11:43:47.854854 39329 net.cpp:141] Setting up conv3_3
I0918 11:43:47.854885 39329 net.cpp:148] Top shape: 10 256 56 56 (8028160)
I0918 11:43:47.854902 39329 net.cpp:156] Memory required for data: 985456800
I0918 11:43:47.854923 39329 layer_factory.hpp:77] Creating layer relu3_3
I0918 11:43:47.854943 39329 net.cpp:91] Creating Layer relu3_3
I0918 11:43:47.854959 39329 net.cpp:425] relu3_3 <- conv3_3
I0918 11:43:47.854980 39329 net.cpp:386] relu3_3 -> conv3_3 (in-place)
I0918 11:43:47.855002 39329 net.cpp:141] Setting up relu3_3
I0918 11:43:47.855020 39329 net.cpp:148] Top shape: 10 256 56 56 (8028160)
I0918 11:43:47.855036 39329 net.cpp:156] Memory required for data: 1017569440
I0918 11:43:47.855051 39329 layer_factory.hpp:77] Creating layer pool3
I0918 11:43:47.855070 39329 net.cpp:91] Creating Layer pool3
I0918 11:43:47.855085 39329 net.cpp:425] pool3 <- conv3_3
I0918 11:43:47.855108 39329 net.cpp:399] pool3 -> pool3
I0918 11:43:47.855168 39329 net.cpp:141] Setting up pool3
I0918 11:43:47.855191 39329 net.cpp:148] Top shape: 10 256 28 28 (2007040)
I0918 11:43:47.855207 39329 net.cpp:156] Memory required for data: 1025597600
I0918 11:43:47.855222 39329 layer_factory.hpp:77] Creating layer conv4_1
I0918 11:43:47.855247 39329 net.cpp:91] Creating Layer conv4_1
I0918 11:43:47.855264 39329 net.cpp:425] conv4_1 <- pool3
I0918 11:43:47.855288 39329 net.cpp:399] conv4_1 -> conv4_1
I0918 11:43:47.901710 39329 net.cpp:141] Setting up conv4_1
I0918 11:43:47.901743 39329 net.cpp:148] Top shape: 10 512 28 28 (4014080)
I0918 11:43:47.901760 39329 net.cpp:156] Memory required for data: 1041653920
I0918 11:43:47.901780 39329 layer_factory.hpp:77] Creating layer relu4_1
I0918 11:43:47.901800 39329 net.cpp:91] Creating Layer relu4_1
I0918 11:43:47.901816 39329 net.cpp:425] relu4_1 <- conv4_1
I0918 11:43:47.901834 39329 net.cpp:386] relu4_1 -> conv4_1 (in-place)
I0918 11:43:47.901854 39329 net.cpp:141] Setting up relu4_1
I0918 11:43:47.901873 39329 net.cpp:148] Top shape: 10 512 28 28 (4014080)
I0918 11:43:47.901888 39329 net.cpp:156] Memory required for data: 1057710240
I0918 11:43:47.901903 39329 layer_factory.hpp:77] Creating layer conv4_2
I0918 11:43:47.901931 39329 net.cpp:91] Creating Layer conv4_2
I0918 11:43:47.901948 39329 net.cpp:425] conv4_2 <- conv4_1
I0918 11:43:47.901970 39329 net.cpp:399] conv4_2 -> conv4_2
I0918 11:43:47.992321 39329 net.cpp:141] Setting up conv4_2
I0918 11:43:47.992386 39329 net.cpp:148] Top shape: 10 512 28 28 (4014080)
I0918 11:43:47.992404 39329 net.cpp:156] Memory required for data: 1073766560
I0918 11:43:47.992432 39329 layer_factory.hpp:77] Creating layer relu4_2
I0918 11:43:47.992456 39329 net.cpp:91] Creating Layer relu4_2
I0918 11:43:47.992475 39329 net.cpp:425] relu4_2 <- conv4_2
I0918 11:43:47.992498 39329 net.cpp:386] relu4_2 -> conv4_2 (in-place)
I0918 11:43:47.992522 39329 net.cpp:141] Setting up relu4_2
I0918 11:43:47.992542 39329 net.cpp:148] Top shape: 10 512 28 28 (4014080)
I0918 11:43:47.992557 39329 net.cpp:156] Memory required for data: 1089822880
I0918 11:43:47.992571 39329 layer_factory.hpp:77] Creating layer conv4_3
I0918 11:43:47.992599 39329 net.cpp:91] Creating Layer conv4_3
I0918 11:43:47.992615 39329 net.cpp:425] conv4_3 <- conv4_2
I0918 11:43:47.992635 39329 net.cpp:399] conv4_3 -> conv4_3
I0918 11:43:48.085454 39329 net.cpp:141] Setting up conv4_3
I0918 11:43:48.085499 39329 net.cpp:148] Top shape: 10 512 28 28 (4014080)
I0918 11:43:48.085551 39329 net.cpp:156] Memory required for data: 1105879200
I0918 11:43:48.085574 39329 layer_factory.hpp:77] Creating layer relu4_3
I0918 11:43:48.085597 39329 net.cpp:91] Creating Layer relu4_3
I0918 11:43:48.085613 39329 net.cpp:425] relu4_3 <- conv4_3
I0918 11:43:48.085645 39329 net.cpp:386] relu4_3 -> conv4_3 (in-place)
I0918 11:43:48.085669 39329 net.cpp:141] Setting up relu4_3
I0918 11:43:48.085688 39329 net.cpp:148] Top shape: 10 512 28 28 (4014080)
I0918 11:43:48.085705 39329 net.cpp:156] Memory required for data: 1121935520
I0918 11:43:48.085719 39329 layer_factory.hpp:77] Creating layer pool4
I0918 11:43:48.085739 39329 net.cpp:91] Creating Layer pool4
I0918 11:43:48.085755 39329 net.cpp:425] pool4 <- conv4_3
I0918 11:43:48.085777 39329 net.cpp:399] pool4 -> pool4
I0918 11:43:48.085841 39329 net.cpp:141] Setting up pool4
I0918 11:43:48.085865 39329 net.cpp:148] Top shape: 10 512 14 14 (1003520)
I0918 11:43:48.085880 39329 net.cpp:156] Memory required for data: 1125949600
I0918 11:43:48.085896 39329 layer_factory.hpp:77] Creating layer conv5_1
I0918 11:43:48.085927 39329 net.cpp:91] Creating Layer conv5_1
I0918 11:43:48.085944 39329 net.cpp:425] conv5_1 <- pool4
I0918 11:43:48.085964 39329 net.cpp:399] conv5_1 -> conv5_1
I0918 11:43:48.176723 39329 net.cpp:141] Setting up conv5_1
I0918 11:43:48.176786 39329 net.cpp:148] Top shape: 10 512 14 14 (1003520)
I0918 11:43:48.176803 39329 net.cpp:156] Memory required for data: 1129963680
I0918 11:43:48.176825 39329 layer_factory.hpp:77] Creating layer relu5_1
I0918 11:43:48.176853 39329 net.cpp:91] Creating Layer relu5_1
I0918 11:43:48.176872 39329 net.cpp:425] relu5_1 <- conv5_1
I0918 11:43:48.176892 39329 net.cpp:386] relu5_1 -> conv5_1 (in-place)
I0918 11:43:48.176914 39329 net.cpp:141] Setting up relu5_1
I0918 11:43:48.176934 39329 net.cpp:148] Top shape: 10 512 14 14 (1003520)
I0918 11:43:48.176949 39329 net.cpp:156] Memory required for data: 1133977760
I0918 11:43:48.176964 39329 layer_factory.hpp:77] Creating layer conv5_2
I0918 11:43:48.176993 39329 net.cpp:91] Creating Layer conv5_2
I0918 11:43:48.177011 39329 net.cpp:425] conv5_2 <- conv5_1
I0918 11:43:48.177031 39329 net.cpp:399] conv5_2 -> conv5_2
I0918 11:43:48.270016 39329 net.cpp:141] Setting up conv5_2
I0918 11:43:48.270059 39329 net.cpp:148] Top shape: 10 512 14 14 (1003520)
I0918 11:43:48.270081 39329 net.cpp:156] Memory required for data: 1137991840
I0918 11:43:48.270102 39329 layer_factory.hpp:77] Creating layer relu5_2
I0918 11:43:48.270125 39329 net.cpp:91] Creating Layer relu5_2
I0918 11:43:48.270143 39329 net.cpp:425] relu5_2 <- conv5_2
I0918 11:43:48.270162 39329 net.cpp:386] relu5_2 -> conv5_2 (in-place)
I0918 11:43:48.270184 39329 net.cpp:141] Setting up relu5_2
I0918 11:43:48.270202 39329 net.cpp:148] Top shape: 10 512 14 14 (1003520)
I0918 11:43:48.270221 39329 net.cpp:156] Memory required for data: 1142005920
I0918 11:43:48.270238 39329 layer_factory.hpp:77] Creating layer conv5_3
I0918 11:43:48.270265 39329 net.cpp:91] Creating Layer conv5_3
I0918 11:43:48.270282 39329 net.cpp:425] conv5_3 <- conv5_2
I0918 11:43:48.270305 39329 net.cpp:399] conv5_3 -> conv5_3
I0918 11:43:48.363164 39329 net.cpp:141] Setting up conv5_3
I0918 11:43:48.363209 39329 net.cpp:148] Top shape: 10 512 14 14 (1003520)
I0918 11:43:48.363229 39329 net.cpp:156] Memory required for data: 1146020000
I0918 11:43:48.363250 39329 layer_factory.hpp:77] Creating layer relu5_3
I0918 11:43:48.363271 39329 net.cpp:91] Creating Layer relu5_3
I0918 11:43:48.363289 39329 net.cpp:425] relu5_3 <- conv5_3
I0918 11:43:48.363312 39329 net.cpp:386] relu5_3 -> conv5_3 (in-place)
I0918 11:43:48.363334 39329 net.cpp:141] Setting up relu5_3
I0918 11:43:48.363353 39329 net.cpp:148] Top shape: 10 512 14 14 (1003520)
I0918 11:43:48.363368 39329 net.cpp:156] Memory required for data: 1150034080
I0918 11:43:48.363384 39329 layer_factory.hpp:77] Creating layer pool5
I0918 11:43:48.363409 39329 net.cpp:91] Creating Layer pool5
I0918 11:43:48.363425 39329 net.cpp:425] pool5 <- conv5_3
I0918 11:43:48.363447 39329 net.cpp:399] pool5 -> pool5
I0918 11:43:48.363549 39329 net.cpp:141] Setting up pool5
I0918 11:43:48.363574 39329 net.cpp:148] Top shape: 10 512 7 7 (250880)
I0918 11:43:48.363590 39329 net.cpp:156] Memory required for data: 1151037600
I0918 11:43:48.363605 39329 layer_factory.hpp:77] Creating layer fc6
I0918 11:43:48.363631 39329 net.cpp:91] Creating Layer fc6
I0918 11:43:48.363648 39329 net.cpp:425] fc6 <- pool5
I0918 11:43:48.363669 39329 net.cpp:399] fc6 -> fc6
I0918 11:43:52.283149 39329 net.cpp:141] Setting up fc6
I0918 11:43:52.283236 39329 net.cpp:148] Top shape: 10 4096 (40960)
I0918 11:43:52.283254 39329 net.cpp:156] Memory required for data: 1151201440
I0918 11:43:52.283288 39329 layer_factory.hpp:77] Creating layer relu6
I0918 11:43:52.283318 39329 net.cpp:91] Creating Layer relu6
I0918 11:43:52.283344 39329 net.cpp:425] relu6 <- fc6
I0918 11:43:52.283365 39329 net.cpp:386] relu6 -> fc6 (in-place)
I0918 11:43:52.283387 39329 net.cpp:141] Setting up relu6
I0918 11:43:52.283407 39329 net.cpp:148] Top shape: 10 4096 (40960)
I0918 11:43:52.283421 39329 net.cpp:156] Memory required for data: 1151365280
I0918 11:43:52.283435 39329 layer_factory.hpp:77] Creating layer drop6
I0918 11:43:52.283457 39329 net.cpp:91] Creating Layer drop6
I0918 11:43:52.283471 39329 net.cpp:425] drop6 <- fc6
I0918 11:43:52.283488 39329 net.cpp:386] drop6 -> fc6 (in-place)
I0918 11:43:52.283541 39329 net.cpp:141] Setting up drop6
I0918 11:43:52.283565 39329 net.cpp:148] Top shape: 10 4096 (40960)
I0918 11:43:52.283579 39329 net.cpp:156] Memory required for data: 1151529120
I0918 11:43:52.283593 39329 layer_factory.hpp:77] Creating layer fc7
I0918 11:43:52.283615 39329 net.cpp:91] Creating Layer fc7
I0918 11:43:52.283633 39329 net.cpp:425] fc7 <- fc6
I0918 11:43:52.283654 39329 net.cpp:399] fc7 -> fc7
I0918 11:43:52.921262 39329 net.cpp:141] Setting up fc7
I0918 11:43:52.921350 39329 net.cpp:148] Top shape: 10 4096 (40960)
I0918 11:43:52.921367 39329 net.cpp:156] Memory required for data: 1151692960
I0918 11:43:52.921402 39329 layer_factory.hpp:77] Creating layer relu7
I0918 11:43:52.921435 39329 net.cpp:91] Creating Layer relu7
I0918 11:43:52.921461 39329 net.cpp:425] relu7 <- fc7
I0918 11:43:52.921483 39329 net.cpp:386] relu7 -> fc7 (in-place)
I0918 11:43:52.921506 39329 net.cpp:141] Setting up relu7
I0918 11:43:52.921526 39329 net.cpp:148] Top shape: 10 4096 (40960)
I0918 11:43:52.921540 39329 net.cpp:156] Memory required for data: 1151856800
I0918 11:43:52.921555 39329 layer_factory.hpp:77] Creating layer drop7
I0918 11:43:52.921574 39329 net.cpp:91] Creating Layer drop7
I0918 11:43:52.921588 39329 net.cpp:425] drop7 <- fc7
I0918 11:43:52.921612 39329 net.cpp:386] drop7 -> fc7 (in-place)
I0918 11:43:52.921684 39329 net.cpp:141] Setting up drop7
I0918 11:43:52.921706 39329 net.cpp:148] Top shape: 10 4096 (40960)
I0918 11:43:52.921721 39329 net.cpp:156] Memory required for data: 1152020640
I0918 11:43:52.921736 39329 layer_factory.hpp:77] Creating layer fc7_drop7_0_split
I0918 11:43:52.921756 39329 net.cpp:91] Creating Layer fc7_drop7_0_split
I0918 11:43:52.921777 39329 net.cpp:425] fc7_drop7_0_split <- fc7
I0918 11:43:52.921793 39329 net.cpp:399] fc7_drop7_0_split -> fc7_drop7_0_split_0
I0918 11:43:52.921813 39329 net.cpp:399] fc7_drop7_0_split -> fc7_drop7_0_split_1
I0918 11:43:52.921872 39329 net.cpp:141] Setting up fc7_drop7_0_split
I0918 11:43:52.921908 39329 net.cpp:148] Top shape: 10 4096 (40960)
I0918 11:43:52.921931 39329 net.cpp:148] Top shape: 10 4096 (40960)
I0918 11:43:52.921946 39329 net.cpp:156] Memory required for data: 1152348320
I0918 11:43:52.921962 39329 layer_factory.hpp:77] Creating layer fc_binary_Color
I0918 11:43:52.921988 39329 net.cpp:91] Creating Layer fc_binary_Color
I0918 11:43:52.922008 39329 net.cpp:425] fc_binary_Color <- fc7_drop7_0_split_0
I0918 11:43:52.922029 39329 net.cpp:399] fc_binary_Color -> fc_binary_Color
I0918 11:43:52.923998 39329 net.cpp:141] Setting up fc_binary_Color
I0918 11:43:52.924023 39329 net.cpp:148] Top shape: 10 12 (120)
I0918 11:43:52.924041 39329 net.cpp:156] Memory required for data: 1152348800
I0918 11:43:52.924098 39329 layer_factory.hpp:77] Creating layer fc_classification_Color
I0918 11:43:52.924125 39329 net.cpp:91] Creating Layer fc_classification_Color
I0918 11:43:52.924141 39329 net.cpp:425] fc_classification_Color <- fc7_drop7_0_split_1
I0918 11:43:52.924165 39329 net.cpp:399] fc_classification_Color -> fc_classification_Color
I0918 11:43:52.925582 39329 net.cpp:141] Setting up fc_classification_Color
I0918 11:43:52.925608 39329 net.cpp:148] Top shape: 10 8 (80)
I0918 11:43:52.925633 39329 net.cpp:156] Memory required for data: 1152349120
I0918 11:43:52.925674 39329 layer_factory.hpp:77] Creating layer fc_classification_Color_fc_classification_Color_0_split
I0918 11:43:52.925696 39329 net.cpp:91] Creating Layer fc_classification_Color_fc_classification_Color_0_split
I0918 11:43:52.925711 39329 net.cpp:425] fc_classification_Color_fc_classification_Color_0_split <- fc_classification_Color
I0918 11:43:52.925729 39329 net.cpp:399] fc_classification_Color_fc_classification_Color_0_split -> fc_classification_Color_fc_classification_Color_0_split_0
I0918 11:43:52.925750 39329 net.cpp:399] fc_classification_Color_fc_classification_Color_0_split -> fc_classification_Color_fc_classification_Color_0_split_1
I0918 11:43:52.925806 39329 net.cpp:141] Setting up fc_classification_Color_fc_classification_Color_0_split
I0918 11:43:52.925830 39329 net.cpp:148] Top shape: 10 8 (80)
I0918 11:43:52.925846 39329 net.cpp:148] Top shape: 10 8 (80)
I0918 11:43:52.925859 39329 net.cpp:156] Memory required for data: 1152349760
I0918 11:43:52.925876 39329 layer_factory.hpp:77] Creating layer accuracy_at_1_Color
I0918 11:43:52.925904 39329 net.cpp:91] Creating Layer accuracy_at_1_Color
I0918 11:43:52.925923 39329 net.cpp:425] accuracy_at_1_Color <- fc_classification_Color_fc_classification_Color_0_split_0
I0918 11:43:52.925940 39329 net.cpp:425] accuracy_at_1_Color <- label_data_1_split_0
…
