…
I0818 14:21:55.047673 44475 solver.cpp:91] Creating training net from net file: CIFAR-10/finetune.prototxt
I0818 14:21:55.048856 44475 net.cpp:313] The NetState phase (0) differed from the phase (1) specified by a rule in layer cifar
I0818 14:21:55.049232 44475 net.cpp:49] Initializing net from parameters: 
name: "CIFAR10_full"
state {
  phase: TRAIN
}
layer {
  name: "cifar"
  type: "Data"
  top: "data"
  top: "label"
  include {
    phase: TRAIN
  }
  transform_param {
    mirror: true
    mean_file: "CIFAR-10/mean.binaryproto"
  }
  data_param {
    source: "CIFAR-10/cifar10_train_lmdb"
    batch_size: 200
    backend: LMDB
  }
}
layer {
  name: "conv1"
  type: "Convolution"
  bottom: "data"
  top: "conv1"
  param {
    lr_mult: 1
    decay_mult: 1
  }
  param {
    lr_mult: 2
    decay_mult: 0
  }
  convolution_param {
    num_output: 32
    pad: 2
    kernel_size: 5
    stride: 1
    weight_filler {
      type: "xavier"
    }
    bias_filler {
      type: "constant"
    }
  }
}
layer {
  name: "pool1"
  type: "Pooling"
  bottom: "conv1"
  top: "pool1"
  pooling_param {
    pool: MAX
    kernel_size: 3
    stride: 2
  }
}
layer {
  name: "relu1"
  type: "ReLU"
  bottom: "pool1"
  top: "pool1"
}
layer {
  name: "norm1"
  type: "LRN"
  bottom: "pool1"
  top: "norm1"
  lrn_param {
    local_size: 3
    alpha: 5e-05
    beta: 0.75
    norm_region: WITHIN_CHANNEL
  }
}
layer {
  name: "conv2"
  type: "Convolution"
  bottom: "norm1"
  top: "conv2"
  param {
    lr_mult: 1
    decay_mult: 1
  }
  param {
    lr_mult: 2
    decay_mult: 0
  }
  convolution_param {
    num_output: 32
    pad: 2
    kernel_size: 5
    stride: 1
    weight_filler {
      type: "xavier"
    }
    bias_filler {
      type: "constant"
    }
  }
}
layer {
  name: "pool2"
  type: "Pooling"
  bottom: "conv2"
  top: "pool2"
  pooling_param {
    pool: AVE
    kernel_size: 3
    stride: 2
  }
}
layer {
  name: "relu2"
  type: "ReLU"
  bottom: "pool2"
  top: "pool2"
}
layer {
  name: "norm2"
  type: "LRN"
  bottom: "pool2"
  top: "norm2"
  lrn_param {
    local_size: 3
    alpha: 5e-05
    beta: 0.75
    norm_region: WITHIN_CHANNEL
  }
}
layer {
  name: "conv3"
  type: "Convolution"
  bottom: "norm2"
  top: "conv3"
  param {
    lr_mult: 1
    decay_mult: 1
  }
  param {
    lr_mult: 2
    decay_mult: 0
  }
  convolution_param {
    num_output: 64
    pad: 2
    kernel_size: 5
    stride: 1
    weight_filler {
      type: "xavier"
    }
    bias_filler {
      type: "constant"
    }
  }
}
layer {
  name: "relu3"
  type: "ReLU"
  bottom: "conv3"
  top: "conv3"
}
layer {
  name: "pool3"
  type: "Pooling"
  bottom: "conv3"
  top: "pool3"
  pooling_param {
    pool: AVE
    kernel_size: 3
    stride: 2
  }
}
layer {
  name: "ip2"
  type: "InnerProduct"
  bottom: "pool3"
  top: "ip2"
  param {
    lr_mult: 1
    decay_mult: 1
  }
  param {
    lr_mult: 2
    decay_mult: 0
  }
  inner_product_param {
    num_output: 500
    weight_filler {
      type: "xavier"
    }
    bias_filler {
      type: "constant"
    }
  }
}
layer {
  name: "relu_ip2"
  type: "ReLU"
  bottom: "ip2"
  top: "ip2"
}
layer {
  name: "ip1_f24"
  type: "InnerProduct"
  bottom: "ip2"
  top: "ip1_f24"
  param {
    lr_mult: 10
    decay_mult: 1
  }
  param {
    lr_mult: 20
    decay_mult: 0
  }
  inner_product_param {
    num_output: 24
    weight_filler {
      type: "xavier"
    }
    bias_filler {
      type: "constant"
    }
  }
}
layer {
  name: "loss"
  type: "HashingLoss"
  bottom: "ip1_f24"
  bottom: "label"
  top: "loss"
  hashing_loss_param {
    bi_margin: 48
    tradeoff: 0.01
  }
}
I0818 14:21:55.049607 44475 layer_factory.hpp:77] Creating layer cifar
I0818 14:21:55.051065 44475 net.cpp:91] Creating Layer cifar
I0818 14:21:55.051163 44475 net.cpp:399] cifar -> data
I0818 14:21:55.051250 44475 net.cpp:399] cifar -> label
I0818 14:21:55.051307 44475 data_transformer.cpp:25] Loading mean file from: CIFAR-10/mean.binaryproto
I0818 14:21:55.052271 44481 db_lmdb.cpp:38] Opened lmdb CIFAR-10/cifar10_train_lmdb
I0818 14:21:55.069663 44475 data_layer.cpp:41] output data size: 200,3,32,32
I0818 14:21:55.075774 44475 net.cpp:141] Setting up cifar
I0818 14:21:55.075913 44475 net.cpp:148] Top shape: 200 3 32 32 (614400)
I0818 14:21:55.075999 44475 net.cpp:148] Top shape: 200 1 1 1 (200)
I0818 14:21:55.076033 44475 net.cpp:156] Memory required for data: 2458400
I0818 14:21:55.076073 44475 layer_factory.hpp:77] Creating layer conv1
I0818 14:21:55.076153 44475 net.cpp:91] Creating Layer conv1
I0818 14:21:55.076202 44475 net.cpp:425] conv1 <- data
I0818 14:21:55.076261 44475 net.cpp:399] conv1 -> conv1
I0818 14:21:55.078188 44475 net.cpp:141] Setting up conv1
I0818 14:21:55.078253 44475 net.cpp:148] Top shape: 200 32 32 32 (6553600)
I0818 14:21:55.078284 44475 net.cpp:156] Memory required for data: 28672800
I0818 14:21:55.078346 44475 layer_factory.hpp:77] Creating layer pool1
I0818 14:21:55.078403 44475 net.cpp:91] Creating Layer pool1
I0818 14:21:55.078446 44475 net.cpp:425] pool1 <- conv1
I0818 14:21:55.078485 44475 net.cpp:399] pool1 -> pool1
I0818 14:21:55.078727 44475 net.cpp:141] Setting up pool1
I0818 14:21:55.078786 44475 net.cpp:148] Top shape: 200 32 16 16 (1638400)
I0818 14:21:55.078819 44475 net.cpp:156] Memory required for data: 35226400
I0818 14:21:55.078850 44475 layer_factory.hpp:77] Creating layer relu1
I0818 14:21:55.078889 44475 net.cpp:91] Creating Layer relu1
I0818 14:21:55.078923 44475 net.cpp:425] relu1 <- pool1
I0818 14:21:55.078989 44475 net.cpp:386] relu1 -> pool1 (in-place)
I0818 14:21:55.079051 44475 net.cpp:141] Setting up relu1
I0818 14:21:55.079090 44475 net.cpp:148] Top shape: 200 32 16 16 (1638400)
I0818 14:21:55.079120 44475 net.cpp:156] Memory required for data: 41780000
I0818 14:21:55.079150 44475 layer_factory.hpp:77] Creating layer norm1
I0818 14:21:55.079193 44475 net.cpp:91] Creating Layer norm1
I0818 14:21:55.079226 44475 net.cpp:425] norm1 <- pool1
I0818 14:21:55.079262 44475 net.cpp:399] norm1 -> norm1
I0818 14:21:55.079676 44475 net.cpp:141] Setting up norm1
I0818 14:21:55.079720 44475 net.cpp:148] Top shape: 200 32 16 16 (1638400)
I0818 14:21:55.079744 44475 net.cpp:156] Memory required for data: 48333600
I0818 14:21:55.079769 44475 layer_factory.hpp:77] Creating layer conv2
I0818 14:21:55.079808 44475 net.cpp:91] Creating Layer conv2
I0818 14:21:55.079839 44475 net.cpp:425] conv2 <- norm1
I0818 14:21:55.079869 44475 net.cpp:399] conv2 -> conv2
I0818 14:21:55.081586 44475 net.cpp:141] Setting up conv2
I0818 14:21:55.081642 44475 net.cpp:148] Top shape: 200 32 16 16 (1638400)
I0818 14:21:55.081674 44475 net.cpp:156] Memory required for data: 54887200
I0818 14:21:55.081712 44475 layer_factory.hpp:77] Creating layer pool2
I0818 14:21:55.081744 44475 net.cpp:91] Creating Layer pool2
I0818 14:21:55.081769 44475 net.cpp:425] pool2 <- conv2
I0818 14:21:55.081799 44475 net.cpp:399] pool2 -> pool2
I0818 14:21:55.081861 44475 net.cpp:141] Setting up pool2
I0818 14:21:55.081899 44475 net.cpp:148] Top shape: 200 32 8 8 (409600)
I0818 14:21:55.081924 44475 net.cpp:156] Memory required for data: 56525600
I0818 14:21:55.081949 44475 layer_factory.hpp:77] Creating layer relu2
I0818 14:21:55.081986 44475 net.cpp:91] Creating Layer relu2
I0818 14:21:55.082011 44475 net.cpp:425] relu2 <- pool2
I0818 14:21:55.082042 44475 net.cpp:386] relu2 -> pool2 (in-place)
I0818 14:21:55.082075 44475 net.cpp:141] Setting up relu2
I0818 14:21:55.082103 44475 net.cpp:148] Top shape: 200 32 8 8 (409600)
I0818 14:21:55.082128 44475 net.cpp:156] Memory required for data: 58164000
I0818 14:21:55.082181 44475 layer_factory.hpp:77] Creating layer norm2
I0818 14:21:55.082213 44475 net.cpp:91] Creating Layer norm2
I0818 14:21:55.082244 44475 net.cpp:425] norm2 <- pool2
I0818 14:21:55.082278 44475 net.cpp:399] norm2 -> norm2
I0818 14:21:55.082518 44475 net.cpp:141] Setting up norm2
I0818 14:21:55.082561 44475 net.cpp:148] Top shape: 200 32 8 8 (409600)
I0818 14:21:55.082592 44475 net.cpp:156] Memory required for data: 59802400
I0818 14:21:55.082615 44475 layer_factory.hpp:77] Creating layer conv3
I0818 14:21:55.082659 44475 net.cpp:91] Creating Layer conv3
I0818 14:21:55.082689 44475 net.cpp:425] conv3 <- norm2
I0818 14:21:55.082720 44475 net.cpp:399] conv3 -> conv3
I0818 14:21:55.083784 44475 net.cpp:141] Setting up conv3
I0818 14:21:55.083833 44475 net.cpp:148] Top shape: 200 64 8 8 (819200)
I0818 14:21:55.083866 44475 net.cpp:156] Memory required for data: 63079200
I0818 14:21:55.083902 44475 layer_factory.hpp:77] Creating layer relu3
I0818 14:21:55.083931 44475 net.cpp:91] Creating Layer relu3
I0818 14:21:55.083956 44475 net.cpp:425] relu3 <- conv3
I0818 14:21:55.083982 44475 net.cpp:386] relu3 -> conv3 (in-place)
I0818 14:21:55.084024 44475 net.cpp:141] Setting up relu3
I0818 14:21:55.084056 44475 net.cpp:148] Top shape: 200 64 8 8 (819200)
I0818 14:21:55.084085 44475 net.cpp:156] Memory required for data: 66356000
I0818 14:21:55.084108 44475 layer_factory.hpp:77] Creating layer pool3
I0818 14:21:55.084147 44475 net.cpp:91] Creating Layer pool3
I0818 14:21:55.084177 44475 net.cpp:425] pool3 <- conv3
I0818 14:21:55.084206 44475 net.cpp:399] pool3 -> pool3
I0818 14:21:55.084273 44475 net.cpp:141] Setting up pool3
I0818 14:21:55.084311 44475 net.cpp:148] Top shape: 200 64 4 4 (204800)
I0818 14:21:55.084336 44475 net.cpp:156] Memory required for data: 67175200
I0818 14:21:55.084359 44475 layer_factory.hpp:77] Creating layer ip2
I0818 14:21:55.084398 44475 net.cpp:91] Creating Layer ip2
I0818 14:21:55.084434 44475 net.cpp:425] ip2 <- pool3
I0818 14:21:55.084468 44475 net.cpp:399] ip2 -> ip2
I0818 14:21:55.093191 44475 net.cpp:141] Setting up ip2
I0818 14:21:55.093242 44475 net.cpp:148] Top shape: 200 500 (100000)
I0818 14:21:55.093274 44475 net.cpp:156] Memory required for data: 67575200
I0818 14:21:55.093307 44475 layer_factory.hpp:77] Creating layer relu_ip2
I0818 14:21:55.093343 44475 net.cpp:91] Creating Layer relu_ip2
I0818 14:21:55.093369 44475 net.cpp:425] relu_ip2 <- ip2
I0818 14:21:55.093396 44475 net.cpp:386] relu_ip2 -> ip2 (in-place)
I0818 14:21:55.093427 44475 net.cpp:141] Setting up relu_ip2
I0818 14:21:55.093459 44475 net.cpp:148] Top shape: 200 500 (100000)
I0818 14:21:55.093483 44475 net.cpp:156] Memory required for data: 67975200
I0818 14:21:55.093508 44475 layer_factory.hpp:77] Creating layer ip1_f24
I0818 14:21:55.093538 44475 net.cpp:91] Creating Layer ip1_f24
I0818 14:21:55.093562 44475 net.cpp:425] ip1_f24 <- ip2
I0818 14:21:55.093600 44475 net.cpp:399] ip1_f24 -> ip1_f24
I0818 14:21:55.095185 44475 net.cpp:141] Setting up ip1_f24
I0818 14:21:55.095240 44475 net.cpp:148] Top shape: 200 24 (4800)
I0818 14:21:55.095270 44475 net.cpp:156] Memory required for data: 67994400
I0818 14:21:55.095307 44475 layer_factory.hpp:77] Creating layer loss
I0818 14:21:55.095345 44475 net.cpp:91] Creating Layer loss
I0818 14:21:55.095372 44475 net.cpp:425] loss <- ip1_f24
I0818 14:21:55.095407 44475 net.cpp:425] loss <- label
I0818 14:21:55.095443 44475 net.cpp:399] loss -> loss
I0818 14:21:55.095600 44475 net.cpp:141] Setting up loss
…
