…
I0818 16:15:52.319422 21808 solver.cpp:91] Creating training net from net file: CIFAR-10/finetune.prototxt
I0818 16:15:52.320052 21808 net.cpp:313] The NetState phase (0) differed from the phase (1) specified by a rule in layer cifar
I0818 16:15:52.320260 21808 net.cpp:49] Initializing net from parameters: 
name: "CIFAR10_full"
state {
  phase: TRAIN
}
layer {
  name: "cifar"
  type: "Data"
  top: "data"
  top: "label"
  include {
    phase: TRAIN
  }
  transform_param {
    mirror: true
    mean_file: "CIFAR-10/mean.binaryproto"
  }
  data_param {
    source: "CIFAR-10/cifar10_train_lmdb"
    batch_size: 200
    backend: LMDB
  }
}
layer {
  name: "conv1"
  type: "Convolution"
  bottom: "data"
  top: "conv1"
  param {
    lr_mult: 1
    decay_mult: 1
  }
  param {
    lr_mult: 2
    decay_mult: 0
  }
  convolution_param {
    num_output: 32
    pad: 2
    kernel_size: 5
    stride: 1
    weight_filler {
      type: "xavier"
    }
    bias_filler {
      type: "constant"
    }
  }
}
layer {
  name: "pool1"
  type: "Pooling"
  bottom: "conv1"
  top: "pool1"
  pooling_param {
    pool: MAX
    kernel_size: 3
    stride: 2
  }
}
layer {
  name: "relu1"
  type: "ReLU"
  bottom: "pool1"
  top: "pool1"
}
layer {
  name: "norm1"
  type: "LRN"
  bottom: "pool1"
  top: "norm1"
  lrn_param {
    local_size: 3
    alpha: 5e-05
    beta: 0.75
    norm_region: WITHIN_CHANNEL
  }
}
layer {
  name: "conv2"
  type: "Convolution"
  bottom: "norm1"
  top: "conv2"
  param {
    lr_mult: 1
    decay_mult: 1
  }
  param {
    lr_mult: 2
    decay_mult: 0
  }
  convolution_param {
    num_output: 32
    pad: 2
    kernel_size: 5
    stride: 1
    weight_filler {
      type: "xavier"
    }
    bias_filler {
      type: "constant"
    }
  }
}
layer {
  name: "pool2"
  type: "Pooling"
  bottom: "conv2"
  top: "pool2"
  pooling_param {
    pool: AVE
    kernel_size: 3
    stride: 2
  }
}
layer {
  name: "relu2"
  type: "ReLU"
  bottom: "pool2"
  top: "pool2"
}
layer {
  name: "norm2"
  type: "LRN"
  bottom: "pool2"
  top: "norm2"
  lrn_param {
    local_size: 3
    alpha: 5e-05
    beta: 0.75
    norm_region: WITHIN_CHANNEL
  }
}
layer {
  name: "conv3"
  type: "Convolution"
  bottom: "norm2"
  top: "conv3"
  param {
    lr_mult: 1
    decay_mult: 1
  }
  param {
    lr_mult: 2
    decay_mult: 0
  }
  convolution_param {
    num_output: 64
    pad: 2
    kernel_size: 5
    stride: 1
    weight_filler {
      type: "xavier"
    }
    bias_filler {
      type: "constant"
    }
  }
}
layer {
  name: "relu3"
  type: "ReLU"
  bottom: "conv3"
  top: "conv3"
}
layer {
  name: "pool3"
  type: "Pooling"
  bottom: "conv3"
  top: "pool3"
  pooling_param {
    pool: AVE
    kernel_size: 3
    stride: 2
  }
}
layer {
  name: "ip2"
  type: "InnerProduct"
  bottom: "pool3"
  top: "ip2"
  param {
    lr_mult: 1
    decay_mult: 1
  }
  param {
    lr_mult: 2
    decay_mult: 0
  }
  inner_product_param {
    num_output: 500
    weight_filler {
      type: "xavier"
    }
    bias_filler {
      type: "constant"
    }
  }
}
layer {
  name: "relu_ip2"
  type: "ReLU"
  bottom: "ip2"
  top: "ip2"
}
layer {
  name: "ip1_f48"
  type: "InnerProduct"
  bottom: "ip2"
  top: "ip1_f48"
  param {
    lr_mult: 10
    decay_mult: 1
  }
  param {
    lr_mult: 20
    decay_mult: 0
  }
  inner_product_param {
    num_output: 48
    weight_filler {
      type: "xavier"
    }
    bias_filler {
      type: "constant"
    }
  }
}
layer {
  name: "loss"
  type: "HashingLoss"
  bottom: "ip1_f48"
  bottom: "label"
  top: "loss"
  hashing_loss_param {
    bi_margin: 96
    tradeoff: 0.01
  }
}
I0818 16:15:52.320896 21808 layer_factory.hpp:77] Creating layer cifar
I0818 16:15:52.321727 21808 net.cpp:91] Creating Layer cifar
I0818 16:15:52.321779 21808 net.cpp:399] cifar -> data
I0818 16:15:52.321838 21808 net.cpp:399] cifar -> label
I0818 16:15:52.321871 21808 data_transformer.cpp:25] Loading mean file from: CIFAR-10/mean.binaryproto
I0818 16:15:52.322811 21814 db_lmdb.cpp:38] Opened lmdb CIFAR-10/cifar10_train_lmdb
I0818 16:15:52.339156 21808 data_layer.cpp:41] output data size: 200,3,32,32
I0818 16:15:52.345548 21808 net.cpp:141] Setting up cifar
I0818 16:15:52.345615 21808 net.cpp:148] Top shape: 200 3 32 32 (614400)
I0818 16:15:52.345638 21808 net.cpp:148] Top shape: 200 1 1 1 (200)
I0818 16:15:52.345654 21808 net.cpp:156] Memory required for data: 2458400
I0818 16:15:52.345679 21808 layer_factory.hpp:77] Creating layer conv1
I0818 16:15:52.345731 21808 net.cpp:91] Creating Layer conv1
I0818 16:15:52.345755 21808 net.cpp:425] conv1 <- data
I0818 16:15:52.345789 21808 net.cpp:399] conv1 -> conv1
I0818 16:15:52.346835 21808 net.cpp:141] Setting up conv1
I0818 16:15:52.346866 21808 net.cpp:148] Top shape: 200 32 32 32 (6553600)
I0818 16:15:52.346884 21808 net.cpp:156] Memory required for data: 28672800
I0818 16:15:52.346918 21808 layer_factory.hpp:77] Creating layer pool1
I0818 16:15:52.346946 21808 net.cpp:91] Creating Layer pool1
I0818 16:15:52.346962 21808 net.cpp:425] pool1 <- conv1
I0818 16:15:52.346989 21808 net.cpp:399] pool1 -> pool1
I0818 16:15:52.347237 21808 net.cpp:141] Setting up pool1
I0818 16:15:52.347265 21808 net.cpp:148] Top shape: 200 32 16 16 (1638400)
I0818 16:15:52.347299 21808 net.cpp:156] Memory required for data: 35226400
I0818 16:15:52.347324 21808 layer_factory.hpp:77] Creating layer relu1
I0818 16:15:52.347357 21808 net.cpp:91] Creating Layer relu1
I0818 16:15:52.347373 21808 net.cpp:425] relu1 <- pool1
I0818 16:15:52.347404 21808 net.cpp:386] relu1 -> pool1 (in-place)
I0818 16:15:52.347445 21808 net.cpp:141] Setting up relu1
I0818 16:15:52.347468 21808 net.cpp:148] Top shape: 200 32 16 16 (1638400)
I0818 16:15:52.347497 21808 net.cpp:156] Memory required for data: 41780000
I0818 16:15:52.347537 21808 layer_factory.hpp:77] Creating layer norm1
I0818 16:15:52.347569 21808 net.cpp:91] Creating Layer norm1
I0818 16:15:52.347584 21808 net.cpp:425] norm1 <- pool1
I0818 16:15:52.347602 21808 net.cpp:399] norm1 -> norm1
I0818 16:15:52.347779 21808 net.cpp:141] Setting up norm1
I0818 16:15:52.347805 21808 net.cpp:148] Top shape: 200 32 16 16 (1638400)
I0818 16:15:52.347821 21808 net.cpp:156] Memory required for data: 48333600
I0818 16:15:52.347859 21808 layer_factory.hpp:77] Creating layer conv2
I0818 16:15:52.347903 21808 net.cpp:91] Creating Layer conv2
I0818 16:15:52.347920 21808 net.cpp:425] conv2 <- norm1
I0818 16:15:52.347949 21808 net.cpp:399] conv2 -> conv2
I0818 16:15:52.349107 21808 net.cpp:141] Setting up conv2
I0818 16:15:52.349149 21808 net.cpp:148] Top shape: 200 32 16 16 (1638400)
I0818 16:15:52.349169 21808 net.cpp:156] Memory required for data: 54887200
I0818 16:15:52.349191 21808 layer_factory.hpp:77] Creating layer pool2
I0818 16:15:52.349220 21808 net.cpp:91] Creating Layer pool2
I0818 16:15:52.349241 21808 net.cpp:425] pool2 <- conv2
I0818 16:15:52.349258 21808 net.cpp:399] pool2 -> pool2
I0818 16:15:52.349301 21808 net.cpp:141] Setting up pool2
I0818 16:15:52.349324 21808 net.cpp:148] Top shape: 200 32 8 8 (409600)
I0818 16:15:52.349339 21808 net.cpp:156] Memory required for data: 56525600
I0818 16:15:52.349357 21808 layer_factory.hpp:77] Creating layer relu2
I0818 16:15:52.349375 21808 net.cpp:91] Creating Layer relu2
I0818 16:15:52.349393 21808 net.cpp:425] relu2 <- pool2
I0818 16:15:52.349418 21808 net.cpp:386] relu2 -> pool2 (in-place)
I0818 16:15:52.349442 21808 net.cpp:141] Setting up relu2
I0818 16:15:52.349460 21808 net.cpp:148] Top shape: 200 32 8 8 (409600)
I0818 16:15:52.349479 21808 net.cpp:156] Memory required for data: 58164000
I0818 16:15:52.349493 21808 layer_factory.hpp:77] Creating layer norm2
I0818 16:15:52.349514 21808 net.cpp:91] Creating Layer norm2
I0818 16:15:52.349529 21808 net.cpp:425] norm2 <- pool2
I0818 16:15:52.349550 21808 net.cpp:399] norm2 -> norm2
I0818 16:15:52.349709 21808 net.cpp:141] Setting up norm2
I0818 16:15:52.349735 21808 net.cpp:148] Top shape: 200 32 8 8 (409600)
I0818 16:15:52.349750 21808 net.cpp:156] Memory required for data: 59802400
I0818 16:15:52.349769 21808 layer_factory.hpp:77] Creating layer conv3
I0818 16:15:52.349802 21808 net.cpp:91] Creating Layer conv3
I0818 16:15:52.349830 21808 net.cpp:425] conv3 <- norm2
I0818 16:15:52.349854 21808 net.cpp:399] conv3 -> conv3
I0818 16:15:52.350520 21808 net.cpp:141] Setting up conv3
I0818 16:15:52.350563 21808 net.cpp:148] Top shape: 200 64 8 8 (819200)
I0818 16:15:52.350582 21808 net.cpp:156] Memory required for data: 63079200
I0818 16:15:52.350605 21808 layer_factory.hpp:77] Creating layer relu3
I0818 16:15:52.350627 21808 net.cpp:91] Creating Layer relu3
I0818 16:15:52.350646 21808 net.cpp:425] relu3 <- conv3
I0818 16:15:52.350663 21808 net.cpp:386] relu3 -> conv3 (in-place)
I0818 16:15:52.350682 21808 net.cpp:141] Setting up relu3
I0818 16:15:52.350703 21808 net.cpp:148] Top shape: 200 64 8 8 (819200)
I0818 16:15:52.350718 21808 net.cpp:156] Memory required for data: 66356000
I0818 16:15:52.350736 21808 layer_factory.hpp:77] Creating layer pool3
I0818 16:15:52.350754 21808 net.cpp:91] Creating Layer pool3
I0818 16:15:52.350769 21808 net.cpp:425] pool3 <- conv3
I0818 16:15:52.350791 21808 net.cpp:399] pool3 -> pool3
I0818 16:15:52.350833 21808 net.cpp:141] Setting up pool3
I0818 16:15:52.350858 21808 net.cpp:148] Top shape: 200 64 4 4 (204800)
I0818 16:15:52.350878 21808 net.cpp:156] Memory required for data: 67175200
I0818 16:15:52.350894 21808 layer_factory.hpp:77] Creating layer ip2
I0818 16:15:52.350924 21808 net.cpp:91] Creating Layer ip2
I0818 16:15:52.350946 21808 net.cpp:425] ip2 <- pool3
I0818 16:15:52.350968 21808 net.cpp:399] ip2 -> ip2
I0818 16:15:52.356564 21808 net.cpp:141] Setting up ip2
I0818 16:15:52.356595 21808 net.cpp:148] Top shape: 200 500 (100000)
I0818 16:15:52.356622 21808 net.cpp:156] Memory required for data: 67575200
I0818 16:15:52.356642 21808 layer_factory.hpp:77] Creating layer relu_ip2
I0818 16:15:52.356665 21808 net.cpp:91] Creating Layer relu_ip2
I0818 16:15:52.356683 21808 net.cpp:425] relu_ip2 <- ip2
I0818 16:15:52.356701 21808 net.cpp:386] relu_ip2 -> ip2 (in-place)
I0818 16:15:52.356722 21808 net.cpp:141] Setting up relu_ip2
I0818 16:15:52.356739 21808 net.cpp:148] Top shape: 200 500 (100000)
I0818 16:15:52.356755 21808 net.cpp:156] Memory required for data: 67975200
I0818 16:15:52.356770 21808 layer_factory.hpp:77] Creating layer ip1_f48
I0818 16:15:52.356789 21808 net.cpp:91] Creating Layer ip1_f48
I0818 16:15:52.356809 21808 net.cpp:425] ip1_f48 <- ip2
I0818 16:15:52.356833 21808 net.cpp:399] ip1_f48 -> ip1_f48
I0818 16:15:52.357162 21808 net.cpp:141] Setting up ip1_f48
I0818 16:15:52.357192 21808 net.cpp:148] Top shape: 200 48 (9600)
I0818 16:15:52.357210 21808 net.cpp:156] Memory required for data: 68013600
I0818 16:15:52.357236 21808 layer_factory.hpp:77] Creating layer loss
I0818 16:15:52.357265 21808 net.cpp:91] Creating Layer loss
I0818 16:15:52.357286 21808 net.cpp:425] loss <- ip1_f48
I0818 16:15:52.357301 21808 net.cpp:425] loss <- label
I0818 16:15:52.357338 21808 net.cpp:399] loss -> loss
I0818 16:15:52.357440 21808 net.cpp:141] Setting up loss
…
