…
I0830 15:06:05.148699 40297 net.cpp:313] The NetState phase (0) differed from the phase (1) specified by a rule in layer accuracy_at_5
I0830 15:06:05.148917 40297 net.cpp:49] Initializing net from parameters: 
name: "docomo_pattern_CNN"
state {
  phase: TRAIN
}
layer {
  name: "cifar"
  type: "Data"
  top: "data"
  top: "label"
  include {
    phase: TRAIN
  }
  transform_param {
    mirror: true
    mean_value: 103.939
    mean_value: 116.779
    mean_value: 123.68
  }
  data_param {
    source: "PATTERN/pattern_train_lmdb"
    batch_size: 200
    backend: LMDB
  }
}
layer {
  name: "conv1"
  type: "Convolution"
  bottom: "data"
  top: "conv1"
  param {
    lr_mult: 1
    decay_mult: 1
  }
  param {
    lr_mult: 2
    decay_mult: 0
  }
  convolution_param {
    num_output: 32
    pad: 2
    kernel_size: 5
    stride: 8
    weight_filler {
      type: "xavier"
    }
    bias_filler {
      type: "constant"
    }
  }
}
layer {
  name: "pool1"
  type: "Pooling"
  bottom: "conv1"
  top: "pool1"
  pooling_param {
    pool: MAX
    kernel_size: 3
    stride: 2
  }
}
layer {
  name: "relu1"
  type: "ReLU"
  bottom: "pool1"
  top: "pool1"
}
layer {
  name: "norm1"
  type: "LRN"
  bottom: "pool1"
  top: "norm1"
  lrn_param {
    local_size: 3
    alpha: 5e-05
    beta: 0.75
    norm_region: WITHIN_CHANNEL
  }
}
layer {
  name: "conv2"
  type: "Convolution"
  bottom: "norm1"
  top: "conv2"
  param {
    lr_mult: 1
    decay_mult: 1
  }
  param {
    lr_mult: 2
    decay_mult: 0
  }
  convolution_param {
    num_output: 32
    pad: 2
    kernel_size: 5
    stride: 1
    weight_filler {
      type: "xavier"
    }
    bias_filler {
      type: "constant"
    }
  }
}
layer {
  name: "pool2"
  type: "Pooling"
  bottom: "conv2"
  top: "pool2"
  pooling_param {
    pool: AVE
    kernel_size: 3
    stride: 2
  }
}
layer {
  name: "relu2"
  type: "ReLU"
  bottom: "pool2"
  top: "pool2"
}
layer {
  name: "norm2"
  type: "LRN"
  bottom: "pool2"
  top: "norm2"
  lrn_param {
    local_size: 3
    alpha: 5e-05
    beta: 0.75
    norm_region: WITHIN_CHANNEL
  }
}
layer {
  name: "conv3"
  type: "Convolution"
  bottom: "norm2"
  top: "conv3"
  param {
    lr_mult: 1
    decay_mult: 1
  }
  param {
    lr_mult: 2
    decay_mult: 0
  }
  convolution_param {
    num_output: 64
    pad: 2
    kernel_size: 5
    stride: 1
    weight_filler {
      type: "xavier"
    }
    bias_filler {
      type: "constant"
    }
  }
}
layer {
  name: "relu3"
  type: "ReLU"
  bottom: "conv3"
  top: "conv3"
}
layer {
  name: "pool3"
  type: "Pooling"
  bottom: "conv3"
  top: "pool3"
  pooling_param {
    pool: AVE
    kernel_size: 3
    stride: 2
  }
}
layer {
  name: "dropout_conv3"
  type: "Dropout"
  bottom: "pool3"
  top: "dropout_conv3"
  dropout_param {
    dropout_ratio: 0.5
  }
}
layer {
  name: "ip500"
  type: "InnerProduct"
  bottom: "dropout_conv3"
  top: "ip500"
  param {
    lr_mult: 1
    decay_mult: 1
  }
  param {
    lr_mult: 2
    decay_mult: 0
  }
  inner_product_param {
    num_output: 500
    weight_filler {
      type: "gaussian"
      std: 0.005
    }
    bias_filler {
      type: "constant"
      value: 0.1
    }
  }
}
layer {
  name: "relu_ip500"
  type: "ReLU"
  bottom: "ip500"
  top: "ip500"
}
layer {
  name: "dropout_ip500"
  type: "Dropout"
  bottom: "ip500"
  top: "ip500"
  dropout_param {
    dropout_ratio: 0.5
  }
}
layer {
  name: "ip_hash"
  type: "InnerProduct"
  bottom: "ip500"
  top: "ip_hash"
  param {
    lr_mult: 1
    decay_mult: 1
  }
  param {
    lr_mult: 2
    decay_mult: 0
  }
  inner_product_param {
    num_output: 12
    weight_filler {
      type: "gaussian"
      std: 0.005
    }
    bias_filler {
      type: "constant"
      value: 0.1
    }
  }
}
layer {
  name: "ip_classification"
  type: "InnerProduct"
  bottom: "ip500"
  top: "ip_classification"
  param {
    lr_mult: 1
    decay_mult: 1
  }
  param {
    lr_mult: 2
    decay_mult: 0
  }
  inner_product_param {
    num_output: 7
    weight_filler {
      type: "gaussian"
      std: 0.005
    }
    bias_filler {
      type: "constant"
      value: 0.1
    }
  }
}
layer {
  name: "loss_hash"
  type: "HashingLoss"
  bottom: "ip_hash"
  bottom: "label"
  top: "loss_hash"
  loss_weight: 0.1
  hashing_loss_param {
    bi_margin: 24
    tradeoff: 0.01
  }
}
layer {
  name: "loss_classification"
  type: "SoftmaxWithLoss"
  bottom: "ip_classification"
  bottom: "label"
  top: "loss_classification"
}
I0830 15:06:05.150218 40297 layer_factory.hpp:77] Creating layer cifar
I0830 15:06:05.151005 40297 net.cpp:91] Creating Layer cifar
I0830 15:06:05.151079 40297 net.cpp:399] cifar -> data
I0830 15:06:05.151139 40297 net.cpp:399] cifar -> label
I0830 15:06:05.152241 40301 db_lmdb.cpp:38] Opened lmdb PATTERN/pattern_train_lmdb
I0830 15:06:05.168253 40297 data_layer.cpp:41] output data size: 200,3,224,224
I0830 15:06:05.405658 40297 net.cpp:141] Setting up cifar
I0830 15:06:05.405761 40297 net.cpp:148] Top shape: 200 3 224 224 (30105600)
I0830 15:06:05.405784 40297 net.cpp:148] Top shape: 200 1 1 1 (200)
I0830 15:06:05.405800 40297 net.cpp:156] Memory required for data: 120423200
I0830 15:06:05.405830 40297 layer_factory.hpp:77] Creating layer label_cifar_1_split
I0830 15:06:05.405860 40297 net.cpp:91] Creating Layer label_cifar_1_split
I0830 15:06:05.405884 40297 net.cpp:425] label_cifar_1_split <- label
I0830 15:06:05.405916 40297 net.cpp:399] label_cifar_1_split -> label_cifar_1_split_0
I0830 15:06:05.405956 40297 net.cpp:399] label_cifar_1_split -> label_cifar_1_split_1
I0830 15:06:05.406031 40297 net.cpp:141] Setting up label_cifar_1_split
I0830 15:06:05.406056 40297 net.cpp:148] Top shape: 200 1 1 1 (200)
I0830 15:06:05.406075 40297 net.cpp:148] Top shape: 200 1 1 1 (200)
I0830 15:06:05.406090 40297 net.cpp:156] Memory required for data: 120424800
I0830 15:06:05.406105 40297 layer_factory.hpp:77] Creating layer conv1
I0830 15:06:05.406146 40297 net.cpp:91] Creating Layer conv1
I0830 15:06:05.406168 40297 net.cpp:425] conv1 <- data
I0830 15:06:05.406191 40297 net.cpp:399] conv1 -> conv1
I0830 15:06:05.407795 40297 net.cpp:141] Setting up conv1
I0830 15:06:05.407827 40297 net.cpp:148] Top shape: 200 32 28 28 (5017600)
I0830 15:06:05.407852 40297 net.cpp:156] Memory required for data: 140495200
I0830 15:06:05.407887 40297 layer_factory.hpp:77] Creating layer pool1
I0830 15:06:05.407917 40297 net.cpp:91] Creating Layer pool1
I0830 15:06:05.407943 40297 net.cpp:425] pool1 <- conv1
I0830 15:06:05.407964 40297 net.cpp:399] pool1 -> pool1
I0830 15:06:05.417093 40297 net.cpp:141] Setting up pool1
I0830 15:06:05.417129 40297 net.cpp:148] Top shape: 200 32 14 14 (1254400)
I0830 15:06:05.417151 40297 net.cpp:156] Memory required for data: 145512800
I0830 15:06:05.417168 40297 layer_factory.hpp:77] Creating layer relu1
I0830 15:06:05.417191 40297 net.cpp:91] Creating Layer relu1
I0830 15:06:05.417207 40297 net.cpp:425] relu1 <- pool1
I0830 15:06:05.417228 40297 net.cpp:386] relu1 -> pool1 (in-place)
I0830 15:06:05.417261 40297 net.cpp:141] Setting up relu1
I0830 15:06:05.417279 40297 net.cpp:148] Top shape: 200 32 14 14 (1254400)
I0830 15:06:05.417296 40297 net.cpp:156] Memory required for data: 150530400
I0830 15:06:05.417311 40297 layer_factory.hpp:77] Creating layer norm1
I0830 15:06:05.417331 40297 net.cpp:91] Creating Layer norm1
I0830 15:06:05.417349 40297 net.cpp:425] norm1 <- pool1
I0830 15:06:05.417420 40297 net.cpp:399] norm1 -> norm1
I0830 15:06:05.417574 40297 net.cpp:141] Setting up norm1
I0830 15:06:05.417601 40297 net.cpp:148] Top shape: 200 32 14 14 (1254400)
I0830 15:06:05.417618 40297 net.cpp:156] Memory required for data: 155548000
I0830 15:06:05.417631 40297 layer_factory.hpp:77] Creating layer conv2
I0830 15:06:05.417659 40297 net.cpp:91] Creating Layer conv2
I0830 15:06:05.417680 40297 net.cpp:425] conv2 <- norm1
I0830 15:06:05.417698 40297 net.cpp:399] conv2 -> conv2
I0830 15:06:05.418845 40297 net.cpp:141] Setting up conv2
I0830 15:06:05.418874 40297 net.cpp:148] Top shape: 200 32 14 14 (1254400)
I0830 15:06:05.418898 40297 net.cpp:156] Memory required for data: 160565600
I0830 15:06:05.418923 40297 layer_factory.hpp:77] Creating layer pool2
I0830 15:06:05.418947 40297 net.cpp:91] Creating Layer pool2
I0830 15:06:05.418964 40297 net.cpp:425] pool2 <- conv2
I0830 15:06:05.418990 40297 net.cpp:399] pool2 -> pool2
I0830 15:06:05.419039 40297 net.cpp:141] Setting up pool2
I0830 15:06:05.419065 40297 net.cpp:148] Top shape: 200 32 7 7 (313600)
I0830 15:06:05.419081 40297 net.cpp:156] Memory required for data: 161820000
I0830 15:06:05.419096 40297 layer_factory.hpp:77] Creating layer relu2
I0830 15:06:05.419116 40297 net.cpp:91] Creating Layer relu2
I0830 15:06:05.419131 40297 net.cpp:425] relu2 <- pool2
I0830 15:06:05.419153 40297 net.cpp:386] relu2 -> pool2 (in-place)
I0830 15:06:05.419180 40297 net.cpp:141] Setting up relu2
I0830 15:06:05.419200 40297 net.cpp:148] Top shape: 200 32 7 7 (313600)
I0830 15:06:05.419216 40297 net.cpp:156] Memory required for data: 163074400
I0830 15:06:05.419234 40297 layer_factory.hpp:77] Creating layer norm2
I0830 15:06:05.419255 40297 net.cpp:91] Creating Layer norm2
I0830 15:06:05.419273 40297 net.cpp:425] norm2 <- pool2
I0830 15:06:05.419291 40297 net.cpp:399] norm2 -> norm2
I0830 15:06:05.419409 40297 net.cpp:141] Setting up norm2
I0830 15:06:05.419435 40297 net.cpp:148] Top shape: 200 32 7 7 (313600)
I0830 15:06:05.419450 40297 net.cpp:156] Memory required for data: 164328800
I0830 15:06:05.419464 40297 layer_factory.hpp:77] Creating layer conv3
I0830 15:06:05.419489 40297 net.cpp:91] Creating Layer conv3
I0830 15:06:05.419512 40297 net.cpp:425] conv3 <- norm2
I0830 15:06:05.419530 40297 net.cpp:399] conv3 -> conv3
I0830 15:06:05.420197 40297 net.cpp:141] Setting up conv3
I0830 15:06:05.420223 40297 net.cpp:148] Top shape: 200 64 7 7 (627200)
I0830 15:06:05.420238 40297 net.cpp:156] Memory required for data: 166837600
I0830 15:06:05.420260 40297 layer_factory.hpp:77] Creating layer relu3
I0830 15:06:05.420284 40297 net.cpp:91] Creating Layer relu3
I0830 15:06:05.420300 40297 net.cpp:425] relu3 <- conv3
I0830 15:06:05.420317 40297 net.cpp:386] relu3 -> conv3 (in-place)
I0830 15:06:05.420337 40297 net.cpp:141] Setting up relu3
I0830 15:06:05.420354 40297 net.cpp:148] Top shape: 200 64 7 7 (627200)
I0830 15:06:05.420369 40297 net.cpp:156] Memory required for data: 169346400
I0830 15:06:05.420384 40297 layer_factory.hpp:77] Creating layer pool3
I0830 15:06:05.420405 40297 net.cpp:91] Creating Layer pool3
I0830 15:06:05.420425 40297 net.cpp:425] pool3 <- conv3
I0830 15:06:05.420442 40297 net.cpp:399] pool3 -> pool3
I0830 15:06:05.420482 40297 net.cpp:141] Setting up pool3
I0830 15:06:05.420506 40297 net.cpp:148] Top shape: 200 64 3 3 (115200)
I0830 15:06:05.420522 40297 net.cpp:156] Memory required for data: 169807200
I0830 15:06:05.420537 40297 layer_factory.hpp:77] Creating layer dropout_conv3
I0830 15:06:05.420563 40297 net.cpp:91] Creating Layer dropout_conv3
I0830 15:06:05.420583 40297 net.cpp:425] dropout_conv3 <- pool3
I0830 15:06:05.420603 40297 net.cpp:399] dropout_conv3 -> dropout_conv3
I0830 15:06:05.420663 40297 net.cpp:141] Setting up dropout_conv3
I0830 15:06:05.420689 40297 net.cpp:148] Top shape: 200 64 3 3 (115200)
I0830 15:06:05.420706 40297 net.cpp:156] Memory required for data: 170268000
I0830 15:06:05.420720 40297 layer_factory.hpp:77] Creating layer ip500
I0830 15:06:05.420745 40297 net.cpp:91] Creating Layer ip500
I0830 15:06:05.420783 40297 net.cpp:425] ip500 <- dropout_conv3
I0830 15:06:05.420804 40297 net.cpp:399] ip500 -> ip500
I0830 15:06:05.432823 40297 net.cpp:141] Setting up ip500
I0830 15:06:05.432881 40297 net.cpp:148] Top shape: 200 500 (100000)
I0830 15:06:05.432906 40297 net.cpp:156] Memory required for data: 170668000
I0830 15:06:05.432930 40297 layer_factory.hpp:77] Creating layer relu_ip500
I0830 15:06:05.432955 40297 net.cpp:91] Creating Layer relu_ip500
I0830 15:06:05.432981 40297 net.cpp:425] relu_ip500 <- ip500
I0830 15:06:05.433002 40297 net.cpp:386] relu_ip500 -> ip500 (in-place)
I0830 15:06:05.433027 40297 net.cpp:141] Setting up relu_ip500
I0830 15:06:05.433048 40297 net.cpp:148] Top shape: 200 500 (100000)
I0830 15:06:05.433063 40297 net.cpp:156] Memory required for data: 171068000
I0830 15:06:05.433078 40297 layer_factory.hpp:77] Creating layer dropout_ip500
I0830 15:06:05.433101 40297 net.cpp:91] Creating Layer dropout_ip500
I0830 15:06:05.433117 40297 net.cpp:425] dropout_ip500 <- ip500
I0830 15:06:05.433135 40297 net.cpp:386] dropout_ip500 -> ip500 (in-place)
I0830 15:06:05.433182 40297 net.cpp:141] Setting up dropout_ip500
I0830 15:06:05.433207 40297 net.cpp:148] Top shape: 200 500 (100000)
I0830 15:06:05.433223 40297 net.cpp:156] Memory required for data: 171468000
I0830 15:06:05.433238 40297 layer_factory.hpp:77] Creating layer ip500_dropout_ip500_0_split
I0830 15:06:05.433257 40297 net.cpp:91] Creating Layer ip500_dropout_ip500_0_split
I0830 15:06:05.433272 40297 net.cpp:425] ip500_dropout_ip500_0_split <- ip500
I0830 15:06:05.433291 40297 net.cpp:399] ip500_dropout_ip500_0_split -> ip500_dropout_ip500_0_split_0
I0830 15:06:05.433312 40297 net.cpp:399] ip500_dropout_ip500_0_split -> ip500_dropout_ip500_0_split_1
I0830 15:06:05.433367 40297 net.cpp:141] Setting up ip500_dropout_ip500_0_split
I0830 15:06:05.433390 40297 net.cpp:148] Top shape: 200 500 (100000)
I0830 15:06:05.433408 40297 net.cpp:148] Top shape: 200 500 (100000)
I0830 15:06:05.433423 40297 net.cpp:156] Memory required for data: 172268000
I0830 15:06:05.433437 40297 layer_factory.hpp:77] Creating layer ip_hash
I0830 15:06:05.433459 40297 net.cpp:91] Creating Layer ip_hash
I0830 15:06:05.433475 40297 net.cpp:425] ip_hash <- ip500_dropout_ip500_0_split_0
I0830 15:06:05.433498 40297 net.cpp:399] ip_hash -> ip_hash
I0830 15:06:05.434571 40297 net.cpp:141] Setting up ip_hash
I0830 15:06:05.434600 40297 net.cpp:148] Top shape: 200 12 (2400)
I0830 15:06:05.434617 40297 net.cpp:156] Memory required for data: 172277600
I0830 15:06:05.434640 40297 layer_factory.hpp:77] Creating layer ip_classification
I0830 15:06:05.434669 40297 net.cpp:91] Creating Layer ip_classification
I0830 15:06:05.434686 40297 net.cpp:425] ip_classification <- ip500_dropout_ip500_0_split_1
I0830 15:06:05.434710 40297 net.cpp:399] ip_classification -> ip_classification
I0830 15:06:05.434968 40297 net.cpp:141] Setting up ip_classification
I0830 15:06:05.434994 40297 net.cpp:148] Top shape: 200 7 (1400)
I0830 15:06:05.435010 40297 net.cpp:156] Memory required for data: 172283200
I0830 15:06:05.435030 40297 layer_factory.hpp:77] Creating layer loss_hash
I0830 15:06:05.435057 40297 net.cpp:91] Creating Layer loss_hash
I0830 15:06:05.435075 40297 net.cpp:425] loss_hash <- ip_hash
I0830 15:06:05.435092 40297 net.cpp:425] loss_hash <- label_cifar_1_split_0
I0830 15:06:05.435111 40297 net.cpp:399] loss_hash -> loss_hash
…
I0830 15:06:05.436835 40297 net.cpp:313] The NetState phase (1) differed from the phase (0) specified by a rule in layer cifar
I0830 15:06:05.437063 40297 net.cpp:49] Initializing net from parameters: 
name: "docomo_pattern_CNN"
state {
  phase: TEST
}
layer {
  name: "cifar"
  type: "Data"
  top: "data"
  top: "label"
  include {
    phase: TEST
  }
  transform_param {
    mirror: false
    mean_value: 103.939
    mean_value: 116.779
    mean_value: 123.68
  }
  data_param {
    source: "PATTERN/pattern_val_lmdb"
    batch_size: 100
    backend: LMDB
  }
}
layer {
  name: "conv1"
  type: "Convolution"
  bottom: "data"
  top: "conv1"
  param {
    lr_mult: 1
    decay_mult: 1
  }
  param {
    lr_mult: 2
    decay_mult: 0
  }
  convolution_param {
    num_output: 32
    pad: 2
    kernel_size: 5
    stride: 8
    weight_filler {
      type: "xavier"
    }
    bias_filler {
      type: "constant"
    }
  }
}
layer {
  name: "pool1"
  type: "Pooling"
  bottom: "conv1"
  top: "pool1"
  pooling_param {
    pool: MAX
    kernel_size: 3
    stride: 2
  }
}
layer {
  name: "relu1"
  type: "ReLU"
  bottom: "pool1"
  top: "pool1"
}
layer {
  name: "norm1"
  type: "LRN"
  bottom: "pool1"
  top: "norm1"
  lrn_param {
    local_size: 3
    alpha: 5e-05
    beta: 0.75
    norm_region: WITHIN_CHANNEL
  }
}
layer {
  name: "conv2"
  type: "Convolution"
  bottom: "norm1"
  top: "conv2"
  param {
    lr_mult: 1
    decay_mult: 1
  }
  param {
    lr_mult: 2
    decay_mult: 0
  }
  convolution_param {
    num_output: 32
    pad: 2
    kernel_size: 5
    stride: 1
    weight_filler {
      type: "xavier"
    }
    bias_filler {
      type: "constant"
    }
  }
}
layer {
  name: "pool2"
  type: "Pooling"
  bottom: "conv2"
  top: "pool2"
  pooling_param {
    pool: AVE
    kernel_size: 3
    stride: 2
  }
}
layer {
  name: "relu2"
  type: "ReLU"
  bottom: "pool2"
  top: "pool2"
}
layer {
  name: "norm2"
  type: "LRN"
  bottom: "pool2"
  top: "norm2"
  lrn_param {
    local_size: 3
    alpha: 5e-05
    beta: 0.75
    norm_region: WITHIN_CHANNEL
  }
}
layer {
  name: "conv3"
  type: "Convolution"
  bottom: "norm2"
  top: "conv3"
  param {
    lr_mult: 1
    decay_mult: 1
  }
  param {
    lr_mult: 2
    decay_mult: 0
  }
  convolution_param {
    num_output: 64
    pad: 2
    kernel_size: 5
    stride: 1
    weight_filler {
      type: "xavier"
    }
    bias_filler {
      type: "constant"
    }
  }
}
layer {
  name: "relu3"
  type: "ReLU"
  bottom: "conv3"
  top: "conv3"
}
layer {
  name: "pool3"
  type: "Pooling"
  bottom: "conv3"
  top: "pool3"
  pooling_param {
    pool: AVE
    kernel_size: 3
    stride: 2
  }
}
layer {
  name: "dropout_conv3"
  type: "Dropout"
  bottom: "pool3"
  top: "dropout_conv3"
  dropout_param {
    dropout_ratio: 0.5
  }
}
layer {
  name: "ip500"
  type: "InnerProduct"
  bottom: "dropout_conv3"
  top: "ip500"
  param {
    lr_mult: 1
    decay_mult: 1
  }
  param {
    lr_mult: 2
    decay_mult: 0
  }
  inner_product_param {
    num_output: 500
    weight_filler {
      type: "gaussian"
      std: 0.005
    }
    bias_filler {
      type: "constant"
      value: 0.1
    }
  }
}
layer {
  name: "relu_ip500"
  type: "ReLU"
  bottom: "ip500"
  top: "ip500"
}
layer {
  name: "dropout_ip500"
  type: "Dropout"
  bottom: "ip500"
  top: "ip500"
  dropout_param {
    dropout_ratio: 0.5
  }
}
layer {
  name: "ip_hash"
  type: "InnerProduct"
  bottom: "ip500"
  top: "ip_hash"
  param {
    lr_mult: 1
    decay_mult: 1
  }
  param {
    lr_mult: 2
    decay_mult: 0
  }
  inner_product_param {
    num_output: 12
    weight_filler {
      type: "gaussian"
      std: 0.005
    }
    bias_filler {
      type: "constant"
      value: 0.1
    }
  }
}
layer {
  name: "ip_classification"
  type: "InnerProduct"
  bottom: "ip500"
  top: "ip_classification"
  param {
    lr_mult: 1
    decay_mult: 1
  }
  param {
    lr_mult: 2
    decay_mult: 0
  }
  inner_product_param {
    num_output: 7
    weight_filler {
      type: "gaussian"
      std: 0.005
    }
    bias_filler {
      type: "constant"
      value: 0.1
    }
  }
}
layer {
  name: "loss_hash"
  type: "HashingLoss"
  bottom: "ip_hash"
  bottom: "label"
  top: "loss_hash"
  loss_weight: 0.1
  hashing_loss_param {
    bi_margin: 24
    tradeoff: 0.01
  }
}
layer {
  name: "loss_classification"
  type: "SoftmaxWithLoss"
  bottom: "ip_classification"
  bottom: "label"
  top: "loss_classification"
}
layer {
  name: "accuracy_at_1"
  type: "Accuracy"
  bottom: "ip_classification"
  bottom: "label"
  top: "accuracy_at_1"
  include {
    phase: TEST
  }
  accuracy_param {
    top_k: 1
  }
}
layer {
  name: "accuracy_at_5"
  type: "Accuracy"
  bottom: "ip_classification"
  bottom: "label"
  top: "accuracy_at_5"
  include {
    phase: TEST
  }
  accuracy_param {
    top_k: 5
  }
}
I0830 15:06:05.438415 40297 layer_factory.hpp:77] Creating layer cifar
I0830 15:06:05.438591 40297 net.cpp:91] Creating Layer cifar
I0830 15:06:05.438621 40297 net.cpp:399] cifar -> data
I0830 15:06:05.438647 40297 net.cpp:399] cifar -> label
I0830 15:06:05.439764 40303 db_lmdb.cpp:38] Opened lmdb PATTERN/pattern_val_lmdb
I0830 15:06:05.440214 40297 data_layer.cpp:41] output data size: 100,3,224,224
I0830 15:06:05.560781 40297 net.cpp:141] Setting up cifar
I0830 15:06:05.560854 40297 net.cpp:148] Top shape: 100 3 224 224 (15052800)
I0830 15:06:05.560878 40297 net.cpp:148] Top shape: 100 1 1 1 (100)
I0830 15:06:05.560895 40297 net.cpp:156] Memory required for data: 60211600
I0830 15:06:05.560916 40297 layer_factory.hpp:77] Creating layer label_cifar_1_split
I0830 15:06:05.560952 40297 net.cpp:91] Creating Layer label_cifar_1_split
I0830 15:06:05.560972 40297 net.cpp:425] label_cifar_1_split <- label
I0830 15:06:05.561046 40297 net.cpp:399] label_cifar_1_split -> label_cifar_1_split_0
I0830 15:06:05.561089 40297 net.cpp:399] label_cifar_1_split -> label_cifar_1_split_1
I0830 15:06:05.561113 40297 net.cpp:399] label_cifar_1_split -> label_cifar_1_split_2
I0830 15:06:05.561136 40297 net.cpp:399] label_cifar_1_split -> label_cifar_1_split_3
I0830 15:06:05.561250 40297 net.cpp:141] Setting up label_cifar_1_split
I0830 15:06:05.561278 40297 net.cpp:148] Top shape: 100 1 1 1 (100)
I0830 15:06:05.561300 40297 net.cpp:148] Top shape: 100 1 1 1 (100)
I0830 15:06:05.561318 40297 net.cpp:148] Top shape: 100 1 1 1 (100)
I0830 15:06:05.561342 40297 net.cpp:148] Top shape: 100 1 1 1 (100)
I0830 15:06:05.561359 40297 net.cpp:156] Memory required for data: 60213200
I0830 15:06:05.561377 40297 layer_factory.hpp:77] Creating layer conv1
I0830 15:06:05.561409 40297 net.cpp:91] Creating Layer conv1
I0830 15:06:05.561429 40297 net.cpp:425] conv1 <- data
I0830 15:06:05.561462 40297 net.cpp:399] conv1 -> conv1
I0830 15:06:05.561796 40297 net.cpp:141] Setting up conv1
I0830 15:06:05.561825 40297 net.cpp:148] Top shape: 100 32 28 28 (2508800)
I0830 15:06:05.561841 40297 net.cpp:156] Memory required for data: 70248400
I0830 15:06:05.561867 40297 layer_factory.hpp:77] Creating layer pool1
I0830 15:06:05.561894 40297 net.cpp:91] Creating Layer pool1
I0830 15:06:05.561913 40297 net.cpp:425] pool1 <- conv1
I0830 15:06:05.561942 40297 net.cpp:399] pool1 -> pool1
I0830 15:06:05.562077 40297 net.cpp:141] Setting up pool1
I0830 15:06:05.562105 40297 net.cpp:148] Top shape: 100 32 14 14 (627200)
I0830 15:06:05.562122 40297 net.cpp:156] Memory required for data: 72757200
I0830 15:06:05.562139 40297 layer_factory.hpp:77] Creating layer relu1
I0830 15:06:05.562161 40297 net.cpp:91] Creating Layer relu1
I0830 15:06:05.562182 40297 net.cpp:425] relu1 <- pool1
I0830 15:06:05.562201 40297 net.cpp:386] relu1 -> pool1 (in-place)
I0830 15:06:05.562223 40297 net.cpp:141] Setting up relu1
I0830 15:06:05.562243 40297 net.cpp:148] Top shape: 100 32 14 14 (627200)
I0830 15:06:05.562260 40297 net.cpp:156] Memory required for data: 75266000
I0830 15:06:05.562283 40297 layer_factory.hpp:77] Creating layer norm1
I0830 15:06:05.562305 40297 net.cpp:91] Creating Layer norm1
I0830 15:06:05.562325 40297 net.cpp:425] norm1 <- pool1
I0830 15:06:05.562347 40297 net.cpp:399] norm1 -> norm1
I0830 15:06:05.584664 40297 net.cpp:141] Setting up norm1
I0830 15:06:05.584707 40297 net.cpp:148] Top shape: 100 32 14 14 (627200)
I0830 15:06:05.584725 40297 net.cpp:156] Memory required for data: 77774800
I0830 15:06:05.584741 40297 layer_factory.hpp:77] Creating layer conv2
I0830 15:06:05.584772 40297 net.cpp:91] Creating Layer conv2
I0830 15:06:05.584790 40297 net.cpp:425] conv2 <- norm1
I0830 15:06:05.584810 40297 net.cpp:399] conv2 -> conv2
I0830 15:06:05.585311 40297 net.cpp:141] Setting up conv2
I0830 15:06:05.585343 40297 net.cpp:148] Top shape: 100 32 14 14 (627200)
I0830 15:06:05.585361 40297 net.cpp:156] Memory required for data: 80283600
I0830 15:06:05.585387 40297 layer_factory.hpp:77] Creating layer pool2
I0830 15:06:05.585408 40297 net.cpp:91] Creating Layer pool2
I0830 15:06:05.585424 40297 net.cpp:425] pool2 <- conv2
I0830 15:06:05.585448 40297 net.cpp:399] pool2 -> pool2
I0830 15:06:05.585494 40297 net.cpp:141] Setting up pool2
I0830 15:06:05.585520 40297 net.cpp:148] Top shape: 100 32 7 7 (156800)
I0830 15:06:05.585536 40297 net.cpp:156] Memory required for data: 80910800
I0830 15:06:05.585551 40297 layer_factory.hpp:77] Creating layer relu2
I0830 15:06:05.585574 40297 net.cpp:91] Creating Layer relu2
I0830 15:06:05.585592 40297 net.cpp:425] relu2 <- pool2
I0830 15:06:05.585613 40297 net.cpp:386] relu2 -> pool2 (in-place)
I0830 15:06:05.585635 40297 net.cpp:141] Setting up relu2
I0830 15:06:05.585654 40297 net.cpp:148] Top shape: 100 32 7 7 (156800)
I0830 15:06:05.585669 40297 net.cpp:156] Memory required for data: 81538000
I0830 15:06:05.585685 40297 layer_factory.hpp:77] Creating layer norm2
I0830 15:06:05.585702 40297 net.cpp:91] Creating Layer norm2
I0830 15:06:05.585718 40297 net.cpp:425] norm2 <- pool2
I0830 15:06:05.585763 40297 net.cpp:399] norm2 -> norm2
I0830 15:06:05.585886 40297 net.cpp:141] Setting up norm2
I0830 15:06:05.585916 40297 net.cpp:148] Top shape: 100 32 7 7 (156800)
I0830 15:06:05.585932 40297 net.cpp:156] Memory required for data: 82165200
I0830 15:06:05.585947 40297 layer_factory.hpp:77] Creating layer conv3
I0830 15:06:05.585973 40297 net.cpp:91] Creating Layer conv3
I0830 15:06:05.585991 40297 net.cpp:425] conv3 <- norm2
I0830 15:06:05.586011 40297 net.cpp:399] conv3 -> conv3
I0830 15:06:05.586730 40297 net.cpp:141] Setting up conv3
I0830 15:06:05.586760 40297 net.cpp:148] Top shape: 100 64 7 7 (313600)
I0830 15:06:05.586776 40297 net.cpp:156] Memory required for data: 83419600
I0830 15:06:05.586802 40297 layer_factory.hpp:77] Creating layer relu3
I0830 15:06:05.586820 40297 net.cpp:91] Creating Layer relu3
I0830 15:06:05.586838 40297 net.cpp:425] relu3 <- conv3
I0830 15:06:05.586856 40297 net.cpp:386] relu3 -> conv3 (in-place)
I0830 15:06:05.586877 40297 net.cpp:141] Setting up relu3
I0830 15:06:05.586894 40297 net.cpp:148] Top shape: 100 64 7 7 (313600)
I0830 15:06:05.586910 40297 net.cpp:156] Memory required for data: 84674000
I0830 15:06:05.586925 40297 layer_factory.hpp:77] Creating layer pool3
I0830 15:06:05.586942 40297 net.cpp:91] Creating Layer pool3
I0830 15:06:05.586958 40297 net.cpp:425] pool3 <- conv3
I0830 15:06:05.586977 40297 net.cpp:399] pool3 -> pool3
I0830 15:06:05.587018 40297 net.cpp:141] Setting up pool3
I0830 15:06:05.587044 40297 net.cpp:148] Top shape: 100 64 3 3 (57600)
I0830 15:06:05.587059 40297 net.cpp:156] Memory required for data: 84904400
I0830 15:06:05.587074 40297 layer_factory.hpp:77] Creating layer dropout_conv3
I0830 15:06:05.587096 40297 net.cpp:91] Creating Layer dropout_conv3
I0830 15:06:05.587113 40297 net.cpp:425] dropout_conv3 <- pool3
I0830 15:06:05.587131 40297 net.cpp:399] dropout_conv3 -> dropout_conv3
I0830 15:06:05.587191 40297 net.cpp:141] Setting up dropout_conv3
I0830 15:06:05.587215 40297 net.cpp:148] Top shape: 100 64 3 3 (57600)
I0830 15:06:05.587231 40297 net.cpp:156] Memory required for data: 85134800
I0830 15:06:05.587246 40297 layer_factory.hpp:77] Creating layer ip500
I0830 15:06:05.587266 40297 net.cpp:91] Creating Layer ip500
I0830 15:06:05.587282 40297 net.cpp:425] ip500 <- dropout_conv3
I0830 15:06:05.587306 40297 net.cpp:399] ip500 -> ip500
I0830 15:06:05.599108 40297 net.cpp:141] Setting up ip500
I0830 15:06:05.599154 40297 net.cpp:148] Top shape: 100 500 (50000)
I0830 15:06:05.599170 40297 net.cpp:156] Memory required for data: 85334800
I0830 15:06:05.599191 40297 layer_factory.hpp:77] Creating layer relu_ip500
I0830 15:06:05.599213 40297 net.cpp:91] Creating Layer relu_ip500
I0830 15:06:05.599230 40297 net.cpp:425] relu_ip500 <- ip500
I0830 15:06:05.599247 40297 net.cpp:386] relu_ip500 -> ip500 (in-place)
I0830 15:06:05.599269 40297 net.cpp:141] Setting up relu_ip500
I0830 15:06:05.599285 40297 net.cpp:148] Top shape: 100 500 (50000)
I0830 15:06:05.599300 40297 net.cpp:156] Memory required for data: 85534800
I0830 15:06:05.599315 40297 layer_factory.hpp:77] Creating layer dropout_ip500
I0830 15:06:05.599341 40297 net.cpp:91] Creating Layer dropout_ip500
I0830 15:06:05.599360 40297 net.cpp:425] dropout_ip500 <- ip500
I0830 15:06:05.599385 40297 net.cpp:386] dropout_ip500 -> ip500 (in-place)
I0830 15:06:05.599426 40297 net.cpp:141] Setting up dropout_ip500
I0830 15:06:05.599452 40297 net.cpp:148] Top shape: 100 500 (50000)
I0830 15:06:05.599470 40297 net.cpp:156] Memory required for data: 85734800
I0830 15:06:05.599485 40297 layer_factory.hpp:77] Creating layer ip500_dropout_ip500_0_split
I0830 15:06:05.599535 40297 net.cpp:91] Creating Layer ip500_dropout_ip500_0_split
I0830 15:06:05.599555 40297 net.cpp:425] ip500_dropout_ip500_0_split <- ip500
I0830 15:06:05.599577 40297 net.cpp:399] ip500_dropout_ip500_0_split -> ip500_dropout_ip500_0_split_0
I0830 15:06:05.599602 40297 net.cpp:399] ip500_dropout_ip500_0_split -> ip500_dropout_ip500_0_split_1
I0830 15:06:05.599658 40297 net.cpp:141] Setting up ip500_dropout_ip500_0_split
I0830 15:06:05.599714 40297 net.cpp:148] Top shape: 100 500 (50000)
I0830 15:06:05.599732 40297 net.cpp:148] Top shape: 100 500 (50000)
I0830 15:06:05.599747 40297 net.cpp:156] Memory required for data: 86134800
I0830 15:06:05.599762 40297 layer_factory.hpp:77] Creating layer ip_hash
I0830 15:06:05.599783 40297 net.cpp:91] Creating Layer ip_hash
I0830 15:06:05.599799 40297 net.cpp:425] ip_hash <- ip500_dropout_ip500_0_split_0
I0830 15:06:05.599817 40297 net.cpp:399] ip_hash -> ip_hash
I0830 15:06:05.600181 40297 net.cpp:141] Setting up ip_hash
I0830 15:06:05.600208 40297 net.cpp:148] Top shape: 100 12 (1200)
I0830 15:06:05.600224 40297 net.cpp:156] Memory required for data: 86139600
I0830 15:06:05.600246 40297 layer_factory.hpp:77] Creating layer ip_classification
I0830 15:06:05.600271 40297 net.cpp:91] Creating Layer ip_classification
I0830 15:06:05.600296 40297 net.cpp:425] ip_classification <- ip500_dropout_ip500_0_split_1
I0830 15:06:05.600316 40297 net.cpp:399] ip_classification -> ip_classification
I0830 15:06:05.600579 40297 net.cpp:141] Setting up ip_classification
I0830 15:06:05.600605 40297 net.cpp:148] Top shape: 100 7 (700)
I0830 15:06:05.600620 40297 net.cpp:156] Memory required for data: 86142400
I0830 15:06:05.600639 40297 layer_factory.hpp:77] Creating layer ip_classification_ip_classification_0_split
I0830 15:06:05.600661 40297 net.cpp:91] Creating Layer ip_classification_ip_classification_0_split
I0830 15:06:05.600677 40297 net.cpp:425] ip_classification_ip_classification_0_split <- ip_classification
I0830 15:06:05.600694 40297 net.cpp:399] ip_classification_ip_classification_0_split -> ip_classification_ip_classification_0_split_0
I0830 15:06:05.600715 40297 net.cpp:399] ip_classification_ip_classification_0_split -> ip_classification_ip_classification_0_split_1
I0830 15:06:05.600738 40297 net.cpp:399] ip_classification_ip_classification_0_split -> ip_classification_ip_classification_0_split_2
I0830 15:06:05.600806 40297 net.cpp:141] Setting up ip_classification_ip_classification_0_split
I0830 15:06:05.600831 40297 net.cpp:148] Top shape: 100 7 (700)
I0830 15:06:05.600848 40297 net.cpp:148] Top shape: 100 7 (700)
I0830 15:06:05.600865 40297 net.cpp:148] Top shape: 100 7 (700)
I0830 15:06:05.600879 40297 net.cpp:156] Memory required for data: 86150800
I0830 15:06:05.600894 40297 layer_factory.hpp:77] Creating layer loss_hash
I0830 15:06:05.600919 40297 net.cpp:91] Creating Layer loss_hash
I0830 15:06:05.600934 40297 net.cpp:425] loss_hash <- ip_hash
I0830 15:06:05.600952 40297 net.cpp:425] loss_hash <- label_cifar_1_split_0
I0830 15:06:05.600970 40297 net.cpp:399] loss_hash -> loss_hash
…
