…
I0830 12:57:48.622575 13868 net.cpp:313] The NetState phase (0) differed from the phase (1) specified by a rule in layer accuracy_at_5
I0830 12:57:48.622997 13868 net.cpp:49] Initializing net from parameters: 
name: "docomo_pattern_CNN"
state {
  phase: TRAIN
}
layer {
  name: "cifar"
  type: "Data"
  top: "data"
  top: "label"
  include {
    phase: TRAIN
  }
  transform_param {
    mirror: true
    mean_value: 103.939
    mean_value: 116.779
    mean_value: 123.68
  }
  data_param {
    source: "PATTERN/pattern_train_lmdb"
    batch_size: 200
    backend: LMDB
  }
}
layer {
  name: "conv1"
  type: "Convolution"
  bottom: "data"
  top: "conv1"
  param {
    lr_mult: 1
    decay_mult: 1
  }
  param {
    lr_mult: 2
    decay_mult: 0
  }
  convolution_param {
    num_output: 32
    pad: 2
    kernel_size: 5
    stride: 8
    weight_filler {
      type: "xavier"
    }
    bias_filler {
      type: "constant"
    }
  }
}
layer {
  name: "pool1"
  type: "Pooling"
  bottom: "conv1"
  top: "pool1"
  pooling_param {
    pool: MAX
    kernel_size: 3
    stride: 2
  }
}
layer {
  name: "relu1"
  type: "ReLU"
  bottom: "pool1"
  top: "pool1"
}
layer {
  name: "norm1"
  type: "LRN"
  bottom: "pool1"
  top: "norm1"
  lrn_param {
    local_size: 3
    alpha: 5e-05
    beta: 0.75
    norm_region: WITHIN_CHANNEL
  }
}
layer {
  name: "conv2"
  type: "Convolution"
  bottom: "norm1"
  top: "conv2"
  param {
    lr_mult: 1
    decay_mult: 1
  }
  param {
    lr_mult: 2
    decay_mult: 0
  }
  convolution_param {
    num_output: 32
    pad: 2
    kernel_size: 5
    stride: 1
    weight_filler {
      type: "xavier"
    }
    bias_filler {
      type: "constant"
    }
  }
}
layer {
  name: "pool2"
  type: "Pooling"
  bottom: "conv2"
  top: "pool2"
  pooling_param {
    pool: AVE
    kernel_size: 3
    stride: 2
  }
}
layer {
  name: "relu2"
  type: "ReLU"
  bottom: "pool2"
  top: "pool2"
}
layer {
  name: "norm2"
  type: "LRN"
  bottom: "pool2"
  top: "norm2"
  lrn_param {
    local_size: 3
    alpha: 5e-05
    beta: 0.75
    norm_region: WITHIN_CHANNEL
  }
}
layer {
  name: "conv3"
  type: "Convolution"
  bottom: "norm2"
  top: "conv3"
  param {
    lr_mult: 1
    decay_mult: 1
  }
  param {
    lr_mult: 2
    decay_mult: 0
  }
  convolution_param {
    num_output: 64
    pad: 2
    kernel_size: 5
    stride: 1
    weight_filler {
      type: "xavier"
    }
    bias_filler {
      type: "constant"
    }
  }
}
layer {
  name: "relu3"
  type: "ReLU"
  bottom: "conv3"
  top: "conv3"
}
layer {
  name: "pool3"
  type: "Pooling"
  bottom: "conv3"
  top: "pool3"
  pooling_param {
    pool: AVE
    kernel_size: 3
    stride: 2
  }
}
layer {
  name: "dropout_conv3"
  type: "Dropout"
  bottom: "pool3"
  top: "dropout_conv3"
  dropout_param {
    dropout_ratio: 0.5
  }
}
layer {
  name: "ip500"
  type: "InnerProduct"
  bottom: "dropout_conv3"
  top: "ip500"
  param {
    lr_mult: 1
    decay_mult: 1
  }
  param {
    lr_mult: 2
    decay_mult: 0
  }
  inner_product_param {
    num_output: 500
    weight_filler {
      type: "gaussian"
      std: 0.005
    }
    bias_filler {
      type: "constant"
      value: 0.1
    }
  }
}
layer {
  name: "relu_ip500"
  type: "ReLU"
  bottom: "ip500"
  top: "ip500"
}
layer {
  name: "dropout_ip500"
  type: "Dropout"
  bottom: "ip500"
  top: "ip500"
  dropout_param {
    dropout_ratio: 0.5
  }
}
layer {
  name: "ip_hash"
  type: "InnerProduct"
  bottom: "ip500"
  top: "ip_hash"
  param {
    lr_mult: 1
    decay_mult: 1
  }
  param {
    lr_mult: 2
    decay_mult: 0
  }
  inner_product_param {
    num_output: 12
    weight_filler {
      type: "gaussian"
      std: 0.005
    }
    bias_filler {
      type: "constant"
      value: 0.1
    }
  }
}
layer {
  name: "ip_classification"
  type: "InnerProduct"
  bottom: "ip500"
  top: "ip_classification"
  param {
    lr_mult: 1
    decay_mult: 1
  }
  param {
    lr_mult: 2
    decay_mult: 0
  }
  inner_product_param {
    num_output: 7
    weight_filler {
      type: "gaussian"
      std: 0.005
    }
    bias_filler {
      type: "constant"
      value: 0.1
    }
  }
}
layer {
  name: "loss_hash"
  type: "HashingLoss"
  bottom: "ip_hash"
  bottom: "label"
  top: "loss_hash"
  loss_weight: 0.1
  hashing_loss_param {
    bi_margin: 24
    tradeoff: 0.01
  }
}
layer {
  name: "loss_classification"
  type: "SoftmaxWithLoss"
  bottom: "ip_classification"
  bottom: "label"
  top: "loss_classification"
}
I0830 12:57:48.625480 13868 layer_factory.hpp:77] Creating layer cifar
I0830 12:57:48.627671 13868 net.cpp:91] Creating Layer cifar
I0830 12:57:48.627758 13868 net.cpp:399] cifar -> data
I0830 12:57:48.627856 13868 net.cpp:399] cifar -> label
I0830 12:57:48.629464 13875 db_lmdb.cpp:38] Opened lmdb PATTERN/pattern_train_lmdb
I0830 12:57:48.655864 13868 data_layer.cpp:41] output data size: 200,3,224,224
I0830 12:57:48.991883 13868 net.cpp:141] Setting up cifar
I0830 12:57:48.991984 13868 net.cpp:148] Top shape: 200 3 224 224 (30105600)
I0830 12:57:48.992012 13868 net.cpp:148] Top shape: 200 1 1 1 (200)
I0830 12:57:48.992033 13868 net.cpp:156] Memory required for data: 120423200
I0830 12:57:48.992061 13868 layer_factory.hpp:77] Creating layer label_cifar_1_split
I0830 12:57:48.992099 13868 net.cpp:91] Creating Layer label_cifar_1_split
I0830 12:57:48.992125 13868 net.cpp:425] label_cifar_1_split <- label
I0830 12:57:48.992163 13868 net.cpp:399] label_cifar_1_split -> label_cifar_1_split_0
I0830 12:57:48.992197 13868 net.cpp:399] label_cifar_1_split -> label_cifar_1_split_1
I0830 12:57:48.992300 13868 net.cpp:141] Setting up label_cifar_1_split
I0830 12:57:48.992332 13868 net.cpp:148] Top shape: 200 1 1 1 (200)
I0830 12:57:48.992354 13868 net.cpp:148] Top shape: 200 1 1 1 (200)
I0830 12:57:48.992373 13868 net.cpp:156] Memory required for data: 120424800
I0830 12:57:48.992393 13868 layer_factory.hpp:77] Creating layer conv1
I0830 12:57:48.992441 13868 net.cpp:91] Creating Layer conv1
I0830 12:57:48.992465 13868 net.cpp:425] conv1 <- data
I0830 12:57:48.992492 13868 net.cpp:399] conv1 -> conv1
I0830 12:57:48.994987 13868 net.cpp:141] Setting up conv1
I0830 12:57:48.995043 13868 net.cpp:148] Top shape: 200 32 28 28 (5017600)
I0830 12:57:48.995072 13868 net.cpp:156] Memory required for data: 140495200
I0830 12:57:48.995131 13868 layer_factory.hpp:77] Creating layer pool1
I0830 12:57:48.995183 13868 net.cpp:91] Creating Layer pool1
I0830 12:57:48.995213 13868 net.cpp:425] pool1 <- conv1
I0830 12:57:48.995244 13868 net.cpp:399] pool1 -> pool1
I0830 12:57:49.004509 13868 net.cpp:141] Setting up pool1
I0830 12:57:49.004549 13868 net.cpp:148] Top shape: 200 32 14 14 (1254400)
I0830 12:57:49.004566 13868 net.cpp:156] Memory required for data: 145512800
I0830 12:57:49.004585 13868 layer_factory.hpp:77] Creating layer relu1
I0830 12:57:49.004611 13868 net.cpp:91] Creating Layer relu1
I0830 12:57:49.004631 13868 net.cpp:425] relu1 <- pool1
I0830 12:57:49.004649 13868 net.cpp:386] relu1 -> pool1 (in-place)
I0830 12:57:49.004675 13868 net.cpp:141] Setting up relu1
I0830 12:57:49.004696 13868 net.cpp:148] Top shape: 200 32 14 14 (1254400)
I0830 12:57:49.004714 13868 net.cpp:156] Memory required for data: 150530400
I0830 12:57:49.004730 13868 layer_factory.hpp:77] Creating layer norm1
I0830 12:57:49.004755 13868 net.cpp:91] Creating Layer norm1
I0830 12:57:49.004787 13868 net.cpp:425] norm1 <- pool1
I0830 12:57:49.004861 13868 net.cpp:399] norm1 -> norm1
I0830 12:57:49.005096 13868 net.cpp:141] Setting up norm1
I0830 12:57:49.005133 13868 net.cpp:148] Top shape: 200 32 14 14 (1254400)
I0830 12:57:49.005153 13868 net.cpp:156] Memory required for data: 155548000
I0830 12:57:49.005173 13868 layer_factory.hpp:77] Creating layer conv2
I0830 12:57:49.005203 13868 net.cpp:91] Creating Layer conv2
I0830 12:57:49.005224 13868 net.cpp:425] conv2 <- norm1
I0830 12:57:49.005249 13868 net.cpp:399] conv2 -> conv2
I0830 12:57:49.006902 13868 net.cpp:141] Setting up conv2
I0830 12:57:49.006953 13868 net.cpp:148] Top shape: 200 32 14 14 (1254400)
I0830 12:57:49.006979 13868 net.cpp:156] Memory required for data: 160565600
I0830 12:57:49.007019 13868 layer_factory.hpp:77] Creating layer pool2
I0830 12:57:49.007051 13868 net.cpp:91] Creating Layer pool2
I0830 12:57:49.007076 13868 net.cpp:425] pool2 <- conv2
I0830 12:57:49.007110 13868 net.cpp:399] pool2 -> pool2
I0830 12:57:49.007189 13868 net.cpp:141] Setting up pool2
I0830 12:57:49.007226 13868 net.cpp:148] Top shape: 200 32 7 7 (313600)
I0830 12:57:49.007251 13868 net.cpp:156] Memory required for data: 161820000
I0830 12:57:49.007277 13868 layer_factory.hpp:77] Creating layer relu2
I0830 12:57:49.007308 13868 net.cpp:91] Creating Layer relu2
I0830 12:57:49.007333 13868 net.cpp:425] relu2 <- pool2
I0830 12:57:49.007364 13868 net.cpp:386] relu2 -> pool2 (in-place)
I0830 12:57:49.007396 13868 net.cpp:141] Setting up relu2
I0830 12:57:49.007424 13868 net.cpp:148] Top shape: 200 32 7 7 (313600)
I0830 12:57:49.007448 13868 net.cpp:156] Memory required for data: 163074400
I0830 12:57:49.007472 13868 layer_factory.hpp:77] Creating layer norm2
I0830 12:57:49.007506 13868 net.cpp:91] Creating Layer norm2
I0830 12:57:49.007532 13868 net.cpp:425] norm2 <- pool2
I0830 12:57:49.007560 13868 net.cpp:399] norm2 -> norm2
I0830 12:57:49.007757 13868 net.cpp:141] Setting up norm2
I0830 12:57:49.007799 13868 net.cpp:148] Top shape: 200 32 7 7 (313600)
I0830 12:57:49.007824 13868 net.cpp:156] Memory required for data: 164328800
I0830 12:57:49.007848 13868 layer_factory.hpp:77] Creating layer conv3
I0830 12:57:49.007889 13868 net.cpp:91] Creating Layer conv3
I0830 12:57:49.007916 13868 net.cpp:425] conv3 <- norm2
I0830 12:57:49.007946 13868 net.cpp:399] conv3 -> conv3
I0830 12:57:49.009117 13868 net.cpp:141] Setting up conv3
I0830 12:57:49.009162 13868 net.cpp:148] Top shape: 200 64 7 7 (627200)
I0830 12:57:49.009187 13868 net.cpp:156] Memory required for data: 166837600
I0830 12:57:49.009225 13868 layer_factory.hpp:77] Creating layer relu3
I0830 12:57:49.009261 13868 net.cpp:91] Creating Layer relu3
I0830 12:57:49.009289 13868 net.cpp:425] relu3 <- conv3
I0830 12:57:49.009315 13868 net.cpp:386] relu3 -> conv3 (in-place)
I0830 12:57:49.009348 13868 net.cpp:141] Setting up relu3
I0830 12:57:49.009377 13868 net.cpp:148] Top shape: 200 64 7 7 (627200)
I0830 12:57:49.009400 13868 net.cpp:156] Memory required for data: 169346400
I0830 12:57:49.009424 13868 layer_factory.hpp:77] Creating layer pool3
I0830 12:57:49.009459 13868 net.cpp:91] Creating Layer pool3
I0830 12:57:49.009485 13868 net.cpp:425] pool3 <- conv3
I0830 12:57:49.009513 13868 net.cpp:399] pool3 -> pool3
I0830 12:57:49.009578 13868 net.cpp:141] Setting up pool3
I0830 12:57:49.009613 13868 net.cpp:148] Top shape: 200 64 3 3 (115200)
I0830 12:57:49.009637 13868 net.cpp:156] Memory required for data: 169807200
I0830 12:57:49.009662 13868 layer_factory.hpp:77] Creating layer dropout_conv3
I0830 12:57:49.009701 13868 net.cpp:91] Creating Layer dropout_conv3
I0830 12:57:49.009728 13868 net.cpp:425] dropout_conv3 <- pool3
I0830 12:57:49.009763 13868 net.cpp:399] dropout_conv3 -> dropout_conv3
I0830 12:57:49.009858 13868 net.cpp:141] Setting up dropout_conv3
I0830 12:57:49.009896 13868 net.cpp:148] Top shape: 200 64 3 3 (115200)
I0830 12:57:49.009922 13868 net.cpp:156] Memory required for data: 170268000
I0830 12:57:49.009945 13868 layer_factory.hpp:77] Creating layer ip500
I0830 12:57:49.009985 13868 net.cpp:91] Creating Layer ip500
I0830 12:57:49.010012 13868 net.cpp:425] ip500 <- dropout_conv3
I0830 12:57:49.010074 13868 net.cpp:399] ip500 -> ip500
I0830 12:57:49.029855 13868 net.cpp:141] Setting up ip500
I0830 12:57:49.029950 13868 net.cpp:148] Top shape: 200 500 (100000)
I0830 12:57:49.029978 13868 net.cpp:156] Memory required for data: 170668000
I0830 12:57:49.030014 13868 layer_factory.hpp:77] Creating layer relu_ip500
I0830 12:57:49.030050 13868 net.cpp:91] Creating Layer relu_ip500
I0830 12:57:49.030076 13868 net.cpp:425] relu_ip500 <- ip500
I0830 12:57:49.030107 13868 net.cpp:386] relu_ip500 -> ip500 (in-place)
I0830 12:57:49.030144 13868 net.cpp:141] Setting up relu_ip500
I0830 12:57:49.030172 13868 net.cpp:148] Top shape: 200 500 (100000)
I0830 12:57:49.030196 13868 net.cpp:156] Memory required for data: 171068000
I0830 12:57:49.030221 13868 layer_factory.hpp:77] Creating layer dropout_ip500
I0830 12:57:49.030257 13868 net.cpp:91] Creating Layer dropout_ip500
I0830 12:57:49.030283 13868 net.cpp:425] dropout_ip500 <- ip500
I0830 12:57:49.030311 13868 net.cpp:386] dropout_ip500 -> ip500 (in-place)
I0830 12:57:49.030407 13868 net.cpp:141] Setting up dropout_ip500
I0830 12:57:49.030445 13868 net.cpp:148] Top shape: 200 500 (100000)
I0830 12:57:49.030470 13868 net.cpp:156] Memory required for data: 171468000
I0830 12:57:49.030494 13868 layer_factory.hpp:77] Creating layer ip500_dropout_ip500_0_split
I0830 12:57:49.030524 13868 net.cpp:91] Creating Layer ip500_dropout_ip500_0_split
I0830 12:57:49.030546 13868 net.cpp:425] ip500_dropout_ip500_0_split <- ip500
I0830 12:57:49.030575 13868 net.cpp:399] ip500_dropout_ip500_0_split -> ip500_dropout_ip500_0_split_0
I0830 12:57:49.030613 13868 net.cpp:399] ip500_dropout_ip500_0_split -> ip500_dropout_ip500_0_split_1
I0830 12:57:49.030704 13868 net.cpp:141] Setting up ip500_dropout_ip500_0_split
I0830 12:57:49.030743 13868 net.cpp:148] Top shape: 200 500 (100000)
I0830 12:57:49.030769 13868 net.cpp:148] Top shape: 200 500 (100000)
I0830 12:57:49.030793 13868 net.cpp:156] Memory required for data: 172268000
I0830 12:57:49.030817 13868 layer_factory.hpp:77] Creating layer ip_hash
I0830 12:57:49.030850 13868 net.cpp:91] Creating Layer ip_hash
I0830 12:57:49.030875 13868 net.cpp:425] ip_hash <- ip500_dropout_ip500_0_split_0
I0830 12:57:49.030910 13868 net.cpp:399] ip_hash -> ip_hash
I0830 12:57:49.032548 13868 net.cpp:141] Setting up ip_hash
I0830 12:57:49.032599 13868 net.cpp:148] Top shape: 200 12 (2400)
I0830 12:57:49.032625 13868 net.cpp:156] Memory required for data: 172277600
I0830 12:57:49.032663 13868 layer_factory.hpp:77] Creating layer ip_classification
I0830 12:57:49.032698 13868 net.cpp:91] Creating Layer ip_classification
I0830 12:57:49.032726 13868 net.cpp:425] ip_classification <- ip500_dropout_ip500_0_split_1
I0830 12:57:49.032762 13868 net.cpp:399] ip_classification -> ip_classification
I0830 12:57:49.033186 13868 net.cpp:141] Setting up ip_classification
I0830 12:57:49.033229 13868 net.cpp:148] Top shape: 200 7 (1400)
I0830 12:57:49.033254 13868 net.cpp:156] Memory required for data: 172283200
I0830 12:57:49.033287 13868 layer_factory.hpp:77] Creating layer loss_hash
I0830 12:57:49.033329 13868 net.cpp:91] Creating Layer loss_hash
I0830 12:57:49.033356 13868 net.cpp:425] loss_hash <- ip_hash
I0830 12:57:49.033382 13868 net.cpp:425] loss_hash <- label_cifar_1_split_0
I0830 12:57:49.033412 13868 net.cpp:399] loss_hash -> loss_hash
…
I0830 12:57:49.036198 13868 net.cpp:313] The NetState phase (1) differed from the phase (0) specified by a rule in layer cifar
I0830 12:57:49.036586 13868 net.cpp:49] Initializing net from parameters: 
name: "docomo_pattern_CNN"
state {
  phase: TEST
}
layer {
  name: "cifar"
  type: "Data"
  top: "data"
  top: "label"
  include {
    phase: TEST
  }
  transform_param {
    mirror: false
    mean_value: 103.939
    mean_value: 116.779
    mean_value: 123.68
  }
  data_param {
    source: "PATTERN/pattern_val_lmdb"
    batch_size: 100
    backend: LMDB
  }
}
layer {
  name: "conv1"
  type: "Convolution"
  bottom: "data"
  top: "conv1"
  param {
    lr_mult: 1
    decay_mult: 1
  }
  param {
    lr_mult: 2
    decay_mult: 0
  }
  convolution_param {
    num_output: 32
    pad: 2
    kernel_size: 5
    stride: 8
    weight_filler {
      type: "xavier"
    }
    bias_filler {
      type: "constant"
    }
  }
}
layer {
  name: "pool1"
  type: "Pooling"
  bottom: "conv1"
  top: "pool1"
  pooling_param {
    pool: MAX
    kernel_size: 3
    stride: 2
  }
}
layer {
  name: "relu1"
  type: "ReLU"
  bottom: "pool1"
  top: "pool1"
}
layer {
  name: "norm1"
  type: "LRN"
  bottom: "pool1"
  top: "norm1"
  lrn_param {
    local_size: 3
    alpha: 5e-05
    beta: 0.75
    norm_region: WITHIN_CHANNEL
  }
}
layer {
  name: "conv2"
  type: "Convolution"
  bottom: "norm1"
  top: "conv2"
  param {
    lr_mult: 1
    decay_mult: 1
  }
  param {
    lr_mult: 2
    decay_mult: 0
  }
  convolution_param {
    num_output: 32
    pad: 2
    kernel_size: 5
    stride: 1
    weight_filler {
      type: "xavier"
    }
    bias_filler {
      type: "constant"
    }
  }
}
layer {
  name: "pool2"
  type: "Pooling"
  bottom: "conv2"
  top: "pool2"
  pooling_param {
    pool: AVE
    kernel_size: 3
    stride: 2
  }
}
layer {
  name: "relu2"
  type: "ReLU"
  bottom: "pool2"
  top: "pool2"
}
layer {
  name: "norm2"
  type: "LRN"
  bottom: "pool2"
  top: "norm2"
  lrn_param {
    local_size: 3
    alpha: 5e-05
    beta: 0.75
    norm_region: WITHIN_CHANNEL
  }
}
layer {
  name: "conv3"
  type: "Convolution"
  bottom: "norm2"
  top: "conv3"
  param {
    lr_mult: 1
    decay_mult: 1
  }
  param {
    lr_mult: 2
    decay_mult: 0
  }
  convolution_param {
    num_output: 64
    pad: 2
    kernel_size: 5
    stride: 1
    weight_filler {
      type: "xavier"
    }
    bias_filler {
      type: "constant"
    }
  }
}
layer {
  name: "relu3"
  type: "ReLU"
  bottom: "conv3"
  top: "conv3"
}
layer {
  name: "pool3"
  type: "Pooling"
  bottom: "conv3"
  top: "pool3"
  pooling_param {
    pool: AVE
    kernel_size: 3
    stride: 2
  }
}
layer {
  name: "dropout_conv3"
  type: "Dropout"
  bottom: "pool3"
  top: "dropout_conv3"
  dropout_param {
    dropout_ratio: 0.5
  }
}
layer {
  name: "ip500"
  type: "InnerProduct"
  bottom: "dropout_conv3"
  top: "ip500"
  param {
    lr_mult: 1
    decay_mult: 1
  }
  param {
    lr_mult: 2
    decay_mult: 0
  }
  inner_product_param {
    num_output: 500
    weight_filler {
      type: "gaussian"
      std: 0.005
    }
    bias_filler {
      type: "constant"
      value: 0.1
    }
  }
}
layer {
  name: "relu_ip500"
  type: "ReLU"
  bottom: "ip500"
  top: "ip500"
}
layer {
  name: "dropout_ip500"
  type: "Dropout"
  bottom: "ip500"
  top: "ip500"
  dropout_param {
    dropout_ratio: 0.5
  }
}
layer {
  name: "ip_hash"
  type: "InnerProduct"
  bottom: "ip500"
  top: "ip_hash"
  param {
    lr_mult: 1
    decay_mult: 1
  }
  param {
    lr_mult: 2
    decay_mult: 0
  }
  inner_product_param {
    num_output: 12
    weight_filler {
      type: "gaussian"
      std: 0.005
    }
    bias_filler {
      type: "constant"
      value: 0.1
    }
  }
}
layer {
  name: "ip_classification"
  type: "InnerProduct"
  bottom: "ip500"
  top: "ip_classification"
  param {
    lr_mult: 1
    decay_mult: 1
  }
  param {
    lr_mult: 2
    decay_mult: 0
  }
  inner_product_param {
    num_output: 7
    weight_filler {
      type: "gaussian"
      std: 0.005
    }
    bias_filler {
      type: "constant"
      value: 0.1
    }
  }
}
layer {
  name: "loss_hash"
  type: "HashingLoss"
  bottom: "ip_hash"
  bottom: "label"
  top: "loss_hash"
  loss_weight: 0.1
  hashing_loss_param {
    bi_margin: 24
    tradeoff: 0.01
  }
}
layer {
  name: "loss_classification"
  type: "SoftmaxWithLoss"
  bottom: "ip_classification"
  bottom: "label"
  top: "loss_classification"
}
layer {
  name: "accuracy_at_1"
  type: "Accuracy"
  bottom: "ip_classification"
  bottom: "label"
  top: "accuracy_at_1"
  include {
    phase: TEST
  }
  accuracy_param {
    top_k: 1
  }
}
layer {
  name: "accuracy_at_5"
  type: "Accuracy"
  bottom: "ip_classification"
  bottom: "label"
  top: "accuracy_at_5"
  include {
    phase: TEST
  }
  accuracy_param {
    top_k: 5
  }
}
I0830 12:57:49.038867 13868 layer_factory.hpp:77] Creating layer cifar
I0830 12:57:49.039185 13868 net.cpp:91] Creating Layer cifar
I0830 12:57:49.039310 13868 net.cpp:399] cifar -> data
I0830 12:57:49.039425 13868 net.cpp:399] cifar -> label
I0830 12:57:49.040496 13877 db_lmdb.cpp:38] Opened lmdb PATTERN/pattern_val_lmdb
I0830 12:57:49.040980 13868 data_layer.cpp:41] output data size: 100,3,224,224
I0830 12:57:49.167387 13868 net.cpp:141] Setting up cifar
I0830 12:57:49.167469 13868 net.cpp:148] Top shape: 100 3 224 224 (15052800)
I0830 12:57:49.167495 13868 net.cpp:148] Top shape: 100 1 1 1 (100)
I0830 12:57:49.167513 13868 net.cpp:156] Memory required for data: 60211600
I0830 12:57:49.167536 13868 layer_factory.hpp:77] Creating layer label_cifar_1_split
I0830 12:57:49.167568 13868 net.cpp:91] Creating Layer label_cifar_1_split
I0830 12:57:49.167589 13868 net.cpp:425] label_cifar_1_split <- label
I0830 12:57:49.167618 13868 net.cpp:399] label_cifar_1_split -> label_cifar_1_split_0
I0830 12:57:49.167704 13868 net.cpp:399] label_cifar_1_split -> label_cifar_1_split_1
I0830 12:57:49.167734 13868 net.cpp:399] label_cifar_1_split -> label_cifar_1_split_2
I0830 12:57:49.167763 13868 net.cpp:399] label_cifar_1_split -> label_cifar_1_split_3
I0830 12:57:49.167886 13868 net.cpp:141] Setting up label_cifar_1_split
I0830 12:57:49.167914 13868 net.cpp:148] Top shape: 100 1 1 1 (100)
I0830 12:57:49.167934 13868 net.cpp:148] Top shape: 100 1 1 1 (100)
I0830 12:57:49.167954 13868 net.cpp:148] Top shape: 100 1 1 1 (100)
I0830 12:57:49.167976 13868 net.cpp:148] Top shape: 100 1 1 1 (100)
I0830 12:57:49.167994 13868 net.cpp:156] Memory required for data: 60213200
I0830 12:57:49.168016 13868 layer_factory.hpp:77] Creating layer conv1
I0830 12:57:49.168053 13868 net.cpp:91] Creating Layer conv1
I0830 12:57:49.168077 13868 net.cpp:425] conv1 <- data
I0830 12:57:49.168105 13868 net.cpp:399] conv1 -> conv1
I0830 12:57:49.168620 13868 net.cpp:141] Setting up conv1
I0830 12:57:49.168673 13868 net.cpp:148] Top shape: 100 32 28 28 (2508800)
I0830 12:57:49.168701 13868 net.cpp:156] Memory required for data: 70248400
I0830 12:57:49.168743 13868 layer_factory.hpp:77] Creating layer pool1
I0830 12:57:49.168787 13868 net.cpp:91] Creating Layer pool1
I0830 12:57:49.168818 13868 net.cpp:425] pool1 <- conv1
I0830 12:57:49.168853 13868 net.cpp:399] pool1 -> pool1
I0830 12:57:49.173725 13868 net.cpp:141] Setting up pool1
I0830 12:57:49.173775 13868 net.cpp:148] Top shape: 100 32 14 14 (627200)
I0830 12:57:49.173795 13868 net.cpp:156] Memory required for data: 72757200
I0830 12:57:49.173815 13868 layer_factory.hpp:77] Creating layer relu1
I0830 12:57:49.173848 13868 net.cpp:91] Creating Layer relu1
I0830 12:57:49.173871 13868 net.cpp:425] relu1 <- pool1
I0830 12:57:49.173905 13868 net.cpp:386] relu1 -> pool1 (in-place)
I0830 12:57:49.173930 13868 net.cpp:141] Setting up relu1
I0830 12:57:49.173951 13868 net.cpp:148] Top shape: 100 32 14 14 (627200)
I0830 12:57:49.173972 13868 net.cpp:156] Memory required for data: 75266000
I0830 12:57:49.173993 13868 layer_factory.hpp:77] Creating layer norm1
I0830 12:57:49.174021 13868 net.cpp:91] Creating Layer norm1
I0830 12:57:49.174041 13868 net.cpp:425] norm1 <- pool1
I0830 12:57:49.174062 13868 net.cpp:399] norm1 -> norm1
I0830 12:57:49.174221 13868 net.cpp:141] Setting up norm1
I0830 12:57:49.174252 13868 net.cpp:148] Top shape: 100 32 14 14 (627200)
I0830 12:57:49.174273 13868 net.cpp:156] Memory required for data: 77774800
I0830 12:57:49.174293 13868 layer_factory.hpp:77] Creating layer conv2
I0830 12:57:49.174324 13868 net.cpp:91] Creating Layer conv2
I0830 12:57:49.174346 13868 net.cpp:425] conv2 <- norm1
I0830 12:57:49.174381 13868 net.cpp:399] conv2 -> conv2
I0830 12:57:49.174983 13868 net.cpp:141] Setting up conv2
I0830 12:57:49.175014 13868 net.cpp:148] Top shape: 100 32 14 14 (627200)
I0830 12:57:49.175040 13868 net.cpp:156] Memory required for data: 80283600
I0830 12:57:49.175072 13868 layer_factory.hpp:77] Creating layer pool2
I0830 12:57:49.175099 13868 net.cpp:91] Creating Layer pool2
I0830 12:57:49.175118 13868 net.cpp:425] pool2 <- conv2
I0830 12:57:49.175143 13868 net.cpp:399] pool2 -> pool2
I0830 12:57:49.175233 13868 net.cpp:141] Setting up pool2
I0830 12:57:49.175274 13868 net.cpp:148] Top shape: 100 32 7 7 (156800)
I0830 12:57:49.175307 13868 net.cpp:156] Memory required for data: 80910800
I0830 12:57:49.175331 13868 layer_factory.hpp:77] Creating layer relu2
I0830 12:57:49.175369 13868 net.cpp:91] Creating Layer relu2
I0830 12:57:49.175403 13868 net.cpp:425] relu2 <- pool2
I0830 12:57:49.175431 13868 net.cpp:386] relu2 -> pool2 (in-place)
I0830 12:57:49.175464 13868 net.cpp:141] Setting up relu2
I0830 12:57:49.175493 13868 net.cpp:148] Top shape: 100 32 7 7 (156800)
I0830 12:57:49.175516 13868 net.cpp:156] Memory required for data: 81538000
I0830 12:57:49.175540 13868 layer_factory.hpp:77] Creating layer norm2
I0830 12:57:49.175575 13868 net.cpp:91] Creating Layer norm2
I0830 12:57:49.175601 13868 net.cpp:425] norm2 <- pool2
I0830 12:57:49.175700 13868 net.cpp:399] norm2 -> norm2
I0830 12:57:49.175910 13868 net.cpp:141] Setting up norm2
I0830 12:57:49.175953 13868 net.cpp:148] Top shape: 100 32 7 7 (156800)
I0830 12:57:49.175978 13868 net.cpp:156] Memory required for data: 82165200
I0830 12:57:49.176002 13868 layer_factory.hpp:77] Creating layer conv3
I0830 12:57:49.176043 13868 net.cpp:91] Creating Layer conv3
I0830 12:57:49.176074 13868 net.cpp:425] conv3 <- norm2
I0830 12:57:49.176105 13868 net.cpp:399] conv3 -> conv3
I0830 12:57:49.177297 13868 net.cpp:141] Setting up conv3
I0830 12:57:49.177347 13868 net.cpp:148] Top shape: 100 64 7 7 (313600)
I0830 12:57:49.177376 13868 net.cpp:156] Memory required for data: 83419600
I0830 12:57:49.177413 13868 layer_factory.hpp:77] Creating layer relu3
I0830 12:57:49.177702 13868 net.cpp:91] Creating Layer relu3
I0830 12:57:49.177731 13868 net.cpp:425] relu3 <- conv3
I0830 12:57:49.177767 13868 net.cpp:386] relu3 -> conv3 (in-place)
I0830 12:57:49.177804 13868 net.cpp:141] Setting up relu3
I0830 12:57:49.177834 13868 net.cpp:148] Top shape: 100 64 7 7 (313600)
I0830 12:57:49.177857 13868 net.cpp:156] Memory required for data: 84674000
I0830 12:57:49.177881 13868 layer_factory.hpp:77] Creating layer pool3
I0830 12:57:49.177911 13868 net.cpp:91] Creating Layer pool3
I0830 12:57:49.177937 13868 net.cpp:425] pool3 <- conv3
I0830 12:57:49.177965 13868 net.cpp:399] pool3 -> pool3
I0830 12:57:49.178047 13868 net.cpp:141] Setting up pool3
I0830 12:57:49.178088 13868 net.cpp:148] Top shape: 100 64 3 3 (57600)
I0830 12:57:49.178114 13868 net.cpp:156] Memory required for data: 84904400
I0830 12:57:49.178138 13868 layer_factory.hpp:77] Creating layer dropout_conv3
I0830 12:57:49.178174 13868 net.cpp:91] Creating Layer dropout_conv3
I0830 12:57:49.178203 13868 net.cpp:425] dropout_conv3 <- pool3
I0830 12:57:49.178231 13868 net.cpp:399] dropout_conv3 -> dropout_conv3
I0830 12:57:49.178325 13868 net.cpp:141] Setting up dropout_conv3
I0830 12:57:49.178376 13868 net.cpp:148] Top shape: 100 64 3 3 (57600)
I0830 12:57:49.178409 13868 net.cpp:156] Memory required for data: 85134800
I0830 12:57:49.178436 13868 layer_factory.hpp:77] Creating layer ip500
I0830 12:57:49.178472 13868 net.cpp:91] Creating Layer ip500
I0830 12:57:49.178503 13868 net.cpp:425] ip500 <- dropout_conv3
I0830 12:57:49.178537 13868 net.cpp:399] ip500 -> ip500
I0830 12:57:49.198478 13868 net.cpp:141] Setting up ip500
I0830 12:57:49.198565 13868 net.cpp:148] Top shape: 100 500 (50000)
I0830 12:57:49.198590 13868 net.cpp:156] Memory required for data: 85334800
I0830 12:57:49.198628 13868 layer_factory.hpp:77] Creating layer relu_ip500
I0830 12:57:49.198665 13868 net.cpp:91] Creating Layer relu_ip500
I0830 12:57:49.198693 13868 net.cpp:425] relu_ip500 <- ip500
I0830 12:57:49.198724 13868 net.cpp:386] relu_ip500 -> ip500 (in-place)
I0830 12:57:49.198765 13868 net.cpp:141] Setting up relu_ip500
I0830 12:57:49.198793 13868 net.cpp:148] Top shape: 100 500 (50000)
I0830 12:57:49.198817 13868 net.cpp:156] Memory required for data: 85534800
I0830 12:57:49.198843 13868 layer_factory.hpp:77] Creating layer dropout_ip500
I0830 12:57:49.198884 13868 net.cpp:91] Creating Layer dropout_ip500
I0830 12:57:49.198915 13868 net.cpp:425] dropout_ip500 <- ip500
I0830 12:57:49.198945 13868 net.cpp:386] dropout_ip500 -> ip500 (in-place)
I0830 12:57:49.199018 13868 net.cpp:141] Setting up dropout_ip500
I0830 12:57:49.199061 13868 net.cpp:148] Top shape: 100 500 (50000)
I0830 12:57:49.199086 13868 net.cpp:156] Memory required for data: 85734800
I0830 12:57:49.199110 13868 layer_factory.hpp:77] Creating layer ip500_dropout_ip500_0_split
I0830 12:57:49.199139 13868 net.cpp:91] Creating Layer ip500_dropout_ip500_0_split
I0830 12:57:49.199164 13868 net.cpp:425] ip500_dropout_ip500_0_split <- ip500
I0830 12:57:49.199193 13868 net.cpp:399] ip500_dropout_ip500_0_split -> ip500_dropout_ip500_0_split_0
I0830 12:57:49.199256 13868 net.cpp:399] ip500_dropout_ip500_0_split -> ip500_dropout_ip500_0_split_1
I0830 12:57:49.199348 13868 net.cpp:141] Setting up ip500_dropout_ip500_0_split
I0830 12:57:49.199450 13868 net.cpp:148] Top shape: 100 500 (50000)
I0830 12:57:49.199479 13868 net.cpp:148] Top shape: 100 500 (50000)
I0830 12:57:49.199504 13868 net.cpp:156] Memory required for data: 86134800
I0830 12:57:49.199529 13868 layer_factory.hpp:77] Creating layer ip_hash
I0830 12:57:49.199568 13868 net.cpp:91] Creating Layer ip_hash
I0830 12:57:49.199599 13868 net.cpp:425] ip_hash <- ip500_dropout_ip500_0_split_0
I0830 12:57:49.199631 13868 net.cpp:399] ip_hash -> ip_hash
I0830 12:57:49.200251 13868 net.cpp:141] Setting up ip_hash
I0830 12:57:49.200294 13868 net.cpp:148] Top shape: 100 12 (1200)
I0830 12:57:49.200318 13868 net.cpp:156] Memory required for data: 86139600
I0830 12:57:49.200356 13868 layer_factory.hpp:77] Creating layer ip_classification
I0830 12:57:49.200390 13868 net.cpp:91] Creating Layer ip_classification
I0830 12:57:49.200417 13868 net.cpp:425] ip_classification <- ip500_dropout_ip500_0_split_1
I0830 12:57:49.200459 13868 net.cpp:399] ip_classification -> ip_classification
I0830 12:57:49.200913 13868 net.cpp:141] Setting up ip_classification
I0830 12:57:49.200955 13868 net.cpp:148] Top shape: 100 7 (700)
I0830 12:57:49.200980 13868 net.cpp:156] Memory required for data: 86142400
I0830 12:57:49.201010 13868 layer_factory.hpp:77] Creating layer ip_classification_ip_classification_0_split
I0830 12:57:49.201040 13868 net.cpp:91] Creating Layer ip_classification_ip_classification_0_split
I0830 12:57:49.201066 13868 net.cpp:425] ip_classification_ip_classification_0_split <- ip_classification
I0830 12:57:49.201094 13868 net.cpp:399] ip_classification_ip_classification_0_split -> ip_classification_ip_classification_0_split_0
I0830 12:57:49.201126 13868 net.cpp:399] ip_classification_ip_classification_0_split -> ip_classification_ip_classification_0_split_1
I0830 12:57:49.201159 13868 net.cpp:399] ip_classification_ip_classification_0_split -> ip_classification_ip_classification_0_split_2
I0830 12:57:49.201272 13868 net.cpp:141] Setting up ip_classification_ip_classification_0_split
I0830 12:57:49.201313 13868 net.cpp:148] Top shape: 100 7 (700)
I0830 12:57:49.201339 13868 net.cpp:148] Top shape: 100 7 (700)
I0830 12:57:49.201365 13868 net.cpp:148] Top shape: 100 7 (700)
I0830 12:57:49.201388 13868 net.cpp:156] Memory required for data: 86150800
I0830 12:57:49.201412 13868 layer_factory.hpp:77] Creating layer loss_hash
I0830 12:57:49.201462 13868 net.cpp:91] Creating Layer loss_hash
I0830 12:57:49.201491 13868 net.cpp:425] loss_hash <- ip_hash
I0830 12:57:49.201519 13868 net.cpp:425] loss_hash <- label_cifar_1_split_0
I0830 12:57:49.201553 13868 net.cpp:399] loss_hash -> loss_hash
…
