…
I0830 14:08:55.802189 28856 net.cpp:313] The NetState phase (0) differed from the phase (1) specified by a rule in layer accuracy_at_5
I0830 14:08:55.802460 28856 net.cpp:49] Initializing net from parameters: 
name: "docomo_pattern_CNN"
state {
  phase: TRAIN
}
layer {
  name: "cifar"
  type: "Data"
  top: "data"
  top: "label"
  include {
    phase: TRAIN
  }
  transform_param {
    mirror: true
    mean_value: 103.939
    mean_value: 116.779
    mean_value: 123.68
  }
  data_param {
    source: "PATTERN/pattern_train_lmdb"
    batch_size: 200
    backend: LMDB
  }
}
layer {
  name: "conv1"
  type: "Convolution"
  bottom: "data"
  top: "conv1"
  param {
    lr_mult: 1
    decay_mult: 1
  }
  param {
    lr_mult: 2
    decay_mult: 0
  }
  convolution_param {
    num_output: 32
    pad: 2
    kernel_size: 5
    stride: 8
    weight_filler {
      type: "xavier"
    }
    bias_filler {
      type: "constant"
    }
  }
}
layer {
  name: "pool1"
  type: "Pooling"
  bottom: "conv1"
  top: "pool1"
  pooling_param {
    pool: MAX
    kernel_size: 3
    stride: 2
  }
}
layer {
  name: "relu1"
  type: "ReLU"
  bottom: "pool1"
  top: "pool1"
}
layer {
  name: "norm1"
  type: "LRN"
  bottom: "pool1"
  top: "norm1"
  lrn_param {
    local_size: 3
    alpha: 5e-05
    beta: 0.75
    norm_region: WITHIN_CHANNEL
  }
}
layer {
  name: "conv2"
  type: "Convolution"
  bottom: "norm1"
  top: "conv2"
  param {
    lr_mult: 1
    decay_mult: 1
  }
  param {
    lr_mult: 2
    decay_mult: 0
  }
  convolution_param {
    num_output: 32
    pad: 2
    kernel_size: 5
    stride: 1
    weight_filler {
      type: "xavier"
    }
    bias_filler {
      type: "constant"
    }
  }
}
layer {
  name: "pool2"
  type: "Pooling"
  bottom: "conv2"
  top: "pool2"
  pooling_param {
    pool: AVE
    kernel_size: 3
    stride: 2
  }
}
layer {
  name: "relu2"
  type: "ReLU"
  bottom: "pool2"
  top: "pool2"
}
layer {
  name: "norm2"
  type: "LRN"
  bottom: "pool2"
  top: "norm2"
  lrn_param {
    local_size: 3
    alpha: 5e-05
    beta: 0.75
    norm_region: WITHIN_CHANNEL
  }
}
layer {
  name: "conv3"
  type: "Convolution"
  bottom: "norm2"
  top: "conv3"
  param {
    lr_mult: 1
    decay_mult: 1
  }
  param {
    lr_mult: 2
    decay_mult: 0
  }
  convolution_param {
    num_output: 64
    pad: 2
    kernel_size: 5
    stride: 1
    weight_filler {
      type: "xavier"
    }
    bias_filler {
      type: "constant"
    }
  }
}
layer {
  name: "relu3"
  type: "ReLU"
  bottom: "conv3"
  top: "conv3"
}
layer {
  name: "pool3"
  type: "Pooling"
  bottom: "conv3"
  top: "pool3"
  pooling_param {
    pool: AVE
    kernel_size: 3
    stride: 2
  }
}
layer {
  name: "dropout_conv3"
  type: "Dropout"
  bottom: "pool3"
  top: "dropout_conv3"
  dropout_param {
    dropout_ratio: 0.5
  }
}
layer {
  name: "ip500"
  type: "InnerProduct"
  bottom: "dropout_conv3"
  top: "ip500"
  param {
    lr_mult: 1
    decay_mult: 1
  }
  param {
    lr_mult: 2
    decay_mult: 0
  }
  inner_product_param {
    num_output: 500
    weight_filler {
      type: "gaussian"
      std: 0.005
    }
    bias_filler {
      type: "constant"
      value: 0.1
    }
  }
}
layer {
  name: "relu_ip500"
  type: "ReLU"
  bottom: "ip500"
  top: "ip500"
}
layer {
  name: "dropout_ip500"
  type: "Dropout"
  bottom: "ip500"
  top: "ip500"
  dropout_param {
    dropout_ratio: 0.5
  }
}
layer {
  name: "ip_hash"
  type: "InnerProduct"
  bottom: "ip500"
  top: "ip_hash"
  param {
    lr_mult: 1
    decay_mult: 1
  }
  param {
    lr_mult: 2
    decay_mult: 0
  }
  inner_product_param {
    num_output: 12
    weight_filler {
      type: "gaussian"
      std: 0.005
    }
    bias_filler {
      type: "constant"
      value: 0.1
    }
  }
}
layer {
  name: "ip_classification"
  type: "InnerProduct"
  bottom: "ip500"
  top: "ip_classification"
  param {
    lr_mult: 1
    decay_mult: 1
  }
  param {
    lr_mult: 2
    decay_mult: 0
  }
  inner_product_param {
    num_output: 7
    weight_filler {
      type: "gaussian"
      std: 0.005
    }
    bias_filler {
      type: "constant"
      value: 0.1
    }
  }
}
layer {
  name: "loss_hash"
  type: "HashingLoss"
  bottom: "ip_hash"
  bottom: "label"
  top: "loss_hash"
  loss_weight: 0.1
  hashing_loss_param {
    bi_margin: 24
    tradeoff: 0.01
  }
}
layer {
  name: "loss_classification"
  type: "SoftmaxWithLoss"
  bottom: "ip_classification"
  bottom: "label"
  top: "loss_classification"
}
I0830 14:08:55.803761 28856 layer_factory.hpp:77] Creating layer cifar
I0830 14:08:55.805112 28856 net.cpp:91] Creating Layer cifar
I0830 14:08:55.805160 28856 net.cpp:399] cifar -> data
I0830 14:08:55.805269 28856 net.cpp:399] cifar -> label
I0830 14:08:55.806238 28862 db_lmdb.cpp:38] Opened lmdb PATTERN/pattern_train_lmdb
I0830 14:08:55.822851 28856 data_layer.cpp:41] output data size: 200,3,224,224
I0830 14:08:56.064184 28856 net.cpp:141] Setting up cifar
I0830 14:08:56.064301 28856 net.cpp:148] Top shape: 200 3 224 224 (30105600)
I0830 14:08:56.064323 28856 net.cpp:148] Top shape: 200 1 1 1 (200)
I0830 14:08:56.064338 28856 net.cpp:156] Memory required for data: 120423200
I0830 14:08:56.064366 28856 layer_factory.hpp:77] Creating layer label_cifar_1_split
I0830 14:08:56.064404 28856 net.cpp:91] Creating Layer label_cifar_1_split
I0830 14:08:56.064429 28856 net.cpp:425] label_cifar_1_split <- label
I0830 14:08:56.064477 28856 net.cpp:399] label_cifar_1_split -> label_cifar_1_split_0
I0830 14:08:56.064512 28856 net.cpp:399] label_cifar_1_split -> label_cifar_1_split_1
I0830 14:08:56.064597 28856 net.cpp:141] Setting up label_cifar_1_split
I0830 14:08:56.064622 28856 net.cpp:148] Top shape: 200 1 1 1 (200)
I0830 14:08:56.064642 28856 net.cpp:148] Top shape: 200 1 1 1 (200)
I0830 14:08:56.064663 28856 net.cpp:156] Memory required for data: 120424800
I0830 14:08:56.064680 28856 layer_factory.hpp:77] Creating layer conv1
I0830 14:08:56.064728 28856 net.cpp:91] Creating Layer conv1
I0830 14:08:56.064748 28856 net.cpp:425] conv1 <- data
I0830 14:08:56.064769 28856 net.cpp:399] conv1 -> conv1
I0830 14:08:56.066592 28856 net.cpp:141] Setting up conv1
I0830 14:08:56.066638 28856 net.cpp:148] Top shape: 200 32 28 28 (5017600)
I0830 14:08:56.066656 28856 net.cpp:156] Memory required for data: 140495200
I0830 14:08:56.066689 28856 layer_factory.hpp:77] Creating layer pool1
I0830 14:08:56.066717 28856 net.cpp:91] Creating Layer pool1
I0830 14:08:56.066735 28856 net.cpp:425] pool1 <- conv1
I0830 14:08:56.066753 28856 net.cpp:399] pool1 -> pool1
I0830 14:08:56.075873 28856 net.cpp:141] Setting up pool1
I0830 14:08:56.075914 28856 net.cpp:148] Top shape: 200 32 14 14 (1254400)
I0830 14:08:56.075935 28856 net.cpp:156] Memory required for data: 145512800
I0830 14:08:56.075951 28856 layer_factory.hpp:77] Creating layer relu1
I0830 14:08:56.075971 28856 net.cpp:91] Creating Layer relu1
I0830 14:08:56.075987 28856 net.cpp:425] relu1 <- pool1
I0830 14:08:56.076007 28856 net.cpp:386] relu1 -> pool1 (in-place)
I0830 14:08:56.076030 28856 net.cpp:141] Setting up relu1
I0830 14:08:56.076050 28856 net.cpp:148] Top shape: 200 32 14 14 (1254400)
I0830 14:08:56.076064 28856 net.cpp:156] Memory required for data: 150530400
I0830 14:08:56.076079 28856 layer_factory.hpp:77] Creating layer norm1
I0830 14:08:56.076103 28856 net.cpp:91] Creating Layer norm1
I0830 14:08:56.076120 28856 net.cpp:425] norm1 <- pool1
I0830 14:08:56.076175 28856 net.cpp:399] norm1 -> norm1
I0830 14:08:56.076359 28856 net.cpp:141] Setting up norm1
I0830 14:08:56.076385 28856 net.cpp:148] Top shape: 200 32 14 14 (1254400)
I0830 14:08:56.076400 28856 net.cpp:156] Memory required for data: 155548000
I0830 14:08:56.076416 28856 layer_factory.hpp:77] Creating layer conv2
I0830 14:08:56.076444 28856 net.cpp:91] Creating Layer conv2
I0830 14:08:56.076465 28856 net.cpp:425] conv2 <- norm1
I0830 14:08:56.076484 28856 net.cpp:399] conv2 -> conv2
I0830 14:08:56.077594 28856 net.cpp:141] Setting up conv2
I0830 14:08:56.077625 28856 net.cpp:148] Top shape: 200 32 14 14 (1254400)
I0830 14:08:56.077641 28856 net.cpp:156] Memory required for data: 160565600
I0830 14:08:56.077664 28856 layer_factory.hpp:77] Creating layer pool2
I0830 14:08:56.077688 28856 net.cpp:91] Creating Layer pool2
I0830 14:08:56.077705 28856 net.cpp:425] pool2 <- conv2
I0830 14:08:56.077723 28856 net.cpp:399] pool2 -> pool2
I0830 14:08:56.077805 28856 net.cpp:141] Setting up pool2
I0830 14:08:56.077831 28856 net.cpp:148] Top shape: 200 32 7 7 (313600)
I0830 14:08:56.077846 28856 net.cpp:156] Memory required for data: 161820000
I0830 14:08:56.077860 28856 layer_factory.hpp:77] Creating layer relu2
I0830 14:08:56.077883 28856 net.cpp:91] Creating Layer relu2
I0830 14:08:56.077898 28856 net.cpp:425] relu2 <- pool2
I0830 14:08:56.077915 28856 net.cpp:386] relu2 -> pool2 (in-place)
I0830 14:08:56.077934 28856 net.cpp:141] Setting up relu2
I0830 14:08:56.077951 28856 net.cpp:148] Top shape: 200 32 7 7 (313600)
I0830 14:08:56.077966 28856 net.cpp:156] Memory required for data: 163074400
I0830 14:08:56.077980 28856 layer_factory.hpp:77] Creating layer norm2
I0830 14:08:56.077998 28856 net.cpp:91] Creating Layer norm2
I0830 14:08:56.078013 28856 net.cpp:425] norm2 <- pool2
I0830 14:08:56.078033 28856 net.cpp:399] norm2 -> norm2
I0830 14:08:56.078156 28856 net.cpp:141] Setting up norm2
I0830 14:08:56.078181 28856 net.cpp:148] Top shape: 200 32 7 7 (313600)
I0830 14:08:56.078197 28856 net.cpp:156] Memory required for data: 164328800
I0830 14:08:56.078212 28856 layer_factory.hpp:77] Creating layer conv3
I0830 14:08:56.078236 28856 net.cpp:91] Creating Layer conv3
I0830 14:08:56.078253 28856 net.cpp:425] conv3 <- norm2
I0830 14:08:56.078272 28856 net.cpp:399] conv3 -> conv3
I0830 14:08:56.078953 28856 net.cpp:141] Setting up conv3
I0830 14:08:56.078984 28856 net.cpp:148] Top shape: 200 64 7 7 (627200)
I0830 14:08:56.079000 28856 net.cpp:156] Memory required for data: 166837600
I0830 14:08:56.079022 28856 layer_factory.hpp:77] Creating layer relu3
I0830 14:08:56.079042 28856 net.cpp:91] Creating Layer relu3
I0830 14:08:56.079058 28856 net.cpp:425] relu3 <- conv3
I0830 14:08:56.079074 28856 net.cpp:386] relu3 -> conv3 (in-place)
I0830 14:08:56.079093 28856 net.cpp:141] Setting up relu3
I0830 14:08:56.079110 28856 net.cpp:148] Top shape: 200 64 7 7 (627200)
I0830 14:08:56.079125 28856 net.cpp:156] Memory required for data: 169346400
I0830 14:08:56.079139 28856 layer_factory.hpp:77] Creating layer pool3
I0830 14:08:56.079157 28856 net.cpp:91] Creating Layer pool3
I0830 14:08:56.079172 28856 net.cpp:425] pool3 <- conv3
I0830 14:08:56.079193 28856 net.cpp:399] pool3 -> pool3
I0830 14:08:56.079237 28856 net.cpp:141] Setting up pool3
I0830 14:08:56.079260 28856 net.cpp:148] Top shape: 200 64 3 3 (115200)
I0830 14:08:56.079274 28856 net.cpp:156] Memory required for data: 169807200
I0830 14:08:56.079289 28856 layer_factory.hpp:77] Creating layer dropout_conv3
I0830 14:08:56.079313 28856 net.cpp:91] Creating Layer dropout_conv3
I0830 14:08:56.079329 28856 net.cpp:425] dropout_conv3 <- pool3
I0830 14:08:56.079346 28856 net.cpp:399] dropout_conv3 -> dropout_conv3
I0830 14:08:56.079411 28856 net.cpp:141] Setting up dropout_conv3
I0830 14:08:56.079435 28856 net.cpp:148] Top shape: 200 64 3 3 (115200)
I0830 14:08:56.079450 28856 net.cpp:156] Memory required for data: 170268000
I0830 14:08:56.079465 28856 layer_factory.hpp:77] Creating layer ip500
I0830 14:08:56.079491 28856 net.cpp:91] Creating Layer ip500
I0830 14:08:56.079507 28856 net.cpp:425] ip500 <- dropout_conv3
I0830 14:08:56.079550 28856 net.cpp:399] ip500 -> ip500
I0830 14:08:56.091110 28856 net.cpp:141] Setting up ip500
I0830 14:08:56.091142 28856 net.cpp:148] Top shape: 200 500 (100000)
I0830 14:08:56.091159 28856 net.cpp:156] Memory required for data: 170668000
I0830 14:08:56.091179 28856 layer_factory.hpp:77] Creating layer relu_ip500
I0830 14:08:56.091197 28856 net.cpp:91] Creating Layer relu_ip500
I0830 14:08:56.091213 28856 net.cpp:425] relu_ip500 <- ip500
I0830 14:08:56.091230 28856 net.cpp:386] relu_ip500 -> ip500 (in-place)
I0830 14:08:56.091249 28856 net.cpp:141] Setting up relu_ip500
I0830 14:08:56.091267 28856 net.cpp:148] Top shape: 200 500 (100000)
I0830 14:08:56.091282 28856 net.cpp:156] Memory required for data: 171068000
I0830 14:08:56.091296 28856 layer_factory.hpp:77] Creating layer dropout_ip500
I0830 14:08:56.091320 28856 net.cpp:91] Creating Layer dropout_ip500
I0830 14:08:56.091336 28856 net.cpp:425] dropout_ip500 <- ip500
I0830 14:08:56.091354 28856 net.cpp:386] dropout_ip500 -> ip500 (in-place)
I0830 14:08:56.091393 28856 net.cpp:141] Setting up dropout_ip500
I0830 14:08:56.091416 28856 net.cpp:148] Top shape: 200 500 (100000)
I0830 14:08:56.091431 28856 net.cpp:156] Memory required for data: 171468000
I0830 14:08:56.091446 28856 layer_factory.hpp:77] Creating layer ip500_dropout_ip500_0_split
I0830 14:08:56.091464 28856 net.cpp:91] Creating Layer ip500_dropout_ip500_0_split
I0830 14:08:56.091478 28856 net.cpp:425] ip500_dropout_ip500_0_split <- ip500
I0830 14:08:56.091500 28856 net.cpp:399] ip500_dropout_ip500_0_split -> ip500_dropout_ip500_0_split_0
I0830 14:08:56.091521 28856 net.cpp:399] ip500_dropout_ip500_0_split -> ip500_dropout_ip500_0_split_1
I0830 14:08:56.091570 28856 net.cpp:141] Setting up ip500_dropout_ip500_0_split
I0830 14:08:56.091593 28856 net.cpp:148] Top shape: 200 500 (100000)
I0830 14:08:56.091610 28856 net.cpp:148] Top shape: 200 500 (100000)
I0830 14:08:56.091624 28856 net.cpp:156] Memory required for data: 172268000
I0830 14:08:56.091639 28856 layer_factory.hpp:77] Creating layer ip_hash
I0830 14:08:56.091658 28856 net.cpp:91] Creating Layer ip_hash
I0830 14:08:56.091675 28856 net.cpp:425] ip_hash <- ip500_dropout_ip500_0_split_0
I0830 14:08:56.091691 28856 net.cpp:399] ip_hash -> ip_hash
I0830 14:08:56.092669 28856 net.cpp:141] Setting up ip_hash
I0830 14:08:56.092700 28856 net.cpp:148] Top shape: 200 12 (2400)
I0830 14:08:56.092716 28856 net.cpp:156] Memory required for data: 172277600
I0830 14:08:56.092738 28856 layer_factory.hpp:77] Creating layer ip_classification
I0830 14:08:56.092761 28856 net.cpp:91] Creating Layer ip_classification
I0830 14:08:56.092777 28856 net.cpp:425] ip_classification <- ip500_dropout_ip500_0_split_1
I0830 14:08:56.092794 28856 net.cpp:399] ip_classification -> ip_classification
I0830 14:08:56.093050 28856 net.cpp:141] Setting up ip_classification
I0830 14:08:56.093075 28856 net.cpp:148] Top shape: 200 7 (1400)
I0830 14:08:56.093091 28856 net.cpp:156] Memory required for data: 172283200
I0830 14:08:56.093111 28856 layer_factory.hpp:77] Creating layer loss_hash
I0830 14:08:56.093137 28856 net.cpp:91] Creating Layer loss_hash
I0830 14:08:56.093156 28856 net.cpp:425] loss_hash <- ip_hash
I0830 14:08:56.093173 28856 net.cpp:425] loss_hash <- label_cifar_1_split_0
I0830 14:08:56.093192 28856 net.cpp:399] loss_hash -> loss_hash
…
I0830 14:08:56.094918 28856 net.cpp:313] The NetState phase (1) differed from the phase (0) specified by a rule in layer cifar
I0830 14:08:56.095155 28856 net.cpp:49] Initializing net from parameters: 
name: "docomo_pattern_CNN"
state {
  phase: TEST
}
layer {
  name: "cifar"
  type: "Data"
  top: "data"
  top: "label"
  include {
    phase: TEST
  }
  transform_param {
    mirror: false
    mean_value: 103.939
    mean_value: 116.779
    mean_value: 123.68
  }
  data_param {
    source: "PATTERN/pattern_val_lmdb"
    batch_size: 100
    backend: LMDB
  }
}
layer {
  name: "conv1"
  type: "Convolution"
  bottom: "data"
  top: "conv1"
  param {
    lr_mult: 1
    decay_mult: 1
  }
  param {
    lr_mult: 2
    decay_mult: 0
  }
  convolution_param {
    num_output: 32
    pad: 2
    kernel_size: 5
    stride: 8
    weight_filler {
      type: "xavier"
    }
    bias_filler {
      type: "constant"
    }
  }
}
layer {
  name: "pool1"
  type: "Pooling"
  bottom: "conv1"
  top: "pool1"
  pooling_param {
    pool: MAX
    kernel_size: 3
    stride: 2
  }
}
layer {
  name: "relu1"
  type: "ReLU"
  bottom: "pool1"
  top: "pool1"
}
layer {
  name: "norm1"
  type: "LRN"
  bottom: "pool1"
  top: "norm1"
  lrn_param {
    local_size: 3
    alpha: 5e-05
    beta: 0.75
    norm_region: WITHIN_CHANNEL
  }
}
layer {
  name: "conv2"
  type: "Convolution"
  bottom: "norm1"
  top: "conv2"
  param {
    lr_mult: 1
    decay_mult: 1
  }
  param {
    lr_mult: 2
    decay_mult: 0
  }
  convolution_param {
    num_output: 32
    pad: 2
    kernel_size: 5
    stride: 1
    weight_filler {
      type: "xavier"
    }
    bias_filler {
      type: "constant"
    }
  }
}
layer {
  name: "pool2"
  type: "Pooling"
  bottom: "conv2"
  top: "pool2"
  pooling_param {
    pool: AVE
    kernel_size: 3
    stride: 2
  }
}
layer {
  name: "relu2"
  type: "ReLU"
  bottom: "pool2"
  top: "pool2"
}
layer {
  name: "norm2"
  type: "LRN"
  bottom: "pool2"
  top: "norm2"
  lrn_param {
    local_size: 3
    alpha: 5e-05
    beta: 0.75
    norm_region: WITHIN_CHANNEL
  }
}
layer {
  name: "conv3"
  type: "Convolution"
  bottom: "norm2"
  top: "conv3"
  param {
    lr_mult: 1
    decay_mult: 1
  }
  param {
    lr_mult: 2
    decay_mult: 0
  }
  convolution_param {
    num_output: 64
    pad: 2
    kernel_size: 5
    stride: 1
    weight_filler {
      type: "xavier"
    }
    bias_filler {
      type: "constant"
    }
  }
}
layer {
  name: "relu3"
  type: "ReLU"
  bottom: "conv3"
  top: "conv3"
}
layer {
  name: "pool3"
  type: "Pooling"
  bottom: "conv3"
  top: "pool3"
  pooling_param {
    pool: AVE
    kernel_size: 3
    stride: 2
  }
}
layer {
  name: "dropout_conv3"
  type: "Dropout"
  bottom: "pool3"
  top: "dropout_conv3"
  dropout_param {
    dropout_ratio: 0.5
  }
}
layer {
  name: "ip500"
  type: "InnerProduct"
  bottom: "dropout_conv3"
  top: "ip500"
  param {
    lr_mult: 1
    decay_mult: 1
  }
  param {
    lr_mult: 2
    decay_mult: 0
  }
  inner_product_param {
    num_output: 500
    weight_filler {
      type: "gaussian"
      std: 0.005
    }
    bias_filler {
      type: "constant"
      value: 0.1
    }
  }
}
layer {
  name: "relu_ip500"
  type: "ReLU"
  bottom: "ip500"
  top: "ip500"
}
layer {
  name: "dropout_ip500"
  type: "Dropout"
  bottom: "ip500"
  top: "ip500"
  dropout_param {
    dropout_ratio: 0.5
  }
}
layer {
  name: "ip_hash"
  type: "InnerProduct"
  bottom: "ip500"
  top: "ip_hash"
  param {
    lr_mult: 1
    decay_mult: 1
  }
  param {
    lr_mult: 2
    decay_mult: 0
  }
  inner_product_param {
    num_output: 12
    weight_filler {
      type: "gaussian"
      std: 0.005
    }
    bias_filler {
      type: "constant"
      value: 0.1
    }
  }
}
layer {
  name: "ip_classification"
  type: "InnerProduct"
  bottom: "ip500"
  top: "ip_classification"
  param {
    lr_mult: 1
    decay_mult: 1
  }
  param {
    lr_mult: 2
    decay_mult: 0
  }
  inner_product_param {
    num_output: 7
    weight_filler {
      type: "gaussian"
      std: 0.005
    }
    bias_filler {
      type: "constant"
      value: 0.1
    }
  }
}
layer {
  name: "loss_hash"
  type: "HashingLoss"
  bottom: "ip_hash"
  bottom: "label"
  top: "loss_hash"
  loss_weight: 0.1
  hashing_loss_param {
    bi_margin: 24
    tradeoff: 0.01
  }
}
layer {
  name: "loss_classification"
  type: "SoftmaxWithLoss"
  bottom: "ip_classification"
  bottom: "label"
  top: "loss_classification"
}
layer {
  name: "accuracy_at_1"
  type: "Accuracy"
  bottom: "ip_classification"
  bottom: "label"
  top: "accuracy_at_1"
  include {
    phase: TEST
  }
  accuracy_param {
    top_k: 1
  }
}
layer {
  name: "accuracy_at_5"
  type: "Accuracy"
  bottom: "ip_classification"
  bottom: "label"
  top: "accuracy_at_5"
  include {
    phase: TEST
  }
  accuracy_param {
    top_k: 5
  }
}
I0830 14:08:56.096493 28856 layer_factory.hpp:77] Creating layer cifar
I0830 14:08:56.096650 28856 net.cpp:91] Creating Layer cifar
I0830 14:08:56.096675 28856 net.cpp:399] cifar -> data
I0830 14:08:56.096704 28856 net.cpp:399] cifar -> label
I0830 14:08:56.098574 28864 db_lmdb.cpp:38] Opened lmdb PATTERN/pattern_val_lmdb
I0830 14:08:56.099267 28856 data_layer.cpp:41] output data size: 100,3,224,224
I0830 14:08:56.220918 28856 net.cpp:141] Setting up cifar
I0830 14:08:56.221015 28856 net.cpp:148] Top shape: 100 3 224 224 (15052800)
I0830 14:08:56.221038 28856 net.cpp:148] Top shape: 100 1 1 1 (100)
I0830 14:08:56.221053 28856 net.cpp:156] Memory required for data: 60211600
I0830 14:08:56.221074 28856 layer_factory.hpp:77] Creating layer label_cifar_1_split
I0830 14:08:56.221108 28856 net.cpp:91] Creating Layer label_cifar_1_split
I0830 14:08:56.221127 28856 net.cpp:425] label_cifar_1_split <- label
I0830 14:08:56.221153 28856 net.cpp:399] label_cifar_1_split -> label_cifar_1_split_0
I0830 14:08:56.221227 28856 net.cpp:399] label_cifar_1_split -> label_cifar_1_split_1
I0830 14:08:56.221251 28856 net.cpp:399] label_cifar_1_split -> label_cifar_1_split_2
I0830 14:08:56.221271 28856 net.cpp:399] label_cifar_1_split -> label_cifar_1_split_3
I0830 14:08:56.221380 28856 net.cpp:141] Setting up label_cifar_1_split
I0830 14:08:56.221405 28856 net.cpp:148] Top shape: 100 1 1 1 (100)
I0830 14:08:56.221427 28856 net.cpp:148] Top shape: 100 1 1 1 (100)
I0830 14:08:56.221457 28856 net.cpp:148] Top shape: 100 1 1 1 (100)
I0830 14:08:56.221475 28856 net.cpp:148] Top shape: 100 1 1 1 (100)
I0830 14:08:56.221489 28856 net.cpp:156] Memory required for data: 60213200
I0830 14:08:56.221505 28856 layer_factory.hpp:77] Creating layer conv1
I0830 14:08:56.221544 28856 net.cpp:91] Creating Layer conv1
I0830 14:08:56.221563 28856 net.cpp:425] conv1 <- data
I0830 14:08:56.221586 28856 net.cpp:399] conv1 -> conv1
I0830 14:08:56.221953 28856 net.cpp:141] Setting up conv1
I0830 14:08:56.221993 28856 net.cpp:148] Top shape: 100 32 28 28 (2508800)
I0830 14:08:56.222009 28856 net.cpp:156] Memory required for data: 70248400
I0830 14:08:56.222035 28856 layer_factory.hpp:77] Creating layer pool1
I0830 14:08:56.222059 28856 net.cpp:91] Creating Layer pool1
I0830 14:08:56.222074 28856 net.cpp:425] pool1 <- conv1
I0830 14:08:56.222095 28856 net.cpp:399] pool1 -> pool1
I0830 14:08:56.222158 28856 net.cpp:141] Setting up pool1
I0830 14:08:56.222182 28856 net.cpp:148] Top shape: 100 32 14 14 (627200)
I0830 14:08:56.222249 28856 net.cpp:156] Memory required for data: 72757200
I0830 14:08:56.222265 28856 layer_factory.hpp:77] Creating layer relu1
I0830 14:08:56.222290 28856 net.cpp:91] Creating Layer relu1
I0830 14:08:56.222307 28856 net.cpp:425] relu1 <- pool1
I0830 14:08:56.222324 28856 net.cpp:386] relu1 -> pool1 (in-place)
I0830 14:08:56.222345 28856 net.cpp:141] Setting up relu1
I0830 14:08:56.222363 28856 net.cpp:148] Top shape: 100 32 14 14 (627200)
I0830 14:08:56.222385 28856 net.cpp:156] Memory required for data: 75266000
I0830 14:08:56.222400 28856 layer_factory.hpp:77] Creating layer norm1
I0830 14:08:56.222425 28856 net.cpp:91] Creating Layer norm1
I0830 14:08:56.222442 28856 net.cpp:425] norm1 <- pool1
I0830 14:08:56.222460 28856 net.cpp:399] norm1 -> norm1
I0830 14:08:56.222600 28856 net.cpp:141] Setting up norm1
I0830 14:08:56.222627 28856 net.cpp:148] Top shape: 100 32 14 14 (627200)
I0830 14:08:56.222643 28856 net.cpp:156] Memory required for data: 77774800
I0830 14:08:56.222657 28856 layer_factory.hpp:77] Creating layer conv2
I0830 14:08:56.222685 28856 net.cpp:91] Creating Layer conv2
I0830 14:08:56.222704 28856 net.cpp:425] conv2 <- norm1
I0830 14:08:56.222723 28856 net.cpp:399] conv2 -> conv2
I0830 14:08:56.227819 28856 net.cpp:141] Setting up conv2
I0830 14:08:56.227859 28856 net.cpp:148] Top shape: 100 32 14 14 (627200)
I0830 14:08:56.227876 28856 net.cpp:156] Memory required for data: 80283600
I0830 14:08:56.227900 28856 layer_factory.hpp:77] Creating layer pool2
I0830 14:08:56.227921 28856 net.cpp:91] Creating Layer pool2
I0830 14:08:56.227936 28856 net.cpp:425] pool2 <- conv2
I0830 14:08:56.227957 28856 net.cpp:399] pool2 -> pool2
I0830 14:08:56.228014 28856 net.cpp:141] Setting up pool2
I0830 14:08:56.228039 28856 net.cpp:148] Top shape: 100 32 7 7 (156800)
I0830 14:08:56.228054 28856 net.cpp:156] Memory required for data: 80910800
I0830 14:08:56.228068 28856 layer_factory.hpp:77] Creating layer relu2
I0830 14:08:56.228090 28856 net.cpp:91] Creating Layer relu2
I0830 14:08:56.228106 28856 net.cpp:425] relu2 <- pool2
I0830 14:08:56.228123 28856 net.cpp:386] relu2 -> pool2 (in-place)
I0830 14:08:56.228142 28856 net.cpp:141] Setting up relu2
I0830 14:08:56.228160 28856 net.cpp:148] Top shape: 100 32 7 7 (156800)
I0830 14:08:56.228175 28856 net.cpp:156] Memory required for data: 81538000
I0830 14:08:56.228190 28856 layer_factory.hpp:77] Creating layer norm2
I0830 14:08:56.228211 28856 net.cpp:91] Creating Layer norm2
I0830 14:08:56.228238 28856 net.cpp:425] norm2 <- pool2
I0830 14:08:56.228277 28856 net.cpp:399] norm2 -> norm2
I0830 14:08:56.228404 28856 net.cpp:141] Setting up norm2
I0830 14:08:56.228430 28856 net.cpp:148] Top shape: 100 32 7 7 (156800)
I0830 14:08:56.228444 28856 net.cpp:156] Memory required for data: 82165200
I0830 14:08:56.228459 28856 layer_factory.hpp:77] Creating layer conv3
I0830 14:08:56.228488 28856 net.cpp:91] Creating Layer conv3
I0830 14:08:56.228505 28856 net.cpp:425] conv3 <- norm2
I0830 14:08:56.228524 28856 net.cpp:399] conv3 -> conv3
I0830 14:08:56.229238 28856 net.cpp:141] Setting up conv3
I0830 14:08:56.229265 28856 net.cpp:148] Top shape: 100 64 7 7 (313600)
I0830 14:08:56.229281 28856 net.cpp:156] Memory required for data: 83419600
I0830 14:08:56.229302 28856 layer_factory.hpp:77] Creating layer relu3
I0830 14:08:56.229321 28856 net.cpp:91] Creating Layer relu3
I0830 14:08:56.229337 28856 net.cpp:425] relu3 <- conv3
I0830 14:08:56.229357 28856 net.cpp:386] relu3 -> conv3 (in-place)
I0830 14:08:56.229377 28856 net.cpp:141] Setting up relu3
I0830 14:08:56.229394 28856 net.cpp:148] Top shape: 100 64 7 7 (313600)
I0830 14:08:56.229408 28856 net.cpp:156] Memory required for data: 84674000
I0830 14:08:56.229423 28856 layer_factory.hpp:77] Creating layer pool3
I0830 14:08:56.229441 28856 net.cpp:91] Creating Layer pool3
I0830 14:08:56.229456 28856 net.cpp:425] pool3 <- conv3
I0830 14:08:56.229473 28856 net.cpp:399] pool3 -> pool3
I0830 14:08:56.229516 28856 net.cpp:141] Setting up pool3
I0830 14:08:56.229540 28856 net.cpp:148] Top shape: 100 64 3 3 (57600)
I0830 14:08:56.229555 28856 net.cpp:156] Memory required for data: 84904400
I0830 14:08:56.229570 28856 layer_factory.hpp:77] Creating layer dropout_conv3
I0830 14:08:56.229593 28856 net.cpp:91] Creating Layer dropout_conv3
I0830 14:08:56.229609 28856 net.cpp:425] dropout_conv3 <- pool3
I0830 14:08:56.229626 28856 net.cpp:399] dropout_conv3 -> dropout_conv3
I0830 14:08:56.229682 28856 net.cpp:141] Setting up dropout_conv3
I0830 14:08:56.229707 28856 net.cpp:148] Top shape: 100 64 3 3 (57600)
I0830 14:08:56.229722 28856 net.cpp:156] Memory required for data: 85134800
I0830 14:08:56.229737 28856 layer_factory.hpp:77] Creating layer ip500
I0830 14:08:56.229756 28856 net.cpp:91] Creating Layer ip500
I0830 14:08:56.229773 28856 net.cpp:425] ip500 <- dropout_conv3
I0830 14:08:56.229794 28856 net.cpp:399] ip500 -> ip500
I0830 14:08:56.241426 28856 net.cpp:141] Setting up ip500
I0830 14:08:56.241459 28856 net.cpp:148] Top shape: 100 500 (50000)
I0830 14:08:56.241475 28856 net.cpp:156] Memory required for data: 85334800
I0830 14:08:56.241494 28856 layer_factory.hpp:77] Creating layer relu_ip500
I0830 14:08:56.241513 28856 net.cpp:91] Creating Layer relu_ip500
I0830 14:08:56.241529 28856 net.cpp:425] relu_ip500 <- ip500
I0830 14:08:56.241546 28856 net.cpp:386] relu_ip500 -> ip500 (in-place)
I0830 14:08:56.241566 28856 net.cpp:141] Setting up relu_ip500
I0830 14:08:56.241585 28856 net.cpp:148] Top shape: 100 500 (50000)
I0830 14:08:56.241600 28856 net.cpp:156] Memory required for data: 85534800
I0830 14:08:56.241614 28856 layer_factory.hpp:77] Creating layer dropout_ip500
I0830 14:08:56.241634 28856 net.cpp:91] Creating Layer dropout_ip500
I0830 14:08:56.241650 28856 net.cpp:425] dropout_ip500 <- ip500
I0830 14:08:56.241672 28856 net.cpp:386] dropout_ip500 -> ip500 (in-place)
I0830 14:08:56.241714 28856 net.cpp:141] Setting up dropout_ip500
I0830 14:08:56.241735 28856 net.cpp:148] Top shape: 100 500 (50000)
I0830 14:08:56.241751 28856 net.cpp:156] Memory required for data: 85734800
I0830 14:08:56.241766 28856 layer_factory.hpp:77] Creating layer ip500_dropout_ip500_0_split
I0830 14:08:56.241783 28856 net.cpp:91] Creating Layer ip500_dropout_ip500_0_split
I0830 14:08:56.241798 28856 net.cpp:425] ip500_dropout_ip500_0_split <- ip500
I0830 14:08:56.241816 28856 net.cpp:399] ip500_dropout_ip500_0_split -> ip500_dropout_ip500_0_split_0
I0830 14:08:56.241842 28856 net.cpp:399] ip500_dropout_ip500_0_split -> ip500_dropout_ip500_0_split_1
I0830 14:08:56.241891 28856 net.cpp:141] Setting up ip500_dropout_ip500_0_split
I0830 14:08:56.241932 28856 net.cpp:148] Top shape: 100 500 (50000)
I0830 14:08:56.241950 28856 net.cpp:148] Top shape: 100 500 (50000)
I0830 14:08:56.241966 28856 net.cpp:156] Memory required for data: 86134800
I0830 14:08:56.241981 28856 layer_factory.hpp:77] Creating layer ip_hash
I0830 14:08:56.242004 28856 net.cpp:91] Creating Layer ip_hash
I0830 14:08:56.242065 28856 net.cpp:425] ip_hash <- ip500_dropout_ip500_0_split_0
I0830 14:08:56.242086 28856 net.cpp:399] ip_hash -> ip_hash
I0830 14:08:56.242455 28856 net.cpp:141] Setting up ip_hash
I0830 14:08:56.242481 28856 net.cpp:148] Top shape: 100 12 (1200)
I0830 14:08:56.242497 28856 net.cpp:156] Memory required for data: 86139600
I0830 14:08:56.242521 28856 layer_factory.hpp:77] Creating layer ip_classification
I0830 14:08:56.242542 28856 net.cpp:91] Creating Layer ip_classification
I0830 14:08:56.242558 28856 net.cpp:425] ip_classification <- ip500_dropout_ip500_0_split_1
I0830 14:08:56.242579 28856 net.cpp:399] ip_classification -> ip_classification
I0830 14:08:56.242832 28856 net.cpp:141] Setting up ip_classification
I0830 14:08:56.242857 28856 net.cpp:148] Top shape: 100 7 (700)
I0830 14:08:56.242873 28856 net.cpp:156] Memory required for data: 86142400
I0830 14:08:56.242892 28856 layer_factory.hpp:77] Creating layer ip_classification_ip_classification_0_split
I0830 14:08:56.242911 28856 net.cpp:91] Creating Layer ip_classification_ip_classification_0_split
I0830 14:08:56.242928 28856 net.cpp:425] ip_classification_ip_classification_0_split <- ip_classification
I0830 14:08:56.242944 28856 net.cpp:399] ip_classification_ip_classification_0_split -> ip_classification_ip_classification_0_split_0
I0830 14:08:56.242965 28856 net.cpp:399] ip_classification_ip_classification_0_split -> ip_classification_ip_classification_0_split_1
I0830 14:08:56.242985 28856 net.cpp:399] ip_classification_ip_classification_0_split -> ip_classification_ip_classification_0_split_2
I0830 14:08:56.243054 28856 net.cpp:141] Setting up ip_classification_ip_classification_0_split
I0830 14:08:56.243078 28856 net.cpp:148] Top shape: 100 7 (700)
I0830 14:08:56.243094 28856 net.cpp:148] Top shape: 100 7 (700)
I0830 14:08:56.243110 28856 net.cpp:148] Top shape: 100 7 (700)
I0830 14:08:56.243125 28856 net.cpp:156] Memory required for data: 86150800
I0830 14:08:56.243139 28856 layer_factory.hpp:77] Creating layer loss_hash
I0830 14:08:56.243165 28856 net.cpp:91] Creating Layer loss_hash
I0830 14:08:56.243186 28856 net.cpp:425] loss_hash <- ip_hash
I0830 14:08:56.243203 28856 net.cpp:425] loss_hash <- label_cifar_1_split_0
I0830 14:08:56.243225 28856 net.cpp:399] loss_hash -> loss_hash
…
