…
I0831 12:43:41.208171  5363 net.cpp:313] The NetState phase (1) differed from the phase (0) specified by a rule in layer cifar
I0831 12:43:41.208781  5363 net.cpp:49] Initializing net from parameters: 
name: "docomo_pattern_CNN"
state {
  phase: TEST
}
layer {
  name: "cifar"
  type: "Data"
  top: "data"
  top: "label"
  include {
    phase: TEST
  }
  transform_param {
    mirror: false
    mean_value: 103.939
    mean_value: 116.779
    mean_value: 123.68
  }
  data_param {
    source: "PATTERN/pattern_train_lmdb"
    batch_size: 100
    backend: LMDB
  }
}
layer {
  name: "conv1"
  type: "Convolution"
  bottom: "data"
  top: "conv1"
  param {
    lr_mult: 1
    decay_mult: 1
  }
  param {
    lr_mult: 2
    decay_mult: 0
  }
  convolution_param {
    num_output: 32
    pad: 2
    kernel_size: 5
    stride: 8
    weight_filler {
      type: "xavier"
    }
    bias_filler {
      type: "constant"
    }
  }
}
layer {
  name: "pool1"
  type: "Pooling"
  bottom: "conv1"
  top: "pool1"
  pooling_param {
    pool: MAX
    kernel_size: 3
    stride: 2
  }
}
layer {
  name: "relu1"
  type: "ReLU"
  bottom: "pool1"
  top: "pool1"
}
layer {
  name: "norm1"
  type: "LRN"
  bottom: "pool1"
  top: "norm1"
  lrn_param {
    local_size: 3
    alpha: 5e-05
    beta: 0.75
    norm_region: WITHIN_CHANNEL
  }
}
layer {
  name: "conv2"
  type: "Convolution"
  bottom: "norm1"
  top: "conv2"
  param {
    lr_mult: 1
    decay_mult: 1
  }
  param {
    lr_mult: 2
    decay_mult: 0
  }
  convolution_param {
    num_output: 32
    pad: 2
    kernel_size: 5
    stride: 1
    weight_filler {
      type: "xavier"
    }
    bias_filler {
      type: "constant"
    }
  }
}
layer {
  name: "pool2"
  type: "Pooling"
  bottom: "conv2"
  top: "pool2"
  pooling_param {
    pool: AVE
    kernel_size: 3
    stride: 2
  }
}
layer {
  name: "relu2"
  type: "ReLU"
  bottom: "pool2"
  top: "pool2"
}
layer {
  name: "norm2"
  type: "LRN"
  bottom: "pool2"
  top: "norm2"
  lrn_param {
    local_size: 3
    alpha: 5e-05
    beta: 0.75
    norm_region: WITHIN_CHANNEL
  }
}
layer {
  name: "conv3"
  type: "Convolution"
  bottom: "norm2"
  top: "conv3"
  param {
    lr_mult: 1
    decay_mult: 1
  }
  param {
    lr_mult: 2
    decay_mult: 0
  }
  convolution_param {
    num_output: 64
    pad: 2
    kernel_size: 5
    stride: 1
    weight_filler {
      type: "xavier"
    }
    bias_filler {
      type: "constant"
    }
  }
}
layer {
  name: "relu3"
  type: "ReLU"
  bottom: "conv3"
  top: "conv3"
}
layer {
  name: "pool3"
  type: "Pooling"
  bottom: "conv3"
  top: "pool3"
  pooling_param {
    pool: AVE
    kernel_size: 3
    stride: 2
  }
}
layer {
  name: "dropout_conv3"
  type: "Dropout"
  bottom: "pool3"
  top: "dropout_conv3"
  dropout_param {
    dropout_ratio: 0.5
  }
}
layer {
  name: "ip500"
  type: "InnerProduct"
  bottom: "dropout_conv3"
  top: "ip500"
  param {
    lr_mult: 1
    decay_mult: 1
  }
  param {
    lr_mult: 2
    decay_mult: 0
  }
  inner_product_param {
    num_output: 500
    weight_filler {
      type: "gaussian"
      std: 0.005
    }
    bias_filler {
      type: "constant"
      value: 0.1
    }
  }
}
layer {
  name: "relu_ip500"
  type: "ReLU"
  bottom: "ip500"
  top: "ip500"
}
layer {
  name: "dropout_ip500"
  type: "Dropout"
  bottom: "ip500"
  top: "ip500"
  dropout_param {
    dropout_ratio: 0.5
  }
}
layer {
  name: "ip_hash"
  type: "InnerProduct"
  bottom: "ip500"
  top: "ip_hash"
  param {
    lr_mult: 1
    decay_mult: 1
  }
  param {
    lr_mult: 2
    decay_mult: 0
  }
  inner_product_param {
    num_output: 12
    weight_filler {
      type: "gaussian"
      std: 0.005
    }
    bias_filler {
      type: "constant"
      value: 0.1
    }
  }
}
layer {
  name: "ip_classification"
  type: "InnerProduct"
  bottom: "ip500"
  top: "ip_classification"
  param {
    lr_mult: 1
    decay_mult: 1
  }
  param {
    lr_mult: 2
    decay_mult: 0
  }
  inner_product_param {
    num_output: 7
    weight_filler {
      type: "gaussian"
      std: 0.005
    }
    bias_filler {
      type: "constant"
      value: 0.1
    }
  }
}
layer {
  name: "loss_hash"
  type: "HashingLoss"
  bottom: "ip_hash"
  bottom: "label"
  top: "loss_hash"
  loss_weight: 0.1
  hashing_loss_param {
    bi_margin: 24
    tradeoff: 0.01
  }
}
layer {
  name: "loss_classification"
  type: "SoftmaxWithLoss"
  bottom: "ip_classification"
  bottom: "label"
  top: "loss_classification"
}
layer {
  name: "accuracy_at_1"
  type: "Accuracy"
  bottom: "ip_classification"
  bottom: "label"
  top: "accuracy_at_1"
  include {
    phase: TEST
  }
  accuracy_param {
    top_k: 1
  }
}
layer {
  name: "accuracy_at_5"
  type: "Accuracy"
  bottom: "ip_classification"
  bottom: "label"
  top: "accuracy_at_5"
  include {
    phase: TEST
  }
  accuracy_param {
    top_k: 5
  }
}
I0831 12:43:41.211848  5363 layer_factory.hpp:77] Creating layer cifar
I0831 12:43:41.213142  5363 net.cpp:91] Creating Layer cifar
I0831 12:43:41.213246  5363 net.cpp:399] cifar -> data
I0831 12:43:41.213358  5363 net.cpp:399] cifar -> label
I0831 12:43:41.215018  5370 db_lmdb.cpp:38] Opened lmdb PATTERN/pattern_train_lmdb
I0831 12:43:41.244752  5363 data_layer.cpp:41] output data size: 100,3,224,224
I0831 12:43:41.434604  5363 net.cpp:141] Setting up cifar
I0831 12:43:41.434706  5363 net.cpp:148] Top shape: 100 3 224 224 (15052800)
I0831 12:43:41.434734  5363 net.cpp:148] Top shape: 100 1 1 1 (100)
I0831 12:43:41.434756  5363 net.cpp:156] Memory required for data: 60211600
I0831 12:43:41.434785  5363 layer_factory.hpp:77] Creating layer label_cifar_1_split
I0831 12:43:41.434828  5363 net.cpp:91] Creating Layer label_cifar_1_split
I0831 12:43:41.434869  5363 net.cpp:425] label_cifar_1_split <- label
I0831 12:43:41.434912  5363 net.cpp:399] label_cifar_1_split -> label_cifar_1_split_0
I0831 12:43:41.434950  5363 net.cpp:399] label_cifar_1_split -> label_cifar_1_split_1
I0831 12:43:41.434980  5363 net.cpp:399] label_cifar_1_split -> label_cifar_1_split_2
I0831 12:43:41.435006  5363 net.cpp:399] label_cifar_1_split -> label_cifar_1_split_3
I0831 12:43:41.435175  5363 net.cpp:141] Setting up label_cifar_1_split
I0831 12:43:41.435225  5363 net.cpp:148] Top shape: 100 1 1 1 (100)
I0831 12:43:41.435262  5363 net.cpp:148] Top shape: 100 1 1 1 (100)
I0831 12:43:41.435297  5363 net.cpp:148] Top shape: 100 1 1 1 (100)
I0831 12:43:41.435333  5363 net.cpp:148] Top shape: 100 1 1 1 (100)
I0831 12:43:41.435366  5363 net.cpp:156] Memory required for data: 60213200
I0831 12:43:41.435400  5363 layer_factory.hpp:77] Creating layer conv1
I0831 12:43:41.435475  5363 net.cpp:91] Creating Layer conv1
I0831 12:43:41.435513  5363 net.cpp:425] conv1 <- data
I0831 12:43:41.435555  5363 net.cpp:399] conv1 -> conv1
I0831 12:43:41.438421  5363 net.cpp:141] Setting up conv1
I0831 12:43:41.438499  5363 net.cpp:148] Top shape: 100 32 28 28 (2508800)
I0831 12:43:41.438547  5363 net.cpp:156] Memory required for data: 70248400
I0831 12:43:41.438622  5363 layer_factory.hpp:77] Creating layer pool1
I0831 12:43:41.438685  5363 net.cpp:91] Creating Layer pool1
I0831 12:43:41.438724  5363 net.cpp:425] pool1 <- conv1
I0831 12:43:41.438772  5363 net.cpp:399] pool1 -> pool1
I0831 12:43:41.443595  5363 net.cpp:141] Setting up pool1
I0831 12:43:41.443636  5363 net.cpp:148] Top shape: 100 32 14 14 (627200)
I0831 12:43:41.443655  5363 net.cpp:156] Memory required for data: 72757200
I0831 12:43:41.443673  5363 layer_factory.hpp:77] Creating layer relu1
I0831 12:43:41.443696  5363 net.cpp:91] Creating Layer relu1
I0831 12:43:41.443716  5363 net.cpp:425] relu1 <- pool1
I0831 12:43:41.443735  5363 net.cpp:386] relu1 -> pool1 (in-place)
I0831 12:43:41.443763  5363 net.cpp:141] Setting up relu1
I0831 12:43:41.443789  5363 net.cpp:148] Top shape: 100 32 14 14 (627200)
I0831 12:43:41.443806  5363 net.cpp:156] Memory required for data: 75266000
I0831 12:43:41.443830  5363 layer_factory.hpp:77] Creating layer norm1
I0831 12:43:41.443856  5363 net.cpp:91] Creating Layer norm1
I0831 12:43:41.443874  5363 net.cpp:425] norm1 <- pool1
I0831 12:43:41.443902  5363 net.cpp:399] norm1 -> norm1
I0831 12:43:41.444085  5363 net.cpp:141] Setting up norm1
I0831 12:43:41.444180  5363 net.cpp:148] Top shape: 100 32 14 14 (627200)
I0831 12:43:41.444206  5363 net.cpp:156] Memory required for data: 77774800
I0831 12:43:41.444226  5363 layer_factory.hpp:77] Creating layer conv2
I0831 12:43:41.444259  5363 net.cpp:91] Creating Layer conv2
I0831 12:43:41.444285  5363 net.cpp:425] conv2 <- norm1
I0831 12:43:41.444317  5363 net.cpp:399] conv2 -> conv2
I0831 12:43:41.446007  5363 net.cpp:141] Setting up conv2
I0831 12:43:41.446064  5363 net.cpp:148] Top shape: 100 32 14 14 (627200)
I0831 12:43:41.446096  5363 net.cpp:156] Memory required for data: 80283600
I0831 12:43:41.446141  5363 layer_factory.hpp:77] Creating layer pool2
I0831 12:43:41.446194  5363 net.cpp:91] Creating Layer pool2
I0831 12:43:41.446229  5363 net.cpp:425] pool2 <- conv2
I0831 12:43:41.446276  5363 net.cpp:399] pool2 -> pool2
I0831 12:43:41.446362  5363 net.cpp:141] Setting up pool2
I0831 12:43:41.446427  5363 net.cpp:148] Top shape: 100 32 7 7 (156800)
I0831 12:43:41.446461  5363 net.cpp:156] Memory required for data: 80910800
I0831 12:43:41.446496  5363 layer_factory.hpp:77] Creating layer relu2
I0831 12:43:41.446540  5363 net.cpp:91] Creating Layer relu2
I0831 12:43:41.446573  5363 net.cpp:425] relu2 <- pool2
I0831 12:43:41.446615  5363 net.cpp:386] relu2 -> pool2 (in-place)
I0831 12:43:41.446655  5363 net.cpp:141] Setting up relu2
I0831 12:43:41.446691  5363 net.cpp:148] Top shape: 100 32 7 7 (156800)
I0831 12:43:41.446724  5363 net.cpp:156] Memory required for data: 81538000
I0831 12:43:41.446758  5363 layer_factory.hpp:77] Creating layer norm2
I0831 12:43:41.446792  5363 net.cpp:91] Creating Layer norm2
I0831 12:43:41.446823  5363 net.cpp:425] norm2 <- pool2
I0831 12:43:41.446861  5363 net.cpp:399] norm2 -> norm2
I0831 12:43:41.447098  5363 net.cpp:141] Setting up norm2
I0831 12:43:41.447149  5363 net.cpp:148] Top shape: 100 32 7 7 (156800)
I0831 12:43:41.447183  5363 net.cpp:156] Memory required for data: 82165200
I0831 12:43:41.447216  5363 layer_factory.hpp:77] Creating layer conv3
I0831 12:43:41.447265  5363 net.cpp:91] Creating Layer conv3
I0831 12:43:41.447302  5363 net.cpp:425] conv3 <- norm2
I0831 12:43:41.447347  5363 net.cpp:399] conv3 -> conv3
I0831 12:43:41.448683  5363 net.cpp:141] Setting up conv3
I0831 12:43:41.448736  5363 net.cpp:148] Top shape: 100 64 7 7 (313600)
I0831 12:43:41.448767  5363 net.cpp:156] Memory required for data: 83419600
I0831 12:43:41.448810  5363 layer_factory.hpp:77] Creating layer relu3
I0831 12:43:41.448850  5363 net.cpp:91] Creating Layer relu3
I0831 12:43:41.448884  5363 net.cpp:425] relu3 <- conv3
I0831 12:43:41.448922  5363 net.cpp:386] relu3 -> conv3 (in-place)
I0831 12:43:41.448962  5363 net.cpp:141] Setting up relu3
I0831 12:43:41.449000  5363 net.cpp:148] Top shape: 100 64 7 7 (313600)
I0831 12:43:41.449033  5363 net.cpp:156] Memory required for data: 84674000
I0831 12:43:41.449067  5363 layer_factory.hpp:77] Creating layer pool3
I0831 12:43:41.449100  5363 net.cpp:91] Creating Layer pool3
I0831 12:43:41.449131  5363 net.cpp:425] pool3 <- conv3
I0831 12:43:41.449169  5363 net.cpp:399] pool3 -> pool3
I0831 12:43:41.449259  5363 net.cpp:141] Setting up pool3
I0831 12:43:41.449306  5363 net.cpp:148] Top shape: 100 64 3 3 (57600)
I0831 12:43:41.449338  5363 net.cpp:156] Memory required for data: 84904400
I0831 12:43:41.449371  5363 layer_factory.hpp:77] Creating layer dropout_conv3
I0831 12:43:41.449419  5363 net.cpp:91] Creating Layer dropout_conv3
I0831 12:43:41.449451  5363 net.cpp:425] dropout_conv3 <- pool3
I0831 12:43:41.449489  5363 net.cpp:399] dropout_conv3 -> dropout_conv3
I0831 12:43:41.449614  5363 net.cpp:141] Setting up dropout_conv3
I0831 12:43:41.449662  5363 net.cpp:148] Top shape: 100 64 3 3 (57600)
I0831 12:43:41.449695  5363 net.cpp:156] Memory required for data: 85134800
I0831 12:43:41.449728  5363 layer_factory.hpp:77] Creating layer ip500
I0831 12:43:41.449774  5363 net.cpp:91] Creating Layer ip500
I0831 12:43:41.449805  5363 net.cpp:425] ip500 <- dropout_conv3
I0831 12:43:41.449849  5363 net.cpp:399] ip500 -> ip500
I0831 12:43:41.472894  5363 net.cpp:141] Setting up ip500
I0831 12:43:41.472991  5363 net.cpp:148] Top shape: 100 500 (50000)
I0831 12:43:41.473024  5363 net.cpp:156] Memory required for data: 85334800
I0831 12:43:41.473073  5363 layer_factory.hpp:77] Creating layer relu_ip500
I0831 12:43:41.473114  5363 net.cpp:91] Creating Layer relu_ip500
I0831 12:43:41.473152  5363 net.cpp:425] relu_ip500 <- ip500
I0831 12:43:41.473191  5363 net.cpp:386] relu_ip500 -> ip500 (in-place)
I0831 12:43:41.473235  5363 net.cpp:141] Setting up relu_ip500
I0831 12:43:41.473273  5363 net.cpp:148] Top shape: 100 500 (50000)
I0831 12:43:41.473306  5363 net.cpp:156] Memory required for data: 85534800
I0831 12:43:41.473336  5363 layer_factory.hpp:77] Creating layer dropout_ip500
I0831 12:43:41.473389  5363 net.cpp:91] Creating Layer dropout_ip500
I0831 12:43:41.473425  5363 net.cpp:425] dropout_ip500 <- ip500
I0831 12:43:41.473460  5363 net.cpp:386] dropout_ip500 -> ip500 (in-place)
I0831 12:43:41.473546  5363 net.cpp:141] Setting up dropout_ip500
I0831 12:43:41.473592  5363 net.cpp:148] Top shape: 100 500 (50000)
I0831 12:43:41.473625  5363 net.cpp:156] Memory required for data: 85734800
I0831 12:43:41.473662  5363 layer_factory.hpp:77] Creating layer ip500_dropout_ip500_0_split
I0831 12:43:41.473701  5363 net.cpp:91] Creating Layer ip500_dropout_ip500_0_split
I0831 12:43:41.473736  5363 net.cpp:425] ip500_dropout_ip500_0_split <- ip500
I0831 12:43:41.473774  5363 net.cpp:399] ip500_dropout_ip500_0_split -> ip500_dropout_ip500_0_split_0
I0831 12:43:41.473831  5363 net.cpp:399] ip500_dropout_ip500_0_split -> ip500_dropout_ip500_0_split_1
I0831 12:43:41.473932  5363 net.cpp:141] Setting up ip500_dropout_ip500_0_split
I0831 12:43:41.473979  5363 net.cpp:148] Top shape: 100 500 (50000)
I0831 12:43:41.474016  5363 net.cpp:148] Top shape: 100 500 (50000)
I0831 12:43:41.474047  5363 net.cpp:156] Memory required for data: 86134800
I0831 12:43:41.474079  5363 layer_factory.hpp:77] Creating layer ip_hash
I0831 12:43:41.474124  5363 net.cpp:91] Creating Layer ip_hash
I0831 12:43:41.474160  5363 net.cpp:425] ip_hash <- ip500_dropout_ip500_0_split_0
I0831 12:43:41.474197  5363 net.cpp:399] ip_hash -> ip_hash
I0831 12:43:41.476069  5363 net.cpp:141] Setting up ip_hash
I0831 12:43:41.476128  5363 net.cpp:148] Top shape: 100 12 (1200)
I0831 12:43:41.476166  5363 net.cpp:156] Memory required for data: 86139600
I0831 12:43:41.476220  5363 layer_factory.hpp:77] Creating layer ip_classification
I0831 12:43:41.476263  5363 net.cpp:91] Creating Layer ip_classification
I0831 12:43:41.476297  5363 net.cpp:425] ip_classification <- ip500_dropout_ip500_0_split_1
I0831 12:43:41.476337  5363 net.cpp:399] ip_classification -> ip_classification
I0831 12:43:41.476840  5363 net.cpp:141] Setting up ip_classification
I0831 12:43:41.476889  5363 net.cpp:148] Top shape: 100 7 (700)
I0831 12:43:41.476918  5363 net.cpp:156] Memory required for data: 86142400
I0831 12:43:41.476955  5363 layer_factory.hpp:77] Creating layer ip_classification_ip_classification_0_split
I0831 12:43:41.476995  5363 net.cpp:91] Creating Layer ip_classification_ip_classification_0_split
I0831 12:43:41.477031  5363 net.cpp:425] ip_classification_ip_classification_0_split <- ip_classification
I0831 12:43:41.477064  5363 net.cpp:399] ip_classification_ip_classification_0_split -> ip_classification_ip_classification_0_split_0
I0831 12:43:41.477113  5363 net.cpp:399] ip_classification_ip_classification_0_split -> ip_classification_ip_classification_0_split_1
I0831 12:43:41.477155  5363 net.cpp:399] ip_classification_ip_classification_0_split -> ip_classification_ip_classification_0_split_2
I0831 12:43:41.477288  5363 net.cpp:141] Setting up ip_classification_ip_classification_0_split
I0831 12:43:41.477340  5363 net.cpp:148] Top shape: 100 7 (700)
I0831 12:43:41.477378  5363 net.cpp:148] Top shape: 100 7 (700)
I0831 12:43:41.477412  5363 net.cpp:148] Top shape: 100 7 (700)
I0831 12:43:41.477444  5363 net.cpp:156] Memory required for data: 86150800
I0831 12:43:41.477476  5363 layer_factory.hpp:77] Creating layer loss_hash
I0831 12:43:41.477583  5363 net.cpp:91] Creating Layer loss_hash
I0831 12:43:41.477622  5363 net.cpp:425] loss_hash <- ip_hash
I0831 12:43:41.477659  5363 net.cpp:425] loss_hash <- label_cifar_1_split_0
I0831 12:43:41.477695  5363 net.cpp:399] loss_hash -> loss_hash
…
