…
I0917 22:18:27.563828  5341 net.cpp:313] The NetState phase (0) differed from the phase (1) specified by a rule in layer accuracy_at_1_Color
I0917 22:18:27.564106  5341 net.cpp:49] Initializing net from parameters: 
name: "docomo_AlexNet"
state {
  phase: TRAIN
}
layer {
  name: "data"
  type: "Data"
  top: "data"
  top: "label"
  include {
    phase: TRAIN
  }
  transform_param {
    mirror: true
    crop_size: 224
    mean_value: 103.939
    mean_value: 116.779
    mean_value: 123.68
  }
  data_param {
    source: "COLOR/color_train_lmdb"
    batch_size: 30
    backend: LMDB
  }
}
layer {
  name: "conv1"
  type: "Convolution"
  bottom: "data"
  top: "conv1"
  param {
    lr_mult: 1
    decay_mult: 1
  }
  param {
    lr_mult: 2
    decay_mult: 0
  }
  convolution_param {
    num_output: 96
    kernel_size: 11
    stride: 4
    weight_filler {
      type: "gaussian"
      std: 0.01
    }
    bias_filler {
      type: "constant"
      value: 0
    }
  }
}
layer {
  name: "relu1"
  type: "ReLU"
  bottom: "conv1"
  top: "conv1"
}
layer {
  name: "norm1"
  type: "LRN"
  bottom: "conv1"
  top: "norm1"
  lrn_param {
    local_size: 5
    alpha: 0.0001
    beta: 0.75
  }
}
layer {
  name: "pool1"
  type: "Pooling"
  bottom: "norm1"
  top: "pool1"
  pooling_param {
    pool: MAX
    kernel_size: 3
    stride: 2
  }
}
layer {
  name: "conv2"
  type: "Convolution"
  bottom: "pool1"
  top: "conv2"
  param {
    lr_mult: 1
    decay_mult: 1
  }
  param {
    lr_mult: 2
    decay_mult: 0
  }
  convolution_param {
    num_output: 256
    pad: 2
    kernel_size: 5
    group: 2
    weight_filler {
      type: "gaussian"
      std: 0.01
    }
    bias_filler {
      type: "constant"
      value: 0.1
    }
  }
}
layer {
  name: "relu2"
  type: "ReLU"
  bottom: "conv2"
  top: "conv2"
}
layer {
  name: "norm2"
  type: "LRN"
  bottom: "conv2"
  top: "norm2"
  lrn_param {
    local_size: 5
    alpha: 0.0001
    beta: 0.75
  }
}
layer {
  name: "pool2"
  type: "Pooling"
  bottom: "norm2"
  top: "pool2"
  pooling_param {
    pool: MAX
    kernel_size: 3
    stride: 2
  }
}
layer {
  name: "conv3"
  type: "Convolution"
  bottom: "pool2"
  top: "conv3"
  param {
    lr_mult: 1
    decay_mult: 1
  }
  param {
    lr_mult: 2
    decay_mult: 0
  }
  convolution_param {
    num_output: 384
    pad: 1
    kernel_size: 3
    weight_filler {
      type: "gaussian"
      std: 0.01
    }
    bias_filler {
      type: "constant"
      value: 0
    }
  }
}
layer {
  name: "relu3"
  type: "ReLU"
  bottom: "conv3"
  top: "conv3"
}
layer {
  name: "conv4"
  type: "Convolution"
  bottom: "conv3"
  top: "conv4"
  param {
    lr_mult: 1
    decay_mult: 1
  }
  param {
    lr_mult: 2
    decay_mult: 0
  }
  convolution_param {
    num_output: 384
    pad: 1
    kernel_size: 3
    group: 2
    weight_filler {
      type: "gaussian"
      std: 0.01
    }
    bias_filler {
      type: "constant"
      value: 0.1
    }
  }
}
layer {
  name: "relu4"
  type: "ReLU"
  bottom: "conv4"
  top: "conv4"
}
layer {
  name: "conv5"
  type: "Convolution"
  bottom: "conv4"
  top: "conv5"
  param {
    lr_mult: 1
    decay_mult: 1
  }
  param {
    lr_mult: 2
    decay_mult: 0
  }
  convolution_param {
    num_output: 256
    pad: 1
    kernel_size: 3
    group: 2
    weight_filler {
      type: "gaussian"
      std: 0.01
    }
    bias_filler {
      type: "constant"
      value: 0.1
    }
  }
}
layer {
  name: "relu5"
  type: "ReLU"
  bottom: "conv5"
  top: "conv5"
}
layer {
  name: "pool5"
  type: "Pooling"
  bottom: "conv5"
  top: "pool5"
  pooling_param {
    pool: MAX
    kernel_size: 3
    stride: 2
  }
}
layer {
  name: "fc6"
  type: "InnerProduct"
  bottom: "pool5"
  top: "fc6"
  param {
    lr_mult: 1
    decay_mult: 1
  }
  param {
    lr_mult: 2
    decay_mult: 0
  }
  inner_product_param {
    num_output: 4096
    weight_filler {
      type: "gaussian"
      std: 0.005
    }
    bias_filler {
      type: "constant"
      value: 0.1
    }
  }
}
layer {
  name: "relu6"
  type: "ReLU"
  bottom: "fc6"
  top: "fc6"
}
layer {
  name: "drop6"
  type: "Dropout"
  bottom: "fc6"
  top: "fc6"
  dropout_param {
    dropout_ratio: 0.5
  }
}
layer {
  name: "fc7"
  type: "InnerProduct"
  bottom: "fc6"
  top: "fc7"
  param {
    lr_mult: 1
    decay_mult: 1
  }
  param {
    lr_mult: 2
    decay_mult: 0
  }
  inner_product_param {
    num_output: 4096
    weight_filler {
      type: "gaussian"
      std: 0.005
    }
    bias_filler {
      type: "constant"
      value: 0.1
    }
  }
}
layer {
  name: "relu7"
  type: "ReLU"
  bottom: "fc7"
  top: "fc7"
}
layer {
  name: "drop7"
  type: "Dropout"
  bottom: "fc7"
  top: "fc7"
  dropout_param {
    dropout_ratio: 0.5
  }
}
layer {
  name: "fc_binary_Color_f48"
  type: "InnerProduct"
  bottom: "fc7"
  top: "fc_binary_Color_f48"
  param {
    lr_mult: 10
    decay_mult: 1
  }
  param {
    lr_mult: 20
    decay_mult: 0
  }
  inner_product_param {
    num_output: 48
    weight_filler {
      type: "gaussian"
      std: 0.005
    }
    bias_filler {
      type: "constant"
      value: 0.1
    }
  }
}
layer {
  name: "fc_classification_Color"
  type: "InnerProduct"
  bottom: "fc7"
  top: "fc_classification_Color"
  param {
    lr_mult: 0.5
    decay_mult: 1
  }
  param {
    lr_mult: 1
    decay_mult: 0
  }
  inner_product_param {
    num_output: 8
    weight_filler {
      type: "gaussian"
      std: 0.05
    }
    bias_filler {
      type: "constant"
      value: 0.1
    }
  }
}
layer {
  name: "loss_hashing"
  type: "HashingLoss"
  bottom: "fc_binary_Color_f48"
  bottom: "label"
  top: "loss_hashing"
  loss_weight: 1
  hashing_loss_param {
    bi_margin: 96
    tradeoff: 0.01
  }
}
layer {
  name: "loss"
  type: "SoftmaxWithLoss"
  bottom: "fc_classification_Color"
  bottom: "label"
  top: "loss"
}
I0917 22:18:27.566915  5341 layer_factory.hpp:77] Creating layer data
I0917 22:18:27.567558  5341 net.cpp:91] Creating Layer data
I0917 22:18:27.567600  5341 net.cpp:399] data -> data
I0917 22:18:27.567685  5341 net.cpp:399] data -> label
I0917 22:18:27.607861  5346 db_lmdb.cpp:38] Opened lmdb COLOR/color_train_lmdb
I0917 22:18:27.735549  5341 data_layer.cpp:41] output data size: 30,3,224,224
I0917 22:18:27.784971  5341 net.cpp:141] Setting up data
I0917 22:18:27.785066  5341 net.cpp:148] Top shape: 30 3 224 224 (4515840)
I0917 22:18:27.785100  5341 net.cpp:148] Top shape: 30 1 1 1 (30)
I0917 22:18:27.785127  5341 net.cpp:156] Memory required for data: 18063480
I0917 22:18:27.785164  5341 layer_factory.hpp:77] Creating layer label_data_1_split
I0917 22:18:27.785207  5341 net.cpp:91] Creating Layer label_data_1_split
I0917 22:18:27.785238  5341 net.cpp:425] label_data_1_split <- label
I0917 22:18:27.785287  5341 net.cpp:399] label_data_1_split -> label_data_1_split_0
I0917 22:18:27.785326  5341 net.cpp:399] label_data_1_split -> label_data_1_split_1
I0917 22:18:27.785408  5341 net.cpp:141] Setting up label_data_1_split
I0917 22:18:27.785439  5341 net.cpp:148] Top shape: 30 1 1 1 (30)
I0917 22:18:27.785467  5341 net.cpp:148] Top shape: 30 1 1 1 (30)
I0917 22:18:27.785491  5341 net.cpp:156] Memory required for data: 18063720
I0917 22:18:27.785516  5341 layer_factory.hpp:77] Creating layer conv1
I0917 22:18:27.785571  5341 net.cpp:91] Creating Layer conv1
I0917 22:18:27.785596  5341 net.cpp:425] conv1 <- data
I0917 22:18:27.785634  5341 net.cpp:399] conv1 -> conv1
I0917 22:18:27.789165  5341 net.cpp:141] Setting up conv1
I0917 22:18:27.789238  5341 net.cpp:148] Top shape: 30 96 54 54 (8398080)
I0917 22:18:27.789268  5341 net.cpp:156] Memory required for data: 51656040
I0917 22:18:27.789312  5341 layer_factory.hpp:77] Creating layer relu1
I0917 22:18:27.789353  5341 net.cpp:91] Creating Layer relu1
I0917 22:18:27.789378  5341 net.cpp:425] relu1 <- conv1
I0917 22:18:27.789407  5341 net.cpp:386] relu1 -> conv1 (in-place)
I0917 22:18:27.789441  5341 net.cpp:141] Setting up relu1
I0917 22:18:27.789469  5341 net.cpp:148] Top shape: 30 96 54 54 (8398080)
I0917 22:18:27.789494  5341 net.cpp:156] Memory required for data: 85248360
I0917 22:18:27.789518  5341 layer_factory.hpp:77] Creating layer norm1
I0917 22:18:27.789552  5341 net.cpp:91] Creating Layer norm1
I0917 22:18:27.789575  5341 net.cpp:425] norm1 <- conv1
I0917 22:18:27.789609  5341 net.cpp:399] norm1 -> norm1
I0917 22:18:27.789695  5341 net.cpp:141] Setting up norm1
I0917 22:18:27.789726  5341 net.cpp:148] Top shape: 30 96 54 54 (8398080)
I0917 22:18:27.789752  5341 net.cpp:156] Memory required for data: 118840680
I0917 22:18:27.789775  5341 layer_factory.hpp:77] Creating layer pool1
I0917 22:18:27.789815  5341 net.cpp:91] Creating Layer pool1
I0917 22:18:27.789839  5341 net.cpp:425] pool1 <- norm1
I0917 22:18:27.789873  5341 net.cpp:399] pool1 -> pool1
I0917 22:18:27.789954  5341 net.cpp:141] Setting up pool1
I0917 22:18:27.789984  5341 net.cpp:148] Top shape: 30 96 27 27 (2099520)
I0917 22:18:27.790009  5341 net.cpp:156] Memory required for data: 127238760
I0917 22:18:27.790035  5341 layer_factory.hpp:77] Creating layer conv2
I0917 22:18:27.790074  5341 net.cpp:91] Creating Layer conv2
I0917 22:18:27.790097  5341 net.cpp:425] conv2 <- pool1
I0917 22:18:27.790133  5341 net.cpp:399] conv2 -> conv2
I0917 22:18:27.803215  5341 net.cpp:141] Setting up conv2
I0917 22:18:27.803270  5341 net.cpp:148] Top shape: 30 256 27 27 (5598720)
I0917 22:18:27.803295  5341 net.cpp:156] Memory required for data: 149633640
I0917 22:18:27.803346  5341 layer_factory.hpp:77] Creating layer relu2
I0917 22:18:27.803378  5341 net.cpp:91] Creating Layer relu2
I0917 22:18:27.803406  5341 net.cpp:425] relu2 <- conv2
I0917 22:18:27.803442  5341 net.cpp:386] relu2 -> conv2 (in-place)
I0917 22:18:27.803475  5341 net.cpp:141] Setting up relu2
I0917 22:18:27.803504  5341 net.cpp:148] Top shape: 30 256 27 27 (5598720)
I0917 22:18:27.803529  5341 net.cpp:156] Memory required for data: 172028520
I0917 22:18:27.803553  5341 layer_factory.hpp:77] Creating layer norm2
I0917 22:18:27.803588  5341 net.cpp:91] Creating Layer norm2
I0917 22:18:27.803611  5341 net.cpp:425] norm2 <- conv2
I0917 22:18:27.803647  5341 net.cpp:399] norm2 -> norm2
I0917 22:18:27.803717  5341 net.cpp:141] Setting up norm2
I0917 22:18:27.803747  5341 net.cpp:148] Top shape: 30 256 27 27 (5598720)
I0917 22:18:27.803772  5341 net.cpp:156] Memory required for data: 194423400
I0917 22:18:27.803797  5341 layer_factory.hpp:77] Creating layer pool2
I0917 22:18:27.803833  5341 net.cpp:91] Creating Layer pool2
I0917 22:18:27.803855  5341 net.cpp:425] pool2 <- norm2
I0917 22:18:27.803889  5341 net.cpp:399] pool2 -> pool2
I0917 22:18:27.803956  5341 net.cpp:141] Setting up pool2
I0917 22:18:27.803985  5341 net.cpp:148] Top shape: 30 256 13 13 (1297920)
I0917 22:18:27.804009  5341 net.cpp:156] Memory required for data: 199615080
I0917 22:18:27.804033  5341 layer_factory.hpp:77] Creating layer conv3
I0917 22:18:27.804074  5341 net.cpp:91] Creating Layer conv3
I0917 22:18:27.804097  5341 net.cpp:425] conv3 <- pool2
I0917 22:18:27.804133  5341 net.cpp:399] conv3 -> conv3
I0917 22:18:27.839087  5341 net.cpp:141] Setting up conv3
I0917 22:18:27.839154  5341 net.cpp:148] Top shape: 30 384 13 13 (1946880)
I0917 22:18:27.839179  5341 net.cpp:156] Memory required for data: 207402600
I0917 22:18:27.839229  5341 layer_factory.hpp:77] Creating layer relu3
I0917 22:18:27.839267  5341 net.cpp:91] Creating Layer relu3
I0917 22:18:27.839293  5341 net.cpp:425] relu3 <- conv3
I0917 22:18:27.839328  5341 net.cpp:386] relu3 -> conv3 (in-place)
I0917 22:18:27.839361  5341 net.cpp:141] Setting up relu3
I0917 22:18:27.839427  5341 net.cpp:148] Top shape: 30 384 13 13 (1946880)
I0917 22:18:27.839453  5341 net.cpp:156] Memory required for data: 215190120
I0917 22:18:27.839478  5341 layer_factory.hpp:77] Creating layer conv4
I0917 22:18:27.839519  5341 net.cpp:91] Creating Layer conv4
I0917 22:18:27.839543  5341 net.cpp:425] conv4 <- conv3
I0917 22:18:27.839581  5341 net.cpp:399] conv4 -> conv4
I0917 22:18:27.866163  5341 net.cpp:141] Setting up conv4
I0917 22:18:27.866224  5341 net.cpp:148] Top shape: 30 384 13 13 (1946880)
I0917 22:18:27.866248  5341 net.cpp:156] Memory required for data: 222977640
I0917 22:18:27.866292  5341 layer_factory.hpp:77] Creating layer relu4
I0917 22:18:27.866328  5341 net.cpp:91] Creating Layer relu4
I0917 22:18:27.866354  5341 net.cpp:425] relu4 <- conv4
I0917 22:18:27.866397  5341 net.cpp:386] relu4 -> conv4 (in-place)
I0917 22:18:27.866431  5341 net.cpp:141] Setting up relu4
I0917 22:18:27.866461  5341 net.cpp:148] Top shape: 30 384 13 13 (1946880)
I0917 22:18:27.866483  5341 net.cpp:156] Memory required for data: 230765160
I0917 22:18:27.866509  5341 layer_factory.hpp:77] Creating layer conv5
I0917 22:18:27.866550  5341 net.cpp:91] Creating Layer conv5
I0917 22:18:27.866574  5341 net.cpp:425] conv5 <- conv4
I0917 22:18:27.866605  5341 net.cpp:399] conv5 -> conv5
I0917 22:18:27.883836  5341 net.cpp:141] Setting up conv5
I0917 22:18:27.883872  5341 net.cpp:148] Top shape: 30 256 13 13 (1297920)
I0917 22:18:27.883898  5341 net.cpp:156] Memory required for data: 235956840
I0917 22:18:27.883937  5341 layer_factory.hpp:77] Creating layer relu5
I0917 22:18:27.883965  5341 net.cpp:91] Creating Layer relu5
I0917 22:18:27.883991  5341 net.cpp:425] relu5 <- conv5
I0917 22:18:27.884023  5341 net.cpp:386] relu5 -> conv5 (in-place)
I0917 22:18:27.884054  5341 net.cpp:141] Setting up relu5
I0917 22:18:27.884080  5341 net.cpp:148] Top shape: 30 256 13 13 (1297920)
I0917 22:18:27.884104  5341 net.cpp:156] Memory required for data: 241148520
I0917 22:18:27.884127  5341 layer_factory.hpp:77] Creating layer pool5
I0917 22:18:27.884161  5341 net.cpp:91] Creating Layer pool5
I0917 22:18:27.884182  5341 net.cpp:425] pool5 <- conv5
I0917 22:18:27.884214  5341 net.cpp:399] pool5 -> pool5
I0917 22:18:27.884280  5341 net.cpp:141] Setting up pool5
I0917 22:18:27.884308  5341 net.cpp:148] Top shape: 30 256 6 6 (276480)
I0917 22:18:27.884332  5341 net.cpp:156] Memory required for data: 242254440
I0917 22:18:27.884356  5341 layer_factory.hpp:77] Creating layer fc6
I0917 22:18:27.884397  5341 net.cpp:91] Creating Layer fc6
I0917 22:18:27.884419  5341 net.cpp:425] fc6 <- pool5
I0917 22:18:27.884452  5341 net.cpp:399] fc6 -> fc6
I0917 22:18:29.357743  5341 net.cpp:141] Setting up fc6
I0917 22:18:29.357854  5341 net.cpp:148] Top shape: 30 4096 (122880)
I0917 22:18:29.357873  5341 net.cpp:156] Memory required for data: 242745960
I0917 22:18:29.357949  5341 layer_factory.hpp:77] Creating layer relu6
I0917 22:18:29.358011  5341 net.cpp:91] Creating Layer relu6
I0917 22:18:29.358042  5341 net.cpp:425] relu6 <- fc6
I0917 22:18:29.358072  5341 net.cpp:386] relu6 -> fc6 (in-place)
I0917 22:18:29.358100  5341 net.cpp:141] Setting up relu6
I0917 22:18:29.358119  5341 net.cpp:148] Top shape: 30 4096 (122880)
I0917 22:18:29.358135  5341 net.cpp:156] Memory required for data: 243237480
I0917 22:18:29.358150  5341 layer_factory.hpp:77] Creating layer drop6
I0917 22:18:29.358175  5341 net.cpp:91] Creating Layer drop6
I0917 22:18:29.358192  5341 net.cpp:425] drop6 <- fc6
I0917 22:18:29.358213  5341 net.cpp:386] drop6 -> fc6 (in-place)
I0917 22:18:29.358324  5341 net.cpp:141] Setting up drop6
I0917 22:18:29.358347  5341 net.cpp:148] Top shape: 30 4096 (122880)
I0917 22:18:29.358363  5341 net.cpp:156] Memory required for data: 243729000
I0917 22:18:29.358379  5341 layer_factory.hpp:77] Creating layer fc7
I0917 22:18:29.358412  5341 net.cpp:91] Creating Layer fc7
I0917 22:18:29.358430  5341 net.cpp:425] fc7 <- fc6
I0917 22:18:29.358450  5341 net.cpp:399] fc7 -> fc7
I0917 22:18:29.995442  5341 net.cpp:141] Setting up fc7
I0917 22:18:29.995517  5341 net.cpp:148] Top shape: 30 4096 (122880)
I0917 22:18:29.995584  5341 net.cpp:156] Memory required for data: 244220520
I0917 22:18:29.995617  5341 layer_factory.hpp:77] Creating layer relu7
I0917 22:18:29.995649  5341 net.cpp:91] Creating Layer relu7
I0917 22:18:29.995669  5341 net.cpp:425] relu7 <- fc7
I0917 22:18:29.995692  5341 net.cpp:386] relu7 -> fc7 (in-place)
I0917 22:18:29.995719  5341 net.cpp:141] Setting up relu7
I0917 22:18:29.995738  5341 net.cpp:148] Top shape: 30 4096 (122880)
I0917 22:18:29.995754  5341 net.cpp:156] Memory required for data: 244712040
I0917 22:18:29.995777  5341 layer_factory.hpp:77] Creating layer drop7
I0917 22:18:29.995802  5341 net.cpp:91] Creating Layer drop7
I0917 22:18:29.995820  5341 net.cpp:425] drop7 <- fc7
I0917 22:18:29.995838  5341 net.cpp:386] drop7 -> fc7 (in-place)
I0917 22:18:29.995882  5341 net.cpp:141] Setting up drop7
I0917 22:18:29.995905  5341 net.cpp:148] Top shape: 30 4096 (122880)
I0917 22:18:29.995921  5341 net.cpp:156] Memory required for data: 245203560
I0917 22:18:29.995937  5341 layer_factory.hpp:77] Creating layer fc7_drop7_0_split
I0917 22:18:29.995975  5341 net.cpp:91] Creating Layer fc7_drop7_0_split
I0917 22:18:29.995993  5341 net.cpp:425] fc7_drop7_0_split <- fc7
I0917 22:18:29.996012  5341 net.cpp:399] fc7_drop7_0_split -> fc7_drop7_0_split_0
I0917 22:18:29.996063  5341 net.cpp:399] fc7_drop7_0_split -> fc7_drop7_0_split_1
I0917 22:18:29.996121  5341 net.cpp:141] Setting up fc7_drop7_0_split
I0917 22:18:29.996145  5341 net.cpp:148] Top shape: 30 4096 (122880)
I0917 22:18:29.996163  5341 net.cpp:148] Top shape: 30 4096 (122880)
I0917 22:18:29.996178  5341 net.cpp:156] Memory required for data: 246186600
I0917 22:18:29.996194  5341 layer_factory.hpp:77] Creating layer fc_binary_Color_f48
I0917 22:18:29.996224  5341 net.cpp:91] Creating Layer fc_binary_Color_f48
I0917 22:18:29.996243  5341 net.cpp:425] fc_binary_Color_f48 <- fc7_drop7_0_split_0
I0917 22:18:29.996266  5341 net.cpp:399] fc_binary_Color_f48 -> fc_binary_Color_f48
I0917 22:18:30.004269  5341 net.cpp:141] Setting up fc_binary_Color_f48
I0917 22:18:30.004302  5341 net.cpp:148] Top shape: 30 48 (1440)
I0917 22:18:30.004318  5341 net.cpp:156] Memory required for data: 246192360
I0917 22:18:30.004343  5341 layer_factory.hpp:77] Creating layer fc_classification_Color
I0917 22:18:30.004366  5341 net.cpp:91] Creating Layer fc_classification_Color
I0917 22:18:30.004384  5341 net.cpp:425] fc_classification_Color <- fc7_drop7_0_split_1
I0917 22:18:30.004406  5341 net.cpp:399] fc_classification_Color -> fc_classification_Color
I0917 22:18:30.005759  5341 net.cpp:141] Setting up fc_classification_Color
I0917 22:18:30.005784  5341 net.cpp:148] Top shape: 30 8 (240)
I0917 22:18:30.005803  5341 net.cpp:156] Memory required for data: 246193320
I0917 22:18:30.005832  5341 layer_factory.hpp:77] Creating layer loss_hashing
I0917 22:18:30.005890  5341 net.cpp:91] Creating Layer loss_hashing
I0917 22:18:30.005909  5341 net.cpp:425] loss_hashing <- fc_binary_Color_f48
I0917 22:18:30.005928  5341 net.cpp:425] loss_hashing <- label_data_1_split_0
I0917 22:18:30.005946  5341 net.cpp:399] loss_hashing -> loss_hashing
…
I0917 22:18:30.008370  5341 net.cpp:313] The NetState phase (1) differed from the phase (0) specified by a rule in layer data
I0917 22:18:30.008666  5341 net.cpp:49] Initializing net from parameters: 
name: "docomo_AlexNet"
state {
  phase: TEST
}
layer {
  name: "data"
  type: "Data"
  top: "data"
  top: "label"
  include {
    phase: TEST
  }
  transform_param {
    mirror: false
    crop_size: 224
    mean_value: 103.939
    mean_value: 116.779
    mean_value: 123.68
  }
  data_param {
    source: "COLOR/color_val_lmdb"
    batch_size: 40
    backend: LMDB
  }
}
layer {
  name: "conv1"
  type: "Convolution"
  bottom: "data"
  top: "conv1"
  param {
    lr_mult: 1
    decay_mult: 1
  }
  param {
    lr_mult: 2
    decay_mult: 0
  }
  convolution_param {
    num_output: 96
    kernel_size: 11
    stride: 4
    weight_filler {
      type: "gaussian"
      std: 0.01
    }
    bias_filler {
      type: "constant"
      value: 0
    }
  }
}
layer {
  name: "relu1"
  type: "ReLU"
  bottom: "conv1"
  top: "conv1"
}
layer {
  name: "norm1"
  type: "LRN"
  bottom: "conv1"
  top: "norm1"
  lrn_param {
    local_size: 5
    alpha: 0.0001
    beta: 0.75
  }
}
layer {
  name: "pool1"
  type: "Pooling"
  bottom: "norm1"
  top: "pool1"
  pooling_param {
    pool: MAX
    kernel_size: 3
    stride: 2
  }
}
layer {
  name: "conv2"
  type: "Convolution"
  bottom: "pool1"
  top: "conv2"
  param {
    lr_mult: 1
    decay_mult: 1
  }
  param {
    lr_mult: 2
    decay_mult: 0
  }
  convolution_param {
    num_output: 256
    pad: 2
    kernel_size: 5
    group: 2
    weight_filler {
      type: "gaussian"
      std: 0.01
    }
    bias_filler {
      type: "constant"
      value: 0.1
    }
  }
}
layer {
  name: "relu2"
  type: "ReLU"
  bottom: "conv2"
  top: "conv2"
}
layer {
  name: "norm2"
  type: "LRN"
  bottom: "conv2"
  top: "norm2"
  lrn_param {
    local_size: 5
    alpha: 0.0001
    beta: 0.75
  }
}
layer {
  name: "pool2"
  type: "Pooling"
  bottom: "norm2"
  top: "pool2"
  pooling_param {
    pool: MAX
    kernel_size: 3
    stride: 2
  }
}
layer {
  name: "conv3"
  type: "Convolution"
  bottom: "pool2"
  top: "conv3"
  param {
    lr_mult: 1
    decay_mult: 1
  }
  param {
    lr_mult: 2
    decay_mult: 0
  }
  convolution_param {
    num_output: 384
    pad: 1
    kernel_size: 3
    weight_filler {
      type: "gaussian"
      std: 0.01
    }
    bias_filler {
      type: "constant"
      value: 0
    }
  }
}
layer {
  name: "relu3"
  type: "ReLU"
  bottom: "conv3"
  top: "conv3"
}
layer {
  name: "conv4"
  type: "Convolution"
  bottom: "conv3"
  top: "conv4"
  param {
    lr_mult: 1
    decay_mult: 1
  }
  param {
    lr_mult: 2
    decay_mult: 0
  }
  convolution_param {
    num_output: 384
    pad: 1
    kernel_size: 3
    group: 2
    weight_filler {
      type: "gaussian"
      std: 0.01
    }
    bias_filler {
      type: "constant"
      value: 0.1
    }
  }
}
layer {
  name: "relu4"
  type: "ReLU"
  bottom: "conv4"
  top: "conv4"
}
layer {
  name: "conv5"
  type: "Convolution"
  bottom: "conv4"
  top: "conv5"
  param {
    lr_mult: 1
    decay_mult: 1
  }
  param {
    lr_mult: 2
    decay_mult: 0
  }
  convolution_param {
    num_output: 256
    pad: 1
    kernel_size: 3
    group: 2
    weight_filler {
      type: "gaussian"
      std: 0.01
    }
    bias_filler {
      type: "constant"
      value: 0.1
    }
  }
}
layer {
  name: "relu5"
  type: "ReLU"
  bottom: "conv5"
  top: "conv5"
}
layer {
  name: "pool5"
  type: "Pooling"
  bottom: "conv5"
  top: "pool5"
  pooling_param {
    pool: MAX
    kernel_size: 3
    stride: 2
  }
}
layer {
  name: "fc6"
  type: "InnerProduct"
  bottom: "pool5"
  top: "fc6"
  param {
    lr_mult: 1
    decay_mult: 1
  }
  param {
    lr_mult: 2
    decay_mult: 0
  }
  inner_product_param {
    num_output: 4096
    weight_filler {
      type: "gaussian"
      std: 0.005
    }
    bias_filler {
      type: "constant"
      value: 0.1
    }
  }
}
layer {
  name: "relu6"
  type: "ReLU"
  bottom: "fc6"
  top: "fc6"
}
layer {
  name: "drop6"
  type: "Dropout"
  bottom: "fc6"
  top: "fc6"
  dropout_param {
    dropout_ratio: 0.5
  }
}
layer {
  name: "fc7"
  type: "InnerProduct"
  bottom: "fc6"
  top: "fc7"
  param {
    lr_mult: 1
    decay_mult: 1
  }
  param {
    lr_mult: 2
    decay_mult: 0
  }
  inner_product_param {
    num_output: 4096
    weight_filler {
      type: "gaussian"
      std: 0.005
    }
    bias_filler {
      type: "constant"
      value: 0.1
    }
  }
}
layer {
  name: "relu7"
  type: "ReLU"
  bottom: "fc7"
  top: "fc7"
}
layer {
  name: "drop7"
  type: "Dropout"
  bottom: "fc7"
  top: "fc7"
  dropout_param {
    dropout_ratio: 0.5
  }
}
layer {
  name: "fc_binary_Color_f48"
  type: "InnerProduct"
  bottom: "fc7"
  top: "fc_binary_Color_f48"
  param {
    lr_mult: 10
    decay_mult: 1
  }
  param {
    lr_mult: 20
    decay_mult: 0
  }
  inner_product_param {
    num_output: 48
    weight_filler {
      type: "gaussian"
      std: 0.005
    }
    bias_filler {
      type: "constant"
      value: 0.1
    }
  }
}
layer {
  name: "fc_classification_Color"
  type: "InnerProduct"
  bottom: "fc7"
  top: "fc_classification_Color"
  param {
    lr_mult: 0.5
    decay_mult: 1
  }
  param {
    lr_mult: 1
    decay_mult: 0
  }
  inner_product_param {
    num_output: 8
    weight_filler {
      type: "gaussian"
      std: 0.05
    }
    bias_filler {
      type: "constant"
      value: 0.1
    }
  }
}
layer {
  name: "accuracy_at_1_Color"
  type: "Accuracy"
  bottom: "fc_classification_Color"
  bottom: "label"
  top: "accuracy_at_1_Color"
  include {
    phase: TEST
  }
}
layer {
  name: "loss_hashing"
  type: "HashingLoss"
  bottom: "fc_binary_Color_f48"
  bottom: "label"
  top: "loss_hashing"
  loss_weight: 1
  hashing_loss_param {
    bi_margin: 96
    tradeoff: 0.01
  }
}
layer {
  name: "loss"
  type: "SoftmaxWithLoss"
  bottom: "fc_classification_Color"
  bottom: "label"
  top: "loss"
}
I0917 22:18:30.010799  5341 layer_factory.hpp:77] Creating layer data
I0917 22:18:30.010977  5341 net.cpp:91] Creating Layer data
I0917 22:18:30.011004  5341 net.cpp:399] data -> data
I0917 22:18:30.011035  5341 net.cpp:399] data -> label
I0917 22:18:30.022143  5348 db_lmdb.cpp:38] Opened lmdb COLOR/color_val_lmdb
I0917 22:18:30.054407  5341 data_layer.cpp:41] output data size: 40,3,224,224
I0917 22:18:30.111707  5341 net.cpp:141] Setting up data
I0917 22:18:30.111804  5341 net.cpp:148] Top shape: 40 3 224 224 (6021120)
I0917 22:18:30.111824  5341 net.cpp:148] Top shape: 40 1 1 1 (40)
I0917 22:18:30.111840  5341 net.cpp:156] Memory required for data: 24084640
I0917 22:18:30.111860  5341 layer_factory.hpp:77] Creating layer label_data_1_split
I0917 22:18:30.111901  5341 net.cpp:91] Creating Layer label_data_1_split
I0917 22:18:30.111919  5341 net.cpp:425] label_data_1_split <- label
I0917 22:18:30.111941  5341 net.cpp:399] label_data_1_split -> label_data_1_split_0
I0917 22:18:30.111969  5341 net.cpp:399] label_data_1_split -> label_data_1_split_1
I0917 22:18:30.111994  5341 net.cpp:399] label_data_1_split -> label_data_1_split_2
I0917 22:18:30.112089  5341 net.cpp:141] Setting up label_data_1_split
I0917 22:18:30.112114  5341 net.cpp:148] Top shape: 40 1 1 1 (40)
I0917 22:18:30.112136  5341 net.cpp:148] Top shape: 40 1 1 1 (40)
I0917 22:18:30.112154  5341 net.cpp:148] Top shape: 40 1 1 1 (40)
I0917 22:18:30.112170  5341 net.cpp:156] Memory required for data: 24085120
I0917 22:18:30.112186  5341 layer_factory.hpp:77] Creating layer conv1
I0917 22:18:30.112218  5341 net.cpp:91] Creating Layer conv1
I0917 22:18:30.112236  5341 net.cpp:425] conv1 <- data
I0917 22:18:30.112259  5341 net.cpp:399] conv1 -> conv1
I0917 22:18:30.115357  5341 net.cpp:141] Setting up conv1
I0917 22:18:30.115401  5341 net.cpp:148] Top shape: 40 96 54 54 (11197440)
I0917 22:18:30.115417  5341 net.cpp:156] Memory required for data: 68874880
I0917 22:18:30.115445  5341 layer_factory.hpp:77] Creating layer relu1
I0917 22:18:30.115468  5341 net.cpp:91] Creating Layer relu1
I0917 22:18:30.115485  5341 net.cpp:425] relu1 <- conv1
I0917 22:18:30.115502  5341 net.cpp:386] relu1 -> conv1 (in-place)
I0917 22:18:30.115525  5341 net.cpp:141] Setting up relu1
I0917 22:18:30.115542  5341 net.cpp:148] Top shape: 40 96 54 54 (11197440)
I0917 22:18:30.115558  5341 net.cpp:156] Memory required for data: 113664640
I0917 22:18:30.115572  5341 layer_factory.hpp:77] Creating layer norm1
I0917 22:18:30.115598  5341 net.cpp:91] Creating Layer norm1
I0917 22:18:30.115615  5341 net.cpp:425] norm1 <- conv1
I0917 22:18:30.115638  5341 net.cpp:399] norm1 -> norm1
I0917 22:18:30.115697  5341 net.cpp:141] Setting up norm1
I0917 22:18:30.115721  5341 net.cpp:148] Top shape: 40 96 54 54 (11197440)
I0917 22:18:30.115737  5341 net.cpp:156] Memory required for data: 158454400
I0917 22:18:30.115751  5341 layer_factory.hpp:77] Creating layer pool1
I0917 22:18:30.115774  5341 net.cpp:91] Creating Layer pool1
I0917 22:18:30.115792  5341 net.cpp:425] pool1 <- norm1
I0917 22:18:30.115808  5341 net.cpp:399] pool1 -> pool1
I0917 22:18:30.115869  5341 net.cpp:141] Setting up pool1
I0917 22:18:30.115892  5341 net.cpp:148] Top shape: 40 96 27 27 (2799360)
I0917 22:18:30.115907  5341 net.cpp:156] Memory required for data: 169651840
I0917 22:18:30.115922  5341 layer_factory.hpp:77] Creating layer conv2
I0917 22:18:30.115947  5341 net.cpp:91] Creating Layer conv2
I0917 22:18:30.115964  5341 net.cpp:425] conv2 <- pool1
I0917 22:18:30.115988  5341 net.cpp:399] conv2 -> conv2
I0917 22:18:30.128561  5341 net.cpp:141] Setting up conv2
I0917 22:18:30.128629  5341 net.cpp:148] Top shape: 40 256 27 27 (7464960)
I0917 22:18:30.128646  5341 net.cpp:156] Memory required for data: 199511680
I0917 22:18:30.128676  5341 layer_factory.hpp:77] Creating layer relu2
I0917 22:18:30.128747  5341 net.cpp:91] Creating Layer relu2
I0917 22:18:30.128767  5341 net.cpp:425] relu2 <- conv2
I0917 22:18:30.128795  5341 net.cpp:386] relu2 -> conv2 (in-place)
I0917 22:18:30.128823  5341 net.cpp:141] Setting up relu2
I0917 22:18:30.128840  5341 net.cpp:148] Top shape: 40 256 27 27 (7464960)
I0917 22:18:30.128859  5341 net.cpp:156] Memory required for data: 229371520
I0917 22:18:30.128875  5341 layer_factory.hpp:77] Creating layer norm2
I0917 22:18:30.128897  5341 net.cpp:91] Creating Layer norm2
I0917 22:18:30.128913  5341 net.cpp:425] norm2 <- conv2
I0917 22:18:30.128935  5341 net.cpp:399] norm2 -> norm2
I0917 22:18:30.128998  5341 net.cpp:141] Setting up norm2
I0917 22:18:30.129022  5341 net.cpp:148] Top shape: 40 256 27 27 (7464960)
I0917 22:18:30.129039  5341 net.cpp:156] Memory required for data: 259231360
I0917 22:18:30.129052  5341 layer_factory.hpp:77] Creating layer pool2
I0917 22:18:30.129076  5341 net.cpp:91] Creating Layer pool2
I0917 22:18:30.129091  5341 net.cpp:425] pool2 <- norm2
I0917 22:18:30.129108  5341 net.cpp:399] pool2 -> pool2
I0917 22:18:30.129173  5341 net.cpp:141] Setting up pool2
I0917 22:18:30.129196  5341 net.cpp:148] Top shape: 40 256 13 13 (1730560)
I0917 22:18:30.129212  5341 net.cpp:156] Memory required for data: 266153600
I0917 22:18:30.129226  5341 layer_factory.hpp:77] Creating layer conv3
I0917 22:18:30.129253  5341 net.cpp:91] Creating Layer conv3
I0917 22:18:30.129271  5341 net.cpp:425] conv3 <- pool2
I0917 22:18:30.129292  5341 net.cpp:399] conv3 -> conv3
I0917 22:18:30.164579  5341 net.cpp:141] Setting up conv3
I0917 22:18:30.164647  5341 net.cpp:148] Top shape: 40 384 13 13 (2595840)
I0917 22:18:30.164664  5341 net.cpp:156] Memory required for data: 276536960
I0917 22:18:30.164697  5341 layer_factory.hpp:77] Creating layer relu3
I0917 22:18:30.164726  5341 net.cpp:91] Creating Layer relu3
I0917 22:18:30.164746  5341 net.cpp:425] relu3 <- conv3
I0917 22:18:30.164774  5341 net.cpp:386] relu3 -> conv3 (in-place)
I0917 22:18:30.164801  5341 net.cpp:141] Setting up relu3
I0917 22:18:30.164819  5341 net.cpp:148] Top shape: 40 384 13 13 (2595840)
I0917 22:18:30.164839  5341 net.cpp:156] Memory required for data: 286920320
I0917 22:18:30.164852  5341 layer_factory.hpp:77] Creating layer conv4
I0917 22:18:30.164885  5341 net.cpp:91] Creating Layer conv4
I0917 22:18:30.164902  5341 net.cpp:425] conv4 <- conv3
I0917 22:18:30.164923  5341 net.cpp:399] conv4 -> conv4
I0917 22:18:30.191563  5341 net.cpp:141] Setting up conv4
I0917 22:18:30.191624  5341 net.cpp:148] Top shape: 40 384 13 13 (2595840)
I0917 22:18:30.191642  5341 net.cpp:156] Memory required for data: 297303680
I0917 22:18:30.191665  5341 layer_factory.hpp:77] Creating layer relu4
I0917 22:18:30.191691  5341 net.cpp:91] Creating Layer relu4
I0917 22:18:30.191712  5341 net.cpp:425] relu4 <- conv4
I0917 22:18:30.191747  5341 net.cpp:386] relu4 -> conv4 (in-place)
I0917 22:18:30.191773  5341 net.cpp:141] Setting up relu4
I0917 22:18:30.191792  5341 net.cpp:148] Top shape: 40 384 13 13 (2595840)
I0917 22:18:30.191812  5341 net.cpp:156] Memory required for data: 307687040
I0917 22:18:30.191833  5341 layer_factory.hpp:77] Creating layer conv5
I0917 22:18:30.191859  5341 net.cpp:91] Creating Layer conv5
I0917 22:18:30.191877  5341 net.cpp:425] conv5 <- conv4
I0917 22:18:30.191900  5341 net.cpp:399] conv5 -> conv5
I0917 22:18:30.209838  5341 net.cpp:141] Setting up conv5
I0917 22:18:30.209903  5341 net.cpp:148] Top shape: 40 256 13 13 (1730560)
I0917 22:18:30.209921  5341 net.cpp:156] Memory required for data: 314609280
I0917 22:18:30.209962  5341 layer_factory.hpp:77] Creating layer relu5
I0917 22:18:30.209990  5341 net.cpp:91] Creating Layer relu5
I0917 22:18:30.210008  5341 net.cpp:425] relu5 <- conv5
I0917 22:18:30.210034  5341 net.cpp:386] relu5 -> conv5 (in-place)
I0917 22:18:30.210060  5341 net.cpp:141] Setting up relu5
I0917 22:18:30.210078  5341 net.cpp:148] Top shape: 40 256 13 13 (1730560)
I0917 22:18:30.210098  5341 net.cpp:156] Memory required for data: 321531520
I0917 22:18:30.210155  5341 layer_factory.hpp:77] Creating layer pool5
I0917 22:18:30.210185  5341 net.cpp:91] Creating Layer pool5
I0917 22:18:30.210201  5341 net.cpp:425] pool5 <- conv5
I0917 22:18:30.210220  5341 net.cpp:399] pool5 -> pool5
I0917 22:18:30.210289  5341 net.cpp:141] Setting up pool5
I0917 22:18:30.210314  5341 net.cpp:148] Top shape: 40 256 6 6 (368640)
I0917 22:18:30.210330  5341 net.cpp:156] Memory required for data: 323006080
I0917 22:18:30.210345  5341 layer_factory.hpp:77] Creating layer fc6
I0917 22:18:30.210368  5341 net.cpp:91] Creating Layer fc6
I0917 22:18:30.210386  5341 net.cpp:425] fc6 <- pool5
I0917 22:18:30.210405  5341 net.cpp:399] fc6 -> fc6
I0917 22:18:31.643520  5341 net.cpp:141] Setting up fc6
I0917 22:18:31.643607  5341 net.cpp:148] Top shape: 40 4096 (163840)
I0917 22:18:31.643625  5341 net.cpp:156] Memory required for data: 323661440
I0917 22:18:31.643658  5341 layer_factory.hpp:77] Creating layer relu6
I0917 22:18:31.643693  5341 net.cpp:91] Creating Layer relu6
I0917 22:18:31.643718  5341 net.cpp:425] relu6 <- fc6
I0917 22:18:31.643740  5341 net.cpp:386] relu6 -> fc6 (in-place)
I0917 22:18:31.643767  5341 net.cpp:141] Setting up relu6
I0917 22:18:31.643785  5341 net.cpp:148] Top shape: 40 4096 (163840)
I0917 22:18:31.643801  5341 net.cpp:156] Memory required for data: 324316800
I0917 22:18:31.643818  5341 layer_factory.hpp:77] Creating layer drop6
I0917 22:18:31.643842  5341 net.cpp:91] Creating Layer drop6
I0917 22:18:31.643859  5341 net.cpp:425] drop6 <- fc6
I0917 22:18:31.643877  5341 net.cpp:386] drop6 -> fc6 (in-place)
I0917 22:18:31.643940  5341 net.cpp:141] Setting up drop6
I0917 22:18:31.643963  5341 net.cpp:148] Top shape: 40 4096 (163840)
I0917 22:18:31.643980  5341 net.cpp:156] Memory required for data: 324972160
I0917 22:18:31.643995  5341 layer_factory.hpp:77] Creating layer fc7
I0917 22:18:31.644021  5341 net.cpp:91] Creating Layer fc7
I0917 22:18:31.644037  5341 net.cpp:425] fc7 <- fc6
I0917 22:18:31.644058  5341 net.cpp:399] fc7 -> fc7
I0917 22:18:32.291771  5341 net.cpp:141] Setting up fc7
I0917 22:18:32.291852  5341 net.cpp:148] Top shape: 40 4096 (163840)
I0917 22:18:32.291869  5341 net.cpp:156] Memory required for data: 325627520
I0917 22:18:32.291903  5341 layer_factory.hpp:77] Creating layer relu7
I0917 22:18:32.291939  5341 net.cpp:91] Creating Layer relu7
I0917 22:18:32.291965  5341 net.cpp:425] relu7 <- fc7
I0917 22:18:32.291991  5341 net.cpp:386] relu7 -> fc7 (in-place)
I0917 22:18:32.292018  5341 net.cpp:141] Setting up relu7
I0917 22:18:32.292037  5341 net.cpp:148] Top shape: 40 4096 (163840)
I0917 22:18:32.292058  5341 net.cpp:156] Memory required for data: 326282880
I0917 22:18:32.292074  5341 layer_factory.hpp:77] Creating layer drop7
I0917 22:18:32.292098  5341 net.cpp:91] Creating Layer drop7
I0917 22:18:32.292114  5341 net.cpp:425] drop7 <- fc7
I0917 22:18:32.292136  5341 net.cpp:386] drop7 -> fc7 (in-place)
I0917 22:18:32.292197  5341 net.cpp:141] Setting up drop7
I0917 22:18:32.292219  5341 net.cpp:148] Top shape: 40 4096 (163840)
I0917 22:18:32.292237  5341 net.cpp:156] Memory required for data: 326938240
I0917 22:18:32.292253  5341 layer_factory.hpp:77] Creating layer fc7_drop7_0_split
I0917 22:18:32.292277  5341 net.cpp:91] Creating Layer fc7_drop7_0_split
I0917 22:18:32.292294  5341 net.cpp:425] fc7_drop7_0_split <- fc7
I0917 22:18:32.292313  5341 net.cpp:399] fc7_drop7_0_split -> fc7_drop7_0_split_0
I0917 22:18:32.292335  5341 net.cpp:399] fc7_drop7_0_split -> fc7_drop7_0_split_1
I0917 22:18:32.292393  5341 net.cpp:141] Setting up fc7_drop7_0_split
I0917 22:18:32.292415  5341 net.cpp:148] Top shape: 40 4096 (163840)
I0917 22:18:32.292433  5341 net.cpp:148] Top shape: 40 4096 (163840)
I0917 22:18:32.292449  5341 net.cpp:156] Memory required for data: 328248960
I0917 22:18:32.292465  5341 layer_factory.hpp:77] Creating layer fc_binary_Color_f48
I0917 22:18:32.292492  5341 net.cpp:91] Creating Layer fc_binary_Color_f48
I0917 22:18:32.292510  5341 net.cpp:425] fc_binary_Color_f48 <- fc7_drop7_0_split_0
I0917 22:18:32.292529  5341 net.cpp:399] fc_binary_Color_f48 -> fc_binary_Color_f48
I0917 22:18:32.300699  5341 net.cpp:141] Setting up fc_binary_Color_f48
I0917 22:18:32.300729  5341 net.cpp:148] Top shape: 40 48 (1920)
I0917 22:18:32.300746  5341 net.cpp:156] Memory required for data: 328256640
I0917 22:18:32.300771  5341 layer_factory.hpp:77] Creating layer fc_classification_Color
I0917 22:18:32.300799  5341 net.cpp:91] Creating Layer fc_classification_Color
I0917 22:18:32.300817  5341 net.cpp:425] fc_classification_Color <- fc7_drop7_0_split_1
I0917 22:18:32.300843  5341 net.cpp:399] fc_classification_Color -> fc_classification_Color
I0917 22:18:32.302187  5341 net.cpp:141] Setting up fc_classification_Color
I0917 22:18:32.302213  5341 net.cpp:148] Top shape: 40 8 (320)
I0917 22:18:32.302229  5341 net.cpp:156] Memory required for data: 328257920
I0917 22:18:32.302260  5341 layer_factory.hpp:77] Creating layer fc_classification_Color_fc_classification_Color_0_split
I0917 22:18:32.302280  5341 net.cpp:91] Creating Layer fc_classification_Color_fc_classification_Color_0_split
I0917 22:18:32.302297  5341 net.cpp:425] fc_classification_Color_fc_classification_Color_0_split <- fc_classification_Color
I0917 22:18:32.302320  5341 net.cpp:399] fc_classification_Color_fc_classification_Color_0_split -> fc_classification_Color_fc_classification_Color_0_split_0
I0917 22:18:32.302343  5341 net.cpp:399] fc_classification_Color_fc_classification_Color_0_split -> fc_classification_Color_fc_classification_Color_0_split_1
I0917 22:18:32.302399  5341 net.cpp:141] Setting up fc_classification_Color_fc_classification_Color_0_split
I0917 22:18:32.302423  5341 net.cpp:148] Top shape: 40 8 (320)
I0917 22:18:32.302441  5341 net.cpp:148] Top shape: 40 8 (320)
I0917 22:18:32.302456  5341 net.cpp:156] Memory required for data: 328260480
I0917 22:18:32.302472  5341 layer_factory.hpp:77] Creating layer accuracy_at_1_Color
I0917 22:18:32.302505  5341 net.cpp:91] Creating Layer accuracy_at_1_Color
I0917 22:18:32.302523  5341 net.cpp:425] accuracy_at_1_Color <- fc_classification_Color_fc_classification_Color_0_split_0
I0917 22:18:32.302541  5341 net.cpp:425] accuracy_at_1_Color <- label_data_1_split_0
…
