…
I0915 13:31:06.392570  1134 net.cpp:313] The NetState phase (0) differed from the phase (1) specified by a rule in layer accuracy_at_1
I0915 13:31:06.392976  1134 net.cpp:49] Initializing net from parameters: 
name: "docomo_VGG16"
state {
  phase: TRAIN
}
layer {
  name: "data"
  type: "Data"
  top: "data"
  top: "label"
  include {
    phase: TRAIN
  }
  transform_param {
    mirror: true
    crop_size: 224
    mean_value: 103.939
    mean_value: 116.779
    mean_value: 123.68
  }
  data_param {
    source: "PATTERN/pattern_train_lmdb/"
    batch_size: 10
    backend: LMDB
  }
}
layer {
  name: "conv1_1"
  type: "Convolution"
  bottom: "data"
  top: "conv1_1"
  param {
    lr_mult: 1
    decay_mult: 1
  }
  param {
    lr_mult: 2
    decay_mult: 0
  }
  convolution_param {
    num_output: 64
    pad: 1
    kernel_size: 3
    weight_filler {
      type: "gaussian"
      std: 0.01
    }
    bias_filler {
      type: "constant"
      value: 0
    }
  }
}
layer {
  name: "relu1_1"
  type: "ReLU"
  bottom: "conv1_1"
  top: "conv1_1"
}
layer {
  name: "conv1_2"
  type: "Convolution"
  bottom: "conv1_1"
  top: "conv1_2"
  param {
    lr_mult: 1
    decay_mult: 1
  }
  param {
    lr_mult: 2
    decay_mult: 0
  }
  convolution_param {
    num_output: 64
    pad: 1
    kernel_size: 3
    weight_filler {
      type: "gaussian"
      std: 0.01
    }
    bias_filler {
      type: "constant"
      value: 0
    }
  }
}
layer {
  name: "relu1_2"
  type: "ReLU"
  bottom: "conv1_2"
  top: "conv1_2"
}
layer {
  name: "pool1"
  type: "Pooling"
  bottom: "conv1_2"
  top: "pool1"
  pooling_param {
    pool: MAX
    kernel_size: 2
    stride: 2
  }
}
layer {
  name: "conv2_1"
  type: "Convolution"
  bottom: "pool1"
  top: "conv2_1"
  param {
    lr_mult: 1
    decay_mult: 1
  }
  param {
    lr_mult: 2
    decay_mult: 0
  }
  convolution_param {
    num_output: 128
    pad: 1
    kernel_size: 3
    weight_filler {
      type: "gaussian"
      std: 0.01
    }
    bias_filler {
      type: "constant"
      value: 0
    }
  }
}
layer {
  name: "relu2_1"
  type: "ReLU"
  bottom: "conv2_1"
  top: "conv2_1"
}
layer {
  name: "conv2_2"
  type: "Convolution"
  bottom: "conv2_1"
  top: "conv2_2"
  param {
    lr_mult: 1
    decay_mult: 1
  }
  param {
    lr_mult: 2
    decay_mult: 0
  }
  convolution_param {
    num_output: 128
    pad: 1
    kernel_size: 3
    weight_filler {
      type: "gaussian"
      std: 0.01
    }
    bias_filler {
      type: "constant"
      value: 0
    }
  }
}
layer {
  name: "relu2_2"
  type: "ReLU"
  bottom: "conv2_2"
  top: "conv2_2"
}
layer {
  name: "pool2"
  type: "Pooling"
  bottom: "conv2_2"
  top: "pool2"
  pooling_param {
    pool: MAX
    kernel_size: 2
    stride: 2
  }
}
layer {
  name: "conv3_1"
  type: "Convolution"
  bottom: "pool2"
  top: "conv3_1"
  param {
    lr_mult: 1
    decay_mult: 1
  }
  param {
    lr_mult: 2
    decay_mult: 0
  }
  convolution_param {
    num_output: 256
    pad: 1
    kernel_size: 3
    weight_filler {
      type: "gaussian"
      std: 0.01
    }
    bias_filler {
      type: "constant"
      value: 0
    }
  }
}
layer {
  name: "relu3_1"
  type: "ReLU"
  bottom: "conv3_1"
  top: "conv3_1"
}
layer {
  name: "conv3_2"
  type: "Convolution"
  bottom: "conv3_1"
  top: "conv3_2"
  param {
    lr_mult: 1
    decay_mult: 1
  }
  param {
    lr_mult: 2
    decay_mult: 0
  }
  convolution_param {
    num_output: 256
    pad: 1
    kernel_size: 3
    weight_filler {
      type: "gaussian"
      std: 0.01
    }
    bias_filler {
      type: "constant"
      value: 0
    }
  }
}
layer {
  name: "relu3_2"
  type: "ReLU"
  bottom: "conv3_2"
  top: "conv3_2"
}
layer {
  name: "conv3_3"
  type: "Convolution"
  bottom: "conv3_2"
  top: "conv3_3"
  param {
    lr_mult: 1
    decay_mult: 1
  }
  param {
    lr_mult: 2
    decay_mult: 0
  }
  convolution_param {
    num_output: 256
    pad: 1
    kernel_size: 3
    weight_filler {
      type: "gaussian"
      std: 0.01
    }
    bias_filler {
      type: "constant"
      value: 0
    }
  }
}
layer {
  name: "relu3_3"
  type: "ReLU"
  bottom: "conv3_3"
  top: "conv3_3"
}
layer {
  name: "pool3"
  type: "Pooling"
  bottom: "conv3_3"
  top: "pool3"
  pooling_param {
    pool: MAX
    kernel_size: 2
    stride: 2
  }
}
layer {
  name: "conv4_1"
  type: "Convolution"
  bottom: "pool3"
  top: "conv4_1"
  param {
    lr_mult: 1
    decay_mult: 1
  }
  param {
    lr_mult: 2
    decay_mult: 0
  }
  convolution_param {
    num_output: 512
    pad: 1
    kernel_size: 3
    weight_filler {
      type: "gaussian"
      std: 0.01
    }
    bias_filler {
      type: "constant"
      value: 0
    }
  }
}
layer {
  name: "relu4_1"
  type: "ReLU"
  bottom: "conv4_1"
  top: "conv4_1"
}
layer {
  name: "conv4_2"
  type: "Convolution"
  bottom: "conv4_1"
  top: "conv4_2"
  param {
    lr_mult: 1
    decay_mult: 1
  }
  param {
    lr_mult: 2
    decay_mult: 0
  }
  convolution_param {
    num_output: 512
    pad: 1
    kernel_size: 3
    weight_filler {
      type: "gaussian"
      std: 0.01
    }
    bias_filler {
      type: "constant"
      value: 0
    }
  }
}
layer {
  name: "relu4_2"
  type: "ReLU"
  bottom: "conv4_2"
  top: "conv4_2"
}
layer {
  name: "conv4_3"
  type: "Convolution"
  bottom: "conv4_2"
  top: "conv4_3"
  param {
    lr_mult: 1
    decay_mult: 1
  }
  param {
    lr_mult: 2
    decay_mult: 0
  }
  convolution_param {
    num_output: 512
    pad: 1
    kernel_size: 3
    weight_filler {
      type: "gaussian"
      std: 0.01
    }
    bias_filler {
      type: "constant"
      value: 0
    }
  }
}
layer {
  name: "relu4_3"
  type: "ReLU"
  bottom: "conv4_3"
  top: "conv4_3"
}
layer {
  name: "pool4"
  type: "Pooling"
  bottom: "conv4_3"
  top: "pool4"
  pooling_param {
    pool: MAX
    kernel_size: 2
    stride: 2
  }
}
layer {
  name: "conv5_1"
  type: "Convolution"
  bottom: "pool4"
  top: "conv5_1"
  param {
    lr_mult: 1
    decay_mult: 1
  }
  param {
    lr_mult: 2
    decay_mult: 0
  }
  convolution_param {
    num_output: 512
    pad: 1
    kernel_size: 3
    weight_filler {
      type: "gaussian"
      std: 0.01
    }
    bias_filler {
      type: "constant"
      value: 0
    }
  }
}
layer {
  name: "relu5_1"
  type: "ReLU"
  bottom: "conv5_1"
  top: "conv5_1"
}
layer {
  name: "conv5_2"
  type: "Convolution"
  bottom: "conv5_1"
  top: "conv5_2"
  param {
    lr_mult: 1
    decay_mult: 1
  }
  param {
    lr_mult: 2
    decay_mult: 0
  }
  convolution_param {
    num_output: 512
    pad: 1
    kernel_size: 3
    weight_filler {
      type: "gaussian"
      std: 0.01
    }
    bias_filler {
      type: "constant"
      value: 0
    }
  }
}
layer {
  name: "relu5_2"
  type: "ReLU"
  bottom: "conv5_2"
  top: "conv5_2"
}
layer {
  name: "conv5_3"
  type: "Convolution"
  bottom: "conv5_2"
  top: "conv5_3"
  param {
    lr_mult: 1
    decay_mult: 1
  }
  param {
    lr_mult: 2
    decay_mult: 0
  }
  convolution_param {
    num_output: 512
    pad: 1
    kernel_size: 3
    weight_filler {
      type: "gaussian"
      std: 0.01
    }
    bias_filler {
      type: "constant"
      value: 0
    }
  }
}
layer {
  name: "relu5_3"
  type: "ReLU"
  bottom: "conv5_3"
  top: "conv5_3"
}
layer {
  name: "pool5"
  type: "Pooling"
  bottom: "conv5_3"
  top: "pool5"
  pooling_param {
    pool: MAX
    kernel_size: 2
    stride: 2
  }
}
layer {
  name: "fc6"
  type: "InnerProduct"
  bottom: "pool5"
  top: "fc6"
  param {
    lr_mult: 1
    decay_mult: 1
  }
  param {
    lr_mult: 2
    decay_mult: 0
  }
  inner_product_param {
    num_output: 4096
    weight_filler {
      type: "gaussian"
      std: 0.005
    }
    bias_filler {
      type: "constant"
      value: 0.1
    }
  }
}
layer {
  name: "relu6"
  type: "ReLU"
  bottom: "fc6"
  top: "fc6"
}
layer {
  name: "drop6"
  type: "Dropout"
  bottom: "fc6"
  top: "fc6"
  dropout_param {
    dropout_ratio: 0.5
  }
}
layer {
  name: "fc7"
  type: "InnerProduct"
  bottom: "fc6"
  top: "fc7"
  param {
    lr_mult: 1
    decay_mult: 1
  }
  param {
    lr_mult: 2
    decay_mult: 0
  }
  inner_product_param {
    num_output: 4096
    weight_filler {
      type: "gaussian"
      std: 0.005
    }
    bias_filler {
      type: "constant"
      value: 0.1
    }
  }
}
layer {
  name: "relu7"
  type: "ReLU"
  bottom: "fc7"
  top: "fc7"
}
layer {
  name: "drop7"
  type: "Dropout"
  bottom: "fc7"
  top: "fc7"
  dropout_param {
    dropout_ratio: 0.5
  }
}
layer {
  name: "fc_binary_f48_Pattern"
  type: "InnerProduct"
  bottom: "fc7"
  top: "fc_binary_f48_Pattern"
  param {
    lr_mult: 10
    decay_mult: 1
  }
  param {
    lr_mult: 20
    decay_mult: 0
  }
  inner_product_param {
    num_output: 48
    weight_filler {
      type: "gaussian"
      std: 0.005
    }
    bias_filler {
      type: "constant"
      value: 0.1
    }
  }
}
layer {
  name: "fc_classification_Pattern"
  type: "InnerProduct"
  bottom: "fc7"
  top: "fc_classification_Pattern"
  param {
    lr_mult: 0.2
    decay_mult: 1
  }
  param {
    lr_mult: 0.4
    decay_mult: 0
  }
  inner_product_param {
    num_output: 7
    weight_filler {
      type: "gaussian"
      std: 0.05
    }
    bias_filler {
      type: "constant"
      value: 0.1
    }
  }
}
layer {
  name: "loss_hashing"
  type: "HashingLoss"
  bottom: "fc_binary_f48_Pattern"
  bottom: "label"
  top: "loss_hashing"
  loss_weight: 0.8
  hashing_loss_param {
    bi_margin: 96
    tradeoff: 0.01
  }
}
layer {
  name: "loss_classification"
  type: "SoftmaxWithLoss"
  bottom: "fc_classification_Pattern"
  bottom: "label"
  top: "loss_classification"
}
I0915 13:31:06.396558  1134 layer_factory.hpp:77] Creating layer data
I0915 13:31:06.397198  1134 net.cpp:91] Creating Layer data
I0915 13:31:06.397296  1134 net.cpp:399] data -> data
I0915 13:31:06.397403  1134 net.cpp:399] data -> label
I0915 13:31:06.404505  1138 db_lmdb.cpp:38] Opened lmdb PATTERN/pattern_train_lmdb/
I0915 13:31:06.438562  1134 data_layer.cpp:41] output data size: 10,3,224,224
I0915 13:31:06.451745  1134 net.cpp:141] Setting up data
I0915 13:31:06.451824  1134 net.cpp:148] Top shape: 10 3 224 224 (1505280)
I0915 13:31:06.451848  1134 net.cpp:148] Top shape: 10 1 1 1 (10)
I0915 13:31:06.451865  1134 net.cpp:156] Memory required for data: 6021160
I0915 13:31:06.451892  1134 layer_factory.hpp:77] Creating layer label_data_1_split
I0915 13:31:06.451926  1134 net.cpp:91] Creating Layer label_data_1_split
I0915 13:31:06.451949  1134 net.cpp:425] label_data_1_split <- label
I0915 13:31:06.451983  1134 net.cpp:399] label_data_1_split -> label_data_1_split_0
I0915 13:31:06.452013  1134 net.cpp:399] label_data_1_split -> label_data_1_split_1
I0915 13:31:06.452097  1134 net.cpp:141] Setting up label_data_1_split
I0915 13:31:06.452122  1134 net.cpp:148] Top shape: 10 1 1 1 (10)
I0915 13:31:06.452142  1134 net.cpp:148] Top shape: 10 1 1 1 (10)
I0915 13:31:06.452157  1134 net.cpp:156] Memory required for data: 6021240
I0915 13:31:06.452172  1134 layer_factory.hpp:77] Creating layer conv1_1
I0915 13:31:06.452216  1134 net.cpp:91] Creating Layer conv1_1
I0915 13:31:06.452235  1134 net.cpp:425] conv1_1 <- data
I0915 13:31:06.452260  1134 net.cpp:399] conv1_1 -> conv1_1
I0915 13:31:06.454460  1134 net.cpp:141] Setting up conv1_1
I0915 13:31:06.454494  1134 net.cpp:148] Top shape: 10 64 224 224 (32112640)
I0915 13:31:06.454511  1134 net.cpp:156] Memory required for data: 134471800
I0915 13:31:06.454546  1134 layer_factory.hpp:77] Creating layer relu1_1
I0915 13:31:06.454576  1134 net.cpp:91] Creating Layer relu1_1
I0915 13:31:06.454629  1134 net.cpp:425] relu1_1 <- conv1_1
I0915 13:31:06.454650  1134 net.cpp:386] relu1_1 -> conv1_1 (in-place)
I0915 13:31:06.454674  1134 net.cpp:141] Setting up relu1_1
I0915 13:31:06.454695  1134 net.cpp:148] Top shape: 10 64 224 224 (32112640)
I0915 13:31:06.454710  1134 net.cpp:156] Memory required for data: 262922360
I0915 13:31:06.454726  1134 layer_factory.hpp:77] Creating layer conv1_2
I0915 13:31:06.454756  1134 net.cpp:91] Creating Layer conv1_2
I0915 13:31:06.454774  1134 net.cpp:425] conv1_2 <- conv1_1
I0915 13:31:06.454797  1134 net.cpp:399] conv1_2 -> conv1_2
I0915 13:31:06.456451  1134 net.cpp:141] Setting up conv1_2
I0915 13:31:06.456480  1134 net.cpp:148] Top shape: 10 64 224 224 (32112640)
I0915 13:31:06.456496  1134 net.cpp:156] Memory required for data: 391372920
I0915 13:31:06.456519  1134 layer_factory.hpp:77] Creating layer relu1_2
I0915 13:31:06.456539  1134 net.cpp:91] Creating Layer relu1_2
I0915 13:31:06.456555  1134 net.cpp:425] relu1_2 <- conv1_2
I0915 13:31:06.456573  1134 net.cpp:386] relu1_2 -> conv1_2 (in-place)
I0915 13:31:06.456593  1134 net.cpp:141] Setting up relu1_2
I0915 13:31:06.456612  1134 net.cpp:148] Top shape: 10 64 224 224 (32112640)
I0915 13:31:06.456629  1134 net.cpp:156] Memory required for data: 519823480
I0915 13:31:06.456645  1134 layer_factory.hpp:77] Creating layer pool1
I0915 13:31:06.456665  1134 net.cpp:91] Creating Layer pool1
I0915 13:31:06.456681  1134 net.cpp:425] pool1 <- conv1_2
I0915 13:31:06.456714  1134 net.cpp:399] pool1 -> pool1
I0915 13:31:06.456795  1134 net.cpp:141] Setting up pool1
I0915 13:31:06.456820  1134 net.cpp:148] Top shape: 10 64 112 112 (8028160)
I0915 13:31:06.456836  1134 net.cpp:156] Memory required for data: 551936120
I0915 13:31:06.456852  1134 layer_factory.hpp:77] Creating layer conv2_1
I0915 13:31:06.456892  1134 net.cpp:91] Creating Layer conv2_1
I0915 13:31:06.456910  1134 net.cpp:425] conv2_1 <- pool1
I0915 13:31:06.456930  1134 net.cpp:399] conv2_1 -> conv2_1
I0915 13:31:06.461155  1134 net.cpp:141] Setting up conv2_1
I0915 13:31:06.461189  1134 net.cpp:148] Top shape: 10 128 112 112 (16056320)
I0915 13:31:06.461208  1134 net.cpp:156] Memory required for data: 616161400
I0915 13:31:06.461232  1134 layer_factory.hpp:77] Creating layer relu2_1
I0915 13:31:06.461258  1134 net.cpp:91] Creating Layer relu2_1
I0915 13:31:06.461277  1134 net.cpp:425] relu2_1 <- conv2_1
I0915 13:31:06.461299  1134 net.cpp:386] relu2_1 -> conv2_1 (in-place)
I0915 13:31:06.461321  1134 net.cpp:141] Setting up relu2_1
I0915 13:31:06.461340  1134 net.cpp:148] Top shape: 10 128 112 112 (16056320)
I0915 13:31:06.461355  1134 net.cpp:156] Memory required for data: 680386680
I0915 13:31:06.461371  1134 layer_factory.hpp:77] Creating layer conv2_2
I0915 13:31:06.461393  1134 net.cpp:91] Creating Layer conv2_2
I0915 13:31:06.461410  1134 net.cpp:425] conv2_2 <- conv2_1
I0915 13:31:06.461433  1134 net.cpp:399] conv2_2 -> conv2_2
I0915 13:31:06.467205  1134 net.cpp:141] Setting up conv2_2
I0915 13:31:06.467233  1134 net.cpp:148] Top shape: 10 128 112 112 (16056320)
I0915 13:31:06.467250  1134 net.cpp:156] Memory required for data: 744611960
I0915 13:31:06.467270  1134 layer_factory.hpp:77] Creating layer relu2_2
I0915 13:31:06.467289  1134 net.cpp:91] Creating Layer relu2_2
I0915 13:31:06.467306  1134 net.cpp:425] relu2_2 <- conv2_2
I0915 13:31:06.467324  1134 net.cpp:386] relu2_2 -> conv2_2 (in-place)
I0915 13:31:06.467344  1134 net.cpp:141] Setting up relu2_2
I0915 13:31:06.467362  1134 net.cpp:148] Top shape: 10 128 112 112 (16056320)
I0915 13:31:06.467377  1134 net.cpp:156] Memory required for data: 808837240
I0915 13:31:06.467393  1134 layer_factory.hpp:77] Creating layer pool2
I0915 13:31:06.467412  1134 net.cpp:91] Creating Layer pool2
I0915 13:31:06.467428  1134 net.cpp:425] pool2 <- conv2_2
I0915 13:31:06.467450  1134 net.cpp:399] pool2 -> pool2
I0915 13:31:06.467509  1134 net.cpp:141] Setting up pool2
I0915 13:31:06.467532  1134 net.cpp:148] Top shape: 10 128 56 56 (4014080)
I0915 13:31:06.467548  1134 net.cpp:156] Memory required for data: 824893560
I0915 13:31:06.467589  1134 layer_factory.hpp:77] Creating layer conv3_1
I0915 13:31:06.467619  1134 net.cpp:91] Creating Layer conv3_1
I0915 13:31:06.467638  1134 net.cpp:425] conv3_1 <- pool2
I0915 13:31:06.467658  1134 net.cpp:399] conv3_1 -> conv3_1
I0915 13:31:06.479771  1134 net.cpp:141] Setting up conv3_1
I0915 13:31:06.479804  1134 net.cpp:148] Top shape: 10 256 56 56 (8028160)
I0915 13:31:06.479821  1134 net.cpp:156] Memory required for data: 857006200
I0915 13:31:06.479846  1134 layer_factory.hpp:77] Creating layer relu3_1
I0915 13:31:06.479867  1134 net.cpp:91] Creating Layer relu3_1
I0915 13:31:06.479884  1134 net.cpp:425] relu3_1 <- conv3_1
I0915 13:31:06.479902  1134 net.cpp:386] relu3_1 -> conv3_1 (in-place)
I0915 13:31:06.479923  1134 net.cpp:141] Setting up relu3_1
I0915 13:31:06.479941  1134 net.cpp:148] Top shape: 10 256 56 56 (8028160)
I0915 13:31:06.479956  1134 net.cpp:156] Memory required for data: 889118840
I0915 13:31:06.479972  1134 layer_factory.hpp:77] Creating layer conv3_2
I0915 13:31:06.480001  1134 net.cpp:91] Creating Layer conv3_2
I0915 13:31:06.480018  1134 net.cpp:425] conv3_2 <- conv3_1
I0915 13:31:06.480038  1134 net.cpp:399] conv3_2 -> conv3_2
I0915 13:31:06.503782  1134 net.cpp:141] Setting up conv3_2
I0915 13:31:06.503814  1134 net.cpp:148] Top shape: 10 256 56 56 (8028160)
I0915 13:31:06.503832  1134 net.cpp:156] Memory required for data: 921231480
I0915 13:31:06.503852  1134 layer_factory.hpp:77] Creating layer relu3_2
I0915 13:31:06.503876  1134 net.cpp:91] Creating Layer relu3_2
I0915 13:31:06.503893  1134 net.cpp:425] relu3_2 <- conv3_2
I0915 13:31:06.503912  1134 net.cpp:386] relu3_2 -> conv3_2 (in-place)
I0915 13:31:06.503933  1134 net.cpp:141] Setting up relu3_2
I0915 13:31:06.503952  1134 net.cpp:148] Top shape: 10 256 56 56 (8028160)
I0915 13:31:06.503968  1134 net.cpp:156] Memory required for data: 953344120
I0915 13:31:06.503983  1134 layer_factory.hpp:77] Creating layer conv3_3
I0915 13:31:06.504011  1134 net.cpp:91] Creating Layer conv3_3
I0915 13:31:06.504029  1134 net.cpp:425] conv3_3 <- conv3_2
I0915 13:31:06.504053  1134 net.cpp:399] conv3_3 -> conv3_3
I0915 13:31:06.527799  1134 net.cpp:141] Setting up conv3_3
I0915 13:31:06.527830  1134 net.cpp:148] Top shape: 10 256 56 56 (8028160)
I0915 13:31:06.527848  1134 net.cpp:156] Memory required for data: 985456760
I0915 13:31:06.527868  1134 layer_factory.hpp:77] Creating layer relu3_3
I0915 13:31:06.527889  1134 net.cpp:91] Creating Layer relu3_3
I0915 13:31:06.527904  1134 net.cpp:425] relu3_3 <- conv3_3
I0915 13:31:06.527927  1134 net.cpp:386] relu3_3 -> conv3_3 (in-place)
I0915 13:31:06.527950  1134 net.cpp:141] Setting up relu3_3
I0915 13:31:06.527967  1134 net.cpp:148] Top shape: 10 256 56 56 (8028160)
I0915 13:31:06.527983  1134 net.cpp:156] Memory required for data: 1017569400
I0915 13:31:06.527999  1134 layer_factory.hpp:77] Creating layer pool3
I0915 13:31:06.528018  1134 net.cpp:91] Creating Layer pool3
I0915 13:31:06.528035  1134 net.cpp:425] pool3 <- conv3_3
I0915 13:31:06.528053  1134 net.cpp:399] pool3 -> pool3
I0915 13:31:06.528115  1134 net.cpp:141] Setting up pool3
I0915 13:31:06.528138  1134 net.cpp:148] Top shape: 10 256 28 28 (2007040)
I0915 13:31:06.528156  1134 net.cpp:156] Memory required for data: 1025597560
I0915 13:31:06.528170  1134 layer_factory.hpp:77] Creating layer conv4_1
I0915 13:31:06.528198  1134 net.cpp:91] Creating Layer conv4_1
I0915 13:31:06.528215  1134 net.cpp:425] conv4_1 <- pool3
I0915 13:31:06.528239  1134 net.cpp:399] conv4_1 -> conv4_1
I0915 13:31:06.575997  1134 net.cpp:141] Setting up conv4_1
I0915 13:31:06.576037  1134 net.cpp:148] Top shape: 10 512 28 28 (4014080)
I0915 13:31:06.576056  1134 net.cpp:156] Memory required for data: 1041653880
I0915 13:31:06.576077  1134 layer_factory.hpp:77] Creating layer relu4_1
I0915 13:31:06.576098  1134 net.cpp:91] Creating Layer relu4_1
I0915 13:31:06.576114  1134 net.cpp:425] relu4_1 <- conv4_1
I0915 13:31:06.576133  1134 net.cpp:386] relu4_1 -> conv4_1 (in-place)
I0915 13:31:06.576154  1134 net.cpp:141] Setting up relu4_1
I0915 13:31:06.576210  1134 net.cpp:148] Top shape: 10 512 28 28 (4014080)
I0915 13:31:06.576226  1134 net.cpp:156] Memory required for data: 1057710200
I0915 13:31:06.576242  1134 layer_factory.hpp:77] Creating layer conv4_2
I0915 13:31:06.576269  1134 net.cpp:91] Creating Layer conv4_2
I0915 13:31:06.576287  1134 net.cpp:425] conv4_2 <- conv4_1
I0915 13:31:06.576311  1134 net.cpp:399] conv4_2 -> conv4_2
I0915 13:31:06.668783  1134 net.cpp:141] Setting up conv4_2
I0915 13:31:06.668825  1134 net.cpp:148] Top shape: 10 512 28 28 (4014080)
I0915 13:31:06.668848  1134 net.cpp:156] Memory required for data: 1073766520
I0915 13:31:06.668879  1134 layer_factory.hpp:77] Creating layer relu4_2
I0915 13:31:06.668902  1134 net.cpp:91] Creating Layer relu4_2
I0915 13:31:06.668921  1134 net.cpp:425] relu4_2 <- conv4_2
I0915 13:31:06.668941  1134 net.cpp:386] relu4_2 -> conv4_2 (in-place)
I0915 13:31:06.668962  1134 net.cpp:141] Setting up relu4_2
I0915 13:31:06.668982  1134 net.cpp:148] Top shape: 10 512 28 28 (4014080)
I0915 13:31:06.668997  1134 net.cpp:156] Memory required for data: 1089822840
I0915 13:31:06.669013  1134 layer_factory.hpp:77] Creating layer conv4_3
I0915 13:31:06.669041  1134 net.cpp:91] Creating Layer conv4_3
I0915 13:31:06.669059  1134 net.cpp:425] conv4_3 <- conv4_2
I0915 13:31:06.669082  1134 net.cpp:399] conv4_3 -> conv4_3
I0915 13:31:06.761714  1134 net.cpp:141] Setting up conv4_3
I0915 13:31:06.761771  1134 net.cpp:148] Top shape: 10 512 28 28 (4014080)
I0915 13:31:06.761792  1134 net.cpp:156] Memory required for data: 1105879160
I0915 13:31:06.761816  1134 layer_factory.hpp:77] Creating layer relu4_3
I0915 13:31:06.761837  1134 net.cpp:91] Creating Layer relu4_3
I0915 13:31:06.761854  1134 net.cpp:425] relu4_3 <- conv4_3
I0915 13:31:06.761873  1134 net.cpp:386] relu4_3 -> conv4_3 (in-place)
I0915 13:31:06.761896  1134 net.cpp:141] Setting up relu4_3
I0915 13:31:06.761915  1134 net.cpp:148] Top shape: 10 512 28 28 (4014080)
I0915 13:31:06.761931  1134 net.cpp:156] Memory required for data: 1121935480
I0915 13:31:06.761947  1134 layer_factory.hpp:77] Creating layer pool4
I0915 13:31:06.761975  1134 net.cpp:91] Creating Layer pool4
I0915 13:31:06.761991  1134 net.cpp:425] pool4 <- conv4_3
I0915 13:31:06.762012  1134 net.cpp:399] pool4 -> pool4
I0915 13:31:06.762073  1134 net.cpp:141] Setting up pool4
I0915 13:31:06.762097  1134 net.cpp:148] Top shape: 10 512 14 14 (1003520)
I0915 13:31:06.762114  1134 net.cpp:156] Memory required for data: 1125949560
I0915 13:31:06.762137  1134 layer_factory.hpp:77] Creating layer conv5_1
I0915 13:31:06.762169  1134 net.cpp:91] Creating Layer conv5_1
I0915 13:31:06.762189  1134 net.cpp:425] conv5_1 <- pool4
I0915 13:31:06.762210  1134 net.cpp:399] conv5_1 -> conv5_1
I0915 13:31:06.854833  1134 net.cpp:141] Setting up conv5_1
I0915 13:31:06.854876  1134 net.cpp:148] Top shape: 10 512 14 14 (1003520)
I0915 13:31:06.854893  1134 net.cpp:156] Memory required for data: 1129963640
I0915 13:31:06.854917  1134 layer_factory.hpp:77] Creating layer relu5_1
I0915 13:31:06.854938  1134 net.cpp:91] Creating Layer relu5_1
I0915 13:31:06.854956  1134 net.cpp:425] relu5_1 <- conv5_1
I0915 13:31:06.854975  1134 net.cpp:386] relu5_1 -> conv5_1 (in-place)
I0915 13:31:06.854997  1134 net.cpp:141] Setting up relu5_1
I0915 13:31:06.855016  1134 net.cpp:148] Top shape: 10 512 14 14 (1003520)
I0915 13:31:06.855031  1134 net.cpp:156] Memory required for data: 1133977720
I0915 13:31:06.855047  1134 layer_factory.hpp:77] Creating layer conv5_2
I0915 13:31:06.855073  1134 net.cpp:91] Creating Layer conv5_2
I0915 13:31:06.855092  1134 net.cpp:425] conv5_2 <- conv5_1
I0915 13:31:06.855114  1134 net.cpp:399] conv5_2 -> conv5_2
I0915 13:31:06.946492  1134 net.cpp:141] Setting up conv5_2
I0915 13:31:06.946547  1134 net.cpp:148] Top shape: 10 512 14 14 (1003520)
I0915 13:31:06.946573  1134 net.cpp:156] Memory required for data: 1137991800
I0915 13:31:06.946600  1134 layer_factory.hpp:77] Creating layer relu5_2
I0915 13:31:06.946630  1134 net.cpp:91] Creating Layer relu5_2
I0915 13:31:06.946650  1134 net.cpp:425] relu5_2 <- conv5_2
I0915 13:31:06.946702  1134 net.cpp:386] relu5_2 -> conv5_2 (in-place)
I0915 13:31:06.946729  1134 net.cpp:141] Setting up relu5_2
I0915 13:31:06.946748  1134 net.cpp:148] Top shape: 10 512 14 14 (1003520)
I0915 13:31:06.946765  1134 net.cpp:156] Memory required for data: 1142005880
I0915 13:31:06.946781  1134 layer_factory.hpp:77] Creating layer conv5_3
I0915 13:31:06.946811  1134 net.cpp:91] Creating Layer conv5_3
I0915 13:31:06.946830  1134 net.cpp:425] conv5_3 <- conv5_2
I0915 13:31:06.946852  1134 net.cpp:399] conv5_3 -> conv5_3
I0915 13:31:07.037308  1134 net.cpp:141] Setting up conv5_3
I0915 13:31:07.037359  1134 net.cpp:148] Top shape: 10 512 14 14 (1003520)
I0915 13:31:07.037379  1134 net.cpp:156] Memory required for data: 1146019960
I0915 13:31:07.037407  1134 layer_factory.hpp:77] Creating layer relu5_3
I0915 13:31:07.037432  1134 net.cpp:91] Creating Layer relu5_3
I0915 13:31:07.037452  1134 net.cpp:425] relu5_3 <- conv5_3
I0915 13:31:07.037473  1134 net.cpp:386] relu5_3 -> conv5_3 (in-place)
I0915 13:31:07.037502  1134 net.cpp:141] Setting up relu5_3
I0915 13:31:07.037520  1134 net.cpp:148] Top shape: 10 512 14 14 (1003520)
I0915 13:31:07.037536  1134 net.cpp:156] Memory required for data: 1150034040
I0915 13:31:07.037552  1134 layer_factory.hpp:77] Creating layer pool5
I0915 13:31:07.037580  1134 net.cpp:91] Creating Layer pool5
I0915 13:31:07.037598  1134 net.cpp:425] pool5 <- conv5_3
I0915 13:31:07.037621  1134 net.cpp:399] pool5 -> pool5
I0915 13:31:07.037711  1134 net.cpp:141] Setting up pool5
I0915 13:31:07.037736  1134 net.cpp:148] Top shape: 10 512 7 7 (250880)
I0915 13:31:07.037755  1134 net.cpp:156] Memory required for data: 1151037560
I0915 13:31:07.037771  1134 layer_factory.hpp:77] Creating layer fc6
I0915 13:31:07.037806  1134 net.cpp:91] Creating Layer fc6
I0915 13:31:07.037823  1134 net.cpp:425] fc6 <- pool5
I0915 13:31:07.037847  1134 net.cpp:399] fc6 -> fc6
I0915 13:31:11.054738  1134 net.cpp:141] Setting up fc6
I0915 13:31:11.054837  1134 net.cpp:148] Top shape: 10 4096 (40960)
I0915 13:31:11.054857  1134 net.cpp:156] Memory required for data: 1151201400
I0915 13:31:11.054915  1134 layer_factory.hpp:77] Creating layer relu6
I0915 13:31:11.054981  1134 net.cpp:91] Creating Layer relu6
I0915 13:31:11.055037  1134 net.cpp:425] relu6 <- fc6
I0915 13:31:11.055073  1134 net.cpp:386] relu6 -> fc6 (in-place)
I0915 13:31:11.055099  1134 net.cpp:141] Setting up relu6
I0915 13:31:11.055119  1134 net.cpp:148] Top shape: 10 4096 (40960)
I0915 13:31:11.055135  1134 net.cpp:156] Memory required for data: 1151365240
I0915 13:31:11.055158  1134 layer_factory.hpp:77] Creating layer drop6
I0915 13:31:11.055191  1134 net.cpp:91] Creating Layer drop6
I0915 13:31:11.055209  1134 net.cpp:425] drop6 <- fc6
I0915 13:31:11.055228  1134 net.cpp:386] drop6 -> fc6 (in-place)
I0915 13:31:11.055320  1134 net.cpp:141] Setting up drop6
I0915 13:31:11.055343  1134 net.cpp:148] Top shape: 10 4096 (40960)
I0915 13:31:11.055361  1134 net.cpp:156] Memory required for data: 1151529080
I0915 13:31:11.055377  1134 layer_factory.hpp:77] Creating layer fc7
I0915 13:31:11.055397  1134 net.cpp:91] Creating Layer fc7
I0915 13:31:11.055414  1134 net.cpp:425] fc7 <- fc6
I0915 13:31:11.055436  1134 net.cpp:399] fc7 -> fc7
I0915 13:31:11.721412  1134 net.cpp:141] Setting up fc7
I0915 13:31:11.721489  1134 net.cpp:148] Top shape: 10 4096 (40960)
I0915 13:31:11.721506  1134 net.cpp:156] Memory required for data: 1151692920
I0915 13:31:11.721539  1134 layer_factory.hpp:77] Creating layer relu7
I0915 13:31:11.721571  1134 net.cpp:91] Creating Layer relu7
I0915 13:31:11.721597  1134 net.cpp:425] relu7 <- fc7
I0915 13:31:11.721629  1134 net.cpp:386] relu7 -> fc7 (in-place)
I0915 13:31:11.721681  1134 net.cpp:141] Setting up relu7
I0915 13:31:11.721699  1134 net.cpp:148] Top shape: 10 4096 (40960)
I0915 13:31:11.721714  1134 net.cpp:156] Memory required for data: 1151856760
I0915 13:31:11.721742  1134 layer_factory.hpp:77] Creating layer drop7
I0915 13:31:11.721781  1134 net.cpp:91] Creating Layer drop7
I0915 13:31:11.721835  1134 net.cpp:425] drop7 <- fc7
I0915 13:31:11.721858  1134 net.cpp:386] drop7 -> fc7 (in-place)
I0915 13:31:11.721920  1134 net.cpp:141] Setting up drop7
I0915 13:31:11.721942  1134 net.cpp:148] Top shape: 10 4096 (40960)
I0915 13:31:11.721961  1134 net.cpp:156] Memory required for data: 1152020600
I0915 13:31:11.721990  1134 layer_factory.hpp:77] Creating layer fc7_drop7_0_split
I0915 13:31:11.722014  1134 net.cpp:91] Creating Layer fc7_drop7_0_split
I0915 13:31:11.722031  1134 net.cpp:425] fc7_drop7_0_split <- fc7
I0915 13:31:11.722049  1134 net.cpp:399] fc7_drop7_0_split -> fc7_drop7_0_split_0
I0915 13:31:11.722071  1134 net.cpp:399] fc7_drop7_0_split -> fc7_drop7_0_split_1
I0915 13:31:11.722129  1134 net.cpp:141] Setting up fc7_drop7_0_split
I0915 13:31:11.722151  1134 net.cpp:148] Top shape: 10 4096 (40960)
I0915 13:31:11.722169  1134 net.cpp:148] Top shape: 10 4096 (40960)
I0915 13:31:11.722185  1134 net.cpp:156] Memory required for data: 1152348280
I0915 13:31:11.722201  1134 layer_factory.hpp:77] Creating layer fc_binary_f48_Pattern
I0915 13:31:11.722223  1134 net.cpp:91] Creating Layer fc_binary_f48_Pattern
I0915 13:31:11.722240  1134 net.cpp:425] fc_binary_f48_Pattern <- fc7_drop7_0_split_0
I0915 13:31:11.722268  1134 net.cpp:399] fc_binary_f48_Pattern -> fc_binary_f48_Pattern
I0915 13:31:11.730448  1134 net.cpp:141] Setting up fc_binary_f48_Pattern
I0915 13:31:11.730484  1134 net.cpp:148] Top shape: 10 48 (480)
I0915 13:31:11.730504  1134 net.cpp:156] Memory required for data: 1152350200
I0915 13:31:11.730527  1134 layer_factory.hpp:77] Creating layer fc_classification_Pattern
I0915 13:31:11.730550  1134 net.cpp:91] Creating Layer fc_classification_Pattern
I0915 13:31:11.730569  1134 net.cpp:425] fc_classification_Pattern <- fc7_drop7_0_split_1
I0915 13:31:11.730592  1134 net.cpp:399] fc_classification_Pattern -> fc_classification_Pattern
I0915 13:31:11.731819  1134 net.cpp:141] Setting up fc_classification_Pattern
I0915 13:31:11.731845  1134 net.cpp:148] Top shape: 10 7 (70)
I0915 13:31:11.731863  1134 net.cpp:156] Memory required for data: 1152350480
I0915 13:31:11.731941  1134 layer_factory.hpp:77] Creating layer loss_hashing
I0915 13:31:11.731976  1134 net.cpp:91] Creating Layer loss_hashing
I0915 13:31:11.731995  1134 net.cpp:425] loss_hashing <- fc_binary_f48_Pattern
I0915 13:31:11.732013  1134 net.cpp:425] loss_hashing <- label_data_1_split_0
I0915 13:31:11.732054  1134 net.cpp:399] loss_hashing -> loss_hashing
…
I0915 13:31:11.735303  1134 net.cpp:313] The NetState phase (1) differed from the phase (0) specified by a rule in layer data
I0915 13:31:11.735702  1134 net.cpp:49] Initializing net from parameters: 
name: "docomo_VGG16"
state {
  phase: TEST
}
layer {
  name: "data"
  type: "Data"
  top: "data"
  top: "label"
  include {
    phase: TEST
  }
  transform_param {
    mirror: false
    crop_size: 224
    mean_value: 103.939
    mean_value: 116.779
    mean_value: 123.68
  }
  data_param {
    source: "PATTERN/pattern_val_lmdb/"
    batch_size: 10
    backend: LMDB
  }
}
layer {
  name: "conv1_1"
  type: "Convolution"
  bottom: "data"
  top: "conv1_1"
  param {
    lr_mult: 1
    decay_mult: 1
  }
  param {
    lr_mult: 2
    decay_mult: 0
  }
  convolution_param {
    num_output: 64
    pad: 1
    kernel_size: 3
    weight_filler {
      type: "gaussian"
      std: 0.01
    }
    bias_filler {
      type: "constant"
      value: 0
    }
  }
}
layer {
  name: "relu1_1"
  type: "ReLU"
  bottom: "conv1_1"
  top: "conv1_1"
}
layer {
  name: "conv1_2"
  type: "Convolution"
  bottom: "conv1_1"
  top: "conv1_2"
  param {
    lr_mult: 1
    decay_mult: 1
  }
  param {
    lr_mult: 2
    decay_mult: 0
  }
  convolution_param {
    num_output: 64
    pad: 1
    kernel_size: 3
    weight_filler {
      type: "gaussian"
      std: 0.01
    }
    bias_filler {
      type: "constant"
      value: 0
    }
  }
}
layer {
  name: "relu1_2"
  type: "ReLU"
  bottom: "conv1_2"
  top: "conv1_2"
}
layer {
  name: "pool1"
  type: "Pooling"
  bottom: "conv1_2"
  top: "pool1"
  pooling_param {
    pool: MAX
    kernel_size: 2
    stride: 2
  }
}
layer {
  name: "conv2_1"
  type: "Convolution"
  bottom: "pool1"
  top: "conv2_1"
  param {
    lr_mult: 1
    decay_mult: 1
  }
  param {
    lr_mult: 2
    decay_mult: 0
  }
  convolution_param {
    num_output: 128
    pad: 1
    kernel_size: 3
    weight_filler {
      type: "gaussian"
      std: 0.01
    }
    bias_filler {
      type: "constant"
      value: 0
    }
  }
}
layer {
  name: "relu2_1"
  type: "ReLU"
  bottom: "conv2_1"
  top: "conv2_1"
}
layer {
  name: "conv2_2"
  type: "Convolution"
  bottom: "conv2_1"
  top: "conv2_2"
  param {
    lr_mult: 1
    decay_mult: 1
  }
  param {
    lr_mult: 2
    decay_mult: 0
  }
  convolution_param {
    num_output: 128
    pad: 1
    kernel_size: 3
    weight_filler {
      type: "gaussian"
      std: 0.01
    }
    bias_filler {
      type: "constant"
      value: 0
    }
  }
}
layer {
  name: "relu2_2"
  type: "ReLU"
  bottom: "conv2_2"
  top: "conv2_2"
}
layer {
  name: "pool2"
  type: "Pooling"
  bottom: "conv2_2"
  top: "pool2"
  pooling_param {
    pool: MAX
    kernel_size: 2
    stride: 2
  }
}
layer {
  name: "conv3_1"
  type: "Convolution"
  bottom: "pool2"
  top: "conv3_1"
  param {
    lr_mult: 1
    decay_mult: 1
  }
  param {
    lr_mult: 2
    decay_mult: 0
  }
  convolution_param {
    num_output: 256
    pad: 1
    kernel_size: 3
    weight_filler {
      type: "gaussian"
      std: 0.01
    }
    bias_filler {
      type: "constant"
      value: 0
    }
  }
}
layer {
  name: "relu3_1"
  type: "ReLU"
  bottom: "conv3_1"
  top: "conv3_1"
}
layer {
  name: "conv3_2"
  type: "Convolution"
  bottom: "conv3_1"
  top: "conv3_2"
  param {
    lr_mult: 1
    decay_mult: 1
  }
  param {
    lr_mult: 2
    decay_mult: 0
  }
  convolution_param {
    num_output: 256
    pad: 1
    kernel_size: 3
    weight_filler {
      type: "gaussian"
      std: 0.01
    }
    bias_filler {
      type: "constant"
      value: 0
    }
  }
}
layer {
  name: "relu3_2"
  type: "ReLU"
  bottom: "conv3_2"
  top: "conv3_2"
}
layer {
  name: "conv3_3"
  type: "Convolution"
  bottom: "conv3_2"
  top: "conv3_3"
  param {
    lr_mult: 1
    decay_mult: 1
  }
  param {
    lr_mult: 2
    decay_mult: 0
  }
  convolution_param {
    num_output: 256
    pad: 1
    kernel_size: 3
    weight_filler {
      type: "gaussian"
      std: 0.01
    }
    bias_filler {
      type: "constant"
      value: 0
    }
  }
}
layer {
  name: "relu3_3"
  type: "ReLU"
  bottom: "conv3_3"
  top: "conv3_3"
}
layer {
  name: "pool3"
  type: "Pooling"
  bottom: "conv3_3"
  top: "pool3"
  pooling_param {
    pool: MAX
    kernel_size: 2
    stride: 2
  }
}
layer {
  name: "conv4_1"
  type: "Convolution"
  bottom: "pool3"
  top: "conv4_1"
  param {
    lr_mult: 1
    decay_mult: 1
  }
  param {
    lr_mult: 2
    decay_mult: 0
  }
  convolution_param {
    num_output: 512
    pad: 1
    kernel_size: 3
    weight_filler {
      type: "gaussian"
      std: 0.01
    }
    bias_filler {
      type: "constant"
      value: 0
    }
  }
}
layer {
  name: "relu4_1"
  type: "ReLU"
  bottom: "conv4_1"
  top: "conv4_1"
}
layer {
  name: "conv4_2"
  type: "Convolution"
  bottom: "conv4_1"
  top: "conv4_2"
  param {
    lr_mult: 1
    decay_mult: 1
  }
  param {
    lr_mult: 2
    decay_mult: 0
  }
  convolution_param {
    num_output: 512
    pad: 1
    kernel_size: 3
    weight_filler {
      type: "gaussian"
      std: 0.01
    }
    bias_filler {
      type: "constant"
      value: 0
    }
  }
}
layer {
  name: "relu4_2"
  type: "ReLU"
  bottom: "conv4_2"
  top: "conv4_2"
}
layer {
  name: "conv4_3"
  type: "Convolution"
  bottom: "conv4_2"
  top: "conv4_3"
  param {
    lr_mult: 1
    decay_mult: 1
  }
  param {
    lr_mult: 2
    decay_mult: 0
  }
  convolution_param {
    num_output: 512
    pad: 1
    kernel_size: 3
    weight_filler {
      type: "gaussian"
      std: 0.01
    }
    bias_filler {
      type: "constant"
      value: 0
    }
  }
}
layer {
  name: "relu4_3"
  type: "ReLU"
  bottom: "conv4_3"
  top: "conv4_3"
}
layer {
  name: "pool4"
  type: "Pooling"
  bottom: "conv4_3"
  top: "pool4"
  pooling_param {
    pool: MAX
    kernel_size: 2
    stride: 2
  }
}
layer {
  name: "conv5_1"
  type: "Convolution"
  bottom: "pool4"
  top: "conv5_1"
  param {
    lr_mult: 1
    decay_mult: 1
  }
  param {
    lr_mult: 2
    decay_mult: 0
  }
  convolution_param {
    num_output: 512
    pad: 1
    kernel_size: 3
    weight_filler {
      type: "gaussian"
      std: 0.01
    }
    bias_filler {
      type: "constant"
      value: 0
    }
  }
}
layer {
  name: "relu5_1"
  type: "ReLU"
  bottom: "conv5_1"
  top: "conv5_1"
}
layer {
  name: "conv5_2"
  type: "Convolution"
  bottom: "conv5_1"
  top: "conv5_2"
  param {
    lr_mult: 1
    decay_mult: 1
  }
  param {
    lr_mult: 2
    decay_mult: 0
  }
  convolution_param {
    num_output: 512
    pad: 1
    kernel_size: 3
    weight_filler {
      type: "gaussian"
      std: 0.01
    }
    bias_filler {
      type: "constant"
      value: 0
    }
  }
}
layer {
  name: "relu5_2"
  type: "ReLU"
  bottom: "conv5_2"
  top: "conv5_2"
}
layer {
  name: "conv5_3"
  type: "Convolution"
  bottom: "conv5_2"
  top: "conv5_3"
  param {
    lr_mult: 1
    decay_mult: 1
  }
  param {
    lr_mult: 2
    decay_mult: 0
  }
  convolution_param {
    num_output: 512
    pad: 1
    kernel_size: 3
    weight_filler {
      type: "gaussian"
      std: 0.01
    }
    bias_filler {
      type: "constant"
      value: 0
    }
  }
}
layer {
  name: "relu5_3"
  type: "ReLU"
  bottom: "conv5_3"
  top: "conv5_3"
}
layer {
  name: "pool5"
  type: "Pooling"
  bottom: "conv5_3"
  top: "pool5"
  pooling_param {
    pool: MAX
    kernel_size: 2
    stride: 2
  }
}
layer {
  name: "fc6"
  type: "InnerProduct"
  bottom: "pool5"
  top: "fc6"
  param {
    lr_mult: 1
    decay_mult: 1
  }
  param {
    lr_mult: 2
    decay_mult: 0
  }
  inner_product_param {
    num_output: 4096
    weight_filler {
      type: "gaussian"
      std: 0.005
    }
    bias_filler {
      type: "constant"
      value: 0.1
    }
  }
}
layer {
  name: "relu6"
  type: "ReLU"
  bottom: "fc6"
  top: "fc6"
}
layer {
  name: "drop6"
  type: "Dropout"
  bottom: "fc6"
  top: "fc6"
  dropout_param {
    dropout_ratio: 0.5
  }
}
layer {
  name: "fc7"
  type: "InnerProduct"
  bottom: "fc6"
  top: "fc7"
  param {
    lr_mult: 1
    decay_mult: 1
  }
  param {
    lr_mult: 2
    decay_mult: 0
  }
  inner_product_param {
    num_output: 4096
    weight_filler {
      type: "gaussian"
      std: 0.005
    }
    bias_filler {
      type: "constant"
      value: 0.1
    }
  }
}
layer {
  name: "relu7"
  type: "ReLU"
  bottom: "fc7"
  top: "fc7"
}
layer {
  name: "drop7"
  type: "Dropout"
  bottom: "fc7"
  top: "fc7"
  dropout_param {
    dropout_ratio: 0.5
  }
}
layer {
  name: "fc_binary_f48_Pattern"
  type: "InnerProduct"
  bottom: "fc7"
  top: "fc_binary_f48_Pattern"
  param {
    lr_mult: 10
    decay_mult: 1
  }
  param {
    lr_mult: 20
    decay_mult: 0
  }
  inner_product_param {
    num_output: 48
    weight_filler {
      type: "gaussian"
      std: 0.005
    }
    bias_filler {
      type: "constant"
      value: 0.1
    }
  }
}
layer {
  name: "fc_classification_Pattern"
  type: "InnerProduct"
  bottom: "fc7"
  top: "fc_classification_Pattern"
  param {
    lr_mult: 0.2
    decay_mult: 1
  }
  param {
    lr_mult: 0.4
    decay_mult: 0
  }
  inner_product_param {
    num_output: 7
    weight_filler {
      type: "gaussian"
      std: 0.05
    }
    bias_filler {
      type: "constant"
      value: 0.1
    }
  }
}
layer {
  name: "accuracy_at_1"
  type: "Accuracy"
  bottom: "fc_classification_Pattern"
  bottom: "label"
  top: "accuracy_at_1"
  include {
    phase: TEST
  }
}
layer {
  name: "loss_hashing"
  type: "HashingLoss"
  bottom: "fc_binary_f48_Pattern"
  bottom: "label"
  top: "loss_hashing"
  loss_weight: 0.8
  hashing_loss_param {
    bi_margin: 96
    tradeoff: 0.01
  }
}
layer {
  name: "loss_classification"
  type: "SoftmaxWithLoss"
  bottom: "fc_classification_Pattern"
  bottom: "label"
  top: "loss_classification"
}
I0915 13:31:11.739271  1134 layer_factory.hpp:77] Creating layer data
I0915 13:31:11.739861  1134 net.cpp:91] Creating Layer data
I0915 13:31:11.739899  1134 net.cpp:399] data -> data
I0915 13:31:11.739923  1134 net.cpp:399] data -> label
I0915 13:31:11.741236  1144 db_lmdb.cpp:38] Opened lmdb PATTERN/pattern_val_lmdb/
I0915 13:31:11.741768  1134 data_layer.cpp:41] output data size: 10,3,224,224
I0915 13:31:11.754736  1134 net.cpp:141] Setting up data
I0915 13:31:11.754801  1134 net.cpp:148] Top shape: 10 3 224 224 (1505280)
I0915 13:31:11.754837  1134 net.cpp:148] Top shape: 10 1 1 1 (10)
I0915 13:31:11.754863  1134 net.cpp:156] Memory required for data: 6021160
I0915 13:31:11.754884  1134 layer_factory.hpp:77] Creating layer label_data_1_split
I0915 13:31:11.754920  1134 net.cpp:91] Creating Layer label_data_1_split
I0915 13:31:11.754940  1134 net.cpp:425] label_data_1_split <- label
I0915 13:31:11.754966  1134 net.cpp:399] label_data_1_split -> label_data_1_split_0
I0915 13:31:11.754994  1134 net.cpp:399] label_data_1_split -> label_data_1_split_1
I0915 13:31:11.755025  1134 net.cpp:399] label_data_1_split -> label_data_1_split_2
I0915 13:31:11.755123  1134 net.cpp:141] Setting up label_data_1_split
I0915 13:31:11.755148  1134 net.cpp:148] Top shape: 10 1 1 1 (10)
I0915 13:31:11.755167  1134 net.cpp:148] Top shape: 10 1 1 1 (10)
I0915 13:31:11.755188  1134 net.cpp:148] Top shape: 10 1 1 1 (10)
I0915 13:31:11.755203  1134 net.cpp:156] Memory required for data: 6021280
I0915 13:31:11.755220  1134 layer_factory.hpp:77] Creating layer conv1_1
I0915 13:31:11.755254  1134 net.cpp:91] Creating Layer conv1_1
I0915 13:31:11.755272  1134 net.cpp:425] conv1_1 <- data
I0915 13:31:11.755296  1134 net.cpp:399] conv1_1 -> conv1_1
I0915 13:31:11.755714  1134 net.cpp:141] Setting up conv1_1
I0915 13:31:11.755743  1134 net.cpp:148] Top shape: 10 64 224 224 (32112640)
I0915 13:31:11.755764  1134 net.cpp:156] Memory required for data: 134471840
I0915 13:31:11.755795  1134 layer_factory.hpp:77] Creating layer relu1_1
I0915 13:31:11.755825  1134 net.cpp:91] Creating Layer relu1_1
I0915 13:31:11.755848  1134 net.cpp:425] relu1_1 <- conv1_1
I0915 13:31:11.755868  1134 net.cpp:386] relu1_1 -> conv1_1 (in-place)
I0915 13:31:11.755890  1134 net.cpp:141] Setting up relu1_1
I0915 13:31:11.755908  1134 net.cpp:148] Top shape: 10 64 224 224 (32112640)
I0915 13:31:11.755925  1134 net.cpp:156] Memory required for data: 262922400
I0915 13:31:11.755940  1134 layer_factory.hpp:77] Creating layer conv1_2
I0915 13:31:11.755970  1134 net.cpp:91] Creating Layer conv1_2
I0915 13:31:11.755990  1134 net.cpp:425] conv1_2 <- conv1_1
I0915 13:31:11.756014  1134 net.cpp:399] conv1_2 -> conv1_2
I0915 13:31:11.758822  1134 net.cpp:141] Setting up conv1_2
I0915 13:31:11.758865  1134 net.cpp:148] Top shape: 10 64 224 224 (32112640)
I0915 13:31:11.758884  1134 net.cpp:156] Memory required for data: 391372960
I0915 13:31:11.758910  1134 layer_factory.hpp:77] Creating layer relu1_2
I0915 13:31:11.758936  1134 net.cpp:91] Creating Layer relu1_2
I0915 13:31:11.758955  1134 net.cpp:425] relu1_2 <- conv1_2
I0915 13:31:11.758975  1134 net.cpp:386] relu1_2 -> conv1_2 (in-place)
I0915 13:31:11.758997  1134 net.cpp:141] Setting up relu1_2
I0915 13:31:11.759016  1134 net.cpp:148] Top shape: 10 64 224 224 (32112640)
I0915 13:31:11.759032  1134 net.cpp:156] Memory required for data: 519823520
I0915 13:31:11.759049  1134 layer_factory.hpp:77] Creating layer pool1
I0915 13:31:11.759109  1134 net.cpp:91] Creating Layer pool1
I0915 13:31:11.759130  1134 net.cpp:425] pool1 <- conv1_2
I0915 13:31:11.759148  1134 net.cpp:399] pool1 -> pool1
I0915 13:31:11.759214  1134 net.cpp:141] Setting up pool1
I0915 13:31:11.759238  1134 net.cpp:148] Top shape: 10 64 112 112 (8028160)
I0915 13:31:11.759256  1134 net.cpp:156] Memory required for data: 551936160
I0915 13:31:11.759271  1134 layer_factory.hpp:77] Creating layer conv2_1
I0915 13:31:11.759299  1134 net.cpp:91] Creating Layer conv2_1
I0915 13:31:11.759317  1134 net.cpp:425] conv2_1 <- pool1
I0915 13:31:11.759336  1134 net.cpp:399] conv2_1 -> conv2_1
I0915 13:31:11.762991  1134 net.cpp:141] Setting up conv2_1
I0915 13:31:11.763023  1134 net.cpp:148] Top shape: 10 128 112 112 (16056320)
I0915 13:31:11.763046  1134 net.cpp:156] Memory required for data: 616161440
I0915 13:31:11.763068  1134 layer_factory.hpp:77] Creating layer relu2_1
I0915 13:31:11.763092  1134 net.cpp:91] Creating Layer relu2_1
I0915 13:31:11.763108  1134 net.cpp:425] relu2_1 <- conv2_1
I0915 13:31:11.763131  1134 net.cpp:386] relu2_1 -> conv2_1 (in-place)
I0915 13:31:11.763154  1134 net.cpp:141] Setting up relu2_1
I0915 13:31:11.763173  1134 net.cpp:148] Top shape: 10 128 112 112 (16056320)
I0915 13:31:11.763190  1134 net.cpp:156] Memory required for data: 680386720
I0915 13:31:11.763206  1134 layer_factory.hpp:77] Creating layer conv2_2
I0915 13:31:11.763228  1134 net.cpp:91] Creating Layer conv2_2
I0915 13:31:11.763245  1134 net.cpp:425] conv2_2 <- conv2_1
I0915 13:31:11.763269  1134 net.cpp:399] conv2_2 -> conv2_2
I0915 13:31:11.769052  1134 net.cpp:141] Setting up conv2_2
I0915 13:31:11.769080  1134 net.cpp:148] Top shape: 10 128 112 112 (16056320)
I0915 13:31:11.769104  1134 net.cpp:156] Memory required for data: 744612000
I0915 13:31:11.769129  1134 layer_factory.hpp:77] Creating layer relu2_2
I0915 13:31:11.769150  1134 net.cpp:91] Creating Layer relu2_2
I0915 13:31:11.769168  1134 net.cpp:425] relu2_2 <- conv2_2
I0915 13:31:11.769187  1134 net.cpp:386] relu2_2 -> conv2_2 (in-place)
I0915 13:31:11.769207  1134 net.cpp:141] Setting up relu2_2
I0915 13:31:11.769227  1134 net.cpp:148] Top shape: 10 128 112 112 (16056320)
I0915 13:31:11.769243  1134 net.cpp:156] Memory required for data: 808837280
I0915 13:31:11.769259  1134 layer_factory.hpp:77] Creating layer pool2
I0915 13:31:11.769284  1134 net.cpp:91] Creating Layer pool2
I0915 13:31:11.769302  1134 net.cpp:425] pool2 <- conv2_2
I0915 13:31:11.769322  1134 net.cpp:399] pool2 -> pool2
I0915 13:31:11.769384  1134 net.cpp:141] Setting up pool2
I0915 13:31:11.769418  1134 net.cpp:148] Top shape: 10 128 56 56 (4014080)
I0915 13:31:11.769434  1134 net.cpp:156] Memory required for data: 824893600
I0915 13:31:11.769454  1134 layer_factory.hpp:77] Creating layer conv3_1
I0915 13:31:11.769484  1134 net.cpp:91] Creating Layer conv3_1
I0915 13:31:11.769501  1134 net.cpp:425] conv3_1 <- pool2
I0915 13:31:11.769521  1134 net.cpp:399] conv3_1 -> conv3_1
I0915 13:31:11.781476  1134 net.cpp:141] Setting up conv3_1
I0915 13:31:11.781507  1134 net.cpp:148] Top shape: 10 256 56 56 (8028160)
I0915 13:31:11.781523  1134 net.cpp:156] Memory required for data: 857006240
I0915 13:31:11.781550  1134 layer_factory.hpp:77] Creating layer relu3_1
I0915 13:31:11.781572  1134 net.cpp:91] Creating Layer relu3_1
I0915 13:31:11.781590  1134 net.cpp:425] relu3_1 <- conv3_1
I0915 13:31:11.781615  1134 net.cpp:386] relu3_1 -> conv3_1 (in-place)
I0915 13:31:11.781649  1134 net.cpp:141] Setting up relu3_1
I0915 13:31:11.781674  1134 net.cpp:148] Top shape: 10 256 56 56 (8028160)
I0915 13:31:11.781692  1134 net.cpp:156] Memory required for data: 889118880
I0915 13:31:11.781708  1134 layer_factory.hpp:77] Creating layer conv3_2
I0915 13:31:11.781733  1134 net.cpp:91] Creating Layer conv3_2
I0915 13:31:11.781750  1134 net.cpp:425] conv3_2 <- conv3_1
I0915 13:31:11.781770  1134 net.cpp:399] conv3_2 -> conv3_2
I0915 13:31:11.805238  1134 net.cpp:141] Setting up conv3_2
I0915 13:31:11.805282  1134 net.cpp:148] Top shape: 10 256 56 56 (8028160)
I0915 13:31:11.805331  1134 net.cpp:156] Memory required for data: 921231520
I0915 13:31:11.805358  1134 layer_factory.hpp:77] Creating layer relu3_2
I0915 13:31:11.805382  1134 net.cpp:91] Creating Layer relu3_2
I0915 13:31:11.805399  1134 net.cpp:425] relu3_2 <- conv3_2
I0915 13:31:11.805423  1134 net.cpp:386] relu3_2 -> conv3_2 (in-place)
I0915 13:31:11.805444  1134 net.cpp:141] Setting up relu3_2
I0915 13:31:11.805464  1134 net.cpp:148] Top shape: 10 256 56 56 (8028160)
I0915 13:31:11.805480  1134 net.cpp:156] Memory required for data: 953344160
I0915 13:31:11.805495  1134 layer_factory.hpp:77] Creating layer conv3_3
I0915 13:31:11.805524  1134 net.cpp:91] Creating Layer conv3_3
I0915 13:31:11.805543  1134 net.cpp:425] conv3_3 <- conv3_2
I0915 13:31:11.805567  1134 net.cpp:399] conv3_3 -> conv3_3
I0915 13:31:11.829212  1134 net.cpp:141] Setting up conv3_3
I0915 13:31:11.829249  1134 net.cpp:148] Top shape: 10 256 56 56 (8028160)
I0915 13:31:11.829270  1134 net.cpp:156] Memory required for data: 985456800
I0915 13:31:11.829295  1134 layer_factory.hpp:77] Creating layer relu3_3
I0915 13:31:11.829318  1134 net.cpp:91] Creating Layer relu3_3
I0915 13:31:11.829334  1134 net.cpp:425] relu3_3 <- conv3_3
I0915 13:31:11.829360  1134 net.cpp:386] relu3_3 -> conv3_3 (in-place)
I0915 13:31:11.829383  1134 net.cpp:141] Setting up relu3_3
I0915 13:31:11.829402  1134 net.cpp:148] Top shape: 10 256 56 56 (8028160)
I0915 13:31:11.829419  1134 net.cpp:156] Memory required for data: 1017569440
I0915 13:31:11.829435  1134 layer_factory.hpp:77] Creating layer pool3
I0915 13:31:11.829457  1134 net.cpp:91] Creating Layer pool3
I0915 13:31:11.829473  1134 net.cpp:425] pool3 <- conv3_3
I0915 13:31:11.829493  1134 net.cpp:399] pool3 -> pool3
I0915 13:31:11.829558  1134 net.cpp:141] Setting up pool3
I0915 13:31:11.829582  1134 net.cpp:148] Top shape: 10 256 28 28 (2007040)
I0915 13:31:11.829599  1134 net.cpp:156] Memory required for data: 1025597600
I0915 13:31:11.829615  1134 layer_factory.hpp:77] Creating layer conv4_1
I0915 13:31:11.829648  1134 net.cpp:91] Creating Layer conv4_1
I0915 13:31:11.829668  1134 net.cpp:425] conv4_1 <- pool3
I0915 13:31:11.829691  1134 net.cpp:399] conv4_1 -> conv4_1
I0915 13:31:11.876206  1134 net.cpp:141] Setting up conv4_1
I0915 13:31:11.876261  1134 net.cpp:148] Top shape: 10 512 28 28 (4014080)
I0915 13:31:11.876281  1134 net.cpp:156] Memory required for data: 1041653920
I0915 13:31:11.876307  1134 layer_factory.hpp:77] Creating layer relu4_1
I0915 13:31:11.876332  1134 net.cpp:91] Creating Layer relu4_1
I0915 13:31:11.876351  1134 net.cpp:425] relu4_1 <- conv4_1
I0915 13:31:11.876377  1134 net.cpp:386] relu4_1 -> conv4_1 (in-place)
I0915 13:31:11.876404  1134 net.cpp:141] Setting up relu4_1
I0915 13:31:11.876422  1134 net.cpp:148] Top shape: 10 512 28 28 (4014080)
I0915 13:31:11.876438  1134 net.cpp:156] Memory required for data: 1057710240
I0915 13:31:11.876454  1134 layer_factory.hpp:77] Creating layer conv4_2
I0915 13:31:11.876479  1134 net.cpp:91] Creating Layer conv4_2
I0915 13:31:11.876497  1134 net.cpp:425] conv4_2 <- conv4_1
I0915 13:31:11.876520  1134 net.cpp:399] conv4_2 -> conv4_2
I0915 13:31:11.969754  1134 net.cpp:141] Setting up conv4_2
I0915 13:31:11.969816  1134 net.cpp:148] Top shape: 10 512 28 28 (4014080)
I0915 13:31:11.969835  1134 net.cpp:156] Memory required for data: 1073766560
I0915 13:31:11.969873  1134 layer_factory.hpp:77] Creating layer relu4_2
I0915 13:31:11.969902  1134 net.cpp:91] Creating Layer relu4_2
I0915 13:31:11.969923  1134 net.cpp:425] relu4_2 <- conv4_2
I0915 13:31:11.969944  1134 net.cpp:386] relu4_2 -> conv4_2 (in-place)
I0915 13:31:11.969969  1134 net.cpp:141] Setting up relu4_2
I0915 13:31:11.969988  1134 net.cpp:148] Top shape: 10 512 28 28 (4014080)
I0915 13:31:11.970005  1134 net.cpp:156] Memory required for data: 1089822880
I0915 13:31:11.970021  1134 layer_factory.hpp:77] Creating layer conv4_3
I0915 13:31:11.970046  1134 net.cpp:91] Creating Layer conv4_3
I0915 13:31:11.970062  1134 net.cpp:425] conv4_3 <- conv4_2
I0915 13:31:11.970085  1134 net.cpp:399] conv4_3 -> conv4_3
I0915 13:31:12.063251  1134 net.cpp:141] Setting up conv4_3
I0915 13:31:12.063313  1134 net.cpp:148] Top shape: 10 512 28 28 (4014080)
I0915 13:31:12.063331  1134 net.cpp:156] Memory required for data: 1105879200
I0915 13:31:12.063357  1134 layer_factory.hpp:77] Creating layer relu4_3
I0915 13:31:12.063387  1134 net.cpp:91] Creating Layer relu4_3
I0915 13:31:12.063407  1134 net.cpp:425] relu4_3 <- conv4_3
I0915 13:31:12.063429  1134 net.cpp:386] relu4_3 -> conv4_3 (in-place)
I0915 13:31:12.063455  1134 net.cpp:141] Setting up relu4_3
I0915 13:31:12.063474  1134 net.cpp:148] Top shape: 10 512 28 28 (4014080)
I0915 13:31:12.063490  1134 net.cpp:156] Memory required for data: 1121935520
I0915 13:31:12.063506  1134 layer_factory.hpp:77] Creating layer pool4
I0915 13:31:12.063531  1134 net.cpp:91] Creating Layer pool4
I0915 13:31:12.063549  1134 net.cpp:425] pool4 <- conv4_3
I0915 13:31:12.063568  1134 net.cpp:399] pool4 -> pool4
I0915 13:31:12.063635  1134 net.cpp:141] Setting up pool4
I0915 13:31:12.063659  1134 net.cpp:148] Top shape: 10 512 14 14 (1003520)
I0915 13:31:12.063676  1134 net.cpp:156] Memory required for data: 1125949600
I0915 13:31:12.063694  1134 layer_factory.hpp:77] Creating layer conv5_1
I0915 13:31:12.063724  1134 net.cpp:91] Creating Layer conv5_1
I0915 13:31:12.063742  1134 net.cpp:425] conv5_1 <- pool4
I0915 13:31:12.063763  1134 net.cpp:399] conv5_1 -> conv5_1
I0915 13:31:12.156971  1134 net.cpp:141] Setting up conv5_1
I0915 13:31:12.157033  1134 net.cpp:148] Top shape: 10 512 14 14 (1003520)
I0915 13:31:12.157052  1134 net.cpp:156] Memory required for data: 1129963680
I0915 13:31:12.157079  1134 layer_factory.hpp:77] Creating layer relu5_1
I0915 13:31:12.157104  1134 net.cpp:91] Creating Layer relu5_1
I0915 13:31:12.157124  1134 net.cpp:425] relu5_1 <- conv5_1
I0915 13:31:12.157150  1134 net.cpp:386] relu5_1 -> conv5_1 (in-place)
I0915 13:31:12.157176  1134 net.cpp:141] Setting up relu5_1
I0915 13:31:12.157196  1134 net.cpp:148] Top shape: 10 512 14 14 (1003520)
I0915 13:31:12.157212  1134 net.cpp:156] Memory required for data: 1133977760
I0915 13:31:12.157228  1134 layer_factory.hpp:77] Creating layer conv5_2
I0915 13:31:12.157253  1134 net.cpp:91] Creating Layer conv5_2
I0915 13:31:12.157271  1134 net.cpp:425] conv5_2 <- conv5_1
I0915 13:31:12.157294  1134 net.cpp:399] conv5_2 -> conv5_2
I0915 13:31:12.250929  1134 net.cpp:141] Setting up conv5_2
I0915 13:31:12.250989  1134 net.cpp:148] Top shape: 10 512 14 14 (1003520)
I0915 13:31:12.251009  1134 net.cpp:156] Memory required for data: 1137991840
I0915 13:31:12.251037  1134 layer_factory.hpp:77] Creating layer relu5_2
I0915 13:31:12.251067  1134 net.cpp:91] Creating Layer relu5_2
I0915 13:31:12.251087  1134 net.cpp:425] relu5_2 <- conv5_2
I0915 13:31:12.251111  1134 net.cpp:386] relu5_2 -> conv5_2 (in-place)
I0915 13:31:12.251137  1134 net.cpp:141] Setting up relu5_2
I0915 13:31:12.251155  1134 net.cpp:148] Top shape: 10 512 14 14 (1003520)
I0915 13:31:12.251171  1134 net.cpp:156] Memory required for data: 1142005920
I0915 13:31:12.251188  1134 layer_factory.hpp:77] Creating layer conv5_3
I0915 13:31:12.251217  1134 net.cpp:91] Creating Layer conv5_3
I0915 13:31:12.251235  1134 net.cpp:425] conv5_3 <- conv5_2
I0915 13:31:12.251256  1134 net.cpp:399] conv5_3 -> conv5_3
I0915 13:31:12.344579  1134 net.cpp:141] Setting up conv5_3
I0915 13:31:12.344637  1134 net.cpp:148] Top shape: 10 512 14 14 (1003520)
I0915 13:31:12.344656  1134 net.cpp:156] Memory required for data: 1146020000
I0915 13:31:12.344684  1134 layer_factory.hpp:77] Creating layer relu5_3
I0915 13:31:12.344710  1134 net.cpp:91] Creating Layer relu5_3
I0915 13:31:12.344730  1134 net.cpp:425] relu5_3 <- conv5_3
I0915 13:31:12.344751  1134 net.cpp:386] relu5_3 -> conv5_3 (in-place)
I0915 13:31:12.344777  1134 net.cpp:141] Setting up relu5_3
I0915 13:31:12.344796  1134 net.cpp:148] Top shape: 10 512 14 14 (1003520)
I0915 13:31:12.344812  1134 net.cpp:156] Memory required for data: 1150034080
I0915 13:31:12.344828  1134 layer_factory.hpp:77] Creating layer pool5
I0915 13:31:12.344894  1134 net.cpp:91] Creating Layer pool5
I0915 13:31:12.344914  1134 net.cpp:425] pool5 <- conv5_3
I0915 13:31:12.344938  1134 net.cpp:399] pool5 -> pool5
I0915 13:31:12.345010  1134 net.cpp:141] Setting up pool5
I0915 13:31:12.345034  1134 net.cpp:148] Top shape: 10 512 7 7 (250880)
I0915 13:31:12.345052  1134 net.cpp:156] Memory required for data: 1151037600
I0915 13:31:12.345067  1134 layer_factory.hpp:77] Creating layer fc6
I0915 13:31:12.345093  1134 net.cpp:91] Creating Layer fc6
I0915 13:31:12.345111  1134 net.cpp:425] fc6 <- pool5
I0915 13:31:12.345131  1134 net.cpp:399] fc6 -> fc6
I0915 13:31:16.412197  1134 net.cpp:141] Setting up fc6
I0915 13:31:16.412276  1134 net.cpp:148] Top shape: 10 4096 (40960)
I0915 13:31:16.412292  1134 net.cpp:156] Memory required for data: 1151201440
I0915 13:31:16.412325  1134 layer_factory.hpp:77] Creating layer relu6
I0915 13:31:16.412366  1134 net.cpp:91] Creating Layer relu6
I0915 13:31:16.412391  1134 net.cpp:425] relu6 <- fc6
I0915 13:31:16.412418  1134 net.cpp:386] relu6 -> fc6 (in-place)
I0915 13:31:16.412444  1134 net.cpp:141] Setting up relu6
I0915 13:31:16.412463  1134 net.cpp:148] Top shape: 10 4096 (40960)
I0915 13:31:16.412479  1134 net.cpp:156] Memory required for data: 1151365280
I0915 13:31:16.412495  1134 layer_factory.hpp:77] Creating layer drop6
I0915 13:31:16.412514  1134 net.cpp:91] Creating Layer drop6
I0915 13:31:16.412531  1134 net.cpp:425] drop6 <- fc6
I0915 13:31:16.412549  1134 net.cpp:386] drop6 -> fc6 (in-place)
I0915 13:31:16.412606  1134 net.cpp:141] Setting up drop6
I0915 13:31:16.412628  1134 net.cpp:148] Top shape: 10 4096 (40960)
I0915 13:31:16.412644  1134 net.cpp:156] Memory required for data: 1151529120
I0915 13:31:16.412660  1134 layer_factory.hpp:77] Creating layer fc7
I0915 13:31:16.412685  1134 net.cpp:91] Creating Layer fc7
I0915 13:31:16.412701  1134 net.cpp:425] fc7 <- fc6
I0915 13:31:16.412721  1134 net.cpp:399] fc7 -> fc7
I0915 13:31:17.089071  1134 net.cpp:141] Setting up fc7
I0915 13:31:17.089145  1134 net.cpp:148] Top shape: 10 4096 (40960)
I0915 13:31:17.089165  1134 net.cpp:156] Memory required for data: 1151692960
I0915 13:31:17.089205  1134 layer_factory.hpp:77] Creating layer relu7
I0915 13:31:17.089239  1134 net.cpp:91] Creating Layer relu7
I0915 13:31:17.089267  1134 net.cpp:425] relu7 <- fc7
I0915 13:31:17.089293  1134 net.cpp:386] relu7 -> fc7 (in-place)
I0915 13:31:17.089320  1134 net.cpp:141] Setting up relu7
I0915 13:31:17.089339  1134 net.cpp:148] Top shape: 10 4096 (40960)
I0915 13:31:17.089356  1134 net.cpp:156] Memory required for data: 1151856800
I0915 13:31:17.089373  1134 layer_factory.hpp:77] Creating layer drop7
I0915 13:31:17.089396  1134 net.cpp:91] Creating Layer drop7
I0915 13:31:17.089413  1134 net.cpp:425] drop7 <- fc7
I0915 13:31:17.089437  1134 net.cpp:386] drop7 -> fc7 (in-place)
I0915 13:31:17.089499  1134 net.cpp:141] Setting up drop7
I0915 13:31:17.089522  1134 net.cpp:148] Top shape: 10 4096 (40960)
I0915 13:31:17.089540  1134 net.cpp:156] Memory required for data: 1152020640
I0915 13:31:17.089555  1134 layer_factory.hpp:77] Creating layer fc7_drop7_0_split
I0915 13:31:17.089576  1134 net.cpp:91] Creating Layer fc7_drop7_0_split
I0915 13:31:17.089592  1134 net.cpp:425] fc7_drop7_0_split <- fc7
I0915 13:31:17.089615  1134 net.cpp:399] fc7_drop7_0_split -> fc7_drop7_0_split_0
I0915 13:31:17.089654  1134 net.cpp:399] fc7_drop7_0_split -> fc7_drop7_0_split_1
I0915 13:31:17.089735  1134 net.cpp:141] Setting up fc7_drop7_0_split
I0915 13:31:17.089759  1134 net.cpp:148] Top shape: 10 4096 (40960)
I0915 13:31:17.089778  1134 net.cpp:148] Top shape: 10 4096 (40960)
I0915 13:31:17.089794  1134 net.cpp:156] Memory required for data: 1152348320
I0915 13:31:17.089812  1134 layer_factory.hpp:77] Creating layer fc_binary_f48_Pattern
I0915 13:31:17.089841  1134 net.cpp:91] Creating Layer fc_binary_f48_Pattern
I0915 13:31:17.089859  1134 net.cpp:425] fc_binary_f48_Pattern <- fc7_drop7_0_split_0
I0915 13:31:17.089880  1134 net.cpp:399] fc_binary_f48_Pattern -> fc_binary_f48_Pattern
I0915 13:31:17.098237  1134 net.cpp:141] Setting up fc_binary_f48_Pattern
I0915 13:31:17.098269  1134 net.cpp:148] Top shape: 10 48 (480)
I0915 13:31:17.098287  1134 net.cpp:156] Memory required for data: 1152350240
I0915 13:31:17.098311  1134 layer_factory.hpp:77] Creating layer fc_classification_Pattern
I0915 13:31:17.098341  1134 net.cpp:91] Creating Layer fc_classification_Pattern
I0915 13:31:17.098361  1134 net.cpp:425] fc_classification_Pattern <- fc7_drop7_0_split_1
I0915 13:31:17.098384  1134 net.cpp:399] fc_classification_Pattern -> fc_classification_Pattern
I0915 13:31:17.099609  1134 net.cpp:141] Setting up fc_classification_Pattern
I0915 13:31:17.099637  1134 net.cpp:148] Top shape: 10 7 (70)
I0915 13:31:17.099653  1134 net.cpp:156] Memory required for data: 1152350520
I0915 13:31:17.099696  1134 layer_factory.hpp:77] Creating layer fc_classification_Pattern_fc_classification_Pattern_0_split
I0915 13:31:17.099721  1134 net.cpp:91] Creating Layer fc_classification_Pattern_fc_classification_Pattern_0_split
I0915 13:31:17.099740  1134 net.cpp:425] fc_classification_Pattern_fc_classification_Pattern_0_split <- fc_classification_Pattern
I0915 13:31:17.099761  1134 net.cpp:399] fc_classification_Pattern_fc_classification_Pattern_0_split -> fc_classification_Pattern_fc_classification_Pattern_0_split_0
I0915 13:31:17.099783  1134 net.cpp:399] fc_classification_Pattern_fc_classification_Pattern_0_split -> fc_classification_Pattern_fc_classification_Pattern_0_split_1
I0915 13:31:17.099849  1134 net.cpp:141] Setting up fc_classification_Pattern_fc_classification_Pattern_0_split
I0915 13:31:17.099874  1134 net.cpp:148] Top shape: 10 7 (70)
I0915 13:31:17.099891  1134 net.cpp:148] Top shape: 10 7 (70)
I0915 13:31:17.099907  1134 net.cpp:156] Memory required for data: 1152351080
I0915 13:31:17.099925  1134 layer_factory.hpp:77] Creating layer accuracy_at_1
I0915 13:31:17.099953  1134 net.cpp:91] Creating Layer accuracy_at_1
I0915 13:31:17.099972  1134 net.cpp:425] accuracy_at_1 <- fc_classification_Pattern_fc_classification_Pattern_0_split_0
I0915 13:31:17.099992  1134 net.cpp:425] accuracy_at_1 <- label_data_1_split_0
…
