…
I0915 14:09:28.314383  8209 net.cpp:313] The NetState phase (0) differed from the phase (1) specified by a rule in layer accuracy_at_1_Pattern
I0915 14:09:28.315235  8209 net.cpp:49] Initializing net from parameters: 
name: "docomo_VGG16"
state {
  phase: TRAIN
}
layer {
  name: "data"
  type: "Data"
  top: "data"
  top: "label"
  include {
    phase: TRAIN
  }
  transform_param {
    mirror: true
    crop_size: 224
    mean_value: 103.939
    mean_value: 116.779
    mean_value: 123.68
  }
  data_param {
    source: "PATTERN/pattern_train_lmdb/"
    batch_size: 10
    backend: LMDB
  }
}
layer {
  name: "conv1_1"
  type: "Convolution"
  bottom: "data"
  top: "conv1_1"
  param {
    lr_mult: 1
    decay_mult: 1
  }
  param {
    lr_mult: 2
    decay_mult: 0
  }
  convolution_param {
    num_output: 64
    pad: 1
    kernel_size: 3
    weight_filler {
      type: "gaussian"
      std: 0.01
    }
    bias_filler {
      type: "constant"
      value: 0
    }
  }
}
layer {
  name: "relu1_1"
  type: "ReLU"
  bottom: "conv1_1"
  top: "conv1_1"
}
layer {
  name: "conv1_2"
  type: "Convolution"
  bottom: "conv1_1"
  top: "conv1_2"
  param {
    lr_mult: 1
    decay_mult: 1
  }
  param {
    lr_mult: 2
    decay_mult: 0
  }
  convolution_param {
    num_output: 64
    pad: 1
    kernel_size: 3
    weight_filler {
      type: "gaussian"
      std: 0.01
    }
    bias_filler {
      type: "constant"
      value: 0
    }
  }
}
layer {
  name: "relu1_2"
  type: "ReLU"
  bottom: "conv1_2"
  top: "conv1_2"
}
layer {
  name: "pool1"
  type: "Pooling"
  bottom: "conv1_2"
  top: "pool1"
  pooling_param {
    pool: MAX
    kernel_size: 2
    stride: 2
  }
}
layer {
  name: "conv2_1"
  type: "Convolution"
  bottom: "pool1"
  top: "conv2_1"
  param {
    lr_mult: 1
    decay_mult: 1
  }
  param {
    lr_mult: 2
    decay_mult: 0
  }
  convolution_param {
    num_output: 128
    pad: 1
    kernel_size: 3
    weight_filler {
      type: "gaussian"
      std: 0.01
    }
    bias_filler {
      type: "constant"
      value: 0
    }
  }
}
layer {
  name: "relu2_1"
  type: "ReLU"
  bottom: "conv2_1"
  top: "conv2_1"
}
layer {
  name: "conv2_2"
  type: "Convolution"
  bottom: "conv2_1"
  top: "conv2_2"
  param {
    lr_mult: 1
    decay_mult: 1
  }
  param {
    lr_mult: 2
    decay_mult: 0
  }
  convolution_param {
    num_output: 128
    pad: 1
    kernel_size: 3
    weight_filler {
      type: "gaussian"
      std: 0.01
    }
    bias_filler {
      type: "constant"
      value: 0
    }
  }
}
layer {
  name: "relu2_2"
  type: "ReLU"
  bottom: "conv2_2"
  top: "conv2_2"
}
layer {
  name: "pool2"
  type: "Pooling"
  bottom: "conv2_2"
  top: "pool2"
  pooling_param {
    pool: MAX
    kernel_size: 2
    stride: 2
  }
}
layer {
  name: "conv3_1"
  type: "Convolution"
  bottom: "pool2"
  top: "conv3_1"
  param {
    lr_mult: 1
    decay_mult: 1
  }
  param {
    lr_mult: 2
    decay_mult: 0
  }
  convolution_param {
    num_output: 256
    pad: 1
    kernel_size: 3
    weight_filler {
      type: "gaussian"
      std: 0.01
    }
    bias_filler {
      type: "constant"
      value: 0
    }
  }
}
layer {
  name: "relu3_1"
  type: "ReLU"
  bottom: "conv3_1"
  top: "conv3_1"
}
layer {
  name: "conv3_2"
  type: "Convolution"
  bottom: "conv3_1"
  top: "conv3_2"
  param {
    lr_mult: 1
    decay_mult: 1
  }
  param {
    lr_mult: 2
    decay_mult: 0
  }
  convolution_param {
    num_output: 256
    pad: 1
    kernel_size: 3
    weight_filler {
      type: "gaussian"
      std: 0.01
    }
    bias_filler {
      type: "constant"
      value: 0
    }
  }
}
layer {
  name: "relu3_2"
  type: "ReLU"
  bottom: "conv3_2"
  top: "conv3_2"
}
layer {
  name: "conv3_3"
  type: "Convolution"
  bottom: "conv3_2"
  top: "conv3_3"
  param {
    lr_mult: 1
    decay_mult: 1
  }
  param {
    lr_mult: 2
    decay_mult: 0
  }
  convolution_param {
    num_output: 256
    pad: 1
    kernel_size: 3
    weight_filler {
      type: "gaussian"
      std: 0.01
    }
    bias_filler {
      type: "constant"
      value: 0
    }
  }
}
layer {
  name: "relu3_3"
  type: "ReLU"
  bottom: "conv3_3"
  top: "conv3_3"
}
layer {
  name: "pool3"
  type: "Pooling"
  bottom: "conv3_3"
  top: "pool3"
  pooling_param {
    pool: MAX
    kernel_size: 2
    stride: 2
  }
}
layer {
  name: "conv4_1"
  type: "Convolution"
  bottom: "pool3"
  top: "conv4_1"
  param {
    lr_mult: 1
    decay_mult: 1
  }
  param {
    lr_mult: 2
    decay_mult: 0
  }
  convolution_param {
    num_output: 512
    pad: 1
    kernel_size: 3
    weight_filler {
      type: "gaussian"
      std: 0.01
    }
    bias_filler {
      type: "constant"
      value: 0
    }
  }
}
layer {
  name: "relu4_1"
  type: "ReLU"
  bottom: "conv4_1"
  top: "conv4_1"
}
layer {
  name: "conv4_2"
  type: "Convolution"
  bottom: "conv4_1"
  top: "conv4_2"
  param {
    lr_mult: 1
    decay_mult: 1
  }
  param {
    lr_mult: 2
    decay_mult: 0
  }
  convolution_param {
    num_output: 512
    pad: 1
    kernel_size: 3
    weight_filler {
      type: "gaussian"
      std: 0.01
    }
    bias_filler {
      type: "constant"
      value: 0
    }
  }
}
layer {
  name: "relu4_2"
  type: "ReLU"
  bottom: "conv4_2"
  top: "conv4_2"
}
layer {
  name: "conv4_3"
  type: "Convolution"
  bottom: "conv4_2"
  top: "conv4_3"
  param {
    lr_mult: 1
    decay_mult: 1
  }
  param {
    lr_mult: 2
    decay_mult: 0
  }
  convolution_param {
    num_output: 512
    pad: 1
    kernel_size: 3
    weight_filler {
      type: "gaussian"
      std: 0.01
    }
    bias_filler {
      type: "constant"
      value: 0
    }
  }
}
layer {
  name: "relu4_3"
  type: "ReLU"
  bottom: "conv4_3"
  top: "conv4_3"
}
layer {
  name: "pool4"
  type: "Pooling"
  bottom: "conv4_3"
  top: "pool4"
  pooling_param {
    pool: MAX
    kernel_size: 2
    stride: 2
  }
}
layer {
  name: "conv5_1"
  type: "Convolution"
  bottom: "pool4"
  top: "conv5_1"
  param {
    lr_mult: 1
    decay_mult: 1
  }
  param {
    lr_mult: 2
    decay_mult: 0
  }
  convolution_param {
    num_output: 512
    pad: 1
    kernel_size: 3
    weight_filler {
      type: "gaussian"
      std: 0.01
    }
    bias_filler {
      type: "constant"
      value: 0
    }
  }
}
layer {
  name: "relu5_1"
  type: "ReLU"
  bottom: "conv5_1"
  top: "conv5_1"
}
layer {
  name: "conv5_2"
  type: "Convolution"
  bottom: "conv5_1"
  top: "conv5_2"
  param {
    lr_mult: 1
    decay_mult: 1
  }
  param {
    lr_mult: 2
    decay_mult: 0
  }
  convolution_param {
    num_output: 512
    pad: 1
    kernel_size: 3
    weight_filler {
      type: "gaussian"
      std: 0.01
    }
    bias_filler {
      type: "constant"
      value: 0
    }
  }
}
layer {
  name: "relu5_2"
  type: "ReLU"
  bottom: "conv5_2"
  top: "conv5_2"
}
layer {
  name: "conv5_3"
  type: "Convolution"
  bottom: "conv5_2"
  top: "conv5_3"
  param {
    lr_mult: 1
    decay_mult: 1
  }
  param {
    lr_mult: 2
    decay_mult: 0
  }
  convolution_param {
    num_output: 512
    pad: 1
    kernel_size: 3
    weight_filler {
      type: "gaussian"
      std: 0.01
    }
    bias_filler {
      type: "constant"
      value: 0
    }
  }
}
layer {
  name: "relu5_3"
  type: "ReLU"
  bottom: "conv5_3"
  top: "conv5_3"
}
layer {
  name: "pool5"
  type: "Pooling"
  bottom: "conv5_3"
  top: "pool5"
  pooling_param {
    pool: MAX
    kernel_size: 2
    stride: 2
  }
}
layer {
  name: "fc6"
  type: "InnerProduct"
  bottom: "pool5"
  top: "fc6"
  param {
    lr_mult: 1
    decay_mult: 1
  }
  param {
    lr_mult: 2
    decay_mult: 0
  }
  inner_product_param {
    num_output: 4096
    weight_filler {
      type: "gaussian"
      std: 0.005
    }
    bias_filler {
      type: "constant"
      value: 0.1
    }
  }
}
layer {
  name: "relu6"
  type: "ReLU"
  bottom: "fc6"
  top: "fc6"
}
layer {
  name: "drop6"
  type: "Dropout"
  bottom: "fc6"
  top: "fc6"
  dropout_param {
    dropout_ratio: 0.5
  }
}
layer {
  name: "fc7"
  type: "InnerProduct"
  bottom: "fc6"
  top: "fc7"
  param {
    lr_mult: 1
    decay_mult: 1
  }
  param {
    lr_mult: 2
    decay_mult: 0
  }
  inner_product_param {
    num_output: 4096
    weight_filler {
      type: "gaussian"
      std: 0.005
    }
    bias_filler {
      type: "constant"
      value: 0.1
    }
  }
}
layer {
  name: "relu7"
  type: "ReLU"
  bottom: "fc7"
  top: "fc7"
}
layer {
  name: "drop7"
  type: "Dropout"
  bottom: "fc7"
  top: "fc7"
  dropout_param {
    dropout_ratio: 0.5
  }
}
layer {
  name: "fc8_binary_Type"
  type: "InnerProduct"
  bottom: "fc7"
  top: "fc8_binary_Type"
  param {
    lr_mult: 0
    decay_mult: 0
  }
  param {
    lr_mult: 0
    decay_mult: 0
  }
  inner_product_param {
    num_output: 12
    weight_filler {
      type: "gaussian"
      std: 0.005
    }
    bias_filler {
      type: "constant"
      value: 0.1
    }
  }
}
layer {
  name: "fc8_classification_Type"
  type: "InnerProduct"
  bottom: "fc7"
  top: "fc8_classification_Type"
  param {
    lr_mult: 0
    decay_mult: 0
  }
  param {
    lr_mult: 0
    decay_mult: 0
  }
  inner_product_param {
    num_output: 25
    weight_filler {
      type: "gaussian"
      std: 0.05
    }
    bias_filler {
      type: "constant"
      value: 0.1
    }
  }
}
layer {
  name: "fc_binary_Pattern_f24"
  type: "InnerProduct"
  bottom: "fc7"
  top: "fc_binary_Pattern_f24"
  param {
    lr_mult: 20
    decay_mult: 1
  }
  param {
    lr_mult: 40
    decay_mult: 0
  }
  inner_product_param {
    num_output: 24
    weight_filler {
      type: "gaussian"
      std: 0.005
    }
    bias_filler {
      type: "constant"
      value: 0.1
    }
  }
}
layer {
  name: "fc_classification_Pattern"
  type: "InnerProduct"
  bottom: "fc7"
  top: "fc_classification_Pattern"
  param {
    lr_mult: 1
    decay_mult: 1
  }
  param {
    lr_mult: 2
    decay_mult: 0
  }
  inner_product_param {
    num_output: 7
    weight_filler {
      type: "gaussian"
      std: 0.05
    }
    bias_filler {
      type: "constant"
      value: 0.1
    }
  }
}
layer {
  name: "loss_hashing_Type"
  type: "HashingLoss"
  bottom: "fc8_binary_Type"
  bottom: "label"
  top: "loss_hashing_Type"
  loss_weight: 0
  hashing_loss_param {
    bi_margin: 24
    tradeoff: 0.01
  }
}
layer {
  name: "loss_classification_Type"
  type: "SoftmaxWithLoss"
  bottom: "fc8_classification_Type"
  bottom: "label"
  top: "loss_classification_Type"
  loss_weight: 0
}
layer {
  name: "loss_hashing_Pattern"
  type: "HashingLoss"
  bottom: "fc_binary_Pattern_f24"
  bottom: "label"
  top: "loss_hashing_Pattern"
  loss_weight: 0.6
  hashing_loss_param {
    bi_margin: 48
    tradeoff: 0.01
  }
}
layer {
  name: "loss_classification_Pattern"
  type: "SoftmaxWithLoss"
  bottom: "fc_classification_Pattern"
  bottom: "label"
  top: "loss_classification_Pattern"
}
I0915 14:09:28.322293  8209 layer_factory.hpp:77] Creating layer data
I0915 14:09:28.323492  8209 net.cpp:91] Creating Layer data
I0915 14:09:28.323668  8209 net.cpp:399] data -> data
I0915 14:09:28.323797  8209 net.cpp:399] data -> label
I0915 14:09:28.360819  8213 db_lmdb.cpp:38] Opened lmdb PATTERN/pattern_train_lmdb/
I0915 14:09:28.390645  8209 data_layer.cpp:41] output data size: 10,3,224,224
I0915 14:09:28.412976  8209 net.cpp:141] Setting up data
I0915 14:09:28.413077  8209 net.cpp:148] Top shape: 10 3 224 224 (1505280)
I0915 14:09:28.413107  8209 net.cpp:148] Top shape: 10 1 1 1 (10)
I0915 14:09:28.413130  8209 net.cpp:156] Memory required for data: 6021160
I0915 14:09:28.413164  8209 layer_factory.hpp:77] Creating layer label_data_1_split
I0915 14:09:28.413206  8209 net.cpp:91] Creating Layer label_data_1_split
I0915 14:09:28.413288  8209 net.cpp:425] label_data_1_split <- label
I0915 14:09:28.413336  8209 net.cpp:399] label_data_1_split -> label_data_1_split_0
I0915 14:09:28.413373  8209 net.cpp:399] label_data_1_split -> label_data_1_split_1
I0915 14:09:28.413401  8209 net.cpp:399] label_data_1_split -> label_data_1_split_2
I0915 14:09:28.413434  8209 net.cpp:399] label_data_1_split -> label_data_1_split_3
I0915 14:09:28.413574  8209 net.cpp:141] Setting up label_data_1_split
I0915 14:09:28.413645  8209 net.cpp:148] Top shape: 10 1 1 1 (10)
I0915 14:09:28.413686  8209 net.cpp:148] Top shape: 10 1 1 1 (10)
I0915 14:09:28.413722  8209 net.cpp:148] Top shape: 10 1 1 1 (10)
I0915 14:09:28.413755  8209 net.cpp:148] Top shape: 10 1 1 1 (10)
I0915 14:09:28.413785  8209 net.cpp:156] Memory required for data: 6021320
I0915 14:09:28.413816  8209 layer_factory.hpp:77] Creating layer conv1_1
I0915 14:09:28.413898  8209 net.cpp:91] Creating Layer conv1_1
I0915 14:09:28.413938  8209 net.cpp:425] conv1_1 <- data
I0915 14:09:28.413983  8209 net.cpp:399] conv1_1 -> conv1_1
I0915 14:09:28.417618  8209 net.cpp:141] Setting up conv1_1
I0915 14:09:28.417726  8209 net.cpp:148] Top shape: 10 64 224 224 (32112640)
I0915 14:09:28.417762  8209 net.cpp:156] Memory required for data: 134471880
I0915 14:09:28.417829  8209 layer_factory.hpp:77] Creating layer relu1_1
I0915 14:09:28.417886  8209 net.cpp:91] Creating Layer relu1_1
I0915 14:09:28.417922  8209 net.cpp:425] relu1_1 <- conv1_1
I0915 14:09:28.417959  8209 net.cpp:386] relu1_1 -> conv1_1 (in-place)
I0915 14:09:28.418009  8209 net.cpp:141] Setting up relu1_1
I0915 14:09:28.418046  8209 net.cpp:148] Top shape: 10 64 224 224 (32112640)
I0915 14:09:28.418078  8209 net.cpp:156] Memory required for data: 262922440
I0915 14:09:28.418109  8209 layer_factory.hpp:77] Creating layer conv1_2
I0915 14:09:28.418164  8209 net.cpp:91] Creating Layer conv1_2
I0915 14:09:28.418200  8209 net.cpp:425] conv1_2 <- conv1_1
I0915 14:09:28.418246  8209 net.cpp:399] conv1_2 -> conv1_2
I0915 14:09:28.421540  8209 net.cpp:141] Setting up conv1_2
I0915 14:09:28.421597  8209 net.cpp:148] Top shape: 10 64 224 224 (32112640)
I0915 14:09:28.421641  8209 net.cpp:156] Memory required for data: 391373000
I0915 14:09:28.421689  8209 layer_factory.hpp:77] Creating layer relu1_2
I0915 14:09:28.421730  8209 net.cpp:91] Creating Layer relu1_2
I0915 14:09:28.421762  8209 net.cpp:425] relu1_2 <- conv1_2
I0915 14:09:28.421798  8209 net.cpp:386] relu1_2 -> conv1_2 (in-place)
I0915 14:09:28.421838  8209 net.cpp:141] Setting up relu1_2
I0915 14:09:28.421875  8209 net.cpp:148] Top shape: 10 64 224 224 (32112640)
I0915 14:09:28.421906  8209 net.cpp:156] Memory required for data: 519823560
I0915 14:09:28.421937  8209 layer_factory.hpp:77] Creating layer pool1
I0915 14:09:28.421983  8209 net.cpp:91] Creating Layer pool1
I0915 14:09:28.422016  8209 net.cpp:425] pool1 <- conv1_2
I0915 14:09:28.422052  8209 net.cpp:399] pool1 -> pool1
I0915 14:09:28.422196  8209 net.cpp:141] Setting up pool1
I0915 14:09:28.422248  8209 net.cpp:148] Top shape: 10 64 112 112 (8028160)
I0915 14:09:28.422281  8209 net.cpp:156] Memory required for data: 551936200
I0915 14:09:28.422312  8209 layer_factory.hpp:77] Creating layer conv2_1
I0915 14:09:28.422361  8209 net.cpp:91] Creating Layer conv2_1
I0915 14:09:28.422397  8209 net.cpp:425] conv2_1 <- pool1
I0915 14:09:28.422436  8209 net.cpp:399] conv2_1 -> conv2_1
I0915 14:09:28.430137  8209 net.cpp:141] Setting up conv2_1
I0915 14:09:28.430203  8209 net.cpp:148] Top shape: 10 128 112 112 (16056320)
I0915 14:09:28.430238  8209 net.cpp:156] Memory required for data: 616161480
I0915 14:09:28.430285  8209 layer_factory.hpp:77] Creating layer relu2_1
I0915 14:09:28.430328  8209 net.cpp:91] Creating Layer relu2_1
I0915 14:09:28.430363  8209 net.cpp:425] relu2_1 <- conv2_1
I0915 14:09:28.430407  8209 net.cpp:386] relu2_1 -> conv2_1 (in-place)
I0915 14:09:28.430449  8209 net.cpp:141] Setting up relu2_1
I0915 14:09:28.430487  8209 net.cpp:148] Top shape: 10 128 112 112 (16056320)
I0915 14:09:28.430518  8209 net.cpp:156] Memory required for data: 680386760
I0915 14:09:28.430598  8209 layer_factory.hpp:77] Creating layer conv2_2
I0915 14:09:28.430654  8209 net.cpp:91] Creating Layer conv2_2
I0915 14:09:28.430688  8209 net.cpp:425] conv2_2 <- conv2_1
I0915 14:09:28.430727  8209 net.cpp:399] conv2_2 -> conv2_2
I0915 14:09:28.441601  8209 net.cpp:141] Setting up conv2_2
I0915 14:09:28.441669  8209 net.cpp:148] Top shape: 10 128 112 112 (16056320)
I0915 14:09:28.441704  8209 net.cpp:156] Memory required for data: 744612040
I0915 14:09:28.441743  8209 layer_factory.hpp:77] Creating layer relu2_2
I0915 14:09:28.441781  8209 net.cpp:91] Creating Layer relu2_2
I0915 14:09:28.441813  8209 net.cpp:425] relu2_2 <- conv2_2
I0915 14:09:28.441849  8209 net.cpp:386] relu2_2 -> conv2_2 (in-place)
I0915 14:09:28.441889  8209 net.cpp:141] Setting up relu2_2
I0915 14:09:28.441925  8209 net.cpp:148] Top shape: 10 128 112 112 (16056320)
I0915 14:09:28.441956  8209 net.cpp:156] Memory required for data: 808837320
I0915 14:09:28.441985  8209 layer_factory.hpp:77] Creating layer pool2
I0915 14:09:28.442023  8209 net.cpp:91] Creating Layer pool2
I0915 14:09:28.442054  8209 net.cpp:425] pool2 <- conv2_2
I0915 14:09:28.442096  8209 net.cpp:399] pool2 -> pool2
I0915 14:09:28.442212  8209 net.cpp:141] Setting up pool2
I0915 14:09:28.442260  8209 net.cpp:148] Top shape: 10 128 56 56 (4014080)
I0915 14:09:28.442291  8209 net.cpp:156] Memory required for data: 824893640
I0915 14:09:28.442322  8209 layer_factory.hpp:77] Creating layer conv3_1
I0915 14:09:28.442373  8209 net.cpp:91] Creating Layer conv3_1
I0915 14:09:28.442409  8209 net.cpp:425] conv3_1 <- pool2
I0915 14:09:28.442447  8209 net.cpp:399] conv3_1 -> conv3_1
I0915 14:09:28.466053  8209 net.cpp:141] Setting up conv3_1
I0915 14:09:28.466114  8209 net.cpp:148] Top shape: 10 256 56 56 (8028160)
I0915 14:09:28.466147  8209 net.cpp:156] Memory required for data: 857006280
I0915 14:09:28.466193  8209 layer_factory.hpp:77] Creating layer relu3_1
I0915 14:09:28.466233  8209 net.cpp:91] Creating Layer relu3_1
I0915 14:09:28.466266  8209 net.cpp:425] relu3_1 <- conv3_1
I0915 14:09:28.466307  8209 net.cpp:386] relu3_1 -> conv3_1 (in-place)
I0915 14:09:28.466351  8209 net.cpp:141] Setting up relu3_1
I0915 14:09:28.466387  8209 net.cpp:148] Top shape: 10 256 56 56 (8028160)
I0915 14:09:28.466418  8209 net.cpp:156] Memory required for data: 889118920
I0915 14:09:28.466449  8209 layer_factory.hpp:77] Creating layer conv3_2
I0915 14:09:28.466496  8209 net.cpp:91] Creating Layer conv3_2
I0915 14:09:28.466531  8209 net.cpp:425] conv3_2 <- conv3_1
I0915 14:09:28.466569  8209 net.cpp:399] conv3_2 -> conv3_2
I0915 14:09:28.512919  8209 net.cpp:141] Setting up conv3_2
I0915 14:09:28.512990  8209 net.cpp:148] Top shape: 10 256 56 56 (8028160)
I0915 14:09:28.513031  8209 net.cpp:156] Memory required for data: 921231560
I0915 14:09:28.513073  8209 layer_factory.hpp:77] Creating layer relu3_2
I0915 14:09:28.513113  8209 net.cpp:91] Creating Layer relu3_2
I0915 14:09:28.513144  8209 net.cpp:425] relu3_2 <- conv3_2
I0915 14:09:28.513180  8209 net.cpp:386] relu3_2 -> conv3_2 (in-place)
I0915 14:09:28.513221  8209 net.cpp:141] Setting up relu3_2
I0915 14:09:28.513257  8209 net.cpp:148] Top shape: 10 256 56 56 (8028160)
I0915 14:09:28.513288  8209 net.cpp:156] Memory required for data: 953344200
I0915 14:09:28.513319  8209 layer_factory.hpp:77] Creating layer conv3_3
I0915 14:09:28.513371  8209 net.cpp:91] Creating Layer conv3_3
I0915 14:09:28.513407  8209 net.cpp:425] conv3_3 <- conv3_2
I0915 14:09:28.513453  8209 net.cpp:399] conv3_3 -> conv3_3
I0915 14:09:28.559871  8209 net.cpp:141] Setting up conv3_3
I0915 14:09:28.559933  8209 net.cpp:148] Top shape: 10 256 56 56 (8028160)
I0915 14:09:28.559967  8209 net.cpp:156] Memory required for data: 985456840
I0915 14:09:28.560008  8209 layer_factory.hpp:77] Creating layer relu3_3
I0915 14:09:28.560046  8209 net.cpp:91] Creating Layer relu3_3
I0915 14:09:28.560087  8209 net.cpp:425] relu3_3 <- conv3_3
I0915 14:09:28.560123  8209 net.cpp:386] relu3_3 -> conv3_3 (in-place)
I0915 14:09:28.560165  8209 net.cpp:141] Setting up relu3_3
I0915 14:09:28.560245  8209 net.cpp:148] Top shape: 10 256 56 56 (8028160)
I0915 14:09:28.560279  8209 net.cpp:156] Memory required for data: 1017569480
I0915 14:09:28.560310  8209 layer_factory.hpp:77] Creating layer pool3
I0915 14:09:28.560348  8209 net.cpp:91] Creating Layer pool3
I0915 14:09:28.560380  8209 net.cpp:425] pool3 <- conv3_3
I0915 14:09:28.560416  8209 net.cpp:399] pool3 -> pool3
I0915 14:09:28.560539  8209 net.cpp:141] Setting up pool3
I0915 14:09:28.560586  8209 net.cpp:148] Top shape: 10 256 28 28 (2007040)
I0915 14:09:28.560617  8209 net.cpp:156] Memory required for data: 1025597640
I0915 14:09:28.560648  8209 layer_factory.hpp:77] Creating layer conv4_1
I0915 14:09:28.560701  8209 net.cpp:91] Creating Layer conv4_1
I0915 14:09:28.560737  8209 net.cpp:425] conv4_1 <- pool3
I0915 14:09:28.560781  8209 net.cpp:399] conv4_1 -> conv4_1
I0915 14:09:28.653815  8209 net.cpp:141] Setting up conv4_1
I0915 14:09:28.653884  8209 net.cpp:148] Top shape: 10 512 28 28 (4014080)
I0915 14:09:28.653919  8209 net.cpp:156] Memory required for data: 1041653960
I0915 14:09:28.653959  8209 layer_factory.hpp:77] Creating layer relu4_1
I0915 14:09:28.654006  8209 net.cpp:91] Creating Layer relu4_1
I0915 14:09:28.654038  8209 net.cpp:425] relu4_1 <- conv4_1
I0915 14:09:28.654073  8209 net.cpp:386] relu4_1 -> conv4_1 (in-place)
I0915 14:09:28.654114  8209 net.cpp:141] Setting up relu4_1
I0915 14:09:28.654151  8209 net.cpp:148] Top shape: 10 512 28 28 (4014080)
I0915 14:09:28.654183  8209 net.cpp:156] Memory required for data: 1057710280
I0915 14:09:28.654213  8209 layer_factory.hpp:77] Creating layer conv4_2
I0915 14:09:28.654268  8209 net.cpp:91] Creating Layer conv4_2
I0915 14:09:28.654302  8209 net.cpp:425] conv4_2 <- conv4_1
I0915 14:09:28.654341  8209 net.cpp:399] conv4_2 -> conv4_2
I0915 14:09:28.809034  8209 net.cpp:141] Setting up conv4_2
I0915 14:09:28.809093  8209 net.cpp:148] Top shape: 10 512 28 28 (4014080)
I0915 14:09:28.809109  8209 net.cpp:156] Memory required for data: 1073766600
I0915 14:09:28.809136  8209 layer_factory.hpp:77] Creating layer relu4_2
I0915 14:09:28.809165  8209 net.cpp:91] Creating Layer relu4_2
I0915 14:09:28.809182  8209 net.cpp:425] relu4_2 <- conv4_2
I0915 14:09:28.809204  8209 net.cpp:386] relu4_2 -> conv4_2 (in-place)
I0915 14:09:28.809227  8209 net.cpp:141] Setting up relu4_2
I0915 14:09:28.809245  8209 net.cpp:148] Top shape: 10 512 28 28 (4014080)
I0915 14:09:28.809260  8209 net.cpp:156] Memory required for data: 1089822920
I0915 14:09:28.809276  8209 layer_factory.hpp:77] Creating layer conv4_3
I0915 14:09:28.809303  8209 net.cpp:91] Creating Layer conv4_3
I0915 14:09:28.809319  8209 net.cpp:425] conv4_3 <- conv4_2
I0915 14:09:28.809339  8209 net.cpp:399] conv4_3 -> conv4_3
I0915 14:09:28.903432  8209 net.cpp:141] Setting up conv4_3
I0915 14:09:28.903479  8209 net.cpp:148] Top shape: 10 512 28 28 (4014080)
I0915 14:09:28.903501  8209 net.cpp:156] Memory required for data: 1105879240
I0915 14:09:28.903522  8209 layer_factory.hpp:77] Creating layer relu4_3
I0915 14:09:28.903544  8209 net.cpp:91] Creating Layer relu4_3
I0915 14:09:28.903561  8209 net.cpp:425] relu4_3 <- conv4_3
I0915 14:09:28.903580  8209 net.cpp:386] relu4_3 -> conv4_3 (in-place)
I0915 14:09:28.903601  8209 net.cpp:141] Setting up relu4_3
I0915 14:09:28.903620  8209 net.cpp:148] Top shape: 10 512 28 28 (4014080)
I0915 14:09:28.903635  8209 net.cpp:156] Memory required for data: 1121935560
I0915 14:09:28.903650  8209 layer_factory.hpp:77] Creating layer pool4
I0915 14:09:28.903674  8209 net.cpp:91] Creating Layer pool4
I0915 14:09:28.903692  8209 net.cpp:425] pool4 <- conv4_3
I0915 14:09:28.903710  8209 net.cpp:399] pool4 -> pool4
I0915 14:09:28.903770  8209 net.cpp:141] Setting up pool4
I0915 14:09:28.903794  8209 net.cpp:148] Top shape: 10 512 14 14 (1003520)
I0915 14:09:28.903810  8209 net.cpp:156] Memory required for data: 1125949640
I0915 14:09:28.903825  8209 layer_factory.hpp:77] Creating layer conv5_1
I0915 14:09:28.903857  8209 net.cpp:91] Creating Layer conv5_1
I0915 14:09:28.903919  8209 net.cpp:425] conv5_1 <- pool4
I0915 14:09:28.903941  8209 net.cpp:399] conv5_1 -> conv5_1
I0915 14:09:28.994917  8209 net.cpp:141] Setting up conv5_1
I0915 14:09:28.994974  8209 net.cpp:148] Top shape: 10 512 14 14 (1003520)
I0915 14:09:28.994990  8209 net.cpp:156] Memory required for data: 1129963720
I0915 14:09:28.995010  8209 layer_factory.hpp:77] Creating layer relu5_1
I0915 14:09:28.995044  8209 net.cpp:91] Creating Layer relu5_1
I0915 14:09:28.995062  8209 net.cpp:425] relu5_1 <- conv5_1
I0915 14:09:28.995081  8209 net.cpp:386] relu5_1 -> conv5_1 (in-place)
I0915 14:09:28.995102  8209 net.cpp:141] Setting up relu5_1
I0915 14:09:28.995121  8209 net.cpp:148] Top shape: 10 512 14 14 (1003520)
I0915 14:09:28.995136  8209 net.cpp:156] Memory required for data: 1133977800
I0915 14:09:28.995152  8209 layer_factory.hpp:77] Creating layer conv5_2
I0915 14:09:28.995182  8209 net.cpp:91] Creating Layer conv5_2
I0915 14:09:28.995199  8209 net.cpp:425] conv5_2 <- conv5_1
I0915 14:09:28.995219  8209 net.cpp:399] conv5_2 -> conv5_2
I0915 14:09:29.088585  8209 net.cpp:141] Setting up conv5_2
I0915 14:09:29.088646  8209 net.cpp:148] Top shape: 10 512 14 14 (1003520)
I0915 14:09:29.088665  8209 net.cpp:156] Memory required for data: 1137991880
I0915 14:09:29.088697  8209 layer_factory.hpp:77] Creating layer relu5_2
I0915 14:09:29.088726  8209 net.cpp:91] Creating Layer relu5_2
I0915 14:09:29.088750  8209 net.cpp:425] relu5_2 <- conv5_2
I0915 14:09:29.088771  8209 net.cpp:386] relu5_2 -> conv5_2 (in-place)
I0915 14:09:29.088795  8209 net.cpp:141] Setting up relu5_2
I0915 14:09:29.088814  8209 net.cpp:148] Top shape: 10 512 14 14 (1003520)
I0915 14:09:29.088829  8209 net.cpp:156] Memory required for data: 1142005960
I0915 14:09:29.088845  8209 layer_factory.hpp:77] Creating layer conv5_3
I0915 14:09:29.088871  8209 net.cpp:91] Creating Layer conv5_3
I0915 14:09:29.088888  8209 net.cpp:425] conv5_3 <- conv5_2
I0915 14:09:29.088914  8209 net.cpp:399] conv5_3 -> conv5_3
I0915 14:09:29.181708  8209 net.cpp:141] Setting up conv5_3
I0915 14:09:29.181753  8209 net.cpp:148] Top shape: 10 512 14 14 (1003520)
I0915 14:09:29.181777  8209 net.cpp:156] Memory required for data: 1146020040
I0915 14:09:29.181798  8209 layer_factory.hpp:77] Creating layer relu5_3
I0915 14:09:29.181819  8209 net.cpp:91] Creating Layer relu5_3
I0915 14:09:29.181836  8209 net.cpp:425] relu5_3 <- conv5_3
I0915 14:09:29.181859  8209 net.cpp:386] relu5_3 -> conv5_3 (in-place)
I0915 14:09:29.181882  8209 net.cpp:141] Setting up relu5_3
I0915 14:09:29.181900  8209 net.cpp:148] Top shape: 10 512 14 14 (1003520)
I0915 14:09:29.181916  8209 net.cpp:156] Memory required for data: 1150034120
I0915 14:09:29.181932  8209 layer_factory.hpp:77] Creating layer pool5
I0915 14:09:29.181982  8209 net.cpp:91] Creating Layer pool5
I0915 14:09:29.182000  8209 net.cpp:425] pool5 <- conv5_3
I0915 14:09:29.182023  8209 net.cpp:399] pool5 -> pool5
I0915 14:09:29.182086  8209 net.cpp:141] Setting up pool5
I0915 14:09:29.182111  8209 net.cpp:148] Top shape: 10 512 7 7 (250880)
I0915 14:09:29.182126  8209 net.cpp:156] Memory required for data: 1151037640
I0915 14:09:29.182142  8209 layer_factory.hpp:77] Creating layer fc6
I0915 14:09:29.182178  8209 net.cpp:91] Creating Layer fc6
I0915 14:09:29.182196  8209 net.cpp:425] fc6 <- pool5
I0915 14:09:29.182219  8209 net.cpp:399] fc6 -> fc6
I0915 14:09:33.098773  8209 net.cpp:141] Setting up fc6
I0915 14:09:33.098865  8209 net.cpp:148] Top shape: 10 4096 (40960)
I0915 14:09:33.098882  8209 net.cpp:156] Memory required for data: 1151201480
I0915 14:09:33.098915  8209 layer_factory.hpp:77] Creating layer relu6
I0915 14:09:33.098951  8209 net.cpp:91] Creating Layer relu6
I0915 14:09:33.098976  8209 net.cpp:425] relu6 <- fc6
I0915 14:09:33.098999  8209 net.cpp:386] relu6 -> fc6 (in-place)
I0915 14:09:33.099025  8209 net.cpp:141] Setting up relu6
I0915 14:09:33.099042  8209 net.cpp:148] Top shape: 10 4096 (40960)
I0915 14:09:33.099057  8209 net.cpp:156] Memory required for data: 1151365320
I0915 14:09:33.099072  8209 layer_factory.hpp:77] Creating layer drop6
I0915 14:09:33.099151  8209 net.cpp:91] Creating Layer drop6
I0915 14:09:33.099170  8209 net.cpp:425] drop6 <- fc6
I0915 14:09:33.099187  8209 net.cpp:386] drop6 -> fc6 (in-place)
I0915 14:09:33.099267  8209 net.cpp:141] Setting up drop6
I0915 14:09:33.099292  8209 net.cpp:148] Top shape: 10 4096 (40960)
I0915 14:09:33.099306  8209 net.cpp:156] Memory required for data: 1151529160
I0915 14:09:33.099321  8209 layer_factory.hpp:77] Creating layer fc7
I0915 14:09:33.099344  8209 net.cpp:91] Creating Layer fc7
I0915 14:09:33.099359  8209 net.cpp:425] fc7 <- fc6
I0915 14:09:33.099380  8209 net.cpp:399] fc7 -> fc7
I0915 14:09:33.731485  8209 net.cpp:141] Setting up fc7
I0915 14:09:33.731577  8209 net.cpp:148] Top shape: 10 4096 (40960)
I0915 14:09:33.731595  8209 net.cpp:156] Memory required for data: 1151693000
I0915 14:09:33.731631  8209 layer_factory.hpp:77] Creating layer relu7
I0915 14:09:33.731673  8209 net.cpp:91] Creating Layer relu7
I0915 14:09:33.731698  8209 net.cpp:425] relu7 <- fc7
I0915 14:09:33.731721  8209 net.cpp:386] relu7 -> fc7 (in-place)
I0915 14:09:33.731747  8209 net.cpp:141] Setting up relu7
I0915 14:09:33.731765  8209 net.cpp:148] Top shape: 10 4096 (40960)
I0915 14:09:33.731779  8209 net.cpp:156] Memory required for data: 1151856840
I0915 14:09:33.731794  8209 layer_factory.hpp:77] Creating layer drop7
I0915 14:09:33.731817  8209 net.cpp:91] Creating Layer drop7
I0915 14:09:33.731832  8209 net.cpp:425] drop7 <- fc7
I0915 14:09:33.731853  8209 net.cpp:386] drop7 -> fc7 (in-place)
I0915 14:09:33.731910  8209 net.cpp:141] Setting up drop7
I0915 14:09:33.731932  8209 net.cpp:148] Top shape: 10 4096 (40960)
I0915 14:09:33.731947  8209 net.cpp:156] Memory required for data: 1152020680
I0915 14:09:33.731962  8209 layer_factory.hpp:77] Creating layer fc7_drop7_0_split
I0915 14:09:33.731984  8209 net.cpp:91] Creating Layer fc7_drop7_0_split
I0915 14:09:33.732000  8209 net.cpp:425] fc7_drop7_0_split <- fc7
I0915 14:09:33.732018  8209 net.cpp:399] fc7_drop7_0_split -> fc7_drop7_0_split_0
I0915 14:09:33.732041  8209 net.cpp:399] fc7_drop7_0_split -> fc7_drop7_0_split_1
I0915 14:09:33.732062  8209 net.cpp:399] fc7_drop7_0_split -> fc7_drop7_0_split_2
I0915 14:09:33.732082  8209 net.cpp:399] fc7_drop7_0_split -> fc7_drop7_0_split_3
I0915 14:09:33.732161  8209 net.cpp:141] Setting up fc7_drop7_0_split
I0915 14:09:33.732182  8209 net.cpp:148] Top shape: 10 4096 (40960)
I0915 14:09:33.732199  8209 net.cpp:148] Top shape: 10 4096 (40960)
I0915 14:09:33.732215  8209 net.cpp:148] Top shape: 10 4096 (40960)
I0915 14:09:33.732231  8209 net.cpp:148] Top shape: 10 4096 (40960)
I0915 14:09:33.732245  8209 net.cpp:156] Memory required for data: 1152676040
I0915 14:09:33.732260  8209 layer_factory.hpp:77] Creating layer fc8_binary_Type
I0915 14:09:33.732286  8209 net.cpp:91] Creating Layer fc8_binary_Type
I0915 14:09:33.732303  8209 net.cpp:425] fc8_binary_Type <- fc7_drop7_0_split_0
I0915 14:09:33.732322  8209 net.cpp:399] fc8_binary_Type -> fc8_binary_Type
I0915 14:09:33.734302  8209 net.cpp:141] Setting up fc8_binary_Type
I0915 14:09:33.734328  8209 net.cpp:148] Top shape: 10 12 (120)
I0915 14:09:33.734344  8209 net.cpp:156] Memory required for data: 1152676520
I0915 14:09:33.734362  8209 layer_factory.hpp:77] Creating layer fc8_classification_Type
I0915 14:09:33.734382  8209 net.cpp:91] Creating Layer fc8_classification_Type
I0915 14:09:33.734400  8209 net.cpp:425] fc8_classification_Type <- fc7_drop7_0_split_1
I0915 14:09:33.734417  8209 net.cpp:399] fc8_classification_Type -> fc8_classification_Type
I0915 14:09:33.739020  8209 net.cpp:141] Setting up fc8_classification_Type
I0915 14:09:33.739049  8209 net.cpp:148] Top shape: 10 25 (250)
I0915 14:09:33.739065  8209 net.cpp:156] Memory required for data: 1152677520
I0915 14:09:33.739109  8209 layer_factory.hpp:77] Creating layer fc_binary_Pattern_f24
I0915 14:09:33.739133  8209 net.cpp:91] Creating Layer fc_binary_Pattern_f24
I0915 14:09:33.739150  8209 net.cpp:425] fc_binary_Pattern_f24 <- fc7_drop7_0_split_2
I0915 14:09:33.739169  8209 net.cpp:399] fc_binary_Pattern_f24 -> fc_binary_Pattern_f24
I0915 14:09:33.742914  8209 net.cpp:141] Setting up fc_binary_Pattern_f24
I0915 14:09:33.742944  8209 net.cpp:148] Top shape: 10 24 (240)
I0915 14:09:33.742960  8209 net.cpp:156] Memory required for data: 1152678480
I0915 14:09:33.742980  8209 layer_factory.hpp:77] Creating layer fc_classification_Pattern
I0915 14:09:33.743000  8209 net.cpp:91] Creating Layer fc_classification_Pattern
I0915 14:09:33.743016  8209 net.cpp:425] fc_classification_Pattern <- fc7_drop7_0_split_3
I0915 14:09:33.743041  8209 net.cpp:399] fc_classification_Pattern -> fc_classification_Pattern
I0915 14:09:33.744211  8209 net.cpp:141] Setting up fc_classification_Pattern
I0915 14:09:33.744236  8209 net.cpp:148] Top shape: 10 7 (70)
I0915 14:09:33.744251  8209 net.cpp:156] Memory required for data: 1152678760
I0915 14:09:33.744271  8209 layer_factory.hpp:77] Creating layer loss_hashing_Type
I0915 14:09:33.744299  8209 net.cpp:91] Creating Layer loss_hashing_Type
I0915 14:09:33.744316  8209 net.cpp:425] loss_hashing_Type <- fc8_binary_Type
I0915 14:09:33.744333  8209 net.cpp:425] loss_hashing_Type <- label_data_1_split_0
…
I0915 14:09:33.747751  8209 net.cpp:313] The NetState phase (1) differed from the phase (0) specified by a rule in layer data
I0915 14:09:33.748219  8209 net.cpp:49] Initializing net from parameters: 
name: "docomo_VGG16"
state {
  phase: TEST
}
layer {
  name: "data"
  type: "Data"
  top: "data"
  top: "label"
  include {
    phase: TEST
  }
  transform_param {
    mirror: false
    crop_size: 224
    mean_value: 103.939
    mean_value: 116.779
    mean_value: 123.68
  }
  data_param {
    source: "PATTERN/pattern_val_lmdb/"
    batch_size: 10
    backend: LMDB
  }
}
layer {
  name: "conv1_1"
  type: "Convolution"
  bottom: "data"
  top: "conv1_1"
  param {
    lr_mult: 1
    decay_mult: 1
  }
  param {
    lr_mult: 2
    decay_mult: 0
  }
  convolution_param {
    num_output: 64
    pad: 1
    kernel_size: 3
    weight_filler {
      type: "gaussian"
      std: 0.01
    }
    bias_filler {
      type: "constant"
      value: 0
    }
  }
}
layer {
  name: "relu1_1"
  type: "ReLU"
  bottom: "conv1_1"
  top: "conv1_1"
}
layer {
  name: "conv1_2"
  type: "Convolution"
  bottom: "conv1_1"
  top: "conv1_2"
  param {
    lr_mult: 1
    decay_mult: 1
  }
  param {
    lr_mult: 2
    decay_mult: 0
  }
  convolution_param {
    num_output: 64
    pad: 1
    kernel_size: 3
    weight_filler {
      type: "gaussian"
      std: 0.01
    }
    bias_filler {
      type: "constant"
      value: 0
    }
  }
}
layer {
  name: "relu1_2"
  type: "ReLU"
  bottom: "conv1_2"
  top: "conv1_2"
}
layer {
  name: "pool1"
  type: "Pooling"
  bottom: "conv1_2"
  top: "pool1"
  pooling_param {
    pool: MAX
    kernel_size: 2
    stride: 2
  }
}
layer {
  name: "conv2_1"
  type: "Convolution"
  bottom: "pool1"
  top: "conv2_1"
  param {
    lr_mult: 1
    decay_mult: 1
  }
  param {
    lr_mult: 2
    decay_mult: 0
  }
  convolution_param {
    num_output: 128
    pad: 1
    kernel_size: 3
    weight_filler {
      type: "gaussian"
      std: 0.01
    }
    bias_filler {
      type: "constant"
      value: 0
    }
  }
}
layer {
  name: "relu2_1"
  type: "ReLU"
  bottom: "conv2_1"
  top: "conv2_1"
}
layer {
  name: "conv2_2"
  type: "Convolution"
  bottom: "conv2_1"
  top: "conv2_2"
  param {
    lr_mult: 1
    decay_mult: 1
  }
  param {
    lr_mult: 2
    decay_mult: 0
  }
  convolution_param {
    num_output: 128
    pad: 1
    kernel_size: 3
    weight_filler {
      type: "gaussian"
      std: 0.01
    }
    bias_filler {
      type: "constant"
      value: 0
    }
  }
}
layer {
  name: "relu2_2"
  type: "ReLU"
  bottom: "conv2_2"
  top: "conv2_2"
}
layer {
  name: "pool2"
  type: "Pooling"
  bottom: "conv2_2"
  top: "pool2"
  pooling_param {
    pool: MAX
    kernel_size: 2
    stride: 2
  }
}
layer {
  name: "conv3_1"
  type: "Convolution"
  bottom: "pool2"
  top: "conv3_1"
  param {
    lr_mult: 1
    decay_mult: 1
  }
  param {
    lr_mult: 2
    decay_mult: 0
  }
  convolution_param {
    num_output: 256
    pad: 1
    kernel_size: 3
    weight_filler {
      type: "gaussian"
      std: 0.01
    }
    bias_filler {
      type: "constant"
      value: 0
    }
  }
}
layer {
  name: "relu3_1"
  type: "ReLU"
  bottom: "conv3_1"
  top: "conv3_1"
}
layer {
  name: "conv3_2"
  type: "Convolution"
  bottom: "conv3_1"
  top: "conv3_2"
  param {
    lr_mult: 1
    decay_mult: 1
  }
  param {
    lr_mult: 2
    decay_mult: 0
  }
  convolution_param {
    num_output: 256
    pad: 1
    kernel_size: 3
    weight_filler {
      type: "gaussian"
      std: 0.01
    }
    bias_filler {
      type: "constant"
      value: 0
    }
  }
}
layer {
  name: "relu3_2"
  type: "ReLU"
  bottom: "conv3_2"
  top: "conv3_2"
}
layer {
  name: "conv3_3"
  type: "Convolution"
  bottom: "conv3_2"
  top: "conv3_3"
  param {
    lr_mult: 1
    decay_mult: 1
  }
  param {
    lr_mult: 2
    decay_mult: 0
  }
  convolution_param {
    num_output: 256
    pad: 1
    kernel_size: 3
    weight_filler {
      type: "gaussian"
      std: 0.01
    }
    bias_filler {
      type: "constant"
      value: 0
    }
  }
}
layer {
  name: "relu3_3"
  type: "ReLU"
  bottom: "conv3_3"
  top: "conv3_3"
}
layer {
  name: "pool3"
  type: "Pooling"
  bottom: "conv3_3"
  top: "pool3"
  pooling_param {
    pool: MAX
    kernel_size: 2
    stride: 2
  }
}
layer {
  name: "conv4_1"
  type: "Convolution"
  bottom: "pool3"
  top: "conv4_1"
  param {
    lr_mult: 1
    decay_mult: 1
  }
  param {
    lr_mult: 2
    decay_mult: 0
  }
  convolution_param {
    num_output: 512
    pad: 1
    kernel_size: 3
    weight_filler {
      type: "gaussian"
      std: 0.01
    }
    bias_filler {
      type: "constant"
      value: 0
    }
  }
}
layer {
  name: "relu4_1"
  type: "ReLU"
  bottom: "conv4_1"
  top: "conv4_1"
}
layer {
  name: "conv4_2"
  type: "Convolution"
  bottom: "conv4_1"
  top: "conv4_2"
  param {
    lr_mult: 1
    decay_mult: 1
  }
  param {
    lr_mult: 2
    decay_mult: 0
  }
  convolution_param {
    num_output: 512
    pad: 1
    kernel_size: 3
    weight_filler {
      type: "gaussian"
      std: 0.01
    }
    bias_filler {
      type: "constant"
      value: 0
    }
  }
}
layer {
  name: "relu4_2"
  type: "ReLU"
  bottom: "conv4_2"
  top: "conv4_2"
}
layer {
  name: "conv4_3"
  type: "Convolution"
  bottom: "conv4_2"
  top: "conv4_3"
  param {
    lr_mult: 1
    decay_mult: 1
  }
  param {
    lr_mult: 2
    decay_mult: 0
  }
  convolution_param {
    num_output: 512
    pad: 1
    kernel_size: 3
    weight_filler {
      type: "gaussian"
      std: 0.01
    }
    bias_filler {
      type: "constant"
      value: 0
    }
  }
}
layer {
  name: "relu4_3"
  type: "ReLU"
  bottom: "conv4_3"
  top: "conv4_3"
}
layer {
  name: "pool4"
  type: "Pooling"
  bottom: "conv4_3"
  top: "pool4"
  pooling_param {
    pool: MAX
    kernel_size: 2
    stride: 2
  }
}
layer {
  name: "conv5_1"
  type: "Convolution"
  bottom: "pool4"
  top: "conv5_1"
  param {
    lr_mult: 1
    decay_mult: 1
  }
  param {
    lr_mult: 2
    decay_mult: 0
  }
  convolution_param {
    num_output: 512
    pad: 1
    kernel_size: 3
    weight_filler {
      type: "gaussian"
      std: 0.01
    }
    bias_filler {
      type: "constant"
      value: 0
    }
  }
}
layer {
  name: "relu5_1"
  type: "ReLU"
  bottom: "conv5_1"
  top: "conv5_1"
}
layer {
  name: "conv5_2"
  type: "Convolution"
  bottom: "conv5_1"
  top: "conv5_2"
  param {
    lr_mult: 1
    decay_mult: 1
  }
  param {
    lr_mult: 2
    decay_mult: 0
  }
  convolution_param {
    num_output: 512
    pad: 1
    kernel_size: 3
    weight_filler {
      type: "gaussian"
      std: 0.01
    }
    bias_filler {
      type: "constant"
      value: 0
    }
  }
}
layer {
  name: "relu5_2"
  type: "ReLU"
  bottom: "conv5_2"
  top: "conv5_2"
}
layer {
  name: "conv5_3"
  type: "Convolution"
  bottom: "conv5_2"
  top: "conv5_3"
  param {
    lr_mult: 1
    decay_mult: 1
  }
  param {
    lr_mult: 2
    decay_mult: 0
  }
  convolution_param {
    num_output: 512
    pad: 1
    kernel_size: 3
    weight_filler {
      type: "gaussian"
      std: 0.01
    }
    bias_filler {
      type: "constant"
      value: 0
    }
  }
}
layer {
  name: "relu5_3"
  type: "ReLU"
  bottom: "conv5_3"
  top: "conv5_3"
}
layer {
  name: "pool5"
  type: "Pooling"
  bottom: "conv5_3"
  top: "pool5"
  pooling_param {
    pool: MAX
    kernel_size: 2
    stride: 2
  }
}
layer {
  name: "fc6"
  type: "InnerProduct"
  bottom: "pool5"
  top: "fc6"
  param {
    lr_mult: 1
    decay_mult: 1
  }
  param {
    lr_mult: 2
    decay_mult: 0
  }
  inner_product_param {
    num_output: 4096
    weight_filler {
      type: "gaussian"
      std: 0.005
    }
    bias_filler {
      type: "constant"
      value: 0.1
    }
  }
}
layer {
  name: "relu6"
  type: "ReLU"
  bottom: "fc6"
  top: "fc6"
}
layer {
  name: "drop6"
  type: "Dropout"
  bottom: "fc6"
  top: "fc6"
  dropout_param {
    dropout_ratio: 0.5
  }
}
layer {
  name: "fc7"
  type: "InnerProduct"
  bottom: "fc6"
  top: "fc7"
  param {
    lr_mult: 1
    decay_mult: 1
  }
  param {
    lr_mult: 2
    decay_mult: 0
  }
  inner_product_param {
    num_output: 4096
    weight_filler {
      type: "gaussian"
      std: 0.005
    }
    bias_filler {
      type: "constant"
      value: 0.1
    }
  }
}
layer {
  name: "relu7"
  type: "ReLU"
  bottom: "fc7"
  top: "fc7"
}
layer {
  name: "drop7"
  type: "Dropout"
  bottom: "fc7"
  top: "fc7"
  dropout_param {
    dropout_ratio: 0.5
  }
}
layer {
  name: "fc8_binary_Type"
  type: "InnerProduct"
  bottom: "fc7"
  top: "fc8_binary_Type"
  param {
    lr_mult: 0
    decay_mult: 0
  }
  param {
    lr_mult: 0
    decay_mult: 0
  }
  inner_product_param {
    num_output: 12
    weight_filler {
      type: "gaussian"
      std: 0.005
    }
    bias_filler {
      type: "constant"
      value: 0.1
    }
  }
}
layer {
  name: "fc8_classification_Type"
  type: "InnerProduct"
  bottom: "fc7"
  top: "fc8_classification_Type"
  param {
    lr_mult: 0
    decay_mult: 0
  }
  param {
    lr_mult: 0
    decay_mult: 0
  }
  inner_product_param {
    num_output: 25
    weight_filler {
      type: "gaussian"
      std: 0.05
    }
    bias_filler {
      type: "constant"
      value: 0.1
    }
  }
}
layer {
  name: "fc_binary_Pattern_f24"
  type: "InnerProduct"
  bottom: "fc7"
  top: "fc_binary_Pattern_f24"
  param {
    lr_mult: 20
    decay_mult: 1
  }
  param {
    lr_mult: 40
    decay_mult: 0
  }
  inner_product_param {
    num_output: 24
    weight_filler {
      type: "gaussian"
      std: 0.005
    }
    bias_filler {
      type: "constant"
      value: 0.1
    }
  }
}
layer {
  name: "fc_classification_Pattern"
  type: "InnerProduct"
  bottom: "fc7"
  top: "fc_classification_Pattern"
  param {
    lr_mult: 1
    decay_mult: 1
  }
  param {
    lr_mult: 2
    decay_mult: 0
  }
  inner_product_param {
    num_output: 7
    weight_filler {
      type: "gaussian"
      std: 0.05
    }
    bias_filler {
      type: "constant"
      value: 0.1
    }
  }
}
layer {
  name: "accuracy_at_1_Pattern"
  type: "Accuracy"
  bottom: "fc_classification_Pattern"
  bottom: "label"
  top: "accuracy_at_1_Pattern"
  include {
    phase: TEST
  }
  accuracy_param {
    top_k: 1
  }
}
layer {
  name: "loss_hashing_Type"
  type: "HashingLoss"
  bottom: "fc8_binary_Type"
  bottom: "label"
  top: "loss_hashing_Type"
  loss_weight: 0
  hashing_loss_param {
    bi_margin: 24
    tradeoff: 0.01
  }
}
layer {
  name: "loss_classification_Type"
  type: "SoftmaxWithLoss"
  bottom: "fc8_classification_Type"
  bottom: "label"
  top: "loss_classification_Type"
  loss_weight: 0
}
layer {
  name: "loss_hashing_Pattern"
  type: "HashingLoss"
  bottom: "fc_binary_Pattern_f24"
  bottom: "label"
  top: "loss_hashing_Pattern"
  loss_weight: 0.6
  hashing_loss_param {
    bi_margin: 48
    tradeoff: 0.01
  }
}
layer {
  name: "loss_classification_Pattern"
  type: "SoftmaxWithLoss"
  bottom: "fc_classification_Pattern"
  bottom: "label"
  top: "loss_classification_Pattern"
}
I0915 14:09:33.751267  8209 layer_factory.hpp:77] Creating layer data
I0915 14:09:33.751396  8209 net.cpp:91] Creating Layer data
I0915 14:09:33.751423  8209 net.cpp:399] data -> data
I0915 14:09:33.751447  8209 net.cpp:399] data -> label
I0915 14:09:33.777034  8216 db_lmdb.cpp:38] Opened lmdb PATTERN/pattern_val_lmdb/
I0915 14:09:33.777484  8209 data_layer.cpp:41] output data size: 10,3,224,224
I0915 14:09:33.790493  8209 net.cpp:141] Setting up data
I0915 14:09:33.790565  8209 net.cpp:148] Top shape: 10 3 224 224 (1505280)
I0915 14:09:33.790586  8209 net.cpp:148] Top shape: 10 1 1 1 (10)
I0915 14:09:33.790601  8209 net.cpp:156] Memory required for data: 6021160
I0915 14:09:33.790621  8209 layer_factory.hpp:77] Creating layer label_data_1_split
I0915 14:09:33.790660  8209 net.cpp:91] Creating Layer label_data_1_split
I0915 14:09:33.790680  8209 net.cpp:425] label_data_1_split <- label
I0915 14:09:33.790706  8209 net.cpp:399] label_data_1_split -> label_data_1_split_0
I0915 14:09:33.790735  8209 net.cpp:399] label_data_1_split -> label_data_1_split_1
I0915 14:09:33.790756  8209 net.cpp:399] label_data_1_split -> label_data_1_split_2
I0915 14:09:33.790776  8209 net.cpp:399] label_data_1_split -> label_data_1_split_3
I0915 14:09:33.790796  8209 net.cpp:399] label_data_1_split -> label_data_1_split_4
I0915 14:09:33.790911  8209 net.cpp:141] Setting up label_data_1_split
I0915 14:09:33.790987  8209 net.cpp:148] Top shape: 10 1 1 1 (10)
I0915 14:09:33.791007  8209 net.cpp:148] Top shape: 10 1 1 1 (10)
I0915 14:09:33.791023  8209 net.cpp:148] Top shape: 10 1 1 1 (10)
I0915 14:09:33.791041  8209 net.cpp:148] Top shape: 10 1 1 1 (10)
I0915 14:09:33.791059  8209 net.cpp:148] Top shape: 10 1 1 1 (10)
I0915 14:09:33.791074  8209 net.cpp:156] Memory required for data: 6021360
I0915 14:09:33.791090  8209 layer_factory.hpp:77] Creating layer conv1_1
I0915 14:09:33.791127  8209 net.cpp:91] Creating Layer conv1_1
I0915 14:09:33.791146  8209 net.cpp:425] conv1_1 <- data
I0915 14:09:33.791167  8209 net.cpp:399] conv1_1 -> conv1_1
I0915 14:09:33.792358  8209 net.cpp:141] Setting up conv1_1
I0915 14:09:33.792403  8209 net.cpp:148] Top shape: 10 64 224 224 (32112640)
I0915 14:09:33.792423  8209 net.cpp:156] Memory required for data: 134471920
I0915 14:09:33.792450  8209 layer_factory.hpp:77] Creating layer relu1_1
I0915 14:09:33.792474  8209 net.cpp:91] Creating Layer relu1_1
I0915 14:09:33.792490  8209 net.cpp:425] relu1_1 <- conv1_1
I0915 14:09:33.792513  8209 net.cpp:386] relu1_1 -> conv1_1 (in-place)
I0915 14:09:33.792536  8209 net.cpp:141] Setting up relu1_1
I0915 14:09:33.792556  8209 net.cpp:148] Top shape: 10 64 224 224 (32112640)
I0915 14:09:33.792572  8209 net.cpp:156] Memory required for data: 262922480
I0915 14:09:33.792587  8209 layer_factory.hpp:77] Creating layer conv1_2
I0915 14:09:33.792616  8209 net.cpp:91] Creating Layer conv1_2
I0915 14:09:33.792635  8209 net.cpp:425] conv1_2 <- conv1_1
I0915 14:09:33.792656  8209 net.cpp:399] conv1_2 -> conv1_2
I0915 14:09:33.794569  8209 net.cpp:141] Setting up conv1_2
I0915 14:09:33.794600  8209 net.cpp:148] Top shape: 10 64 224 224 (32112640)
I0915 14:09:33.794616  8209 net.cpp:156] Memory required for data: 391373040
I0915 14:09:33.794639  8209 layer_factory.hpp:77] Creating layer relu1_2
I0915 14:09:33.794659  8209 net.cpp:91] Creating Layer relu1_2
I0915 14:09:33.794677  8209 net.cpp:425] relu1_2 <- conv1_2
I0915 14:09:33.794698  8209 net.cpp:386] relu1_2 -> conv1_2 (in-place)
I0915 14:09:33.794719  8209 net.cpp:141] Setting up relu1_2
I0915 14:09:33.794739  8209 net.cpp:148] Top shape: 10 64 224 224 (32112640)
I0915 14:09:33.794754  8209 net.cpp:156] Memory required for data: 519823600
I0915 14:09:33.794770  8209 layer_factory.hpp:77] Creating layer pool1
I0915 14:09:33.794790  8209 net.cpp:91] Creating Layer pool1
I0915 14:09:33.794805  8209 net.cpp:425] pool1 <- conv1_2
I0915 14:09:33.794822  8209 net.cpp:399] pool1 -> pool1
I0915 14:09:33.794886  8209 net.cpp:141] Setting up pool1
I0915 14:09:33.794909  8209 net.cpp:148] Top shape: 10 64 112 112 (8028160)
I0915 14:09:33.794925  8209 net.cpp:156] Memory required for data: 551936240
I0915 14:09:33.794940  8209 layer_factory.hpp:77] Creating layer conv2_1
I0915 14:09:33.794968  8209 net.cpp:91] Creating Layer conv2_1
I0915 14:09:33.794986  8209 net.cpp:425] conv2_1 <- pool1
I0915 14:09:33.795008  8209 net.cpp:399] conv2_1 -> conv2_1
I0915 14:09:33.798691  8209 net.cpp:141] Setting up conv2_1
I0915 14:09:33.798723  8209 net.cpp:148] Top shape: 10 128 112 112 (16056320)
I0915 14:09:33.798740  8209 net.cpp:156] Memory required for data: 616161520
I0915 14:09:33.798764  8209 layer_factory.hpp:77] Creating layer relu2_1
I0915 14:09:33.798789  8209 net.cpp:91] Creating Layer relu2_1
I0915 14:09:33.798807  8209 net.cpp:425] relu2_1 <- conv2_1
I0915 14:09:33.798826  8209 net.cpp:386] relu2_1 -> conv2_1 (in-place)
I0915 14:09:33.798846  8209 net.cpp:141] Setting up relu2_1
I0915 14:09:33.798866  8209 net.cpp:148] Top shape: 10 128 112 112 (16056320)
I0915 14:09:33.798880  8209 net.cpp:156] Memory required for data: 680386800
I0915 14:09:33.798895  8209 layer_factory.hpp:77] Creating layer conv2_2
I0915 14:09:33.798921  8209 net.cpp:91] Creating Layer conv2_2
I0915 14:09:33.798939  8209 net.cpp:425] conv2_2 <- conv2_1
I0915 14:09:33.798961  8209 net.cpp:399] conv2_2 -> conv2_2
I0915 14:09:33.804736  8209 net.cpp:141] Setting up conv2_2
I0915 14:09:33.804765  8209 net.cpp:148] Top shape: 10 128 112 112 (16056320)
I0915 14:09:33.804821  8209 net.cpp:156] Memory required for data: 744612080
I0915 14:09:33.804843  8209 layer_factory.hpp:77] Creating layer relu2_2
I0915 14:09:33.804864  8209 net.cpp:91] Creating Layer relu2_2
I0915 14:09:33.804880  8209 net.cpp:425] relu2_2 <- conv2_2
I0915 14:09:33.804903  8209 net.cpp:386] relu2_2 -> conv2_2 (in-place)
I0915 14:09:33.804924  8209 net.cpp:141] Setting up relu2_2
I0915 14:09:33.804942  8209 net.cpp:148] Top shape: 10 128 112 112 (16056320)
I0915 14:09:33.804958  8209 net.cpp:156] Memory required for data: 808837360
I0915 14:09:33.804973  8209 layer_factory.hpp:77] Creating layer pool2
I0915 14:09:33.804992  8209 net.cpp:91] Creating Layer pool2
I0915 14:09:33.805008  8209 net.cpp:425] pool2 <- conv2_2
I0915 14:09:33.805029  8209 net.cpp:399] pool2 -> pool2
I0915 14:09:33.805093  8209 net.cpp:141] Setting up pool2
I0915 14:09:33.805116  8209 net.cpp:148] Top shape: 10 128 56 56 (4014080)
I0915 14:09:33.805132  8209 net.cpp:156] Memory required for data: 824893680
I0915 14:09:33.805147  8209 layer_factory.hpp:77] Creating layer conv3_1
I0915 14:09:33.805173  8209 net.cpp:91] Creating Layer conv3_1
I0915 14:09:33.805191  8209 net.cpp:425] conv3_1 <- pool2
I0915 14:09:33.805214  8209 net.cpp:399] conv3_1 -> conv3_1
I0915 14:09:33.817369  8209 net.cpp:141] Setting up conv3_1
I0915 14:09:33.817422  8209 net.cpp:148] Top shape: 10 256 56 56 (8028160)
I0915 14:09:33.817438  8209 net.cpp:156] Memory required for data: 857006320
I0915 14:09:33.817466  8209 layer_factory.hpp:77] Creating layer relu3_1
I0915 14:09:33.817489  8209 net.cpp:91] Creating Layer relu3_1
I0915 14:09:33.817507  8209 net.cpp:425] relu3_1 <- conv3_1
I0915 14:09:33.817526  8209 net.cpp:386] relu3_1 -> conv3_1 (in-place)
I0915 14:09:33.817548  8209 net.cpp:141] Setting up relu3_1
I0915 14:09:33.817565  8209 net.cpp:148] Top shape: 10 256 56 56 (8028160)
I0915 14:09:33.817580  8209 net.cpp:156] Memory required for data: 889118960
I0915 14:09:33.817597  8209 layer_factory.hpp:77] Creating layer conv3_2
I0915 14:09:33.817627  8209 net.cpp:91] Creating Layer conv3_2
I0915 14:09:33.817646  8209 net.cpp:425] conv3_2 <- conv3_1
I0915 14:09:33.817665  8209 net.cpp:399] conv3_2 -> conv3_2
I0915 14:09:33.839979  8209 net.cpp:141] Setting up conv3_2
I0915 14:09:33.840006  8209 net.cpp:148] Top shape: 10 256 56 56 (8028160)
I0915 14:09:33.840035  8209 net.cpp:156] Memory required for data: 921231600
I0915 14:09:33.840054  8209 layer_factory.hpp:77] Creating layer relu3_2
I0915 14:09:33.840071  8209 net.cpp:91] Creating Layer relu3_2
I0915 14:09:33.840087  8209 net.cpp:425] relu3_2 <- conv3_2
I0915 14:09:33.840106  8209 net.cpp:386] relu3_2 -> conv3_2 (in-place)
I0915 14:09:33.840126  8209 net.cpp:141] Setting up relu3_2
I0915 14:09:33.840142  8209 net.cpp:148] Top shape: 10 256 56 56 (8028160)
I0915 14:09:33.840157  8209 net.cpp:156] Memory required for data: 953344240
I0915 14:09:33.840173  8209 layer_factory.hpp:77] Creating layer conv3_3
I0915 14:09:33.840204  8209 net.cpp:91] Creating Layer conv3_3
I0915 14:09:33.840220  8209 net.cpp:425] conv3_3 <- conv3_2
I0915 14:09:33.840240  8209 net.cpp:399] conv3_3 -> conv3_3
I0915 14:09:33.862391  8209 net.cpp:141] Setting up conv3_3
I0915 14:09:33.862419  8209 net.cpp:148] Top shape: 10 256 56 56 (8028160)
I0915 14:09:33.862447  8209 net.cpp:156] Memory required for data: 985456880
I0915 14:09:33.862468  8209 layer_factory.hpp:77] Creating layer relu3_3
I0915 14:09:33.862485  8209 net.cpp:91] Creating Layer relu3_3
I0915 14:09:33.862501  8209 net.cpp:425] relu3_3 <- conv3_3
I0915 14:09:33.862521  8209 net.cpp:386] relu3_3 -> conv3_3 (in-place)
I0915 14:09:33.862541  8209 net.cpp:141] Setting up relu3_3
I0915 14:09:33.862560  8209 net.cpp:148] Top shape: 10 256 56 56 (8028160)
I0915 14:09:33.862573  8209 net.cpp:156] Memory required for data: 1017569520
I0915 14:09:33.862591  8209 layer_factory.hpp:77] Creating layer pool3
I0915 14:09:33.862609  8209 net.cpp:91] Creating Layer pool3
I0915 14:09:33.862624  8209 net.cpp:425] pool3 <- conv3_3
I0915 14:09:33.862645  8209 net.cpp:399] pool3 -> pool3
I0915 14:09:33.862747  8209 net.cpp:141] Setting up pool3
I0915 14:09:33.862771  8209 net.cpp:148] Top shape: 10 256 28 28 (2007040)
I0915 14:09:33.862787  8209 net.cpp:156] Memory required for data: 1025597680
I0915 14:09:33.862802  8209 layer_factory.hpp:77] Creating layer conv4_1
I0915 14:09:33.862826  8209 net.cpp:91] Creating Layer conv4_1
I0915 14:09:33.862843  8209 net.cpp:425] conv4_1 <- pool3
I0915 14:09:33.862862  8209 net.cpp:399] conv4_1 -> conv4_1
I0915 14:09:33.906361  8209 net.cpp:141] Setting up conv4_1
I0915 14:09:33.906391  8209 net.cpp:148] Top shape: 10 512 28 28 (4014080)
I0915 14:09:33.906419  8209 net.cpp:156] Memory required for data: 1041654000
I0915 14:09:33.906438  8209 layer_factory.hpp:77] Creating layer relu4_1
I0915 14:09:33.906455  8209 net.cpp:91] Creating Layer relu4_1
I0915 14:09:33.906471  8209 net.cpp:425] relu4_1 <- conv4_1
I0915 14:09:33.906489  8209 net.cpp:386] relu4_1 -> conv4_1 (in-place)
I0915 14:09:33.906509  8209 net.cpp:141] Setting up relu4_1
I0915 14:09:33.906527  8209 net.cpp:148] Top shape: 10 512 28 28 (4014080)
I0915 14:09:33.906541  8209 net.cpp:156] Memory required for data: 1057710320
I0915 14:09:33.906558  8209 layer_factory.hpp:77] Creating layer conv4_2
I0915 14:09:33.906582  8209 net.cpp:91] Creating Layer conv4_2
I0915 14:09:33.906599  8209 net.cpp:425] conv4_2 <- conv4_1
I0915 14:09:33.906620  8209 net.cpp:399] conv4_2 -> conv4_2
I0915 14:09:33.993288  8209 net.cpp:141] Setting up conv4_2
I0915 14:09:33.993329  8209 net.cpp:148] Top shape: 10 512 28 28 (4014080)
I0915 14:09:33.993357  8209 net.cpp:156] Memory required for data: 1073766640
I0915 14:09:33.993388  8209 layer_factory.hpp:77] Creating layer relu4_2
I0915 14:09:33.993414  8209 net.cpp:91] Creating Layer relu4_2
I0915 14:09:33.993430  8209 net.cpp:425] relu4_2 <- conv4_2
I0915 14:09:33.993448  8209 net.cpp:386] relu4_2 -> conv4_2 (in-place)
I0915 14:09:33.993470  8209 net.cpp:141] Setting up relu4_2
I0915 14:09:33.993487  8209 net.cpp:148] Top shape: 10 512 28 28 (4014080)
I0915 14:09:33.993502  8209 net.cpp:156] Memory required for data: 1089822960
I0915 14:09:33.993517  8209 layer_factory.hpp:77] Creating layer conv4_3
I0915 14:09:33.993541  8209 net.cpp:91] Creating Layer conv4_3
I0915 14:09:33.993558  8209 net.cpp:425] conv4_3 <- conv4_2
I0915 14:09:33.993580  8209 net.cpp:399] conv4_3 -> conv4_3
I0915 14:09:34.081749  8209 net.cpp:141] Setting up conv4_3
I0915 14:09:34.081794  8209 net.cpp:148] Top shape: 10 512 28 28 (4014080)
I0915 14:09:34.081810  8209 net.cpp:156] Memory required for data: 1105879280
I0915 14:09:34.081837  8209 layer_factory.hpp:77] Creating layer relu4_3
I0915 14:09:34.081858  8209 net.cpp:91] Creating Layer relu4_3
I0915 14:09:34.081876  8209 net.cpp:425] relu4_3 <- conv4_3
I0915 14:09:34.081897  8209 net.cpp:386] relu4_3 -> conv4_3 (in-place)
I0915 14:09:34.081920  8209 net.cpp:141] Setting up relu4_3
I0915 14:09:34.081938  8209 net.cpp:148] Top shape: 10 512 28 28 (4014080)
I0915 14:09:34.081954  8209 net.cpp:156] Memory required for data: 1121935600
I0915 14:09:34.081967  8209 layer_factory.hpp:77] Creating layer pool4
I0915 14:09:34.081987  8209 net.cpp:91] Creating Layer pool4
I0915 14:09:34.082002  8209 net.cpp:425] pool4 <- conv4_3
I0915 14:09:34.082020  8209 net.cpp:399] pool4 -> pool4
I0915 14:09:34.082084  8209 net.cpp:141] Setting up pool4
I0915 14:09:34.082108  8209 net.cpp:148] Top shape: 10 512 14 14 (1003520)
I0915 14:09:34.082123  8209 net.cpp:156] Memory required for data: 1125949680
I0915 14:09:34.082136  8209 layer_factory.hpp:77] Creating layer conv5_1
I0915 14:09:34.082165  8209 net.cpp:91] Creating Layer conv5_1
I0915 14:09:34.082181  8209 net.cpp:425] conv5_1 <- pool4
I0915 14:09:34.082206  8209 net.cpp:399] conv5_1 -> conv5_1
I0915 14:09:34.170326  8209 net.cpp:141] Setting up conv5_1
I0915 14:09:34.170387  8209 net.cpp:148] Top shape: 10 512 14 14 (1003520)
I0915 14:09:34.170403  8209 net.cpp:156] Memory required for data: 1129963760
I0915 14:09:34.170424  8209 layer_factory.hpp:77] Creating layer relu5_1
I0915 14:09:34.170446  8209 net.cpp:91] Creating Layer relu5_1
I0915 14:09:34.170500  8209 net.cpp:425] relu5_1 <- conv5_1
I0915 14:09:34.170521  8209 net.cpp:386] relu5_1 -> conv5_1 (in-place)
I0915 14:09:34.170543  8209 net.cpp:141] Setting up relu5_1
I0915 14:09:34.170562  8209 net.cpp:148] Top shape: 10 512 14 14 (1003520)
I0915 14:09:34.170575  8209 net.cpp:156] Memory required for data: 1133977840
I0915 14:09:34.170593  8209 layer_factory.hpp:77] Creating layer conv5_2
I0915 14:09:34.170619  8209 net.cpp:91] Creating Layer conv5_2
I0915 14:09:34.170635  8209 net.cpp:425] conv5_2 <- conv5_1
I0915 14:09:34.170657  8209 net.cpp:399] conv5_2 -> conv5_2
I0915 14:09:34.257457  8209 net.cpp:141] Setting up conv5_2
I0915 14:09:34.257495  8209 net.cpp:148] Top shape: 10 512 14 14 (1003520)
I0915 14:09:34.257524  8209 net.cpp:156] Memory required for data: 1137991920
I0915 14:09:34.257545  8209 layer_factory.hpp:77] Creating layer relu5_2
I0915 14:09:34.257565  8209 net.cpp:91] Creating Layer relu5_2
I0915 14:09:34.257585  8209 net.cpp:425] relu5_2 <- conv5_2
I0915 14:09:34.257614  8209 net.cpp:386] relu5_2 -> conv5_2 (in-place)
I0915 14:09:34.257643  8209 net.cpp:141] Setting up relu5_2
I0915 14:09:34.257661  8209 net.cpp:148] Top shape: 10 512 14 14 (1003520)
I0915 14:09:34.257678  8209 net.cpp:156] Memory required for data: 1142006000
I0915 14:09:34.257696  8209 layer_factory.hpp:77] Creating layer conv5_3
I0915 14:09:34.257719  8209 net.cpp:91] Creating Layer conv5_3
I0915 14:09:34.257735  8209 net.cpp:425] conv5_3 <- conv5_2
I0915 14:09:34.257757  8209 net.cpp:399] conv5_3 -> conv5_3
I0915 14:09:34.344626  8209 net.cpp:141] Setting up conv5_3
I0915 14:09:34.344678  8209 net.cpp:148] Top shape: 10 512 14 14 (1003520)
I0915 14:09:34.344694  8209 net.cpp:156] Memory required for data: 1146020080
I0915 14:09:34.344714  8209 layer_factory.hpp:77] Creating layer relu5_3
I0915 14:09:34.344735  8209 net.cpp:91] Creating Layer relu5_3
I0915 14:09:34.344753  8209 net.cpp:425] relu5_3 <- conv5_3
I0915 14:09:34.344774  8209 net.cpp:386] relu5_3 -> conv5_3 (in-place)
I0915 14:09:34.344799  8209 net.cpp:141] Setting up relu5_3
I0915 14:09:34.344816  8209 net.cpp:148] Top shape: 10 512 14 14 (1003520)
I0915 14:09:34.344830  8209 net.cpp:156] Memory required for data: 1150034160
I0915 14:09:34.344847  8209 layer_factory.hpp:77] Creating layer pool5
I0915 14:09:34.344877  8209 net.cpp:91] Creating Layer pool5
I0915 14:09:34.344894  8209 net.cpp:425] pool5 <- conv5_3
I0915 14:09:34.344913  8209 net.cpp:399] pool5 -> pool5
I0915 14:09:34.344980  8209 net.cpp:141] Setting up pool5
I0915 14:09:34.345005  8209 net.cpp:148] Top shape: 10 512 7 7 (250880)
I0915 14:09:34.345019  8209 net.cpp:156] Memory required for data: 1151037680
I0915 14:09:34.345033  8209 layer_factory.hpp:77] Creating layer fc6
I0915 14:09:34.345054  8209 net.cpp:91] Creating Layer fc6
I0915 14:09:34.345070  8209 net.cpp:425] fc6 <- pool5
I0915 14:09:34.345093  8209 net.cpp:399] fc6 -> fc6
I0915 14:09:38.152333  8209 net.cpp:141] Setting up fc6
I0915 14:09:38.152426  8209 net.cpp:148] Top shape: 10 4096 (40960)
I0915 14:09:38.152442  8209 net.cpp:156] Memory required for data: 1151201520
I0915 14:09:38.152478  8209 layer_factory.hpp:77] Creating layer relu6
I0915 14:09:38.152513  8209 net.cpp:91] Creating Layer relu6
I0915 14:09:38.152537  8209 net.cpp:425] relu6 <- fc6
I0915 14:09:38.152560  8209 net.cpp:386] relu6 -> fc6 (in-place)
I0915 14:09:38.152587  8209 net.cpp:141] Setting up relu6
I0915 14:09:38.152606  8209 net.cpp:148] Top shape: 10 4096 (40960)
I0915 14:09:38.152619  8209 net.cpp:156] Memory required for data: 1151365360
I0915 14:09:38.152635  8209 layer_factory.hpp:77] Creating layer drop6
I0915 14:09:38.152654  8209 net.cpp:91] Creating Layer drop6
I0915 14:09:38.152671  8209 net.cpp:425] drop6 <- fc6
I0915 14:09:38.152691  8209 net.cpp:386] drop6 -> fc6 (in-place)
I0915 14:09:38.152748  8209 net.cpp:141] Setting up drop6
I0915 14:09:38.152771  8209 net.cpp:148] Top shape: 10 4096 (40960)
I0915 14:09:38.152787  8209 net.cpp:156] Memory required for data: 1151529200
I0915 14:09:38.152803  8209 layer_factory.hpp:77] Creating layer fc7
I0915 14:09:38.152868  8209 net.cpp:91] Creating Layer fc7
I0915 14:09:38.152885  8209 net.cpp:425] fc7 <- fc6
I0915 14:09:38.152907  8209 net.cpp:399] fc7 -> fc7
I0915 14:09:38.776504  8209 net.cpp:141] Setting up fc7
I0915 14:09:38.776587  8209 net.cpp:148] Top shape: 10 4096 (40960)
I0915 14:09:38.776603  8209 net.cpp:156] Memory required for data: 1151693040
I0915 14:09:38.776625  8209 layer_factory.hpp:77] Creating layer relu7
I0915 14:09:38.776655  8209 net.cpp:91] Creating Layer relu7
I0915 14:09:38.776675  8209 net.cpp:425] relu7 <- fc7
I0915 14:09:38.776696  8209 net.cpp:386] relu7 -> fc7 (in-place)
I0915 14:09:38.776722  8209 net.cpp:141] Setting up relu7
I0915 14:09:38.776741  8209 net.cpp:148] Top shape: 10 4096 (40960)
I0915 14:09:38.776756  8209 net.cpp:156] Memory required for data: 1151856880
I0915 14:09:38.776772  8209 layer_factory.hpp:77] Creating layer drop7
I0915 14:09:38.776793  8209 net.cpp:91] Creating Layer drop7
I0915 14:09:38.776809  8209 net.cpp:425] drop7 <- fc7
I0915 14:09:38.776829  8209 net.cpp:386] drop7 -> fc7 (in-place)
I0915 14:09:38.776876  8209 net.cpp:141] Setting up drop7
I0915 14:09:38.776897  8209 net.cpp:148] Top shape: 10 4096 (40960)
I0915 14:09:38.776912  8209 net.cpp:156] Memory required for data: 1152020720
I0915 14:09:38.776928  8209 layer_factory.hpp:77] Creating layer fc7_drop7_0_split
I0915 14:09:38.776949  8209 net.cpp:91] Creating Layer fc7_drop7_0_split
I0915 14:09:38.776967  8209 net.cpp:425] fc7_drop7_0_split <- fc7
I0915 14:09:38.776988  8209 net.cpp:399] fc7_drop7_0_split -> fc7_drop7_0_split_0
I0915 14:09:38.777009  8209 net.cpp:399] fc7_drop7_0_split -> fc7_drop7_0_split_1
I0915 14:09:38.777029  8209 net.cpp:399] fc7_drop7_0_split -> fc7_drop7_0_split_2
I0915 14:09:38.777050  8209 net.cpp:399] fc7_drop7_0_split -> fc7_drop7_0_split_3
I0915 14:09:38.777128  8209 net.cpp:141] Setting up fc7_drop7_0_split
I0915 14:09:38.777151  8209 net.cpp:148] Top shape: 10 4096 (40960)
I0915 14:09:38.777168  8209 net.cpp:148] Top shape: 10 4096 (40960)
I0915 14:09:38.777184  8209 net.cpp:148] Top shape: 10 4096 (40960)
I0915 14:09:38.777199  8209 net.cpp:148] Top shape: 10 4096 (40960)
I0915 14:09:38.777215  8209 net.cpp:156] Memory required for data: 1152676080
I0915 14:09:38.777230  8209 layer_factory.hpp:77] Creating layer fc8_binary_Type
I0915 14:09:38.777254  8209 net.cpp:91] Creating Layer fc8_binary_Type
I0915 14:09:38.777271  8209 net.cpp:425] fc8_binary_Type <- fc7_drop7_0_split_0
I0915 14:09:38.777293  8209 net.cpp:399] fc8_binary_Type -> fc8_binary_Type
I0915 14:09:38.779242  8209 net.cpp:141] Setting up fc8_binary_Type
I0915 14:09:38.779268  8209 net.cpp:148] Top shape: 10 12 (120)
I0915 14:09:38.779284  8209 net.cpp:156] Memory required for data: 1152676560
I0915 14:09:38.779302  8209 layer_factory.hpp:77] Creating layer fc8_classification_Type
I0915 14:09:38.779330  8209 net.cpp:91] Creating Layer fc8_classification_Type
I0915 14:09:38.779347  8209 net.cpp:425] fc8_classification_Type <- fc7_drop7_0_split_1
I0915 14:09:38.779366  8209 net.cpp:399] fc8_classification_Type -> fc8_classification_Type
I0915 14:09:38.784056  8209 net.cpp:141] Setting up fc8_classification_Type
I0915 14:09:38.784086  8209 net.cpp:148] Top shape: 10 25 (250)
I0915 14:09:38.784103  8209 net.cpp:156] Memory required for data: 1152677560
I0915 14:09:38.784137  8209 layer_factory.hpp:77] Creating layer fc_binary_Pattern_f24
I0915 14:09:38.784160  8209 net.cpp:91] Creating Layer fc_binary_Pattern_f24
I0915 14:09:38.784176  8209 net.cpp:425] fc_binary_Pattern_f24 <- fc7_drop7_0_split_2
I0915 14:09:38.784196  8209 net.cpp:399] fc_binary_Pattern_f24 -> fc_binary_Pattern_f24
I0915 14:09:38.787843  8209 net.cpp:141] Setting up fc_binary_Pattern_f24
I0915 14:09:38.787868  8209 net.cpp:148] Top shape: 10 24 (240)
I0915 14:09:38.787884  8209 net.cpp:156] Memory required for data: 1152678520
I0915 14:09:38.787904  8209 layer_factory.hpp:77] Creating layer fc_classification_Pattern
I0915 14:09:38.787925  8209 net.cpp:91] Creating Layer fc_classification_Pattern
I0915 14:09:38.787993  8209 net.cpp:425] fc_classification_Pattern <- fc7_drop7_0_split_3
I0915 14:09:38.788017  8209 net.cpp:399] fc_classification_Pattern -> fc_classification_Pattern
I0915 14:09:38.789186  8209 net.cpp:141] Setting up fc_classification_Pattern
I0915 14:09:38.789212  8209 net.cpp:148] Top shape: 10 7 (70)
I0915 14:09:38.789227  8209 net.cpp:156] Memory required for data: 1152678800
I0915 14:09:38.789247  8209 layer_factory.hpp:77] Creating layer fc_classification_Pattern_fc_classification_Pattern_0_split
I0915 14:09:38.789266  8209 net.cpp:91] Creating Layer fc_classification_Pattern_fc_classification_Pattern_0_split
I0915 14:09:38.789283  8209 net.cpp:425] fc_classification_Pattern_fc_classification_Pattern_0_split <- fc_classification_Pattern
I0915 14:09:38.789300  8209 net.cpp:399] fc_classification_Pattern_fc_classification_Pattern_0_split -> fc_classification_Pattern_fc_classification_Pattern_0_split_0
I0915 14:09:38.789320  8209 net.cpp:399] fc_classification_Pattern_fc_classification_Pattern_0_split -> fc_classification_Pattern_fc_classification_Pattern_0_split_1
I0915 14:09:38.789382  8209 net.cpp:141] Setting up fc_classification_Pattern_fc_classification_Pattern_0_split
I0915 14:09:38.789409  8209 net.cpp:148] Top shape: 10 7 (70)
I0915 14:09:38.789427  8209 net.cpp:148] Top shape: 10 7 (70)
I0915 14:09:38.789441  8209 net.cpp:156] Memory required for data: 1152679360
I0915 14:09:38.789456  8209 layer_factory.hpp:77] Creating layer accuracy_at_1_Pattern
I0915 14:09:38.789486  8209 net.cpp:91] Creating Layer accuracy_at_1_Pattern
I0915 14:09:38.789503  8209 net.cpp:425] accuracy_at_1_Pattern <- fc_classification_Pattern_fc_classification_Pattern_0_split_0
I0915 14:09:38.789520  8209 net.cpp:425] accuracy_at_1_Pattern <- label_data_1_split_0
…
