…
I0817 14:21:12.173789 45268 solver.cpp:91] Creating training net from net file: CIFAR-10/finetune.prototxt
I0817 14:21:12.174412 45268 net.cpp:313] The NetState phase (0) differed from the phase (1) specified by a rule in layer cifar
I0817 14:21:12.174639 45268 net.cpp:49] Initializing net from parameters: 
name: "CIFAR10_full"
state {
  phase: TRAIN
}
layer {
  name: "cifar"
  type: "Data"
  top: "data"
  top: "label"
  include {
    phase: TRAIN
  }
  transform_param {
    mirror: true
    mean_file: "CIFAR-10/mean.binaryproto"
  }
  data_param {
    source: "CIFAR-10/cifar10_train_lmdb"
    batch_size: 200
    backend: LMDB
  }
}
layer {
  name: "conv1"
  type: "Convolution"
  bottom: "data"
  top: "conv1"
  param {
    lr_mult: 1
    decay_mult: 1
  }
  param {
    lr_mult: 2
    decay_mult: 0
  }
  convolution_param {
    num_output: 32
    pad: 2
    kernel_size: 5
    stride: 1
    weight_filler {
      type: "xavier"
    }
    bias_filler {
      type: "constant"
    }
  }
}
layer {
  name: "pool1"
  type: "Pooling"
  bottom: "conv1"
  top: "pool1"
  pooling_param {
    pool: MAX
    kernel_size: 3
    stride: 2
  }
}
layer {
  name: "relu1"
  type: "ReLU"
  bottom: "pool1"
  top: "pool1"
}
layer {
  name: "norm1"
  type: "LRN"
  bottom: "pool1"
  top: "norm1"
  lrn_param {
    local_size: 3
    alpha: 5e-05
    beta: 0.75
    norm_region: WITHIN_CHANNEL
  }
}
layer {
  name: "conv2"
  type: "Convolution"
  bottom: "norm1"
  top: "conv2"
  param {
    lr_mult: 1
    decay_mult: 1
  }
  param {
    lr_mult: 2
    decay_mult: 0
  }
  convolution_param {
    num_output: 32
    pad: 2
    kernel_size: 5
    stride: 1
    weight_filler {
      type: "xavier"
    }
    bias_filler {
      type: "constant"
    }
  }
}
layer {
  name: "pool2"
  type: "Pooling"
  bottom: "conv2"
  top: "pool2"
  pooling_param {
    pool: AVE
    kernel_size: 3
    stride: 2
  }
}
layer {
  name: "relu2"
  type: "ReLU"
  bottom: "pool2"
  top: "pool2"
}
layer {
  name: "norm2"
  type: "LRN"
  bottom: "pool2"
  top: "norm2"
  lrn_param {
    local_size: 3
    alpha: 5e-05
    beta: 0.75
    norm_region: WITHIN_CHANNEL
  }
}
layer {
  name: "conv3"
  type: "Convolution"
  bottom: "norm2"
  top: "conv3"
  param {
    lr_mult: 1
    decay_mult: 1
  }
  param {
    lr_mult: 2
    decay_mult: 0
  }
  convolution_param {
    num_output: 64
    pad: 2
    kernel_size: 5
    stride: 1
    weight_filler {
      type: "xavier"
    }
    bias_filler {
      type: "constant"
    }
  }
}
layer {
  name: "relu3"
  type: "ReLU"
  bottom: "conv3"
  top: "conv3"
}
layer {
  name: "pool3"
  type: "Pooling"
  bottom: "conv3"
  top: "pool3"
  pooling_param {
    pool: AVE
    kernel_size: 3
    stride: 2
  }
}
layer {
  name: "ip2"
  type: "InnerProduct"
  bottom: "pool3"
  top: "ip2"
  param {
    lr_mult: 1
    decay_mult: 1
  }
  param {
    lr_mult: 2
    decay_mult: 0
  }
  inner_product_param {
    num_output: 500
    weight_filler {
      type: "xavier"
    }
    bias_filler {
      type: "constant"
    }
  }
}
layer {
  name: "relu_ip2"
  type: "ReLU"
  bottom: "ip2"
  top: "ip2"
}
layer {
  name: "ip1_f"
  type: "InnerProduct"
  bottom: "ip2"
  top: "ip1_f"
  param {
    lr_mult: 10
    decay_mult: 1
  }
  param {
    lr_mult: 20
    decay_mult: 0
  }
  inner_product_param {
    num_output: 24
    weight_filler {
      type: "xavier"
    }
    bias_filler {
      type: "constant"
    }
  }
}
layer {
  name: "loss"
  type: "HashingLoss"
  bottom: "ip1_f"
  bottom: "label"
  top: "loss"
  hashing_loss_param {
    bi_margin: 48
    tradeoff: 0.01
  }
}
I0817 14:21:12.175612 45268 layer_factory.hpp:77] Creating layer cifar
I0817 14:21:12.176415 45268 net.cpp:91] Creating Layer cifar
I0817 14:21:12.176518 45268 net.cpp:399] cifar -> data
I0817 14:21:12.176582 45268 net.cpp:399] cifar -> label
I0817 14:21:12.176630 45268 data_transformer.cpp:25] Loading mean file from: CIFAR-10/mean.binaryproto
I0817 14:21:12.177691 45272 db_lmdb.cpp:38] Opened lmdb CIFAR-10/cifar10_train_lmdb
I0817 14:21:12.194507 45268 data_layer.cpp:41] output data size: 200,3,32,32
I0817 14:21:12.200248 45268 net.cpp:141] Setting up cifar
I0817 14:21:12.200312 45268 net.cpp:148] Top shape: 200 3 32 32 (614400)
I0817 14:21:12.200333 45268 net.cpp:148] Top shape: 200 1 1 1 (200)
I0817 14:21:12.200348 45268 net.cpp:156] Memory required for data: 2458400
I0817 14:21:12.200371 45268 layer_factory.hpp:77] Creating layer conv1
I0817 14:21:12.200417 45268 net.cpp:91] Creating Layer conv1
I0817 14:21:12.200440 45268 net.cpp:425] conv1 <- data
I0817 14:21:12.200474 45268 net.cpp:399] conv1 -> conv1
I0817 14:21:12.201509 45268 net.cpp:141] Setting up conv1
I0817 14:21:12.201557 45268 net.cpp:148] Top shape: 200 32 32 32 (6553600)
I0817 14:21:12.201575 45268 net.cpp:156] Memory required for data: 28672800
I0817 14:21:12.201608 45268 layer_factory.hpp:77] Creating layer pool1
I0817 14:21:12.201638 45268 net.cpp:91] Creating Layer pool1
I0817 14:21:12.201654 45268 net.cpp:425] pool1 <- conv1
I0817 14:21:12.201673 45268 net.cpp:399] pool1 -> pool1
I0817 14:21:12.201889 45268 net.cpp:141] Setting up pool1
I0817 14:21:12.201922 45268 net.cpp:148] Top shape: 200 32 16 16 (1638400)
I0817 14:21:12.201937 45268 net.cpp:156] Memory required for data: 35226400
I0817 14:21:12.201953 45268 layer_factory.hpp:77] Creating layer relu1
I0817 14:21:12.201980 45268 net.cpp:91] Creating Layer relu1
I0817 14:21:12.201995 45268 net.cpp:425] relu1 <- pool1
I0817 14:21:12.202018 45268 net.cpp:386] relu1 -> pool1 (in-place)
I0817 14:21:12.202044 45268 net.cpp:141] Setting up relu1
I0817 14:21:12.202062 45268 net.cpp:148] Top shape: 200 32 16 16 (1638400)
I0817 14:21:12.202078 45268 net.cpp:156] Memory required for data: 41780000
I0817 14:21:12.202093 45268 layer_factory.hpp:77] Creating layer norm1
I0817 14:21:12.202121 45268 net.cpp:91] Creating Layer norm1
I0817 14:21:12.202138 45268 net.cpp:425] norm1 <- pool1
I0817 14:21:12.202157 45268 net.cpp:399] norm1 -> norm1
I0817 14:21:12.202319 45268 net.cpp:141] Setting up norm1
I0817 14:21:12.202345 45268 net.cpp:148] Top shape: 200 32 16 16 (1638400)
I0817 14:21:12.202361 45268 net.cpp:156] Memory required for data: 48333600
I0817 14:21:12.202376 45268 layer_factory.hpp:77] Creating layer conv2
I0817 14:21:12.202402 45268 net.cpp:91] Creating Layer conv2
I0817 14:21:12.202421 45268 net.cpp:425] conv2 <- norm1
I0817 14:21:12.202440 45268 net.cpp:399] conv2 -> conv2
I0817 14:21:12.203586 45268 net.cpp:141] Setting up conv2
I0817 14:21:12.203635 45268 net.cpp:148] Top shape: 200 32 16 16 (1638400)
I0817 14:21:12.203666 45268 net.cpp:156] Memory required for data: 54887200
I0817 14:21:12.203689 45268 layer_factory.hpp:77] Creating layer pool2
I0817 14:21:12.203711 45268 net.cpp:91] Creating Layer pool2
I0817 14:21:12.203728 45268 net.cpp:425] pool2 <- conv2
I0817 14:21:12.203749 45268 net.cpp:399] pool2 -> pool2
I0817 14:21:12.203848 45268 net.cpp:141] Setting up pool2
I0817 14:21:12.203874 45268 net.cpp:148] Top shape: 200 32 8 8 (409600)
I0817 14:21:12.203891 45268 net.cpp:156] Memory required for data: 56525600
I0817 14:21:12.203904 45268 layer_factory.hpp:77] Creating layer relu2
I0817 14:21:12.203930 45268 net.cpp:91] Creating Layer relu2
I0817 14:21:12.203945 45268 net.cpp:425] relu2 <- pool2
I0817 14:21:12.203966 45268 net.cpp:386] relu2 -> pool2 (in-place)
I0817 14:21:12.203985 45268 net.cpp:141] Setting up relu2
I0817 14:21:12.204005 45268 net.cpp:148] Top shape: 200 32 8 8 (409600)
I0817 14:21:12.204020 45268 net.cpp:156] Memory required for data: 58164000
I0817 14:21:12.204040 45268 layer_factory.hpp:77] Creating layer norm2
I0817 14:21:12.204062 45268 net.cpp:91] Creating Layer norm2
I0817 14:21:12.204078 45268 net.cpp:425] norm2 <- pool2
I0817 14:21:12.204097 45268 net.cpp:399] norm2 -> norm2
I0817 14:21:12.204259 45268 net.cpp:141] Setting up norm2
I0817 14:21:12.204285 45268 net.cpp:148] Top shape: 200 32 8 8 (409600)
I0817 14:21:12.204299 45268 net.cpp:156] Memory required for data: 59802400
I0817 14:21:12.204315 45268 layer_factory.hpp:77] Creating layer conv3
I0817 14:21:12.204345 45268 net.cpp:91] Creating Layer conv3
I0817 14:21:12.204362 45268 net.cpp:425] conv3 <- norm2
I0817 14:21:12.204386 45268 net.cpp:399] conv3 -> conv3
I0817 14:21:12.205085 45268 net.cpp:141] Setting up conv3
I0817 14:21:12.205127 45268 net.cpp:148] Top shape: 200 64 8 8 (819200)
I0817 14:21:12.205143 45268 net.cpp:156] Memory required for data: 63079200
I0817 14:21:12.205166 45268 layer_factory.hpp:77] Creating layer relu3
I0817 14:21:12.205186 45268 net.cpp:91] Creating Layer relu3
I0817 14:21:12.205201 45268 net.cpp:425] relu3 <- conv3
I0817 14:21:12.205221 45268 net.cpp:386] relu3 -> conv3 (in-place)
I0817 14:21:12.205242 45268 net.cpp:141] Setting up relu3
I0817 14:21:12.205261 45268 net.cpp:148] Top shape: 200 64 8 8 (819200)
I0817 14:21:12.205276 45268 net.cpp:156] Memory required for data: 66356000
I0817 14:21:12.205293 45268 layer_factory.hpp:77] Creating layer pool3
I0817 14:21:12.205312 45268 net.cpp:91] Creating Layer pool3
I0817 14:21:12.205327 45268 net.cpp:425] pool3 <- conv3
I0817 14:21:12.205343 45268 net.cpp:399] pool3 -> pool3
I0817 14:21:12.205389 45268 net.cpp:141] Setting up pool3
I0817 14:21:12.205411 45268 net.cpp:148] Top shape: 200 64 4 4 (204800)
I0817 14:21:12.205430 45268 net.cpp:156] Memory required for data: 67175200
I0817 14:21:12.205447 45268 layer_factory.hpp:77] Creating layer ip2
I0817 14:21:12.205473 45268 net.cpp:91] Creating Layer ip2
I0817 14:21:12.205492 45268 net.cpp:425] ip2 <- pool3
I0817 14:21:12.205508 45268 net.cpp:399] ip2 -> ip2
I0817 14:21:12.211052 45268 net.cpp:141] Setting up ip2
I0817 14:21:12.211102 45268 net.cpp:148] Top shape: 200 500 (100000)
I0817 14:21:12.211120 45268 net.cpp:156] Memory required for data: 67575200
I0817 14:21:12.211141 45268 layer_factory.hpp:77] Creating layer relu_ip2
I0817 14:21:12.211164 45268 net.cpp:91] Creating Layer relu_ip2
I0817 14:21:12.211181 45268 net.cpp:425] relu_ip2 <- ip2
I0817 14:21:12.211200 45268 net.cpp:386] relu_ip2 -> ip2 (in-place)
I0817 14:21:12.211227 45268 net.cpp:141] Setting up relu_ip2
I0817 14:21:12.211246 45268 net.cpp:148] Top shape: 200 500 (100000)
I0817 14:21:12.211261 45268 net.cpp:156] Memory required for data: 67975200
I0817 14:21:12.211275 45268 layer_factory.hpp:77] Creating layer ip1_f
I0817 14:21:12.211300 45268 net.cpp:91] Creating Layer ip1_f
I0817 14:21:12.211316 45268 net.cpp:425] ip1_f <- ip2
I0817 14:21:12.211334 45268 net.cpp:399] ip1_f -> ip1_f
I0817 14:21:12.212234 45268 net.cpp:141] Setting up ip1_f
I0817 14:21:12.212265 45268 net.cpp:148] Top shape: 200 24 (4800)
I0817 14:21:12.212280 45268 net.cpp:156] Memory required for data: 67994400
I0817 14:21:12.212304 45268 layer_factory.hpp:77] Creating layer loss
I0817 14:21:12.212330 45268 net.cpp:91] Creating Layer loss
I0817 14:21:12.212347 45268 net.cpp:425] loss <- ip1_f
I0817 14:21:12.212363 45268 net.cpp:425] loss <- label
I0817 14:21:12.212381 45268 net.cpp:399] loss -> loss
I0817 14:21:12.212605 45268 net.cpp:141] Setting up loss
…
