…
I0816 17:18:10.239265 38191 net.cpp:313] The NetState phase (0) differed from the phase (1) specified by a rule in layer accuracy_at_1
I0816 17:18:10.239285 38191 net.cpp:313] The NetState phase (0) differed from the phase (1) specified by a rule in layer accuracy_at_5
I0816 17:18:10.239481 38191 net.cpp:49] Initializing net from parameters: 
name: "CIFAR10_full"
state {
  phase: TRAIN
}
layer {
  name: "cifar"
  type: "Data"
  top: "data"
  top: "label"
  include {
    phase: TRAIN
  }
  transform_param {
    mirror: true
    mean_file: "CIFAR-10/mean.binaryproto"
  }
  data_param {
    source: "CIFAR-10/cifar10_train_lmdb"
    batch_size: 200
    backend: LMDB
  }
}
layer {
  name: "conv1"
  type: "Convolution"
  bottom: "data"
  top: "conv1"
  param {
    lr_mult: 1
    decay_mult: 1
  }
  param {
    lr_mult: 2
    decay_mult: 0
  }
  convolution_param {
    num_output: 32
    pad: 2
    kernel_size: 5
    stride: 1
    weight_filler {
      type: "xavier"
    }
    bias_filler {
      type: "constant"
    }
  }
}
layer {
  name: "pool1"
  type: "Pooling"
  bottom: "conv1"
  top: "pool1"
  pooling_param {
    pool: MAX
    kernel_size: 3
    stride: 2
  }
}
layer {
  name: "relu1"
  type: "ReLU"
  bottom: "pool1"
  top: "pool1"
}
layer {
  name: "norm1"
  type: "LRN"
  bottom: "pool1"
  top: "norm1"
  lrn_param {
    local_size: 3
    alpha: 5e-05
    beta: 0.75
    norm_region: WITHIN_CHANNEL
  }
}
layer {
  name: "conv2"
  type: "Convolution"
  bottom: "norm1"
  top: "conv2"
  param {
    lr_mult: 1
    decay_mult: 1
  }
  param {
    lr_mult: 2
    decay_mult: 0
  }
  convolution_param {
    num_output: 32
    pad: 2
    kernel_size: 5
    stride: 1
    weight_filler {
      type: "xavier"
    }
    bias_filler {
      type: "constant"
    }
  }
}
layer {
  name: "pool2"
  type: "Pooling"
  bottom: "conv2"
  top: "pool2"
  pooling_param {
    pool: AVE
    kernel_size: 3
    stride: 2
  }
}
layer {
  name: "relu2"
  type: "ReLU"
  bottom: "pool2"
  top: "pool2"
}
layer {
  name: "norm2"
  type: "LRN"
  bottom: "pool2"
  top: "norm2"
  lrn_param {
    local_size: 3
    alpha: 5e-05
    beta: 0.75
    norm_region: WITHIN_CHANNEL
  }
}
layer {
  name: "conv3"
  type: "Convolution"
  bottom: "norm2"
  top: "conv3"
  param {
    lr_mult: 1
    decay_mult: 1
  }
  param {
    lr_mult: 2
    decay_mult: 0
  }
  convolution_param {
    num_output: 64
    pad: 2
    kernel_size: 5
    stride: 1
    weight_filler {
      type: "xavier"
    }
    bias_filler {
      type: "constant"
    }
  }
}
layer {
  name: "relu3"
  type: "ReLU"
  bottom: "conv3"
  top: "conv3"
}
layer {
  name: "pool3"
  type: "Pooling"
  bottom: "conv3"
  top: "pool3"
  pooling_param {
    pool: AVE
    kernel_size: 3
    stride: 2
  }
}
layer {
  name: "ip2"
  type: "InnerProduct"
  bottom: "pool3"
  top: "ip2"
  param {
    lr_mult: 1
    decay_mult: 1
  }
  param {
    lr_mult: 2
    decay_mult: 0
  }
  inner_product_param {
    num_output: 500
    weight_filler {
      type: "xavier"
    }
    bias_filler {
      type: "constant"
    }
  }
}
layer {
  name: "relu_ip2"
  type: "ReLU"
  bottom: "ip2"
  top: "ip2"
}
layer {
  name: "ip1"
  type: "InnerProduct"
  bottom: "ip2"
  top: "ip1"
  param {
    lr_mult: 1
    decay_mult: 1
  }
  param {
    lr_mult: 2
    decay_mult: 0
  }
  inner_product_param {
    num_output: 12
    weight_filler {
      type: "xavier"
    }
    bias_filler {
      type: "constant"
    }
  }
}
layer {
  name: "ip_classification"
  type: "InnerProduct"
  bottom: "ip2"
  top: "ip_classification"
  param {
    lr_mult: 1
    decay_mult: 1
  }
  param {
    lr_mult: 2
    decay_mult: 0
  }
  inner_product_param {
    num_output: 10
    weight_filler {
      type: "gaussian"
      std: 0.005
    }
    bias_filler {
      type: "constant"
      value: 0.1
    }
  }
}
layer {
  name: "loss"
  type: "HashingLoss"
  bottom: "ip1"
  bottom: "label"
  top: "loss"
  loss_weight: 0.1
  hashing_loss_param {
    bi_margin: 24
    tradeoff: 0.01
  }
}
layer {
  name: "loss_classification"
  type: "SoftmaxWithLoss"
  bottom: "ip_classification"
  bottom: "label"
  top: "loss_classification"
}
I0816 17:18:10.240662 38191 layer_factory.hpp:77] Creating layer cifar
I0816 17:18:10.241470 38191 net.cpp:91] Creating Layer cifar
I0816 17:18:10.241518 38191 net.cpp:399] cifar -> data
I0816 17:18:10.241693 38191 net.cpp:399] cifar -> label
I0816 17:18:10.241771 38191 data_transformer.cpp:25] Loading mean file from: CIFAR-10/mean.binaryproto
I0816 17:18:10.242697 38195 db_lmdb.cpp:38] Opened lmdb CIFAR-10/cifar10_train_lmdb
I0816 17:18:10.259143 38191 data_layer.cpp:41] output data size: 200,3,32,32
I0816 17:18:10.265036 38191 net.cpp:141] Setting up cifar
I0816 17:18:10.265101 38191 net.cpp:148] Top shape: 200 3 32 32 (614400)
I0816 17:18:10.265122 38191 net.cpp:148] Top shape: 200 1 1 1 (200)
I0816 17:18:10.265138 38191 net.cpp:156] Memory required for data: 2458400
I0816 17:18:10.265161 38191 layer_factory.hpp:77] Creating layer label_cifar_1_split
I0816 17:18:10.265190 38191 net.cpp:91] Creating Layer label_cifar_1_split
I0816 17:18:10.265216 38191 net.cpp:425] label_cifar_1_split <- label
I0816 17:18:10.265246 38191 net.cpp:399] label_cifar_1_split -> label_cifar_1_split_0
I0816 17:18:10.265272 38191 net.cpp:399] label_cifar_1_split -> label_cifar_1_split_1
I0816 17:18:10.265352 38191 net.cpp:141] Setting up label_cifar_1_split
I0816 17:18:10.265377 38191 net.cpp:148] Top shape: 200 1 1 1 (200)
I0816 17:18:10.265394 38191 net.cpp:148] Top shape: 200 1 1 1 (200)
I0816 17:18:10.265408 38191 net.cpp:156] Memory required for data: 2460000
I0816 17:18:10.265422 38191 layer_factory.hpp:77] Creating layer conv1
I0816 17:18:10.265463 38191 net.cpp:91] Creating Layer conv1
I0816 17:18:10.265482 38191 net.cpp:425] conv1 <- data
I0816 17:18:10.265504 38191 net.cpp:399] conv1 -> conv1
I0816 17:18:10.266564 38191 net.cpp:141] Setting up conv1
I0816 17:18:10.266597 38191 net.cpp:148] Top shape: 200 32 32 32 (6553600)
I0816 17:18:10.266613 38191 net.cpp:156] Memory required for data: 28674400
I0816 17:18:10.266646 38191 layer_factory.hpp:77] Creating layer pool1
I0816 17:18:10.266674 38191 net.cpp:91] Creating Layer pool1
I0816 17:18:10.266695 38191 net.cpp:425] pool1 <- conv1
I0816 17:18:10.266711 38191 net.cpp:399] pool1 -> pool1
I0816 17:18:10.267002 38191 net.cpp:141] Setting up pool1
I0816 17:18:10.267029 38191 net.cpp:148] Top shape: 200 32 16 16 (1638400)
I0816 17:18:10.267045 38191 net.cpp:156] Memory required for data: 35228000
I0816 17:18:10.267061 38191 layer_factory.hpp:77] Creating layer relu1
I0816 17:18:10.267081 38191 net.cpp:91] Creating Layer relu1
I0816 17:18:10.267099 38191 net.cpp:425] relu1 <- pool1
I0816 17:18:10.267120 38191 net.cpp:386] relu1 -> pool1 (in-place)
I0816 17:18:10.267143 38191 net.cpp:141] Setting up relu1
I0816 17:18:10.267163 38191 net.cpp:148] Top shape: 200 32 16 16 (1638400)
I0816 17:18:10.267177 38191 net.cpp:156] Memory required for data: 41781600
I0816 17:18:10.267192 38191 layer_factory.hpp:77] Creating layer norm1
I0816 17:18:10.267231 38191 net.cpp:91] Creating Layer norm1
I0816 17:18:10.267247 38191 net.cpp:425] norm1 <- pool1
I0816 17:18:10.267264 38191 net.cpp:399] norm1 -> norm1
I0816 17:18:10.267421 38191 net.cpp:141] Setting up norm1
I0816 17:18:10.267446 38191 net.cpp:148] Top shape: 200 32 16 16 (1638400)
I0816 17:18:10.267462 38191 net.cpp:156] Memory required for data: 48335200
I0816 17:18:10.267477 38191 layer_factory.hpp:77] Creating layer conv2
I0816 17:18:10.267542 38191 net.cpp:91] Creating Layer conv2
I0816 17:18:10.267562 38191 net.cpp:425] conv2 <- norm1
I0816 17:18:10.267581 38191 net.cpp:399] conv2 -> conv2
I0816 17:18:10.268724 38191 net.cpp:141] Setting up conv2
I0816 17:18:10.268754 38191 net.cpp:148] Top shape: 200 32 16 16 (1638400)
I0816 17:18:10.268780 38191 net.cpp:156] Memory required for data: 54888800
I0816 17:18:10.268805 38191 layer_factory.hpp:77] Creating layer pool2
I0816 17:18:10.268827 38191 net.cpp:91] Creating Layer pool2
I0816 17:18:10.268843 38191 net.cpp:425] pool2 <- conv2
I0816 17:18:10.268864 38191 net.cpp:399] pool2 -> pool2
I0816 17:18:10.268901 38191 net.cpp:141] Setting up pool2
I0816 17:18:10.268924 38191 net.cpp:148] Top shape: 200 32 8 8 (409600)
I0816 17:18:10.268947 38191 net.cpp:156] Memory required for data: 56527200
I0816 17:18:10.268961 38191 layer_factory.hpp:77] Creating layer relu2
I0816 17:18:10.268983 38191 net.cpp:91] Creating Layer relu2
I0816 17:18:10.268999 38191 net.cpp:425] relu2 <- pool2
I0816 17:18:10.269016 38191 net.cpp:386] relu2 -> pool2 (in-place)
I0816 17:18:10.269035 38191 net.cpp:141] Setting up relu2
I0816 17:18:10.269052 38191 net.cpp:148] Top shape: 200 32 8 8 (409600)
I0816 17:18:10.269067 38191 net.cpp:156] Memory required for data: 58165600
I0816 17:18:10.269094 38191 layer_factory.hpp:77] Creating layer norm2
I0816 17:18:10.269137 38191 net.cpp:91] Creating Layer norm2
I0816 17:18:10.269153 38191 net.cpp:425] norm2 <- pool2
I0816 17:18:10.269171 38191 net.cpp:399] norm2 -> norm2
I0816 17:18:10.269299 38191 net.cpp:141] Setting up norm2
I0816 17:18:10.269323 38191 net.cpp:148] Top shape: 200 32 8 8 (409600)
I0816 17:18:10.269338 38191 net.cpp:156] Memory required for data: 59804000
I0816 17:18:10.269357 38191 layer_factory.hpp:77] Creating layer conv3
I0816 17:18:10.269382 38191 net.cpp:91] Creating Layer conv3
I0816 17:18:10.269405 38191 net.cpp:425] conv3 <- norm2
I0816 17:18:10.269423 38191 net.cpp:399] conv3 -> conv3
I0816 17:18:10.270103 38191 net.cpp:141] Setting up conv3
I0816 17:18:10.270129 38191 net.cpp:148] Top shape: 200 64 8 8 (819200)
I0816 17:18:10.270145 38191 net.cpp:156] Memory required for data: 63080800
I0816 17:18:10.270169 38191 layer_factory.hpp:77] Creating layer relu3
I0816 17:18:10.270190 38191 net.cpp:91] Creating Layer relu3
I0816 17:18:10.270206 38191 net.cpp:425] relu3 <- conv3
I0816 17:18:10.270223 38191 net.cpp:386] relu3 -> conv3 (in-place)
I0816 17:18:10.270242 38191 net.cpp:141] Setting up relu3
I0816 17:18:10.270258 38191 net.cpp:148] Top shape: 200 64 8 8 (819200)
I0816 17:18:10.270277 38191 net.cpp:156] Memory required for data: 66357600
I0816 17:18:10.270294 38191 layer_factory.hpp:77] Creating layer pool3
I0816 17:18:10.270314 38191 net.cpp:91] Creating Layer pool3
I0816 17:18:10.270329 38191 net.cpp:425] pool3 <- conv3
I0816 17:18:10.270349 38191 net.cpp:399] pool3 -> pool3
I0816 17:18:10.270391 38191 net.cpp:141] Setting up pool3
I0816 17:18:10.270416 38191 net.cpp:148] Top shape: 200 64 4 4 (204800)
I0816 17:18:10.270431 38191 net.cpp:156] Memory required for data: 67176800
I0816 17:18:10.270447 38191 layer_factory.hpp:77] Creating layer ip2
I0816 17:18:10.270476 38191 net.cpp:91] Creating Layer ip2
I0816 17:18:10.270496 38191 net.cpp:425] ip2 <- pool3
I0816 17:18:10.270514 38191 net.cpp:399] ip2 -> ip2
I0816 17:18:10.276113 38191 net.cpp:141] Setting up ip2
I0816 17:18:10.276156 38191 net.cpp:148] Top shape: 200 500 (100000)
I0816 17:18:10.276172 38191 net.cpp:156] Memory required for data: 67576800
I0816 17:18:10.276191 38191 layer_factory.hpp:77] Creating layer relu_ip2
I0816 17:18:10.276216 38191 net.cpp:91] Creating Layer relu_ip2
I0816 17:18:10.276237 38191 net.cpp:425] relu_ip2 <- ip2
I0816 17:18:10.276253 38191 net.cpp:386] relu_ip2 -> ip2 (in-place)
I0816 17:18:10.276280 38191 net.cpp:141] Setting up relu_ip2
I0816 17:18:10.276299 38191 net.cpp:148] Top shape: 200 500 (100000)
I0816 17:18:10.276314 38191 net.cpp:156] Memory required for data: 67976800
I0816 17:18:10.276329 38191 layer_factory.hpp:77] Creating layer ip2_relu_ip2_0_split
I0816 17:18:10.276365 38191 net.cpp:91] Creating Layer ip2_relu_ip2_0_split
I0816 17:18:10.276381 38191 net.cpp:425] ip2_relu_ip2_0_split <- ip2
I0816 17:18:10.276401 38191 net.cpp:399] ip2_relu_ip2_0_split -> ip2_relu_ip2_0_split_0
I0816 17:18:10.276422 38191 net.cpp:399] ip2_relu_ip2_0_split -> ip2_relu_ip2_0_split_1
I0816 17:18:10.276479 38191 net.cpp:141] Setting up ip2_relu_ip2_0_split
I0816 17:18:10.276502 38191 net.cpp:148] Top shape: 200 500 (100000)
I0816 17:18:10.276518 38191 net.cpp:148] Top shape: 200 500 (100000)
I0816 17:18:10.276532 38191 net.cpp:156] Memory required for data: 68776800
I0816 17:18:10.276547 38191 layer_factory.hpp:77] Creating layer ip1
I0816 17:18:10.276568 38191 net.cpp:91] Creating Layer ip1
I0816 17:18:10.276587 38191 net.cpp:425] ip1 <- ip2_relu_ip2_0_split_0
I0816 17:18:10.276615 38191 net.cpp:399] ip1 -> ip1
I0816 17:18:10.277741 38191 net.cpp:141] Setting up ip1
I0816 17:18:10.277776 38191 net.cpp:148] Top shape: 200 12 (2400)
I0816 17:18:10.277792 38191 net.cpp:156] Memory required for data: 68786400
I0816 17:18:10.277823 38191 layer_factory.hpp:77] Creating layer ip_classification
I0816 17:18:10.277843 38191 net.cpp:91] Creating Layer ip_classification
I0816 17:18:10.277860 38191 net.cpp:425] ip_classification <- ip2_relu_ip2_0_split_1
I0816 17:18:10.277881 38191 net.cpp:399] ip_classification -> ip_classification
I0816 17:18:10.278213 38191 net.cpp:141] Setting up ip_classification
I0816 17:18:10.278240 38191 net.cpp:148] Top shape: 200 10 (2000)
I0816 17:18:10.278255 38191 net.cpp:156] Memory required for data: 68794400
I0816 17:18:10.278275 38191 layer_factory.hpp:77] Creating layer loss
I0816 17:18:10.278300 38191 net.cpp:91] Creating Layer loss
I0816 17:18:10.278316 38191 net.cpp:425] loss <- ip1
I0816 17:18:10.278333 38191 net.cpp:425] loss <- label_cifar_1_split_0
I0816 17:18:10.278352 38191 net.cpp:399] loss -> loss
I0816 17:18:10.278447 38191 net.cpp:141] Setting up loss
…
I0816 17:18:10.279882 38191 solver.cpp:181] Creating test net (#0) specified by net file: CIFAR-10/train_test.prototxt
I0816 17:18:10.279943 38191 net.cpp:313] The NetState phase (1) differed from the phase (0) specified by a rule in layer cifar
I0816 17:18:10.280153 38191 net.cpp:49] Initializing net from parameters: 
name: "CIFAR10_full"
state {
  phase: TEST
}
layer {
  name: "cifar"
  type: "Data"
  top: "data"
  top: "label"
  include {
    phase: TEST
  }
  transform_param {
    mirror: false
    mean_file: "CIFAR-10/mean.binaryproto"
  }
  data_param {
    source: "CIFAR-10/cifar10_test_lmdb"
    batch_size: 100
    backend: LMDB
  }
}
layer {
  name: "conv1"
  type: "Convolution"
  bottom: "data"
  top: "conv1"
  param {
    lr_mult: 1
    decay_mult: 1
  }
  param {
    lr_mult: 2
    decay_mult: 0
  }
  convolution_param {
    num_output: 32
    pad: 2
    kernel_size: 5
    stride: 1
    weight_filler {
      type: "xavier"
    }
    bias_filler {
      type: "constant"
    }
  }
}
layer {
  name: "pool1"
  type: "Pooling"
  bottom: "conv1"
  top: "pool1"
  pooling_param {
    pool: MAX
    kernel_size: 3
    stride: 2
  }
}
layer {
  name: "relu1"
  type: "ReLU"
  bottom: "pool1"
  top: "pool1"
}
layer {
  name: "norm1"
  type: "LRN"
  bottom: "pool1"
  top: "norm1"
  lrn_param {
    local_size: 3
    alpha: 5e-05
    beta: 0.75
    norm_region: WITHIN_CHANNEL
  }
}
layer {
  name: "conv2"
  type: "Convolution"
  bottom: "norm1"
  top: "conv2"
  param {
    lr_mult: 1
    decay_mult: 1
  }
  param {
    lr_mult: 2
    decay_mult: 0
  }
  convolution_param {
    num_output: 32
    pad: 2
    kernel_size: 5
    stride: 1
    weight_filler {
      type: "xavier"
    }
    bias_filler {
      type: "constant"
    }
  }
}
layer {
  name: "pool2"
  type: "Pooling"
  bottom: "conv2"
  top: "pool2"
  pooling_param {
    pool: AVE
    kernel_size: 3
    stride: 2
  }
}
layer {
  name: "relu2"
  type: "ReLU"
  bottom: "pool2"
  top: "pool2"
}
layer {
  name: "norm2"
  type: "LRN"
  bottom: "pool2"
  top: "norm2"
  lrn_param {
    local_size: 3
    alpha: 5e-05
    beta: 0.75
    norm_region: WITHIN_CHANNEL
  }
}
layer {
  name: "conv3"
  type: "Convolution"
  bottom: "norm2"
  top: "conv3"
  param {
    lr_mult: 1
    decay_mult: 1
  }
  param {
    lr_mult: 2
    decay_mult: 0
  }
  convolution_param {
    num_output: 64
    pad: 2
    kernel_size: 5
    stride: 1
    weight_filler {
      type: "xavier"
    }
    bias_filler {
      type: "constant"
    }
  }
}
layer {
  name: "relu3"
  type: "ReLU"
  bottom: "conv3"
  top: "conv3"
}
layer {
  name: "pool3"
  type: "Pooling"
  bottom: "conv3"
  top: "pool3"
  pooling_param {
    pool: AVE
    kernel_size: 3
    stride: 2
  }
}
layer {
  name: "ip2"
  type: "InnerProduct"
  bottom: "pool3"
  top: "ip2"
  param {
    lr_mult: 1
    decay_mult: 1
  }
  param {
    lr_mult: 2
    decay_mult: 0
  }
  inner_product_param {
    num_output: 500
    weight_filler {
      type: "xavier"
    }
    bias_filler {
      type: "constant"
    }
  }
}
layer {
  name: "relu_ip2"
  type: "ReLU"
  bottom: "ip2"
  top: "ip2"
}
layer {
  name: "ip1"
  type: "InnerProduct"
  bottom: "ip2"
  top: "ip1"
  param {
    lr_mult: 1
    decay_mult: 1
  }
  param {
    lr_mult: 2
    decay_mult: 0
  }
  inner_product_param {
    num_output: 12
    weight_filler {
      type: "xavier"
    }
    bias_filler {
      type: "constant"
    }
  }
}
layer {
  name: "ip_classification"
  type: "InnerProduct"
  bottom: "ip2"
  top: "ip_classification"
  param {
    lr_mult: 1
    decay_mult: 1
  }
  param {
    lr_mult: 2
    decay_mult: 0
  }
  inner_product_param {
    num_output: 10
    weight_filler {
      type: "gaussian"
      std: 0.005
    }
    bias_filler {
      type: "constant"
      value: 0.1
    }
  }
}
layer {
  name: "loss"
  type: "HashingLoss"
  bottom: "ip1"
  bottom: "label"
  top: "loss"
  loss_weight: 0.1
  hashing_loss_param {
    bi_margin: 24
    tradeoff: 0.01
  }
}
layer {
  name: "loss_classification"
  type: "SoftmaxWithLoss"
  bottom: "ip_classification"
  bottom: "label"
  top: "loss_classification"
}
layer {
  name: "accuracy_at_1"
  type: "Accuracy"
  bottom: "ip_classification"
  bottom: "label"
  top: "accuracy_at_1"
  include {
    phase: TEST
  }
  accuracy_param {
    top_k: 1
  }
}
layer {
  name: "accuracy_at_5"
  type: "Accuracy"
  bottom: "ip_classification"
  bottom: "label"
  top: "accuracy_at_5"
  include {
    phase: TEST
  }
  accuracy_param {
    top_k: 5
  }
}
I0816 17:18:10.281388 38191 layer_factory.hpp:77] Creating layer cifar
I0816 17:18:10.281554 38191 net.cpp:91] Creating Layer cifar
I0816 17:18:10.281581 38191 net.cpp:399] cifar -> data
I0816 17:18:10.281605 38191 net.cpp:399] cifar -> label
I0816 17:18:10.281630 38191 data_transformer.cpp:25] Loading mean file from: CIFAR-10/mean.binaryproto
I0816 17:18:10.282541 38197 db_lmdb.cpp:38] Opened lmdb CIFAR-10/cifar10_test_lmdb
I0816 17:18:10.282701 38191 data_layer.cpp:41] output data size: 100,3,32,32
I0816 17:18:10.286300 38191 net.cpp:141] Setting up cifar
I0816 17:18:10.286335 38191 net.cpp:148] Top shape: 100 3 32 32 (307200)
I0816 17:18:10.286355 38191 net.cpp:148] Top shape: 100 1 1 1 (100)
I0816 17:18:10.286370 38191 net.cpp:156] Memory required for data: 1229200
I0816 17:18:10.286384 38191 layer_factory.hpp:77] Creating layer label_cifar_1_split
I0816 17:18:10.286406 38191 net.cpp:91] Creating Layer label_cifar_1_split
I0816 17:18:10.286422 38191 net.cpp:425] label_cifar_1_split <- label
I0816 17:18:10.286440 38191 net.cpp:399] label_cifar_1_split -> label_cifar_1_split_0
I0816 17:18:10.286463 38191 net.cpp:399] label_cifar_1_split -> label_cifar_1_split_1
I0816 17:18:10.286484 38191 net.cpp:399] label_cifar_1_split -> label_cifar_1_split_2
I0816 17:18:10.286504 38191 net.cpp:399] label_cifar_1_split -> label_cifar_1_split_3
I0816 17:18:10.286615 38191 net.cpp:141] Setting up label_cifar_1_split
I0816 17:18:10.286640 38191 net.cpp:148] Top shape: 100 1 1 1 (100)
I0816 17:18:10.286656 38191 net.cpp:148] Top shape: 100 1 1 1 (100)
I0816 17:18:10.286674 38191 net.cpp:148] Top shape: 100 1 1 1 (100)
I0816 17:18:10.286689 38191 net.cpp:148] Top shape: 100 1 1 1 (100)
I0816 17:18:10.286703 38191 net.cpp:156] Memory required for data: 1230800
I0816 17:18:10.286717 38191 layer_factory.hpp:77] Creating layer conv1
I0816 17:18:10.286751 38191 net.cpp:91] Creating Layer conv1
I0816 17:18:10.286767 38191 net.cpp:425] conv1 <- data
I0816 17:18:10.286790 38191 net.cpp:399] conv1 -> conv1
I0816 17:18:10.287067 38191 net.cpp:141] Setting up conv1
I0816 17:18:10.287093 38191 net.cpp:148] Top shape: 100 32 32 32 (3276800)
I0816 17:18:10.287108 38191 net.cpp:156] Memory required for data: 14338000
I0816 17:18:10.287132 38191 layer_factory.hpp:77] Creating layer pool1
I0816 17:18:10.287150 38191 net.cpp:91] Creating Layer pool1
I0816 17:18:10.287165 38191 net.cpp:425] pool1 <- conv1
I0816 17:18:10.287181 38191 net.cpp:399] pool1 -> pool1
I0816 17:18:10.287241 38191 net.cpp:141] Setting up pool1
I0816 17:18:10.287266 38191 net.cpp:148] Top shape: 100 32 16 16 (819200)
I0816 17:18:10.287279 38191 net.cpp:156] Memory required for data: 17614800
I0816 17:18:10.287294 38191 layer_factory.hpp:77] Creating layer relu1
I0816 17:18:10.287312 38191 net.cpp:91] Creating Layer relu1
I0816 17:18:10.287327 38191 net.cpp:425] relu1 <- pool1
I0816 17:18:10.287345 38191 net.cpp:386] relu1 -> pool1 (in-place)
I0816 17:18:10.287364 38191 net.cpp:141] Setting up relu1
I0816 17:18:10.287380 38191 net.cpp:148] Top shape: 100 32 16 16 (819200)
I0816 17:18:10.287415 38191 net.cpp:156] Memory required for data: 20891600
I0816 17:18:10.287431 38191 layer_factory.hpp:77] Creating layer norm1
I0816 17:18:10.287451 38191 net.cpp:91] Creating Layer norm1
I0816 17:18:10.287467 38191 net.cpp:425] norm1 <- pool1
I0816 17:18:10.287482 38191 net.cpp:399] norm1 -> norm1
I0816 17:18:10.287689 38191 net.cpp:141] Setting up norm1
I0816 17:18:10.287720 38191 net.cpp:148] Top shape: 100 32 16 16 (819200)
I0816 17:18:10.287736 38191 net.cpp:156] Memory required for data: 24168400
I0816 17:18:10.287750 38191 layer_factory.hpp:77] Creating layer conv2
I0816 17:18:10.287782 38191 net.cpp:91] Creating Layer conv2
I0816 17:18:10.287799 38191 net.cpp:425] conv2 <- norm1
I0816 17:18:10.287817 38191 net.cpp:399] conv2 -> conv2
I0816 17:18:10.288388 38191 net.cpp:141] Setting up conv2
I0816 17:18:10.288415 38191 net.cpp:148] Top shape: 100 32 16 16 (819200)
I0816 17:18:10.288430 38191 net.cpp:156] Memory required for data: 27445200
I0816 17:18:10.288461 38191 layer_factory.hpp:77] Creating layer pool2
I0816 17:18:10.288485 38191 net.cpp:91] Creating Layer pool2
I0816 17:18:10.288501 38191 net.cpp:425] pool2 <- conv2
I0816 17:18:10.288533 38191 net.cpp:399] pool2 -> pool2
I0816 17:18:10.288574 38191 net.cpp:141] Setting up pool2
I0816 17:18:10.288604 38191 net.cpp:148] Top shape: 100 32 8 8 (204800)
I0816 17:18:10.288620 38191 net.cpp:156] Memory required for data: 28264400
I0816 17:18:10.288635 38191 layer_factory.hpp:77] Creating layer relu2
I0816 17:18:10.288655 38191 net.cpp:91] Creating Layer relu2
I0816 17:18:10.288669 38191 net.cpp:425] relu2 <- pool2
I0816 17:18:10.288699 38191 net.cpp:386] relu2 -> pool2 (in-place)
I0816 17:18:10.288718 38191 net.cpp:141] Setting up relu2
I0816 17:18:10.288741 38191 net.cpp:148] Top shape: 100 32 8 8 (204800)
I0816 17:18:10.288756 38191 net.cpp:156] Memory required for data: 29083600
I0816 17:18:10.288771 38191 layer_factory.hpp:77] Creating layer norm2
I0816 17:18:10.288789 38191 net.cpp:91] Creating Layer norm2
I0816 17:18:10.288805 38191 net.cpp:425] norm2 <- pool2
I0816 17:18:10.288825 38191 net.cpp:399] norm2 -> norm2
I0816 17:18:10.288947 38191 net.cpp:141] Setting up norm2
I0816 17:18:10.288975 38191 net.cpp:148] Top shape: 100 32 8 8 (204800)
I0816 17:18:10.288990 38191 net.cpp:156] Memory required for data: 29902800
I0816 17:18:10.289005 38191 layer_factory.hpp:77] Creating layer conv3
I0816 17:18:10.289028 38191 net.cpp:91] Creating Layer conv3
I0816 17:18:10.289044 38191 net.cpp:425] conv3 <- norm2
I0816 17:18:10.289062 38191 net.cpp:399] conv3 -> conv3
I0816 17:18:10.289754 38191 net.cpp:141] Setting up conv3
I0816 17:18:10.289780 38191 net.cpp:148] Top shape: 100 64 8 8 (409600)
I0816 17:18:10.289800 38191 net.cpp:156] Memory required for data: 31541200
I0816 17:18:10.289822 38191 layer_factory.hpp:77] Creating layer relu3
I0816 17:18:10.289840 38191 net.cpp:91] Creating Layer relu3
I0816 17:18:10.289855 38191 net.cpp:425] relu3 <- conv3
I0816 17:18:10.289870 38191 net.cpp:386] relu3 -> conv3 (in-place)
I0816 17:18:10.289888 38191 net.cpp:141] Setting up relu3
I0816 17:18:10.289906 38191 net.cpp:148] Top shape: 100 64 8 8 (409600)
I0816 17:18:10.289921 38191 net.cpp:156] Memory required for data: 33179600
I0816 17:18:10.289933 38191 layer_factory.hpp:77] Creating layer pool3
I0816 17:18:10.289957 38191 net.cpp:91] Creating Layer pool3
I0816 17:18:10.289975 38191 net.cpp:425] pool3 <- conv3
I0816 17:18:10.289993 38191 net.cpp:399] pool3 -> pool3
I0816 17:18:10.290035 38191 net.cpp:141] Setting up pool3
I0816 17:18:10.290057 38191 net.cpp:148] Top shape: 100 64 4 4 (102400)
I0816 17:18:10.290072 38191 net.cpp:156] Memory required for data: 33589200
I0816 17:18:10.290086 38191 layer_factory.hpp:77] Creating layer ip2
I0816 17:18:10.290109 38191 net.cpp:91] Creating Layer ip2
I0816 17:18:10.290130 38191 net.cpp:425] ip2 <- pool3
I0816 17:18:10.290148 38191 net.cpp:399] ip2 -> ip2
I0816 17:18:10.295755 38191 net.cpp:141] Setting up ip2
I0816 17:18:10.295794 38191 net.cpp:148] Top shape: 100 500 (50000)
I0816 17:18:10.295830 38191 net.cpp:156] Memory required for data: 33789200
I0816 17:18:10.295853 38191 layer_factory.hpp:77] Creating layer relu_ip2
I0816 17:18:10.295872 38191 net.cpp:91] Creating Layer relu_ip2
I0816 17:18:10.295888 38191 net.cpp:425] relu_ip2 <- ip2
I0816 17:18:10.295904 38191 net.cpp:386] relu_ip2 -> ip2 (in-place)
I0816 17:18:10.295928 38191 net.cpp:141] Setting up relu_ip2
I0816 17:18:10.295946 38191 net.cpp:148] Top shape: 100 500 (50000)
I0816 17:18:10.295960 38191 net.cpp:156] Memory required for data: 33989200
I0816 17:18:10.295974 38191 layer_factory.hpp:77] Creating layer ip2_relu_ip2_0_split
I0816 17:18:10.295991 38191 net.cpp:91] Creating Layer ip2_relu_ip2_0_split
I0816 17:18:10.296005 38191 net.cpp:425] ip2_relu_ip2_0_split <- ip2
I0816 17:18:10.296025 38191 net.cpp:399] ip2_relu_ip2_0_split -> ip2_relu_ip2_0_split_0
I0816 17:18:10.296046 38191 net.cpp:399] ip2_relu_ip2_0_split -> ip2_relu_ip2_0_split_1
I0816 17:18:10.296105 38191 net.cpp:141] Setting up ip2_relu_ip2_0_split
I0816 17:18:10.296129 38191 net.cpp:148] Top shape: 100 500 (50000)
I0816 17:18:10.296145 38191 net.cpp:148] Top shape: 100 500 (50000)
I0816 17:18:10.296160 38191 net.cpp:156] Memory required for data: 34389200
I0816 17:18:10.296175 38191 layer_factory.hpp:77] Creating layer ip1
I0816 17:18:10.296195 38191 net.cpp:91] Creating Layer ip1
I0816 17:18:10.296211 38191 net.cpp:425] ip1 <- ip2_relu_ip2_0_split_0
I0816 17:18:10.296231 38191 net.cpp:399] ip1 -> ip1
I0816 17:18:10.296409 38191 net.cpp:141] Setting up ip1
I0816 17:18:10.296434 38191 net.cpp:148] Top shape: 100 12 (1200)
I0816 17:18:10.296449 38191 net.cpp:156] Memory required for data: 34394000
I0816 17:18:10.296470 38191 layer_factory.hpp:77] Creating layer ip_classification
I0816 17:18:10.296495 38191 net.cpp:91] Creating Layer ip_classification
I0816 17:18:10.296512 38191 net.cpp:425] ip_classification <- ip2_relu_ip2_0_split_1
I0816 17:18:10.296532 38191 net.cpp:399] ip_classification -> ip_classification
I0816 17:18:10.296851 38191 net.cpp:141] Setting up ip_classification
I0816 17:18:10.296877 38191 net.cpp:148] Top shape: 100 10 (1000)
I0816 17:18:10.296892 38191 net.cpp:156] Memory required for data: 34398000
I0816 17:18:10.296911 38191 layer_factory.hpp:77] Creating layer ip_classification_ip_classification_0_split
I0816 17:18:10.296928 38191 net.cpp:91] Creating Layer ip_classification_ip_classification_0_split
I0816 17:18:10.296943 38191 net.cpp:425] ip_classification_ip_classification_0_split <- ip_classification
I0816 17:18:10.296959 38191 net.cpp:399] ip_classification_ip_classification_0_split -> ip_classification_ip_classification_0_split_0
I0816 17:18:10.296979 38191 net.cpp:399] ip_classification_ip_classification_0_split -> ip_classification_ip_classification_0_split_1
I0816 17:18:10.297001 38191 net.cpp:399] ip_classification_ip_classification_0_split -> ip_classification_ip_classification_0_split_2
I0816 17:18:10.297068 38191 net.cpp:141] Setting up ip_classification_ip_classification_0_split
I0816 17:18:10.297091 38191 net.cpp:148] Top shape: 100 10 (1000)
I0816 17:18:10.297108 38191 net.cpp:148] Top shape: 100 10 (1000)
I0816 17:18:10.297123 38191 net.cpp:148] Top shape: 100 10 (1000)
I0816 17:18:10.297137 38191 net.cpp:156] Memory required for data: 34410000
I0816 17:18:10.297152 38191 layer_factory.hpp:77] Creating layer loss
I0816 17:18:10.297173 38191 net.cpp:91] Creating Layer loss
I0816 17:18:10.297190 38191 net.cpp:425] loss <- ip1
I0816 17:18:10.297206 38191 net.cpp:425] loss <- label_cifar_1_split_0
I0816 17:18:10.297224 38191 net.cpp:399] loss -> loss
I0816 17:18:10.297305 38191 net.cpp:141] Setting up loss
…
