…
I0817 11:09:46.348685 12074 net.cpp:313] The NetState phase (0) differed from the phase (1) specified by a rule in layer accuracy_at_1
I0817 11:09:46.348724 12074 net.cpp:313] The NetState phase (0) differed from the phase (1) specified by a rule in layer accuracy_at_5
I0817 11:09:46.349134 12074 net.cpp:49] Initializing net from parameters: 
name: "CIFAR10_full"
state {
  phase: TRAIN
}
layer {
  name: "cifar"
  type: "Data"
  top: "data"
  top: "label"
  include {
    phase: TRAIN
  }
  transform_param {
    mirror: true
    mean_file: "CIFAR-10/mean.binaryproto"
  }
  data_param {
    source: "CIFAR-10/cifar10_train_lmdb"
    batch_size: 200
    backend: LMDB
  }
}
layer {
  name: "conv1"
  type: "Convolution"
  bottom: "data"
  top: "conv1"
  param {
    lr_mult: 1
    decay_mult: 1
  }
  param {
    lr_mult: 2
    decay_mult: 0
  }
  convolution_param {
    num_output: 32
    pad: 2
    kernel_size: 5
    stride: 1
    weight_filler {
      type: "xavier"
    }
    bias_filler {
      type: "constant"
    }
  }
}
layer {
  name: "pool1"
  type: "Pooling"
  bottom: "conv1"
  top: "pool1"
  pooling_param {
    pool: MAX
    kernel_size: 3
    stride: 2
  }
}
layer {
  name: "relu1"
  type: "ReLU"
  bottom: "pool1"
  top: "pool1"
}
layer {
  name: "norm1"
  type: "LRN"
  bottom: "pool1"
  top: "norm1"
  lrn_param {
    local_size: 3
    alpha: 5e-05
    beta: 0.75
    norm_region: WITHIN_CHANNEL
  }
}
layer {
  name: "conv2"
  type: "Convolution"
  bottom: "norm1"
  top: "conv2"
  param {
    lr_mult: 1
    decay_mult: 1
  }
  param {
    lr_mult: 2
    decay_mult: 0
  }
  convolution_param {
    num_output: 32
    pad: 2
    kernel_size: 5
    stride: 1
    weight_filler {
      type: "xavier"
    }
    bias_filler {
      type: "constant"
    }
  }
}
layer {
  name: "pool2"
  type: "Pooling"
  bottom: "conv2"
  top: "pool2"
  pooling_param {
    pool: AVE
    kernel_size: 3
    stride: 2
  }
}
layer {
  name: "relu2"
  type: "ReLU"
  bottom: "pool2"
  top: "pool2"
}
layer {
  name: "norm2"
  type: "LRN"
  bottom: "pool2"
  top: "norm2"
  lrn_param {
    local_size: 3
    alpha: 5e-05
    beta: 0.75
    norm_region: WITHIN_CHANNEL
  }
}
layer {
  name: "conv3"
  type: "Convolution"
  bottom: "norm2"
  top: "conv3"
  param {
    lr_mult: 1
    decay_mult: 1
  }
  param {
    lr_mult: 2
    decay_mult: 0
  }
  convolution_param {
    num_output: 64
    pad: 2
    kernel_size: 5
    stride: 1
    weight_filler {
      type: "xavier"
    }
    bias_filler {
      type: "constant"
    }
  }
}
layer {
  name: "relu3"
  type: "ReLU"
  bottom: "conv3"
  top: "conv3"
}
layer {
  name: "pool3"
  type: "Pooling"
  bottom: "conv3"
  top: "pool3"
  pooling_param {
    pool: AVE
    kernel_size: 3
    stride: 2
  }
}
layer {
  name: "ip2"
  type: "InnerProduct"
  bottom: "pool3"
  top: "ip2"
  param {
    lr_mult: 1
    decay_mult: 1
  }
  param {
    lr_mult: 2
    decay_mult: 0
  }
  inner_product_param {
    num_output: 500
    weight_filler {
      type: "xavier"
    }
    bias_filler {
      type: "constant"
    }
  }
}
layer {
  name: "relu_ip2"
  type: "ReLU"
  bottom: "ip2"
  top: "ip2"
}
layer {
  name: "ip1"
  type: "InnerProduct"
  bottom: "ip2"
  top: "ip1"
  param {
    lr_mult: 1
    decay_mult: 1
  }
  param {
    lr_mult: 2
    decay_mult: 0
  }
  inner_product_param {
    num_output: 12
    weight_filler {
      type: "xavier"
    }
    bias_filler {
      type: "constant"
    }
  }
}
layer {
  name: "ip_classification"
  type: "InnerProduct"
  bottom: "ip2"
  top: "ip_classification"
  param {
    lr_mult: 1
    decay_mult: 1
  }
  param {
    lr_mult: 2
    decay_mult: 0
  }
  inner_product_param {
    num_output: 10
    weight_filler {
      type: "gaussian"
      std: 0.005
    }
    bias_filler {
      type: "constant"
      value: 0.1
    }
  }
}
layer {
  name: "loss"
  type: "HashingLoss"
  bottom: "ip1"
  bottom: "label"
  top: "loss"
  loss_weight: 0.1
  hashing_loss_param {
    bi_margin: 24
    tradeoff: 0.01
  }
}
layer {
  name: "loss_classification"
  type: "SoftmaxWithLoss"
  bottom: "ip_classification"
  bottom: "label"
  top: "loss_classification"
}
I0817 11:09:46.351665 12074 layer_factory.hpp:77] Creating layer cifar
I0817 11:09:46.353260 12074 net.cpp:91] Creating Layer cifar
I0817 11:09:46.353379 12074 net.cpp:399] cifar -> data
I0817 11:09:46.353493 12074 net.cpp:399] cifar -> label
I0817 11:09:46.353575 12074 data_transformer.cpp:25] Loading mean file from: CIFAR-10/mean.binaryproto
I0817 11:09:46.355257 12079 db_lmdb.cpp:38] Opened lmdb CIFAR-10/cifar10_train_lmdb
I0817 11:09:46.385638 12074 data_layer.cpp:41] output data size: 200,3,32,32
I0817 11:09:46.395243 12074 net.cpp:141] Setting up cifar
I0817 11:09:46.395344 12074 net.cpp:148] Top shape: 200 3 32 32 (614400)
I0817 11:09:46.395395 12074 net.cpp:148] Top shape: 200 1 1 1 (200)
I0817 11:09:46.395431 12074 net.cpp:156] Memory required for data: 2458400
I0817 11:09:46.395483 12074 layer_factory.hpp:77] Creating layer label_cifar_1_split
I0817 11:09:46.395542 12074 net.cpp:91] Creating Layer label_cifar_1_split
I0817 11:09:46.395588 12074 net.cpp:425] label_cifar_1_split <- label
I0817 11:09:46.395650 12074 net.cpp:399] label_cifar_1_split -> label_cifar_1_split_0
I0817 11:09:46.395705 12074 net.cpp:399] label_cifar_1_split -> label_cifar_1_split_1
I0817 11:09:46.395941 12074 net.cpp:141] Setting up label_cifar_1_split
I0817 11:09:46.395985 12074 net.cpp:148] Top shape: 200 1 1 1 (200)
I0817 11:09:46.396018 12074 net.cpp:148] Top shape: 200 1 1 1 (200)
I0817 11:09:46.396045 12074 net.cpp:156] Memory required for data: 2460000
I0817 11:09:46.396071 12074 layer_factory.hpp:77] Creating layer conv1
I0817 11:09:46.396142 12074 net.cpp:91] Creating Layer conv1
I0817 11:09:46.396175 12074 net.cpp:425] conv1 <- data
I0817 11:09:46.396219 12074 net.cpp:399] conv1 -> conv1
I0817 11:09:46.397783 12074 net.cpp:141] Setting up conv1
I0817 11:09:46.397835 12074 net.cpp:148] Top shape: 200 32 32 32 (6553600)
I0817 11:09:46.397868 12074 net.cpp:156] Memory required for data: 28674400
I0817 11:09:46.397927 12074 layer_factory.hpp:77] Creating layer pool1
I0817 11:09:46.397977 12074 net.cpp:91] Creating Layer pool1
I0817 11:09:46.398010 12074 net.cpp:425] pool1 <- conv1
I0817 11:09:46.398046 12074 net.cpp:399] pool1 -> pool1
I0817 11:09:46.398455 12074 net.cpp:141] Setting up pool1
I0817 11:09:46.398501 12074 net.cpp:148] Top shape: 200 32 16 16 (1638400)
I0817 11:09:46.398531 12074 net.cpp:156] Memory required for data: 35228000
I0817 11:09:46.398558 12074 layer_factory.hpp:77] Creating layer relu1
I0817 11:09:46.398597 12074 net.cpp:91] Creating Layer relu1
I0817 11:09:46.398627 12074 net.cpp:425] relu1 <- pool1
I0817 11:09:46.398656 12074 net.cpp:386] relu1 -> pool1 (in-place)
I0817 11:09:46.398697 12074 net.cpp:141] Setting up relu1
I0817 11:09:46.398730 12074 net.cpp:148] Top shape: 200 32 16 16 (1638400)
I0817 11:09:46.398758 12074 net.cpp:156] Memory required for data: 41781600
I0817 11:09:46.398785 12074 layer_factory.hpp:77] Creating layer norm1
I0817 11:09:46.398823 12074 net.cpp:91] Creating Layer norm1
I0817 11:09:46.398854 12074 net.cpp:425] norm1 <- pool1
I0817 11:09:46.398883 12074 net.cpp:399] norm1 -> norm1
I0817 11:09:46.399147 12074 net.cpp:141] Setting up norm1
I0817 11:09:46.399191 12074 net.cpp:148] Top shape: 200 32 16 16 (1638400)
I0817 11:09:46.399221 12074 net.cpp:156] Memory required for data: 48335200
I0817 11:09:46.399247 12074 layer_factory.hpp:77] Creating layer conv2
I0817 11:09:46.399345 12074 net.cpp:91] Creating Layer conv2
I0817 11:09:46.399379 12074 net.cpp:425] conv2 <- norm1
I0817 11:09:46.399417 12074 net.cpp:399] conv2 -> conv2
I0817 11:09:46.401243 12074 net.cpp:141] Setting up conv2
I0817 11:09:46.401300 12074 net.cpp:148] Top shape: 200 32 16 16 (1638400)
I0817 11:09:46.401335 12074 net.cpp:156] Memory required for data: 54888800
I0817 11:09:46.401379 12074 layer_factory.hpp:77] Creating layer pool2
I0817 11:09:46.401417 12074 net.cpp:91] Creating Layer pool2
I0817 11:09:46.401446 12074 net.cpp:425] pool2 <- conv2
I0817 11:09:46.401481 12074 net.cpp:399] pool2 -> pool2
I0817 11:09:46.401552 12074 net.cpp:141] Setting up pool2
I0817 11:09:46.401594 12074 net.cpp:148] Top shape: 200 32 8 8 (409600)
I0817 11:09:46.401625 12074 net.cpp:156] Memory required for data: 56527200
I0817 11:09:46.401652 12074 layer_factory.hpp:77] Creating layer relu2
I0817 11:09:46.401685 12074 net.cpp:91] Creating Layer relu2
I0817 11:09:46.401715 12074 net.cpp:425] relu2 <- pool2
I0817 11:09:46.401743 12074 net.cpp:386] relu2 -> pool2 (in-place)
I0817 11:09:46.401777 12074 net.cpp:141] Setting up relu2
I0817 11:09:46.401809 12074 net.cpp:148] Top shape: 200 32 8 8 (409600)
I0817 11:09:46.401836 12074 net.cpp:156] Memory required for data: 58165600
I0817 11:09:46.401863 12074 layer_factory.hpp:77] Creating layer norm2
I0817 11:09:46.401901 12074 net.cpp:91] Creating Layer norm2
I0817 11:09:46.401929 12074 net.cpp:425] norm2 <- pool2
I0817 11:09:46.401963 12074 net.cpp:399] norm2 -> norm2
I0817 11:09:46.402168 12074 net.cpp:141] Setting up norm2
I0817 11:09:46.402210 12074 net.cpp:148] Top shape: 200 32 8 8 (409600)
I0817 11:09:46.402243 12074 net.cpp:156] Memory required for data: 59804000
I0817 11:09:46.402269 12074 layer_factory.hpp:77] Creating layer conv3
I0817 11:09:46.402314 12074 net.cpp:91] Creating Layer conv3
I0817 11:09:46.402344 12074 net.cpp:425] conv3 <- norm2
I0817 11:09:46.402380 12074 net.cpp:399] conv3 -> conv3
I0817 11:09:46.403530 12074 net.cpp:141] Setting up conv3
I0817 11:09:46.403575 12074 net.cpp:148] Top shape: 200 64 8 8 (819200)
I0817 11:09:46.403604 12074 net.cpp:156] Memory required for data: 63080800
I0817 11:09:46.403642 12074 layer_factory.hpp:77] Creating layer relu3
I0817 11:09:46.403676 12074 net.cpp:91] Creating Layer relu3
I0817 11:09:46.403704 12074 net.cpp:425] relu3 <- conv3
I0817 11:09:46.403738 12074 net.cpp:386] relu3 -> conv3 (in-place)
I0817 11:09:46.403774 12074 net.cpp:141] Setting up relu3
I0817 11:09:46.403805 12074 net.cpp:148] Top shape: 200 64 8 8 (819200)
I0817 11:09:46.403832 12074 net.cpp:156] Memory required for data: 66357600
I0817 11:09:46.403858 12074 layer_factory.hpp:77] Creating layer pool3
I0817 11:09:46.403892 12074 net.cpp:91] Creating Layer pool3
I0817 11:09:46.403925 12074 net.cpp:425] pool3 <- conv3
I0817 11:09:46.403959 12074 net.cpp:399] pool3 -> pool3
I0817 11:09:46.404026 12074 net.cpp:141] Setting up pool3
I0817 11:09:46.404064 12074 net.cpp:148] Top shape: 200 64 4 4 (204800)
I0817 11:09:46.404093 12074 net.cpp:156] Memory required for data: 67176800
I0817 11:09:46.404117 12074 layer_factory.hpp:77] Creating layer ip2
I0817 11:09:46.404170 12074 net.cpp:91] Creating Layer ip2
I0817 11:09:46.404201 12074 net.cpp:425] ip2 <- pool3
I0817 11:09:46.404255 12074 net.cpp:399] ip2 -> ip2
I0817 11:09:46.413552 12074 net.cpp:141] Setting up ip2
I0817 11:09:46.413605 12074 net.cpp:148] Top shape: 200 500 (100000)
I0817 11:09:46.413640 12074 net.cpp:156] Memory required for data: 67576800
I0817 11:09:46.413674 12074 layer_factory.hpp:77] Creating layer relu_ip2
I0817 11:09:46.413712 12074 net.cpp:91] Creating Layer relu_ip2
I0817 11:09:46.413741 12074 net.cpp:425] relu_ip2 <- ip2
I0817 11:09:46.413776 12074 net.cpp:386] relu_ip2 -> ip2 (in-place)
I0817 11:09:46.413817 12074 net.cpp:141] Setting up relu_ip2
I0817 11:09:46.413851 12074 net.cpp:148] Top shape: 200 500 (100000)
I0817 11:09:46.413882 12074 net.cpp:156] Memory required for data: 67976800
I0817 11:09:46.413908 12074 layer_factory.hpp:77] Creating layer ip2_relu_ip2_0_split
I0817 11:09:46.413986 12074 net.cpp:91] Creating Layer ip2_relu_ip2_0_split
I0817 11:09:46.414019 12074 net.cpp:425] ip2_relu_ip2_0_split <- ip2
I0817 11:09:46.414049 12074 net.cpp:399] ip2_relu_ip2_0_split -> ip2_relu_ip2_0_split_0
I0817 11:09:46.414086 12074 net.cpp:399] ip2_relu_ip2_0_split -> ip2_relu_ip2_0_split_1
I0817 11:09:46.414322 12074 net.cpp:141] Setting up ip2_relu_ip2_0_split
I0817 11:09:46.414369 12074 net.cpp:148] Top shape: 200 500 (100000)
I0817 11:09:46.414403 12074 net.cpp:148] Top shape: 200 500 (100000)
I0817 11:09:46.414435 12074 net.cpp:156] Memory required for data: 68776800
I0817 11:09:46.414463 12074 layer_factory.hpp:77] Creating layer ip1
I0817 11:09:46.414500 12074 net.cpp:91] Creating Layer ip1
I0817 11:09:46.414531 12074 net.cpp:425] ip1 <- ip2_relu_ip2_0_split_0
I0817 11:09:46.414563 12074 net.cpp:399] ip1 -> ip1
I0817 11:09:46.415848 12074 net.cpp:141] Setting up ip1
I0817 11:09:46.415905 12074 net.cpp:148] Top shape: 200 12 (2400)
I0817 11:09:46.415938 12074 net.cpp:156] Memory required for data: 68786400
I0817 11:09:46.415977 12074 layer_factory.hpp:77] Creating layer ip_classification
I0817 11:09:46.416020 12074 net.cpp:91] Creating Layer ip_classification
I0817 11:09:46.416055 12074 net.cpp:425] ip_classification <- ip2_relu_ip2_0_split_1
I0817 11:09:46.416095 12074 net.cpp:399] ip_classification -> ip_classification
I0817 11:09:46.416666 12074 net.cpp:141] Setting up ip_classification
I0817 11:09:46.416729 12074 net.cpp:148] Top shape: 200 10 (2000)
I0817 11:09:46.416759 12074 net.cpp:156] Memory required for data: 68794400
I0817 11:09:46.416792 12074 layer_factory.hpp:77] Creating layer loss
I0817 11:09:46.416841 12074 net.cpp:91] Creating Layer loss
I0817 11:09:46.416872 12074 net.cpp:425] loss <- ip1
I0817 11:09:46.416903 12074 net.cpp:425] loss <- label_cifar_1_split_0
I0817 11:09:46.416941 12074 net.cpp:399] loss -> loss
I0817 11:09:46.417111 12074 net.cpp:141] Setting up loss
…
I0817 11:09:46.419564 12074 solver.cpp:181] Creating test net (#0) specified by net file: CIFAR-10/train_test.prototxt
I0817 11:09:46.419678 12074 net.cpp:313] The NetState phase (1) differed from the phase (0) specified by a rule in layer cifar
I0817 11:09:46.420025 12074 net.cpp:49] Initializing net from parameters: 
name: "CIFAR10_full"
state {
  phase: TEST
}
layer {
  name: "cifar"
  type: "Data"
  top: "data"
  top: "label"
  include {
    phase: TEST
  }
  transform_param {
    mirror: false
    mean_file: "CIFAR-10/mean.binaryproto"
  }
  data_param {
    source: "CIFAR-10/cifar10_test_lmdb"
    batch_size: 100
    backend: LMDB
  }
}
layer {
  name: "conv1"
  type: "Convolution"
  bottom: "data"
  top: "conv1"
  param {
    lr_mult: 1
    decay_mult: 1
  }
  param {
    lr_mult: 2
    decay_mult: 0
  }
  convolution_param {
    num_output: 32
    pad: 2
    kernel_size: 5
    stride: 1
    weight_filler {
      type: "xavier"
    }
    bias_filler {
      type: "constant"
    }
  }
}
layer {
  name: "pool1"
  type: "Pooling"
  bottom: "conv1"
  top: "pool1"
  pooling_param {
    pool: MAX
    kernel_size: 3
    stride: 2
  }
}
layer {
  name: "relu1"
  type: "ReLU"
  bottom: "pool1"
  top: "pool1"
}
layer {
  name: "norm1"
  type: "LRN"
  bottom: "pool1"
  top: "norm1"
  lrn_param {
    local_size: 3
    alpha: 5e-05
    beta: 0.75
    norm_region: WITHIN_CHANNEL
  }
}
layer {
  name: "conv2"
  type: "Convolution"
  bottom: "norm1"
  top: "conv2"
  param {
    lr_mult: 1
    decay_mult: 1
  }
  param {
    lr_mult: 2
    decay_mult: 0
  }
  convolution_param {
    num_output: 32
    pad: 2
    kernel_size: 5
    stride: 1
    weight_filler {
      type: "xavier"
    }
    bias_filler {
      type: "constant"
    }
  }
}
layer {
  name: "pool2"
  type: "Pooling"
  bottom: "conv2"
  top: "pool2"
  pooling_param {
    pool: AVE
    kernel_size: 3
    stride: 2
  }
}
layer {
  name: "relu2"
  type: "ReLU"
  bottom: "pool2"
  top: "pool2"
}
layer {
  name: "norm2"
  type: "LRN"
  bottom: "pool2"
  top: "norm2"
  lrn_param {
    local_size: 3
    alpha: 5e-05
    beta: 0.75
    norm_region: WITHIN_CHANNEL
  }
}
layer {
  name: "conv3"
  type: "Convolution"
  bottom: "norm2"
  top: "conv3"
  param {
    lr_mult: 1
    decay_mult: 1
  }
  param {
    lr_mult: 2
    decay_mult: 0
  }
  convolution_param {
    num_output: 64
    pad: 2
    kernel_size: 5
    stride: 1
    weight_filler {
      type: "xavier"
    }
    bias_filler {
      type: "constant"
    }
  }
}
layer {
  name: "relu3"
  type: "ReLU"
  bottom: "conv3"
  top: "conv3"
}
layer {
  name: "pool3"
  type: "Pooling"
  bottom: "conv3"
  top: "pool3"
  pooling_param {
    pool: AVE
    kernel_size: 3
    stride: 2
  }
}
layer {
  name: "ip2"
  type: "InnerProduct"
  bottom: "pool3"
  top: "ip2"
  param {
    lr_mult: 1
    decay_mult: 1
  }
  param {
    lr_mult: 2
    decay_mult: 0
  }
  inner_product_param {
    num_output: 500
    weight_filler {
      type: "xavier"
    }
    bias_filler {
      type: "constant"
    }
  }
}
layer {
  name: "relu_ip2"
  type: "ReLU"
  bottom: "ip2"
  top: "ip2"
}
layer {
  name: "ip1"
  type: "InnerProduct"
  bottom: "ip2"
  top: "ip1"
  param {
    lr_mult: 1
    decay_mult: 1
  }
  param {
    lr_mult: 2
    decay_mult: 0
  }
  inner_product_param {
    num_output: 12
    weight_filler {
      type: "xavier"
    }
    bias_filler {
      type: "constant"
    }
  }
}
layer {
  name: "ip_classification"
  type: "InnerProduct"
  bottom: "ip2"
  top: "ip_classification"
  param {
    lr_mult: 1
    decay_mult: 1
  }
  param {
    lr_mult: 2
    decay_mult: 0
  }
  inner_product_param {
    num_output: 10
    weight_filler {
      type: "gaussian"
      std: 0.005
    }
    bias_filler {
      type: "constant"
      value: 0.1
    }
  }
}
layer {
  name: "loss"
  type: "HashingLoss"
  bottom: "ip1"
  bottom: "label"
  top: "loss"
  loss_weight: 0.1
  hashing_loss_param {
    bi_margin: 24
    tradeoff: 0.01
  }
}
layer {
  name: "loss_classification"
  type: "SoftmaxWithLoss"
  bottom: "ip_classification"
  bottom: "label"
  top: "loss_classification"
}
layer {
  name: "accuracy_at_1"
  type: "Accuracy"
  bottom: "ip_classification"
  bottom: "label"
  top: "accuracy_at_1"
  include {
    phase: TEST
  }
  accuracy_param {
    top_k: 1
  }
}
layer {
  name: "accuracy_at_5"
  type: "Accuracy"
  bottom: "ip_classification"
  bottom: "label"
  top: "accuracy_at_5"
  include {
    phase: TEST
  }
  accuracy_param {
    top_k: 5
  }
}
I0817 11:09:46.422302 12074 layer_factory.hpp:77] Creating layer cifar
I0817 11:09:46.423220 12074 net.cpp:91] Creating Layer cifar
I0817 11:09:46.423264 12074 net.cpp:399] cifar -> data
I0817 11:09:46.423315 12074 net.cpp:399] cifar -> label
I0817 11:09:46.423358 12074 data_transformer.cpp:25] Loading mean file from: CIFAR-10/mean.binaryproto
I0817 11:09:46.424780 12081 db_lmdb.cpp:38] Opened lmdb CIFAR-10/cifar10_test_lmdb
I0817 11:09:46.425019 12074 data_layer.cpp:41] output data size: 100,3,32,32
I0817 11:09:46.430239 12074 net.cpp:141] Setting up cifar
I0817 11:09:46.430296 12074 net.cpp:148] Top shape: 100 3 32 32 (307200)
I0817 11:09:46.430333 12074 net.cpp:148] Top shape: 100 1 1 1 (100)
I0817 11:09:46.430362 12074 net.cpp:156] Memory required for data: 1229200
I0817 11:09:46.430392 12074 layer_factory.hpp:77] Creating layer label_cifar_1_split
I0817 11:09:46.430426 12074 net.cpp:91] Creating Layer label_cifar_1_split
I0817 11:09:46.430456 12074 net.cpp:425] label_cifar_1_split <- label
I0817 11:09:46.430486 12074 net.cpp:399] label_cifar_1_split -> label_cifar_1_split_0
I0817 11:09:46.430533 12074 net.cpp:399] label_cifar_1_split -> label_cifar_1_split_1
I0817 11:09:46.430573 12074 net.cpp:399] label_cifar_1_split -> label_cifar_1_split_2
I0817 11:09:46.430613 12074 net.cpp:399] label_cifar_1_split -> label_cifar_1_split_3
I0817 11:09:46.430768 12074 net.cpp:141] Setting up label_cifar_1_split
I0817 11:09:46.430810 12074 net.cpp:148] Top shape: 100 1 1 1 (100)
I0817 11:09:46.430842 12074 net.cpp:148] Top shape: 100 1 1 1 (100)
I0817 11:09:46.430873 12074 net.cpp:148] Top shape: 100 1 1 1 (100)
I0817 11:09:46.430903 12074 net.cpp:148] Top shape: 100 1 1 1 (100)
I0817 11:09:46.430930 12074 net.cpp:156] Memory required for data: 1230800
I0817 11:09:46.430955 12074 layer_factory.hpp:77] Creating layer conv1
I0817 11:09:46.431004 12074 net.cpp:91] Creating Layer conv1
I0817 11:09:46.431035 12074 net.cpp:425] conv1 <- data
I0817 11:09:46.431080 12074 net.cpp:399] conv1 -> conv1
I0817 11:09:46.431555 12074 net.cpp:141] Setting up conv1
I0817 11:09:46.431599 12074 net.cpp:148] Top shape: 100 32 32 32 (3276800)
I0817 11:09:46.431628 12074 net.cpp:156] Memory required for data: 14338000
I0817 11:09:46.431668 12074 layer_factory.hpp:77] Creating layer pool1
I0817 11:09:46.431722 12074 net.cpp:91] Creating Layer pool1
I0817 11:09:46.431756 12074 net.cpp:425] pool1 <- conv1
I0817 11:09:46.431793 12074 net.cpp:399] pool1 -> pool1
I0817 11:09:46.431906 12074 net.cpp:141] Setting up pool1
I0817 11:09:46.431947 12074 net.cpp:148] Top shape: 100 32 16 16 (819200)
I0817 11:09:46.431977 12074 net.cpp:156] Memory required for data: 17614800
I0817 11:09:46.432001 12074 layer_factory.hpp:77] Creating layer relu1
I0817 11:09:46.432039 12074 net.cpp:91] Creating Layer relu1
I0817 11:09:46.432070 12074 net.cpp:425] relu1 <- pool1
I0817 11:09:46.432098 12074 net.cpp:386] relu1 -> pool1 (in-place)
I0817 11:09:46.432134 12074 net.cpp:141] Setting up relu1
I0817 11:09:46.432165 12074 net.cpp:148] Top shape: 100 32 16 16 (819200)
I0817 11:09:46.432243 12074 net.cpp:156] Memory required for data: 20891600
I0817 11:09:46.432273 12074 layer_factory.hpp:77] Creating layer norm1
I0817 11:09:46.432312 12074 net.cpp:91] Creating Layer norm1
I0817 11:09:46.432343 12074 net.cpp:425] norm1 <- pool1
I0817 11:09:46.432373 12074 net.cpp:399] norm1 -> norm1
I0817 11:09:46.432610 12074 net.cpp:141] Setting up norm1
I0817 11:09:46.432698 12074 net.cpp:148] Top shape: 100 32 16 16 (819200)
I0817 11:09:46.432740 12074 net.cpp:156] Memory required for data: 24168400
I0817 11:09:46.432775 12074 layer_factory.hpp:77] Creating layer conv2
I0817 11:09:46.432813 12074 net.cpp:91] Creating Layer conv2
I0817 11:09:46.432843 12074 net.cpp:425] conv2 <- norm1
I0817 11:09:46.432883 12074 net.cpp:399] conv2 -> conv2
I0817 11:09:46.433706 12074 net.cpp:141] Setting up conv2
I0817 11:09:46.433754 12074 net.cpp:148] Top shape: 100 32 16 16 (819200)
I0817 11:09:46.433786 12074 net.cpp:156] Memory required for data: 27445200
I0817 11:09:46.433825 12074 layer_factory.hpp:77] Creating layer pool2
I0817 11:09:46.433863 12074 net.cpp:91] Creating Layer pool2
I0817 11:09:46.433895 12074 net.cpp:425] pool2 <- conv2
I0817 11:09:46.433934 12074 net.cpp:399] pool2 -> pool2
I0817 11:09:46.434000 12074 net.cpp:141] Setting up pool2
I0817 11:09:46.434041 12074 net.cpp:148] Top shape: 100 32 8 8 (204800)
I0817 11:09:46.434070 12074 net.cpp:156] Memory required for data: 28264400
I0817 11:09:46.434095 12074 layer_factory.hpp:77] Creating layer relu2
I0817 11:09:46.434129 12074 net.cpp:91] Creating Layer relu2
I0817 11:09:46.434159 12074 net.cpp:425] relu2 <- pool2
I0817 11:09:46.434193 12074 net.cpp:386] relu2 -> pool2 (in-place)
I0817 11:09:46.434229 12074 net.cpp:141] Setting up relu2
I0817 11:09:46.434262 12074 net.cpp:148] Top shape: 100 32 8 8 (204800)
I0817 11:09:46.434288 12074 net.cpp:156] Memory required for data: 29083600
I0817 11:09:46.434329 12074 layer_factory.hpp:77] Creating layer norm2
I0817 11:09:46.434365 12074 net.cpp:91] Creating Layer norm2
I0817 11:09:46.434393 12074 net.cpp:425] norm2 <- pool2
I0817 11:09:46.434428 12074 net.cpp:399] norm2 -> norm2
I0817 11:09:46.434639 12074 net.cpp:141] Setting up norm2
I0817 11:09:46.434686 12074 net.cpp:148] Top shape: 100 32 8 8 (204800)
I0817 11:09:46.434713 12074 net.cpp:156] Memory required for data: 29902800
I0817 11:09:46.434739 12074 layer_factory.hpp:77] Creating layer conv3
I0817 11:09:46.434785 12074 net.cpp:91] Creating Layer conv3
I0817 11:09:46.434815 12074 net.cpp:425] conv3 <- norm2
I0817 11:09:46.434850 12074 net.cpp:399] conv3 -> conv3
I0817 11:09:46.436048 12074 net.cpp:141] Setting up conv3
I0817 11:09:46.436092 12074 net.cpp:148] Top shape: 100 64 8 8 (409600)
I0817 11:09:46.436121 12074 net.cpp:156] Memory required for data: 31541200
I0817 11:09:46.436158 12074 layer_factory.hpp:77] Creating layer relu3
I0817 11:09:46.436203 12074 net.cpp:91] Creating Layer relu3
I0817 11:09:46.436230 12074 net.cpp:425] relu3 <- conv3
I0817 11:09:46.436266 12074 net.cpp:386] relu3 -> conv3 (in-place)
I0817 11:09:46.436302 12074 net.cpp:141] Setting up relu3
I0817 11:09:46.436334 12074 net.cpp:148] Top shape: 100 64 8 8 (409600)
I0817 11:09:46.436362 12074 net.cpp:156] Memory required for data: 33179600
I0817 11:09:46.436386 12074 layer_factory.hpp:77] Creating layer pool3
I0817 11:09:46.436421 12074 net.cpp:91] Creating Layer pool3
I0817 11:09:46.436453 12074 net.cpp:425] pool3 <- conv3
I0817 11:09:46.436487 12074 net.cpp:399] pool3 -> pool3
I0817 11:09:46.436558 12074 net.cpp:141] Setting up pool3
I0817 11:09:46.436624 12074 net.cpp:148] Top shape: 100 64 4 4 (102400)
I0817 11:09:46.436659 12074 net.cpp:156] Memory required for data: 33589200
I0817 11:09:46.436689 12074 layer_factory.hpp:77] Creating layer ip2
I0817 11:09:46.436722 12074 net.cpp:91] Creating Layer ip2
I0817 11:09:46.436750 12074 net.cpp:425] ip2 <- pool3
I0817 11:09:46.436786 12074 net.cpp:399] ip2 -> ip2
I0817 11:09:46.446080 12074 net.cpp:141] Setting up ip2
I0817 11:09:46.446132 12074 net.cpp:148] Top shape: 100 500 (50000)
I0817 11:09:46.446192 12074 net.cpp:156] Memory required for data: 33789200
I0817 11:09:46.446231 12074 layer_factory.hpp:77] Creating layer relu_ip2
I0817 11:09:46.446266 12074 net.cpp:91] Creating Layer relu_ip2
I0817 11:09:46.446295 12074 net.cpp:425] relu_ip2 <- ip2
I0817 11:09:46.446333 12074 net.cpp:386] relu_ip2 -> ip2 (in-place)
I0817 11:09:46.446372 12074 net.cpp:141] Setting up relu_ip2
I0817 11:09:46.446403 12074 net.cpp:148] Top shape: 100 500 (50000)
I0817 11:09:46.446429 12074 net.cpp:156] Memory required for data: 33989200
I0817 11:09:46.446455 12074 layer_factory.hpp:77] Creating layer ip2_relu_ip2_0_split
I0817 11:09:46.446485 12074 net.cpp:91] Creating Layer ip2_relu_ip2_0_split
I0817 11:09:46.446512 12074 net.cpp:425] ip2_relu_ip2_0_split <- ip2
I0817 11:09:46.446540 12074 net.cpp:399] ip2_relu_ip2_0_split -> ip2_relu_ip2_0_split_0
I0817 11:09:46.446574 12074 net.cpp:399] ip2_relu_ip2_0_split -> ip2_relu_ip2_0_split_1
I0817 11:09:46.446676 12074 net.cpp:141] Setting up ip2_relu_ip2_0_split
I0817 11:09:46.446717 12074 net.cpp:148] Top shape: 100 500 (50000)
I0817 11:09:46.446748 12074 net.cpp:148] Top shape: 100 500 (50000)
I0817 11:09:46.446776 12074 net.cpp:156] Memory required for data: 34389200
I0817 11:09:46.446802 12074 layer_factory.hpp:77] Creating layer ip1
I0817 11:09:46.446846 12074 net.cpp:91] Creating Layer ip1
I0817 11:09:46.446876 12074 net.cpp:425] ip1 <- ip2_relu_ip2_0_split_0
I0817 11:09:46.446909 12074 net.cpp:399] ip1 -> ip1
I0817 11:09:46.447208 12074 net.cpp:141] Setting up ip1
I0817 11:09:46.447250 12074 net.cpp:148] Top shape: 100 12 (1200)
I0817 11:09:46.447279 12074 net.cpp:156] Memory required for data: 34394000
I0817 11:09:46.447316 12074 layer_factory.hpp:77] Creating layer ip_classification
I0817 11:09:46.447353 12074 net.cpp:91] Creating Layer ip_classification
I0817 11:09:46.447382 12074 net.cpp:425] ip_classification <- ip2_relu_ip2_0_split_1
I0817 11:09:46.447420 12074 net.cpp:399] ip_classification -> ip_classification
I0817 11:09:46.447957 12074 net.cpp:141] Setting up ip_classification
I0817 11:09:46.448000 12074 net.cpp:148] Top shape: 100 10 (1000)
I0817 11:09:46.448029 12074 net.cpp:156] Memory required for data: 34398000
I0817 11:09:46.448063 12074 layer_factory.hpp:77] Creating layer ip_classification_ip_classification_0_split
I0817 11:09:46.448096 12074 net.cpp:91] Creating Layer ip_classification_ip_classification_0_split
I0817 11:09:46.448124 12074 net.cpp:425] ip_classification_ip_classification_0_split <- ip_classification
I0817 11:09:46.448154 12074 net.cpp:399] ip_classification_ip_classification_0_split -> ip_classification_ip_classification_0_split_0
I0817 11:09:46.448190 12074 net.cpp:399] ip_classification_ip_classification_0_split -> ip_classification_ip_classification_0_split_1
I0817 11:09:46.448228 12074 net.cpp:399] ip_classification_ip_classification_0_split -> ip_classification_ip_classification_0_split_2
I0817 11:09:46.448343 12074 net.cpp:141] Setting up ip_classification_ip_classification_0_split
I0817 11:09:46.448382 12074 net.cpp:148] Top shape: 100 10 (1000)
I0817 11:09:46.448412 12074 net.cpp:148] Top shape: 100 10 (1000)
I0817 11:09:46.448442 12074 net.cpp:148] Top shape: 100 10 (1000)
I0817 11:09:46.448469 12074 net.cpp:156] Memory required for data: 34410000
I0817 11:09:46.448499 12074 layer_factory.hpp:77] Creating layer loss
I0817 11:09:46.448539 12074 net.cpp:91] Creating Layer loss
I0817 11:09:46.448568 12074 net.cpp:425] loss <- ip1
I0817 11:09:46.448616 12074 net.cpp:425] loss <- label_cifar_1_split_0
I0817 11:09:46.448657 12074 net.cpp:399] loss -> loss
I0817 11:09:46.448794 12074 net.cpp:141] Setting up loss
…
