…
I0918 11:08:22.130813 33210 net.cpp:313] The NetState phase (0) differed from the phase (1) specified by a rule in layer accuracy_at_1_Color
I0918 11:08:22.131086 33210 net.cpp:49] Initializing net from parameters: 
name: "docomo_AlexNet"
state {
  phase: TRAIN
}
layer {
  name: "data"
  type: "Data"
  top: "data"
  top: "label"
  include {
    phase: TRAIN
  }
  transform_param {
    mirror: true
    crop_size: 224
    mean_value: 103.939
    mean_value: 116.779
    mean_value: 123.68
  }
  data_param {
    source: "COLOR/color_train_lmdb"
    batch_size: 30
    backend: LMDB
  }
}
layer {
  name: "conv1"
  type: "Convolution"
  bottom: "data"
  top: "conv1"
  param {
    lr_mult: 1
    decay_mult: 1
  }
  param {
    lr_mult: 2
    decay_mult: 0
  }
  convolution_param {
    num_output: 96
    kernel_size: 11
    stride: 4
    weight_filler {
      type: "gaussian"
      std: 0.01
    }
    bias_filler {
      type: "constant"
      value: 0
    }
  }
}
layer {
  name: "relu1"
  type: "ReLU"
  bottom: "conv1"
  top: "conv1"
}
layer {
  name: "norm1"
  type: "LRN"
  bottom: "conv1"
  top: "norm1"
  lrn_param {
    local_size: 5
    alpha: 0.0001
    beta: 0.75
  }
}
layer {
  name: "pool1"
  type: "Pooling"
  bottom: "norm1"
  top: "pool1"
  pooling_param {
    pool: MAX
    kernel_size: 3
    stride: 2
  }
}
layer {
  name: "conv2"
  type: "Convolution"
  bottom: "pool1"
  top: "conv2"
  param {
    lr_mult: 1
    decay_mult: 1
  }
  param {
    lr_mult: 2
    decay_mult: 0
  }
  convolution_param {
    num_output: 256
    pad: 2
    kernel_size: 5
    group: 2
    weight_filler {
      type: "gaussian"
      std: 0.01
    }
    bias_filler {
      type: "constant"
      value: 0.1
    }
  }
}
layer {
  name: "relu2"
  type: "ReLU"
  bottom: "conv2"
  top: "conv2"
}
layer {
  name: "norm2"
  type: "LRN"
  bottom: "conv2"
  top: "norm2"
  lrn_param {
    local_size: 5
    alpha: 0.0001
    beta: 0.75
  }
}
layer {
  name: "pool2"
  type: "Pooling"
  bottom: "norm2"
  top: "pool2"
  pooling_param {
    pool: MAX
    kernel_size: 3
    stride: 2
  }
}
layer {
  name: "conv3"
  type: "Convolution"
  bottom: "pool2"
  top: "conv3"
  param {
    lr_mult: 1
    decay_mult: 1
  }
  param {
    lr_mult: 2
    decay_mult: 0
  }
  convolution_param {
    num_output: 384
    pad: 1
    kernel_size: 3
    weight_filler {
      type: "gaussian"
      std: 0.01
    }
    bias_filler {
      type: "constant"
      value: 0
    }
  }
}
layer {
  name: "relu3"
  type: "ReLU"
  bottom: "conv3"
  top: "conv3"
}
layer {
  name: "conv4"
  type: "Convolution"
  bottom: "conv3"
  top: "conv4"
  param {
    lr_mult: 1
    decay_mult: 1
  }
  param {
    lr_mult: 2
    decay_mult: 0
  }
  convolution_param {
    num_output: 384
    pad: 1
    kernel_size: 3
    group: 2
    weight_filler {
      type: "gaussian"
      std: 0.01
    }
    bias_filler {
      type: "constant"
      value: 0.1
    }
  }
}
layer {
  name: "relu4"
  type: "ReLU"
  bottom: "conv4"
  top: "conv4"
}
layer {
  name: "conv5"
  type: "Convolution"
  bottom: "conv4"
  top: "conv5"
  param {
    lr_mult: 1
    decay_mult: 1
  }
  param {
    lr_mult: 2
    decay_mult: 0
  }
  convolution_param {
    num_output: 256
    pad: 1
    kernel_size: 3
    group: 2
    weight_filler {
      type: "gaussian"
      std: 0.01
    }
    bias_filler {
      type: "constant"
      value: 0.1
    }
  }
}
layer {
  name: "relu5"
  type: "ReLU"
  bottom: "conv5"
  top: "conv5"
}
layer {
  name: "pool5"
  type: "Pooling"
  bottom: "conv5"
  top: "pool5"
  pooling_param {
    pool: MAX
    kernel_size: 3
    stride: 2
  }
}
layer {
  name: "fc6"
  type: "InnerProduct"
  bottom: "pool5"
  top: "fc6"
  param {
    lr_mult: 1
    decay_mult: 1
  }
  param {
    lr_mult: 2
    decay_mult: 0
  }
  inner_product_param {
    num_output: 4096
    weight_filler {
      type: "gaussian"
      std: 0.005
    }
    bias_filler {
      type: "constant"
      value: 0.1
    }
  }
}
layer {
  name: "relu6"
  type: "ReLU"
  bottom: "fc6"
  top: "fc6"
}
layer {
  name: "drop6"
  type: "Dropout"
  bottom: "fc6"
  top: "fc6"
  dropout_param {
    dropout_ratio: 0.5
  }
}
layer {
  name: "fc7"
  type: "InnerProduct"
  bottom: "fc6"
  top: "fc7"
  param {
    lr_mult: 1
    decay_mult: 1
  }
  param {
    lr_mult: 2
    decay_mult: 0
  }
  inner_product_param {
    num_output: 4096
    weight_filler {
      type: "gaussian"
      std: 0.005
    }
    bias_filler {
      type: "constant"
      value: 0.1
    }
  }
}
layer {
  name: "relu7"
  type: "ReLU"
  bottom: "fc7"
  top: "fc7"
}
layer {
  name: "drop7"
  type: "Dropout"
  bottom: "fc7"
  top: "fc7"
  dropout_param {
    dropout_ratio: 0.5
  }
}
layer {
  name: "fc_binary_Color_f48"
  type: "InnerProduct"
  bottom: "fc7"
  top: "fc_binary_Color_f48"
  param {
    lr_mult: 10
    decay_mult: 1
  }
  param {
    lr_mult: 20
    decay_mult: 0
  }
  inner_product_param {
    num_output: 48
    weight_filler {
      type: "gaussian"
      std: 0.005
    }
    bias_filler {
      type: "constant"
      value: 0.1
    }
  }
}
layer {
  name: "fc_classification_Color"
  type: "InnerProduct"
  bottom: "fc7"
  top: "fc_classification_Color"
  param {
    lr_mult: 1
    decay_mult: 1
  }
  param {
    lr_mult: 2
    decay_mult: 0
  }
  inner_product_param {
    num_output: 8
    weight_filler {
      type: "gaussian"
      std: 0.05
    }
    bias_filler {
      type: "constant"
      value: 0.1
    }
  }
}
layer {
  name: "loss_hashing"
  type: "HashingLoss"
  bottom: "fc_binary_Color_f48"
  bottom: "label"
  top: "loss_hashing"
  loss_weight: 0.7
  hashing_loss_param {
    bi_margin: 96
    tradeoff: 0.01
  }
}
layer {
  name: "loss"
  type: "SoftmaxWithLoss"
  bottom: "fc_classification_Color"
  bottom: "label"
  top: "loss"
}
I0918 11:08:22.132844 33210 layer_factory.hpp:77] Creating layer data
I0918 11:08:22.133491 33210 net.cpp:91] Creating Layer data
I0918 11:08:22.133538 33210 net.cpp:399] data -> data
I0918 11:08:22.133592 33210 net.cpp:399] data -> label
I0918 11:08:22.134657 33214 db_lmdb.cpp:38] Opened lmdb COLOR/color_train_lmdb
I0918 11:08:22.256304 33210 data_layer.cpp:41] output data size: 30,3,224,224
I0918 11:08:22.301717 33210 net.cpp:141] Setting up data
I0918 11:08:22.301803 33210 net.cpp:148] Top shape: 30 3 224 224 (4515840)
I0918 11:08:22.301825 33210 net.cpp:148] Top shape: 30 1 1 1 (30)
I0918 11:08:22.301846 33210 net.cpp:156] Memory required for data: 18063480
I0918 11:08:22.301872 33210 layer_factory.hpp:77] Creating layer label_data_1_split
I0918 11:08:22.301905 33210 net.cpp:91] Creating Layer label_data_1_split
I0918 11:08:22.301929 33210 net.cpp:425] label_data_1_split <- label
I0918 11:08:22.301965 33210 net.cpp:399] label_data_1_split -> label_data_1_split_0
I0918 11:08:22.301997 33210 net.cpp:399] label_data_1_split -> label_data_1_split_1
I0918 11:08:22.302078 33210 net.cpp:141] Setting up label_data_1_split
I0918 11:08:22.302103 33210 net.cpp:148] Top shape: 30 1 1 1 (30)
I0918 11:08:22.302120 33210 net.cpp:148] Top shape: 30 1 1 1 (30)
I0918 11:08:22.302136 33210 net.cpp:156] Memory required for data: 18063720
I0918 11:08:22.302152 33210 layer_factory.hpp:77] Creating layer conv1
I0918 11:08:22.302197 33210 net.cpp:91] Creating Layer conv1
I0918 11:08:22.302217 33210 net.cpp:425] conv1 <- data
I0918 11:08:22.302237 33210 net.cpp:399] conv1 -> conv1
I0918 11:08:22.306170 33210 net.cpp:141] Setting up conv1
I0918 11:08:22.306252 33210 net.cpp:148] Top shape: 30 96 54 54 (8398080)
I0918 11:08:22.306272 33210 net.cpp:156] Memory required for data: 51656040
I0918 11:08:22.306313 33210 layer_factory.hpp:77] Creating layer relu1
I0918 11:08:22.306339 33210 net.cpp:91] Creating Layer relu1
I0918 11:08:22.306357 33210 net.cpp:425] relu1 <- conv1
I0918 11:08:22.306380 33210 net.cpp:386] relu1 -> conv1 (in-place)
I0918 11:08:22.306406 33210 net.cpp:141] Setting up relu1
I0918 11:08:22.306426 33210 net.cpp:148] Top shape: 30 96 54 54 (8398080)
I0918 11:08:22.306442 33210 net.cpp:156] Memory required for data: 85248360
I0918 11:08:22.306458 33210 layer_factory.hpp:77] Creating layer norm1
I0918 11:08:22.306481 33210 net.cpp:91] Creating Layer norm1
I0918 11:08:22.306499 33210 net.cpp:425] norm1 <- conv1
I0918 11:08:22.306532 33210 net.cpp:399] norm1 -> norm1
I0918 11:08:22.306597 33210 net.cpp:141] Setting up norm1
I0918 11:08:22.306620 33210 net.cpp:148] Top shape: 30 96 54 54 (8398080)
I0918 11:08:22.306637 33210 net.cpp:156] Memory required for data: 118840680
I0918 11:08:22.306653 33210 layer_factory.hpp:77] Creating layer pool1
I0918 11:08:22.306676 33210 net.cpp:91] Creating Layer pool1
I0918 11:08:22.306694 33210 net.cpp:425] pool1 <- norm1
I0918 11:08:22.306712 33210 net.cpp:399] pool1 -> pool1
I0918 11:08:22.306797 33210 net.cpp:141] Setting up pool1
I0918 11:08:22.306823 33210 net.cpp:148] Top shape: 30 96 27 27 (2099520)
I0918 11:08:22.306838 33210 net.cpp:156] Memory required for data: 127238760
I0918 11:08:22.306854 33210 layer_factory.hpp:77] Creating layer conv2
I0918 11:08:22.306882 33210 net.cpp:91] Creating Layer conv2
I0918 11:08:22.306900 33210 net.cpp:425] conv2 <- pool1
I0918 11:08:22.306926 33210 net.cpp:399] conv2 -> conv2
I0918 11:08:22.320186 33210 net.cpp:141] Setting up conv2
I0918 11:08:22.320236 33210 net.cpp:148] Top shape: 30 256 27 27 (5598720)
I0918 11:08:22.320252 33210 net.cpp:156] Memory required for data: 149633640
I0918 11:08:22.320277 33210 layer_factory.hpp:77] Creating layer relu2
I0918 11:08:22.320303 33210 net.cpp:91] Creating Layer relu2
I0918 11:08:22.320322 33210 net.cpp:425] relu2 <- conv2
I0918 11:08:22.320345 33210 net.cpp:386] relu2 -> conv2 (in-place)
I0918 11:08:22.320369 33210 net.cpp:141] Setting up relu2
I0918 11:08:22.320387 33210 net.cpp:148] Top shape: 30 256 27 27 (5598720)
I0918 11:08:22.320405 33210 net.cpp:156] Memory required for data: 172028520
I0918 11:08:22.320420 33210 layer_factory.hpp:77] Creating layer norm2
I0918 11:08:22.320446 33210 net.cpp:91] Creating Layer norm2
I0918 11:08:22.320463 33210 net.cpp:425] norm2 <- conv2
I0918 11:08:22.320483 33210 net.cpp:399] norm2 -> norm2
I0918 11:08:22.320547 33210 net.cpp:141] Setting up norm2
I0918 11:08:22.320571 33210 net.cpp:148] Top shape: 30 256 27 27 (5598720)
I0918 11:08:22.320588 33210 net.cpp:156] Memory required for data: 194423400
I0918 11:08:22.320605 33210 layer_factory.hpp:77] Creating layer pool2
I0918 11:08:22.320641 33210 net.cpp:91] Creating Layer pool2
I0918 11:08:22.320659 33210 net.cpp:425] pool2 <- norm2
I0918 11:08:22.320677 33210 net.cpp:399] pool2 -> pool2
I0918 11:08:22.320731 33210 net.cpp:141] Setting up pool2
I0918 11:08:22.320753 33210 net.cpp:148] Top shape: 30 256 13 13 (1297920)
I0918 11:08:22.320770 33210 net.cpp:156] Memory required for data: 199615080
I0918 11:08:22.320785 33210 layer_factory.hpp:77] Creating layer conv3
I0918 11:08:22.320811 33210 net.cpp:91] Creating Layer conv3
I0918 11:08:22.320828 33210 net.cpp:425] conv3 <- pool2
I0918 11:08:22.320850 33210 net.cpp:399] conv3 -> conv3
I0918 11:08:22.356185 33210 net.cpp:141] Setting up conv3
I0918 11:08:22.356246 33210 net.cpp:148] Top shape: 30 384 13 13 (1946880)
I0918 11:08:22.356263 33210 net.cpp:156] Memory required for data: 207402600
I0918 11:08:22.356298 33210 layer_factory.hpp:77] Creating layer relu3
I0918 11:08:22.356340 33210 net.cpp:91] Creating Layer relu3
I0918 11:08:22.356361 33210 net.cpp:425] relu3 <- conv3
I0918 11:08:22.356384 33210 net.cpp:386] relu3 -> conv3 (in-place)
I0918 11:08:22.356408 33210 net.cpp:141] Setting up relu3
I0918 11:08:22.356475 33210 net.cpp:148] Top shape: 30 384 13 13 (1946880)
I0918 11:08:22.356493 33210 net.cpp:156] Memory required for data: 215190120
I0918 11:08:22.356509 33210 layer_factory.hpp:77] Creating layer conv4
I0918 11:08:22.356540 33210 net.cpp:91] Creating Layer conv4
I0918 11:08:22.356559 33210 net.cpp:425] conv4 <- conv3
I0918 11:08:22.356585 33210 net.cpp:399] conv4 -> conv4
I0918 11:08:22.383150 33210 net.cpp:141] Setting up conv4
I0918 11:08:22.383193 33210 net.cpp:148] Top shape: 30 384 13 13 (1946880)
I0918 11:08:22.383208 33210 net.cpp:156] Memory required for data: 222977640
I0918 11:08:22.383229 33210 layer_factory.hpp:77] Creating layer relu4
I0918 11:08:22.383251 33210 net.cpp:91] Creating Layer relu4
I0918 11:08:22.383270 33210 net.cpp:425] relu4 <- conv4
I0918 11:08:22.383292 33210 net.cpp:386] relu4 -> conv4 (in-place)
I0918 11:08:22.383316 33210 net.cpp:141] Setting up relu4
I0918 11:08:22.383334 33210 net.cpp:148] Top shape: 30 384 13 13 (1946880)
I0918 11:08:22.383352 33210 net.cpp:156] Memory required for data: 230765160
I0918 11:08:22.383368 33210 layer_factory.hpp:77] Creating layer conv5
I0918 11:08:22.383394 33210 net.cpp:91] Creating Layer conv5
I0918 11:08:22.383414 33210 net.cpp:425] conv5 <- conv4
I0918 11:08:22.383433 33210 net.cpp:399] conv5 -> conv5
I0918 11:08:22.400477 33210 net.cpp:141] Setting up conv5
I0918 11:08:22.400507 33210 net.cpp:148] Top shape: 30 256 13 13 (1297920)
I0918 11:08:22.400526 33210 net.cpp:156] Memory required for data: 235956840
I0918 11:08:22.400554 33210 layer_factory.hpp:77] Creating layer relu5
I0918 11:08:22.400576 33210 net.cpp:91] Creating Layer relu5
I0918 11:08:22.400593 33210 net.cpp:425] relu5 <- conv5
I0918 11:08:22.400615 33210 net.cpp:386] relu5 -> conv5 (in-place)
I0918 11:08:22.400637 33210 net.cpp:141] Setting up relu5
I0918 11:08:22.400655 33210 net.cpp:148] Top shape: 30 256 13 13 (1297920)
I0918 11:08:22.400671 33210 net.cpp:156] Memory required for data: 241148520
I0918 11:08:22.400686 33210 layer_factory.hpp:77] Creating layer pool5
I0918 11:08:22.400713 33210 net.cpp:91] Creating Layer pool5
I0918 11:08:22.400732 33210 net.cpp:425] pool5 <- conv5
I0918 11:08:22.400750 33210 net.cpp:399] pool5 -> pool5
I0918 11:08:22.400810 33210 net.cpp:141] Setting up pool5
I0918 11:08:22.400832 33210 net.cpp:148] Top shape: 30 256 6 6 (276480)
I0918 11:08:22.400848 33210 net.cpp:156] Memory required for data: 242254440
I0918 11:08:22.400864 33210 layer_factory.hpp:77] Creating layer fc6
I0918 11:08:22.400897 33210 net.cpp:91] Creating Layer fc6
I0918 11:08:22.400914 33210 net.cpp:425] fc6 <- pool5
I0918 11:08:22.400933 33210 net.cpp:399] fc6 -> fc6
I0918 11:08:23.836777 33210 net.cpp:141] Setting up fc6
I0918 11:08:23.836896 33210 net.cpp:148] Top shape: 30 4096 (122880)
I0918 11:08:23.836916 33210 net.cpp:156] Memory required for data: 242745960
I0918 11:08:23.836972 33210 layer_factory.hpp:77] Creating layer relu6
I0918 11:08:23.837023 33210 net.cpp:91] Creating Layer relu6
I0918 11:08:23.837059 33210 net.cpp:425] relu6 <- fc6
I0918 11:08:23.837092 33210 net.cpp:386] relu6 -> fc6 (in-place)
I0918 11:08:23.837121 33210 net.cpp:141] Setting up relu6
I0918 11:08:23.837138 33210 net.cpp:148] Top shape: 30 4096 (122880)
I0918 11:08:23.837155 33210 net.cpp:156] Memory required for data: 243237480
I0918 11:08:23.837170 33210 layer_factory.hpp:77] Creating layer drop6
I0918 11:08:23.837193 33210 net.cpp:91] Creating Layer drop6
I0918 11:08:23.837210 33210 net.cpp:425] drop6 <- fc6
I0918 11:08:23.837227 33210 net.cpp:386] drop6 -> fc6 (in-place)
I0918 11:08:23.837339 33210 net.cpp:141] Setting up drop6
I0918 11:08:23.837363 33210 net.cpp:148] Top shape: 30 4096 (122880)
I0918 11:08:23.837379 33210 net.cpp:156] Memory required for data: 243729000
I0918 11:08:23.837394 33210 layer_factory.hpp:77] Creating layer fc7
I0918 11:08:23.837419 33210 net.cpp:91] Creating Layer fc7
I0918 11:08:23.837435 33210 net.cpp:425] fc7 <- fc6
I0918 11:08:23.837455 33210 net.cpp:399] fc7 -> fc7
I0918 11:08:24.475466 33210 net.cpp:141] Setting up fc7
I0918 11:08:24.475575 33210 net.cpp:148] Top shape: 30 4096 (122880)
I0918 11:08:24.475592 33210 net.cpp:156] Memory required for data: 244220520
I0918 11:08:24.475615 33210 layer_factory.hpp:77] Creating layer relu7
I0918 11:08:24.475666 33210 net.cpp:91] Creating Layer relu7
I0918 11:08:24.475687 33210 net.cpp:425] relu7 <- fc7
I0918 11:08:24.475716 33210 net.cpp:386] relu7 -> fc7 (in-place)
I0918 11:08:24.475745 33210 net.cpp:141] Setting up relu7
I0918 11:08:24.475764 33210 net.cpp:148] Top shape: 30 4096 (122880)
I0918 11:08:24.475781 33210 net.cpp:156] Memory required for data: 244712040
I0918 11:08:24.475797 33210 layer_factory.hpp:77] Creating layer drop7
I0918 11:08:24.475826 33210 net.cpp:91] Creating Layer drop7
I0918 11:08:24.475842 33210 net.cpp:425] drop7 <- fc7
I0918 11:08:24.475863 33210 net.cpp:386] drop7 -> fc7 (in-place)
I0918 11:08:24.475908 33210 net.cpp:141] Setting up drop7
I0918 11:08:24.475929 33210 net.cpp:148] Top shape: 30 4096 (122880)
I0918 11:08:24.475945 33210 net.cpp:156] Memory required for data: 245203560
I0918 11:08:24.475961 33210 layer_factory.hpp:77] Creating layer fc7_drop7_0_split
I0918 11:08:24.475983 33210 net.cpp:91] Creating Layer fc7_drop7_0_split
I0918 11:08:24.476001 33210 net.cpp:425] fc7_drop7_0_split <- fc7
I0918 11:08:24.476018 33210 net.cpp:399] fc7_drop7_0_split -> fc7_drop7_0_split_0
I0918 11:08:24.476069 33210 net.cpp:399] fc7_drop7_0_split -> fc7_drop7_0_split_1
I0918 11:08:24.476128 33210 net.cpp:141] Setting up fc7_drop7_0_split
I0918 11:08:24.476152 33210 net.cpp:148] Top shape: 30 4096 (122880)
I0918 11:08:24.476169 33210 net.cpp:148] Top shape: 30 4096 (122880)
I0918 11:08:24.476186 33210 net.cpp:156] Memory required for data: 246186600
I0918 11:08:24.476200 33210 layer_factory.hpp:77] Creating layer fc_binary_Color_f48
I0918 11:08:24.476222 33210 net.cpp:91] Creating Layer fc_binary_Color_f48
I0918 11:08:24.476239 33210 net.cpp:425] fc_binary_Color_f48 <- fc7_drop7_0_split_0
I0918 11:08:24.476258 33210 net.cpp:399] fc_binary_Color_f48 -> fc_binary_Color_f48
I0918 11:08:24.484323 33210 net.cpp:141] Setting up fc_binary_Color_f48
I0918 11:08:24.484354 33210 net.cpp:148] Top shape: 30 48 (1440)
I0918 11:08:24.484371 33210 net.cpp:156] Memory required for data: 246192360
I0918 11:08:24.484396 33210 layer_factory.hpp:77] Creating layer fc_classification_Color
I0918 11:08:24.484426 33210 net.cpp:91] Creating Layer fc_classification_Color
I0918 11:08:24.484446 33210 net.cpp:425] fc_classification_Color <- fc7_drop7_0_split_1
I0918 11:08:24.484468 33210 net.cpp:399] fc_classification_Color -> fc_classification_Color
I0918 11:08:24.485807 33210 net.cpp:141] Setting up fc_classification_Color
I0918 11:08:24.485833 33210 net.cpp:148] Top shape: 30 8 (240)
I0918 11:08:24.485851 33210 net.cpp:156] Memory required for data: 246193320
I0918 11:08:24.485877 33210 layer_factory.hpp:77] Creating layer loss_hashing
I0918 11:08:24.485920 33210 net.cpp:91] Creating Layer loss_hashing
I0918 11:08:24.485939 33210 net.cpp:425] loss_hashing <- fc_binary_Color_f48
I0918 11:08:24.485955 33210 net.cpp:425] loss_hashing <- label_data_1_split_0
I0918 11:08:24.485981 33210 net.cpp:399] loss_hashing -> loss_hashing
…
I0918 11:08:24.488404 33210 net.cpp:313] The NetState phase (1) differed from the phase (0) specified by a rule in layer data
I0918 11:08:24.488714 33210 net.cpp:49] Initializing net from parameters: 
name: "docomo_AlexNet"
state {
  phase: TEST
}
layer {
  name: "data"
  type: "Data"
  top: "data"
  top: "label"
  include {
    phase: TEST
  }
  transform_param {
    mirror: false
    crop_size: 224
    mean_value: 103.939
    mean_value: 116.779
    mean_value: 123.68
  }
  data_param {
    source: "COLOR/color_val_lmdb"
    batch_size: 40
    backend: LMDB
  }
}
layer {
  name: "conv1"
  type: "Convolution"
  bottom: "data"
  top: "conv1"
  param {
    lr_mult: 1
    decay_mult: 1
  }
  param {
    lr_mult: 2
    decay_mult: 0
  }
  convolution_param {
    num_output: 96
    kernel_size: 11
    stride: 4
    weight_filler {
      type: "gaussian"
      std: 0.01
    }
    bias_filler {
      type: "constant"
      value: 0
    }
  }
}
layer {
  name: "relu1"
  type: "ReLU"
  bottom: "conv1"
  top: "conv1"
}
layer {
  name: "norm1"
  type: "LRN"
  bottom: "conv1"
  top: "norm1"
  lrn_param {
    local_size: 5
    alpha: 0.0001
    beta: 0.75
  }
}
layer {
  name: "pool1"
  type: "Pooling"
  bottom: "norm1"
  top: "pool1"
  pooling_param {
    pool: MAX
    kernel_size: 3
    stride: 2
  }
}
layer {
  name: "conv2"
  type: "Convolution"
  bottom: "pool1"
  top: "conv2"
  param {
    lr_mult: 1
    decay_mult: 1
  }
  param {
    lr_mult: 2
    decay_mult: 0
  }
  convolution_param {
    num_output: 256
    pad: 2
    kernel_size: 5
    group: 2
    weight_filler {
      type: "gaussian"
      std: 0.01
    }
    bias_filler {
      type: "constant"
      value: 0.1
    }
  }
}
layer {
  name: "relu2"
  type: "ReLU"
  bottom: "conv2"
  top: "conv2"
}
layer {
  name: "norm2"
  type: "LRN"
  bottom: "conv2"
  top: "norm2"
  lrn_param {
    local_size: 5
    alpha: 0.0001
    beta: 0.75
  }
}
layer {
  name: "pool2"
  type: "Pooling"
  bottom: "norm2"
  top: "pool2"
  pooling_param {
    pool: MAX
    kernel_size: 3
    stride: 2
  }
}
layer {
  name: "conv3"
  type: "Convolution"
  bottom: "pool2"
  top: "conv3"
  param {
    lr_mult: 1
    decay_mult: 1
  }
  param {
    lr_mult: 2
    decay_mult: 0
  }
  convolution_param {
    num_output: 384
    pad: 1
    kernel_size: 3
    weight_filler {
      type: "gaussian"
      std: 0.01
    }
    bias_filler {
      type: "constant"
      value: 0
    }
  }
}
layer {
  name: "relu3"
  type: "ReLU"
  bottom: "conv3"
  top: "conv3"
}
layer {
  name: "conv4"
  type: "Convolution"
  bottom: "conv3"
  top: "conv4"
  param {
    lr_mult: 1
    decay_mult: 1
  }
  param {
    lr_mult: 2
    decay_mult: 0
  }
  convolution_param {
    num_output: 384
    pad: 1
    kernel_size: 3
    group: 2
    weight_filler {
      type: "gaussian"
      std: 0.01
    }
    bias_filler {
      type: "constant"
      value: 0.1
    }
  }
}
layer {
  name: "relu4"
  type: "ReLU"
  bottom: "conv4"
  top: "conv4"
}
layer {
  name: "conv5"
  type: "Convolution"
  bottom: "conv4"
  top: "conv5"
  param {
    lr_mult: 1
    decay_mult: 1
  }
  param {
    lr_mult: 2
    decay_mult: 0
  }
  convolution_param {
    num_output: 256
    pad: 1
    kernel_size: 3
    group: 2
    weight_filler {
      type: "gaussian"
      std: 0.01
    }
    bias_filler {
      type: "constant"
      value: 0.1
    }
  }
}
layer {
  name: "relu5"
  type: "ReLU"
  bottom: "conv5"
  top: "conv5"
}
layer {
  name: "pool5"
  type: "Pooling"
  bottom: "conv5"
  top: "pool5"
  pooling_param {
    pool: MAX
    kernel_size: 3
    stride: 2
  }
}
layer {
  name: "fc6"
  type: "InnerProduct"
  bottom: "pool5"
  top: "fc6"
  param {
    lr_mult: 1
    decay_mult: 1
  }
  param {
    lr_mult: 2
    decay_mult: 0
  }
  inner_product_param {
    num_output: 4096
    weight_filler {
      type: "gaussian"
      std: 0.005
    }
    bias_filler {
      type: "constant"
      value: 0.1
    }
  }
}
layer {
  name: "relu6"
  type: "ReLU"
  bottom: "fc6"
  top: "fc6"
}
layer {
  name: "drop6"
  type: "Dropout"
  bottom: "fc6"
  top: "fc6"
  dropout_param {
    dropout_ratio: 0.5
  }
}
layer {
  name: "fc7"
  type: "InnerProduct"
  bottom: "fc6"
  top: "fc7"
  param {
    lr_mult: 1
    decay_mult: 1
  }
  param {
    lr_mult: 2
    decay_mult: 0
  }
  inner_product_param {
    num_output: 4096
    weight_filler {
      type: "gaussian"
      std: 0.005
    }
    bias_filler {
      type: "constant"
      value: 0.1
    }
  }
}
layer {
  name: "relu7"
  type: "ReLU"
  bottom: "fc7"
  top: "fc7"
}
layer {
  name: "drop7"
  type: "Dropout"
  bottom: "fc7"
  top: "fc7"
  dropout_param {
    dropout_ratio: 0.5
  }
}
layer {
  name: "fc_binary_Color_f48"
  type: "InnerProduct"
  bottom: "fc7"
  top: "fc_binary_Color_f48"
  param {
    lr_mult: 10
    decay_mult: 1
  }
  param {
    lr_mult: 20
    decay_mult: 0
  }
  inner_product_param {
    num_output: 48
    weight_filler {
      type: "gaussian"
      std: 0.005
    }
    bias_filler {
      type: "constant"
      value: 0.1
    }
  }
}
layer {
  name: "fc_classification_Color"
  type: "InnerProduct"
  bottom: "fc7"
  top: "fc_classification_Color"
  param {
    lr_mult: 1
    decay_mult: 1
  }
  param {
    lr_mult: 2
    decay_mult: 0
  }
  inner_product_param {
    num_output: 8
    weight_filler {
      type: "gaussian"
      std: 0.05
    }
    bias_filler {
      type: "constant"
      value: 0.1
    }
  }
}
layer {
  name: "accuracy_at_1_Color"
  type: "Accuracy"
  bottom: "fc_classification_Color"
  bottom: "label"
  top: "accuracy_at_1_Color"
  include {
    phase: TEST
  }
}
layer {
  name: "loss_hashing"
  type: "HashingLoss"
  bottom: "fc_binary_Color_f48"
  bottom: "label"
  top: "loss_hashing"
  loss_weight: 0.7
  hashing_loss_param {
    bi_margin: 96
    tradeoff: 0.01
  }
}
layer {
  name: "loss"
  type: "SoftmaxWithLoss"
  bottom: "fc_classification_Color"
  bottom: "label"
  top: "loss"
}
I0918 11:08:24.490854 33210 layer_factory.hpp:77] Creating layer data
I0918 11:08:24.491017 33210 net.cpp:91] Creating Layer data
I0918 11:08:24.491046 33210 net.cpp:399] data -> data
I0918 11:08:24.491071 33210 net.cpp:399] data -> label
I0918 11:08:24.492442 33216 db_lmdb.cpp:38] Opened lmdb COLOR/color_val_lmdb
I0918 11:08:24.492929 33210 data_layer.cpp:41] output data size: 40,3,224,224
I0918 11:08:24.550299 33210 net.cpp:141] Setting up data
I0918 11:08:24.550391 33210 net.cpp:148] Top shape: 40 3 224 224 (6021120)
I0918 11:08:24.550411 33210 net.cpp:148] Top shape: 40 1 1 1 (40)
I0918 11:08:24.550427 33210 net.cpp:156] Memory required for data: 24084640
I0918 11:08:24.550454 33210 layer_factory.hpp:77] Creating layer label_data_1_split
I0918 11:08:24.550493 33210 net.cpp:91] Creating Layer label_data_1_split
I0918 11:08:24.550518 33210 net.cpp:425] label_data_1_split <- label
I0918 11:08:24.550546 33210 net.cpp:399] label_data_1_split -> label_data_1_split_0
I0918 11:08:24.550575 33210 net.cpp:399] label_data_1_split -> label_data_1_split_1
I0918 11:08:24.550607 33210 net.cpp:399] label_data_1_split -> label_data_1_split_2
I0918 11:08:24.550709 33210 net.cpp:141] Setting up label_data_1_split
I0918 11:08:24.550734 33210 net.cpp:148] Top shape: 40 1 1 1 (40)
I0918 11:08:24.550753 33210 net.cpp:148] Top shape: 40 1 1 1 (40)
I0918 11:08:24.550771 33210 net.cpp:148] Top shape: 40 1 1 1 (40)
I0918 11:08:24.550788 33210 net.cpp:156] Memory required for data: 24085120
I0918 11:08:24.550806 33210 layer_factory.hpp:77] Creating layer conv1
I0918 11:08:24.550843 33210 net.cpp:91] Creating Layer conv1
I0918 11:08:24.550863 33210 net.cpp:425] conv1 <- data
I0918 11:08:24.550884 33210 net.cpp:399] conv1 -> conv1
I0918 11:08:24.553828 33210 net.cpp:141] Setting up conv1
I0918 11:08:24.553871 33210 net.cpp:148] Top shape: 40 96 54 54 (11197440)
I0918 11:08:24.553890 33210 net.cpp:156] Memory required for data: 68874880
I0918 11:08:24.553920 33210 layer_factory.hpp:77] Creating layer relu1
I0918 11:08:24.553948 33210 net.cpp:91] Creating Layer relu1
I0918 11:08:24.553967 33210 net.cpp:425] relu1 <- conv1
I0918 11:08:24.553997 33210 net.cpp:386] relu1 -> conv1 (in-place)
I0918 11:08:24.554019 33210 net.cpp:141] Setting up relu1
I0918 11:08:24.554039 33210 net.cpp:148] Top shape: 40 96 54 54 (11197440)
I0918 11:08:24.554054 33210 net.cpp:156] Memory required for data: 113664640
I0918 11:08:24.554070 33210 layer_factory.hpp:77] Creating layer norm1
I0918 11:08:24.554097 33210 net.cpp:91] Creating Layer norm1
I0918 11:08:24.554116 33210 net.cpp:425] norm1 <- conv1
I0918 11:08:24.554134 33210 net.cpp:399] norm1 -> norm1
I0918 11:08:24.554196 33210 net.cpp:141] Setting up norm1
I0918 11:08:24.554220 33210 net.cpp:148] Top shape: 40 96 54 54 (11197440)
I0918 11:08:24.554236 33210 net.cpp:156] Memory required for data: 158454400
I0918 11:08:24.554253 33210 layer_factory.hpp:77] Creating layer pool1
I0918 11:08:24.554275 33210 net.cpp:91] Creating Layer pool1
I0918 11:08:24.554291 33210 net.cpp:425] pool1 <- norm1
I0918 11:08:24.554312 33210 net.cpp:399] pool1 -> pool1
I0918 11:08:24.554370 33210 net.cpp:141] Setting up pool1
I0918 11:08:24.554397 33210 net.cpp:148] Top shape: 40 96 27 27 (2799360)
I0918 11:08:24.554427 33210 net.cpp:156] Memory required for data: 169651840
I0918 11:08:24.554445 33210 layer_factory.hpp:77] Creating layer conv2
I0918 11:08:24.554468 33210 net.cpp:91] Creating Layer conv2
I0918 11:08:24.554486 33210 net.cpp:425] conv2 <- pool1
I0918 11:08:24.554510 33210 net.cpp:399] conv2 -> conv2
I0918 11:08:24.567087 33210 net.cpp:141] Setting up conv2
I0918 11:08:24.567147 33210 net.cpp:148] Top shape: 40 256 27 27 (7464960)
I0918 11:08:24.567167 33210 net.cpp:156] Memory required for data: 199511680
I0918 11:08:24.567199 33210 layer_factory.hpp:77] Creating layer relu2
I0918 11:08:24.567278 33210 net.cpp:91] Creating Layer relu2
I0918 11:08:24.567299 33210 net.cpp:425] relu2 <- conv2
I0918 11:08:24.567320 33210 net.cpp:386] relu2 -> conv2 (in-place)
I0918 11:08:24.567345 33210 net.cpp:141] Setting up relu2
I0918 11:08:24.567364 33210 net.cpp:148] Top shape: 40 256 27 27 (7464960)
I0918 11:08:24.567380 33210 net.cpp:156] Memory required for data: 229371520
I0918 11:08:24.567396 33210 layer_factory.hpp:77] Creating layer norm2
I0918 11:08:24.567423 33210 net.cpp:91] Creating Layer norm2
I0918 11:08:24.567441 33210 net.cpp:425] norm2 <- conv2
I0918 11:08:24.567461 33210 net.cpp:399] norm2 -> norm2
I0918 11:08:24.567523 33210 net.cpp:141] Setting up norm2
I0918 11:08:24.567548 33210 net.cpp:148] Top shape: 40 256 27 27 (7464960)
I0918 11:08:24.567564 33210 net.cpp:156] Memory required for data: 259231360
I0918 11:08:24.567580 33210 layer_factory.hpp:77] Creating layer pool2
I0918 11:08:24.567601 33210 net.cpp:91] Creating Layer pool2
I0918 11:08:24.567617 33210 net.cpp:425] pool2 <- norm2
I0918 11:08:24.567638 33210 net.cpp:399] pool2 -> pool2
I0918 11:08:24.567698 33210 net.cpp:141] Setting up pool2
I0918 11:08:24.567720 33210 net.cpp:148] Top shape: 40 256 13 13 (1730560)
I0918 11:08:24.567737 33210 net.cpp:156] Memory required for data: 266153600
I0918 11:08:24.567754 33210 layer_factory.hpp:77] Creating layer conv3
I0918 11:08:24.567787 33210 net.cpp:91] Creating Layer conv3
I0918 11:08:24.567806 33210 net.cpp:425] conv3 <- pool2
I0918 11:08:24.567826 33210 net.cpp:399] conv3 -> conv3
I0918 11:08:24.603240 33210 net.cpp:141] Setting up conv3
I0918 11:08:24.603307 33210 net.cpp:148] Top shape: 40 384 13 13 (2595840)
I0918 11:08:24.603327 33210 net.cpp:156] Memory required for data: 276536960
I0918 11:08:24.603363 33210 layer_factory.hpp:77] Creating layer relu3
I0918 11:08:24.603390 33210 net.cpp:91] Creating Layer relu3
I0918 11:08:24.603410 33210 net.cpp:425] relu3 <- conv3
I0918 11:08:24.603431 33210 net.cpp:386] relu3 -> conv3 (in-place)
I0918 11:08:24.603458 33210 net.cpp:141] Setting up relu3
I0918 11:08:24.603477 33210 net.cpp:148] Top shape: 40 384 13 13 (2595840)
I0918 11:08:24.603493 33210 net.cpp:156] Memory required for data: 286920320
I0918 11:08:24.603509 33210 layer_factory.hpp:77] Creating layer conv4
I0918 11:08:24.603544 33210 net.cpp:91] Creating Layer conv4
I0918 11:08:24.603565 33210 net.cpp:425] conv4 <- conv3
I0918 11:08:24.603586 33210 net.cpp:399] conv4 -> conv4
I0918 11:08:24.630287 33210 net.cpp:141] Setting up conv4
I0918 11:08:24.630352 33210 net.cpp:148] Top shape: 40 384 13 13 (2595840)
I0918 11:08:24.630370 33210 net.cpp:156] Memory required for data: 297303680
I0918 11:08:24.630399 33210 layer_factory.hpp:77] Creating layer relu4
I0918 11:08:24.630430 33210 net.cpp:91] Creating Layer relu4
I0918 11:08:24.630450 33210 net.cpp:425] relu4 <- conv4
I0918 11:08:24.630472 33210 net.cpp:386] relu4 -> conv4 (in-place)
I0918 11:08:24.630501 33210 net.cpp:141] Setting up relu4
I0918 11:08:24.630519 33210 net.cpp:148] Top shape: 40 384 13 13 (2595840)
I0918 11:08:24.630535 33210 net.cpp:156] Memory required for data: 307687040
I0918 11:08:24.630553 33210 layer_factory.hpp:77] Creating layer conv5
I0918 11:08:24.630581 33210 net.cpp:91] Creating Layer conv5
I0918 11:08:24.630599 33210 net.cpp:425] conv5 <- conv4
I0918 11:08:24.630622 33210 net.cpp:399] conv5 -> conv5
I0918 11:08:24.648602 33210 net.cpp:141] Setting up conv5
I0918 11:08:24.648665 33210 net.cpp:148] Top shape: 40 256 13 13 (1730560)
I0918 11:08:24.648684 33210 net.cpp:156] Memory required for data: 314609280
I0918 11:08:24.648725 33210 layer_factory.hpp:77] Creating layer relu5
I0918 11:08:24.648752 33210 net.cpp:91] Creating Layer relu5
I0918 11:08:24.648772 33210 net.cpp:425] relu5 <- conv5
I0918 11:08:24.648794 33210 net.cpp:386] relu5 -> conv5 (in-place)
I0918 11:08:24.648821 33210 net.cpp:141] Setting up relu5
I0918 11:08:24.648839 33210 net.cpp:148] Top shape: 40 256 13 13 (1730560)
I0918 11:08:24.648855 33210 net.cpp:156] Memory required for data: 321531520
I0918 11:08:24.648919 33210 layer_factory.hpp:77] Creating layer pool5
I0918 11:08:24.648947 33210 net.cpp:91] Creating Layer pool5
I0918 11:08:24.648963 33210 net.cpp:425] pool5 <- conv5
I0918 11:08:24.648986 33210 net.cpp:399] pool5 -> pool5
I0918 11:08:24.649055 33210 net.cpp:141] Setting up pool5
I0918 11:08:24.649080 33210 net.cpp:148] Top shape: 40 256 6 6 (368640)
I0918 11:08:24.649096 33210 net.cpp:156] Memory required for data: 323006080
I0918 11:08:24.649111 33210 layer_factory.hpp:77] Creating layer fc6
I0918 11:08:24.649138 33210 net.cpp:91] Creating Layer fc6
I0918 11:08:24.649157 33210 net.cpp:425] fc6 <- pool5
I0918 11:08:24.649178 33210 net.cpp:399] fc6 -> fc6
I0918 11:08:26.083425 33210 net.cpp:141] Setting up fc6
I0918 11:08:26.083501 33210 net.cpp:148] Top shape: 40 4096 (163840)
I0918 11:08:26.083518 33210 net.cpp:156] Memory required for data: 323661440
I0918 11:08:26.083546 33210 layer_factory.hpp:77] Creating layer relu6
I0918 11:08:26.083576 33210 net.cpp:91] Creating Layer relu6
I0918 11:08:26.083597 33210 net.cpp:425] relu6 <- fc6
I0918 11:08:26.083622 33210 net.cpp:386] relu6 -> fc6 (in-place)
I0918 11:08:26.083650 33210 net.cpp:141] Setting up relu6
I0918 11:08:26.083668 33210 net.cpp:148] Top shape: 40 4096 (163840)
I0918 11:08:26.083686 33210 net.cpp:156] Memory required for data: 324316800
I0918 11:08:26.083706 33210 layer_factory.hpp:77] Creating layer drop6
I0918 11:08:26.083729 33210 net.cpp:91] Creating Layer drop6
I0918 11:08:26.083746 33210 net.cpp:425] drop6 <- fc6
I0918 11:08:26.083763 33210 net.cpp:386] drop6 -> fc6 (in-place)
I0918 11:08:26.083811 33210 net.cpp:141] Setting up drop6
I0918 11:08:26.083832 33210 net.cpp:148] Top shape: 40 4096 (163840)
I0918 11:08:26.083848 33210 net.cpp:156] Memory required for data: 324972160
I0918 11:08:26.083864 33210 layer_factory.hpp:77] Creating layer fc7
I0918 11:08:26.083889 33210 net.cpp:91] Creating Layer fc7
I0918 11:08:26.083906 33210 net.cpp:425] fc7 <- fc6
I0918 11:08:26.083926 33210 net.cpp:399] fc7 -> fc7
I0918 11:08:26.712543 33210 net.cpp:141] Setting up fc7
I0918 11:08:26.712626 33210 net.cpp:148] Top shape: 40 4096 (163840)
I0918 11:08:26.712646 33210 net.cpp:156] Memory required for data: 325627520
I0918 11:08:26.712687 33210 layer_factory.hpp:77] Creating layer relu7
I0918 11:08:26.712720 33210 net.cpp:91] Creating Layer relu7
I0918 11:08:26.712743 33210 net.cpp:425] relu7 <- fc7
I0918 11:08:26.712766 33210 net.cpp:386] relu7 -> fc7 (in-place)
I0918 11:08:26.712795 33210 net.cpp:141] Setting up relu7
I0918 11:08:26.712811 33210 net.cpp:148] Top shape: 40 4096 (163840)
I0918 11:08:26.712826 33210 net.cpp:156] Memory required for data: 326282880
I0918 11:08:26.712841 33210 layer_factory.hpp:77] Creating layer drop7
I0918 11:08:26.712864 33210 net.cpp:91] Creating Layer drop7
I0918 11:08:26.712880 33210 net.cpp:425] drop7 <- fc7
I0918 11:08:26.712898 33210 net.cpp:386] drop7 -> fc7 (in-place)
I0918 11:08:26.712965 33210 net.cpp:141] Setting up drop7
I0918 11:08:26.712986 33210 net.cpp:148] Top shape: 40 4096 (163840)
I0918 11:08:26.713001 33210 net.cpp:156] Memory required for data: 326938240
I0918 11:08:26.713017 33210 layer_factory.hpp:77] Creating layer fc7_drop7_0_split
I0918 11:08:26.713035 33210 net.cpp:91] Creating Layer fc7_drop7_0_split
I0918 11:08:26.713050 33210 net.cpp:425] fc7_drop7_0_split <- fc7
I0918 11:08:26.713073 33210 net.cpp:399] fc7_drop7_0_split -> fc7_drop7_0_split_0
I0918 11:08:26.713094 33210 net.cpp:399] fc7_drop7_0_split -> fc7_drop7_0_split_1
I0918 11:08:26.713147 33210 net.cpp:141] Setting up fc7_drop7_0_split
I0918 11:08:26.713169 33210 net.cpp:148] Top shape: 40 4096 (163840)
I0918 11:08:26.713186 33210 net.cpp:148] Top shape: 40 4096 (163840)
I0918 11:08:26.713201 33210 net.cpp:156] Memory required for data: 328248960
I0918 11:08:26.713217 33210 layer_factory.hpp:77] Creating layer fc_binary_Color_f48
I0918 11:08:26.713243 33210 net.cpp:91] Creating Layer fc_binary_Color_f48
I0918 11:08:26.713258 33210 net.cpp:425] fc_binary_Color_f48 <- fc7_drop7_0_split_0
I0918 11:08:26.713279 33210 net.cpp:399] fc_binary_Color_f48 -> fc_binary_Color_f48
I0918 11:08:26.721034 33210 net.cpp:141] Setting up fc_binary_Color_f48
I0918 11:08:26.721062 33210 net.cpp:148] Top shape: 40 48 (1920)
I0918 11:08:26.721079 33210 net.cpp:156] Memory required for data: 328256640
I0918 11:08:26.721102 33210 layer_factory.hpp:77] Creating layer fc_classification_Color
I0918 11:08:26.721129 33210 net.cpp:91] Creating Layer fc_classification_Color
I0918 11:08:26.721148 33210 net.cpp:425] fc_classification_Color <- fc7_drop7_0_split_1
I0918 11:08:26.721170 33210 net.cpp:399] fc_classification_Color -> fc_classification_Color
I0918 11:08:26.722473 33210 net.cpp:141] Setting up fc_classification_Color
I0918 11:08:26.722499 33210 net.cpp:148] Top shape: 40 8 (320)
I0918 11:08:26.722517 33210 net.cpp:156] Memory required for data: 328257920
I0918 11:08:26.722544 33210 layer_factory.hpp:77] Creating layer fc_classification_Color_fc_classification_Color_0_split
I0918 11:08:26.722564 33210 net.cpp:91] Creating Layer fc_classification_Color_fc_classification_Color_0_split
I0918 11:08:26.722580 33210 net.cpp:425] fc_classification_Color_fc_classification_Color_0_split <- fc_classification_Color
I0918 11:08:26.722597 33210 net.cpp:399] fc_classification_Color_fc_classification_Color_0_split -> fc_classification_Color_fc_classification_Color_0_split_0
I0918 11:08:26.722621 33210 net.cpp:399] fc_classification_Color_fc_classification_Color_0_split -> fc_classification_Color_fc_classification_Color_0_split_1
I0918 11:08:26.722676 33210 net.cpp:141] Setting up fc_classification_Color_fc_classification_Color_0_split
I0918 11:08:26.722697 33210 net.cpp:148] Top shape: 40 8 (320)
I0918 11:08:26.722715 33210 net.cpp:148] Top shape: 40 8 (320)
I0918 11:08:26.722729 33210 net.cpp:156] Memory required for data: 328260480
I0918 11:08:26.722745 33210 layer_factory.hpp:77] Creating layer accuracy_at_1_Color
I0918 11:08:26.722776 33210 net.cpp:91] Creating Layer accuracy_at_1_Color
I0918 11:08:26.722793 33210 net.cpp:425] accuracy_at_1_Color <- fc_classification_Color_fc_classification_Color_0_split_0
I0918 11:08:26.722810 33210 net.cpp:425] accuracy_at_1_Color <- label_data_1_split_0
…
