…
I0914 15:05:57.629168 27338 net.cpp:313] The NetState phase (0) differed from the phase (1) specified by a rule in layer accuracy_at_1_Color
I0914 15:05:57.629447 27338 net.cpp:49] Initializing net from parameters: 
name: "docomo_AlexNet"
state {
  phase: TRAIN
}
layer {
  name: "data"
  type: "Data"
  top: "data"
  top: "label"
  include {
    phase: TRAIN
  }
  transform_param {
    mirror: true
    crop_size: 224
    mean_value: 103.939
    mean_value: 116.779
    mean_value: 123.68
  }
  data_param {
    source: "COLOR/color_train_lmdb"
    batch_size: 30
    backend: LMDB
  }
}
layer {
  name: "conv1"
  type: "Convolution"
  bottom: "data"
  top: "conv1"
  param {
    lr_mult: 1
    decay_mult: 1
  }
  param {
    lr_mult: 2
    decay_mult: 0
  }
  convolution_param {
    num_output: 96
    kernel_size: 11
    stride: 4
    weight_filler {
      type: "gaussian"
      std: 0.01
    }
    bias_filler {
      type: "constant"
      value: 0
    }
  }
}
layer {
  name: "relu1"
  type: "ReLU"
  bottom: "conv1"
  top: "conv1"
}
layer {
  name: "norm1"
  type: "LRN"
  bottom: "conv1"
  top: "norm1"
  lrn_param {
    local_size: 5
    alpha: 0.0001
    beta: 0.75
  }
}
layer {
  name: "pool1"
  type: "Pooling"
  bottom: "norm1"
  top: "pool1"
  pooling_param {
    pool: MAX
    kernel_size: 3
    stride: 2
  }
}
layer {
  name: "conv2"
  type: "Convolution"
  bottom: "pool1"
  top: "conv2"
  param {
    lr_mult: 1
    decay_mult: 1
  }
  param {
    lr_mult: 2
    decay_mult: 0
  }
  convolution_param {
    num_output: 256
    pad: 2
    kernel_size: 5
    group: 2
    weight_filler {
      type: "gaussian"
      std: 0.01
    }
    bias_filler {
      type: "constant"
      value: 0.1
    }
  }
}
layer {
  name: "relu2"
  type: "ReLU"
  bottom: "conv2"
  top: "conv2"
}
layer {
  name: "norm2"
  type: "LRN"
  bottom: "conv2"
  top: "norm2"
  lrn_param {
    local_size: 5
    alpha: 0.0001
    beta: 0.75
  }
}
layer {
  name: "pool2"
  type: "Pooling"
  bottom: "norm2"
  top: "pool2"
  pooling_param {
    pool: MAX
    kernel_size: 3
    stride: 2
  }
}
layer {
  name: "conv3"
  type: "Convolution"
  bottom: "pool2"
  top: "conv3"
  param {
    lr_mult: 1
    decay_mult: 1
  }
  param {
    lr_mult: 2
    decay_mult: 0
  }
  convolution_param {
    num_output: 384
    pad: 1
    kernel_size: 3
    weight_filler {
      type: "gaussian"
      std: 0.01
    }
    bias_filler {
      type: "constant"
      value: 0
    }
  }
}
layer {
  name: "relu3"
  type: "ReLU"
  bottom: "conv3"
  top: "conv3"
}
layer {
  name: "conv4"
  type: "Convolution"
  bottom: "conv3"
  top: "conv4"
  param {
    lr_mult: 1
    decay_mult: 1
  }
  param {
    lr_mult: 2
    decay_mult: 0
  }
  convolution_param {
    num_output: 384
    pad: 1
    kernel_size: 3
    group: 2
    weight_filler {
      type: "gaussian"
      std: 0.01
    }
    bias_filler {
      type: "constant"
      value: 0.1
    }
  }
}
layer {
  name: "relu4"
  type: "ReLU"
  bottom: "conv4"
  top: "conv4"
}
layer {
  name: "conv5"
  type: "Convolution"
  bottom: "conv4"
  top: "conv5"
  param {
    lr_mult: 1
    decay_mult: 1
  }
  param {
    lr_mult: 2
    decay_mult: 0
  }
  convolution_param {
    num_output: 256
    pad: 1
    kernel_size: 3
    group: 2
    weight_filler {
      type: "gaussian"
      std: 0.01
    }
    bias_filler {
      type: "constant"
      value: 0.1
    }
  }
}
layer {
  name: "relu5"
  type: "ReLU"
  bottom: "conv5"
  top: "conv5"
}
layer {
  name: "pool5"
  type: "Pooling"
  bottom: "conv5"
  top: "pool5"
  pooling_param {
    pool: MAX
    kernel_size: 3
    stride: 2
  }
}
layer {
  name: "fc6"
  type: "InnerProduct"
  bottom: "pool5"
  top: "fc6"
  param {
    lr_mult: 1
    decay_mult: 1
  }
  param {
    lr_mult: 2
    decay_mult: 0
  }
  inner_product_param {
    num_output: 4096
    weight_filler {
      type: "gaussian"
      std: 0.005
    }
    bias_filler {
      type: "constant"
      value: 0.1
    }
  }
}
layer {
  name: "relu6"
  type: "ReLU"
  bottom: "fc6"
  top: "fc6"
}
layer {
  name: "drop6"
  type: "Dropout"
  bottom: "fc6"
  top: "fc6"
  dropout_param {
    dropout_ratio: 0.5
  }
}
layer {
  name: "fc7"
  type: "InnerProduct"
  bottom: "fc6"
  top: "fc7"
  param {
    lr_mult: 1
    decay_mult: 1
  }
  param {
    lr_mult: 2
    decay_mult: 0
  }
  inner_product_param {
    num_output: 4096
    weight_filler {
      type: "gaussian"
      std: 0.005
    }
    bias_filler {
      type: "constant"
      value: 0.1
    }
  }
}
layer {
  name: "relu7"
  type: "ReLU"
  bottom: "fc7"
  top: "fc7"
}
layer {
  name: "drop7"
  type: "Dropout"
  bottom: "fc7"
  top: "fc7"
  dropout_param {
    dropout_ratio: 0.5
  }
}
layer {
  name: "fc_binary_Color_f24"
  type: "InnerProduct"
  bottom: "fc7"
  top: "fc_binary_Color_f24"
  param {
    lr_mult: 10
    decay_mult: 1
  }
  param {
    lr_mult: 20
    decay_mult: 0
  }
  inner_product_param {
    num_output: 24
    weight_filler {
      type: "gaussian"
      std: 0.005
    }
    bias_filler {
      type: "constant"
      value: 0.1
    }
  }
}
layer {
  name: "fc_classification_Color"
  type: "InnerProduct"
  bottom: "fc7"
  top: "fc_classification_Color"
  param {
    lr_mult: 1
    decay_mult: 1
  }
  param {
    lr_mult: 2
    decay_mult: 0
  }
  inner_product_param {
    num_output: 8
    weight_filler {
      type: "gaussian"
      std: 0.05
    }
    bias_filler {
      type: "constant"
      value: 0.1
    }
  }
}
layer {
  name: "loss_hashing"
  type: "HashingLoss"
  bottom: "fc_binary_Color_f24"
  bottom: "label"
  top: "loss_hashing"
  loss_weight: 0.6
  hashing_loss_param {
    bi_margin: 48
    tradeoff: 0.01
  }
}
layer {
  name: "loss"
  type: "SoftmaxWithLoss"
  bottom: "fc_classification_Color"
  bottom: "label"
  top: "loss"
}
I0914 15:05:57.631225 27338 layer_factory.hpp:77] Creating layer data
I0914 15:05:57.631886 27338 net.cpp:91] Creating Layer data
I0914 15:05:57.632024 27338 net.cpp:399] data -> data
I0914 15:05:57.632160 27338 net.cpp:399] data -> label
I0914 15:05:57.633118 27342 db_lmdb.cpp:38] Opened lmdb COLOR/color_train_lmdb
I0914 15:05:57.649616 27338 data_layer.cpp:41] output data size: 30,3,224,224
I0914 15:05:57.688155 27338 net.cpp:141] Setting up data
I0914 15:05:57.688236 27338 net.cpp:148] Top shape: 30 3 224 224 (4515840)
I0914 15:05:57.688259 27338 net.cpp:148] Top shape: 30 1 1 1 (30)
I0914 15:05:57.688275 27338 net.cpp:156] Memory required for data: 18063480
I0914 15:05:57.688303 27338 layer_factory.hpp:77] Creating layer label_data_1_split
I0914 15:05:57.688340 27338 net.cpp:91] Creating Layer label_data_1_split
I0914 15:05:57.688365 27338 net.cpp:425] label_data_1_split <- label
I0914 15:05:57.688401 27338 net.cpp:399] label_data_1_split -> label_data_1_split_0
I0914 15:05:57.688432 27338 net.cpp:399] label_data_1_split -> label_data_1_split_1
I0914 15:05:57.688518 27338 net.cpp:141] Setting up label_data_1_split
I0914 15:05:57.688544 27338 net.cpp:148] Top shape: 30 1 1 1 (30)
I0914 15:05:57.688563 27338 net.cpp:148] Top shape: 30 1 1 1 (30)
I0914 15:05:57.688578 27338 net.cpp:156] Memory required for data: 18063720
I0914 15:05:57.688596 27338 layer_factory.hpp:77] Creating layer conv1
I0914 15:05:57.688660 27338 net.cpp:91] Creating Layer conv1
I0914 15:05:57.688689 27338 net.cpp:425] conv1 <- data
I0914 15:05:57.688721 27338 net.cpp:399] conv1 -> conv1
I0914 15:05:57.691874 27338 net.cpp:141] Setting up conv1
I0914 15:05:57.691922 27338 net.cpp:148] Top shape: 30 96 54 54 (8398080)
I0914 15:05:57.691958 27338 net.cpp:156] Memory required for data: 51656040
I0914 15:05:57.691992 27338 layer_factory.hpp:77] Creating layer relu1
I0914 15:05:57.692018 27338 net.cpp:91] Creating Layer relu1
I0914 15:05:57.692035 27338 net.cpp:425] relu1 <- conv1
I0914 15:05:57.692057 27338 net.cpp:386] relu1 -> conv1 (in-place)
I0914 15:05:57.692083 27338 net.cpp:141] Setting up relu1
I0914 15:05:57.692101 27338 net.cpp:148] Top shape: 30 96 54 54 (8398080)
I0914 15:05:57.692116 27338 net.cpp:156] Memory required for data: 85248360
I0914 15:05:57.692131 27338 layer_factory.hpp:77] Creating layer norm1
I0914 15:05:57.692157 27338 net.cpp:91] Creating Layer norm1
I0914 15:05:57.692178 27338 net.cpp:425] norm1 <- conv1
I0914 15:05:57.692194 27338 net.cpp:399] norm1 -> norm1
I0914 15:05:57.692257 27338 net.cpp:141] Setting up norm1
I0914 15:05:57.692281 27338 net.cpp:148] Top shape: 30 96 54 54 (8398080)
I0914 15:05:57.692296 27338 net.cpp:156] Memory required for data: 118840680
I0914 15:05:57.692309 27338 layer_factory.hpp:77] Creating layer pool1
I0914 15:05:57.692332 27338 net.cpp:91] Creating Layer pool1
I0914 15:05:57.692353 27338 net.cpp:425] pool1 <- norm1
I0914 15:05:57.692371 27338 net.cpp:399] pool1 -> pool1
I0914 15:05:57.692440 27338 net.cpp:141] Setting up pool1
I0914 15:05:57.692467 27338 net.cpp:148] Top shape: 30 96 27 27 (2099520)
I0914 15:05:57.692482 27338 net.cpp:156] Memory required for data: 127238760
I0914 15:05:57.692497 27338 layer_factory.hpp:77] Creating layer conv2
I0914 15:05:57.692523 27338 net.cpp:91] Creating Layer conv2
I0914 15:05:57.692544 27338 net.cpp:425] conv2 <- pool1
I0914 15:05:57.692569 27338 net.cpp:399] conv2 -> conv2
I0914 15:05:57.705655 27338 net.cpp:141] Setting up conv2
I0914 15:05:57.705703 27338 net.cpp:148] Top shape: 30 256 27 27 (5598720)
I0914 15:05:57.705719 27338 net.cpp:156] Memory required for data: 149633640
I0914 15:05:57.705746 27338 layer_factory.hpp:77] Creating layer relu2
I0914 15:05:57.705768 27338 net.cpp:91] Creating Layer relu2
I0914 15:05:57.705785 27338 net.cpp:425] relu2 <- conv2
I0914 15:05:57.705804 27338 net.cpp:386] relu2 -> conv2 (in-place)
I0914 15:05:57.705826 27338 net.cpp:141] Setting up relu2
I0914 15:05:57.705843 27338 net.cpp:148] Top shape: 30 256 27 27 (5598720)
I0914 15:05:57.705864 27338 net.cpp:156] Memory required for data: 172028520
I0914 15:05:57.705879 27338 layer_factory.hpp:77] Creating layer norm2
I0914 15:05:57.705899 27338 net.cpp:91] Creating Layer norm2
I0914 15:05:57.705914 27338 net.cpp:425] norm2 <- conv2
I0914 15:05:57.705935 27338 net.cpp:399] norm2 -> norm2
I0914 15:05:57.705993 27338 net.cpp:141] Setting up norm2
I0914 15:05:57.706028 27338 net.cpp:148] Top shape: 30 256 27 27 (5598720)
I0914 15:05:57.706043 27338 net.cpp:156] Memory required for data: 194423400
I0914 15:05:57.706058 27338 layer_factory.hpp:77] Creating layer pool2
I0914 15:05:57.706075 27338 net.cpp:91] Creating Layer pool2
I0914 15:05:57.706090 27338 net.cpp:425] pool2 <- norm2
I0914 15:05:57.706106 27338 net.cpp:399] pool2 -> pool2
I0914 15:05:57.706163 27338 net.cpp:141] Setting up pool2
I0914 15:05:57.706187 27338 net.cpp:148] Top shape: 30 256 13 13 (1297920)
I0914 15:05:57.706200 27338 net.cpp:156] Memory required for data: 199615080
I0914 15:05:57.706215 27338 layer_factory.hpp:77] Creating layer conv3
I0914 15:05:57.706239 27338 net.cpp:91] Creating Layer conv3
I0914 15:05:57.706257 27338 net.cpp:425] conv3 <- pool2
I0914 15:05:57.706279 27338 net.cpp:399] conv3 -> conv3
I0914 15:05:57.741377 27338 net.cpp:141] Setting up conv3
I0914 15:05:57.741441 27338 net.cpp:148] Top shape: 30 384 13 13 (1946880)
I0914 15:05:57.741457 27338 net.cpp:156] Memory required for data: 207402600
I0914 15:05:57.741485 27338 layer_factory.hpp:77] Creating layer relu3
I0914 15:05:57.741508 27338 net.cpp:91] Creating Layer relu3
I0914 15:05:57.741525 27338 net.cpp:425] relu3 <- conv3
I0914 15:05:57.741544 27338 net.cpp:386] relu3 -> conv3 (in-place)
I0914 15:05:57.741565 27338 net.cpp:141] Setting up relu3
I0914 15:05:57.741582 27338 net.cpp:148] Top shape: 30 384 13 13 (1946880)
I0914 15:05:57.741650 27338 net.cpp:156] Memory required for data: 215190120
I0914 15:05:57.741668 27338 layer_factory.hpp:77] Creating layer conv4
I0914 15:05:57.741704 27338 net.cpp:91] Creating Layer conv4
I0914 15:05:57.741724 27338 net.cpp:425] conv4 <- conv3
I0914 15:05:57.741742 27338 net.cpp:399] conv4 -> conv4
I0914 15:05:57.768095 27338 net.cpp:141] Setting up conv4
I0914 15:05:57.768162 27338 net.cpp:148] Top shape: 30 384 13 13 (1946880)
I0914 15:05:57.768179 27338 net.cpp:156] Memory required for data: 222977640
I0914 15:05:57.768200 27338 layer_factory.hpp:77] Creating layer relu4
I0914 15:05:57.768221 27338 net.cpp:91] Creating Layer relu4
I0914 15:05:57.768239 27338 net.cpp:425] relu4 <- conv4
I0914 15:05:57.768261 27338 net.cpp:386] relu4 -> conv4 (in-place)
I0914 15:05:57.768285 27338 net.cpp:141] Setting up relu4
I0914 15:05:57.768301 27338 net.cpp:148] Top shape: 30 384 13 13 (1946880)
I0914 15:05:57.768316 27338 net.cpp:156] Memory required for data: 230765160
I0914 15:05:57.768331 27338 layer_factory.hpp:77] Creating layer conv5
I0914 15:05:57.768357 27338 net.cpp:91] Creating Layer conv5
I0914 15:05:57.768376 27338 net.cpp:425] conv5 <- conv4
I0914 15:05:57.768395 27338 net.cpp:399] conv5 -> conv5
I0914 15:05:57.785492 27338 net.cpp:141] Setting up conv5
I0914 15:05:57.785536 27338 net.cpp:148] Top shape: 30 256 13 13 (1297920)
I0914 15:05:57.785552 27338 net.cpp:156] Memory required for data: 235956840
I0914 15:05:57.785580 27338 layer_factory.hpp:77] Creating layer relu5
I0914 15:05:57.785603 27338 net.cpp:91] Creating Layer relu5
I0914 15:05:57.785619 27338 net.cpp:425] relu5 <- conv5
I0914 15:05:57.785645 27338 net.cpp:386] relu5 -> conv5 (in-place)
I0914 15:05:57.785670 27338 net.cpp:141] Setting up relu5
I0914 15:05:57.785689 27338 net.cpp:148] Top shape: 30 256 13 13 (1297920)
I0914 15:05:57.785706 27338 net.cpp:156] Memory required for data: 241148520
I0914 15:05:57.785719 27338 layer_factory.hpp:77] Creating layer pool5
I0914 15:05:57.785739 27338 net.cpp:91] Creating Layer pool5
I0914 15:05:57.785754 27338 net.cpp:425] pool5 <- conv5
I0914 15:05:57.785775 27338 net.cpp:399] pool5 -> pool5
I0914 15:05:57.785840 27338 net.cpp:141] Setting up pool5
I0914 15:05:57.785864 27338 net.cpp:148] Top shape: 30 256 6 6 (276480)
I0914 15:05:57.785879 27338 net.cpp:156] Memory required for data: 242254440
I0914 15:05:57.785893 27338 layer_factory.hpp:77] Creating layer fc6
I0914 15:05:57.785928 27338 net.cpp:91] Creating Layer fc6
I0914 15:05:57.785948 27338 net.cpp:425] fc6 <- pool5
I0914 15:05:57.785976 27338 net.cpp:399] fc6 -> fc6
I0914 15:05:59.233310 27338 net.cpp:141] Setting up fc6
I0914 15:05:59.233397 27338 net.cpp:148] Top shape: 30 4096 (122880)
I0914 15:05:59.233415 27338 net.cpp:156] Memory required for data: 242745960
I0914 15:05:59.233448 27338 layer_factory.hpp:77] Creating layer relu6
I0914 15:05:59.233475 27338 net.cpp:91] Creating Layer relu6
I0914 15:05:59.233496 27338 net.cpp:425] relu6 <- fc6
I0914 15:05:59.233520 27338 net.cpp:386] relu6 -> fc6 (in-place)
I0914 15:05:59.233548 27338 net.cpp:141] Setting up relu6
I0914 15:05:59.233566 27338 net.cpp:148] Top shape: 30 4096 (122880)
I0914 15:05:59.233580 27338 net.cpp:156] Memory required for data: 243237480
I0914 15:05:59.233594 27338 layer_factory.hpp:77] Creating layer drop6
I0914 15:05:59.233619 27338 net.cpp:91] Creating Layer drop6
I0914 15:05:59.233642 27338 net.cpp:425] drop6 <- fc6
I0914 15:05:59.233662 27338 net.cpp:386] drop6 -> fc6 (in-place)
I0914 15:05:59.233769 27338 net.cpp:141] Setting up drop6
I0914 15:05:59.233798 27338 net.cpp:148] Top shape: 30 4096 (122880)
I0914 15:05:59.233814 27338 net.cpp:156] Memory required for data: 243729000
I0914 15:05:59.233829 27338 layer_factory.hpp:77] Creating layer fc7
I0914 15:05:59.233858 27338 net.cpp:91] Creating Layer fc7
I0914 15:05:59.233878 27338 net.cpp:425] fc7 <- fc6
I0914 15:05:59.233898 27338 net.cpp:399] fc7 -> fc7
I0914 15:05:59.880223 27338 net.cpp:141] Setting up fc7
I0914 15:05:59.880291 27338 net.cpp:148] Top shape: 30 4096 (122880)
I0914 15:05:59.880336 27338 net.cpp:156] Memory required for data: 244220520
I0914 15:05:59.880360 27338 layer_factory.hpp:77] Creating layer relu7
I0914 15:05:59.880384 27338 net.cpp:91] Creating Layer relu7
I0914 15:05:59.880401 27338 net.cpp:425] relu7 <- fc7
I0914 15:05:59.880420 27338 net.cpp:386] relu7 -> fc7 (in-place)
I0914 15:05:59.880447 27338 net.cpp:141] Setting up relu7
I0914 15:05:59.880465 27338 net.cpp:148] Top shape: 30 4096 (122880)
I0914 15:05:59.880478 27338 net.cpp:156] Memory required for data: 244712040
I0914 15:05:59.880492 27338 layer_factory.hpp:77] Creating layer drop7
I0914 15:05:59.880513 27338 net.cpp:91] Creating Layer drop7
I0914 15:05:59.880527 27338 net.cpp:425] drop7 <- fc7
I0914 15:05:59.880547 27338 net.cpp:386] drop7 -> fc7 (in-place)
I0914 15:05:59.880591 27338 net.cpp:141] Setting up drop7
I0914 15:05:59.880621 27338 net.cpp:148] Top shape: 30 4096 (122880)
I0914 15:05:59.880643 27338 net.cpp:156] Memory required for data: 245203560
I0914 15:05:59.880658 27338 layer_factory.hpp:77] Creating layer fc7_drop7_0_split
I0914 15:05:59.880681 27338 net.cpp:91] Creating Layer fc7_drop7_0_split
I0914 15:05:59.880695 27338 net.cpp:425] fc7_drop7_0_split <- fc7
I0914 15:05:59.880712 27338 net.cpp:399] fc7_drop7_0_split -> fc7_drop7_0_split_0
I0914 15:05:59.880748 27338 net.cpp:399] fc7_drop7_0_split -> fc7_drop7_0_split_1
I0914 15:05:59.880805 27338 net.cpp:141] Setting up fc7_drop7_0_split
I0914 15:05:59.880826 27338 net.cpp:148] Top shape: 30 4096 (122880)
I0914 15:05:59.880843 27338 net.cpp:148] Top shape: 30 4096 (122880)
I0914 15:05:59.880858 27338 net.cpp:156] Memory required for data: 246186600
I0914 15:05:59.880877 27338 layer_factory.hpp:77] Creating layer fc_binary_Color_f24
I0914 15:05:59.880908 27338 net.cpp:91] Creating Layer fc_binary_Color_f24
I0914 15:05:59.880924 27338 net.cpp:425] fc_binary_Color_f24 <- fc7_drop7_0_split_0
I0914 15:05:59.880942 27338 net.cpp:399] fc_binary_Color_f24 -> fc_binary_Color_f24
I0914 15:05:59.885360 27338 net.cpp:141] Setting up fc_binary_Color_f24
I0914 15:05:59.885392 27338 net.cpp:148] Top shape: 30 24 (720)
I0914 15:05:59.885407 27338 net.cpp:156] Memory required for data: 246189480
I0914 15:05:59.885426 27338 layer_factory.hpp:77] Creating layer fc_classification_Color
I0914 15:05:59.885447 27338 net.cpp:91] Creating Layer fc_classification_Color
I0914 15:05:59.885462 27338 net.cpp:425] fc_classification_Color <- fc7_drop7_0_split_1
I0914 15:05:59.885483 27338 net.cpp:399] fc_classification_Color -> fc_classification_Color
I0914 15:05:59.886907 27338 net.cpp:141] Setting up fc_classification_Color
I0914 15:05:59.886935 27338 net.cpp:148] Top shape: 30 8 (240)
I0914 15:05:59.886950 27338 net.cpp:156] Memory required for data: 246190440
I0914 15:05:59.886977 27338 layer_factory.hpp:77] Creating layer loss_hashing
I0914 15:05:59.887006 27338 net.cpp:91] Creating Layer loss_hashing
I0914 15:05:59.887022 27338 net.cpp:425] loss_hashing <- fc_binary_Color_f24
I0914 15:05:59.887038 27338 net.cpp:425] loss_hashing <- label_data_1_split_0
I0914 15:05:59.887056 27338 net.cpp:399] loss_hashing -> loss_hashing
…
I0914 15:05:59.889036 27338 net.cpp:313] The NetState phase (1) differed from the phase (0) specified by a rule in layer data
I0914 15:05:59.889319 27338 net.cpp:49] Initializing net from parameters: 
name: "docomo_AlexNet"
state {
  phase: TEST
}
layer {
  name: "data"
  type: "Data"
  top: "data"
  top: "label"
  include {
    phase: TEST
  }
  transform_param {
    mirror: false
    crop_size: 224
    mean_value: 103.939
    mean_value: 116.779
    mean_value: 123.68
  }
  data_param {
    source: "COLOR/color_val_lmdb"
    batch_size: 40
    backend: LMDB
  }
}
layer {
  name: "conv1"
  type: "Convolution"
  bottom: "data"
  top: "conv1"
  param {
    lr_mult: 1
    decay_mult: 1
  }
  param {
    lr_mult: 2
    decay_mult: 0
  }
  convolution_param {
    num_output: 96
    kernel_size: 11
    stride: 4
    weight_filler {
      type: "gaussian"
      std: 0.01
    }
    bias_filler {
      type: "constant"
      value: 0
    }
  }
}
layer {
  name: "relu1"
  type: "ReLU"
  bottom: "conv1"
  top: "conv1"
}
layer {
  name: "norm1"
  type: "LRN"
  bottom: "conv1"
  top: "norm1"
  lrn_param {
    local_size: 5
    alpha: 0.0001
    beta: 0.75
  }
}
layer {
  name: "pool1"
  type: "Pooling"
  bottom: "norm1"
  top: "pool1"
  pooling_param {
    pool: MAX
    kernel_size: 3
    stride: 2
  }
}
layer {
  name: "conv2"
  type: "Convolution"
  bottom: "pool1"
  top: "conv2"
  param {
    lr_mult: 1
    decay_mult: 1
  }
  param {
    lr_mult: 2
    decay_mult: 0
  }
  convolution_param {
    num_output: 256
    pad: 2
    kernel_size: 5
    group: 2
    weight_filler {
      type: "gaussian"
      std: 0.01
    }
    bias_filler {
      type: "constant"
      value: 0.1
    }
  }
}
layer {
  name: "relu2"
  type: "ReLU"
  bottom: "conv2"
  top: "conv2"
}
layer {
  name: "norm2"
  type: "LRN"
  bottom: "conv2"
  top: "norm2"
  lrn_param {
    local_size: 5
    alpha: 0.0001
    beta: 0.75
  }
}
layer {
  name: "pool2"
  type: "Pooling"
  bottom: "norm2"
  top: "pool2"
  pooling_param {
    pool: MAX
    kernel_size: 3
    stride: 2
  }
}
layer {
  name: "conv3"
  type: "Convolution"
  bottom: "pool2"
  top: "conv3"
  param {
    lr_mult: 1
    decay_mult: 1
  }
  param {
    lr_mult: 2
    decay_mult: 0
  }
  convolution_param {
    num_output: 384
    pad: 1
    kernel_size: 3
    weight_filler {
      type: "gaussian"
      std: 0.01
    }
    bias_filler {
      type: "constant"
      value: 0
    }
  }
}
layer {
  name: "relu3"
  type: "ReLU"
  bottom: "conv3"
  top: "conv3"
}
layer {
  name: "conv4"
  type: "Convolution"
  bottom: "conv3"
  top: "conv4"
  param {
    lr_mult: 1
    decay_mult: 1
  }
  param {
    lr_mult: 2
    decay_mult: 0
  }
  convolution_param {
    num_output: 384
    pad: 1
    kernel_size: 3
    group: 2
    weight_filler {
      type: "gaussian"
      std: 0.01
    }
    bias_filler {
      type: "constant"
      value: 0.1
    }
  }
}
layer {
  name: "relu4"
  type: "ReLU"
  bottom: "conv4"
  top: "conv4"
}
layer {
  name: "conv5"
  type: "Convolution"
  bottom: "conv4"
  top: "conv5"
  param {
    lr_mult: 1
    decay_mult: 1
  }
  param {
    lr_mult: 2
    decay_mult: 0
  }
  convolution_param {
    num_output: 256
    pad: 1
    kernel_size: 3
    group: 2
    weight_filler {
      type: "gaussian"
      std: 0.01
    }
    bias_filler {
      type: "constant"
      value: 0.1
    }
  }
}
layer {
  name: "relu5"
  type: "ReLU"
  bottom: "conv5"
  top: "conv5"
}
layer {
  name: "pool5"
  type: "Pooling"
  bottom: "conv5"
  top: "pool5"
  pooling_param {
    pool: MAX
    kernel_size: 3
    stride: 2
  }
}
layer {
  name: "fc6"
  type: "InnerProduct"
  bottom: "pool5"
  top: "fc6"
  param {
    lr_mult: 1
    decay_mult: 1
  }
  param {
    lr_mult: 2
    decay_mult: 0
  }
  inner_product_param {
    num_output: 4096
    weight_filler {
      type: "gaussian"
      std: 0.005
    }
    bias_filler {
      type: "constant"
      value: 0.1
    }
  }
}
layer {
  name: "relu6"
  type: "ReLU"
  bottom: "fc6"
  top: "fc6"
}
layer {
  name: "drop6"
  type: "Dropout"
  bottom: "fc6"
  top: "fc6"
  dropout_param {
    dropout_ratio: 0.5
  }
}
layer {
  name: "fc7"
  type: "InnerProduct"
  bottom: "fc6"
  top: "fc7"
  param {
    lr_mult: 1
    decay_mult: 1
  }
  param {
    lr_mult: 2
    decay_mult: 0
  }
  inner_product_param {
    num_output: 4096
    weight_filler {
      type: "gaussian"
      std: 0.005
    }
    bias_filler {
      type: "constant"
      value: 0.1
    }
  }
}
layer {
  name: "relu7"
  type: "ReLU"
  bottom: "fc7"
  top: "fc7"
}
layer {
  name: "drop7"
  type: "Dropout"
  bottom: "fc7"
  top: "fc7"
  dropout_param {
    dropout_ratio: 0.5
  }
}
layer {
  name: "fc_binary_Color_f24"
  type: "InnerProduct"
  bottom: "fc7"
  top: "fc_binary_Color_f24"
  param {
    lr_mult: 10
    decay_mult: 1
  }
  param {
    lr_mult: 20
    decay_mult: 0
  }
  inner_product_param {
    num_output: 24
    weight_filler {
      type: "gaussian"
      std: 0.005
    }
    bias_filler {
      type: "constant"
      value: 0.1
    }
  }
}
layer {
  name: "fc_classification_Color"
  type: "InnerProduct"
  bottom: "fc7"
  top: "fc_classification_Color"
  param {
    lr_mult: 1
    decay_mult: 1
  }
  param {
    lr_mult: 2
    decay_mult: 0
  }
  inner_product_param {
    num_output: 8
    weight_filler {
      type: "gaussian"
      std: 0.05
    }
    bias_filler {
      type: "constant"
      value: 0.1
    }
  }
}
layer {
  name: "accuracy_at_1_Color"
  type: "Accuracy"
  bottom: "fc_classification_Color"
  bottom: "label"
  top: "accuracy_at_1_Color"
  include {
    phase: TEST
  }
}
layer {
  name: "loss_hashing"
  type: "HashingLoss"
  bottom: "fc_binary_Color_f24"
  bottom: "label"
  top: "loss_hashing"
  loss_weight: 0.6
  hashing_loss_param {
    bi_margin: 48
    tradeoff: 0.01
  }
}
layer {
  name: "loss"
  type: "SoftmaxWithLoss"
  bottom: "fc_classification_Color"
  bottom: "label"
  top: "loss"
}
I0914 15:05:59.890970 27338 layer_factory.hpp:77] Creating layer data
I0914 15:05:59.891103 27338 net.cpp:91] Creating Layer data
I0914 15:05:59.891134 27338 net.cpp:399] data -> data
I0914 15:05:59.891156 27338 net.cpp:399] data -> label
I0914 15:05:59.892531 27344 db_lmdb.cpp:38] Opened lmdb COLOR/color_val_lmdb
I0914 15:05:59.892993 27338 data_layer.cpp:41] output data size: 40,3,224,224
I0914 15:05:59.951628 27338 net.cpp:141] Setting up data
I0914 15:05:59.951705 27338 net.cpp:148] Top shape: 40 3 224 224 (6021120)
I0914 15:05:59.951726 27338 net.cpp:148] Top shape: 40 1 1 1 (40)
I0914 15:05:59.951742 27338 net.cpp:156] Memory required for data: 24084640
I0914 15:05:59.951761 27338 layer_factory.hpp:77] Creating layer label_data_1_split
I0914 15:05:59.951793 27338 net.cpp:91] Creating Layer label_data_1_split
I0914 15:05:59.951812 27338 net.cpp:425] label_data_1_split <- label
I0914 15:05:59.951835 27338 net.cpp:399] label_data_1_split -> label_data_1_split_0
I0914 15:05:59.951861 27338 net.cpp:399] label_data_1_split -> label_data_1_split_1
I0914 15:05:59.951885 27338 net.cpp:399] label_data_1_split -> label_data_1_split_2
I0914 15:05:59.951990 27338 net.cpp:141] Setting up label_data_1_split
I0914 15:05:59.952015 27338 net.cpp:148] Top shape: 40 1 1 1 (40)
I0914 15:05:59.952033 27338 net.cpp:148] Top shape: 40 1 1 1 (40)
I0914 15:05:59.952050 27338 net.cpp:148] Top shape: 40 1 1 1 (40)
I0914 15:05:59.952071 27338 net.cpp:156] Memory required for data: 24085120
I0914 15:05:59.952088 27338 layer_factory.hpp:77] Creating layer conv1
I0914 15:05:59.952127 27338 net.cpp:91] Creating Layer conv1
I0914 15:05:59.952147 27338 net.cpp:425] conv1 <- data
I0914 15:05:59.952177 27338 net.cpp:399] conv1 -> conv1
I0914 15:05:59.955117 27338 net.cpp:141] Setting up conv1
I0914 15:05:59.955168 27338 net.cpp:148] Top shape: 40 96 54 54 (11197440)
I0914 15:05:59.955186 27338 net.cpp:156] Memory required for data: 68874880
I0914 15:05:59.955211 27338 layer_factory.hpp:77] Creating layer relu1
I0914 15:05:59.955237 27338 net.cpp:91] Creating Layer relu1
I0914 15:05:59.955255 27338 net.cpp:425] relu1 <- conv1
I0914 15:05:59.955272 27338 net.cpp:386] relu1 -> conv1 (in-place)
I0914 15:05:59.955292 27338 net.cpp:141] Setting up relu1
I0914 15:05:59.955310 27338 net.cpp:148] Top shape: 40 96 54 54 (11197440)
I0914 15:05:59.955325 27338 net.cpp:156] Memory required for data: 113664640
I0914 15:05:59.955339 27338 layer_factory.hpp:77] Creating layer norm1
I0914 15:05:59.955364 27338 net.cpp:91] Creating Layer norm1
I0914 15:05:59.955389 27338 net.cpp:425] norm1 <- conv1
I0914 15:05:59.955406 27338 net.cpp:399] norm1 -> norm1
I0914 15:05:59.955471 27338 net.cpp:141] Setting up norm1
I0914 15:05:59.955494 27338 net.cpp:148] Top shape: 40 96 54 54 (11197440)
I0914 15:05:59.955508 27338 net.cpp:156] Memory required for data: 158454400
I0914 15:05:59.955523 27338 layer_factory.hpp:77] Creating layer pool1
I0914 15:05:59.955540 27338 net.cpp:91] Creating Layer pool1
I0914 15:05:59.955555 27338 net.cpp:425] pool1 <- norm1
I0914 15:05:59.955575 27338 net.cpp:399] pool1 -> pool1
I0914 15:05:59.955636 27338 net.cpp:141] Setting up pool1
I0914 15:05:59.955657 27338 net.cpp:148] Top shape: 40 96 27 27 (2799360)
I0914 15:05:59.955674 27338 net.cpp:156] Memory required for data: 169651840
I0914 15:05:59.955689 27338 layer_factory.hpp:77] Creating layer conv2
I0914 15:05:59.955715 27338 net.cpp:91] Creating Layer conv2
I0914 15:05:59.955732 27338 net.cpp:425] conv2 <- pool1
I0914 15:05:59.955750 27338 net.cpp:399] conv2 -> conv2
I0914 15:05:59.968442 27338 net.cpp:141] Setting up conv2
I0914 15:05:59.968477 27338 net.cpp:148] Top shape: 40 256 27 27 (7464960)
I0914 15:05:59.968493 27338 net.cpp:156] Memory required for data: 199511680
I0914 15:05:59.968515 27338 layer_factory.hpp:77] Creating layer relu2
I0914 15:05:59.968580 27338 net.cpp:91] Creating Layer relu2
I0914 15:05:59.968598 27338 net.cpp:425] relu2 <- conv2
I0914 15:05:59.968616 27338 net.cpp:386] relu2 -> conv2 (in-place)
I0914 15:05:59.968636 27338 net.cpp:141] Setting up relu2
I0914 15:05:59.968653 27338 net.cpp:148] Top shape: 40 256 27 27 (7464960)
I0914 15:05:59.968668 27338 net.cpp:156] Memory required for data: 229371520
I0914 15:05:59.968683 27338 layer_factory.hpp:77] Creating layer norm2
I0914 15:05:59.968705 27338 net.cpp:91] Creating Layer norm2
I0914 15:05:59.968722 27338 net.cpp:425] norm2 <- conv2
I0914 15:05:59.968742 27338 net.cpp:399] norm2 -> norm2
I0914 15:05:59.968803 27338 net.cpp:141] Setting up norm2
I0914 15:05:59.968827 27338 net.cpp:148] Top shape: 40 256 27 27 (7464960)
I0914 15:05:59.968842 27338 net.cpp:156] Memory required for data: 259231360
I0914 15:05:59.968855 27338 layer_factory.hpp:77] Creating layer pool2
I0914 15:05:59.968876 27338 net.cpp:91] Creating Layer pool2
I0914 15:05:59.968892 27338 net.cpp:425] pool2 <- norm2
I0914 15:05:59.968909 27338 net.cpp:399] pool2 -> pool2
I0914 15:05:59.968976 27338 net.cpp:141] Setting up pool2
I0914 15:05:59.968997 27338 net.cpp:148] Top shape: 40 256 13 13 (1730560)
I0914 15:05:59.969012 27338 net.cpp:156] Memory required for data: 266153600
I0914 15:05:59.969027 27338 layer_factory.hpp:77] Creating layer conv3
I0914 15:05:59.969050 27338 net.cpp:91] Creating Layer conv3
I0914 15:05:59.969066 27338 net.cpp:425] conv3 <- pool2
I0914 15:05:59.969087 27338 net.cpp:399] conv3 -> conv3
I0914 15:06:00.004817 27338 net.cpp:141] Setting up conv3
I0914 15:06:00.004851 27338 net.cpp:148] Top shape: 40 384 13 13 (2595840)
I0914 15:06:00.004868 27338 net.cpp:156] Memory required for data: 276536960
I0914 15:06:00.004889 27338 layer_factory.hpp:77] Creating layer relu3
I0914 15:06:00.004912 27338 net.cpp:91] Creating Layer relu3
I0914 15:06:00.004928 27338 net.cpp:425] relu3 <- conv3
I0914 15:06:00.004950 27338 net.cpp:386] relu3 -> conv3 (in-place)
I0914 15:06:00.004969 27338 net.cpp:141] Setting up relu3
I0914 15:06:00.004987 27338 net.cpp:148] Top shape: 40 384 13 13 (2595840)
I0914 15:06:00.005002 27338 net.cpp:156] Memory required for data: 286920320
I0914 15:06:00.005015 27338 layer_factory.hpp:77] Creating layer conv4
I0914 15:06:00.005040 27338 net.cpp:91] Creating Layer conv4
I0914 15:06:00.005056 27338 net.cpp:425] conv4 <- conv3
I0914 15:06:00.005082 27338 net.cpp:399] conv4 -> conv4
I0914 15:06:00.031472 27338 net.cpp:141] Setting up conv4
I0914 15:06:00.031507 27338 net.cpp:148] Top shape: 40 384 13 13 (2595840)
I0914 15:06:00.031522 27338 net.cpp:156] Memory required for data: 297303680
I0914 15:06:00.031541 27338 layer_factory.hpp:77] Creating layer relu4
I0914 15:06:00.031574 27338 net.cpp:91] Creating Layer relu4
I0914 15:06:00.031590 27338 net.cpp:425] relu4 <- conv4
I0914 15:06:00.031608 27338 net.cpp:386] relu4 -> conv4 (in-place)
I0914 15:06:00.031627 27338 net.cpp:141] Setting up relu4
I0914 15:06:00.031644 27338 net.cpp:148] Top shape: 40 384 13 13 (2595840)
I0914 15:06:00.031659 27338 net.cpp:156] Memory required for data: 307687040
I0914 15:06:00.031673 27338 layer_factory.hpp:77] Creating layer conv5
I0914 15:06:00.031700 27338 net.cpp:91] Creating Layer conv5
I0914 15:06:00.031716 27338 net.cpp:425] conv5 <- conv4
I0914 15:06:00.031738 27338 net.cpp:399] conv5 -> conv5
I0914 15:06:00.049528 27338 net.cpp:141] Setting up conv5
I0914 15:06:00.049578 27338 net.cpp:148] Top shape: 40 256 13 13 (1730560)
I0914 15:06:00.049594 27338 net.cpp:156] Memory required for data: 314609280
I0914 15:06:00.049629 27338 layer_factory.hpp:77] Creating layer relu5
I0914 15:06:00.049660 27338 net.cpp:91] Creating Layer relu5
I0914 15:06:00.049677 27338 net.cpp:425] relu5 <- conv5
I0914 15:06:00.049695 27338 net.cpp:386] relu5 -> conv5 (in-place)
I0914 15:06:00.049715 27338 net.cpp:141] Setting up relu5
I0914 15:06:00.049731 27338 net.cpp:148] Top shape: 40 256 13 13 (1730560)
I0914 15:06:00.049746 27338 net.cpp:156] Memory required for data: 321531520
I0914 15:06:00.049760 27338 layer_factory.hpp:77] Creating layer pool5
I0914 15:06:00.049818 27338 net.cpp:91] Creating Layer pool5
I0914 15:06:00.049837 27338 net.cpp:425] pool5 <- conv5
I0914 15:06:00.049854 27338 net.cpp:399] pool5 -> pool5
I0914 15:06:00.049918 27338 net.cpp:141] Setting up pool5
I0914 15:06:00.049942 27338 net.cpp:148] Top shape: 40 256 6 6 (368640)
I0914 15:06:00.049957 27338 net.cpp:156] Memory required for data: 323006080
I0914 15:06:00.049971 27338 layer_factory.hpp:77] Creating layer fc6
I0914 15:06:00.049993 27338 net.cpp:91] Creating Layer fc6
I0914 15:06:00.050006 27338 net.cpp:425] fc6 <- pool5
I0914 15:06:00.050027 27338 net.cpp:399] fc6 -> fc6
I0914 15:06:01.544394 27338 net.cpp:141] Setting up fc6
I0914 15:06:01.544471 27338 net.cpp:148] Top shape: 40 4096 (163840)
I0914 15:06:01.544487 27338 net.cpp:156] Memory required for data: 323661440
I0914 15:06:01.544512 27338 layer_factory.hpp:77] Creating layer relu6
I0914 15:06:01.544538 27338 net.cpp:91] Creating Layer relu6
I0914 15:06:01.544556 27338 net.cpp:425] relu6 <- fc6
I0914 15:06:01.544579 27338 net.cpp:386] relu6 -> fc6 (in-place)
I0914 15:06:01.544602 27338 net.cpp:141] Setting up relu6
I0914 15:06:01.544626 27338 net.cpp:148] Top shape: 40 4096 (163840)
I0914 15:06:01.544641 27338 net.cpp:156] Memory required for data: 324316800
I0914 15:06:01.544656 27338 layer_factory.hpp:77] Creating layer drop6
I0914 15:06:01.544678 27338 net.cpp:91] Creating Layer drop6
I0914 15:06:01.544694 27338 net.cpp:425] drop6 <- fc6
I0914 15:06:01.544710 27338 net.cpp:386] drop6 -> fc6 (in-place)
I0914 15:06:01.544755 27338 net.cpp:141] Setting up drop6
I0914 15:06:01.544782 27338 net.cpp:148] Top shape: 40 4096 (163840)
I0914 15:06:01.544797 27338 net.cpp:156] Memory required for data: 324972160
I0914 15:06:01.544811 27338 layer_factory.hpp:77] Creating layer fc7
I0914 15:06:01.544836 27338 net.cpp:91] Creating Layer fc7
I0914 15:06:01.544852 27338 net.cpp:425] fc7 <- fc6
I0914 15:06:01.544873 27338 net.cpp:399] fc7 -> fc7
I0914 15:06:02.186182 27338 net.cpp:141] Setting up fc7
I0914 15:06:02.186277 27338 net.cpp:148] Top shape: 40 4096 (163840)
I0914 15:06:02.186295 27338 net.cpp:156] Memory required for data: 325627520
I0914 15:06:02.186358 27338 layer_factory.hpp:77] Creating layer relu7
I0914 15:06:02.186408 27338 net.cpp:91] Creating Layer relu7
I0914 15:06:02.186460 27338 net.cpp:425] relu7 <- fc7
I0914 15:06:02.186502 27338 net.cpp:386] relu7 -> fc7 (in-place)
I0914 15:06:02.186527 27338 net.cpp:141] Setting up relu7
I0914 15:06:02.186540 27338 net.cpp:148] Top shape: 40 4096 (163840)
I0914 15:06:02.186550 27338 net.cpp:156] Memory required for data: 326282880
I0914 15:06:02.186560 27338 layer_factory.hpp:77] Creating layer drop7
I0914 15:06:02.186578 27338 net.cpp:91] Creating Layer drop7
I0914 15:06:02.186586 27338 net.cpp:425] drop7 <- fc7
I0914 15:06:02.186607 27338 net.cpp:386] drop7 -> fc7 (in-place)
I0914 15:06:02.186702 27338 net.cpp:141] Setting up drop7
I0914 15:06:02.186722 27338 net.cpp:148] Top shape: 40 4096 (163840)
I0914 15:06:02.186731 27338 net.cpp:156] Memory required for data: 326938240
I0914 15:06:02.186740 27338 layer_factory.hpp:77] Creating layer fc7_drop7_0_split
I0914 15:06:02.186756 27338 net.cpp:91] Creating Layer fc7_drop7_0_split
I0914 15:06:02.186764 27338 net.cpp:425] fc7_drop7_0_split <- fc7
I0914 15:06:02.186777 27338 net.cpp:399] fc7_drop7_0_split -> fc7_drop7_0_split_0
I0914 15:06:02.186790 27338 net.cpp:399] fc7_drop7_0_split -> fc7_drop7_0_split_1
I0914 15:06:02.186851 27338 net.cpp:141] Setting up fc7_drop7_0_split
I0914 15:06:02.186866 27338 net.cpp:148] Top shape: 40 4096 (163840)
I0914 15:06:02.186875 27338 net.cpp:148] Top shape: 40 4096 (163840)
I0914 15:06:02.186884 27338 net.cpp:156] Memory required for data: 328248960
I0914 15:06:02.186905 27338 layer_factory.hpp:77] Creating layer fc_binary_Color_f24
I0914 15:06:02.186926 27338 net.cpp:91] Creating Layer fc_binary_Color_f24
I0914 15:06:02.186935 27338 net.cpp:425] fc_binary_Color_f24 <- fc7_drop7_0_split_0
I0914 15:06:02.186951 27338 net.cpp:399] fc_binary_Color_f24 -> fc_binary_Color_f24
I0914 15:06:02.190783 27338 net.cpp:141] Setting up fc_binary_Color_f24
I0914 15:06:02.190801 27338 net.cpp:148] Top shape: 40 24 (960)
I0914 15:06:02.190810 27338 net.cpp:156] Memory required for data: 328252800
I0914 15:06:02.190824 27338 layer_factory.hpp:77] Creating layer fc_classification_Color
I0914 15:06:02.190840 27338 net.cpp:91] Creating Layer fc_classification_Color
I0914 15:06:02.190852 27338 net.cpp:425] fc_classification_Color <- fc7_drop7_0_split_1
I0914 15:06:02.190865 27338 net.cpp:399] fc_classification_Color -> fc_classification_Color
I0914 15:06:02.192241 27338 net.cpp:141] Setting up fc_classification_Color
I0914 15:06:02.192257 27338 net.cpp:148] Top shape: 40 8 (320)
I0914 15:06:02.192266 27338 net.cpp:156] Memory required for data: 328254080
I0914 15:06:02.192296 27338 layer_factory.hpp:77] Creating layer fc_classification_Color_fc_classification_Color_0_split
I0914 15:06:02.192312 27338 net.cpp:91] Creating Layer fc_classification_Color_fc_classification_Color_0_split
I0914 15:06:02.192322 27338 net.cpp:425] fc_classification_Color_fc_classification_Color_0_split <- fc_classification_Color
I0914 15:06:02.192333 27338 net.cpp:399] fc_classification_Color_fc_classification_Color_0_split -> fc_classification_Color_fc_classification_Color_0_split_0
I0914 15:06:02.192348 27338 net.cpp:399] fc_classification_Color_fc_classification_Color_0_split -> fc_classification_Color_fc_classification_Color_0_split_1
I0914 15:06:02.192394 27338 net.cpp:141] Setting up fc_classification_Color_fc_classification_Color_0_split
I0914 15:06:02.192409 27338 net.cpp:148] Top shape: 40 8 (320)
I0914 15:06:02.192418 27338 net.cpp:148] Top shape: 40 8 (320)
I0914 15:06:02.192426 27338 net.cpp:156] Memory required for data: 328256640
I0914 15:06:02.192435 27338 layer_factory.hpp:77] Creating layer accuracy_at_1_Color
I0914 15:06:02.192457 27338 net.cpp:91] Creating Layer accuracy_at_1_Color
I0914 15:06:02.192466 27338 net.cpp:425] accuracy_at_1_Color <- fc_classification_Color_fc_classification_Color_0_split_0
I0914 15:06:02.192476 27338 net.cpp:425] accuracy_at_1_Color <- label_data_1_split_0
…
