…
I0813 16:33:53.200006 24023 net.cpp:313] The NetState phase (0) differed from the phase (1) specified by a rule in layer data
I0813 16:33:53.200850 24023 net.cpp:49] Initializing net from parameters: 
name: "docomo_VGG16"
state {
  phase: TRAIN
}
layer {
  name: "data"
  type: "Data"
  top: "data"
  top: "label"
  include {
    phase: TRAIN
  }
  transform_param {
    mirror: true
    crop_size: 224
    mean_value: 103.939
    mean_value: 116.779
    mean_value: 123.68
  }
  data_param {
    source: "FASHION/fashion_train_lmdb/"
    batch_size: 10
    backend: LMDB
  }
}
layer {
  name: "conv1_1"
  type: "Convolution"
  bottom: "data"
  top: "conv1_1"
  param {
    lr_mult: 1
    decay_mult: 1
  }
  param {
    lr_mult: 2
    decay_mult: 0
  }
  convolution_param {
    num_output: 64
    pad: 1
    kernel_size: 3
    weight_filler {
      type: "gaussian"
      std: 0.01
    }
    bias_filler {
      type: "constant"
      value: 0
    }
  }
}
layer {
  name: "relu1_1"
  type: "ReLU"
  bottom: "conv1_1"
  top: "conv1_1"
}
layer {
  name: "conv1_2"
  type: "Convolution"
  bottom: "conv1_1"
  top: "conv1_2"
  param {
    lr_mult: 1
    decay_mult: 1
  }
  param {
    lr_mult: 2
    decay_mult: 0
  }
  convolution_param {
    num_output: 64
    pad: 1
    kernel_size: 3
    weight_filler {
      type: "gaussian"
      std: 0.01
    }
    bias_filler {
      type: "constant"
      value: 0
    }
  }
}
layer {
  name: "relu1_2"
  type: "ReLU"
  bottom: "conv1_2"
  top: "conv1_2"
}
layer {
  name: "pool1"
  type: "Pooling"
  bottom: "conv1_2"
  top: "pool1"
  pooling_param {
    pool: MAX
    kernel_size: 2
    stride: 2
  }
}
layer {
  name: "conv2_1"
  type: "Convolution"
  bottom: "pool1"
  top: "conv2_1"
  param {
    lr_mult: 1
    decay_mult: 1
  }
  param {
    lr_mult: 2
    decay_mult: 0
  }
  convolution_param {
    num_output: 128
    pad: 1
    kernel_size: 3
    weight_filler {
      type: "gaussian"
      std: 0.01
    }
    bias_filler {
      type: "constant"
      value: 0
    }
  }
}
layer {
  name: "relu2_1"
  type: "ReLU"
  bottom: "conv2_1"
  top: "conv2_1"
}
layer {
  name: "conv2_2"
  type: "Convolution"
  bottom: "conv2_1"
  top: "conv2_2"
  param {
    lr_mult: 1
    decay_mult: 1
  }
  param {
    lr_mult: 2
    decay_mult: 0
  }
  convolution_param {
    num_output: 128
    pad: 1
    kernel_size: 3
    weight_filler {
      type: "gaussian"
      std: 0.01
    }
    bias_filler {
      type: "constant"
      value: 0
    }
  }
}
layer {
  name: "relu2_2"
  type: "ReLU"
  bottom: "conv2_2"
  top: "conv2_2"
}
layer {
  name: "pool2"
  type: "Pooling"
  bottom: "conv2_2"
  top: "pool2"
  pooling_param {
    pool: MAX
    kernel_size: 2
    stride: 2
  }
}
layer {
  name: "conv3_1"
  type: "Convolution"
  bottom: "pool2"
  top: "conv3_1"
  param {
    lr_mult: 1
    decay_mult: 1
  }
  param {
    lr_mult: 2
    decay_mult: 0
  }
  convolution_param {
    num_output: 256
    pad: 1
    kernel_size: 3
    weight_filler {
      type: "gaussian"
      std: 0.01
    }
    bias_filler {
      type: "constant"
      value: 0
    }
  }
}
layer {
  name: "relu3_1"
  type: "ReLU"
  bottom: "conv3_1"
  top: "conv3_1"
}
layer {
  name: "conv3_2"
  type: "Convolution"
  bottom: "conv3_1"
  top: "conv3_2"
  param {
    lr_mult: 1
    decay_mult: 1
  }
  param {
    lr_mult: 2
    decay_mult: 0
  }
  convolution_param {
    num_output: 256
    pad: 1
    kernel_size: 3
    weight_filler {
      type: "gaussian"
      std: 0.01
    }
    bias_filler {
      type: "constant"
      value: 0
    }
  }
}
layer {
  name: "relu3_2"
  type: "ReLU"
  bottom: "conv3_2"
  top: "conv3_2"
}
layer {
  name: "conv3_3"
  type: "Convolution"
  bottom: "conv3_2"
  top: "conv3_3"
  param {
    lr_mult: 1
    decay_mult: 1
  }
  param {
    lr_mult: 2
    decay_mult: 0
  }
  convolution_param {
    num_output: 256
    pad: 1
    kernel_size: 3
    weight_filler {
      type: "gaussian"
      std: 0.01
    }
    bias_filler {
      type: "constant"
      value: 0
    }
  }
}
layer {
  name: "relu3_3"
  type: "ReLU"
  bottom: "conv3_3"
  top: "conv3_3"
}
layer {
  name: "pool3"
  type: "Pooling"
  bottom: "conv3_3"
  top: "pool3"
  pooling_param {
    pool: MAX
    kernel_size: 2
    stride: 2
  }
}
layer {
  name: "conv4_1"
  type: "Convolution"
  bottom: "pool3"
  top: "conv4_1"
  param {
    lr_mult: 1
    decay_mult: 1
  }
  param {
    lr_mult: 2
    decay_mult: 0
  }
  convolution_param {
    num_output: 512
    pad: 1
    kernel_size: 3
    weight_filler {
      type: "gaussian"
      std: 0.01
    }
    bias_filler {
      type: "constant"
      value: 0
    }
  }
}
layer {
  name: "relu4_1"
  type: "ReLU"
  bottom: "conv4_1"
  top: "conv4_1"
}
layer {
  name: "conv4_2"
  type: "Convolution"
  bottom: "conv4_1"
  top: "conv4_2"
  param {
    lr_mult: 1
    decay_mult: 1
  }
  param {
    lr_mult: 2
    decay_mult: 0
  }
  convolution_param {
    num_output: 512
    pad: 1
    kernel_size: 3
    weight_filler {
      type: "gaussian"
      std: 0.01
    }
    bias_filler {
      type: "constant"
      value: 0
    }
  }
}
layer {
  name: "relu4_2"
  type: "ReLU"
  bottom: "conv4_2"
  top: "conv4_2"
}
layer {
  name: "conv4_3"
  type: "Convolution"
  bottom: "conv4_2"
  top: "conv4_3"
  param {
    lr_mult: 1
    decay_mult: 1
  }
  param {
    lr_mult: 2
    decay_mult: 0
  }
  convolution_param {
    num_output: 512
    pad: 1
    kernel_size: 3
    weight_filler {
      type: "gaussian"
      std: 0.01
    }
    bias_filler {
      type: "constant"
      value: 0
    }
  }
}
layer {
  name: "relu4_3"
  type: "ReLU"
  bottom: "conv4_3"
  top: "conv4_3"
}
layer {
  name: "pool4"
  type: "Pooling"
  bottom: "conv4_3"
  top: "pool4"
  pooling_param {
    pool: MAX
    kernel_size: 2
    stride: 2
  }
}
layer {
  name: "conv5_1"
  type: "Convolution"
  bottom: "pool4"
  top: "conv5_1"
  param {
    lr_mult: 1
    decay_mult: 1
  }
  param {
    lr_mult: 2
    decay_mult: 0
  }
  convolution_param {
    num_output: 512
    pad: 1
    kernel_size: 3
    weight_filler {
      type: "gaussian"
      std: 0.01
    }
    bias_filler {
      type: "constant"
      value: 0
    }
  }
}
layer {
  name: "relu5_1"
  type: "ReLU"
  bottom: "conv5_1"
  top: "conv5_1"
}
layer {
  name: "conv5_2"
  type: "Convolution"
  bottom: "conv5_1"
  top: "conv5_2"
  param {
    lr_mult: 1
    decay_mult: 1
  }
  param {
    lr_mult: 2
    decay_mult: 0
  }
  convolution_param {
    num_output: 512
    pad: 1
    kernel_size: 3
    weight_filler {
      type: "gaussian"
      std: 0.01
    }
    bias_filler {
      type: "constant"
      value: 0
    }
  }
}
layer {
  name: "relu5_2"
  type: "ReLU"
  bottom: "conv5_2"
  top: "conv5_2"
}
layer {
  name: "conv5_3"
  type: "Convolution"
  bottom: "conv5_2"
  top: "conv5_3"
  param {
    lr_mult: 1
    decay_mult: 1
  }
  param {
    lr_mult: 2
    decay_mult: 0
  }
  convolution_param {
    num_output: 512
    pad: 1
    kernel_size: 3
    weight_filler {
      type: "gaussian"
      std: 0.01
    }
    bias_filler {
      type: "constant"
      value: 0
    }
  }
}
layer {
  name: "relu5_3"
  type: "ReLU"
  bottom: "conv5_3"
  top: "conv5_3"
}
layer {
  name: "pool5"
  type: "Pooling"
  bottom: "conv5_3"
  top: "pool5"
  pooling_param {
    pool: MAX
    kernel_size: 2
    stride: 2
  }
}
layer {
  name: "fc6"
  type: "InnerProduct"
  bottom: "pool5"
  top: "fc6"
  param {
    lr_mult: 1
    decay_mult: 1
  }
  param {
    lr_mult: 2
    decay_mult: 0
  }
  inner_product_param {
    num_output: 4096
    weight_filler {
      type: "gaussian"
      std: 0.005
    }
    bias_filler {
      type: "constant"
      value: 0.1
    }
  }
}
layer {
  name: "relu6"
  type: "ReLU"
  bottom: "fc6"
  top: "fc6"
}
layer {
  name: "drop6"
  type: "Dropout"
  bottom: "fc6"
  top: "fc6"
  dropout_param {
    dropout_ratio: 0.5
  }
}
layer {
  name: "fc7"
  type: "InnerProduct"
  bottom: "fc6"
  top: "fc7"
  param {
    lr_mult: 1
    decay_mult: 1
  }
  param {
    lr_mult: 2
    decay_mult: 0
  }
  inner_product_param {
    num_output: 4096
    weight_filler {
      type: "gaussian"
      std: 0.005
    }
    bias_filler {
      type: "constant"
      value: 0.1
    }
  }
}
layer {
  name: "relu7"
  type: "ReLU"
  bottom: "fc7"
  top: "fc7"
}
layer {
  name: "drop7"
  type: "Dropout"
  bottom: "fc7"
  top: "fc7"
  dropout_param {
    dropout_ratio: 0.5
  }
}
layer {
  name: "fc8_binary_f12"
  type: "InnerProduct"
  bottom: "fc7"
  top: "fc8_binary_f12"
  param {
    lr_mult: 10
    decay_mult: 1
  }
  param {
    lr_mult: 20
    decay_mult: 0
  }
  inner_product_param {
    num_output: 12
    weight_filler {
      type: "gaussian"
      std: 0.005
    }
    bias_filler {
      type: "constant"
      value: 0.1
    }
  }
}
layer {
  name: "loss_hashing"
  type: "HashingLoss"
  bottom: "fc8_binary_f12"
  bottom: "label"
  top: "loss_hashing"
  hashing_loss_param {
    bi_margin: 24
    tradeoff: 0.01
  }
}
I0813 16:33:53.206333 24023 layer_factory.hpp:77] Creating layer data
I0813 16:33:53.207530 24023 net.cpp:91] Creating Layer data
I0813 16:33:53.207617 24023 net.cpp:399] data -> data
I0813 16:33:53.207717 24023 net.cpp:399] data -> label
I0813 16:33:53.209429 24029 db_lmdb.cpp:38] Opened lmdb FASHION/fashion_train_lmdb/
I0813 16:33:53.239238 24023 data_layer.cpp:41] output data size: 10,3,224,224
I0813 16:33:53.259937 24023 net.cpp:141] Setting up data
I0813 16:33:53.260040 24023 net.cpp:148] Top shape: 10 3 224 224 (1505280)
I0813 16:33:53.260068 24023 net.cpp:148] Top shape: 10 1 1 1 (10)
I0813 16:33:53.260089 24023 net.cpp:156] Memory required for data: 6021160
I0813 16:33:53.260119 24023 layer_factory.hpp:77] Creating layer conv1_1
I0813 16:33:53.260195 24023 net.cpp:91] Creating Layer conv1_1
I0813 16:33:53.260246 24023 net.cpp:425] conv1_1 <- data
I0813 16:33:53.260323 24023 net.cpp:399] conv1_1 -> conv1_1
I0813 16:33:53.264068 24023 net.cpp:141] Setting up conv1_1
I0813 16:33:53.264159 24023 net.cpp:148] Top shape: 10 64 224 224 (32112640)
I0813 16:33:53.264195 24023 net.cpp:156] Memory required for data: 134471720
I0813 16:33:53.264261 24023 layer_factory.hpp:77] Creating layer relu1_1
I0813 16:33:53.264315 24023 net.cpp:91] Creating Layer relu1_1
I0813 16:33:53.264353 24023 net.cpp:425] relu1_1 <- conv1_1
I0813 16:33:53.264391 24023 net.cpp:386] relu1_1 -> conv1_1 (in-place)
I0813 16:33:53.264438 24023 net.cpp:141] Setting up relu1_1
I0813 16:33:53.264482 24023 net.cpp:148] Top shape: 10 64 224 224 (32112640)
I0813 16:33:53.264515 24023 net.cpp:156] Memory required for data: 262922280
I0813 16:33:53.264549 24023 layer_factory.hpp:77] Creating layer conv1_2
I0813 16:33:53.264632 24023 net.cpp:91] Creating Layer conv1_2
I0813 16:33:53.264675 24023 net.cpp:425] conv1_2 <- conv1_1
I0813 16:33:53.264727 24023 net.cpp:399] conv1_2 -> conv1_2
I0813 16:33:53.268028 24023 net.cpp:141] Setting up conv1_2
I0813 16:33:53.268085 24023 net.cpp:148] Top shape: 10 64 224 224 (32112640)
I0813 16:33:53.268129 24023 net.cpp:156] Memory required for data: 391372840
I0813 16:33:53.268175 24023 layer_factory.hpp:77] Creating layer relu1_2
I0813 16:33:53.268216 24023 net.cpp:91] Creating Layer relu1_2
I0813 16:33:53.268265 24023 net.cpp:425] relu1_2 <- conv1_2
I0813 16:33:53.268306 24023 net.cpp:386] relu1_2 -> conv1_2 (in-place)
I0813 16:33:53.268358 24023 net.cpp:141] Setting up relu1_2
I0813 16:33:53.268395 24023 net.cpp:148] Top shape: 10 64 224 224 (32112640)
I0813 16:33:53.268426 24023 net.cpp:156] Memory required for data: 519823400
I0813 16:33:53.268455 24023 layer_factory.hpp:77] Creating layer pool1
I0813 16:33:53.268491 24023 net.cpp:91] Creating Layer pool1
I0813 16:33:53.268594 24023 net.cpp:425] pool1 <- conv1_2
I0813 16:33:53.268651 24023 net.cpp:399] pool1 -> pool1
I0813 16:33:53.268806 24023 net.cpp:141] Setting up pool1
I0813 16:33:53.268857 24023 net.cpp:148] Top shape: 10 64 112 112 (8028160)
I0813 16:33:53.268890 24023 net.cpp:156] Memory required for data: 551936040
I0813 16:33:53.268921 24023 layer_factory.hpp:77] Creating layer conv2_1
I0813 16:33:53.268972 24023 net.cpp:91] Creating Layer conv2_1
I0813 16:33:53.269008 24023 net.cpp:425] conv2_1 <- pool1
I0813 16:33:53.269050 24023 net.cpp:399] conv2_1 -> conv2_1
I0813 16:33:53.277310 24023 net.cpp:141] Setting up conv2_1
I0813 16:33:53.277377 24023 net.cpp:148] Top shape: 10 128 112 112 (16056320)
I0813 16:33:53.277413 24023 net.cpp:156] Memory required for data: 616161320
I0813 16:33:53.277459 24023 layer_factory.hpp:77] Creating layer relu2_1
I0813 16:33:53.277503 24023 net.cpp:91] Creating Layer relu2_1
I0813 16:33:53.277541 24023 net.cpp:425] relu2_1 <- conv2_1
I0813 16:33:53.277583 24023 net.cpp:386] relu2_1 -> conv2_1 (in-place)
I0813 16:33:53.277633 24023 net.cpp:141] Setting up relu2_1
I0813 16:33:53.277668 24023 net.cpp:148] Top shape: 10 128 112 112 (16056320)
I0813 16:33:53.277698 24023 net.cpp:156] Memory required for data: 680386600
I0813 16:33:53.277727 24023 layer_factory.hpp:77] Creating layer conv2_2
I0813 16:33:53.277779 24023 net.cpp:91] Creating Layer conv2_2
I0813 16:33:53.277815 24023 net.cpp:425] conv2_2 <- conv2_1
I0813 16:33:53.277853 24023 net.cpp:399] conv2_2 -> conv2_2
I0813 16:33:53.290177 24023 net.cpp:141] Setting up conv2_2
I0813 16:33:53.290261 24023 net.cpp:148] Top shape: 10 128 112 112 (16056320)
I0813 16:33:53.290299 24023 net.cpp:156] Memory required for data: 744611880
I0813 16:33:53.290345 24023 layer_factory.hpp:77] Creating layer relu2_2
I0813 16:33:53.290390 24023 net.cpp:91] Creating Layer relu2_2
I0813 16:33:53.290424 24023 net.cpp:425] relu2_2 <- conv2_2
I0813 16:33:53.290472 24023 net.cpp:386] relu2_2 -> conv2_2 (in-place)
I0813 16:33:53.290520 24023 net.cpp:141] Setting up relu2_2
I0813 16:33:53.290556 24023 net.cpp:148] Top shape: 10 128 112 112 (16056320)
I0813 16:33:53.290587 24023 net.cpp:156] Memory required for data: 808837160
I0813 16:33:53.290618 24023 layer_factory.hpp:77] Creating layer pool2
I0813 16:33:53.290654 24023 net.cpp:91] Creating Layer pool2
I0813 16:33:53.290684 24023 net.cpp:425] pool2 <- conv2_2
I0813 16:33:53.290719 24023 net.cpp:399] pool2 -> pool2
I0813 16:33:53.290832 24023 net.cpp:141] Setting up pool2
I0813 16:33:53.290879 24023 net.cpp:148] Top shape: 10 128 56 56 (4014080)
I0813 16:33:53.290910 24023 net.cpp:156] Memory required for data: 824893480
I0813 16:33:53.290942 24023 layer_factory.hpp:77] Creating layer conv3_1
I0813 16:33:53.290992 24023 net.cpp:91] Creating Layer conv3_1
I0813 16:33:53.291028 24023 net.cpp:425] conv3_1 <- pool2
I0813 16:33:53.291069 24023 net.cpp:399] conv3_1 -> conv3_1
I0813 16:33:53.314391 24023 net.cpp:141] Setting up conv3_1
I0813 16:33:53.314466 24023 net.cpp:148] Top shape: 10 256 56 56 (8028160)
I0813 16:33:53.314505 24023 net.cpp:156] Memory required for data: 857006120
I0813 16:33:53.314561 24023 layer_factory.hpp:77] Creating layer relu3_1
I0813 16:33:53.314607 24023 net.cpp:91] Creating Layer relu3_1
I0813 16:33:53.314644 24023 net.cpp:425] relu3_1 <- conv3_1
I0813 16:33:53.314679 24023 net.cpp:386] relu3_1 -> conv3_1 (in-place)
I0813 16:33:53.314720 24023 net.cpp:141] Setting up relu3_1
I0813 16:33:53.314754 24023 net.cpp:148] Top shape: 10 256 56 56 (8028160)
I0813 16:33:53.314785 24023 net.cpp:156] Memory required for data: 889118760
I0813 16:33:53.314815 24023 layer_factory.hpp:77] Creating layer conv3_2
I0813 16:33:53.314867 24023 net.cpp:91] Creating Layer conv3_2
I0813 16:33:53.314900 24023 net.cpp:425] conv3_2 <- conv3_1
I0813 16:33:53.314947 24023 net.cpp:399] conv3_2 -> conv3_2
I0813 16:33:53.361680 24023 net.cpp:141] Setting up conv3_2
I0813 16:33:53.361745 24023 net.cpp:148] Top shape: 10 256 56 56 (8028160)
I0813 16:33:53.361781 24023 net.cpp:156] Memory required for data: 921231400
I0813 16:33:53.361889 24023 layer_factory.hpp:77] Creating layer relu3_2
I0813 16:33:53.361937 24023 net.cpp:91] Creating Layer relu3_2
I0813 16:33:53.361968 24023 net.cpp:425] relu3_2 <- conv3_2
I0813 16:33:53.362015 24023 net.cpp:386] relu3_2 -> conv3_2 (in-place)
I0813 16:33:53.362056 24023 net.cpp:141] Setting up relu3_2
I0813 16:33:53.362093 24023 net.cpp:148] Top shape: 10 256 56 56 (8028160)
I0813 16:33:53.362123 24023 net.cpp:156] Memory required for data: 953344040
I0813 16:33:53.362151 24023 layer_factory.hpp:77] Creating layer conv3_3
I0813 16:33:53.362198 24023 net.cpp:91] Creating Layer conv3_3
I0813 16:33:53.362247 24023 net.cpp:425] conv3_3 <- conv3_2
I0813 16:33:53.362294 24023 net.cpp:399] conv3_3 -> conv3_3
I0813 16:33:53.408903 24023 net.cpp:141] Setting up conv3_3
I0813 16:33:53.408964 24023 net.cpp:148] Top shape: 10 256 56 56 (8028160)
I0813 16:33:53.408999 24023 net.cpp:156] Memory required for data: 985456680
I0813 16:33:53.409039 24023 layer_factory.hpp:77] Creating layer relu3_3
I0813 16:33:53.409096 24023 net.cpp:91] Creating Layer relu3_3
I0813 16:33:53.409129 24023 net.cpp:425] relu3_3 <- conv3_3
I0813 16:33:53.409164 24023 net.cpp:386] relu3_3 -> conv3_3 (in-place)
I0813 16:33:53.409204 24023 net.cpp:141] Setting up relu3_3
I0813 16:33:53.409237 24023 net.cpp:148] Top shape: 10 256 56 56 (8028160)
I0813 16:33:53.409267 24023 net.cpp:156] Memory required for data: 1017569320
I0813 16:33:53.409296 24023 layer_factory.hpp:77] Creating layer pool3
I0813 16:33:53.409337 24023 net.cpp:91] Creating Layer pool3
I0813 16:33:53.409376 24023 net.cpp:425] pool3 <- conv3_3
I0813 16:33:53.409413 24023 net.cpp:399] pool3 -> pool3
I0813 16:33:53.409543 24023 net.cpp:141] Setting up pool3
I0813 16:33:53.409590 24023 net.cpp:148] Top shape: 10 256 28 28 (2007040)
I0813 16:33:53.409627 24023 net.cpp:156] Memory required for data: 1025597480
I0813 16:33:53.409657 24023 layer_factory.hpp:77] Creating layer conv4_1
I0813 16:33:53.409708 24023 net.cpp:91] Creating Layer conv4_1
I0813 16:33:53.409744 24023 net.cpp:425] conv4_1 <- pool3
I0813 16:33:53.409781 24023 net.cpp:399] conv4_1 -> conv4_1
I0813 16:33:53.487090 24023 net.cpp:141] Setting up conv4_1
I0813 16:33:53.487124 24023 net.cpp:148] Top shape: 10 512 28 28 (4014080)
I0813 16:33:53.487144 24023 net.cpp:156] Memory required for data: 1041653800
I0813 16:33:53.487164 24023 layer_factory.hpp:77] Creating layer relu4_1
I0813 16:33:53.487181 24023 net.cpp:91] Creating Layer relu4_1
I0813 16:33:53.487195 24023 net.cpp:425] relu4_1 <- conv4_1
I0813 16:33:53.487215 24023 net.cpp:386] relu4_1 -> conv4_1 (in-place)
I0813 16:33:53.487234 24023 net.cpp:141] Setting up relu4_1
I0813 16:33:53.487251 24023 net.cpp:148] Top shape: 10 512 28 28 (4014080)
I0813 16:33:53.487265 24023 net.cpp:156] Memory required for data: 1057710120
I0813 16:33:53.487278 24023 layer_factory.hpp:77] Creating layer conv4_2
I0813 16:33:53.487298 24023 net.cpp:91] Creating Layer conv4_2
I0813 16:33:53.487314 24023 net.cpp:425] conv4_2 <- conv4_1
I0813 16:33:53.487336 24023 net.cpp:399] conv4_2 -> conv4_2
I0813 16:33:53.576694 24023 net.cpp:141] Setting up conv4_2
I0813 16:33:53.576735 24023 net.cpp:148] Top shape: 10 512 28 28 (4014080)
I0813 16:33:53.576756 24023 net.cpp:156] Memory required for data: 1073766440
I0813 16:33:53.576786 24023 layer_factory.hpp:77] Creating layer relu4_2
I0813 16:33:53.576808 24023 net.cpp:91] Creating Layer relu4_2
I0813 16:33:53.576827 24023 net.cpp:425] relu4_2 <- conv4_2
I0813 16:33:53.576843 24023 net.cpp:386] relu4_2 -> conv4_2 (in-place)
I0813 16:33:53.576863 24023 net.cpp:141] Setting up relu4_2
I0813 16:33:53.576879 24023 net.cpp:148] Top shape: 10 512 28 28 (4014080)
I0813 16:33:53.576892 24023 net.cpp:156] Memory required for data: 1089822760
I0813 16:33:53.576906 24023 layer_factory.hpp:77] Creating layer conv4_3
I0813 16:33:53.576930 24023 net.cpp:91] Creating Layer conv4_3
I0813 16:33:53.576946 24023 net.cpp:425] conv4_3 <- conv4_2
I0813 16:33:53.576963 24023 net.cpp:399] conv4_3 -> conv4_3
I0813 16:33:53.666518 24023 net.cpp:141] Setting up conv4_3
I0813 16:33:53.666605 24023 net.cpp:148] Top shape: 10 512 28 28 (4014080)
I0813 16:33:53.666625 24023 net.cpp:156] Memory required for data: 1105879080
I0813 16:33:53.666646 24023 layer_factory.hpp:77] Creating layer relu4_3
I0813 16:33:53.666668 24023 net.cpp:91] Creating Layer relu4_3
I0813 16:33:53.666684 24023 net.cpp:425] relu4_3 <- conv4_3
I0813 16:33:53.666702 24023 net.cpp:386] relu4_3 -> conv4_3 (in-place)
I0813 16:33:53.666721 24023 net.cpp:141] Setting up relu4_3
I0813 16:33:53.666738 24023 net.cpp:148] Top shape: 10 512 28 28 (4014080)
I0813 16:33:53.666751 24023 net.cpp:156] Memory required for data: 1121935400
I0813 16:33:53.666765 24023 layer_factory.hpp:77] Creating layer pool4
I0813 16:33:53.666786 24023 net.cpp:91] Creating Layer pool4
I0813 16:33:53.666801 24023 net.cpp:425] pool4 <- conv4_3
I0813 16:33:53.666818 24023 net.cpp:399] pool4 -> pool4
I0813 16:33:53.666882 24023 net.cpp:141] Setting up pool4
I0813 16:33:53.666910 24023 net.cpp:148] Top shape: 10 512 14 14 (1003520)
I0813 16:33:53.666924 24023 net.cpp:156] Memory required for data: 1125949480
I0813 16:33:53.666939 24023 layer_factory.hpp:77] Creating layer conv5_1
I0813 16:33:53.666963 24023 net.cpp:91] Creating Layer conv5_1
I0813 16:33:53.666980 24023 net.cpp:425] conv5_1 <- pool4
I0813 16:33:53.666999 24023 net.cpp:399] conv5_1 -> conv5_1
I0813 16:33:53.756505 24023 net.cpp:141] Setting up conv5_1
I0813 16:33:53.756548 24023 net.cpp:148] Top shape: 10 512 14 14 (1003520)
I0813 16:33:53.756572 24023 net.cpp:156] Memory required for data: 1129963560
I0813 16:33:53.756592 24023 layer_factory.hpp:77] Creating layer relu5_1
I0813 16:33:53.756629 24023 net.cpp:91] Creating Layer relu5_1
I0813 16:33:53.756649 24023 net.cpp:425] relu5_1 <- conv5_1
I0813 16:33:53.756667 24023 net.cpp:386] relu5_1 -> conv5_1 (in-place)
I0813 16:33:53.756690 24023 net.cpp:141] Setting up relu5_1
I0813 16:33:53.756706 24023 net.cpp:148] Top shape: 10 512 14 14 (1003520)
I0813 16:33:53.756719 24023 net.cpp:156] Memory required for data: 1133977640
I0813 16:33:53.756733 24023 layer_factory.hpp:77] Creating layer conv5_2
I0813 16:33:53.756758 24023 net.cpp:91] Creating Layer conv5_2
I0813 16:33:53.756773 24023 net.cpp:425] conv5_2 <- conv5_1
I0813 16:33:53.756794 24023 net.cpp:399] conv5_2 -> conv5_2
I0813 16:33:53.846192 24023 net.cpp:141] Setting up conv5_2
I0813 16:33:53.846232 24023 net.cpp:148] Top shape: 10 512 14 14 (1003520)
I0813 16:33:53.846252 24023 net.cpp:156] Memory required for data: 1137991720
I0813 16:33:53.846272 24023 layer_factory.hpp:77] Creating layer relu5_2
I0813 16:33:53.846292 24023 net.cpp:91] Creating Layer relu5_2
I0813 16:33:53.846307 24023 net.cpp:425] relu5_2 <- conv5_2
I0813 16:33:53.846323 24023 net.cpp:386] relu5_2 -> conv5_2 (in-place)
I0813 16:33:53.846346 24023 net.cpp:141] Setting up relu5_2
I0813 16:33:53.846364 24023 net.cpp:148] Top shape: 10 512 14 14 (1003520)
I0813 16:33:53.846379 24023 net.cpp:156] Memory required for data: 1142005800
I0813 16:33:53.846391 24023 layer_factory.hpp:77] Creating layer conv5_3
I0813 16:33:53.846412 24023 net.cpp:91] Creating Layer conv5_3
I0813 16:33:53.846427 24023 net.cpp:425] conv5_3 <- conv5_2
I0813 16:33:53.846447 24023 net.cpp:399] conv5_3 -> conv5_3
I0813 16:33:53.935987 24023 net.cpp:141] Setting up conv5_3
I0813 16:33:53.936029 24023 net.cpp:148] Top shape: 10 512 14 14 (1003520)
I0813 16:33:53.936051 24023 net.cpp:156] Memory required for data: 1146019880
I0813 16:33:53.936071 24023 layer_factory.hpp:77] Creating layer relu5_3
I0813 16:33:53.936091 24023 net.cpp:91] Creating Layer relu5_3
I0813 16:33:53.936106 24023 net.cpp:425] relu5_3 <- conv5_3
I0813 16:33:53.936127 24023 net.cpp:386] relu5_3 -> conv5_3 (in-place)
I0813 16:33:53.936147 24023 net.cpp:141] Setting up relu5_3
I0813 16:33:53.936163 24023 net.cpp:148] Top shape: 10 512 14 14 (1003520)
I0813 16:33:53.936177 24023 net.cpp:156] Memory required for data: 1150033960
I0813 16:33:53.936190 24023 layer_factory.hpp:77] Creating layer pool5
I0813 16:33:53.936213 24023 net.cpp:91] Creating Layer pool5
I0813 16:33:53.936228 24023 net.cpp:425] pool5 <- conv5_3
I0813 16:33:53.936291 24023 net.cpp:399] pool5 -> pool5
I0813 16:33:53.936358 24023 net.cpp:141] Setting up pool5
I0813 16:33:53.936381 24023 net.cpp:148] Top shape: 10 512 7 7 (250880)
I0813 16:33:53.936395 24023 net.cpp:156] Memory required for data: 1151037480
I0813 16:33:53.936410 24023 layer_factory.hpp:77] Creating layer fc6
I0813 16:33:53.936446 24023 net.cpp:91] Creating Layer fc6
I0813 16:33:53.936465 24023 net.cpp:425] fc6 <- pool5
I0813 16:33:53.936484 24023 net.cpp:399] fc6 -> fc6
I0813 16:33:57.768191 24023 net.cpp:141] Setting up fc6
I0813 16:33:57.768276 24023 net.cpp:148] Top shape: 10 4096 (40960)
I0813 16:33:57.768292 24023 net.cpp:156] Memory required for data: 1151201320
I0813 16:33:57.768329 24023 layer_factory.hpp:77] Creating layer relu6
I0813 16:33:57.768362 24023 net.cpp:91] Creating Layer relu6
I0813 16:33:57.768384 24023 net.cpp:425] relu6 <- fc6
I0813 16:33:57.768404 24023 net.cpp:386] relu6 -> fc6 (in-place)
I0813 16:33:57.768429 24023 net.cpp:141] Setting up relu6
I0813 16:33:57.768446 24023 net.cpp:148] Top shape: 10 4096 (40960)
I0813 16:33:57.768461 24023 net.cpp:156] Memory required for data: 1151365160
I0813 16:33:57.768476 24023 layer_factory.hpp:77] Creating layer drop6
I0813 16:33:57.768501 24023 net.cpp:91] Creating Layer drop6
I0813 16:33:57.768515 24023 net.cpp:425] drop6 <- fc6
I0813 16:33:57.768541 24023 net.cpp:386] drop6 -> fc6 (in-place)
I0813 16:33:57.768606 24023 net.cpp:141] Setting up drop6
I0813 16:33:57.768628 24023 net.cpp:148] Top shape: 10 4096 (40960)
I0813 16:33:57.768645 24023 net.cpp:156] Memory required for data: 1151529000
I0813 16:33:57.768668 24023 layer_factory.hpp:77] Creating layer fc7
I0813 16:33:57.768690 24023 net.cpp:91] Creating Layer fc7
I0813 16:33:57.768707 24023 net.cpp:425] fc7 <- fc6
I0813 16:33:57.768724 24023 net.cpp:399] fc7 -> fc7
I0813 16:33:58.387822 24023 net.cpp:141] Setting up fc7
I0813 16:33:58.387893 24023 net.cpp:148] Top shape: 10 4096 (40960)
I0813 16:33:58.387909 24023 net.cpp:156] Memory required for data: 1151692840
I0813 16:33:58.387936 24023 layer_factory.hpp:77] Creating layer relu7
I0813 16:33:58.387962 24023 net.cpp:91] Creating Layer relu7
I0813 16:33:58.387979 24023 net.cpp:425] relu7 <- fc7
I0813 16:33:58.388000 24023 net.cpp:386] relu7 -> fc7 (in-place)
I0813 16:33:58.388022 24023 net.cpp:141] Setting up relu7
I0813 16:33:58.388038 24023 net.cpp:148] Top shape: 10 4096 (40960)
I0813 16:33:58.388052 24023 net.cpp:156] Memory required for data: 1151856680
I0813 16:33:58.388068 24023 layer_factory.hpp:77] Creating layer drop7
I0813 16:33:58.388090 24023 net.cpp:91] Creating Layer drop7
I0813 16:33:58.388104 24023 net.cpp:425] drop7 <- fc7
I0813 16:33:58.388119 24023 net.cpp:386] drop7 -> fc7 (in-place)
I0813 16:33:58.388166 24023 net.cpp:141] Setting up drop7
I0813 16:33:58.388186 24023 net.cpp:148] Top shape: 10 4096 (40960)
I0813 16:33:58.388200 24023 net.cpp:156] Memory required for data: 1152020520
I0813 16:33:58.388218 24023 layer_factory.hpp:77] Creating layer fc8_binary_f12
I0813 16:33:58.388240 24023 net.cpp:91] Creating Layer fc8_binary_f12
I0813 16:33:58.388255 24023 net.cpp:425] fc8_binary_f12 <- fc7
I0813 16:33:58.388278 24023 net.cpp:399] fc8_binary_f12 -> fc8_binary_f12
I0813 16:33:58.390166 24023 net.cpp:141] Setting up fc8_binary_f12
I0813 16:33:58.390190 24023 net.cpp:148] Top shape: 10 12 (120)
I0813 16:33:58.390213 24023 net.cpp:156] Memory required for data: 1152021000
I0813 16:33:58.390229 24023 layer_factory.hpp:77] Creating layer loss_hashing
I0813 16:33:58.390256 24023 net.cpp:91] Creating Layer loss_hashing
I0813 16:33:58.390270 24023 net.cpp:425] loss_hashing <- fc8_binary_f12
I0813 16:33:58.390288 24023 net.cpp:425] loss_hashing <- label
I0813 16:33:58.390308 24023 net.cpp:399] loss_hashing -> loss_hashing
…
