…
I0920 16:57:36.106927 34665 net.cpp:313] The NetState phase (0) differed from the phase (1) specified by a rule in layer accuracy_at_1_Color
I0920 16:57:36.107475 34665 net.cpp:49] Initializing net from parameters: 
name: "docomo_AlexNet"
state {
  phase: TRAIN
}
layer {
  name: "data"
  type: "Data"
  top: "data"
  top: "label"
  include {
    phase: TRAIN
  }
  transform_param {
    mirror: true
    crop_size: 224
    mean_value: 103.939
    mean_value: 116.779
    mean_value: 123.68
  }
  data_param {
    source: "COLOR/color_train_lmdb"
    batch_size: 30
    backend: LMDB
  }
}
layer {
  name: "conv1"
  type: "Convolution"
  bottom: "data"
  top: "conv1"
  param {
    lr_mult: 1
    decay_mult: 1
  }
  param {
    lr_mult: 2
    decay_mult: 0
  }
  convolution_param {
    num_output: 96
    kernel_size: 11
    stride: 4
    weight_filler {
      type: "gaussian"
      std: 0.01
    }
    bias_filler {
      type: "constant"
      value: 0
    }
  }
}
layer {
  name: "relu1"
  type: "ReLU"
  bottom: "conv1"
  top: "conv1"
}
layer {
  name: "norm1"
  type: "LRN"
  bottom: "conv1"
  top: "norm1"
  lrn_param {
    local_size: 5
    alpha: 0.0001
    beta: 0.75
  }
}
layer {
  name: "pool1"
  type: "Pooling"
  bottom: "norm1"
  top: "pool1"
  pooling_param {
    pool: MAX
    kernel_size: 3
    stride: 2
  }
}
layer {
  name: "conv2"
  type: "Convolution"
  bottom: "pool1"
  top: "conv2"
  param {
    lr_mult: 1
    decay_mult: 1
  }
  param {
    lr_mult: 2
    decay_mult: 0
  }
  convolution_param {
    num_output: 256
    pad: 2
    kernel_size: 5
    group: 2
    weight_filler {
      type: "gaussian"
      std: 0.01
    }
    bias_filler {
      type: "constant"
      value: 0.1
    }
  }
}
layer {
  name: "relu2"
  type: "ReLU"
  bottom: "conv2"
  top: "conv2"
}
layer {
  name: "norm2"
  type: "LRN"
  bottom: "conv2"
  top: "norm2"
  lrn_param {
    local_size: 5
    alpha: 0.0001
    beta: 0.75
  }
}
layer {
  name: "pool2"
  type: "Pooling"
  bottom: "norm2"
  top: "pool2"
  pooling_param {
    pool: MAX
    kernel_size: 3
    stride: 2
  }
}
layer {
  name: "conv3"
  type: "Convolution"
  bottom: "pool2"
  top: "conv3"
  param {
    lr_mult: 1
    decay_mult: 1
  }
  param {
    lr_mult: 2
    decay_mult: 0
  }
  convolution_param {
    num_output: 384
    pad: 1
    kernel_size: 3
    weight_filler {
      type: "gaussian"
      std: 0.01
    }
    bias_filler {
      type: "constant"
      value: 0
    }
  }
}
layer {
  name: "relu3"
  type: "ReLU"
  bottom: "conv3"
  top: "conv3"
}
layer {
  name: "conv4"
  type: "Convolution"
  bottom: "conv3"
  top: "conv4"
  param {
    lr_mult: 1
    decay_mult: 1
  }
  param {
    lr_mult: 2
    decay_mult: 0
  }
  convolution_param {
    num_output: 384
    pad: 1
    kernel_size: 3
    group: 2
    weight_filler {
      type: "gaussian"
      std: 0.01
    }
    bias_filler {
      type: "constant"
      value: 0.1
    }
  }
}
layer {
  name: "relu4"
  type: "ReLU"
  bottom: "conv4"
  top: "conv4"
}
layer {
  name: "conv5"
  type: "Convolution"
  bottom: "conv4"
  top: "conv5"
  param {
    lr_mult: 1
    decay_mult: 1
  }
  param {
    lr_mult: 2
    decay_mult: 0
  }
  convolution_param {
    num_output: 256
    pad: 1
    kernel_size: 3
    group: 2
    weight_filler {
      type: "gaussian"
      std: 0.01
    }
    bias_filler {
      type: "constant"
      value: 0.1
    }
  }
}
layer {
  name: "relu5"
  type: "ReLU"
  bottom: "conv5"
  top: "conv5"
}
layer {
  name: "pool5"
  type: "Pooling"
  bottom: "conv5"
  top: "pool5"
  pooling_param {
    pool: MAX
    kernel_size: 3
    stride: 2
  }
}
layer {
  name: "fc6"
  type: "InnerProduct"
  bottom: "pool5"
  top: "fc6"
  param {
    lr_mult: 1
    decay_mult: 1
  }
  param {
    lr_mult: 2
    decay_mult: 0
  }
  inner_product_param {
    num_output: 4096
    weight_filler {
      type: "gaussian"
      std: 0.005
    }
    bias_filler {
      type: "constant"
      value: 0.1
    }
  }
}
layer {
  name: "relu6"
  type: "ReLU"
  bottom: "fc6"
  top: "fc6"
}
layer {
  name: "drop6"
  type: "Dropout"
  bottom: "fc6"
  top: "fc6"
  dropout_param {
    dropout_ratio: 0.5
  }
}
layer {
  name: "fc7"
  type: "InnerProduct"
  bottom: "fc6"
  top: "fc7"
  param {
    lr_mult: 1
    decay_mult: 1
  }
  param {
    lr_mult: 2
    decay_mult: 0
  }
  inner_product_param {
    num_output: 4096
    weight_filler {
      type: "gaussian"
      std: 0.005
    }
    bias_filler {
      type: "constant"
      value: 0.1
    }
  }
}
layer {
  name: "relu7"
  type: "ReLU"
  bottom: "fc7"
  top: "fc7"
}
layer {
  name: "drop7"
  type: "Dropout"
  bottom: "fc7"
  top: "fc7"
  dropout_param {
    dropout_ratio: 0.5
  }
}
layer {
  name: "fc_binary_Color_f24"
  type: "InnerProduct"
  bottom: "fc7"
  top: "fc_binary_Color_f24"
  param {
    lr_mult: 100
    decay_mult: 1
  }
  param {
    lr_mult: 200
    decay_mult: 0
  }
  inner_product_param {
    num_output: 24
    weight_filler {
      type: "gaussian"
      std: 0.005
    }
    bias_filler {
      type: "constant"
      value: 0.1
    }
  }
}
layer {
  name: "fc_classification_Color"
  type: "InnerProduct"
  bottom: "fc7"
  top: "fc_classification_Color"
  param {
    lr_mult: 1
    decay_mult: 1
  }
  param {
    lr_mult: 2
    decay_mult: 0
  }
  inner_product_param {
    num_output: 8
    weight_filler {
      type: "gaussian"
      std: 0.05
    }
    bias_filler {
      type: "constant"
      value: 0.1
    }
  }
}
layer {
  name: "loss_hashing"
  type: "HashingLoss"
  bottom: "fc_binary_Color_f24"
  bottom: "label"
  top: "loss_hashing"
  loss_weight: 0.1
  hashing_loss_param {
    bi_margin: 48
    tradeoff: 0.01
  }
}
layer {
  name: "loss"
  type: "SoftmaxWithLoss"
  bottom: "fc_classification_Color"
  bottom: "label"
  top: "loss"
}
I0920 16:57:36.112020 34665 layer_factory.hpp:77] Creating layer data
I0920 16:57:36.113251 34665 net.cpp:91] Creating Layer data
I0920 16:57:36.113323 34665 net.cpp:399] data -> data
I0920 16:57:36.113422 34665 net.cpp:399] data -> label
I0920 16:57:36.115080 34672 db_lmdb.cpp:38] Opened lmdb COLOR/color_train_lmdb
I0920 16:57:36.145463 34665 data_layer.cpp:41] output data size: 30,3,224,224
I0920 16:57:36.207412 34665 net.cpp:141] Setting up data
I0920 16:57:36.207522 34665 net.cpp:148] Top shape: 30 3 224 224 (4515840)
I0920 16:57:36.207572 34665 net.cpp:148] Top shape: 30 1 1 1 (30)
I0920 16:57:36.207592 34665 net.cpp:156] Memory required for data: 18063480
I0920 16:57:36.207629 34665 layer_factory.hpp:77] Creating layer label_data_1_split
I0920 16:57:36.207670 34665 net.cpp:91] Creating Layer label_data_1_split
I0920 16:57:36.207700 34665 net.cpp:425] label_data_1_split <- label
I0920 16:57:36.207746 34665 net.cpp:399] label_data_1_split -> label_data_1_split_0
I0920 16:57:36.207783 34665 net.cpp:399] label_data_1_split -> label_data_1_split_1
I0920 16:57:36.207877 34665 net.cpp:141] Setting up label_data_1_split
I0920 16:57:36.207909 34665 net.cpp:148] Top shape: 30 1 1 1 (30)
I0920 16:57:36.207933 34665 net.cpp:148] Top shape: 30 1 1 1 (30)
I0920 16:57:36.207954 34665 net.cpp:156] Memory required for data: 18063720
I0920 16:57:36.207976 34665 layer_factory.hpp:77] Creating layer conv1
I0920 16:57:36.208030 34665 net.cpp:91] Creating Layer conv1
I0920 16:57:36.208055 34665 net.cpp:425] conv1 <- data
I0920 16:57:36.208082 34665 net.cpp:399] conv1 -> conv1
I0920 16:57:36.212560 34665 net.cpp:141] Setting up conv1
I0920 16:57:36.212685 34665 net.cpp:148] Top shape: 30 96 54 54 (8398080)
I0920 16:57:36.212740 34665 net.cpp:156] Memory required for data: 51656040
I0920 16:57:36.212802 34665 layer_factory.hpp:77] Creating layer relu1
I0920 16:57:36.212857 34665 net.cpp:91] Creating Layer relu1
I0920 16:57:36.212891 34665 net.cpp:425] relu1 <- conv1
I0920 16:57:36.212924 34665 net.cpp:386] relu1 -> conv1 (in-place)
I0920 16:57:36.212971 34665 net.cpp:141] Setting up relu1
I0920 16:57:36.213008 34665 net.cpp:148] Top shape: 30 96 54 54 (8398080)
I0920 16:57:36.213039 34665 net.cpp:156] Memory required for data: 85248360
I0920 16:57:36.213068 34665 layer_factory.hpp:77] Creating layer norm1
I0920 16:57:36.213112 34665 net.cpp:91] Creating Layer norm1
I0920 16:57:36.213146 34665 net.cpp:425] norm1 <- conv1
I0920 16:57:36.213179 34665 net.cpp:399] norm1 -> norm1
I0920 16:57:36.213310 34665 net.cpp:141] Setting up norm1
I0920 16:57:36.213356 34665 net.cpp:148] Top shape: 30 96 54 54 (8398080)
I0920 16:57:36.213387 34665 net.cpp:156] Memory required for data: 118840680
I0920 16:57:36.213415 34665 layer_factory.hpp:77] Creating layer pool1
I0920 16:57:36.213452 34665 net.cpp:91] Creating Layer pool1
I0920 16:57:36.213482 34665 net.cpp:425] pool1 <- norm1
I0920 16:57:36.213522 34665 net.cpp:399] pool1 -> pool1
I0920 16:57:36.213671 34665 net.cpp:141] Setting up pool1
I0920 16:57:36.213726 34665 net.cpp:148] Top shape: 30 96 27 27 (2099520)
I0920 16:57:36.213757 34665 net.cpp:156] Memory required for data: 127238760
I0920 16:57:36.213785 34665 layer_factory.hpp:77] Creating layer conv2
I0920 16:57:36.213829 34665 net.cpp:91] Creating Layer conv2
I0920 16:57:36.213860 34665 net.cpp:425] conv2 <- pool1
I0920 16:57:36.213909 34665 net.cpp:399] conv2 -> conv2
I0920 16:57:36.239944 34665 net.cpp:141] Setting up conv2
I0920 16:57:36.240033 34665 net.cpp:148] Top shape: 30 256 27 27 (5598720)
I0920 16:57:36.240065 34665 net.cpp:156] Memory required for data: 149633640
I0920 16:57:36.240114 34665 layer_factory.hpp:77] Creating layer relu2
I0920 16:57:36.240160 34665 net.cpp:91] Creating Layer relu2
I0920 16:57:36.240202 34665 net.cpp:425] relu2 <- conv2
I0920 16:57:36.240253 34665 net.cpp:386] relu2 -> conv2 (in-place)
I0920 16:57:36.240299 34665 net.cpp:141] Setting up relu2
I0920 16:57:36.240336 34665 net.cpp:148] Top shape: 30 256 27 27 (5598720)
I0920 16:57:36.240375 34665 net.cpp:156] Memory required for data: 172028520
I0920 16:57:36.240403 34665 layer_factory.hpp:77] Creating layer norm2
I0920 16:57:36.240444 34665 net.cpp:91] Creating Layer norm2
I0920 16:57:36.240476 34665 net.cpp:425] norm2 <- conv2
I0920 16:57:36.240519 34665 net.cpp:399] norm2 -> norm2
I0920 16:57:36.240643 34665 net.cpp:141] Setting up norm2
I0920 16:57:36.240690 34665 net.cpp:148] Top shape: 30 256 27 27 (5598720)
I0920 16:57:36.240721 34665 net.cpp:156] Memory required for data: 194423400
I0920 16:57:36.240751 34665 layer_factory.hpp:77] Creating layer pool2
I0920 16:57:36.240787 34665 net.cpp:91] Creating Layer pool2
I0920 16:57:36.240818 34665 net.cpp:425] pool2 <- norm2
I0920 16:57:36.240857 34665 net.cpp:399] pool2 -> pool2
I0920 16:57:36.240967 34665 net.cpp:141] Setting up pool2
I0920 16:57:36.241016 34665 net.cpp:148] Top shape: 30 256 13 13 (1297920)
I0920 16:57:36.241050 34665 net.cpp:156] Memory required for data: 199615080
I0920 16:57:36.241078 34665 layer_factory.hpp:77] Creating layer conv3
I0920 16:57:36.241122 34665 net.cpp:91] Creating Layer conv3
I0920 16:57:36.241178 34665 net.cpp:425] conv3 <- pool2
I0920 16:57:36.241221 34665 net.cpp:399] conv3 -> conv3
I0920 16:57:36.299610 34665 net.cpp:141] Setting up conv3
I0920 16:57:36.299700 34665 net.cpp:148] Top shape: 30 384 13 13 (1946880)
I0920 16:57:36.299727 34665 net.cpp:156] Memory required for data: 207402600
I0920 16:57:36.299774 34665 layer_factory.hpp:77] Creating layer relu3
I0920 16:57:36.299818 34665 net.cpp:91] Creating Layer relu3
I0920 16:57:36.299849 34665 net.cpp:425] relu3 <- conv3
I0920 16:57:36.299890 34665 net.cpp:386] relu3 -> conv3 (in-place)
I0920 16:57:36.299934 34665 net.cpp:141] Setting up relu3
I0920 16:57:36.300020 34665 net.cpp:148] Top shape: 30 384 13 13 (1946880)
I0920 16:57:36.300055 34665 net.cpp:156] Memory required for data: 215190120
I0920 16:57:36.300081 34665 layer_factory.hpp:77] Creating layer conv4
I0920 16:57:36.300125 34665 net.cpp:91] Creating Layer conv4
I0920 16:57:36.300154 34665 net.cpp:425] conv4 <- conv3
I0920 16:57:36.300196 34665 net.cpp:399] conv4 -> conv4
I0920 16:57:36.344725 34665 net.cpp:141] Setting up conv4
I0920 16:57:36.344812 34665 net.cpp:148] Top shape: 30 384 13 13 (1946880)
I0920 16:57:36.344840 34665 net.cpp:156] Memory required for data: 222977640
I0920 16:57:36.344874 34665 layer_factory.hpp:77] Creating layer relu4
I0920 16:57:36.344910 34665 net.cpp:91] Creating Layer relu4
I0920 16:57:36.344940 34665 net.cpp:425] relu4 <- conv4
I0920 16:57:36.344980 34665 net.cpp:386] relu4 -> conv4 (in-place)
I0920 16:57:36.345021 34665 net.cpp:141] Setting up relu4
I0920 16:57:36.345052 34665 net.cpp:148] Top shape: 30 384 13 13 (1946880)
I0920 16:57:36.345078 34665 net.cpp:156] Memory required for data: 230765160
I0920 16:57:36.345105 34665 layer_factory.hpp:77] Creating layer conv5
I0920 16:57:36.345150 34665 net.cpp:91] Creating Layer conv5
I0920 16:57:36.345180 34665 net.cpp:425] conv5 <- conv4
I0920 16:57:36.345213 34665 net.cpp:399] conv5 -> conv5
I0920 16:57:36.375414 34665 net.cpp:141] Setting up conv5
I0920 16:57:36.375468 34665 net.cpp:148] Top shape: 30 256 13 13 (1297920)
I0920 16:57:36.375496 34665 net.cpp:156] Memory required for data: 235956840
I0920 16:57:36.375538 34665 layer_factory.hpp:77] Creating layer relu5
I0920 16:57:36.375578 34665 net.cpp:91] Creating Layer relu5
I0920 16:57:36.375608 34665 net.cpp:425] relu5 <- conv5
I0920 16:57:36.375638 34665 net.cpp:386] relu5 -> conv5 (in-place)
I0920 16:57:36.375672 34665 net.cpp:141] Setting up relu5
I0920 16:57:36.375702 34665 net.cpp:148] Top shape: 30 256 13 13 (1297920)
I0920 16:57:36.375728 34665 net.cpp:156] Memory required for data: 241148520
I0920 16:57:36.375754 34665 layer_factory.hpp:77] Creating layer pool5
I0920 16:57:36.375792 34665 net.cpp:91] Creating Layer pool5
I0920 16:57:36.375825 34665 net.cpp:425] pool5 <- conv5
I0920 16:57:36.375857 34665 net.cpp:399] pool5 -> pool5
I0920 16:57:36.375953 34665 net.cpp:141] Setting up pool5
I0920 16:57:36.375998 34665 net.cpp:148] Top shape: 30 256 6 6 (276480)
I0920 16:57:36.376024 34665 net.cpp:156] Memory required for data: 242254440
I0920 16:57:36.376050 34665 layer_factory.hpp:77] Creating layer fc6
I0920 16:57:36.376092 34665 net.cpp:91] Creating Layer fc6
I0920 16:57:36.376121 34665 net.cpp:425] fc6 <- pool5
I0920 16:57:36.376157 34665 net.cpp:399] fc6 -> fc6
I0920 16:57:37.914386 34665 net.cpp:141] Setting up fc6
I0920 16:57:37.914469 34665 net.cpp:148] Top shape: 30 4096 (122880)
I0920 16:57:37.914486 34665 net.cpp:156] Memory required for data: 242745960
I0920 16:57:37.914510 34665 layer_factory.hpp:77] Creating layer relu6
I0920 16:57:37.914543 34665 net.cpp:91] Creating Layer relu6
I0920 16:57:37.914561 34665 net.cpp:425] relu6 <- fc6
I0920 16:57:37.914580 34665 net.cpp:386] relu6 -> fc6 (in-place)
I0920 16:57:37.914604 34665 net.cpp:141] Setting up relu6
I0920 16:57:37.914623 34665 net.cpp:148] Top shape: 30 4096 (122880)
I0920 16:57:37.914638 34665 net.cpp:156] Memory required for data: 243237480
I0920 16:57:37.914652 34665 layer_factory.hpp:77] Creating layer drop6
I0920 16:57:37.914675 34665 net.cpp:91] Creating Layer drop6
I0920 16:57:37.914691 34665 net.cpp:425] drop6 <- fc6
I0920 16:57:37.914711 34665 net.cpp:386] drop6 -> fc6 (in-place)
I0920 16:57:37.914764 34665 net.cpp:141] Setting up drop6
I0920 16:57:37.914786 34665 net.cpp:148] Top shape: 30 4096 (122880)
I0920 16:57:37.914801 34665 net.cpp:156] Memory required for data: 243729000
I0920 16:57:37.914816 34665 layer_factory.hpp:77] Creating layer fc7
I0920 16:57:37.914837 34665 net.cpp:91] Creating Layer fc7
I0920 16:57:37.914852 34665 net.cpp:425] fc7 <- fc6
I0920 16:57:37.914875 34665 net.cpp:399] fc7 -> fc7
I0920 16:57:38.541720 34665 net.cpp:141] Setting up fc7
I0920 16:57:38.541846 34665 net.cpp:148] Top shape: 30 4096 (122880)
I0920 16:57:38.541862 34665 net.cpp:156] Memory required for data: 244220520
I0920 16:57:38.541885 34665 layer_factory.hpp:77] Creating layer relu7
I0920 16:57:38.541920 34665 net.cpp:91] Creating Layer relu7
I0920 16:57:38.541939 34665 net.cpp:425] relu7 <- fc7
I0920 16:57:38.541959 34665 net.cpp:386] relu7 -> fc7 (in-place)
I0920 16:57:38.541982 34665 net.cpp:141] Setting up relu7
I0920 16:57:38.542001 34665 net.cpp:148] Top shape: 30 4096 (122880)
I0920 16:57:38.542014 34665 net.cpp:156] Memory required for data: 244712040
I0920 16:57:38.542029 34665 layer_factory.hpp:77] Creating layer drop7
I0920 16:57:38.542052 34665 net.cpp:91] Creating Layer drop7
I0920 16:57:38.542067 34665 net.cpp:425] drop7 <- fc7
I0920 16:57:38.542083 34665 net.cpp:386] drop7 -> fc7 (in-place)
I0920 16:57:38.542125 34665 net.cpp:141] Setting up drop7
I0920 16:57:38.542150 34665 net.cpp:148] Top shape: 30 4096 (122880)
I0920 16:57:38.542165 34665 net.cpp:156] Memory required for data: 245203560
I0920 16:57:38.542181 34665 layer_factory.hpp:77] Creating layer fc7_drop7_0_split
I0920 16:57:38.542198 34665 net.cpp:91] Creating Layer fc7_drop7_0_split
I0920 16:57:38.542213 34665 net.cpp:425] fc7_drop7_0_split <- fc7
I0920 16:57:38.542233 34665 net.cpp:399] fc7_drop7_0_split -> fc7_drop7_0_split_0
I0920 16:57:38.542258 34665 net.cpp:399] fc7_drop7_0_split -> fc7_drop7_0_split_1
I0920 16:57:38.542311 34665 net.cpp:141] Setting up fc7_drop7_0_split
I0920 16:57:38.542333 34665 net.cpp:148] Top shape: 30 4096 (122880)
I0920 16:57:38.542349 34665 net.cpp:148] Top shape: 30 4096 (122880)
I0920 16:57:38.542364 34665 net.cpp:156] Memory required for data: 246186600
I0920 16:57:38.542378 34665 layer_factory.hpp:77] Creating layer fc_binary_Color_f24
I0920 16:57:38.542399 34665 net.cpp:91] Creating Layer fc_binary_Color_f24
I0920 16:57:38.542414 34665 net.cpp:425] fc_binary_Color_f24 <- fc7_drop7_0_split_0
I0920 16:57:38.542436 34665 net.cpp:399] fc_binary_Color_f24 -> fc_binary_Color_f24
I0920 16:57:38.546821 34665 net.cpp:141] Setting up fc_binary_Color_f24
I0920 16:57:38.546850 34665 net.cpp:148] Top shape: 30 24 (720)
I0920 16:57:38.546866 34665 net.cpp:156] Memory required for data: 246189480
I0920 16:57:38.546885 34665 layer_factory.hpp:77] Creating layer fc_classification_Color
I0920 16:57:38.546905 34665 net.cpp:91] Creating Layer fc_classification_Color
I0920 16:57:38.546921 34665 net.cpp:425] fc_classification_Color <- fc7_drop7_0_split_1
I0920 16:57:38.546939 34665 net.cpp:399] fc_classification_Color -> fc_classification_Color
I0920 16:57:38.548281 34665 net.cpp:141] Setting up fc_classification_Color
I0920 16:57:38.548306 34665 net.cpp:148] Top shape: 30 8 (240)
I0920 16:57:38.548321 34665 net.cpp:156] Memory required for data: 246190440
I0920 16:57:38.548347 34665 layer_factory.hpp:77] Creating layer loss_hashing
I0920 16:57:38.548375 34665 net.cpp:91] Creating Layer loss_hashing
I0920 16:57:38.548393 34665 net.cpp:425] loss_hashing <- fc_binary_Color_f24
I0920 16:57:38.548408 34665 net.cpp:425] loss_hashing <- label_data_1_split_0
I0920 16:57:38.548427 34665 net.cpp:399] loss_hashing -> loss_hashing
…
I0920 16:57:38.550309 34665 net.cpp:313] The NetState phase (1) differed from the phase (0) specified by a rule in layer data
I0920 16:57:38.550602 34665 net.cpp:49] Initializing net from parameters: 
name: "docomo_AlexNet"
state {
  phase: TEST
}
layer {
  name: "data"
  type: "Data"
  top: "data"
  top: "label"
  include {
    phase: TEST
  }
  transform_param {
    mirror: false
    crop_size: 224
    mean_value: 103.939
    mean_value: 116.779
    mean_value: 123.68
  }
  data_param {
    source: "COLOR/color_val_lmdb"
    batch_size: 40
    backend: LMDB
  }
}
layer {
  name: "conv1"
  type: "Convolution"
  bottom: "data"
  top: "conv1"
  param {
    lr_mult: 1
    decay_mult: 1
  }
  param {
    lr_mult: 2
    decay_mult: 0
  }
  convolution_param {
    num_output: 96
    kernel_size: 11
    stride: 4
    weight_filler {
      type: "gaussian"
      std: 0.01
    }
    bias_filler {
      type: "constant"
      value: 0
    }
  }
}
layer {
  name: "relu1"
  type: "ReLU"
  bottom: "conv1"
  top: "conv1"
}
layer {
  name: "norm1"
  type: "LRN"
  bottom: "conv1"
  top: "norm1"
  lrn_param {
    local_size: 5
    alpha: 0.0001
    beta: 0.75
  }
}
layer {
  name: "pool1"
  type: "Pooling"
  bottom: "norm1"
  top: "pool1"
  pooling_param {
    pool: MAX
    kernel_size: 3
    stride: 2
  }
}
layer {
  name: "conv2"
  type: "Convolution"
  bottom: "pool1"
  top: "conv2"
  param {
    lr_mult: 1
    decay_mult: 1
  }
  param {
    lr_mult: 2
    decay_mult: 0
  }
  convolution_param {
    num_output: 256
    pad: 2
    kernel_size: 5
    group: 2
    weight_filler {
      type: "gaussian"
      std: 0.01
    }
    bias_filler {
      type: "constant"
      value: 0.1
    }
  }
}
layer {
  name: "relu2"
  type: "ReLU"
  bottom: "conv2"
  top: "conv2"
}
layer {
  name: "norm2"
  type: "LRN"
  bottom: "conv2"
  top: "norm2"
  lrn_param {
    local_size: 5
    alpha: 0.0001
    beta: 0.75
  }
}
layer {
  name: "pool2"
  type: "Pooling"
  bottom: "norm2"
  top: "pool2"
  pooling_param {
    pool: MAX
    kernel_size: 3
    stride: 2
  }
}
layer {
  name: "conv3"
  type: "Convolution"
  bottom: "pool2"
  top: "conv3"
  param {
    lr_mult: 1
    decay_mult: 1
  }
  param {
    lr_mult: 2
    decay_mult: 0
  }
  convolution_param {
    num_output: 384
    pad: 1
    kernel_size: 3
    weight_filler {
      type: "gaussian"
      std: 0.01
    }
    bias_filler {
      type: "constant"
      value: 0
    }
  }
}
layer {
  name: "relu3"
  type: "ReLU"
  bottom: "conv3"
  top: "conv3"
}
layer {
  name: "conv4"
  type: "Convolution"
  bottom: "conv3"
  top: "conv4"
  param {
    lr_mult: 1
    decay_mult: 1
  }
  param {
    lr_mult: 2
    decay_mult: 0
  }
  convolution_param {
    num_output: 384
    pad: 1
    kernel_size: 3
    group: 2
    weight_filler {
      type: "gaussian"
      std: 0.01
    }
    bias_filler {
      type: "constant"
      value: 0.1
    }
  }
}
layer {
  name: "relu4"
  type: "ReLU"
  bottom: "conv4"
  top: "conv4"
}
layer {
  name: "conv5"
  type: "Convolution"
  bottom: "conv4"
  top: "conv5"
  param {
    lr_mult: 1
    decay_mult: 1
  }
  param {
    lr_mult: 2
    decay_mult: 0
  }
  convolution_param {
    num_output: 256
    pad: 1
    kernel_size: 3
    group: 2
    weight_filler {
      type: "gaussian"
      std: 0.01
    }
    bias_filler {
      type: "constant"
      value: 0.1
    }
  }
}
layer {
  name: "relu5"
  type: "ReLU"
  bottom: "conv5"
  top: "conv5"
}
layer {
  name: "pool5"
  type: "Pooling"
  bottom: "conv5"
  top: "pool5"
  pooling_param {
    pool: MAX
    kernel_size: 3
    stride: 2
  }
}
layer {
  name: "fc6"
  type: "InnerProduct"
  bottom: "pool5"
  top: "fc6"
  param {
    lr_mult: 1
    decay_mult: 1
  }
  param {
    lr_mult: 2
    decay_mult: 0
  }
  inner_product_param {
    num_output: 4096
    weight_filler {
      type: "gaussian"
      std: 0.005
    }
    bias_filler {
      type: "constant"
      value: 0.1
    }
  }
}
layer {
  name: "relu6"
  type: "ReLU"
  bottom: "fc6"
  top: "fc6"
}
layer {
  name: "drop6"
  type: "Dropout"
  bottom: "fc6"
  top: "fc6"
  dropout_param {
    dropout_ratio: 0.5
  }
}
layer {
  name: "fc7"
  type: "InnerProduct"
  bottom: "fc6"
  top: "fc7"
  param {
    lr_mult: 1
    decay_mult: 1
  }
  param {
    lr_mult: 2
    decay_mult: 0
  }
  inner_product_param {
    num_output: 4096
    weight_filler {
      type: "gaussian"
      std: 0.005
    }
    bias_filler {
      type: "constant"
      value: 0.1
    }
  }
}
layer {
  name: "relu7"
  type: "ReLU"
  bottom: "fc7"
  top: "fc7"
}
layer {
  name: "drop7"
  type: "Dropout"
  bottom: "fc7"
  top: "fc7"
  dropout_param {
    dropout_ratio: 0.5
  }
}
layer {
  name: "fc_binary_Color_f24"
  type: "InnerProduct"
  bottom: "fc7"
  top: "fc_binary_Color_f24"
  param {
    lr_mult: 100
    decay_mult: 1
  }
  param {
    lr_mult: 200
    decay_mult: 0
  }
  inner_product_param {
    num_output: 24
    weight_filler {
      type: "gaussian"
      std: 0.005
    }
    bias_filler {
      type: "constant"
      value: 0.1
    }
  }
}
layer {
  name: "fc_classification_Color"
  type: "InnerProduct"
  bottom: "fc7"
  top: "fc_classification_Color"
  param {
    lr_mult: 1
    decay_mult: 1
  }
  param {
    lr_mult: 2
    decay_mult: 0
  }
  inner_product_param {
    num_output: 8
    weight_filler {
      type: "gaussian"
      std: 0.05
    }
    bias_filler {
      type: "constant"
      value: 0.1
    }
  }
}
layer {
  name: "accuracy_at_1_Color"
  type: "Accuracy"
  bottom: "fc_classification_Color"
  bottom: "label"
  top: "accuracy_at_1_Color"
  include {
    phase: TEST
  }
}
layer {
  name: "loss_hashing"
  type: "HashingLoss"
  bottom: "fc_binary_Color_f24"
  bottom: "label"
  top: "loss_hashing"
  loss_weight: 0.1
  hashing_loss_param {
    bi_margin: 48
    tradeoff: 0.01
  }
}
layer {
  name: "loss"
  type: "SoftmaxWithLoss"
  bottom: "fc_classification_Color"
  bottom: "label"
  top: "loss"
}
I0920 16:57:38.552265 34665 layer_factory.hpp:77] Creating layer data
I0920 16:57:38.552825 34665 net.cpp:91] Creating Layer data
I0920 16:57:38.552855 34665 net.cpp:399] data -> data
I0920 16:57:38.552878 34665 net.cpp:399] data -> label
I0920 16:57:38.554008 34674 db_lmdb.cpp:38] Opened lmdb COLOR/color_val_lmdb
I0920 16:57:38.554452 34665 data_layer.cpp:41] output data size: 40,3,224,224
I0920 16:57:38.605396 34665 net.cpp:141] Setting up data
I0920 16:57:38.605473 34665 net.cpp:148] Top shape: 40 3 224 224 (6021120)
I0920 16:57:38.605492 34665 net.cpp:148] Top shape: 40 1 1 1 (40)
I0920 16:57:38.605507 34665 net.cpp:156] Memory required for data: 24084640
I0920 16:57:38.605525 34665 layer_factory.hpp:77] Creating layer label_data_1_split
I0920 16:57:38.605564 34665 net.cpp:91] Creating Layer label_data_1_split
I0920 16:57:38.605582 34665 net.cpp:425] label_data_1_split <- label
I0920 16:57:38.605602 34665 net.cpp:399] label_data_1_split -> label_data_1_split_0
I0920 16:57:38.605639 34665 net.cpp:399] label_data_1_split -> label_data_1_split_1
I0920 16:57:38.605662 34665 net.cpp:399] label_data_1_split -> label_data_1_split_2
I0920 16:57:38.605759 34665 net.cpp:141] Setting up label_data_1_split
I0920 16:57:38.605787 34665 net.cpp:148] Top shape: 40 1 1 1 (40)
I0920 16:57:38.605806 34665 net.cpp:148] Top shape: 40 1 1 1 (40)
I0920 16:57:38.605823 34665 net.cpp:148] Top shape: 40 1 1 1 (40)
I0920 16:57:38.605837 34665 net.cpp:156] Memory required for data: 24085120
I0920 16:57:38.605854 34665 layer_factory.hpp:77] Creating layer conv1
I0920 16:57:38.605885 34665 net.cpp:91] Creating Layer conv1
I0920 16:57:38.605903 34665 net.cpp:425] conv1 <- data
I0920 16:57:38.605922 34665 net.cpp:399] conv1 -> conv1
I0920 16:57:38.608515 34665 net.cpp:141] Setting up conv1
I0920 16:57:38.608546 34665 net.cpp:148] Top shape: 40 96 54 54 (11197440)
I0920 16:57:38.608561 34665 net.cpp:156] Memory required for data: 68874880
I0920 16:57:38.608597 34665 layer_factory.hpp:77] Creating layer relu1
I0920 16:57:38.608618 34665 net.cpp:91] Creating Layer relu1
I0920 16:57:38.608633 34665 net.cpp:425] relu1 <- conv1
I0920 16:57:38.608650 34665 net.cpp:386] relu1 -> conv1 (in-place)
I0920 16:57:38.608670 34665 net.cpp:141] Setting up relu1
I0920 16:57:38.608688 34665 net.cpp:148] Top shape: 40 96 54 54 (11197440)
I0920 16:57:38.608705 34665 net.cpp:156] Memory required for data: 113664640
I0920 16:57:38.608719 34665 layer_factory.hpp:77] Creating layer norm1
I0920 16:57:38.608748 34665 net.cpp:91] Creating Layer norm1
I0920 16:57:38.608765 34665 net.cpp:425] norm1 <- conv1
I0920 16:57:38.608786 34665 net.cpp:399] norm1 -> norm1
I0920 16:57:38.608844 34665 net.cpp:141] Setting up norm1
I0920 16:57:38.608867 34665 net.cpp:148] Top shape: 40 96 54 54 (11197440)
I0920 16:57:38.608885 34665 net.cpp:156] Memory required for data: 158454400
I0920 16:57:38.608898 34665 layer_factory.hpp:77] Creating layer pool1
I0920 16:57:38.608923 34665 net.cpp:91] Creating Layer pool1
I0920 16:57:38.608939 34665 net.cpp:425] pool1 <- norm1
I0920 16:57:38.608956 34665 net.cpp:399] pool1 -> pool1
I0920 16:57:38.609015 34665 net.cpp:141] Setting up pool1
I0920 16:57:38.609038 34665 net.cpp:148] Top shape: 40 96 27 27 (2799360)
I0920 16:57:38.609055 34665 net.cpp:156] Memory required for data: 169651840
I0920 16:57:38.609068 34665 layer_factory.hpp:77] Creating layer conv2
I0920 16:57:38.609093 34665 net.cpp:91] Creating Layer conv2
I0920 16:57:38.609110 34665 net.cpp:425] conv2 <- pool1
I0920 16:57:38.609131 34665 net.cpp:399] conv2 -> conv2
I0920 16:57:38.621713 34665 net.cpp:141] Setting up conv2
I0920 16:57:38.621775 34665 net.cpp:148] Top shape: 40 256 27 27 (7464960)
I0920 16:57:38.621791 34665 net.cpp:156] Memory required for data: 199511680
I0920 16:57:38.621817 34665 layer_factory.hpp:77] Creating layer relu2
I0920 16:57:38.621881 34665 net.cpp:91] Creating Layer relu2
I0920 16:57:38.621901 34665 net.cpp:425] relu2 <- conv2
I0920 16:57:38.621923 34665 net.cpp:386] relu2 -> conv2 (in-place)
I0920 16:57:38.621948 34665 net.cpp:141] Setting up relu2
I0920 16:57:38.621968 34665 net.cpp:148] Top shape: 40 256 27 27 (7464960)
I0920 16:57:38.621982 34665 net.cpp:156] Memory required for data: 229371520
I0920 16:57:38.621997 34665 layer_factory.hpp:77] Creating layer norm2
I0920 16:57:38.622020 34665 net.cpp:91] Creating Layer norm2
I0920 16:57:38.622036 34665 net.cpp:425] norm2 <- conv2
I0920 16:57:38.622057 34665 net.cpp:399] norm2 -> norm2
I0920 16:57:38.622118 34665 net.cpp:141] Setting up norm2
I0920 16:57:38.622141 34665 net.cpp:148] Top shape: 40 256 27 27 (7464960)
I0920 16:57:38.622158 34665 net.cpp:156] Memory required for data: 259231360
I0920 16:57:38.622172 34665 layer_factory.hpp:77] Creating layer pool2
I0920 16:57:38.622195 34665 net.cpp:91] Creating Layer pool2
I0920 16:57:38.622211 34665 net.cpp:425] pool2 <- norm2
I0920 16:57:38.622229 34665 net.cpp:399] pool2 -> pool2
I0920 16:57:38.622295 34665 net.cpp:141] Setting up pool2
I0920 16:57:38.622319 34665 net.cpp:148] Top shape: 40 256 13 13 (1730560)
I0920 16:57:38.622334 34665 net.cpp:156] Memory required for data: 266153600
I0920 16:57:38.622349 34665 layer_factory.hpp:77] Creating layer conv3
I0920 16:57:38.622380 34665 net.cpp:91] Creating Layer conv3
I0920 16:57:38.622398 34665 net.cpp:425] conv3 <- pool2
I0920 16:57:38.622423 34665 net.cpp:399] conv3 -> conv3
I0920 16:57:38.657717 34665 net.cpp:141] Setting up conv3
I0920 16:57:38.657783 34665 net.cpp:148] Top shape: 40 384 13 13 (2595840)
I0920 16:57:38.657799 34665 net.cpp:156] Memory required for data: 276536960
I0920 16:57:38.657832 34665 layer_factory.hpp:77] Creating layer relu3
I0920 16:57:38.657868 34665 net.cpp:91] Creating Layer relu3
I0920 16:57:38.657886 34665 net.cpp:425] relu3 <- conv3
I0920 16:57:38.657917 34665 net.cpp:386] relu3 -> conv3 (in-place)
I0920 16:57:38.657941 34665 net.cpp:141] Setting up relu3
I0920 16:57:38.657960 34665 net.cpp:148] Top shape: 40 384 13 13 (2595840)
I0920 16:57:38.657979 34665 net.cpp:156] Memory required for data: 286920320
I0920 16:57:38.657994 34665 layer_factory.hpp:77] Creating layer conv4
I0920 16:57:38.658022 34665 net.cpp:91] Creating Layer conv4
I0920 16:57:38.658040 34665 net.cpp:425] conv4 <- conv3
I0920 16:57:38.658059 34665 net.cpp:399] conv4 -> conv4
I0920 16:57:38.684651 34665 net.cpp:141] Setting up conv4
I0920 16:57:38.684713 34665 net.cpp:148] Top shape: 40 384 13 13 (2595840)
I0920 16:57:38.684736 34665 net.cpp:156] Memory required for data: 297303680
I0920 16:57:38.684759 34665 layer_factory.hpp:77] Creating layer relu4
I0920 16:57:38.684783 34665 net.cpp:91] Creating Layer relu4
I0920 16:57:38.684801 34665 net.cpp:425] relu4 <- conv4
I0920 16:57:38.684823 34665 net.cpp:386] relu4 -> conv4 (in-place)
I0920 16:57:38.684847 34665 net.cpp:141] Setting up relu4
I0920 16:57:38.684865 34665 net.cpp:148] Top shape: 40 384 13 13 (2595840)
I0920 16:57:38.684880 34665 net.cpp:156] Memory required for data: 307687040
I0920 16:57:38.684896 34665 layer_factory.hpp:77] Creating layer conv5
I0920 16:57:38.684926 34665 net.cpp:91] Creating Layer conv5
I0920 16:57:38.684942 34665 net.cpp:425] conv5 <- conv4
I0920 16:57:38.684964 34665 net.cpp:399] conv5 -> conv5
I0920 16:57:38.702924 34665 net.cpp:141] Setting up conv5
I0920 16:57:38.702988 34665 net.cpp:148] Top shape: 40 256 13 13 (1730560)
I0920 16:57:38.703006 34665 net.cpp:156] Memory required for data: 314609280
I0920 16:57:38.703034 34665 layer_factory.hpp:77] Creating layer relu5
I0920 16:57:38.703058 34665 net.cpp:91] Creating Layer relu5
I0920 16:57:38.703074 34665 net.cpp:425] relu5 <- conv5
I0920 16:57:38.703094 34665 net.cpp:386] relu5 -> conv5 (in-place)
I0920 16:57:38.703117 34665 net.cpp:141] Setting up relu5
I0920 16:57:38.703135 34665 net.cpp:148] Top shape: 40 256 13 13 (1730560)
I0920 16:57:38.703150 34665 net.cpp:156] Memory required for data: 321531520
I0920 16:57:38.703200 34665 layer_factory.hpp:77] Creating layer pool5
I0920 16:57:38.703227 34665 net.cpp:91] Creating Layer pool5
I0920 16:57:38.703244 34665 net.cpp:425] pool5 <- conv5
I0920 16:57:38.703263 34665 net.cpp:399] pool5 -> pool5
I0920 16:57:38.703332 34665 net.cpp:141] Setting up pool5
I0920 16:57:38.703356 34665 net.cpp:148] Top shape: 40 256 6 6 (368640)
I0920 16:57:38.703371 34665 net.cpp:156] Memory required for data: 323006080
I0920 16:57:38.703384 34665 layer_factory.hpp:77] Creating layer fc6
I0920 16:57:38.703408 34665 net.cpp:91] Creating Layer fc6
I0920 16:57:38.703423 34665 net.cpp:425] fc6 <- pool5
I0920 16:57:38.703441 34665 net.cpp:399] fc6 -> fc6
I0920 16:57:40.090077 34665 net.cpp:141] Setting up fc6
I0920 16:57:40.090167 34665 net.cpp:148] Top shape: 40 4096 (163840)
I0920 16:57:40.090185 34665 net.cpp:156] Memory required for data: 323661440
I0920 16:57:40.090219 34665 layer_factory.hpp:77] Creating layer relu6
I0920 16:57:40.090252 34665 net.cpp:91] Creating Layer relu6
I0920 16:57:40.090275 34665 net.cpp:425] relu6 <- fc6
I0920 16:57:40.090301 34665 net.cpp:386] relu6 -> fc6 (in-place)
I0920 16:57:40.090327 34665 net.cpp:141] Setting up relu6
I0920 16:57:40.090345 34665 net.cpp:148] Top shape: 40 4096 (163840)
I0920 16:57:40.090373 34665 net.cpp:156] Memory required for data: 324316800
I0920 16:57:40.090389 34665 layer_factory.hpp:77] Creating layer drop6
I0920 16:57:40.090409 34665 net.cpp:91] Creating Layer drop6
I0920 16:57:40.090425 34665 net.cpp:425] drop6 <- fc6
I0920 16:57:40.090441 34665 net.cpp:386] drop6 -> fc6 (in-place)
I0920 16:57:40.090523 34665 net.cpp:141] Setting up drop6
I0920 16:57:40.090544 34665 net.cpp:148] Top shape: 40 4096 (163840)
I0920 16:57:40.090559 34665 net.cpp:156] Memory required for data: 324972160
I0920 16:57:40.090574 34665 layer_factory.hpp:77] Creating layer fc7
I0920 16:57:40.090598 34665 net.cpp:91] Creating Layer fc7
I0920 16:57:40.090615 34665 net.cpp:425] fc7 <- fc6
I0920 16:57:40.090632 34665 net.cpp:399] fc7 -> fc7
I0920 16:57:40.710813 34665 net.cpp:141] Setting up fc7
I0920 16:57:40.710898 34665 net.cpp:148] Top shape: 40 4096 (163840)
I0920 16:57:40.710916 34665 net.cpp:156] Memory required for data: 325627520
I0920 16:57:40.710938 34665 layer_factory.hpp:77] Creating layer relu7
I0920 16:57:40.710973 34665 net.cpp:91] Creating Layer relu7
I0920 16:57:40.710991 34665 net.cpp:425] relu7 <- fc7
I0920 16:57:40.711011 34665 net.cpp:386] relu7 -> fc7 (in-place)
I0920 16:57:40.711035 34665 net.cpp:141] Setting up relu7
I0920 16:57:40.711052 34665 net.cpp:148] Top shape: 40 4096 (163840)
I0920 16:57:40.711067 34665 net.cpp:156] Memory required for data: 326282880
I0920 16:57:40.711082 34665 layer_factory.hpp:77] Creating layer drop7
I0920 16:57:40.711102 34665 net.cpp:91] Creating Layer drop7
I0920 16:57:40.711118 34665 net.cpp:425] drop7 <- fc7
I0920 16:57:40.711138 34665 net.cpp:386] drop7 -> fc7 (in-place)
I0920 16:57:40.711184 34665 net.cpp:141] Setting up drop7
I0920 16:57:40.711205 34665 net.cpp:148] Top shape: 40 4096 (163840)
I0920 16:57:40.711220 34665 net.cpp:156] Memory required for data: 326938240
I0920 16:57:40.711235 34665 layer_factory.hpp:77] Creating layer fc7_drop7_0_split
I0920 16:57:40.711256 34665 net.cpp:91] Creating Layer fc7_drop7_0_split
I0920 16:57:40.711272 34665 net.cpp:425] fc7_drop7_0_split <- fc7
I0920 16:57:40.711288 34665 net.cpp:399] fc7_drop7_0_split -> fc7_drop7_0_split_0
I0920 16:57:40.711308 34665 net.cpp:399] fc7_drop7_0_split -> fc7_drop7_0_split_1
I0920 16:57:40.711369 34665 net.cpp:141] Setting up fc7_drop7_0_split
I0920 16:57:40.711391 34665 net.cpp:148] Top shape: 40 4096 (163840)
I0920 16:57:40.711408 34665 net.cpp:148] Top shape: 40 4096 (163840)
I0920 16:57:40.711422 34665 net.cpp:156] Memory required for data: 328248960
I0920 16:57:40.711436 34665 layer_factory.hpp:77] Creating layer fc_binary_Color_f24
I0920 16:57:40.711462 34665 net.cpp:91] Creating Layer fc_binary_Color_f24
I0920 16:57:40.711477 34665 net.cpp:425] fc_binary_Color_f24 <- fc7_drop7_0_split_0
I0920 16:57:40.711496 34665 net.cpp:399] fc_binary_Color_f24 -> fc_binary_Color_f24
I0920 16:57:40.715234 34665 net.cpp:141] Setting up fc_binary_Color_f24
I0920 16:57:40.715261 34665 net.cpp:148] Top shape: 40 24 (960)
I0920 16:57:40.715277 34665 net.cpp:156] Memory required for data: 328252800
I0920 16:57:40.715296 34665 layer_factory.hpp:77] Creating layer fc_classification_Color
I0920 16:57:40.715319 34665 net.cpp:91] Creating Layer fc_classification_Color
I0920 16:57:40.715335 34665 net.cpp:425] fc_classification_Color <- fc7_drop7_0_split_1
I0920 16:57:40.715358 34665 net.cpp:399] fc_classification_Color -> fc_classification_Color
I0920 16:57:40.716676 34665 net.cpp:141] Setting up fc_classification_Color
I0920 16:57:40.716701 34665 net.cpp:148] Top shape: 40 8 (320)
I0920 16:57:40.716715 34665 net.cpp:156] Memory required for data: 328254080
I0920 16:57:40.716742 34665 layer_factory.hpp:77] Creating layer fc_classification_Color_fc_classification_Color_0_split
I0920 16:57:40.716761 34665 net.cpp:91] Creating Layer fc_classification_Color_fc_classification_Color_0_split
I0920 16:57:40.716778 34665 net.cpp:425] fc_classification_Color_fc_classification_Color_0_split <- fc_classification_Color
I0920 16:57:40.716795 34665 net.cpp:399] fc_classification_Color_fc_classification_Color_0_split -> fc_classification_Color_fc_classification_Color_0_split_0
I0920 16:57:40.716814 34665 net.cpp:399] fc_classification_Color_fc_classification_Color_0_split -> fc_classification_Color_fc_classification_Color_0_split_1
I0920 16:57:40.716871 34665 net.cpp:141] Setting up fc_classification_Color_fc_classification_Color_0_split
I0920 16:57:40.716892 34665 net.cpp:148] Top shape: 40 8 (320)
I0920 16:57:40.716908 34665 net.cpp:148] Top shape: 40 8 (320)
I0920 16:57:40.716923 34665 net.cpp:156] Memory required for data: 328256640
I0920 16:57:40.716938 34665 layer_factory.hpp:77] Creating layer accuracy_at_1_Color
I0920 16:57:40.716964 34665 net.cpp:91] Creating Layer accuracy_at_1_Color
I0920 16:57:40.716980 34665 net.cpp:425] accuracy_at_1_Color <- fc_classification_Color_fc_classification_Color_0_split_0
I0920 16:57:40.717000 34665 net.cpp:425] accuracy_at_1_Color <- label_data_1_split_0
…
