…
I0829 17:14:16.240270   453 net.cpp:313] The NetState phase (0) differed from the phase (1) specified by a rule in layer accuracy_at_5
I0829 17:14:16.240473   453 net.cpp:49] Initializing net from parameters: 
name: "docomo_pattern_CNN"
state {
  phase: TRAIN
}
layer {
  name: "cifar"
  type: "Data"
  top: "data"
  top: "label"
  include {
    phase: TRAIN
  }
  transform_param {
    mirror: true
    mean_value: 103.939
    mean_value: 116.779
    mean_value: 123.68
  }
  data_param {
    source: "PATTERN/pattern_train_lmdb"
    batch_size: 200
    backend: LMDB
  }
}
layer {
  name: "conv1"
  type: "Convolution"
  bottom: "data"
  top: "conv1"
  param {
    lr_mult: 1
    decay_mult: 1
  }
  param {
    lr_mult: 2
    decay_mult: 0
  }
  convolution_param {
    num_output: 32
    pad: 2
    kernel_size: 5
    stride: 8
    weight_filler {
      type: "xavier"
    }
    bias_filler {
      type: "constant"
    }
  }
}
layer {
  name: "pool1"
  type: "Pooling"
  bottom: "conv1"
  top: "pool1"
  pooling_param {
    pool: MAX
    kernel_size: 3
    stride: 2
  }
}
layer {
  name: "relu1"
  type: "ReLU"
  bottom: "pool1"
  top: "pool1"
}
layer {
  name: "conv2"
  type: "Convolution"
  bottom: "pool1"
  top: "conv2"
  param {
    lr_mult: 1
    decay_mult: 1
  }
  param {
    lr_mult: 2
    decay_mult: 0
  }
  convolution_param {
    num_output: 32
    pad: 2
    kernel_size: 5
    stride: 1
    weight_filler {
      type: "xavier"
    }
    bias_filler {
      type: "constant"
    }
  }
}
layer {
  name: "pool2"
  type: "Pooling"
  bottom: "conv2"
  top: "pool2"
  pooling_param {
    pool: AVE
    kernel_size: 3
    stride: 2
  }
}
layer {
  name: "relu2"
  type: "ReLU"
  bottom: "pool2"
  top: "pool2"
}
layer {
  name: "conv3"
  type: "Convolution"
  bottom: "pool2"
  top: "conv3"
  param {
    lr_mult: 1
    decay_mult: 1
  }
  param {
    lr_mult: 2
    decay_mult: 0
  }
  convolution_param {
    num_output: 64
    pad: 2
    kernel_size: 5
    stride: 1
    weight_filler {
      type: "xavier"
    }
    bias_filler {
      type: "constant"
    }
  }
}
layer {
  name: "relu3"
  type: "ReLU"
  bottom: "conv3"
  top: "conv3"
}
layer {
  name: "pool3"
  type: "Pooling"
  bottom: "conv3"
  top: "pool3"
  pooling_param {
    pool: AVE
    kernel_size: 3
    stride: 2
  }
}
layer {
  name: "ip2"
  type: "InnerProduct"
  bottom: "pool3"
  top: "ip2"
  param {
    lr_mult: 1
    decay_mult: 1
  }
  param {
    lr_mult: 2
    decay_mult: 0
  }
  inner_product_param {
    num_output: 500
    weight_filler {
      type: "gaussian"
      std: 0.005
    }
    bias_filler {
      type: "constant"
      value: 0.1
    }
  }
}
layer {
  name: "relu_ip2"
  type: "ReLU"
  bottom: "ip2"
  top: "ip2"
}
layer {
  name: "ip_hash"
  type: "InnerProduct"
  bottom: "ip2"
  top: "ip_hash"
  param {
    lr_mult: 1
    decay_mult: 1
  }
  param {
    lr_mult: 2
    decay_mult: 0
  }
  inner_product_param {
    num_output: 12
    weight_filler {
      type: "gaussian"
      std: 0.005
    }
    bias_filler {
      type: "constant"
      value: 0.1
    }
  }
}
layer {
  name: "ip_classification"
  type: "InnerProduct"
  bottom: "ip2"
  top: "ip_classification"
  param {
    lr_mult: 1
    decay_mult: 1
  }
  param {
    lr_mult: 2
    decay_mult: 0
  }
  inner_product_param {
    num_output: 7
    weight_filler {
      type: "gaussian"
      std: 0.005
    }
    bias_filler {
      type: "constant"
      value: 0.1
    }
  }
}
layer {
  name: "loss_hash"
  type: "HashingLoss"
  bottom: "ip_hash"
  bottom: "label"
  top: "loss_hash"
  loss_weight: 0.1
  hashing_loss_param {
    bi_margin: 24
    tradeoff: 0.01
  }
}
layer {
  name: "loss_classification"
  type: "SoftmaxWithLoss"
  bottom: "ip_classification"
  bottom: "label"
  top: "loss_classification"
}
I0829 17:14:16.241590   453 layer_factory.hpp:77] Creating layer cifar
I0829 17:14:16.242401   453 net.cpp:91] Creating Layer cifar
I0829 17:14:16.242521   453 net.cpp:399] cifar -> data
I0829 17:14:16.242632   453 net.cpp:399] cifar -> label
I0829 17:14:16.243599   457 db_lmdb.cpp:38] Opened lmdb PATTERN/pattern_train_lmdb
I0829 17:14:16.260007   453 data_layer.cpp:41] output data size: 200,3,224,224
I0829 17:14:16.505780   453 net.cpp:141] Setting up cifar
I0829 17:14:16.505867   453 net.cpp:148] Top shape: 200 3 224 224 (30105600)
I0829 17:14:16.505888   453 net.cpp:148] Top shape: 200 1 1 1 (200)
I0829 17:14:16.505904   453 net.cpp:156] Memory required for data: 120423200
I0829 17:14:16.505929   453 layer_factory.hpp:77] Creating layer label_cifar_1_split
I0829 17:14:16.505962   453 net.cpp:91] Creating Layer label_cifar_1_split
I0829 17:14:16.505985   453 net.cpp:425] label_cifar_1_split <- label
I0829 17:14:16.506018   453 net.cpp:399] label_cifar_1_split -> label_cifar_1_split_0
I0829 17:14:16.506047   453 net.cpp:399] label_cifar_1_split -> label_cifar_1_split_1
I0829 17:14:16.506147   453 net.cpp:141] Setting up label_cifar_1_split
I0829 17:14:16.506172   453 net.cpp:148] Top shape: 200 1 1 1 (200)
I0829 17:14:16.506188   453 net.cpp:148] Top shape: 200 1 1 1 (200)
I0829 17:14:16.506203   453 net.cpp:156] Memory required for data: 120424800
I0829 17:14:16.506218   453 layer_factory.hpp:77] Creating layer conv1
I0829 17:14:16.506278   453 net.cpp:91] Creating Layer conv1
I0829 17:14:16.506296   453 net.cpp:425] conv1 <- data
I0829 17:14:16.506315   453 net.cpp:399] conv1 -> conv1
I0829 17:14:16.508067   453 net.cpp:141] Setting up conv1
I0829 17:14:16.508112   453 net.cpp:148] Top shape: 200 32 28 28 (5017600)
I0829 17:14:16.508129   453 net.cpp:156] Memory required for data: 140495200
I0829 17:14:16.508162   453 layer_factory.hpp:77] Creating layer pool1
I0829 17:14:16.508188   453 net.cpp:91] Creating Layer pool1
I0829 17:14:16.508208   453 net.cpp:425] pool1 <- conv1
I0829 17:14:16.508230   453 net.cpp:399] pool1 -> pool1
I0829 17:14:16.517323   453 net.cpp:141] Setting up pool1
I0829 17:14:16.517365   453 net.cpp:148] Top shape: 200 32 14 14 (1254400)
I0829 17:14:16.517381   453 net.cpp:156] Memory required for data: 145512800
I0829 17:14:16.517396   453 layer_factory.hpp:77] Creating layer relu1
I0829 17:14:16.517423   453 net.cpp:91] Creating Layer relu1
I0829 17:14:16.517439   453 net.cpp:425] relu1 <- pool1
I0829 17:14:16.517455   453 net.cpp:386] relu1 -> pool1 (in-place)
I0829 17:14:16.517478   453 net.cpp:141] Setting up relu1
I0829 17:14:16.517498   453 net.cpp:148] Top shape: 200 32 14 14 (1254400)
I0829 17:14:16.517513   453 net.cpp:156] Memory required for data: 150530400
I0829 17:14:16.517529   453 layer_factory.hpp:77] Creating layer conv2
I0829 17:14:16.517555   453 net.cpp:91] Creating Layer conv2
I0829 17:14:16.517570   453 net.cpp:425] conv2 <- pool1
I0829 17:14:16.517591   453 net.cpp:399] conv2 -> conv2
I0829 17:14:16.518698   453 net.cpp:141] Setting up conv2
I0829 17:14:16.518741   453 net.cpp:148] Top shape: 200 32 14 14 (1254400)
I0829 17:14:16.518759   453 net.cpp:156] Memory required for data: 155548000
I0829 17:14:16.518781   453 layer_factory.hpp:77] Creating layer pool2
I0829 17:14:16.518802   453 net.cpp:91] Creating Layer pool2
I0829 17:14:16.518818   453 net.cpp:425] pool2 <- conv2
I0829 17:14:16.518834   453 net.cpp:399] pool2 -> pool2
I0829 17:14:16.518885   453 net.cpp:141] Setting up pool2
I0829 17:14:16.518908   453 net.cpp:148] Top shape: 200 32 7 7 (313600)
I0829 17:14:16.518975   453 net.cpp:156] Memory required for data: 156802400
I0829 17:14:16.518991   453 layer_factory.hpp:77] Creating layer relu2
I0829 17:14:16.519013   453 net.cpp:91] Creating Layer relu2
I0829 17:14:16.519032   453 net.cpp:425] relu2 <- pool2
I0829 17:14:16.519048   453 net.cpp:386] relu2 -> pool2 (in-place)
I0829 17:14:16.519068   453 net.cpp:141] Setting up relu2
I0829 17:14:16.519084   453 net.cpp:148] Top shape: 200 32 7 7 (313600)
I0829 17:14:16.519098   453 net.cpp:156] Memory required for data: 158056800
I0829 17:14:16.519112   453 layer_factory.hpp:77] Creating layer conv3
I0829 17:14:16.519140   453 net.cpp:91] Creating Layer conv3
I0829 17:14:16.519156   453 net.cpp:425] conv3 <- pool2
I0829 17:14:16.519177   453 net.cpp:399] conv3 -> conv3
I0829 17:14:16.519862   453 net.cpp:141] Setting up conv3
I0829 17:14:16.519903   453 net.cpp:148] Top shape: 200 64 7 7 (627200)
I0829 17:14:16.519919   453 net.cpp:156] Memory required for data: 160565600
I0829 17:14:16.519940   453 layer_factory.hpp:77] Creating layer relu3
I0829 17:14:16.519960   453 net.cpp:91] Creating Layer relu3
I0829 17:14:16.519975   453 net.cpp:425] relu3 <- conv3
I0829 17:14:16.519995   453 net.cpp:386] relu3 -> conv3 (in-place)
I0829 17:14:16.520018   453 net.cpp:141] Setting up relu3
I0829 17:14:16.520036   453 net.cpp:148] Top shape: 200 64 7 7 (627200)
I0829 17:14:16.520051   453 net.cpp:156] Memory required for data: 163074400
I0829 17:14:16.520066   453 layer_factory.hpp:77] Creating layer pool3
I0829 17:14:16.520083   453 net.cpp:91] Creating Layer pool3
I0829 17:14:16.520098   453 net.cpp:425] pool3 <- conv3
I0829 17:14:16.520114   453 net.cpp:399] pool3 -> pool3
I0829 17:14:16.520156   453 net.cpp:141] Setting up pool3
I0829 17:14:16.520179   453 net.cpp:148] Top shape: 200 64 3 3 (115200)
I0829 17:14:16.520195   453 net.cpp:156] Memory required for data: 163535200
I0829 17:14:16.520210   453 layer_factory.hpp:77] Creating layer ip2
I0829 17:14:16.520236   453 net.cpp:91] Creating Layer ip2
I0829 17:14:16.520254   453 net.cpp:425] ip2 <- pool3
I0829 17:14:16.520272   453 net.cpp:399] ip2 -> ip2
I0829 17:14:16.531461   453 net.cpp:141] Setting up ip2
I0829 17:14:16.531502   453 net.cpp:148] Top shape: 200 500 (100000)
I0829 17:14:16.531519   453 net.cpp:156] Memory required for data: 163935200
I0829 17:14:16.531539   453 layer_factory.hpp:77] Creating layer relu_ip2
I0829 17:14:16.531563   453 net.cpp:91] Creating Layer relu_ip2
I0829 17:14:16.531579   453 net.cpp:425] relu_ip2 <- ip2
I0829 17:14:16.531595   453 net.cpp:386] relu_ip2 -> ip2 (in-place)
I0829 17:14:16.531615   453 net.cpp:141] Setting up relu_ip2
I0829 17:14:16.531631   453 net.cpp:148] Top shape: 200 500 (100000)
I0829 17:14:16.531651   453 net.cpp:156] Memory required for data: 164335200
I0829 17:14:16.531664   453 layer_factory.hpp:77] Creating layer ip2_relu_ip2_0_split
I0829 17:14:16.531685   453 net.cpp:91] Creating Layer ip2_relu_ip2_0_split
I0829 17:14:16.531700   453 net.cpp:425] ip2_relu_ip2_0_split <- ip2
I0829 17:14:16.531716   453 net.cpp:399] ip2_relu_ip2_0_split -> ip2_relu_ip2_0_split_0
I0829 17:14:16.531735   453 net.cpp:399] ip2_relu_ip2_0_split -> ip2_relu_ip2_0_split_1
I0829 17:14:16.531790   453 net.cpp:141] Setting up ip2_relu_ip2_0_split
I0829 17:14:16.531814   453 net.cpp:148] Top shape: 200 500 (100000)
I0829 17:14:16.531831   453 net.cpp:148] Top shape: 200 500 (100000)
I0829 17:14:16.531846   453 net.cpp:156] Memory required for data: 165135200
I0829 17:14:16.531859   453 layer_factory.hpp:77] Creating layer ip_hash
I0829 17:14:16.531880   453 net.cpp:91] Creating Layer ip_hash
I0829 17:14:16.531898   453 net.cpp:425] ip_hash <- ip2_relu_ip2_0_split_0
I0829 17:14:16.531920   453 net.cpp:399] ip_hash -> ip_hash
I0829 17:14:16.532904   453 net.cpp:141] Setting up ip_hash
I0829 17:14:16.532946   453 net.cpp:148] Top shape: 200 12 (2400)
I0829 17:14:16.532963   453 net.cpp:156] Memory required for data: 165144800
I0829 17:14:16.532985   453 layer_factory.hpp:77] Creating layer ip_classification
I0829 17:14:16.533030   453 net.cpp:91] Creating Layer ip_classification
I0829 17:14:16.533047   453 net.cpp:425] ip_classification <- ip2_relu_ip2_0_split_1
I0829 17:14:16.533069   453 net.cpp:399] ip_classification -> ip_classification
I0829 17:14:16.533323   453 net.cpp:141] Setting up ip_classification
I0829 17:14:16.533347   453 net.cpp:148] Top shape: 200 7 (1400)
I0829 17:14:16.533362   453 net.cpp:156] Memory required for data: 165150400
I0829 17:14:16.533381   453 layer_factory.hpp:77] Creating layer loss_hash
I0829 17:14:16.533407   453 net.cpp:91] Creating Layer loss_hash
I0829 17:14:16.533427   453 net.cpp:425] loss_hash <- ip_hash
I0829 17:14:16.533443   453 net.cpp:425] loss_hash <- label_cifar_1_split_0
I0829 17:14:16.533462   453 net.cpp:399] loss_hash -> loss_hash
…
I0829 17:14:16.534958   453 net.cpp:313] The NetState phase (1) differed from the phase (0) specified by a rule in layer cifar
I0829 17:14:16.535166   453 net.cpp:49] Initializing net from parameters: 
name: "docomo_pattern_CNN"
state {
  phase: TEST
}
layer {
  name: "cifar"
  type: "Data"
  top: "data"
  top: "label"
  include {
    phase: TEST
  }
  transform_param {
    mirror: false
    mean_value: 103.939
    mean_value: 116.779
    mean_value: 123.68
  }
  data_param {
    source: "PATTERN/pattern_val_lmdb"
    batch_size: 100
    backend: LMDB
  }
}
layer {
  name: "conv1"
  type: "Convolution"
  bottom: "data"
  top: "conv1"
  param {
    lr_mult: 1
    decay_mult: 1
  }
  param {
    lr_mult: 2
    decay_mult: 0
  }
  convolution_param {
    num_output: 32
    pad: 2
    kernel_size: 5
    stride: 8
    weight_filler {
      type: "xavier"
    }
    bias_filler {
      type: "constant"
    }
  }
}
layer {
  name: "pool1"
  type: "Pooling"
  bottom: "conv1"
  top: "pool1"
  pooling_param {
    pool: MAX
    kernel_size: 3
    stride: 2
  }
}
layer {
  name: "relu1"
  type: "ReLU"
  bottom: "pool1"
  top: "pool1"
}
layer {
  name: "conv2"
  type: "Convolution"
  bottom: "pool1"
  top: "conv2"
  param {
    lr_mult: 1
    decay_mult: 1
  }
  param {
    lr_mult: 2
    decay_mult: 0
  }
  convolution_param {
    num_output: 32
    pad: 2
    kernel_size: 5
    stride: 1
    weight_filler {
      type: "xavier"
    }
    bias_filler {
      type: "constant"
    }
  }
}
layer {
  name: "pool2"
  type: "Pooling"
  bottom: "conv2"
  top: "pool2"
  pooling_param {
    pool: AVE
    kernel_size: 3
    stride: 2
  }
}
layer {
  name: "relu2"
  type: "ReLU"
  bottom: "pool2"
  top: "pool2"
}
layer {
  name: "conv3"
  type: "Convolution"
  bottom: "pool2"
  top: "conv3"
  param {
    lr_mult: 1
    decay_mult: 1
  }
  param {
    lr_mult: 2
    decay_mult: 0
  }
  convolution_param {
    num_output: 64
    pad: 2
    kernel_size: 5
    stride: 1
    weight_filler {
      type: "xavier"
    }
    bias_filler {
      type: "constant"
    }
  }
}
layer {
  name: "relu3"
  type: "ReLU"
  bottom: "conv3"
  top: "conv3"
}
layer {
  name: "pool3"
  type: "Pooling"
  bottom: "conv3"
  top: "pool3"
  pooling_param {
    pool: AVE
    kernel_size: 3
    stride: 2
  }
}
layer {
  name: "ip2"
  type: "InnerProduct"
  bottom: "pool3"
  top: "ip2"
  param {
    lr_mult: 1
    decay_mult: 1
  }
  param {
    lr_mult: 2
    decay_mult: 0
  }
  inner_product_param {
    num_output: 500
    weight_filler {
      type: "gaussian"
      std: 0.005
    }
    bias_filler {
      type: "constant"
      value: 0.1
    }
  }
}
layer {
  name: "relu_ip2"
  type: "ReLU"
  bottom: "ip2"
  top: "ip2"
}
layer {
  name: "ip_hash"
  type: "InnerProduct"
  bottom: "ip2"
  top: "ip_hash"
  param {
    lr_mult: 1
    decay_mult: 1
  }
  param {
    lr_mult: 2
    decay_mult: 0
  }
  inner_product_param {
    num_output: 12
    weight_filler {
      type: "gaussian"
      std: 0.005
    }
    bias_filler {
      type: "constant"
      value: 0.1
    }
  }
}
layer {
  name: "ip_classification"
  type: "InnerProduct"
  bottom: "ip2"
  top: "ip_classification"
  param {
    lr_mult: 1
    decay_mult: 1
  }
  param {
    lr_mult: 2
    decay_mult: 0
  }
  inner_product_param {
    num_output: 7
    weight_filler {
      type: "gaussian"
      std: 0.005
    }
    bias_filler {
      type: "constant"
      value: 0.1
    }
  }
}
layer {
  name: "loss_hash"
  type: "HashingLoss"
  bottom: "ip_hash"
  bottom: "label"
  top: "loss_hash"
  loss_weight: 0.1
  hashing_loss_param {
    bi_margin: 24
    tradeoff: 0.01
  }
}
layer {
  name: "loss_classification"
  type: "SoftmaxWithLoss"
  bottom: "ip_classification"
  bottom: "label"
  top: "loss_classification"
}
layer {
  name: "accuracy_at_1"
  type: "Accuracy"
  bottom: "ip_classification"
  bottom: "label"
  top: "accuracy_at_1"
  include {
    phase: TEST
  }
  accuracy_param {
    top_k: 1
  }
}
layer {
  name: "accuracy_at_5"
  type: "Accuracy"
  bottom: "ip_classification"
  bottom: "label"
  top: "accuracy_at_5"
  include {
    phase: TEST
  }
  accuracy_param {
    top_k: 5
  }
}
I0829 17:14:16.536386   453 layer_factory.hpp:77] Creating layer cifar
I0829 17:14:16.536568   453 net.cpp:91] Creating Layer cifar
I0829 17:14:16.536630   453 net.cpp:399] cifar -> data
I0829 17:14:16.536661   453 net.cpp:399] cifar -> label
I0829 17:14:16.537667   459 db_lmdb.cpp:38] Opened lmdb PATTERN/pattern_val_lmdb
I0829 17:14:16.538106   453 data_layer.cpp:41] output data size: 100,3,224,224
I0829 17:14:16.678544   453 net.cpp:141] Setting up cifar
I0829 17:14:16.678633   453 net.cpp:148] Top shape: 100 3 224 224 (15052800)
I0829 17:14:16.678658   453 net.cpp:148] Top shape: 100 1 1 1 (100)
I0829 17:14:16.678676   453 net.cpp:156] Memory required for data: 60211600
I0829 17:14:16.678704   453 layer_factory.hpp:77] Creating layer label_cifar_1_split
I0829 17:14:16.678750   453 net.cpp:91] Creating Layer label_cifar_1_split
I0829 17:14:16.678769   453 net.cpp:425] label_cifar_1_split <- label
I0829 17:14:16.678793   453 net.cpp:399] label_cifar_1_split -> label_cifar_1_split_0
I0829 17:14:16.678822   453 net.cpp:399] label_cifar_1_split -> label_cifar_1_split_1
I0829 17:14:16.678841   453 net.cpp:399] label_cifar_1_split -> label_cifar_1_split_2
I0829 17:14:16.678865   453 net.cpp:399] label_cifar_1_split -> label_cifar_1_split_3
I0829 17:14:16.688098   453 net.cpp:141] Setting up label_cifar_1_split
I0829 17:14:16.688133   453 net.cpp:148] Top shape: 100 1 1 1 (100)
I0829 17:14:16.688149   453 net.cpp:148] Top shape: 100 1 1 1 (100)
I0829 17:14:16.688165   453 net.cpp:148] Top shape: 100 1 1 1 (100)
I0829 17:14:16.688181   453 net.cpp:148] Top shape: 100 1 1 1 (100)
I0829 17:14:16.688197   453 net.cpp:156] Memory required for data: 60213200
I0829 17:14:16.688212   453 layer_factory.hpp:77] Creating layer conv1
I0829 17:14:16.688246   453 net.cpp:91] Creating Layer conv1
I0829 17:14:16.688263   453 net.cpp:425] conv1 <- data
I0829 17:14:16.688293   453 net.cpp:399] conv1 -> conv1
I0829 17:14:16.688621   453 net.cpp:141] Setting up conv1
I0829 17:14:16.688652   453 net.cpp:148] Top shape: 100 32 28 28 (2508800)
I0829 17:14:16.688666   453 net.cpp:156] Memory required for data: 70248400
I0829 17:14:16.688691   453 layer_factory.hpp:77] Creating layer pool1
I0829 17:14:16.688717   453 net.cpp:91] Creating Layer pool1
I0829 17:14:16.688732   453 net.cpp:425] pool1 <- conv1
I0829 17:14:16.688752   453 net.cpp:399] pool1 -> pool1
I0829 17:14:16.688814   453 net.cpp:141] Setting up pool1
I0829 17:14:16.688838   453 net.cpp:148] Top shape: 100 32 14 14 (627200)
I0829 17:14:16.688853   453 net.cpp:156] Memory required for data: 72757200
I0829 17:14:16.688868   453 layer_factory.hpp:77] Creating layer relu1
I0829 17:14:16.688886   453 net.cpp:91] Creating Layer relu1
I0829 17:14:16.688907   453 net.cpp:425] relu1 <- pool1
I0829 17:14:16.688923   453 net.cpp:386] relu1 -> pool1 (in-place)
I0829 17:14:16.688941   453 net.cpp:141] Setting up relu1
I0829 17:14:16.688968   453 net.cpp:148] Top shape: 100 32 14 14 (627200)
I0829 17:14:16.688984   453 net.cpp:156] Memory required for data: 75266000
I0829 17:14:16.688998   453 layer_factory.hpp:77] Creating layer conv2
I0829 17:14:16.689024   453 net.cpp:91] Creating Layer conv2
I0829 17:14:16.689040   453 net.cpp:425] conv2 <- pool1
I0829 17:14:16.689061   453 net.cpp:399] conv2 -> conv2
I0829 17:14:16.694373   453 net.cpp:141] Setting up conv2
I0829 17:14:16.694414   453 net.cpp:148] Top shape: 100 32 14 14 (627200)
I0829 17:14:16.694432   453 net.cpp:156] Memory required for data: 77774800
I0829 17:14:16.694454   453 layer_factory.hpp:77] Creating layer pool2
I0829 17:14:16.694478   453 net.cpp:91] Creating Layer pool2
I0829 17:14:16.694494   453 net.cpp:425] pool2 <- conv2
I0829 17:14:16.694514   453 net.cpp:399] pool2 -> pool2
I0829 17:14:16.694566   453 net.cpp:141] Setting up pool2
I0829 17:14:16.694591   453 net.cpp:148] Top shape: 100 32 7 7 (156800)
I0829 17:14:16.694605   453 net.cpp:156] Memory required for data: 78402000
I0829 17:14:16.694619   453 layer_factory.hpp:77] Creating layer relu2
I0829 17:14:16.694641   453 net.cpp:91] Creating Layer relu2
I0829 17:14:16.694660   453 net.cpp:425] relu2 <- pool2
I0829 17:14:16.694679   453 net.cpp:386] relu2 -> pool2 (in-place)
I0829 17:14:16.694700   453 net.cpp:141] Setting up relu2
I0829 17:14:16.694717   453 net.cpp:148] Top shape: 100 32 7 7 (156800)
I0829 17:14:16.694731   453 net.cpp:156] Memory required for data: 79029200
I0829 17:14:16.694746   453 layer_factory.hpp:77] Creating layer conv3
I0829 17:14:16.694823   453 net.cpp:91] Creating Layer conv3
I0829 17:14:16.694844   453 net.cpp:425] conv3 <- pool2
I0829 17:14:16.694867   453 net.cpp:399] conv3 -> conv3
I0829 17:14:16.695590   453 net.cpp:141] Setting up conv3
I0829 17:14:16.695616   453 net.cpp:148] Top shape: 100 64 7 7 (313600)
I0829 17:14:16.695631   453 net.cpp:156] Memory required for data: 80283600
I0829 17:14:16.695654   453 layer_factory.hpp:77] Creating layer relu3
I0829 17:14:16.695674   453 net.cpp:91] Creating Layer relu3
I0829 17:14:16.695689   453 net.cpp:425] relu3 <- conv3
I0829 17:14:16.695709   453 net.cpp:386] relu3 -> conv3 (in-place)
I0829 17:14:16.695729   453 net.cpp:141] Setting up relu3
I0829 17:14:16.695760   453 net.cpp:148] Top shape: 100 64 7 7 (313600)
I0829 17:14:16.695773   453 net.cpp:156] Memory required for data: 81538000
I0829 17:14:16.695787   453 layer_factory.hpp:77] Creating layer pool3
I0829 17:14:16.695806   453 net.cpp:91] Creating Layer pool3
I0829 17:14:16.695821   453 net.cpp:425] pool3 <- conv3
I0829 17:14:16.695838   453 net.cpp:399] pool3 -> pool3
I0829 17:14:16.695878   453 net.cpp:141] Setting up pool3
I0829 17:14:16.695899   453 net.cpp:148] Top shape: 100 64 3 3 (57600)
I0829 17:14:16.695914   453 net.cpp:156] Memory required for data: 81768400
I0829 17:14:16.695927   453 layer_factory.hpp:77] Creating layer ip2
I0829 17:14:16.695950   453 net.cpp:91] Creating Layer ip2
I0829 17:14:16.695969   453 net.cpp:425] ip2 <- pool3
I0829 17:14:16.695991   453 net.cpp:399] ip2 -> ip2
I0829 17:14:16.707732   453 net.cpp:141] Setting up ip2
I0829 17:14:16.707792   453 net.cpp:148] Top shape: 100 500 (50000)
I0829 17:14:16.707808   453 net.cpp:156] Memory required for data: 81968400
I0829 17:14:16.707831   453 layer_factory.hpp:77] Creating layer relu_ip2
I0829 17:14:16.707852   453 net.cpp:91] Creating Layer relu_ip2
I0829 17:14:16.707870   453 net.cpp:425] relu_ip2 <- ip2
I0829 17:14:16.707890   453 net.cpp:386] relu_ip2 -> ip2 (in-place)
I0829 17:14:16.707918   453 net.cpp:141] Setting up relu_ip2
I0829 17:14:16.707936   453 net.cpp:148] Top shape: 100 500 (50000)
I0829 17:14:16.707949   453 net.cpp:156] Memory required for data: 82168400
I0829 17:14:16.707963   453 layer_factory.hpp:77] Creating layer ip2_relu_ip2_0_split
I0829 17:14:16.707983   453 net.cpp:91] Creating Layer ip2_relu_ip2_0_split
I0829 17:14:16.707996   453 net.cpp:425] ip2_relu_ip2_0_split <- ip2
I0829 17:14:16.708016   453 net.cpp:399] ip2_relu_ip2_0_split -> ip2_relu_ip2_0_split_0
I0829 17:14:16.708037   453 net.cpp:399] ip2_relu_ip2_0_split -> ip2_relu_ip2_0_split_1
I0829 17:14:16.708099   453 net.cpp:141] Setting up ip2_relu_ip2_0_split
I0829 17:14:16.708122   453 net.cpp:148] Top shape: 100 500 (50000)
I0829 17:14:16.708137   453 net.cpp:148] Top shape: 100 500 (50000)
I0829 17:14:16.708151   453 net.cpp:156] Memory required for data: 82568400
I0829 17:14:16.708165   453 layer_factory.hpp:77] Creating layer ip_hash
I0829 17:14:16.708189   453 net.cpp:91] Creating Layer ip_hash
I0829 17:14:16.708204   453 net.cpp:425] ip_hash <- ip2_relu_ip2_0_split_0
I0829 17:14:16.708226   453 net.cpp:399] ip_hash -> ip_hash
I0829 17:14:16.708607   453 net.cpp:141] Setting up ip_hash
I0829 17:14:16.708633   453 net.cpp:148] Top shape: 100 12 (1200)
I0829 17:14:16.708648   453 net.cpp:156] Memory required for data: 82573200
I0829 17:14:16.708676   453 layer_factory.hpp:77] Creating layer ip_classification
I0829 17:14:16.708698   453 net.cpp:91] Creating Layer ip_classification
I0829 17:14:16.708714   453 net.cpp:425] ip_classification <- ip2_relu_ip2_0_split_1
I0829 17:14:16.708735   453 net.cpp:399] ip_classification -> ip_classification
I0829 17:14:16.709004   453 net.cpp:141] Setting up ip_classification
I0829 17:14:16.709029   453 net.cpp:148] Top shape: 100 7 (700)
I0829 17:14:16.709044   453 net.cpp:156] Memory required for data: 82576000
I0829 17:14:16.709064   453 layer_factory.hpp:77] Creating layer ip_classification_ip_classification_0_split
I0829 17:14:16.709089   453 net.cpp:91] Creating Layer ip_classification_ip_classification_0_split
I0829 17:14:16.709151   453 net.cpp:425] ip_classification_ip_classification_0_split <- ip_classification
I0829 17:14:16.709172   453 net.cpp:399] ip_classification_ip_classification_0_split -> ip_classification_ip_classification_0_split_0
I0829 17:14:16.709192   453 net.cpp:399] ip_classification_ip_classification_0_split -> ip_classification_ip_classification_0_split_1
I0829 17:14:16.709210   453 net.cpp:399] ip_classification_ip_classification_0_split -> ip_classification_ip_classification_0_split_2
I0829 17:14:16.709277   453 net.cpp:141] Setting up ip_classification_ip_classification_0_split
I0829 17:14:16.709313   453 net.cpp:148] Top shape: 100 7 (700)
I0829 17:14:16.709334   453 net.cpp:148] Top shape: 100 7 (700)
I0829 17:14:16.709349   453 net.cpp:148] Top shape: 100 7 (700)
I0829 17:14:16.709363   453 net.cpp:156] Memory required for data: 82584400
I0829 17:14:16.709378   453 layer_factory.hpp:77] Creating layer loss_hash
I0829 17:14:16.709398   453 net.cpp:91] Creating Layer loss_hash
I0829 17:14:16.709415   453 net.cpp:425] loss_hash <- ip_hash
I0829 17:14:16.709432   453 net.cpp:425] loss_hash <- label_cifar_1_split_0
I0829 17:14:16.709453   453 net.cpp:399] loss_hash -> loss_hash
…
