…
I0829 13:40:53.690572  9284 net.cpp:313] The NetState phase (0) differed from the phase (1) specified by a rule in layer accuracy_top5
I0829 13:40:53.691709  9284 net.cpp:49] Initializing net from parameters: 
name: "docomo_ResNet50"
state {
  phase: TRAIN
}
layer {
  name: "data"
  type: "Data"
  top: "data"
  top: "label"
  include {
    phase: TRAIN
  }
  transform_param {
    mirror: true
    crop_size: 224
    mean_value: 104
    mean_value: 117
    mean_value: 123
  }
  data_param {
    source: "FASHION/fashion_train_lmdb"
    batch_size: 10
    backend: LMDB
  }
}
layer {
  name: "conv1"
  type: "Convolution"
  bottom: "data"
  top: "conv1"
  param {
    lr_mult: 1
    decay_mult: 1
  }
  param {
    lr_mult: 2
    decay_mult: 0
  }
  convolution_param {
    num_output: 64
    pad: 3
    kernel_size: 7
    stride: 2
    weight_filler {
      type: "xavier"
      std: 0.01
    }
    bias_filler {
      type: "constant"
      value: 0
    }
  }
}
layer {
  name: "bn_conv1"
  type: "BatchNorm"
  bottom: "conv1"
  top: "conv1"
  batch_norm_param {
    use_global_stats: true
  }
}
layer {
  name: "scale_conv1"
  type: "Scale"
  bottom: "conv1"
  top: "conv1"
  scale_param {
    bias_term: true
  }
}
layer {
  name: "conv1_relu"
  type: "ReLU"
  bottom: "conv1"
  top: "conv1"
}
layer {
  name: "pool1"
  type: "Pooling"
  bottom: "conv1"
  top: "pool1"
  pooling_param {
    pool: MAX
    kernel_size: 3
    stride: 2
  }
}
layer {
  name: "res2a_branch1"
  type: "Convolution"
  bottom: "pool1"
  top: "res2a_branch1"
  param {
    lr_mult: 1
    decay_mult: 1
  }
  convolution_param {
    num_output: 256
    bias_term: false
    pad: 0
    kernel_size: 1
    stride: 1
    weight_filler {
      type: "xavier"
      std: 0.01
    }
  }
}
layer {
  name: "bn2a_branch1"
  type: "BatchNorm"
  bottom: "res2a_branch1"
  top: "res2a_branch1"
  batch_norm_param {
    use_global_stats: true
  }
}
layer {
  name: "scale2a_branch1"
  type: "Scale"
  bottom: "res2a_branch1"
  top: "res2a_branch1"
  scale_param {
    bias_term: true
  }
}
layer {
  name: "res2a_branch2a"
  type: "Convolution"
  bottom: "pool1"
  top: "res2a_branch2a"
  param {
    lr_mult: 1
    decay_mult: 1
  }
  convolution_param {
    num_output: 64
    bias_term: false
    pad: 0
    kernel_size: 1
    stride: 1
    weight_filler {
      type: "xavier"
      std: 0.01
    }
  }
}
layer {
  name: "bn2a_branch2a"
  type: "BatchNorm"
  bottom: "res2a_branch2a"
  top: "res2a_branch2a"
  batch_norm_param {
    use_global_stats: true
  }
}
layer {
  name: "scale2a_branch2a"
  type: "Scale"
  bottom: "res2a_branch2a"
  top: "res2a_branch2a"
  scale_param {
    bias_term: true
  }
}
layer {
  name: "res2a_branch2a_relu"
  type: "ReLU"
  bottom: "res2a_branch2a"
  top: "res2a_branch2a"
}
layer {
  name: "res2a_branch2b"
  type: "Convolution"
  bottom: "res2a_branch2a"
  top: "res2a_branch2b"
  param {
    lr_mult: 1
    decay_mult: 1
  }
  convolution_param {
    num_output: 64
    bias_term: false
    pad: 1
    kernel_size: 3
    stride: 1
    weight_filler {
      type: "xavier"
      std: 0.01
    }
  }
}
layer {
  name: "bn2a_branch2b"
  type: "BatchNorm"
  bottom: "res2a_branch2b"
  top: "res2a_branch2b"
  batch_norm_param {
    use_global_stats: true
  }
}
layer {
  name: "scale2a_branch2b"
  type: "Scale"
  bottom: "res2a_branch2b"
  top: "res2a_branch2b"
  scale_param {
    bias_term: true
  }
}
layer {
  name: "res2a_branch2b_relu"
  type: "ReLU"
  bottom: "res2a_branch2b"
  top: "res2a_branch2b"
}
layer {
  name: "res2a_branch2c"
  type: "Convolution"
  bottom: "res2a_branch2b"
  top: "res2a_branch2c"
  param {
    lr_mult: 1
    decay_mult: 1
  }
  convolution_param {
    num_output: 256
    bias_term: false
    pad: 0
    kernel_size: 1
    stride: 1
    weight_filler {
      type: "xavier"
      std: 0.01
    }
  }
}
layer {
  name: "bn2a_branch2c"
  type: "BatchNorm"
  bottom: "res2a_branch2c"
  top: "res2a_branch2c"
  batch_norm_param {
    use_global_stats: true
  }
}
layer {
  name: "scale2a_branch2c"
  type: "Scale"
  bottom: "res2a_branch2c"
  top: "res2a_branch2c"
  scale_param {
    bias_term: true
  }
}
layer {
  name: "res2a"
  type: "Eltwise"
  bottom: "res2a_branch1"
  bottom: "res2a_branch2c"
  top: "res2a"
  eltwise_param {
    operation: SUM
  }
}
layer {
  name: "res2a_relu"
  type: "ReLU"
  bottom: "res2a"
  top: "res2a"
}
layer {
  name: "res2b_branch2a"
  type: "Convolution"
  bottom: "res2a"
  top: "res2b_branch2a"
  param {
    lr_mult: 1
    decay_mult: 1
  }
  convolution_param {
    num_output: 64
    bias_term: false
    pad: 0
    kernel_size: 1
    stride: 1
    weight_filler {
      type: "xavier"
      std: 0.01
    }
  }
}
layer {
  name: "bn2b_branch2a"
  type: "BatchNorm"
  bottom: "res2b_branch2a"
  top: "res2b_branch2a"
  batch_norm_param {
    use_global_stats: true
  }
}
layer {
  name: "scale2b_branch2a"
  type: "Scale"
  bottom: "res2b_branch2a"
  top: "res2b_branch2a"
  scale_param {
    bias_term: true
  }
}
layer {
  name: "res2b_branch2a_relu"
  type: "ReLU"
  bottom: "res2b_branch2a"
  top: "res2b_branch2a"
}
layer {
  name: "res2b_branch2b"
  type: "Convolution"
  bottom: "res2b_branch2a"
  top: "res2b_branch2b"
  param {
    lr_mult: 1
    decay_mult: 1
  }
  convolution_param {
    num_output: 64
    bias_term: false
    pad: 1
    kernel_size: 3
    stride: 1
    weight_filler {
      type: "xavier"
      std: 0.01
    }
  }
}
layer {
  name: "bn2b_branch2b"
  type: "BatchNorm"
  bottom: "res2b_branch2b"
  top: "res2b_branch2b"
  batch_norm_param {
    use_global_stats: true
  }
}
layer {
  name: "scale2b_branch2b"
  type: "Scale"
  bottom: "res2b_branch2b"
  top: "res2b_branch2b"
  scale_param {
    bias_term: true
  }
}
layer {
  name: "res2b_branch2b_relu"
  type: "ReLU"
  bottom: "res2b_branch2b"
  top: "res2b_branch2b"
}
layer {
  name: "res2b_branch2c"
  type: "Convolution"
  bottom: "res2b_branch2b"
  top: "res2b_branch2c"
  param {
    lr_mult: 1
    decay_mult: 1
  }
  convolution_param {
    num_output: 256
    bias_term: false
    pad: 0
    kernel_size: 1
    stride: 1
    weight_filler {
      type: "xavier"
      std: 0.01
    }
  }
}
layer {
  name: "bn2b_branch2c"
  type: "BatchNorm"
  bottom: "res2b_branch2c"
  top: "res2b_branch2c"
  batch_norm_param {
    use_global_stats: true
  }
}
layer {
  name: "scale2b_branch2c"
  type: "Scale"
  bottom: "res2b_branch2c"
  top: "res2b_branch2c"
  scale_param {
    bias_term: true
  }
}
layer {
  name: "res2b"
  type: "Eltwise"
  bottom: "res2a"
  bottom: "res2b_branch2c"
  top: "res2b"
  eltwise_param {
    operation: SUM
  }
}
layer {
  name: "res2b_relu"
  type: "ReLU"
  bottom: "res2b"
  top: "res2b"
}
layer {
  name: "res2c_branch2a"
  type: "Convolution"
  bottom: "res2b"
  top: "res2c_branch2a"
  param {
    lr_mult: 1
    decay_mult: 1
  }
  convolution_param {
    num_output: 64
    bias_term: false
    pad: 0
    kernel_size: 1
    stride: 1
    weight_filler {
      type: "xavier"
      std: 0.01
    }
  }
}
layer {
  name: "bn2c_branch2a"
  type: "BatchNorm"
  bottom: "res2c_branch2a"
  top: "res2c_branch2a"
  batch_norm_param {
    use_global_stats: true
  }
}
layer {
  name: "scale2c_branch2a"
  type: "Scale"
  bottom: "res2c_branch2a"
  top: "res2c_branch2a"
  scale_param {
    bias_term: true
  }
}
layer {
  name: "res2c_branch2a_relu"
  type: "ReLU"
  bottom: "res2c_branch2a"
  top: "res2c_branch2a"
}
layer {
  name: "res2c_branch2b"
  type: "Convolution"
  bottom: "res2c_branch2a"
  top: "res2c_branch2b"
  param {
    lr_mult: 1
    decay_mult: 1
  }
  convolution_param {
    num_output: 64
    bias_term: false
    pad: 1
    kernel_size: 3
    stride: 1
    weight_filler {
      type: "xavier"
      std: 0.01
    }
  }
}
layer {
  name: "bn2c_branch2b"
  type: "BatchNorm"
  bottom: "res2c_branch2b"
  top: "res2c_branch2b"
  batch_norm_param {
    use_global_stats: true
  }
}
layer {
  name: "scale2c_branch2b"
  type: "Scale"
  bottom: "res2c_branch2b"
  top: "res2c_branch2b"
  scale_param {
    bias_term: true
  }
}
layer {
  name: "res2c_branch2b_relu"
  type: "ReLU"
  bottom: "res2c_branch2b"
  top: "res2c_branch2b"
}
layer {
  name: "res2c_branch2c"
  type: "Convolution"
  bottom: "res2c_branch2b"
  top: "res2c_branch2c"
  param {
    lr_mult: 1
    decay_mult: 1
  }
  convolution_param {
    num_output: 256
    bias_term: false
    pad: 0
    kernel_size: 1
    stride: 1
    weight_filler {
      type: "xavier"
      std: 0.01
    }
  }
}
layer {
  name: "bn2c_branch2c"
  type: "BatchNorm"
  bottom: "res2c_branch2c"
  top: "res2c_branch2c"
  batch_norm_param {
    use_global_stats: true
  }
}
layer {
  name: "scale2c_branch2c"
  type: "Scale"
  bottom: "res2c_branch2c"
  top: "res2c_branch2c"
  scale_param {
    bias_term: true
  }
}
layer {
  name: "res2c"
  type: "Eltwise"
  bottom: "res2b"
  bottom: "res2c_branch2c"
  top: "res2c"
  eltwise_param {
    operation: SUM
  }
}
layer {
  name: "res2c_relu"
  type: "ReLU"
  bottom: "res2c"
  top: "res2c"
}
layer {
  name: "res3a_branch1"
  type: "Convolution"
  bottom: "res2c"
  top: "res3a_branch1"
  param {
    lr_mult: 1
    decay_mult: 1
  }
  convolution_param {
    num_output: 512
    bias_term: false
    pad: 0
    kernel_size: 1
    stride: 2
    weight_filler {
      type: "xavier"
      std: 0.01
    }
  }
}
layer {
  name: "bn3a_branch1"
  type: "BatchNorm"
  bottom: "res3a_branch1"
  top: "res3a_branch1"
  batch_norm_param {
    use_global_stats: true
  }
}
layer {
  name: "scale3a_branch1"
  type: "Scale"
  bottom: "res3a_branch1"
  top: "res3a_branch1"
  scale_param {
    bias_term: true
  }
}
layer {
  name: "res3a_branch2a"
  type: "Convolution"
  bottom: "res2c"
  top: "res3a_branch2a"
  param {
    lr_mult: 1
    decay_mult: 1
  }
  convolution_param {
    num_output: 128
    bias_term: false
    pad: 0
    kernel_size: 1
    stride: 2
    weight_filler {
      type: "xavier"
      std: 0.01
    }
  }
}
layer {
  name: "bn3a_branch2a"
  type: "BatchNorm"
  bottom: "res3a_branch2a"
  top: "res3a_branch2a"
  batch_norm_param {
    use_global_stats: true
  }
}
layer {
  name: "scale3a_branch2a"
  type: "Scale"
  bottom: "res3a_branch2a"
  top: "res3a_branch2a"
  scale_param {
    bias_term: true
  }
}
layer {
  name: "res3a_branch2a_relu"
  type: "ReLU"
  bottom: "res3a_branch2a"
  top: "res3a_branch2a"
}
layer {
  name: "res3a_branch2b"
  type: "Convolution"
  bottom: "res3a_branch2a"
  top: "res3a_branch2b"
  param {
    lr_mult: 1
    decay_mult: 1
  }
  convolution_param {
    num_output: 128
    bias_term: false
    pad: 1
    kernel_size: 3
    stride: 1
    weight_filler {
      type: "xavier"
      std: 0.01
    }
  }
}
layer {
  name: "bn3a_branch2b"
  type: "BatchNorm"
  bottom: "res3a_branch2b"
  top: "res3a_branch2b"
  batch_norm_param {
    use_global_stats: true
  }
}
layer {
  name: "scale3a_branch2b"
  type: "Scale"
  bottom: "res3a_branch2b"
  top: "res3a_branch2b"
  scale_param {
    bias_term: true
  }
}
layer {
  name: "res3a_branch2b_relu"
  type: "ReLU"
  bottom: "res3a_branch2b"
  top: "res3a_branch2b"
}
layer {
  name: "res3a_branch2c"
  type: "Convolution"
  bottom: "res3a_branch2b"
  top: "res3a_branch2c"
  param {
    lr_mult: 1
    decay_mult: 1
  }
  convolution_param {
    num_output: 512
    bias_term: false
    pad: 0
    kernel_size: 1
    stride: 1
    weight_filler {
      type: "xavier"
      std: 0.01
    }
  }
}
layer {
  name: "bn3a_branch2c"
  type: "BatchNorm"
  bottom: "res3a_branch2c"
  top: "res3a_branch2c"
  batch_norm_param {
    use_global_stats: true
  }
}
layer {
  name: "scale3a_branch2c"
  type: "Scale"
  bottom: "res3a_branch2c"
  top: "res3a_branch2c"
  scale_param {
    bias_term: true
  }
}
layer {
  name: "res3a"
  type: "Eltwise"
  bottom: "res3a_branch1"
  bottom: "res3a_branch2c"
  top: "res3a"
}
layer {
  name: "res3a_relu"
  type: "ReLU"
  bottom: "res3a"
  top: "res3a"
}
layer {
  name: "res3b_branch2a"
  type: "Convolution"
  bottom: "res3a"
  top: "res3b_branch2a"
  param {
    lr_mult: 1
    decay_mult: 1
  }
  convolution_param {
    num_output: 128
    bias_term: false
    pad: 0
    kernel_size: 1
    stride: 1
    weight_filler {
      type: "xavier"
      std: 0.01
    }
  }
}
layer {
  name: "bn3b_branch2a"
  type: "BatchNorm"
  bottom: "res3b_branch2a"
  top: "res3b_branch2a"
  batch_norm_param {
    use_global_stats: true
  }
}
layer {
  name: "scale3b_branch2a"
  type: "Scale"
  bottom: "res3b_branch2a"
  top: "res3b_branch2a"
  scale_param {
    bias_term: true
  }
}
layer {
  name: "res3b_branch2a_relu"
  type: "ReLU"
  bottom: "res3b_branch2a"
  top: "res3b_branch2a"
}
layer {
  name: "res3b_branch2b"
  type: "Convolution"
  bottom: "res3b_branch2a"
  top: "res3b_branch2b"
  param {
    lr_mult: 1
    decay_mult: 1
  }
  convolution_param {
    num_output: 128
    bias_term: false
    pad: 1
    kernel_size: 3
    stride: 1
    weight_filler {
      type: "xavier"
      std: 0.01
    }
  }
}
layer {
  name: "bn3b_branch2b"
  type: "BatchNorm"
  bottom: "res3b_branch2b"
  top: "res3b_branch2b"
  batch_norm_param {
    use_global_stats: true
  }
}
layer {
  name: "scale3b_branch2b"
  type: "Scale"
  bottom: "res3b_branch2b"
  top: "res3b_branch2b"
  scale_param {
    bias_term: true
  }
}
layer {
  name: "res3b_branch2b_relu"
  type: "ReLU"
  bottom: "res3b_branch2b"
  top: "res3b_branch2b"
}
layer {
  name: "res3b_branch2c"
  type: "Convolution"
  bottom: "res3b_branch2b"
  top: "res3b_branch2c"
  param {
    lr_mult: 1
    decay_mult: 1
  }
  convolution_param {
    num_output: 512
    bias_term: false
    pad: 0
    kernel_size: 1
    stride: 1
    weight_filler {
      type: "xavier"
      std: 0.01
    }
  }
}
layer {
  name: "bn3b_branch2c"
  type: "BatchNorm"
  bottom: "res3b_branch2c"
  top: "res3b_branch2c"
  batch_norm_param {
    use_global_stats: true
  }
}
layer {
  name: "scale3b_branch2c"
  type: "Scale"
  bottom: "res3b_branch2c"
  top: "res3b_branch2c"
  scale_param {
    bias_term: true
  }
}
layer {
  name: "res3b"
  type: "Eltwise"
  bottom: "res3a"
  bottom: "res3b_branch2c"
  top: "res3b"
}
layer {
  name: "res3b_relu"
  type: "ReLU"
  bottom: "res3b"
  top: "res3b"
}
layer {
  name: "res3c_branch2a"
  type: "Convolution"
  bottom: "res3b"
  top: "res3c_branch2a"
  param {
    lr_mult: 1
    decay_mult: 1
  }
  convolution_param {
    num_output: 128
    bias_term: false
    pad: 0
    kernel_size: 1
    stride: 1
    weight_filler {
      type: "xavier"
      std: 0.01
    }
  }
}
layer {
  name: "bn3c_branch2a"
  type: "BatchNorm"
  bottom: "res3c_branch2a"
  top: "res3c_branch2a"
  batch_norm_param {
    use_global_stats: true
  }
}
layer {
  name: "scale3c_branch2a"
  type: "Scale"
  bottom: "res3c_branch2a"
  top: "res3c_branch2a"
  scale_param {
    bias_term: true
  }
}
layer {
  name: "res3c_branch2a_relu"
  type: "ReLU"
  bottom: "res3c_branch2a"
  top: "res3c_branch2a"
}
layer {
  name: "res3c_branch2b"
  type: "Convolution"
  bottom: "res3c_branch2a"
  top: "res3c_branch2b"
  param {
    lr_mult: 1
    decay_mult: 1
  }
  convolution_param {
    num_output: 128
    bias_term: false
    pad: 1
    kernel_size: 3
    stride: 1
    weight_filler {
      type: "xavier"
      std: 0.01
    }
  }
}
layer {
  name: "bn3c_branch2b"
  type: "BatchNorm"
  bottom: "res3c_branch2b"
  top: "res3c_branch2b"
  batch_norm_param {
    use_global_stats: true
  }
}
layer {
  name: "scale3c_branch2b"
  type: "Scale"
  bottom: "res3c_branch2b"
  top: "res3c_branch2b"
  scale_param {
    bias_term: true
  }
}
layer {
  name: "res3c_branch2b_relu"
  type: "ReLU"
  bottom: "res3c_branch2b"
  top: "res3c_branch2b"
}
layer {
  name: "res3c_branch2c"
  type: "Convolution"
  bottom: "res3c_branch2b"
  top: "res3c_branch2c"
  param {
    lr_mult: 1
    decay_mult: 1
  }
  convolution_param {
    num_output: 512
    bias_term: false
    pad: 0
    kernel_size: 1
    stride: 1
    weight_filler {
      type: "xavier"
      std: 0.01
    }
  }
}
layer {
  name: "bn3c_branch2c"
  type: "BatchNorm"
  bottom: "res3c_branch2c"
  top: "res3c_branch2c"
  batch_norm_param {
    use_global_stats: true
  }
}
layer {
  name: "scale3c_branch2c"
  type: "Scale"
  bottom: "res3c_branch2c"
  top: "res3c_branch2c"
  scale_param {
    bias_term: true
  }
}
layer {
  name: "res3c"
  type: "Eltwise"
  bottom: "res3b"
  bottom: "res3c_branch2c"
  top: "res3c"
}
layer {
  name: "res3c_relu"
  type: "ReLU"
  bottom: "res3c"
  top: "res3c"
}
layer {
  name: "res3d_branch2a"
  type: "Convolution"
  bottom: "res3c"
  top: "res3d_branch2a"
  param {
    lr_mult: 1
    decay_mult: 1
  }
  convolution_param {
    num_output: 128
    bias_term: false
    pad: 0
    kernel_size: 1
    stride: 1
    weight_filler {
      type: "xavier"
      std: 0.01
    }
  }
}
layer {
  name: "bn3d_branch2a"
  type: "BatchNorm"
  bottom: "res3d_branch2a"
  top: "res3d_branch2a"
  batch_norm_param {
    use_global_stats: true
  }
}
layer {
  name: "scale3d_branch2a"
  type: "Scale"
  bottom: "res3d_branch2a"
  top: "res3d_branch2a"
  scale_param {
    bias_term: true
  }
}
layer {
  name: "res3d_branch2a_relu"
  type: "ReLU"
  bottom: "res3d_branch2a"
  top: "res3d_branch2a"
}
layer {
  name: "res3d_branch2b"
  type: "Convolution"
  bottom: "res3d_branch2a"
  top: "res3d_branch2b"
  param {
    lr_mult: 1
    decay_mult: 1
  }
  convolution_param {
    num_output: 128
    bias_term: false
    pad: 1
    kernel_size: 3
    stride: 1
    weight_filler {
      type: "xavier"
      std: 0.01
    }
  }
}
layer {
  name: "bn3d_branch2b"
  type: "BatchNorm"
  bottom: "res3d_branch2b"
  top: "res3d_branch2b"
  batch_norm_param {
    use_global_stats: true
  }
}
layer {
  name: "scale3d_branch2b"
  type: "Scale"
  bottom: "res3d_branch2b"
  top: "res3d_branch2b"
  scale_param {
    bias_term: true
  }
}
layer {
  name: "res3d_branch2b_relu"
  type: "ReLU"
  bottom: "res3d_branch2b"
  top: "res3d_branch2b"
}
layer {
  name: "res3d_branch2c"
  type: "Convolution"
  bottom: "res3d_branch2b"
  top: "res3d_branch2c"
  param {
    lr_mult: 1
    decay_mult: 1
  }
  convolution_param {
    num_output: 512
    bias_term: false
    pad: 0
    kernel_size: 1
    stride: 1
    weight_filler {
      type: "xavier"
      std: 0.01
    }
  }
}
layer {
  name: "bn3d_branch2c"
  type: "BatchNorm"
  bottom: "res3d_branch2c"
  top: "res3d_branch2c"
  batch_norm_param {
    use_global_stats: true
  }
}
layer {
  name: "scale3d_branch2c"
  type: "Scale"
  bottom: "res3d_branch2c"
  top: "res3d_branch2c"
  scale_param {
    bias_term: true
  }
}
layer {
  name: "res3d"
  type: "Eltwise"
  bottom: "res3c"
  bottom: "res3d_branch2c"
  top: "res3d"
}
layer {
  name: "res3d_relu"
  type: "ReLU"
  bottom: "res3d"
  top: "res3d"
}
layer {
  name: "res4a_branch1"
  type: "Convolution"
  bottom: "res3d"
  top: "res4a_branch1"
  convolution_param {
    num_output: 1024
    bias_term: false
    pad: 0
    kernel_size: 1
    stride: 2
  }
}
layer {
  name: "bn4a_branch1"
  type: "BatchNorm"
  bottom: "res4a_branch1"
  top: "res4a_branch1"
  batch_norm_param {
    use_global_stats: true
  }
}
layer {
  name: "scale4a_branch1"
  type: "Scale"
  bottom: "res4a_branch1"
  top: "res4a_branch1"
  scale_param {
    bias_term: true
  }
}
layer {
  name: "res4a_branch2a"
  type: "Convolution"
  bottom: "res3d"
  top: "res4a_branch2a"
  param {
    lr_mult: 1
    decay_mult: 1
  }
  convolution_param {
    num_output: 256
    bias_term: false
    pad: 0
    kernel_size: 1
    stride: 2
    weight_filler {
      type: "xavier"
      std: 0.01
    }
  }
}
layer {
  name: "bn4a_branch2a"
  type: "BatchNorm"
  bottom: "res4a_branch2a"
  top: "res4a_branch2a"
  batch_norm_param {
    use_global_stats: true
  }
}
layer {
  name: "scale4a_branch2a"
  type: "Scale"
  bottom: "res4a_branch2a"
  top: "res4a_branch2a"
  scale_param {
    bias_term: true
  }
}
layer {
  name: "res4a_branch2a_relu"
  type: "ReLU"
  bottom: "res4a_branch2a"
  top: "res4a_branch2a"
}
layer {
  name: "res4a_branch2b"
  type: "Convolution"
  bottom: "res4a_branch2a"
  top: "res4a_branch2b"
  param {
    lr_mult: 1
    decay_mult: 1
  }
  convolution_param {
    num_output: 256
    bias_term: false
    pad: 1
    kernel_size: 3
    stride: 1
    weight_filler {
      type: "xavier"
      std: 0.01
    }
  }
}
layer {
  name: "bn4a_branch2b"
  type: "BatchNorm"
  bottom: "res4a_branch2b"
  top: "res4a_branch2b"
  batch_norm_param {
    use_global_stats: true
  }
}
layer {
  name: "scale4a_branch2b"
  type: "Scale"
  bottom: "res4a_branch2b"
  top: "res4a_branch2b"
  scale_param {
    bias_term: true
  }
}
layer {
  name: "res4a_branch2b_relu"
  type: "ReLU"
  bottom: "res4a_branch2b"
  top: "res4a_branch2b"
}
layer {
  name: "res4a_branch2c"
  type: "Convolution"
  bottom: "res4a_branch2b"
  top: "res4a_branch2c"
  param {
    lr_mult: 1
    decay_mult: 1
  }
  convolution_param {
    num_output: 1024
    bias_term: false
    pad: 0
    kernel_size: 1
    stride: 1
    weight_filler {
      type: "xavier"
      std: 0.01
    }
  }
}
layer {
  name: "bn4a_branch2c"
  type: "BatchNorm"
  bottom: "res4a_branch2c"
  top: "res4a_branch2c"
  batch_norm_param {
    use_global_stats: true
  }
}
layer {
  name: "scale4a_branch2c"
  type: "Scale"
  bottom: "res4a_branch2c"
  top: "res4a_branch2c"
  scale_param {
    bias_term: true
  }
}
layer {
  name: "res4a"
  type: "Eltwise"
  bottom: "res4a_branch1"
  bottom: "res4a_branch2c"
  top: "res4a"
}
layer {
  name: "res4a_relu"
  type: "ReLU"
  bottom: "res4a"
  top: "res4a"
}
layer {
  name: "res4b_branch2a"
  type: "Convolution"
  bottom: "res4a"
  top: "res4b_branch2a"
  param {
    lr_mult: 1
    decay_mult: 1
  }
  convolution_param {
    num_output: 256
    bias_term: false
    pad: 0
    kernel_size: 1
    stride: 1
    weight_filler {
      type: "xavier"
      std: 0.01
    }
  }
}
layer {
  name: "bn4b_branch2a"
  type: "BatchNorm"
  bottom: "res4b_branch2a"
  top: "res4b_branch2a"
  batch_norm_param {
    use_global_stats: true
  }
}
layer {
  name: "scale4b_branch2a"
  type: "Scale"
  bottom: "res4b_branch2a"
  top: "res4b_branch2a"
  scale_param {
    bias_term: true
  }
}
layer {
  name: "res4b_branch2a_relu"
  type: "ReLU"
  bottom: "res4b_branch2a"
  top: "res4b_branch2a"
}
layer {
  name: "res4b_branch2b"
  type: "Convolution"
  bottom: "res4b_branch2a"
  top: "res4b_branch2b"
  param {
    lr_mult: 1
    decay_mult: 1
  }
  convolution_param {
    num_output: 256
    bias_term: false
    pad: 1
    kernel_size: 3
    stride: 1
    weight_filler {
      type: "xavier"
      std: 0.01
    }
  }
}
layer {
  name: "bn4b_branch2b"
  type: "BatchNorm"
  bottom: "res4b_branch2b"
  top: "res4b_branch2b"
  batch_norm_param {
    use_global_stats: true
  }
}
layer {
  name: "scale4b_branch2b"
  type: "Scale"
  bottom: "res4b_branch2b"
  top: "res4b_branch2b"
  scale_param {
    bias_term: true
  }
}
layer {
  name: "res4b_branch2b_relu"
  type: "ReLU"
  bottom: "res4b_branch2b"
  top: "res4b_branch2b"
}
layer {
  name: "res4b_branch2c"
  type: "Convolution"
  bottom: "res4b_branch2b"
  top: "res4b_branch2c"
  param {
    lr_mult: 1
    decay_mult: 1
  }
  convolution_param {
    num_output: 1024
    bias_term: false
    pad: 0
    kernel_size: 1
    stride: 1
    weight_filler {
      type: "xavier"
      std: 0.01
    }
  }
}
layer {
  name: "bn4b_branch2c"
  type: "BatchNorm"
  bottom: "res4b_branch2c"
  top: "res4b_branch2c"
  batch_norm_param {
    use_global_stats: true
  }
}
layer {
  name: "scale4b_branch2c"
  type: "Scale"
  bottom: "res4b_branch2c"
  top: "res4b_branch2c"
  scale_param {
    bias_term: true
  }
}
layer {
  name: "res4b"
  type: "Eltwise"
  bottom: "res4a"
  bottom: "res4b_branch2c"
  top: "res4b"
}
layer {
  name: "res4b_relu"
  type: "ReLU"
  bottom: "res4b"
  top: "res4b"
}
layer {
  name: "res4c_branch2a"
  type: "Convolution"
  bottom: "res4b"
  top: "res4c_branch2a"
  param {
    lr_mult: 1
    decay_mult: 1
  }
  convolution_param {
    num_output: 256
    bias_term: false
    pad: 0
    kernel_size: 1
    stride: 1
    weight_filler {
      type: "xavier"
      std: 0.01
    }
  }
}
layer {
  name: "bn4c_branch2a"
  type: "BatchNorm"
  bottom: "res4c_branch2a"
  top: "res4c_branch2a"
  batch_norm_param {
    use_global_stats: true
  }
}
layer {
  name: "scale4c_branch2a"
  type: "Scale"
  bottom: "res4c_branch2a"
  top: "res4c_branch2a"
  scale_param {
    bias_term: true
  }
}
layer {
  name: "res4c_branch2a_relu"
  type: "ReLU"
  bottom: "res4c_branch2a"
  top: "res4c_branch2a"
}
layer {
  name: "res4c_branch2b"
  type: "Convolution"
  bottom: "res4c_branch2a"
  top: "res4c_branch2b"
  param {
    lr_mult: 1
    decay_mult: 1
  }
  convolution_param {
    num_output: 256
    bias_term: false
    pad: 1
    kernel_size: 3
    stride: 1
    weight_filler {
      type: "xavier"
      std: 0.01
    }
  }
}
layer {
  name: "bn4c_branch2b"
  type: "BatchNorm"
  bottom: "res4c_branch2b"
  top: "res4c_branch2b"
  batch_norm_param {
    use_global_stats: true
  }
}
layer {
  name: "scale4c_branch2b"
  type: "Scale"
  bottom: "res4c_branch2b"
  top: "res4c_branch2b"
  scale_param {
    bias_term: true
  }
}
layer {
  name: "res4c_branch2b_relu"
  type: "ReLU"
  bottom: "res4c_branch2b"
  top: "res4c_branch2b"
}
layer {
  name: "res4c_branch2c"
  type: "Convolution"
  bottom: "res4c_branch2b"
  top: "res4c_branch2c"
  param {
    lr_mult: 1
    decay_mult: 1
  }
  convolution_param {
    num_output: 1024
    bias_term: false
    pad: 0
    kernel_size: 1
    stride: 1
    weight_filler {
      type: "xavier"
      std: 0.01
    }
  }
}
layer {
  name: "bn4c_branch2c"
  type: "BatchNorm"
  bottom: "res4c_branch2c"
  top: "res4c_branch2c"
  batch_norm_param {
    use_global_stats: true
  }
}
layer {
  name: "scale4c_branch2c"
  type: "Scale"
  bottom: "res4c_branch2c"
  top: "res4c_branch2c"
  scale_param {
    bias_term: true
  }
}
layer {
  name: "res4c"
  type: "Eltwise"
  bottom: "res4b"
  bottom: "res4c_branch2c"
  top: "res4c"
}
layer {
  name: "res4c_relu"
  type: "ReLU"
  bottom: "res4c"
  top: "res4c"
}
layer {
  name: "res4d_branch2a"
  type: "Convolution"
  bottom: "res4c"
  top: "res4d_branch2a"
  param {
    lr_mult: 1
    decay_mult: 1
  }
  convolution_param {
    num_output: 256
    bias_term: false
    pad: 0
    kernel_size: 1
    stride: 1
    weight_filler {
      type: "xavier"
      std: 0.01
    }
  }
}
layer {
  name: "bn4d_branch2a"
  type: "BatchNorm"
  bottom: "res4d_branch2a"
  top: "res4d_branch2a"
  batch_norm_param {
    use_global_stats: true
  }
}
layer {
  name: "scale4d_branch2a"
  type: "Scale"
  bottom: "res4d_branch2a"
  top: "res4d_branch2a"
  scale_param {
    bias_term: true
  }
}
layer {
  name: "res4d_branch2a_relu"
  type: "ReLU"
  bottom: "res4d_branch2a"
  top: "res4d_branch2a"
}
layer {
  name: "res4d_branch2b"
  type: "Convolution"
  bottom: "res4d_branch2a"
  top: "res4d_branch2b"
  param {
    lr_mult: 1
    decay_mult: 1
  }
  convolution_param {
    num_output: 256
    bias_term: false
    pad: 1
    kernel_size: 3
    stride: 1
    weight_filler {
      type: "xavier"
      std: 0.01
    }
  }
}
layer {
  name: "bn4d_branch2b"
  type: "BatchNorm"
  bottom: "res4d_branch2b"
  top: "res4d_branch2b"
  batch_norm_param {
    use_global_stats: true
  }
}
layer {
  name: "scale4d_branch2b"
  type: "Scale"
  bottom: "res4d_branch2b"
  top: "res4d_branch2b"
  scale_param {
    bias_term: true
  }
}
layer {
  name: "res4d_branch2b_relu"
  type: "ReLU"
  bottom: "res4d_branch2b"
  top: "res4d_branch2b"
}
layer {
  name: "res4d_branch2c"
  type: "Convolution"
  bottom: "res4d_branch2b"
  top: "res4d_branch2c"
  param {
    lr_mult: 1
    decay_mult: 1
  }
  convolution_param {
    num_output: 1024
    bias_term: false
    pad: 0
    kernel_size: 1
    stride: 1
    weight_filler {
      type: "xavier"
      std: 0.01
    }
  }
}
layer {
  name: "bn4d_branch2c"
  type: "BatchNorm"
  bottom: "res4d_branch2c"
  top: "res4d_branch2c"
  batch_norm_param {
    use_global_stats: true
  }
}
layer {
  name: "scale4d_branch2c"
  type: "Scale"
  bottom: "res4d_branch2c"
  top: "res4d_branch2c"
  scale_param {
    bias_term: true
  }
}
layer {
  name: "res4d"
  type: "Eltwise"
  bottom: "res4c"
  bottom: "res4d_branch2c"
  top: "res4d"
}
layer {
  name: "res4d_relu"
  type: "ReLU"
  bottom: "res4d"
  top: "res4d"
}
layer {
  name: "res4e_branch2a"
  type: "Convolution"
  bottom: "res4d"
  top: "res4e_branch2a"
  param {
    lr_mult: 1
    decay_mult: 1
  }
  convolution_param {
    num_output: 256
    bias_term: false
    pad: 0
    kernel_size: 1
    stride: 1
    weight_filler {
      type: "xavier"
      std: 0.01
    }
  }
}
layer {
  name: "bn4e_branch2a"
  type: "BatchNorm"
  bottom: "res4e_branch2a"
  top: "res4e_branch2a"
  batch_norm_param {
    use_global_stats: true
  }
}
layer {
  name: "scale4e_branch2a"
  type: "Scale"
  bottom: "res4e_branch2a"
  top: "res4e_branch2a"
  scale_param {
    bias_term: true
  }
}
layer {
  name: "res4e_branch2a_relu"
  type: "ReLU"
  bottom: "res4e_branch2a"
  top: "res4e_branch2a"
}
layer {
  name: "res4e_branch2b"
  type: "Convolution"
  bottom: "res4e_branch2a"
  top: "res4e_branch2b"
  param {
    lr_mult: 1
    decay_mult: 1
  }
  convolution_param {
    num_output: 256
    bias_term: false
    pad: 1
    kernel_size: 3
    stride: 1
    weight_filler {
      type: "xavier"
      std: 0.01
    }
  }
}
layer {
  name: "bn4e_branch2b"
  type: "BatchNorm"
  bottom: "res4e_branch2b"
  top: "res4e_branch2b"
  batch_norm_param {
    use_global_stats: true
  }
}
layer {
  name: "scale4e_branch2b"
  type: "Scale"
  bottom: "res4e_branch2b"
  top: "res4e_branch2b"
  scale_param {
    bias_term: true
  }
}
layer {
  name: "res4e_branch2b_relu"
  type: "ReLU"
  bottom: "res4e_branch2b"
  top: "res4e_branch2b"
}
layer {
  name: "res4e_branch2c"
  type: "Convolution"
  bottom: "res4e_branch2b"
  top: "res4e_branch2c"
  param {
    lr_mult: 1
    decay_mult: 1
  }
  convolution_param {
    num_output: 1024
    bias_term: false
    pad: 0
    kernel_size: 1
    stride: 1
    weight_filler {
      type: "xavier"
      std: 
I0829 13:40:53.699371  9284 layer_factory.hpp:77] Creating layer data
I0829 13:40:53.700048  9284 net.cpp:91] Creating Layer data
I0829 13:40:53.700168  9284 net.cpp:399] data -> data
I0829 13:40:53.700301  9284 net.cpp:399] data -> label
I0829 13:40:53.701315  9288 db_lmdb.cpp:38] Opened lmdb FASHION/fashion_train_lmdb
I0829 13:40:53.717551  9284 data_layer.cpp:41] output data size: 10,3,224,224
I0829 13:40:53.730860  9284 net.cpp:141] Setting up data
I0829 13:40:53.730944  9284 net.cpp:148] Top shape: 10 3 224 224 (1505280)
I0829 13:40:53.730965  9284 net.cpp:148] Top shape: 10 1 1 1 (10)
I0829 13:40:53.730983  9284 net.cpp:156] Memory required for data: 6021160
I0829 13:40:53.731007  9284 layer_factory.hpp:77] Creating layer label_data_1_split
I0829 13:40:53.731040  9284 net.cpp:91] Creating Layer label_data_1_split
I0829 13:40:53.731061  9284 net.cpp:425] label_data_1_split <- label
I0829 13:40:53.731092  9284 net.cpp:399] label_data_1_split -> label_data_1_split_0
I0829 13:40:53.731122  9284 net.cpp:399] label_data_1_split -> label_data_1_split_1
I0829 13:40:53.731194  9284 net.cpp:141] Setting up label_data_1_split
I0829 13:40:53.731220  9284 net.cpp:148] Top shape: 10 1 1 1 (10)
I0829 13:40:53.731238  9284 net.cpp:148] Top shape: 10 1 1 1 (10)
I0829 13:40:53.731253  9284 net.cpp:156] Memory required for data: 6021240
I0829 13:40:53.731268  9284 layer_factory.hpp:77] Creating layer conv1
I0829 13:40:53.731309  9284 net.cpp:91] Creating Layer conv1
I0829 13:40:53.731329  9284 net.cpp:425] conv1 <- data
I0829 13:40:53.731366  9284 net.cpp:399] conv1 -> conv1
I0829 13:40:53.733013  9284 net.cpp:141] Setting up conv1
I0829 13:40:53.733062  9284 net.cpp:148] Top shape: 10 64 112 112 (8028160)
I0829 13:40:53.733079  9284 net.cpp:156] Memory required for data: 38133880
I0829 13:40:53.733153  9284 layer_factory.hpp:77] Creating layer bn_conv1
I0829 13:40:53.733186  9284 net.cpp:91] Creating Layer bn_conv1
I0829 13:40:53.733204  9284 net.cpp:425] bn_conv1 <- conv1
I0829 13:40:53.733222  9284 net.cpp:386] bn_conv1 -> conv1 (in-place)
I0829 13:40:53.733448  9284 net.cpp:141] Setting up bn_conv1
I0829 13:40:53.733474  9284 net.cpp:148] Top shape: 10 64 112 112 (8028160)
I0829 13:40:53.733490  9284 net.cpp:156] Memory required for data: 70246520
I0829 13:40:53.733515  9284 layer_factory.hpp:77] Creating layer scale_conv1
I0829 13:40:53.733549  9284 net.cpp:91] Creating Layer scale_conv1
I0829 13:40:53.733568  9284 net.cpp:425] scale_conv1 <- conv1
I0829 13:40:53.733587  9284 net.cpp:386] scale_conv1 -> conv1 (in-place)
I0829 13:40:53.733654  9284 layer_factory.hpp:77] Creating layer scale_conv1
I0829 13:40:53.733827  9284 net.cpp:141] Setting up scale_conv1
I0829 13:40:53.733855  9284 net.cpp:148] Top shape: 10 64 112 112 (8028160)
I0829 13:40:53.733870  9284 net.cpp:156] Memory required for data: 102359160
I0829 13:40:53.733889  9284 layer_factory.hpp:77] Creating layer conv1_relu
I0829 13:40:53.733911  9284 net.cpp:91] Creating Layer conv1_relu
I0829 13:40:53.733927  9284 net.cpp:425] conv1_relu <- conv1
I0829 13:40:53.733943  9284 net.cpp:386] conv1_relu -> conv1 (in-place)
I0829 13:40:53.733964  9284 net.cpp:141] Setting up conv1_relu
I0829 13:40:53.733981  9284 net.cpp:148] Top shape: 10 64 112 112 (8028160)
I0829 13:40:53.733996  9284 net.cpp:156] Memory required for data: 134471800
I0829 13:40:53.734010  9284 layer_factory.hpp:77] Creating layer pool1
I0829 13:40:53.734033  9284 net.cpp:91] Creating Layer pool1
I0829 13:40:53.734048  9284 net.cpp:425] pool1 <- conv1
I0829 13:40:53.734066  9284 net.cpp:399] pool1 -> pool1
I0829 13:40:53.734138  9284 net.cpp:141] Setting up pool1
I0829 13:40:53.734163  9284 net.cpp:148] Top shape: 10 64 56 56 (2007040)
I0829 13:40:53.734179  9284 net.cpp:156] Memory required for data: 142499960
I0829 13:40:53.734192  9284 layer_factory.hpp:77] Creating layer pool1_pool1_0_split
I0829 13:40:53.734210  9284 net.cpp:91] Creating Layer pool1_pool1_0_split
I0829 13:40:53.734225  9284 net.cpp:425] pool1_pool1_0_split <- pool1
I0829 13:40:53.734241  9284 net.cpp:399] pool1_pool1_0_split -> pool1_pool1_0_split_0
I0829 13:40:53.734259  9284 net.cpp:399] pool1_pool1_0_split -> pool1_pool1_0_split_1
I0829 13:40:53.734308  9284 net.cpp:141] Setting up pool1_pool1_0_split
I0829 13:40:53.734333  9284 net.cpp:148] Top shape: 10 64 56 56 (2007040)
I0829 13:40:53.734351  9284 net.cpp:148] Top shape: 10 64 56 56 (2007040)
I0829 13:40:53.734366  9284 net.cpp:156] Memory required for data: 158556280
I0829 13:40:53.734381  9284 layer_factory.hpp:77] Creating layer res2a_branch1
I0829 13:40:53.734408  9284 net.cpp:91] Creating Layer res2a_branch1
I0829 13:40:53.734426  9284 net.cpp:425] res2a_branch1 <- pool1_pool1_0_split_0
I0829 13:40:53.734446  9284 net.cpp:399] res2a_branch1 -> res2a_branch1
I0829 13:40:53.734776  9284 net.cpp:141] Setting up res2a_branch1
I0829 13:40:53.734803  9284 net.cpp:148] Top shape: 10 256 56 56 (8028160)
I0829 13:40:53.734827  9284 net.cpp:156] Memory required for data: 190668920
I0829 13:40:53.734844  9284 layer_factory.hpp:77] Creating layer bn2a_branch1
I0829 13:40:53.734863  9284 net.cpp:91] Creating Layer bn2a_branch1
I0829 13:40:53.734877  9284 net.cpp:425] bn2a_branch1 <- res2a_branch1
I0829 13:40:53.734894  9284 net.cpp:386] bn2a_branch1 -> res2a_branch1 (in-place)
I0829 13:40:53.735798  9284 net.cpp:141] Setting up bn2a_branch1
I0829 13:40:53.735837  9284 net.cpp:148] Top shape: 10 256 56 56 (8028160)
I0829 13:40:53.735852  9284 net.cpp:156] Memory required for data: 222781560
I0829 13:40:53.735879  9284 layer_factory.hpp:77] Creating layer scale2a_branch1
I0829 13:40:53.735899  9284 net.cpp:91] Creating Layer scale2a_branch1
I0829 13:40:53.735915  9284 net.cpp:425] scale2a_branch1 <- res2a_branch1
I0829 13:40:53.735932  9284 net.cpp:386] scale2a_branch1 -> res2a_branch1 (in-place)
I0829 13:40:53.736021  9284 layer_factory.hpp:77] Creating layer scale2a_branch1
I0829 13:40:53.736166  9284 net.cpp:141] Setting up scale2a_branch1
I0829 13:40:53.736191  9284 net.cpp:148] Top shape: 10 256 56 56 (8028160)
I0829 13:40:53.736207  9284 net.cpp:156] Memory required for data: 254894200
I0829 13:40:53.736227  9284 layer_factory.hpp:77] Creating layer res2a_branch2a
I0829 13:40:53.736253  9284 net.cpp:91] Creating Layer res2a_branch2a
I0829 13:40:53.736268  9284 net.cpp:425] res2a_branch2a <- pool1_pool1_0_split_1
I0829 13:40:53.736292  9284 net.cpp:399] res2a_branch2a -> res2a_branch2a
I0829 13:40:53.736529  9284 net.cpp:141] Setting up res2a_branch2a
I0829 13:40:53.736555  9284 net.cpp:148] Top shape: 10 64 56 56 (2007040)
I0829 13:40:53.736572  9284 net.cpp:156] Memory required for data: 262922360
I0829 13:40:53.736588  9284 layer_factory.hpp:77] Creating layer bn2a_branch2a
I0829 13:40:53.736621  9284 net.cpp:91] Creating Layer bn2a_branch2a
I0829 13:40:53.736640  9284 net.cpp:425] bn2a_branch2a <- res2a_branch2a
I0829 13:40:53.736659  9284 net.cpp:386] bn2a_branch2a -> res2a_branch2a (in-place)
I0829 13:40:53.736858  9284 net.cpp:141] Setting up bn2a_branch2a
I0829 13:40:53.736884  9284 net.cpp:148] Top shape: 10 64 56 56 (2007040)
I0829 13:40:53.736901  9284 net.cpp:156] Memory required for data: 270950520
I0829 13:40:53.736927  9284 layer_factory.hpp:77] Creating layer scale2a_branch2a
I0829 13:40:53.736949  9284 net.cpp:91] Creating Layer scale2a_branch2a
I0829 13:40:53.736965  9284 net.cpp:425] scale2a_branch2a <- res2a_branch2a
I0829 13:40:53.736982  9284 net.cpp:386] scale2a_branch2a -> res2a_branch2a (in-place)
I0829 13:40:53.737041  9284 layer_factory.hpp:77] Creating layer scale2a_branch2a
I0829 13:40:53.737187  9284 net.cpp:141] Setting up scale2a_branch2a
I0829 13:40:53.737212  9284 net.cpp:148] Top shape: 10 64 56 56 (2007040)
I0829 13:40:53.737228  9284 net.cpp:156] Memory required for data: 278978680
I0829 13:40:53.737246  9284 layer_factory.hpp:77] Creating layer res2a_branch2a_relu
I0829 13:40:53.737265  9284 net.cpp:91] Creating Layer res2a_branch2a_relu
I0829 13:40:53.737282  9284 net.cpp:425] res2a_branch2a_relu <- res2a_branch2a
I0829 13:40:53.737301  9284 net.cpp:386] res2a_branch2a_relu -> res2a_branch2a (in-place)
I0829 13:40:53.737321  9284 net.cpp:141] Setting up res2a_branch2a_relu
I0829 13:40:53.737339  9284 net.cpp:148] Top shape: 10 64 56 56 (2007040)
I0829 13:40:53.737352  9284 net.cpp:156] Memory required for data: 287006840
I0829 13:40:53.737367  9284 layer_factory.hpp:77] Creating layer res2a_branch2b
I0829 13:40:53.737391  9284 net.cpp:91] Creating Layer res2a_branch2b
I0829 13:40:53.737407  9284 net.cpp:425] res2a_branch2b <- res2a_branch2a
I0829 13:40:53.737426  9284 net.cpp:399] res2a_branch2b -> res2a_branch2b
I0829 13:40:53.738636  9284 net.cpp:141] Setting up res2a_branch2b
I0829 13:40:53.738677  9284 net.cpp:148] Top shape: 10 64 56 56 (2007040)
I0829 13:40:53.738692  9284 net.cpp:156] Memory required for data: 295035000
I0829 13:40:53.738709  9284 layer_factory.hpp:77] Creating layer bn2a_branch2b
I0829 13:40:53.738731  9284 net.cpp:91] Creating Layer bn2a_branch2b
I0829 13:40:53.738746  9284 net.cpp:425] bn2a_branch2b <- res2a_branch2b
I0829 13:40:53.738767  9284 net.cpp:386] bn2a_branch2b -> res2a_branch2b (in-place)
I0829 13:40:53.738982  9284 net.cpp:141] Setting up bn2a_branch2b
I0829 13:40:53.739008  9284 net.cpp:148] Top shape: 10 64 56 56 (2007040)
I0829 13:40:53.739024  9284 net.cpp:156] Memory required for data: 303063160
I0829 13:40:53.739045  9284 layer_factory.hpp:77] Creating layer scale2a_branch2b
I0829 13:40:53.739065  9284 net.cpp:91] Creating Layer scale2a_branch2b
I0829 13:40:53.739081  9284 net.cpp:425] scale2a_branch2b <- res2a_branch2b
I0829 13:40:53.739102  9284 net.cpp:386] scale2a_branch2b -> res2a_branch2b (in-place)
I0829 13:40:53.739161  9284 layer_factory.hpp:77] Creating layer scale2a_branch2b
I0829 13:40:53.739313  9284 net.cpp:141] Setting up scale2a_branch2b
I0829 13:40:53.739339  9284 net.cpp:148] Top shape: 10 64 56 56 (2007040)
I0829 13:40:53.739378  9284 net.cpp:156] Memory required for data: 311091320
I0829 13:40:53.739399  9284 layer_factory.hpp:77] Creating layer res2a_branch2b_relu
I0829 13:40:53.739421  9284 net.cpp:91] Creating Layer res2a_branch2b_relu
I0829 13:40:53.739437  9284 net.cpp:425] res2a_branch2b_relu <- res2a_branch2b
I0829 13:40:53.739455  9284 net.cpp:386] res2a_branch2b_relu -> res2a_branch2b (in-place)
I0829 13:40:53.739475  9284 net.cpp:141] Setting up res2a_branch2b_relu
I0829 13:40:53.739492  9284 net.cpp:148] Top shape: 10 64 56 56 (2007040)
I0829 13:40:53.739506  9284 net.cpp:156] Memory required for data: 319119480
I0829 13:40:53.739521  9284 layer_factory.hpp:77] Creating layer res2a_branch2c
I0829 13:40:53.739545  9284 net.cpp:91] Creating Layer res2a_branch2c
I0829 13:40:53.739562  9284 net.cpp:425] res2a_branch2c <- res2a_branch2b
I0829 13:40:53.739579  9284 net.cpp:399] res2a_branch2c -> res2a_branch2c
I0829 13:40:53.739928  9284 net.cpp:141] Setting up res2a_branch2c
I0829 13:40:53.739953  9284 net.cpp:148] Top shape: 10 256 56 56 (8028160)
I0829 13:40:53.739971  9284 net.cpp:156] Memory required for data: 351232120
I0829 13:40:53.739989  9284 layer_factory.hpp:77] Creating layer bn2a_branch2c
I0829 13:40:53.740010  9284 net.cpp:91] Creating Layer bn2a_branch2c
I0829 13:40:53.740025  9284 net.cpp:425] bn2a_branch2c <- res2a_branch2c
I0829 13:40:53.740046  9284 net.cpp:386] bn2a_branch2c -> res2a_branch2c (in-place)
I0829 13:40:53.740257  9284 net.cpp:141] Setting up bn2a_branch2c
I0829 13:40:53.740283  9284 net.cpp:148] Top shape: 10 256 56 56 (8028160)
I0829 13:40:53.740298  9284 net.cpp:156] Memory required for data: 383344760
I0829 13:40:53.740319  9284 layer_factory.hpp:77] Creating layer scale2a_branch2c
I0829 13:40:53.740339  9284 net.cpp:91] Creating Layer scale2a_branch2c
I0829 13:40:53.740355  9284 net.cpp:425] scale2a_branch2c <- res2a_branch2c
I0829 13:40:53.740371  9284 net.cpp:386] scale2a_branch2c -> res2a_branch2c (in-place)
I0829 13:40:53.740432  9284 layer_factory.hpp:77] Creating layer scale2a_branch2c
I0829 13:40:53.740573  9284 net.cpp:141] Setting up scale2a_branch2c
I0829 13:40:53.740605  9284 net.cpp:148] Top shape: 10 256 56 56 (8028160)
I0829 13:40:53.740622  9284 net.cpp:156] Memory required for data: 415457400
I0829 13:40:53.740641  9284 layer_factory.hpp:77] Creating layer res2a
I0829 13:40:53.740669  9284 net.cpp:91] Creating Layer res2a
I0829 13:40:53.740687  9284 net.cpp:425] res2a <- res2a_branch1
I0829 13:40:53.740705  9284 net.cpp:425] res2a <- res2a_branch2c
I0829 13:40:53.740721  9284 net.cpp:399] res2a -> res2a
I0829 13:40:53.741130  9284 net.cpp:141] Setting up res2a
I0829 13:40:53.741170  9284 net.cpp:148] Top shape: 10 256 56 56 (8028160)
I0829 13:40:53.741188  9284 net.cpp:156] Memory required for data: 447570040
I0829 13:40:53.741204  9284 layer_factory.hpp:77] Creating layer res2a_relu
I0829 13:40:53.741224  9284 net.cpp:91] Creating Layer res2a_relu
I0829 13:40:53.741240  9284 net.cpp:425] res2a_relu <- res2a
I0829 13:40:53.741259  9284 net.cpp:386] res2a_relu -> res2a (in-place)
I0829 13:40:53.741281  9284 net.cpp:141] Setting up res2a_relu
I0829 13:40:53.741299  9284 net.cpp:148] Top shape: 10 256 56 56 (8028160)
I0829 13:40:53.741313  9284 net.cpp:156] Memory required for data: 479682680
I0829 13:40:53.741328  9284 layer_factory.hpp:77] Creating layer res2a_res2a_relu_0_split
I0829 13:40:53.741345  9284 net.cpp:91] Creating Layer res2a_res2a_relu_0_split
I0829 13:40:53.741360  9284 net.cpp:425] res2a_res2a_relu_0_split <- res2a
I0829 13:40:53.741376  9284 net.cpp:399] res2a_res2a_relu_0_split -> res2a_res2a_relu_0_split_0
I0829 13:40:53.741396  9284 net.cpp:399] res2a_res2a_relu_0_split -> res2a_res2a_relu_0_split_1
I0829 13:40:53.741456  9284 net.cpp:141] Setting up res2a_res2a_relu_0_split
I0829 13:40:53.741482  9284 net.cpp:148] Top shape: 10 256 56 56 (8028160)
I0829 13:40:53.741498  9284 net.cpp:148] Top shape: 10 256 56 56 (8028160)
I0829 13:40:53.741513  9284 net.cpp:156] Memory required for data: 543907960
I0829 13:40:53.741528  9284 layer_factory.hpp:77] Creating layer res2b_branch2a
I0829 13:40:53.741575  9284 net.cpp:91] Creating Layer res2b_branch2a
I0829 13:40:53.741595  9284 net.cpp:425] res2b_branch2a <- res2a_res2a_relu_0_split_0
I0829 13:40:53.741613  9284 net.cpp:399] res2b_branch2a -> res2b_branch2a
I0829 13:40:53.741962  9284 net.cpp:141] Setting up res2b_branch2a
I0829 13:40:53.741989  9284 net.cpp:148] Top shape: 10 64 56 56 (2007040)
I0829 13:40:53.742005  9284 net.cpp:156] Memory required for data: 551936120
I0829 13:40:53.742022  9284 layer_factory.hpp:77] Creating layer bn2b_branch2a
I0829 13:40:53.742043  9284 net.cpp:91] Creating Layer bn2b_branch2a
I0829 13:40:53.742058  9284 net.cpp:425] bn2b_branch2a <- res2b_branch2a
I0829 13:40:53.742074  9284 net.cpp:386] bn2b_branch2a -> res2b_branch2a (in-place)
I0829 13:40:53.742283  9284 net.cpp:141] Setting up bn2b_branch2a
I0829 13:40:53.742310  9284 net.cpp:148] Top shape: 10 64 56 56 (2007040)
I0829 13:40:53.742324  9284 net.cpp:156] Memory required for data: 559964280
I0829 13:40:53.742352  9284 layer_factory.hpp:77] Creating layer scale2b_branch2a
I0829 13:40:53.742377  9284 net.cpp:91] Creating Layer scale2b_branch2a
I0829 13:40:53.742393  9284 net.cpp:425] scale2b_branch2a <- res2b_branch2a
I0829 13:40:53.742410  9284 net.cpp:386] scale2b_branch2a -> res2b_branch2a (in-place)
I0829 13:40:53.742475  9284 layer_factory.hpp:77] Creating layer scale2b_branch2a
I0829 13:40:53.742635  9284 net.cpp:141] Setting up scale2b_branch2a
I0829 13:40:53.742661  9284 net.cpp:148] Top shape: 10 64 56 56 (2007040)
I0829 13:40:53.742677  9284 net.cpp:156] Memory required for data: 567992440
I0829 13:40:53.742696  9284 layer_factory.hpp:77] Creating layer res2b_branch2a_relu
I0829 13:40:53.742717  9284 net.cpp:91] Creating Layer res2b_branch2a_relu
I0829 13:40:53.742734  9284 net.cpp:425] res2b_branch2a_relu <- res2b_branch2a
I0829 13:40:53.742750  9284 net.cpp:386] res2b_branch2a_relu -> res2b_branch2a (in-place)
I0829 13:40:53.742769  9284 net.cpp:141] Setting up res2b_branch2a_relu
I0829 13:40:53.742786  9284 net.cpp:148] Top shape: 10 64 56 56 (2007040)
I0829 13:40:53.742800  9284 net.cpp:156] Memory required for data: 576020600
I0829 13:40:53.742815  9284 layer_factory.hpp:77] Creating layer res2b_branch2b
I0829 13:40:53.742839  9284 net.cpp:91] Creating Layer res2b_branch2b
I0829 13:40:53.742856  9284 net.cpp:425] res2b_branch2b <- res2b_branch2a
I0829 13:40:53.742878  9284 net.cpp:399] res2b_branch2b -> res2b_branch2b
I0829 13:40:53.743392  9284 net.cpp:141] Setting up res2b_branch2b
I0829 13:40:53.743420  9284 net.cpp:148] Top shape: 10 64 56 56 (2007040)
I0829 13:40:53.743436  9284 net.cpp:156] Memory required for data: 584048760
I0829 13:40:53.743453  9284 layer_factory.hpp:77] Creating layer bn2b_branch2b
I0829 13:40:53.743475  9284 net.cpp:91] Creating Layer bn2b_branch2b
I0829 13:40:53.743491  9284 net.cpp:425] bn2b_branch2b <- res2b_branch2b
I0829 13:40:53.743508  9284 net.cpp:386] bn2b_branch2b -> res2b_branch2b (in-place)
I0829 13:40:53.743716  9284 net.cpp:141] Setting up bn2b_branch2b
I0829 13:40:53.743741  9284 net.cpp:148] Top shape: 10 64 56 56 (2007040)
I0829 13:40:53.743757  9284 net.cpp:156] Memory required for data: 592076920
I0829 13:40:53.743777  9284 layer_factory.hpp:77] Creating layer scale2b_branch2b
I0829 13:40:53.743799  9284 net.cpp:91] Creating Layer scale2b_branch2b
I0829 13:40:53.743816  9284 net.cpp:425] scale2b_branch2b <- res2b_branch2b
I0829 13:40:53.743834  9284 net.cpp:386] scale2b_branch2b -> res2b_branch2b (in-place)
I0829 13:40:53.743892  9284 layer_factory.hpp:77] Creating layer scale2b_branch2b
I0829 13:40:53.744045  9284 net.cpp:141] Setting up scale2b_branch2b
I0829 13:40:53.744071  9284 net.cpp:148] Top shape: 10 64 56 56 (2007040)
I0829 13:40:53.744086  9284 net.cpp:156] Memory required for data: 600105080
I0829 13:40:53.744103  9284 layer_factory.hpp:77] Creating layer res2b_branch2b_relu
I0829 13:40:53.744129  9284 net.cpp:91] Creating Layer res2b_branch2b_relu
I0829 13:40:53.744145  9284 net.cpp:425] res2b_branch2b_relu <- res2b_branch2b
I0829 13:40:53.744163  9284 net.cpp:386] res2b_branch2b_relu -> res2b_branch2b (in-place)
I0829 13:40:53.744204  9284 net.cpp:141] Setting up res2b_branch2b_relu
I0829 13:40:53.744222  9284 net.cpp:148] Top shape: 10 64 56 56 (2007040)
I0829 13:40:53.744237  9284 net.cpp:156] Memory required for data: 608133240
I0829 13:40:53.744251  9284 layer_factory.hpp:77] Creating layer res2b_branch2c
I0829 13:40:53.744279  9284 net.cpp:91] Creating Layer res2b_branch2c
I0829 13:40:53.744298  9284 net.cpp:425] res2b_branch2c <- res2b_branch2b
I0829 13:40:53.744316  9284 net.cpp:399] res2b_branch2c -> res2b_branch2c
I0829 13:40:53.744660  9284 net.cpp:141] Setting up res2b_branch2c
I0829 13:40:53.744688  9284 net.cpp:148] Top shape: 10 256 56 56 (8028160)
I0829 13:40:53.744704  9284 net.cpp:156] Memory required for data: 640245880
I0829 13:40:53.744721  9284 layer_factory.hpp:77] Creating layer bn2b_branch2c
I0829 13:40:53.744740  9284 net.cpp:91] Creating Layer bn2b_branch2c
I0829 13:40:53.744755  9284 net.cpp:425] bn2b_branch2c <- res2b_branch2c
I0829 13:40:53.744772  9284 net.cpp:386] bn2b_branch2c -> res2b_branch2c (in-place)
I0829 13:40:53.744976  9284 net.cpp:141] Setting up bn2b_branch2c
I0829 13:40:53.745002  9284 net.cpp:148] Top shape: 10 256 56 56 (8028160)
I0829 13:40:53.745018  9284 net.cpp:156] Memory required for data: 672358520
I0829 13:40:53.745038  9284 layer_factory.hpp:77] Creating layer scale2b_branch2c
I0829 13:40:53.745060  9284 net.cpp:91] Creating Layer scale2b_branch2c
I0829 13:40:53.745076  9284 net.cpp:425] scale2b_branch2c <- res2b_branch2c
I0829 13:40:53.745093  9284 net.cpp:386] scale2b_branch2c -> res2b_branch2c (in-place)
I0829 13:40:53.745151  9284 layer_factory.hpp:77] Creating layer scale2b_branch2c
I0829 13:40:53.745295  9284 net.cpp:141] Setting up scale2b_branch2c
I0829 13:40:53.745321  9284 net.cpp:148] Top shape: 10 256 56 56 (8028160)
I0829 13:40:53.745335  9284 net.cpp:156] Memory required for data: 704471160
I0829 13:40:53.745354  9284 layer_factory.hpp:77] Creating layer res2b
I0829 13:40:53.745378  9284 net.cpp:91] Creating Layer res2b
I0829 13:40:53.745393  9284 net.cpp:425] res2b <- res2a_res2a_relu_0_split_1
I0829 13:40:53.745409  9284 net.cpp:425] res2b <- res2b_branch2c
I0829 13:40:53.745427  9284 net.cpp:399] res2b -> res2b
I0829 13:40:53.745471  9284 net.cpp:141] Setting up res2b
I0829 13:40:53.745496  9284 net.cpp:148] Top shape: 10 256 56 56 (8028160)
I0829 13:40:53.745512  9284 net.cpp:156] Memory required for data: 736583800
I0829 13:40:53.745525  9284 layer_factory.hpp:77] Creating layer res2b_relu
I0829 13:40:53.745543  9284 net.cpp:91] Creating Layer res2b_relu
I0829 13:40:53.745558  9284 net.cpp:425] res2b_relu <- res2b
I0829 13:40:53.745576  9284 net.cpp:386] res2b_relu -> res2b (in-place)
I0829 13:40:53.745595  9284 net.cpp:141] Setting up res2b_relu
I0829 13:40:53.745612  9284 net.cpp:148] Top shape: 10 256 56 56 (8028160)
I0829 13:40:53.745627  9284 net.cpp:156] Memory required for data: 768696440
I0829 13:40:53.745642  9284 layer_factory.hpp:77] Creating layer res2b_res2b_relu_0_split
I0829 13:40:53.745658  9284 net.cpp:91] Creating Layer res2b_res2b_relu_0_split
I0829 13:40:53.745673  9284 net.cpp:425] res2b_res2b_relu_0_split <- res2b
I0829 13:40:53.745689  9284 net.cpp:399] res2b_res2b_relu_0_split -> res2b_res2b_relu_0_split_0
I0829 13:40:53.745707  9284 net.cpp:399] res2b_res2b_relu_0_split -> res2b_res2b_relu_0_split_1
I0829 13:40:53.745759  9284 net.cpp:141] Setting up res2b_res2b_relu_0_split
I0829 13:40:53.745781  9284 net.cpp:148] Top shape: 10 256 56 56 (8028160)
I0829 13:40:53.745798  9284 net.cpp:148] Top shape: 10 256 56 56 (8028160)
I0829 13:40:53.745812  9284 net.cpp:156] Memory required for data: 832921720
I0829 13:40:53.745827  9284 layer_factory.hpp:77] Creating layer res2c_branch2a
I0829 13:40:53.745848  9284 net.cpp:91] Creating Layer res2c_branch2a
I0829 13:40:53.745864  9284 net.cpp:425] res2c_branch2a <- res2b_res2b_relu_0_split_0
I0829 13:40:53.745885  9284 net.cpp:399] res2c_branch2a -> res2c_branch2a
I0829 13:40:53.746224  9284 net.cpp:141] Setting up res2c_branch2a
I0829 13:40:53.746268  9284 net.cpp:148] Top shape: 10 64 56 56 (2007040)
I0829 13:40:53.746284  9284 net.cpp:156] Memory required for data: 840949880
I0829 13:40:53.746300  9284 layer_factory.hpp:77] Creating layer bn2c_branch2a
I0829 13:40:53.746322  9284 net.cpp:91] Creating Layer bn2c_branch2a
I0829 13:40:53.746338  9284 net.cpp:425] bn2c_branch2a <- res2c_branch2a
I0829 13:40:53.746354  9284 net.cpp:386] bn2c_branch2a -> res2c_branch2a (in-place)
I0829 13:40:53.746567  9284 net.cpp:141] Setting up bn2c_branch2a
I0829 13:40:53.746592  9284 net.cpp:148] Top shape: 10 64 56 56 (2007040)
I0829 13:40:53.746608  9284 net.cpp:156] Memory required for data: 848978040
I0829 13:40:53.746628  9284 layer_factory.hpp:77] Creating layer scale2c_branch2a
I0829 13:40:53.746649  9284 net.cpp:91] Creating Layer scale2c_branch2a
I0829 13:40:53.746665  9284 net.cpp:425] scale2c_branch2a <- res2c_branch2a
I0829 13:40:53.746682  9284 net.cpp:386] scale2c_branch2a -> res2c_branch2a (in-place)
I0829 13:40:53.746757  9284 layer_factory.hpp:77] Creating layer scale2c_branch2a
I0829 13:40:53.746911  9284 net.cpp:141] Setting up scale2c_branch2a
I0829 13:40:53.746937  9284 net.cpp:148] Top shape: 10 64 56 56 (2007040)
I0829 13:40:53.746951  9284 net.cpp:156] Memory required for data: 857006200
I0829 13:40:53.746969  9284 layer_factory.hpp:77] Creating layer res2c_branch2a_relu
I0829 13:40:53.746991  9284 net.cpp:91] Creating Layer res2c_branch2a_relu
I0829 13:40:53.747007  9284 net.cpp:425] res2c_branch2a_relu <- res2c_branch2a
I0829 13:40:53.747025  9284 net.cpp:386] res2c_branch2a_relu -> res2c_branch2a (in-place)
I0829 13:40:53.747042  9284 net.cpp:141] Setting up res2c_branch2a_relu
I0829 13:40:53.747059  9284 net.cpp:148] Top shape: 10 64 56 56 (2007040)
I0829 13:40:53.747073  9284 net.cpp:156] Memory required for data: 865034360
I0829 13:40:53.747088  9284 layer_factory.hpp:77] Creating layer res2c_branch2b
I0829 13:40:53.747112  9284 net.cpp:91] Creating Layer res2c_branch2b
I0829 13:40:53.747128  9284 net.cpp:425] res2c_branch2b <- res2c_branch2a
I0829 13:40:53.747149  9284 net.cpp:399] res2c_branch2b -> res2c_branch2b
I0829 13:40:53.747671  9284 net.cpp:141] Setting up res2c_branch2b
I0829 13:40:53.747697  9284 net.cpp:148] Top shape: 10 64 56 56 (2007040)
I0829 13:40:53.747714  9284 net.cpp:156] Memory required for data: 873062520
I0829 13:40:53.747730  9284 layer_factory.hpp:77] Creating layer bn2c_branch2b
I0829 13:40:53.747751  9284 net.cpp:91] Creating Layer bn2c_branch2b
I0829 13:40:53.747768  9284 net.cpp:425] bn2c_branch2b <- res2c_branch2b
I0829 13:40:53.747786  9284 net.cpp:386] bn2c_branch2b -> res2c_branch2b (in-place)
I0829 13:40:53.747992  9284 net.cpp:141] Setting up bn2c_branch2b
I0829 13:40:53.748016  9284 net.cpp:148] Top shape: 10 64 56 56 (2007040)
I0829 13:40:53.748031  9284 net.cpp:156] Memory required for data: 881090680
I0829 13:40:53.748051  9284 layer_factory.hpp:77] Creating layer scale2c_branch2b
I0829 13:40:53.748073  9284 net.cpp:91] Creating Layer scale2c_branch2b
I0829 13:40:53.748090  9284 net.cpp:425] scale2c_branch2b <- res2c_branch2b
I0829 13:40:53.748106  9284 net.cpp:386] scale2c_branch2b -> res2c_branch2b (in-place)
I0829 13:40:53.748179  9284 layer_factory.hpp:77] Creating layer scale2c_branch2b
I0829 13:40:53.748337  9284 net.cpp:141] Setting up scale2c_branch2b
I0829 13:40:53.748363  9284 net.cpp:148] Top shape: 10 64 56 56 (2007040)
I0829 13:40:53.748378  9284 net.cpp:156] Memory required for data: 889118840
I0829 13:40:53.748396  9284 layer_factory.hpp:77] Creating layer res2c_branch2b_relu
I0829 13:40:53.748419  9284 net.cpp:91] Creating Layer res2c_branch2b_relu
I0829 13:40:53.748440  9284 net.cpp:425] res2c_branch2b_relu <- res2c_branch2b
I0829 13:40:53.748456  9284 net.cpp:386] res2c_branch2b_relu -> res2c_branch2b (in-place)
I0829 13:40:53.748478  9284 net.cpp:141] Setting up res2c_branch2b_relu
I0829 13:40:53.748497  9284 net.cpp:148] Top shape: 10 64 56 56 (2007040)
I0829 13:40:53.748512  9284 net.cpp:156] Memory required for data: 897147000
I0829 13:40:53.748527  9284 layer_factory.hpp:77] Creating layer res2c_branch2c
I0829 13:40:53.748564  9284 net.cpp:91] Creating Layer res2c_branch2c
I0829 13:40:53.748581  9284 net.cpp:425] res2c_branch2c <- res2c_branch2b
I0829 13:40:53.748610  9284 net.cpp:399] res2c_branch2c -> res2c_branch2c
I0829 13:40:53.749377  9284 net.cpp:141] Setting up res2c_branch2c
I0829 13:40:53.749416  9284 net.cpp:148] Top shape: 10 256 56 56 (8028160)
I0829 13:40:53.749433  9284 net.cpp:156] Memory required for data: 929259640
I0829 13:40:53.749454  9284 layer_factory.hpp:77] Creating layer bn2c_branch2c
I0829 13:40:53.749476  9284 net.cpp:91] Creating Layer bn2c_branch2c
I0829 13:40:53.749495  9284 net.cpp:425] bn2c_branch2c <- res2c_branch2c
I0829 13:40:53.749513  9284 net.cpp:386] bn2c_branch2c -> res2c_branch2c (in-place)
I0829 13:40:53.749729  9284 net.cpp:141] Setting up bn2c_branch2c
I0829 13:40:53.749756  9284 net.cpp:148] Top shape: 10 256 56 56 (8028160)
I0829 13:40:53.749773  9284 net.cpp:156] Memory required for data: 961372280
I0829 13:40:53.749810  9284 layer_factory.hpp:77] Creating layer scale2c_branch2c
I0829 13:40:53.749835  9284 net.cpp:91] Creating Layer scale2c_branch2c
I0829 13:40:53.749851  9284 net.cpp:425] scale2c_branch2c <- res2c_branch2c
I0829 13:40:53.749872  9284 net.cpp:386] scale2c_branch2c -> res2c_branch2c (in-place)
I0829 13:40:53.749935  9284 layer_factory.hpp:77] Creating layer scale2c_branch2c
I0829 13:40:53.750082  9284 net.cpp:141] Setting up scale2c_branch2c
I0829 13:40:53.750113  9284 net.cpp:148] Top shape: 10 256 56 56 (8028160)
I0829 13:40:53.750128  9284 net.cpp:156] Memory required for data: 993484920
I0829 13:40:53.750146  9284 layer_factory.hpp:77] Creating layer res2c
I0829 13:40:53.750166  9284 net.cpp:91] Creating Layer res2c
I0829 13:40:53.750182  9284 net.cpp:425] res2c <- res2b_res2b_relu_0_split_1
I0829 13:40:53.750198  9284 net.cpp:425] res2c <- res2c_branch2c
I0829 13:40:53.750216  9284 net.cpp:399] res2c -> res2c
I0829 13:40:53.750259  9284 net.cpp:141] Setting up res2c
I0829 13:40:53.750284  9284 net.cpp:148] Top shape: 10 256 56 56 (8028160)
I0829 13:40:53.750299  9284 net.cpp:156] Memory required for data: 1025597560
I0829 13:40:53.750313  9284 layer_factory.hpp:77] Creating layer res2c_relu
I0829 13:40:53.750330  9284 net.cpp:91] Creating Layer res2c_relu
I0829 13:40:53.750345  9284 net.cpp:425] res2c_relu <- res2c
I0829 13:40:53.750361  9284 net.cpp:386] res2c_relu -> res2c (in-place)
I0829 13:40:53.750380  9284 net.cpp:141] Setting up res2c_relu
I0829 13:40:53.750397  9284 net.cpp:148] Top shape: 10 256 56 56 (8028160)
I0829 13:40:53.750412  9284 net.cpp:156] Memory required for data: 1057710200
I0829 13:40:53.750430  9284 layer_factory.hpp:77] Creating layer res2c_res2c_relu_0_split
I0829 13:40:53.750447  9284 net.cpp:91] Creating Layer res2c_res2c_relu_0_split
I0829 13:40:53.750460  9284 net.cpp:425] res2c_res2c_relu_0_split <- res2c
I0829 13:40:53.750478  9284 net.cpp:399] res2c_res2c_relu_0_split -> res2c_res2c_relu_0_split_0
I0829 13:40:53.750496  9284 net.cpp:399] res2c_res2c_relu_0_split -> res2c_res2c_relu_0_split_1
I0829 13:40:53.750550  9284 net.cpp:141] Setting up res2c_res2c_relu_0_split
I0829 13:40:53.750574  9284 net.cpp:148] Top shape: 10 256 56 56 (8028160)
I0829 13:40:53.750591  9284 net.cpp:148] Top shape: 10 256 56 56 (8028160)
I0829 13:40:53.750605  9284 net.cpp:156] Memory required for data: 1121935480
I0829 13:40:53.750620  9284 layer_factory.hpp:77] Creating layer res3a_branch1
I0829 13:40:53.750644  9284 net.cpp:91] Creating Layer res3a_branch1
I0829 13:40:53.750661  9284 net.cpp:425] res3a_branch1 <- res2c_res2c_relu_0_split_0
I0829 13:40:53.750680  9284 net.cpp:399] res3a_branch1 -> res3a_branch1
I0829 13:40:53.752786  9284 net.cpp:141] Setting up res3a_branch1
I0829 13:40:53.752822  9284 net.cpp:148] Top shape: 10 512 28 28 (4014080)
I0829 13:40:53.752838  9284 net.cpp:156] Memory required for data: 1137991800
I0829 13:40:53.752856  9284 layer_factory.hpp:77] Creating layer bn3a_branch1
I0829 13:40:53.752879  9284 net.cpp:91] Creating Layer bn3a_branch1
I0829 13:40:53.752897  9284 net.cpp:425] bn3a_branch1 <- res3a_branch1
I0829 13:40:53.752943  9284 net.cpp:386] bn3a_branch1 -> res3a_branch1 (in-place)
I0829 13:40:53.753849  9284 net.cpp:141] Setting up bn3a_branch1
I0829 13:40:53.753878  9284 net.cpp:148] Top shape: 10 512 28 28 (4014080)
I0829 13:40:53.753893  9284 net.cpp:156] Memory required for data: 1154048120
I0829 13:40:53.753916  9284 layer_factory.hpp:77] Creating layer scale3a_branch1
I0829 13:40:53.753939  9284 net.cpp:91] Creating Layer scale3a_branch1
I0829 13:40:53.753957  9284 net.cpp:425] scale3a_branch1 <- res3a_branch1
I0829 13:40:53.753974  9284 net.cpp:386] scale3a_branch1 -> res3a_branch1 (in-place)
I0829 13:40:53.754041  9284 layer_factory.hpp:77] Creating layer scale3a_branch1
I0829 13:40:53.754184  9284 net.cpp:141] Setting up scale3a_branch1
I0829 13:40:53.754209  9284 net.cpp:148] Top shape: 10 512 28 28 (4014080)
I0829 13:40:53.754230  9284 net.cpp:156] Memory required for data: 1170104440
I0829 13:40:53.754248  9284 layer_factory.hpp:77] Creating layer res3a_branch2a
I0829 13:40:53.754276  9284 net.cpp:91] Creating Layer res3a_branch2a
I0829 13:40:53.754293  9284 net.cpp:425] res3a_branch2a <- res2c_res2c_relu_0_split_1
I0829 13:40:53.754315  9284 net.cpp:399] res3a_branch2a -> res3a_branch2a
I0829 13:40:53.754819  9284 net.cpp:141] Setting up res3a_branch2a
I0829 13:40:53.754847  9284 net.cpp:148] Top shape: 10 128 28 28 (1003520)
I0829 13:40:53.754863  9284 net.cpp:156] Memory required for data: 1174118520
I0829 13:40:53.754880  9284 layer_factory.hpp:77] Creating layer bn3a_branch2a
I0829 13:40:53.754899  9284 net.cpp:91] Creating Layer bn3a_branch2a
I0829 13:40:53.754914  9284 net.cpp:425] bn3a_branch2a <- res3a_branch2a
I0829 13:40:53.754930  9284 net.cpp:386] bn3a_branch2a -> res3a_branch2a (in-place)
I0829 13:40:53.755136  9284 net.cpp:141] Setting up bn3a_branch2a
I0829 13:40:53.755161  9284 net.cpp:148] Top shape: 10 128 28 28 (1003520)
I0829 13:40:53.755177  9284 net.cpp:156] Memory required for data: 1178132600
I0829 13:40:53.755197  9284 layer_factory.hpp:77] Creating layer scale3a_branch2a
I0829 13:40:53.755219  9284 net.cpp:91] Creating Layer scale3a_branch2a
I0829 13:40:53.755235  9284 net.cpp:425] scale3a_branch2a <- res3a_branch2a
I0829 13:40:53.755254  9284 net.cpp:386] scale3a_branch2a -> res3a_branch2a (in-place)
I0829 13:40:53.755316  9284 layer_factory.hpp:77] Creating layer scale3a_branch2a
I0829 13:40:53.755460  9284 net.cpp:141] Setting up scale3a_branch2a
I0829 13:40:53.755486  9284 net.cpp:148] Top shape: 10 128 28 28 (1003520)
I0829 13:40:53.755501  9284 net.cpp:156] Memory required for data: 1182146680
I0829 13:40:53.755520  9284 layer_factory.hpp:77] Creating layer res3a_branch2a_relu
I0829 13:40:53.755542  9284 net.cpp:91] Creating Layer res3a_branch2a_relu
I0829 13:40:53.755559  9284 net.cpp:425] res3a_branch2a_relu <- res3a_branch2a
I0829 13:40:53.755576  9284 net.cpp:386] res3a_branch2a_relu -> res3a_branch2a (in-place)
I0829 13:40:53.755594  9284 net.cpp:141] Setting up res3a_branch2a_relu
I0829 13:40:53.755611  9284 net.cpp:148] Top shape: 10 128 28 28 (1003520)
I0829 13:40:53.755626  9284 net.cpp:156] Memory required for data: 1186160760
I0829 13:40:53.755641  9284 layer_factory.hpp:77] Creating layer res3a_branch2b
I0829 13:40:53.755666  9284 net.cpp:91] Creating Layer res3a_branch2b
I0829 13:40:53.755683  9284 net.cpp:425] res3a_branch2b <- res3a_branch2a
I0829 13:40:53.755702  9284 net.cpp:399] res3a_branch2b -> res3a_branch2b
I0829 13:40:53.757849  9284 net.cpp:141] Setting up res3a_branch2b
I0829 13:40:53.757881  9284 net.cpp:148] Top shape: 10 128 28 28 (1003520)
I0829 13:40:53.757899  9284 net.cpp:156] Memory required for data: 1190174840
I0829 13:40:53.757916  9284 layer_factory.hpp:77] Creating layer bn3a_branch2b
I0829 13:40:53.757938  9284 net.cpp:91] Creating Layer bn3a_branch2b
I0829 13:40:53.757953  9284 net.cpp:425] bn3a_branch2b <- res3a_branch2b
I0829 13:40:53.757971  9284 net.cpp:386] bn3a_branch2b -> res3a_branch2b (in-place)
I0829 13:40:53.758183  9284 net.cpp:141] Setting up bn3a_branch2b
I0829 13:40:53.758208  9284 net.cpp:148] Top shape: 10 128 28 28 (1003520)
I0829 13:40:53.758252  9284 net.cpp:156] Memory required for data: 1194188920
I0829 13:40:53.758275  9284 layer_factory.hpp:77] Creating layer scale3a_branch2b
I0829 13:40:53.758303  9284 net.cpp:91] Creating Layer scale3a_branch2b
I0829 13:40:53.758321  9284 net.cpp:425] scale3a_branch2b <- res3a_branch2b
I0829 13:40:53.758338  9284 net.cpp:386] scale3a_branch2b -> res3a_branch2b (in-place)
I0829 13:40:53.758400  9284 layer_factory.hpp:77] Creating layer scale3a_branch2b
I0829 13:40:53.758548  9284 net.cpp:141] Setting up scale3a_branch2b
I0829 13:40:53.758572  9284 net.cpp:148] Top shape: 10 128 28 28 (1003520)
I0829 13:40:53.758589  9284 net.cpp:156] Memory required for data: 1198203000
I0829 13:40:53.758607  9284 layer_factory.hpp:77] Creating layer res3a_branch2b_relu
I0829 13:40:53.758630  9284 net.cpp:91] Creating Layer res3a_branch2b_relu
I0829 13:40:53.758649  9284 net.cpp:425] res3a_branch2b_relu <- res3a_branch2b
I0829 13:40:53.758666  9284 net.cpp:386] res3a_branch2b_relu -> res3a_branch2b (in-place)
I0829 13:40:53.758685  9284 net.cpp:141] Setting up res3a_branch2b_relu
I0829 13:40:53.758702  9284 net.cpp:148] Top shape: 10 128 28 28 (1003520)
I0829 13:40:53.758716  9284 net.cpp:156] Memory required for data: 1202217080
I0829 13:40:53.758731  9284 layer_factory.hpp:77] Creating layer res3a_branch2c
I0829 13:40:53.758767  9284 net.cpp:91] Creating Layer res3a_branch2c
I0829 13:40:53.758787  9284 net.cpp:425] res3a_branch2c <- res3a_branch2b
I0829 13:40:53.758806  9284 net.cpp:399] res3a_branch2c -> res3a_branch2c
I0829 13:40:53.759585  9284 net.cpp:141] Setting up res3a_branch2c
I0829 13:40:53.759618  9284 net.cpp:148] Top shape: 10 512 28 28 (4014080)
I0829 13:40:53.759634  9284 net.cpp:156] Memory required for data: 1218273400
I0829 13:40:53.759652  9284 layer_factory.hpp:77] Creating layer bn3a_branch2c
I0829 13:40:53.759670  9284 net.cpp:91] Creating Layer bn3a_branch2c
I0829 13:40:53.759690  9284 net.cpp:425] bn3a_branch2c <- res3a_branch2c
I0829 13:40:53.759706  9284 net.cpp:386] bn3a_branch2c -> res3a_branch2c (in-place)
I0829 13:40:53.759907  9284 net.cpp:141] Setting up bn3a_branch2c
I0829 13:40:53.759933  9284 net.cpp:148] Top shape: 10 512 28 28 (4014080)
I0829 13:40:53.759948  9284 net.cpp:156] Memory required for data: 1234329720
I0829 13:40:53.759969  9284 layer_factory.hpp:77] Creating layer scale3a_branch2c
I0829 13:40:53.759992  9284 net.cpp:91] Creating Layer scale3a_branch2c
I0829 13:40:53.760011  9284 net.cpp:425] scale3a_branch2c <- res3a_branch2c
I0829 13:40:53.760028  9284 net.cpp:386] scale3a_branch2c -> res3a_branch2c (in-place)
I0829 13:40:53.760089  9284 layer_factory.hpp:77] Creating layer scale3a_branch2c
I0829 13:40:53.760231  9284 net.cpp:141] Setting up scale3a_branch2c
I0829 13:40:53.760255  9284 net.cpp:148] Top shape: 10 512 28 28 (4014080)
I0829 13:40:53.760272  9284 net.cpp:156] Memory required for data: 1250386040
I0829 13:40:53.760289  9284 layer_factory.hpp:77] Creating layer res3a
I0829 13:40:53.760309  9284 net.cpp:91] Creating Layer res3a
I0829 13:40:53.760324  9284 net.cpp:425] res3a <- res3a_branch1
I0829 13:40:53.760340  9284 net.cpp:425] res3a <- res3a_branch2c
I0829 13:40:53.760361  9284 net.cpp:399] res3a -> res3a
I0829 13:40:53.760407  9284 net.cpp:141] Setting up res3a
I0829 13:40:53.760432  9284 net.cpp:148] Top shape: 10 512 28 28 (4014080)
I0829 13:40:53.760447  9284 net.cpp:156] Memory required for data: 1266442360
I0829 13:40:53.760460  9284 layer_factory.hpp:77] Creating layer res3a_relu
I0829 13:40:53.760478  9284 net.cpp:91] Creating Layer res3a_relu
I0829 13:40:53.760493  9284 net.cpp:425] res3a_relu <- res3a
I0829 13:40:53.760509  9284 net.cpp:386] res3a_relu -> res3a (in-place)
I0829 13:40:53.760526  9284 net.cpp:141] Setting up res3a_relu
I0829 13:40:53.760543  9284 net.cpp:148] Top shape: 10 512 28 28 (4014080)
I0829 13:40:53.760558  9284 net.cpp:156] Memory required for data: 1282498680
I0829 13:40:53.760572  9284 layer_factory.hpp:77] Creating layer res3a_res3a_relu_0_split
I0829 13:40:53.760591  9284 net.cpp:91] Creating Layer res3a_res3a_relu_0_split
I0829 13:40:53.760630  9284 net.cpp:425] res3a_res3a_relu_0_split <- res3a
I0829 13:40:53.760653  9284 net.cpp:399] res3a_res3a_relu_0_split -> res3a_res3a_relu_0_split_0
I0829 13:40:53.760679  9284 net.cpp:399] res3a_res3a_relu_0_split -> res3a_res3a_relu_0_split_1
I0829 13:40:53.760735  9284 net.cpp:141] Setting up res3a_res3a_relu_0_split
I0829 13:40:53.760761  9284 net.cpp:148] Top shape: 10 512 28 28 (4014080)
I0829 13:40:53.760777  9284 net.cpp:148] Top shape: 10 512 28 28 (4014080)
I0829 13:40:53.760792  9284 net.cpp:156] Memory required for data: 1314611320
I0829 13:40:53.760807  9284 layer_factory.hpp:77] Creating layer res3b_branch2a
I0829 13:40:53.760828  9284 net.cpp:91] Creating Layer res3b_branch2a
I0829 13:40:53.760844  9284 net.cpp:425] res3b_branch2a <- res3a_res3a_relu_0_split_0
I0829 13:40:53.760866  9284 net.cpp:399] res3b_branch2a -> res3b_branch2a
I0829 13:40:53.762315  9284 net.cpp:141] Setting up res3b_branch2a
I0829 13:40:53.762346  9284 net.cpp:148] Top shape: 10 128 28 28 (1003520)
I0829 13:40:53.762362  9284 net.cpp:156] Memory required for data: 1318625400
I0829 13:40:53.762378  9284 layer_factory.hpp:77] Creating layer bn3b_branch2a
I0829 13:40:53.762398  9284 net.cpp:91] Creating Layer bn3b_branch2a
I0829 13:40:53.762413  9284 net.cpp:425] bn3b_branch2a <- res3b_branch2a
I0829 13:40:53.762429  9284 net.cpp:386] bn3b_branch2a -> res3b_branch2a (in-place)
I0829 13:40:53.762637  9284 net.cpp:141] Setting up bn3b_branch2a
I0829 13:40:53.762663  9284 net.cpp:148] Top shape: 10 128 28 28 (1003520)
I0829 13:40:53.762678  9284 net.cpp:156] Memory required for data: 1322639480
I0829 13:40:53.762699  9284 layer_factory.hpp:77] Creating layer scale3b_branch2a
I0829 13:40:53.762718  9284 net.cpp:91] Creating Layer scale3b_branch2a
I0829 13:40:53.762735  9284 net.cpp:425] scale3b_branch2a <- res3b_branch2a
I0829 13:40:53.762753  9284 net.cpp:386] scale3b_branch2a -> res3b_branch2a (in-place)
I0829 13:40:53.762814  9284 layer_factory.hpp:77] Creating layer scale3b_branch2a
I0829 13:40:53.762959  9284 net.cpp:141] Setting up scale3b_branch2a
I0829 13:40:53.762984  9284 net.cpp:148] Top shape: 10 128 28 28 (1003520)
I0829 13:40:53.763000  9284 net.cpp:156] Memory required for data: 1326653560
I0829 13:40:53.763018  9284 layer_factory.hpp:77] Creating layer res3b_branch2a_relu
I0829 13:40:53.763041  9284 net.cpp:91] Creating Layer res3b_branch2a_relu
I0829 13:40:53.763057  9284 net.cpp:425] res3b_branch2a_relu <- res3b_branch2a
I0829 13:40:53.763077  9284 net.cpp:386] res3b_branch2a_relu -> res3b_branch2a (in-place)
I0829 13:40:53.763095  9284 net.cpp:141] Setting up res3b_branch2a_relu
I0829 13:40:53.763113  9284 net.cpp:148] Top shape: 10 128 28 28 (1003520)
I0829 13:40:53.763128  9284 net.cpp:156] Memory required for data: 1330667640
I0829 13:40:53.763142  9284 layer_factory.hpp:77] Creating layer res3b_branch2b
I0829 13:40:53.763165  9284 net.cpp:91] Creating Layer res3b_branch2b
I0829 13:40:53.763182  9284 net.cpp:425] res3b_branch2b <- res3b_branch2a
I0829 13:40:53.763204  9284 net.cpp:399] res3b_branch2b -> res3b_branch2b
I0829 13:40:53.765339  9284 net.cpp:141] Setting up res3b_branch2b
I0829 13:40:53.765369  9284 net.cpp:148] Top shape: 10 128 28 28 (1003520)
I0829 13:40:53.765385  9284 net.cpp:156] Memory required for data: 1334681720
I0829 13:40:53.765403  9284 layer_factory.hpp:77] Creating layer bn3b_branch2b
I0829 13:40:53.765422  9284 net.cpp:91] Creating Layer bn3b_branch2b
I0829 13:40:53.765437  9284 net.cpp:425] bn3b_branch2b <- res3b_branch2b
I0829 13:40:53.765453  9284 net.cpp:386] bn3b_branch2b -> res3b_branch2b (in-place)
I0829 13:40:53.765662  9284 net.cpp:141] Setting up bn3b_branch2b
I0829 13:40:53.765687  9284 net.cpp:148] Top shape: 10 128 28 28 (1003520)
I0829 13:40:53.765703  9284 net.cpp:156] Memory required for data: 1338695800
I0829 13:40:53.765728  9284 layer_factory.hpp:77] Creating layer scale3b_branch2b
I0829 13:40:53.765748  9284 net.cpp:91] Creating Layer scale3b_branch2b
I0829 13:40:53.765763  9284 net.cpp:425] scale3b_branch2b <- res3b_branch2b
I0829 13:40:53.765803  9284 net.cpp:386] scale3b_branch2b -> res3b_branch2b (in-place)
I0829 13:40:53.765871  9284 layer_factory.hpp:77] Creating layer scale3b_branch2b
I0829 13:40:53.766013  9284 net.cpp:141] Setting up scale3b_branch2b
I0829 13:40:53.766039  9284 net.cpp:148] Top shape: 10 128 28 28 (1003520)
I0829 13:40:53.766055  9284 net.cpp:156] Memory required for data: 1342709880
I0829 13:40:53.766073  9284 layer_factory.hpp:77] Creating layer res3b_branch2b_relu
I0829 13:40:53.766096  9284 net.cpp:91] Creating Layer res3b_branch2b_relu
I0829 13:40:53.766113  9284 net.cpp:425] res3b_branch2b_relu <- res3b_branch2b
I0829 13:40:53.766131  9284 net.cpp:386] res3b_branch2b_relu -> res3b_branch2b (in-place)
I0829 13:40:53.766150  9284 net.cpp:141] Setting up res3b_branch2b_relu
I0829 13:40:53.766167  9284 net.cpp:148] Top shape: 10 128 28 28 (1003520)
I0829 13:40:53.766182  9284 net.cpp:156] Memory required for data: 1346723960
I0829 13:40:53.766196  9284 layer_factory.hpp:77] Creating layer res3b_branch2c
I0829 13:40:53.766222  9284 net.cpp:91] Creating Layer res3b_branch2c
I0829 13:40:53.766237  9284 net.cpp:425] res3b_branch2c <- res3b_branch2b
I0829 13:40:53.766259  9284 net.cpp:399] res3b_branch2c -> res3b_branch2c
I0829 13:40:53.767019  9284 net.cpp:141] Setting up res3b_branch2c
I0829 13:40:53.767052  9284 net.cpp:148] Top shape: 10 512 28 28 (4014080)
I0829 13:40:53.767068  9284 net.cpp:156] Memory required for data: 1362780280
I0829 13:40:53.767086  9284 layer_factory.hpp:77] Creating layer bn3b_branch2c
I0829 13:40:53.767107  9284 net.cpp:91] Creating Layer bn3b_branch2c
I0829 13:40:53.767127  9284 net.cpp:425] bn3b_branch2c <- res3b_branch2c
I0829 13:40:53.767143  9284 net.cpp:386] bn3b_branch2c -> res3b_branch2c (in-place)
I0829 13:40:53.767360  9284 net.cpp:141] Setting up bn3b_branch2c
I0829 13:40:53.767385  9284 net.cpp:148] Top shape: 10 512 28 28 (4014080)
I0829 13:40:53.767402  9284 net.cpp:156] Memory required for data: 1378836600
I0829 13:40:53.767422  9284 layer_factory.hpp:77] Creating layer scale3b_branch2c
I0829 13:40:53.767442  9284 net.cpp:91] Creating Layer scale3b_branch2c
I0829 13:40:53.767457  9284 net.cpp:425] scale3b_branch2c <- res3b_branch2c
I0829 13:40:53.767478  9284 net.cpp:386] scale3b_branch2c -> res3b_branch2c (in-place)
I0829 13:40:53.767539  9284 layer_factory.hpp:77] Creating layer scale3b_branch2c
I0829 13:40:53.767685  9284 net.cpp:141] Setting up scale3b_branch2c
I0829 13:40:53.767714  9284 net.cpp:148] Top shape: 10 512 28 28 (4014080)
I0829 13:40:53.767729  9284 net.cpp:156] Memory required for data: 1394892920
I0829 13:40:53.767748  9284 layer_factory.hpp:77] Creating layer res3b
I0829 13:40:53.767767  9284 net.cpp:91] Creating Layer res3b
I0829 13:40:53.767782  9284 net.cpp:425] res3b <- res3a_res3a_relu_0_split_1
I0829 13:40:53.767798  9284 net.cpp:425] res3b <- res3b_branch2c
I0829 13:40:53.767817  9284 net.cpp:399] res3b -> res3b
I0829 13:40:53.767861  9284 net.cpp:141] Setting up res3b
I0829 13:40:53.767886  9284 net.cpp:148] Top shape: 10 512 28 28 (4014080)
I0829 13:40:53.767902  9284 net.cpp:156] Memory required for data: 1410949240
I0829 13:40:53.767916  9284 layer_factory.hpp:77] Creating layer res3b_relu
I0829 13:40:53.767936  9284 net.cpp:91] Creating Layer res3b_relu
I0829 13:40:53.767952  9284 net.cpp:425] res3b_relu <- res3b
I0829 13:40:53.767968  9284 net.cpp:386] res3b_relu -> res3b (in-place)
I0829 13:40:53.767987  9284 net.cpp:141] Setting up res3b_relu
I0829 13:40:53.768004  9284 net.cpp:148] Top shape: 10 512 28 28 (4014080)
I0829 13:40:53.768019  9284 net.cpp:156] Memory required for data: 1427005560
I0829 13:40:53.768033  9284 layer_factory.hpp:77] Creating layer res3b_res3b_relu_0_split
I0829 13:40:53.768050  9284 net.cpp:91] Creating Layer res3b_res3b_relu_0_split
I0829 13:40:53.768064  9284 net.cpp:425] res3b_res3b_relu_0_split <- res3b
I0829 13:40:53.768080  9284 net.cpp:399] res3b_res3b_relu_0_split -> res3b_res3b_relu_0_split_0
I0829 13:40:53.768101  9284 net.cpp:399] res3b_res3b_relu_0_split -> res3b_res3b_relu_0_split_1
I0829 13:40:53.768172  9284 net.cpp:141] Setting up res3b_res3b_relu_0_split
I0829 13:40:53.768196  9284 net.cpp:148] Top shape: 10 512 28 28 (4014080)
I0829 13:40:53.768214  9284 net.cpp:148] Top shape: 10 512 28 28 (4014080)
I0829 13:40:53.768229  9284 net.cpp:156] Memory required for data: 1459118200
I0829 13:40:53.768244  9284 layer_factory.hpp:77] Creating layer res3c_branch2a
I0829 13:40:53.768270  9284 net.cpp:91] Creating Layer res3c_branch2a
I0829 13:40:53.768287  9284 net.cpp:425] res3c_branch2a <- res3b_res3b_relu_0_split_0
I0829 13:40:53.768306  9284 net.cpp:399] res3c_branch2a -> res3c_branch2a
I0829 13:40:53.769079  9284 net.cpp:141] Setting up res3c_branch2a
I0829 13:40:53.769107  9284 net.cpp:148] Top shape: 10 128 28 28 (1003520)
I0829 13:40:53.769122  9284 net.cpp:156] Memory required for data: 1463132280
I0829 13:40:53.769140  9284 layer_factory.hpp:77] Creating layer bn3c_branch2a
I0829 13:40:53.769157  9284 net.cpp:91] Creating Layer bn3c_branch2a
I0829 13:40:53.769173  9284 net.cpp:425] bn3c_branch2a <- res3c_branch2a
I0829 13:40:53.769191  9284 net.cpp:386] bn3c_branch2a -> res3c_branch2a (in-place)
I0829 13:40:53.769399  9284 net.cpp:141] Setting up bn3c_branch2a
I0829 13:40:53.769425  9284 net.cpp:148] Top shape: 10 128 28 28 (1003520)
I0829 13:40:53.769440  9284 net.cpp:156] Memory required for data: 1467146360
I0829 13:40:53.769461  9284 layer_factory.hpp:77] Creating layer scale3c_branch2a
I0829 13:40:53.769481  9284 net.cpp:91] Creating Layer scale3c_branch2a
I0829 13:40:53.769496  9284 net.cpp:425] scale3c_branch2a <- res3c_branch2a
I0829 13:40:53.769513  9284 net.cpp:386] scale3c_branch2a -> res3c_branch2a (in-place)
I0829 13:40:53.769577  9284 layer_factory.hpp:77] Creating layer scale3c_branch2a
I0829 13:40:53.769721  9284 net.cpp:141] Setting up scale3c_branch2a
I0829 13:40:53.769745  9284 net.cpp:148] Top shape: 10 128 28 28 (1003520)
I0829 13:40:53.769762  9284 net.cpp:156] Memory required for data: 1471160440
I0829 13:40:53.769779  9284 layer_factory.hpp:77] Creating layer res3c_branch2a_relu
I0829 13:40:53.769800  9284 net.cpp:91] Creating Layer res3c_branch2a_relu
I0829 13:40:53.769820  9284 net.cpp:425] res3c_branch2a_relu <- res3c_branch2a
I0829 13:40:53.769841  9284 net.cpp:386] res3c_branch2a_relu -> res3c_branch2a (in-place)
I0829 13:40:53.769860  9284 net.cpp:141] Setting up res3c_branch2a_relu
I0829 13:40:53.769877  9284 net.cpp:148] Top shape: 10 128 28 28 (1003520)
I0829 13:40:53.769891  9284 net.cpp:156] Memory required for data: 1475174520
I0829 13:40:53.769906  9284 layer_factory.hpp:77] Creating layer res3c_branch2b
I0829 13:40:53.769927  9284 net.cpp:91] Creating Layer res3c_branch2b
I0829 13:40:53.769942  9284 net.cpp:425] res3c_branch2b <- res3c_branch2a
I0829 13:40:53.769963  9284 net.cpp:399] res3c_branch2b -> res3c_branch2b
I0829 13:40:53.772106  9284 net.cpp:141] Setting up res3c_branch2b
I0829 13:40:53.772137  9284 net.cpp:148] Top shape: 10 128 28 28 (1003520)
I0829 13:40:53.772153  9284 net.cpp:156] Memory required for data: 1479188600
I0829 13:40:53.772171  9284 layer_factory.hpp:77] Creating layer bn3c_branch2b
I0829 13:40:53.772191  9284 net.cpp:91] Creating Layer bn3c_branch2b
I0829 13:40:53.772207  9284 net.cpp:425] bn3c_branch2b <- res3c_branch2b
I0829 13:40:53.772223  9284 net.cpp:386] bn3c_branch2b -> res3c_branch2b (in-place)
I0829 13:40:53.772435  9284 net.cpp:141] Setting up bn3c_branch2b
I0829 13:40:53.772461  9284 net.cpp:148] Top shape: 10 128 28 28 (1003520)
I0829 13:40:53.772477  9284 net.cpp:156] Memory required for data: 1483202680
I0829 13:40:53.772498  9284 layer_factory.hpp:77] Creating layer scale3c_branch2b
I0829 13:40:53.772518  9284 net.cpp:91] Creating Layer scale3c_branch2b
I0829 13:40:53.772534  9284 net.cpp:425] scale3c_branch2b <- res3c_branch2b
I0829 13:40:53.772552  9284 net.cpp:386] scale3c_branch2b -> res3c_branch2b (in-place)
I0829 13:40:53.772624  9284 layer_factory.hpp:77] Creating layer scale3c_branch2b
I0829 13:40:53.772773  9284 net.cpp:141] Setting up scale3c_branch2b
I0829 13:40:53.772799  9284 net.cpp:148] Top shape: 10 128 28 28 (1003520)
I0829 13:40:53.772832  9284 net.cpp:156] Memory required for data: 1487216760
I0829 13:40:53.772853  9284 layer_factory.hpp:77] Creating layer res3c_branch2b_relu
I0829 13:40:53.772876  9284 net.cpp:91] Creating Layer res3c_branch2b_relu
I0829 13:40:53.772892  9284 net.cpp:425] res3c_branch2b_relu <- res3c_branch2b
I0829 13:40:53.772909  9284 net.cpp:386] res3c_branch2b_relu -> res3c_branch2b (in-place)
I0829 13:40:53.772928  9284 net.cpp:141] Setting up res3c_branch2b_relu
I0829 13:40:53.772945  9284 net.cpp:148] Top shape: 10 128 28 28 (1003520)
I0829 13:40:53.772960  9284 net.cpp:156] Memory required for data: 1491230840
I0829 13:40:53.772974  9284 layer_factory.hpp:77] Creating layer res3c_branch2c
I0829 13:40:53.773000  9284 net.cpp:91] Creating Layer res3c_branch2c
I0829 13:40:53.773015  9284 net.cpp:425] res3c_branch2c <- res3c_branch2b
I0829 13:40:53.773037  9284 net.cpp:399] res3c_branch2c -> res3c_branch2c
I0829 13:40:53.773820  9284 net.cpp:141] Setting up res3c_branch2c
I0829 13:40:53.773846  9284 net.cpp:148] Top shape: 10 512 28 28 (4014080)
I0829 13:40:53.773862  9284 net.cpp:156] Memory required for data: 1507287160
I0829 13:40:53.773880  9284 layer_factory.hpp:77] Creating layer bn3c_branch2c
I0829 13:40:53.773897  9284 net.cpp:91] Creating Layer bn3c_branch2c
I0829 13:40:53.773913  9284 net.cpp:425] bn3c_branch2c <- res3c_branch2c
I0829 13:40:53.773933  9284 net.cpp:386] bn3c_branch2c -> res3c_branch2c (in-place)
I0829 13:40:53.774144  9284 net.cpp:141] Setting up bn3c_branch2c
I0829 13:40:53.774169  9284 net.cpp:148] Top shape: 10 512 28 28 (4014080)
I0829 13:40:53.774186  9284 net.cpp:156] Memory required for data: 1523343480
I0829 13:40:53.774206  9284 layer_factory.hpp:77] Creating layer scale3c_branch2c
I0829 13:40:53.774225  9284 net.cpp:91] Creating Layer scale3c_branch2c
I0829 13:40:53.774241  9284 net.cpp:425] scale3c_branch2c <- res3c_branch2c
I0829 13:40:53.774257  9284 net.cpp:386] scale3c_branch2c -> res3c_branch2c (in-place)
I0829 13:40:53.774320  9284 layer_factory.hpp:77] Creating layer scale3c_branch2c
I0829 13:40:53.774459  9284 net.cpp:141] Setting up scale3c_branch2c
I0829 13:40:53.774483  9284 net.cpp:148] Top shape: 10 512 28 28 (4014080)
I0829 13:40:53.774500  9284 net.cpp:156] Memory required for data: 1539399800
I0829 13:40:53.774518  9284 layer_factory.hpp:77] Creating layer res3c
I0829 13:40:53.774541  9284 net.cpp:91] Creating Layer res3c
I0829 13:40:53.774559  9284 net.cpp:425] res3c <- res3b_res3b_relu_0_split_1
I0829 13:40:53.774575  9284 net.cpp:425] res3c <- res3c_branch2c
I0829 13:40:53.774592  9284 net.cpp:399] res3c -> res3c
I0829 13:40:53.774636  9284 net.cpp:141] Setting up res3c
I0829 13:40:53.774660  9284 net.cpp:148] Top shape: 10 512 28 28 (4014080)
I0829 13:40:53.774677  9284 net.cpp:156] Memory required for data: 1555456120
I0829 13:40:53.774691  9284 layer_factory.hpp:77] Creating layer res3c_relu
I0829 13:40:53.774708  9284 net.cpp:91] Creating Layer res3c_relu
I0829 13:40:53.774724  9284 net.cpp:425] res3c_relu <- res3c
I0829 13:40:53.774744  9284 net.cpp:386] res3c_relu -> res3c (in-place)
I0829 13:40:53.774762  9284 net.cpp:141] Setting up res3c_relu
I0829 13:40:53.774778  9284 net.cpp:148] Top shape: 10 512 28 28 (4014080)
I0829 13:40:53.774793  9284 net.cpp:156] Memory required for data: 1571512440
I0829 13:40:53.774808  9284 layer_factory.hpp:77] Creating layer res3c_res3c_relu_0_split
I0829 13:40:53.774826  9284 net.cpp:91] Creating Layer res3c_res3c_relu_0_split
I0829 13:40:53.774839  9284 net.cpp:425] res3c_res3c_relu_0_split <- res3c
I0829 13:40:53.774858  9284 net.cpp:399] res3c_res3c_relu_0_split -> res3c_res3c_relu_0_split_0
I0829 13:40:53.774876  9284 net.cpp:399] res3c_res3c_relu_0_split -> res3c_res3c_relu_0_split_1
I0829 13:40:53.774930  9284 net.cpp:141] Setting up res3c_res3c_relu_0_split
I0829 13:40:53.774953  9284 net.cpp:148] Top shape: 10 512 28 28 (4014080)
I0829 13:40:53.774971  9284 net.cpp:148] Top shape: 10 512 28 28 (4014080)
I0829 13:40:53.774984  9284 net.cpp:156] Memory required for data: 1603625080
I0829 13:40:53.775015  9284 layer_factory.hpp:77] Creating layer res3d_branch2a
I0829 13:40:53.775046  9284 net.cpp:91] Creating Layer res3d_branch2a
I0829 13:40:53.775066  9284 net.cpp:425] res3d_branch2a <- res3c_res3c_relu_0_split_0
I0829 13:40:53.775085  9284 net.cpp:399] res3d_branch2a -> res3d_branch2a
I0829 13:40:53.776525  9284 net.cpp:141] Setting up res3d_branch2a
I0829 13:40:53.776556  9284 net.cpp:148] Top shape: 10 128 28 28 (1003520)
I0829 13:40:53.776571  9284 net.cpp:156] Memory required for data: 1607639160
I0829 13:40:53.776589  9284 layer_factory.hpp:77] Creating layer bn3d_branch2a
I0829 13:40:53.776618  9284 net.cpp:91] Creating Layer bn3d_branch2a
I0829 13:40:53.776635  9284 net.cpp:425] bn3d_branch2a <- res3d_branch2a
I0829 13:40:53.776652  9284 net.cpp:386] bn3d_branch2a -> res3d_branch2a (in-place)
I0829 13:40:53.776870  9284 net.cpp:141] Setting up bn3d_branch2a
I0829 13:40:53.776895  9284 net.cpp:148] Top shape: 10 128 28 28 (1003520)
I0829 13:40:53.776911  9284 net.cpp:156] Memory required for data: 1611653240
I0829 13:40:53.776960  9284 layer_factory.hpp:77] Creating layer scale3d_branch2a
I0829 13:40:53.776983  9284 net.cpp:91] Creating Layer scale3d_branch2a
I0829 13:40:53.777000  9284 net.cpp:425] scale3d_branch2a <- res3d_branch2a
I0829 13:40:53.777024  9284 net.cpp:386] scale3d_branch2a -> res3d_branch2a (in-place)
I0829 13:40:53.777088  9284 layer_factory.hpp:77] Creating layer scale3d_branch2a
I0829 13:40:53.777228  9284 net.cpp:141] Setting up scale3d_branch2a
I0829 13:40:53.777254  9284 net.cpp:148] Top shape: 10 128 28 28 (1003520)
I0829 13:40:53.777271  9284 net.cpp:156] Memory required for data: 1615667320
I0829 13:40:53.777288  9284 layer_factory.hpp:77] Creating layer res3d_branch2a_relu
I0829 13:40:53.777307  9284 net.cpp:91] Creating Layer res3d_branch2a_relu
I0829 13:40:53.777323  9284 net.cpp:425] res3d_branch2a_relu <- res3d_branch2a
I0829 13:40:53.777339  9284 net.cpp:386] res3d_branch2a_relu -> res3d_branch2a (in-place)
I0829 13:40:53.777357  9284 net.cpp:141] Setting up res3d_branch2a_relu
I0829 13:40:53.777374  9284 net.cpp:148] Top shape: 10 128 28 28 (1003520)
I0829 13:40:53.777389  9284 net.cpp:156] Memory required for data: 1619681400
I0829 13:40:53.777403  9284 layer_factory.hpp:77] Creating layer res3d_branch2b
I0829 13:40:53.777425  9284 net.cpp:91] Creating Layer res3d_branch2b
I0829 13:40:53.777439  9284 net.cpp:425] res3d_branch2b <- res3d_branch2a
I0829 13:40:53.777460  9284 net.cpp:399] res3d_branch2b -> res3d_branch2b
I0829 13:40:53.779589  9284 net.cpp:141] Setting up res3d_branch2b
I0829 13:40:53.779620  9284 net.cpp:148] Top shape: 10 128 28 28 (1003520)
I0829 13:40:53.779635  9284 net.cpp:156] Memory required for data: 1623695480
I0829 13:40:53.779654  9284 layer_factory.hpp:77] Creating layer bn3d_branch2b
I0829 13:40:53.779672  9284 net.cpp:91] Creating Layer bn3d_branch2b
I0829 13:40:53.779687  9284 net.cpp:425] bn3d_branch2b <- res3d_branch2b
I0829 13:40:53.779705  9284 net.cpp:386] bn3d_branch2b -> res3d_branch2b (in-place)
I0829 13:40:53.779920  9284 net.cpp:141] Setting up bn3d_branch2b
I0829 13:40:53.779945  9284 net.cpp:148] Top shape: 10 128 28 28 (1003520)
I0829 13:40:53.779961  9284 net.cpp:156] Memory required for data: 1627709560
I0829 13:40:53.779983  9284 layer_factory.hpp:77] Creating layer scale3d_branch2b
I0829 13:40:53.780002  9284 net.cpp:91] Creating Layer scale3d_branch2b
I0829 13:40:53.780019  9284 net.cpp:425] scale3d_branch2b <- res3d_branch2b
I0829 13:40:53.780035  9284 net.cpp:386] scale3d_branch2b -> res3d_branch2b (in-place)
I0829 13:40:53.780105  9284 layer_factory.hpp:77] Creating layer scale3d_branch2b
I0829 13:40:53.780252  9284 net.cpp:141] Setting up scale3d_branch2b
I0829 13:40:53.780277  9284 net.cpp:148] Top shape: 10 128 28 28 (1003520)
I0829 13:40:53.780294  9284 net.cpp:156] Memory required for data: 1631723640
I0829 13:40:53.780313  9284 layer_factory.hpp:77] Creating layer res3d_branch2b_relu
I0829 13:40:53.780330  9284 net.cpp:91] Creating Layer res3d_branch2b_relu
I0829 13:40:53.780345  9284 net.cpp:425] res3d_branch2b_relu <- res3d_branch2b
I0829 13:40:53.780386  9284 net.cpp:386] res3d_branch2b_relu -> res3d_branch2b (in-place)
I0829 13:40:53.780407  9284 net.cpp:141] Setting up res3d_branch2b_relu
I0829 13:40:53.780426  9284 net.cpp:148] Top shape: 10 128 28 28 (1003520)
I0829 13:40:53.780441  9284 net.cpp:156] Memory required for data: 1635737720
I0829 13:40:53.780455  9284 layer_factory.hpp:77] Creating layer res3d_branch2c
I0829 13:40:53.780475  9284 net.cpp:91] Creating Layer res3d_branch2c
I0829 13:40:53.780493  9284 net.cpp:425] res3d_branch2c <- res3d_branch2b
I0829 13:40:53.780513  9284 net.cpp:399] res3d_branch2c -> res3d_branch2c
I0829 13:40:53.781296  9284 net.cpp:141] Setting up res3d_branch2c
I0829 13:40:53.781322  9284 net.cpp:148] Top shape: 10 512 28 28 (4014080)
I0829 13:40:53.781343  9284 net.cpp:156] Memory required for data: 1651794040
I0829 13:40:53.781360  9284 layer_factory.hpp:77] Creating layer bn3d_branch2c
I0829 13:40:53.781383  9284 net.cpp:91] Creating Layer bn3d_branch2c
I0829 13:40:53.781399  9284 net.cpp:425] bn3d_branch2c <- res3d_branch2c
I0829 13:40:53.781414  9284 net.cpp:386] bn3d_branch2c -> res3d_branch2c (in-place)
I0829 13:40:53.781628  9284 net.cpp:141] Setting up bn3d_branch2c
I0829 13:40:53.781653  9284 net.cpp:148] Top shape: 10 512 28 28 (4014080)
I0829 13:40:53.781671  9284 net.cpp:156] Memory required for data: 1667850360
I0829 13:40:53.781690  9284 layer_factory.hpp:77] Creating layer scale3d_branch2c
I0829 13:40:53.781713  9284 net.cpp:91] Creating Layer scale3d_branch2c
I0829 13:40:53.781733  9284 net.cpp:425] scale3d_branch2c <- res3d_branch2c
I0829 13:40:53.781749  9284 net.cpp:386] scale3d_branch2c -> res3d_branch2c (in-place)
I0829 13:40:53.781813  9284 layer_factory.hpp:77] Creating layer scale3d_branch2c
I0829 13:40:53.781956  9284 net.cpp:141] Setting up scale3d_branch2c
I0829 13:40:53.781982  9284 net.cpp:148] Top shape: 10 512 28 28 (4014080)
I0829 13:40:53.781997  9284 net.cpp:156] Memory required for data: 1683906680
I0829 13:40:53.782016  9284 layer_factory.hpp:77] Creating layer res3d
I0829 13:40:53.782034  9284 net.cpp:91] Creating Layer res3d
I0829 13:40:53.782052  9284 net.cpp:425] res3d <- res3c_res3c_relu_0_split_1
I0829 13:40:53.782068  9284 net.cpp:425] res3d <- res3d_branch2c
I0829 13:40:53.782088  9284 net.cpp:399] res3d -> res3d
I0829 13:40:53.782130  9284 net.cpp:141] Setting up res3d
I0829 13:40:53.782156  9284 net.cpp:148] Top shape: 10 512 28 28 (4014080)
I0829 13:40:53.782172  9284 net.cpp:156] Memory required for data: 1699963000
I0829 13:40:53.782186  9284 layer_factory.hpp:77] Creating layer res3d_relu
I0829 13:40:53.782204  9284 net.cpp:91] Creating Layer res3d_relu
I0829 13:40:53.782219  9284 net.cpp:425] res3d_relu <- res3d
I0829 13:40:53.782235  9284 net.cpp:386] res3d_relu -> res3d (in-place)
I0829 13:40:53.782253  9284 net.cpp:141] Setting up res3d_relu
I0829 13:40:53.782269  9284 net.cpp:148] Top shape: 10 512 28 28 (4014080)
I0829 13:40:53.782284  9284 net.cpp:156] Memory required for data: 1716019320
I0829 13:40:53.782299  9284 layer_factory.hpp:77] Creating layer res3d_res3d_relu_0_split
I0829 13:40:53.782316  9284 net.cpp:91] Creating Layer res3d_res3d_relu_0_split
I0829 13:40:53.782330  9284 net.cpp:425] res3d_res3d_relu_0_split <- res3d
I0829 13:40:53.782351  9284 net.cpp:399] res3d_res3d_relu_0_split -> res3d_res3d_relu_0_split_0
I0829 13:40:53.782372  9284 net.cpp:399] res3d_res3d_relu_0_split -> res3d_res3d_relu_0_split_1
I0829 13:40:53.782423  9284 net.cpp:141] Setting up res3d_res3d_relu_0_split
I0829 13:40:53.782446  9284 net.cpp:148] Top shape: 10 512 28 28 (4014080)
I0829 13:40:53.782464  9284 net.cpp:148] Top shape: 10 512 28 28 (4014080)
I0829 13:40:53.782479  9284 net.cpp:156] Memory required for data: 1748131960
I0829 13:40:53.782493  9284 layer_factory.hpp:77] Creating layer res4a_branch1
I0829 13:40:53.782516  9284 net.cpp:91] Creating Layer res4a_branch1
I0829 13:40:53.782533  9284 net.cpp:425] res4a_branch1 <- res3d_res3d_relu_0_split_0
I0829 13:40:53.782551  9284 net.cpp:399] res4a_branch1 -> res4a_branch1
I0829 13:40:53.784356  9284 net.cpp:141] Setting up res4a_branch1
I0829 13:40:53.784387  9284 net.cpp:148] Top shape: 10 1024 14 14 (2007040)
I0829 13:40:53.784404  9284 net.cpp:156] Memory required for data: 1756160120
I0829 13:40:53.784421  9284 layer_factory.hpp:77] Creating layer bn4a_branch1
I0829 13:40:53.784447  9284 net.cpp:91] Creating Layer bn4a_branch1
I0829 13:40:53.784464  9284 net.cpp:425] bn4a_branch1 <- res4a_branch1
I0829 13:40:53.784482  9284 net.cpp:386] bn4a_branch1 -> res4a_branch1 (in-place)
I0829 13:40:53.784721  9284 net.cpp:141] Setting up bn4a_branch1
I0829 13:40:53.784747  9284 net.cpp:148] Top shape: 10 1024 14 14 (2007040)
I0829 13:40:53.784763  9284 net.cpp:156] Memory required for data: 1764188280
I0829 13:40:53.784785  9284 layer_factory.hpp:77] Creating layer scale4a_branch1
I0829 13:40:53.784807  9284 net.cpp:91] Creating Layer scale4a_branch1
I0829 13:40:53.784826  9284 net.cpp:425] scale4a_branch1 <- res4a_branch1
I0829 13:40:53.784842  9284 net.cpp:386] scale4a_branch1 -> res4a_branch1 (in-place)
I0829 13:40:53.784903  9284 layer_factory.hpp:77] Creating layer scale4a_branch1
I0829 13:40:53.785055  9284 net.cpp:141] Setting up scale4a_branch1
I0829 13:40:53.785081  9284 net.cpp:148] Top shape: 10 1024 14 14 (2007040)
I0829 13:40:53.785097  9284 net.cpp:156] Memory required for data: 1772216440
I0829 13:40:53.785115  9284 layer_factory.hpp:77] Creating layer res4a_branch2a
I0829 13:40:53.785142  9284 net.cpp:91] Creating Layer res4a_branch2a
I0829 13:40:53.785161  9284 net.cpp:425] res4a_branch2a <- res3d_res3d_relu_0_split_1
I0829 13:40:53.785181  9284 net.cpp:399] res4a_branch2a -> res4a_branch2a
I0829 13:40:53.786530  9284 net.cpp:141] Setting up res4a_branch2a
I0829 13:40:53.786556  9284 net.cpp:148] Top shape: 10 256 14 14 (501760)
I0829 13:40:53.786571  9284 net.cpp:156] Memory required for data: 1774223480
I0829 13:40:53.786587  9284 layer_factory.hpp:77] Creating layer bn4a_branch2a
I0829 13:40:53.786607  9284 net.cpp:91] Creating Layer bn4a_branch2a
I0829 13:40:53.786622  9284 net.cpp:425] bn4a_branch2a <- res4a_branch2a
I0829 13:40:53.786638  9284 net.cpp:386] bn4a_branch2a -> res4a_branch2a (in-place)
I0829 13:40:53.786841  9284 net.cpp:141] Setting up bn4a_branch2a
I0829 13:40:53.786866  9284 net.cpp:148] Top shape: 10 256 14 14 (501760)
I0829 13:40:53.786882  9284 net.cpp:156] Memory required for data: 1776230520
I0829 13:40:53.786902  9284 layer_factory.hpp:77] Creating layer scale4a_branch2a
I0829 13:40:53.786926  9284 net.cpp:91] Creating Layer scale4a_branch2a
I0829 13:40:53.786944  9284 net.cpp:425] scale4a_branch2a <- res4a_branch2a
I0829 13:40:53.786962  9284 net.cpp:386] scale4a_branch2a -> res4a_branch2a (in-place)
I0829 13:40:53.787022  9284 layer_factory.hpp:77] Creating layer scale4a_branch2a
I0829 13:40:53.787160  9284 net.cpp:141] Setting up scale4a_branch2a
I0829 13:40:53.787185  9284 net.cpp:148] Top shape: 10 256 14 14 (501760)
I0829 13:40:53.787200  9284 net.cpp:156] Memory required for data: 1778237560
I0829 13:40:53.787220  9284 layer_factory.hpp:77] Creating layer res4a_branch2a_relu
I0829 13:40:53.787238  9284 net.cpp:91] Creating Layer res4a_branch2a_relu
I0829 13:40:53.787253  9284 net.cpp:425] res4a_branch2a_relu <- res4a_branch2a
I0829 13:40:53.787273  9284 net.cpp:386] res4a_branch2a_relu -> res4a_branch2a (in-place)
I0829 13:40:53.787293  9284 net.cpp:141] Setting up res4a_branch2a_relu
I0829 13:40:53.787310  9284 net.cpp:148] Top shape: 10 256 14 14 (501760)
I0829 13:40:53.787325  9284 net.cpp:156] Memory required for data: 1780244600
I0829 13:40:53.787339  9284 layer_factory.hpp:77] Creating layer res4a_branch2b
I0829 13:40:53.787365  9284 net.cpp:91] Creating Layer res4a_branch2b
I0829 13:40:53.787382  9284 net.cpp:425] res4a_branch2b <- res4a_branch2a
I0829 13:40:53.787400  9284 net.cpp:399] res4a_branch2b -> res4a_branch2b
I0829 13:40:53.793921  9284 net.cpp:141] Setting up res4a_branch2b
I0829 13:40:53.793968  9284 net.cpp:148] Top shape: 10 256 14 14 (501760)
I0829 13:40:53.793983  9284 net.cpp:156] Memory required for data: 1782251640
I0829 13:40:53.794034  9284 layer_factory.hpp:77] Creating layer bn4a_branch2b
I0829 13:40:53.794060  9284 net.cpp:91] Creating Layer bn4a_branch2b
I0829 13:40:53.794078  9284 net.cpp:425] bn4a_branch2b <- res4a_branch2b
I0829 13:40:53.794097  9284 net.cpp:386] bn4a_branch2b -> res4a_branch2b (in-place)
I0829 13:40:53.794311  9284 net.cpp:141] Setting up bn4a_branch2b
I0829 13:40:53.794337  9284 net.cpp:148] Top shape: 10 256 14 14 (501760)
I0829 13:40:53.794353  9284 net.cpp:156] Memory required for data: 1784258680
I0829 13:40:53.794373  9284 layer_factory.hpp:77] Creating layer scale4a_branch2b
I0829 13:40:53.794394  9284 net.cpp:91] Creating Layer scale4a_branch2b
I0829 13:40:53.794414  9284 net.cpp:425] scale4a_branch2b <- res4a_branch2b
I0829 13:40:53.794437  9284 net.cpp:386] scale4a_branch2b -> res4a_branch2b (in-place)
I0829 13:40:53.794498  9284 layer_factory.hpp:77] Creating layer scale4a_branch2b
I0829 13:40:53.794646  9284 net.cpp:141] Setting up scale4a_branch2b
I0829 13:40:53.794672  9284 net.cpp:148] Top shape: 10 256 14 14 (501760)
I0829 13:40:53.794687  9284 net.cpp:156] Memory required for data: 1786265720
I0829 13:40:53.794705  9284 layer_factory.hpp:77] Creating layer res4a_branch2b_relu
I0829 13:40:53.794724  9284 net.cpp:91] Creating Layer res4a_branch2b_relu
I0829 13:40:53.794739  9284 net.cpp:425] res4a_branch2b_relu <- res4a_branch2b
I0829 13:40:53.794755  9284 net.cpp:386] res4a_branch2b_relu -> res4a_branch2b (in-place)
I0829 13:40:53.794775  9284 net.cpp:141] Setting up res4a_branch2b_relu
I0829 13:40:53.794790  9284 net.cpp:148] Top shape: 10 256 14 14 (501760)
I0829 13:40:53.794805  9284 net.cpp:156] Memory required for data: 1788272760
I0829 13:40:53.794819  9284 layer_factory.hpp:77] Creating layer res4a_branch2c
I0829 13:40:53.794844  9284 net.cpp:91] Creating Layer res4a_branch2c
I0829 13:40:53.794860  9284 net.cpp:425] res4a_branch2c <- res4a_branch2b
I0829 13:40:53.794881  9284 net.cpp:399] res4a_branch2c -> res4a_branch2c
I0829 13:40:53.797996  9284 net.cpp:141] Setting up res4a_branch2c
I0829 13:40:53.798027  9284 net.cpp:148] Top shape: 10 1024 14 14 (2007040)
I0829 13:40:53.798043  9284 net.cpp:156] Memory required for data: 1796300920
I0829 13:40:53.798063  9284 layer_factory.hpp:77] Creating layer bn4a_branch2c
I0829 13:40:53.798082  9284 net.cpp:91] Creating Layer bn4a_branch2c
I0829 13:40:53.798097  9284 net.cpp:425] bn4a_branch2c <- res4a_branch2c
I0829 13:40:53.798117  9284 net.cpp:386] bn4a_branch2c -> res4a_branch2c (in-place)
I0829 13:40:53.798339  9284 net.cpp:141] Setting up bn4a_branch2c
I0829 13:40:53.798365  9284 net.cpp:148] Top shape: 10 1024 14 14 (2007040)
I0829 13:40:53.798380  9284 net.cpp:156] Memory required for data: 1804329080
I0829 13:40:53.798401  9284 layer_factory.hpp:77] Creating layer scale4a_branch2c
I0829 13:40:53.798421  9284 net.cpp:91] Creating Layer scale4a_branch2c
I0829 13:40:53.798437  9284 net.cpp:425] scale4a_branch2c <- res4a_branch2c
I0829 13:40:53.798454  9284 net.cpp:386] scale4a_branch2c -> res4a_branch2c (in-place)
I0829 13:40:53.798516  9284 layer_factory.hpp:77] Creating layer scale4a_branch2c
I0829 13:40:53.798666  9284 net.cpp:141] Setting up scale4a_branch2c
I0829 13:40:53.798691  9284 net.cpp:148] Top shape: 10 1024 14 14 (2007040)
I0829 13:40:53.798707  9284 net.cpp:156] Memory required for data: 1812357240
I0829 13:40:53.798725  9284 layer_factory.hpp:77] Creating layer res4a
I0829 13:40:53.798748  9284 net.cpp:91] Creating Layer res4a
I0829 13:40:53.798774  9284 net.cpp:425] res4a <- res4a_branch1
I0829 13:40:53.798792  9284 net.cpp:425] res4a <- res4a_branch2c
I0829 13:40:53.798810  9284 net.cpp:399] res4a -> res4a
I0829 13:40:53.798854  9284 net.cpp:141] Setting up res4a
I0829 13:40:53.798879  9284 net.cpp:148] Top shape: 10 1024 14 14 (2007040)
I0829 13:40:53.798894  9284 net.cpp:156] Memory required for data: 1820385400
I0829 13:40:53.798908  9284 layer_factory.hpp:77] Creating layer res4a_relu
I0829 13:40:53.798925  9284 net.cpp:91] Creating Layer res4a_relu
I0829 13:40:53.798940  9284 net.cpp:425] res4a_relu <- res4a
I0829 13:40:53.798982  9284 net.cpp:386] res4a_relu -> res4a (in-place)
I0829 13:40:53.799005  9284 net.cpp:141] Setting up res4a_relu
I0829 13:40:53.799021  9284 net.cpp:148] Top shape: 10 1024 14 14 (2007040)
I0829 13:40:53.799036  9284 net.cpp:156] Memory required for data: 1828413560
I0829 13:40:53.799051  9284 layer_factory.hpp:77] Creating layer res4a_res4a_relu_0_split
I0829 13:40:53.799096  9284 net.cpp:91] Creating Layer res4a_res4a_relu_0_split
I0829 13:40:53.799116  9284 net.cpp:425] res4a_res4a_relu_0_split <- res4a
I0829 13:40:53.799134  9284 net.cpp:399] res4a_res4a_relu_0_split -> res4a_res4a_relu_0_split_0
I0829 13:40:53.799154  9284 net.cpp:399] res4a_res4a_relu_0_split -> res4a_res4a_relu_0_split_1
I0829 13:40:53.799211  9284 net.cpp:141] Setting up res4a_res4a_relu_0_split
I0829 13:40:53.799237  9284 net.cpp:148] Top shape: 10 1024 14 14 (2007040)
I0829 13:40:53.799252  9284 net.cpp:148] Top shape: 10 1024 14 14 (2007040)
I0829 13:40:53.799268  9284 net.cpp:156] Memory required for data: 1844469880
I0829 13:40:53.799283  9284 layer_factory.hpp:77] Creating layer res4b_branch2a
I0829 13:40:53.799304  9284 net.cpp:91] Creating Layer res4b_branch2a
I0829 13:40:53.799320  9284 net.cpp:425] res4b_branch2a <- res4a_res4a_relu_0_split_0
I0829 13:40:53.799342  9284 net.cpp:399] res4b_branch2a -> res4b_branch2a
I0829 13:40:53.802438  9284 net.cpp:141] Setting up res4b_branch2a
I0829 13:40:53.802469  9284 net.cpp:148] Top shape: 10 256 14 14 (501760)
I0829 13:40:53.802484  9284 net.cpp:156] Memory required for data: 1846476920
I0829 13:40:53.802500  9284 layer_factory.hpp:77] Creating layer bn4b_branch2a
I0829 13:40:53.802520  9284 net.cpp:91] Creating Layer bn4b_branch2a
I0829 13:40:53.802534  9284 net.cpp:425] bn4b_branch2a <- res4b_branch2a
I0829 13:40:53.802551  9284 net.cpp:386] bn4b_branch2a -> res4b_branch2a (in-place)
I0829 13:40:53.802764  9284 net.cpp:141] Setting up bn4b_branch2a
I0829 13:40:53.802790  9284 net.cpp:148] Top shape: 10 256 14 14 (501760)
I0829 13:40:53.802805  9284 net.cpp:156] Memory required for data: 1848483960
I0829 13:40:53.802829  9284 layer_factory.hpp:77] Creating layer scale4b_branch2a
I0829 13:40:53.802850  9284 net.cpp:91] Creating Layer scale4b_branch2a
I0829 13:40:53.802865  9284 net.cpp:425] scale4b_branch2a <- res4b_branch2a
I0829 13:40:53.802882  9284 net.cpp:386] scale4b_branch2a -> res4b_branch2a (in-place)
I0829 13:40:53.802945  9284 layer_factory.hpp:77] Creating layer scale4b_branch2a
I0829 13:40:53.803091  9284 net.cpp:141] Setting up scale4b_branch2a
I0829 13:40:53.803117  9284 net.cpp:148] Top shape: 10 256 14 14 (501760)
I0829 13:40:53.803131  9284 net.cpp:156] Memory required for data: 1850491000
I0829 13:40:53.803150  9284 layer_factory.hpp:77] Creating layer res4b_branch2a_relu
I0829 13:40:53.803174  9284 net.cpp:91] Creating Layer res4b_branch2a_relu
I0829 13:40:53.803189  9284 net.cpp:425] res4b_branch2a_relu <- res4b_branch2a
I0829 13:40:53.803210  9284 net.cpp:386] res4b_branch2a_relu -> res4b_branch2a (in-place)
I0829 13:40:53.803227  9284 net.cpp:141] Setting up res4b_branch2a_relu
I0829 13:40:53.803244  9284 net.cpp:148] Top shape: 10 256 14 14 (501760)
I0829 13:40:53.803258  9284 net.cpp:156] Memory required for data: 1852498040
I0829 13:40:53.803273  9284 layer_factory.hpp:77] Creating layer res4b_branch2b
I0829 13:40:53.803297  9284 net.cpp:91] Creating Layer res4b_branch2b
I0829 13:40:53.803314  9284 net.cpp:425] res4b_branch2b <- res4b_branch2a
I0829 13:40:53.803338  9284 net.cpp:399] res4b_branch2b -> res4b_branch2b
I0829 13:40:53.809839  9284 net.cpp:141] Setting up res4b_branch2b
I0829 13:40:53.809885  9284 net.cpp:148] Top shape: 10 256 14 14 (501760)
I0829 13:40:53.809901  9284 net.cpp:156] Memory required for data: 1854505080
I0829 13:40:53.809922  9284 layer_factory.hpp:77] Creating layer bn4b_branch2b
I0829 13:40:53.809942  9284 net.cpp:91] Creating Layer bn4b_branch2b
I0829 13:40:53.809958  9284 net.cpp:425] bn4b_branch2b <- res4b_branch2b
I0829 13:40:53.809975  9284 net.cpp:386] bn4b_branch2b -> res4b_branch2b (in-place)
I0829 13:40:53.810194  9284 net.cpp:141] Setting up bn4b_branch2b
I0829 13:40:53.810250  9284 net.cpp:148] Top shape: 10 256 14 14 (501760)
I0829 13:40:53.810267  9284 net.cpp:156] Memory required for data: 1856512120
I0829 13:40:53.810288  9284 layer_factory.hpp:77] Creating layer scale4b_branch2b
I0829 13:40:53.810312  9284 net.cpp:91] Creating Layer scale4b_branch2b
I0829 13:40:53.810328  9284 net.cpp:425] scale4b_branch2b <- res4b_branch2b
I0829 13:40:53.810348  9284 net.cpp:386] scale4b_branch2b -> res4b_branch2b (in-place)
I0829 13:40:53.810415  9284 layer_factory.hpp:77] Creating layer scale4b_branch2b
I0829 13:40:53.810561  9284 net.cpp:141] Setting up scale4b_branch2b
I0829 13:40:53.810586  9284 net.cpp:148] Top shape: 10 256 14 14 (501760)
I0829 13:40:53.810602  9284 net.cpp:156] Memory required for data: 1858519160
I0829 13:40:53.810621  9284 layer_factory.hpp:77] Creating layer res4b_branch2b_relu
I0829 13:40:53.810639  9284 net.cpp:91] Creating Layer res4b_branch2b_relu
I0829 13:40:53.810654  9284 net.cpp:425] res4b_branch2b_relu <- res4b_branch2b
I0829 13:40:53.810674  9284 net.cpp:386] res4b_branch2b_relu -> res4b_branch2b (in-place)
I0829 13:40:53.810694  9284 net.cpp:141] Setting up res4b_branch2b_relu
I0829 13:40:53.810712  9284 net.cpp:148] Top shape: 10 256 14 14 (501760)
I0829 13:40:53.810726  9284 net.cpp:156] Memory required for data: 1860526200
I0829 13:40:53.810740  9284 layer_factory.hpp:77] Creating layer res4b_branch2c
I0829 13:40:53.810767  9284 net.cpp:91] Creating Layer res4b_branch2c
I0829 13:40:53.810783  9284 net.cpp:425] res4b_branch2c <- res4b_branch2b
I0829 13:40:53.810801  9284 net.cpp:399] res4b_branch2c -> res4b_branch2c
I0829 13:40:53.813921  9284 net.cpp:141] Setting up res4b_branch2c
I0829 13:40:53.813959  9284 net.cpp:148] Top shape: 10 1024 14 14 (2007040)
I0829 13:40:53.813976  9284 net.cpp:156] Memory required for data: 1868554360
I0829 13:40:53.813997  9284 layer_factory.hpp:77] Creating layer bn4b_branch2c
I0829 13:40:53.814018  9284 net.cpp:91] Creating Layer bn4b_branch2c
I0829 13:40:53.814035  9284 net.cpp:425] bn4b_branch2c <- res4b_branch2c
I0829 13:40:53.814051  9284 net.cpp:386] bn4b_branch2c -> res4b_branch2c (in-place)
I0829 13:40:53.814278  9284 net.cpp:141] Setting up bn4b_branch2c
I0829 13:40:53.814306  9284 net.cpp:148] Top shape: 10 1024 14 14 (2007040)
I0829 13:40:53.814321  9284 net.cpp:156] Memory required for data: 1876582520
I0829 13:40:53.814342  9284 layer_factory.hpp:77] Creating layer scale4b_branch2c
I0829 13:40:53.814362  9284 net.cpp:91] Creating Layer scale4b_branch2c
I0829 13:40:53.814378  9284 net.cpp:425] scale4b_branch2c <- res4b_branch2c
I0829 13:40:53.814400  9284 net.cpp:386] scale4b_branch2c -> res4b_branch2c (in-place)
I0829 13:40:53.814462  9284 layer_factory.hpp:77] Creating layer scale4b_branch2c
I0829 13:40:53.814616  9284 net.cpp:141] Setting up scale4b_branch2c
I0829 13:40:53.814642  9284 net.cpp:148] Top shape: 10 1024 14 14 (2007040)
I0829 13:40:53.814658  9284 net.cpp:156] Memory required for data: 1884610680
I0829 13:40:53.814677  9284 layer_factory.hpp:77] Creating layer res4b
I0829 13:40:53.814697  9284 net.cpp:91] Creating Layer res4b
I0829 13:40:53.814713  9284 net.cpp:425] res4b <- res4a_res4a_relu_0_split_1
I0829 13:40:53.814730  9284 net.cpp:425] res4b <- res4b_branch2c
I0829 13:40:53.814748  9284 net.cpp:399] res4b -> res4b
I0829 13:40:53.814795  9284 net.cpp:141] Setting up res4b
I0829 13:40:53.814818  9284 net.cpp:148] Top shape: 10 1024 14 14 (2007040)
I0829 13:40:53.814834  9284 net.cpp:156] Memory required for data: 1892638840
I0829 13:40:53.814849  9284 layer_factory.hpp:77] Creating layer res4b_relu
I0829 13:40:53.814869  9284 net.cpp:91] Creating Layer res4b_relu
I0829 13:40:53.814885  9284 net.cpp:425] res4b_relu <- res4b
I0829 13:40:53.814901  9284 net.cpp:386] res4b_relu -> res4b (in-place)
I0829 13:40:53.814919  9284 net.cpp:141] Setting up res4b_relu
I0829 13:40:53.814936  9284 net.cpp:148] Top shape: 10 1024 14 14 (2007040)
I0829 13:40:53.814950  9284 net.cpp:156] Memory required for data: 1900667000
I0829 13:40:53.814965  9284 layer_factory.hpp:77] Creating layer res4b_res4b_relu_0_split
I0829 13:40:53.815007  9284 net.cpp:91] Creating Layer res4b_res4b_relu_0_split
I0829 13:40:53.815026  9284 net.cpp:425] res4b_res4b_relu_0_split <- res4b
I0829 13:40:53.815045  9284 net.cpp:399] res4b_res4b_relu_0_split -> res4b_res4b_relu_0_split_0
I0829 13:40:53.815065  9284 net.cpp:399] res4b_res4b_relu_0_split -> res4b_res4b_relu_0_split_1
I0829 13:40:53.815136  9284 net.cpp:141] Setting up res4b_res4b_relu_0_split
I0829 13:40:53.815161  9284 net.cpp:148] Top shape: 10 1024 14 14 (2007040)
I0829 13:40:53.815181  9284 net.cpp:148] Top shape: 10 1024 14 14 (2007040)
I0829 13:40:53.815196  9284 net.cpp:156] Memory required for data: 1916723320
I0829 13:40:53.815209  9284 layer_factory.hpp:77] Creating layer res4c_branch2a
I0829 13:40:53.815232  9284 net.cpp:91] Creating Layer res4c_branch2a
I0829 13:40:53.815248  9284 net.cpp:425] res4c_branch2a <- res4b_res4b_relu_0_split_0
I0829 13:40:53.815269  9284 net.cpp:399] res4c_branch2a -> res4c_branch2a
I0829 13:40:53.818372  9284 net.cpp:141] Setting up res4c_branch2a
I0829 13:40:53.818403  9284 net.cpp:148] Top shape: 10 256 14 14 (501760)
I0829 13:40:53.818419  9284 net.cpp:156] Memory required for data: 1918730360
I0829 13:40:53.818437  9284 layer_factory.hpp:77] Creating layer bn4c_branch2a
I0829 13:40:53.818456  9284 net.cpp:91] Creating Layer bn4c_branch2a
I0829 13:40:53.818471  9284 net.cpp:425] bn4c_branch2a <- res4c_branch2a
I0829 13:40:53.818487  9284 net.cpp:386] bn4c_branch2a -> res4c_branch2a (in-place)
I0829 13:40:53.818704  9284 net.cpp:141] Setting up bn4c_branch2a
I0829 13:40:53.818730  9284 net.cpp:148] Top shape: 10 256 14 14 (501760)
I0829 13:40:53.818747  9284 net.cpp:156] Memory required for data: 1920737400
I0829 13:40:53.818768  9284 layer_factory.hpp:77] Creating layer scale4c_branch2a
I0829 13:40:53.818790  9284 net.cpp:91] Creating Layer scale4c_branch2a
I0829 13:40:53.818807  9284 net.cpp:425] scale4c_branch2a <- res4c_branch2a
I0829 13:40:53.818825  9284 net.cpp:386] scale4c_branch2a -> res4c_branch2a (in-place)
I0829 13:40:53.818888  9284 layer_factory.hpp:77] Creating layer scale4c_branch2a
I0829 13:40:53.819036  9284 net.cpp:141] Setting up scale4c_branch2a
I0829 13:40:53.819061  9284 net.cpp:148] Top shape: 10 256 14 14 (501760)
I0829 13:40:53.819077  9284 net.cpp:156] Memory required for data: 1922744440
I0829 13:40:53.819097  9284 layer_factory.hpp:77] Creating layer res4c_branch2a_relu
I0829 13:40:53.819118  9284 net.cpp:91] Creating Layer res4c_branch2a_relu
I0829 13:40:53.819134  9284 net.cpp:425] res4c_branch2a_relu <- res4c_branch2a
I0829 13:40:53.819152  9284 net.cpp:386] res4c_branch2a_relu -> res4c_branch2a (in-place)
I0829 13:40:53.819171  9284 net.cpp:141] Setting up res4c_branch2a_relu
I0829 13:40:53.819188  9284 net.cpp:148] Top shape: 10 256 14 14 (501760)
I0829 13:40:53.819203  9284 net.cpp:156] Memory required for data: 1924751480
I0829 13:40:53.819217  9284 layer_factory.hpp:77] Creating layer res4c_branch2b
I0829 13:40:53.819242  9284 net.cpp:91] Creating Layer res4c_branch2b
I0829 13:40:53.819257  9284 net.cpp:425] res4c_branch2b <- res4c_branch2a
I0829 13:40:53.819275  9284 net.cpp:399] res4c_branch2b -> res4c_branch2b
I0829 13:40:53.825786  9284 net.cpp:141] Setting up res4c_branch2b
I0829 13:40:53.825832  9284 net.cpp:148] Top shape: 10 256 14 14 (501760)
I0829 13:40:53.825847  9284 net.cpp:156] Memory required for data: 1926758520
I0829 13:40:53.825870  9284 layer_factory.hpp:77] Creating layer bn4c_branch2b
I0829 13:40:53.825892  9284 net.cpp:91] Creating Layer bn4c_branch2b
I0829 13:40:53.825909  9284 net.cpp:425] bn4c_branch2b <- res4c_branch2b
I0829 13:40:53.825927  9284 net.cpp:386] bn4c_branch2b -> res4c_branch2b (in-place)
I0829 13:40:53.826150  9284 net.cpp:141] Setting up bn4c_branch2b
I0829 13:40:53.826176  9284 net.cpp:148] Top shape: 10 256 14 14 (501760)
I0829 13:40:53.826191  9284 net.cpp:156] Memory required for data: 1928765560
I0829 13:40:53.826212  9284 layer_factory.hpp:77] Creating layer scale4c_branch2b
I0829 13:40:53.826239  9284 net.cpp:91] Creating Layer scale4c_branch2b
I0829 13:40:53.826287  9284 net.cpp:425] scale4c_branch2b <- res4c_branch2b
I0829 13:40:53.826306  9284 net.cpp:386] scale4c_branch2b -> res4c_branch2b (in-place)
I0829 13:40:53.826373  9284 layer_factory.hpp:77] Creating layer scale4c_branch2b
I0829 13:40:53.826520  9284 net.cpp:141] Setting up scale4c_branch2b
I0829 13:40:53.826546  9284 net.cpp:148] Top shape: 10 256 14 14 (501760)
I0829 13:40:53.826563  9284 net.cpp:156] Memory required for data: 1930772600
I0829 13:40:53.826581  9284 layer_factory.hpp:77] Creating layer res4c_branch2b_relu
I0829 13:40:53.826601  9284 net.cpp:91] Creating Layer res4c_branch2b_relu
I0829 13:40:53.826617  9284 net.cpp:425] res4c_branch2b_relu <- res4c_branch2b
I0829 13:40:53.826639  9284 net.cpp:386] res4c_branch2b_relu -> res4c_branch2b (in-place)
I0829 13:40:53.826666  9284 net.cpp:141] Setting up res4c_branch2b_relu
I0829 13:40:53.826683  9284 net.cpp:148] Top shape: 10 256 14 14 (501760)
I0829 13:40:53.826697  9284 net.cpp:156] Memory required for data: 1932779640
I0829 13:40:53.826711  9284 layer_factory.hpp:77] Creating layer res4c_branch2c
I0829 13:40:53.826736  9284 net.cpp:91] Creating Layer res4c_branch2c
I0829 13:40:53.826753  9284 net.cpp:425] res4c_branch2c <- res4c_branch2b
I0829 13:40:53.826771  9284 net.cpp:399] res4c_branch2c -> res4c_branch2c
I0829 13:40:53.829885  9284 net.cpp:141] Setting up res4c_branch2c
I0829 13:40:53.829921  9284 net.cpp:148] Top shape: 10 1024 14 14 (2007040)
I0829 13:40:53.829936  9284 net.cpp:156] Memory required for data: 1940807800
I0829 13:40:53.829954  9284 layer_factory.hpp:77] Creating layer bn4c_branch2c
I0829 13:40:53.829975  9284 net.cpp:91] Creating Layer bn4c_branch2c
I0829 13:40:53.829993  9284 net.cpp:425] bn4c_branch2c <- res4c_branch2c
I0829 13:40:53.830009  9284 net.cpp:386] bn4c_branch2c -> res4c_branch2c (in-place)
I0829 13:40:53.830235  9284 net.cpp:141] Setting up bn4c_branch2c
I0829 13:40:53.830260  9284 net.cpp:148] Top shape: 10 1024 14 14 (2007040)
I0829 13:40:53.830276  9284 net.cpp:156] Memory required for data: 1948835960
I0829 13:40:53.830297  9284 layer_factory.hpp:77] Creating layer scale4c_branch2c
I0829 13:40:53.830317  9284 net.cpp:91] Creating Layer scale4c_branch2c
I0829 13:40:53.830333  9284 net.cpp:425] scale4c_branch2c <- res4c_branch2c
I0829 13:40:53.830353  9284 net.cpp:386] scale4c_branch2c -> res4c_branch2c (in-place)
I0829 13:40:53.830412  9284 layer_factory.hpp:77] Creating layer scale4c_branch2c
I0829 13:40:53.830564  9284 net.cpp:141] Setting up scale4c_branch2c
I0829 13:40:53.830593  9284 net.cpp:148] Top shape: 10 1024 14 14 (2007040)
I0829 13:40:53.830608  9284 net.cpp:156] Memory required for data: 1956864120
I0829 13:40:53.830627  9284 layer_factory.hpp:77] Creating layer res4c
I0829 13:40:53.830646  9284 net.cpp:91] Creating Layer res4c
I0829 13:40:53.830662  9284 net.cpp:425] res4c <- res4b_res4b_relu_0_split_1
I0829 13:40:53.830678  9284 net.cpp:425] res4c <- res4c_branch2c
I0829 13:40:53.830695  9284 net.cpp:399] res4c -> res4c
I0829 13:40:53.830742  9284 net.cpp:141] Setting up res4c
I0829 13:40:53.830767  9284 net.cpp:148] Top shape: 10 1024 14 14 (2007040)
I0829 13:40:53.830782  9284 net.cpp:156] Memory required for data: 1964892280
I0829 13:40:53.830797  9284 layer_factory.hpp:77] Creating layer res4c_relu
I0829 13:40:53.830818  9284 net.cpp:91] Creating Layer res4c_relu
I0829 13:40:53.830834  9284 net.cpp:425] res4c_relu <- res4c
I0829 13:40:53.830852  9284 net.cpp:386] res4c_relu -> res4c (in-place)
I0829 13:40:53.830870  9284 net.cpp:141] Setting up res4c_relu
I0829 13:40:53.830889  9284 net.cpp:148] Top shape: 10 1024 14 14 (2007040)
I0829 13:40:53.830904  9284 net.cpp:156] Memory required for data: 1972920440
I0829 13:40:53.830919  9284 layer_factory.hpp:77] Creating layer res4c_res4c_relu_0_split
I0829 13:40:53.830936  9284 net.cpp:91] Creating Layer res4c_res4c_relu_0_split
I0829 13:40:53.830951  9284 net.cpp:425] res4c_res4c_relu_0_split <- res4c
I0829 13:40:53.830967  9284 net.cpp:399] res4c_res4c_relu_0_split -> res4c_res4c_relu_0_split_0
I0829 13:40:53.831013  9284 net.cpp:399] res4c_res4c_relu_0_split -> res4c_res4c_relu_0_split_1
I0829 13:40:53.831070  9284 net.cpp:141] Setting up res4c_res4c_relu_0_split
I0829 13:40:53.831094  9284 net.cpp:148] Top shape: 10 1024 14 14 (2007040)
I0829 13:40:53.831111  9284 net.cpp:148] Top shape: 10 1024 14 14 (2007040)
I0829 13:40:53.831126  9284 net.cpp:156] Memory required for data: 1988976760
I0829 13:40:53.831140  9284 layer_factory.hpp:77] Creating layer res4d_branch2a
I0829 13:40:53.831166  9284 net.cpp:91] Creating Layer res4d_branch2a
I0829 13:40:53.831183  9284 net.cpp:425] res4d_branch2a <- res4c_res4c_relu_0_split_0
I0829 13:40:53.831202  9284 net.cpp:399] res4d_branch2a -> res4d_branch2a
I0829 13:40:53.834312  9284 net.cpp:141] Setting up res4d_branch2a
I0829 13:40:53.834342  9284 net.cpp:148] Top shape: 10 256 14 14 (501760)
I0829 13:40:53.834358  9284 net.cpp:156] Memory required for data: 1990983800
I0829 13:40:53.834377  9284 layer_factory.hpp:77] Creating layer bn4d_branch2a
I0829 13:40:53.834398  9284 net.cpp:91] Creating Layer bn4d_branch2a
I0829 13:40:53.834414  9284 net.cpp:425] bn4d_branch2a <- res4d_branch2a
I0829 13:40:53.834431  9284 net.cpp:386] bn4d_branch2a -> res4d_branch2a (in-place)
I0829 13:40:53.834650  9284 net.cpp:141] Setting up bn4d_branch2a
I0829 13:40:53.834676  9284 net.cpp:148] Top shape: 10 256 14 14 (501760)
I0829 13:40:53.834692  9284 net.cpp:156] Memory required for data: 1992990840
I0829 13:40:53.834712  9284 layer_factory.hpp:77] Creating layer scale4d_branch2a
I0829 13:40:53.834731  9284 net.cpp:91] Creating Layer scale4d_branch2a
I0829 13:40:53.834748  9284 net.cpp:425] scale4d_branch2a <- res4d_branch2a
I0829 13:40:53.834765  9284 net.cpp:386] scale4d_branch2a -> res4d_branch2a (in-place)
I0829 13:40:53.834830  9284 layer_factory.hpp:77] Creating layer scale4d_branch2a
I0829 13:40:53.834980  9284 net.cpp:141] Setting up scale4d_branch2a
I0829 13:40:53.835005  9284 net.cpp:148] Top shape: 10 256 14 14 (501760)
I0829 13:40:53.835021  9284 net.cpp:156] Memory required for data: 1994997880
I0829 13:40:53.835041  9284 layer_factory.hpp:77] Creating layer res4d_branch2a_relu
I0829 13:40:53.835062  9284 net.cpp:91] Creating Layer res4d_branch2a_relu
I0829 13:40:53.835083  9284 net.cpp:425] res4d_branch2a_relu <- res4d_branch2a
I0829 13:40:53.835099  9284 net.cpp:386] res4d_branch2a_relu -> res4d_branch2a (in-place)
I0829 13:40:53.835119  9284 net.cpp:141] Setting up res4d_branch2a_relu
I0829 13:40:53.835136  9284 net.cpp:148] Top shape: 10 256 14 14 (501760)
I0829 13:40:53.835151  9284 net.cpp:156] Memory required for data: 1997004920
I0829 13:40:53.835166  9284 layer_factory.hpp:77] Creating layer res4d_branch2b
I0829 13:40:53.835189  9284 net.cpp:91] Creating Layer res4d_branch2b
I0829 13:40:53.835212  9284 net.cpp:425] res4d_branch2b <- res4d_branch2a
I0829 13:40:53.835233  9284 net.cpp:399] res4d_branch2b -> res4d_branch2b
I0829 13:40:53.841735  9284 net.cpp:141] Setting up res4d_branch2b
I0829 13:40:53.841779  9284 net.cpp:148] Top shape: 10 256 14 14 (501760)
I0829 13:40:53.841796  9284 net.cpp:156] Memory required for data: 1999011960
I0829 13:40:53.841819  9284 layer_factory.hpp:77] Creating layer bn4d_branch2b
I0829 13:40:53.841838  9284 net.cpp:91] Creating Layer bn4d_branch2b
I0829 13:40:53.841855  9284 net.cpp:425] bn4d_branch2b <- res4d_branch2b
I0829 13:40:53.841874  9284 net.cpp:386] bn4d_branch2b -> res4d_branch2b (in-place)
I0829 13:40:53.842099  9284 net.cpp:141] Setting up bn4d_branch2b
I0829 13:40:53.842125  9284 net.cpp:148] Top shape: 10 256 14 14 (501760)
I0829 13:40:53.842140  9284 net.cpp:156] Memory required for data: 2001019000
I0829 13:40:53.842161  9284 layer_factory.hpp:77] Creating layer scale4d_branch2b
I0829 13:40:53.842181  9284 net.cpp:91] Creating Layer scale4d_branch2b
I0829 13:40:53.842197  9284 net.cpp:425] scale4d_branch2b <- res4d_branch2b
I0829 13:40:53.842214  9284 net.cpp:386] scale4d_branch2b -> res4d_branch2b (in-place)
I0829 13:40:53.842280  9284 layer_factory.hpp:77] Creating layer scale4d_branch2b
I0829 13:40:53.842428  9284 net.cpp:141] Setting up scale4d_branch2b
I0829 13:40:53.842488  9284 net.cpp:148] Top shape: 10 256 14 14 (501760)
I0829 13:40:53.842504  9284 net.cpp:156] Memory required for data: 2003026040
I0829 13:40:53.842522  9284 layer_factory.hpp:77] Creating layer res4d_branch2b_relu
I0829 13:40:53.842541  9284 net.cpp:91] Creating Layer res4d_branch2b_relu
I0829 13:40:53.842557  9284 net.cpp:425] res4d_branch2b_relu <- res4d_branch2b
I0829 13:40:53.842577  9284 net.cpp:386] res4d_branch2b_relu -> res4d_branch2b (in-place)
I0829 13:40:53.842597  9284 net.cpp:141] Setting up res4d_branch2b_relu
I0829 13:40:53.842614  9284 net.cpp:148] Top shape: 10 256 14 14 (501760)
I0829 13:40:53.842630  9284 net.cpp:156] Memory required for data: 2005033080
I0829 13:40:53.842645  9284 layer_factory.hpp:77] Creating layer res4d_branch2c
I0829 13:40:53.842666  9284 net.cpp:91] Creating Layer res4d_branch2c
I0829 13:40:53.842682  9284 net.cpp:425] res4d_branch2c <- res4d_branch2b
I0829 13:40:53.842705  9284 net.cpp:399] res4d_branch2c -> res4d_branch2c
I0829 13:40:53.845832  9284 net.cpp:141] Setting up res4d_branch2c
I0829 13:40:53.845863  9284 net.cpp:148] Top shape: 10 1024 14 14 (2007040)
I0829 13:40:53.845880  9284 net.cpp:156] Memory required for data: 2013061240
I0829 13:40:53.845897  9284 layer_factory.hpp:77] Creating layer bn4d_branch2c
I0829 13:40:53.845917  9284 net.cpp:91] Creating Layer bn4d_branch2c
I0829 13:40:53.845932  9284 net.cpp:425] bn4d_branch2c <- res4d_branch2c
I0829 13:40:53.845948  9284 net.cpp:386] bn4d_branch2c -> res4d_branch2c (in-place)
I0829 13:40:53.846180  9284 net.cpp:141] Setting up bn4d_branch2c
I0829 13:40:53.846205  9284 net.cpp:148] Top shape: 10 1024 14 14 (2007040)
I0829 13:40:53.846221  9284 net.cpp:156] Memory required for data: 2021089400
I0829 13:40:53.846251  9284 layer_factory.hpp:77] Creating layer scale4d_branch2c
I0829 13:40:53.846277  9284 net.cpp:91] Creating Layer scale4d_branch2c
I0829 13:40:53.846292  9284 net.cpp:425] scale4d_branch2c <- res4d_branch2c
I0829 13:40:53.846309  9284 net.cpp:386] scale4d_branch2c -> res4d_branch2c (in-place)
I0829 13:40:53.846374  9284 layer_factory.hpp:77] Creating layer scale4d_branch2c
I0829 13:40:53.846534  9284 net.cpp:141] Setting up scale4d_branch2c
I0829 13:40:53.846559  9284 net.cpp:148] Top shape: 10 1024 14 14 (2007040)
I0829 13:40:53.846575  9284 net.cpp:156] Memory required for data: 2029117560
I0829 13:40:53.846593  9284 layer_factory.hpp:77] Creating layer res4d
I0829 13:40:53.846616  9284 net.cpp:91] Creating Layer res4d
I0829 13:40:53.846633  9284 net.cpp:425] res4d <- res4c_res4c_relu_0_split_1
I0829 13:40:53.846652  9284 net.cpp:425] res4d <- res4d_branch2c
I0829 13:40:53.846670  9284 net.cpp:399] res4d -> res4d
I0829 13:40:53.846717  9284 net.cpp:141] Setting up res4d
I0829 13:40:53.846742  9284 net.cpp:148] Top shape: 10 1024 14 14 (2007040)
I0829 13:40:53.846757  9284 net.cpp:156] Memory required for data: 2037145720
I0829 13:40:53.846771  9284 layer_factory.hpp:77] Creating layer res4d_relu
I0829 13:40:53.846789  9284 net.cpp:91] Creating Layer res4d_relu
I0829 13:40:53.846804  9284 net.cpp:425] res4d_relu <- res4d
I0829 13:40:53.846823  9284 net.cpp:386] res4d_relu -> res4d (in-place)
I0829 13:40:53.846850  9284 net.cpp:141] Setting up res4d_relu
I0829 13:40:53.846868  9284 net.cpp:148] Top shape: 10 1024 14 14 (2007040)
I0829 13:40:53.846881  9284 net.cpp:156] Memory required for data: 2045173880
I0829 13:40:53.846896  9284 layer_factory.hpp:77] Creating layer res4d_res4d_relu_0_split
I0829 13:40:53.846913  9284 net.cpp:91] Creating Layer res4d_res4d_relu_0_split
I0829 13:40:53.846928  9284 net.cpp:425] res4d_res4d_relu_0_split <- res4d
I0829 13:40:53.846945  9284 net.cpp:399] res4d_res4d_relu_0_split -> res4d_res4d_relu_0_split_0
I0829 13:40:53.846963  9284 net.cpp:399] res4d_res4d_relu_0_split -> res4d_res4d_relu_0_split_1
I0829 13:40:53.847023  9284 net.cpp:141] Setting up res4d_res4d_relu_0_split
I0829 13:40:53.847048  9284 net.cpp:148] Top shape: 10 1024 14 14 (2007040)
I0829 13:40:53.847065  9284 net.cpp:148] Top shape: 10 1024 14 14 (2007040)
I0829 13:40:53.847098  9284 net.cpp:156] Memory required for data: 2061230200
I0829 13:40:53.847115  9284 layer_factory.hpp:77] Creating layer res4e_branch2a
I0829 13:40:53.847136  9284 net.cpp:91] Creating Layer res4e_branch2a
I0829 13:40:53.847152  9284 net.cpp:425] res4e_branch2a <- res4d_res4d_relu_0_split_0
I0829 13:40:53.847174  9284 net.cpp:399] res4e_branch2a -> res4e_branch2a
I0829 13:40:53.850271  9284 net.cpp:141] Setting up res4e_branch2a
I0829 13:40:53.850309  9284 net.cpp:148] Top shape: 10 256 14 14 (501760)
I0829 13:40:53.850324  9284 net.cpp:156] Memory required for data: 2063237240
I0829 13:40:53.850347  9284 layer_factory.hpp:77] Creating layer bn4e_branch2a
I0829 13:40:53.850365  9284 net.cpp:91] Creating Layer bn4e_branch2a
I0829 13:40:53.850380  9284 net.cpp:425] bn4e_branch2a <- res4e_branch2a
I0829 13:40:53.850396  9284 net.cpp:386] bn4e_branch2a -> res4e_branch2a (in-place)
I0829 13:40:53.850620  9284 net.cpp:141] Setting up bn4e_branch2a
I0829 13:40:53.850646  9284 net.cpp:148] Top shape: 10 256 14 14 (501760)
I0829 13:40:53.850661  9284 net.cpp:156] Memory required for data: 2065244280
I0829 13:40:53.850682  9284 layer_factory.hpp:77] Creating layer scale4e_branch2a
I0829 13:40:53.850704  9284 net.cpp:91] Creating Layer scale4e_branch2a
I0829 13:40:53.850721  9284 net.cpp:425] scale4e_branch2a <- res4e_branch2a
I0829 13:40:53.850739  9284 net.cpp:386] scale4e_branch2a -> res4e_branch2a (in-place)
I0829 13:40:53.850802  9284 layer_factory.hpp:77] Creating layer scale4e_branch2a
I0829 13:40:53.850955  9284 net.cpp:141] Setting up scale4e_branch2a
I0829 13:40:53.850981  9284 net.cpp:148] Top shape: 10 256 14 14 (501760)
I0829 13:40:53.850997  9284 net.cpp:156] Memory required for data: 2067251320
I0829 13:40:53.851016  9284 layer_factory.hpp:77] Creating layer res4e_branch2a_relu
I0829 13:40:53.851034  9284 net.cpp:91] Creating Layer res4e_branch2a_relu
I0829 13:40:53.851050  9284 net.cpp:425] res4e_branch2a_relu <- res4e_branch2a
I0829 13:40:53.851073  9284 net.cpp:386] res4e_branch2a_relu -> res4e_branch2a (in-place)
I0829 13:40:53.851094  9284 net.cpp:141] Setting up res4e_branch2a_relu
I0829 13:40:53.851114  9284 net.cpp:148] Top shape: 10 256 14 14 (501760)
I0829 13:40:53.851130  9284 net.cpp:156] Memory required for data: 2069258360
I0829 13:40:53.851143  9284 layer_factory.hpp:77] Creating layer res4e_branch2b
I0829 13:40:53.851167  9284 net.cpp:91] Creating Layer res4e_branch2b
I0829 13:40:53.851182  9284 net.cpp:425] res4e_branch2b <- res4e_branch2a
I0829 13:40:53.851202  9284 net.cpp:399] res4e_branch2b -> res4e_branch2b
I0829 13:40:53.857717  9284 net.cpp:141] Setting up res4e_branch2b
I0829 13:40:53.857748  9284 net.cpp:148] Top shape: 10 256 14 14 (501760)
I0829 13:40:53.857764  9284 net.cpp:156] Memory required for data: 2071265400
I0829 13:40:53.857780  9284 layer_factory.hpp:77] Creating layer bn4e_branch2b
I0829 13:40:53.857806  9284 net.cpp:91] Creating Layer bn4e_branch2b
I0829 13:40:53.857823  9284 net.cpp:425] bn4e_branch2b <- res4e_branch2b
I0829 13:40:53.857839  9284 net.cpp:386] bn4e_branch2b -> res4e_branch2b (in-place)
I0829 13:40:53.858065  9284 net.cpp:141] Setting up bn4e_branch2b
I0829 13:40:53.858091  9284 net.cpp:148] Top shape: 10 256 14 14 (501760)
I0829 13:40:53.858108  9284 net.cpp:156] Memory required for data: 2073272440
I0829 13:40:53.858129  9284 layer_factory.hpp:77] Creating layer scale4e_branch2b
I0829 13:40:53.858151  9284 net.cpp:91] Creating Layer scale4e_branch2b
I0829 13:40:53.858178  9284 net.cpp:425] scale4e_branch2b <- res4e_branch2b
I0829 13:40:53.858196  9284 net.cpp:386] scale4e_branch2b -> res4e_branch2b (in-place)
I0829 13:40:53.858259  9284 layer_factory.hpp:77] Creating layer scale4e_branch2b
I0829 13:40:53.858418  9284 net.cpp:141] Setting up scale4e_branch2b
I0829 13:40:53.858444  9284 net.cpp:148] Top shape: 10 256 14 14 (501760)
I0829 13:40:53.858459  9284 net.cpp:156] Memory required for data: 2075279480
I0829 13:40:53.858477  9284 layer_factory.hpp:77] Creating layer res4e_branch2b_relu
I0829 13:40:53.858496  9284 net.cpp:91] Creating Layer res4e_branch2b_relu
I0829 13:40:53.858532  9284 net.cpp:425] res4e_branch2b_relu <- res4e_branch2b
I0829 13:40:53.858551  9284 net.cpp:386] res4e_branch2b_relu -> res4e_branch2b (in-place)
I0829 13:40:53.858572  9284 net.cpp:141] Setting up res4e_branch2b_relu
I0829 13:40:53.858588  9284 net.cpp:148] Top shape: 10 256 14 14 (501760)
I0829 13:40:53.858603  9284 net.cpp:156] Memory required for data: 2077286520
I0829 13:40:53.858618  9284 layer_factory.hpp:77] Creating layer res4e_branch2c
I0829 13:40:53.858642  9284 net.cpp:91] Creating Layer res4e_branch2c
I0829 13:40:53.858661  9284 net.cpp:425] res4e_branch2c <- res4e_branch2b
I0829 13:40:53.858683  9284 net.cpp:399] res4e_branch2c -> res4e_branch2c
I0829 13:40:53.861788  9284 net.cpp:141] Setting up res4e_branch2c
I0829 13:40:53.861819  9284 net.cpp:148] Top shape: 10 1024 14 14 (2007040)
I0829 13:40:53.861835  9284 net.cpp:156] Memory required for data: 2085314680
I0829 13:40:53.861852  9284 layer_factory.hpp:77] Creating layer bn4e_branch2c
I0829 13:40:53.861874  9284 net.cpp:91] Creating Layer bn4e_branch2c
I0829 13:40:53.861891  9284 net.cpp:425] bn4e_branch2c <- res4e_branch2c
I0829 13:40:53.861907  9284 net.cpp:386] bn4e_branch2c -> res4e_branch2c (in-place)
I0829 13:40:53.862141  9284 net.cpp:141] Setting up bn4e_branch2c
I0829 13:40:53.862166  9284 net.cpp:148] Top shape: 10 1024 14 14 (2007040)
I0829 13:40:53.862182  9284 net.cpp:156] Memory required for data: 2093342840
I0829 13:40:53.862203  9284 layer_factory.hpp:77] Creating layer scale4e_branch2c
I0829 13:40:53.862222  9284 net.cpp:91] Creating Layer scale4e_branch2c
I0829 13:40:53.862238  9284 net.cpp:425] scale4e_branch2c <- res4e_branch2c
I0829 13:40:53.862256  9284 net.cpp:386] scale4e_branch2c -> res4e_branch2c (in-place)
I0829 13:40:53.862319  9284 layer_factory.hpp:77] Creating layer scale4e_branch2c
I0829 13:40:53.862478  9284 net.cpp:141] Setting up scale4e_branch2c
I0829 13:40:53.862504  9284 net.cpp:148] Top shape: 10 1024 14 14 (2007040)
I0829 13:40:53.862519  9284 net.cpp:156] Memory required for data: 2101371000
I0829 13:40:53.862537  9284 layer_factory.hpp:77] Creating layer res4e
I0829 13:40:53.862560  9284 net.cpp:91] Creating Layer res4e
I0829 13:40:53.862576  9284 net.cpp:425] res4e <- res4d_res4d_relu_0_split_1
I0829 13:40:53.862593  9284 net.cpp:425] res4e <- res4e_branch2c
I0829 13:40:53.862613  9284 net.cpp:399] res4e -> res4e
I0829 13:40:53.862660  9284 net.cpp:141] Setting up res4e
I0829 13:40:53.862685  9284 net.cpp:148] Top shape: 10 1024 14 14 (2007040)
I0829 13:40:53.862700  9284 net.cpp:156] Memory required for data: 2109399160
I0829 13:40:53.862715  9284 layer_factory.hpp:77] Creating layer res4e_relu
I0829 13:40:53.862732  9284 net.cpp:91] Creating Layer res4e_relu
I0829 13:40:53.862747  9284 net.cpp:425] res4e_relu <- res4e
I0829 13:40:53.862767  9284 net.cpp:386] res4e_relu -> res4e (in-place)
I0829 13:40:53.862795  9284 net.cpp:141] Setting up res4e_relu
I0829 13:40:53.862812  9284 net.cpp:148] Top shape: 10 1024 14 14 (2007040)
I0829 13:40:53.862826  9284 net.cpp:156] Memory required for data: 2117427320
I0829 13:40:53.862841  9284 layer_factory.hpp:77] Creating layer res4e_res4e_relu_0_split
I0829 13:40:53.862859  9284 net.cpp:91] Creating Layer res4e_res4e_relu_0_split
I0829 13:40:53.862872  9284 net.cpp:425] res4e_res4e_relu_0_split <- res4e
I0829 13:40:53.862890  9284 net.cpp:399] res4e_res4e_relu_0_split -> res4e_res4e_relu_0_split_0
I0829 13:40:53.862907  9284 net.cpp:399] res4e_res4e_relu_0_split -> res4e_res4e_relu_0_split_1
I0829 13:40:53.862969  9284 net.cpp:141] Setting up res4e_res4e_relu_0_split
I0829 13:40:53.862994  9284 net.cpp:148] Top shape: 10 1024 14 14 (2007040)
I0829 13:40:53.863011  9284 net.cpp:148] Top shape: 10 1024 14 14 (2007040)
I0829 13:40:53.863025  9284 net.cpp:156] Memory required for data: 2133483640
I0829 13:40:53.863040  9284 layer_factory.hpp:77] Creating layer res4f_branch2a
I0829 13:40:53.863068  9284 net.cpp:91] Creating Layer res4f_branch2a
I0829 13:40:53.863087  9284 net.cpp:425] res4f_branch2a <- res4e_res4e_relu_0_split_0
I0829 13:40:53.863126  9284 net.cpp:399] res4f_branch2a -> res4f_branch2a
I0829 13:40:53.866235  9284 net.cpp:141] Setting up res4f_branch2a
I0829 13:40:53.866272  9284 net.cpp:148] Top shape: 10 256 14 14 (501760)
I0829 13:40:53.866288  9284 net.cpp:156] Memory required for data: 2135490680
I0829 13:40:53.866305  9284 layer_factory.hpp:77] Creating layer bn4f_branch2a
I0829 13:40:53.866324  9284 net.cpp:91] Creating Layer bn4f_branch2a
I0829 13:40:53.866339  9284 net.cpp:425] bn4f_branch2a <- res4f_branch2a
I0829 13:40:53.866360  9284 net.cpp:386] bn4f_branch2a -> res4f_branch2a (in-place)
I0829 13:40:53.866588  9284 net.cpp:141] Setting up bn4f_branch2a
I0829 13:40:53.866613  9284 net.cpp:148] Top shape: 10 256 14 14 (501760)
I0829 13:40:53.866629  9284 net.cpp:156] Memory required for data: 2137497720
I0829 13:40:53.866650  9284 layer_factory.hpp:77] Creating layer scale4f_branch2a
I0829 13:40:53.866670  9284 net.cpp:91] Creating Layer scale4f_branch2a
I0829 13:40:53.866685  9284 net.cpp:425] scale4f_branch2a <- res4f_branch2a
I0829 13:40:53.866703  9284 net.cpp:386] scale4f_branch2a -> res4f_branch2a (in-place)
I0829 13:40:53.866768  9284 layer_factory.hpp:77] Creating layer scale4f_branch2a
I0829 13:40:53.866919  9284 net.cpp:141] Setting up scale4f_branch2a
I0829 13:40:53.866945  9284 net.cpp:148] Top shape: 10 256 14 14 (501760)
I0829 13:40:53.866961  9284 net.cpp:156] Memory required for data: 2139504760
I0829 13:40:53.866978  9284 layer_factory.hpp:77] Creating layer res4f_branch2a_relu
I0829 13:40:53.867000  9284 net.cpp:91] Creating Layer res4f_branch2a_relu
I0829 13:40:53.867020  9284 net.cpp:425] res4f_branch2a_relu <- res4f_branch2a
I0829 13:40:53.867036  9284 net.cpp:386] res4f_branch2a_relu -> res4f_branch2a (in-place)
I0829 13:40:53.867055  9284 net.cpp:141] Setting up res4f_branch2a_relu
I0829 13:40:53.867072  9284 net.cpp:148] Top shape: 10 256 14 14 (501760)
I0829 13:40:53.867087  9284 net.cpp:156] Memory required for data: 2141511800
I0829 13:40:53.867101  9284 layer_factory.hpp:77] Creating layer res4f_branch2b
I0829 13:40:53.867126  9284 net.cpp:91] Creating Layer res4f_branch2b
I0829 13:40:53.867144  9284 net.cpp:425] res4f_branch2b <- res4f_branch2a
I0829 13:40:53.867162  9284 net.cpp:399] res4f_branch2b -> res4f_branch2b
I0829 13:40:53.873687  9284 net.cpp:141] Setting up res4f_branch2b
I0829 13:40:53.873733  9284 net.cpp:148] Top shape: 10 256 14 14 (501760)
I0829 13:40:53.873750  9284 net.cpp:156] Memory required for data: 2143518840
I0829 13:40:53.873769  9284 layer_factory.hpp:77] Creating layer bn4f_branch2b
I0829 13:40:53.873787  9284 net.cpp:91] Creating Layer bn4f_branch2b
I0829 13:40:53.873803  9284 net.cpp:425] bn4f_branch2b <- res4f_branch2b
I0829 13:40:53.873821  9284 net.cpp:386] bn4f_branch2b -> res4f_branch2b (in-place)
I0829 13:40:53.874054  9284 net.cpp:141] Setting up bn4f_branch2b
I0829 13:40:53.874080  9284 net.cpp:148] Top shape: 10 256 14 14 (501760)
I0829 13:40:53.874096  9284 net.cpp:156] Memory required for data: 2145525880
I0829 13:40:53.874117  9284 layer_factory.hpp:77] Creating layer scale4f_branch2b
I0829 13:40:53.874137  9284 net.cpp:91] Creating Layer scale4f_branch2b
I0829 13:40:53.874153  9284 net.cpp:425] scale4f_branch2b <- res4f_branch2b
I0829 13:40:53.874171  9284 net.cpp:386] scale4f_branch2b -> res4f_branch2b (in-place)
I0829 13:40:53.874248  9284 layer_factory.hpp:77] Creating layer scale4f_branch2b
I0829 13:40:53.874409  9284 net.cpp:141] Setting up scale4f_branch2b
I0829 13:40:53.874435  9284 net.cpp:148] Top shape: 10 256 14 14 (501760)
I0829 13:40:53.874451  9284 net.cpp:156] Memory required for data: 2147532920
I0829 13:40:53.874469  9284 layer_factory.hpp:77] Creating layer res4f_branch2b_relu
I0829 13:40:53.874490  9284 net.cpp:91] Creating Layer res4f_branch2b_relu
I0829 13:40:53.874508  9284 net.cpp:425] res4f_branch2b_relu <- res4f_branch2b
I0829 13:40:53.874532  9284 net.cpp:386] res4f_branch2b_relu -> res4f_branch2b (in-place)
I0829 13:40:53.874552  9284 net.cpp:141] Setting up res4f_branch2b_relu
I0829 13:40:53.874569  9284 net.cpp:148] Top shape: 10 256 14 14 (501760)
I0829 13:40:53.874615  9284 net.cpp:156] Memory required for data: 2149539960
I0829 13:40:53.874631  9284 layer_factory.hpp:77] Creating layer res4f_branch2c
I0829 13:40:53.874653  9284 net.cpp:91] Creating Layer res4f_branch2c
I0829 13:40:53.874670  9284 net.cpp:425] res4f_branch2c <- res4f_branch2b
I0829 13:40:53.874692  9284 net.cpp:399] res4f_branch2c -> res4f_branch2c
I0829 13:40:53.877826  9284 net.cpp:141] Setting up res4f_branch2c
I0829 13:40:53.877856  9284 net.cpp:148] Top shape: 10 1024 14 14 (2007040)
I0829 13:40:53.877872  9284 net.cpp:156] Memory required for data: 2157568120
I0829 13:40:53.877890  9284 layer_factory.hpp:77] Creating layer bn4f_branch2c
I0829 13:40:53.877908  9284 net.cpp:91] Creating Layer bn4f_branch2c
I0829 13:40:53.877923  9284 net.cpp:425] bn4f_branch2c <- res4f_branch2c
I0829 13:40:53.877940  9284 net.cpp:386] bn4f_branch2c -> res4f_branch2c (in-place)
I0829 13:40:53.878180  9284 net.cpp:141] Setting up bn4f_branch2c
I0829 13:40:53.878204  9284 net.cpp:148] Top shape: 10 1024 14 14 (2007040)
I0829 13:40:53.878221  9284 net.cpp:156] Memory required for data: 2165596280
I0829 13:40:53.878294  9284 layer_factory.hpp:77] Creating layer scale4f_branch2c
I0829 13:40:53.878319  9284 net.cpp:91] Creating Layer scale4f_branch2c
I0829 13:40:53.878337  9284 net.cpp:425] scale4f_branch2c <- res4f_branch2c
I0829 13:40:53.878355  9284 net.cpp:386] scale4f_branch2c -> res4f_branch2c (in-place)
I0829 13:40:53.878422  9284 layer_factory.hpp:77] Creating layer scale4f_branch2c
I0829 13:40:53.878582  9284 net.cpp:141] Setting up scale4f_branch2c
I0829 13:40:53.878608  9284 net.cpp:148] Top shape: 10 1024 14 14 (2007040)
I0829 13:40:53.878624  9284 net.cpp:156] Memory required for data: 2173624440
I0829 13:40:53.878643  9284 layer_factory.hpp:77] Creating layer res4f
I0829 13:40:53.878666  9284 net.cpp:91] Creating Layer res4f
I0829 13:40:53.878684  9284 net.cpp:425] res4f <- res4e_res4e_relu_0_split_1
I0829 13:40:53.878700  9284 net.cpp:425] res4f <- res4f_branch2c
I0829 13:40:53.878717  9284 net.cpp:399] res4f -> res4f
I0829 13:40:53.878765  9284 net.cpp:141] Setting up res4f
I0829 13:40:53.878790  9284 net.cpp:148] Top shape: 10 1024 14 14 (2007040)
I0829 13:40:53.878805  9284 net.cpp:156] Memory required for data: 2181652600
I0829 13:40:53.878819  9284 layer_factory.hpp:77] Creating layer res4f_relu
I0829 13:40:53.878836  9284 net.cpp:91] Creating Layer res4f_relu
I0829 13:40:53.878851  9284 net.cpp:425] res4f_relu <- res4f
I0829 13:40:53.878871  9284 net.cpp:386] res4f_relu -> res4f (in-place)
I0829 13:40:53.878895  9284 net.cpp:141] Setting up res4f_relu
I0829 13:40:53.878912  9284 net.cpp:148] Top shape: 10 1024 14 14 (2007040)
I0829 13:40:53.878926  9284 net.cpp:156] Memory required for data: 2189680760
I0829 13:40:53.878940  9284 layer_factory.hpp:77] Creating layer res4f_res4f_relu_0_split
I0829 13:40:53.878958  9284 net.cpp:91] Creating Layer res4f_res4f_relu_0_split
I0829 13:40:53.878973  9284 net.cpp:425] res4f_res4f_relu_0_split <- res4f
I0829 13:40:53.878988  9284 net.cpp:399] res4f_res4f_relu_0_split -> res4f_res4f_relu_0_split_0
I0829 13:40:53.879007  9284 net.cpp:399] res4f_res4f_relu_0_split -> res4f_res4f_relu_0_split_1
I0829 13:40:53.879068  9284 net.cpp:141] Setting up res4f_res4f_relu_0_split
I0829 13:40:53.879093  9284 net.cpp:148] Top shape: 10 1024 14 14 (2007040)
I0829 13:40:53.879110  9284 net.cpp:148] Top shape: 10 1024 14 14 (2007040)
I0829 13:40:53.879125  9284 net.cpp:156] Memory required for data: 2205737080
I0829 13:40:53.879139  9284 layer_factory.hpp:77] Creating layer res5a_branch1
I0829 13:40:53.879163  9284 net.cpp:91] Creating Layer res5a_branch1
I0829 13:40:53.879180  9284 net.cpp:425] res5a_branch1 <- res4f_res4f_relu_0_split_0
I0829 13:40:53.879199  9284 net.cpp:399] res5a_branch1 -> res5a_branch1
I0829 13:40:53.901685  9284 net.cpp:141] Setting up res5a_branch1
I0829 13:40:53.901757  9284 net.cpp:148] Top shape: 10 2048 7 7 (1003520)
I0829 13:40:53.901773  9284 net.cpp:156] Memory required for data: 2209751160
I0829 13:40:53.901844  9284 layer_factory.hpp:77] Creating layer bn5a_branch1
I0829 13:40:53.901871  9284 net.cpp:91] Creating Layer bn5a_branch1
I0829 13:40:53.901896  9284 net.cpp:425] bn5a_branch1 <- res5a_branch1
I0829 13:40:53.901919  9284 net.cpp:386] bn5a_branch1 -> res5a_branch1 (in-place)
I0829 13:40:53.902197  9284 net.cpp:141] Setting up bn5a_branch1
I0829 13:40:53.902223  9284 net.cpp:148] Top shape: 10 2048 7 7 (1003520)
I0829 13:40:53.902241  9284 net.cpp:156] Memory required for data: 2213765240
I0829 13:40:53.902262  9284 layer_factory.hpp:77] Creating layer scale5a_branch1
I0829 13:40:53.902283  9284 net.cpp:91] Creating Layer scale5a_branch1
I0829 13:40:53.902304  9284 net.cpp:425] scale5a_branch1 <- res5a_branch1
I0829 13:40:53.902324  9284 net.cpp:386] scale5a_branch1 -> res5a_branch1 (in-place)
I0829 13:40:53.902395  9284 layer_factory.hpp:77] Creating layer scale5a_branch1
I0829 13:40:53.902562  9284 net.cpp:141] Setting up scale5a_branch1
I0829 13:40:53.902592  9284 net.cpp:148] Top shape: 10 2048 7 7 (1003520)
I0829 13:40:53.902608  9284 net.cpp:156] Memory required for data: 2217779320
I0829 13:40:53.902627  9284 layer_factory.hpp:77] Creating layer res5a_branch2a
I0829 13:40:53.902652  9284 net.cpp:91] Creating Layer res5a_branch2a
I0829 13:40:53.902676  9284 net.cpp:425] res5a_branch2a <- res4f_res4f_relu_0_split_1
I0829 13:40:53.902698  9284 net.cpp:399] res5a_branch2a -> res5a_branch2a
I0829 13:40:53.908583  9284 net.cpp:141] Setting up res5a_branch2a
I0829 13:40:53.908633  9284 net.cpp:148] Top shape: 10 512 7 7 (250880)
I0829 13:40:53.908649  9284 net.cpp:156] Memory required for data: 2218782840
I0829 13:40:53.908668  9284 layer_factory.hpp:77] Creating layer bn5a_branch2a
I0829 13:40:53.908690  9284 net.cpp:91] Creating Layer bn5a_branch2a
I0829 13:40:53.908706  9284 net.cpp:425] bn5a_branch2a <- res5a_branch2a
I0829 13:40:53.908727  9284 net.cpp:386] bn5a_branch2a -> res5a_branch2a (in-place)
I0829 13:40:53.908973  9284 net.cpp:141] Setting up bn5a_branch2a
I0829 13:40:53.909000  9284 net.cpp:148] Top shape: 10 512 7 7 (250880)
I0829 13:40:53.909015  9284 net.cpp:156] Memory required for data: 2219786360
I0829 13:40:53.909039  9284 layer_factory.hpp:77] Creating layer scale5a_branch2a
I0829 13:40:53.909060  9284 net.cpp:91] Creating Layer scale5a_branch2a
I0829 13:40:53.909075  9284 net.cpp:425] scale5a_branch2a <- res5a_branch2a
I0829 13:40:53.909092  9284 net.cpp:386] scale5a_branch2a -> res5a_branch2a (in-place)
I0829 13:40:53.909158  9284 layer_factory.hpp:77] Creating layer scale5a_branch2a
I0829 13:40:53.909319  9284 net.cpp:141] Setting up scale5a_branch2a
I0829 13:40:53.909345  9284 net.cpp:148] Top shape: 10 512 7 7 (250880)
I0829 13:40:53.909360  9284 net.cpp:156] Memory required for data: 2220789880
I0829 13:40:53.909379  9284 layer_factory.hpp:77] Creating layer res5a_branch2a_relu
I0829 13:40:53.909406  9284 net.cpp:91] Creating Layer res5a_branch2a_relu
I0829 13:40:53.909423  9284 net.cpp:425] res5a_branch2a_relu <- res5a_branch2a
I0829 13:40:53.909440  9284 net.cpp:386] res5a_branch2a_relu -> res5a_branch2a (in-place)
I0829 13:40:53.909463  9284 net.cpp:141] Setting up res5a_branch2a_relu
I0829 13:40:53.909481  9284 net.cpp:148] Top shape: 10 512 7 7 (250880)
I0829 13:40:53.909495  9284 net.cpp:156] Memory required for data: 2221793400
I0829 13:40:53.909510  9284 layer_factory.hpp:77] Creating layer res5a_branch2b
I0829 13:40:53.909534  9284 net.cpp:91] Creating Layer res5a_branch2b
I0829 13:40:53.909555  9284 net.cpp:425] res5a_branch2b <- res5a_branch2a
I0829 13:40:53.909574  9284 net.cpp:399] res5a_branch2b -> res5a_branch2b
I0829 13:40:53.935077  9284 net.cpp:141] Setting up res5a_branch2b
I0829 13:40:53.935148  9284 net.cpp:148] Top shape: 10 512 7 7 (250880)
I0829 13:40:53.935163  9284 net.cpp:156] Memory required for data: 2222796920
I0829 13:40:53.935194  9284 layer_factory.hpp:77] Creating layer bn5a_branch2b
I0829 13:40:53.935225  9284 net.cpp:91] Creating Layer bn5a_branch2b
I0829 13:40:53.935243  9284 net.cpp:425] bn5a_branch2b <- res5a_branch2b
I0829 13:40:53.935303  9284 net.cpp:386] bn5a_branch2b -> res5a_branch2b (in-place)
I0829 13:40:53.935586  9284 net.cpp:141] Setting up bn5a_branch2b
I0829 13:40:53.935612  9284 net.cpp:148] Top shape: 10 512 7 7 (250880)
I0829 13:40:53.935631  9284 net.cpp:156] Memory required for data: 2223800440
I0829 13:40:53.935653  9284 layer_factory.hpp:77] Creating layer scale5a_branch2b
I0829 13:40:53.935678  9284 net.cpp:91] Creating Layer scale5a_branch2b
I0829 13:40:53.935700  9284 net.cpp:425] scale5a_branch2b <- res5a_branch2b
I0829 13:40:53.935719  9284 net.cpp:386] scale5a_branch2b -> res5a_branch2b (in-place)
I0829 13:40:53.935787  9284 layer_factory.hpp:77] Creating layer scale5a_branch2b
I0829 13:40:53.935953  9284 net.cpp:141] Setting up scale5a_branch2b
I0829 13:40:53.935979  9284 net.cpp:148] Top shape: 10 512 7 7 (250880)
I0829 13:40:53.935994  9284 net.cpp:156] Memory required for data: 2224803960
I0829 13:40:53.936013  9284 layer_factory.hpp:77] Creating layer res5a_branch2b_relu
I0829 13:40:53.936033  9284 net.cpp:91] Creating Layer res5a_branch2b_relu
I0829 13:40:53.936048  9284 net.cpp:425] res5a_branch2b_relu <- res5a_branch2b
I0829 13:40:53.936069  9284 net.cpp:386] res5a_branch2b_relu -> res5a_branch2b (in-place)
I0829 13:40:53.936089  9284 net.cpp:141] Setting up res5a_branch2b_relu
I0829 13:40:53.936105  9284 net.cpp:148] Top shape: 10 512 7 7 (250880)
I0829 13:40:53.936120  9284 net.cpp:156] Memory required for data: 2225807480
I0829 13:40:53.936136  9284 layer_factory.hpp:77] Creating layer res5a_branch2c
I0829 13:40:53.936162  9284 net.cpp:91] Creating Layer res5a_branch2c
I0829 13:40:53.936180  9284 net.cpp:425] res5a_branch2c <- res5a_branch2b
I0829 13:40:53.936199  9284 net.cpp:399] res5a_branch2c -> res5a_branch2c
I0829 13:40:53.947883  9284 net.cpp:141] Setting up res5a_branch2c
I0829 13:40:53.947942  9284 net.cpp:148] Top shape: 10 2048 7 7 (1003520)
I0829 13:40:53.947963  9284 net.cpp:156] Memory required for data: 2229821560
I0829 13:40:53.947984  9284 layer_factory.hpp:77] Creating layer bn5a_branch2c
I0829 13:40:53.948012  9284 net.cpp:91] Creating Layer bn5a_branch2c
I0829 13:40:53.948032  9284 net.cpp:425] bn5a_branch2c <- res5a_branch2c
I0829 13:40:53.948053  9284 net.cpp:386] bn5a_branch2c -> res5a_branch2c (in-place)
I0829 13:40:53.948323  9284 net.cpp:141] Setting up bn5a_branch2c
I0829 13:40:53.948349  9284 net.cpp:148] Top shape: 10 2048 7 7 (1003520)
I0829 13:40:53.948364  9284 net.cpp:156] Memory required for data: 2233835640
I0829 13:40:53.948386  9284 layer_factory.hpp:77] Creating layer scale5a_branch2c
I0829 13:40:53.948407  9284 net.cpp:91] Creating Layer scale5a_branch2c
I0829 13:40:53.948426  9284 net.cpp:425] scale5a_branch2c <- res5a_branch2c
I0829 13:40:53.948447  9284 net.cpp:386] scale5a_branch2c -> res5a_branch2c (in-place)
I0829 13:40:53.948519  9284 layer_factory.hpp:77] Creating layer scale5a_branch2c
I0829 13:40:53.948696  9284 net.cpp:141] Setting up scale5a_branch2c
I0829 13:40:53.948725  9284 net.cpp:148] Top shape: 10 2048 7 7 (1003520)
I0829 13:40:53.948742  9284 net.cpp:156] Memory required for data: 2237849720
I0829 13:40:53.948761  9284 layer_factory.hpp:77] Creating layer res5a
I0829 13:40:53.948781  9284 net.cpp:91] Creating Layer res5a
I0829 13:40:53.948799  9284 net.cpp:425] res5a <- res5a_branch1
I0829 13:40:53.948815  9284 net.cpp:425] res5a <- res5a_branch2c
…
I0829 13:40:54.228580  9284 layer_factory.hpp:77] Creating layer res4d_branch2a_relu
I0829 13:40:54.228606  9284 net.cpp:91] Creating Layer res4d_branch2a_relu
I0829 13:40:54.228622  9284 net.cpp:425] res4d_branch2a_relu <- res4d_branch2a
I0829 13:40:54.228638  9284 net.cpp:386] res4d_branch2a_relu -> res4d_branch2a (in-place)
I0829 13:40:54.228657  9284 net.cpp:141] Setting up res4d_branch2a_relu
I0829 13:40:54.228672  9284 net.cpp:148] Top shape: 10 256 14 14 (501760)
I0829 13:40:54.228682  9284 net.cpp:156] Memory required for data: 1997005000
I0829 13:40:54.228689  9284 layer_factory.hpp:77] Creating layer res4d_branch2b
I0829 13:40:54.228708  9284 net.cpp:91] Creating Layer res4d_branch2b
I0829 13:40:54.228724  9284 net.cpp:425] res4d_branch2b <- res4d_branch2a
I0829 13:40:54.228744  9284 net.cpp:399] res4d_branch2b -> res4d_branch2b
I0829 13:40:54.235258  9284 net.cpp:141] Setting up res4d_branch2b
I0829 13:40:54.235290  9284 net.cpp:148] Top shape: 10 256 14 14 (501760)
I0829 13:40:54.235304  9284 net.cpp:156] Memory required for data: 1999012040
I0829 13:40:54.235323  9284 layer_factory.hpp:77] Creating layer bn4d_branch2b
I0829 13:40:54.235342  9284 net.cpp:91] Creating Layer bn4d_branch2b
I0829 13:40:54.235357  9284 net.cpp:425] bn4d_branch2b <- res4d_branch2b
I0829 13:40:54.235374  9284 net.cpp:386] bn4d_branch2b -> res4d_branch2b (in-place)
I0829 13:40:54.235607  9284 net.cpp:141] Setting up bn4d_branch2b
I0829 13:40:54.235633  9284 net.cpp:148] Top shape: 10 256 14 14 (501760)
I0829 13:40:54.235648  9284 net.cpp:156] Memory required for data: 2001019080
I0829 13:40:54.235668  9284 layer_factory.hpp:77] Creating layer scale4d_branch2b
I0829 13:40:54.235690  9284 net.cpp:91] Creating Layer scale4d_branch2b
I0829 13:40:54.235707  9284 net.cpp:425] scale4d_branch2b <- res4d_branch2b
I0829 13:40:54.235723  9284 net.cpp:386] scale4d_branch2b -> res4d_branch2b (in-place)
I0829 13:40:54.235788  9284 layer_factory.hpp:77] Creating layer scale4d_branch2b
I0829 13:40:54.235952  9284 net.cpp:141] Setting up scale4d_branch2b
I0829 13:40:54.235977  9284 net.cpp:148] Top shape: 10 256 14 14 (501760)
I0829 13:40:54.235991  9284 net.cpp:156] Memory required for data: 2003026120
I0829 13:40:54.236009  9284 layer_factory.hpp:77] Creating layer res4d_branch2b_relu
I0829 13:40:54.236027  9284 net.cpp:91] Creating Layer res4d_branch2b_relu
I0829 13:40:54.236042  9284 net.cpp:425] res4d_branch2b_relu <- res4d_branch2b
I0829 13:40:54.236059  9284 net.cpp:386] res4d_branch2b_relu -> res4d_branch2b (in-place)
I0829 13:40:54.236078  9284 net.cpp:141] Setting up res4d_branch2b_relu
I0829 13:40:54.236095  9284 net.cpp:148] Top shape: 10 256 14 14 (501760)
I0829 13:40:54.236109  9284 net.cpp:156] Memory required for data: 2005033160
I0829 13:40:54.236124  9284 layer_factory.hpp:77] Creating layer res4d_branch2c
I0829 13:40:54.236146  9284 net.cpp:91] Creating Layer res4d_branch2c
I0829 13:40:54.236181  9284 net.cpp:425] res4d_branch2c <- res4d_branch2b
I0829 13:40:54.236201  9284 net.cpp:399] res4d_branch2c -> res4d_branch2c
I0829 13:40:54.239320  9284 net.cpp:141] Setting up res4d_branch2c
I0829 13:40:54.239351  9284 net.cpp:148] Top shape: 10 1024 14 14 (2007040)
I0829 13:40:54.239365  9284 net.cpp:156] Memory required for data: 2013061320
I0829 13:40:54.239382  9284 layer_factory.hpp:77] Creating layer bn4d_branch2c
I0829 13:40:54.239404  9284 net.cpp:91] Creating Layer bn4d_branch2c
I0829 13:40:54.239420  9284 net.cpp:425] bn4d_branch2c <- res4d_branch2c
I0829 13:40:54.239436  9284 net.cpp:386] bn4d_branch2c -> res4d_branch2c (in-place)
I0829 13:40:54.239686  9284 net.cpp:141] Setting up bn4d_branch2c
I0829 13:40:54.239711  9284 net.cpp:148] Top shape: 10 1024 14 14 (2007040)
I0829 13:40:54.239727  9284 net.cpp:156] Memory required for data: 2021089480
I0829 13:40:54.239747  9284 layer_factory.hpp:77] Creating layer scale4d_branch2c
I0829 13:40:54.239764  9284 net.cpp:91] Creating Layer scale4d_branch2c
I0829 13:40:54.239780  9284 net.cpp:425] scale4d_branch2c <- res4d_branch2c
I0829 13:40:54.239799  9284 net.cpp:386] scale4d_branch2c -> res4d_branch2c (in-place)
I0829 13:40:54.239864  9284 layer_factory.hpp:77] Creating layer scale4d_branch2c
I0829 13:40:54.240037  9284 net.cpp:141] Setting up scale4d_branch2c
I0829 13:40:54.240062  9284 net.cpp:148] Top shape: 10 1024 14 14 (2007040)
I0829 13:40:54.240077  9284 net.cpp:156] Memory required for data: 2029117640
I0829 13:40:54.240095  9284 layer_factory.hpp:77] Creating layer res4d
I0829 13:40:54.240113  9284 net.cpp:91] Creating Layer res4d
I0829 13:40:54.240128  9284 net.cpp:425] res4d <- res4c_res4c_relu_0_split_1
I0829 13:40:54.240144  9284 net.cpp:425] res4d <- res4d_branch2c
I0829 13:40:54.240161  9284 net.cpp:399] res4d -> res4d
I0829 13:40:54.240207  9284 net.cpp:141] Setting up res4d
I0829 13:40:54.240231  9284 net.cpp:148] Top shape: 10 1024 14 14 (2007040)
I0829 13:40:54.240249  9284 net.cpp:156] Memory required for data: 2037145800
I0829 13:40:54.240263  9284 layer_factory.hpp:77] Creating layer res4d_relu
I0829 13:40:54.240281  9284 net.cpp:91] Creating Layer res4d_relu
I0829 13:40:54.240298  9284 net.cpp:425] res4d_relu <- res4d
I0829 13:40:54.240312  9284 net.cpp:386] res4d_relu -> res4d (in-place)
I0829 13:40:54.240330  9284 net.cpp:141] Setting up res4d_relu
I0829 13:40:54.240346  9284 net.cpp:148] Top shape: 10 1024 14 14 (2007040)
I0829 13:40:54.240360  9284 net.cpp:156] Memory required for data: 2045173960
I0829 13:40:54.240375  9284 layer_factory.hpp:77] Creating layer res4d_res4d_relu_0_split
I0829 13:40:54.240391  9284 net.cpp:91] Creating Layer res4d_res4d_relu_0_split
I0829 13:40:54.240404  9284 net.cpp:425] res4d_res4d_relu_0_split <- res4d
I0829 13:40:54.240423  9284 net.cpp:399] res4d_res4d_relu_0_split -> res4d_res4d_relu_0_split_0
I0829 13:40:54.240442  9284 net.cpp:399] res4d_res4d_relu_0_split -> res4d_res4d_relu_0_split_1
I0829 13:40:54.240496  9284 net.cpp:141] Setting up res4d_res4d_relu_0_split
I0829 13:40:54.240520  9284 net.cpp:148] Top shape: 10 1024 14 14 (2007040)
I0829 13:40:54.240536  9284 net.cpp:148] Top shape: 10 1024 14 14 (2007040)
I0829 13:40:54.240550  9284 net.cpp:156] Memory required for data: 2061230280
I0829 13:40:54.240563  9284 layer_factory.hpp:77] Creating layer res4e_branch2a
I0829 13:40:54.240587  9284 net.cpp:91] Creating Layer res4e_branch2a
I0829 13:40:54.240610  9284 net.cpp:425] res4e_branch2a <- res4d_res4d_relu_0_split_0
I0829 13:40:54.240629  9284 net.cpp:399] res4e_branch2a -> res4e_branch2a
I0829 13:40:54.243742  9284 net.cpp:141] Setting up res4e_branch2a
I0829 13:40:54.243772  9284 net.cpp:148] Top shape: 10 256 14 14 (501760)
I0829 13:40:54.243788  9284 net.cpp:156] Memory required for data: 2063237320
I0829 13:40:54.243806  9284 layer_factory.hpp:77] Creating layer bn4e_branch2a
I0829 13:40:54.243827  9284 net.cpp:91] Creating Layer bn4e_branch2a
I0829 13:40:54.243844  9284 net.cpp:425] bn4e_branch2a <- res4e_branch2a
I0829 13:40:54.243860  9284 net.cpp:386] bn4e_branch2a -> res4e_branch2a (in-place)
I0829 13:40:54.244113  9284 net.cpp:141] Setting up bn4e_branch2a
I0829 13:40:54.244139  9284 net.cpp:148] Top shape: 10 256 14 14 (501760)
I0829 13:40:54.244154  9284 net.cpp:156] Memory required for data: 2065244360
I0829 13:40:54.244174  9284 layer_factory.hpp:77] Creating layer scale4e_branch2a
I0829 13:40:54.244194  9284 net.cpp:91] Creating Layer scale4e_branch2a
I0829 13:40:54.244209  9284 net.cpp:425] scale4e_branch2a <- res4e_branch2a
I0829 13:40:54.244228  9284 net.cpp:386] scale4e_branch2a -> res4e_branch2a (in-place)
I0829 13:40:54.244292  9284 layer_factory.hpp:77] Creating layer scale4e_branch2a
I0829 13:40:54.244465  9284 net.cpp:141] Setting up scale4e_branch2a
I0829 13:40:54.244490  9284 net.cpp:148] Top shape: 10 256 14 14 (501760)
I0829 13:40:54.244508  9284 net.cpp:156] Memory required for data: 2067251400
I0829 13:40:54.244527  9284 layer_factory.hpp:77] Creating layer res4e_branch2a_relu
I0829 13:40:54.244545  9284 net.cpp:91] Creating Layer res4e_branch2a_relu
I0829 13:40:54.244560  9284 net.cpp:425] res4e_branch2a_relu <- res4e_branch2a
I0829 13:40:54.244575  9284 net.cpp:386] res4e_branch2a_relu -> res4e_branch2a (in-place)
I0829 13:40:54.244593  9284 net.cpp:141] Setting up res4e_branch2a_relu
I0829 13:40:54.244617  9284 net.cpp:148] Top shape: 10 256 14 14 (501760)
I0829 13:40:54.244635  9284 net.cpp:156] Memory required for data: 2069258440
I0829 13:40:54.244650  9284 layer_factory.hpp:77] Creating layer res4e_branch2b
I0829 13:40:54.244674  9284 net.cpp:91] Creating Layer res4e_branch2b
I0829 13:40:54.244698  9284 net.cpp:425] res4e_branch2b <- res4e_branch2a
I0829 13:40:54.244719  9284 net.cpp:399] res4e_branch2b -> res4e_branch2b
I0829 13:40:54.251225  9284 net.cpp:141] Setting up res4e_branch2b
I0829 13:40:54.251256  9284 net.cpp:148] Top shape: 10 256 14 14 (501760)
I0829 13:40:54.251271  9284 net.cpp:156] Memory required for data: 2071265480
I0829 13:40:54.251288  9284 layer_factory.hpp:77] Creating layer bn4e_branch2b
I0829 13:40:54.251315  9284 net.cpp:91] Creating Layer bn4e_branch2b
I0829 13:40:54.251330  9284 net.cpp:425] bn4e_branch2b <- res4e_branch2b
I0829 13:40:54.251350  9284 net.cpp:386] bn4e_branch2b -> res4e_branch2b (in-place)
I0829 13:40:54.251593  9284 net.cpp:141] Setting up bn4e_branch2b
I0829 13:40:54.251618  9284 net.cpp:148] Top shape: 10 256 14 14 (501760)
I0829 13:40:54.251633  9284 net.cpp:156] Memory required for data: 2073272520
I0829 13:40:54.251654  9284 layer_factory.hpp:77] Creating layer scale4e_branch2b
I0829 13:40:54.251675  9284 net.cpp:91] Creating Layer scale4e_branch2b
I0829 13:40:54.251690  9284 net.cpp:425] scale4e_branch2b <- res4e_branch2b
I0829 13:40:54.251706  9284 net.cpp:386] scale4e_branch2b -> res4e_branch2b (in-place)
I0829 13:40:54.251772  9284 layer_factory.hpp:77] Creating layer scale4e_branch2b
I0829 13:40:54.251933  9284 net.cpp:141] Setting up scale4e_branch2b
I0829 13:40:54.251957  9284 net.cpp:148] Top shape: 10 256 14 14 (501760)
I0829 13:40:54.251972  9284 net.cpp:156] Memory required for data: 2075279560
I0829 13:40:54.251999  9284 layer_factory.hpp:77] Creating layer res4e_branch2b_relu
I0829 13:40:54.252020  9284 net.cpp:91] Creating Layer res4e_branch2b_relu
I0829 13:40:54.252038  9284 net.cpp:425] res4e_branch2b_relu <- res4e_branch2b
I0829 13:40:54.252054  9284 net.cpp:386] res4e_branch2b_relu -> res4e_branch2b (in-place)
I0829 13:40:54.252073  9284 net.cpp:141] Setting up res4e_branch2b_relu
I0829 13:40:54.252089  9284 net.cpp:148] Top shape: 10 256 14 14 (501760)
I0829 13:40:54.252104  9284 net.cpp:156] Memory required for data: 2077286600
I0829 13:40:54.252117  9284 layer_factory.hpp:77] Creating layer res4e_branch2c
I0829 13:40:54.252140  9284 net.cpp:91] Creating Layer res4e_branch2c
I0829 13:40:54.252156  9284 net.cpp:425] res4e_branch2c <- res4e_branch2b
I0829 13:40:54.252174  9284 net.cpp:399] res4e_branch2c -> res4e_branch2c
I0829 13:40:54.255271  9284 net.cpp:141] Setting up res4e_branch2c
I0829 13:40:54.255301  9284 net.cpp:148] Top shape: 10 1024 14 14 (2007040)
I0829 13:40:54.255334  9284 net.cpp:156] Memory required for data: 2085314760
I0829 13:40:54.255355  9284 layer_factory.hpp:77] Creating layer bn4e_branch2c
I0829 13:40:54.255373  9284 net.cpp:91] Creating Layer bn4e_branch2c
I0829 13:40:54.255388  9284 net.cpp:425] bn4e_branch2c <- res4e_branch2c
I0829 13:40:54.255405  9284 net.cpp:386] bn4e_branch2c -> res4e_branch2c (in-place)
I0829 13:40:54.255672  9284 net.cpp:141] Setting up bn4e_branch2c
I0829 13:40:54.255699  9284 net.cpp:148] Top shape: 10 1024 14 14 (2007040)
I0829 13:40:54.255713  9284 net.cpp:156] Memory required for data: 2093342920
I0829 13:40:54.255734  9284 layer_factory.hpp:77] Creating layer scale4e_branch2c
I0829 13:40:54.255754  9284 net.cpp:91] Creating Layer scale4e_branch2c
I0829 13:40:54.255769  9284 net.cpp:425] scale4e_branch2c <- res4e_branch2c
I0829 13:40:54.255785  9284 net.cpp:386] scale4e_branch2c -> res4e_branch2c (in-place)
I0829 13:40:54.255854  9284 layer_factory.hpp:77] Creating layer scale4e_branch2c
I0829 13:40:54.256031  9284 net.cpp:141] Setting up scale4e_branch2c
I0829 13:40:54.256057  9284 net.cpp:148] Top shape: 10 1024 14 14 (2007040)
I0829 13:40:54.256072  9284 net.cpp:156] Memory required for data: 2101371080
I0829 13:40:54.256090  9284 layer_factory.hpp:77] Creating layer res4e
I0829 13:40:54.256119  9284 net.cpp:91] Creating Layer res4e
I0829 13:40:54.256135  9284 net.cpp:425] res4e <- res4d_res4d_relu_0_split_1
I0829 13:40:54.256152  9284 net.cpp:425] res4e <- res4e_branch2c
I0829 13:40:54.256172  9284 net.cpp:399] res4e -> res4e
I0829 13:40:54.256217  9284 net.cpp:141] Setting up res4e
I0829 13:40:54.256240  9284 net.cpp:148] Top shape: 10 1024 14 14 (2007040)
I0829 13:40:54.256254  9284 net.cpp:156] Memory required for data: 2109399240
I0829 13:40:54.256268  9284 layer_factory.hpp:77] Creating layer res4e_relu
I0829 13:40:54.256289  9284 net.cpp:91] Creating Layer res4e_relu
I0829 13:40:54.256304  9284 net.cpp:425] res4e_relu <- res4e
I0829 13:40:54.256320  9284 net.cpp:386] res4e_relu -> res4e (in-place)
I0829 13:40:54.256342  9284 net.cpp:141] Setting up res4e_relu
I0829 13:40:54.256361  9284 net.cpp:148] Top shape: 10 1024 14 14 (2007040)
I0829 13:40:54.256376  9284 net.cpp:156] Memory required for data: 2117427400
I0829 13:40:54.256391  9284 layer_factory.hpp:77] Creating layer res4e_res4e_relu_0_split
I0829 13:40:54.256407  9284 net.cpp:91] Creating Layer res4e_res4e_relu_0_split
I0829 13:40:54.256420  9284 net.cpp:425] res4e_res4e_relu_0_split <- res4e
I0829 13:40:54.256436  9284 net.cpp:399] res4e_res4e_relu_0_split -> res4e_res4e_relu_0_split_0
I0829 13:40:54.256454  9284 net.cpp:399] res4e_res4e_relu_0_split -> res4e_res4e_relu_0_split_1
I0829 13:40:54.256513  9284 net.cpp:141] Setting up res4e_res4e_relu_0_split
I0829 13:40:54.256536  9284 net.cpp:148] Top shape: 10 1024 14 14 (2007040)
I0829 13:40:54.256551  9284 net.cpp:148] Top shape: 10 1024 14 14 (2007040)
I0829 13:40:54.256564  9284 net.cpp:156] Memory required for data: 2133483720
I0829 13:40:54.256579  9284 layer_factory.hpp:77] Creating layer res4f_branch2a
I0829 13:40:54.256605  9284 net.cpp:91] Creating Layer res4f_branch2a
I0829 13:40:54.256623  9284 net.cpp:425] res4f_branch2a <- res4e_res4e_relu_0_split_0
I0829 13:40:54.256644  9284 net.cpp:399] res4f_branch2a -> res4f_branch2a
I0829 13:40:54.259744  9284 net.cpp:141] Setting up res4f_branch2a
I0829 13:40:54.259773  9284 net.cpp:148] Top shape: 10 256 14 14 (501760)
I0829 13:40:54.259788  9284 net.cpp:156] Memory required for data: 2135490760
I0829 13:40:54.259804  9284 layer_factory.hpp:77] Creating layer bn4f_branch2a
I0829 13:40:54.259822  9284 net.cpp:91] Creating Layer bn4f_branch2a
I0829 13:40:54.259837  9284 net.cpp:425] bn4f_branch2a <- res4f_branch2a
I0829 13:40:54.259853  9284 net.cpp:386] bn4f_branch2a -> res4f_branch2a (in-place)
I0829 13:40:54.260094  9284 net.cpp:141] Setting up bn4f_branch2a
I0829 13:40:54.260118  9284 net.cpp:148] Top shape: 10 256 14 14 (501760)
I0829 13:40:54.260133  9284 net.cpp:156] Memory required for data: 2137497800
I0829 13:40:54.260155  9284 layer_factory.hpp:77] Creating layer scale4f_branch2a
I0829 13:40:54.260192  9284 net.cpp:91] Creating Layer scale4f_branch2a
I0829 13:40:54.260208  9284 net.cpp:425] scale4f_branch2a <- res4f_branch2a
I0829 13:40:54.260226  9284 net.cpp:386] scale4f_branch2a -> res4f_branch2a (in-place)
I0829 13:40:54.260293  9284 layer_factory.hpp:77] Creating layer scale4f_branch2a
I0829 13:40:54.260455  9284 net.cpp:141] Setting up scale4f_branch2a
I0829 13:40:54.260479  9284 net.cpp:148] Top shape: 10 256 14 14 (501760)
I0829 13:40:54.260493  9284 net.cpp:156] Memory required for data: 2139504840
I0829 13:40:54.260511  9284 layer_factory.hpp:77] Creating layer res4f_branch2a_relu
I0829 13:40:54.260532  9284 net.cpp:91] Creating Layer res4f_branch2a_relu
I0829 13:40:54.260547  9284 net.cpp:425] res4f_branch2a_relu <- res4f_branch2a
I0829 13:40:54.260563  9284 net.cpp:386] res4f_branch2a_relu -> res4f_branch2a (in-place)
I0829 13:40:54.260581  9284 net.cpp:141] Setting up res4f_branch2a_relu
I0829 13:40:54.260602  9284 net.cpp:148] Top shape: 10 256 14 14 (501760)
I0829 13:40:54.260617  9284 net.cpp:156] Memory required for data: 2141511880
I0829 13:40:54.260632  9284 layer_factory.hpp:77] Creating layer res4f_branch2b
I0829 13:40:54.260655  9284 net.cpp:91] Creating Layer res4f_branch2b
I0829 13:40:54.260671  9284 net.cpp:425] res4f_branch2b <- res4f_branch2a
I0829 13:40:54.260691  9284 net.cpp:399] res4f_branch2b -> res4f_branch2b
I0829 13:40:54.267199  9284 net.cpp:141] Setting up res4f_branch2b
I0829 13:40:54.267226  9284 net.cpp:148] Top shape: 10 256 14 14 (501760)
I0829 13:40:54.267241  9284 net.cpp:156] Memory required for data: 2143518920
I0829 13:40:54.267258  9284 layer_factory.hpp:77] Creating layer bn4f_branch2b
I0829 13:40:54.267277  9284 net.cpp:91] Creating Layer bn4f_branch2b
I0829 13:40:54.267292  9284 net.cpp:425] bn4f_branch2b <- res4f_branch2b
I0829 13:40:54.267307  9284 net.cpp:386] bn4f_branch2b -> res4f_branch2b (in-place)
I0829 13:40:54.267552  9284 net.cpp:141] Setting up bn4f_branch2b
I0829 13:40:54.267575  9284 net.cpp:148] Top shape: 10 256 14 14 (501760)
I0829 13:40:54.267590  9284 net.cpp:156] Memory required for data: 2145525960
I0829 13:40:54.267611  9284 layer_factory.hpp:77] Creating layer scale4f_branch2b
I0829 13:40:54.267633  9284 net.cpp:91] Creating Layer scale4f_branch2b
I0829 13:40:54.267648  9284 net.cpp:425] scale4f_branch2b <- res4f_branch2b
I0829 13:40:54.267664  9284 net.cpp:386] scale4f_branch2b -> res4f_branch2b (in-place)
I0829 13:40:54.267731  9284 layer_factory.hpp:77] Creating layer scale4f_branch2b
I0829 13:40:54.267890  9284 net.cpp:141] Setting up scale4f_branch2b
I0829 13:40:54.267913  9284 net.cpp:148] Top shape: 10 256 14 14 (501760)
I0829 13:40:54.267927  9284 net.cpp:156] Memory required for data: 2147533000
I0829 13:40:54.267946  9284 layer_factory.hpp:77] Creating layer res4f_branch2b_relu
I0829 13:40:54.267963  9284 net.cpp:91] Creating Layer res4f_branch2b_relu
I0829 13:40:54.267977  9284 net.cpp:425] res4f_branch2b_relu <- res4f_branch2b
I0829 13:40:54.267997  9284 net.cpp:386] res4f_branch2b_relu -> res4f_branch2b (in-place)
I0829 13:40:54.268014  9284 net.cpp:141] Setting up res4f_branch2b_relu
I0829 13:40:54.268031  9284 net.cpp:148] Top shape: 10 256 14 14 (501760)
I0829 13:40:54.268044  9284 net.cpp:156] Memory required for data: 2149540040
I0829 13:40:54.268059  9284 layer_factory.hpp:77] Creating layer res4f_branch2c
I0829 13:40:54.268082  9284 net.cpp:91] Creating Layer res4f_branch2c
I0829 13:40:54.268097  9284 net.cpp:425] res4f_branch2c <- res4f_branch2b
I0829 13:40:54.268115  9284 net.cpp:399] res4f_branch2c -> res4f_branch2c
I0829 13:40:54.271374  9284 net.cpp:141] Setting up res4f_branch2c
I0829 13:40:54.271432  9284 net.cpp:148] Top shape: 10 1024 14 14 (2007040)
I0829 13:40:54.271447  9284 net.cpp:156] Memory required for data: 2157568200
I0829 13:40:54.271466  9284 layer_factory.hpp:77] Creating layer bn4f_branch2c
I0829 13:40:54.271494  9284 net.cpp:91] Creating Layer bn4f_branch2c
I0829 13:40:54.271512  9284 net.cpp:425] bn4f_branch2c <- res4f_branch2c
I0829 13:40:54.271529  9284 net.cpp:386] bn4f_branch2c -> res4f_branch2c (in-place)
I0829 13:40:54.271833  9284 net.cpp:141] Setting up bn4f_branch2c
I0829 13:40:54.271855  9284 net.cpp:148] Top shape: 10 1024 14 14 (2007040)
I0829 13:40:54.271869  9284 net.cpp:156] Memory required for data: 2165596360
I0829 13:40:54.271951  9284 layer_factory.hpp:77] Creating layer scale4f_branch2c
I0829 13:40:54.271975  9284 net.cpp:91] Creating Layer scale4f_branch2c
I0829 13:40:54.271989  9284 net.cpp:425] scale4f_branch2c <- res4f_branch2c
I0829 13:40:54.272004  9284 net.cpp:386] scale4f_branch2c -> res4f_branch2c (in-place)
I0829 13:40:54.272083  9284 layer_factory.hpp:77] Creating layer scale4f_branch2c
I0829 13:40:54.272246  9284 net.cpp:141] Setting up scale4f_branch2c
I0829 13:40:54.272269  9284 net.cpp:148] Top shape: 10 1024 14 14 (2007040)
I0829 13:40:54.272281  9284 net.cpp:156] Memory required for data: 2173624520
I0829 13:40:54.272298  9284 layer_factory.hpp:77] Creating layer res4f
I0829 13:40:54.272320  9284 net.cpp:91] Creating Layer res4f
I0829 13:40:54.272334  9284 net.cpp:425] res4f <- res4e_res4e_relu_0_split_1
I0829 13:40:54.272348  9284 net.cpp:425] res4f <- res4f_branch2c
I0829 13:40:54.272367  9284 net.cpp:399] res4f -> res4f
I0829 13:40:54.272410  9284 net.cpp:141] Setting up res4f
I0829 13:40:54.272430  9284 net.cpp:148] Top shape: 10 1024 14 14 (2007040)
I0829 13:40:54.272444  9284 net.cpp:156] Memory required for data: 2181652680
I0829 13:40:54.272456  9284 layer_factory.hpp:77] Creating layer res4f_relu
I0829 13:40:54.272476  9284 net.cpp:91] Creating Layer res4f_relu
I0829 13:40:54.272490  9284 net.cpp:425] res4f_relu <- res4f
I0829 13:40:54.272505  9284 net.cpp:386] res4f_relu -> res4f (in-place)
I0829 13:40:54.272521  9284 net.cpp:141] Setting up res4f_relu
I0829 13:40:54.272536  9284 net.cpp:148] Top shape: 10 1024 14 14 (2007040)
I0829 13:40:54.272548  9284 net.cpp:156] Memory required for data: 2189680840
I0829 13:40:54.272562  9284 layer_factory.hpp:77] Creating layer res4f_res4f_relu_0_split
I0829 13:40:54.272577  9284 net.cpp:91] Creating Layer res4f_res4f_relu_0_split
I0829 13:40:54.272588  9284 net.cpp:425] res4f_res4f_relu_0_split <- res4f
I0829 13:40:54.272614  9284 net.cpp:399] res4f_res4f_relu_0_split -> res4f_res4f_relu_0_split_0
I0829 13:40:54.272632  9284 net.cpp:399] res4f_res4f_relu_0_split -> res4f_res4f_relu_0_split_1
I0829 13:40:54.272691  9284 net.cpp:141] Setting up res4f_res4f_relu_0_split
I0829 13:40:54.272711  9284 net.cpp:148] Top shape: 10 1024 14 14 (2007040)
I0829 13:40:54.272727  9284 net.cpp:148] Top shape: 10 1024 14 14 (2007040)
I0829 13:40:54.272739  9284 net.cpp:156] Memory required for data: 2205737160
I0829 13:40:54.272752  9284 layer_factory.hpp:77] Creating layer res5a_branch1
I0829 13:40:54.272773  9284 net.cpp:91] Creating Layer res5a_branch1
I0829 13:40:54.272786  9284 net.cpp:425] res5a_branch1 <- res4f_res4f_relu_0_split_0
I0829 13:40:54.272811  9284 net.cpp:399] res5a_branch1 -> res5a_branch1
I0829 13:40:54.293404  9284 net.cpp:141] Setting up res5a_branch1
I0829 13:40:54.293438  9284 net.cpp:148] Top shape: 10 2048 7 7 (1003520)
I0829 13:40:54.293452  9284 net.cpp:156] Memory required for data: 2209751240
I0829 13:40:54.293469  9284 layer_factory.hpp:77] Creating layer bn5a_branch1
I0829 13:40:54.293488  9284 net.cpp:91] Creating Layer bn5a_branch1
I0829 13:40:54.293501  9284 net.cpp:425] bn5a_branch1 <- res5a_branch1
I0829 13:40:54.293516  9284 net.cpp:386] bn5a_branch1 -> res5a_branch1 (in-place)
I0829 13:40:54.293792  9284 net.cpp:141] Setting up bn5a_branch1
I0829 13:40:54.293813  9284 net.cpp:148] Top shape: 10 2048 7 7 (1003520)
I0829 13:40:54.293826  9284 net.cpp:156] Memory required for data: 2213765320
I0829 13:40:54.293846  9284 layer_factory.hpp:77] Creating layer scale5a_branch1
I0829 13:40:54.293865  9284 net.cpp:91] Creating Layer scale5a_branch1
I0829 13:40:54.293879  9284 net.cpp:425] scale5a_branch1 <- res5a_branch1
I0829 13:40:54.293895  9284 net.cpp:386] scale5a_branch1 -> res5a_branch1 (in-place)
I0829 13:40:54.293959  9284 layer_factory.hpp:77] Creating layer scale5a_branch1
I0829 13:40:54.294143  9284 net.cpp:141] Setting up scale5a_branch1
I0829 13:40:54.294165  9284 net.cpp:148] Top shape: 10 2048 7 7 (1003520)
I0829 13:40:54.294178  9284 net.cpp:156] Memory required for data: 2217779400
I0829 13:40:54.294195  9284 layer_factory.hpp:77] Creating layer res5a_branch2a
I0829 13:40:54.294219  9284 net.cpp:91] Creating Layer res5a_branch2a
I0829 13:40:54.294234  9284 net.cpp:425] res5a_branch2a <- res4f_res4f_relu_0_split_1
I0829 13:40:54.294250  9284 net.cpp:399] res5a_branch2a -> res5a_branch2a
I0829 13:40:54.299664  9284 net.cpp:141] Setting up res5a_branch2a
I0829 13:40:54.299691  9284 net.cpp:148] Top shape: 10 512 7 7 (250880)
I0829 13:40:54.299705  9284 net.cpp:156] Memory required for data: 2218782920
I0829 13:40:54.299721  9284 layer_factory.hpp:77] Creating layer bn5a_branch2a
I0829 13:40:54.299741  9284 net.cpp:91] Creating Layer bn5a_branch2a
I0829 13:40:54.299757  9284 net.cpp:425] bn5a_branch2a <- res5a_branch2a
I0829 13:40:54.299772  9284 net.cpp:386] bn5a_branch2a -> res5a_branch2a (in-place)
I0829 13:40:54.300015  9284 net.cpp:141] Setting up bn5a_branch2a
I0829 13:40:54.300037  9284 net.cpp:148] Top shape: 10 512 7 7 (250880)
I0829 13:40:54.300051  9284 net.cpp:156] Memory required for data: 2219786440
I0829 13:40:54.300070  9284 layer_factory.hpp:77] Creating layer scale5a_branch2a
I0829 13:40:54.300087  9284 net.cpp:91] Creating Layer scale5a_branch2a
I0829 13:40:54.300101  9284 net.cpp:425] scale5a_branch2a <- res5a_branch2a
I0829 13:40:54.300120  9284 net.cpp:386] scale5a_branch2a -> res5a_branch2a (in-place)
I0829 13:40:54.300181  9284 layer_factory.hpp:77] Creating layer scale5a_branch2a
I0829 13:40:54.300407  9284 net.cpp:141] Setting up scale5a_branch2a
I0829 13:40:54.300431  9284 net.cpp:148] Top shape: 10 512 7 7 (250880)
I0829 13:40:54.300444  9284 net.cpp:156] Memory required for data: 2220789960
I0829 13:40:54.300462  9284 layer_factory.hpp:77] Creating layer res5a_branch2a_relu
I0829 13:40:54.300479  9284 net.cpp:91] Creating Layer res5a_branch2a_relu
I0829 13:40:54.300493  9284 net.cpp:425] res5a_branch2a_relu <- res5a_branch2a
I0829 13:40:54.300508  9284 net.cpp:386] res5a_branch2a_relu -> res5a_branch2a (in-place)
I0829 13:40:54.300524  9284 net.cpp:141] Setting up res5a_branch2a_relu
I0829 13:40:54.300539  9284 net.cpp:148] Top shape: 10 512 7 7 (250880)
I0829 13:40:54.300551  9284 net.cpp:156] Memory required for data: 2221793480
I0829 13:40:54.300565  9284 layer_factory.hpp:77] Creating layer res5a_branch2b
I0829 13:40:54.300586  9284 net.cpp:91] Creating Layer res5a_branch2b
I0829 13:40:54.300607  9284 net.cpp:425] res5a_branch2b <- res5a_branch2a
I0829 13:40:54.300627  9284 net.cpp:399] res5a_branch2b -> res5a_branch2b
I0829 13:40:54.323957  9284 net.cpp:141] Setting up res5a_branch2b
I0829 13:40:54.323999  9284 net.cpp:148] Top shape: 10 512 7 7 (250880)
I0829 13:40:54.324013  9284 net.cpp:156] Memory required for data: 2222797000
I0829 13:40:54.324030  9284 layer_factory.hpp:77] Creating layer bn5a_branch2b
I0829 13:40:54.324049  9284 net.cpp:91] Creating Layer bn5a_branch2b
I0829 13:40:54.324064  9284 net.cpp:425] bn5a_branch2b <- res5a_branch2b
I0829 13:40:54.324084  9284 net.cpp:386] bn5a_branch2b -> res5a_branch2b (in-place)
I0829 13:40:54.324331  9284 net.cpp:141] Setting up bn5a_branch2b
I0829 13:40:54.324353  9284 net.cpp:148] Top shape: 10 512 7 7 (250880)
I0829 13:40:54.324367  9284 net.cpp:156] Memory required for data: 2223800520
I0829 13:40:54.324385  9284 layer_factory.hpp:77] Creating layer scale5a_branch2b
I0829 13:40:54.324404  9284 net.cpp:91] Creating Layer scale5a_branch2b
I0829 13:40:54.324417  9284 net.cpp:425] scale5a_branch2b <- res5a_branch2b
I0829 13:40:54.324432  9284 net.cpp:386] scale5a_branch2b -> res5a_branch2b (in-place)
I0829 13:40:54.324501  9284 layer_factory.hpp:77] Creating layer scale5a_branch2b
I0829 13:40:54.324664  9284 net.cpp:141] Setting up scale5a_branch2b
I0829 13:40:54.324687  9284 net.cpp:148] Top shape: 10 512 7 7 (250880)
I0829 13:40:54.324700  9284 net.cpp:156] Memory required for data: 2224804040
I0829 13:40:54.324750  9284 layer_factory.hpp:77] Creating layer res5a_branch2b_relu
I0829 13:40:54.324772  9284 net.cpp:91] Creating Layer res5a_branch2b_relu
I0829 13:40:54.324787  9284 net.cpp:425] res5a_branch2b_relu <- res5a_branch2b
I0829 13:40:54.324802  9284 net.cpp:386] res5a_branch2b_relu -> res5a_branch2b (in-place)
I0829 13:40:54.324820  9284 net.cpp:141] Setting up res5a_branch2b_relu
I0829 13:40:54.324834  9284 net.cpp:148] Top shape: 10 512 7 7 (250880)
I0829 13:40:54.324846  9284 net.cpp:156] Memory required for data: 2225807560
I0829 13:40:54.324859  9284 layer_factory.hpp:77] Creating layer res5a_branch2c
I0829 13:40:54.324882  9284 net.cpp:91] Creating Layer res5a_branch2c
I0829 13:40:54.324897  9284 net.cpp:425] res5a_branch2c <- res5a_branch2b
I0829 13:40:54.324913  9284 net.cpp:399] res5a_branch2c -> res5a_branch2c
I0829 13:40:54.335355  9284 net.cpp:141] Setting up res5a_branch2c
I0829 13:40:54.335384  9284 net.cpp:148] Top shape: 10 2048 7 7 (1003520)
I0829 13:40:54.335398  9284 net.cpp:156] Memory required for data: 2229821640
I0829 13:40:54.335414  9284 layer_factory.hpp:77] Creating layer bn5a_branch2c
I0829 13:40:54.335431  9284 net.cpp:91] Creating Layer bn5a_branch2c
I0829 13:40:54.335446  9284 net.cpp:425] bn5a_branch2c <- res5a_branch2c
I0829 13:40:54.335461  9284 net.cpp:386] bn5a_branch2c -> res5a_branch2c (in-place)
I0829 13:40:54.335714  9284 net.cpp:141] Setting up bn5a_branch2c
I0829 13:40:54.335736  9284 net.cpp:148] Top shape: 10 2048 7 7 (1003520)
I0829 13:40:54.335749  9284 net.cpp:156] Memory required for data: 2233835720
I0829 13:40:54.335768  9284 layer_factory.hpp:77] Creating layer scale5a_branch2c
I0829 13:40:54.335785  9284 net.cpp:91] Creating Layer scale5a_branch2c
I0829 13:40:54.335799  9284 net.cpp:425] scale5a_branch2c <- res5a_branch2c
I0829 13:40:54.335814  9284 net.cpp:386] scale5a_branch2c -> res5a_branch2c (in-place)
I0829 13:40:54.335880  9284 layer_factory.hpp:77] Creating layer scale5a_branch2c
I0829 13:40:54.336043  9284 net.cpp:141] Setting up scale5a_branch2c
I0829 13:40:54.336064  9284 net.cpp:148] Top shape: 10 2048 7 7 (1003520)
I0829 13:40:54.336077  9284 net.cpp:156] Memory required for data: 2237849800
I0829 13:40:54.336094  9284 layer_factory.hpp:77] Creating layer res5a
I0829 13:40:54.336112  9284 net.cpp:91] Creating Layer res5a
I0829 13:40:54.336125  9284 net.cpp:425] res5a <- res5a_branch1
I0829 13:40:54.336139  9284 net.cpp:425] res5a <- res5a_branch2c
I0829 13:40:54.336158  9284 net.cpp:399] res5a -> res5a
I0829 13:40:54.336199  9284 net.cpp:141] Setting up res5a
I0829 13:40:54.336220  9284 net.cpp:148] Top shape: 10 2048 7 7 (1003520)
I0829 13:40:54.336233  9284 net.cpp:156] Memory required for data: 2241863880
I0829 13:40:54.336246  9284 layer_factory.hpp:77] Creating layer res5a_relu
I0829 13:40:54.336266  9284 net.cpp:91] Creating Layer res5a_relu
I0829 13:40:54.336279  9284 net.cpp:425] res5a_relu <- res5a
I0829 13:40:54.336293  9284 net.cpp:386] res5a_relu -> res5a (in-place)
I0829 13:40:54.336309  9284 net.cpp:141] Setting up res5a_relu
I0829 13:40:54.336324  9284 net.cpp:148] Top shape: 10 2048 7 7 (1003520)
I0829 13:40:54.336336  9284 net.cpp:156] Memory required for data: 2245877960
I0829 13:40:54.336349  9284 layer_factory.hpp:77] Creating layer res5a_res5a_relu_0_split
I0829 13:40:54.336364  9284 net.cpp:91] Creating Layer res5a_res5a_relu_0_split
I0829 13:40:54.336380  9284 net.cpp:425] res5a_res5a_relu_0_split <- res5a
I0829 13:40:54.336395  9284 net.cpp:399] res5a_res5a_relu_0_split -> res5a_res5a_relu_0_split_0
I0829 13:40:54.336412  9284 net.cpp:399] res5a_res5a_relu_0_split -> res5a_res5a_relu_0_split_1
I0829 13:40:54.336467  9284 net.cpp:141] Setting up res5a_res5a_relu_0_split
I0829 13:40:54.336486  9284 net.cpp:148] Top shape: 10 2048 7 7 (1003520)
I0829 13:40:54.336501  9284 net.cpp:148] Top shape: 10 2048 7 7 (1003520)
I0829 13:40:54.336513  9284 net.cpp:156] Memory required for data: 2253906120
I0829 13:40:54.336526  9284 layer_factory.hpp:77] Creating layer res5b_branch2a
I0829 13:40:54.336549  9284 net.cpp:91] Creating Layer res5b_branch2a
I0829 13:40:54.336580  9284 net.cpp:425] res5b_branch2a <- res5a_res5a_relu_0_split_0
I0829 13:40:54.336604  9284 net.cpp:399] res5b_branch2a -> res5b_branch2a
I0829 13:40:54.346966  9284 net.cpp:141] Setting up res5b_branch2a
I0829 13:40:54.346994  9284 net.cpp:148] Top shape: 10 512 7 7 (250880)
I0829 13:40:54.347008  9284 net.cpp:156] Memory required for data: 2254909640
I0829 13:40:54.347024  9284 layer_factory.hpp:77] Creating layer bn5b_branch2a
I0829 13:40:54.347041  9284 net.cpp:91] Creating Layer bn5b_branch2a
I0829 13:40:54.347055  9284 net.cpp:425] bn5b_branch2a <- res5b_branch2a
I0829 13:40:54.347070  9284 net.cpp:386] bn5b_branch2a -> res5b_branch2a (in-place)
I0829 13:40:54.347309  9284 net.cpp:141] Setting up bn5b_branch2a
I0829 13:40:54.347331  9284 net.cpp:148] Top shape: 10 512 7 7 (250880)
I0829 13:40:54.347343  9284 net.cpp:156] Memory required for data: 2255913160
I0829 13:40:54.347362  9284 layer_factory.hpp:77] Creating layer scale5b_branch2a
I0829 13:40:54.347379  9284 net.cpp:91] Creating Layer scale5b_branch2a
I0829 13:40:54.347393  9284 net.cpp:425] scale5b_branch2a <- res5b_branch2a
I0829 13:40:54.347409  9284 net.cpp:386] scale5b_branch2a -> res5b_branch2a (in-place)
I0829 13:40:54.347472  9284 layer_factory.hpp:77] Creating layer scale5b_branch2a
I0829 13:40:54.347630  9284 net.cpp:141] Setting up scale5b_branch2a
I0829 13:40:54.347652  9284 net.cpp:148] Top shape: 10 512 7 7 (250880)
I0829 13:40:54.347666  9284 net.cpp:156] Memory required for data: 2256916680
I0829 13:40:54.347681  9284 layer_factory.hpp:77] Creating layer res5b_branch2a_relu
I0829 13:40:54.347702  9284 net.cpp:91] Creating Layer res5b_branch2a_relu
I0829 13:40:54.347717  9284 net.cpp:425] res5b_branch2a_relu <- res5b_branch2a
I0829 13:40:54.347730  9284 net.cpp:386] res5b_branch2a_relu -> res5b_branch2a (in-place)
I0829 13:40:54.347749  9284 net.cpp:141] Setting up res5b_branch2a_relu
I0829 13:40:54.347764  9284 net.cpp:148] Top shape: 10 512 7 7 (250880)
I0829 13:40:54.347777  9284 net.cpp:156] Memory required for data: 2257920200
I0829 13:40:54.347790  9284 layer_factory.hpp:77] Creating layer res5b_branch2b
I0829 13:40:54.347810  9284 net.cpp:91] Creating Layer res5b_branch2b
I0829 13:40:54.347822  9284 net.cpp:425] res5b_branch2b <- res5b_branch2a
I0829 13:40:54.347841  9284 net.cpp:399] res5b_branch2b -> res5b_branch2b
I0829 13:40:54.372232  9284 net.cpp:141] Setting up res5b_branch2b
I0829 13:40:54.372293  9284 net.cpp:148] Top shape: 10 512 7 7 (250880)
I0829 13:40:54.372309  9284 net.cpp:156] Memory required for data: 2258923720
I0829 13:40:54.372331  9284 layer_factory.hpp:77] Creating layer bn5b_branch2b
I0829 13:40:54.372359  9284 net.cpp:91] Creating Layer bn5b_branch2b
I0829 13:40:54.372378  9284 net.cpp:425] bn5b_branch2b <- res5b_branch2b
I0829 13:40:54.372397  9284 net.cpp:386] bn5b_branch2b -> res5b_branch2b (in-place)
I0829 13:40:54.372721  9284 net.cpp:141] Setting up bn5b_branch2b
I0829 13:40:54.372748  9284 net.cpp:148] Top shape: 10 512 7 7 (250880)
I0829 13:40:54.372762  9284 net.cpp:156] Memory required for data: 2259927240
I0829 13:40:54.372784  9284 layer_factory.hpp:77] Creating layer scale5b_branch2b
I0829 13:40:54.372809  9284 net.cpp:91] Creating Layer scale5b_branch2b
I0829 13:40:54.372826  9284 net.cpp:425] scale5b_branch2b <- res5b_branch2b
I0829 13:40:54.372843  9284 net.cpp:386] scale5b_branch2b -> res5b_branch2b (in-place)
I0829 13:40:54.372942  9284 layer_factory.hpp:77] Creating layer scale5b_branch2b
I0829 13:40:54.373229  9284 net.cpp:141] Setting up scale5b_branch2b
I0829 13:40:54.373268  9284 net.cpp:148] Top shape: 10 512 7 7 (250880)
I0829 13:40:54.373283  9284 net.cpp:156] Memory required for data: 2260930760
I0829 13:40:54.373302  9284 layer_factory.hpp:77] Creating layer res5b_branch2b_relu
I0829 13:40:54.373322  9284 net.cpp:91] Creating Layer res5b_branch2b_relu
I0829 13:40:54.373337  9284 net.cpp:425] res5b_branch2b_relu <- res5b_branch2b
I0829 13:40:54.373355  9284 net.cpp:386] res5b_branch2b_relu -> res5b_branch2b (in-place)
I0829 13:40:54.373423  9284 net.cpp:141] Setting up res5b_branch2b_relu
I0829 13:40:54.373442  9284 net.cpp:148] Top shape: 10 512 7 7 (250880)
I0829 13:40:54.373457  9284 net.cpp:156] Memory required for data: 2261934280
I0829 13:40:54.373472  9284 layer_factory.hpp:77] Creating layer res5b_branch2c
I0829 13:40:54.373497  9284 net.cpp:91] Creating Layer res5b_branch2c
I0829 13:40:54.373520  9284 net.cpp:425] res5b_branch2c <- res5b_branch2b
I0829 13:40:54.373538  9284 net.cpp:399] res5b_branch2c -> res5b_branch2c
I0829 13:40:54.385426  9284 net.cpp:141] Setting up res5b_branch2c
I0829 13:40:54.385490  9284 net.cpp:148] Top shape: 10 2048 7 7 (1003520)
I0829 13:40:54.385507  9284 net.cpp:156] Memory required for data: 2265948360
I0829 13:40:54.385529  9284 layer_factory.hpp:77] Creating layer bn5b_branch2c
I0829 13:40:54.385556  9284 net.cpp:91] Creating Layer bn5b_branch2c
I0829 13:40:54.385574  9284 net.cpp:425] bn5b_branch2c <- res5b_branch2c
I0829 13:40:54.385592  9284 net.cpp:386] bn5b_branch2c -> res5b_branch2c (in-place)
I0829 13:40:54.385901  9284 net.cpp:141] Setting up bn5b_branch2c
I0829 13:40:54.385933  9284 net.cpp:148] Top shape: 10 2048 7 7 (1003520)
I0829 13:40:54.385948  9284 net.cpp:156] Memory required for data: 2269962440
I0829 13:40:54.385978  9284 layer_factory.hpp:77] Creating layer scale5b_branch2c
I0829 13:40:54.386000  9284 net.cpp:91] Creating Layer scale5b_branch2c
I0829 13:40:54.386016  9284 net.cpp:425] scale5b_branch2c <- res5b_branch2c
I0829 13:40:54.386035  9284 net.cpp:386] scale5b_branch2c -> res5b_branch2c (in-place)
I0829 13:40:54.386127  9284 layer_factory.hpp:77] Creating layer scale5b_branch2c
I0829 13:40:54.386310  9284 net.cpp:141] Setting up scale5b_branch2c
I0829 13:40:54.386335  9284 net.cpp:148] Top shape: 10 2048 7 7 (1003520)
I0829 13:40:54.386349  9284 net.cpp:156] Memory required for data: 2273976520
I0829 13:40:54.386368  9284 layer_factory.hpp:77] Creating layer res5b
I0829 13:40:54.386387  9284 net.cpp:91] Creating Layer res5b
I0829 13:40:54.386404  9284 net.cpp:425] res5b <- res5a_res5a_relu_0_split_1
I0829 13:40:54.386420  9284 net.cpp:425] res5b <- res5b_branch2c
I0829 13:40:54.386435  9284 net.cpp:399] res5b -> res5b
I0829 13:40:54.386499  9284 net.cpp:141] Setting up res5b
I0829 13:40:54.386528  9284 net.cpp:148] Top shape: 10 2048 7 7 (1003520)
I0829 13:40:54.386543  9284 net.cpp:156] Memory required for data: 2277990600
I0829 13:40:54.386559  9284 layer_factory.hpp:77] Creating layer res5b_relu
I0829 13:40:54.386579  9284 net.cpp:91] Creating Layer res5b_relu
I0829 13:40:54.386595  9284 net.cpp:425] res5b_relu <- res5b
I0829 13:40:54.386610  9284 net.cpp:386] res5b_relu -> res5b (in-place)
I0829 13:40:54.386629  9284 net.cpp:141] Setting up res5b_relu
I0829 13:40:54.386646  9284 net.cpp:148] Top shape: 10 2048 7 7 (1003520)
I0829 13:40:54.386662  9284 net.cpp:156] Memory required for data: 2282004680
I0829 13:40:54.386677  9284 layer_factory.hpp:77] Creating layer res5b_res5b_relu_0_split
I0829 13:40:54.386694  9284 net.cpp:91] Creating Layer res5b_res5b_relu_0_split
I0829 13:40:54.386709  9284 net.cpp:425] res5b_res5b_relu_0_split <- res5b
I0829 13:40:54.386729  9284 net.cpp:399] res5b_res5b_relu_0_split -> res5b_res5b_relu_0_split_0
I0829 13:40:54.386749  9284 net.cpp:399] res5b_res5b_relu_0_split -> res5b_res5b_relu_0_split_1
I0829 13:40:54.386808  9284 net.cpp:141] Setting up res5b_res5b_relu_0_split
I0829 13:40:54.386832  9284 net.cpp:148] Top shape: 10 2048 7 7 (1003520)
I0829 13:40:54.386865  9284 net.cpp:148] Top shape: 10 2048 7 7 (1003520)
I0829 13:40:54.386883  9284 net.cpp:156] Memory required for data: 2290032840
I0829 13:40:54.386896  9284 layer_factory.hpp:77] Creating layer res5c_branch2a
I0829 13:40:54.386931  9284 net.cpp:91] Creating Layer res5c_branch2a
I0829 13:40:54.386950  9284 net.cpp:425] res5c_branch2a <- res5b_res5b_relu_0_split_0
I0829 13:40:54.386968  9284 net.cpp:399] res5c_branch2a -> res5c_branch2a
I0829 13:40:54.398708  9284 net.cpp:141] Setting up res5c_branch2a
I0829 13:40:54.398772  9284 net.cpp:148] Top shape: 10 512 7 7 (250880)
I0829 13:40:54.398843  9284 net.cpp:156] Memory required for data: 2291036360
I0829 13:40:54.398865  9284 layer_factory.hpp:77] Creating layer bn5c_branch2a
I0829 13:40:54.398906  9284 net.cpp:91] Creating Layer bn5c_branch2a
I0829 13:40:54.398931  9284 net.cpp:425] bn5c_branch2a <- res5c_branch2a
I0829 13:40:54.398950  9284 net.cpp:386] bn5c_branch2a -> res5c_branch2a (in-place)
I0829 13:40:54.399258  9284 net.cpp:141] Setting up bn5c_branch2a
I0829 13:40:54.399286  9284 net.cpp:148] Top shape: 10 512 7 7 (250880)
I0829 13:40:54.399299  9284 net.cpp:156] Memory required for data: 2292039880
I0829 13:40:54.399329  9284 layer_factory.hpp:77] Creating layer scale5c_branch2a
I0829 13:40:54.399350  9284 net.cpp:91] Creating Layer scale5c_branch2a
I0829 13:40:54.399365  9284 net.cpp:425] scale5c_branch2a <- res5c_branch2a
I0829 13:40:54.399399  9284 net.cpp:386] scale5c_branch2a -> res5c_branch2a (in-place)
I0829 13:40:54.399478  9284 layer_factory.hpp:77] Creating layer scale5c_branch2a
I0829 13:40:54.399662  9284 net.cpp:141] Setting up scale5c_branch2a
I0829 13:40:54.399688  9284 net.cpp:148] Top shape: 10 512 7 7 (250880)
I0829 13:40:54.399704  9284 net.cpp:156] Memory required for data: 2293043400
I0829 13:40:54.399722  9284 layer_factory.hpp:77] Creating layer res5c_branch2a_relu
I0829 13:40:54.399755  9284 net.cpp:91] Creating Layer res5c_branch2a_relu
I0829 13:40:54.399771  9284 net.cpp:425] res5c_branch2a_relu <- res5c_branch2a
I0829 13:40:54.399787  9284 net.cpp:386] res5c_branch2a_relu -> res5c_branch2a (in-place)
I0829 13:40:54.399806  9284 net.cpp:141] Setting up res5c_branch2a_relu
I0829 13:40:54.399822  9284 net.cpp:148] Top shape: 10 512 7 7 (250880)
I0829 13:40:54.399837  9284 net.cpp:156] Memory required for data: 2294046920
I0829 13:40:54.399850  9284 layer_factory.hpp:77] Creating layer res5c_branch2b
I0829 13:40:54.399876  9284 net.cpp:91] Creating Layer res5c_branch2b
I0829 13:40:54.399893  9284 net.cpp:425] res5c_branch2b <- res5c_branch2a
I0829 13:40:54.399914  9284 net.cpp:399] res5c_branch2b -> res5c_branch2b
I0829 13:40:54.427954  9284 net.cpp:141] Setting up res5c_branch2b
I0829 13:40:54.428022  9284 net.cpp:148] Top shape: 10 512 7 7 (250880)
I0829 13:40:54.428038  9284 net.cpp:156] Memory required for data: 2295050440
I0829 13:40:54.428073  9284 layer_factory.hpp:77] Creating layer bn5c_branch2b
I0829 13:40:54.428102  9284 net.cpp:91] Creating Layer bn5c_branch2b
I0829 13:40:54.428122  9284 net.cpp:425] bn5c_branch2b <- res5c_branch2b
I0829 13:40:54.428145  9284 net.cpp:386] bn5c_branch2b -> res5c_branch2b (in-place)
I0829 13:40:54.428481  9284 net.cpp:141] Setting up bn5c_branch2b
I0829 13:40:54.428506  9284 net.cpp:148] Top shape: 10 512 7 7 (250880)
I0829 13:40:54.428521  9284 net.cpp:156] Memory required for data: 2296053960
I0829 13:40:54.428547  9284 layer_factory.hpp:77] Creating layer scale5c_branch2b
I0829 13:40:54.428572  9284 net.cpp:91] Creating Layer scale5c_branch2b
I0829 13:40:54.428587  9284 net.cpp:425] scale5c_branch2b <- res5c_branch2b
I0829 13:40:54.428608  9284 net.cpp:386] scale5c_branch2b -> res5c_branch2b (in-place)
I0829 13:40:54.428700  9284 layer_factory.hpp:77] Creating layer scale5c_branch2b
I0829 13:40:54.428894  9284 net.cpp:141] Setting up scale5c_branch2b
I0829 13:40:54.428920  9284 net.cpp:148] Top shape: 10 512 7 7 (250880)
I0829 13:40:54.428936  9284 net.cpp:156] Memory required for data: 2297057480
I0829 13:40:54.428956  9284 layer_factory.hpp:77] Creating layer res5c_branch2b_relu
I0829 13:40:54.428978  9284 net.cpp:91] Creating Layer res5c_branch2b_relu
I0829 13:40:54.428994  9284 net.cpp:425] res5c_branch2b_relu <- res5c_branch2b
I0829 13:40:54.429011  9284 net.cpp:386] res5c_branch2b_relu -> res5c_branch2b (in-place)
I0829 13:40:54.429030  9284 net.cpp:141] Setting up res5c_branch2b_relu
I0829 13:40:54.429047  9284 net.cpp:148] Top shape: 10 512 7 7 (250880)
I0829 13:40:54.429062  9284 net.cpp:156] Memory required for data: 2298061000
I0829 13:40:54.429077  9284 layer_factory.hpp:77] Creating layer res5c_branch2c
I0829 13:40:54.429103  9284 net.cpp:91] Creating Layer res5c_branch2c
I0829 13:40:54.429181  9284 net.cpp:425] res5c_branch2c <- res5c_branch2b
I0829 13:40:54.429203  9284 net.cpp:399] res5c_branch2c -> res5c_branch2c
I0829 13:40:54.442558  9284 net.cpp:141] Setting up res5c_branch2c
I0829 13:40:54.442638  9284 net.cpp:148] Top shape: 10 2048 7 7 (1003520)
I0829 13:40:54.442656  9284 net.cpp:156] Memory required for data: 2302075080
I0829 13:40:54.442723  9284 layer_factory.hpp:77] Creating layer bn5c_branch2c
I0829 13:40:54.442765  9284 net.cpp:91] Creating Layer bn5c_branch2c
I0829 13:40:54.442859  9284 net.cpp:425] bn5c_branch2c <- res5c_branch2c
I0829 13:40:54.442888  9284 net.cpp:386] bn5c_branch2c -> res5c_branch2c (in-place)
I0829 13:40:54.444545  9284 net.cpp:141] Setting up bn5c_branch2c
I0829 13:40:54.444576  9284 net.cpp:148] Top shape: 10 2048 7 7 (1003520)
I0829 13:40:54.444591  9284 net.cpp:156] Memory required for data: 2306089160
I0829 13:40:54.444639  9284 layer_factory.hpp:77] Creating layer scale5c_branch2c
I0829 13:40:54.444677  9284 net.cpp:91] Creating Layer scale5c_branch2c
I0829 13:40:54.444694  9284 net.cpp:425] scale5c_branch2c <- res5c_branch2c
I0829 13:40:54.444711  9284 net.cpp:386] scale5c_branch2c -> res5c_branch2c (in-place)
I0829 13:40:54.445606  9284 layer_factory.hpp:77] Creating layer scale5c_branch2c
I0829 13:40:54.445801  9284 net.cpp:141] Setting up scale5c_branch2c
I0829 13:40:54.445827  9284 net.cpp:148] Top shape: 10 2048 7 7 (1003520)
I0829 13:40:54.445842  9284 net.cpp:156] Memory required for data: 2310103240
I0829 13:40:54.445861  9284 layer_factory.hpp:77] Creating layer res5c
I0829 13:40:54.445889  9284 net.cpp:91] Creating Layer res5c
I0829 13:40:54.445914  9284 net.cpp:425] res5c <- res5b_res5b_relu_0_split_1
I0829 13:40:54.445932  9284 net.cpp:425] res5c <- res5c_branch2c
I0829 13:40:54.445958  9284 net.cpp:399] res5c -> res5c
I0829 13:40:54.446012  9284 net.cpp:141] Setting up res5c
I0829 13:40:54.446035  9284 net.cpp:148] Top shape: 10 2048 7 7 (1003520)
I0829 13:40:54.446051  9284 net.cpp:156] Memory required for data: 2314117320
I0829 13:40:54.446079  9284 layer_factory.hpp:77] Creating layer res5c_relu
I0829 13:40:54.446115  9284 net.cpp:91] Creating Layer res5c_relu
I0829 13:40:54.446130  9284 net.cpp:425] res5c_relu <- res5c
I0829 13:40:54.446146  9284 net.cpp:386] res5c_relu -> res5c (in-place)
I0829 13:40:54.446166  9284 net.cpp:141] Setting up res5c_relu
I0829 13:40:54.446183  9284 net.cpp:148] Top shape: 10 2048 7 7 (1003520)
I0829 13:40:54.446198  9284 net.cpp:156] Memory required for data: 2318131400
I0829 13:40:54.446214  9284 layer_factory.hpp:77] Creating layer pool5
I0829 13:40:54.446250  9284 net.cpp:91] Creating Layer pool5
I0829 13:40:54.446267  9284 net.cpp:425] pool5 <- res5c
I0829 13:40:54.446316  9284 net.cpp:399] pool5 -> pool5
I0829 13:40:54.446367  9284 net.cpp:141] Setting up pool5
I0829 13:40:54.446391  9284 net.cpp:148] Top shape: 10 2048 1 1 (20480)
I0829 13:40:54.446406  9284 net.cpp:156] Memory required for data: 2318213320
I0829 13:40:54.446434  9284 layer_factory.hpp:77] Creating layer pool5_pool5_0_split
I0829 13:40:54.446454  9284 net.cpp:91] Creating Layer pool5_pool5_0_split
I0829 13:40:54.446468  9284 net.cpp:425] pool5_pool5_0_split <- pool5
I0829 13:40:54.446491  9284 net.cpp:399] pool5_pool5_0_split -> pool5_pool5_0_split_0
I0829 13:40:54.446511  9284 net.cpp:399] pool5_pool5_0_split -> pool5_pool5_0_split_1
I0829 13:40:54.446563  9284 net.cpp:141] Setting up pool5_pool5_0_split
I0829 13:40:54.446585  9284 net.cpp:148] Top shape: 10 2048 1 1 (20480)
I0829 13:40:54.446604  9284 net.cpp:148] Top shape: 10 2048 1 1 (20480)
I0829 13:40:54.446617  9284 net.cpp:156] Memory required for data: 2318377160
I0829 13:40:54.446631  9284 layer_factory.hpp:77] Creating layer fc_hash
I0829 13:40:54.446656  9284 net.cpp:91] Creating Layer fc_hash
I0829 13:40:54.446673  9284 net.cpp:425] fc_hash <- pool5_pool5_0_split_0
I0829 13:40:54.446696  9284 net.cpp:399] fc_hash -> fc_hash
I0829 13:40:54.447999  9284 net.cpp:141] Setting up fc_hash
I0829 13:40:54.448024  9284 net.cpp:148] Top shape: 10 12 (120)
I0829 13:40:54.448082  9284 net.cpp:156] Memory required for data: 2318377640
I0829 13:40:54.448103  9284 layer_factory.hpp:77] Creating layer fc_classification
I0829 13:40:54.448133  9284 net.cpp:91] Creating Layer fc_classification
I0829 13:40:54.448149  9284 net.cpp:425] fc_classification <- pool5_pool5_0_split_1
I0829 13:40:54.448170  9284 net.cpp:399] fc_classification -> fc_classification
I0829 13:40:54.450367  9284 net.cpp:141] Setting up fc_classification
I0829 13:40:54.450397  9284 net.cpp:148] Top shape: 10 25 (250)
I0829 13:40:54.450412  9284 net.cpp:156] Memory required for data: 2318378640
I0829 13:40:54.450431  9284 layer_factory.hpp:77] Creating layer fc_classification_fc_classification_0_split
I0829 13:40:54.450453  9284 net.cpp:91] Creating Layer fc_classification_fc_classification_0_split
I0829 13:40:54.450470  9284 net.cpp:425] fc_classification_fc_classification_0_split <- fc_classification
I0829 13:40:54.450489  9284 net.cpp:399] fc_classification_fc_classification_0_split -> fc_classification_fc_classification_0_split_0
I0829 13:40:54.450510  9284 net.cpp:399] fc_classification_fc_classification_0_split -> fc_classification_fc_classification_0_split_1
I0829 13:40:54.450529  9284 net.cpp:399] fc_classification_fc_classification_0_split -> fc_classification_fc_classification_0_split_2
I0829 13:40:54.450604  9284 net.cpp:141] Setting up fc_classification_fc_classification_0_split
I0829 13:40:54.450629  9284 net.cpp:148] Top shape: 10 25 (250)
I0829 13:40:54.450645  9284 net.cpp:148] Top shape: 10 25 (250)
I0829 13:40:54.450661  9284 net.cpp:148] Top shape: 10 25 (250)
I0829 13:40:54.450675  9284 net.cpp:156] Memory required for data: 2318381640
I0829 13:40:54.450690  9284 layer_factory.hpp:77] Creating layer loss_hash
I0829 13:40:54.450723  9284 net.cpp:91] Creating Layer loss_hash
I0829 13:40:54.450739  9284 net.cpp:425] loss_hash <- fc_hash
I0829 13:40:54.450758  9284 net.cpp:425] loss_hash <- label_data_1_split_0
I0829 13:40:54.450779  9284 net.cpp:399] loss_hash -> loss_hash
…
