…
I0901 12:40:38.874771 40287 net.cpp:313] The NetState phase (0) differed from the phase (1) specified by a rule in layer accuracy_top5
I0901 12:40:38.875910 40287 net.cpp:49] Initializing net from parameters: 
name: "docomo_ResNet50"
state {
  phase: TRAIN
}
layer {
  name: "data"
  type: "Data"
  top: "data"
  top: "label"
  include {
    phase: TRAIN
  }
  transform_param {
    mirror: true
    crop_size: 224
    mean_value: 104
    mean_value: 117
    mean_value: 123
  }
  data_param {
    source: "FASHION/fashion_train_lmdb"
    batch_size: 10
    backend: LMDB
  }
}
layer {
  name: "conv1"
  type: "Convolution"
  bottom: "data"
  top: "conv1"
  param {
    lr_mult: 1
    decay_mult: 1
  }
  param {
    lr_mult: 2
    decay_mult: 0
  }
  convolution_param {
    num_output: 64
    pad: 3
    kernel_size: 7
    stride: 2
    weight_filler {
      type: "xavier"
      std: 0.01
    }
    bias_filler {
      type: "constant"
      value: 0
    }
  }
}
layer {
  name: "bn_conv1"
  type: "BatchNorm"
  bottom: "conv1"
  top: "conv1"
  batch_norm_param {
    use_global_stats: true
  }
}
layer {
  name: "scale_conv1"
  type: "Scale"
  bottom: "conv1"
  top: "conv1"
  scale_param {
    bias_term: true
  }
}
layer {
  name: "conv1_relu"
  type: "ReLU"
  bottom: "conv1"
  top: "conv1"
}
layer {
  name: "pool1"
  type: "Pooling"
  bottom: "conv1"
  top: "pool1"
  pooling_param {
    pool: MAX
    kernel_size: 3
    stride: 2
  }
}
layer {
  name: "res2a_branch1"
  type: "Convolution"
  bottom: "pool1"
  top: "res2a_branch1"
  param {
    lr_mult: 1
    decay_mult: 1
  }
  convolution_param {
    num_output: 256
    bias_term: false
    pad: 0
    kernel_size: 1
    stride: 1
    weight_filler {
      type: "xavier"
      std: 0.01
    }
  }
}
layer {
  name: "bn2a_branch1"
  type: "BatchNorm"
  bottom: "res2a_branch1"
  top: "res2a_branch1"
  batch_norm_param {
    use_global_stats: true
  }
}
layer {
  name: "scale2a_branch1"
  type: "Scale"
  bottom: "res2a_branch1"
  top: "res2a_branch1"
  scale_param {
    bias_term: true
  }
}
layer {
  name: "res2a_branch2a"
  type: "Convolution"
  bottom: "pool1"
  top: "res2a_branch2a"
  param {
    lr_mult: 1
    decay_mult: 1
  }
  convolution_param {
    num_output: 64
    bias_term: false
    pad: 0
    kernel_size: 1
    stride: 1
    weight_filler {
      type: "xavier"
      std: 0.01
    }
  }
}
layer {
  name: "bn2a_branch2a"
  type: "BatchNorm"
  bottom: "res2a_branch2a"
  top: "res2a_branch2a"
  batch_norm_param {
    use_global_stats: true
  }
}
layer {
  name: "scale2a_branch2a"
  type: "Scale"
  bottom: "res2a_branch2a"
  top: "res2a_branch2a"
  scale_param {
    bias_term: true
  }
}
layer {
  name: "res2a_branch2a_relu"
  type: "ReLU"
  bottom: "res2a_branch2a"
  top: "res2a_branch2a"
}
layer {
  name: "res2a_branch2b"
  type: "Convolution"
  bottom: "res2a_branch2a"
  top: "res2a_branch2b"
  param {
    lr_mult: 1
    decay_mult: 1
  }
  convolution_param {
    num_output: 64
    bias_term: false
    pad: 1
    kernel_size: 3
    stride: 1
    weight_filler {
      type: "xavier"
      std: 0.01
    }
  }
}
layer {
  name: "bn2a_branch2b"
  type: "BatchNorm"
  bottom: "res2a_branch2b"
  top: "res2a_branch2b"
  batch_norm_param {
    use_global_stats: true
  }
}
layer {
  name: "scale2a_branch2b"
  type: "Scale"
  bottom: "res2a_branch2b"
  top: "res2a_branch2b"
  scale_param {
    bias_term: true
  }
}
layer {
  name: "res2a_branch2b_relu"
  type: "ReLU"
  bottom: "res2a_branch2b"
  top: "res2a_branch2b"
}
layer {
  name: "res2a_branch2c"
  type: "Convolution"
  bottom: "res2a_branch2b"
  top: "res2a_branch2c"
  param {
    lr_mult: 1
    decay_mult: 1
  }
  convolution_param {
    num_output: 256
    bias_term: false
    pad: 0
    kernel_size: 1
    stride: 1
    weight_filler {
      type: "xavier"
      std: 0.01
    }
  }
}
layer {
  name: "bn2a_branch2c"
  type: "BatchNorm"
  bottom: "res2a_branch2c"
  top: "res2a_branch2c"
  batch_norm_param {
    use_global_stats: true
  }
}
layer {
  name: "scale2a_branch2c"
  type: "Scale"
  bottom: "res2a_branch2c"
  top: "res2a_branch2c"
  scale_param {
    bias_term: true
  }
}
layer {
  name: "res2a"
  type: "Eltwise"
  bottom: "res2a_branch1"
  bottom: "res2a_branch2c"
  top: "res2a"
  eltwise_param {
    operation: SUM
  }
}
layer {
  name: "res2a_relu"
  type: "ReLU"
  bottom: "res2a"
  top: "res2a"
}
layer {
  name: "res2b_branch2a"
  type: "Convolution"
  bottom: "res2a"
  top: "res2b_branch2a"
  param {
    lr_mult: 1
    decay_mult: 1
  }
  convolution_param {
    num_output: 64
    bias_term: false
    pad: 0
    kernel_size: 1
    stride: 1
    weight_filler {
      type: "xavier"
      std: 0.01
    }
  }
}
layer {
  name: "bn2b_branch2a"
  type: "BatchNorm"
  bottom: "res2b_branch2a"
  top: "res2b_branch2a"
  batch_norm_param {
    use_global_stats: true
  }
}
layer {
  name: "scale2b_branch2a"
  type: "Scale"
  bottom: "res2b_branch2a"
  top: "res2b_branch2a"
  scale_param {
    bias_term: true
  }
}
layer {
  name: "res2b_branch2a_relu"
  type: "ReLU"
  bottom: "res2b_branch2a"
  top: "res2b_branch2a"
}
layer {
  name: "res2b_branch2b"
  type: "Convolution"
  bottom: "res2b_branch2a"
  top: "res2b_branch2b"
  param {
    lr_mult: 1
    decay_mult: 1
  }
  convolution_param {
    num_output: 64
    bias_term: false
    pad: 1
    kernel_size: 3
    stride: 1
    weight_filler {
      type: "xavier"
      std: 0.01
    }
  }
}
layer {
  name: "bn2b_branch2b"
  type: "BatchNorm"
  bottom: "res2b_branch2b"
  top: "res2b_branch2b"
  batch_norm_param {
    use_global_stats: true
  }
}
layer {
  name: "scale2b_branch2b"
  type: "Scale"
  bottom: "res2b_branch2b"
  top: "res2b_branch2b"
  scale_param {
    bias_term: true
  }
}
layer {
  name: "res2b_branch2b_relu"
  type: "ReLU"
  bottom: "res2b_branch2b"
  top: "res2b_branch2b"
}
layer {
  name: "res2b_branch2c"
  type: "Convolution"
  bottom: "res2b_branch2b"
  top: "res2b_branch2c"
  param {
    lr_mult: 1
    decay_mult: 1
  }
  convolution_param {
    num_output: 256
    bias_term: false
    pad: 0
    kernel_size: 1
    stride: 1
    weight_filler {
      type: "xavier"
      std: 0.01
    }
  }
}
layer {
  name: "bn2b_branch2c"
  type: "BatchNorm"
  bottom: "res2b_branch2c"
  top: "res2b_branch2c"
  batch_norm_param {
    use_global_stats: true
  }
}
layer {
  name: "scale2b_branch2c"
  type: "Scale"
  bottom: "res2b_branch2c"
  top: "res2b_branch2c"
  scale_param {
    bias_term: true
  }
}
layer {
  name: "res2b"
  type: "Eltwise"
  bottom: "res2a"
  bottom: "res2b_branch2c"
  top: "res2b"
  eltwise_param {
    operation: SUM
  }
}
layer {
  name: "res2b_relu"
  type: "ReLU"
  bottom: "res2b"
  top: "res2b"
}
layer {
  name: "res2c_branch2a"
  type: "Convolution"
  bottom: "res2b"
  top: "res2c_branch2a"
  param {
    lr_mult: 1
    decay_mult: 1
  }
  convolution_param {
    num_output: 64
    bias_term: false
    pad: 0
    kernel_size: 1
    stride: 1
    weight_filler {
      type: "xavier"
      std: 0.01
    }
  }
}
layer {
  name: "bn2c_branch2a"
  type: "BatchNorm"
  bottom: "res2c_branch2a"
  top: "res2c_branch2a"
  batch_norm_param {
    use_global_stats: true
  }
}
layer {
  name: "scale2c_branch2a"
  type: "Scale"
  bottom: "res2c_branch2a"
  top: "res2c_branch2a"
  scale_param {
    bias_term: true
  }
}
layer {
  name: "res2c_branch2a_relu"
  type: "ReLU"
  bottom: "res2c_branch2a"
  top: "res2c_branch2a"
}
layer {
  name: "res2c_branch2b"
  type: "Convolution"
  bottom: "res2c_branch2a"
  top: "res2c_branch2b"
  param {
    lr_mult: 1
    decay_mult: 1
  }
  convolution_param {
    num_output: 64
    bias_term: false
    pad: 1
    kernel_size: 3
    stride: 1
    weight_filler {
      type: "xavier"
      std: 0.01
    }
  }
}
layer {
  name: "bn2c_branch2b"
  type: "BatchNorm"
  bottom: "res2c_branch2b"
  top: "res2c_branch2b"
  batch_norm_param {
    use_global_stats: true
  }
}
layer {
  name: "scale2c_branch2b"
  type: "Scale"
  bottom: "res2c_branch2b"
  top: "res2c_branch2b"
  scale_param {
    bias_term: true
  }
}
layer {
  name: "res2c_branch2b_relu"
  type: "ReLU"
  bottom: "res2c_branch2b"
  top: "res2c_branch2b"
}
layer {
  name: "res2c_branch2c"
  type: "Convolution"
  bottom: "res2c_branch2b"
  top: "res2c_branch2c"
  param {
    lr_mult: 1
    decay_mult: 1
  }
  convolution_param {
    num_output: 256
    bias_term: false
    pad: 0
    kernel_size: 1
    stride: 1
    weight_filler {
      type: "xavier"
      std: 0.01
    }
  }
}
layer {
  name: "bn2c_branch2c"
  type: "BatchNorm"
  bottom: "res2c_branch2c"
  top: "res2c_branch2c"
  batch_norm_param {
    use_global_stats: true
  }
}
layer {
  name: "scale2c_branch2c"
  type: "Scale"
  bottom: "res2c_branch2c"
  top: "res2c_branch2c"
  scale_param {
    bias_term: true
  }
}
layer {
  name: "res2c"
  type: "Eltwise"
  bottom: "res2b"
  bottom: "res2c_branch2c"
  top: "res2c"
  eltwise_param {
    operation: SUM
  }
}
layer {
  name: "res2c_relu"
  type: "ReLU"
  bottom: "res2c"
  top: "res2c"
}
layer {
  name: "res3a_branch1"
  type: "Convolution"
  bottom: "res2c"
  top: "res3a_branch1"
  param {
    lr_mult: 1
    decay_mult: 1
  }
  convolution_param {
    num_output: 512
    bias_term: false
    pad: 0
    kernel_size: 1
    stride: 2
    weight_filler {
      type: "xavier"
      std: 0.01
    }
  }
}
layer {
  name: "bn3a_branch1"
  type: "BatchNorm"
  bottom: "res3a_branch1"
  top: "res3a_branch1"
  batch_norm_param {
    use_global_stats: true
  }
}
layer {
  name: "scale3a_branch1"
  type: "Scale"
  bottom: "res3a_branch1"
  top: "res3a_branch1"
  scale_param {
    bias_term: true
  }
}
layer {
  name: "res3a_branch2a"
  type: "Convolution"
  bottom: "res2c"
  top: "res3a_branch2a"
  param {
    lr_mult: 1
    decay_mult: 1
  }
  convolution_param {
    num_output: 128
    bias_term: false
    pad: 0
    kernel_size: 1
    stride: 2
    weight_filler {
      type: "xavier"
      std: 0.01
    }
  }
}
layer {
  name: "bn3a_branch2a"
  type: "BatchNorm"
  bottom: "res3a_branch2a"
  top: "res3a_branch2a"
  batch_norm_param {
    use_global_stats: true
  }
}
layer {
  name: "scale3a_branch2a"
  type: "Scale"
  bottom: "res3a_branch2a"
  top: "res3a_branch2a"
  scale_param {
    bias_term: true
  }
}
layer {
  name: "res3a_branch2a_relu"
  type: "ReLU"
  bottom: "res3a_branch2a"
  top: "res3a_branch2a"
}
layer {
  name: "res3a_branch2b"
  type: "Convolution"
  bottom: "res3a_branch2a"
  top: "res3a_branch2b"
  param {
    lr_mult: 1
    decay_mult: 1
  }
  convolution_param {
    num_output: 128
    bias_term: false
    pad: 1
    kernel_size: 3
    stride: 1
    weight_filler {
      type: "xavier"
      std: 0.01
    }
  }
}
layer {
  name: "bn3a_branch2b"
  type: "BatchNorm"
  bottom: "res3a_branch2b"
  top: "res3a_branch2b"
  batch_norm_param {
    use_global_stats: true
  }
}
layer {
  name: "scale3a_branch2b"
  type: "Scale"
  bottom: "res3a_branch2b"
  top: "res3a_branch2b"
  scale_param {
    bias_term: true
  }
}
layer {
  name: "res3a_branch2b_relu"
  type: "ReLU"
  bottom: "res3a_branch2b"
  top: "res3a_branch2b"
}
layer {
  name: "res3a_branch2c"
  type: "Convolution"
  bottom: "res3a_branch2b"
  top: "res3a_branch2c"
  param {
    lr_mult: 1
    decay_mult: 1
  }
  convolution_param {
    num_output: 512
    bias_term: false
    pad: 0
    kernel_size: 1
    stride: 1
    weight_filler {
      type: "xavier"
      std: 0.01
    }
  }
}
layer {
  name: "bn3a_branch2c"
  type: "BatchNorm"
  bottom: "res3a_branch2c"
  top: "res3a_branch2c"
  batch_norm_param {
    use_global_stats: true
  }
}
layer {
  name: "scale3a_branch2c"
  type: "Scale"
  bottom: "res3a_branch2c"
  top: "res3a_branch2c"
  scale_param {
    bias_term: true
  }
}
layer {
  name: "res3a"
  type: "Eltwise"
  bottom: "res3a_branch1"
  bottom: "res3a_branch2c"
  top: "res3a"
}
layer {
  name: "res3a_relu"
  type: "ReLU"
  bottom: "res3a"
  top: "res3a"
}
layer {
  name: "res3b_branch2a"
  type: "Convolution"
  bottom: "res3a"
  top: "res3b_branch2a"
  param {
    lr_mult: 1
    decay_mult: 1
  }
  convolution_param {
    num_output: 128
    bias_term: false
    pad: 0
    kernel_size: 1
    stride: 1
    weight_filler {
      type: "xavier"
      std: 0.01
    }
  }
}
layer {
  name: "bn3b_branch2a"
  type: "BatchNorm"
  bottom: "res3b_branch2a"
  top: "res3b_branch2a"
  batch_norm_param {
    use_global_stats: true
  }
}
layer {
  name: "scale3b_branch2a"
  type: "Scale"
  bottom: "res3b_branch2a"
  top: "res3b_branch2a"
  scale_param {
    bias_term: true
  }
}
layer {
  name: "res3b_branch2a_relu"
  type: "ReLU"
  bottom: "res3b_branch2a"
  top: "res3b_branch2a"
}
layer {
  name: "res3b_branch2b"
  type: "Convolution"
  bottom: "res3b_branch2a"
  top: "res3b_branch2b"
  param {
    lr_mult: 1
    decay_mult: 1
  }
  convolution_param {
    num_output: 128
    bias_term: false
    pad: 1
    kernel_size: 3
    stride: 1
    weight_filler {
      type: "xavier"
      std: 0.01
    }
  }
}
layer {
  name: "bn3b_branch2b"
  type: "BatchNorm"
  bottom: "res3b_branch2b"
  top: "res3b_branch2b"
  batch_norm_param {
    use_global_stats: true
  }
}
layer {
  name: "scale3b_branch2b"
  type: "Scale"
  bottom: "res3b_branch2b"
  top: "res3b_branch2b"
  scale_param {
    bias_term: true
  }
}
layer {
  name: "res3b_branch2b_relu"
  type: "ReLU"
  bottom: "res3b_branch2b"
  top: "res3b_branch2b"
}
layer {
  name: "res3b_branch2c"
  type: "Convolution"
  bottom: "res3b_branch2b"
  top: "res3b_branch2c"
  param {
    lr_mult: 1
    decay_mult: 1
  }
  convolution_param {
    num_output: 512
    bias_term: false
    pad: 0
    kernel_size: 1
    stride: 1
    weight_filler {
      type: "xavier"
      std: 0.01
    }
  }
}
layer {
  name: "bn3b_branch2c"
  type: "BatchNorm"
  bottom: "res3b_branch2c"
  top: "res3b_branch2c"
  batch_norm_param {
    use_global_stats: true
  }
}
layer {
  name: "scale3b_branch2c"
  type: "Scale"
  bottom: "res3b_branch2c"
  top: "res3b_branch2c"
  scale_param {
    bias_term: true
  }
}
layer {
  name: "res3b"
  type: "Eltwise"
  bottom: "res3a"
  bottom: "res3b_branch2c"
  top: "res3b"
}
layer {
  name: "res3b_relu"
  type: "ReLU"
  bottom: "res3b"
  top: "res3b"
}
layer {
  name: "res3c_branch2a"
  type: "Convolution"
  bottom: "res3b"
  top: "res3c_branch2a"
  param {
    lr_mult: 1
    decay_mult: 1
  }
  convolution_param {
    num_output: 128
    bias_term: false
    pad: 0
    kernel_size: 1
    stride: 1
    weight_filler {
      type: "xavier"
      std: 0.01
    }
  }
}
layer {
  name: "bn3c_branch2a"
  type: "BatchNorm"
  bottom: "res3c_branch2a"
  top: "res3c_branch2a"
  batch_norm_param {
    use_global_stats: true
  }
}
layer {
  name: "scale3c_branch2a"
  type: "Scale"
  bottom: "res3c_branch2a"
  top: "res3c_branch2a"
  scale_param {
    bias_term: true
  }
}
layer {
  name: "res3c_branch2a_relu"
  type: "ReLU"
  bottom: "res3c_branch2a"
  top: "res3c_branch2a"
}
layer {
  name: "res3c_branch2b"
  type: "Convolution"
  bottom: "res3c_branch2a"
  top: "res3c_branch2b"
  param {
    lr_mult: 1
    decay_mult: 1
  }
  convolution_param {
    num_output: 128
    bias_term: false
    pad: 1
    kernel_size: 3
    stride: 1
    weight_filler {
      type: "xavier"
      std: 0.01
    }
  }
}
layer {
  name: "bn3c_branch2b"
  type: "BatchNorm"
  bottom: "res3c_branch2b"
  top: "res3c_branch2b"
  batch_norm_param {
    use_global_stats: true
  }
}
layer {
  name: "scale3c_branch2b"
  type: "Scale"
  bottom: "res3c_branch2b"
  top: "res3c_branch2b"
  scale_param {
    bias_term: true
  }
}
layer {
  name: "res3c_branch2b_relu"
  type: "ReLU"
  bottom: "res3c_branch2b"
  top: "res3c_branch2b"
}
layer {
  name: "res3c_branch2c"
  type: "Convolution"
  bottom: "res3c_branch2b"
  top: "res3c_branch2c"
  param {
    lr_mult: 1
    decay_mult: 1
  }
  convolution_param {
    num_output: 512
    bias_term: false
    pad: 0
    kernel_size: 1
    stride: 1
    weight_filler {
      type: "xavier"
      std: 0.01
    }
  }
}
layer {
  name: "bn3c_branch2c"
  type: "BatchNorm"
  bottom: "res3c_branch2c"
  top: "res3c_branch2c"
  batch_norm_param {
    use_global_stats: true
  }
}
layer {
  name: "scale3c_branch2c"
  type: "Scale"
  bottom: "res3c_branch2c"
  top: "res3c_branch2c"
  scale_param {
    bias_term: true
  }
}
layer {
  name: "res3c"
  type: "Eltwise"
  bottom: "res3b"
  bottom: "res3c_branch2c"
  top: "res3c"
}
layer {
  name: "res3c_relu"
  type: "ReLU"
  bottom: "res3c"
  top: "res3c"
}
layer {
  name: "res3d_branch2a"
  type: "Convolution"
  bottom: "res3c"
  top: "res3d_branch2a"
  param {
    lr_mult: 1
    decay_mult: 1
  }
  convolution_param {
    num_output: 128
    bias_term: false
    pad: 0
    kernel_size: 1
    stride: 1
    weight_filler {
      type: "xavier"
      std: 0.01
    }
  }
}
layer {
  name: "bn3d_branch2a"
  type: "BatchNorm"
  bottom: "res3d_branch2a"
  top: "res3d_branch2a"
  batch_norm_param {
    use_global_stats: true
  }
}
layer {
  name: "scale3d_branch2a"
  type: "Scale"
  bottom: "res3d_branch2a"
  top: "res3d_branch2a"
  scale_param {
    bias_term: true
  }
}
layer {
  name: "res3d_branch2a_relu"
  type: "ReLU"
  bottom: "res3d_branch2a"
  top: "res3d_branch2a"
}
layer {
  name: "res3d_branch2b"
  type: "Convolution"
  bottom: "res3d_branch2a"
  top: "res3d_branch2b"
  param {
    lr_mult: 1
    decay_mult: 1
  }
  convolution_param {
    num_output: 128
    bias_term: false
    pad: 1
    kernel_size: 3
    stride: 1
    weight_filler {
      type: "xavier"
      std: 0.01
    }
  }
}
layer {
  name: "bn3d_branch2b"
  type: "BatchNorm"
  bottom: "res3d_branch2b"
  top: "res3d_branch2b"
  batch_norm_param {
    use_global_stats: true
  }
}
layer {
  name: "scale3d_branch2b"
  type: "Scale"
  bottom: "res3d_branch2b"
  top: "res3d_branch2b"
  scale_param {
    bias_term: true
  }
}
layer {
  name: "res3d_branch2b_relu"
  type: "ReLU"
  bottom: "res3d_branch2b"
  top: "res3d_branch2b"
}
layer {
  name: "res3d_branch2c"
  type: "Convolution"
  bottom: "res3d_branch2b"
  top: "res3d_branch2c"
  param {
    lr_mult: 1
    decay_mult: 1
  }
  convolution_param {
    num_output: 512
    bias_term: false
    pad: 0
    kernel_size: 1
    stride: 1
    weight_filler {
      type: "xavier"
      std: 0.01
    }
  }
}
layer {
  name: "bn3d_branch2c"
  type: "BatchNorm"
  bottom: "res3d_branch2c"
  top: "res3d_branch2c"
  batch_norm_param {
    use_global_stats: true
  }
}
layer {
  name: "scale3d_branch2c"
  type: "Scale"
  bottom: "res3d_branch2c"
  top: "res3d_branch2c"
  scale_param {
    bias_term: true
  }
}
layer {
  name: "res3d"
  type: "Eltwise"
  bottom: "res3c"
  bottom: "res3d_branch2c"
  top: "res3d"
}
layer {
  name: "res3d_relu"
  type: "ReLU"
  bottom: "res3d"
  top: "res3d"
}
layer {
  name: "res4a_branch1"
  type: "Convolution"
  bottom: "res3d"
  top: "res4a_branch1"
  convolution_param {
    num_output: 1024
    bias_term: false
    pad: 0
    kernel_size: 1
    stride: 2
  }
}
layer {
  name: "bn4a_branch1"
  type: "BatchNorm"
  bottom: "res4a_branch1"
  top: "res4a_branch1"
  batch_norm_param {
    use_global_stats: true
  }
}
layer {
  name: "scale4a_branch1"
  type: "Scale"
  bottom: "res4a_branch1"
  top: "res4a_branch1"
  scale_param {
    bias_term: true
  }
}
layer {
  name: "res4a_branch2a"
  type: "Convolution"
  bottom: "res3d"
  top: "res4a_branch2a"
  param {
    lr_mult: 1
    decay_mult: 1
  }
  convolution_param {
    num_output: 256
    bias_term: false
    pad: 0
    kernel_size: 1
    stride: 2
    weight_filler {
      type: "xavier"
      std: 0.01
    }
  }
}
layer {
  name: "bn4a_branch2a"
  type: "BatchNorm"
  bottom: "res4a_branch2a"
  top: "res4a_branch2a"
  batch_norm_param {
    use_global_stats: true
  }
}
layer {
  name: "scale4a_branch2a"
  type: "Scale"
  bottom: "res4a_branch2a"
  top: "res4a_branch2a"
  scale_param {
    bias_term: true
  }
}
layer {
  name: "res4a_branch2a_relu"
  type: "ReLU"
  bottom: "res4a_branch2a"
  top: "res4a_branch2a"
}
layer {
  name: "res4a_branch2b"
  type: "Convolution"
  bottom: "res4a_branch2a"
  top: "res4a_branch2b"
  param {
    lr_mult: 1
    decay_mult: 1
  }
  convolution_param {
    num_output: 256
    bias_term: false
    pad: 1
    kernel_size: 3
    stride: 1
    weight_filler {
      type: "xavier"
      std: 0.01
    }
  }
}
layer {
  name: "bn4a_branch2b"
  type: "BatchNorm"
  bottom: "res4a_branch2b"
  top: "res4a_branch2b"
  batch_norm_param {
    use_global_stats: true
  }
}
layer {
  name: "scale4a_branch2b"
  type: "Scale"
  bottom: "res4a_branch2b"
  top: "res4a_branch2b"
  scale_param {
    bias_term: true
  }
}
layer {
  name: "res4a_branch2b_relu"
  type: "ReLU"
  bottom: "res4a_branch2b"
  top: "res4a_branch2b"
}
layer {
  name: "res4a_branch2c"
  type: "Convolution"
  bottom: "res4a_branch2b"
  top: "res4a_branch2c"
  param {
    lr_mult: 1
    decay_mult: 1
  }
  convolution_param {
    num_output: 1024
    bias_term: false
    pad: 0
    kernel_size: 1
    stride: 1
    weight_filler {
      type: "xavier"
      std: 0.01
    }
  }
}
layer {
  name: "bn4a_branch2c"
  type: "BatchNorm"
  bottom: "res4a_branch2c"
  top: "res4a_branch2c"
  batch_norm_param {
    use_global_stats: true
  }
}
layer {
  name: "scale4a_branch2c"
  type: "Scale"
  bottom: "res4a_branch2c"
  top: "res4a_branch2c"
  scale_param {
    bias_term: true
  }
}
layer {
  name: "res4a"
  type: "Eltwise"
  bottom: "res4a_branch1"
  bottom: "res4a_branch2c"
  top: "res4a"
}
layer {
  name: "res4a_relu"
  type: "ReLU"
  bottom: "res4a"
  top: "res4a"
}
layer {
  name: "res4b_branch2a"
  type: "Convolution"
  bottom: "res4a"
  top: "res4b_branch2a"
  param {
    lr_mult: 1
    decay_mult: 1
  }
  convolution_param {
    num_output: 256
    bias_term: false
    pad: 0
    kernel_size: 1
    stride: 1
    weight_filler {
      type: "xavier"
      std: 0.01
    }
  }
}
layer {
  name: "bn4b_branch2a"
  type: "BatchNorm"
  bottom: "res4b_branch2a"
  top: "res4b_branch2a"
  batch_norm_param {
    use_global_stats: true
  }
}
layer {
  name: "scale4b_branch2a"
  type: "Scale"
  bottom: "res4b_branch2a"
  top: "res4b_branch2a"
  scale_param {
    bias_term: true
  }
}
layer {
  name: "res4b_branch2a_relu"
  type: "ReLU"
  bottom: "res4b_branch2a"
  top: "res4b_branch2a"
}
layer {
  name: "res4b_branch2b"
  type: "Convolution"
  bottom: "res4b_branch2a"
  top: "res4b_branch2b"
  param {
    lr_mult: 1
    decay_mult: 1
  }
  convolution_param {
    num_output: 256
    bias_term: false
    pad: 1
    kernel_size: 3
    stride: 1
    weight_filler {
      type: "xavier"
      std: 0.01
    }
  }
}
layer {
  name: "bn4b_branch2b"
  type: "BatchNorm"
  bottom: "res4b_branch2b"
  top: "res4b_branch2b"
  batch_norm_param {
    use_global_stats: true
  }
}
layer {
  name: "scale4b_branch2b"
  type: "Scale"
  bottom: "res4b_branch2b"
  top: "res4b_branch2b"
  scale_param {
    bias_term: true
  }
}
layer {
  name: "res4b_branch2b_relu"
  type: "ReLU"
  bottom: "res4b_branch2b"
  top: "res4b_branch2b"
}
layer {
  name: "res4b_branch2c"
  type: "Convolution"
  bottom: "res4b_branch2b"
  top: "res4b_branch2c"
  param {
    lr_mult: 1
    decay_mult: 1
  }
  convolution_param {
    num_output: 1024
    bias_term: false
    pad: 0
    kernel_size: 1
    stride: 1
    weight_filler {
      type: "xavier"
      std: 0.01
    }
  }
}
layer {
  name: "bn4b_branch2c"
  type: "BatchNorm"
  bottom: "res4b_branch2c"
  top: "res4b_branch2c"
  batch_norm_param {
    use_global_stats: true
  }
}
layer {
  name: "scale4b_branch2c"
  type: "Scale"
  bottom: "res4b_branch2c"
  top: "res4b_branch2c"
  scale_param {
    bias_term: true
  }
}
layer {
  name: "res4b"
  type: "Eltwise"
  bottom: "res4a"
  bottom: "res4b_branch2c"
  top: "res4b"
}
layer {
  name: "res4b_relu"
  type: "ReLU"
  bottom: "res4b"
  top: "res4b"
}
layer {
  name: "res4c_branch2a"
  type: "Convolution"
  bottom: "res4b"
  top: "res4c_branch2a"
  param {
    lr_mult: 1
    decay_mult: 1
  }
  convolution_param {
    num_output: 256
    bias_term: false
    pad: 0
    kernel_size: 1
    stride: 1
    weight_filler {
      type: "xavier"
      std: 0.01
    }
  }
}
layer {
  name: "bn4c_branch2a"
  type: "BatchNorm"
  bottom: "res4c_branch2a"
  top: "res4c_branch2a"
  batch_norm_param {
    use_global_stats: true
  }
}
layer {
  name: "scale4c_branch2a"
  type: "Scale"
  bottom: "res4c_branch2a"
  top: "res4c_branch2a"
  scale_param {
    bias_term: true
  }
}
layer {
  name: "res4c_branch2a_relu"
  type: "ReLU"
  bottom: "res4c_branch2a"
  top: "res4c_branch2a"
}
layer {
  name: "res4c_branch2b"
  type: "Convolution"
  bottom: "res4c_branch2a"
  top: "res4c_branch2b"
  param {
    lr_mult: 1
    decay_mult: 1
  }
  convolution_param {
    num_output: 256
    bias_term: false
    pad: 1
    kernel_size: 3
    stride: 1
    weight_filler {
      type: "xavier"
      std: 0.01
    }
  }
}
layer {
  name: "bn4c_branch2b"
  type: "BatchNorm"
  bottom: "res4c_branch2b"
  top: "res4c_branch2b"
  batch_norm_param {
    use_global_stats: true
  }
}
layer {
  name: "scale4c_branch2b"
  type: "Scale"
  bottom: "res4c_branch2b"
  top: "res4c_branch2b"
  scale_param {
    bias_term: true
  }
}
layer {
  name: "res4c_branch2b_relu"
  type: "ReLU"
  bottom: "res4c_branch2b"
  top: "res4c_branch2b"
}
layer {
  name: "res4c_branch2c"
  type: "Convolution"
  bottom: "res4c_branch2b"
  top: "res4c_branch2c"
  param {
    lr_mult: 1
    decay_mult: 1
  }
  convolution_param {
    num_output: 1024
    bias_term: false
    pad: 0
    kernel_size: 1
    stride: 1
    weight_filler {
      type: "xavier"
      std: 0.01
    }
  }
}
layer {
  name: "bn4c_branch2c"
  type: "BatchNorm"
  bottom: "res4c_branch2c"
  top: "res4c_branch2c"
  batch_norm_param {
    use_global_stats: true
  }
}
layer {
  name: "scale4c_branch2c"
  type: "Scale"
  bottom: "res4c_branch2c"
  top: "res4c_branch2c"
  scale_param {
    bias_term: true
  }
}
layer {
  name: "res4c"
  type: "Eltwise"
  bottom: "res4b"
  bottom: "res4c_branch2c"
  top: "res4c"
}
layer {
  name: "res4c_relu"
  type: "ReLU"
  bottom: "res4c"
  top: "res4c"
}
layer {
  name: "res4d_branch2a"
  type: "Convolution"
  bottom: "res4c"
  top: "res4d_branch2a"
  param {
    lr_mult: 1
    decay_mult: 1
  }
  convolution_param {
    num_output: 256
    bias_term: false
    pad: 0
    kernel_size: 1
    stride: 1
    weight_filler {
      type: "xavier"
      std: 0.01
    }
  }
}
layer {
  name: "bn4d_branch2a"
  type: "BatchNorm"
  bottom: "res4d_branch2a"
  top: "res4d_branch2a"
  batch_norm_param {
    use_global_stats: true
  }
}
layer {
  name: "scale4d_branch2a"
  type: "Scale"
  bottom: "res4d_branch2a"
  top: "res4d_branch2a"
  scale_param {
    bias_term: true
  }
}
layer {
  name: "res4d_branch2a_relu"
  type: "ReLU"
  bottom: "res4d_branch2a"
  top: "res4d_branch2a"
}
layer {
  name: "res4d_branch2b"
  type: "Convolution"
  bottom: "res4d_branch2a"
  top: "res4d_branch2b"
  param {
    lr_mult: 1
    decay_mult: 1
  }
  convolution_param {
    num_output: 256
    bias_term: false
    pad: 1
    kernel_size: 3
    stride: 1
    weight_filler {
      type: "xavier"
      std: 0.01
    }
  }
}
layer {
  name: "bn4d_branch2b"
  type: "BatchNorm"
  bottom: "res4d_branch2b"
  top: "res4d_branch2b"
  batch_norm_param {
    use_global_stats: true
  }
}
layer {
  name: "scale4d_branch2b"
  type: "Scale"
  bottom: "res4d_branch2b"
  top: "res4d_branch2b"
  scale_param {
    bias_term: true
  }
}
layer {
  name: "res4d_branch2b_relu"
  type: "ReLU"
  bottom: "res4d_branch2b"
  top: "res4d_branch2b"
}
layer {
  name: "res4d_branch2c"
  type: "Convolution"
  bottom: "res4d_branch2b"
  top: "res4d_branch2c"
  param {
    lr_mult: 1
    decay_mult: 1
  }
  convolution_param {
    num_output: 1024
    bias_term: false
    pad: 0
    kernel_size: 1
    stride: 1
    weight_filler {
      type: "xavier"
      std: 0.01
    }
  }
}
layer {
  name: "bn4d_branch2c"
  type: "BatchNorm"
  bottom: "res4d_branch2c"
  top: "res4d_branch2c"
  batch_norm_param {
    use_global_stats: true
  }
}
layer {
  name: "scale4d_branch2c"
  type: "Scale"
  bottom: "res4d_branch2c"
  top: "res4d_branch2c"
  scale_param {
    bias_term: true
  }
}
layer {
  name: "res4d"
  type: "Eltwise"
  bottom: "res4c"
  bottom: "res4d_branch2c"
  top: "res4d"
}
layer {
  name: "res4d_relu"
  type: "ReLU"
  bottom: "res4d"
  top: "res4d"
}
layer {
  name: "res4e_branch2a"
  type: "Convolution"
  bottom: "res4d"
  top: "res4e_branch2a"
  param {
    lr_mult: 1
    decay_mult: 1
  }
  convolution_param {
    num_output: 256
    bias_term: false
    pad: 0
    kernel_size: 1
    stride: 1
    weight_filler {
      type: "xavier"
      std: 0.01
    }
  }
}
layer {
  name: "bn4e_branch2a"
  type: "BatchNorm"
  bottom: "res4e_branch2a"
  top: "res4e_branch2a"
  batch_norm_param {
    use_global_stats: true
  }
}
layer {
  name: "scale4e_branch2a"
  type: "Scale"
  bottom: "res4e_branch2a"
  top: "res4e_branch2a"
  scale_param {
    bias_term: true
  }
}
layer {
  name: "res4e_branch2a_relu"
  type: "ReLU"
  bottom: "res4e_branch2a"
  top: "res4e_branch2a"
}
layer {
  name: "res4e_branch2b"
  type: "Convolution"
  bottom: "res4e_branch2a"
  top: "res4e_branch2b"
  param {
    lr_mult: 1
    decay_mult: 1
  }
  convolution_param {
    num_output: 256
    bias_term: false
    pad: 1
    kernel_size: 3
    stride: 1
    weight_filler {
      type: "xavier"
      std: 0.01
    }
  }
}
layer {
  name: "bn4e_branch2b"
  type: "BatchNorm"
  bottom: "res4e_branch2b"
  top: "res4e_branch2b"
  batch_norm_param {
    use_global_stats: true
  }
}
layer {
  name: "scale4e_branch2b"
  type: "Scale"
  bottom: "res4e_branch2b"
  top: "res4e_branch2b"
  scale_param {
    bias_term: true
  }
}
layer {
  name: "res4e_branch2b_relu"
  type: "ReLU"
  bottom: "res4e_branch2b"
  top: "res4e_branch2b"
}
layer {
  name: "res4e_branch2c"
  type: "Convolution"
  bottom: "res4e_branch2b"
  top: "res4e_branch2c"
  param {
    lr_mult: 1
    decay_mult: 1
  }
  convolution_param {
    num_output: 1024
    bias_term: false
    pad: 0
    kernel_size: 1
    stride: 1
    weight_filler {
      type: "xavier"
      std: 
I0901 12:40:38.883586 40287 layer_factory.hpp:77] Creating layer data
I0901 12:40:38.884279 40287 net.cpp:91] Creating Layer data
I0901 12:40:38.884446 40287 net.cpp:399] data -> data
I0901 12:40:38.884618 40287 net.cpp:399] data -> label
I0901 12:40:38.886209 40292 db_lmdb.cpp:38] Opened lmdb FASHION/fashion_train_lmdb
I0901 12:40:38.915470 40287 data_layer.cpp:41] output data size: 10,3,224,224
I0901 12:40:38.934748 40287 net.cpp:141] Setting up data
I0901 12:40:38.934883 40287 net.cpp:148] Top shape: 10 3 224 224 (1505280)
I0901 12:40:38.934924 40287 net.cpp:148] Top shape: 10 1 1 1 (10)
I0901 12:40:38.934962 40287 net.cpp:156] Memory required for data: 6021160
I0901 12:40:38.935003 40287 layer_factory.hpp:77] Creating layer label_data_1_split
I0901 12:40:38.935057 40287 net.cpp:91] Creating Layer label_data_1_split
I0901 12:40:38.935108 40287 net.cpp:425] label_data_1_split <- label
I0901 12:40:38.935191 40287 net.cpp:399] label_data_1_split -> label_data_1_split_0
I0901 12:40:38.935248 40287 net.cpp:399] label_data_1_split -> label_data_1_split_1
I0901 12:40:38.935382 40287 net.cpp:141] Setting up label_data_1_split
I0901 12:40:38.935431 40287 net.cpp:148] Top shape: 10 1 1 1 (10)
I0901 12:40:38.935464 40287 net.cpp:148] Top shape: 10 1 1 1 (10)
I0901 12:40:38.935493 40287 net.cpp:156] Memory required for data: 6021240
I0901 12:40:38.935523 40287 layer_factory.hpp:77] Creating layer conv1
I0901 12:40:38.935593 40287 net.cpp:91] Creating Layer conv1
I0901 12:40:38.935627 40287 net.cpp:425] conv1 <- data
I0901 12:40:38.935669 40287 net.cpp:399] conv1 -> conv1
I0901 12:40:38.938345 40287 net.cpp:141] Setting up conv1
I0901 12:40:38.938447 40287 net.cpp:148] Top shape: 10 64 112 112 (8028160)
I0901 12:40:38.938482 40287 net.cpp:156] Memory required for data: 38133880
I0901 12:40:38.938611 40287 layer_factory.hpp:77] Creating layer bn_conv1
I0901 12:40:38.938663 40287 net.cpp:91] Creating Layer bn_conv1
I0901 12:40:38.938694 40287 net.cpp:425] bn_conv1 <- conv1
I0901 12:40:38.938733 40287 net.cpp:386] bn_conv1 -> conv1 (in-place)
I0901 12:40:38.939169 40287 net.cpp:141] Setting up bn_conv1
I0901 12:40:38.939219 40287 net.cpp:148] Top shape: 10 64 112 112 (8028160)
I0901 12:40:38.939250 40287 net.cpp:156] Memory required for data: 70246520
I0901 12:40:38.939299 40287 layer_factory.hpp:77] Creating layer scale_conv1
I0901 12:40:38.939349 40287 net.cpp:91] Creating Layer scale_conv1
I0901 12:40:38.939380 40287 net.cpp:425] scale_conv1 <- conv1
I0901 12:40:38.939419 40287 net.cpp:386] scale_conv1 -> conv1 (in-place)
I0901 12:40:38.939553 40287 layer_factory.hpp:77] Creating layer scale_conv1
I0901 12:40:38.939879 40287 net.cpp:141] Setting up scale_conv1
I0901 12:40:38.939935 40287 net.cpp:148] Top shape: 10 64 112 112 (8028160)
I0901 12:40:38.939965 40287 net.cpp:156] Memory required for data: 102359160
I0901 12:40:38.940002 40287 layer_factory.hpp:77] Creating layer conv1_relu
I0901 12:40:38.940043 40287 net.cpp:91] Creating Layer conv1_relu
I0901 12:40:38.940073 40287 net.cpp:425] conv1_relu <- conv1
I0901 12:40:38.940105 40287 net.cpp:386] conv1_relu -> conv1 (in-place)
I0901 12:40:38.940145 40287 net.cpp:141] Setting up conv1_relu
I0901 12:40:38.940179 40287 net.cpp:148] Top shape: 10 64 112 112 (8028160)
I0901 12:40:38.940208 40287 net.cpp:156] Memory required for data: 134471800
I0901 12:40:38.940237 40287 layer_factory.hpp:77] Creating layer pool1
I0901 12:40:38.940279 40287 net.cpp:91] Creating Layer pool1
I0901 12:40:38.940316 40287 net.cpp:425] pool1 <- conv1
I0901 12:40:38.940351 40287 net.cpp:399] pool1 -> pool1
I0901 12:40:38.940485 40287 net.cpp:141] Setting up pool1
I0901 12:40:38.940536 40287 net.cpp:148] Top shape: 10 64 56 56 (2007040)
I0901 12:40:38.940564 40287 net.cpp:156] Memory required for data: 142499960
I0901 12:40:38.940593 40287 layer_factory.hpp:77] Creating layer pool1_pool1_0_split
I0901 12:40:38.940636 40287 net.cpp:91] Creating Layer pool1_pool1_0_split
I0901 12:40:38.940675 40287 net.cpp:425] pool1_pool1_0_split <- pool1
I0901 12:40:38.940707 40287 net.cpp:399] pool1_pool1_0_split -> pool1_pool1_0_split_0
I0901 12:40:38.940745 40287 net.cpp:399] pool1_pool1_0_split -> pool1_pool1_0_split_1
I0901 12:40:38.940850 40287 net.cpp:141] Setting up pool1_pool1_0_split
I0901 12:40:38.940896 40287 net.cpp:148] Top shape: 10 64 56 56 (2007040)
I0901 12:40:38.940929 40287 net.cpp:148] Top shape: 10 64 56 56 (2007040)
I0901 12:40:38.940958 40287 net.cpp:156] Memory required for data: 158556280
I0901 12:40:38.940987 40287 layer_factory.hpp:77] Creating layer res2a_branch1
I0901 12:40:38.941031 40287 net.cpp:91] Creating Layer res2a_branch1
I0901 12:40:38.941063 40287 net.cpp:425] res2a_branch1 <- pool1_pool1_0_split_0
I0901 12:40:38.941105 40287 net.cpp:399] res2a_branch1 -> res2a_branch1
I0901 12:40:38.941757 40287 net.cpp:141] Setting up res2a_branch1
I0901 12:40:38.941809 40287 net.cpp:148] Top shape: 10 256 56 56 (8028160)
I0901 12:40:38.941838 40287 net.cpp:156] Memory required for data: 190668920
I0901 12:40:38.941869 40287 layer_factory.hpp:77] Creating layer bn2a_branch1
I0901 12:40:38.941911 40287 net.cpp:91] Creating Layer bn2a_branch1
I0901 12:40:38.941942 40287 net.cpp:425] bn2a_branch1 <- res2a_branch1
I0901 12:40:38.941977 40287 net.cpp:386] bn2a_branch1 -> res2a_branch1 (in-place)
I0901 12:40:38.943475 40287 net.cpp:141] Setting up bn2a_branch1
I0901 12:40:38.943534 40287 net.cpp:148] Top shape: 10 256 56 56 (8028160)
I0901 12:40:38.943565 40287 net.cpp:156] Memory required for data: 222781560
I0901 12:40:38.943620 40287 layer_factory.hpp:77] Creating layer scale2a_branch1
I0901 12:40:38.943660 40287 net.cpp:91] Creating Layer scale2a_branch1
I0901 12:40:38.943691 40287 net.cpp:425] scale2a_branch1 <- res2a_branch1
I0901 12:40:38.943724 40287 net.cpp:386] scale2a_branch1 -> res2a_branch1 (in-place)
I0901 12:40:38.943894 40287 layer_factory.hpp:77] Creating layer scale2a_branch1
I0901 12:40:38.944175 40287 net.cpp:141] Setting up scale2a_branch1
I0901 12:40:38.944224 40287 net.cpp:148] Top shape: 10 256 56 56 (8028160)
I0901 12:40:38.944253 40287 net.cpp:156] Memory required for data: 254894200
I0901 12:40:38.944291 40287 layer_factory.hpp:77] Creating layer res2a_branch2a
I0901 12:40:38.944352 40287 net.cpp:91] Creating Layer res2a_branch2a
I0901 12:40:38.944387 40287 net.cpp:425] res2a_branch2a <- pool1_pool1_0_split_1
I0901 12:40:38.944425 40287 net.cpp:399] res2a_branch2a -> res2a_branch2a
I0901 12:40:38.944880 40287 net.cpp:141] Setting up res2a_branch2a
I0901 12:40:38.944929 40287 net.cpp:148] Top shape: 10 64 56 56 (2007040)
I0901 12:40:38.944959 40287 net.cpp:156] Memory required for data: 262922360
I0901 12:40:38.944993 40287 layer_factory.hpp:77] Creating layer bn2a_branch2a
I0901 12:40:38.945034 40287 net.cpp:91] Creating Layer bn2a_branch2a
I0901 12:40:38.945065 40287 net.cpp:425] bn2a_branch2a <- res2a_branch2a
I0901 12:40:38.945098 40287 net.cpp:386] bn2a_branch2a -> res2a_branch2a (in-place)
I0901 12:40:38.945498 40287 net.cpp:141] Setting up bn2a_branch2a
I0901 12:40:38.945546 40287 net.cpp:148] Top shape: 10 64 56 56 (2007040)
I0901 12:40:38.945576 40287 net.cpp:156] Memory required for data: 270950520
I0901 12:40:38.945622 40287 layer_factory.hpp:77] Creating layer scale2a_branch2a
I0901 12:40:38.945675 40287 net.cpp:91] Creating Layer scale2a_branch2a
I0901 12:40:38.945708 40287 net.cpp:425] scale2a_branch2a <- res2a_branch2a
I0901 12:40:38.945741 40287 net.cpp:386] scale2a_branch2a -> res2a_branch2a (in-place)
I0901 12:40:38.945855 40287 layer_factory.hpp:77] Creating layer scale2a_branch2a
I0901 12:40:38.946143 40287 net.cpp:141] Setting up scale2a_branch2a
I0901 12:40:38.946192 40287 net.cpp:148] Top shape: 10 64 56 56 (2007040)
I0901 12:40:38.946220 40287 net.cpp:156] Memory required for data: 278978680
I0901 12:40:38.946256 40287 layer_factory.hpp:77] Creating layer res2a_branch2a_relu
I0901 12:40:38.946296 40287 net.cpp:91] Creating Layer res2a_branch2a_relu
I0901 12:40:38.946332 40287 net.cpp:425] res2a_branch2a_relu <- res2a_branch2a
I0901 12:40:38.946383 40287 net.cpp:386] res2a_branch2a_relu -> res2a_branch2a (in-place)
I0901 12:40:38.946424 40287 net.cpp:141] Setting up res2a_branch2a_relu
I0901 12:40:38.946458 40287 net.cpp:148] Top shape: 10 64 56 56 (2007040)
I0901 12:40:38.946487 40287 net.cpp:156] Memory required for data: 287006840
I0901 12:40:38.946516 40287 layer_factory.hpp:77] Creating layer res2a_branch2b
I0901 12:40:38.946554 40287 net.cpp:91] Creating Layer res2a_branch2b
I0901 12:40:38.946584 40287 net.cpp:425] res2a_branch2b <- res2a_branch2a
I0901 12:40:38.946625 40287 net.cpp:399] res2a_branch2b -> res2a_branch2b
I0901 12:40:38.948669 40287 net.cpp:141] Setting up res2a_branch2b
I0901 12:40:38.948727 40287 net.cpp:148] Top shape: 10 64 56 56 (2007040)
I0901 12:40:38.948758 40287 net.cpp:156] Memory required for data: 295035000
I0901 12:40:38.948792 40287 layer_factory.hpp:77] Creating layer bn2a_branch2b
I0901 12:40:38.948832 40287 net.cpp:91] Creating Layer bn2a_branch2b
I0901 12:40:38.948863 40287 net.cpp:425] bn2a_branch2b <- res2a_branch2b
I0901 12:40:38.948896 40287 net.cpp:386] bn2a_branch2b -> res2a_branch2b (in-place)
I0901 12:40:38.949313 40287 net.cpp:141] Setting up bn2a_branch2b
I0901 12:40:38.949362 40287 net.cpp:148] Top shape: 10 64 56 56 (2007040)
I0901 12:40:38.949391 40287 net.cpp:156] Memory required for data: 303063160
I0901 12:40:38.949431 40287 layer_factory.hpp:77] Creating layer scale2a_branch2b
I0901 12:40:38.949467 40287 net.cpp:91] Creating Layer scale2a_branch2b
I0901 12:40:38.949497 40287 net.cpp:425] scale2a_branch2b <- res2a_branch2b
I0901 12:40:38.949537 40287 net.cpp:386] scale2a_branch2b -> res2a_branch2b (in-place)
I0901 12:40:38.949659 40287 layer_factory.hpp:77] Creating layer scale2a_branch2b
I0901 12:40:38.949956 40287 net.cpp:141] Setting up scale2a_branch2b
I0901 12:40:38.950006 40287 net.cpp:148] Top shape: 10 64 56 56 (2007040)
I0901 12:40:38.950072 40287 net.cpp:156] Memory required for data: 311091320
I0901 12:40:38.950111 40287 layer_factory.hpp:77] Creating layer res2a_branch2b_relu
I0901 12:40:38.950153 40287 net.cpp:91] Creating Layer res2a_branch2b_relu
I0901 12:40:38.950184 40287 net.cpp:425] res2a_branch2b_relu <- res2a_branch2b
I0901 12:40:38.950222 40287 net.cpp:386] res2a_branch2b_relu -> res2a_branch2b (in-place)
I0901 12:40:38.950260 40287 net.cpp:141] Setting up res2a_branch2b_relu
I0901 12:40:38.950294 40287 net.cpp:148] Top shape: 10 64 56 56 (2007040)
I0901 12:40:38.950320 40287 net.cpp:156] Memory required for data: 319119480
I0901 12:40:38.950348 40287 layer_factory.hpp:77] Creating layer res2a_branch2c
I0901 12:40:38.950412 40287 net.cpp:91] Creating Layer res2a_branch2c
I0901 12:40:38.950449 40287 net.cpp:425] res2a_branch2c <- res2a_branch2b
I0901 12:40:38.950487 40287 net.cpp:399] res2a_branch2c -> res2a_branch2c
I0901 12:40:38.951158 40287 net.cpp:141] Setting up res2a_branch2c
I0901 12:40:38.951207 40287 net.cpp:148] Top shape: 10 256 56 56 (8028160)
I0901 12:40:38.951236 40287 net.cpp:156] Memory required for data: 351232120
I0901 12:40:38.951272 40287 layer_factory.hpp:77] Creating layer bn2a_branch2c
I0901 12:40:38.951308 40287 net.cpp:91] Creating Layer bn2a_branch2c
I0901 12:40:38.951337 40287 net.cpp:425] bn2a_branch2c <- res2a_branch2c
I0901 12:40:38.951375 40287 net.cpp:386] bn2a_branch2c -> res2a_branch2c (in-place)
I0901 12:40:38.951772 40287 net.cpp:141] Setting up bn2a_branch2c
I0901 12:40:38.951822 40287 net.cpp:148] Top shape: 10 256 56 56 (8028160)
I0901 12:40:38.951850 40287 net.cpp:156] Memory required for data: 383344760
I0901 12:40:38.951889 40287 layer_factory.hpp:77] Creating layer scale2a_branch2c
I0901 12:40:38.951927 40287 net.cpp:91] Creating Layer scale2a_branch2c
I0901 12:40:38.951957 40287 net.cpp:425] scale2a_branch2c <- res2a_branch2c
I0901 12:40:38.951990 40287 net.cpp:386] scale2a_branch2c -> res2a_branch2c (in-place)
I0901 12:40:38.952103 40287 layer_factory.hpp:77] Creating layer scale2a_branch2c
I0901 12:40:38.952389 40287 net.cpp:141] Setting up scale2a_branch2c
I0901 12:40:38.952437 40287 net.cpp:148] Top shape: 10 256 56 56 (8028160)
I0901 12:40:38.952466 40287 net.cpp:156] Memory required for data: 415457400
I0901 12:40:38.952502 40287 layer_factory.hpp:77] Creating layer res2a
I0901 12:40:38.952545 40287 net.cpp:91] Creating Layer res2a
I0901 12:40:38.952576 40287 net.cpp:425] res2a <- res2a_branch1
I0901 12:40:38.952606 40287 net.cpp:425] res2a <- res2a_branch2c
I0901 12:40:38.952647 40287 net.cpp:399] res2a -> res2a
I0901 12:40:38.952740 40287 net.cpp:141] Setting up res2a
I0901 12:40:38.952787 40287 net.cpp:148] Top shape: 10 256 56 56 (8028160)
I0901 12:40:38.952816 40287 net.cpp:156] Memory required for data: 447570040
I0901 12:40:38.952844 40287 layer_factory.hpp:77] Creating layer res2a_relu
I0901 12:40:38.952883 40287 net.cpp:91] Creating Layer res2a_relu
I0901 12:40:38.952921 40287 net.cpp:425] res2a_relu <- res2a
I0901 12:40:38.952955 40287 net.cpp:386] res2a_relu -> res2a (in-place)
I0901 12:40:38.952992 40287 net.cpp:141] Setting up res2a_relu
I0901 12:40:38.953024 40287 net.cpp:148] Top shape: 10 256 56 56 (8028160)
I0901 12:40:38.953052 40287 net.cpp:156] Memory required for data: 479682680
I0901 12:40:38.953080 40287 layer_factory.hpp:77] Creating layer res2a_res2a_relu_0_split
I0901 12:40:38.953117 40287 net.cpp:91] Creating Layer res2a_res2a_relu_0_split
I0901 12:40:38.953146 40287 net.cpp:425] res2a_res2a_relu_0_split <- res2a
I0901 12:40:38.953179 40287 net.cpp:399] res2a_res2a_relu_0_split -> res2a_res2a_relu_0_split_0
I0901 12:40:38.953215 40287 net.cpp:399] res2a_res2a_relu_0_split -> res2a_res2a_relu_0_split_1
I0901 12:40:38.953793 40287 net.cpp:141] Setting up res2a_res2a_relu_0_split
I0901 12:40:38.953867 40287 net.cpp:148] Top shape: 10 256 56 56 (8028160)
I0901 12:40:38.953905 40287 net.cpp:148] Top shape: 10 256 56 56 (8028160)
I0901 12:40:38.953934 40287 net.cpp:156] Memory required for data: 543907960
I0901 12:40:38.953966 40287 layer_factory.hpp:77] Creating layer res2b_branch2a
I0901 12:40:38.954054 40287 net.cpp:91] Creating Layer res2b_branch2a
I0901 12:40:38.954097 40287 net.cpp:425] res2b_branch2a <- res2a_res2a_relu_0_split_0
I0901 12:40:38.954136 40287 net.cpp:399] res2b_branch2a -> res2b_branch2a
I0901 12:40:38.954833 40287 net.cpp:141] Setting up res2b_branch2a
I0901 12:40:38.954887 40287 net.cpp:148] Top shape: 10 64 56 56 (2007040)
I0901 12:40:38.954917 40287 net.cpp:156] Memory required for data: 551936120
I0901 12:40:38.954952 40287 layer_factory.hpp:77] Creating layer bn2b_branch2a
I0901 12:40:38.954988 40287 net.cpp:91] Creating Layer bn2b_branch2a
I0901 12:40:38.955018 40287 net.cpp:425] bn2b_branch2a <- res2b_branch2a
I0901 12:40:38.955051 40287 net.cpp:386] bn2b_branch2a -> res2b_branch2a (in-place)
I0901 12:40:38.955461 40287 net.cpp:141] Setting up bn2b_branch2a
I0901 12:40:38.955508 40287 net.cpp:148] Top shape: 10 64 56 56 (2007040)
I0901 12:40:38.955538 40287 net.cpp:156] Memory required for data: 559964280
I0901 12:40:38.955590 40287 layer_factory.hpp:77] Creating layer scale2b_branch2a
I0901 12:40:38.955629 40287 net.cpp:91] Creating Layer scale2b_branch2a
I0901 12:40:38.955659 40287 net.cpp:425] scale2b_branch2a <- res2b_branch2a
I0901 12:40:38.955698 40287 net.cpp:386] scale2b_branch2a -> res2b_branch2a (in-place)
I0901 12:40:38.955819 40287 layer_factory.hpp:77] Creating layer scale2b_branch2a
I0901 12:40:38.956113 40287 net.cpp:141] Setting up scale2b_branch2a
I0901 12:40:38.956163 40287 net.cpp:148] Top shape: 10 64 56 56 (2007040)
I0901 12:40:38.956192 40287 net.cpp:156] Memory required for data: 567992440
I0901 12:40:38.956228 40287 layer_factory.hpp:77] Creating layer res2b_branch2a_relu
I0901 12:40:38.956271 40287 net.cpp:91] Creating Layer res2b_branch2a_relu
I0901 12:40:38.956302 40287 net.cpp:425] res2b_branch2a_relu <- res2b_branch2a
I0901 12:40:38.956341 40287 net.cpp:386] res2b_branch2a_relu -> res2b_branch2a (in-place)
I0901 12:40:38.956377 40287 net.cpp:141] Setting up res2b_branch2a_relu
I0901 12:40:38.956410 40287 net.cpp:148] Top shape: 10 64 56 56 (2007040)
I0901 12:40:38.956439 40287 net.cpp:156] Memory required for data: 576020600
I0901 12:40:38.956466 40287 layer_factory.hpp:77] Creating layer res2b_branch2b
I0901 12:40:38.956506 40287 net.cpp:91] Creating Layer res2b_branch2b
I0901 12:40:38.956534 40287 net.cpp:425] res2b_branch2b <- res2b_branch2a
I0901 12:40:38.956569 40287 net.cpp:399] res2b_branch2b -> res2b_branch2b
I0901 12:40:38.957587 40287 net.cpp:141] Setting up res2b_branch2b
I0901 12:40:38.957639 40287 net.cpp:148] Top shape: 10 64 56 56 (2007040)
I0901 12:40:38.957669 40287 net.cpp:156] Memory required for data: 584048760
I0901 12:40:38.957701 40287 layer_factory.hpp:77] Creating layer bn2b_branch2b
I0901 12:40:38.957742 40287 net.cpp:91] Creating Layer bn2b_branch2b
I0901 12:40:38.957773 40287 net.cpp:425] bn2b_branch2b <- res2b_branch2b
I0901 12:40:38.957808 40287 net.cpp:386] bn2b_branch2b -> res2b_branch2b (in-place)
I0901 12:40:38.958230 40287 net.cpp:141] Setting up bn2b_branch2b
I0901 12:40:38.958279 40287 net.cpp:148] Top shape: 10 64 56 56 (2007040)
I0901 12:40:38.958309 40287 net.cpp:156] Memory required for data: 592076920
I0901 12:40:38.958349 40287 layer_factory.hpp:77] Creating layer scale2b_branch2b
I0901 12:40:38.958407 40287 net.cpp:91] Creating Layer scale2b_branch2b
I0901 12:40:38.958446 40287 net.cpp:425] scale2b_branch2b <- res2b_branch2b
I0901 12:40:38.958479 40287 net.cpp:386] scale2b_branch2b -> res2b_branch2b (in-place)
I0901 12:40:38.958595 40287 layer_factory.hpp:77] Creating layer scale2b_branch2b
I0901 12:40:38.958889 40287 net.cpp:141] Setting up scale2b_branch2b
I0901 12:40:38.958937 40287 net.cpp:148] Top shape: 10 64 56 56 (2007040)
I0901 12:40:38.958966 40287 net.cpp:156] Memory required for data: 600105080
I0901 12:40:38.959002 40287 layer_factory.hpp:77] Creating layer res2b_branch2b_relu
I0901 12:40:38.959055 40287 net.cpp:91] Creating Layer res2b_branch2b_relu
I0901 12:40:38.959090 40287 net.cpp:425] res2b_branch2b_relu <- res2b_branch2b
I0901 12:40:38.959130 40287 net.cpp:386] res2b_branch2b_relu -> res2b_branch2b (in-place)
I0901 12:40:38.959198 40287 net.cpp:141] Setting up res2b_branch2b_relu
I0901 12:40:38.959235 40287 net.cpp:148] Top shape: 10 64 56 56 (2007040)
I0901 12:40:38.959264 40287 net.cpp:156] Memory required for data: 608133240
I0901 12:40:38.959292 40287 layer_factory.hpp:77] Creating layer res2b_branch2c
I0901 12:40:38.959332 40287 net.cpp:91] Creating Layer res2b_branch2c
I0901 12:40:38.959362 40287 net.cpp:425] res2b_branch2c <- res2b_branch2b
I0901 12:40:38.959406 40287 net.cpp:399] res2b_branch2c -> res2b_branch2c
I0901 12:40:38.960064 40287 net.cpp:141] Setting up res2b_branch2c
I0901 12:40:38.960114 40287 net.cpp:148] Top shape: 10 256 56 56 (8028160)
I0901 12:40:38.960144 40287 net.cpp:156] Memory required for data: 640245880
I0901 12:40:38.960177 40287 layer_factory.hpp:77] Creating layer bn2b_branch2c
I0901 12:40:38.960218 40287 net.cpp:91] Creating Layer bn2b_branch2c
I0901 12:40:38.960248 40287 net.cpp:425] bn2b_branch2c <- res2b_branch2c
I0901 12:40:38.960283 40287 net.cpp:386] bn2b_branch2c -> res2b_branch2c (in-place)
I0901 12:40:38.960671 40287 net.cpp:141] Setting up bn2b_branch2c
I0901 12:40:38.960718 40287 net.cpp:148] Top shape: 10 256 56 56 (8028160)
I0901 12:40:38.960768 40287 net.cpp:156] Memory required for data: 672358520
I0901 12:40:38.960809 40287 layer_factory.hpp:77] Creating layer scale2b_branch2c
I0901 12:40:38.960852 40287 net.cpp:91] Creating Layer scale2b_branch2c
I0901 12:40:38.960882 40287 net.cpp:425] scale2b_branch2c <- res2b_branch2c
I0901 12:40:38.960917 40287 net.cpp:386] scale2b_branch2c -> res2b_branch2c (in-place)
I0901 12:40:38.961030 40287 layer_factory.hpp:77] Creating layer scale2b_branch2c
I0901 12:40:38.961308 40287 net.cpp:141] Setting up scale2b_branch2c
I0901 12:40:38.961359 40287 net.cpp:148] Top shape: 10 256 56 56 (8028160)
I0901 12:40:38.961386 40287 net.cpp:156] Memory required for data: 704471160
I0901 12:40:38.961422 40287 layer_factory.hpp:77] Creating layer res2b
I0901 12:40:38.961459 40287 net.cpp:91] Creating Layer res2b
I0901 12:40:38.961488 40287 net.cpp:425] res2b <- res2a_res2a_relu_0_split_1
I0901 12:40:38.961519 40287 net.cpp:425] res2b <- res2b_branch2c
I0901 12:40:38.961560 40287 net.cpp:399] res2b -> res2b
I0901 12:40:38.961642 40287 net.cpp:141] Setting up res2b
I0901 12:40:38.961691 40287 net.cpp:148] Top shape: 10 256 56 56 (8028160)
I0901 12:40:38.961720 40287 net.cpp:156] Memory required for data: 736583800
I0901 12:40:38.961748 40287 layer_factory.hpp:77] Creating layer res2b_relu
I0901 12:40:38.961781 40287 net.cpp:91] Creating Layer res2b_relu
I0901 12:40:38.961809 40287 net.cpp:425] res2b_relu <- res2b
I0901 12:40:38.961841 40287 net.cpp:386] res2b_relu -> res2b (in-place)
I0901 12:40:38.961875 40287 net.cpp:141] Setting up res2b_relu
I0901 12:40:38.961907 40287 net.cpp:148] Top shape: 10 256 56 56 (8028160)
I0901 12:40:38.961935 40287 net.cpp:156] Memory required for data: 768696440
I0901 12:40:38.961963 40287 layer_factory.hpp:77] Creating layer res2b_res2b_relu_0_split
I0901 12:40:38.961995 40287 net.cpp:91] Creating Layer res2b_res2b_relu_0_split
I0901 12:40:38.962024 40287 net.cpp:425] res2b_res2b_relu_0_split <- res2b
I0901 12:40:38.962069 40287 net.cpp:399] res2b_res2b_relu_0_split -> res2b_res2b_relu_0_split_0
I0901 12:40:38.962107 40287 net.cpp:399] res2b_res2b_relu_0_split -> res2b_res2b_relu_0_split_1
I0901 12:40:38.962203 40287 net.cpp:141] Setting up res2b_res2b_relu_0_split
I0901 12:40:38.962247 40287 net.cpp:148] Top shape: 10 256 56 56 (8028160)
I0901 12:40:38.962280 40287 net.cpp:148] Top shape: 10 256 56 56 (8028160)
I0901 12:40:38.962309 40287 net.cpp:156] Memory required for data: 832921720
I0901 12:40:38.962337 40287 layer_factory.hpp:77] Creating layer res2c_branch2a
I0901 12:40:38.962396 40287 net.cpp:91] Creating Layer res2c_branch2a
I0901 12:40:38.962438 40287 net.cpp:425] res2c_branch2a <- res2b_res2b_relu_0_split_0
I0901 12:40:38.962479 40287 net.cpp:399] res2c_branch2a -> res2c_branch2a
I0901 12:40:38.963145 40287 net.cpp:141] Setting up res2c_branch2a
I0901 12:40:38.963223 40287 net.cpp:148] Top shape: 10 64 56 56 (2007040)
I0901 12:40:38.963254 40287 net.cpp:156] Memory required for data: 840949880
I0901 12:40:38.963287 40287 layer_factory.hpp:77] Creating layer bn2c_branch2a
I0901 12:40:38.963323 40287 net.cpp:91] Creating Layer bn2c_branch2a
I0901 12:40:38.963353 40287 net.cpp:425] bn2c_branch2a <- res2c_branch2a
I0901 12:40:38.963392 40287 net.cpp:386] bn2c_branch2a -> res2c_branch2a (in-place)
I0901 12:40:38.963805 40287 net.cpp:141] Setting up bn2c_branch2a
I0901 12:40:38.963853 40287 net.cpp:148] Top shape: 10 64 56 56 (2007040)
I0901 12:40:38.963883 40287 net.cpp:156] Memory required for data: 848978040
I0901 12:40:38.963923 40287 layer_factory.hpp:77] Creating layer scale2c_branch2a
I0901 12:40:38.963960 40287 net.cpp:91] Creating Layer scale2c_branch2a
I0901 12:40:38.963989 40287 net.cpp:425] scale2c_branch2a <- res2c_branch2a
I0901 12:40:38.964028 40287 net.cpp:386] scale2c_branch2a -> res2c_branch2a (in-place)
I0901 12:40:38.964138 40287 layer_factory.hpp:77] Creating layer scale2c_branch2a
I0901 12:40:38.964426 40287 net.cpp:141] Setting up scale2c_branch2a
I0901 12:40:38.964474 40287 net.cpp:148] Top shape: 10 64 56 56 (2007040)
I0901 12:40:38.964504 40287 net.cpp:156] Memory required for data: 857006200
I0901 12:40:38.964540 40287 layer_factory.hpp:77] Creating layer res2c_branch2a_relu
I0901 12:40:38.964576 40287 net.cpp:91] Creating Layer res2c_branch2a_relu
I0901 12:40:38.964604 40287 net.cpp:425] res2c_branch2a_relu <- res2c_branch2a
I0901 12:40:38.964642 40287 net.cpp:386] res2c_branch2a_relu -> res2c_branch2a (in-place)
I0901 12:40:38.964679 40287 net.cpp:141] Setting up res2c_branch2a_relu
I0901 12:40:38.964712 40287 net.cpp:148] Top shape: 10 64 56 56 (2007040)
I0901 12:40:38.964741 40287 net.cpp:156] Memory required for data: 865034360
I0901 12:40:38.964769 40287 layer_factory.hpp:77] Creating layer res2c_branch2b
I0901 12:40:38.964813 40287 net.cpp:91] Creating Layer res2c_branch2b
I0901 12:40:38.964845 40287 net.cpp:425] res2c_branch2b <- res2c_branch2a
I0901 12:40:38.964880 40287 net.cpp:399] res2c_branch2b -> res2c_branch2b
I0901 12:40:38.965900 40287 net.cpp:141] Setting up res2c_branch2b
I0901 12:40:38.965950 40287 net.cpp:148] Top shape: 10 64 56 56 (2007040)
I0901 12:40:38.965979 40287 net.cpp:156] Memory required for data: 873062520
I0901 12:40:38.966012 40287 layer_factory.hpp:77] Creating layer bn2c_branch2b
I0901 12:40:38.966047 40287 net.cpp:91] Creating Layer bn2c_branch2b
I0901 12:40:38.966075 40287 net.cpp:425] bn2c_branch2b <- res2c_branch2b
I0901 12:40:38.966114 40287 net.cpp:386] bn2c_branch2b -> res2c_branch2b (in-place)
I0901 12:40:38.966553 40287 net.cpp:141] Setting up bn2c_branch2b
I0901 12:40:38.966604 40287 net.cpp:148] Top shape: 10 64 56 56 (2007040)
I0901 12:40:38.966634 40287 net.cpp:156] Memory required for data: 881090680
I0901 12:40:38.966675 40287 layer_factory.hpp:77] Creating layer scale2c_branch2b
I0901 12:40:38.966711 40287 net.cpp:91] Creating Layer scale2c_branch2b
I0901 12:40:38.966742 40287 net.cpp:425] scale2c_branch2b <- res2c_branch2b
I0901 12:40:38.966779 40287 net.cpp:386] scale2c_branch2b -> res2c_branch2b (in-place)
I0901 12:40:38.966898 40287 layer_factory.hpp:77] Creating layer scale2c_branch2b
I0901 12:40:38.967193 40287 net.cpp:141] Setting up scale2c_branch2b
I0901 12:40:38.967242 40287 net.cpp:148] Top shape: 10 64 56 56 (2007040)
I0901 12:40:38.967272 40287 net.cpp:156] Memory required for data: 889118840
I0901 12:40:38.967306 40287 layer_factory.hpp:77] Creating layer res2c_branch2b_relu
I0901 12:40:38.967346 40287 net.cpp:91] Creating Layer res2c_branch2b_relu
I0901 12:40:38.967378 40287 net.cpp:425] res2c_branch2b_relu <- res2c_branch2b
I0901 12:40:38.967411 40287 net.cpp:386] res2c_branch2b_relu -> res2c_branch2b (in-place)
I0901 12:40:38.967445 40287 net.cpp:141] Setting up res2c_branch2b_relu
I0901 12:40:38.967481 40287 net.cpp:148] Top shape: 10 64 56 56 (2007040)
I0901 12:40:38.967509 40287 net.cpp:156] Memory required for data: 897147000
I0901 12:40:38.967537 40287 layer_factory.hpp:77] Creating layer res2c_branch2c
I0901 12:40:38.967622 40287 net.cpp:91] Creating Layer res2c_branch2c
I0901 12:40:38.967658 40287 net.cpp:425] res2c_branch2c <- res2c_branch2b
I0901 12:40:38.967694 40287 net.cpp:399] res2c_branch2c -> res2c_branch2c
I0901 12:40:38.968464 40287 net.cpp:141] Setting up res2c_branch2c
I0901 12:40:38.968516 40287 net.cpp:148] Top shape: 10 256 56 56 (8028160)
I0901 12:40:38.968545 40287 net.cpp:156] Memory required for data: 929259640
I0901 12:40:38.968578 40287 layer_factory.hpp:77] Creating layer bn2c_branch2c
I0901 12:40:38.968614 40287 net.cpp:91] Creating Layer bn2c_branch2c
I0901 12:40:38.968644 40287 net.cpp:425] bn2c_branch2c <- res2c_branch2c
I0901 12:40:38.968683 40287 net.cpp:386] bn2c_branch2c -> res2c_branch2c (in-place)
I0901 12:40:38.969475 40287 net.cpp:141] Setting up bn2c_branch2c
I0901 12:40:38.969521 40287 net.cpp:148] Top shape: 10 256 56 56 (8028160)
I0901 12:40:38.969540 40287 net.cpp:156] Memory required for data: 961372280
I0901 12:40:38.969581 40287 layer_factory.hpp:77] Creating layer scale2c_branch2c
I0901 12:40:38.969607 40287 net.cpp:91] Creating Layer scale2c_branch2c
I0901 12:40:38.969626 40287 net.cpp:425] scale2c_branch2c <- res2c_branch2c
I0901 12:40:38.969646 40287 net.cpp:386] scale2c_branch2c -> res2c_branch2c (in-place)
I0901 12:40:38.969724 40287 layer_factory.hpp:77] Creating layer scale2c_branch2c
I0901 12:40:38.969898 40287 net.cpp:141] Setting up scale2c_branch2c
I0901 12:40:38.969928 40287 net.cpp:148] Top shape: 10 256 56 56 (8028160)
I0901 12:40:38.969945 40287 net.cpp:156] Memory required for data: 993484920
I0901 12:40:38.969967 40287 layer_factory.hpp:77] Creating layer res2c
I0901 12:40:38.969992 40287 net.cpp:91] Creating Layer res2c
I0901 12:40:38.970011 40287 net.cpp:425] res2c <- res2b_res2b_relu_0_split_1
I0901 12:40:38.970031 40287 net.cpp:425] res2c <- res2c_branch2c
I0901 12:40:38.970051 40287 net.cpp:399] res2c -> res2c
I0901 12:40:38.970099 40287 net.cpp:141] Setting up res2c
I0901 12:40:38.970126 40287 net.cpp:148] Top shape: 10 256 56 56 (8028160)
I0901 12:40:38.970144 40287 net.cpp:156] Memory required for data: 1025597560
I0901 12:40:38.970160 40287 layer_factory.hpp:77] Creating layer res2c_relu
I0901 12:40:38.970185 40287 net.cpp:91] Creating Layer res2c_relu
I0901 12:40:38.970228 40287 net.cpp:425] res2c_relu <- res2c
I0901 12:40:38.970262 40287 net.cpp:386] res2c_relu -> res2c (in-place)
I0901 12:40:38.970297 40287 net.cpp:141] Setting up res2c_relu
I0901 12:40:38.970330 40287 net.cpp:148] Top shape: 10 256 56 56 (8028160)
I0901 12:40:38.970360 40287 net.cpp:156] Memory required for data: 1057710200
I0901 12:40:38.970413 40287 layer_factory.hpp:77] Creating layer res2c_res2c_relu_0_split
I0901 12:40:38.970448 40287 net.cpp:91] Creating Layer res2c_res2c_relu_0_split
I0901 12:40:38.970477 40287 net.cpp:425] res2c_res2c_relu_0_split <- res2c
I0901 12:40:38.970510 40287 net.cpp:399] res2c_res2c_relu_0_split -> res2c_res2c_relu_0_split_0
I0901 12:40:38.970546 40287 net.cpp:399] res2c_res2c_relu_0_split -> res2c_res2c_relu_0_split_1
I0901 12:40:38.970651 40287 net.cpp:141] Setting up res2c_res2c_relu_0_split
I0901 12:40:38.970697 40287 net.cpp:148] Top shape: 10 256 56 56 (8028160)
I0901 12:40:38.970729 40287 net.cpp:148] Top shape: 10 256 56 56 (8028160)
I0901 12:40:38.970758 40287 net.cpp:156] Memory required for data: 1121935480
I0901 12:40:38.970787 40287 layer_factory.hpp:77] Creating layer res3a_branch1
I0901 12:40:38.970832 40287 net.cpp:91] Creating Layer res3a_branch1
I0901 12:40:38.970865 40287 net.cpp:425] res3a_branch1 <- res2c_res2c_relu_0_split_0
I0901 12:40:38.970901 40287 net.cpp:399] res3a_branch1 -> res3a_branch1
I0901 12:40:38.974642 40287 net.cpp:141] Setting up res3a_branch1
I0901 12:40:38.974702 40287 net.cpp:148] Top shape: 10 512 28 28 (4014080)
I0901 12:40:38.974735 40287 net.cpp:156] Memory required for data: 1137991800
I0901 12:40:38.974769 40287 layer_factory.hpp:77] Creating layer bn3a_branch1
I0901 12:40:38.974807 40287 net.cpp:91] Creating Layer bn3a_branch1
I0901 12:40:38.974838 40287 net.cpp:425] bn3a_branch1 <- res3a_branch1
I0901 12:40:38.974916 40287 net.cpp:386] bn3a_branch1 -> res3a_branch1 (in-place)
I0901 12:40:38.976372 40287 net.cpp:141] Setting up bn3a_branch1
I0901 12:40:38.976429 40287 net.cpp:148] Top shape: 10 512 28 28 (4014080)
I0901 12:40:38.976460 40287 net.cpp:156] Memory required for data: 1154048120
I0901 12:40:38.976503 40287 layer_factory.hpp:77] Creating layer scale3a_branch1
I0901 12:40:38.976547 40287 net.cpp:91] Creating Layer scale3a_branch1
I0901 12:40:38.976588 40287 net.cpp:425] scale3a_branch1 <- res3a_branch1
I0901 12:40:38.976629 40287 net.cpp:386] scale3a_branch1 -> res3a_branch1 (in-place)
I0901 12:40:38.976754 40287 layer_factory.hpp:77] Creating layer scale3a_branch1
I0901 12:40:38.977032 40287 net.cpp:141] Setting up scale3a_branch1
I0901 12:40:38.977082 40287 net.cpp:148] Top shape: 10 512 28 28 (4014080)
I0901 12:40:38.977118 40287 net.cpp:156] Memory required for data: 1170104440
I0901 12:40:38.977156 40287 layer_factory.hpp:77] Creating layer res3a_branch2a
I0901 12:40:38.977211 40287 net.cpp:91] Creating Layer res3a_branch2a
I0901 12:40:38.977250 40287 net.cpp:425] res3a_branch2a <- res2c_res2c_relu_0_split_1
I0901 12:40:38.977293 40287 net.cpp:399] res3a_branch2a -> res3a_branch2a
I0901 12:40:38.978263 40287 net.cpp:141] Setting up res3a_branch2a
I0901 12:40:38.978317 40287 net.cpp:148] Top shape: 10 128 28 28 (1003520)
I0901 12:40:38.978348 40287 net.cpp:156] Memory required for data: 1174118520
I0901 12:40:38.978396 40287 layer_factory.hpp:77] Creating layer bn3a_branch2a
I0901 12:40:38.978440 40287 net.cpp:91] Creating Layer bn3a_branch2a
I0901 12:40:38.978476 40287 net.cpp:425] bn3a_branch2a <- res3a_branch2a
I0901 12:40:38.978513 40287 net.cpp:386] bn3a_branch2a -> res3a_branch2a (in-place)
I0901 12:40:38.978926 40287 net.cpp:141] Setting up bn3a_branch2a
I0901 12:40:38.978974 40287 net.cpp:148] Top shape: 10 128 28 28 (1003520)
I0901 12:40:38.979004 40287 net.cpp:156] Memory required for data: 1178132600
I0901 12:40:38.979044 40287 layer_factory.hpp:77] Creating layer scale3a_branch2a
I0901 12:40:38.979092 40287 net.cpp:91] Creating Layer scale3a_branch2a
I0901 12:40:38.979130 40287 net.cpp:425] scale3a_branch2a <- res3a_branch2a
I0901 12:40:38.979168 40287 net.cpp:386] scale3a_branch2a -> res3a_branch2a (in-place)
I0901 12:40:38.979292 40287 layer_factory.hpp:77] Creating layer scale3a_branch2a
I0901 12:40:38.979567 40287 net.cpp:141] Setting up scale3a_branch2a
I0901 12:40:38.979615 40287 net.cpp:148] Top shape: 10 128 28 28 (1003520)
I0901 12:40:38.979648 40287 net.cpp:156] Memory required for data: 1182146680
I0901 12:40:38.979691 40287 layer_factory.hpp:77] Creating layer res3a_branch2a_relu
I0901 12:40:38.979729 40287 net.cpp:91] Creating Layer res3a_branch2a_relu
I0901 12:40:38.979759 40287 net.cpp:425] res3a_branch2a_relu <- res3a_branch2a
I0901 12:40:38.979802 40287 net.cpp:386] res3a_branch2a_relu -> res3a_branch2a (in-place)
I0901 12:40:38.979840 40287 net.cpp:141] Setting up res3a_branch2a_relu
I0901 12:40:38.979876 40287 net.cpp:148] Top shape: 10 128 28 28 (1003520)
I0901 12:40:38.979908 40287 net.cpp:156] Memory required for data: 1186160760
I0901 12:40:38.979946 40287 layer_factory.hpp:77] Creating layer res3a_branch2b
I0901 12:40:38.980001 40287 net.cpp:91] Creating Layer res3a_branch2b
I0901 12:40:38.980036 40287 net.cpp:425] res3a_branch2b <- res3a_branch2a
I0901 12:40:38.980078 40287 net.cpp:399] res3a_branch2b -> res3a_branch2b
I0901 12:40:38.983999 40287 net.cpp:141] Setting up res3a_branch2b
I0901 12:40:38.984057 40287 net.cpp:148] Top shape: 10 128 28 28 (1003520)
I0901 12:40:38.984087 40287 net.cpp:156] Memory required for data: 1190174840
I0901 12:40:38.984122 40287 layer_factory.hpp:77] Creating layer bn3a_branch2b
I0901 12:40:38.984172 40287 net.cpp:91] Creating Layer bn3a_branch2b
I0901 12:40:38.984208 40287 net.cpp:425] bn3a_branch2b <- res3a_branch2b
I0901 12:40:38.984243 40287 net.cpp:386] bn3a_branch2b -> res3a_branch2b (in-place)
I0901 12:40:38.984653 40287 net.cpp:141] Setting up bn3a_branch2b
I0901 12:40:38.984702 40287 net.cpp:148] Top shape: 10 128 28 28 (1003520)
I0901 12:40:38.984767 40287 net.cpp:156] Memory required for data: 1194188920
I0901 12:40:38.984827 40287 layer_factory.hpp:77] Creating layer scale3a_branch2b
I0901 12:40:38.984874 40287 net.cpp:91] Creating Layer scale3a_branch2b
I0901 12:40:38.984910 40287 net.cpp:425] scale3a_branch2b <- res3a_branch2b
I0901 12:40:38.984946 40287 net.cpp:386] scale3a_branch2b -> res3a_branch2b (in-place)
I0901 12:40:38.985069 40287 layer_factory.hpp:77] Creating layer scale3a_branch2b
I0901 12:40:38.985348 40287 net.cpp:141] Setting up scale3a_branch2b
I0901 12:40:38.985397 40287 net.cpp:148] Top shape: 10 128 28 28 (1003520)
I0901 12:40:38.985440 40287 net.cpp:156] Memory required for data: 1198203000
I0901 12:40:38.985481 40287 layer_factory.hpp:77] Creating layer res3a_branch2b_relu
I0901 12:40:38.985517 40287 net.cpp:91] Creating Layer res3a_branch2b_relu
I0901 12:40:38.985546 40287 net.cpp:425] res3a_branch2b_relu <- res3a_branch2b
I0901 12:40:38.985584 40287 net.cpp:386] res3a_branch2b_relu -> res3a_branch2b (in-place)
I0901 12:40:38.985627 40287 net.cpp:141] Setting up res3a_branch2b_relu
I0901 12:40:38.985666 40287 net.cpp:148] Top shape: 10 128 28 28 (1003520)
I0901 12:40:38.985698 40287 net.cpp:156] Memory required for data: 1202217080
I0901 12:40:38.985728 40287 layer_factory.hpp:77] Creating layer res3a_branch2c
I0901 12:40:38.985788 40287 net.cpp:91] Creating Layer res3a_branch2c
I0901 12:40:38.985827 40287 net.cpp:425] res3a_branch2c <- res3a_branch2b
I0901 12:40:38.985875 40287 net.cpp:399] res3a_branch2c -> res3a_branch2c
I0901 12:40:38.987416 40287 net.cpp:141] Setting up res3a_branch2c
I0901 12:40:38.987468 40287 net.cpp:148] Top shape: 10 512 28 28 (4014080)
I0901 12:40:38.987498 40287 net.cpp:156] Memory required for data: 1218273400
I0901 12:40:38.987532 40287 layer_factory.hpp:77] Creating layer bn3a_branch2c
I0901 12:40:38.987581 40287 net.cpp:91] Creating Layer bn3a_branch2c
I0901 12:40:38.987617 40287 net.cpp:425] bn3a_branch2c <- res3a_branch2c
I0901 12:40:38.987651 40287 net.cpp:386] bn3a_branch2c -> res3a_branch2c (in-place)
I0901 12:40:38.988061 40287 net.cpp:141] Setting up bn3a_branch2c
I0901 12:40:38.988111 40287 net.cpp:148] Top shape: 10 512 28 28 (4014080)
I0901 12:40:38.988140 40287 net.cpp:156] Memory required for data: 1234329720
I0901 12:40:38.988181 40287 layer_factory.hpp:77] Creating layer scale3a_branch2c
I0901 12:40:38.988224 40287 net.cpp:91] Creating Layer scale3a_branch2c
I0901 12:40:38.988260 40287 net.cpp:425] scale3a_branch2c <- res3a_branch2c
I0901 12:40:38.988298 40287 net.cpp:386] scale3a_branch2c -> res3a_branch2c (in-place)
I0901 12:40:38.988417 40287 layer_factory.hpp:77] Creating layer scale3a_branch2c
I0901 12:40:38.988687 40287 net.cpp:141] Setting up scale3a_branch2c
I0901 12:40:38.988736 40287 net.cpp:148] Top shape: 10 512 28 28 (4014080)
I0901 12:40:38.988768 40287 net.cpp:156] Memory required for data: 1250386040
I0901 12:40:38.988806 40287 layer_factory.hpp:77] Creating layer res3a
I0901 12:40:38.988852 40287 net.cpp:91] Creating Layer res3a
I0901 12:40:38.988885 40287 net.cpp:425] res3a <- res3a_branch1
I0901 12:40:38.988919 40287 net.cpp:425] res3a <- res3a_branch2c
I0901 12:40:38.988956 40287 net.cpp:399] res3a -> res3a
I0901 12:40:38.989042 40287 net.cpp:141] Setting up res3a
I0901 12:40:38.989089 40287 net.cpp:148] Top shape: 10 512 28 28 (4014080)
I0901 12:40:38.989120 40287 net.cpp:156] Memory required for data: 1266442360
I0901 12:40:38.989161 40287 layer_factory.hpp:77] Creating layer res3a_relu
I0901 12:40:38.989202 40287 net.cpp:91] Creating Layer res3a_relu
I0901 12:40:38.989235 40287 net.cpp:425] res3a_relu <- res3a
I0901 12:40:38.989271 40287 net.cpp:386] res3a_relu -> res3a (in-place)
I0901 12:40:38.989310 40287 net.cpp:141] Setting up res3a_relu
I0901 12:40:38.989346 40287 net.cpp:148] Top shape: 10 512 28 28 (4014080)
I0901 12:40:38.989375 40287 net.cpp:156] Memory required for data: 1282498680
I0901 12:40:38.989408 40287 layer_factory.hpp:77] Creating layer res3a_res3a_relu_0_split
I0901 12:40:38.989442 40287 net.cpp:91] Creating Layer res3a_res3a_relu_0_split
I0901 12:40:38.989506 40287 net.cpp:425] res3a_res3a_relu_0_split <- res3a
I0901 12:40:38.989558 40287 net.cpp:399] res3a_res3a_relu_0_split -> res3a_res3a_relu_0_split_0
I0901 12:40:38.989611 40287 net.cpp:399] res3a_res3a_relu_0_split -> res3a_res3a_relu_0_split_1
I0901 12:40:38.989723 40287 net.cpp:141] Setting up res3a_res3a_relu_0_split
I0901 12:40:38.989770 40287 net.cpp:148] Top shape: 10 512 28 28 (4014080)
I0901 12:40:38.989806 40287 net.cpp:148] Top shape: 10 512 28 28 (4014080)
I0901 12:40:38.989838 40287 net.cpp:156] Memory required for data: 1314611320
I0901 12:40:38.989868 40287 layer_factory.hpp:77] Creating layer res3b_branch2a
I0901 12:40:38.989912 40287 net.cpp:91] Creating Layer res3b_branch2a
I0901 12:40:38.989946 40287 net.cpp:425] res3b_branch2a <- res3a_res3a_relu_0_split_0
I0901 12:40:38.989984 40287 net.cpp:399] res3b_branch2a -> res3b_branch2a
I0901 12:40:38.992532 40287 net.cpp:141] Setting up res3b_branch2a
I0901 12:40:38.992591 40287 net.cpp:148] Top shape: 10 128 28 28 (1003520)
I0901 12:40:38.992624 40287 net.cpp:156] Memory required for data: 1318625400
I0901 12:40:38.992661 40287 layer_factory.hpp:77] Creating layer bn3b_branch2a
I0901 12:40:38.992702 40287 net.cpp:91] Creating Layer bn3b_branch2a
I0901 12:40:38.992736 40287 net.cpp:425] bn3b_branch2a <- res3b_branch2a
I0901 12:40:38.992774 40287 net.cpp:386] bn3b_branch2a -> res3b_branch2a (in-place)
I0901 12:40:38.993192 40287 net.cpp:141] Setting up bn3b_branch2a
I0901 12:40:38.993242 40287 net.cpp:148] Top shape: 10 128 28 28 (1003520)
I0901 12:40:38.993273 40287 net.cpp:156] Memory required for data: 1322639480
I0901 12:40:38.993317 40287 layer_factory.hpp:77] Creating layer scale3b_branch2a
I0901 12:40:38.993362 40287 net.cpp:91] Creating Layer scale3b_branch2a
I0901 12:40:38.993398 40287 net.cpp:425] scale3b_branch2a <- res3b_branch2a
I0901 12:40:38.993434 40287 net.cpp:386] scale3b_branch2a -> res3b_branch2a (in-place)
I0901 12:40:38.993554 40287 layer_factory.hpp:77] Creating layer scale3b_branch2a
I0901 12:40:38.993831 40287 net.cpp:141] Setting up scale3b_branch2a
I0901 12:40:38.993881 40287 net.cpp:148] Top shape: 10 128 28 28 (1003520)
I0901 12:40:38.993913 40287 net.cpp:156] Memory required for data: 1326653560
I0901 12:40:38.993952 40287 layer_factory.hpp:77] Creating layer res3b_branch2a_relu
I0901 12:40:38.993990 40287 net.cpp:91] Creating Layer res3b_branch2a_relu
I0901 12:40:38.994024 40287 net.cpp:425] res3b_branch2a_relu <- res3b_branch2a
I0901 12:40:38.994065 40287 net.cpp:386] res3b_branch2a_relu -> res3b_branch2a (in-place)
I0901 12:40:38.994105 40287 net.cpp:141] Setting up res3b_branch2a_relu
I0901 12:40:38.994143 40287 net.cpp:148] Top shape: 10 128 28 28 (1003520)
I0901 12:40:38.994174 40287 net.cpp:156] Memory required for data: 1330667640
I0901 12:40:38.994205 40287 layer_factory.hpp:77] Creating layer res3b_branch2b
I0901 12:40:38.994254 40287 net.cpp:91] Creating Layer res3b_branch2b
I0901 12:40:38.994290 40287 net.cpp:425] res3b_branch2b <- res3b_branch2a
I0901 12:40:38.994328 40287 net.cpp:399] res3b_branch2b -> res3b_branch2b
I0901 12:40:38.998250 40287 net.cpp:141] Setting up res3b_branch2b
I0901 12:40:38.998308 40287 net.cpp:148] Top shape: 10 128 28 28 (1003520)
I0901 12:40:38.998343 40287 net.cpp:156] Memory required for data: 1334681720
I0901 12:40:38.998401 40287 layer_factory.hpp:77] Creating layer bn3b_branch2b
I0901 12:40:38.998448 40287 net.cpp:91] Creating Layer bn3b_branch2b
I0901 12:40:38.998483 40287 net.cpp:425] bn3b_branch2b <- res3b_branch2b
I0901 12:40:38.998520 40287 net.cpp:386] bn3b_branch2b -> res3b_branch2b (in-place)
I0901 12:40:38.998944 40287 net.cpp:141] Setting up bn3b_branch2b
I0901 12:40:38.998992 40287 net.cpp:148] Top shape: 10 128 28 28 (1003520)
I0901 12:40:38.999025 40287 net.cpp:156] Memory required for data: 1338695800
I0901 12:40:38.999068 40287 layer_factory.hpp:77] Creating layer scale3b_branch2b
I0901 12:40:38.999119 40287 net.cpp:91] Creating Layer scale3b_branch2b
I0901 12:40:38.999155 40287 net.cpp:425] scale3b_branch2b <- res3b_branch2b
I0901 12:40:38.999228 40287 net.cpp:386] scale3b_branch2b -> res3b_branch2b (in-place)
I0901 12:40:38.999356 40287 layer_factory.hpp:77] Creating layer scale3b_branch2b
I0901 12:40:38.999634 40287 net.cpp:141] Setting up scale3b_branch2b
I0901 12:40:38.999682 40287 net.cpp:148] Top shape: 10 128 28 28 (1003520)
I0901 12:40:38.999716 40287 net.cpp:156] Memory required for data: 1342709880
I0901 12:40:38.999755 40287 layer_factory.hpp:77] Creating layer res3b_branch2b_relu
I0901 12:40:38.999792 40287 net.cpp:91] Creating Layer res3b_branch2b_relu
I0901 12:40:38.999825 40287 net.cpp:425] res3b_branch2b_relu <- res3b_branch2b
I0901 12:40:38.999867 40287 net.cpp:386] res3b_branch2b_relu -> res3b_branch2b (in-place)
I0901 12:40:38.999909 40287 net.cpp:141] Setting up res3b_branch2b_relu
I0901 12:40:38.999946 40287 net.cpp:148] Top shape: 10 128 28 28 (1003520)
I0901 12:40:38.999979 40287 net.cpp:156] Memory required for data: 1346723960
I0901 12:40:39.000010 40287 layer_factory.hpp:77] Creating layer res3b_branch2c
I0901 12:40:39.000061 40287 net.cpp:91] Creating Layer res3b_branch2c
I0901 12:40:39.000097 40287 net.cpp:425] res3b_branch2c <- res3b_branch2b
I0901 12:40:39.000134 40287 net.cpp:399] res3b_branch2c -> res3b_branch2c
I0901 12:40:39.001634 40287 net.cpp:141] Setting up res3b_branch2c
I0901 12:40:39.001687 40287 net.cpp:148] Top shape: 10 512 28 28 (4014080)
I0901 12:40:39.001719 40287 net.cpp:156] Memory required for data: 1362780280
I0901 12:40:39.001758 40287 layer_factory.hpp:77] Creating layer bn3b_branch2c
I0901 12:40:39.001798 40287 net.cpp:91] Creating Layer bn3b_branch2c
I0901 12:40:39.001832 40287 net.cpp:425] bn3b_branch2c <- res3b_branch2c
I0901 12:40:39.001873 40287 net.cpp:386] bn3b_branch2c -> res3b_branch2c (in-place)
I0901 12:40:39.002296 40287 net.cpp:141] Setting up bn3b_branch2c
I0901 12:40:39.002344 40287 net.cpp:148] Top shape: 10 512 28 28 (4014080)
I0901 12:40:39.002391 40287 net.cpp:156] Memory required for data: 1378836600
I0901 12:40:39.002437 40287 layer_factory.hpp:77] Creating layer scale3b_branch2c
I0901 12:40:39.002478 40287 net.cpp:91] Creating Layer scale3b_branch2c
I0901 12:40:39.002511 40287 net.cpp:425] scale3b_branch2c <- res3b_branch2c
I0901 12:40:39.002547 40287 net.cpp:386] scale3b_branch2c -> res3b_branch2c (in-place)
I0901 12:40:39.002682 40287 layer_factory.hpp:77] Creating layer scale3b_branch2c
I0901 12:40:39.002957 40287 net.cpp:141] Setting up scale3b_branch2c
I0901 12:40:39.003005 40287 net.cpp:148] Top shape: 10 512 28 28 (4014080)
I0901 12:40:39.003038 40287 net.cpp:156] Memory required for data: 1394892920
I0901 12:40:39.003079 40287 layer_factory.hpp:77] Creating layer res3b
I0901 12:40:39.003124 40287 net.cpp:91] Creating Layer res3b
I0901 12:40:39.003167 40287 net.cpp:425] res3b <- res3a_res3a_relu_0_split_1
I0901 12:40:39.003202 40287 net.cpp:425] res3b <- res3b_branch2c
I0901 12:40:39.003238 40287 net.cpp:399] res3b -> res3b
I0901 12:40:39.003319 40287 net.cpp:141] Setting up res3b
I0901 12:40:39.003370 40287 net.cpp:148] Top shape: 10 512 28 28 (4014080)
I0901 12:40:39.003402 40287 net.cpp:156] Memory required for data: 1410949240
I0901 12:40:39.003434 40287 layer_factory.hpp:77] Creating layer res3b_relu
I0901 12:40:39.003470 40287 net.cpp:91] Creating Layer res3b_relu
I0901 12:40:39.003504 40287 net.cpp:425] res3b_relu <- res3b
I0901 12:40:39.003543 40287 net.cpp:386] res3b_relu -> res3b (in-place)
I0901 12:40:39.003583 40287 net.cpp:141] Setting up res3b_relu
I0901 12:40:39.003619 40287 net.cpp:148] Top shape: 10 512 28 28 (4014080)
I0901 12:40:39.003650 40287 net.cpp:156] Memory required for data: 1427005560
I0901 12:40:39.003682 40287 layer_factory.hpp:77] Creating layer res3b_res3b_relu_0_split
I0901 12:40:39.003720 40287 net.cpp:91] Creating Layer res3b_res3b_relu_0_split
I0901 12:40:39.003751 40287 net.cpp:425] res3b_res3b_relu_0_split <- res3b
I0901 12:40:39.003787 40287 net.cpp:399] res3b_res3b_relu_0_split -> res3b_res3b_relu_0_split_0
I0901 12:40:39.003826 40287 net.cpp:399] res3b_res3b_relu_0_split -> res3b_res3b_relu_0_split_1
I0901 12:40:39.003970 40287 net.cpp:141] Setting up res3b_res3b_relu_0_split
I0901 12:40:39.004017 40287 net.cpp:148] Top shape: 10 512 28 28 (4014080)
I0901 12:40:39.004053 40287 net.cpp:148] Top shape: 10 512 28 28 (4014080)
I0901 12:40:39.004086 40287 net.cpp:156] Memory required for data: 1459118200
I0901 12:40:39.004117 40287 layer_factory.hpp:77] Creating layer res3c_branch2a
I0901 12:40:39.004165 40287 net.cpp:91] Creating Layer res3c_branch2a
I0901 12:40:39.004202 40287 net.cpp:425] res3c_branch2a <- res3b_res3b_relu_0_split_0
I0901 12:40:39.004242 40287 net.cpp:399] res3c_branch2a -> res3c_branch2a
I0901 12:40:39.005762 40287 net.cpp:141] Setting up res3c_branch2a
I0901 12:40:39.005815 40287 net.cpp:148] Top shape: 10 128 28 28 (1003520)
I0901 12:40:39.005847 40287 net.cpp:156] Memory required for data: 1463132280
I0901 12:40:39.005884 40287 layer_factory.hpp:77] Creating layer bn3c_branch2a
I0901 12:40:39.005923 40287 net.cpp:91] Creating Layer bn3c_branch2a
I0901 12:40:39.005956 40287 net.cpp:425] bn3c_branch2a <- res3c_branch2a
I0901 12:40:39.005992 40287 net.cpp:386] bn3c_branch2a -> res3c_branch2a (in-place)
I0901 12:40:39.006429 40287 net.cpp:141] Setting up bn3c_branch2a
I0901 12:40:39.006479 40287 net.cpp:148] Top shape: 10 128 28 28 (1003520)
I0901 12:40:39.006510 40287 net.cpp:156] Memory required for data: 1467146360
I0901 12:40:39.006553 40287 layer_factory.hpp:77] Creating layer scale3c_branch2a
I0901 12:40:39.006600 40287 net.cpp:91] Creating Layer scale3c_branch2a
I0901 12:40:39.006634 40287 net.cpp:425] scale3c_branch2a <- res3c_branch2a
I0901 12:40:39.006672 40287 net.cpp:386] scale3c_branch2a -> res3c_branch2a (in-place)
I0901 12:40:39.006793 40287 layer_factory.hpp:77] Creating layer scale3c_branch2a
I0901 12:40:39.007076 40287 net.cpp:141] Setting up scale3c_branch2a
I0901 12:40:39.007125 40287 net.cpp:148] Top shape: 10 128 28 28 (1003520)
I0901 12:40:39.007160 40287 net.cpp:156] Memory required for data: 1471160440
I0901 12:40:39.007200 40287 layer_factory.hpp:77] Creating layer res3c_branch2a_relu
I0901 12:40:39.007243 40287 net.cpp:91] Creating Layer res3c_branch2a_relu
I0901 12:40:39.007277 40287 net.cpp:425] res3c_branch2a_relu <- res3c_branch2a
I0901 12:40:39.007314 40287 net.cpp:386] res3c_branch2a_relu -> res3c_branch2a (in-place)
I0901 12:40:39.007354 40287 net.cpp:141] Setting up res3c_branch2a_relu
I0901 12:40:39.007390 40287 net.cpp:148] Top shape: 10 128 28 28 (1003520)
I0901 12:40:39.007421 40287 net.cpp:156] Memory required for data: 1475174520
I0901 12:40:39.007453 40287 layer_factory.hpp:77] Creating layer res3c_branch2b
I0901 12:40:39.007499 40287 net.cpp:91] Creating Layer res3c_branch2b
I0901 12:40:39.007534 40287 net.cpp:425] res3c_branch2b <- res3c_branch2a
I0901 12:40:39.007572 40287 net.cpp:399] res3c_branch2b -> res3c_branch2b
I0901 12:40:39.011518 40287 net.cpp:141] Setting up res3c_branch2b
I0901 12:40:39.011576 40287 net.cpp:148] Top shape: 10 128 28 28 (1003520)
I0901 12:40:39.011610 40287 net.cpp:156] Memory required for data: 1479188600
I0901 12:40:39.011648 40287 layer_factory.hpp:77] Creating layer bn3c_branch2b
I0901 12:40:39.011687 40287 net.cpp:91] Creating Layer bn3c_branch2b
I0901 12:40:39.011721 40287 net.cpp:425] bn3c_branch2b <- res3c_branch2b
I0901 12:40:39.011757 40287 net.cpp:386] bn3c_branch2b -> res3c_branch2b (in-place)
I0901 12:40:39.012190 40287 net.cpp:141] Setting up bn3c_branch2b
I0901 12:40:39.012239 40287 net.cpp:148] Top shape: 10 128 28 28 (1003520)
I0901 12:40:39.012272 40287 net.cpp:156] Memory required for data: 1483202680
I0901 12:40:39.012315 40287 layer_factory.hpp:77] Creating layer scale3c_branch2b
I0901 12:40:39.012362 40287 net.cpp:91] Creating Layer scale3c_branch2b
I0901 12:40:39.012398 40287 net.cpp:425] scale3c_branch2b <- res3c_branch2b
I0901 12:40:39.012434 40287 net.cpp:386] scale3c_branch2b -> res3c_branch2b (in-place)
I0901 12:40:39.012560 40287 layer_factory.hpp:77] Creating layer scale3c_branch2b
I0901 12:40:39.012840 40287 net.cpp:141] Setting up scale3c_branch2b
I0901 12:40:39.012888 40287 net.cpp:148] Top shape: 10 128 28 28 (1003520)
I0901 12:40:39.012953 40287 net.cpp:156] Memory required for data: 1487216760
I0901 12:40:39.012995 40287 layer_factory.hpp:77] Creating layer res3c_branch2b_relu
I0901 12:40:39.013033 40287 net.cpp:91] Creating Layer res3c_branch2b_relu
I0901 12:40:39.013067 40287 net.cpp:425] res3c_branch2b_relu <- res3c_branch2b
I0901 12:40:39.013108 40287 net.cpp:386] res3c_branch2b_relu -> res3c_branch2b (in-place)
I0901 12:40:39.013150 40287 net.cpp:141] Setting up res3c_branch2b_relu
I0901 12:40:39.013187 40287 net.cpp:148] Top shape: 10 128 28 28 (1003520)
I0901 12:40:39.013218 40287 net.cpp:156] Memory required for data: 1491230840
I0901 12:40:39.013249 40287 layer_factory.hpp:77] Creating layer res3c_branch2c
I0901 12:40:39.013301 40287 net.cpp:91] Creating Layer res3c_branch2c
I0901 12:40:39.013336 40287 net.cpp:425] res3c_branch2c <- res3c_branch2b
I0901 12:40:39.013376 40287 net.cpp:399] res3c_branch2c -> res3c_branch2c
I0901 12:40:39.014899 40287 net.cpp:141] Setting up res3c_branch2c
I0901 12:40:39.014950 40287 net.cpp:148] Top shape: 10 512 28 28 (4014080)
I0901 12:40:39.014983 40287 net.cpp:156] Memory required for data: 1507287160
I0901 12:40:39.015020 40287 layer_factory.hpp:77] Creating layer bn3c_branch2c
I0901 12:40:39.015059 40287 net.cpp:91] Creating Layer bn3c_branch2c
I0901 12:40:39.015092 40287 net.cpp:425] bn3c_branch2c <- res3c_branch2c
I0901 12:40:39.015133 40287 net.cpp:386] bn3c_branch2c -> res3c_branch2c (in-place)
I0901 12:40:39.015549 40287 net.cpp:141] Setting up bn3c_branch2c
I0901 12:40:39.015599 40287 net.cpp:148] Top shape: 10 512 28 28 (4014080)
I0901 12:40:39.015631 40287 net.cpp:156] Memory required for data: 1523343480
I0901 12:40:39.015674 40287 layer_factory.hpp:77] Creating layer scale3c_branch2c
I0901 12:40:39.015713 40287 net.cpp:91] Creating Layer scale3c_branch2c
I0901 12:40:39.015746 40287 net.cpp:425] scale3c_branch2c <- res3c_branch2c
I0901 12:40:39.015782 40287 net.cpp:386] scale3c_branch2c -> res3c_branch2c (in-place)
I0901 12:40:39.015905 40287 layer_factory.hpp:77] Creating layer scale3c_branch2c
I0901 12:40:39.016183 40287 net.cpp:141] Setting up scale3c_branch2c
I0901 12:40:39.016232 40287 net.cpp:148] Top shape: 10 512 28 28 (4014080)
I0901 12:40:39.016263 40287 net.cpp:156] Memory required for data: 1539399800
I0901 12:40:39.016304 40287 layer_factory.hpp:77] Creating layer res3c
I0901 12:40:39.016342 40287 net.cpp:91] Creating Layer res3c
I0901 12:40:39.016374 40287 net.cpp:425] res3c <- res3b_res3b_relu_0_split_1
I0901 12:40:39.016410 40287 net.cpp:425] res3c <- res3c_branch2c
I0901 12:40:39.016453 40287 net.cpp:399] res3c -> res3c
I0901 12:40:39.016536 40287 net.cpp:141] Setting up res3c
I0901 12:40:39.016582 40287 net.cpp:148] Top shape: 10 512 28 28 (4014080)
I0901 12:40:39.016613 40287 net.cpp:156] Memory required for data: 1555456120
I0901 12:40:39.016644 40287 layer_factory.hpp:77] Creating layer res3c_relu
I0901 12:40:39.016686 40287 net.cpp:91] Creating Layer res3c_relu
I0901 12:40:39.016721 40287 net.cpp:425] res3c_relu <- res3c
I0901 12:40:39.016757 40287 net.cpp:386] res3c_relu -> res3c (in-place)
I0901 12:40:39.016795 40287 net.cpp:141] Setting up res3c_relu
I0901 12:40:39.016831 40287 net.cpp:148] Top shape: 10 512 28 28 (4014080)
I0901 12:40:39.016862 40287 net.cpp:156] Memory required for data: 1571512440
I0901 12:40:39.016894 40287 layer_factory.hpp:77] Creating layer res3c_res3c_relu_0_split
I0901 12:40:39.016929 40287 net.cpp:91] Creating Layer res3c_res3c_relu_0_split
I0901 12:40:39.016968 40287 net.cpp:425] res3c_res3c_relu_0_split <- res3c
I0901 12:40:39.017004 40287 net.cpp:399] res3c_res3c_relu_0_split -> res3c_res3c_relu_0_split_0
I0901 12:40:39.017042 40287 net.cpp:399] res3c_res3c_relu_0_split -> res3c_res3c_relu_0_split_1
I0901 12:40:39.017153 40287 net.cpp:141] Setting up res3c_res3c_relu_0_split
I0901 12:40:39.017199 40287 net.cpp:148] Top shape: 10 512 28 28 (4014080)
I0901 12:40:39.017235 40287 net.cpp:148] Top shape: 10 512 28 28 (4014080)
I0901 12:40:39.017264 40287 net.cpp:156] Memory required for data: 1603625080
I0901 12:40:39.017326 40287 layer_factory.hpp:77] Creating layer res3d_branch2a
I0901 12:40:39.017379 40287 net.cpp:91] Creating Layer res3d_branch2a
I0901 12:40:39.017415 40287 net.cpp:425] res3d_branch2a <- res3c_res3c_relu_0_split_0
I0901 12:40:39.017454 40287 net.cpp:399] res3d_branch2a -> res3d_branch2a
I0901 12:40:39.020015 40287 net.cpp:141] Setting up res3d_branch2a
I0901 12:40:39.020073 40287 net.cpp:148] Top shape: 10 128 28 28 (1003520)
I0901 12:40:39.020107 40287 net.cpp:156] Memory required for data: 1607639160
I0901 12:40:39.020144 40287 layer_factory.hpp:77] Creating layer bn3d_branch2a
I0901 12:40:39.020184 40287 net.cpp:91] Creating Layer bn3d_branch2a
I0901 12:40:39.020218 40287 net.cpp:425] bn3d_branch2a <- res3d_branch2a
I0901 12:40:39.020262 40287 net.cpp:386] bn3d_branch2a -> res3d_branch2a (in-place)
I0901 12:40:39.020686 40287 net.cpp:141] Setting up bn3d_branch2a
I0901 12:40:39.020735 40287 net.cpp:148] Top shape: 10 128 28 28 (1003520)
I0901 12:40:39.020766 40287 net.cpp:156] Memory required for data: 1611653240
I0901 12:40:39.020853 40287 layer_factory.hpp:77] Creating layer scale3d_branch2a
I0901 12:40:39.020897 40287 net.cpp:91] Creating Layer scale3d_branch2a
I0901 12:40:39.020931 40287 net.cpp:425] scale3d_branch2a <- res3d_branch2a
I0901 12:40:39.020969 40287 net.cpp:386] scale3d_branch2a -> res3d_branch2a (in-place)
I0901 12:40:39.021098 40287 layer_factory.hpp:77] Creating layer scale3d_branch2a
I0901 12:40:39.021397 40287 net.cpp:141] Setting up scale3d_branch2a
I0901 12:40:39.021446 40287 net.cpp:148] Top shape: 10 128 28 28 (1003520)
I0901 12:40:39.021479 40287 net.cpp:156] Memory required for data: 1615667320
I0901 12:40:39.021519 40287 layer_factory.hpp:77] Creating layer res3d_branch2a_relu
I0901 12:40:39.021564 40287 net.cpp:91] Creating Layer res3d_branch2a_relu
I0901 12:40:39.021597 40287 net.cpp:425] res3d_branch2a_relu <- res3d_branch2a
I0901 12:40:39.021633 40287 net.cpp:386] res3d_branch2a_relu -> res3d_branch2a (in-place)
I0901 12:40:39.021672 40287 net.cpp:141] Setting up res3d_branch2a_relu
I0901 12:40:39.021708 40287 net.cpp:148] Top shape: 10 128 28 28 (1003520)
I0901 12:40:39.021740 40287 net.cpp:156] Memory required for data: 1619681400
I0901 12:40:39.021770 40287 layer_factory.hpp:77] Creating layer res3d_branch2b
I0901 12:40:39.021813 40287 net.cpp:91] Creating Layer res3d_branch2b
I0901 12:40:39.021847 40287 net.cpp:425] res3d_branch2b <- res3d_branch2a
I0901 12:40:39.021890 40287 net.cpp:399] res3d_branch2b -> res3d_branch2b
I0901 12:40:39.025835 40287 net.cpp:141] Setting up res3d_branch2b
I0901 12:40:39.025894 40287 net.cpp:148] Top shape: 10 128 28 28 (1003520)
I0901 12:40:39.025938 40287 net.cpp:156] Memory required for data: 1623695480
I0901 12:40:39.025979 40287 layer_factory.hpp:77] Creating layer bn3d_branch2b
I0901 12:40:39.026021 40287 net.cpp:91] Creating Layer bn3d_branch2b
I0901 12:40:39.026057 40287 net.cpp:425] bn3d_branch2b <- res3d_branch2b
I0901 12:40:39.026093 40287 net.cpp:386] bn3d_branch2b -> res3d_branch2b (in-place)
I0901 12:40:39.026536 40287 net.cpp:141] Setting up bn3d_branch2b
I0901 12:40:39.026587 40287 net.cpp:148] Top shape: 10 128 28 28 (1003520)
I0901 12:40:39.026618 40287 net.cpp:156] Memory required for data: 1627709560
I0901 12:40:39.026667 40287 layer_factory.hpp:77] Creating layer scale3d_branch2b
I0901 12:40:39.026710 40287 net.cpp:91] Creating Layer scale3d_branch2b
I0901 12:40:39.026744 40287 net.cpp:425] scale3d_branch2b <- res3d_branch2b
I0901 12:40:39.026782 40287 net.cpp:386] scale3d_branch2b -> res3d_branch2b (in-place)
I0901 12:40:39.026904 40287 layer_factory.hpp:77] Creating layer scale3d_branch2b
I0901 12:40:39.027197 40287 net.cpp:141] Setting up scale3d_branch2b
I0901 12:40:39.027246 40287 net.cpp:148] Top shape: 10 128 28 28 (1003520)
I0901 12:40:39.027279 40287 net.cpp:156] Memory required for data: 1631723640
I0901 12:40:39.027318 40287 layer_factory.hpp:77] Creating layer res3d_branch2b_relu
I0901 12:40:39.027365 40287 net.cpp:91] Creating Layer res3d_branch2b_relu
I0901 12:40:39.027400 40287 net.cpp:425] res3d_branch2b_relu <- res3d_branch2b
I0901 12:40:39.027467 40287 net.cpp:386] res3d_branch2b_relu -> res3d_branch2b (in-place)
I0901 12:40:39.027510 40287 net.cpp:141] Setting up res3d_branch2b_relu
I0901 12:40:39.027547 40287 net.cpp:148] Top shape: 10 128 28 28 (1003520)
I0901 12:40:39.027578 40287 net.cpp:156] Memory required for data: 1635737720
I0901 12:40:39.027609 40287 layer_factory.hpp:77] Creating layer res3d_branch2c
I0901 12:40:39.027663 40287 net.cpp:91] Creating Layer res3d_branch2c
I0901 12:40:39.027698 40287 net.cpp:425] res3d_branch2c <- res3d_branch2b
I0901 12:40:39.027743 40287 net.cpp:399] res3d_branch2c -> res3d_branch2c
I0901 12:40:39.029261 40287 net.cpp:141] Setting up res3d_branch2c
I0901 12:40:39.029314 40287 net.cpp:148] Top shape: 10 512 28 28 (4014080)
I0901 12:40:39.029346 40287 net.cpp:156] Memory required for data: 1651794040
I0901 12:40:39.029386 40287 layer_factory.hpp:77] Creating layer bn3d_branch2c
I0901 12:40:39.029431 40287 net.cpp:91] Creating Layer bn3d_branch2c
I0901 12:40:39.029465 40287 net.cpp:425] bn3d_branch2c <- res3d_branch2c
I0901 12:40:39.029502 40287 net.cpp:386] bn3d_branch2c -> res3d_branch2c (in-place)
I0901 12:40:39.029938 40287 net.cpp:141] Setting up bn3d_branch2c
I0901 12:40:39.029988 40287 net.cpp:148] Top shape: 10 512 28 28 (4014080)
I0901 12:40:39.030020 40287 net.cpp:156] Memory required for data: 1667850360
I0901 12:40:39.030063 40287 layer_factory.hpp:77] Creating layer scale3d_branch2c
I0901 12:40:39.030103 40287 net.cpp:91] Creating Layer scale3d_branch2c
I0901 12:40:39.030138 40287 net.cpp:425] scale3d_branch2c <- res3d_branch2c
I0901 12:40:39.030179 40287 net.cpp:386] scale3d_branch2c -> res3d_branch2c (in-place)
I0901 12:40:39.030303 40287 layer_factory.hpp:77] Creating layer scale3d_branch2c
I0901 12:40:39.030589 40287 net.cpp:141] Setting up scale3d_branch2c
I0901 12:40:39.030644 40287 net.cpp:148] Top shape: 10 512 28 28 (4014080)
I0901 12:40:39.030678 40287 net.cpp:156] Memory required for data: 1683906680
I0901 12:40:39.030716 40287 layer_factory.hpp:77] Creating layer res3d
I0901 12:40:39.030756 40287 net.cpp:91] Creating Layer res3d
I0901 12:40:39.030791 40287 net.cpp:425] res3d <- res3c_res3c_relu_0_split_1
I0901 12:40:39.030825 40287 net.cpp:425] res3d <- res3d_branch2c
I0901 12:40:39.030863 40287 net.cpp:399] res3d -> res3d
I0901 12:40:39.030951 40287 net.cpp:141] Setting up res3d
I0901 12:40:39.030997 40287 net.cpp:148] Top shape: 10 512 28 28 (4014080)
I0901 12:40:39.031028 40287 net.cpp:156] Memory required for data: 1699963000
I0901 12:40:39.031059 40287 layer_factory.hpp:77] Creating layer res3d_relu
I0901 12:40:39.031095 40287 net.cpp:91] Creating Layer res3d_relu
I0901 12:40:39.031128 40287 net.cpp:425] res3d_relu <- res3d
I0901 12:40:39.031169 40287 net.cpp:386] res3d_relu -> res3d (in-place)
I0901 12:40:39.031209 40287 net.cpp:141] Setting up res3d_relu
I0901 12:40:39.031246 40287 net.cpp:148] Top shape: 10 512 28 28 (4014080)
I0901 12:40:39.031278 40287 net.cpp:156] Memory required for data: 1716019320
I0901 12:40:39.031308 40287 layer_factory.hpp:77] Creating layer res3d_res3d_relu_0_split
I0901 12:40:39.031345 40287 net.cpp:91] Creating Layer res3d_res3d_relu_0_split
I0901 12:40:39.031378 40287 net.cpp:425] res3d_res3d_relu_0_split <- res3d
I0901 12:40:39.031416 40287 net.cpp:399] res3d_res3d_relu_0_split -> res3d_res3d_relu_0_split_0
I0901 12:40:39.031457 40287 net.cpp:399] res3d_res3d_relu_0_split -> res3d_res3d_relu_0_split_1
I0901 12:40:39.031568 40287 net.cpp:141] Setting up res3d_res3d_relu_0_split
I0901 12:40:39.031613 40287 net.cpp:148] Top shape: 10 512 28 28 (4014080)
I0901 12:40:39.031651 40287 net.cpp:148] Top shape: 10 512 28 28 (4014080)
I0901 12:40:39.031682 40287 net.cpp:156] Memory required for data: 1748131960
I0901 12:40:39.031714 40287 layer_factory.hpp:77] Creating layer res4a_branch1
I0901 12:40:39.031760 40287 net.cpp:91] Creating Layer res4a_branch1
I0901 12:40:39.031795 40287 net.cpp:425] res4a_branch1 <- res3d_res3d_relu_0_split_0
I0901 12:40:39.031833 40287 net.cpp:399] res4a_branch1 -> res4a_branch1
I0901 12:40:39.034863 40287 net.cpp:141] Setting up res4a_branch1
I0901 12:40:39.034921 40287 net.cpp:148] Top shape: 10 1024 14 14 (2007040)
I0901 12:40:39.034955 40287 net.cpp:156] Memory required for data: 1756160120
I0901 12:40:39.034991 40287 layer_factory.hpp:77] Creating layer bn4a_branch1
I0901 12:40:39.035037 40287 net.cpp:91] Creating Layer bn4a_branch1
I0901 12:40:39.035073 40287 net.cpp:425] bn4a_branch1 <- res4a_branch1
I0901 12:40:39.035110 40287 net.cpp:386] bn4a_branch1 -> res4a_branch1 (in-place)
I0901 12:40:39.035598 40287 net.cpp:141] Setting up bn4a_branch1
I0901 12:40:39.035652 40287 net.cpp:148] Top shape: 10 1024 14 14 (2007040)
I0901 12:40:39.035686 40287 net.cpp:156] Memory required for data: 1764188280
I0901 12:40:39.035732 40287 layer_factory.hpp:77] Creating layer scale4a_branch1
I0901 12:40:39.035774 40287 net.cpp:91] Creating Layer scale4a_branch1
I0901 12:40:39.035809 40287 net.cpp:425] scale4a_branch1 <- res4a_branch1
I0901 12:40:39.035851 40287 net.cpp:386] scale4a_branch1 -> res4a_branch1 (in-place)
I0901 12:40:39.035969 40287 layer_factory.hpp:77] Creating layer scale4a_branch1
I0901 12:40:39.036259 40287 net.cpp:141] Setting up scale4a_branch1
I0901 12:40:39.036309 40287 net.cpp:148] Top shape: 10 1024 14 14 (2007040)
I0901 12:40:39.036341 40287 net.cpp:156] Memory required for data: 1772216440
I0901 12:40:39.036379 40287 layer_factory.hpp:77] Creating layer res4a_branch2a
I0901 12:40:39.036432 40287 net.cpp:91] Creating Layer res4a_branch2a
I0901 12:40:39.036468 40287 net.cpp:425] res4a_branch2a <- res3d_res3d_relu_0_split_1
I0901 12:40:39.036509 40287 net.cpp:399] res4a_branch2a -> res4a_branch2a
I0901 12:40:39.039191 40287 net.cpp:141] Setting up res4a_branch2a
I0901 12:40:39.039243 40287 net.cpp:148] Top shape: 10 256 14 14 (501760)
I0901 12:40:39.039276 40287 net.cpp:156] Memory required for data: 1774223480
I0901 12:40:39.039312 40287 layer_factory.hpp:77] Creating layer bn4a_branch2a
I0901 12:40:39.039366 40287 net.cpp:91] Creating Layer bn4a_branch2a
I0901 12:40:39.039403 40287 net.cpp:425] bn4a_branch2a <- res4a_branch2a
I0901 12:40:39.039441 40287 net.cpp:386] bn4a_branch2a -> res4a_branch2a (in-place)
I0901 12:40:39.039856 40287 net.cpp:141] Setting up bn4a_branch2a
I0901 12:40:39.039904 40287 net.cpp:148] Top shape: 10 256 14 14 (501760)
I0901 12:40:39.039937 40287 net.cpp:156] Memory required for data: 1776230520
I0901 12:40:39.039981 40287 layer_factory.hpp:77] Creating layer scale4a_branch2a
I0901 12:40:39.040022 40287 net.cpp:91] Creating Layer scale4a_branch2a
I0901 12:40:39.040056 40287 net.cpp:425] scale4a_branch2a <- res4a_branch2a
I0901 12:40:39.040098 40287 net.cpp:386] scale4a_branch2a -> res4a_branch2a (in-place)
I0901 12:40:39.040216 40287 layer_factory.hpp:77] Creating layer scale4a_branch2a
I0901 12:40:39.040488 40287 net.cpp:141] Setting up scale4a_branch2a
I0901 12:40:39.040534 40287 net.cpp:148] Top shape: 10 256 14 14 (501760)
I0901 12:40:39.040567 40287 net.cpp:156] Memory required for data: 1778237560
I0901 12:40:39.040608 40287 layer_factory.hpp:77] Creating layer res4a_branch2a_relu
I0901 12:40:39.040648 40287 net.cpp:91] Creating Layer res4a_branch2a_relu
I0901 12:40:39.040681 40287 net.cpp:425] res4a_branch2a_relu <- res4a_branch2a
I0901 12:40:39.040716 40287 net.cpp:386] res4a_branch2a_relu -> res4a_branch2a (in-place)
I0901 12:40:39.040755 40287 net.cpp:141] Setting up res4a_branch2a_relu
I0901 12:40:39.040792 40287 net.cpp:148] Top shape: 10 256 14 14 (501760)
I0901 12:40:39.040823 40287 net.cpp:156] Memory required for data: 1780244600
I0901 12:40:39.040855 40287 layer_factory.hpp:77] Creating layer res4a_branch2b
I0901 12:40:39.040904 40287 net.cpp:91] Creating Layer res4a_branch2b
I0901 12:40:39.040938 40287 net.cpp:425] res4a_branch2b <- res4a_branch2a
I0901 12:40:39.040983 40287 net.cpp:399] res4a_branch2b -> res4a_branch2b
I0901 12:40:39.053290 40287 net.cpp:141] Setting up res4a_branch2b
I0901 12:40:39.053350 40287 net.cpp:148] Top shape: 10 256 14 14 (501760)
I0901 12:40:39.053385 40287 net.cpp:156] Memory required for data: 1782251640
I0901 12:40:39.053457 40287 layer_factory.hpp:77] Creating layer bn4a_branch2b
I0901 12:40:39.053500 40287 net.cpp:91] Creating Layer bn4a_branch2b
I0901 12:40:39.053536 40287 net.cpp:425] bn4a_branch2b <- res4a_branch2b
I0901 12:40:39.053583 40287 net.cpp:386] bn4a_branch2b -> res4a_branch2b (in-place)
I0901 12:40:39.054008 40287 net.cpp:141] Setting up bn4a_branch2b
I0901 12:40:39.054055 40287 net.cpp:148] Top shape: 10 256 14 14 (501760)
I0901 12:40:39.054088 40287 net.cpp:156] Memory required for data: 1784258680
I0901 12:40:39.054131 40287 layer_factory.hpp:77] Creating layer scale4a_branch2b
I0901 12:40:39.054172 40287 net.cpp:91] Creating Layer scale4a_branch2b
I0901 12:40:39.054206 40287 net.cpp:425] scale4a_branch2b <- res4a_branch2b
I0901 12:40:39.054242 40287 net.cpp:386] scale4a_branch2b -> res4a_branch2b (in-place)
I0901 12:40:39.054378 40287 layer_factory.hpp:77] Creating layer scale4a_branch2b
I0901 12:40:39.054661 40287 net.cpp:141] Setting up scale4a_branch2b
I0901 12:40:39.054709 40287 net.cpp:148] Top shape: 10 256 14 14 (501760)
I0901 12:40:39.054741 40287 net.cpp:156] Memory required for data: 1786265720
I0901 12:40:39.054780 40287 layer_factory.hpp:77] Creating layer res4a_branch2b_relu
I0901 12:40:39.054824 40287 net.cpp:91] Creating Layer res4a_branch2b_relu
I0901 12:40:39.054858 40287 net.cpp:425] res4a_branch2b_relu <- res4a_branch2b
I0901 12:40:39.054894 40287 net.cpp:386] res4a_branch2b_relu -> res4a_branch2b (in-place)
I0901 12:40:39.054934 40287 net.cpp:141] Setting up res4a_branch2b_relu
I0901 12:40:39.054970 40287 net.cpp:148] Top shape: 10 256 14 14 (501760)
I0901 12:40:39.055001 40287 net.cpp:156] Memory required for data: 1788272760
I0901 12:40:39.055032 40287 layer_factory.hpp:77] Creating layer res4a_branch2c
I0901 12:40:39.055080 40287 net.cpp:91] Creating Layer res4a_branch2c
I0901 12:40:39.055114 40287 net.cpp:425] res4a_branch2c <- res4a_branch2b
I0901 12:40:39.055152 40287 net.cpp:399] res4a_branch2c -> res4a_branch2c
I0901 12:40:39.061023 40287 net.cpp:141] Setting up res4a_branch2c
I0901 12:40:39.061081 40287 net.cpp:148] Top shape: 10 1024 14 14 (2007040)
I0901 12:40:39.061115 40287 net.cpp:156] Memory required for data: 1796300920
I0901 12:40:39.061156 40287 layer_factory.hpp:77] Creating layer bn4a_branch2c
I0901 12:40:39.061197 40287 net.cpp:91] Creating Layer bn4a_branch2c
I0901 12:40:39.061233 40287 net.cpp:425] bn4a_branch2c <- res4a_branch2c
I0901 12:40:39.061276 40287 net.cpp:386] bn4a_branch2c -> res4a_branch2c (in-place)
I0901 12:40:39.061718 40287 net.cpp:141] Setting up bn4a_branch2c
I0901 12:40:39.061767 40287 net.cpp:148] Top shape: 10 1024 14 14 (2007040)
I0901 12:40:39.061810 40287 net.cpp:156] Memory required for data: 1804329080
I0901 12:40:39.061852 40287 layer_factory.hpp:77] Creating layer scale4a_branch2c
I0901 12:40:39.061892 40287 net.cpp:91] Creating Layer scale4a_branch2c
I0901 12:40:39.061926 40287 net.cpp:425] scale4a_branch2c <- res4a_branch2c
I0901 12:40:39.061962 40287 net.cpp:386] scale4a_branch2c -> res4a_branch2c (in-place)
I0901 12:40:39.062085 40287 layer_factory.hpp:77] Creating layer scale4a_branch2c
I0901 12:40:39.062399 40287 net.cpp:141] Setting up scale4a_branch2c
I0901 12:40:39.062449 40287 net.cpp:148] Top shape: 10 1024 14 14 (2007040)
I0901 12:40:39.062481 40287 net.cpp:156] Memory required for data: 1812357240
I0901 12:40:39.062520 40287 layer_factory.hpp:77] Creating layer res4a
I0901 12:40:39.062558 40287 net.cpp:91] Creating Layer res4a
I0901 12:40:39.062592 40287 net.cpp:425] res4a <- res4a_branch1
I0901 12:40:39.062626 40287 net.cpp:425] res4a <- res4a_branch2c
I0901 12:40:39.062670 40287 net.cpp:399] res4a -> res4a
I0901 12:40:39.062757 40287 net.cpp:141] Setting up res4a
I0901 12:40:39.062803 40287 net.cpp:148] Top shape: 10 1024 14 14 (2007040)
I0901 12:40:39.062834 40287 net.cpp:156] Memory required for data: 1820385400
I0901 12:40:39.062867 40287 layer_factory.hpp:77] Creating layer res4a_relu
I0901 12:40:39.062909 40287 net.cpp:91] Creating Layer res4a_relu
I0901 12:40:39.062943 40287 net.cpp:425] res4a_relu <- res4a
I0901 12:40:39.063011 40287 net.cpp:386] res4a_relu -> res4a (in-place)
I0901 12:40:39.063055 40287 net.cpp:141] Setting up res4a_relu
I0901 12:40:39.063091 40287 net.cpp:148] Top shape: 10 1024 14 14 (2007040)
I0901 12:40:39.063123 40287 net.cpp:156] Memory required for data: 1828413560
I0901 12:40:39.063153 40287 layer_factory.hpp:77] Creating layer res4a_res4a_relu_0_split
I0901 12:40:39.063225 40287 net.cpp:91] Creating Layer res4a_res4a_relu_0_split
I0901 12:40:39.063261 40287 net.cpp:425] res4a_res4a_relu_0_split <- res4a
I0901 12:40:39.063299 40287 net.cpp:399] res4a_res4a_relu_0_split -> res4a_res4a_relu_0_split_0
I0901 12:40:39.063341 40287 net.cpp:399] res4a_res4a_relu_0_split -> res4a_res4a_relu_0_split_1
I0901 12:40:39.063457 40287 net.cpp:141] Setting up res4a_res4a_relu_0_split
I0901 12:40:39.063504 40287 net.cpp:148] Top shape: 10 1024 14 14 (2007040)
I0901 12:40:39.063539 40287 net.cpp:148] Top shape: 10 1024 14 14 (2007040)
I0901 12:40:39.063571 40287 net.cpp:156] Memory required for data: 1844469880
I0901 12:40:39.063602 40287 layer_factory.hpp:77] Creating layer res4b_branch2a
I0901 12:40:39.063645 40287 net.cpp:91] Creating Layer res4b_branch2a
I0901 12:40:39.063679 40287 net.cpp:425] res4b_branch2a <- res4a_res4a_relu_0_split_0
I0901 12:40:39.063724 40287 net.cpp:399] res4b_branch2a -> res4b_branch2a
I0901 12:40:39.069572 40287 net.cpp:141] Setting up res4b_branch2a
I0901 12:40:39.069630 40287 net.cpp:148] Top shape: 10 256 14 14 (501760)
I0901 12:40:39.069665 40287 net.cpp:156] Memory required for data: 1846476920
I0901 12:40:39.069702 40287 layer_factory.hpp:77] Creating layer bn4b_branch2a
I0901 12:40:39.069744 40287 net.cpp:91] Creating Layer bn4b_branch2a
I0901 12:40:39.069782 40287 net.cpp:425] bn4b_branch2a <- res4b_branch2a
I0901 12:40:39.069816 40287 net.cpp:386] bn4b_branch2a -> res4b_branch2a (in-place)
I0901 12:40:39.070246 40287 net.cpp:141] Setting up bn4b_branch2a
I0901 12:40:39.070294 40287 net.cpp:148] Top shape: 10 256 14 14 (501760)
I0901 12:40:39.070334 40287 net.cpp:156] Memory required for data: 1848483960
I0901 12:40:39.070389 40287 layer_factory.hpp:77] Creating layer scale4b_branch2a
I0901 12:40:39.070437 40287 net.cpp:91] Creating Layer scale4b_branch2a
I0901 12:40:39.070472 40287 net.cpp:425] scale4b_branch2a <- res4b_branch2a
I0901 12:40:39.070509 40287 net.cpp:386] scale4b_branch2a -> res4b_branch2a (in-place)
I0901 12:40:39.070637 40287 layer_factory.hpp:77] Creating layer scale4b_branch2a
I0901 12:40:39.070927 40287 net.cpp:141] Setting up scale4b_branch2a
I0901 12:40:39.070976 40287 net.cpp:148] Top shape: 10 256 14 14 (501760)
I0901 12:40:39.071009 40287 net.cpp:156] Memory required for data: 1850491000
I0901 12:40:39.071048 40287 layer_factory.hpp:77] Creating layer res4b_branch2a_relu
I0901 12:40:39.071086 40287 net.cpp:91] Creating Layer res4b_branch2a_relu
I0901 12:40:39.071120 40287 net.cpp:425] res4b_branch2a_relu <- res4b_branch2a
I0901 12:40:39.071161 40287 net.cpp:386] res4b_branch2a_relu -> res4b_branch2a (in-place)
I0901 12:40:39.071202 40287 net.cpp:141] Setting up res4b_branch2a_relu
I0901 12:40:39.071239 40287 net.cpp:148] Top shape: 10 256 14 14 (501760)
I0901 12:40:39.071270 40287 net.cpp:156] Memory required for data: 1852498040
I0901 12:40:39.071303 40287 layer_factory.hpp:77] Creating layer res4b_branch2b
I0901 12:40:39.071353 40287 net.cpp:91] Creating Layer res4b_branch2b
I0901 12:40:39.071388 40287 net.cpp:425] res4b_branch2b <- res4b_branch2a
I0901 12:40:39.071429 40287 net.cpp:399] res4b_branch2b -> res4b_branch2b
I0901 12:40:39.083717 40287 net.cpp:141] Setting up res4b_branch2b
I0901 12:40:39.083776 40287 net.cpp:148] Top shape: 10 256 14 14 (501760)
I0901 12:40:39.083811 40287 net.cpp:156] Memory required for data: 1854505080
I0901 12:40:39.083854 40287 layer_factory.hpp:77] Creating layer bn4b_branch2b
I0901 12:40:39.083904 40287 net.cpp:91] Creating Layer bn4b_branch2b
I0901 12:40:39.083940 40287 net.cpp:425] bn4b_branch2b <- res4b_branch2b
I0901 12:40:39.083981 40287 net.cpp:386] bn4b_branch2b -> res4b_branch2b (in-place)
I0901 12:40:39.084412 40287 net.cpp:141] Setting up bn4b_branch2b
I0901 12:40:39.084491 40287 net.cpp:148] Top shape: 10 256 14 14 (501760)
I0901 12:40:39.084527 40287 net.cpp:156] Memory required for data: 1856512120
I0901 12:40:39.084571 40287 layer_factory.hpp:77] Creating layer scale4b_branch2b
I0901 12:40:39.084612 40287 net.cpp:91] Creating Layer scale4b_branch2b
I0901 12:40:39.084647 40287 net.cpp:425] scale4b_branch2b <- res4b_branch2b
I0901 12:40:39.084691 40287 net.cpp:386] scale4b_branch2b -> res4b_branch2b (in-place)
I0901 12:40:39.084812 40287 layer_factory.hpp:77] Creating layer scale4b_branch2b
I0901 12:40:39.085096 40287 net.cpp:141] Setting up scale4b_branch2b
I0901 12:40:39.085145 40287 net.cpp:148] Top shape: 10 256 14 14 (501760)
I0901 12:40:39.085177 40287 net.cpp:156] Memory required for data: 1858519160
I0901 12:40:39.085214 40287 layer_factory.hpp:77] Creating layer res4b_branch2b_relu
I0901 12:40:39.085253 40287 net.cpp:91] Creating Layer res4b_branch2b_relu
I0901 12:40:39.085288 40287 net.cpp:425] res4b_branch2b_relu <- res4b_branch2b
I0901 12:40:39.085321 40287 net.cpp:386] res4b_branch2b_relu -> res4b_branch2b (in-place)
I0901 12:40:39.085361 40287 net.cpp:141] Setting up res4b_branch2b_relu
I0901 12:40:39.085397 40287 net.cpp:148] Top shape: 10 256 14 14 (501760)
I0901 12:40:39.085428 40287 net.cpp:156] Memory required for data: 1860526200
I0901 12:40:39.085460 40287 layer_factory.hpp:77] Creating layer res4b_branch2c
I0901 12:40:39.085510 40287 net.cpp:91] Creating Layer res4b_branch2c
I0901 12:40:39.085544 40287 net.cpp:425] res4b_branch2c <- res4b_branch2b
I0901 12:40:39.085588 40287 net.cpp:399] res4b_branch2c -> res4b_branch2c
I0901 12:40:39.091471 40287 net.cpp:141] Setting up res4b_branch2c
I0901 12:40:39.091531 40287 net.cpp:148] Top shape: 10 1024 14 14 (2007040)
I0901 12:40:39.091565 40287 net.cpp:156] Memory required for data: 1868554360
I0901 12:40:39.091601 40287 layer_factory.hpp:77] Creating layer bn4b_branch2c
I0901 12:40:39.091642 40287 net.cpp:91] Creating Layer bn4b_branch2c
I0901 12:40:39.091677 40287 net.cpp:425] bn4b_branch2c <- res4b_branch2c
I0901 12:40:39.091724 40287 net.cpp:386] bn4b_branch2c -> res4b_branch2c (in-place)
I0901 12:40:39.092185 40287 net.cpp:141] Setting up bn4b_branch2c
I0901 12:40:39.092236 40287 net.cpp:148] Top shape: 10 1024 14 14 (2007040)
I0901 12:40:39.092267 40287 net.cpp:156] Memory required for data: 1876582520
I0901 12:40:39.092309 40287 layer_factory.hpp:77] Creating layer scale4b_branch2c
I0901 12:40:39.092350 40287 net.cpp:91] Creating Layer scale4b_branch2c
I0901 12:40:39.092383 40287 net.cpp:425] scale4b_branch2c <- res4b_branch2c
I0901 12:40:39.092420 40287 net.cpp:386] scale4b_branch2c -> res4b_branch2c (in-place)
I0901 12:40:39.092543 40287 layer_factory.hpp:77] Creating layer scale4b_branch2c
I0901 12:40:39.092842 40287 net.cpp:141] Setting up scale4b_branch2c
I0901 12:40:39.092892 40287 net.cpp:148] Top shape: 10 1024 14 14 (2007040)
I0901 12:40:39.092926 40287 net.cpp:156] Memory required for data: 1884610680
I0901 12:40:39.092962 40287 layer_factory.hpp:77] Creating layer res4b
I0901 12:40:39.093008 40287 net.cpp:91] Creating Layer res4b
I0901 12:40:39.093041 40287 net.cpp:425] res4b <- res4a_res4a_relu_0_split_1
I0901 12:40:39.093077 40287 net.cpp:425] res4b <- res4b_branch2c
I0901 12:40:39.093114 40287 net.cpp:399] res4b -> res4b
I0901 12:40:39.093205 40287 net.cpp:141] Setting up res4b
I0901 12:40:39.093252 40287 net.cpp:148] Top shape: 10 1024 14 14 (2007040)
I0901 12:40:39.093284 40287 net.cpp:156] Memory required for data: 1892638840
I0901 12:40:39.093317 40287 layer_factory.hpp:77] Creating layer res4b_relu
I0901 12:40:39.093353 40287 net.cpp:91] Creating Layer res4b_relu
I0901 12:40:39.093385 40287 net.cpp:425] res4b_relu <- res4b
I0901 12:40:39.093427 40287 net.cpp:386] res4b_relu -> res4b (in-place)
I0901 12:40:39.093467 40287 net.cpp:141] Setting up res4b_relu
I0901 12:40:39.093503 40287 net.cpp:148] Top shape: 10 1024 14 14 (2007040)
I0901 12:40:39.093535 40287 net.cpp:156] Memory required for data: 1900667000
I0901 12:40:39.093569 40287 layer_factory.hpp:77] Creating layer res4b_res4b_relu_0_split
I0901 12:40:39.093637 40287 net.cpp:91] Creating Layer res4b_res4b_relu_0_split
I0901 12:40:39.093672 40287 net.cpp:425] res4b_res4b_relu_0_split <- res4b
I0901 12:40:39.093708 40287 net.cpp:399] res4b_res4b_relu_0_split -> res4b_res4b_relu_0_split_0
I0901 12:40:39.093747 40287 net.cpp:399] res4b_res4b_relu_0_split -> res4b_res4b_relu_0_split_1
I0901 12:40:39.093883 40287 net.cpp:141] Setting up res4b_res4b_relu_0_split
I0901 12:40:39.093930 40287 net.cpp:148] Top shape: 10 1024 14 14 (2007040)
I0901 12:40:39.093966 40287 net.cpp:148] Top shape: 10 1024 14 14 (2007040)
I0901 12:40:39.093998 40287 net.cpp:156] Memory required for data: 1916723320
I0901 12:40:39.094032 40287 layer_factory.hpp:77] Creating layer res4c_branch2a
I0901 12:40:39.094074 40287 net.cpp:91] Creating Layer res4c_branch2a
I0901 12:40:39.094110 40287 net.cpp:425] res4c_branch2a <- res4b_res4b_relu_0_split_0
I0901 12:40:39.094148 40287 net.cpp:399] res4c_branch2a -> res4c_branch2a
I0901 12:40:39.100019 40287 net.cpp:141] Setting up res4c_branch2a
I0901 12:40:39.100078 40287 net.cpp:148] Top shape: 10 256 14 14 (501760)
I0901 12:40:39.100112 40287 net.cpp:156] Memory required for data: 1918730360
I0901 12:40:39.100149 40287 layer_factory.hpp:77] Creating layer bn4c_branch2a
I0901 12:40:39.100198 40287 net.cpp:91] Creating Layer bn4c_branch2a
I0901 12:40:39.100234 40287 net.cpp:425] bn4c_branch2a <- res4c_branch2a
I0901 12:40:39.100276 40287 net.cpp:386] bn4c_branch2a -> res4c_branch2a (in-place)
I0901 12:40:39.100709 40287 net.cpp:141] Setting up bn4c_branch2a
I0901 12:40:39.100757 40287 net.cpp:148] Top shape: 10 256 14 14 (501760)
I0901 12:40:39.100798 40287 net.cpp:156] Memory required for data: 1920737400
I0901 12:40:39.100841 40287 layer_factory.hpp:77] Creating layer scale4c_branch2a
I0901 12:40:39.100888 40287 net.cpp:91] Creating Layer scale4c_branch2a
I0901 12:40:39.100922 40287 net.cpp:425] scale4c_branch2a <- res4c_branch2a
I0901 12:40:39.100958 40287 net.cpp:386] scale4c_branch2a -> res4c_branch2a (in-place)
I0901 12:40:39.101086 40287 layer_factory.hpp:77] Creating layer scale4c_branch2a
I0901 12:40:39.101374 40287 net.cpp:141] Setting up scale4c_branch2a
I0901 12:40:39.101423 40287 net.cpp:148] Top shape: 10 256 14 14 (501760)
I0901 12:40:39.101455 40287 net.cpp:156] Memory required for data: 1922744440
I0901 12:40:39.101496 40287 layer_factory.hpp:77] Creating layer res4c_branch2a_relu
I0901 12:40:39.101536 40287 net.cpp:91] Creating Layer res4c_branch2a_relu
I0901 12:40:39.101567 40287 net.cpp:425] res4c_branch2a_relu <- res4c_branch2a
I0901 12:40:39.101610 40287 net.cpp:386] res4c_branch2a_relu -> res4c_branch2a (in-place)
I0901 12:40:39.101650 40287 net.cpp:141] Setting up res4c_branch2a_relu
I0901 12:40:39.101688 40287 net.cpp:148] Top shape: 10 256 14 14 (501760)
I0901 12:40:39.101719 40287 net.cpp:156] Memory required for data: 1924751480
I0901 12:40:39.101750 40287 layer_factory.hpp:77] Creating layer res4c_branch2b
I0901 12:40:39.101799 40287 net.cpp:91] Creating Layer res4c_branch2b
I0901 12:40:39.101833 40287 net.cpp:425] res4c_branch2b <- res4c_branch2a
I0901 12:40:39.101871 40287 net.cpp:399] res4c_branch2b -> res4c_branch2b
I0901 12:40:39.114292 40287 net.cpp:141] Setting up res4c_branch2b
I0901 12:40:39.114352 40287 net.cpp:148] Top shape: 10 256 14 14 (501760)
I0901 12:40:39.114398 40287 net.cpp:156] Memory required for data: 1926758520
I0901 12:40:39.114442 40287 layer_factory.hpp:77] Creating layer bn4c_branch2b
I0901 12:40:39.114491 40287 net.cpp:91] Creating Layer bn4c_branch2b
I0901 12:40:39.114527 40287 net.cpp:425] bn4c_branch2b <- res4c_branch2b
I0901 12:40:39.114569 40287 net.cpp:386] bn4c_branch2b -> res4c_branch2b (in-place)
I0901 12:40:39.115015 40287 net.cpp:141] Setting up bn4c_branch2b
I0901 12:40:39.115063 40287 net.cpp:148] Top shape: 10 256 14 14 (501760)
I0901 12:40:39.115106 40287 net.cpp:156] Memory required for data: 1928765560
I0901 12:40:39.115147 40287 layer_factory.hpp:77] Creating layer scale4c_branch2b
I0901 12:40:39.115188 40287 net.cpp:91] Creating Layer scale4c_branch2b
I0901 12:40:39.115257 40287 net.cpp:425] scale4c_branch2b <- res4c_branch2b
I0901 12:40:39.115303 40287 net.cpp:386] scale4c_branch2b -> res4c_branch2b (in-place)
I0901 12:40:39.115427 40287 layer_factory.hpp:77] Creating layer scale4c_branch2b
I0901 12:40:39.115711 40287 net.cpp:141] Setting up scale4c_branch2b
I0901 12:40:39.115764 40287 net.cpp:148] Top shape: 10 256 14 14 (501760)
I0901 12:40:39.115797 40287 net.cpp:156] Memory required for data: 1930772600
I0901 12:40:39.115835 40287 layer_factory.hpp:77] Creating layer res4c_branch2b_relu
I0901 12:40:39.115873 40287 net.cpp:91] Creating Layer res4c_branch2b_relu
I0901 12:40:39.115907 40287 net.cpp:425] res4c_branch2b_relu <- res4c_branch2b
I0901 12:40:39.115941 40287 net.cpp:386] res4c_branch2b_relu -> res4c_branch2b (in-place)
I0901 12:40:39.115980 40287 net.cpp:141] Setting up res4c_branch2b_relu
I0901 12:40:39.116017 40287 net.cpp:148] Top shape: 10 256 14 14 (501760)
I0901 12:40:39.116047 40287 net.cpp:156] Memory required for data: 1932779640
I0901 12:40:39.116078 40287 layer_factory.hpp:77] Creating layer res4c_branch2c
I0901 12:40:39.116129 40287 net.cpp:91] Creating Layer res4c_branch2c
I0901 12:40:39.116163 40287 net.cpp:425] res4c_branch2c <- res4c_branch2b
I0901 12:40:39.116209 40287 net.cpp:399] res4c_branch2c -> res4c_branch2c
I0901 12:40:39.122059 40287 net.cpp:141] Setting up res4c_branch2c
I0901 12:40:39.122117 40287 net.cpp:148] Top shape: 10 1024 14 14 (2007040)
I0901 12:40:39.122151 40287 net.cpp:156] Memory required for data: 1940807800
I0901 12:40:39.122190 40287 layer_factory.hpp:77] Creating layer bn4c_branch2c
I0901 12:40:39.122233 40287 net.cpp:91] Creating Layer bn4c_branch2c
I0901 12:40:39.122269 40287 net.cpp:425] bn4c_branch2c <- res4c_branch2c
I0901 12:40:39.122316 40287 net.cpp:386] bn4c_branch2c -> res4c_branch2c (in-place)
I0901 12:40:39.122782 40287 net.cpp:141] Setting up bn4c_branch2c
I0901 12:40:39.122831 40287 net.cpp:148] Top shape: 10 1024 14 14 (2007040)
I0901 12:40:39.122874 40287 net.cpp:156] Memory required for data: 1948835960
I0901 12:40:39.122917 40287 layer_factory.hpp:77] Creating layer scale4c_branch2c
I0901 12:40:39.122958 40287 net.cpp:91] Creating Layer scale4c_branch2c
I0901 12:40:39.122992 40287 net.cpp:425] scale4c_branch2c <- res4c_branch2c
I0901 12:40:39.123028 40287 net.cpp:386] scale4c_branch2c -> res4c_branch2c (in-place)
I0901 12:40:39.123152 40287 layer_factory.hpp:77] Creating layer scale4c_branch2c
I0901 12:40:39.123455 40287 net.cpp:141] Setting up scale4c_branch2c
I0901 12:40:39.123503 40287 net.cpp:148] Top shape: 10 1024 14 14 (2007040)
I0901 12:40:39.123535 40287 net.cpp:156] Memory required for data: 1956864120
I0901 12:40:39.123574 40287 layer_factory.hpp:77] Creating layer res4c
I0901 12:40:39.123617 40287 net.cpp:91] Creating Layer res4c
I0901 12:40:39.123651 40287 net.cpp:425] res4c <- res4b_res4b_relu_0_split_1
I0901 12:40:39.123687 40287 net.cpp:425] res4c <- res4c_branch2c
I0901 12:40:39.123723 40287 net.cpp:399] res4c -> res4c
I0901 12:40:39.123808 40287 net.cpp:141] Setting up res4c
I0901 12:40:39.123860 40287 net.cpp:148] Top shape: 10 1024 14 14 (2007040)
I0901 12:40:39.123893 40287 net.cpp:156] Memory required for data: 1964892280
I0901 12:40:39.123927 40287 layer_factory.hpp:77] Creating layer res4c_relu
I0901 12:40:39.123965 40287 net.cpp:91] Creating Layer res4c_relu
I0901 12:40:39.123997 40287 net.cpp:425] res4c_relu <- res4c
I0901 12:40:39.124039 40287 net.cpp:386] res4c_relu -> res4c (in-place)
I0901 12:40:39.124079 40287 net.cpp:141] Setting up res4c_relu
I0901 12:40:39.124116 40287 net.cpp:148] Top shape: 10 1024 14 14 (2007040)
I0901 12:40:39.124147 40287 net.cpp:156] Memory required for data: 1972920440
I0901 12:40:39.124181 40287 layer_factory.hpp:77] Creating layer res4c_res4c_relu_0_split
I0901 12:40:39.124217 40287 net.cpp:91] Creating Layer res4c_res4c_relu_0_split
I0901 12:40:39.124248 40287 net.cpp:425] res4c_res4c_relu_0_split <- res4c
I0901 12:40:39.124281 40287 net.cpp:399] res4c_res4c_relu_0_split -> res4c_res4c_relu_0_split_0
I0901 12:40:39.124354 40287 net.cpp:399] res4c_res4c_relu_0_split -> res4c_res4c_relu_0_split_1
I0901 12:40:39.124480 40287 net.cpp:141] Setting up res4c_res4c_relu_0_split
I0901 12:40:39.124528 40287 net.cpp:148] Top shape: 10 1024 14 14 (2007040)
I0901 12:40:39.124565 40287 net.cpp:148] Top shape: 10 1024 14 14 (2007040)
I0901 12:40:39.124596 40287 net.cpp:156] Memory required for data: 1988976760
I0901 12:40:39.124626 40287 layer_factory.hpp:77] Creating layer res4d_branch2a
I0901 12:40:39.124675 40287 net.cpp:91] Creating Layer res4d_branch2a
I0901 12:40:39.124711 40287 net.cpp:425] res4d_branch2a <- res4c_res4c_relu_0_split_0
I0901 12:40:39.124750 40287 net.cpp:399] res4d_branch2a -> res4d_branch2a
I0901 12:40:39.130632 40287 net.cpp:141] Setting up res4d_branch2a
I0901 12:40:39.130689 40287 net.cpp:148] Top shape: 10 256 14 14 (501760)
I0901 12:40:39.130723 40287 net.cpp:156] Memory required for data: 1990983800
I0901 12:40:39.130759 40287 layer_factory.hpp:77] Creating layer bn4d_branch2a
I0901 12:40:39.130800 40287 net.cpp:91] Creating Layer bn4d_branch2a
I0901 12:40:39.130833 40287 net.cpp:425] bn4d_branch2a <- res4d_branch2a
I0901 12:40:39.130882 40287 net.cpp:386] bn4d_branch2a -> res4d_branch2a (in-place)
I0901 12:40:39.131323 40287 net.cpp:141] Setting up bn4d_branch2a
I0901 12:40:39.131371 40287 net.cpp:148] Top shape: 10 256 14 14 (501760)
I0901 12:40:39.131412 40287 net.cpp:156] Memory required for data: 1992990840
I0901 12:40:39.131455 40287 layer_factory.hpp:77] Creating layer scale4d_branch2a
I0901 12:40:39.131495 40287 net.cpp:91] Creating Layer scale4d_branch2a
I0901 12:40:39.131528 40287 net.cpp:425] scale4d_branch2a <- res4d_branch2a
I0901 12:40:39.131566 40287 net.cpp:386] scale4d_branch2a -> res4d_branch2a (in-place)
I0901 12:40:39.131693 40287 layer_factory.hpp:77] Creating layer scale4d_branch2a
I0901 12:40:39.131983 40287 net.cpp:141] Setting up scale4d_branch2a
I0901 12:40:39.132032 40287 net.cpp:148] Top shape: 10 256 14 14 (501760)
I0901 12:40:39.132064 40287 net.cpp:156] Memory required for data: 1994997880
I0901 12:40:39.132103 40287 layer_factory.hpp:77] Creating layer res4d_branch2a_relu
I0901 12:40:39.132143 40287 net.cpp:91] Creating Layer res4d_branch2a_relu
I0901 12:40:39.132174 40287 net.cpp:425] res4d_branch2a_relu <- res4d_branch2a
I0901 12:40:39.132217 40287 net.cpp:386] res4d_branch2a_relu -> res4d_branch2a (in-place)
I0901 12:40:39.132257 40287 net.cpp:141] Setting up res4d_branch2a_relu
I0901 12:40:39.132293 40287 net.cpp:148] Top shape: 10 256 14 14 (501760)
I0901 12:40:39.132324 40287 net.cpp:156] Memory required for data: 1997004920
I0901 12:40:39.132356 40287 layer_factory.hpp:77] Creating layer res4d_branch2b
I0901 12:40:39.132400 40287 net.cpp:91] Creating Layer res4d_branch2b
I0901 12:40:39.132431 40287 net.cpp:425] res4d_branch2b <- res4d_branch2a
I0901 12:40:39.132477 40287 net.cpp:399] res4d_branch2b -> res4d_branch2b
I0901 12:40:39.144831 40287 net.cpp:141] Setting up res4d_branch2b
I0901 12:40:39.144893 40287 net.cpp:148] Top shape: 10 256 14 14 (501760)
I0901 12:40:39.144928 40287 net.cpp:156] Memory required for data: 1999011960
I0901 12:40:39.144965 40287 layer_factory.hpp:77] Creating layer bn4d_branch2b
I0901 12:40:39.145007 40287 net.cpp:91] Creating Layer bn4d_branch2b
I0901 12:40:39.145043 40287 net.cpp:425] bn4d_branch2b <- res4d_branch2b
I0901 12:40:39.145086 40287 net.cpp:386] bn4d_branch2b -> res4d_branch2b (in-place)
I0901 12:40:39.145532 40287 net.cpp:141] Setting up bn4d_branch2b
I0901 12:40:39.145581 40287 net.cpp:148] Top shape: 10 256 14 14 (501760)
I0901 12:40:39.145614 40287 net.cpp:156] Memory required for data: 2001019000
I0901 12:40:39.145671 40287 layer_factory.hpp:77] Creating layer scale4d_branch2b
I0901 12:40:39.145714 40287 net.cpp:91] Creating Layer scale4d_branch2b
I0901 12:40:39.145748 40287 net.cpp:425] scale4d_branch2b <- res4d_branch2b
I0901 12:40:39.145783 40287 net.cpp:386] scale4d_branch2b -> res4d_branch2b (in-place)
I0901 12:40:39.145911 40287 layer_factory.hpp:77] Creating layer scale4d_branch2b
I0901 12:40:39.146204 40287 net.cpp:141] Setting up scale4d_branch2b
I0901 12:40:39.146283 40287 net.cpp:148] Top shape: 10 256 14 14 (501760)
I0901 12:40:39.146317 40287 net.cpp:156] Memory required for data: 2003026040
I0901 12:40:39.146355 40287 layer_factory.hpp:77] Creating layer res4d_branch2b_relu
I0901 12:40:39.146412 40287 net.cpp:91] Creating Layer res4d_branch2b_relu
I0901 12:40:39.146455 40287 net.cpp:425] res4d_branch2b_relu <- res4d_branch2b
I0901 12:40:39.146492 40287 net.cpp:386] res4d_branch2b_relu -> res4d_branch2b (in-place)
I0901 12:40:39.146531 40287 net.cpp:141] Setting up res4d_branch2b_relu
I0901 12:40:39.146569 40287 net.cpp:148] Top shape: 10 256 14 14 (501760)
I0901 12:40:39.146600 40287 net.cpp:156] Memory required for data: 2005033080
I0901 12:40:39.146631 40287 layer_factory.hpp:77] Creating layer res4d_branch2c
I0901 12:40:39.146680 40287 net.cpp:91] Creating Layer res4d_branch2c
I0901 12:40:39.146715 40287 net.cpp:425] res4d_branch2c <- res4d_branch2b
I0901 12:40:39.146759 40287 net.cpp:399] res4d_branch2c -> res4d_branch2c
I0901 12:40:39.152626 40287 net.cpp:141] Setting up res4d_branch2c
I0901 12:40:39.152694 40287 net.cpp:148] Top shape: 10 1024 14 14 (2007040)
I0901 12:40:39.152727 40287 net.cpp:156] Memory required for data: 2013061240
I0901 12:40:39.152763 40287 layer_factory.hpp:77] Creating layer bn4d_branch2c
I0901 12:40:39.152809 40287 net.cpp:91] Creating Layer bn4d_branch2c
I0901 12:40:39.152845 40287 net.cpp:425] bn4d_branch2c <- res4d_branch2c
I0901 12:40:39.152886 40287 net.cpp:386] bn4d_branch2c -> res4d_branch2c (in-place)
I0901 12:40:39.153345 40287 net.cpp:141] Setting up bn4d_branch2c
I0901 12:40:39.153394 40287 net.cpp:148] Top shape: 10 1024 14 14 (2007040)
I0901 12:40:39.153436 40287 net.cpp:156] Memory required for data: 2021089400
I0901 12:40:39.153479 40287 layer_factory.hpp:77] Creating layer scale4d_branch2c
I0901 12:40:39.153525 40287 net.cpp:91] Creating Layer scale4d_branch2c
I0901 12:40:39.153559 40287 net.cpp:425] scale4d_branch2c <- res4d_branch2c
I0901 12:40:39.153599 40287 net.cpp:386] scale4d_branch2c -> res4d_branch2c (in-place)
I0901 12:40:39.153724 40287 layer_factory.hpp:77] Creating layer scale4d_branch2c
I0901 12:40:39.154034 40287 net.cpp:141] Setting up scale4d_branch2c
I0901 12:40:39.154083 40287 net.cpp:148] Top shape: 10 1024 14 14 (2007040)
I0901 12:40:39.154116 40287 net.cpp:156] Memory required for data: 2029117560
I0901 12:40:39.154155 40287 layer_factory.hpp:77] Creating layer res4d
I0901 12:40:39.154193 40287 net.cpp:91] Creating Layer res4d
I0901 12:40:39.154227 40287 net.cpp:425] res4d <- res4c_res4c_relu_0_split_1
I0901 12:40:39.154261 40287 net.cpp:425] res4d <- res4d_branch2c
I0901 12:40:39.154305 40287 net.cpp:399] res4d -> res4d
I0901 12:40:39.154412 40287 net.cpp:141] Setting up res4d
I0901 12:40:39.154459 40287 net.cpp:148] Top shape: 10 1024 14 14 (2007040)
I0901 12:40:39.154492 40287 net.cpp:156] Memory required for data: 2037145720
I0901 12:40:39.154525 40287 layer_factory.hpp:77] Creating layer res4d_relu
I0901 12:40:39.154561 40287 net.cpp:91] Creating Layer res4d_relu
I0901 12:40:39.154593 40287 net.cpp:425] res4d_relu <- res4d
I0901 12:40:39.154628 40287 net.cpp:386] res4d_relu -> res4d (in-place)
I0901 12:40:39.154666 40287 net.cpp:141] Setting up res4d_relu
I0901 12:40:39.154703 40287 net.cpp:148] Top shape: 10 1024 14 14 (2007040)
I0901 12:40:39.154733 40287 net.cpp:156] Memory required for data: 2045173880
I0901 12:40:39.154762 40287 layer_factory.hpp:77] Creating layer res4d_res4d_relu_0_split
I0901 12:40:39.154804 40287 net.cpp:91] Creating Layer res4d_res4d_relu_0_split
I0901 12:40:39.154837 40287 net.cpp:425] res4d_res4d_relu_0_split <- res4d
I0901 12:40:39.154875 40287 net.cpp:399] res4d_res4d_relu_0_split -> res4d_res4d_relu_0_split_0
I0901 12:40:39.154916 40287 net.cpp:399] res4d_res4d_relu_0_split -> res4d_res4d_relu_0_split_1
I0901 12:40:39.155031 40287 net.cpp:141] Setting up res4d_res4d_relu_0_split
I0901 12:40:39.155077 40287 net.cpp:148] Top shape: 10 1024 14 14 (2007040)
I0901 12:40:39.155112 40287 net.cpp:148] Top shape: 10 1024 14 14 (2007040)
I0901 12:40:39.155176 40287 net.cpp:156] Memory required for data: 2061230200
I0901 12:40:39.155210 40287 layer_factory.hpp:77] Creating layer res4e_branch2a
I0901 12:40:39.155254 40287 net.cpp:91] Creating Layer res4e_branch2a
I0901 12:40:39.155290 40287 net.cpp:425] res4e_branch2a <- res4d_res4d_relu_0_split_0
I0901 12:40:39.155329 40287 net.cpp:399] res4e_branch2a -> res4e_branch2a
I0901 12:40:39.161203 40287 net.cpp:141] Setting up res4e_branch2a
I0901 12:40:39.161262 40287 net.cpp:148] Top shape: 10 256 14 14 (501760)
I0901 12:40:39.161294 40287 net.cpp:156] Memory required for data: 2063237240
I0901 12:40:39.161332 40287 layer_factory.hpp:77] Creating layer bn4e_branch2a
I0901 12:40:39.161387 40287 net.cpp:91] Creating Layer bn4e_branch2a
I0901 12:40:39.161424 40287 net.cpp:425] bn4e_branch2a <- res4e_branch2a
I0901 12:40:39.161466 40287 net.cpp:386] bn4e_branch2a -> res4e_branch2a (in-place)
I0901 12:40:39.161921 40287 net.cpp:141] Setting up bn4e_branch2a
I0901 12:40:39.161969 40287 net.cpp:148] Top shape: 10 256 14 14 (501760)
I0901 12:40:39.162009 40287 net.cpp:156] Memory required for data: 2065244280
I0901 12:40:39.162051 40287 layer_factory.hpp:77] Creating layer scale4e_branch2a
I0901 12:40:39.162096 40287 net.cpp:91] Creating Layer scale4e_branch2a
I0901 12:40:39.162130 40287 net.cpp:425] scale4e_branch2a <- res4e_branch2a
I0901 12:40:39.162168 40287 net.cpp:386] scale4e_branch2a -> res4e_branch2a (in-place)
I0901 12:40:39.162297 40287 layer_factory.hpp:77] Creating layer scale4e_branch2a
I0901 12:40:39.162605 40287 net.cpp:141] Setting up scale4e_branch2a
I0901 12:40:39.162654 40287 net.cpp:148] Top shape: 10 256 14 14 (501760)
I0901 12:40:39.162688 40287 net.cpp:156] Memory required for data: 2067251320
I0901 12:40:39.162725 40287 layer_factory.hpp:77] Creating layer res4e_branch2a_relu
I0901 12:40:39.162763 40287 net.cpp:91] Creating Layer res4e_branch2a_relu
I0901 12:40:39.162796 40287 net.cpp:425] res4e_branch2a_relu <- res4e_branch2a
I0901 12:40:39.162837 40287 net.cpp:386] res4e_branch2a_relu -> res4e_branch2a (in-place)
I0901 12:40:39.162878 40287 net.cpp:141] Setting up res4e_branch2a_relu
I0901 12:40:39.162914 40287 net.cpp:148] Top shape: 10 256 14 14 (501760)
I0901 12:40:39.162945 40287 net.cpp:156] Memory required for data: 2069258360
I0901 12:40:39.162977 40287 layer_factory.hpp:77] Creating layer res4e_branch2b
I0901 12:40:39.163027 40287 net.cpp:91] Creating Layer res4e_branch2b
I0901 12:40:39.163060 40287 net.cpp:425] res4e_branch2b <- res4e_branch2a
I0901 12:40:39.163101 40287 net.cpp:399] res4e_branch2b -> res4e_branch2b
I0901 12:40:39.175400 40287 net.cpp:141] Setting up res4e_branch2b
I0901 12:40:39.175459 40287 net.cpp:148] Top shape: 10 256 14 14 (501760)
I0901 12:40:39.175504 40287 net.cpp:156] Memory required for data: 2071265400
I0901 12:40:39.175547 40287 layer_factory.hpp:77] Creating layer bn4e_branch2b
I0901 12:40:39.175601 40287 net.cpp:91] Creating Layer bn4e_branch2b
I0901 12:40:39.175638 40287 net.cpp:425] bn4e_branch2b <- res4e_branch2b
I0901 12:40:39.175678 40287 net.cpp:386] bn4e_branch2b -> res4e_branch2b (in-place)
I0901 12:40:39.176131 40287 net.cpp:141] Setting up bn4e_branch2b
I0901 12:40:39.176180 40287 net.cpp:148] Top shape: 10 256 14 14 (501760)
I0901 12:40:39.176221 40287 net.cpp:156] Memory required for data: 2073272440
I0901 12:40:39.176265 40287 layer_factory.hpp:77] Creating layer scale4e_branch2b
I0901 12:40:39.176309 40287 net.cpp:91] Creating Layer scale4e_branch2b
I0901 12:40:39.176343 40287 net.cpp:425] scale4e_branch2b <- res4e_branch2b
I0901 12:40:39.176386 40287 net.cpp:386] scale4e_branch2b -> res4e_branch2b (in-place)
I0901 12:40:39.176512 40287 layer_factory.hpp:77] Creating layer scale4e_branch2b
I0901 12:40:39.176805 40287 net.cpp:141] Setting up scale4e_branch2b
I0901 12:40:39.176858 40287 net.cpp:148] Top shape: 10 256 14 14 (501760)
I0901 12:40:39.176892 40287 net.cpp:156] Memory required for data: 2075279480
I0901 12:40:39.176930 40287 layer_factory.hpp:77] Creating layer res4e_branch2b_relu
I0901 12:40:39.176968 40287 net.cpp:91] Creating Layer res4e_branch2b_relu
I0901 12:40:39.177032 40287 net.cpp:425] res4e_branch2b_relu <- res4e_branch2b
I0901 12:40:39.177072 40287 net.cpp:386] res4e_branch2b_relu -> res4e_branch2b (in-place)
I0901 12:40:39.177112 40287 net.cpp:141] Setting up res4e_branch2b_relu
I0901 12:40:39.177148 40287 net.cpp:148] Top shape: 10 256 14 14 (501760)
I0901 12:40:39.177181 40287 net.cpp:156] Memory required for data: 2077286520
I0901 12:40:39.177211 40287 layer_factory.hpp:77] Creating layer res4e_branch2c
I0901 12:40:39.177261 40287 net.cpp:91] Creating Layer res4e_branch2c
I0901 12:40:39.177296 40287 net.cpp:425] res4e_branch2c <- res4e_branch2b
I0901 12:40:39.177341 40287 net.cpp:399] res4e_branch2c -> res4e_branch2c
I0901 12:40:39.183239 40287 net.cpp:141] Setting up res4e_branch2c
I0901 12:40:39.183297 40287 net.cpp:148] Top shape: 10 1024 14 14 (2007040)
I0901 12:40:39.183331 40287 net.cpp:156] Memory required for data: 2085314680
I0901 12:40:39.183367 40287 layer_factory.hpp:77] Creating layer bn4e_branch2c
I0901 12:40:39.183410 40287 net.cpp:91] Creating Layer bn4e_branch2c
I0901 12:40:39.183445 40287 net.cpp:425] bn4e_branch2c <- res4e_branch2c
I0901 12:40:39.183493 40287 net.cpp:386] bn4e_branch2c -> res4e_branch2c (in-place)
I0901 12:40:39.183956 40287 net.cpp:141] Setting up bn4e_branch2c
I0901 12:40:39.184005 40287 net.cpp:148] Top shape: 10 1024 14 14 (2007040)
I0901 12:40:39.184047 40287 net.cpp:156] Memory required for data: 2093342840
I0901 12:40:39.184094 40287 layer_factory.hpp:77] Creating layer scale4e_branch2c
I0901 12:40:39.184134 40287 net.cpp:91] Creating Layer scale4e_branch2c
I0901 12:40:39.184168 40287 net.cpp:425] scale4e_branch2c <- res4e_branch2c
I0901 12:40:39.184204 40287 net.cpp:386] scale4e_branch2c -> res4e_branch2c (in-place)
I0901 12:40:39.184332 40287 layer_factory.hpp:77] Creating layer scale4e_branch2c
I0901 12:40:39.184635 40287 net.cpp:141] Setting up scale4e_branch2c
I0901 12:40:39.184684 40287 net.cpp:148] Top shape: 10 1024 14 14 (2007040)
I0901 12:40:39.184718 40287 net.cpp:156] Memory required for data: 2101371000
I0901 12:40:39.184756 40287 layer_factory.hpp:77] Creating layer res4e
I0901 12:40:39.184794 40287 net.cpp:91] Creating Layer res4e
I0901 12:40:39.184828 40287 net.cpp:425] res4e <- res4d_res4d_relu_0_split_1
I0901 12:40:39.184864 40287 net.cpp:425] res4e <- res4e_branch2c
I0901 12:40:39.184908 40287 net.cpp:399] res4e -> res4e
I0901 12:40:39.184994 40287 net.cpp:141] Setting up res4e
I0901 12:40:39.185039 40287 net.cpp:148] Top shape: 10 1024 14 14 (2007040)
I0901 12:40:39.185072 40287 net.cpp:156] Memory required for data: 2109399160
I0901 12:40:39.185102 40287 layer_factory.hpp:77] Creating layer res4e_relu
I0901 12:40:39.185145 40287 net.cpp:91] Creating Layer res4e_relu
I0901 12:40:39.185179 40287 net.cpp:425] res4e_relu <- res4e
I0901 12:40:39.185215 40287 net.cpp:386] res4e_relu -> res4e (in-place)
I0901 12:40:39.185255 40287 net.cpp:141] Setting up res4e_relu
I0901 12:40:39.185290 40287 net.cpp:148] Top shape: 10 1024 14 14 (2007040)
I0901 12:40:39.185322 40287 net.cpp:156] Memory required for data: 2117427320
I0901 12:40:39.185351 40287 layer_factory.hpp:77] Creating layer res4e_res4e_relu_0_split
I0901 12:40:39.185394 40287 net.cpp:91] Creating Layer res4e_res4e_relu_0_split
I0901 12:40:39.185427 40287 net.cpp:425] res4e_res4e_relu_0_split <- res4e
I0901 12:40:39.185461 40287 net.cpp:399] res4e_res4e_relu_0_split -> res4e_res4e_relu_0_split_0
I0901 12:40:39.185501 40287 net.cpp:399] res4e_res4e_relu_0_split -> res4e_res4e_relu_0_split_1
I0901 12:40:39.185616 40287 net.cpp:141] Setting up res4e_res4e_relu_0_split
I0901 12:40:39.185662 40287 net.cpp:148] Top shape: 10 1024 14 14 (2007040)
I0901 12:40:39.185698 40287 net.cpp:148] Top shape: 10 1024 14 14 (2007040)
I0901 12:40:39.185729 40287 net.cpp:156] Memory required for data: 2133483640
I0901 12:40:39.185758 40287 layer_factory.hpp:77] Creating layer res4f_branch2a
I0901 12:40:39.185808 40287 net.cpp:91] Creating Layer res4f_branch2a
I0901 12:40:39.185844 40287 net.cpp:425] res4f_branch2a <- res4e_res4e_relu_0_split_0
I0901 12:40:39.185916 40287 net.cpp:399] res4f_branch2a -> res4f_branch2a
I0901 12:40:39.191810 40287 net.cpp:141] Setting up res4f_branch2a
I0901 12:40:39.191869 40287 net.cpp:148] Top shape: 10 256 14 14 (501760)
I0901 12:40:39.191903 40287 net.cpp:156] Memory required for data: 2135490680
I0901 12:40:39.191941 40287 layer_factory.hpp:77] Creating layer bn4f_branch2a
I0901 12:40:39.191983 40287 net.cpp:91] Creating Layer bn4f_branch2a
I0901 12:40:39.192018 40287 net.cpp:425] bn4f_branch2a <- res4f_branch2a
I0901 12:40:39.192054 40287 net.cpp:386] bn4f_branch2a -> res4f_branch2a (in-place)
I0901 12:40:39.192508 40287 net.cpp:141] Setting up bn4f_branch2a
I0901 12:40:39.192556 40287 net.cpp:148] Top shape: 10 256 14 14 (501760)
I0901 12:40:39.192589 40287 net.cpp:156] Memory required for data: 2137497720
I0901 12:40:39.192632 40287 layer_factory.hpp:77] Creating layer scale4f_branch2a
I0901 12:40:39.192673 40287 net.cpp:91] Creating Layer scale4f_branch2a
I0901 12:40:39.192708 40287 net.cpp:425] scale4f_branch2a <- res4f_branch2a
I0901 12:40:39.192744 40287 net.cpp:386] scale4f_branch2a -> res4f_branch2a (in-place)
I0901 12:40:39.192878 40287 layer_factory.hpp:77] Creating layer scale4f_branch2a
I0901 12:40:39.193183 40287 net.cpp:141] Setting up scale4f_branch2a
I0901 12:40:39.193233 40287 net.cpp:148] Top shape: 10 256 14 14 (501760)
I0901 12:40:39.193265 40287 net.cpp:156] Memory required for data: 2139504760
I0901 12:40:39.193302 40287 layer_factory.hpp:77] Creating layer res4f_branch2a_relu
I0901 12:40:39.193343 40287 net.cpp:91] Creating Layer res4f_branch2a_relu
I0901 12:40:39.193375 40287 net.cpp:425] res4f_branch2a_relu <- res4f_branch2a
I0901 12:40:39.193418 40287 net.cpp:386] res4f_branch2a_relu -> res4f_branch2a (in-place)
I0901 12:40:39.193459 40287 net.cpp:141] Setting up res4f_branch2a_relu
I0901 12:40:39.193495 40287 net.cpp:148] Top shape: 10 256 14 14 (501760)
I0901 12:40:39.193526 40287 net.cpp:156] Memory required for data: 2141511800
I0901 12:40:39.193557 40287 layer_factory.hpp:77] Creating layer res4f_branch2b
I0901 12:40:39.193600 40287 net.cpp:91] Creating Layer res4f_branch2b
I0901 12:40:39.193632 40287 net.cpp:425] res4f_branch2b <- res4f_branch2a
I0901 12:40:39.193676 40287 net.cpp:399] res4f_branch2b -> res4f_branch2b
I0901 12:40:39.205996 40287 net.cpp:141] Setting up res4f_branch2b
I0901 12:40:39.206055 40287 net.cpp:148] Top shape: 10 256 14 14 (501760)
I0901 12:40:39.206089 40287 net.cpp:156] Memory required for data: 2143518840
I0901 12:40:39.206127 40287 layer_factory.hpp:77] Creating layer bn4f_branch2b
I0901 12:40:39.206171 40287 net.cpp:91] Creating Layer bn4f_branch2b
I0901 12:40:39.206207 40287 net.cpp:425] bn4f_branch2b <- res4f_branch2b
I0901 12:40:39.206251 40287 net.cpp:386] bn4f_branch2b -> res4f_branch2b (in-place)
I0901 12:40:39.206724 40287 net.cpp:141] Setting up bn4f_branch2b
I0901 12:40:39.206774 40287 net.cpp:148] Top shape: 10 256 14 14 (501760)
I0901 12:40:39.206817 40287 net.cpp:156] Memory required for data: 2145525880
I0901 12:40:39.206861 40287 layer_factory.hpp:77] Creating layer scale4f_branch2b
I0901 12:40:39.206907 40287 net.cpp:91] Creating Layer scale4f_branch2b
I0901 12:40:39.206943 40287 net.cpp:425] scale4f_branch2b <- res4f_branch2b
I0901 12:40:39.206979 40287 net.cpp:386] scale4f_branch2b -> res4f_branch2b (in-place)
I0901 12:40:39.207109 40287 layer_factory.hpp:77] Creating layer scale4f_branch2b
I0901 12:40:39.207409 40287 net.cpp:141] Setting up scale4f_branch2b
I0901 12:40:39.207458 40287 net.cpp:148] Top shape: 10 256 14 14 (501760)
I0901 12:40:39.207490 40287 net.cpp:156] Memory required for data: 2147532920
I0901 12:40:39.207528 40287 layer_factory.hpp:77] Creating layer res4f_branch2b_relu
I0901 12:40:39.207572 40287 net.cpp:91] Creating Layer res4f_branch2b_relu
I0901 12:40:39.207608 40287 net.cpp:425] res4f_branch2b_relu <- res4f_branch2b
I0901 12:40:39.207644 40287 net.cpp:386] res4f_branch2b_relu -> res4f_branch2b (in-place)
I0901 12:40:39.207684 40287 net.cpp:141] Setting up res4f_branch2b_relu
I0901 12:40:39.207720 40287 net.cpp:148] Top shape: 10 256 14 14 (501760)
I0901 12:40:39.207783 40287 net.cpp:156] Memory required for data: 2149539960
I0901 12:40:39.207818 40287 layer_factory.hpp:77] Creating layer res4f_branch2c
I0901 12:40:39.207868 40287 net.cpp:91] Creating Layer res4f_branch2c
I0901 12:40:39.207904 40287 net.cpp:425] res4f_branch2c <- res4f_branch2b
I0901 12:40:39.207944 40287 net.cpp:399] res4f_branch2c -> res4f_branch2c
I0901 12:40:39.213821 40287 net.cpp:141] Setting up res4f_branch2c
I0901 12:40:39.213881 40287 net.cpp:148] Top shape: 10 1024 14 14 (2007040)
I0901 12:40:39.213913 40287 net.cpp:156] Memory required for data: 2157568120
I0901 12:40:39.213950 40287 layer_factory.hpp:77] Creating layer bn4f_branch2c
I0901 12:40:39.213999 40287 net.cpp:91] Creating Layer bn4f_branch2c
I0901 12:40:39.214036 40287 net.cpp:425] bn4f_branch2c <- res4f_branch2c
I0901 12:40:39.214076 40287 net.cpp:386] bn4f_branch2c -> res4f_branch2c (in-place)
I0901 12:40:39.214555 40287 net.cpp:141] Setting up bn4f_branch2c
I0901 12:40:39.214606 40287 net.cpp:148] Top shape: 10 1024 14 14 (2007040)
I0901 12:40:39.214646 40287 net.cpp:156] Memory required for data: 2165596280
I0901 12:40:39.214777 40287 layer_factory.hpp:77] Creating layer scale4f_branch2c
I0901 12:40:39.214833 40287 net.cpp:91] Creating Layer scale4f_branch2c
I0901 12:40:39.214867 40287 net.cpp:425] scale4f_branch2c <- res4f_branch2c
I0901 12:40:39.214905 40287 net.cpp:386] scale4f_branch2c -> res4f_branch2c (in-place)
I0901 12:40:39.215039 40287 layer_factory.hpp:77] Creating layer scale4f_branch2c
I0901 12:40:39.215342 40287 net.cpp:141] Setting up scale4f_branch2c
I0901 12:40:39.215390 40287 net.cpp:148] Top shape: 10 1024 14 14 (2007040)
I0901 12:40:39.215422 40287 net.cpp:156] Memory required for data: 2173624440
I0901 12:40:39.215461 40287 layer_factory.hpp:77] Creating layer res4f
I0901 12:40:39.215500 40287 net.cpp:91] Creating Layer res4f
I0901 12:40:39.215534 40287 net.cpp:425] res4f <- res4e_res4e_relu_0_split_1
I0901 12:40:39.215569 40287 net.cpp:425] res4f <- res4f_branch2c
I0901 12:40:39.215612 40287 net.cpp:399] res4f -> res4f
I0901 12:40:39.215700 40287 net.cpp:141] Setting up res4f
I0901 12:40:39.215746 40287 net.cpp:148] Top shape: 10 1024 14 14 (2007040)
I0901 12:40:39.215780 40287 net.cpp:156] Memory required for data: 2181652600
I0901 12:40:39.215809 40287 layer_factory.hpp:77] Creating layer res4f_relu
I0901 12:40:39.215852 40287 net.cpp:91] Creating Layer res4f_relu
I0901 12:40:39.215886 40287 net.cpp:425] res4f_relu <- res4f
I0901 12:40:39.215921 40287 net.cpp:386] res4f_relu -> res4f (in-place)
I0901 12:40:39.215960 40287 net.cpp:141] Setting up res4f_relu
I0901 12:40:39.215998 40287 net.cpp:148] Top shape: 10 1024 14 14 (2007040)
I0901 12:40:39.216029 40287 net.cpp:156] Memory required for data: 2189680760
I0901 12:40:39.216059 40287 layer_factory.hpp:77] Creating layer res4f_res4f_relu_0_split
I0901 12:40:39.216101 40287 net.cpp:91] Creating Layer res4f_res4f_relu_0_split
I0901 12:40:39.216135 40287 net.cpp:425] res4f_res4f_relu_0_split <- res4f
I0901 12:40:39.216172 40287 net.cpp:399] res4f_res4f_relu_0_split -> res4f_res4f_relu_0_split_0
I0901 12:40:39.216213 40287 net.cpp:399] res4f_res4f_relu_0_split -> res4f_res4f_relu_0_split_1
I0901 12:40:39.216328 40287 net.cpp:141] Setting up res4f_res4f_relu_0_split
I0901 12:40:39.216374 40287 net.cpp:148] Top shape: 10 1024 14 14 (2007040)
I0901 12:40:39.216410 40287 net.cpp:148] Top shape: 10 1024 14 14 (2007040)
I0901 12:40:39.216441 40287 net.cpp:156] Memory required for data: 2205737080
I0901 12:40:39.216470 40287 layer_factory.hpp:77] Creating layer res5a_branch1
I0901 12:40:39.216521 40287 net.cpp:91] Creating Layer res5a_branch1
I0901 12:40:39.216557 40287 net.cpp:425] res5a_branch1 <- res4f_res4f_relu_0_split_0
I0901 12:40:39.216596 40287 net.cpp:399] res5a_branch1 -> res5a_branch1
I0901 12:40:39.258713 40287 net.cpp:141] Setting up res5a_branch1
I0901 12:40:39.258790 40287 net.cpp:148] Top shape: 10 2048 7 7 (1003520)
I0901 12:40:39.258821 40287 net.cpp:156] Memory required for data: 2209751160
I0901 12:40:39.258903 40287 layer_factory.hpp:77] Creating layer bn5a_branch1
I0901 12:40:39.258949 40287 net.cpp:91] Creating Layer bn5a_branch1
I0901 12:40:39.258985 40287 net.cpp:425] bn5a_branch1 <- res5a_branch1
I0901 12:40:39.259028 40287 net.cpp:386] bn5a_branch1 -> res5a_branch1 (in-place)
I0901 12:40:39.259542 40287 net.cpp:141] Setting up bn5a_branch1
I0901 12:40:39.259593 40287 net.cpp:148] Top shape: 10 2048 7 7 (1003520)
I0901 12:40:39.259621 40287 net.cpp:156] Memory required for data: 2213765240
I0901 12:40:39.259663 40287 layer_factory.hpp:77] Creating layer scale5a_branch1
I0901 12:40:39.259721 40287 net.cpp:91] Creating Layer scale5a_branch1
I0901 12:40:39.259757 40287 net.cpp:425] scale5a_branch1 <- res5a_branch1
I0901 12:40:39.259794 40287 net.cpp:386] scale5a_branch1 -> res5a_branch1 (in-place)
I0901 12:40:39.259932 40287 layer_factory.hpp:77] Creating layer scale5a_branch1
I0901 12:40:39.260251 40287 net.cpp:141] Setting up scale5a_branch1
I0901 12:40:39.260300 40287 net.cpp:148] Top shape: 10 2048 7 7 (1003520)
I0901 12:40:39.260332 40287 net.cpp:156] Memory required for data: 2217779320
I0901 12:40:39.260370 40287 layer_factory.hpp:77] Creating layer res5a_branch2a
I0901 12:40:39.260423 40287 net.cpp:91] Creating Layer res5a_branch2a
I0901 12:40:39.260459 40287 net.cpp:425] res5a_branch2a <- res4f_res4f_relu_0_split_1
I0901 12:40:39.260504 40287 net.cpp:399] res5a_branch2a -> res5a_branch2a
I0901 12:40:39.271590 40287 net.cpp:141] Setting up res5a_branch2a
I0901 12:40:39.271651 40287 net.cpp:148] Top shape: 10 512 7 7 (250880)
I0901 12:40:39.271682 40287 net.cpp:156] Memory required for data: 2218782840
I0901 12:40:39.271718 40287 layer_factory.hpp:77] Creating layer bn5a_branch2a
I0901 12:40:39.271777 40287 net.cpp:91] Creating Layer bn5a_branch2a
I0901 12:40:39.271812 40287 net.cpp:425] bn5a_branch2a <- res5a_branch2a
I0901 12:40:39.271855 40287 net.cpp:386] bn5a_branch2a -> res5a_branch2a (in-place)
I0901 12:40:39.272331 40287 net.cpp:141] Setting up bn5a_branch2a
I0901 12:40:39.272382 40287 net.cpp:148] Top shape: 10 512 7 7 (250880)
I0901 12:40:39.272413 40287 net.cpp:156] Memory required for data: 2219786360
I0901 12:40:39.272454 40287 layer_factory.hpp:77] Creating layer scale5a_branch2a
I0901 12:40:39.272505 40287 net.cpp:91] Creating Layer scale5a_branch2a
I0901 12:40:39.272541 40287 net.cpp:425] scale5a_branch2a <- res5a_branch2a
I0901 12:40:39.272579 40287 net.cpp:386] scale5a_branch2a -> res5a_branch2a (in-place)
I0901 12:40:39.272709 40287 layer_factory.hpp:77] Creating layer scale5a_branch2a
I0901 12:40:39.273021 40287 net.cpp:141] Setting up scale5a_branch2a
I0901 12:40:39.273071 40287 net.cpp:148] Top shape: 10 512 7 7 (250880)
I0901 12:40:39.273100 40287 net.cpp:156] Memory required for data: 2220789880
I0901 12:40:39.273147 40287 layer_factory.hpp:77] Creating layer res5a_branch2a_relu
I0901 12:40:39.273186 40287 net.cpp:91] Creating Layer res5a_branch2a_relu
I0901 12:40:39.273219 40287 net.cpp:425] res5a_branch2a_relu <- res5a_branch2a
I0901 12:40:39.273258 40287 net.cpp:386] res5a_branch2a_relu -> res5a_branch2a (in-place)
I0901 12:40:39.273300 40287 net.cpp:141] Setting up res5a_branch2a_relu
I0901 12:40:39.273337 40287 net.cpp:148] Top shape: 10 512 7 7 (250880)
I0901 12:40:39.273370 40287 net.cpp:156] Memory required for data: 2221793400
I0901 12:40:39.273403 40287 layer_factory.hpp:77] Creating layer res5a_branch2b
I0901 12:40:39.273452 40287 net.cpp:91] Creating Layer res5a_branch2b
I0901 12:40:39.273488 40287 net.cpp:425] res5a_branch2b <- res5a_branch2a
I0901 12:40:39.273526 40287 net.cpp:399] res5a_branch2b -> res5a_branch2b
I0901 12:40:39.320894 40287 net.cpp:141] Setting up res5a_branch2b
I0901 12:40:39.320967 40287 net.cpp:148] Top shape: 10 512 7 7 (250880)
I0901 12:40:39.321012 40287 net.cpp:156] Memory required for data: 2222796920
I0901 12:40:39.321050 40287 layer_factory.hpp:77] Creating layer bn5a_branch2b
I0901 12:40:39.321099 40287 net.cpp:91] Creating Layer bn5a_branch2b
I0901 12:40:39.321140 40287 net.cpp:425] bn5a_branch2b <- res5a_branch2b
I0901 12:40:39.321179 40287 net.cpp:386] bn5a_branch2b -> res5a_branch2b (in-place)
I0901 12:40:39.321707 40287 net.cpp:141] Setting up bn5a_branch2b
I0901 12:40:39.321756 40287 net.cpp:148] Top shape: 10 512 7 7 (250880)
I0901 12:40:39.321785 40287 net.cpp:156] Memory required for data: 2223800440
I0901 12:40:39.321827 40287 layer_factory.hpp:77] Creating layer scale5a_branch2b
I0901 12:40:39.321874 40287 net.cpp:91] Creating Layer scale5a_branch2b
I0901 12:40:39.321910 40287 net.cpp:425] scale5a_branch2b <- res5a_branch2b
I0901 12:40:39.321954 40287 net.cpp:386] scale5a_branch2b -> res5a_branch2b (in-place)
I0901 12:40:39.322079 40287 layer_factory.hpp:77] Creating layer scale5a_branch2b
I0901 12:40:39.322405 40287 net.cpp:141] Setting up scale5a_branch2b
I0901 12:40:39.322455 40287 net.cpp:148] Top shape: 10 512 7 7 (250880)
I0901 12:40:39.322489 40287 net.cpp:156] Memory required for data: 2224803960
I0901 12:40:39.322526 40287 layer_factory.hpp:77] Creating layer res5a_branch2b_relu
I0901 12:40:39.322566 40287 net.cpp:91] Creating Layer res5a_branch2b_relu
I0901 12:40:39.322600 40287 net.cpp:425] res5a_branch2b_relu <- res5a_branch2b
I0901 12:40:39.322634 40287 net.cpp:386] res5a_branch2b_relu -> res5a_branch2b (in-place)
I0901 12:40:39.322675 40287 net.cpp:141] Setting up res5a_branch2b_relu
I0901 12:40:39.322711 40287 net.cpp:148] Top shape: 10 512 7 7 (250880)
I0901 12:40:39.322742 40287 net.cpp:156] Memory required for data: 2225807480
I0901 12:40:39.322774 40287 layer_factory.hpp:77] Creating layer res5a_branch2c
I0901 12:40:39.322821 40287 net.cpp:91] Creating Layer res5a_branch2c
I0901 12:40:39.322856 40287 net.cpp:425] res5a_branch2c <- res5a_branch2b
I0901 12:40:39.322901 40287 net.cpp:399] res5a_branch2c -> res5a_branch2c
I0901 12:40:39.344655 40287 net.cpp:141] Setting up res5a_branch2c
I0901 12:40:39.344718 40287 net.cpp:148] Top shape: 10 2048 7 7 (1003520)
I0901 12:40:39.344753 40287 net.cpp:156] Memory required for data: 2229821560
I0901 12:40:39.344794 40287 layer_factory.hpp:77] Creating layer bn5a_branch2c
I0901 12:40:39.344836 40287 net.cpp:91] Creating Layer bn5a_branch2c
I0901 12:40:39.344874 40287 net.cpp:425] bn5a_branch2c <- res5a_branch2c
I0901 12:40:39.344923 40287 net.cpp:386] bn5a_branch2c -> res5a_branch2c (in-place)
I0901 12:40:39.345412 40287 net.cpp:141] Setting up bn5a_branch2c
I0901 12:40:39.345463 40287 net.cpp:148] Top shape: 10 2048 7 7 (1003520)
I0901 12:40:39.345497 40287 net.cpp:156] Memory required for data: 2233835640
I0901 12:40:39.345541 40287 layer_factory.hpp:77] Creating layer scale5a_branch2c
I0901 12:40:39.345582 40287 net.cpp:91] Creating Layer scale5a_branch2c
I0901 12:40:39.345616 40287 net.cpp:425] scale5a_branch2c <- res5a_branch2c
I0901 12:40:39.345652 40287 net.cpp:386] scale5a_branch2c -> res5a_branch2c (in-place)
I0901 12:40:39.345782 40287 layer_factory.hpp:77] Creating layer scale5a_branch2c
I0901 12:40:39.346097 40287 net.cpp:141] Setting up scale5a_branch2c
I0901 12:40:39.346148 40287 net.cpp:148] Top shape: 10 2048 7 7 (1003520)
I0901 12:40:39.346181 40287 net.cpp:156] Memory required for data: 2237849720
I0901 12:40:39.346220 40287 layer_factory.hpp:77] Creating layer res5a
I0901 12:40:39.346264 40287 net.cpp:91] Creating Layer res5a
I0901 12:40:39.346300 40287 net.cpp:425] res5a <- res5a_branch1
I0901 12:40:39.346334 40287 net.cpp:425] res5a <- res5a_branch2c
…
I0901 12:40:39.708381 40287 layer_factory.hpp:77] Creating layer res4d_branch2a_relu
I0901 12:40:39.708398 40287 net.cpp:91] Creating Layer res4d_branch2a_relu
I0901 12:40:39.708412 40287 net.cpp:425] res4d_branch2a_relu <- res4d_branch2a
I0901 12:40:39.708427 40287 net.cpp:386] res4d_branch2a_relu -> res4d_branch2a (in-place)
I0901 12:40:39.708444 40287 net.cpp:141] Setting up res4d_branch2a_relu
I0901 12:40:39.708462 40287 net.cpp:148] Top shape: 10 256 14 14 (501760)
I0901 12:40:39.708475 40287 net.cpp:156] Memory required for data: 1997005000
I0901 12:40:39.708488 40287 layer_factory.hpp:77] Creating layer res4d_branch2b
I0901 12:40:39.708511 40287 net.cpp:91] Creating Layer res4d_branch2b
I0901 12:40:39.708526 40287 net.cpp:425] res4d_branch2b <- res4d_branch2a
I0901 12:40:39.708545 40287 net.cpp:399] res4d_branch2b -> res4d_branch2b
I0901 12:40:39.714454 40287 net.cpp:141] Setting up res4d_branch2b
I0901 12:40:39.714481 40287 net.cpp:148] Top shape: 10 256 14 14 (501760)
I0901 12:40:39.714504 40287 net.cpp:156] Memory required for data: 1999012040
I0901 12:40:39.714519 40287 layer_factory.hpp:77] Creating layer bn4d_branch2b
I0901 12:40:39.714537 40287 net.cpp:91] Creating Layer bn4d_branch2b
I0901 12:40:39.714552 40287 net.cpp:425] bn4d_branch2b <- res4d_branch2b
I0901 12:40:39.714570 40287 net.cpp:386] bn4d_branch2b -> res4d_branch2b (in-place)
I0901 12:40:39.714792 40287 net.cpp:141] Setting up bn4d_branch2b
I0901 12:40:39.714817 40287 net.cpp:148] Top shape: 10 256 14 14 (501760)
I0901 12:40:39.714830 40287 net.cpp:156] Memory required for data: 2001019080
I0901 12:40:39.714850 40287 layer_factory.hpp:77] Creating layer scale4d_branch2b
I0901 12:40:39.714869 40287 net.cpp:91] Creating Layer scale4d_branch2b
I0901 12:40:39.714884 40287 net.cpp:425] scale4d_branch2b <- res4d_branch2b
I0901 12:40:39.714902 40287 net.cpp:386] scale4d_branch2b -> res4d_branch2b (in-place)
I0901 12:40:39.714963 40287 layer_factory.hpp:77] Creating layer scale4d_branch2b
I0901 12:40:39.715106 40287 net.cpp:141] Setting up scale4d_branch2b
I0901 12:40:39.715129 40287 net.cpp:148] Top shape: 10 256 14 14 (501760)
I0901 12:40:39.715143 40287 net.cpp:156] Memory required for data: 2003026120
I0901 12:40:39.715160 40287 layer_factory.hpp:77] Creating layer res4d_branch2b_relu
I0901 12:40:39.715178 40287 net.cpp:91] Creating Layer res4d_branch2b_relu
I0901 12:40:39.715191 40287 net.cpp:425] res4d_branch2b_relu <- res4d_branch2b
I0901 12:40:39.715211 40287 net.cpp:386] res4d_branch2b_relu -> res4d_branch2b (in-place)
I0901 12:40:39.715229 40287 net.cpp:141] Setting up res4d_branch2b_relu
I0901 12:40:39.715245 40287 net.cpp:148] Top shape: 10 256 14 14 (501760)
I0901 12:40:39.715257 40287 net.cpp:156] Memory required for data: 2005033160
I0901 12:40:39.715271 40287 layer_factory.hpp:77] Creating layer res4d_branch2c
I0901 12:40:39.715294 40287 net.cpp:91] Creating Layer res4d_branch2c
I0901 12:40:39.715328 40287 net.cpp:425] res4d_branch2c <- res4d_branch2b
I0901 12:40:39.715350 40287 net.cpp:399] res4d_branch2c -> res4d_branch2c
I0901 12:40:39.718159 40287 net.cpp:141] Setting up res4d_branch2c
I0901 12:40:39.718186 40287 net.cpp:148] Top shape: 10 1024 14 14 (2007040)
I0901 12:40:39.718200 40287 net.cpp:156] Memory required for data: 2013061320
I0901 12:40:39.718216 40287 layer_factory.hpp:77] Creating layer bn4d_branch2c
I0901 12:40:39.718235 40287 net.cpp:91] Creating Layer bn4d_branch2c
I0901 12:40:39.718248 40287 net.cpp:425] bn4d_branch2c <- res4d_branch2c
I0901 12:40:39.718263 40287 net.cpp:386] bn4d_branch2c -> res4d_branch2c (in-place)
I0901 12:40:39.718499 40287 net.cpp:141] Setting up bn4d_branch2c
I0901 12:40:39.718523 40287 net.cpp:148] Top shape: 10 1024 14 14 (2007040)
I0901 12:40:39.718538 40287 net.cpp:156] Memory required for data: 2021089480
I0901 12:40:39.718562 40287 layer_factory.hpp:77] Creating layer scale4d_branch2c
I0901 12:40:39.718582 40287 net.cpp:91] Creating Layer scale4d_branch2c
I0901 12:40:39.718597 40287 net.cpp:425] scale4d_branch2c <- res4d_branch2c
I0901 12:40:39.718612 40287 net.cpp:386] scale4d_branch2c -> res4d_branch2c (in-place)
I0901 12:40:39.718677 40287 layer_factory.hpp:77] Creating layer scale4d_branch2c
I0901 12:40:39.718830 40287 net.cpp:141] Setting up scale4d_branch2c
I0901 12:40:39.718853 40287 net.cpp:148] Top shape: 10 1024 14 14 (2007040)
I0901 12:40:39.718868 40287 net.cpp:156] Memory required for data: 2029117640
I0901 12:40:39.718885 40287 layer_factory.hpp:77] Creating layer res4d
I0901 12:40:39.718905 40287 net.cpp:91] Creating Layer res4d
I0901 12:40:39.718920 40287 net.cpp:425] res4d <- res4c_res4c_relu_0_split_1
I0901 12:40:39.718935 40287 net.cpp:425] res4d <- res4d_branch2c
I0901 12:40:39.718951 40287 net.cpp:399] res4d -> res4d
I0901 12:40:39.718993 40287 net.cpp:141] Setting up res4d
I0901 12:40:39.719017 40287 net.cpp:148] Top shape: 10 1024 14 14 (2007040)
I0901 12:40:39.719030 40287 net.cpp:156] Memory required for data: 2037145800
I0901 12:40:39.719043 40287 layer_factory.hpp:77] Creating layer res4d_relu
I0901 12:40:39.719063 40287 net.cpp:91] Creating Layer res4d_relu
I0901 12:40:39.719077 40287 net.cpp:425] res4d_relu <- res4d
I0901 12:40:39.719097 40287 net.cpp:386] res4d_relu -> res4d (in-place)
I0901 12:40:39.719116 40287 net.cpp:141] Setting up res4d_relu
I0901 12:40:39.719132 40287 net.cpp:148] Top shape: 10 1024 14 14 (2007040)
I0901 12:40:39.719149 40287 net.cpp:156] Memory required for data: 2045173960
I0901 12:40:39.719162 40287 layer_factory.hpp:77] Creating layer res4d_res4d_relu_0_split
I0901 12:40:39.719178 40287 net.cpp:91] Creating Layer res4d_res4d_relu_0_split
I0901 12:40:39.719193 40287 net.cpp:425] res4d_res4d_relu_0_split <- res4d
I0901 12:40:39.719208 40287 net.cpp:399] res4d_res4d_relu_0_split -> res4d_res4d_relu_0_split_0
I0901 12:40:39.719226 40287 net.cpp:399] res4d_res4d_relu_0_split -> res4d_res4d_relu_0_split_1
I0901 12:40:39.719283 40287 net.cpp:141] Setting up res4d_res4d_relu_0_split
I0901 12:40:39.719305 40287 net.cpp:148] Top shape: 10 1024 14 14 (2007040)
I0901 12:40:39.719321 40287 net.cpp:148] Top shape: 10 1024 14 14 (2007040)
I0901 12:40:39.719333 40287 net.cpp:156] Memory required for data: 2061230280
I0901 12:40:39.719350 40287 layer_factory.hpp:77] Creating layer res4e_branch2a
I0901 12:40:39.719370 40287 net.cpp:91] Creating Layer res4e_branch2a
I0901 12:40:39.719385 40287 net.cpp:425] res4e_branch2a <- res4d_res4d_relu_0_split_0
I0901 12:40:39.719405 40287 net.cpp:399] res4e_branch2a -> res4e_branch2a
I0901 12:40:39.722210 40287 net.cpp:141] Setting up res4e_branch2a
I0901 12:40:39.722239 40287 net.cpp:148] Top shape: 10 256 14 14 (501760)
I0901 12:40:39.722251 40287 net.cpp:156] Memory required for data: 2063237320
I0901 12:40:39.722267 40287 layer_factory.hpp:77] Creating layer bn4e_branch2a
I0901 12:40:39.722286 40287 net.cpp:91] Creating Layer bn4e_branch2a
I0901 12:40:39.722299 40287 net.cpp:425] bn4e_branch2a <- res4e_branch2a
I0901 12:40:39.722316 40287 net.cpp:386] bn4e_branch2a -> res4e_branch2a (in-place)
I0901 12:40:39.722554 40287 net.cpp:141] Setting up bn4e_branch2a
I0901 12:40:39.722579 40287 net.cpp:148] Top shape: 10 256 14 14 (501760)
I0901 12:40:39.722592 40287 net.cpp:156] Memory required for data: 2065244360
I0901 12:40:39.722612 40287 layer_factory.hpp:77] Creating layer scale4e_branch2a
I0901 12:40:39.722632 40287 net.cpp:91] Creating Layer scale4e_branch2a
I0901 12:40:39.722648 40287 net.cpp:425] scale4e_branch2a <- res4e_branch2a
I0901 12:40:39.722664 40287 net.cpp:386] scale4e_branch2a -> res4e_branch2a (in-place)
I0901 12:40:39.722725 40287 layer_factory.hpp:77] Creating layer scale4e_branch2a
I0901 12:40:39.722872 40287 net.cpp:141] Setting up scale4e_branch2a
I0901 12:40:39.722894 40287 net.cpp:148] Top shape: 10 256 14 14 (501760)
I0901 12:40:39.722908 40287 net.cpp:156] Memory required for data: 2067251400
I0901 12:40:39.722925 40287 layer_factory.hpp:77] Creating layer res4e_branch2a_relu
I0901 12:40:39.722945 40287 net.cpp:91] Creating Layer res4e_branch2a_relu
I0901 12:40:39.722960 40287 net.cpp:425] res4e_branch2a_relu <- res4e_branch2a
I0901 12:40:39.722976 40287 net.cpp:386] res4e_branch2a_relu -> res4e_branch2a (in-place)
I0901 12:40:39.722992 40287 net.cpp:141] Setting up res4e_branch2a_relu
I0901 12:40:39.723012 40287 net.cpp:148] Top shape: 10 256 14 14 (501760)
I0901 12:40:39.723028 40287 net.cpp:156] Memory required for data: 2069258440
I0901 12:40:39.723042 40287 layer_factory.hpp:77] Creating layer res4e_branch2b
I0901 12:40:39.723064 40287 net.cpp:91] Creating Layer res4e_branch2b
I0901 12:40:39.723079 40287 net.cpp:425] res4e_branch2b <- res4e_branch2a
I0901 12:40:39.723096 40287 net.cpp:399] res4e_branch2b -> res4e_branch2b
I0901 12:40:39.728955 40287 net.cpp:141] Setting up res4e_branch2b
I0901 12:40:39.728982 40287 net.cpp:148] Top shape: 10 256 14 14 (501760)
I0901 12:40:39.728996 40287 net.cpp:156] Memory required for data: 2071265480
I0901 12:40:39.729013 40287 layer_factory.hpp:77] Creating layer bn4e_branch2b
I0901 12:40:39.729038 40287 net.cpp:91] Creating Layer bn4e_branch2b
I0901 12:40:39.729053 40287 net.cpp:425] bn4e_branch2b <- res4e_branch2b
I0901 12:40:39.729073 40287 net.cpp:386] bn4e_branch2b -> res4e_branch2b (in-place)
I0901 12:40:39.729290 40287 net.cpp:141] Setting up bn4e_branch2b
I0901 12:40:39.729313 40287 net.cpp:148] Top shape: 10 256 14 14 (501760)
I0901 12:40:39.729327 40287 net.cpp:156] Memory required for data: 2073272520
I0901 12:40:39.729346 40287 layer_factory.hpp:77] Creating layer scale4e_branch2b
I0901 12:40:39.729367 40287 net.cpp:91] Creating Layer scale4e_branch2b
I0901 12:40:39.729382 40287 net.cpp:425] scale4e_branch2b <- res4e_branch2b
I0901 12:40:39.729398 40287 net.cpp:386] scale4e_branch2b -> res4e_branch2b (in-place)
I0901 12:40:39.729460 40287 layer_factory.hpp:77] Creating layer scale4e_branch2b
I0901 12:40:39.729609 40287 net.cpp:141] Setting up scale4e_branch2b
I0901 12:40:39.729632 40287 net.cpp:148] Top shape: 10 256 14 14 (501760)
I0901 12:40:39.729646 40287 net.cpp:156] Memory required for data: 2075279560
I0901 12:40:39.729663 40287 layer_factory.hpp:77] Creating layer res4e_branch2b_relu
I0901 12:40:39.729681 40287 net.cpp:91] Creating Layer res4e_branch2b_relu
I0901 12:40:39.729696 40287 net.cpp:425] res4e_branch2b_relu <- res4e_branch2b
I0901 12:40:39.729717 40287 net.cpp:386] res4e_branch2b_relu -> res4e_branch2b (in-place)
I0901 12:40:39.729734 40287 net.cpp:141] Setting up res4e_branch2b_relu
I0901 12:40:39.729750 40287 net.cpp:148] Top shape: 10 256 14 14 (501760)
I0901 12:40:39.729763 40287 net.cpp:156] Memory required for data: 2077286600
I0901 12:40:39.729776 40287 layer_factory.hpp:77] Creating layer res4e_branch2c
I0901 12:40:39.729799 40287 net.cpp:91] Creating Layer res4e_branch2c
I0901 12:40:39.729815 40287 net.cpp:425] res4e_branch2c <- res4e_branch2b
I0901 12:40:39.729831 40287 net.cpp:399] res4e_branch2c -> res4e_branch2c
I0901 12:40:39.732638 40287 net.cpp:141] Setting up res4e_branch2c
I0901 12:40:39.732666 40287 net.cpp:148] Top shape: 10 1024 14 14 (2007040)
I0901 12:40:39.732697 40287 net.cpp:156] Memory required for data: 2085314760
I0901 12:40:39.732714 40287 layer_factory.hpp:77] Creating layer bn4e_branch2c
I0901 12:40:39.732734 40287 net.cpp:91] Creating Layer bn4e_branch2c
I0901 12:40:39.732750 40287 net.cpp:425] bn4e_branch2c <- res4e_branch2c
I0901 12:40:39.732765 40287 net.cpp:386] bn4e_branch2c -> res4e_branch2c (in-place)
I0901 12:40:39.732993 40287 net.cpp:141] Setting up bn4e_branch2c
I0901 12:40:39.733016 40287 net.cpp:148] Top shape: 10 1024 14 14 (2007040)
I0901 12:40:39.733031 40287 net.cpp:156] Memory required for data: 2093342920
I0901 12:40:39.733050 40287 layer_factory.hpp:77] Creating layer scale4e_branch2c
I0901 12:40:39.733068 40287 net.cpp:91] Creating Layer scale4e_branch2c
I0901 12:40:39.733083 40287 net.cpp:425] scale4e_branch2c <- res4e_branch2c
I0901 12:40:39.733105 40287 net.cpp:386] scale4e_branch2c -> res4e_branch2c (in-place)
I0901 12:40:39.733165 40287 layer_factory.hpp:77] Creating layer scale4e_branch2c
I0901 12:40:39.733321 40287 net.cpp:141] Setting up scale4e_branch2c
I0901 12:40:39.733347 40287 net.cpp:148] Top shape: 10 1024 14 14 (2007040)
I0901 12:40:39.733361 40287 net.cpp:156] Memory required for data: 2101371080
I0901 12:40:39.733379 40287 layer_factory.hpp:77] Creating layer res4e
I0901 12:40:39.733397 40287 net.cpp:91] Creating Layer res4e
I0901 12:40:39.733412 40287 net.cpp:425] res4e <- res4d_res4d_relu_0_split_1
I0901 12:40:39.733425 40287 net.cpp:425] res4e <- res4e_branch2c
I0901 12:40:39.733441 40287 net.cpp:399] res4e -> res4e
I0901 12:40:39.733484 40287 net.cpp:141] Setting up res4e
I0901 12:40:39.733506 40287 net.cpp:148] Top shape: 10 1024 14 14 (2007040)
I0901 12:40:39.733520 40287 net.cpp:156] Memory required for data: 2109399240
I0901 12:40:39.733534 40287 layer_factory.hpp:77] Creating layer res4e_relu
I0901 12:40:39.733553 40287 net.cpp:91] Creating Layer res4e_relu
I0901 12:40:39.733567 40287 net.cpp:425] res4e_relu <- res4e
I0901 12:40:39.733587 40287 net.cpp:386] res4e_relu -> res4e (in-place)
I0901 12:40:39.733608 40287 net.cpp:141] Setting up res4e_relu
I0901 12:40:39.733623 40287 net.cpp:148] Top shape: 10 1024 14 14 (2007040)
I0901 12:40:39.733636 40287 net.cpp:156] Memory required for data: 2117427400
I0901 12:40:39.733652 40287 layer_factory.hpp:77] Creating layer res4e_res4e_relu_0_split
I0901 12:40:39.733669 40287 net.cpp:91] Creating Layer res4e_res4e_relu_0_split
I0901 12:40:39.733682 40287 net.cpp:425] res4e_res4e_relu_0_split <- res4e
I0901 12:40:39.733697 40287 net.cpp:399] res4e_res4e_relu_0_split -> res4e_res4e_relu_0_split_0
I0901 12:40:39.733714 40287 net.cpp:399] res4e_res4e_relu_0_split -> res4e_res4e_relu_0_split_1
I0901 12:40:39.733772 40287 net.cpp:141] Setting up res4e_res4e_relu_0_split
I0901 12:40:39.733795 40287 net.cpp:148] Top shape: 10 1024 14 14 (2007040)
I0901 12:40:39.733810 40287 net.cpp:148] Top shape: 10 1024 14 14 (2007040)
I0901 12:40:39.733824 40287 net.cpp:156] Memory required for data: 2133483720
I0901 12:40:39.733840 40287 layer_factory.hpp:77] Creating layer res4f_branch2a
I0901 12:40:39.733870 40287 net.cpp:91] Creating Layer res4f_branch2a
I0901 12:40:39.733886 40287 net.cpp:425] res4f_branch2a <- res4e_res4e_relu_0_split_0
I0901 12:40:39.733903 40287 net.cpp:399] res4f_branch2a -> res4f_branch2a
I0901 12:40:39.736733 40287 net.cpp:141] Setting up res4f_branch2a
I0901 12:40:39.736762 40287 net.cpp:148] Top shape: 10 256 14 14 (501760)
I0901 12:40:39.736775 40287 net.cpp:156] Memory required for data: 2135490760
I0901 12:40:39.736793 40287 layer_factory.hpp:77] Creating layer bn4f_branch2a
I0901 12:40:39.736810 40287 net.cpp:91] Creating Layer bn4f_branch2a
I0901 12:40:39.736825 40287 net.cpp:425] bn4f_branch2a <- res4f_branch2a
I0901 12:40:39.736850 40287 net.cpp:386] bn4f_branch2a -> res4f_branch2a (in-place)
I0901 12:40:39.737068 40287 net.cpp:141] Setting up bn4f_branch2a
I0901 12:40:39.737092 40287 net.cpp:148] Top shape: 10 256 14 14 (501760)
I0901 12:40:39.737105 40287 net.cpp:156] Memory required for data: 2137497800
I0901 12:40:39.737125 40287 layer_factory.hpp:77] Creating layer scale4f_branch2a
I0901 12:40:39.737159 40287 net.cpp:91] Creating Layer scale4f_branch2a
I0901 12:40:39.737175 40287 net.cpp:425] scale4f_branch2a <- res4f_branch2a
I0901 12:40:39.737191 40287 net.cpp:386] scale4f_branch2a -> res4f_branch2a (in-place)
I0901 12:40:39.737254 40287 layer_factory.hpp:77] Creating layer scale4f_branch2a
I0901 12:40:39.737398 40287 net.cpp:141] Setting up scale4f_branch2a
I0901 12:40:39.737422 40287 net.cpp:148] Top shape: 10 256 14 14 (501760)
I0901 12:40:39.737437 40287 net.cpp:156] Memory required for data: 2139504840
I0901 12:40:39.737453 40287 layer_factory.hpp:77] Creating layer res4f_branch2a_relu
I0901 12:40:39.737473 40287 net.cpp:91] Creating Layer res4f_branch2a_relu
I0901 12:40:39.737488 40287 net.cpp:425] res4f_branch2a_relu <- res4f_branch2a
I0901 12:40:39.737504 40287 net.cpp:386] res4f_branch2a_relu -> res4f_branch2a (in-place)
I0901 12:40:39.737520 40287 net.cpp:141] Setting up res4f_branch2a_relu
I0901 12:40:39.737540 40287 net.cpp:148] Top shape: 10 256 14 14 (501760)
I0901 12:40:39.737555 40287 net.cpp:156] Memory required for data: 2141511880
I0901 12:40:39.737567 40287 layer_factory.hpp:77] Creating layer res4f_branch2b
I0901 12:40:39.737589 40287 net.cpp:91] Creating Layer res4f_branch2b
I0901 12:40:39.737603 40287 net.cpp:425] res4f_branch2b <- res4f_branch2a
I0901 12:40:39.737623 40287 net.cpp:399] res4f_branch2b -> res4f_branch2b
I0901 12:40:39.743502 40287 net.cpp:141] Setting up res4f_branch2b
I0901 12:40:39.743530 40287 net.cpp:148] Top shape: 10 256 14 14 (501760)
I0901 12:40:39.743548 40287 net.cpp:156] Memory required for data: 2143518920
I0901 12:40:39.743564 40287 layer_factory.hpp:77] Creating layer bn4f_branch2b
I0901 12:40:39.743583 40287 net.cpp:91] Creating Layer bn4f_branch2b
I0901 12:40:39.743597 40287 net.cpp:425] bn4f_branch2b <- res4f_branch2b
I0901 12:40:39.743618 40287 net.cpp:386] bn4f_branch2b -> res4f_branch2b (in-place)
I0901 12:40:39.743839 40287 net.cpp:141] Setting up bn4f_branch2b
I0901 12:40:39.743862 40287 net.cpp:148] Top shape: 10 256 14 14 (501760)
I0901 12:40:39.743876 40287 net.cpp:156] Memory required for data: 2145525960
I0901 12:40:39.743896 40287 layer_factory.hpp:77] Creating layer scale4f_branch2b
I0901 12:40:39.743914 40287 net.cpp:91] Creating Layer scale4f_branch2b
I0901 12:40:39.743929 40287 net.cpp:425] scale4f_branch2b <- res4f_branch2b
I0901 12:40:39.743948 40287 net.cpp:386] scale4f_branch2b -> res4f_branch2b (in-place)
I0901 12:40:39.744016 40287 layer_factory.hpp:77] Creating layer scale4f_branch2b
I0901 12:40:39.744164 40287 net.cpp:141] Setting up scale4f_branch2b
I0901 12:40:39.744189 40287 net.cpp:148] Top shape: 10 256 14 14 (501760)
I0901 12:40:39.744202 40287 net.cpp:156] Memory required for data: 2147533000
I0901 12:40:39.744220 40287 layer_factory.hpp:77] Creating layer res4f_branch2b_relu
I0901 12:40:39.744237 40287 net.cpp:91] Creating Layer res4f_branch2b_relu
I0901 12:40:39.744251 40287 net.cpp:425] res4f_branch2b_relu <- res4f_branch2b
I0901 12:40:39.744273 40287 net.cpp:386] res4f_branch2b_relu -> res4f_branch2b (in-place)
I0901 12:40:39.744290 40287 net.cpp:141] Setting up res4f_branch2b_relu
I0901 12:40:39.744305 40287 net.cpp:148] Top shape: 10 256 14 14 (501760)
I0901 12:40:39.744319 40287 net.cpp:156] Memory required for data: 2149540040
I0901 12:40:39.744333 40287 layer_factory.hpp:77] Creating layer res4f_branch2c
I0901 12:40:39.744356 40287 net.cpp:91] Creating Layer res4f_branch2c
I0901 12:40:39.744374 40287 net.cpp:425] res4f_branch2c <- res4f_branch2b
I0901 12:40:39.744393 40287 net.cpp:399] res4f_branch2c -> res4f_branch2c
I0901 12:40:39.747213 40287 net.cpp:141] Setting up res4f_branch2c
I0901 12:40:39.747241 40287 net.cpp:148] Top shape: 10 1024 14 14 (2007040)
I0901 12:40:39.747256 40287 net.cpp:156] Memory required for data: 2157568200
I0901 12:40:39.747272 40287 layer_factory.hpp:77] Creating layer bn4f_branch2c
I0901 12:40:39.747289 40287 net.cpp:91] Creating Layer bn4f_branch2c
I0901 12:40:39.747304 40287 net.cpp:425] bn4f_branch2c <- res4f_branch2c
I0901 12:40:39.747335 40287 net.cpp:386] bn4f_branch2c -> res4f_branch2c (in-place)
I0901 12:40:39.747570 40287 net.cpp:141] Setting up bn4f_branch2c
I0901 12:40:39.747593 40287 net.cpp:148] Top shape: 10 1024 14 14 (2007040)
I0901 12:40:39.747607 40287 net.cpp:156] Memory required for data: 2165596360
I0901 12:40:39.747673 40287 layer_factory.hpp:77] Creating layer scale4f_branch2c
I0901 12:40:39.747697 40287 net.cpp:91] Creating Layer scale4f_branch2c
I0901 12:40:39.747714 40287 net.cpp:425] scale4f_branch2c <- res4f_branch2c
I0901 12:40:39.747728 40287 net.cpp:386] scale4f_branch2c -> res4f_branch2c (in-place)
I0901 12:40:39.747794 40287 layer_factory.hpp:77] Creating layer scale4f_branch2c
I0901 12:40:39.747947 40287 net.cpp:141] Setting up scale4f_branch2c
I0901 12:40:39.747974 40287 net.cpp:148] Top shape: 10 1024 14 14 (2007040)
I0901 12:40:39.747989 40287 net.cpp:156] Memory required for data: 2173624520
I0901 12:40:39.748008 40287 layer_factory.hpp:77] Creating layer res4f
I0901 12:40:39.748025 40287 net.cpp:91] Creating Layer res4f
I0901 12:40:39.748039 40287 net.cpp:425] res4f <- res4e_res4e_relu_0_split_1
I0901 12:40:39.748054 40287 net.cpp:425] res4f <- res4f_branch2c
I0901 12:40:39.748070 40287 net.cpp:399] res4f -> res4f
I0901 12:40:39.748113 40287 net.cpp:141] Setting up res4f
I0901 12:40:39.748136 40287 net.cpp:148] Top shape: 10 1024 14 14 (2007040)
I0901 12:40:39.748150 40287 net.cpp:156] Memory required for data: 2181652680
I0901 12:40:39.748163 40287 layer_factory.hpp:77] Creating layer res4f_relu
I0901 12:40:39.748183 40287 net.cpp:91] Creating Layer res4f_relu
I0901 12:40:39.748196 40287 net.cpp:425] res4f_relu <- res4f
I0901 12:40:39.748217 40287 net.cpp:386] res4f_relu -> res4f (in-place)
I0901 12:40:39.748239 40287 net.cpp:141] Setting up res4f_relu
I0901 12:40:39.748255 40287 net.cpp:148] Top shape: 10 1024 14 14 (2007040)
I0901 12:40:39.748267 40287 net.cpp:156] Memory required for data: 2189680840
I0901 12:40:39.748281 40287 layer_factory.hpp:77] Creating layer res4f_res4f_relu_0_split
I0901 12:40:39.748297 40287 net.cpp:91] Creating Layer res4f_res4f_relu_0_split
I0901 12:40:39.748316 40287 net.cpp:425] res4f_res4f_relu_0_split <- res4f
I0901 12:40:39.748330 40287 net.cpp:399] res4f_res4f_relu_0_split -> res4f_res4f_relu_0_split_0
I0901 12:40:39.748347 40287 net.cpp:399] res4f_res4f_relu_0_split -> res4f_res4f_relu_0_split_1
I0901 12:40:39.748406 40287 net.cpp:141] Setting up res4f_res4f_relu_0_split
I0901 12:40:39.748428 40287 net.cpp:148] Top shape: 10 1024 14 14 (2007040)
I0901 12:40:39.748445 40287 net.cpp:148] Top shape: 10 1024 14 14 (2007040)
I0901 12:40:39.748457 40287 net.cpp:156] Memory required for data: 2205737160
I0901 12:40:39.748474 40287 layer_factory.hpp:77] Creating layer res5a_branch1
I0901 12:40:39.748499 40287 net.cpp:91] Creating Layer res5a_branch1
I0901 12:40:39.748519 40287 net.cpp:425] res5a_branch1 <- res4f_res4f_relu_0_split_0
I0901 12:40:39.748538 40287 net.cpp:399] res5a_branch1 -> res5a_branch1
I0901 12:40:39.768496 40287 net.cpp:141] Setting up res5a_branch1
I0901 12:40:39.768539 40287 net.cpp:148] Top shape: 10 2048 7 7 (1003520)
I0901 12:40:39.768553 40287 net.cpp:156] Memory required for data: 2209751240
I0901 12:40:39.768570 40287 layer_factory.hpp:77] Creating layer bn5a_branch1
I0901 12:40:39.768589 40287 net.cpp:91] Creating Layer bn5a_branch1
I0901 12:40:39.768604 40287 net.cpp:425] bn5a_branch1 <- res5a_branch1
I0901 12:40:39.768623 40287 net.cpp:386] bn5a_branch1 -> res5a_branch1 (in-place)
I0901 12:40:39.768883 40287 net.cpp:141] Setting up bn5a_branch1
I0901 12:40:39.768906 40287 net.cpp:148] Top shape: 10 2048 7 7 (1003520)
I0901 12:40:39.768920 40287 net.cpp:156] Memory required for data: 2213765320
I0901 12:40:39.768940 40287 layer_factory.hpp:77] Creating layer scale5a_branch1
I0901 12:40:39.768959 40287 net.cpp:91] Creating Layer scale5a_branch1
I0901 12:40:39.768973 40287 net.cpp:425] scale5a_branch1 <- res5a_branch1
I0901 12:40:39.768996 40287 net.cpp:386] scale5a_branch1 -> res5a_branch1 (in-place)
I0901 12:40:39.769058 40287 layer_factory.hpp:77] Creating layer scale5a_branch1
I0901 12:40:39.769234 40287 net.cpp:141] Setting up scale5a_branch1
I0901 12:40:39.769260 40287 net.cpp:148] Top shape: 10 2048 7 7 (1003520)
I0901 12:40:39.769274 40287 net.cpp:156] Memory required for data: 2217779400
I0901 12:40:39.769292 40287 layer_factory.hpp:77] Creating layer res5a_branch2a
I0901 12:40:39.769314 40287 net.cpp:91] Creating Layer res5a_branch2a
I0901 12:40:39.769328 40287 net.cpp:425] res5a_branch2a <- res4f_res4f_relu_0_split_1
I0901 12:40:39.769348 40287 net.cpp:399] res5a_branch2a -> res5a_branch2a
I0901 12:40:39.774615 40287 net.cpp:141] Setting up res5a_branch2a
I0901 12:40:39.774643 40287 net.cpp:148] Top shape: 10 512 7 7 (250880)
I0901 12:40:39.774657 40287 net.cpp:156] Memory required for data: 2218782920
I0901 12:40:39.774673 40287 layer_factory.hpp:77] Creating layer bn5a_branch2a
I0901 12:40:39.774691 40287 net.cpp:91] Creating Layer bn5a_branch2a
I0901 12:40:39.774706 40287 net.cpp:425] bn5a_branch2a <- res5a_branch2a
I0901 12:40:39.774722 40287 net.cpp:386] bn5a_branch2a -> res5a_branch2a (in-place)
I0901 12:40:39.774956 40287 net.cpp:141] Setting up bn5a_branch2a
I0901 12:40:39.774979 40287 net.cpp:148] Top shape: 10 512 7 7 (250880)
I0901 12:40:39.774993 40287 net.cpp:156] Memory required for data: 2219786440
I0901 12:40:39.775015 40287 layer_factory.hpp:77] Creating layer scale5a_branch2a
I0901 12:40:39.775034 40287 net.cpp:91] Creating Layer scale5a_branch2a
I0901 12:40:39.775049 40287 net.cpp:425] scale5a_branch2a <- res5a_branch2a
I0901 12:40:39.775065 40287 net.cpp:386] scale5a_branch2a -> res5a_branch2a (in-place)
I0901 12:40:39.775127 40287 layer_factory.hpp:77] Creating layer scale5a_branch2a
I0901 12:40:39.775285 40287 net.cpp:141] Setting up scale5a_branch2a
I0901 12:40:39.775308 40287 net.cpp:148] Top shape: 10 512 7 7 (250880)
I0901 12:40:39.775322 40287 net.cpp:156] Memory required for data: 2220789960
I0901 12:40:39.775341 40287 layer_factory.hpp:77] Creating layer res5a_branch2a_relu
I0901 12:40:39.775360 40287 net.cpp:91] Creating Layer res5a_branch2a_relu
I0901 12:40:39.775375 40287 net.cpp:425] res5a_branch2a_relu <- res5a_branch2a
I0901 12:40:39.775391 40287 net.cpp:386] res5a_branch2a_relu -> res5a_branch2a (in-place)
I0901 12:40:39.775408 40287 net.cpp:141] Setting up res5a_branch2a_relu
I0901 12:40:39.775424 40287 net.cpp:148] Top shape: 10 512 7 7 (250880)
I0901 12:40:39.775437 40287 net.cpp:156] Memory required for data: 2221793480
I0901 12:40:39.775451 40287 layer_factory.hpp:77] Creating layer res5a_branch2b
I0901 12:40:39.775475 40287 net.cpp:91] Creating Layer res5a_branch2b
I0901 12:40:39.775490 40287 net.cpp:425] res5a_branch2b <- res5a_branch2a
I0901 12:40:39.775511 40287 net.cpp:399] res5a_branch2b -> res5a_branch2b
I0901 12:40:39.798043 40287 net.cpp:141] Setting up res5a_branch2b
I0901 12:40:39.798081 40287 net.cpp:148] Top shape: 10 512 7 7 (250880)
I0901 12:40:39.798104 40287 net.cpp:156] Memory required for data: 2222797000
I0901 12:40:39.798120 40287 layer_factory.hpp:77] Creating layer bn5a_branch2b
I0901 12:40:39.798140 40287 net.cpp:91] Creating Layer bn5a_branch2b
I0901 12:40:39.798154 40287 net.cpp:425] bn5a_branch2b <- res5a_branch2b
I0901 12:40:39.798171 40287 net.cpp:386] bn5a_branch2b -> res5a_branch2b (in-place)
I0901 12:40:39.798421 40287 net.cpp:141] Setting up bn5a_branch2b
I0901 12:40:39.798445 40287 net.cpp:148] Top shape: 10 512 7 7 (250880)
I0901 12:40:39.798460 40287 net.cpp:156] Memory required for data: 2223800520
I0901 12:40:39.798480 40287 layer_factory.hpp:77] Creating layer scale5a_branch2b
I0901 12:40:39.798501 40287 net.cpp:91] Creating Layer scale5a_branch2b
I0901 12:40:39.798516 40287 net.cpp:425] scale5a_branch2b <- res5a_branch2b
I0901 12:40:39.798532 40287 net.cpp:386] scale5a_branch2b -> res5a_branch2b (in-place)
I0901 12:40:39.798599 40287 layer_factory.hpp:77] Creating layer scale5a_branch2b
I0901 12:40:39.798758 40287 net.cpp:141] Setting up scale5a_branch2b
I0901 12:40:39.798782 40287 net.cpp:148] Top shape: 10 512 7 7 (250880)
I0901 12:40:39.798795 40287 net.cpp:156] Memory required for data: 2224804040
I0901 12:40:39.798838 40287 layer_factory.hpp:77] Creating layer res5a_branch2b_relu
I0901 12:40:39.798857 40287 net.cpp:91] Creating Layer res5a_branch2b_relu
I0901 12:40:39.798872 40287 net.cpp:425] res5a_branch2b_relu <- res5a_branch2b
I0901 12:40:39.798893 40287 net.cpp:386] res5a_branch2b_relu -> res5a_branch2b (in-place)
I0901 12:40:39.798912 40287 net.cpp:141] Setting up res5a_branch2b_relu
I0901 12:40:39.798928 40287 net.cpp:148] Top shape: 10 512 7 7 (250880)
I0901 12:40:39.798941 40287 net.cpp:156] Memory required for data: 2225807560
I0901 12:40:39.798955 40287 layer_factory.hpp:77] Creating layer res5a_branch2c
I0901 12:40:39.798981 40287 net.cpp:91] Creating Layer res5a_branch2c
I0901 12:40:39.798997 40287 net.cpp:425] res5a_branch2c <- res5a_branch2b
I0901 12:40:39.799015 40287 net.cpp:399] res5a_branch2c -> res5a_branch2c
I0901 12:40:39.809221 40287 net.cpp:141] Setting up res5a_branch2c
I0901 12:40:39.809250 40287 net.cpp:148] Top shape: 10 2048 7 7 (1003520)
I0901 12:40:39.809272 40287 net.cpp:156] Memory required for data: 2229821640
I0901 12:40:39.809288 40287 layer_factory.hpp:77] Creating layer bn5a_branch2c
I0901 12:40:39.809309 40287 net.cpp:91] Creating Layer bn5a_branch2c
I0901 12:40:39.809324 40287 net.cpp:425] bn5a_branch2c <- res5a_branch2c
I0901 12:40:39.809343 40287 net.cpp:386] bn5a_branch2c -> res5a_branch2c (in-place)
I0901 12:40:39.809587 40287 net.cpp:141] Setting up bn5a_branch2c
I0901 12:40:39.809612 40287 net.cpp:148] Top shape: 10 2048 7 7 (1003520)
I0901 12:40:39.809625 40287 net.cpp:156] Memory required for data: 2233835720
I0901 12:40:39.809644 40287 layer_factory.hpp:77] Creating layer scale5a_branch2c
I0901 12:40:39.809664 40287 net.cpp:91] Creating Layer scale5a_branch2c
I0901 12:40:39.809679 40287 net.cpp:425] scale5a_branch2c <- res5a_branch2c
I0901 12:40:39.809701 40287 net.cpp:386] scale5a_branch2c -> res5a_branch2c (in-place)
I0901 12:40:39.809764 40287 layer_factory.hpp:77] Creating layer scale5a_branch2c
I0901 12:40:39.809927 40287 net.cpp:141] Setting up scale5a_branch2c
I0901 12:40:39.809952 40287 net.cpp:148] Top shape: 10 2048 7 7 (1003520)
I0901 12:40:39.809965 40287 net.cpp:156] Memory required for data: 2237849800
I0901 12:40:39.809983 40287 layer_factory.hpp:77] Creating layer res5a
I0901 12:40:39.810000 40287 net.cpp:91] Creating Layer res5a
I0901 12:40:39.810015 40287 net.cpp:425] res5a <- res5a_branch1
I0901 12:40:39.810030 40287 net.cpp:425] res5a <- res5a_branch2c
I0901 12:40:39.810046 40287 net.cpp:399] res5a -> res5a
I0901 12:40:39.810091 40287 net.cpp:141] Setting up res5a
I0901 12:40:39.810112 40287 net.cpp:148] Top shape: 10 2048 7 7 (1003520)
I0901 12:40:39.810127 40287 net.cpp:156] Memory required for data: 2241863880
I0901 12:40:39.810140 40287 layer_factory.hpp:77] Creating layer res5a_relu
I0901 12:40:39.810163 40287 net.cpp:91] Creating Layer res5a_relu
I0901 12:40:39.810176 40287 net.cpp:425] res5a_relu <- res5a
I0901 12:40:39.810192 40287 net.cpp:386] res5a_relu -> res5a (in-place)
I0901 12:40:39.810209 40287 net.cpp:141] Setting up res5a_relu
I0901 12:40:39.810225 40287 net.cpp:148] Top shape: 10 2048 7 7 (1003520)
I0901 12:40:39.810237 40287 net.cpp:156] Memory required for data: 2245877960
I0901 12:40:39.810255 40287 layer_factory.hpp:77] Creating layer res5a_res5a_relu_0_split
I0901 12:40:39.810273 40287 net.cpp:91] Creating Layer res5a_res5a_relu_0_split
I0901 12:40:39.810288 40287 net.cpp:425] res5a_res5a_relu_0_split <- res5a
I0901 12:40:39.810309 40287 net.cpp:399] res5a_res5a_relu_0_split -> res5a_res5a_relu_0_split_0
I0901 12:40:39.810329 40287 net.cpp:399] res5a_res5a_relu_0_split -> res5a_res5a_relu_0_split_1
I0901 12:40:39.810390 40287 net.cpp:141] Setting up res5a_res5a_relu_0_split
I0901 12:40:39.810415 40287 net.cpp:148] Top shape: 10 2048 7 7 (1003520)
I0901 12:40:39.810431 40287 net.cpp:148] Top shape: 10 2048 7 7 (1003520)
I0901 12:40:39.810444 40287 net.cpp:156] Memory required for data: 2253906120
I0901 12:40:39.810461 40287 layer_factory.hpp:77] Creating layer res5b_branch2a
I0901 12:40:39.810499 40287 net.cpp:91] Creating Layer res5b_branch2a
I0901 12:40:39.810516 40287 net.cpp:425] res5b_branch2a <- res5a_res5a_relu_0_split_0
I0901 12:40:39.810535 40287 net.cpp:399] res5b_branch2a -> res5b_branch2a
I0901 12:40:39.820674 40287 net.cpp:141] Setting up res5b_branch2a
I0901 12:40:39.820703 40287 net.cpp:148] Top shape: 10 512 7 7 (250880)
I0901 12:40:39.820718 40287 net.cpp:156] Memory required for data: 2254909640
I0901 12:40:39.820734 40287 layer_factory.hpp:77] Creating layer bn5b_branch2a
I0901 12:40:39.820755 40287 net.cpp:91] Creating Layer bn5b_branch2a
I0901 12:40:39.820770 40287 net.cpp:425] bn5b_branch2a <- res5b_branch2a
I0901 12:40:39.820786 40287 net.cpp:386] bn5b_branch2a -> res5b_branch2a (in-place)
I0901 12:40:39.821022 40287 net.cpp:141] Setting up bn5b_branch2a
I0901 12:40:39.821045 40287 net.cpp:148] Top shape: 10 512 7 7 (250880)
I0901 12:40:39.821059 40287 net.cpp:156] Memory required for data: 2255913160
I0901 12:40:39.821079 40287 layer_factory.hpp:77] Creating layer scale5b_branch2a
I0901 12:40:39.821099 40287 net.cpp:91] Creating Layer scale5b_branch2a
I0901 12:40:39.821112 40287 net.cpp:425] scale5b_branch2a <- res5b_branch2a
I0901 12:40:39.821136 40287 net.cpp:386] scale5b_branch2a -> res5b_branch2a (in-place)
I0901 12:40:39.821197 40287 layer_factory.hpp:77] Creating layer scale5b_branch2a
I0901 12:40:39.821353 40287 net.cpp:141] Setting up scale5b_branch2a
I0901 12:40:39.821380 40287 net.cpp:148] Top shape: 10 512 7 7 (250880)
I0901 12:40:39.821395 40287 net.cpp:156] Memory required for data: 2256916680
I0901 12:40:39.821413 40287 layer_factory.hpp:77] Creating layer res5b_branch2a_relu
I0901 12:40:39.821430 40287 net.cpp:91] Creating Layer res5b_branch2a_relu
I0901 12:40:39.821444 40287 net.cpp:425] res5b_branch2a_relu <- res5b_branch2a
I0901 12:40:39.821460 40287 net.cpp:386] res5b_branch2a_relu -> res5b_branch2a (in-place)
I0901 12:40:39.821476 40287 net.cpp:141] Setting up res5b_branch2a_relu
I0901 12:40:39.821492 40287 net.cpp:148] Top shape: 10 512 7 7 (250880)
I0901 12:40:39.821506 40287 net.cpp:156] Memory required for data: 2257920200
I0901 12:40:39.821518 40287 layer_factory.hpp:77] Creating layer res5b_branch2b
I0901 12:40:39.821542 40287 net.cpp:91] Creating Layer res5b_branch2b
I0901 12:40:39.821557 40287 net.cpp:425] res5b_branch2b <- res5b_branch2a
I0901 12:40:39.821576 40287 net.cpp:399] res5b_branch2b -> res5b_branch2b
I0901 12:40:39.844174 40287 net.cpp:141] Setting up res5b_branch2b
I0901 12:40:39.844216 40287 net.cpp:148] Top shape: 10 512 7 7 (250880)
I0901 12:40:39.844236 40287 net.cpp:156] Memory required for data: 2258923720
I0901 12:40:39.844254 40287 layer_factory.hpp:77] Creating layer bn5b_branch2b
I0901 12:40:39.844274 40287 net.cpp:91] Creating Layer bn5b_branch2b
I0901 12:40:39.844290 40287 net.cpp:425] bn5b_branch2b <- res5b_branch2b
I0901 12:40:39.844308 40287 net.cpp:386] bn5b_branch2b -> res5b_branch2b (in-place)
I0901 12:40:39.844568 40287 net.cpp:141] Setting up bn5b_branch2b
I0901 12:40:39.844591 40287 net.cpp:148] Top shape: 10 512 7 7 (250880)
I0901 12:40:39.844605 40287 net.cpp:156] Memory required for data: 2259927240
I0901 12:40:39.844625 40287 layer_factory.hpp:77] Creating layer scale5b_branch2b
I0901 12:40:39.844645 40287 net.cpp:91] Creating Layer scale5b_branch2b
I0901 12:40:39.844660 40287 net.cpp:425] scale5b_branch2b <- res5b_branch2b
I0901 12:40:39.844676 40287 net.cpp:386] scale5b_branch2b -> res5b_branch2b (in-place)
I0901 12:40:39.844743 40287 layer_factory.hpp:77] Creating layer scale5b_branch2b
I0901 12:40:39.844902 40287 net.cpp:141] Setting up scale5b_branch2b
I0901 12:40:39.844925 40287 net.cpp:148] Top shape: 10 512 7 7 (250880)
I0901 12:40:39.844939 40287 net.cpp:156] Memory required for data: 2260930760
I0901 12:40:39.844957 40287 layer_factory.hpp:77] Creating layer res5b_branch2b_relu
I0901 12:40:39.844974 40287 net.cpp:91] Creating Layer res5b_branch2b_relu
I0901 12:40:39.844990 40287 net.cpp:425] res5b_branch2b_relu <- res5b_branch2b
I0901 12:40:39.845011 40287 net.cpp:386] res5b_branch2b_relu -> res5b_branch2b (in-place)
I0901 12:40:39.845053 40287 net.cpp:141] Setting up res5b_branch2b_relu
I0901 12:40:39.845072 40287 net.cpp:148] Top shape: 10 512 7 7 (250880)
I0901 12:40:39.845084 40287 net.cpp:156] Memory required for data: 2261934280
I0901 12:40:39.845098 40287 layer_factory.hpp:77] Creating layer res5b_branch2c
I0901 12:40:39.845118 40287 net.cpp:91] Creating Layer res5b_branch2c
I0901 12:40:39.845134 40287 net.cpp:425] res5b_branch2c <- res5b_branch2b
I0901 12:40:39.845154 40287 net.cpp:399] res5b_branch2c -> res5b_branch2c
I0901 12:40:39.855530 40287 net.cpp:141] Setting up res5b_branch2c
I0901 12:40:39.855558 40287 net.cpp:148] Top shape: 10 2048 7 7 (1003520)
I0901 12:40:39.855581 40287 net.cpp:156] Memory required for data: 2265948360
I0901 12:40:39.855597 40287 layer_factory.hpp:77] Creating layer bn5b_branch2c
I0901 12:40:39.855615 40287 net.cpp:91] Creating Layer bn5b_branch2c
I0901 12:40:39.855630 40287 net.cpp:425] bn5b_branch2c <- res5b_branch2c
I0901 12:40:39.855649 40287 net.cpp:386] bn5b_branch2c -> res5b_branch2c (in-place)
I0901 12:40:39.855893 40287 net.cpp:141] Setting up bn5b_branch2c
I0901 12:40:39.855916 40287 net.cpp:148] Top shape: 10 2048 7 7 (1003520)
I0901 12:40:39.855931 40287 net.cpp:156] Memory required for data: 2269962440
I0901 12:40:39.855953 40287 layer_factory.hpp:77] Creating layer scale5b_branch2c
I0901 12:40:39.855973 40287 net.cpp:91] Creating Layer scale5b_branch2c
I0901 12:40:39.855988 40287 net.cpp:425] scale5b_branch2c <- res5b_branch2c
I0901 12:40:39.856004 40287 net.cpp:386] scale5b_branch2c -> res5b_branch2c (in-place)
I0901 12:40:39.856070 40287 layer_factory.hpp:77] Creating layer scale5b_branch2c
I0901 12:40:39.856236 40287 net.cpp:141] Setting up scale5b_branch2c
I0901 12:40:39.856261 40287 net.cpp:148] Top shape: 10 2048 7 7 (1003520)
I0901 12:40:39.856273 40287 net.cpp:156] Memory required for data: 2273976520
I0901 12:40:39.856292 40287 layer_factory.hpp:77] Creating layer res5b
I0901 12:40:39.856312 40287 net.cpp:91] Creating Layer res5b
I0901 12:40:39.856328 40287 net.cpp:425] res5b <- res5a_res5a_relu_0_split_1
I0901 12:40:39.856343 40287 net.cpp:425] res5b <- res5b_branch2c
I0901 12:40:39.856359 40287 net.cpp:399] res5b -> res5b
I0901 12:40:39.856406 40287 net.cpp:141] Setting up res5b
I0901 12:40:39.856429 40287 net.cpp:148] Top shape: 10 2048 7 7 (1003520)
I0901 12:40:39.856443 40287 net.cpp:156] Memory required for data: 2277990600
I0901 12:40:39.856457 40287 layer_factory.hpp:77] Creating layer res5b_relu
I0901 12:40:39.856474 40287 net.cpp:91] Creating Layer res5b_relu
I0901 12:40:39.856488 40287 net.cpp:425] res5b_relu <- res5b
I0901 12:40:39.856508 40287 net.cpp:386] res5b_relu -> res5b (in-place)
I0901 12:40:39.856529 40287 net.cpp:141] Setting up res5b_relu
I0901 12:40:39.856545 40287 net.cpp:148] Top shape: 10 2048 7 7 (1003520)
I0901 12:40:39.856561 40287 net.cpp:156] Memory required for data: 2282004680
I0901 12:40:39.856575 40287 layer_factory.hpp:77] Creating layer res5b_res5b_relu_0_split
I0901 12:40:39.856592 40287 net.cpp:91] Creating Layer res5b_res5b_relu_0_split
I0901 12:40:39.856608 40287 net.cpp:425] res5b_res5b_relu_0_split <- res5b
I0901 12:40:39.856626 40287 net.cpp:399] res5b_res5b_relu_0_split -> res5b_res5b_relu_0_split_0
I0901 12:40:39.856642 40287 net.cpp:399] res5b_res5b_relu_0_split -> res5b_res5b_relu_0_split_1
I0901 12:40:39.856699 40287 net.cpp:141] Setting up res5b_res5b_relu_0_split
I0901 12:40:39.856721 40287 net.cpp:148] Top shape: 10 2048 7 7 (1003520)
I0901 12:40:39.856737 40287 net.cpp:148] Top shape: 10 2048 7 7 (1003520)
I0901 12:40:39.856750 40287 net.cpp:156] Memory required for data: 2290032840
I0901 12:40:39.856766 40287 layer_factory.hpp:77] Creating layer res5c_branch2a
I0901 12:40:39.856789 40287 net.cpp:91] Creating Layer res5c_branch2a
I0901 12:40:39.856808 40287 net.cpp:425] res5c_branch2a <- res5b_res5b_relu_0_split_0
I0901 12:40:39.856832 40287 net.cpp:399] res5c_branch2a -> res5c_branch2a
I0901 12:40:39.867003 40287 net.cpp:141] Setting up res5c_branch2a
I0901 12:40:39.867033 40287 net.cpp:148] Top shape: 10 512 7 7 (250880)
I0901 12:40:39.867067 40287 net.cpp:156] Memory required for data: 2291036360
I0901 12:40:39.867085 40287 layer_factory.hpp:77] Creating layer bn5c_branch2a
I0901 12:40:39.867105 40287 net.cpp:91] Creating Layer bn5c_branch2a
I0901 12:40:39.867120 40287 net.cpp:425] bn5c_branch2a <- res5c_branch2a
I0901 12:40:39.867135 40287 net.cpp:386] bn5c_branch2a -> res5c_branch2a (in-place)
I0901 12:40:39.867372 40287 net.cpp:141] Setting up bn5c_branch2a
I0901 12:40:39.867395 40287 net.cpp:148] Top shape: 10 512 7 7 (250880)
I0901 12:40:39.867409 40287 net.cpp:156] Memory required for data: 2292039880
I0901 12:40:39.867429 40287 layer_factory.hpp:77] Creating layer scale5c_branch2a
I0901 12:40:39.867450 40287 net.cpp:91] Creating Layer scale5c_branch2a
I0901 12:40:39.867465 40287 net.cpp:425] scale5c_branch2a <- res5c_branch2a
I0901 12:40:39.867481 40287 net.cpp:386] scale5c_branch2a -> res5c_branch2a (in-place)
I0901 12:40:39.867547 40287 layer_factory.hpp:77] Creating layer scale5c_branch2a
I0901 12:40:39.867707 40287 net.cpp:141] Setting up scale5c_branch2a
I0901 12:40:39.867732 40287 net.cpp:148] Top shape: 10 512 7 7 (250880)
I0901 12:40:39.867744 40287 net.cpp:156] Memory required for data: 2293043400
I0901 12:40:39.867763 40287 layer_factory.hpp:77] Creating layer res5c_branch2a_relu
I0901 12:40:39.867782 40287 net.cpp:91] Creating Layer res5c_branch2a_relu
I0901 12:40:39.867797 40287 net.cpp:425] res5c_branch2a_relu <- res5c_branch2a
I0901 12:40:39.867812 40287 net.cpp:386] res5c_branch2a_relu -> res5c_branch2a (in-place)
I0901 12:40:39.867830 40287 net.cpp:141] Setting up res5c_branch2a_relu
I0901 12:40:39.867846 40287 net.cpp:148] Top shape: 10 512 7 7 (250880)
I0901 12:40:39.867859 40287 net.cpp:156] Memory required for data: 2294046920
I0901 12:40:39.867872 40287 layer_factory.hpp:77] Creating layer res5c_branch2b
I0901 12:40:39.867895 40287 net.cpp:91] Creating Layer res5c_branch2b
I0901 12:40:39.867910 40287 net.cpp:425] res5c_branch2b <- res5c_branch2a
I0901 12:40:39.867928 40287 net.cpp:399] res5c_branch2b -> res5c_branch2b
I0901 12:40:39.890405 40287 net.cpp:141] Setting up res5c_branch2b
I0901 12:40:39.890442 40287 net.cpp:148] Top shape: 10 512 7 7 (250880)
I0901 12:40:39.890465 40287 net.cpp:156] Memory required for data: 2295050440
I0901 12:40:39.890481 40287 layer_factory.hpp:77] Creating layer bn5c_branch2b
I0901 12:40:39.890503 40287 net.cpp:91] Creating Layer bn5c_branch2b
I0901 12:40:39.890519 40287 net.cpp:425] bn5c_branch2b <- res5c_branch2b
I0901 12:40:39.890535 40287 net.cpp:386] bn5c_branch2b -> res5c_branch2b (in-place)
I0901 12:40:39.890792 40287 net.cpp:141] Setting up bn5c_branch2b
I0901 12:40:39.890816 40287 net.cpp:148] Top shape: 10 512 7 7 (250880)
I0901 12:40:39.890830 40287 net.cpp:156] Memory required for data: 2296053960
I0901 12:40:39.890849 40287 layer_factory.hpp:77] Creating layer scale5c_branch2b
I0901 12:40:39.890871 40287 net.cpp:91] Creating Layer scale5c_branch2b
I0901 12:40:39.890885 40287 net.cpp:425] scale5c_branch2b <- res5c_branch2b
I0901 12:40:39.890902 40287 net.cpp:386] scale5c_branch2b -> res5c_branch2b (in-place)
I0901 12:40:39.890964 40287 layer_factory.hpp:77] Creating layer scale5c_branch2b
I0901 12:40:39.891125 40287 net.cpp:141] Setting up scale5c_branch2b
I0901 12:40:39.891149 40287 net.cpp:148] Top shape: 10 512 7 7 (250880)
I0901 12:40:39.891163 40287 net.cpp:156] Memory required for data: 2297057480
I0901 12:40:39.891180 40287 layer_factory.hpp:77] Creating layer res5c_branch2b_relu
I0901 12:40:39.891197 40287 net.cpp:91] Creating Layer res5c_branch2b_relu
I0901 12:40:39.891212 40287 net.cpp:425] res5c_branch2b_relu <- res5c_branch2b
I0901 12:40:39.891232 40287 net.cpp:386] res5c_branch2b_relu -> res5c_branch2b (in-place)
I0901 12:40:39.891250 40287 net.cpp:141] Setting up res5c_branch2b_relu
I0901 12:40:39.891268 40287 net.cpp:148] Top shape: 10 512 7 7 (250880)
I0901 12:40:39.891281 40287 net.cpp:156] Memory required for data: 2298061000
I0901 12:40:39.891294 40287 layer_factory.hpp:77] Creating layer res5c_branch2c
I0901 12:40:39.891316 40287 net.cpp:91] Creating Layer res5c_branch2c
I0901 12:40:39.891351 40287 net.cpp:425] res5c_branch2c <- res5c_branch2b
I0901 12:40:39.891371 40287 net.cpp:399] res5c_branch2c -> res5c_branch2c
I0901 12:40:39.901563 40287 net.cpp:141] Setting up res5c_branch2c
I0901 12:40:39.901592 40287 net.cpp:148] Top shape: 10 2048 7 7 (1003520)
I0901 12:40:39.901613 40287 net.cpp:156] Memory required for data: 2302075080
I0901 12:40:39.901629 40287 layer_factory.hpp:77] Creating layer bn5c_branch2c
I0901 12:40:39.901650 40287 net.cpp:91] Creating Layer bn5c_branch2c
I0901 12:40:39.901665 40287 net.cpp:425] bn5c_branch2c <- res5c_branch2c
I0901 12:40:39.901684 40287 net.cpp:386] bn5c_branch2c -> res5c_branch2c (in-place)
I0901 12:40:39.902510 40287 net.cpp:141] Setting up bn5c_branch2c
I0901 12:40:39.902537 40287 net.cpp:148] Top shape: 10 2048 7 7 (1003520)
I0901 12:40:39.902559 40287 net.cpp:156] Memory required for data: 2306089160
I0901 12:40:39.902578 40287 layer_factory.hpp:77] Creating layer scale5c_branch2c
I0901 12:40:39.902600 40287 net.cpp:91] Creating Layer scale5c_branch2c
I0901 12:40:39.902616 40287 net.cpp:425] scale5c_branch2c <- res5c_branch2c
I0901 12:40:39.902631 40287 net.cpp:386] scale5c_branch2c -> res5c_branch2c (in-place)
I0901 12:40:39.903270 40287 layer_factory.hpp:77] Creating layer scale5c_branch2c
I0901 12:40:39.903429 40287 net.cpp:141] Setting up scale5c_branch2c
I0901 12:40:39.903453 40287 net.cpp:148] Top shape: 10 2048 7 7 (1003520)
I0901 12:40:39.903467 40287 net.cpp:156] Memory required for data: 2310103240
I0901 12:40:39.903486 40287 layer_factory.hpp:77] Creating layer res5c
I0901 12:40:39.903504 40287 net.cpp:91] Creating Layer res5c
I0901 12:40:39.903520 40287 net.cpp:425] res5c <- res5b_res5b_relu_0_split_1
I0901 12:40:39.903535 40287 net.cpp:425] res5c <- res5c_branch2c
I0901 12:40:39.903554 40287 net.cpp:399] res5c -> res5c
I0901 12:40:39.903595 40287 net.cpp:141] Setting up res5c
I0901 12:40:39.903619 40287 net.cpp:148] Top shape: 10 2048 7 7 (1003520)
I0901 12:40:39.903632 40287 net.cpp:156] Memory required for data: 2314117320
I0901 12:40:39.903645 40287 layer_factory.hpp:77] Creating layer res5c_relu
I0901 12:40:39.903669 40287 net.cpp:91] Creating Layer res5c_relu
I0901 12:40:39.903683 40287 net.cpp:425] res5c_relu <- res5c
I0901 12:40:39.903702 40287 net.cpp:386] res5c_relu -> res5c (in-place)
I0901 12:40:39.903719 40287 net.cpp:141] Setting up res5c_relu
I0901 12:40:39.903735 40287 net.cpp:148] Top shape: 10 2048 7 7 (1003520)
I0901 12:40:39.903749 40287 net.cpp:156] Memory required for data: 2318131400
I0901 12:40:39.903766 40287 layer_factory.hpp:77] Creating layer pool5
I0901 12:40:39.903784 40287 net.cpp:91] Creating Layer pool5
I0901 12:40:39.903802 40287 net.cpp:425] pool5 <- res5c
I0901 12:40:39.903821 40287 net.cpp:399] pool5 -> pool5
I0901 12:40:39.903864 40287 net.cpp:141] Setting up pool5
I0901 12:40:39.903887 40287 net.cpp:148] Top shape: 10 2048 1 1 (20480)
I0901 12:40:39.903900 40287 net.cpp:156] Memory required for data: 2318213320
I0901 12:40:39.903914 40287 layer_factory.hpp:77] Creating layer pool5_pool5_0_split
I0901 12:40:39.903936 40287 net.cpp:91] Creating Layer pool5_pool5_0_split
I0901 12:40:39.903950 40287 net.cpp:425] pool5_pool5_0_split <- pool5
I0901 12:40:39.903969 40287 net.cpp:399] pool5_pool5_0_split -> pool5_pool5_0_split_0
I0901 12:40:39.903986 40287 net.cpp:399] pool5_pool5_0_split -> pool5_pool5_0_split_1
I0901 12:40:39.904039 40287 net.cpp:141] Setting up pool5_pool5_0_split
I0901 12:40:39.904062 40287 net.cpp:148] Top shape: 10 2048 1 1 (20480)
I0901 12:40:39.904076 40287 net.cpp:148] Top shape: 10 2048 1 1 (20480)
I0901 12:40:39.904090 40287 net.cpp:156] Memory required for data: 2318377160
I0901 12:40:39.904106 40287 layer_factory.hpp:77] Creating layer fc_hash48
I0901 12:40:39.904125 40287 net.cpp:91] Creating Layer fc_hash48
I0901 12:40:39.904141 40287 net.cpp:425] fc_hash48 <- pool5_pool5_0_split_0
I0901 12:40:39.904158 40287 net.cpp:399] fc_hash48 -> fc_hash48
I0901 12:40:39.907732 40287 net.cpp:141] Setting up fc_hash48
I0901 12:40:39.907757 40287 net.cpp:148] Top shape: 10 48 (480)
I0901 12:40:39.907789 40287 net.cpp:156] Memory required for data: 2318379080
I0901 12:40:39.907809 40287 layer_factory.hpp:77] Creating layer fc_classification
I0901 12:40:39.907830 40287 net.cpp:91] Creating Layer fc_classification
I0901 12:40:39.907845 40287 net.cpp:425] fc_classification <- pool5_pool5_0_split_1
I0901 12:40:39.907863 40287 net.cpp:399] fc_classification -> fc_classification
I0901 12:40:39.910382 40287 net.cpp:141] Setting up fc_classification
I0901 12:40:39.910409 40287 net.cpp:148] Top shape: 10 25 (250)
I0901 12:40:39.910428 40287 net.cpp:156] Memory required for data: 2318380080
I0901 12:40:39.910446 40287 layer_factory.hpp:77] Creating layer fc_classification_fc_classification_0_split
I0901 12:40:39.910465 40287 net.cpp:91] Creating Layer fc_classification_fc_classification_0_split
I0901 12:40:39.910478 40287 net.cpp:425] fc_classification_fc_classification_0_split <- fc_classification
I0901 12:40:39.910501 40287 net.cpp:399] fc_classification_fc_classification_0_split -> fc_classification_fc_classification_0_split_0
I0901 12:40:39.910521 40287 net.cpp:399] fc_classification_fc_classification_0_split -> fc_classification_fc_classification_0_split_1
I0901 12:40:39.910542 40287 net.cpp:399] fc_classification_fc_classification_0_split -> fc_classification_fc_classification_0_split_2
I0901 12:40:39.910614 40287 net.cpp:141] Setting up fc_classification_fc_classification_0_split
I0901 12:40:39.910637 40287 net.cpp:148] Top shape: 10 25 (250)
I0901 12:40:39.910653 40287 net.cpp:148] Top shape: 10 25 (250)
I0901 12:40:39.910667 40287 net.cpp:148] Top shape: 10 25 (250)
I0901 12:40:39.910683 40287 net.cpp:156] Memory required for data: 2318383080
I0901 12:40:39.910696 40287 layer_factory.hpp:77] Creating layer loss_hash48
I0901 12:40:39.910714 40287 net.cpp:91] Creating Layer loss_hash48
I0901 12:40:39.910728 40287 net.cpp:425] loss_hash48 <- fc_hash48
I0901 12:40:39.910744 40287 net.cpp:425] loss_hash48 <- label_data_1_split_0
I0901 12:40:39.910766 40287 net.cpp:399] loss_hash48 -> loss_hash48
…
