…
I0818 13:44:27.487900 37078 net.cpp:313] The NetState phase (0) differed from the phase (1) specified by a rule in layer data
I0818 13:44:27.488348 37078 net.cpp:49] Initializing net from parameters: 
name: "docomo_VGG16"
state {
  phase: TRAIN
}
layer {
  name: "data"
  type: "Data"
  top: "data"
  top: "label"
  include {
    phase: TRAIN
  }
  transform_param {
    mirror: true
    crop_size: 224
    mean_value: 103.939
    mean_value: 116.779
    mean_value: 123.68
  }
  data_param {
    source: "FASHION/fashion_train_lmdb/"
    batch_size: 10
    backend: LMDB
  }
}
layer {
  name: "conv1_1"
  type: "Convolution"
  bottom: "data"
  top: "conv1_1"
  param {
    lr_mult: 1
    decay_mult: 1
  }
  param {
    lr_mult: 2
    decay_mult: 0
  }
  convolution_param {
    num_output: 64
    pad: 1
    kernel_size: 3
    weight_filler {
      type: "gaussian"
      std: 0.01
    }
    bias_filler {
      type: "constant"
      value: 0
    }
  }
}
layer {
  name: "relu1_1"
  type: "ReLU"
  bottom: "conv1_1"
  top: "conv1_1"
}
layer {
  name: "conv1_2"
  type: "Convolution"
  bottom: "conv1_1"
  top: "conv1_2"
  param {
    lr_mult: 1
    decay_mult: 1
  }
  param {
    lr_mult: 2
    decay_mult: 0
  }
  convolution_param {
    num_output: 64
    pad: 1
    kernel_size: 3
    weight_filler {
      type: "gaussian"
      std: 0.01
    }
    bias_filler {
      type: "constant"
      value: 0
    }
  }
}
layer {
  name: "relu1_2"
  type: "ReLU"
  bottom: "conv1_2"
  top: "conv1_2"
}
layer {
  name: "pool1"
  type: "Pooling"
  bottom: "conv1_2"
  top: "pool1"
  pooling_param {
    pool: MAX
    kernel_size: 2
    stride: 2
  }
}
layer {
  name: "conv2_1"
  type: "Convolution"
  bottom: "pool1"
  top: "conv2_1"
  param {
    lr_mult: 1
    decay_mult: 1
  }
  param {
    lr_mult: 2
    decay_mult: 0
  }
  convolution_param {
    num_output: 128
    pad: 1
    kernel_size: 3
    weight_filler {
      type: "gaussian"
      std: 0.01
    }
    bias_filler {
      type: "constant"
      value: 0
    }
  }
}
layer {
  name: "relu2_1"
  type: "ReLU"
  bottom: "conv2_1"
  top: "conv2_1"
}
layer {
  name: "conv2_2"
  type: "Convolution"
  bottom: "conv2_1"
  top: "conv2_2"
  param {
    lr_mult: 1
    decay_mult: 1
  }
  param {
    lr_mult: 2
    decay_mult: 0
  }
  convolution_param {
    num_output: 128
    pad: 1
    kernel_size: 3
    weight_filler {
      type: "gaussian"
      std: 0.01
    }
    bias_filler {
      type: "constant"
      value: 0
    }
  }
}
layer {
  name: "relu2_2"
  type: "ReLU"
  bottom: "conv2_2"
  top: "conv2_2"
}
layer {
  name: "pool2"
  type: "Pooling"
  bottom: "conv2_2"
  top: "pool2"
  pooling_param {
    pool: MAX
    kernel_size: 2
    stride: 2
  }
}
layer {
  name: "conv3_1"
  type: "Convolution"
  bottom: "pool2"
  top: "conv3_1"
  param {
    lr_mult: 1
    decay_mult: 1
  }
  param {
    lr_mult: 2
    decay_mult: 0
  }
  convolution_param {
    num_output: 256
    pad: 1
    kernel_size: 3
    weight_filler {
      type: "gaussian"
      std: 0.01
    }
    bias_filler {
      type: "constant"
      value: 0
    }
  }
}
layer {
  name: "relu3_1"
  type: "ReLU"
  bottom: "conv3_1"
  top: "conv3_1"
}
layer {
  name: "conv3_2"
  type: "Convolution"
  bottom: "conv3_1"
  top: "conv3_2"
  param {
    lr_mult: 1
    decay_mult: 1
  }
  param {
    lr_mult: 2
    decay_mult: 0
  }
  convolution_param {
    num_output: 256
    pad: 1
    kernel_size: 3
    weight_filler {
      type: "gaussian"
      std: 0.01
    }
    bias_filler {
      type: "constant"
      value: 0
    }
  }
}
layer {
  name: "relu3_2"
  type: "ReLU"
  bottom: "conv3_2"
  top: "conv3_2"
}
layer {
  name: "conv3_3"
  type: "Convolution"
  bottom: "conv3_2"
  top: "conv3_3"
  param {
    lr_mult: 1
    decay_mult: 1
  }
  param {
    lr_mult: 2
    decay_mult: 0
  }
  convolution_param {
    num_output: 256
    pad: 1
    kernel_size: 3
    weight_filler {
      type: "gaussian"
      std: 0.01
    }
    bias_filler {
      type: "constant"
      value: 0
    }
  }
}
layer {
  name: "relu3_3"
  type: "ReLU"
  bottom: "conv3_3"
  top: "conv3_3"
}
layer {
  name: "pool3"
  type: "Pooling"
  bottom: "conv3_3"
  top: "pool3"
  pooling_param {
    pool: MAX
    kernel_size: 2
    stride: 2
  }
}
layer {
  name: "conv4_1"
  type: "Convolution"
  bottom: "pool3"
  top: "conv4_1"
  param {
    lr_mult: 1
    decay_mult: 1
  }
  param {
    lr_mult: 2
    decay_mult: 0
  }
  convolution_param {
    num_output: 512
    pad: 1
    kernel_size: 3
    weight_filler {
      type: "gaussian"
      std: 0.01
    }
    bias_filler {
      type: "constant"
      value: 0
    }
  }
}
layer {
  name: "relu4_1"
  type: "ReLU"
  bottom: "conv4_1"
  top: "conv4_1"
}
layer {
  name: "conv4_2"
  type: "Convolution"
  bottom: "conv4_1"
  top: "conv4_2"
  param {
    lr_mult: 1
    decay_mult: 1
  }
  param {
    lr_mult: 2
    decay_mult: 0
  }
  convolution_param {
    num_output: 512
    pad: 1
    kernel_size: 3
    weight_filler {
      type: "gaussian"
      std: 0.01
    }
    bias_filler {
      type: "constant"
      value: 0
    }
  }
}
layer {
  name: "relu4_2"
  type: "ReLU"
  bottom: "conv4_2"
  top: "conv4_2"
}
layer {
  name: "conv4_3"
  type: "Convolution"
  bottom: "conv4_2"
  top: "conv4_3"
  param {
    lr_mult: 1
    decay_mult: 1
  }
  param {
    lr_mult: 2
    decay_mult: 0
  }
  convolution_param {
    num_output: 512
    pad: 1
    kernel_size: 3
    weight_filler {
      type: "gaussian"
      std: 0.01
    }
    bias_filler {
      type: "constant"
      value: 0
    }
  }
}
layer {
  name: "relu4_3"
  type: "ReLU"
  bottom: "conv4_3"
  top: "conv4_3"
}
layer {
  name: "pool4"
  type: "Pooling"
  bottom: "conv4_3"
  top: "pool4"
  pooling_param {
    pool: MAX
    kernel_size: 2
    stride: 2
  }
}
layer {
  name: "conv5_1"
  type: "Convolution"
  bottom: "pool4"
  top: "conv5_1"
  param {
    lr_mult: 1
    decay_mult: 1
  }
  param {
    lr_mult: 2
    decay_mult: 0
  }
  convolution_param {
    num_output: 512
    pad: 1
    kernel_size: 3
    weight_filler {
      type: "gaussian"
      std: 0.01
    }
    bias_filler {
      type: "constant"
      value: 0
    }
  }
}
layer {
  name: "relu5_1"
  type: "ReLU"
  bottom: "conv5_1"
  top: "conv5_1"
}
layer {
  name: "conv5_2"
  type: "Convolution"
  bottom: "conv5_1"
  top: "conv5_2"
  param {
    lr_mult: 1
    decay_mult: 1
  }
  param {
    lr_mult: 2
    decay_mult: 0
  }
  convolution_param {
    num_output: 512
    pad: 1
    kernel_size: 3
    weight_filler {
      type: "gaussian"
      std: 0.01
    }
    bias_filler {
      type: "constant"
      value: 0
    }
  }
}
layer {
  name: "relu5_2"
  type: "ReLU"
  bottom: "conv5_2"
  top: "conv5_2"
}
layer {
  name: "conv5_3"
  type: "Convolution"
  bottom: "conv5_2"
  top: "conv5_3"
  param {
    lr_mult: 1
    decay_mult: 1
  }
  param {
    lr_mult: 2
    decay_mult: 0
  }
  convolution_param {
    num_output: 512
    pad: 1
    kernel_size: 3
    weight_filler {
      type: "gaussian"
      std: 0.01
    }
    bias_filler {
      type: "constant"
      value: 0
    }
  }
}
layer {
  name: "relu5_3"
  type: "ReLU"
  bottom: "conv5_3"
  top: "conv5_3"
}
layer {
  name: "pool5"
  type: "Pooling"
  bottom: "conv5_3"
  top: "pool5"
  pooling_param {
    pool: MAX
    kernel_size: 2
    stride: 2
  }
}
layer {
  name: "fc6"
  type: "InnerProduct"
  bottom: "pool5"
  top: "fc6"
  param {
    lr_mult: 1
    decay_mult: 1
  }
  param {
    lr_mult: 2
    decay_mult: 0
  }
  inner_product_param {
    num_output: 4096
    weight_filler {
      type: "gaussian"
      std: 0.005
    }
    bias_filler {
      type: "constant"
      value: 0.1
    }
  }
}
layer {
  name: "relu6"
  type: "ReLU"
  bottom: "fc6"
  top: "fc6"
}
layer {
  name: "drop6"
  type: "Dropout"
  bottom: "fc6"
  top: "fc6"
  dropout_param {
    dropout_ratio: 0.5
  }
}
layer {
  name: "fc7"
  type: "InnerProduct"
  bottom: "fc6"
  top: "fc7"
  param {
    lr_mult: 1
    decay_mult: 1
  }
  param {
    lr_mult: 2
    decay_mult: 0
  }
  inner_product_param {
    num_output: 4096
    weight_filler {
      type: "gaussian"
      std: 0.005
    }
    bias_filler {
      type: "constant"
      value: 0.1
    }
  }
}
layer {
  name: "relu7"
  type: "ReLU"
  bottom: "fc7"
  top: "fc7"
}
layer {
  name: "drop7"
  type: "Dropout"
  bottom: "fc7"
  top: "fc7"
  dropout_param {
    dropout_ratio: 0.5
  }
}
layer {
  name: "fc8_binary_f24"
  type: "InnerProduct"
  bottom: "fc7"
  top: "fc8_binary_f24"
  param {
    lr_mult: 10
    decay_mult: 1
  }
  param {
    lr_mult: 20
    decay_mult: 0
  }
  inner_product_param {
    num_output: 24
    weight_filler {
      type: "gaussian"
      std: 0.005
    }
    bias_filler {
      type: "constant"
      value: 0.1
    }
  }
}
layer {
  name: "loss_hashing"
  type: "HashingLoss"
  bottom: "fc8_binary_f24"
  bottom: "label"
  top: "loss_hashing"
  hashing_loss_param {
    bi_margin: 48
    tradeoff: 0.01
  }
}
I0818 13:44:27.490811 37078 layer_factory.hpp:77] Creating layer data
I0818 13:44:27.491909 37078 net.cpp:91] Creating Layer data
I0818 13:44:27.491997 37078 net.cpp:399] data -> data
I0818 13:44:27.492108 37078 net.cpp:399] data -> label
I0818 13:44:27.493106 37084 db_lmdb.cpp:38] Opened lmdb FASHION/fashion_train_lmdb/
I0818 13:44:27.509377 37078 data_layer.cpp:41] output data size: 10,3,224,224
I0818 13:44:27.522143 37078 net.cpp:141] Setting up data
I0818 13:44:27.522227 37078 net.cpp:148] Top shape: 10 3 224 224 (1505280)
I0818 13:44:27.522248 37078 net.cpp:148] Top shape: 10 1 1 1 (10)
I0818 13:44:27.522264 37078 net.cpp:156] Memory required for data: 6021160
I0818 13:44:27.522289 37078 layer_factory.hpp:77] Creating layer conv1_1
I0818 13:44:27.522338 37078 net.cpp:91] Creating Layer conv1_1
I0818 13:44:27.522366 37078 net.cpp:425] conv1_1 <- data
I0818 13:44:27.522402 37078 net.cpp:399] conv1_1 -> conv1_1
I0818 13:44:27.524909 37078 net.cpp:141] Setting up conv1_1
I0818 13:44:27.524950 37078 net.cpp:148] Top shape: 10 64 224 224 (32112640)
I0818 13:44:27.524976 37078 net.cpp:156] Memory required for data: 134471720
I0818 13:44:27.525012 37078 layer_factory.hpp:77] Creating layer relu1_1
I0818 13:44:27.525041 37078 net.cpp:91] Creating Layer relu1_1
I0818 13:44:27.525059 37078 net.cpp:425] relu1_1 <- conv1_1
I0818 13:44:27.525079 37078 net.cpp:386] relu1_1 -> conv1_1 (in-place)
I0818 13:44:27.525104 37078 net.cpp:141] Setting up relu1_1
I0818 13:44:27.525125 37078 net.cpp:148] Top shape: 10 64 224 224 (32112640)
I0818 13:44:27.525141 37078 net.cpp:156] Memory required for data: 262922280
I0818 13:44:27.525156 37078 layer_factory.hpp:77] Creating layer conv1_2
I0818 13:44:27.525184 37078 net.cpp:91] Creating Layer conv1_2
I0818 13:44:27.525200 37078 net.cpp:425] conv1_2 <- conv1_1
I0818 13:44:27.525224 37078 net.cpp:399] conv1_2 -> conv1_2
I0818 13:44:27.526876 37078 net.cpp:141] Setting up conv1_2
I0818 13:44:27.526904 37078 net.cpp:148] Top shape: 10 64 224 224 (32112640)
I0818 13:44:27.526926 37078 net.cpp:156] Memory required for data: 391372840
I0818 13:44:27.526962 37078 layer_factory.hpp:77] Creating layer relu1_2
I0818 13:44:27.526985 37078 net.cpp:91] Creating Layer relu1_2
I0818 13:44:27.527001 37078 net.cpp:425] relu1_2 <- conv1_2
I0818 13:44:27.527017 37078 net.cpp:386] relu1_2 -> conv1_2 (in-place)
I0818 13:44:27.527036 37078 net.cpp:141] Setting up relu1_2
I0818 13:44:27.527057 37078 net.cpp:148] Top shape: 10 64 224 224 (32112640)
I0818 13:44:27.527072 37078 net.cpp:156] Memory required for data: 519823400
I0818 13:44:27.527086 37078 layer_factory.hpp:77] Creating layer pool1
I0818 13:44:27.527104 37078 net.cpp:91] Creating Layer pool1
I0818 13:44:27.527149 37078 net.cpp:425] pool1 <- conv1_2
I0818 13:44:27.527173 37078 net.cpp:399] pool1 -> pool1
I0818 13:44:27.527249 37078 net.cpp:141] Setting up pool1
I0818 13:44:27.527276 37078 net.cpp:148] Top shape: 10 64 112 112 (8028160)
I0818 13:44:27.527292 37078 net.cpp:156] Memory required for data: 551936040
I0818 13:44:27.527307 37078 layer_factory.hpp:77] Creating layer conv2_1
I0818 13:44:27.527335 37078 net.cpp:91] Creating Layer conv2_1
I0818 13:44:27.527354 37078 net.cpp:425] conv2_1 <- pool1
I0818 13:44:27.527372 37078 net.cpp:399] conv2_1 -> conv2_1
I0818 13:44:27.531766 37078 net.cpp:141] Setting up conv2_1
I0818 13:44:27.531802 37078 net.cpp:148] Top shape: 10 128 112 112 (16056320)
I0818 13:44:27.531818 37078 net.cpp:156] Memory required for data: 616161320
I0818 13:44:27.531842 37078 layer_factory.hpp:77] Creating layer relu2_1
I0818 13:44:27.531864 37078 net.cpp:91] Creating Layer relu2_1
I0818 13:44:27.531883 37078 net.cpp:425] relu2_1 <- conv2_1
I0818 13:44:27.531899 37078 net.cpp:386] relu2_1 -> conv2_1 (in-place)
I0818 13:44:27.531919 37078 net.cpp:141] Setting up relu2_1
I0818 13:44:27.531936 37078 net.cpp:148] Top shape: 10 128 112 112 (16056320)
I0818 13:44:27.531951 37078 net.cpp:156] Memory required for data: 680386600
I0818 13:44:27.531967 37078 layer_factory.hpp:77] Creating layer conv2_2
I0818 13:44:27.531993 37078 net.cpp:91] Creating Layer conv2_2
I0818 13:44:27.532013 37078 net.cpp:425] conv2_2 <- conv2_1
I0818 13:44:27.532035 37078 net.cpp:399] conv2_2 -> conv2_2
I0818 13:44:27.537797 37078 net.cpp:141] Setting up conv2_2
I0818 13:44:27.537827 37078 net.cpp:148] Top shape: 10 128 112 112 (16056320)
I0818 13:44:27.537844 37078 net.cpp:156] Memory required for data: 744611880
I0818 13:44:27.537863 37078 layer_factory.hpp:77] Creating layer relu2_2
I0818 13:44:27.537883 37078 net.cpp:91] Creating Layer relu2_2
I0818 13:44:27.537897 37078 net.cpp:425] relu2_2 <- conv2_2
I0818 13:44:27.537916 37078 net.cpp:386] relu2_2 -> conv2_2 (in-place)
I0818 13:44:27.537935 37078 net.cpp:141] Setting up relu2_2
I0818 13:44:27.537951 37078 net.cpp:148] Top shape: 10 128 112 112 (16056320)
I0818 13:44:27.537971 37078 net.cpp:156] Memory required for data: 808837160
I0818 13:44:27.537988 37078 layer_factory.hpp:77] Creating layer pool2
I0818 13:44:27.538009 37078 net.cpp:91] Creating Layer pool2
I0818 13:44:27.538024 37078 net.cpp:425] pool2 <- conv2_2
I0818 13:44:27.538046 37078 net.cpp:399] pool2 -> pool2
I0818 13:44:27.538105 37078 net.cpp:141] Setting up pool2
I0818 13:44:27.538127 37078 net.cpp:148] Top shape: 10 128 56 56 (4014080)
I0818 13:44:27.538143 37078 net.cpp:156] Memory required for data: 824893480
I0818 13:44:27.538158 37078 layer_factory.hpp:77] Creating layer conv3_1
I0818 13:44:27.538190 37078 net.cpp:91] Creating Layer conv3_1
I0818 13:44:27.538209 37078 net.cpp:425] conv3_1 <- pool2
I0818 13:44:27.538228 37078 net.cpp:399] conv3_1 -> conv3_1
I0818 13:44:27.550254 37078 net.cpp:141] Setting up conv3_1
I0818 13:44:27.550299 37078 net.cpp:148] Top shape: 10 256 56 56 (8028160)
I0818 13:44:27.550315 37078 net.cpp:156] Memory required for data: 857006120
I0818 13:44:27.550341 37078 layer_factory.hpp:77] Creating layer relu3_1
I0818 13:44:27.550360 37078 net.cpp:91] Creating Layer relu3_1
I0818 13:44:27.550375 37078 net.cpp:425] relu3_1 <- conv3_1
I0818 13:44:27.550391 37078 net.cpp:386] relu3_1 -> conv3_1 (in-place)
I0818 13:44:27.550410 37078 net.cpp:141] Setting up relu3_1
I0818 13:44:27.550427 37078 net.cpp:148] Top shape: 10 256 56 56 (8028160)
I0818 13:44:27.550441 37078 net.cpp:156] Memory required for data: 889118760
I0818 13:44:27.550454 37078 layer_factory.hpp:77] Creating layer conv3_2
I0818 13:44:27.550477 37078 net.cpp:91] Creating Layer conv3_2
I0818 13:44:27.550498 37078 net.cpp:425] conv3_2 <- conv3_1
I0818 13:44:27.550518 37078 net.cpp:399] conv3_2 -> conv3_2
I0818 13:44:27.573386 37078 net.cpp:141] Setting up conv3_2
I0818 13:44:27.573415 37078 net.cpp:148] Top shape: 10 256 56 56 (8028160)
I0818 13:44:27.573433 37078 net.cpp:156] Memory required for data: 921231400
I0818 13:44:27.573485 37078 layer_factory.hpp:77] Creating layer relu3_2
I0818 13:44:27.573508 37078 net.cpp:91] Creating Layer relu3_2
I0818 13:44:27.573525 37078 net.cpp:425] relu3_2 <- conv3_2
I0818 13:44:27.573544 37078 net.cpp:386] relu3_2 -> conv3_2 (in-place)
I0818 13:44:27.573563 37078 net.cpp:141] Setting up relu3_2
I0818 13:44:27.573585 37078 net.cpp:148] Top shape: 10 256 56 56 (8028160)
I0818 13:44:27.573601 37078 net.cpp:156] Memory required for data: 953344040
I0818 13:44:27.573613 37078 layer_factory.hpp:77] Creating layer conv3_3
I0818 13:44:27.573637 37078 net.cpp:91] Creating Layer conv3_3
I0818 13:44:27.573657 37078 net.cpp:425] conv3_3 <- conv3_2
I0818 13:44:27.573676 37078 net.cpp:399] conv3_3 -> conv3_3
I0818 13:44:27.596693 37078 net.cpp:141] Setting up conv3_3
I0818 13:44:27.596722 37078 net.cpp:148] Top shape: 10 256 56 56 (8028160)
I0818 13:44:27.596738 37078 net.cpp:156] Memory required for data: 985456680
I0818 13:44:27.596760 37078 layer_factory.hpp:77] Creating layer relu3_3
I0818 13:44:27.596781 37078 net.cpp:91] Creating Layer relu3_3
I0818 13:44:27.596796 37078 net.cpp:425] relu3_3 <- conv3_3
I0818 13:44:27.596817 37078 net.cpp:386] relu3_3 -> conv3_3 (in-place)
I0818 13:44:27.596839 37078 net.cpp:141] Setting up relu3_3
I0818 13:44:27.596856 37078 net.cpp:148] Top shape: 10 256 56 56 (8028160)
I0818 13:44:27.596873 37078 net.cpp:156] Memory required for data: 1017569320
I0818 13:44:27.596887 37078 layer_factory.hpp:77] Creating layer pool3
I0818 13:44:27.596909 37078 net.cpp:91] Creating Layer pool3
I0818 13:44:27.596927 37078 net.cpp:425] pool3 <- conv3_3
I0818 13:44:27.596957 37078 net.cpp:399] pool3 -> pool3
I0818 13:44:27.597021 37078 net.cpp:141] Setting up pool3
I0818 13:44:27.597045 37078 net.cpp:148] Top shape: 10 256 28 28 (2007040)
I0818 13:44:27.597059 37078 net.cpp:156] Memory required for data: 1025597480
I0818 13:44:27.597074 37078 layer_factory.hpp:77] Creating layer conv4_1
I0818 13:44:27.597097 37078 net.cpp:91] Creating Layer conv4_1
I0818 13:44:27.597116 37078 net.cpp:425] conv4_1 <- pool3
I0818 13:44:27.597137 37078 net.cpp:399] conv4_1 -> conv4_1
I0818 13:44:27.643440 37078 net.cpp:141] Setting up conv4_1
I0818 13:44:27.643478 37078 net.cpp:148] Top shape: 10 512 28 28 (4014080)
I0818 13:44:27.643496 37078 net.cpp:156] Memory required for data: 1041653800
I0818 13:44:27.643513 37078 layer_factory.hpp:77] Creating layer relu4_1
I0818 13:44:27.643532 37078 net.cpp:91] Creating Layer relu4_1
I0818 13:44:27.643548 37078 net.cpp:425] relu4_1 <- conv4_1
I0818 13:44:27.643563 37078 net.cpp:386] relu4_1 -> conv4_1 (in-place)
I0818 13:44:27.643581 37078 net.cpp:141] Setting up relu4_1
I0818 13:44:27.643597 37078 net.cpp:148] Top shape: 10 512 28 28 (4014080)
I0818 13:44:27.643617 37078 net.cpp:156] Memory required for data: 1057710120
I0818 13:44:27.643630 37078 layer_factory.hpp:77] Creating layer conv4_2
I0818 13:44:27.643654 37078 net.cpp:91] Creating Layer conv4_2
I0818 13:44:27.643669 37078 net.cpp:425] conv4_2 <- conv4_1
I0818 13:44:27.643689 37078 net.cpp:399] conv4_2 -> conv4_2
I0818 13:44:27.736017 37078 net.cpp:141] Setting up conv4_2
I0818 13:44:27.736064 37078 net.cpp:148] Top shape: 10 512 28 28 (4014080)
I0818 13:44:27.736081 37078 net.cpp:156] Memory required for data: 1073766440
I0818 13:44:27.736114 37078 layer_factory.hpp:77] Creating layer relu4_2
I0818 13:44:27.736137 37078 net.cpp:91] Creating Layer relu4_2
I0818 13:44:27.736153 37078 net.cpp:425] relu4_2 <- conv4_2
I0818 13:44:27.736171 37078 net.cpp:386] relu4_2 -> conv4_2 (in-place)
I0818 13:44:27.736192 37078 net.cpp:141] Setting up relu4_2
I0818 13:44:27.736209 37078 net.cpp:148] Top shape: 10 512 28 28 (4014080)
I0818 13:44:27.736223 37078 net.cpp:156] Memory required for data: 1089822760
I0818 13:44:27.736238 37078 layer_factory.hpp:77] Creating layer conv4_3
I0818 13:44:27.736263 37078 net.cpp:91] Creating Layer conv4_3
I0818 13:44:27.736277 37078 net.cpp:425] conv4_3 <- conv4_2
I0818 13:44:27.736299 37078 net.cpp:399] conv4_3 -> conv4_3
I0818 13:44:27.829810 37078 net.cpp:141] Setting up conv4_3
I0818 13:44:27.829896 37078 net.cpp:148] Top shape: 10 512 28 28 (4014080)
I0818 13:44:27.829915 37078 net.cpp:156] Memory required for data: 1105879080
I0818 13:44:27.829937 37078 layer_factory.hpp:77] Creating layer relu4_3
I0818 13:44:27.829959 37078 net.cpp:91] Creating Layer relu4_3
I0818 13:44:27.829975 37078 net.cpp:425] relu4_3 <- conv4_3
I0818 13:44:27.829998 37078 net.cpp:386] relu4_3 -> conv4_3 (in-place)
I0818 13:44:27.830019 37078 net.cpp:141] Setting up relu4_3
I0818 13:44:27.830036 37078 net.cpp:148] Top shape: 10 512 28 28 (4014080)
I0818 13:44:27.830051 37078 net.cpp:156] Memory required for data: 1121935400
I0818 13:44:27.830065 37078 layer_factory.hpp:77] Creating layer pool4
I0818 13:44:27.830085 37078 net.cpp:91] Creating Layer pool4
I0818 13:44:27.830098 37078 net.cpp:425] pool4 <- conv4_3
I0818 13:44:27.830116 37078 net.cpp:399] pool4 -> pool4
I0818 13:44:27.830179 37078 net.cpp:141] Setting up pool4
I0818 13:44:27.830200 37078 net.cpp:148] Top shape: 10 512 14 14 (1003520)
I0818 13:44:27.830215 37078 net.cpp:156] Memory required for data: 1125949480
I0818 13:44:27.830229 37078 layer_factory.hpp:77] Creating layer conv5_1
I0818 13:44:27.830265 37078 net.cpp:91] Creating Layer conv5_1
I0818 13:44:27.830281 37078 net.cpp:425] conv5_1 <- pool4
I0818 13:44:27.830302 37078 net.cpp:399] conv5_1 -> conv5_1
I0818 13:44:27.923815 37078 net.cpp:141] Setting up conv5_1
I0818 13:44:27.923861 37078 net.cpp:148] Top shape: 10 512 14 14 (1003520)
I0818 13:44:27.923878 37078 net.cpp:156] Memory required for data: 1129963560
I0818 13:44:27.923899 37078 layer_factory.hpp:77] Creating layer relu5_1
I0818 13:44:27.923921 37078 net.cpp:91] Creating Layer relu5_1
I0818 13:44:27.923938 37078 net.cpp:425] relu5_1 <- conv5_1
I0818 13:44:27.923954 37078 net.cpp:386] relu5_1 -> conv5_1 (in-place)
I0818 13:44:27.923975 37078 net.cpp:141] Setting up relu5_1
I0818 13:44:27.923993 37078 net.cpp:148] Top shape: 10 512 14 14 (1003520)
I0818 13:44:27.924007 37078 net.cpp:156] Memory required for data: 1133977640
I0818 13:44:27.924021 37078 layer_factory.hpp:77] Creating layer conv5_2
I0818 13:44:27.924046 37078 net.cpp:91] Creating Layer conv5_2
I0818 13:44:27.924062 37078 net.cpp:425] conv5_2 <- conv5_1
I0818 13:44:27.924083 37078 net.cpp:399] conv5_2 -> conv5_2
I0818 13:44:28.017669 37078 net.cpp:141] Setting up conv5_2
I0818 13:44:28.017724 37078 net.cpp:148] Top shape: 10 512 14 14 (1003520)
I0818 13:44:28.017740 37078 net.cpp:156] Memory required for data: 1137991720
I0818 13:44:28.017762 37078 layer_factory.hpp:77] Creating layer relu5_2
I0818 13:44:28.017789 37078 net.cpp:91] Creating Layer relu5_2
I0818 13:44:28.017805 37078 net.cpp:425] relu5_2 <- conv5_2
I0818 13:44:28.017823 37078 net.cpp:386] relu5_2 -> conv5_2 (in-place)
I0818 13:44:28.017845 37078 net.cpp:141] Setting up relu5_2
I0818 13:44:28.017863 37078 net.cpp:148] Top shape: 10 512 14 14 (1003520)
I0818 13:44:28.017877 37078 net.cpp:156] Memory required for data: 1142005800
I0818 13:44:28.017890 37078 layer_factory.hpp:77] Creating layer conv5_3
I0818 13:44:28.017916 37078 net.cpp:91] Creating Layer conv5_3
I0818 13:44:28.017932 37078 net.cpp:425] conv5_3 <- conv5_2
I0818 13:44:28.017954 37078 net.cpp:399] conv5_3 -> conv5_3
I0818 13:44:28.111665 37078 net.cpp:141] Setting up conv5_3
I0818 13:44:28.111714 37078 net.cpp:148] Top shape: 10 512 14 14 (1003520)
I0818 13:44:28.111732 37078 net.cpp:156] Memory required for data: 1146019880
I0818 13:44:28.111752 37078 layer_factory.hpp:77] Creating layer relu5_3
I0818 13:44:28.111776 37078 net.cpp:91] Creating Layer relu5_3
I0818 13:44:28.111791 37078 net.cpp:425] relu5_3 <- conv5_3
I0818 13:44:28.111809 37078 net.cpp:386] relu5_3 -> conv5_3 (in-place)
I0818 13:44:28.111830 37078 net.cpp:141] Setting up relu5_3
I0818 13:44:28.111855 37078 net.cpp:148] Top shape: 10 512 14 14 (1003520)
I0818 13:44:28.111868 37078 net.cpp:156] Memory required for data: 1150033960
I0818 13:44:28.111882 37078 layer_factory.hpp:77] Creating layer pool5
I0818 13:44:28.111904 37078 net.cpp:91] Creating Layer pool5
I0818 13:44:28.111956 37078 net.cpp:425] pool5 <- conv5_3
I0818 13:44:28.111976 37078 net.cpp:399] pool5 -> pool5
I0818 13:44:28.112046 37078 net.cpp:141] Setting up pool5
I0818 13:44:28.112068 37078 net.cpp:148] Top shape: 10 512 7 7 (250880)
I0818 13:44:28.112082 37078 net.cpp:156] Memory required for data: 1151037480
I0818 13:44:28.112097 37078 layer_factory.hpp:77] Creating layer fc6
I0818 13:44:28.112135 37078 net.cpp:91] Creating Layer fc6
I0818 13:44:28.112154 37078 net.cpp:425] fc6 <- pool5
I0818 13:44:28.112174 37078 net.cpp:399] fc6 -> fc6
I0818 13:44:32.029053 37078 net.cpp:141] Setting up fc6
I0818 13:44:32.029136 37078 net.cpp:148] Top shape: 10 4096 (40960)
I0818 13:44:32.029155 37078 net.cpp:156] Memory required for data: 1151201320
I0818 13:44:32.029187 37078 layer_factory.hpp:77] Creating layer relu6
I0818 13:44:32.029220 37078 net.cpp:91] Creating Layer relu6
I0818 13:44:32.029243 37078 net.cpp:425] relu6 <- fc6
I0818 13:44:32.029264 37078 net.cpp:386] relu6 -> fc6 (in-place)
I0818 13:44:32.029289 37078 net.cpp:141] Setting up relu6
I0818 13:44:32.029309 37078 net.cpp:148] Top shape: 10 4096 (40960)
I0818 13:44:32.029323 37078 net.cpp:156] Memory required for data: 1151365160
I0818 13:44:32.029340 37078 layer_factory.hpp:77] Creating layer drop6
I0818 13:44:32.029367 37078 net.cpp:91] Creating Layer drop6
I0818 13:44:32.029384 37078 net.cpp:425] drop6 <- fc6
I0818 13:44:32.029402 37078 net.cpp:386] drop6 -> fc6 (in-place)
I0818 13:44:32.029476 37078 net.cpp:141] Setting up drop6
I0818 13:44:32.029500 37078 net.cpp:148] Top shape: 10 4096 (40960)
I0818 13:44:32.029515 37078 net.cpp:156] Memory required for data: 1151529000
I0818 13:44:32.029530 37078 layer_factory.hpp:77] Creating layer fc7
I0818 13:44:32.029551 37078 net.cpp:91] Creating Layer fc7
I0818 13:44:32.029572 37078 net.cpp:425] fc7 <- fc6
I0818 13:44:32.029594 37078 net.cpp:399] fc7 -> fc7
I0818 13:44:32.666193 37078 net.cpp:141] Setting up fc7
I0818 13:44:32.666265 37078 net.cpp:148] Top shape: 10 4096 (40960)
I0818 13:44:32.666283 37078 net.cpp:156] Memory required for data: 1151692840
I0818 13:44:32.666311 37078 layer_factory.hpp:77] Creating layer relu7
I0818 13:44:32.666337 37078 net.cpp:91] Creating Layer relu7
I0818 13:44:32.666354 37078 net.cpp:425] relu7 <- fc7
I0818 13:44:32.666378 37078 net.cpp:386] relu7 -> fc7 (in-place)
I0818 13:44:32.666402 37078 net.cpp:141] Setting up relu7
I0818 13:44:32.666422 37078 net.cpp:148] Top shape: 10 4096 (40960)
I0818 13:44:32.666436 37078 net.cpp:156] Memory required for data: 1151856680
I0818 13:44:32.666451 37078 layer_factory.hpp:77] Creating layer drop7
I0818 13:44:32.666471 37078 net.cpp:91] Creating Layer drop7
I0818 13:44:32.666486 37078 net.cpp:425] drop7 <- fc7
I0818 13:44:32.666501 37078 net.cpp:386] drop7 -> fc7 (in-place)
I0818 13:44:32.666548 37078 net.cpp:141] Setting up drop7
I0818 13:44:32.666574 37078 net.cpp:148] Top shape: 10 4096 (40960)
I0818 13:44:32.666589 37078 net.cpp:156] Memory required for data: 1152020520
I0818 13:44:32.666604 37078 layer_factory.hpp:77] Creating layer fc8_binary_f24
I0818 13:44:32.666630 37078 net.cpp:91] Creating Layer fc8_binary_f24
I0818 13:44:32.666646 37078 net.cpp:425] fc8_binary_f24 <- fc7
I0818 13:44:32.666676 37078 net.cpp:399] fc8_binary_f24 -> fc8_binary_f24
I0818 13:44:32.671128 37078 net.cpp:141] Setting up fc8_binary_f24
I0818 13:44:32.671165 37078 net.cpp:148] Top shape: 10 24 (240)
I0818 13:44:32.671181 37078 net.cpp:156] Memory required for data: 1152021480
I0818 13:44:32.671200 37078 layer_factory.hpp:77] Creating layer loss_hashing
I0818 13:44:32.671228 37078 net.cpp:91] Creating Layer loss_hashing
I0818 13:44:32.671244 37078 net.cpp:425] loss_hashing <- fc8_binary_f24
I0818 13:44:32.671259 37078 net.cpp:425] loss_hashing <- label
I0818 13:44:32.671288 37078 net.cpp:399] loss_hashing -> loss_hashing
…
