…
I0817 11:52:51.116502 20821 net.cpp:313] The NetState phase (0) differed from the phase (1) specified by a rule in layer data
I0817 11:52:51.117328 20821 net.cpp:49] Initializing net from parameters: 
name: "docomo_VGG16"
state {
  phase: TRAIN
}
layer {
  name: "data"
  type: "Data"
  top: "data"
  top: "label"
  include {
    phase: TRAIN
  }
  transform_param {
    mirror: true
    crop_size: 224
    mean_value: 103.939
    mean_value: 116.779
    mean_value: 123.68
  }
  data_param {
    source: "FASHION/fashion_train_lmdb/"
    batch_size: 10
    backend: LMDB
  }
}
layer {
  name: "conv1_1"
  type: "Convolution"
  bottom: "data"
  top: "conv1_1"
  param {
    lr_mult: 1
    decay_mult: 1
  }
  param {
    lr_mult: 2
    decay_mult: 0
  }
  convolution_param {
    num_output: 64
    pad: 1
    kernel_size: 3
    weight_filler {
      type: "gaussian"
      std: 0.01
    }
    bias_filler {
      type: "constant"
      value: 0
    }
  }
}
layer {
  name: "relu1_1"
  type: "ReLU"
  bottom: "conv1_1"
  top: "conv1_1"
}
layer {
  name: "conv1_2"
  type: "Convolution"
  bottom: "conv1_1"
  top: "conv1_2"
  param {
    lr_mult: 1
    decay_mult: 1
  }
  param {
    lr_mult: 2
    decay_mult: 0
  }
  convolution_param {
    num_output: 64
    pad: 1
    kernel_size: 3
    weight_filler {
      type: "gaussian"
      std: 0.01
    }
    bias_filler {
      type: "constant"
      value: 0
    }
  }
}
layer {
  name: "relu1_2"
  type: "ReLU"
  bottom: "conv1_2"
  top: "conv1_2"
}
layer {
  name: "pool1"
  type: "Pooling"
  bottom: "conv1_2"
  top: "pool1"
  pooling_param {
    pool: MAX
    kernel_size: 2
    stride: 2
  }
}
layer {
  name: "conv2_1"
  type: "Convolution"
  bottom: "pool1"
  top: "conv2_1"
  param {
    lr_mult: 1
    decay_mult: 1
  }
  param {
    lr_mult: 2
    decay_mult: 0
  }
  convolution_param {
    num_output: 128
    pad: 1
    kernel_size: 3
    weight_filler {
      type: "gaussian"
      std: 0.01
    }
    bias_filler {
      type: "constant"
      value: 0
    }
  }
}
layer {
  name: "relu2_1"
  type: "ReLU"
  bottom: "conv2_1"
  top: "conv2_1"
}
layer {
  name: "conv2_2"
  type: "Convolution"
  bottom: "conv2_1"
  top: "conv2_2"
  param {
    lr_mult: 1
    decay_mult: 1
  }
  param {
    lr_mult: 2
    decay_mult: 0
  }
  convolution_param {
    num_output: 128
    pad: 1
    kernel_size: 3
    weight_filler {
      type: "gaussian"
      std: 0.01
    }
    bias_filler {
      type: "constant"
      value: 0
    }
  }
}
layer {
  name: "relu2_2"
  type: "ReLU"
  bottom: "conv2_2"
  top: "conv2_2"
}
layer {
  name: "pool2"
  type: "Pooling"
  bottom: "conv2_2"
  top: "pool2"
  pooling_param {
    pool: MAX
    kernel_size: 2
    stride: 2
  }
}
layer {
  name: "conv3_1"
  type: "Convolution"
  bottom: "pool2"
  top: "conv3_1"
  param {
    lr_mult: 1
    decay_mult: 1
  }
  param {
    lr_mult: 2
    decay_mult: 0
  }
  convolution_param {
    num_output: 256
    pad: 1
    kernel_size: 3
    weight_filler {
      type: "gaussian"
      std: 0.01
    }
    bias_filler {
      type: "constant"
      value: 0
    }
  }
}
layer {
  name: "relu3_1"
  type: "ReLU"
  bottom: "conv3_1"
  top: "conv3_1"
}
layer {
  name: "conv3_2"
  type: "Convolution"
  bottom: "conv3_1"
  top: "conv3_2"
  param {
    lr_mult: 1
    decay_mult: 1
  }
  param {
    lr_mult: 2
    decay_mult: 0
  }
  convolution_param {
    num_output: 256
    pad: 1
    kernel_size: 3
    weight_filler {
      type: "gaussian"
      std: 0.01
    }
    bias_filler {
      type: "constant"
      value: 0
    }
  }
}
layer {
  name: "relu3_2"
  type: "ReLU"
  bottom: "conv3_2"
  top: "conv3_2"
}
layer {
  name: "conv3_3"
  type: "Convolution"
  bottom: "conv3_2"
  top: "conv3_3"
  param {
    lr_mult: 1
    decay_mult: 1
  }
  param {
    lr_mult: 2
    decay_mult: 0
  }
  convolution_param {
    num_output: 256
    pad: 1
    kernel_size: 3
    weight_filler {
      type: "gaussian"
      std: 0.01
    }
    bias_filler {
      type: "constant"
      value: 0
    }
  }
}
layer {
  name: "relu3_3"
  type: "ReLU"
  bottom: "conv3_3"
  top: "conv3_3"
}
layer {
  name: "pool3"
  type: "Pooling"
  bottom: "conv3_3"
  top: "pool3"
  pooling_param {
    pool: MAX
    kernel_size: 2
    stride: 2
  }
}
layer {
  name: "conv4_1"
  type: "Convolution"
  bottom: "pool3"
  top: "conv4_1"
  param {
    lr_mult: 1
    decay_mult: 1
  }
  param {
    lr_mult: 2
    decay_mult: 0
  }
  convolution_param {
    num_output: 512
    pad: 1
    kernel_size: 3
    weight_filler {
      type: "gaussian"
      std: 0.01
    }
    bias_filler {
      type: "constant"
      value: 0
    }
  }
}
layer {
  name: "relu4_1"
  type: "ReLU"
  bottom: "conv4_1"
  top: "conv4_1"
}
layer {
  name: "conv4_2"
  type: "Convolution"
  bottom: "conv4_1"
  top: "conv4_2"
  param {
    lr_mult: 1
    decay_mult: 1
  }
  param {
    lr_mult: 2
    decay_mult: 0
  }
  convolution_param {
    num_output: 512
    pad: 1
    kernel_size: 3
    weight_filler {
      type: "gaussian"
      std: 0.01
    }
    bias_filler {
      type: "constant"
      value: 0
    }
  }
}
layer {
  name: "relu4_2"
  type: "ReLU"
  bottom: "conv4_2"
  top: "conv4_2"
}
layer {
  name: "conv4_3"
  type: "Convolution"
  bottom: "conv4_2"
  top: "conv4_3"
  param {
    lr_mult: 1
    decay_mult: 1
  }
  param {
    lr_mult: 2
    decay_mult: 0
  }
  convolution_param {
    num_output: 512
    pad: 1
    kernel_size: 3
    weight_filler {
      type: "gaussian"
      std: 0.01
    }
    bias_filler {
      type: "constant"
      value: 0
    }
  }
}
layer {
  name: "relu4_3"
  type: "ReLU"
  bottom: "conv4_3"
  top: "conv4_3"
}
layer {
  name: "pool4"
  type: "Pooling"
  bottom: "conv4_3"
  top: "pool4"
  pooling_param {
    pool: MAX
    kernel_size: 2
    stride: 2
  }
}
layer {
  name: "conv5_1"
  type: "Convolution"
  bottom: "pool4"
  top: "conv5_1"
  param {
    lr_mult: 1
    decay_mult: 1
  }
  param {
    lr_mult: 2
    decay_mult: 0
  }
  convolution_param {
    num_output: 512
    pad: 1
    kernel_size: 3
    weight_filler {
      type: "gaussian"
      std: 0.01
    }
    bias_filler {
      type: "constant"
      value: 0
    }
  }
}
layer {
  name: "relu5_1"
  type: "ReLU"
  bottom: "conv5_1"
  top: "conv5_1"
}
layer {
  name: "conv5_2"
  type: "Convolution"
  bottom: "conv5_1"
  top: "conv5_2"
  param {
    lr_mult: 1
    decay_mult: 1
  }
  param {
    lr_mult: 2
    decay_mult: 0
  }
  convolution_param {
    num_output: 512
    pad: 1
    kernel_size: 3
    weight_filler {
      type: "gaussian"
      std: 0.01
    }
    bias_filler {
      type: "constant"
      value: 0
    }
  }
}
layer {
  name: "relu5_2"
  type: "ReLU"
  bottom: "conv5_2"
  top: "conv5_2"
}
layer {
  name: "conv5_3"
  type: "Convolution"
  bottom: "conv5_2"
  top: "conv5_3"
  param {
    lr_mult: 1
    decay_mult: 1
  }
  param {
    lr_mult: 2
    decay_mult: 0
  }
  convolution_param {
    num_output: 512
    pad: 1
    kernel_size: 3
    weight_filler {
      type: "gaussian"
      std: 0.01
    }
    bias_filler {
      type: "constant"
      value: 0
    }
  }
}
layer {
  name: "relu5_3"
  type: "ReLU"
  bottom: "conv5_3"
  top: "conv5_3"
}
layer {
  name: "pool5"
  type: "Pooling"
  bottom: "conv5_3"
  top: "pool5"
  pooling_param {
    pool: MAX
    kernel_size: 2
    stride: 2
  }
}
layer {
  name: "fc6"
  type: "InnerProduct"
  bottom: "pool5"
  top: "fc6"
  param {
    lr_mult: 1
    decay_mult: 1
  }
  param {
    lr_mult: 2
    decay_mult: 0
  }
  inner_product_param {
    num_output: 4096
    weight_filler {
      type: "gaussian"
      std: 0.005
    }
    bias_filler {
      type: "constant"
      value: 0.1
    }
  }
}
layer {
  name: "relu6"
  type: "ReLU"
  bottom: "fc6"
  top: "fc6"
}
layer {
  name: "drop6"
  type: "Dropout"
  bottom: "fc6"
  top: "fc6"
  dropout_param {
    dropout_ratio: 0.5
  }
}
layer {
  name: "fc7"
  type: "InnerProduct"
  bottom: "fc6"
  top: "fc7"
  param {
    lr_mult: 1
    decay_mult: 1
  }
  param {
    lr_mult: 2
    decay_mult: 0
  }
  inner_product_param {
    num_output: 4096
    weight_filler {
      type: "gaussian"
      std: 0.005
    }
    bias_filler {
      type: "constant"
      value: 0.1
    }
  }
}
layer {
  name: "relu7"
  type: "ReLU"
  bottom: "fc7"
  top: "fc7"
}
layer {
  name: "drop7"
  type: "Dropout"
  bottom: "fc7"
  top: "fc7"
  dropout_param {
    dropout_ratio: 0.5
  }
}
layer {
  name: "fc8_binary_f12"
  type: "InnerProduct"
  bottom: "fc7"
  top: "fc8_binary_f12"
  param {
    lr_mult: 10
    decay_mult: 1
  }
  param {
    lr_mult: 20
    decay_mult: 0
  }
  inner_product_param {
    num_output: 12
    weight_filler {
      type: "gaussian"
      std: 0.005
    }
    bias_filler {
      type: "constant"
      value: 0.1
    }
  }
}
layer {
  name: "loss_hashing"
  type: "HashingLoss"
  bottom: "fc8_binary_f12"
  bottom: "label"
  top: "loss_hashing"
  hashing_loss_param {
    bi_margin: 24
    tradeoff: 0.01
  }
}
I0817 11:52:51.123088 20821 layer_factory.hpp:77] Creating layer data
I0817 11:52:51.124279 20821 net.cpp:91] Creating Layer data
I0817 11:52:51.124346 20821 net.cpp:399] data -> data
I0817 11:52:51.124445 20821 net.cpp:399] data -> label
I0817 11:52:51.154026 20826 db_lmdb.cpp:38] Opened lmdb FASHION/fashion_train_lmdb/
I0817 11:52:51.171505 20821 data_layer.cpp:41] output data size: 10,3,224,224
I0817 11:52:51.185411 20821 net.cpp:141] Setting up data
I0817 11:52:51.185503 20821 net.cpp:148] Top shape: 10 3 224 224 (1505280)
I0817 11:52:51.185531 20821 net.cpp:148] Top shape: 10 1 1 1 (10)
I0817 11:52:51.185547 20821 net.cpp:156] Memory required for data: 6021160
I0817 11:52:51.185573 20821 layer_factory.hpp:77] Creating layer conv1_1
I0817 11:52:51.185632 20821 net.cpp:91] Creating Layer conv1_1
I0817 11:52:51.185658 20821 net.cpp:425] conv1_1 <- data
I0817 11:52:51.185696 20821 net.cpp:399] conv1_1 -> conv1_1
I0817 11:52:51.188076 20821 net.cpp:141] Setting up conv1_1
I0817 11:52:51.188108 20821 net.cpp:148] Top shape: 10 64 224 224 (32112640)
I0817 11:52:51.188125 20821 net.cpp:156] Memory required for data: 134471720
I0817 11:52:51.188159 20821 layer_factory.hpp:77] Creating layer relu1_1
I0817 11:52:51.188184 20821 net.cpp:91] Creating Layer relu1_1
I0817 11:52:51.188200 20821 net.cpp:425] relu1_1 <- conv1_1
I0817 11:52:51.188216 20821 net.cpp:386] relu1_1 -> conv1_1 (in-place)
I0817 11:52:51.188241 20821 net.cpp:141] Setting up relu1_1
I0817 11:52:51.188261 20821 net.cpp:148] Top shape: 10 64 224 224 (32112640)
I0817 11:52:51.188277 20821 net.cpp:156] Memory required for data: 262922280
I0817 11:52:51.188290 20821 layer_factory.hpp:77] Creating layer conv1_2
I0817 11:52:51.188318 20821 net.cpp:91] Creating Layer conv1_2
I0817 11:52:51.188334 20821 net.cpp:425] conv1_2 <- conv1_1
I0817 11:52:51.188352 20821 net.cpp:399] conv1_2 -> conv1_2
I0817 11:52:51.190011 20821 net.cpp:141] Setting up conv1_2
I0817 11:52:51.190038 20821 net.cpp:148] Top shape: 10 64 224 224 (32112640)
I0817 11:52:51.190054 20821 net.cpp:156] Memory required for data: 391372840
I0817 11:52:51.190075 20821 layer_factory.hpp:77] Creating layer relu1_2
I0817 11:52:51.190095 20821 net.cpp:91] Creating Layer relu1_2
I0817 11:52:51.190109 20821 net.cpp:425] relu1_2 <- conv1_2
I0817 11:52:51.190129 20821 net.cpp:386] relu1_2 -> conv1_2 (in-place)
I0817 11:52:51.190148 20821 net.cpp:141] Setting up relu1_2
I0817 11:52:51.190165 20821 net.cpp:148] Top shape: 10 64 224 224 (32112640)
I0817 11:52:51.190179 20821 net.cpp:156] Memory required for data: 519823400
I0817 11:52:51.190194 20821 layer_factory.hpp:77] Creating layer pool1
I0817 11:52:51.190214 20821 net.cpp:91] Creating Layer pool1
I0817 11:52:51.190271 20821 net.cpp:425] pool1 <- conv1_2
I0817 11:52:51.190290 20821 net.cpp:399] pool1 -> pool1
I0817 11:52:51.190387 20821 net.cpp:141] Setting up pool1
I0817 11:52:51.190413 20821 net.cpp:148] Top shape: 10 64 112 112 (8028160)
I0817 11:52:51.190429 20821 net.cpp:156] Memory required for data: 551936040
I0817 11:52:51.190443 20821 layer_factory.hpp:77] Creating layer conv2_1
I0817 11:52:51.190469 20821 net.cpp:91] Creating Layer conv2_1
I0817 11:52:51.190486 20821 net.cpp:425] conv2_1 <- pool1
I0817 11:52:51.190508 20821 net.cpp:399] conv2_1 -> conv2_1
I0817 11:52:51.194921 20821 net.cpp:141] Setting up conv2_1
I0817 11:52:51.194953 20821 net.cpp:148] Top shape: 10 128 112 112 (16056320)
I0817 11:52:51.194968 20821 net.cpp:156] Memory required for data: 616161320
I0817 11:52:51.194991 20821 layer_factory.hpp:77] Creating layer relu2_1
I0817 11:52:51.195010 20821 net.cpp:91] Creating Layer relu2_1
I0817 11:52:51.195025 20821 net.cpp:425] relu2_1 <- conv2_1
I0817 11:52:51.195045 20821 net.cpp:386] relu2_1 -> conv2_1 (in-place)
I0817 11:52:51.195065 20821 net.cpp:141] Setting up relu2_1
I0817 11:52:51.195082 20821 net.cpp:148] Top shape: 10 128 112 112 (16056320)
I0817 11:52:51.195096 20821 net.cpp:156] Memory required for data: 680386600
I0817 11:52:51.195111 20821 layer_factory.hpp:77] Creating layer conv2_2
I0817 11:52:51.195137 20821 net.cpp:91] Creating Layer conv2_2
I0817 11:52:51.195158 20821 net.cpp:425] conv2_2 <- conv2_1
I0817 11:52:51.195176 20821 net.cpp:399] conv2_2 -> conv2_2
I0817 11:52:51.200943 20821 net.cpp:141] Setting up conv2_2
I0817 11:52:51.200974 20821 net.cpp:148] Top shape: 10 128 112 112 (16056320)
I0817 11:52:51.200989 20821 net.cpp:156] Memory required for data: 744611880
I0817 11:52:51.201007 20821 layer_factory.hpp:77] Creating layer relu2_2
I0817 11:52:51.201025 20821 net.cpp:91] Creating Layer relu2_2
I0817 11:52:51.201040 20821 net.cpp:425] relu2_2 <- conv2_2
I0817 11:52:51.201059 20821 net.cpp:386] relu2_2 -> conv2_2 (in-place)
I0817 11:52:51.201078 20821 net.cpp:141] Setting up relu2_2
I0817 11:52:51.201095 20821 net.cpp:148] Top shape: 10 128 112 112 (16056320)
I0817 11:52:51.201109 20821 net.cpp:156] Memory required for data: 808837160
I0817 11:52:51.201123 20821 layer_factory.hpp:77] Creating layer pool2
I0817 11:52:51.201141 20821 net.cpp:91] Creating Layer pool2
I0817 11:52:51.201156 20821 net.cpp:425] pool2 <- conv2_2
I0817 11:52:51.201172 20821 net.cpp:399] pool2 -> pool2
I0817 11:52:51.201231 20821 net.cpp:141] Setting up pool2
I0817 11:52:51.201256 20821 net.cpp:148] Top shape: 10 128 56 56 (4014080)
I0817 11:52:51.201270 20821 net.cpp:156] Memory required for data: 824893480
I0817 11:52:51.201284 20821 layer_factory.hpp:77] Creating layer conv3_1
I0817 11:52:51.201308 20821 net.cpp:91] Creating Layer conv3_1
I0817 11:52:51.201323 20821 net.cpp:425] conv3_1 <- pool2
I0817 11:52:51.201345 20821 net.cpp:399] conv3_1 -> conv3_1
I0817 11:52:51.213392 20821 net.cpp:141] Setting up conv3_1
I0817 11:52:51.213439 20821 net.cpp:148] Top shape: 10 256 56 56 (8028160)
I0817 11:52:51.213455 20821 net.cpp:156] Memory required for data: 857006120
I0817 11:52:51.213485 20821 layer_factory.hpp:77] Creating layer relu3_1
I0817 11:52:51.213506 20821 net.cpp:91] Creating Layer relu3_1
I0817 11:52:51.213522 20821 net.cpp:425] relu3_1 <- conv3_1
I0817 11:52:51.213539 20821 net.cpp:386] relu3_1 -> conv3_1 (in-place)
I0817 11:52:51.213562 20821 net.cpp:141] Setting up relu3_1
I0817 11:52:51.213578 20821 net.cpp:148] Top shape: 10 256 56 56 (8028160)
I0817 11:52:51.213593 20821 net.cpp:156] Memory required for data: 889118760
I0817 11:52:51.213606 20821 layer_factory.hpp:77] Creating layer conv3_2
I0817 11:52:51.213632 20821 net.cpp:91] Creating Layer conv3_2
I0817 11:52:51.213647 20821 net.cpp:425] conv3_2 <- conv3_1
I0817 11:52:51.213668 20821 net.cpp:399] conv3_2 -> conv3_2
I0817 11:52:51.236578 20821 net.cpp:141] Setting up conv3_2
I0817 11:52:51.236629 20821 net.cpp:148] Top shape: 10 256 56 56 (8028160)
I0817 11:52:51.236645 20821 net.cpp:156] Memory required for data: 921231400
I0817 11:52:51.236701 20821 layer_factory.hpp:77] Creating layer relu3_2
I0817 11:52:51.236732 20821 net.cpp:91] Creating Layer relu3_2
I0817 11:52:51.236747 20821 net.cpp:425] relu3_2 <- conv3_2
I0817 11:52:51.236763 20821 net.cpp:386] relu3_2 -> conv3_2 (in-place)
I0817 11:52:51.236785 20821 net.cpp:141] Setting up relu3_2
I0817 11:52:51.236802 20821 net.cpp:148] Top shape: 10 256 56 56 (8028160)
I0817 11:52:51.236816 20821 net.cpp:156] Memory required for data: 953344040
I0817 11:52:51.236830 20821 layer_factory.hpp:77] Creating layer conv3_3
I0817 11:52:51.236851 20821 net.cpp:91] Creating Layer conv3_3
I0817 11:52:51.236866 20821 net.cpp:425] conv3_3 <- conv3_2
I0817 11:52:51.236887 20821 net.cpp:399] conv3_3 -> conv3_3
I0817 11:52:51.259665 20821 net.cpp:141] Setting up conv3_3
I0817 11:52:51.259709 20821 net.cpp:148] Top shape: 10 256 56 56 (8028160)
I0817 11:52:51.259726 20821 net.cpp:156] Memory required for data: 985456680
I0817 11:52:51.259744 20821 layer_factory.hpp:77] Creating layer relu3_3
I0817 11:52:51.259768 20821 net.cpp:91] Creating Layer relu3_3
I0817 11:52:51.259784 20821 net.cpp:425] relu3_3 <- conv3_3
I0817 11:52:51.259800 20821 net.cpp:386] relu3_3 -> conv3_3 (in-place)
I0817 11:52:51.259819 20821 net.cpp:141] Setting up relu3_3
I0817 11:52:51.259836 20821 net.cpp:148] Top shape: 10 256 56 56 (8028160)
I0817 11:52:51.259850 20821 net.cpp:156] Memory required for data: 1017569320
I0817 11:52:51.259865 20821 layer_factory.hpp:77] Creating layer pool3
I0817 11:52:51.259887 20821 net.cpp:91] Creating Layer pool3
I0817 11:52:51.259902 20821 net.cpp:425] pool3 <- conv3_3
I0817 11:52:51.259919 20821 net.cpp:399] pool3 -> pool3
I0817 11:52:51.259979 20821 net.cpp:141] Setting up pool3
I0817 11:52:51.260004 20821 net.cpp:148] Top shape: 10 256 28 28 (2007040)
I0817 11:52:51.260018 20821 net.cpp:156] Memory required for data: 1025597480
I0817 11:52:51.260032 20821 layer_factory.hpp:77] Creating layer conv4_1
I0817 11:52:51.260057 20821 net.cpp:91] Creating Layer conv4_1
I0817 11:52:51.260073 20821 net.cpp:425] conv4_1 <- pool3
I0817 11:52:51.260092 20821 net.cpp:399] conv4_1 -> conv4_1
I0817 11:52:51.305523 20821 net.cpp:141] Setting up conv4_1
I0817 11:52:51.305570 20821 net.cpp:148] Top shape: 10 512 28 28 (4014080)
I0817 11:52:51.305586 20821 net.cpp:156] Memory required for data: 1041653800
I0817 11:52:51.305606 20821 layer_factory.hpp:77] Creating layer relu4_1
I0817 11:52:51.305624 20821 net.cpp:91] Creating Layer relu4_1
I0817 11:52:51.305639 20821 net.cpp:425] relu4_1 <- conv4_1
I0817 11:52:51.305658 20821 net.cpp:386] relu4_1 -> conv4_1 (in-place)
I0817 11:52:51.305678 20821 net.cpp:141] Setting up relu4_1
I0817 11:52:51.305694 20821 net.cpp:148] Top shape: 10 512 28 28 (4014080)
I0817 11:52:51.305709 20821 net.cpp:156] Memory required for data: 1057710120
I0817 11:52:51.305723 20821 layer_factory.hpp:77] Creating layer conv4_2
I0817 11:52:51.305744 20821 net.cpp:91] Creating Layer conv4_2
I0817 11:52:51.305758 20821 net.cpp:425] conv4_2 <- conv4_1
I0817 11:52:51.305779 20821 net.cpp:399] conv4_2 -> conv4_2
I0817 11:52:51.447458 20821 net.cpp:141] Setting up conv4_2
I0817 11:52:51.447537 20821 net.cpp:148] Top shape: 10 512 28 28 (4014080)
I0817 11:52:51.447571 20821 net.cpp:156] Memory required for data: 1073766440
I0817 11:52:51.447619 20821 layer_factory.hpp:77] Creating layer relu4_2
I0817 11:52:51.447667 20821 net.cpp:91] Creating Layer relu4_2
I0817 11:52:51.447700 20821 net.cpp:425] relu4_2 <- conv4_2
I0817 11:52:51.447734 20821 net.cpp:386] relu4_2 -> conv4_2 (in-place)
I0817 11:52:51.447774 20821 net.cpp:141] Setting up relu4_2
I0817 11:52:51.447808 20821 net.cpp:148] Top shape: 10 512 28 28 (4014080)
I0817 11:52:51.447835 20821 net.cpp:156] Memory required for data: 1089822760
I0817 11:52:51.447863 20821 layer_factory.hpp:77] Creating layer conv4_3
I0817 11:52:51.447911 20821 net.cpp:91] Creating Layer conv4_3
I0817 11:52:51.447942 20821 net.cpp:425] conv4_3 <- conv4_2
I0817 11:52:51.447978 20821 net.cpp:399] conv4_3 -> conv4_3
I0817 11:52:51.632015 20821 net.cpp:141] Setting up conv4_3
I0817 11:52:51.632148 20821 net.cpp:148] Top shape: 10 512 28 28 (4014080)
I0817 11:52:51.632184 20821 net.cpp:156] Memory required for data: 1105879080
I0817 11:52:51.632223 20821 layer_factory.hpp:77] Creating layer relu4_3
I0817 11:52:51.632269 20821 net.cpp:91] Creating Layer relu4_3
I0817 11:52:51.632302 20821 net.cpp:425] relu4_3 <- conv4_3
I0817 11:52:51.632336 20821 net.cpp:386] relu4_3 -> conv4_3 (in-place)
I0817 11:52:51.632375 20821 net.cpp:141] Setting up relu4_3
I0817 11:52:51.632408 20821 net.cpp:148] Top shape: 10 512 28 28 (4014080)
I0817 11:52:51.632436 20821 net.cpp:156] Memory required for data: 1121935400
I0817 11:52:51.632464 20821 layer_factory.hpp:77] Creating layer pool4
I0817 11:52:51.632505 20821 net.cpp:91] Creating Layer pool4
I0817 11:52:51.632534 20821 net.cpp:425] pool4 <- conv4_3
I0817 11:52:51.632567 20821 net.cpp:399] pool4 -> pool4
I0817 11:52:51.632699 20821 net.cpp:141] Setting up pool4
I0817 11:52:51.632750 20821 net.cpp:148] Top shape: 10 512 14 14 (1003520)
I0817 11:52:51.632779 20821 net.cpp:156] Memory required for data: 1125949480
I0817 11:52:51.632807 20821 layer_factory.hpp:77] Creating layer conv5_1
I0817 11:52:51.632855 20821 net.cpp:91] Creating Layer conv5_1
I0817 11:52:51.632886 20821 net.cpp:425] conv5_1 <- pool4
I0817 11:52:51.632927 20821 net.cpp:399] conv5_1 -> conv5_1
I0817 11:52:51.816996 20821 net.cpp:141] Setting up conv5_1
I0817 11:52:51.817076 20821 net.cpp:148] Top shape: 10 512 14 14 (1003520)
I0817 11:52:51.817108 20821 net.cpp:156] Memory required for data: 1129963560
I0817 11:52:51.817147 20821 layer_factory.hpp:77] Creating layer relu5_1
I0817 11:52:51.817193 20821 net.cpp:91] Creating Layer relu5_1
I0817 11:52:51.817225 20821 net.cpp:425] relu5_1 <- conv5_1
I0817 11:52:51.817260 20821 net.cpp:386] relu5_1 -> conv5_1 (in-place)
I0817 11:52:51.817299 20821 net.cpp:141] Setting up relu5_1
I0817 11:52:51.817332 20821 net.cpp:148] Top shape: 10 512 14 14 (1003520)
I0817 11:52:51.817360 20821 net.cpp:156] Memory required for data: 1133977640
I0817 11:52:51.817389 20821 layer_factory.hpp:77] Creating layer conv5_2
I0817 11:52:51.817437 20821 net.cpp:91] Creating Layer conv5_2
I0817 11:52:51.817467 20821 net.cpp:425] conv5_2 <- conv5_1
I0817 11:52:51.817508 20821 net.cpp:399] conv5_2 -> conv5_2
I0817 11:52:51.918730 20821 net.cpp:141] Setting up conv5_2
I0817 11:52:51.918784 20821 net.cpp:148] Top shape: 10 512 14 14 (1003520)
I0817 11:52:51.918802 20821 net.cpp:156] Memory required for data: 1137991720
I0817 11:52:51.918822 20821 layer_factory.hpp:77] Creating layer relu5_2
I0817 11:52:51.918841 20821 net.cpp:91] Creating Layer relu5_2
I0817 11:52:51.918857 20821 net.cpp:425] relu5_2 <- conv5_2
I0817 11:52:51.918874 20821 net.cpp:386] relu5_2 -> conv5_2 (in-place)
I0817 11:52:51.918906 20821 net.cpp:141] Setting up relu5_2
I0817 11:52:51.918923 20821 net.cpp:148] Top shape: 10 512 14 14 (1003520)
I0817 11:52:51.918938 20821 net.cpp:156] Memory required for data: 1142005800
I0817 11:52:51.918952 20821 layer_factory.hpp:77] Creating layer conv5_3
I0817 11:52:51.918978 20821 net.cpp:91] Creating Layer conv5_3
I0817 11:52:51.918994 20821 net.cpp:425] conv5_3 <- conv5_2
I0817 11:52:51.919016 20821 net.cpp:399] conv5_3 -> conv5_3
I0817 11:52:52.004806 20821 net.cpp:141] Setting up conv5_3
I0817 11:52:52.004858 20821 net.cpp:148] Top shape: 10 512 14 14 (1003520)
I0817 11:52:52.004874 20821 net.cpp:156] Memory required for data: 1146019880
I0817 11:52:52.004894 20821 layer_factory.hpp:77] Creating layer relu5_3
I0817 11:52:52.004914 20821 net.cpp:91] Creating Layer relu5_3
I0817 11:52:52.004928 20821 net.cpp:425] relu5_3 <- conv5_3
I0817 11:52:52.004948 20821 net.cpp:386] relu5_3 -> conv5_3 (in-place)
I0817 11:52:52.004981 20821 net.cpp:141] Setting up relu5_3
I0817 11:52:52.004999 20821 net.cpp:148] Top shape: 10 512 14 14 (1003520)
I0817 11:52:52.005013 20821 net.cpp:156] Memory required for data: 1150033960
I0817 11:52:52.005028 20821 layer_factory.hpp:77] Creating layer pool5
I0817 11:52:52.005048 20821 net.cpp:91] Creating Layer pool5
I0817 11:52:52.005100 20821 net.cpp:425] pool5 <- conv5_3
I0817 11:52:52.005121 20821 net.cpp:399] pool5 -> pool5
I0817 11:52:52.005185 20821 net.cpp:141] Setting up pool5
I0817 11:52:52.005209 20821 net.cpp:148] Top shape: 10 512 7 7 (250880)
I0817 11:52:52.005223 20821 net.cpp:156] Memory required for data: 1151037480
I0817 11:52:52.005239 20821 layer_factory.hpp:77] Creating layer fc6
I0817 11:52:52.005276 20821 net.cpp:91] Creating Layer fc6
I0817 11:52:52.005295 20821 net.cpp:425] fc6 <- pool5
I0817 11:52:52.005316 20821 net.cpp:399] fc6 -> fc6
I0817 11:52:55.863919 20821 net.cpp:141] Setting up fc6
I0817 11:52:55.864006 20821 net.cpp:148] Top shape: 10 4096 (40960)
I0817 11:52:55.864024 20821 net.cpp:156] Memory required for data: 1151201320
I0817 11:52:55.864068 20821 layer_factory.hpp:77] Creating layer relu6
I0817 11:52:55.864109 20821 net.cpp:91] Creating Layer relu6
I0817 11:52:55.864136 20821 net.cpp:425] relu6 <- fc6
I0817 11:52:55.864158 20821 net.cpp:386] relu6 -> fc6 (in-place)
I0817 11:52:55.864183 20821 net.cpp:141] Setting up relu6
I0817 11:52:55.864202 20821 net.cpp:148] Top shape: 10 4096 (40960)
I0817 11:52:55.864217 20821 net.cpp:156] Memory required for data: 1151365160
I0817 11:52:55.864236 20821 layer_factory.hpp:77] Creating layer drop6
I0817 11:52:55.864260 20821 net.cpp:91] Creating Layer drop6
I0817 11:52:55.864277 20821 net.cpp:425] drop6 <- fc6
I0817 11:52:55.864296 20821 net.cpp:386] drop6 -> fc6 (in-place)
I0817 11:52:55.864362 20821 net.cpp:141] Setting up drop6
I0817 11:52:55.864385 20821 net.cpp:148] Top shape: 10 4096 (40960)
I0817 11:52:55.864400 20821 net.cpp:156] Memory required for data: 1151529000
I0817 11:52:55.864416 20821 layer_factory.hpp:77] Creating layer fc7
I0817 11:52:55.864444 20821 net.cpp:91] Creating Layer fc7
I0817 11:52:55.864461 20821 net.cpp:425] fc7 <- fc6
I0817 11:52:55.864480 20821 net.cpp:399] fc7 -> fc7
I0817 11:52:56.496886 20821 net.cpp:141] Setting up fc7
I0817 11:52:56.496968 20821 net.cpp:148] Top shape: 10 4096 (40960)
I0817 11:52:56.496984 20821 net.cpp:156] Memory required for data: 1151692840
I0817 11:52:56.497016 20821 layer_factory.hpp:77] Creating layer relu7
I0817 11:52:56.497047 20821 net.cpp:91] Creating Layer relu7
I0817 11:52:56.497071 20821 net.cpp:425] relu7 <- fc7
I0817 11:52:56.497092 20821 net.cpp:386] relu7 -> fc7 (in-place)
I0817 11:52:56.497117 20821 net.cpp:141] Setting up relu7
I0817 11:52:56.497134 20821 net.cpp:148] Top shape: 10 4096 (40960)
I0817 11:52:56.497149 20821 net.cpp:156] Memory required for data: 1151856680
I0817 11:52:56.497166 20821 layer_factory.hpp:77] Creating layer drop7
I0817 11:52:56.497187 20821 net.cpp:91] Creating Layer drop7
I0817 11:52:56.497203 20821 net.cpp:425] drop7 <- fc7
I0817 11:52:56.497220 20821 net.cpp:386] drop7 -> fc7 (in-place)
I0817 11:52:56.497272 20821 net.cpp:141] Setting up drop7
I0817 11:52:56.497294 20821 net.cpp:148] Top shape: 10 4096 (40960)
I0817 11:52:56.497310 20821 net.cpp:156] Memory required for data: 1152020520
I0817 11:52:56.497325 20821 layer_factory.hpp:77] Creating layer fc8_binary_f12
I0817 11:52:56.497351 20821 net.cpp:91] Creating Layer fc8_binary_f12
I0817 11:52:56.497369 20821 net.cpp:425] fc8_binary_f12 <- fc7
I0817 11:52:56.497390 20821 net.cpp:399] fc8_binary_f12 -> fc8_binary_f12
I0817 11:52:56.499320 20821 net.cpp:141] Setting up fc8_binary_f12
I0817 11:52:56.499346 20821 net.cpp:148] Top shape: 10 12 (120)
I0817 11:52:56.499362 20821 net.cpp:156] Memory required for data: 1152021000
I0817 11:52:56.499380 20821 layer_factory.hpp:77] Creating layer loss_hashing
I0817 11:52:56.499406 20821 net.cpp:91] Creating Layer loss_hashing
I0817 11:52:56.499424 20821 net.cpp:425] loss_hashing <- fc8_binary_f12
I0817 11:52:56.499442 20821 net.cpp:425] loss_hashing <- label
I0817 11:52:56.499476 20821 net.cpp:399] loss_hashing -> loss_hashing
…
