…
I0820 20:39:16.168253 25572 net.cpp:313] The NetState phase (0) differed from the phase (1) specified by a rule in layer data
I0820 20:39:16.168716 25572 net.cpp:49] Initializing net from parameters: 
name: "docomo_VGG16"
state {
  phase: TRAIN
}
layer {
  name: "data"
  type: "Data"
  top: "data"
  top: "label"
  include {
    phase: TRAIN
  }
  transform_param {
    mirror: true
    crop_size: 224
    mean_value: 103.939
    mean_value: 116.779
    mean_value: 123.68
  }
  data_param {
    source: "FASHION/fashion_train_lmdb/"
    batch_size: 10
    backend: LMDB
  }
}
layer {
  name: "conv1_1"
  type: "Convolution"
  bottom: "data"
  top: "conv1_1"
  param {
    lr_mult: 1
    decay_mult: 1
  }
  param {
    lr_mult: 2
    decay_mult: 0
  }
  convolution_param {
    num_output: 64
    pad: 1
    kernel_size: 3
    weight_filler {
      type: "gaussian"
      std: 0.01
    }
    bias_filler {
      type: "constant"
      value: 0
    }
  }
}
layer {
  name: "relu1_1"
  type: "ReLU"
  bottom: "conv1_1"
  top: "conv1_1"
}
layer {
  name: "conv1_2"
  type: "Convolution"
  bottom: "conv1_1"
  top: "conv1_2"
  param {
    lr_mult: 1
    decay_mult: 1
  }
  param {
    lr_mult: 2
    decay_mult: 0
  }
  convolution_param {
    num_output: 64
    pad: 1
    kernel_size: 3
    weight_filler {
      type: "gaussian"
      std: 0.01
    }
    bias_filler {
      type: "constant"
      value: 0
    }
  }
}
layer {
  name: "relu1_2"
  type: "ReLU"
  bottom: "conv1_2"
  top: "conv1_2"
}
layer {
  name: "pool1"
  type: "Pooling"
  bottom: "conv1_2"
  top: "pool1"
  pooling_param {
    pool: MAX
    kernel_size: 2
    stride: 2
  }
}
layer {
  name: "conv2_1"
  type: "Convolution"
  bottom: "pool1"
  top: "conv2_1"
  param {
    lr_mult: 1
    decay_mult: 1
  }
  param {
    lr_mult: 2
    decay_mult: 0
  }
  convolution_param {
    num_output: 128
    pad: 1
    kernel_size: 3
    weight_filler {
      type: "gaussian"
      std: 0.01
    }
    bias_filler {
      type: "constant"
      value: 0
    }
  }
}
layer {
  name: "relu2_1"
  type: "ReLU"
  bottom: "conv2_1"
  top: "conv2_1"
}
layer {
  name: "conv2_2"
  type: "Convolution"
  bottom: "conv2_1"
  top: "conv2_2"
  param {
    lr_mult: 1
    decay_mult: 1
  }
  param {
    lr_mult: 2
    decay_mult: 0
  }
  convolution_param {
    num_output: 128
    pad: 1
    kernel_size: 3
    weight_filler {
      type: "gaussian"
      std: 0.01
    }
    bias_filler {
      type: "constant"
      value: 0
    }
  }
}
layer {
  name: "relu2_2"
  type: "ReLU"
  bottom: "conv2_2"
  top: "conv2_2"
}
layer {
  name: "pool2"
  type: "Pooling"
  bottom: "conv2_2"
  top: "pool2"
  pooling_param {
    pool: MAX
    kernel_size: 2
    stride: 2
  }
}
layer {
  name: "conv3_1"
  type: "Convolution"
  bottom: "pool2"
  top: "conv3_1"
  param {
    lr_mult: 1
    decay_mult: 1
  }
  param {
    lr_mult: 2
    decay_mult: 0
  }
  convolution_param {
    num_output: 256
    pad: 1
    kernel_size: 3
    weight_filler {
      type: "gaussian"
      std: 0.01
    }
    bias_filler {
      type: "constant"
      value: 0
    }
  }
}
layer {
  name: "relu3_1"
  type: "ReLU"
  bottom: "conv3_1"
  top: "conv3_1"
}
layer {
  name: "conv3_2"
  type: "Convolution"
  bottom: "conv3_1"
  top: "conv3_2"
  param {
    lr_mult: 1
    decay_mult: 1
  }
  param {
    lr_mult: 2
    decay_mult: 0
  }
  convolution_param {
    num_output: 256
    pad: 1
    kernel_size: 3
    weight_filler {
      type: "gaussian"
      std: 0.01
    }
    bias_filler {
      type: "constant"
      value: 0
    }
  }
}
layer {
  name: "relu3_2"
  type: "ReLU"
  bottom: "conv3_2"
  top: "conv3_2"
}
layer {
  name: "conv3_3"
  type: "Convolution"
  bottom: "conv3_2"
  top: "conv3_3"
  param {
    lr_mult: 1
    decay_mult: 1
  }
  param {
    lr_mult: 2
    decay_mult: 0
  }
  convolution_param {
    num_output: 256
    pad: 1
    kernel_size: 3
    weight_filler {
      type: "gaussian"
      std: 0.01
    }
    bias_filler {
      type: "constant"
      value: 0
    }
  }
}
layer {
  name: "relu3_3"
  type: "ReLU"
  bottom: "conv3_3"
  top: "conv3_3"
}
layer {
  name: "pool3"
  type: "Pooling"
  bottom: "conv3_3"
  top: "pool3"
  pooling_param {
    pool: MAX
    kernel_size: 2
    stride: 2
  }
}
layer {
  name: "conv4_1"
  type: "Convolution"
  bottom: "pool3"
  top: "conv4_1"
  param {
    lr_mult: 1
    decay_mult: 1
  }
  param {
    lr_mult: 2
    decay_mult: 0
  }
  convolution_param {
    num_output: 512
    pad: 1
    kernel_size: 3
    weight_filler {
      type: "gaussian"
      std: 0.01
    }
    bias_filler {
      type: "constant"
      value: 0
    }
  }
}
layer {
  name: "relu4_1"
  type: "ReLU"
  bottom: "conv4_1"
  top: "conv4_1"
}
layer {
  name: "conv4_2"
  type: "Convolution"
  bottom: "conv4_1"
  top: "conv4_2"
  param {
    lr_mult: 1
    decay_mult: 1
  }
  param {
    lr_mult: 2
    decay_mult: 0
  }
  convolution_param {
    num_output: 512
    pad: 1
    kernel_size: 3
    weight_filler {
      type: "gaussian"
      std: 0.01
    }
    bias_filler {
      type: "constant"
      value: 0
    }
  }
}
layer {
  name: "relu4_2"
  type: "ReLU"
  bottom: "conv4_2"
  top: "conv4_2"
}
layer {
  name: "conv4_3"
  type: "Convolution"
  bottom: "conv4_2"
  top: "conv4_3"
  param {
    lr_mult: 1
    decay_mult: 1
  }
  param {
    lr_mult: 2
    decay_mult: 0
  }
  convolution_param {
    num_output: 512
    pad: 1
    kernel_size: 3
    weight_filler {
      type: "gaussian"
      std: 0.01
    }
    bias_filler {
      type: "constant"
      value: 0
    }
  }
}
layer {
  name: "relu4_3"
  type: "ReLU"
  bottom: "conv4_3"
  top: "conv4_3"
}
layer {
  name: "pool4"
  type: "Pooling"
  bottom: "conv4_3"
  top: "pool4"
  pooling_param {
    pool: MAX
    kernel_size: 2
    stride: 2
  }
}
layer {
  name: "conv5_1"
  type: "Convolution"
  bottom: "pool4"
  top: "conv5_1"
  param {
    lr_mult: 1
    decay_mult: 1
  }
  param {
    lr_mult: 2
    decay_mult: 0
  }
  convolution_param {
    num_output: 512
    pad: 1
    kernel_size: 3
    weight_filler {
      type: "gaussian"
      std: 0.01
    }
    bias_filler {
      type: "constant"
      value: 0
    }
  }
}
layer {
  name: "relu5_1"
  type: "ReLU"
  bottom: "conv5_1"
  top: "conv5_1"
}
layer {
  name: "conv5_2"
  type: "Convolution"
  bottom: "conv5_1"
  top: "conv5_2"
  param {
    lr_mult: 1
    decay_mult: 1
  }
  param {
    lr_mult: 2
    decay_mult: 0
  }
  convolution_param {
    num_output: 512
    pad: 1
    kernel_size: 3
    weight_filler {
      type: "gaussian"
      std: 0.01
    }
    bias_filler {
      type: "constant"
      value: 0
    }
  }
}
layer {
  name: "relu5_2"
  type: "ReLU"
  bottom: "conv5_2"
  top: "conv5_2"
}
layer {
  name: "conv5_3"
  type: "Convolution"
  bottom: "conv5_2"
  top: "conv5_3"
  param {
    lr_mult: 1
    decay_mult: 1
  }
  param {
    lr_mult: 2
    decay_mult: 0
  }
  convolution_param {
    num_output: 512
    pad: 1
    kernel_size: 3
    weight_filler {
      type: "gaussian"
      std: 0.01
    }
    bias_filler {
      type: "constant"
      value: 0
    }
  }
}
layer {
  name: "relu5_3"
  type: "ReLU"
  bottom: "conv5_3"
  top: "conv5_3"
}
layer {
  name: "pool5"
  type: "Pooling"
  bottom: "conv5_3"
  top: "pool5"
  pooling_param {
    pool: MAX
    kernel_size: 2
    stride: 2
  }
}
layer {
  name: "fc6"
  type: "InnerProduct"
  bottom: "pool5"
  top: "fc6"
  param {
    lr_mult: 1
    decay_mult: 1
  }
  param {
    lr_mult: 2
    decay_mult: 0
  }
  inner_product_param {
    num_output: 4096
    weight_filler {
      type: "gaussian"
      std: 0.005
    }
    bias_filler {
      type: "constant"
      value: 0.1
    }
  }
}
layer {
  name: "relu6"
  type: "ReLU"
  bottom: "fc6"
  top: "fc6"
}
layer {
  name: "drop6"
  type: "Dropout"
  bottom: "fc6"
  top: "fc6"
  dropout_param {
    dropout_ratio: 0.5
  }
}
layer {
  name: "fc7"
  type: "InnerProduct"
  bottom: "fc6"
  top: "fc7"
  param {
    lr_mult: 1
    decay_mult: 1
  }
  param {
    lr_mult: 2
    decay_mult: 0
  }
  inner_product_param {
    num_output: 4096
    weight_filler {
      type: "gaussian"
      std: 0.005
    }
    bias_filler {
      type: "constant"
      value: 0.1
    }
  }
}
layer {
  name: "relu7"
  type: "ReLU"
  bottom: "fc7"
  top: "fc7"
}
layer {
  name: "drop7"
  type: "Dropout"
  bottom: "fc7"
  top: "fc7"
  dropout_param {
    dropout_ratio: 0.5
  }
}
layer {
  name: "fc8_binary_f48"
  type: "InnerProduct"
  bottom: "fc7"
  top: "fc8_binary_f48"
  param {
    lr_mult: 10
    decay_mult: 1
  }
  param {
    lr_mult: 20
    decay_mult: 0
  }
  inner_product_param {
    num_output: 48
    weight_filler {
      type: "gaussian"
      std: 0.005
    }
    bias_filler {
      type: "constant"
      value: 0.1
    }
  }
}
layer {
  name: "loss_hashing"
  type: "HashingLoss"
  bottom: "fc8_binary_f48"
  bottom: "label"
  top: "loss_hashing"
  hashing_loss_param {
    bi_margin: 96
    tradeoff: 0.01
  }
}
I0820 20:39:16.169160 25572 layer_factory.hpp:77] Creating layer data
I0820 20:39:16.169844 25572 net.cpp:91] Creating Layer data
I0820 20:39:16.169870 25572 net.cpp:399] data -> data
I0820 20:39:16.170044 25572 net.cpp:399] data -> label
I0820 20:39:16.171751 25578 db_lmdb.cpp:38] Opened lmdb FASHION/fashion_train_lmdb/
I0820 20:39:16.201872 25572 data_layer.cpp:41] output data size: 10,3,224,224
I0820 20:39:16.222667 25572 net.cpp:141] Setting up data
I0820 20:39:16.222771 25572 net.cpp:148] Top shape: 10 3 224 224 (1505280)
I0820 20:39:16.222800 25572 net.cpp:148] Top shape: 10 1 1 1 (10)
I0820 20:39:16.222826 25572 net.cpp:156] Memory required for data: 6021160
I0820 20:39:16.222856 25572 layer_factory.hpp:77] Creating layer conv1_1
I0820 20:39:16.222913 25572 net.cpp:91] Creating Layer conv1_1
I0820 20:39:16.222945 25572 net.cpp:425] conv1_1 <- data
I0820 20:39:16.222996 25572 net.cpp:399] conv1_1 -> conv1_1
I0820 20:39:16.226804 25572 net.cpp:141] Setting up conv1_1
I0820 20:39:16.226897 25572 net.cpp:148] Top shape: 10 64 224 224 (32112640)
I0820 20:39:16.226933 25572 net.cpp:156] Memory required for data: 134471720
I0820 20:39:16.227006 25572 layer_factory.hpp:77] Creating layer relu1_1
I0820 20:39:16.227061 25572 net.cpp:91] Creating Layer relu1_1
I0820 20:39:16.227099 25572 net.cpp:425] relu1_1 <- conv1_1
I0820 20:39:16.227141 25572 net.cpp:386] relu1_1 -> conv1_1 (in-place)
I0820 20:39:16.227191 25572 net.cpp:141] Setting up relu1_1
I0820 20:39:16.227232 25572 net.cpp:148] Top shape: 10 64 224 224 (32112640)
I0820 20:39:16.227263 25572 net.cpp:156] Memory required for data: 262922280
I0820 20:39:16.227298 25572 layer_factory.hpp:77] Creating layer conv1_2
I0820 20:39:16.227357 25572 net.cpp:91] Creating Layer conv1_2
I0820 20:39:16.227396 25572 net.cpp:425] conv1_2 <- conv1_1
I0820 20:39:16.227438 25572 net.cpp:399] conv1_2 -> conv1_2
I0820 20:39:16.230758 25572 net.cpp:141] Setting up conv1_2
I0820 20:39:16.230818 25572 net.cpp:148] Top shape: 10 64 224 224 (32112640)
I0820 20:39:16.230854 25572 net.cpp:156] Memory required for data: 391372840
I0820 20:39:16.230909 25572 layer_factory.hpp:77] Creating layer relu1_2
I0820 20:39:16.230950 25572 net.cpp:91] Creating Layer relu1_2
I0820 20:39:16.230989 25572 net.cpp:425] relu1_2 <- conv1_2
I0820 20:39:16.231034 25572 net.cpp:386] relu1_2 -> conv1_2 (in-place)
I0820 20:39:16.231075 25572 net.cpp:141] Setting up relu1_2
I0820 20:39:16.231117 25572 net.cpp:148] Top shape: 10 64 224 224 (32112640)
I0820 20:39:16.231153 25572 net.cpp:156] Memory required for data: 519823400
I0820 20:39:16.231181 25572 layer_factory.hpp:77] Creating layer pool1
I0820 20:39:16.231220 25572 net.cpp:91] Creating Layer pool1
I0820 20:39:16.231317 25572 net.cpp:425] pool1 <- conv1_2
I0820 20:39:16.231361 25572 net.cpp:399] pool1 -> pool1
I0820 20:39:16.231541 25572 net.cpp:141] Setting up pool1
I0820 20:39:16.231595 25572 net.cpp:148] Top shape: 10 64 112 112 (8028160)
I0820 20:39:16.231631 25572 net.cpp:156] Memory required for data: 551936040
I0820 20:39:16.231667 25572 layer_factory.hpp:77] Creating layer conv2_1
I0820 20:39:16.231716 25572 net.cpp:91] Creating Layer conv2_1
I0820 20:39:16.231755 25572 net.cpp:425] conv2_1 <- pool1
I0820 20:39:16.231798 25572 net.cpp:399] conv2_1 -> conv2_1
I0820 20:39:16.240095 25572 net.cpp:141] Setting up conv2_1
I0820 20:39:16.240164 25572 net.cpp:148] Top shape: 10 128 112 112 (16056320)
I0820 20:39:16.240202 25572 net.cpp:156] Memory required for data: 616161320
I0820 20:39:16.240249 25572 layer_factory.hpp:77] Creating layer relu2_1
I0820 20:39:16.240293 25572 net.cpp:91] Creating Layer relu2_1
I0820 20:39:16.240327 25572 net.cpp:425] relu2_1 <- conv2_1
I0820 20:39:16.240373 25572 net.cpp:386] relu2_1 -> conv2_1 (in-place)
I0820 20:39:16.240414 25572 net.cpp:141] Setting up relu2_1
I0820 20:39:16.240456 25572 net.cpp:148] Top shape: 10 128 112 112 (16056320)
I0820 20:39:16.240489 25572 net.cpp:156] Memory required for data: 680386600
I0820 20:39:16.240525 25572 layer_factory.hpp:77] Creating layer conv2_2
I0820 20:39:16.240579 25572 net.cpp:91] Creating Layer conv2_2
I0820 20:39:16.240635 25572 net.cpp:425] conv2_2 <- conv2_1
I0820 20:39:16.240679 25572 net.cpp:399] conv2_2 -> conv2_2
I0820 20:39:16.252473 25572 net.cpp:141] Setting up conv2_2
I0820 20:39:16.252564 25572 net.cpp:148] Top shape: 10 128 112 112 (16056320)
I0820 20:39:16.252609 25572 net.cpp:156] Memory required for data: 744611880
I0820 20:39:16.252662 25572 layer_factory.hpp:77] Creating layer relu2_2
I0820 20:39:16.252703 25572 net.cpp:91] Creating Layer relu2_2
I0820 20:39:16.252735 25572 net.cpp:425] relu2_2 <- conv2_2
I0820 20:39:16.252782 25572 net.cpp:386] relu2_2 -> conv2_2 (in-place)
I0820 20:39:16.252826 25572 net.cpp:141] Setting up relu2_2
I0820 20:39:16.252868 25572 net.cpp:148] Top shape: 10 128 112 112 (16056320)
I0820 20:39:16.252903 25572 net.cpp:156] Memory required for data: 808837160
I0820 20:39:16.252938 25572 layer_factory.hpp:77] Creating layer pool2
I0820 20:39:16.252979 25572 net.cpp:91] Creating Layer pool2
I0820 20:39:16.253013 25572 net.cpp:425] pool2 <- conv2_2
I0820 20:39:16.253047 25572 net.cpp:399] pool2 -> pool2
I0820 20:39:16.253170 25572 net.cpp:141] Setting up pool2
I0820 20:39:16.253219 25572 net.cpp:148] Top shape: 10 128 56 56 (4014080)
I0820 20:39:16.253253 25572 net.cpp:156] Memory required for data: 824893480
I0820 20:39:16.253283 25572 layer_factory.hpp:77] Creating layer conv3_1
I0820 20:39:16.253332 25572 net.cpp:91] Creating Layer conv3_1
I0820 20:39:16.253370 25572 net.cpp:425] conv3_1 <- pool2
I0820 20:39:16.253417 25572 net.cpp:399] conv3_1 -> conv3_1
I0820 20:39:16.276716 25572 net.cpp:141] Setting up conv3_1
I0820 20:39:16.276793 25572 net.cpp:148] Top shape: 10 256 56 56 (8028160)
I0820 20:39:16.276835 25572 net.cpp:156] Memory required for data: 857006120
I0820 20:39:16.276895 25572 layer_factory.hpp:77] Creating layer relu3_1
I0820 20:39:16.276942 25572 net.cpp:91] Creating Layer relu3_1
I0820 20:39:16.276978 25572 net.cpp:425] relu3_1 <- conv3_1
I0820 20:39:16.277017 25572 net.cpp:386] relu3_1 -> conv3_1 (in-place)
I0820 20:39:16.277060 25572 net.cpp:141] Setting up relu3_1
I0820 20:39:16.277099 25572 net.cpp:148] Top shape: 10 256 56 56 (8028160)
I0820 20:39:16.277134 25572 net.cpp:156] Memory required for data: 889118760
I0820 20:39:16.277164 25572 layer_factory.hpp:77] Creating layer conv3_2
I0820 20:39:16.277212 25572 net.cpp:91] Creating Layer conv3_2
I0820 20:39:16.277249 25572 net.cpp:425] conv3_2 <- conv3_1
I0820 20:39:16.277292 25572 net.cpp:399] conv3_2 -> conv3_2
I0820 20:39:16.323962 25572 net.cpp:141] Setting up conv3_2
I0820 20:39:16.324031 25572 net.cpp:148] Top shape: 10 256 56 56 (8028160)
I0820 20:39:16.324065 25572 net.cpp:156] Memory required for data: 921231400
I0820 20:39:16.324168 25572 layer_factory.hpp:77] Creating layer relu3_2
I0820 20:39:16.324213 25572 net.cpp:91] Creating Layer relu3_2
I0820 20:39:16.324247 25572 net.cpp:425] relu3_2 <- conv3_2
I0820 20:39:16.324287 25572 net.cpp:386] relu3_2 -> conv3_2 (in-place)
I0820 20:39:16.324331 25572 net.cpp:141] Setting up relu3_2
I0820 20:39:16.324370 25572 net.cpp:148] Top shape: 10 256 56 56 (8028160)
I0820 20:39:16.324404 25572 net.cpp:156] Memory required for data: 953344040
I0820 20:39:16.324435 25572 layer_factory.hpp:77] Creating layer conv3_3
I0820 20:39:16.324484 25572 net.cpp:91] Creating Layer conv3_3
I0820 20:39:16.324522 25572 net.cpp:425] conv3_3 <- conv3_2
I0820 20:39:16.324568 25572 net.cpp:399] conv3_3 -> conv3_3
I0820 20:39:16.371145 25572 net.cpp:141] Setting up conv3_3
I0820 20:39:16.371206 25572 net.cpp:148] Top shape: 10 256 56 56 (8028160)
I0820 20:39:16.371243 25572 net.cpp:156] Memory required for data: 985456680
I0820 20:39:16.371280 25572 layer_factory.hpp:77] Creating layer relu3_3
I0820 20:39:16.371335 25572 net.cpp:91] Creating Layer relu3_3
I0820 20:39:16.371366 25572 net.cpp:425] relu3_3 <- conv3_3
I0820 20:39:16.371403 25572 net.cpp:386] relu3_3 -> conv3_3 (in-place)
I0820 20:39:16.371446 25572 net.cpp:141] Setting up relu3_3
I0820 20:39:16.371485 25572 net.cpp:148] Top shape: 10 256 56 56 (8028160)
I0820 20:39:16.371521 25572 net.cpp:156] Memory required for data: 1017569320
I0820 20:39:16.371556 25572 layer_factory.hpp:77] Creating layer pool3
I0820 20:39:16.371599 25572 net.cpp:91] Creating Layer pool3
I0820 20:39:16.371630 25572 net.cpp:425] pool3 <- conv3_3
I0820 20:39:16.371667 25572 net.cpp:399] pool3 -> pool3
I0820 20:39:16.371786 25572 net.cpp:141] Setting up pool3
I0820 20:39:16.371840 25572 net.cpp:148] Top shape: 10 256 28 28 (2007040)
I0820 20:39:16.371875 25572 net.cpp:156] Memory required for data: 1025597480
I0820 20:39:16.371909 25572 layer_factory.hpp:77] Creating layer conv4_1
I0820 20:39:16.371961 25572 net.cpp:91] Creating Layer conv4_1
I0820 20:39:16.371994 25572 net.cpp:425] conv4_1 <- pool3
I0820 20:39:16.372038 25572 net.cpp:399] conv4_1 -> conv4_1
I0820 20:39:16.465595 25572 net.cpp:141] Setting up conv4_1
I0820 20:39:16.465670 25572 net.cpp:148] Top shape: 10 512 28 28 (4014080)
I0820 20:39:16.465703 25572 net.cpp:156] Memory required for data: 1041653800
I0820 20:39:16.465740 25572 layer_factory.hpp:77] Creating layer relu4_1
I0820 20:39:16.465782 25572 net.cpp:91] Creating Layer relu4_1
I0820 20:39:16.465818 25572 net.cpp:425] relu4_1 <- conv4_1
I0820 20:39:16.465862 25572 net.cpp:386] relu4_1 -> conv4_1 (in-place)
I0820 20:39:16.465906 25572 net.cpp:141] Setting up relu4_1
I0820 20:39:16.465948 25572 net.cpp:148] Top shape: 10 512 28 28 (4014080)
I0820 20:39:16.465982 25572 net.cpp:156] Memory required for data: 1057710120
I0820 20:39:16.466017 25572 layer_factory.hpp:77] Creating layer conv4_2
I0820 20:39:16.466063 25572 net.cpp:91] Creating Layer conv4_2
I0820 20:39:16.466099 25572 net.cpp:425] conv4_2 <- conv4_1
I0820 20:39:16.466146 25572 net.cpp:399] conv4_2 -> conv4_2
I0820 20:39:16.650393 25572 net.cpp:141] Setting up conv4_2
I0820 20:39:16.650470 25572 net.cpp:148] Top shape: 10 512 28 28 (4014080)
I0820 20:39:16.650502 25572 net.cpp:156] Memory required for data: 1073766440
I0820 20:39:16.650559 25572 layer_factory.hpp:77] Creating layer relu4_2
I0820 20:39:16.650609 25572 net.cpp:91] Creating Layer relu4_2
I0820 20:39:16.650647 25572 net.cpp:425] relu4_2 <- conv4_2
I0820 20:39:16.650691 25572 net.cpp:386] relu4_2 -> conv4_2 (in-place)
I0820 20:39:16.650738 25572 net.cpp:141] Setting up relu4_2
I0820 20:39:16.650779 25572 net.cpp:148] Top shape: 10 512 28 28 (4014080)
I0820 20:39:16.650815 25572 net.cpp:156] Memory required for data: 1089822760
I0820 20:39:16.650845 25572 layer_factory.hpp:77] Creating layer conv4_3
I0820 20:39:16.650892 25572 net.cpp:91] Creating Layer conv4_3
I0820 20:39:16.650928 25572 net.cpp:425] conv4_3 <- conv4_2
I0820 20:39:16.650970 25572 net.cpp:399] conv4_3 -> conv4_3
I0820 20:39:16.835306 25572 net.cpp:141] Setting up conv4_3
I0820 20:39:16.835440 25572 net.cpp:148] Top shape: 10 512 28 28 (4014080)
I0820 20:39:16.835490 25572 net.cpp:156] Memory required for data: 1105879080
I0820 20:39:16.835532 25572 layer_factory.hpp:77] Creating layer relu4_3
I0820 20:39:16.835587 25572 net.cpp:91] Creating Layer relu4_3
I0820 20:39:16.835621 25572 net.cpp:425] relu4_3 <- conv4_3
I0820 20:39:16.835665 25572 net.cpp:386] relu4_3 -> conv4_3 (in-place)
I0820 20:39:16.835711 25572 net.cpp:141] Setting up relu4_3
I0820 20:39:16.835752 25572 net.cpp:148] Top shape: 10 512 28 28 (4014080)
I0820 20:39:16.835788 25572 net.cpp:156] Memory required for data: 1121935400
I0820 20:39:16.835824 25572 layer_factory.hpp:77] Creating layer pool4
I0820 20:39:16.835872 25572 net.cpp:91] Creating Layer pool4
I0820 20:39:16.835907 25572 net.cpp:425] pool4 <- conv4_3
I0820 20:39:16.835948 25572 net.cpp:399] pool4 -> pool4
I0820 20:39:16.836073 25572 net.cpp:141] Setting up pool4
I0820 20:39:16.836122 25572 net.cpp:148] Top shape: 10 512 14 14 (1003520)
I0820 20:39:16.836154 25572 net.cpp:156] Memory required for data: 1125949480
I0820 20:39:16.836194 25572 layer_factory.hpp:77] Creating layer conv5_1
I0820 20:39:16.836251 25572 net.cpp:91] Creating Layer conv5_1
I0820 20:39:16.836285 25572 net.cpp:425] conv5_1 <- pool4
I0820 20:39:16.836329 25572 net.cpp:399] conv5_1 -> conv5_1
I0820 20:39:16.949435 25572 net.cpp:141] Setting up conv5_1
I0820 20:39:16.949477 25572 net.cpp:148] Top shape: 10 512 14 14 (1003520)
I0820 20:39:16.949501 25572 net.cpp:156] Memory required for data: 1129963560
I0820 20:39:16.949520 25572 layer_factory.hpp:77] Creating layer relu5_1
I0820 20:39:16.949543 25572 net.cpp:91] Creating Layer relu5_1
I0820 20:39:16.949558 25572 net.cpp:425] relu5_1 <- conv5_1
I0820 20:39:16.949575 25572 net.cpp:386] relu5_1 -> conv5_1 (in-place)
I0820 20:39:16.949597 25572 net.cpp:141] Setting up relu5_1
I0820 20:39:16.949615 25572 net.cpp:148] Top shape: 10 512 14 14 (1003520)
I0820 20:39:16.949633 25572 net.cpp:156] Memory required for data: 1133977640
I0820 20:39:16.949658 25572 layer_factory.hpp:77] Creating layer conv5_2
I0820 20:39:16.949682 25572 net.cpp:91] Creating Layer conv5_2
I0820 20:39:16.949698 25572 net.cpp:425] conv5_2 <- conv5_1
I0820 20:39:16.949715 25572 net.cpp:399] conv5_2 -> conv5_2
I0820 20:39:17.035821 25572 net.cpp:141] Setting up conv5_2
I0820 20:39:17.035872 25572 net.cpp:148] Top shape: 10 512 14 14 (1003520)
I0820 20:39:17.035887 25572 net.cpp:156] Memory required for data: 1137991720
I0820 20:39:17.035910 25572 layer_factory.hpp:77] Creating layer relu5_2
I0820 20:39:17.035928 25572 net.cpp:91] Creating Layer relu5_2
I0820 20:39:17.035944 25572 net.cpp:425] relu5_2 <- conv5_2
I0820 20:39:17.035960 25572 net.cpp:386] relu5_2 -> conv5_2 (in-place)
I0820 20:39:17.035980 25572 net.cpp:141] Setting up relu5_2
I0820 20:39:17.036000 25572 net.cpp:148] Top shape: 10 512 14 14 (1003520)
I0820 20:39:17.036015 25572 net.cpp:156] Memory required for data: 1142005800
I0820 20:39:17.036028 25572 layer_factory.hpp:77] Creating layer conv5_3
I0820 20:39:17.036052 25572 net.cpp:91] Creating Layer conv5_3
I0820 20:39:17.036068 25572 net.cpp:425] conv5_3 <- conv5_2
I0820 20:39:17.036092 25572 net.cpp:399] conv5_3 -> conv5_3
I0820 20:39:17.122201 25572 net.cpp:141] Setting up conv5_3
I0820 20:39:17.122251 25572 net.cpp:148] Top shape: 10 512 14 14 (1003520)
I0820 20:39:17.122265 25572 net.cpp:156] Memory required for data: 1146019880
I0820 20:39:17.122288 25572 layer_factory.hpp:77] Creating layer relu5_3
I0820 20:39:17.122308 25572 net.cpp:91] Creating Layer relu5_3
I0820 20:39:17.122323 25572 net.cpp:425] relu5_3 <- conv5_3
I0820 20:39:17.122342 25572 net.cpp:386] relu5_3 -> conv5_3 (in-place)
I0820 20:39:17.122362 25572 net.cpp:141] Setting up relu5_3
I0820 20:39:17.122380 25572 net.cpp:148] Top shape: 10 512 14 14 (1003520)
I0820 20:39:17.122395 25572 net.cpp:156] Memory required for data: 1150033960
I0820 20:39:17.122408 25572 layer_factory.hpp:77] Creating layer pool5
I0820 20:39:17.122426 25572 net.cpp:91] Creating Layer pool5
I0820 20:39:17.122480 25572 net.cpp:425] pool5 <- conv5_3
I0820 20:39:17.122503 25572 net.cpp:399] pool5 -> pool5
I0820 20:39:17.122570 25572 net.cpp:141] Setting up pool5
I0820 20:39:17.122593 25572 net.cpp:148] Top shape: 10 512 7 7 (250880)
I0820 20:39:17.122608 25572 net.cpp:156] Memory required for data: 1151037480
I0820 20:39:17.122622 25572 layer_factory.hpp:77] Creating layer fc6
I0820 20:39:17.122656 25572 net.cpp:91] Creating Layer fc6
I0820 20:39:17.122675 25572 net.cpp:425] fc6 <- pool5
I0820 20:39:17.122696 25572 net.cpp:399] fc6 -> fc6
I0820 20:39:20.923435 25572 net.cpp:141] Setting up fc6
I0820 20:39:20.923519 25572 net.cpp:148] Top shape: 10 4096 (40960)
I0820 20:39:20.923537 25572 net.cpp:156] Memory required for data: 1151201320
I0820 20:39:20.923568 25572 layer_factory.hpp:77] Creating layer relu6
I0820 20:39:20.923616 25572 net.cpp:91] Creating Layer relu6
I0820 20:39:20.923640 25572 net.cpp:425] relu6 <- fc6
I0820 20:39:20.923662 25572 net.cpp:386] relu6 -> fc6 (in-place)
I0820 20:39:20.923687 25572 net.cpp:141] Setting up relu6
I0820 20:39:20.923705 25572 net.cpp:148] Top shape: 10 4096 (40960)
I0820 20:39:20.923724 25572 net.cpp:156] Memory required for data: 1151365160
I0820 20:39:20.923740 25572 layer_factory.hpp:77] Creating layer drop6
I0820 20:39:20.923766 25572 net.cpp:91] Creating Layer drop6
I0820 20:39:20.923784 25572 net.cpp:425] drop6 <- fc6
I0820 20:39:20.923805 25572 net.cpp:386] drop6 -> fc6 (in-place)
I0820 20:39:20.923864 25572 net.cpp:141] Setting up drop6
I0820 20:39:20.923887 25572 net.cpp:148] Top shape: 10 4096 (40960)
I0820 20:39:20.923903 25572 net.cpp:156] Memory required for data: 1151529000
I0820 20:39:20.923918 25572 layer_factory.hpp:77] Creating layer fc7
I0820 20:39:20.923944 25572 net.cpp:91] Creating Layer fc7
I0820 20:39:20.923960 25572 net.cpp:425] fc7 <- fc6
I0820 20:39:20.923982 25572 net.cpp:399] fc7 -> fc7
I0820 20:39:21.550577 25572 net.cpp:141] Setting up fc7
I0820 20:39:21.550643 25572 net.cpp:148] Top shape: 10 4096 (40960)
I0820 20:39:21.550662 25572 net.cpp:156] Memory required for data: 1151692840
I0820 20:39:21.550686 25572 layer_factory.hpp:77] Creating layer relu7
I0820 20:39:21.550716 25572 net.cpp:91] Creating Layer relu7
I0820 20:39:21.550735 25572 net.cpp:425] relu7 <- fc7
I0820 20:39:21.550755 25572 net.cpp:386] relu7 -> fc7 (in-place)
I0820 20:39:21.550779 25572 net.cpp:141] Setting up relu7
I0820 20:39:21.550797 25572 net.cpp:148] Top shape: 10 4096 (40960)
I0820 20:39:21.550817 25572 net.cpp:156] Memory required for data: 1151856680
I0820 20:39:21.550832 25572 layer_factory.hpp:77] Creating layer drop7
I0820 20:39:21.550854 25572 net.cpp:91] Creating Layer drop7
I0820 20:39:21.550870 25572 net.cpp:425] drop7 <- fc7
I0820 20:39:21.550887 25572 net.cpp:386] drop7 -> fc7 (in-place)
I0820 20:39:21.550930 25572 net.cpp:141] Setting up drop7
I0820 20:39:21.550952 25572 net.cpp:148] Top shape: 10 4096 (40960)
I0820 20:39:21.550968 25572 net.cpp:156] Memory required for data: 1152020520
I0820 20:39:21.550983 25572 layer_factory.hpp:77] Creating layer fc8_binary_f48
I0820 20:39:21.551012 25572 net.cpp:91] Creating Layer fc8_binary_f48
I0820 20:39:21.551029 25572 net.cpp:425] fc8_binary_f48 <- fc7
I0820 20:39:21.551054 25572 net.cpp:399] fc8_binary_f48 -> fc8_binary_f48
I0820 20:39:21.558820 25572 net.cpp:141] Setting up fc8_binary_f48
I0820 20:39:21.558848 25572 net.cpp:148] Top shape: 10 48 (480)
I0820 20:39:21.558866 25572 net.cpp:156] Memory required for data: 1152022440
I0820 20:39:21.558889 25572 layer_factory.hpp:77] Creating layer loss_hashing
I0820 20:39:21.558923 25572 net.cpp:91] Creating Layer loss_hashing
I0820 20:39:21.558940 25572 net.cpp:425] loss_hashing <- fc8_binary_f48
I0820 20:39:21.558965 25572 net.cpp:425] loss_hashing <- label
I0820 20:39:21.558991 25572 net.cpp:399] loss_hashing -> loss_hashing
…
