…
I0913 18:37:19.299345 22180 net.cpp:313] The NetState phase (0) differed from the phase (1) specified by a rule in layer accuracy_at_1_Pattern
I0913 18:37:19.299760 22180 net.cpp:49] Initializing net from parameters: 
name: "docomo_VGG16"
state {
  phase: TRAIN
}
layer {
  name: "data"
  type: "Data"
  top: "data"
  top: "label"
  include {
    phase: TRAIN
  }
  transform_param {
    mirror: true
    crop_size: 224
    mean_value: 103.939
    mean_value: 116.779
    mean_value: 123.68
  }
  data_param {
    source: "PATTERN/pattern_train_lmdb/"
    batch_size: 10
    backend: LMDB
  }
}
layer {
  name: "conv1_1"
  type: "Convolution"
  bottom: "data"
  top: "conv1_1"
  param {
    lr_mult: 1
    decay_mult: 1
  }
  param {
    lr_mult: 2
    decay_mult: 0
  }
  convolution_param {
    num_output: 64
    pad: 1
    kernel_size: 3
    weight_filler {
      type: "gaussian"
      std: 0.01
    }
    bias_filler {
      type: "constant"
      value: 0
    }
  }
}
layer {
  name: "relu1_1"
  type: "ReLU"
  bottom: "conv1_1"
  top: "conv1_1"
}
layer {
  name: "conv1_2"
  type: "Convolution"
  bottom: "conv1_1"
  top: "conv1_2"
  param {
    lr_mult: 1
    decay_mult: 1
  }
  param {
    lr_mult: 2
    decay_mult: 0
  }
  convolution_param {
    num_output: 64
    pad: 1
    kernel_size: 3
    weight_filler {
      type: "gaussian"
      std: 0.01
    }
    bias_filler {
      type: "constant"
      value: 0
    }
  }
}
layer {
  name: "relu1_2"
  type: "ReLU"
  bottom: "conv1_2"
  top: "conv1_2"
}
layer {
  name: "pool1"
  type: "Pooling"
  bottom: "conv1_2"
  top: "pool1"
  pooling_param {
    pool: MAX
    kernel_size: 2
    stride: 2
  }
}
layer {
  name: "conv2_1"
  type: "Convolution"
  bottom: "pool1"
  top: "conv2_1"
  param {
    lr_mult: 1
    decay_mult: 1
  }
  param {
    lr_mult: 2
    decay_mult: 0
  }
  convolution_param {
    num_output: 128
    pad: 1
    kernel_size: 3
    weight_filler {
      type: "gaussian"
      std: 0.01
    }
    bias_filler {
      type: "constant"
      value: 0
    }
  }
}
layer {
  name: "relu2_1"
  type: "ReLU"
  bottom: "conv2_1"
  top: "conv2_1"
}
layer {
  name: "conv2_2"
  type: "Convolution"
  bottom: "conv2_1"
  top: "conv2_2"
  param {
    lr_mult: 1
    decay_mult: 1
  }
  param {
    lr_mult: 2
    decay_mult: 0
  }
  convolution_param {
    num_output: 128
    pad: 1
    kernel_size: 3
    weight_filler {
      type: "gaussian"
      std: 0.01
    }
    bias_filler {
      type: "constant"
      value: 0
    }
  }
}
layer {
  name: "relu2_2"
  type: "ReLU"
  bottom: "conv2_2"
  top: "conv2_2"
}
layer {
  name: "pool2"
  type: "Pooling"
  bottom: "conv2_2"
  top: "pool2"
  pooling_param {
    pool: MAX
    kernel_size: 2
    stride: 2
  }
}
layer {
  name: "conv3_1"
  type: "Convolution"
  bottom: "pool2"
  top: "conv3_1"
  param {
    lr_mult: 1
    decay_mult: 1
  }
  param {
    lr_mult: 2
    decay_mult: 0
  }
  convolution_param {
    num_output: 256
    pad: 1
    kernel_size: 3
    weight_filler {
      type: "gaussian"
      std: 0.01
    }
    bias_filler {
      type: "constant"
      value: 0
    }
  }
}
layer {
  name: "relu3_1"
  type: "ReLU"
  bottom: "conv3_1"
  top: "conv3_1"
}
layer {
  name: "conv3_2"
  type: "Convolution"
  bottom: "conv3_1"
  top: "conv3_2"
  param {
    lr_mult: 1
    decay_mult: 1
  }
  param {
    lr_mult: 2
    decay_mult: 0
  }
  convolution_param {
    num_output: 256
    pad: 1
    kernel_size: 3
    weight_filler {
      type: "gaussian"
      std: 0.01
    }
    bias_filler {
      type: "constant"
      value: 0
    }
  }
}
layer {
  name: "relu3_2"
  type: "ReLU"
  bottom: "conv3_2"
  top: "conv3_2"
}
layer {
  name: "conv3_3"
  type: "Convolution"
  bottom: "conv3_2"
  top: "conv3_3"
  param {
    lr_mult: 1
    decay_mult: 1
  }
  param {
    lr_mult: 2
    decay_mult: 0
  }
  convolution_param {
    num_output: 256
    pad: 1
    kernel_size: 3
    weight_filler {
      type: "gaussian"
      std: 0.01
    }
    bias_filler {
      type: "constant"
      value: 0
    }
  }
}
layer {
  name: "relu3_3"
  type: "ReLU"
  bottom: "conv3_3"
  top: "conv3_3"
}
layer {
  name: "pool3"
  type: "Pooling"
  bottom: "conv3_3"
  top: "pool3"
  pooling_param {
    pool: MAX
    kernel_size: 2
    stride: 2
  }
}
layer {
  name: "conv4_1"
  type: "Convolution"
  bottom: "pool3"
  top: "conv4_1"
  param {
    lr_mult: 1
    decay_mult: 1
  }
  param {
    lr_mult: 2
    decay_mult: 0
  }
  convolution_param {
    num_output: 512
    pad: 1
    kernel_size: 3
    weight_filler {
      type: "gaussian"
      std: 0.01
    }
    bias_filler {
      type: "constant"
      value: 0
    }
  }
}
layer {
  name: "relu4_1"
  type: "ReLU"
  bottom: "conv4_1"
  top: "conv4_1"
}
layer {
  name: "conv4_2"
  type: "Convolution"
  bottom: "conv4_1"
  top: "conv4_2"
  param {
    lr_mult: 1
    decay_mult: 1
  }
  param {
    lr_mult: 2
    decay_mult: 0
  }
  convolution_param {
    num_output: 512
    pad: 1
    kernel_size: 3
    weight_filler {
      type: "gaussian"
      std: 0.01
    }
    bias_filler {
      type: "constant"
      value: 0
    }
  }
}
layer {
  name: "relu4_2"
  type: "ReLU"
  bottom: "conv4_2"
  top: "conv4_2"
}
layer {
  name: "conv4_3"
  type: "Convolution"
  bottom: "conv4_2"
  top: "conv4_3"
  param {
    lr_mult: 1
    decay_mult: 1
  }
  param {
    lr_mult: 2
    decay_mult: 0
  }
  convolution_param {
    num_output: 512
    pad: 1
    kernel_size: 3
    weight_filler {
      type: "gaussian"
      std: 0.01
    }
    bias_filler {
      type: "constant"
      value: 0
    }
  }
}
layer {
  name: "relu4_3"
  type: "ReLU"
  bottom: "conv4_3"
  top: "conv4_3"
}
layer {
  name: "pool4"
  type: "Pooling"
  bottom: "conv4_3"
  top: "pool4"
  pooling_param {
    pool: MAX
    kernel_size: 2
    stride: 2
  }
}
layer {
  name: "conv5_1"
  type: "Convolution"
  bottom: "pool4"
  top: "conv5_1"
  param {
    lr_mult: 1
    decay_mult: 1
  }
  param {
    lr_mult: 2
    decay_mult: 0
  }
  convolution_param {
    num_output: 512
    pad: 1
    kernel_size: 3
    weight_filler {
      type: "gaussian"
      std: 0.01
    }
    bias_filler {
      type: "constant"
      value: 0
    }
  }
}
layer {
  name: "relu5_1"
  type: "ReLU"
  bottom: "conv5_1"
  top: "conv5_1"
}
layer {
  name: "conv5_2"
  type: "Convolution"
  bottom: "conv5_1"
  top: "conv5_2"
  param {
    lr_mult: 1
    decay_mult: 1
  }
  param {
    lr_mult: 2
    decay_mult: 0
  }
  convolution_param {
    num_output: 512
    pad: 1
    kernel_size: 3
    weight_filler {
      type: "gaussian"
      std: 0.01
    }
    bias_filler {
      type: "constant"
      value: 0
    }
  }
}
layer {
  name: "relu5_2"
  type: "ReLU"
  bottom: "conv5_2"
  top: "conv5_2"
}
layer {
  name: "conv5_3"
  type: "Convolution"
  bottom: "conv5_2"
  top: "conv5_3"
  param {
    lr_mult: 1
    decay_mult: 1
  }
  param {
    lr_mult: 2
    decay_mult: 0
  }
  convolution_param {
    num_output: 512
    pad: 1
    kernel_size: 3
    weight_filler {
      type: "gaussian"
      std: 0.01
    }
    bias_filler {
      type: "constant"
      value: 0
    }
  }
}
layer {
  name: "relu5_3"
  type: "ReLU"
  bottom: "conv5_3"
  top: "conv5_3"
}
layer {
  name: "pool5"
  type: "Pooling"
  bottom: "conv5_3"
  top: "pool5"
  pooling_param {
    pool: MAX
    kernel_size: 2
    stride: 2
  }
}
layer {
  name: "fc6"
  type: "InnerProduct"
  bottom: "pool5"
  top: "fc6"
  param {
    lr_mult: 1
    decay_mult: 1
  }
  param {
    lr_mult: 2
    decay_mult: 0
  }
  inner_product_param {
    num_output: 4096
    weight_filler {
      type: "gaussian"
      std: 0.005
    }
    bias_filler {
      type: "constant"
      value: 0.1
    }
  }
}
layer {
  name: "relu6"
  type: "ReLU"
  bottom: "fc6"
  top: "fc6"
}
layer {
  name: "drop6"
  type: "Dropout"
  bottom: "fc6"
  top: "fc6"
  dropout_param {
    dropout_ratio: 0.5
  }
}
layer {
  name: "fc7"
  type: "InnerProduct"
  bottom: "fc6"
  top: "fc7"
  param {
    lr_mult: 1
    decay_mult: 1
  }
  param {
    lr_mult: 2
    decay_mult: 0
  }
  inner_product_param {
    num_output: 4096
    weight_filler {
      type: "gaussian"
      std: 0.005
    }
    bias_filler {
      type: "constant"
      value: 0.1
    }
  }
}
layer {
  name: "relu7"
  type: "ReLU"
  bottom: "fc7"
  top: "fc7"
}
layer {
  name: "drop7"
  type: "Dropout"
  bottom: "fc7"
  top: "fc7"
  dropout_param {
    dropout_ratio: 0.5
  }
}
layer {
  name: "fc8_binary_Type"
  type: "InnerProduct"
  bottom: "fc7"
  top: "fc8_binary_Type"
  param {
    lr_mult: 0
    decay_mult: 0
  }
  param {
    lr_mult: 0
    decay_mult: 0
  }
  inner_product_param {
    num_output: 12
    weight_filler {
      type: "gaussian"
      std: 0.005
    }
    bias_filler {
      type: "constant"
      value: 0.1
    }
  }
}
layer {
  name: "fc8_classification_Type"
  type: "InnerProduct"
  bottom: "fc7"
  top: "fc8_classification_Type"
  param {
    lr_mult: 0
    decay_mult: 0
  }
  param {
    lr_mult: 0
    decay_mult: 0
  }
  inner_product_param {
    num_output: 25
    weight_filler {
      type: "gaussian"
      std: 0.05
    }
    bias_filler {
      type: "constant"
      value: 0.1
    }
  }
}
layer {
  name: "fc_binary_Pattern"
  type: "InnerProduct"
  bottom: "fc7"
  top: "fc_binary_Pattern"
  param {
    lr_mult: 1
    decay_mult: 1
  }
  param {
    lr_mult: 2
    decay_mult: 0
  }
  inner_product_param {
    num_output: 12
    weight_filler {
      type: "gaussian"
      std: 0.005
    }
    bias_filler {
      type: "constant"
      value: 0.1
    }
  }
}
layer {
  name: "fc_classification_Pattern"
  type: "InnerProduct"
  bottom: "fc7"
  top: "fc_classification_Pattern"
  param {
    lr_mult: 1
    decay_mult: 1
  }
  param {
    lr_mult: 2
    decay_mult: 0
  }
  inner_product_param {
    num_output: 7
    weight_filler {
      type: "gaussian"
      std: 0.05
    }
    bias_filler {
      type: "constant"
      value: 0.1
    }
  }
}
layer {
  name: "loss_hashing_Type"
  type: "HashingLoss"
  bottom: "fc8_binary_Type"
  bottom: "label"
  top: "loss_hashing_Type"
  loss_weight: 0
  hashing_loss_param {
    bi_margin: 24
    tradeoff: 0.01
  }
}
layer {
  name: "loss_classification_Type"
  type: "SoftmaxWithLoss"
  bottom: "fc8_classification_Type"
  bottom: "label"
  top: "loss_classification_Type"
  loss_weight: 0
}
layer {
  name: "loss_hashing_Pattern"
  type: "HashingLoss"
  bottom: "fc_binary_Pattern"
  bottom: "label"
  top: "loss_hashing_Pattern"
  loss_weight: 0.1
  hashing_loss_param {
    bi_margin: 24
    tradeoff: 0.01
  }
}
layer {
  name: "loss_classification_Pattern"
  type: "SoftmaxWithLoss"
  bottom: "fc_classification_Pattern"
  bottom: "label"
  top: "loss_classification_Pattern"
}
I0913 18:37:19.302700 22180 layer_factory.hpp:77] Creating layer data
I0913 18:37:19.303336 22180 net.cpp:91] Creating Layer data
I0913 18:37:19.303392 22180 net.cpp:399] data -> data
I0913 18:37:19.303457 22180 net.cpp:399] data -> label
I0913 18:37:19.304319 22185 db_lmdb.cpp:38] Opened lmdb PATTERN/pattern_train_lmdb/
I0913 18:37:19.319427 22180 data_layer.cpp:41] output data size: 10,3,224,224
I0913 18:37:19.330785 22180 net.cpp:141] Setting up data
I0913 18:37:19.330864 22180 net.cpp:148] Top shape: 10 3 224 224 (1505280)
I0913 18:37:19.330886 22180 net.cpp:148] Top shape: 10 1 1 1 (10)
I0913 18:37:19.330902 22180 net.cpp:156] Memory required for data: 6021160
I0913 18:37:19.330929 22180 layer_factory.hpp:77] Creating layer label_data_1_split
I0913 18:37:19.330965 22180 net.cpp:91] Creating Layer label_data_1_split
I0913 18:37:19.331024 22180 net.cpp:425] label_data_1_split <- label
I0913 18:37:19.331061 22180 net.cpp:399] label_data_1_split -> label_data_1_split_0
I0913 18:37:19.331090 22180 net.cpp:399] label_data_1_split -> label_data_1_split_1
I0913 18:37:19.331113 22180 net.cpp:399] label_data_1_split -> label_data_1_split_2
I0913 18:37:19.331137 22180 net.cpp:399] label_data_1_split -> label_data_1_split_3
I0913 18:37:19.331229 22180 net.cpp:141] Setting up label_data_1_split
I0913 18:37:19.331255 22180 net.cpp:148] Top shape: 10 1 1 1 (10)
I0913 18:37:19.331272 22180 net.cpp:148] Top shape: 10 1 1 1 (10)
I0913 18:37:19.331290 22180 net.cpp:148] Top shape: 10 1 1 1 (10)
I0913 18:37:19.331305 22180 net.cpp:148] Top shape: 10 1 1 1 (10)
I0913 18:37:19.331321 22180 net.cpp:156] Memory required for data: 6021320
I0913 18:37:19.331334 22180 layer_factory.hpp:77] Creating layer conv1_1
I0913 18:37:19.331379 22180 net.cpp:91] Creating Layer conv1_1
I0913 18:37:19.331399 22180 net.cpp:425] conv1_1 <- data
I0913 18:37:19.331421 22180 net.cpp:399] conv1_1 -> conv1_1
I0913 18:37:19.333531 22180 net.cpp:141] Setting up conv1_1
I0913 18:37:19.333570 22180 net.cpp:148] Top shape: 10 64 224 224 (32112640)
I0913 18:37:19.333586 22180 net.cpp:156] Memory required for data: 134471880
I0913 18:37:19.333621 22180 layer_factory.hpp:77] Creating layer relu1_1
I0913 18:37:19.333660 22180 net.cpp:91] Creating Layer relu1_1
I0913 18:37:19.333678 22180 net.cpp:425] relu1_1 <- conv1_1
I0913 18:37:19.333696 22180 net.cpp:386] relu1_1 -> conv1_1 (in-place)
I0913 18:37:19.333725 22180 net.cpp:141] Setting up relu1_1
I0913 18:37:19.333745 22180 net.cpp:148] Top shape: 10 64 224 224 (32112640)
I0913 18:37:19.333760 22180 net.cpp:156] Memory required for data: 262922440
I0913 18:37:19.333775 22180 layer_factory.hpp:77] Creating layer conv1_2
I0913 18:37:19.333801 22180 net.cpp:91] Creating Layer conv1_2
I0913 18:37:19.333818 22180 net.cpp:425] conv1_2 <- conv1_1
I0913 18:37:19.333840 22180 net.cpp:399] conv1_2 -> conv1_2
I0913 18:37:19.335510 22180 net.cpp:141] Setting up conv1_2
I0913 18:37:19.335538 22180 net.cpp:148] Top shape: 10 64 224 224 (32112640)
I0913 18:37:19.335556 22180 net.cpp:156] Memory required for data: 391373000
I0913 18:37:19.335578 22180 layer_factory.hpp:77] Creating layer relu1_2
I0913 18:37:19.335602 22180 net.cpp:91] Creating Layer relu1_2
I0913 18:37:19.335618 22180 net.cpp:425] relu1_2 <- conv1_2
I0913 18:37:19.335635 22180 net.cpp:386] relu1_2 -> conv1_2 (in-place)
I0913 18:37:19.335654 22180 net.cpp:141] Setting up relu1_2
I0913 18:37:19.335674 22180 net.cpp:148] Top shape: 10 64 224 224 (32112640)
I0913 18:37:19.335688 22180 net.cpp:156] Memory required for data: 519823560
I0913 18:37:19.335705 22180 layer_factory.hpp:77] Creating layer pool1
I0913 18:37:19.335726 22180 net.cpp:91] Creating Layer pool1
I0913 18:37:19.335742 22180 net.cpp:425] pool1 <- conv1_2
I0913 18:37:19.335759 22180 net.cpp:399] pool1 -> pool1
I0913 18:37:19.335832 22180 net.cpp:141] Setting up pool1
I0913 18:37:19.335858 22180 net.cpp:148] Top shape: 10 64 112 112 (8028160)
I0913 18:37:19.335875 22180 net.cpp:156] Memory required for data: 551936200
I0913 18:37:19.335889 22180 layer_factory.hpp:77] Creating layer conv2_1
I0913 18:37:19.335914 22180 net.cpp:91] Creating Layer conv2_1
I0913 18:37:19.335933 22180 net.cpp:425] conv2_1 <- pool1
I0913 18:37:19.335953 22180 net.cpp:399] conv2_1 -> conv2_1
I0913 18:37:19.340121 22180 net.cpp:141] Setting up conv2_1
I0913 18:37:19.340155 22180 net.cpp:148] Top shape: 10 128 112 112 (16056320)
I0913 18:37:19.340173 22180 net.cpp:156] Memory required for data: 616161480
I0913 18:37:19.340195 22180 layer_factory.hpp:77] Creating layer relu2_1
I0913 18:37:19.340217 22180 net.cpp:91] Creating Layer relu2_1
I0913 18:37:19.340234 22180 net.cpp:425] relu2_1 <- conv2_1
I0913 18:37:19.340251 22180 net.cpp:386] relu2_1 -> conv2_1 (in-place)
I0913 18:37:19.340271 22180 net.cpp:141] Setting up relu2_1
I0913 18:37:19.340292 22180 net.cpp:148] Top shape: 10 128 112 112 (16056320)
I0913 18:37:19.340307 22180 net.cpp:156] Memory required for data: 680386760
I0913 18:37:19.340349 22180 layer_factory.hpp:77] Creating layer conv2_2
I0913 18:37:19.340378 22180 net.cpp:91] Creating Layer conv2_2
I0913 18:37:19.340399 22180 net.cpp:425] conv2_2 <- conv2_1
I0913 18:37:19.340417 22180 net.cpp:399] conv2_2 -> conv2_2
I0913 18:37:19.346184 22180 net.cpp:141] Setting up conv2_2
I0913 18:37:19.346215 22180 net.cpp:148] Top shape: 10 128 112 112 (16056320)
I0913 18:37:19.346230 22180 net.cpp:156] Memory required for data: 744612040
I0913 18:37:19.346251 22180 layer_factory.hpp:77] Creating layer relu2_2
I0913 18:37:19.346272 22180 net.cpp:91] Creating Layer relu2_2
I0913 18:37:19.346289 22180 net.cpp:425] relu2_2 <- conv2_2
I0913 18:37:19.346307 22180 net.cpp:386] relu2_2 -> conv2_2 (in-place)
I0913 18:37:19.346326 22180 net.cpp:141] Setting up relu2_2
I0913 18:37:19.346344 22180 net.cpp:148] Top shape: 10 128 112 112 (16056320)
I0913 18:37:19.346364 22180 net.cpp:156] Memory required for data: 808837320
I0913 18:37:19.346379 22180 layer_factory.hpp:77] Creating layer pool2
I0913 18:37:19.346400 22180 net.cpp:91] Creating Layer pool2
I0913 18:37:19.346416 22180 net.cpp:425] pool2 <- conv2_2
I0913 18:37:19.346433 22180 net.cpp:399] pool2 -> pool2
I0913 18:37:19.346493 22180 net.cpp:141] Setting up pool2
I0913 18:37:19.346518 22180 net.cpp:148] Top shape: 10 128 56 56 (4014080)
I0913 18:37:19.346534 22180 net.cpp:156] Memory required for data: 824893640
I0913 18:37:19.346549 22180 layer_factory.hpp:77] Creating layer conv3_1
I0913 18:37:19.346572 22180 net.cpp:91] Creating Layer conv3_1
I0913 18:37:19.346590 22180 net.cpp:425] conv3_1 <- pool2
I0913 18:37:19.346609 22180 net.cpp:399] conv3_1 -> conv3_1
I0913 18:37:19.358608 22180 net.cpp:141] Setting up conv3_1
I0913 18:37:19.358659 22180 net.cpp:148] Top shape: 10 256 56 56 (8028160)
I0913 18:37:19.358677 22180 net.cpp:156] Memory required for data: 857006280
I0913 18:37:19.358706 22180 layer_factory.hpp:77] Creating layer relu3_1
I0913 18:37:19.358728 22180 net.cpp:91] Creating Layer relu3_1
I0913 18:37:19.358744 22180 net.cpp:425] relu3_1 <- conv3_1
I0913 18:37:19.358770 22180 net.cpp:386] relu3_1 -> conv3_1 (in-place)
I0913 18:37:19.358793 22180 net.cpp:141] Setting up relu3_1
I0913 18:37:19.358809 22180 net.cpp:148] Top shape: 10 256 56 56 (8028160)
I0913 18:37:19.358824 22180 net.cpp:156] Memory required for data: 889118920
I0913 18:37:19.358839 22180 layer_factory.hpp:77] Creating layer conv3_2
I0913 18:37:19.358861 22180 net.cpp:91] Creating Layer conv3_2
I0913 18:37:19.358876 22180 net.cpp:425] conv3_2 <- conv3_1
I0913 18:37:19.358898 22180 net.cpp:399] conv3_2 -> conv3_2
I0913 18:37:19.381547 22180 net.cpp:141] Setting up conv3_2
I0913 18:37:19.381590 22180 net.cpp:148] Top shape: 10 256 56 56 (8028160)
I0913 18:37:19.381608 22180 net.cpp:156] Memory required for data: 921231560
I0913 18:37:19.381633 22180 layer_factory.hpp:77] Creating layer relu3_2
I0913 18:37:19.381656 22180 net.cpp:91] Creating Layer relu3_2
I0913 18:37:19.381673 22180 net.cpp:425] relu3_2 <- conv3_2
I0913 18:37:19.381691 22180 net.cpp:386] relu3_2 -> conv3_2 (in-place)
I0913 18:37:19.381711 22180 net.cpp:141] Setting up relu3_2
I0913 18:37:19.381732 22180 net.cpp:148] Top shape: 10 256 56 56 (8028160)
I0913 18:37:19.381748 22180 net.cpp:156] Memory required for data: 953344200
I0913 18:37:19.381763 22180 layer_factory.hpp:77] Creating layer conv3_3
I0913 18:37:19.381791 22180 net.cpp:91] Creating Layer conv3_3
I0913 18:37:19.381808 22180 net.cpp:425] conv3_3 <- conv3_2
I0913 18:37:19.381834 22180 net.cpp:399] conv3_3 -> conv3_3
I0913 18:37:19.404503 22180 net.cpp:141] Setting up conv3_3
I0913 18:37:19.404546 22180 net.cpp:148] Top shape: 10 256 56 56 (8028160)
I0913 18:37:19.404563 22180 net.cpp:156] Memory required for data: 985456840
I0913 18:37:19.404583 22180 layer_factory.hpp:77] Creating layer relu3_3
I0913 18:37:19.404603 22180 net.cpp:91] Creating Layer relu3_3
I0913 18:37:19.404620 22180 net.cpp:425] relu3_3 <- conv3_3
I0913 18:37:19.404640 22180 net.cpp:386] relu3_3 -> conv3_3 (in-place)
I0913 18:37:19.404695 22180 net.cpp:141] Setting up relu3_3
I0913 18:37:19.404714 22180 net.cpp:148] Top shape: 10 256 56 56 (8028160)
I0913 18:37:19.404732 22180 net.cpp:156] Memory required for data: 1017569480
I0913 18:37:19.404747 22180 layer_factory.hpp:77] Creating layer pool3
I0913 18:37:19.404767 22180 net.cpp:91] Creating Layer pool3
I0913 18:37:19.404781 22180 net.cpp:425] pool3 <- conv3_3
I0913 18:37:19.404803 22180 net.cpp:399] pool3 -> pool3
I0913 18:37:19.404862 22180 net.cpp:141] Setting up pool3
I0913 18:37:19.404886 22180 net.cpp:148] Top shape: 10 256 28 28 (2007040)
I0913 18:37:19.404901 22180 net.cpp:156] Memory required for data: 1025597640
I0913 18:37:19.404917 22180 layer_factory.hpp:77] Creating layer conv4_1
I0913 18:37:19.404942 22180 net.cpp:91] Creating Layer conv4_1
I0913 18:37:19.404959 22180 net.cpp:425] conv4_1 <- pool3
I0913 18:37:19.404981 22180 net.cpp:399] conv4_1 -> conv4_1
I0913 18:37:19.450484 22180 net.cpp:141] Setting up conv4_1
I0913 18:37:19.450527 22180 net.cpp:148] Top shape: 10 512 28 28 (4014080)
I0913 18:37:19.450546 22180 net.cpp:156] Memory required for data: 1041653960
I0913 18:37:19.450564 22180 layer_factory.hpp:77] Creating layer relu4_1
I0913 18:37:19.450584 22180 net.cpp:91] Creating Layer relu4_1
I0913 18:37:19.450600 22180 net.cpp:425] relu4_1 <- conv4_1
I0913 18:37:19.450618 22180 net.cpp:386] relu4_1 -> conv4_1 (in-place)
I0913 18:37:19.450639 22180 net.cpp:141] Setting up relu4_1
I0913 18:37:19.450659 22180 net.cpp:148] Top shape: 10 512 28 28 (4014080)
I0913 18:37:19.450675 22180 net.cpp:156] Memory required for data: 1057710280
I0913 18:37:19.450691 22180 layer_factory.hpp:77] Creating layer conv4_2
I0913 18:37:19.450716 22180 net.cpp:91] Creating Layer conv4_2
I0913 18:37:19.450733 22180 net.cpp:425] conv4_2 <- conv4_1
I0913 18:37:19.450755 22180 net.cpp:399] conv4_2 -> conv4_2
I0913 18:37:19.540236 22180 net.cpp:141] Setting up conv4_2
I0913 18:37:19.540288 22180 net.cpp:148] Top shape: 10 512 28 28 (4014080)
I0913 18:37:19.540307 22180 net.cpp:156] Memory required for data: 1073766600
I0913 18:37:19.540336 22180 layer_factory.hpp:77] Creating layer relu4_2
I0913 18:37:19.540359 22180 net.cpp:91] Creating Layer relu4_2
I0913 18:37:19.540374 22180 net.cpp:425] relu4_2 <- conv4_2
I0913 18:37:19.540395 22180 net.cpp:386] relu4_2 -> conv4_2 (in-place)
I0913 18:37:19.540421 22180 net.cpp:141] Setting up relu4_2
I0913 18:37:19.540438 22180 net.cpp:148] Top shape: 10 512 28 28 (4014080)
I0913 18:37:19.540453 22180 net.cpp:156] Memory required for data: 1089822920
I0913 18:37:19.540468 22180 layer_factory.hpp:77] Creating layer conv4_3
I0913 18:37:19.540489 22180 net.cpp:91] Creating Layer conv4_3
I0913 18:37:19.540505 22180 net.cpp:425] conv4_3 <- conv4_2
I0913 18:37:19.540526 22180 net.cpp:399] conv4_3 -> conv4_3
I0913 18:37:19.630195 22180 net.cpp:141] Setting up conv4_3
I0913 18:37:19.630249 22180 net.cpp:148] Top shape: 10 512 28 28 (4014080)
I0913 18:37:19.630267 22180 net.cpp:156] Memory required for data: 1105879240
I0913 18:37:19.630288 22180 layer_factory.hpp:77] Creating layer relu4_3
I0913 18:37:19.630312 22180 net.cpp:91] Creating Layer relu4_3
I0913 18:37:19.630329 22180 net.cpp:425] relu4_3 <- conv4_3
I0913 18:37:19.630348 22180 net.cpp:386] relu4_3 -> conv4_3 (in-place)
I0913 18:37:19.630370 22180 net.cpp:141] Setting up relu4_3
I0913 18:37:19.630393 22180 net.cpp:148] Top shape: 10 512 28 28 (4014080)
I0913 18:37:19.630408 22180 net.cpp:156] Memory required for data: 1121935560
I0913 18:37:19.630422 22180 layer_factory.hpp:77] Creating layer pool4
I0913 18:37:19.630445 22180 net.cpp:91] Creating Layer pool4
I0913 18:37:19.630462 22180 net.cpp:425] pool4 <- conv4_3
I0913 18:37:19.630481 22180 net.cpp:399] pool4 -> pool4
I0913 18:37:19.630539 22180 net.cpp:141] Setting up pool4
I0913 18:37:19.630569 22180 net.cpp:148] Top shape: 10 512 14 14 (1003520)
I0913 18:37:19.630585 22180 net.cpp:156] Memory required for data: 1125949640
I0913 18:37:19.630600 22180 layer_factory.hpp:77] Creating layer conv5_1
I0913 18:37:19.630627 22180 net.cpp:91] Creating Layer conv5_1
I0913 18:37:19.630676 22180 net.cpp:425] conv5_1 <- pool4
I0913 18:37:19.630697 22180 net.cpp:399] conv5_1 -> conv5_1
I0913 18:37:19.720268 22180 net.cpp:141] Setting up conv5_1
I0913 18:37:19.720317 22180 net.cpp:148] Top shape: 10 512 14 14 (1003520)
I0913 18:37:19.720335 22180 net.cpp:156] Memory required for data: 1129963720
I0913 18:37:19.720355 22180 layer_factory.hpp:77] Creating layer relu5_1
I0913 18:37:19.720373 22180 net.cpp:91] Creating Layer relu5_1
I0913 18:37:19.720389 22180 net.cpp:425] relu5_1 <- conv5_1
I0913 18:37:19.720412 22180 net.cpp:386] relu5_1 -> conv5_1 (in-place)
I0913 18:37:19.720432 22180 net.cpp:141] Setting up relu5_1
I0913 18:37:19.720453 22180 net.cpp:148] Top shape: 10 512 14 14 (1003520)
I0913 18:37:19.720468 22180 net.cpp:156] Memory required for data: 1133977800
I0913 18:37:19.720484 22180 layer_factory.hpp:77] Creating layer conv5_2
I0913 18:37:19.720506 22180 net.cpp:91] Creating Layer conv5_2
I0913 18:37:19.720522 22180 net.cpp:425] conv5_2 <- conv5_1
I0913 18:37:19.720546 22180 net.cpp:399] conv5_2 -> conv5_2
I0913 18:37:19.810158 22180 net.cpp:141] Setting up conv5_2
I0913 18:37:19.810207 22180 net.cpp:148] Top shape: 10 512 14 14 (1003520)
I0913 18:37:19.810225 22180 net.cpp:156] Memory required for data: 1137991880
I0913 18:37:19.810245 22180 layer_factory.hpp:77] Creating layer relu5_2
I0913 18:37:19.810264 22180 net.cpp:91] Creating Layer relu5_2
I0913 18:37:19.810281 22180 net.cpp:425] relu5_2 <- conv5_2
I0913 18:37:19.810302 22180 net.cpp:386] relu5_2 -> conv5_2 (in-place)
I0913 18:37:19.810323 22180 net.cpp:141] Setting up relu5_2
I0913 18:37:19.810346 22180 net.cpp:148] Top shape: 10 512 14 14 (1003520)
I0913 18:37:19.810361 22180 net.cpp:156] Memory required for data: 1142005960
I0913 18:37:19.810376 22180 layer_factory.hpp:77] Creating layer conv5_3
I0913 18:37:19.810401 22180 net.cpp:91] Creating Layer conv5_3
I0913 18:37:19.810418 22180 net.cpp:425] conv5_3 <- conv5_2
I0913 18:37:19.810436 22180 net.cpp:399] conv5_3 -> conv5_3
I0913 18:37:19.900256 22180 net.cpp:141] Setting up conv5_3
I0913 18:37:19.900306 22180 net.cpp:148] Top shape: 10 512 14 14 (1003520)
I0913 18:37:19.900323 22180 net.cpp:156] Memory required for data: 1146020040
I0913 18:37:19.900343 22180 layer_factory.hpp:77] Creating layer relu5_3
I0913 18:37:19.900364 22180 net.cpp:91] Creating Layer relu5_3
I0913 18:37:19.900380 22180 net.cpp:425] relu5_3 <- conv5_3
I0913 18:37:19.900398 22180 net.cpp:386] relu5_3 -> conv5_3 (in-place)
I0913 18:37:19.900418 22180 net.cpp:141] Setting up relu5_3
I0913 18:37:19.900441 22180 net.cpp:148] Top shape: 10 512 14 14 (1003520)
I0913 18:37:19.900456 22180 net.cpp:156] Memory required for data: 1150034120
I0913 18:37:19.900471 22180 layer_factory.hpp:77] Creating layer pool5
I0913 18:37:19.900501 22180 net.cpp:91] Creating Layer pool5
I0913 18:37:19.900518 22180 net.cpp:425] pool5 <- conv5_3
I0913 18:37:19.900539 22180 net.cpp:399] pool5 -> pool5
I0913 18:37:19.900602 22180 net.cpp:141] Setting up pool5
I0913 18:37:19.900627 22180 net.cpp:148] Top shape: 10 512 7 7 (250880)
I0913 18:37:19.900643 22180 net.cpp:156] Memory required for data: 1151037640
I0913 18:37:19.900658 22180 layer_factory.hpp:77] Creating layer fc6
I0913 18:37:19.900688 22180 net.cpp:91] Creating Layer fc6
I0913 18:37:19.900707 22180 net.cpp:425] fc6 <- pool5
I0913 18:37:19.900727 22180 net.cpp:399] fc6 -> fc6
I0913 18:37:23.821869 22180 net.cpp:141] Setting up fc6
I0913 18:37:23.821951 22180 net.cpp:148] Top shape: 10 4096 (40960)
I0913 18:37:23.821970 22180 net.cpp:156] Memory required for data: 1151201480
I0913 18:37:23.822003 22180 layer_factory.hpp:77] Creating layer relu6
I0913 18:37:23.822036 22180 net.cpp:91] Creating Layer relu6
I0913 18:37:23.822062 22180 net.cpp:425] relu6 <- fc6
I0913 18:37:23.822088 22180 net.cpp:386] relu6 -> fc6 (in-place)
I0913 18:37:23.822118 22180 net.cpp:141] Setting up relu6
I0913 18:37:23.822136 22180 net.cpp:148] Top shape: 10 4096 (40960)
I0913 18:37:23.822150 22180 net.cpp:156] Memory required for data: 1151365320
I0913 18:37:23.822165 22180 layer_factory.hpp:77] Creating layer drop6
I0913 18:37:23.822240 22180 net.cpp:91] Creating Layer drop6
I0913 18:37:23.822260 22180 net.cpp:425] drop6 <- fc6
I0913 18:37:23.822279 22180 net.cpp:386] drop6 -> fc6 (in-place)
I0913 18:37:23.822346 22180 net.cpp:141] Setting up drop6
I0913 18:37:23.822376 22180 net.cpp:148] Top shape: 10 4096 (40960)
I0913 18:37:23.822391 22180 net.cpp:156] Memory required for data: 1151529160
I0913 18:37:23.822407 22180 layer_factory.hpp:77] Creating layer fc7
I0913 18:37:23.822430 22180 net.cpp:91] Creating Layer fc7
I0913 18:37:23.822449 22180 net.cpp:425] fc7 <- fc6
I0913 18:37:23.822468 22180 net.cpp:399] fc7 -> fc7
I0913 18:37:24.463358 22180 net.cpp:141] Setting up fc7
I0913 18:37:24.463436 22180 net.cpp:148] Top shape: 10 4096 (40960)
I0913 18:37:24.463454 22180 net.cpp:156] Memory required for data: 1151693000
I0913 18:37:24.463479 22180 layer_factory.hpp:77] Creating layer relu7
I0913 18:37:24.463506 22180 net.cpp:91] Creating Layer relu7
I0913 18:37:24.463526 22180 net.cpp:425] relu7 <- fc7
I0913 18:37:24.463548 22180 net.cpp:386] relu7 -> fc7 (in-place)
I0913 18:37:24.463574 22180 net.cpp:141] Setting up relu7
I0913 18:37:24.463594 22180 net.cpp:148] Top shape: 10 4096 (40960)
I0913 18:37:24.463610 22180 net.cpp:156] Memory required for data: 1151856840
I0913 18:37:24.463625 22180 layer_factory.hpp:77] Creating layer drop7
I0913 18:37:24.463644 22180 net.cpp:91] Creating Layer drop7
I0913 18:37:24.463660 22180 net.cpp:425] drop7 <- fc7
I0913 18:37:24.463680 22180 net.cpp:386] drop7 -> fc7 (in-place)
I0913 18:37:24.463724 22180 net.cpp:141] Setting up drop7
I0913 18:37:24.463748 22180 net.cpp:148] Top shape: 10 4096 (40960)
I0913 18:37:24.463763 22180 net.cpp:156] Memory required for data: 1152020680
I0913 18:37:24.463778 22180 layer_factory.hpp:77] Creating layer fc7_drop7_0_split
I0913 18:37:24.463799 22180 net.cpp:91] Creating Layer fc7_drop7_0_split
I0913 18:37:24.463817 22180 net.cpp:425] fc7_drop7_0_split <- fc7
I0913 18:37:24.463840 22180 net.cpp:399] fc7_drop7_0_split -> fc7_drop7_0_split_0
I0913 18:37:24.463865 22180 net.cpp:399] fc7_drop7_0_split -> fc7_drop7_0_split_1
I0913 18:37:24.463886 22180 net.cpp:399] fc7_drop7_0_split -> fc7_drop7_0_split_2
I0913 18:37:24.463906 22180 net.cpp:399] fc7_drop7_0_split -> fc7_drop7_0_split_3
I0913 18:37:24.463984 22180 net.cpp:141] Setting up fc7_drop7_0_split
I0913 18:37:24.464009 22180 net.cpp:148] Top shape: 10 4096 (40960)
I0913 18:37:24.464025 22180 net.cpp:148] Top shape: 10 4096 (40960)
I0913 18:37:24.464042 22180 net.cpp:148] Top shape: 10 4096 (40960)
I0913 18:37:24.464058 22180 net.cpp:148] Top shape: 10 4096 (40960)
I0913 18:37:24.464072 22180 net.cpp:156] Memory required for data: 1152676040
I0913 18:37:24.464087 22180 layer_factory.hpp:77] Creating layer fc8_binary_Type
I0913 18:37:24.464112 22180 net.cpp:91] Creating Layer fc8_binary_Type
I0913 18:37:24.464130 22180 net.cpp:425] fc8_binary_Type <- fc7_drop7_0_split_0
I0913 18:37:24.464150 22180 net.cpp:399] fc8_binary_Type -> fc8_binary_Type
I0913 18:37:24.466136 22180 net.cpp:141] Setting up fc8_binary_Type
I0913 18:37:24.466176 22180 net.cpp:148] Top shape: 10 12 (120)
I0913 18:37:24.466192 22180 net.cpp:156] Memory required for data: 1152676520
I0913 18:37:24.466210 22180 layer_factory.hpp:77] Creating layer fc8_classification_Type
I0913 18:37:24.466233 22180 net.cpp:91] Creating Layer fc8_classification_Type
I0913 18:37:24.466249 22180 net.cpp:425] fc8_classification_Type <- fc7_drop7_0_split_1
I0913 18:37:24.466274 22180 net.cpp:399] fc8_classification_Type -> fc8_classification_Type
I0913 18:37:24.470841 22180 net.cpp:141] Setting up fc8_classification_Type
I0913 18:37:24.470885 22180 net.cpp:148] Top shape: 10 25 (250)
I0913 18:37:24.470901 22180 net.cpp:156] Memory required for data: 1152677520
I0913 18:37:24.470937 22180 layer_factory.hpp:77] Creating layer fc_binary_Pattern
I0913 18:37:24.470963 22180 net.cpp:91] Creating Layer fc_binary_Pattern
I0913 18:37:24.470984 22180 net.cpp:425] fc_binary_Pattern <- fc7_drop7_0_split_2
I0913 18:37:24.471004 22180 net.cpp:399] fc_binary_Pattern -> fc_binary_Pattern
I0913 18:37:24.472978 22180 net.cpp:141] Setting up fc_binary_Pattern
I0913 18:37:24.473017 22180 net.cpp:148] Top shape: 10 12 (120)
I0913 18:37:24.473034 22180 net.cpp:156] Memory required for data: 1152678000
I0913 18:37:24.473053 22180 layer_factory.hpp:77] Creating layer fc_classification_Pattern
I0913 18:37:24.473074 22180 net.cpp:91] Creating Layer fc_classification_Pattern
I0913 18:37:24.473090 22180 net.cpp:425] fc_classification_Pattern <- fc7_drop7_0_split_3
I0913 18:37:24.473111 22180 net.cpp:399] fc_classification_Pattern -> fc_classification_Pattern
I0913 18:37:24.474915 22180 net.cpp:141] Setting up fc_classification_Pattern
I0913 18:37:24.474956 22180 net.cpp:148] Top shape: 10 7 (70)
I0913 18:37:24.474972 22180 net.cpp:156] Memory required for data: 1152678280
I0913 18:37:24.474993 22180 layer_factory.hpp:77] Creating layer loss_hashing_Type
I0913 18:37:24.475023 22180 net.cpp:91] Creating Layer loss_hashing_Type
I0913 18:37:24.475039 22180 net.cpp:425] loss_hashing_Type <- fc8_binary_Type
I0913 18:37:24.475056 22180 net.cpp:425] loss_hashing_Type <- label_data_1_split_0
…
I0913 18:37:24.478497 22180 net.cpp:313] The NetState phase (1) differed from the phase (0) specified by a rule in layer data
I0913 18:37:24.478968 22180 net.cpp:49] Initializing net from parameters: 
name: "docomo_VGG16"
state {
  phase: TEST
}
layer {
  name: "data"
  type: "Data"
  top: "data"
  top: "label"
  include {
    phase: TEST
  }
  transform_param {
    mirror: false
    crop_size: 224
    mean_value: 103.939
    mean_value: 116.779
    mean_value: 123.68
  }
  data_param {
    source: "PATTERN/pattern_val_lmdb/"
    batch_size: 10
    backend: LMDB
  }
}
layer {
  name: "conv1_1"
  type: "Convolution"
  bottom: "data"
  top: "conv1_1"
  param {
    lr_mult: 1
    decay_mult: 1
  }
  param {
    lr_mult: 2
    decay_mult: 0
  }
  convolution_param {
    num_output: 64
    pad: 1
    kernel_size: 3
    weight_filler {
      type: "gaussian"
      std: 0.01
    }
    bias_filler {
      type: "constant"
      value: 0
    }
  }
}
layer {
  name: "relu1_1"
  type: "ReLU"
  bottom: "conv1_1"
  top: "conv1_1"
}
layer {
  name: "conv1_2"
  type: "Convolution"
  bottom: "conv1_1"
  top: "conv1_2"
  param {
    lr_mult: 1
    decay_mult: 1
  }
  param {
    lr_mult: 2
    decay_mult: 0
  }
  convolution_param {
    num_output: 64
    pad: 1
    kernel_size: 3
    weight_filler {
      type: "gaussian"
      std: 0.01
    }
    bias_filler {
      type: "constant"
      value: 0
    }
  }
}
layer {
  name: "relu1_2"
  type: "ReLU"
  bottom: "conv1_2"
  top: "conv1_2"
}
layer {
  name: "pool1"
  type: "Pooling"
  bottom: "conv1_2"
  top: "pool1"
  pooling_param {
    pool: MAX
    kernel_size: 2
    stride: 2
  }
}
layer {
  name: "conv2_1"
  type: "Convolution"
  bottom: "pool1"
  top: "conv2_1"
  param {
    lr_mult: 1
    decay_mult: 1
  }
  param {
    lr_mult: 2
    decay_mult: 0
  }
  convolution_param {
    num_output: 128
    pad: 1
    kernel_size: 3
    weight_filler {
      type: "gaussian"
      std: 0.01
    }
    bias_filler {
      type: "constant"
      value: 0
    }
  }
}
layer {
  name: "relu2_1"
  type: "ReLU"
  bottom: "conv2_1"
  top: "conv2_1"
}
layer {
  name: "conv2_2"
  type: "Convolution"
  bottom: "conv2_1"
  top: "conv2_2"
  param {
    lr_mult: 1
    decay_mult: 1
  }
  param {
    lr_mult: 2
    decay_mult: 0
  }
  convolution_param {
    num_output: 128
    pad: 1
    kernel_size: 3
    weight_filler {
      type: "gaussian"
      std: 0.01
    }
    bias_filler {
      type: "constant"
      value: 0
    }
  }
}
layer {
  name: "relu2_2"
  type: "ReLU"
  bottom: "conv2_2"
  top: "conv2_2"
}
layer {
  name: "pool2"
  type: "Pooling"
  bottom: "conv2_2"
  top: "pool2"
  pooling_param {
    pool: MAX
    kernel_size: 2
    stride: 2
  }
}
layer {
  name: "conv3_1"
  type: "Convolution"
  bottom: "pool2"
  top: "conv3_1"
  param {
    lr_mult: 1
    decay_mult: 1
  }
  param {
    lr_mult: 2
    decay_mult: 0
  }
  convolution_param {
    num_output: 256
    pad: 1
    kernel_size: 3
    weight_filler {
      type: "gaussian"
      std: 0.01
    }
    bias_filler {
      type: "constant"
      value: 0
    }
  }
}
layer {
  name: "relu3_1"
  type: "ReLU"
  bottom: "conv3_1"
  top: "conv3_1"
}
layer {
  name: "conv3_2"
  type: "Convolution"
  bottom: "conv3_1"
  top: "conv3_2"
  param {
    lr_mult: 1
    decay_mult: 1
  }
  param {
    lr_mult: 2
    decay_mult: 0
  }
  convolution_param {
    num_output: 256
    pad: 1
    kernel_size: 3
    weight_filler {
      type: "gaussian"
      std: 0.01
    }
    bias_filler {
      type: "constant"
      value: 0
    }
  }
}
layer {
  name: "relu3_2"
  type: "ReLU"
  bottom: "conv3_2"
  top: "conv3_2"
}
layer {
  name: "conv3_3"
  type: "Convolution"
  bottom: "conv3_2"
  top: "conv3_3"
  param {
    lr_mult: 1
    decay_mult: 1
  }
  param {
    lr_mult: 2
    decay_mult: 0
  }
  convolution_param {
    num_output: 256
    pad: 1
    kernel_size: 3
    weight_filler {
      type: "gaussian"
      std: 0.01
    }
    bias_filler {
      type: "constant"
      value: 0
    }
  }
}
layer {
  name: "relu3_3"
  type: "ReLU"
  bottom: "conv3_3"
  top: "conv3_3"
}
layer {
  name: "pool3"
  type: "Pooling"
  bottom: "conv3_3"
  top: "pool3"
  pooling_param {
    pool: MAX
    kernel_size: 2
    stride: 2
  }
}
layer {
  name: "conv4_1"
  type: "Convolution"
  bottom: "pool3"
  top: "conv4_1"
  param {
    lr_mult: 1
    decay_mult: 1
  }
  param {
    lr_mult: 2
    decay_mult: 0
  }
  convolution_param {
    num_output: 512
    pad: 1
    kernel_size: 3
    weight_filler {
      type: "gaussian"
      std: 0.01
    }
    bias_filler {
      type: "constant"
      value: 0
    }
  }
}
layer {
  name: "relu4_1"
  type: "ReLU"
  bottom: "conv4_1"
  top: "conv4_1"
}
layer {
  name: "conv4_2"
  type: "Convolution"
  bottom: "conv4_1"
  top: "conv4_2"
  param {
    lr_mult: 1
    decay_mult: 1
  }
  param {
    lr_mult: 2
    decay_mult: 0
  }
  convolution_param {
    num_output: 512
    pad: 1
    kernel_size: 3
    weight_filler {
      type: "gaussian"
      std: 0.01
    }
    bias_filler {
      type: "constant"
      value: 0
    }
  }
}
layer {
  name: "relu4_2"
  type: "ReLU"
  bottom: "conv4_2"
  top: "conv4_2"
}
layer {
  name: "conv4_3"
  type: "Convolution"
  bottom: "conv4_2"
  top: "conv4_3"
  param {
    lr_mult: 1
    decay_mult: 1
  }
  param {
    lr_mult: 2
    decay_mult: 0
  }
  convolution_param {
    num_output: 512
    pad: 1
    kernel_size: 3
    weight_filler {
      type: "gaussian"
      std: 0.01
    }
    bias_filler {
      type: "constant"
      value: 0
    }
  }
}
layer {
  name: "relu4_3"
  type: "ReLU"
  bottom: "conv4_3"
  top: "conv4_3"
}
layer {
  name: "pool4"
  type: "Pooling"
  bottom: "conv4_3"
  top: "pool4"
  pooling_param {
    pool: MAX
    kernel_size: 2
    stride: 2
  }
}
layer {
  name: "conv5_1"
  type: "Convolution"
  bottom: "pool4"
  top: "conv5_1"
  param {
    lr_mult: 1
    decay_mult: 1
  }
  param {
    lr_mult: 2
    decay_mult: 0
  }
  convolution_param {
    num_output: 512
    pad: 1
    kernel_size: 3
    weight_filler {
      type: "gaussian"
      std: 0.01
    }
    bias_filler {
      type: "constant"
      value: 0
    }
  }
}
layer {
  name: "relu5_1"
  type: "ReLU"
  bottom: "conv5_1"
  top: "conv5_1"
}
layer {
  name: "conv5_2"
  type: "Convolution"
  bottom: "conv5_1"
  top: "conv5_2"
  param {
    lr_mult: 1
    decay_mult: 1
  }
  param {
    lr_mult: 2
    decay_mult: 0
  }
  convolution_param {
    num_output: 512
    pad: 1
    kernel_size: 3
    weight_filler {
      type: "gaussian"
      std: 0.01
    }
    bias_filler {
      type: "constant"
      value: 0
    }
  }
}
layer {
  name: "relu5_2"
  type: "ReLU"
  bottom: "conv5_2"
  top: "conv5_2"
}
layer {
  name: "conv5_3"
  type: "Convolution"
  bottom: "conv5_2"
  top: "conv5_3"
  param {
    lr_mult: 1
    decay_mult: 1
  }
  param {
    lr_mult: 2
    decay_mult: 0
  }
  convolution_param {
    num_output: 512
    pad: 1
    kernel_size: 3
    weight_filler {
      type: "gaussian"
      std: 0.01
    }
    bias_filler {
      type: "constant"
      value: 0
    }
  }
}
layer {
  name: "relu5_3"
  type: "ReLU"
  bottom: "conv5_3"
  top: "conv5_3"
}
layer {
  name: "pool5"
  type: "Pooling"
  bottom: "conv5_3"
  top: "pool5"
  pooling_param {
    pool: MAX
    kernel_size: 2
    stride: 2
  }
}
layer {
  name: "fc6"
  type: "InnerProduct"
  bottom: "pool5"
  top: "fc6"
  param {
    lr_mult: 1
    decay_mult: 1
  }
  param {
    lr_mult: 2
    decay_mult: 0
  }
  inner_product_param {
    num_output: 4096
    weight_filler {
      type: "gaussian"
      std: 0.005
    }
    bias_filler {
      type: "constant"
      value: 0.1
    }
  }
}
layer {
  name: "relu6"
  type: "ReLU"
  bottom: "fc6"
  top: "fc6"
}
layer {
  name: "drop6"
  type: "Dropout"
  bottom: "fc6"
  top: "fc6"
  dropout_param {
    dropout_ratio: 0.5
  }
}
layer {
  name: "fc7"
  type: "InnerProduct"
  bottom: "fc6"
  top: "fc7"
  param {
    lr_mult: 1
    decay_mult: 1
  }
  param {
    lr_mult: 2
    decay_mult: 0
  }
  inner_product_param {
    num_output: 4096
    weight_filler {
      type: "gaussian"
      std: 0.005
    }
    bias_filler {
      type: "constant"
      value: 0.1
    }
  }
}
layer {
  name: "relu7"
  type: "ReLU"
  bottom: "fc7"
  top: "fc7"
}
layer {
  name: "drop7"
  type: "Dropout"
  bottom: "fc7"
  top: "fc7"
  dropout_param {
    dropout_ratio: 0.5
  }
}
layer {
  name: "fc8_binary_Type"
  type: "InnerProduct"
  bottom: "fc7"
  top: "fc8_binary_Type"
  param {
    lr_mult: 0
    decay_mult: 0
  }
  param {
    lr_mult: 0
    decay_mult: 0
  }
  inner_product_param {
    num_output: 12
    weight_filler {
      type: "gaussian"
      std: 0.005
    }
    bias_filler {
      type: "constant"
      value: 0.1
    }
  }
}
layer {
  name: "fc8_classification_Type"
  type: "InnerProduct"
  bottom: "fc7"
  top: "fc8_classification_Type"
  param {
    lr_mult: 0
    decay_mult: 0
  }
  param {
    lr_mult: 0
    decay_mult: 0
  }
  inner_product_param {
    num_output: 25
    weight_filler {
      type: "gaussian"
      std: 0.05
    }
    bias_filler {
      type: "constant"
      value: 0.1
    }
  }
}
layer {
  name: "fc_binary_Pattern"
  type: "InnerProduct"
  bottom: "fc7"
  top: "fc_binary_Pattern"
  param {
    lr_mult: 1
    decay_mult: 1
  }
  param {
    lr_mult: 2
    decay_mult: 0
  }
  inner_product_param {
    num_output: 12
    weight_filler {
      type: "gaussian"
      std: 0.005
    }
    bias_filler {
      type: "constant"
      value: 0.1
    }
  }
}
layer {
  name: "fc_classification_Pattern"
  type: "InnerProduct"
  bottom: "fc7"
  top: "fc_classification_Pattern"
  param {
    lr_mult: 1
    decay_mult: 1
  }
  param {
    lr_mult: 2
    decay_mult: 0
  }
  inner_product_param {
    num_output: 7
    weight_filler {
      type: "gaussian"
      std: 0.05
    }
    bias_filler {
      type: "constant"
      value: 0.1
    }
  }
}
layer {
  name: "accuracy_at_1_Pattern"
  type: "Accuracy"
  bottom: "fc_classification_Pattern"
  bottom: "label"
  top: "accuracy_at_1_Pattern"
  include {
    phase: TEST
  }
  accuracy_param {
    top_k: 1
  }
}
layer {
  name: "loss_hashing_Type"
  type: "HashingLoss"
  bottom: "fc8_binary_Type"
  bottom: "label"
  top: "loss_hashing_Type"
  loss_weight: 0
  hashing_loss_param {
    bi_margin: 24
    tradeoff: 0.01
  }
}
layer {
  name: "loss_classification_Type"
  type: "SoftmaxWithLoss"
  bottom: "fc8_classification_Type"
  bottom: "label"
  top: "loss_classification_Type"
  loss_weight: 0
}
layer {
  name: "loss_hashing_Pattern"
  type: "HashingLoss"
  bottom: "fc_binary_Pattern"
  bottom: "label"
  top: "loss_hashing_Pattern"
  loss_weight: 0.1
  hashing_loss_param {
    bi_margin: 24
    tradeoff: 0.01
  }
}
layer {
  name: "loss_classification_Pattern"
  type: "SoftmaxWithLoss"
  bottom: "fc_classification_Pattern"
  bottom: "label"
  top: "loss_classification_Pattern"
}
I0913 18:37:24.481819 22180 layer_factory.hpp:77] Creating layer data
I0913 18:37:24.481940 22180 net.cpp:91] Creating Layer data
I0913 18:37:24.481969 22180 net.cpp:399] data -> data
I0913 18:37:24.481997 22180 net.cpp:399] data -> label
I0913 18:37:24.483475 22187 db_lmdb.cpp:38] Opened lmdb PATTERN/pattern_val_lmdb/
I0913 18:37:24.483902 22180 data_layer.cpp:41] output data size: 10,3,224,224
I0913 18:37:24.495285 22180 net.cpp:141] Setting up data
I0913 18:37:24.495347 22180 net.cpp:148] Top shape: 10 3 224 224 (1505280)
I0913 18:37:24.495368 22180 net.cpp:148] Top shape: 10 1 1 1 (10)
I0913 18:37:24.495383 22180 net.cpp:156] Memory required for data: 6021160
I0913 18:37:24.495402 22180 layer_factory.hpp:77] Creating layer label_data_1_split
I0913 18:37:24.495435 22180 net.cpp:91] Creating Layer label_data_1_split
I0913 18:37:24.495455 22180 net.cpp:425] label_data_1_split <- label
I0913 18:37:24.495476 22180 net.cpp:399] label_data_1_split -> label_data_1_split_0
I0913 18:37:24.495507 22180 net.cpp:399] label_data_1_split -> label_data_1_split_1
I0913 18:37:24.495527 22180 net.cpp:399] label_data_1_split -> label_data_1_split_2
I0913 18:37:24.495548 22180 net.cpp:399] label_data_1_split -> label_data_1_split_3
I0913 18:37:24.495568 22180 net.cpp:399] label_data_1_split -> label_data_1_split_4
I0913 18:37:24.495676 22180 net.cpp:141] Setting up label_data_1_split
I0913 18:37:24.495702 22180 net.cpp:148] Top shape: 10 1 1 1 (10)
I0913 18:37:24.495759 22180 net.cpp:148] Top shape: 10 1 1 1 (10)
I0913 18:37:24.495777 22180 net.cpp:148] Top shape: 10 1 1 1 (10)
I0913 18:37:24.495795 22180 net.cpp:148] Top shape: 10 1 1 1 (10)
I0913 18:37:24.495810 22180 net.cpp:148] Top shape: 10 1 1 1 (10)
I0913 18:37:24.495826 22180 net.cpp:156] Memory required for data: 6021360
I0913 18:37:24.495841 22180 layer_factory.hpp:77] Creating layer conv1_1
I0913 18:37:24.495874 22180 net.cpp:91] Creating Layer conv1_1
I0913 18:37:24.495892 22180 net.cpp:425] conv1_1 <- data
I0913 18:37:24.495930 22180 net.cpp:399] conv1_1 -> conv1_1
I0913 18:37:24.496371 22180 net.cpp:141] Setting up conv1_1
I0913 18:37:24.496407 22180 net.cpp:148] Top shape: 10 64 224 224 (32112640)
I0913 18:37:24.496428 22180 net.cpp:156] Memory required for data: 134471920
I0913 18:37:24.496454 22180 layer_factory.hpp:77] Creating layer relu1_1
I0913 18:37:24.496474 22180 net.cpp:91] Creating Layer relu1_1
I0913 18:37:24.496490 22180 net.cpp:425] relu1_1 <- conv1_1
I0913 18:37:24.496510 22180 net.cpp:386] relu1_1 -> conv1_1 (in-place)
I0913 18:37:24.496538 22180 net.cpp:141] Setting up relu1_1
I0913 18:37:24.496556 22180 net.cpp:148] Top shape: 10 64 224 224 (32112640)
I0913 18:37:24.496572 22180 net.cpp:156] Memory required for data: 262922480
I0913 18:37:24.496588 22180 layer_factory.hpp:77] Creating layer conv1_2
I0913 18:37:24.496614 22180 net.cpp:91] Creating Layer conv1_2
I0913 18:37:24.496634 22180 net.cpp:425] conv1_2 <- conv1_1
I0913 18:37:24.496656 22180 net.cpp:399] conv1_2 -> conv1_2
I0913 18:37:24.498731 22180 net.cpp:141] Setting up conv1_2
I0913 18:37:24.498765 22180 net.cpp:148] Top shape: 10 64 224 224 (32112640)
I0913 18:37:24.498782 22180 net.cpp:156] Memory required for data: 391373040
I0913 18:37:24.498805 22180 layer_factory.hpp:77] Creating layer relu1_2
I0913 18:37:24.498824 22180 net.cpp:91] Creating Layer relu1_2
I0913 18:37:24.498842 22180 net.cpp:425] relu1_2 <- conv1_2
I0913 18:37:24.498858 22180 net.cpp:386] relu1_2 -> conv1_2 (in-place)
I0913 18:37:24.498878 22180 net.cpp:141] Setting up relu1_2
I0913 18:37:24.498896 22180 net.cpp:148] Top shape: 10 64 224 224 (32112640)
I0913 18:37:24.498915 22180 net.cpp:156] Memory required for data: 519823600
I0913 18:37:24.498930 22180 layer_factory.hpp:77] Creating layer pool1
I0913 18:37:24.498953 22180 net.cpp:91] Creating Layer pool1
I0913 18:37:24.498970 22180 net.cpp:425] pool1 <- conv1_2
I0913 18:37:24.498987 22180 net.cpp:399] pool1 -> pool1
I0913 18:37:24.499052 22180 net.cpp:141] Setting up pool1
I0913 18:37:24.499075 22180 net.cpp:148] Top shape: 10 64 112 112 (8028160)
I0913 18:37:24.499090 22180 net.cpp:156] Memory required for data: 551936240
I0913 18:37:24.499106 22180 layer_factory.hpp:77] Creating layer conv2_1
I0913 18:37:24.499131 22180 net.cpp:91] Creating Layer conv2_1
I0913 18:37:24.499150 22180 net.cpp:425] conv2_1 <- pool1
I0913 18:37:24.499171 22180 net.cpp:399] conv2_1 -> conv2_1
I0913 18:37:24.502238 22180 net.cpp:141] Setting up conv2_1
I0913 18:37:24.502266 22180 net.cpp:148] Top shape: 10 128 112 112 (16056320)
I0913 18:37:24.502282 22180 net.cpp:156] Memory required for data: 616161520
I0913 18:37:24.502305 22180 layer_factory.hpp:77] Creating layer relu2_1
I0913 18:37:24.502326 22180 net.cpp:91] Creating Layer relu2_1
I0913 18:37:24.502341 22180 net.cpp:425] relu2_1 <- conv2_1
I0913 18:37:24.502358 22180 net.cpp:386] relu2_1 -> conv2_1 (in-place)
I0913 18:37:24.502377 22180 net.cpp:141] Setting up relu2_1
I0913 18:37:24.502395 22180 net.cpp:148] Top shape: 10 128 112 112 (16056320)
I0913 18:37:24.502410 22180 net.cpp:156] Memory required for data: 680386800
I0913 18:37:24.502424 22180 layer_factory.hpp:77] Creating layer conv2_2
I0913 18:37:24.502449 22180 net.cpp:91] Creating Layer conv2_2
I0913 18:37:24.502471 22180 net.cpp:425] conv2_2 <- conv2_1
I0913 18:37:24.502493 22180 net.cpp:399] conv2_2 -> conv2_2
I0913 18:37:24.508962 22180 net.cpp:141] Setting up conv2_2
I0913 18:37:24.508997 22180 net.cpp:148] Top shape: 10 128 112 112 (16056320)
I0913 18:37:24.509014 22180 net.cpp:156] Memory required for data: 744612080
I0913 18:37:24.509068 22180 layer_factory.hpp:77] Creating layer relu2_2
I0913 18:37:24.509095 22180 net.cpp:91] Creating Layer relu2_2
I0913 18:37:24.509112 22180 net.cpp:425] relu2_2 <- conv2_2
I0913 18:37:24.509133 22180 net.cpp:386] relu2_2 -> conv2_2 (in-place)
I0913 18:37:24.509161 22180 net.cpp:141] Setting up relu2_2
I0913 18:37:24.509181 22180 net.cpp:148] Top shape: 10 128 112 112 (16056320)
I0913 18:37:24.509197 22180 net.cpp:156] Memory required for data: 808837360
I0913 18:37:24.509212 22180 layer_factory.hpp:77] Creating layer pool2
I0913 18:37:24.509232 22180 net.cpp:91] Creating Layer pool2
I0913 18:37:24.509248 22180 net.cpp:425] pool2 <- conv2_2
I0913 18:37:24.509264 22180 net.cpp:399] pool2 -> pool2
I0913 18:37:24.509328 22180 net.cpp:141] Setting up pool2
I0913 18:37:24.509354 22180 net.cpp:148] Top shape: 10 128 56 56 (4014080)
I0913 18:37:24.509369 22180 net.cpp:156] Memory required for data: 824893680
I0913 18:37:24.509384 22180 layer_factory.hpp:77] Creating layer conv3_1
I0913 18:37:24.509409 22180 net.cpp:91] Creating Layer conv3_1
I0913 18:37:24.509426 22180 net.cpp:425] conv3_1 <- pool2
I0913 18:37:24.509449 22180 net.cpp:399] conv3_1 -> conv3_1
I0913 18:37:24.521404 22180 net.cpp:141] Setting up conv3_1
I0913 18:37:24.521456 22180 net.cpp:148] Top shape: 10 256 56 56 (8028160)
I0913 18:37:24.521473 22180 net.cpp:156] Memory required for data: 857006320
I0913 18:37:24.521507 22180 layer_factory.hpp:77] Creating layer relu3_1
I0913 18:37:24.521530 22180 net.cpp:91] Creating Layer relu3_1
I0913 18:37:24.521548 22180 net.cpp:425] relu3_1 <- conv3_1
I0913 18:37:24.521566 22180 net.cpp:386] relu3_1 -> conv3_1 (in-place)
I0913 18:37:24.521589 22180 net.cpp:141] Setting up relu3_1
I0913 18:37:24.521607 22180 net.cpp:148] Top shape: 10 256 56 56 (8028160)
I0913 18:37:24.521631 22180 net.cpp:156] Memory required for data: 889118960
I0913 18:37:24.521646 22180 layer_factory.hpp:77] Creating layer conv3_2
I0913 18:37:24.521672 22180 net.cpp:91] Creating Layer conv3_2
I0913 18:37:24.521692 22180 net.cpp:425] conv3_2 <- conv3_1
I0913 18:37:24.521710 22180 net.cpp:399] conv3_2 -> conv3_2
I0913 18:37:24.544490 22180 net.cpp:141] Setting up conv3_2
I0913 18:37:24.544533 22180 net.cpp:148] Top shape: 10 256 56 56 (8028160)
I0913 18:37:24.544549 22180 net.cpp:156] Memory required for data: 921231600
I0913 18:37:24.544569 22180 layer_factory.hpp:77] Creating layer relu3_2
I0913 18:37:24.544589 22180 net.cpp:91] Creating Layer relu3_2
I0913 18:37:24.544603 22180 net.cpp:425] relu3_2 <- conv3_2
I0913 18:37:24.544625 22180 net.cpp:386] relu3_2 -> conv3_2 (in-place)
I0913 18:37:24.544644 22180 net.cpp:141] Setting up relu3_2
I0913 18:37:24.544661 22180 net.cpp:148] Top shape: 10 256 56 56 (8028160)
I0913 18:37:24.544677 22180 net.cpp:156] Memory required for data: 953344240
I0913 18:37:24.544690 22180 layer_factory.hpp:77] Creating layer conv3_3
I0913 18:37:24.544718 22180 net.cpp:91] Creating Layer conv3_3
I0913 18:37:24.544736 22180 net.cpp:425] conv3_3 <- conv3_2
I0913 18:37:24.544759 22180 net.cpp:399] conv3_3 -> conv3_3
I0913 18:37:24.567459 22180 net.cpp:141] Setting up conv3_3
I0913 18:37:24.567502 22180 net.cpp:148] Top shape: 10 256 56 56 (8028160)
I0913 18:37:24.567519 22180 net.cpp:156] Memory required for data: 985456880
I0913 18:37:24.567538 22180 layer_factory.hpp:77] Creating layer relu3_3
I0913 18:37:24.567564 22180 net.cpp:91] Creating Layer relu3_3
I0913 18:37:24.567580 22180 net.cpp:425] relu3_3 <- conv3_3
I0913 18:37:24.567598 22180 net.cpp:386] relu3_3 -> conv3_3 (in-place)
I0913 18:37:24.567618 22180 net.cpp:141] Setting up relu3_3
I0913 18:37:24.567636 22180 net.cpp:148] Top shape: 10 256 56 56 (8028160)
I0913 18:37:24.567651 22180 net.cpp:156] Memory required for data: 1017569520
I0913 18:37:24.567667 22180 layer_factory.hpp:77] Creating layer pool3
I0913 18:37:24.567688 22180 net.cpp:91] Creating Layer pool3
I0913 18:37:24.567705 22180 net.cpp:425] pool3 <- conv3_3
I0913 18:37:24.567723 22180 net.cpp:399] pool3 -> pool3
I0913 18:37:24.567788 22180 net.cpp:141] Setting up pool3
I0913 18:37:24.567847 22180 net.cpp:148] Top shape: 10 256 28 28 (2007040)
I0913 18:37:24.567864 22180 net.cpp:156] Memory required for data: 1025597680
I0913 18:37:24.567878 22180 layer_factory.hpp:77] Creating layer conv4_1
I0913 18:37:24.567903 22180 net.cpp:91] Creating Layer conv4_1
I0913 18:37:24.567925 22180 net.cpp:425] conv4_1 <- pool3
I0913 18:37:24.567945 22180 net.cpp:399] conv4_1 -> conv4_1
I0913 18:37:24.612963 22180 net.cpp:141] Setting up conv4_1
I0913 18:37:24.613008 22180 net.cpp:148] Top shape: 10 512 28 28 (4014080)
I0913 18:37:24.613024 22180 net.cpp:156] Memory required for data: 1041654000
I0913 18:37:24.613044 22180 layer_factory.hpp:77] Creating layer relu4_1
I0913 18:37:24.613067 22180 net.cpp:91] Creating Layer relu4_1
I0913 18:37:24.613085 22180 net.cpp:425] relu4_1 <- conv4_1
I0913 18:37:24.613102 22180 net.cpp:386] relu4_1 -> conv4_1 (in-place)
I0913 18:37:24.613122 22180 net.cpp:141] Setting up relu4_1
I0913 18:37:24.613142 22180 net.cpp:148] Top shape: 10 512 28 28 (4014080)
I0913 18:37:24.613155 22180 net.cpp:156] Memory required for data: 1057710320
I0913 18:37:24.613171 22180 layer_factory.hpp:77] Creating layer conv4_2
I0913 18:37:24.613195 22180 net.cpp:91] Creating Layer conv4_2
I0913 18:37:24.613212 22180 net.cpp:425] conv4_2 <- conv4_1
I0913 18:37:24.613235 22180 net.cpp:399] conv4_2 -> conv4_2
I0913 18:37:24.702898 22180 net.cpp:141] Setting up conv4_2
I0913 18:37:24.702949 22180 net.cpp:148] Top shape: 10 512 28 28 (4014080)
I0913 18:37:24.702965 22180 net.cpp:156] Memory required for data: 1073766640
I0913 18:37:24.702993 22180 layer_factory.hpp:77] Creating layer relu4_2
I0913 18:37:24.703018 22180 net.cpp:91] Creating Layer relu4_2
I0913 18:37:24.703037 22180 net.cpp:425] relu4_2 <- conv4_2
I0913 18:37:24.703063 22180 net.cpp:386] relu4_2 -> conv4_2 (in-place)
I0913 18:37:24.703085 22180 net.cpp:141] Setting up relu4_2
I0913 18:37:24.703104 22180 net.cpp:148] Top shape: 10 512 28 28 (4014080)
I0913 18:37:24.703117 22180 net.cpp:156] Memory required for data: 1089822960
I0913 18:37:24.703132 22180 layer_factory.hpp:77] Creating layer conv4_3
I0913 18:37:24.703157 22180 net.cpp:91] Creating Layer conv4_3
I0913 18:37:24.703174 22180 net.cpp:425] conv4_3 <- conv4_2
I0913 18:37:24.703193 22180 net.cpp:399] conv4_3 -> conv4_3
I0913 18:37:24.792764 22180 net.cpp:141] Setting up conv4_3
I0913 18:37:24.792820 22180 net.cpp:148] Top shape: 10 512 28 28 (4014080)
I0913 18:37:24.792837 22180 net.cpp:156] Memory required for data: 1105879280
I0913 18:37:24.792858 22180 layer_factory.hpp:77] Creating layer relu4_3
I0913 18:37:24.792879 22180 net.cpp:91] Creating Layer relu4_3
I0913 18:37:24.792896 22180 net.cpp:425] relu4_3 <- conv4_3
I0913 18:37:24.792913 22180 net.cpp:386] relu4_3 -> conv4_3 (in-place)
I0913 18:37:24.792942 22180 net.cpp:141] Setting up relu4_3
I0913 18:37:24.792960 22180 net.cpp:148] Top shape: 10 512 28 28 (4014080)
I0913 18:37:24.792975 22180 net.cpp:156] Memory required for data: 1121935600
I0913 18:37:24.792989 22180 layer_factory.hpp:77] Creating layer pool4
I0913 18:37:24.793012 22180 net.cpp:91] Creating Layer pool4
I0913 18:37:24.793030 22180 net.cpp:425] pool4 <- conv4_3
I0913 18:37:24.793046 22180 net.cpp:399] pool4 -> pool4
I0913 18:37:24.793113 22180 net.cpp:141] Setting up pool4
I0913 18:37:24.793138 22180 net.cpp:148] Top shape: 10 512 14 14 (1003520)
I0913 18:37:24.793154 22180 net.cpp:156] Memory required for data: 1125949680
I0913 18:37:24.793169 22180 layer_factory.hpp:77] Creating layer conv5_1
I0913 18:37:24.793205 22180 net.cpp:91] Creating Layer conv5_1
I0913 18:37:24.793223 22180 net.cpp:425] conv5_1 <- pool4
I0913 18:37:24.793246 22180 net.cpp:399] conv5_1 -> conv5_1
I0913 18:37:24.883183 22180 net.cpp:141] Setting up conv5_1
I0913 18:37:24.883230 22180 net.cpp:148] Top shape: 10 512 14 14 (1003520)
I0913 18:37:24.883249 22180 net.cpp:156] Memory required for data: 1129963760
I0913 18:37:24.883267 22180 layer_factory.hpp:77] Creating layer relu5_1
I0913 18:37:24.883287 22180 net.cpp:91] Creating Layer relu5_1
I0913 18:37:24.883303 22180 net.cpp:425] relu5_1 <- conv5_1
I0913 18:37:24.883374 22180 net.cpp:386] relu5_1 -> conv5_1 (in-place)
I0913 18:37:24.883397 22180 net.cpp:141] Setting up relu5_1
I0913 18:37:24.883415 22180 net.cpp:148] Top shape: 10 512 14 14 (1003520)
I0913 18:37:24.883430 22180 net.cpp:156] Memory required for data: 1133977840
I0913 18:37:24.883445 22180 layer_factory.hpp:77] Creating layer conv5_2
I0913 18:37:24.883471 22180 net.cpp:91] Creating Layer conv5_2
I0913 18:37:24.883488 22180 net.cpp:425] conv5_2 <- conv5_1
I0913 18:37:24.883507 22180 net.cpp:399] conv5_2 -> conv5_2
I0913 18:37:24.973119 22180 net.cpp:141] Setting up conv5_2
I0913 18:37:24.973166 22180 net.cpp:148] Top shape: 10 512 14 14 (1003520)
I0913 18:37:24.973183 22180 net.cpp:156] Memory required for data: 1137991920
I0913 18:37:24.973204 22180 layer_factory.hpp:77] Creating layer relu5_2
I0913 18:37:24.973224 22180 net.cpp:91] Creating Layer relu5_2
I0913 18:37:24.973242 22180 net.cpp:425] relu5_2 <- conv5_2
I0913 18:37:24.973258 22180 net.cpp:386] relu5_2 -> conv5_2 (in-place)
I0913 18:37:24.973284 22180 net.cpp:141] Setting up relu5_2
I0913 18:37:24.973301 22180 net.cpp:148] Top shape: 10 512 14 14 (1003520)
I0913 18:37:24.973316 22180 net.cpp:156] Memory required for data: 1142006000
I0913 18:37:24.973331 22180 layer_factory.hpp:77] Creating layer conv5_3
I0913 18:37:24.973356 22180 net.cpp:91] Creating Layer conv5_3
I0913 18:37:24.973373 22180 net.cpp:425] conv5_3 <- conv5_2
I0913 18:37:24.973394 22180 net.cpp:399] conv5_3 -> conv5_3
I0913 18:37:25.062904 22180 net.cpp:141] Setting up conv5_3
I0913 18:37:25.062950 22180 net.cpp:148] Top shape: 10 512 14 14 (1003520)
I0913 18:37:25.062968 22180 net.cpp:156] Memory required for data: 1146020080
I0913 18:37:25.062988 22180 layer_factory.hpp:77] Creating layer relu5_3
I0913 18:37:25.063011 22180 net.cpp:91] Creating Layer relu5_3
I0913 18:37:25.063029 22180 net.cpp:425] relu5_3 <- conv5_3
I0913 18:37:25.063055 22180 net.cpp:386] relu5_3 -> conv5_3 (in-place)
I0913 18:37:25.063076 22180 net.cpp:141] Setting up relu5_3
I0913 18:37:25.063093 22180 net.cpp:148] Top shape: 10 512 14 14 (1003520)
I0913 18:37:25.063108 22180 net.cpp:156] Memory required for data: 1150034160
I0913 18:37:25.063123 22180 layer_factory.hpp:77] Creating layer pool5
I0913 18:37:25.063149 22180 net.cpp:91] Creating Layer pool5
I0913 18:37:25.063165 22180 net.cpp:425] pool5 <- conv5_3
I0913 18:37:25.063190 22180 net.cpp:399] pool5 -> pool5
I0913 18:37:25.063256 22180 net.cpp:141] Setting up pool5
I0913 18:37:25.063282 22180 net.cpp:148] Top shape: 10 512 7 7 (250880)
I0913 18:37:25.063297 22180 net.cpp:156] Memory required for data: 1151037680
I0913 18:37:25.063311 22180 layer_factory.hpp:77] Creating layer fc6
I0913 18:37:25.063345 22180 net.cpp:91] Creating Layer fc6
I0913 18:37:25.063361 22180 net.cpp:425] fc6 <- pool5
I0913 18:37:25.063385 22180 net.cpp:399] fc6 -> fc6
I0913 18:37:28.976972 22180 net.cpp:141] Setting up fc6
I0913 18:37:28.977061 22180 net.cpp:148] Top shape: 10 4096 (40960)
I0913 18:37:28.977079 22180 net.cpp:156] Memory required for data: 1151201520
I0913 18:37:28.977115 22180 layer_factory.hpp:77] Creating layer relu6
I0913 18:37:28.977150 22180 net.cpp:91] Creating Layer relu6
I0913 18:37:28.977181 22180 net.cpp:425] relu6 <- fc6
I0913 18:37:28.977207 22180 net.cpp:386] relu6 -> fc6 (in-place)
I0913 18:37:28.977234 22180 net.cpp:141] Setting up relu6
I0913 18:37:28.977257 22180 net.cpp:148] Top shape: 10 4096 (40960)
I0913 18:37:28.977272 22180 net.cpp:156] Memory required for data: 1151365360
I0913 18:37:28.977288 22180 layer_factory.hpp:77] Creating layer drop6
I0913 18:37:28.977308 22180 net.cpp:91] Creating Layer drop6
I0913 18:37:28.977324 22180 net.cpp:425] drop6 <- fc6
I0913 18:37:28.977344 22180 net.cpp:386] drop6 -> fc6 (in-place)
I0913 18:37:28.977401 22180 net.cpp:141] Setting up drop6
I0913 18:37:28.977424 22180 net.cpp:148] Top shape: 10 4096 (40960)
I0913 18:37:28.977440 22180 net.cpp:156] Memory required for data: 1151529200
I0913 18:37:28.977455 22180 layer_factory.hpp:77] Creating layer fc7
I0913 18:37:28.977516 22180 net.cpp:91] Creating Layer fc7
I0913 18:37:28.977535 22180 net.cpp:425] fc7 <- fc6
I0913 18:37:28.977556 22180 net.cpp:399] fc7 -> fc7
I0913 18:37:29.611943 22180 net.cpp:141] Setting up fc7
I0913 18:37:29.612042 22180 net.cpp:148] Top shape: 10 4096 (40960)
I0913 18:37:29.612061 22180 net.cpp:156] Memory required for data: 1151693040
I0913 18:37:29.612097 22180 layer_factory.hpp:77] Creating layer relu7
I0913 18:37:29.612129 22180 net.cpp:91] Creating Layer relu7
I0913 18:37:29.612152 22180 net.cpp:425] relu7 <- fc7
I0913 18:37:29.612186 22180 net.cpp:386] relu7 -> fc7 (in-place)
I0913 18:37:29.612212 22180 net.cpp:141] Setting up relu7
I0913 18:37:29.612237 22180 net.cpp:148] Top shape: 10 4096 (40960)
I0913 18:37:29.612253 22180 net.cpp:156] Memory required for data: 1151856880
I0913 18:37:29.612267 22180 layer_factory.hpp:77] Creating layer drop7
I0913 18:37:29.612289 22180 net.cpp:91] Creating Layer drop7
I0913 18:37:29.612304 22180 net.cpp:425] drop7 <- fc7
I0913 18:37:29.612325 22180 net.cpp:386] drop7 -> fc7 (in-place)
I0913 18:37:29.612402 22180 net.cpp:141] Setting up drop7
I0913 18:37:29.612426 22180 net.cpp:148] Top shape: 10 4096 (40960)
I0913 18:37:29.612442 22180 net.cpp:156] Memory required for data: 1152020720
I0913 18:37:29.612457 22180 layer_factory.hpp:77] Creating layer fc7_drop7_0_split
I0913 18:37:29.612483 22180 net.cpp:91] Creating Layer fc7_drop7_0_split
I0913 18:37:29.612498 22180 net.cpp:425] fc7_drop7_0_split <- fc7
I0913 18:37:29.612514 22180 net.cpp:399] fc7_drop7_0_split -> fc7_drop7_0_split_0
I0913 18:37:29.612540 22180 net.cpp:399] fc7_drop7_0_split -> fc7_drop7_0_split_1
I0913 18:37:29.612562 22180 net.cpp:399] fc7_drop7_0_split -> fc7_drop7_0_split_2
I0913 18:37:29.612583 22180 net.cpp:399] fc7_drop7_0_split -> fc7_drop7_0_split_3
I0913 18:37:29.612669 22180 net.cpp:141] Setting up fc7_drop7_0_split
I0913 18:37:29.612694 22180 net.cpp:148] Top shape: 10 4096 (40960)
I0913 18:37:29.612710 22180 net.cpp:148] Top shape: 10 4096 (40960)
I0913 18:37:29.612726 22180 net.cpp:148] Top shape: 10 4096 (40960)
I0913 18:37:29.612742 22180 net.cpp:148] Top shape: 10 4096 (40960)
I0913 18:37:29.612757 22180 net.cpp:156] Memory required for data: 1152676080
I0913 18:37:29.612771 22180 layer_factory.hpp:77] Creating layer fc8_binary_Type
I0913 18:37:29.612799 22180 net.cpp:91] Creating Layer fc8_binary_Type
I0913 18:37:29.612820 22180 net.cpp:425] fc8_binary_Type <- fc7_drop7_0_split_0
I0913 18:37:29.612841 22180 net.cpp:399] fc8_binary_Type -> fc8_binary_Type
I0913 18:37:29.614809 22180 net.cpp:141] Setting up fc8_binary_Type
I0913 18:37:29.614850 22180 net.cpp:148] Top shape: 10 12 (120)
I0913 18:37:29.614866 22180 net.cpp:156] Memory required for data: 1152676560
I0913 18:37:29.614886 22180 layer_factory.hpp:77] Creating layer fc8_classification_Type
I0913 18:37:29.614908 22180 net.cpp:91] Creating Layer fc8_classification_Type
I0913 18:37:29.614924 22180 net.cpp:425] fc8_classification_Type <- fc7_drop7_0_split_1
I0913 18:37:29.614943 22180 net.cpp:399] fc8_classification_Type -> fc8_classification_Type
I0913 18:37:29.618834 22180 net.cpp:141] Setting up fc8_classification_Type
I0913 18:37:29.618860 22180 net.cpp:148] Top shape: 10 25 (250)
I0913 18:37:29.618887 22180 net.cpp:156] Memory required for data: 1152677560
I0913 18:37:29.618927 22180 layer_factory.hpp:77] Creating layer fc_binary_Pattern
I0913 18:37:29.618963 22180 net.cpp:91] Creating Layer fc_binary_Pattern
I0913 18:37:29.618980 22180 net.cpp:425] fc_binary_Pattern <- fc7_drop7_0_split_2
I0913 18:37:29.619002 22180 net.cpp:399] fc_binary_Pattern -> fc_binary_Pattern
I0913 18:37:29.621575 22180 net.cpp:141] Setting up fc_binary_Pattern
I0913 18:37:29.621603 22180 net.cpp:148] Top shape: 10 12 (120)
I0913 18:37:29.621639 22180 net.cpp:156] Memory required for data: 1152678040
I0913 18:37:29.621657 22180 layer_factory.hpp:77] Creating layer fc_classification_Pattern
I0913 18:37:29.621696 22180 net.cpp:91] Creating Layer fc_classification_Pattern
I0913 18:37:29.621716 22180 net.cpp:425] fc_classification_Pattern <- fc7_drop7_0_split_3
I0913 18:37:29.621778 22180 net.cpp:399] fc_classification_Pattern -> fc_classification_Pattern
I0913 18:37:29.622946 22180 net.cpp:141] Setting up fc_classification_Pattern
I0913 18:37:29.622972 22180 net.cpp:148] Top shape: 10 7 (70)
I0913 18:37:29.622998 22180 net.cpp:156] Memory required for data: 1152678320
I0913 18:37:29.623018 22180 layer_factory.hpp:77] Creating layer fc_classification_Pattern_fc_classification_Pattern_0_split
I0913 18:37:29.623039 22180 net.cpp:91] Creating Layer fc_classification_Pattern_fc_classification_Pattern_0_split
I0913 18:37:29.623054 22180 net.cpp:425] fc_classification_Pattern_fc_classification_Pattern_0_split <- fc_classification_Pattern
I0913 18:37:29.623071 22180 net.cpp:399] fc_classification_Pattern_fc_classification_Pattern_0_split -> fc_classification_Pattern_fc_classification_Pattern_0_split_0
I0913 18:37:29.623108 22180 net.cpp:399] fc_classification_Pattern_fc_classification_Pattern_0_split -> fc_classification_Pattern_fc_classification_Pattern_0_split_1
I0913 18:37:29.623165 22180 net.cpp:141] Setting up fc_classification_Pattern_fc_classification_Pattern_0_split
I0913 18:37:29.623188 22180 net.cpp:148] Top shape: 10 7 (70)
I0913 18:37:29.623204 22180 net.cpp:148] Top shape: 10 7 (70)
I0913 18:37:29.623219 22180 net.cpp:156] Memory required for data: 1152678880
I0913 18:37:29.623235 22180 layer_factory.hpp:77] Creating layer accuracy_at_1_Pattern
I0913 18:37:29.623266 22180 net.cpp:91] Creating Layer accuracy_at_1_Pattern
I0913 18:37:29.623283 22180 net.cpp:425] accuracy_at_1_Pattern <- fc_classification_Pattern_fc_classification_Pattern_0_split_0
I0913 18:37:29.623301 22180 net.cpp:425] accuracy_at_1_Pattern <- label_data_1_split_0
…
