…
I0830 10:35:24.797849 36079 net.cpp:313] The NetState phase (0) differed from the phase (1) specified by a rule in layer accuracy_at_5
I0830 10:35:24.798045 36079 net.cpp:49] Initializing net from parameters: 
name: "docomo_pattern_CNN"
state {
  phase: TRAIN
}
layer {
  name: "cifar"
  type: "Data"
  top: "data"
  top: "label"
  include {
    phase: TRAIN
  }
  transform_param {
    mirror: true
    mean_value: 103.939
    mean_value: 116.779
    mean_value: 123.68
  }
  data_param {
    source: "PATTERN/pattern_train_lmdb"
    batch_size: 200
    backend: LMDB
  }
}
layer {
  name: "conv1"
  type: "Convolution"
  bottom: "data"
  top: "conv1"
  param {
    lr_mult: 1
    decay_mult: 1
  }
  param {
    lr_mult: 2
    decay_mult: 0
  }
  convolution_param {
    num_output: 32
    pad: 2
    kernel_size: 5
    stride: 8
    weight_filler {
      type: "xavier"
    }
    bias_filler {
      type: "constant"
    }
  }
}
layer {
  name: "pool1"
  type: "Pooling"
  bottom: "conv1"
  top: "pool1"
  pooling_param {
    pool: MAX
    kernel_size: 3
    stride: 2
  }
}
layer {
  name: "relu1"
  type: "ReLU"
  bottom: "pool1"
  top: "pool1"
}
layer {
  name: "conv2"
  type: "Convolution"
  bottom: "pool1"
  top: "conv2"
  param {
    lr_mult: 1
    decay_mult: 1
  }
  param {
    lr_mult: 2
    decay_mult: 0
  }
  convolution_param {
    num_output: 32
    pad: 2
    kernel_size: 5
    stride: 1
    weight_filler {
      type: "xavier"
    }
    bias_filler {
      type: "constant"
    }
  }
}
layer {
  name: "pool2"
  type: "Pooling"
  bottom: "conv2"
  top: "pool2"
  pooling_param {
    pool: AVE
    kernel_size: 3
    stride: 2
  }
}
layer {
  name: "relu2"
  type: "ReLU"
  bottom: "pool2"
  top: "pool2"
}
layer {
  name: "conv3"
  type: "Convolution"
  bottom: "pool2"
  top: "conv3"
  param {
    lr_mult: 1
    decay_mult: 1
  }
  param {
    lr_mult: 2
    decay_mult: 0
  }
  convolution_param {
    num_output: 64
    pad: 2
    kernel_size: 5
    stride: 1
    weight_filler {
      type: "xavier"
    }
    bias_filler {
      type: "constant"
    }
  }
}
layer {
  name: "relu3"
  type: "ReLU"
  bottom: "conv3"
  top: "conv3"
}
layer {
  name: "pool3"
  type: "Pooling"
  bottom: "conv3"
  top: "pool3"
  pooling_param {
    pool: AVE
    kernel_size: 3
    stride: 2
  }
}
layer {
  name: "ip2"
  type: "InnerProduct"
  bottom: "pool3"
  top: "ip2"
  param {
    lr_mult: 1
    decay_mult: 1
  }
  param {
    lr_mult: 2
    decay_mult: 0
  }
  inner_product_param {
    num_output: 500
    weight_filler {
      type: "gaussian"
      std: 0.005
    }
    bias_filler {
      type: "constant"
      value: 0.1
    }
  }
}
layer {
  name: "relu_ip2"
  type: "ReLU"
  bottom: "ip2"
  top: "ip2"
}
layer {
  name: "ip_hash"
  type: "InnerProduct"
  bottom: "ip2"
  top: "ip_hash"
  param {
    lr_mult: 1
    decay_mult: 1
  }
  param {
    lr_mult: 2
    decay_mult: 0
  }
  inner_product_param {
    num_output: 12
    weight_filler {
      type: "gaussian"
      std: 0.005
    }
    bias_filler {
      type: "constant"
      value: 0.1
    }
  }
}
layer {
  name: "ip_classification"
  type: "InnerProduct"
  bottom: "ip2"
  top: "ip_classification"
  param {
    lr_mult: 1
    decay_mult: 1
  }
  param {
    lr_mult: 2
    decay_mult: 0
  }
  inner_product_param {
    num_output: 7
    weight_filler {
      type: "gaussian"
      std: 0.005
    }
    bias_filler {
      type: "constant"
      value: 0.1
    }
  }
}
layer {
  name: "loss_hash"
  type: "HashingLoss"
  bottom: "ip_hash"
  bottom: "label"
  top: "loss_hash"
  loss_weight: 0.1
  hashing_loss_param {
    bi_margin: 24
    tradeoff: 0.01
  }
}
layer {
  name: "loss_classification"
  type: "SoftmaxWithLoss"
  bottom: "ip_classification"
  bottom: "label"
  top: "loss_classification"
}
I0830 10:35:24.799190 36079 layer_factory.hpp:77] Creating layer cifar
I0830 10:35:24.800010 36079 net.cpp:91] Creating Layer cifar
I0830 10:35:24.800063 36079 net.cpp:399] cifar -> data
I0830 10:35:24.800124 36079 net.cpp:399] cifar -> label
I0830 10:35:24.843613 36083 db_lmdb.cpp:38] Opened lmdb PATTERN/pattern_train_lmdb
I0830 10:35:24.893579 36079 data_layer.cpp:41] output data size: 200,3,224,224
I0830 10:35:25.125463 36079 net.cpp:141] Setting up cifar
I0830 10:35:25.125566 36079 net.cpp:148] Top shape: 200 3 224 224 (30105600)
I0830 10:35:25.125596 36079 net.cpp:148] Top shape: 200 1 1 1 (200)
I0830 10:35:25.125612 36079 net.cpp:156] Memory required for data: 120423200
I0830 10:35:25.125638 36079 layer_factory.hpp:77] Creating layer label_cifar_1_split
I0830 10:35:25.125674 36079 net.cpp:91] Creating Layer label_cifar_1_split
I0830 10:35:25.125706 36079 net.cpp:425] label_cifar_1_split <- label
I0830 10:35:25.125744 36079 net.cpp:399] label_cifar_1_split -> label_cifar_1_split_0
I0830 10:35:25.125779 36079 net.cpp:399] label_cifar_1_split -> label_cifar_1_split_1
I0830 10:35:25.125860 36079 net.cpp:141] Setting up label_cifar_1_split
I0830 10:35:25.125890 36079 net.cpp:148] Top shape: 200 1 1 1 (200)
I0830 10:35:25.125908 36079 net.cpp:148] Top shape: 200 1 1 1 (200)
I0830 10:35:25.125924 36079 net.cpp:156] Memory required for data: 120424800
I0830 10:35:25.125948 36079 layer_factory.hpp:77] Creating layer conv1
I0830 10:35:25.126003 36079 net.cpp:91] Creating Layer conv1
I0830 10:35:25.126024 36079 net.cpp:425] conv1 <- data
I0830 10:35:25.126047 36079 net.cpp:399] conv1 -> conv1
I0830 10:35:25.137833 36079 net.cpp:141] Setting up conv1
I0830 10:35:25.137890 36079 net.cpp:148] Top shape: 200 32 28 28 (5017600)
I0830 10:35:25.137908 36079 net.cpp:156] Memory required for data: 140495200
I0830 10:35:25.137954 36079 layer_factory.hpp:77] Creating layer pool1
I0830 10:35:25.137986 36079 net.cpp:91] Creating Layer pool1
I0830 10:35:25.138013 36079 net.cpp:425] pool1 <- conv1
I0830 10:35:25.138046 36079 net.cpp:399] pool1 -> pool1
I0830 10:35:25.138172 36079 net.cpp:141] Setting up pool1
I0830 10:35:25.138201 36079 net.cpp:148] Top shape: 200 32 14 14 (1254400)
I0830 10:35:25.138216 36079 net.cpp:156] Memory required for data: 145512800
I0830 10:35:25.138232 36079 layer_factory.hpp:77] Creating layer relu1
I0830 10:35:25.138254 36079 net.cpp:91] Creating Layer relu1
I0830 10:35:25.138278 36079 net.cpp:425] relu1 <- pool1
I0830 10:35:25.138312 36079 net.cpp:386] relu1 -> pool1 (in-place)
I0830 10:35:25.138340 36079 net.cpp:141] Setting up relu1
I0830 10:35:25.138386 36079 net.cpp:148] Top shape: 200 32 14 14 (1254400)
I0830 10:35:25.138417 36079 net.cpp:156] Memory required for data: 150530400
I0830 10:35:25.138449 36079 layer_factory.hpp:77] Creating layer conv2
I0830 10:35:25.138490 36079 net.cpp:91] Creating Layer conv2
I0830 10:35:25.138509 36079 net.cpp:425] conv2 <- pool1
I0830 10:35:25.138530 36079 net.cpp:399] conv2 -> conv2
I0830 10:35:25.139632 36079 net.cpp:141] Setting up conv2
I0830 10:35:25.139663 36079 net.cpp:148] Top shape: 200 32 14 14 (1254400)
I0830 10:35:25.139683 36079 net.cpp:156] Memory required for data: 155548000
I0830 10:35:25.139705 36079 layer_factory.hpp:77] Creating layer pool2
I0830 10:35:25.139730 36079 net.cpp:91] Creating Layer pool2
I0830 10:35:25.139750 36079 net.cpp:425] pool2 <- conv2
I0830 10:35:25.139767 36079 net.cpp:399] pool2 -> pool2
I0830 10:35:25.139817 36079 net.cpp:141] Setting up pool2
I0830 10:35:25.139842 36079 net.cpp:148] Top shape: 200 32 7 7 (313600)
I0830 10:35:25.139914 36079 net.cpp:156] Memory required for data: 156802400
I0830 10:35:25.139930 36079 layer_factory.hpp:77] Creating layer relu2
I0830 10:35:25.139947 36079 net.cpp:91] Creating Layer relu2
I0830 10:35:25.139962 36079 net.cpp:425] relu2 <- pool2
I0830 10:35:25.139982 36079 net.cpp:386] relu2 -> pool2 (in-place)
I0830 10:35:25.140003 36079 net.cpp:141] Setting up relu2
I0830 10:35:25.140022 36079 net.cpp:148] Top shape: 200 32 7 7 (313600)
I0830 10:35:25.140035 36079 net.cpp:156] Memory required for data: 158056800
I0830 10:35:25.140050 36079 layer_factory.hpp:77] Creating layer conv3
I0830 10:35:25.140077 36079 net.cpp:91] Creating Layer conv3
I0830 10:35:25.140095 36079 net.cpp:425] conv3 <- pool2
I0830 10:35:25.140115 36079 net.cpp:399] conv3 -> conv3
I0830 10:35:25.140791 36079 net.cpp:141] Setting up conv3
I0830 10:35:25.140821 36079 net.cpp:148] Top shape: 200 64 7 7 (627200)
I0830 10:35:25.140839 36079 net.cpp:156] Memory required for data: 160565600
I0830 10:35:25.140861 36079 layer_factory.hpp:77] Creating layer relu3
I0830 10:35:25.140882 36079 net.cpp:91] Creating Layer relu3
I0830 10:35:25.140897 36079 net.cpp:425] relu3 <- conv3
I0830 10:35:25.140914 36079 net.cpp:386] relu3 -> conv3 (in-place)
I0830 10:35:25.140933 36079 net.cpp:141] Setting up relu3
I0830 10:35:25.140954 36079 net.cpp:148] Top shape: 200 64 7 7 (627200)
I0830 10:35:25.140967 36079 net.cpp:156] Memory required for data: 163074400
I0830 10:35:25.140982 36079 layer_factory.hpp:77] Creating layer pool3
I0830 10:35:25.141000 36079 net.cpp:91] Creating Layer pool3
I0830 10:35:25.141016 36079 net.cpp:425] pool3 <- conv3
I0830 10:35:25.141042 36079 net.cpp:399] pool3 -> pool3
I0830 10:35:25.141085 36079 net.cpp:141] Setting up pool3
I0830 10:35:25.141113 36079 net.cpp:148] Top shape: 200 64 3 3 (115200)
I0830 10:35:25.141130 36079 net.cpp:156] Memory required for data: 163535200
I0830 10:35:25.141144 36079 layer_factory.hpp:77] Creating layer ip2
I0830 10:35:25.141168 36079 net.cpp:91] Creating Layer ip2
I0830 10:35:25.141185 36079 net.cpp:425] ip2 <- pool3
I0830 10:35:25.141206 36079 net.cpp:399] ip2 -> ip2
I0830 10:35:25.152812 36079 net.cpp:141] Setting up ip2
I0830 10:35:25.152870 36079 net.cpp:148] Top shape: 200 500 (100000)
I0830 10:35:25.152887 36079 net.cpp:156] Memory required for data: 163935200
I0830 10:35:25.152910 36079 layer_factory.hpp:77] Creating layer relu_ip2
I0830 10:35:25.152937 36079 net.cpp:91] Creating Layer relu_ip2
I0830 10:35:25.152959 36079 net.cpp:425] relu_ip2 <- ip2
I0830 10:35:25.152978 36079 net.cpp:386] relu_ip2 -> ip2 (in-place)
I0830 10:35:25.153002 36079 net.cpp:141] Setting up relu_ip2
I0830 10:35:25.153018 36079 net.cpp:148] Top shape: 200 500 (100000)
I0830 10:35:25.153034 36079 net.cpp:156] Memory required for data: 164335200
I0830 10:35:25.153050 36079 layer_factory.hpp:77] Creating layer ip2_relu_ip2_0_split
I0830 10:35:25.153069 36079 net.cpp:91] Creating Layer ip2_relu_ip2_0_split
I0830 10:35:25.153084 36079 net.cpp:425] ip2_relu_ip2_0_split <- ip2
I0830 10:35:25.153105 36079 net.cpp:399] ip2_relu_ip2_0_split -> ip2_relu_ip2_0_split_0
I0830 10:35:25.153129 36079 net.cpp:399] ip2_relu_ip2_0_split -> ip2_relu_ip2_0_split_1
I0830 10:35:25.153189 36079 net.cpp:141] Setting up ip2_relu_ip2_0_split
I0830 10:35:25.153214 36079 net.cpp:148] Top shape: 200 500 (100000)
I0830 10:35:25.153231 36079 net.cpp:148] Top shape: 200 500 (100000)
I0830 10:35:25.153245 36079 net.cpp:156] Memory required for data: 165135200
I0830 10:35:25.153260 36079 layer_factory.hpp:77] Creating layer ip_hash
I0830 10:35:25.153285 36079 net.cpp:91] Creating Layer ip_hash
I0830 10:35:25.153303 36079 net.cpp:425] ip_hash <- ip2_relu_ip2_0_split_0
I0830 10:35:25.153321 36079 net.cpp:399] ip_hash -> ip_hash
I0830 10:35:25.154372 36079 net.cpp:141] Setting up ip_hash
I0830 10:35:25.154410 36079 net.cpp:148] Top shape: 200 12 (2400)
I0830 10:35:25.154426 36079 net.cpp:156] Memory required for data: 165144800
I0830 10:35:25.154455 36079 layer_factory.hpp:77] Creating layer ip_classification
I0830 10:35:25.154526 36079 net.cpp:91] Creating Layer ip_classification
I0830 10:35:25.154546 36079 net.cpp:425] ip_classification <- ip2_relu_ip2_0_split_1
I0830 10:35:25.154567 36079 net.cpp:399] ip_classification -> ip_classification
I0830 10:35:25.154827 36079 net.cpp:141] Setting up ip_classification
I0830 10:35:25.154853 36079 net.cpp:148] Top shape: 200 7 (1400)
I0830 10:35:25.154868 36079 net.cpp:156] Memory required for data: 165150400
I0830 10:35:25.154886 36079 layer_factory.hpp:77] Creating layer loss_hash
I0830 10:35:25.154919 36079 net.cpp:91] Creating Layer loss_hash
I0830 10:35:25.154937 36079 net.cpp:425] loss_hash <- ip_hash
I0830 10:35:25.154953 36079 net.cpp:425] loss_hash <- label_cifar_1_split_0
I0830 10:35:25.154973 36079 net.cpp:399] loss_hash -> loss_hash
…
I0830 10:35:25.156492 36079 net.cpp:313] The NetState phase (1) differed from the phase (0) specified by a rule in layer cifar
I0830 10:35:25.156693 36079 net.cpp:49] Initializing net from parameters: 
name: "docomo_pattern_CNN"
state {
  phase: TEST
}
layer {
  name: "cifar"
  type: "Data"
  top: "data"
  top: "label"
  include {
    phase: TEST
  }
  transform_param {
    mirror: false
    mean_value: 103.939
    mean_value: 116.779
    mean_value: 123.68
  }
  data_param {
    source: "PATTERN/pattern_val_lmdb"
    batch_size: 100
    backend: LMDB
  }
}
layer {
  name: "conv1"
  type: "Convolution"
  bottom: "data"
  top: "conv1"
  param {
    lr_mult: 1
    decay_mult: 1
  }
  param {
    lr_mult: 2
    decay_mult: 0
  }
  convolution_param {
    num_output: 32
    pad: 2
    kernel_size: 5
    stride: 8
    weight_filler {
      type: "xavier"
    }
    bias_filler {
      type: "constant"
    }
  }
}
layer {
  name: "pool1"
  type: "Pooling"
  bottom: "conv1"
  top: "pool1"
  pooling_param {
    pool: MAX
    kernel_size: 3
    stride: 2
  }
}
layer {
  name: "relu1"
  type: "ReLU"
  bottom: "pool1"
  top: "pool1"
}
layer {
  name: "conv2"
  type: "Convolution"
  bottom: "pool1"
  top: "conv2"
  param {
    lr_mult: 1
    decay_mult: 1
  }
  param {
    lr_mult: 2
    decay_mult: 0
  }
  convolution_param {
    num_output: 32
    pad: 2
    kernel_size: 5
    stride: 1
    weight_filler {
      type: "xavier"
    }
    bias_filler {
      type: "constant"
    }
  }
}
layer {
  name: "pool2"
  type: "Pooling"
  bottom: "conv2"
  top: "pool2"
  pooling_param {
    pool: AVE
    kernel_size: 3
    stride: 2
  }
}
layer {
  name: "relu2"
  type: "ReLU"
  bottom: "pool2"
  top: "pool2"
}
layer {
  name: "conv3"
  type: "Convolution"
  bottom: "pool2"
  top: "conv3"
  param {
    lr_mult: 1
    decay_mult: 1
  }
  param {
    lr_mult: 2
    decay_mult: 0
  }
  convolution_param {
    num_output: 64
    pad: 2
    kernel_size: 5
    stride: 1
    weight_filler {
      type: "xavier"
    }
    bias_filler {
      type: "constant"
    }
  }
}
layer {
  name: "relu3"
  type: "ReLU"
  bottom: "conv3"
  top: "conv3"
}
layer {
  name: "pool3"
  type: "Pooling"
  bottom: "conv3"
  top: "pool3"
  pooling_param {
    pool: AVE
    kernel_size: 3
    stride: 2
  }
}
layer {
  name: "ip2"
  type: "InnerProduct"
  bottom: "pool3"
  top: "ip2"
  param {
    lr_mult: 1
    decay_mult: 1
  }
  param {
    lr_mult: 2
    decay_mult: 0
  }
  inner_product_param {
    num_output: 500
    weight_filler {
      type: "gaussian"
      std: 0.005
    }
    bias_filler {
      type: "constant"
      value: 0.1
    }
  }
}
layer {
  name: "relu_ip2"
  type: "ReLU"
  bottom: "ip2"
  top: "ip2"
}
layer {
  name: "ip_hash"
  type: "InnerProduct"
  bottom: "ip2"
  top: "ip_hash"
  param {
    lr_mult: 1
    decay_mult: 1
  }
  param {
    lr_mult: 2
    decay_mult: 0
  }
  inner_product_param {
    num_output: 12
    weight_filler {
      type: "gaussian"
      std: 0.005
    }
    bias_filler {
      type: "constant"
      value: 0.1
    }
  }
}
layer {
  name: "ip_classification"
  type: "InnerProduct"
  bottom: "ip2"
  top: "ip_classification"
  param {
    lr_mult: 1
    decay_mult: 1
  }
  param {
    lr_mult: 2
    decay_mult: 0
  }
  inner_product_param {
    num_output: 7
    weight_filler {
      type: "gaussian"
      std: 0.005
    }
    bias_filler {
      type: "constant"
      value: 0.1
    }
  }
}
layer {
  name: "loss_hash"
  type: "HashingLoss"
  bottom: "ip_hash"
  bottom: "label"
  top: "loss_hash"
  loss_weight: 0.1
  hashing_loss_param {
    bi_margin: 24
    tradeoff: 0.01
  }
}
layer {
  name: "loss_classification"
  type: "SoftmaxWithLoss"
  bottom: "ip_classification"
  bottom: "label"
  top: "loss_classification"
}
layer {
  name: "accuracy_at_1"
  type: "Accuracy"
  bottom: "ip_classification"
  bottom: "label"
  top: "accuracy_at_1"
  include {
    phase: TEST
  }
  accuracy_param {
    top_k: 1
  }
}
layer {
  name: "accuracy_at_5"
  type: "Accuracy"
  bottom: "ip_classification"
  bottom: "label"
  top: "accuracy_at_5"
  include {
    phase: TEST
  }
  accuracy_param {
    top_k: 5
  }
}
I0830 10:35:25.157831 36079 layer_factory.hpp:77] Creating layer cifar
I0830 10:35:25.158474 36079 net.cpp:91] Creating Layer cifar
I0830 10:35:25.158530 36079 net.cpp:399] cifar -> data
I0830 10:35:25.158558 36079 net.cpp:399] cifar -> label
I0830 10:35:25.194849 36085 db_lmdb.cpp:38] Opened lmdb PATTERN/pattern_val_lmdb
I0830 10:35:25.237484 36079 data_layer.cpp:41] output data size: 100,3,224,224
I0830 10:35:25.356927 36079 net.cpp:141] Setting up cifar
I0830 10:35:25.356995 36079 net.cpp:148] Top shape: 100 3 224 224 (15052800)
I0830 10:35:25.357017 36079 net.cpp:148] Top shape: 100 1 1 1 (100)
I0830 10:35:25.357031 36079 net.cpp:156] Memory required for data: 60211600
I0830 10:35:25.357051 36079 layer_factory.hpp:77] Creating layer label_cifar_1_split
I0830 10:35:25.357084 36079 net.cpp:91] Creating Layer label_cifar_1_split
I0830 10:35:25.357102 36079 net.cpp:425] label_cifar_1_split <- label
I0830 10:35:25.357125 36079 net.cpp:399] label_cifar_1_split -> label_cifar_1_split_0
I0830 10:35:25.357153 36079 net.cpp:399] label_cifar_1_split -> label_cifar_1_split_1
I0830 10:35:25.357178 36079 net.cpp:399] label_cifar_1_split -> label_cifar_1_split_2
I0830 10:35:25.357198 36079 net.cpp:399] label_cifar_1_split -> label_cifar_1_split_3
I0830 10:35:25.357311 36079 net.cpp:141] Setting up label_cifar_1_split
I0830 10:35:25.357336 36079 net.cpp:148] Top shape: 100 1 1 1 (100)
I0830 10:35:25.357357 36079 net.cpp:148] Top shape: 100 1 1 1 (100)
I0830 10:35:25.357373 36079 net.cpp:148] Top shape: 100 1 1 1 (100)
I0830 10:35:25.357389 36079 net.cpp:148] Top shape: 100 1 1 1 (100)
I0830 10:35:25.357404 36079 net.cpp:156] Memory required for data: 60213200
I0830 10:35:25.357419 36079 layer_factory.hpp:77] Creating layer conv1
I0830 10:35:25.357448 36079 net.cpp:91] Creating Layer conv1
I0830 10:35:25.357466 36079 net.cpp:425] conv1 <- data
I0830 10:35:25.357489 36079 net.cpp:399] conv1 -> conv1
I0830 10:35:25.357805 36079 net.cpp:141] Setting up conv1
I0830 10:35:25.357831 36079 net.cpp:148] Top shape: 100 32 28 28 (2508800)
I0830 10:35:25.357846 36079 net.cpp:156] Memory required for data: 70248400
I0830 10:35:25.357872 36079 layer_factory.hpp:77] Creating layer pool1
I0830 10:35:25.357899 36079 net.cpp:91] Creating Layer pool1
I0830 10:35:25.357915 36079 net.cpp:425] pool1 <- conv1
I0830 10:35:25.357933 36079 net.cpp:399] pool1 -> pool1
I0830 10:35:25.358001 36079 net.cpp:141] Setting up pool1
I0830 10:35:25.358028 36079 net.cpp:148] Top shape: 100 32 14 14 (627200)
I0830 10:35:25.358043 36079 net.cpp:156] Memory required for data: 72757200
I0830 10:35:25.358058 36079 layer_factory.hpp:77] Creating layer relu1
I0830 10:35:25.358078 36079 net.cpp:91] Creating Layer relu1
I0830 10:35:25.358099 36079 net.cpp:425] relu1 <- pool1
I0830 10:35:25.358119 36079 net.cpp:386] relu1 -> pool1 (in-place)
I0830 10:35:25.358142 36079 net.cpp:141] Setting up relu1
I0830 10:35:25.358160 36079 net.cpp:148] Top shape: 100 32 14 14 (627200)
I0830 10:35:25.358175 36079 net.cpp:156] Memory required for data: 75266000
I0830 10:35:25.358189 36079 layer_factory.hpp:77] Creating layer conv2
I0830 10:35:25.358216 36079 net.cpp:91] Creating Layer conv2
I0830 10:35:25.358233 36079 net.cpp:425] conv2 <- pool1
I0830 10:35:25.358252 36079 net.cpp:399] conv2 -> conv2
I0830 10:35:25.363211 36079 net.cpp:141] Setting up conv2
I0830 10:35:25.363255 36079 net.cpp:148] Top shape: 100 32 14 14 (627200)
I0830 10:35:25.363271 36079 net.cpp:156] Memory required for data: 77774800
I0830 10:35:25.363296 36079 layer_factory.hpp:77] Creating layer pool2
I0830 10:35:25.363322 36079 net.cpp:91] Creating Layer pool2
I0830 10:35:25.363338 36079 net.cpp:425] pool2 <- conv2
I0830 10:35:25.363358 36079 net.cpp:399] pool2 -> pool2
I0830 10:35:25.363409 36079 net.cpp:141] Setting up pool2
I0830 10:35:25.363451 36079 net.cpp:148] Top shape: 100 32 7 7 (156800)
I0830 10:35:25.363466 36079 net.cpp:156] Memory required for data: 78402000
I0830 10:35:25.363482 36079 layer_factory.hpp:77] Creating layer relu2
I0830 10:35:25.363500 36079 net.cpp:91] Creating Layer relu2
I0830 10:35:25.363518 36079 net.cpp:425] relu2 <- pool2
I0830 10:35:25.363540 36079 net.cpp:386] relu2 -> pool2 (in-place)
I0830 10:35:25.363560 36079 net.cpp:141] Setting up relu2
I0830 10:35:25.363579 36079 net.cpp:148] Top shape: 100 32 7 7 (156800)
I0830 10:35:25.363592 36079 net.cpp:156] Memory required for data: 79029200
I0830 10:35:25.363607 36079 layer_factory.hpp:77] Creating layer conv3
I0830 10:35:25.363685 36079 net.cpp:91] Creating Layer conv3
I0830 10:35:25.363705 36079 net.cpp:425] conv3 <- pool2
I0830 10:35:25.363724 36079 net.cpp:399] conv3 -> conv3
I0830 10:35:25.364452 36079 net.cpp:141] Setting up conv3
I0830 10:35:25.364483 36079 net.cpp:148] Top shape: 100 64 7 7 (313600)
I0830 10:35:25.364500 36079 net.cpp:156] Memory required for data: 80283600
I0830 10:35:25.364522 36079 layer_factory.hpp:77] Creating layer relu3
I0830 10:35:25.364543 36079 net.cpp:91] Creating Layer relu3
I0830 10:35:25.364558 36079 net.cpp:425] relu3 <- conv3
I0830 10:35:25.364574 36079 net.cpp:386] relu3 -> conv3 (in-place)
I0830 10:35:25.364593 36079 net.cpp:141] Setting up relu3
I0830 10:35:25.364614 36079 net.cpp:148] Top shape: 100 64 7 7 (313600)
I0830 10:35:25.364627 36079 net.cpp:156] Memory required for data: 81538000
I0830 10:35:25.364642 36079 layer_factory.hpp:77] Creating layer pool3
I0830 10:35:25.364663 36079 net.cpp:91] Creating Layer pool3
I0830 10:35:25.364679 36079 net.cpp:425] pool3 <- conv3
I0830 10:35:25.364696 36079 net.cpp:399] pool3 -> pool3
I0830 10:35:25.364739 36079 net.cpp:141] Setting up pool3
I0830 10:35:25.364763 36079 net.cpp:148] Top shape: 100 64 3 3 (57600)
I0830 10:35:25.364778 36079 net.cpp:156] Memory required for data: 81768400
I0830 10:35:25.364792 36079 layer_factory.hpp:77] Creating layer ip2
I0830 10:35:25.364814 36079 net.cpp:91] Creating Layer ip2
I0830 10:35:25.364830 36079 net.cpp:425] ip2 <- pool3
I0830 10:35:25.364851 36079 net.cpp:399] ip2 -> ip2
I0830 10:35:25.376484 36079 net.cpp:141] Setting up ip2
I0830 10:35:25.376534 36079 net.cpp:148] Top shape: 100 500 (50000)
I0830 10:35:25.376551 36079 net.cpp:156] Memory required for data: 81968400
I0830 10:35:25.376574 36079 layer_factory.hpp:77] Creating layer relu_ip2
I0830 10:35:25.376596 36079 net.cpp:91] Creating Layer relu_ip2
I0830 10:35:25.376613 36079 net.cpp:425] relu_ip2 <- ip2
I0830 10:35:25.376631 36079 net.cpp:386] relu_ip2 -> ip2 (in-place)
I0830 10:35:25.376652 36079 net.cpp:141] Setting up relu_ip2
I0830 10:35:25.376669 36079 net.cpp:148] Top shape: 100 500 (50000)
I0830 10:35:25.376683 36079 net.cpp:156] Memory required for data: 82168400
I0830 10:35:25.376698 36079 layer_factory.hpp:77] Creating layer ip2_relu_ip2_0_split
I0830 10:35:25.376718 36079 net.cpp:91] Creating Layer ip2_relu_ip2_0_split
I0830 10:35:25.376732 36079 net.cpp:425] ip2_relu_ip2_0_split <- ip2
I0830 10:35:25.376757 36079 net.cpp:399] ip2_relu_ip2_0_split -> ip2_relu_ip2_0_split_0
I0830 10:35:25.376782 36079 net.cpp:399] ip2_relu_ip2_0_split -> ip2_relu_ip2_0_split_1
I0830 10:35:25.376844 36079 net.cpp:141] Setting up ip2_relu_ip2_0_split
I0830 10:35:25.376868 36079 net.cpp:148] Top shape: 100 500 (50000)
I0830 10:35:25.376885 36079 net.cpp:148] Top shape: 100 500 (50000)
I0830 10:35:25.376900 36079 net.cpp:156] Memory required for data: 82568400
I0830 10:35:25.376914 36079 layer_factory.hpp:77] Creating layer ip_hash
I0830 10:35:25.376935 36079 net.cpp:91] Creating Layer ip_hash
I0830 10:35:25.376953 36079 net.cpp:425] ip_hash <- ip2_relu_ip2_0_split_0
I0830 10:35:25.376972 36079 net.cpp:399] ip_hash -> ip_hash
I0830 10:35:25.377331 36079 net.cpp:141] Setting up ip_hash
I0830 10:35:25.377355 36079 net.cpp:148] Top shape: 100 12 (1200)
I0830 10:35:25.377370 36079 net.cpp:156] Memory required for data: 82573200
I0830 10:35:25.377398 36079 layer_factory.hpp:77] Creating layer ip_classification
I0830 10:35:25.377423 36079 net.cpp:91] Creating Layer ip_classification
I0830 10:35:25.377439 36079 net.cpp:425] ip_classification <- ip2_relu_ip2_0_split_1
I0830 10:35:25.377460 36079 net.cpp:399] ip_classification -> ip_classification
I0830 10:35:25.377722 36079 net.cpp:141] Setting up ip_classification
I0830 10:35:25.377748 36079 net.cpp:148] Top shape: 100 7 (700)
I0830 10:35:25.377763 36079 net.cpp:156] Memory required for data: 82576000
I0830 10:35:25.377781 36079 layer_factory.hpp:77] Creating layer ip_classification_ip_classification_0_split
I0830 10:35:25.377806 36079 net.cpp:91] Creating Layer ip_classification_ip_classification_0_split
I0830 10:35:25.377861 36079 net.cpp:425] ip_classification_ip_classification_0_split <- ip_classification
I0830 10:35:25.377881 36079 net.cpp:399] ip_classification_ip_classification_0_split -> ip_classification_ip_classification_0_split_0
I0830 10:35:25.377904 36079 net.cpp:399] ip_classification_ip_classification_0_split -> ip_classification_ip_classification_0_split_1
I0830 10:35:25.377925 36079 net.cpp:399] ip_classification_ip_classification_0_split -> ip_classification_ip_classification_0_split_2
I0830 10:35:25.377995 36079 net.cpp:141] Setting up ip_classification_ip_classification_0_split
I0830 10:35:25.378021 36079 net.cpp:148] Top shape: 100 7 (700)
I0830 10:35:25.378037 36079 net.cpp:148] Top shape: 100 7 (700)
I0830 10:35:25.378053 36079 net.cpp:148] Top shape: 100 7 (700)
I0830 10:35:25.378068 36079 net.cpp:156] Memory required for data: 82584400
I0830 10:35:25.378083 36079 layer_factory.hpp:77] Creating layer loss_hash
I0830 10:35:25.378104 36079 net.cpp:91] Creating Layer loss_hash
I0830 10:35:25.378121 36079 net.cpp:425] loss_hash <- ip_hash
I0830 10:35:25.378139 36079 net.cpp:425] loss_hash <- label_cifar_1_split_0
I0830 10:35:25.378156 36079 net.cpp:399] loss_hash -> loss_hash
…
