…
I0824 17:34:13.852540  7468 net.cpp:313] The NetState phase (0) differed from the phase (1) specified by a rule in layer accuracy_at_5
I0824 17:34:13.852946  7468 net.cpp:49] Initializing net from parameters: 
name: "docomo_pattern_CNN"
state {
  phase: TRAIN
}
layer {
  name: "cifar"
  type: "Data"
  top: "data"
  top: "label"
  include {
    phase: TRAIN
  }
  transform_param {
    mirror: true
    mean_file: "PATTERN/extra/pattern_mean.binaryproto"
  }
  data_param {
    source: "PATTERN/pattern_train_lmdb"
    batch_size: 10
    backend: LMDB
  }
}
layer {
  name: "conv1"
  type: "Convolution"
  bottom: "data"
  top: "conv1"
  param {
    lr_mult: 1
    decay_mult: 1
  }
  param {
    lr_mult: 2
    decay_mult: 0
  }
  convolution_param {
    num_output: 224
    pad: 2
    kernel_size: 5
    stride: 1
    weight_filler {
      type: "xavier"
    }
    bias_filler {
      type: "constant"
    }
  }
}
layer {
  name: "pool1"
  type: "Pooling"
  bottom: "conv1"
  top: "pool1"
  pooling_param {
    pool: MAX
    kernel_size: 3
    stride: 2
  }
}
layer {
  name: "relu1"
  type: "ReLU"
  bottom: "pool1"
  top: "pool1"
}
layer {
  name: "norm1"
  type: "LRN"
  bottom: "pool1"
  top: "norm1"
  lrn_param {
    local_size: 3
    alpha: 5e-05
    beta: 0.75
    norm_region: WITHIN_CHANNEL
  }
}
layer {
  name: "conv2"
  type: "Convolution"
  bottom: "norm1"
  top: "conv2"
  param {
    lr_mult: 1
    decay_mult: 1
  }
  param {
    lr_mult: 2
    decay_mult: 0
  }
  convolution_param {
    num_output: 32
    pad: 2
    kernel_size: 5
    stride: 1
    weight_filler {
      type: "xavier"
    }
    bias_filler {
      type: "constant"
    }
  }
}
layer {
  name: "pool2"
  type: "Pooling"
  bottom: "conv2"
  top: "pool2"
  pooling_param {
    pool: AVE
    kernel_size: 3
    stride: 2
  }
}
layer {
  name: "relu2"
  type: "ReLU"
  bottom: "pool2"
  top: "pool2"
}
layer {
  name: "norm2"
  type: "LRN"
  bottom: "pool2"
  top: "norm2"
  lrn_param {
    local_size: 3
    alpha: 5e-05
    beta: 0.75
    norm_region: WITHIN_CHANNEL
  }
}
layer {
  name: "conv3"
  type: "Convolution"
  bottom: "norm2"
  top: "conv3"
  param {
    lr_mult: 1
    decay_mult: 1
  }
  param {
    lr_mult: 2
    decay_mult: 0
  }
  convolution_param {
    num_output: 64
    pad: 2
    kernel_size: 5
    stride: 1
    weight_filler {
      type: "xavier"
    }
    bias_filler {
      type: "constant"
    }
  }
}
layer {
  name: "relu3"
  type: "ReLU"
  bottom: "conv3"
  top: "conv3"
}
layer {
  name: "pool3"
  type: "Pooling"
  bottom: "conv3"
  top: "pool3"
  pooling_param {
    pool: AVE
    kernel_size: 3
    stride: 2
  }
}
layer {
  name: "ip2"
  type: "InnerProduct"
  bottom: "pool3"
  top: "ip2"
  param {
    lr_mult: 1
    decay_mult: 1
  }
  param {
    lr_mult: 2
    decay_mult: 0
  }
  inner_product_param {
    num_output: 500
    weight_filler {
      type: "gaussian"
      std: 0.005
    }
    bias_filler {
      type: "constant"
      value: 0.1
    }
  }
}
layer {
  name: "relu_ip2"
  type: "ReLU"
  bottom: "ip2"
  top: "ip2"
}
layer {
  name: "ip_hash"
  type: "InnerProduct"
  bottom: "ip2"
  top: "ip_hash"
  param {
    lr_mult: 1
    decay_mult: 1
  }
  param {
    lr_mult: 2
    decay_mult: 0
  }
  inner_product_param {
    num_output: 12
    weight_filler {
      type: "gaussian"
      std: 0.005
    }
    bias_filler {
      type: "constant"
      value: 0.1
    }
  }
}
layer {
  name: "ip_classification"
  type: "InnerProduct"
  bottom: "ip2"
  top: "ip_classification"
  param {
    lr_mult: 1
    decay_mult: 1
  }
  param {
    lr_mult: 2
    decay_mult: 0
  }
  inner_product_param {
    num_output: 7
    weight_filler {
      type: "gaussian"
      std: 0.005
    }
    bias_filler {
      type: "constant"
      value: 0.1
    }
  }
}
layer {
  name: "loss_hash"
  type: "HashingLoss"
  bottom: "ip_hash"
  bottom: "label"
  top: "loss_hash"
  loss_weight: 0.1
  hashing_loss_param {
    bi_margin: 24
    tradeoff: 0.01
  }
}
layer {
  name: "loss_classification"
  type: "SoftmaxWithLoss"
  bottom: "ip_classification"
  bottom: "label"
  top: "loss_classification"
}
I0824 17:34:13.855242  7468 layer_factory.hpp:77] Creating layer cifar
I0824 17:34:13.856441  7468 net.cpp:91] Creating Layer cifar
I0824 17:34:13.856511  7468 net.cpp:399] cifar -> data
I0824 17:34:13.856626  7468 net.cpp:399] cifar -> label
I0824 17:34:13.856708  7468 data_transformer.cpp:25] Loading mean file from: PATTERN/extra/pattern_mean.binaryproto
I0824 17:34:13.858415  7473 db_lmdb.cpp:38] Opened lmdb PATTERN/pattern_train_lmdb
I0824 17:34:13.889830  7468 data_layer.cpp:41] output data size: 10,3,224,224
I0824 17:34:13.910063  7468 net.cpp:141] Setting up cifar
I0824 17:34:13.910156  7468 net.cpp:148] Top shape: 10 3 224 224 (1505280)
I0824 17:34:13.910184  7468 net.cpp:148] Top shape: 10 1 1 1 (10)
I0824 17:34:13.910205  7468 net.cpp:156] Memory required for data: 6021160
I0824 17:34:13.910234  7468 layer_factory.hpp:77] Creating layer label_cifar_1_split
I0824 17:34:13.910271  7468 net.cpp:91] Creating Layer label_cifar_1_split
I0824 17:34:13.910298  7468 net.cpp:425] label_cifar_1_split <- label
I0824 17:34:13.910339  7468 net.cpp:399] label_cifar_1_split -> label_cifar_1_split_0
I0824 17:34:13.910378  7468 net.cpp:399] label_cifar_1_split -> label_cifar_1_split_1
I0824 17:34:13.910464  7468 net.cpp:141] Setting up label_cifar_1_split
I0824 17:34:13.910495  7468 net.cpp:148] Top shape: 10 1 1 1 (10)
I0824 17:34:13.910521  7468 net.cpp:148] Top shape: 10 1 1 1 (10)
I0824 17:34:13.910540  7468 net.cpp:156] Memory required for data: 6021240
I0824 17:34:13.910560  7468 layer_factory.hpp:77] Creating layer conv1
I0824 17:34:13.910614  7468 net.cpp:91] Creating Layer conv1
I0824 17:34:13.910639  7468 net.cpp:425] conv1 <- data
I0824 17:34:13.910667  7468 net.cpp:399] conv1 -> conv1
I0824 17:34:13.913054  7468 net.cpp:141] Setting up conv1
I0824 17:34:13.913121  7468 net.cpp:148] Top shape: 10 224 224 224 (112394240)
I0824 17:34:13.913152  7468 net.cpp:156] Memory required for data: 455598200
I0824 17:34:13.913213  7468 layer_factory.hpp:77] Creating layer pool1
I0824 17:34:13.913270  7468 net.cpp:91] Creating Layer pool1
I0824 17:34:13.913310  7468 net.cpp:425] pool1 <- conv1
I0824 17:34:13.913344  7468 net.cpp:399] pool1 -> pool1
I0824 17:34:13.913489  7468 net.cpp:141] Setting up pool1
I0824 17:34:13.913539  7468 net.cpp:148] Top shape: 10 224 112 112 (28098560)
I0824 17:34:13.913569  7468 net.cpp:156] Memory required for data: 567992440
I0824 17:34:13.913605  7468 layer_factory.hpp:77] Creating layer relu1
I0824 17:34:13.913645  7468 net.cpp:91] Creating Layer relu1
I0824 17:34:13.913674  7468 net.cpp:425] relu1 <- pool1
I0824 17:34:13.913707  7468 net.cpp:386] relu1 -> pool1 (in-place)
I0824 17:34:13.913755  7468 net.cpp:141] Setting up relu1
I0824 17:34:13.913789  7468 net.cpp:148] Top shape: 10 224 112 112 (28098560)
I0824 17:34:13.913817  7468 net.cpp:156] Memory required for data: 680386680
I0824 17:34:13.913846  7468 layer_factory.hpp:77] Creating layer norm1
I0824 17:34:13.913897  7468 net.cpp:91] Creating Layer norm1
I0824 17:34:13.913928  7468 net.cpp:425] norm1 <- pool1
I0824 17:34:13.913966  7468 net.cpp:399] norm1 -> norm1
I0824 17:34:13.914244  7468 net.cpp:141] Setting up norm1
I0824 17:34:13.914301  7468 net.cpp:148] Top shape: 10 224 112 112 (28098560)
I0824 17:34:13.914397  7468 net.cpp:156] Memory required for data: 792780920
I0824 17:34:13.914429  7468 layer_factory.hpp:77] Creating layer conv2
I0824 17:34:13.914472  7468 net.cpp:91] Creating Layer conv2
I0824 17:34:13.914516  7468 net.cpp:425] conv2 <- norm1
I0824 17:34:13.914561  7468 net.cpp:399] conv2 -> conv2
I0824 17:34:13.920261  7468 net.cpp:141] Setting up conv2
I0824 17:34:13.920327  7468 net.cpp:148] Top shape: 10 32 112 112 (4014080)
I0824 17:34:13.920358  7468 net.cpp:156] Memory required for data: 808837240
I0824 17:34:13.920403  7468 layer_factory.hpp:77] Creating layer pool2
I0824 17:34:13.920444  7468 net.cpp:91] Creating Layer pool2
I0824 17:34:13.920475  7468 net.cpp:425] pool2 <- conv2
I0824 17:34:13.920507  7468 net.cpp:399] pool2 -> pool2
I0824 17:34:13.920608  7468 net.cpp:141] Setting up pool2
I0824 17:34:13.920663  7468 net.cpp:148] Top shape: 10 32 56 56 (1003520)
I0824 17:34:13.920698  7468 net.cpp:156] Memory required for data: 812851320
I0824 17:34:13.920727  7468 layer_factory.hpp:77] Creating layer relu2
I0824 17:34:13.920763  7468 net.cpp:91] Creating Layer relu2
I0824 17:34:13.920799  7468 net.cpp:425] relu2 <- pool2
I0824 17:34:13.920831  7468 net.cpp:386] relu2 -> pool2 (in-place)
I0824 17:34:13.920867  7468 net.cpp:141] Setting up relu2
I0824 17:34:13.920900  7468 net.cpp:148] Top shape: 10 32 56 56 (1003520)
I0824 17:34:13.920928  7468 net.cpp:156] Memory required for data: 816865400
I0824 17:34:13.920956  7468 layer_factory.hpp:77] Creating layer norm2
I0824 17:34:13.920997  7468 net.cpp:91] Creating Layer norm2
I0824 17:34:13.921028  7468 net.cpp:425] norm2 <- pool2
I0824 17:34:13.921061  7468 net.cpp:399] norm2 -> norm2
I0824 17:34:13.921288  7468 net.cpp:141] Setting up norm2
I0824 17:34:13.921337  7468 net.cpp:148] Top shape: 10 32 56 56 (1003520)
I0824 17:34:13.921365  7468 net.cpp:156] Memory required for data: 820879480
I0824 17:34:13.921393  7468 layer_factory.hpp:77] Creating layer conv3
I0824 17:34:13.921442  7468 net.cpp:91] Creating Layer conv3
I0824 17:34:13.921476  7468 net.cpp:425] conv3 <- norm2
I0824 17:34:13.921519  7468 net.cpp:399] conv3 -> conv3
I0824 17:34:13.923964  7468 net.cpp:141] Setting up conv3
I0824 17:34:13.924021  7468 net.cpp:148] Top shape: 10 64 56 56 (2007040)
I0824 17:34:13.924052  7468 net.cpp:156] Memory required for data: 828907640
I0824 17:34:13.924094  7468 layer_factory.hpp:77] Creating layer relu3
I0824 17:34:13.924136  7468 net.cpp:91] Creating Layer relu3
I0824 17:34:13.924167  7468 net.cpp:425] relu3 <- conv3
I0824 17:34:13.924201  7468 net.cpp:386] relu3 -> conv3 (in-place)
I0824 17:34:13.924249  7468 net.cpp:141] Setting up relu3
I0824 17:34:13.924283  7468 net.cpp:148] Top shape: 10 64 56 56 (2007040)
I0824 17:34:13.924310  7468 net.cpp:156] Memory required for data: 836935800
I0824 17:34:13.924337  7468 layer_factory.hpp:77] Creating layer pool3
I0824 17:34:13.924377  7468 net.cpp:91] Creating Layer pool3
I0824 17:34:13.924408  7468 net.cpp:425] pool3 <- conv3
I0824 17:34:13.924441  7468 net.cpp:399] pool3 -> pool3
I0824 17:34:13.924530  7468 net.cpp:141] Setting up pool3
I0824 17:34:13.924577  7468 net.cpp:148] Top shape: 10 64 28 28 (501760)
I0824 17:34:13.924620  7468 net.cpp:156] Memory required for data: 838942840
I0824 17:34:13.924650  7468 layer_factory.hpp:77] Creating layer ip2
I0824 17:34:13.924707  7468 net.cpp:91] Creating Layer ip2
I0824 17:34:13.924751  7468 net.cpp:425] ip2 <- pool3
I0824 17:34:13.924787  7468 net.cpp:399] ip2 -> ip2
I0824 17:34:15.031893  7468 net.cpp:141] Setting up ip2
I0824 17:34:15.031975  7468 net.cpp:148] Top shape: 10 500 (5000)
I0824 17:34:15.031992  7468 net.cpp:156] Memory required for data: 838962840
I0824 17:34:15.032016  7468 layer_factory.hpp:77] Creating layer relu_ip2
I0824 17:34:15.032038  7468 net.cpp:91] Creating Layer relu_ip2
I0824 17:34:15.032054  7468 net.cpp:425] relu_ip2 <- ip2
I0824 17:34:15.032075  7468 net.cpp:386] relu_ip2 -> ip2 (in-place)
I0824 17:34:15.032099  7468 net.cpp:141] Setting up relu_ip2
I0824 17:34:15.032176  7468 net.cpp:148] Top shape: 10 500 (5000)
I0824 17:34:15.032192  7468 net.cpp:156] Memory required for data: 838982840
I0824 17:34:15.032207  7468 layer_factory.hpp:77] Creating layer ip2_relu_ip2_0_split
I0824 17:34:15.032223  7468 net.cpp:91] Creating Layer ip2_relu_ip2_0_split
I0824 17:34:15.032238  7468 net.cpp:425] ip2_relu_ip2_0_split <- ip2
I0824 17:34:15.032253  7468 net.cpp:399] ip2_relu_ip2_0_split -> ip2_relu_ip2_0_split_0
I0824 17:34:15.032274  7468 net.cpp:399] ip2_relu_ip2_0_split -> ip2_relu_ip2_0_split_1
I0824 17:34:15.032331  7468 net.cpp:141] Setting up ip2_relu_ip2_0_split
I0824 17:34:15.032354  7468 net.cpp:148] Top shape: 10 500 (5000)
I0824 17:34:15.032371  7468 net.cpp:148] Top shape: 10 500 (5000)
I0824 17:34:15.032385  7468 net.cpp:156] Memory required for data: 839022840
I0824 17:34:15.032399  7468 layer_factory.hpp:77] Creating layer ip_hash
I0824 17:34:15.032428  7468 net.cpp:91] Creating Layer ip_hash
I0824 17:34:15.032444  7468 net.cpp:425] ip_hash <- ip2_relu_ip2_0_split_0
I0824 17:34:15.032462  7468 net.cpp:399] ip_hash -> ip_hash
I0824 17:34:15.032845  7468 net.cpp:141] Setting up ip_hash
I0824 17:34:15.032872  7468 net.cpp:148] Top shape: 10 12 (120)
I0824 17:34:15.032898  7468 net.cpp:156] Memory required for data: 839023320
I0824 17:34:15.032927  7468 layer_factory.hpp:77] Creating layer ip_classification
I0824 17:34:15.032946  7468 net.cpp:91] Creating Layer ip_classification
I0824 17:34:15.032960  7468 net.cpp:425] ip_classification <- ip2_relu_ip2_0_split_1
I0824 17:34:15.032982  7468 net.cpp:399] ip_classification -> ip_classification
I0824 17:34:15.033253  7468 net.cpp:141] Setting up ip_classification
I0824 17:34:15.033278  7468 net.cpp:148] Top shape: 10 7 (70)
I0824 17:34:15.033293  7468 net.cpp:156] Memory required for data: 839023600
I0824 17:34:15.033310  7468 layer_factory.hpp:77] Creating layer loss_hash
I0824 17:34:15.033339  7468 net.cpp:91] Creating Layer loss_hash
I0824 17:34:15.033355  7468 net.cpp:425] loss_hash <- ip_hash
I0824 17:34:15.033371  7468 net.cpp:425] loss_hash <- label_cifar_1_split_0
I0824 17:34:15.033388  7468 net.cpp:399] loss_hash -> loss_hash
…
I0824 17:34:15.034869  7468 solver.cpp:181] Creating test net (#0) specified by net file: PATTERN/train_cnn_model.prototxt
I0824 17:34:15.034942  7468 net.cpp:313] The NetState phase (1) differed from the phase (0) specified by a rule in layer cifar
I0824 17:34:15.035151  7468 net.cpp:49] Initializing net from parameters: 
name: "docomo_pattern_CNN"
state {
  phase: TEST
}
layer {
  name: "cifar"
  type: "Data"
  top: "data"
  top: "label"
  include {
    phase: TEST
  }
  transform_param {
    mirror: false
    mean_file: "PATTERN/extra/pattern_mean.binaryproto"
  }
  data_param {
    source: "PATTERN/pattern_val_lmdb"
    batch_size: 10
    backend: LMDB
  }
}
layer {
  name: "conv1"
  type: "Convolution"
  bottom: "data"
  top: "conv1"
  param {
    lr_mult: 1
    decay_mult: 1
  }
  param {
    lr_mult: 2
    decay_mult: 0
  }
  convolution_param {
    num_output: 224
    pad: 2
    kernel_size: 5
    stride: 1
    weight_filler {
      type: "xavier"
    }
    bias_filler {
      type: "constant"
    }
  }
}
layer {
  name: "pool1"
  type: "Pooling"
  bottom: "conv1"
  top: "pool1"
  pooling_param {
    pool: MAX
    kernel_size: 3
    stride: 2
  }
}
layer {
  name: "relu1"
  type: "ReLU"
  bottom: "pool1"
  top: "pool1"
}
layer {
  name: "norm1"
  type: "LRN"
  bottom: "pool1"
  top: "norm1"
  lrn_param {
    local_size: 3
    alpha: 5e-05
    beta: 0.75
    norm_region: WITHIN_CHANNEL
  }
}
layer {
  name: "conv2"
  type: "Convolution"
  bottom: "norm1"
  top: "conv2"
  param {
    lr_mult: 1
    decay_mult: 1
  }
  param {
    lr_mult: 2
    decay_mult: 0
  }
  convolution_param {
    num_output: 32
    pad: 2
    kernel_size: 5
    stride: 1
    weight_filler {
      type: "xavier"
    }
    bias_filler {
      type: "constant"
    }
  }
}
layer {
  name: "pool2"
  type: "Pooling"
  bottom: "conv2"
  top: "pool2"
  pooling_param {
    pool: AVE
    kernel_size: 3
    stride: 2
  }
}
layer {
  name: "relu2"
  type: "ReLU"
  bottom: "pool2"
  top: "pool2"
}
layer {
  name: "norm2"
  type: "LRN"
  bottom: "pool2"
  top: "norm2"
  lrn_param {
    local_size: 3
    alpha: 5e-05
    beta: 0.75
    norm_region: WITHIN_CHANNEL
  }
}
layer {
  name: "conv3"
  type: "Convolution"
  bottom: "norm2"
  top: "conv3"
  param {
    lr_mult: 1
    decay_mult: 1
  }
  param {
    lr_mult: 2
    decay_mult: 0
  }
  convolution_param {
    num_output: 64
    pad: 2
    kernel_size: 5
    stride: 1
    weight_filler {
      type: "xavier"
    }
    bias_filler {
      type: "constant"
    }
  }
}
layer {
  name: "relu3"
  type: "ReLU"
  bottom: "conv3"
  top: "conv3"
}
layer {
  name: "pool3"
  type: "Pooling"
  bottom: "conv3"
  top: "pool3"
  pooling_param {
    pool: AVE
    kernel_size: 3
    stride: 2
  }
}
layer {
  name: "ip2"
  type: "InnerProduct"
  bottom: "pool3"
  top: "ip2"
  param {
    lr_mult: 1
    decay_mult: 1
  }
  param {
    lr_mult: 2
    decay_mult: 0
  }
  inner_product_param {
    num_output: 500
    weight_filler {
      type: "gaussian"
      std: 0.005
    }
    bias_filler {
      type: "constant"
      value: 0.1
    }
  }
}
layer {
  name: "relu_ip2"
  type: "ReLU"
  bottom: "ip2"
  top: "ip2"
}
layer {
  name: "ip_hash"
  type: "InnerProduct"
  bottom: "ip2"
  top: "ip_hash"
  param {
    lr_mult: 1
    decay_mult: 1
  }
  param {
    lr_mult: 2
    decay_mult: 0
  }
  inner_product_param {
    num_output: 12
    weight_filler {
      type: "gaussian"
      std: 0.005
    }
    bias_filler {
      type: "constant"
      value: 0.1
    }
  }
}
layer {
  name: "ip_classification"
  type: "InnerProduct"
  bottom: "ip2"
  top: "ip_classification"
  param {
    lr_mult: 1
    decay_mult: 1
  }
  param {
    lr_mult: 2
    decay_mult: 0
  }
  inner_product_param {
    num_output: 7
    weight_filler {
      type: "gaussian"
      std: 0.005
    }
    bias_filler {
      type: "constant"
      value: 0.1
    }
  }
}
layer {
  name: "loss_hash"
  type: "HashingLoss"
  bottom: "ip_hash"
  bottom: "label"
  top: "loss_hash"
  loss_weight: 0.1
  hashing_loss_param {
    bi_margin: 24
    tradeoff: 0.01
  }
}
layer {
  name: "loss_classification"
  type: "SoftmaxWithLoss"
  bottom: "ip_classification"
  bottom: "label"
  top: "loss_classification"
}
layer {
  name: "accuracy_at_1"
  type: "Accuracy"
  bottom: "ip_classification"
  bottom: "label"
  top: "accuracy_at_1"
  include {
    phase: TEST
  }
  accuracy_param {
    top_k: 1
  }
}
layer {
  name: "accuracy_at_5"
  type: "Accuracy"
  bottom: "ip_classification"
  bottom: "label"
  top: "accuracy_at_5"
  include {
    phase: TEST
  }
  accuracy_param {
    top_k: 5
  }
}
I0824 17:34:15.036350  7468 layer_factory.hpp:77] Creating layer cifar
I0824 17:34:15.036460  7468 net.cpp:91] Creating Layer cifar
I0824 17:34:15.036484  7468 net.cpp:399] cifar -> data
I0824 17:34:15.036507  7468 net.cpp:399] cifar -> label
I0824 17:34:15.036530  7468 data_transformer.cpp:25] Loading mean file from: PATTERN/extra/pattern_mean.binaryproto
I0824 17:34:15.037645  7475 db_lmdb.cpp:38] Opened lmdb PATTERN/pattern_val_lmdb
I0824 17:34:15.039659  7468 data_layer.cpp:41] output data size: 10,3,224,224
I0824 17:34:15.051771  7468 net.cpp:141] Setting up cifar
I0824 17:34:15.051841  7468 net.cpp:148] Top shape: 10 3 224 224 (1505280)
I0824 17:34:15.051862  7468 net.cpp:148] Top shape: 10 1 1 1 (10)
I0824 17:34:15.051877  7468 net.cpp:156] Memory required for data: 6021160
I0824 17:34:15.051895  7468 layer_factory.hpp:77] Creating layer label_cifar_1_split
I0824 17:34:15.051923  7468 net.cpp:91] Creating Layer label_cifar_1_split
I0824 17:34:15.051939  7468 net.cpp:425] label_cifar_1_split <- label
I0824 17:34:15.051959  7468 net.cpp:399] label_cifar_1_split -> label_cifar_1_split_0
I0824 17:34:15.051983  7468 net.cpp:399] label_cifar_1_split -> label_cifar_1_split_1
I0824 17:34:15.052003  7468 net.cpp:399] label_cifar_1_split -> label_cifar_1_split_2
I0824 17:34:15.052023  7468 net.cpp:399] label_cifar_1_split -> label_cifar_1_split_3
I0824 17:34:15.052109  7468 net.cpp:141] Setting up label_cifar_1_split
I0824 17:34:15.052131  7468 net.cpp:148] Top shape: 10 1 1 1 (10)
I0824 17:34:15.052147  7468 net.cpp:148] Top shape: 10 1 1 1 (10)
I0824 17:34:15.052163  7468 net.cpp:148] Top shape: 10 1 1 1 (10)
I0824 17:34:15.052179  7468 net.cpp:148] Top shape: 10 1 1 1 (10)
I0824 17:34:15.052192  7468 net.cpp:156] Memory required for data: 6021320
I0824 17:34:15.052207  7468 layer_factory.hpp:77] Creating layer conv1
I0824 17:34:15.052235  7468 net.cpp:91] Creating Layer conv1
I0824 17:34:15.052250  7468 net.cpp:425] conv1 <- data
I0824 17:34:15.052270  7468 net.cpp:399] conv1 -> conv1
I0824 17:34:15.052754  7468 net.cpp:141] Setting up conv1
I0824 17:34:15.052783  7468 net.cpp:148] Top shape: 10 224 224 224 (112394240)
I0824 17:34:15.052798  7468 net.cpp:156] Memory required for data: 455598280
I0824 17:34:15.052822  7468 layer_factory.hpp:77] Creating layer pool1
I0824 17:34:15.052844  7468 net.cpp:91] Creating Layer pool1
I0824 17:34:15.052858  7468 net.cpp:425] pool1 <- conv1
I0824 17:34:15.052876  7468 net.cpp:399] pool1 -> pool1
I0824 17:34:15.052932  7468 net.cpp:141] Setting up pool1
I0824 17:34:15.052958  7468 net.cpp:148] Top shape: 10 224 112 112 (28098560)
I0824 17:34:15.052973  7468 net.cpp:156] Memory required for data: 567992520
I0824 17:34:15.053036  7468 layer_factory.hpp:77] Creating layer relu1
I0824 17:34:15.053056  7468 net.cpp:91] Creating Layer relu1
I0824 17:34:15.053071  7468 net.cpp:425] relu1 <- pool1
I0824 17:34:15.053091  7468 net.cpp:386] relu1 -> pool1 (in-place)
I0824 17:34:15.053109  7468 net.cpp:141] Setting up relu1
I0824 17:34:15.053128  7468 net.cpp:148] Top shape: 10 224 112 112 (28098560)
I0824 17:34:15.053143  7468 net.cpp:156] Memory required for data: 680386760
I0824 17:34:15.053156  7468 layer_factory.hpp:77] Creating layer norm1
I0824 17:34:15.053176  7468 net.cpp:91] Creating Layer norm1
I0824 17:34:15.053192  7468 net.cpp:425] norm1 <- pool1
I0824 17:34:15.053210  7468 net.cpp:399] norm1 -> norm1
I0824 17:34:15.053710  7468 net.cpp:141] Setting up norm1
I0824 17:34:15.053737  7468 net.cpp:148] Top shape: 10 224 112 112 (28098560)
I0824 17:34:15.053751  7468 net.cpp:156] Memory required for data: 792781000
I0824 17:34:15.053766  7468 layer_factory.hpp:77] Creating layer conv2
I0824 17:34:15.053799  7468 net.cpp:91] Creating Layer conv2
I0824 17:34:15.053815  7468 net.cpp:425] conv2 <- norm1
I0824 17:34:15.053838  7468 net.cpp:399] conv2 -> conv2
I0824 17:34:15.056349  7468 net.cpp:141] Setting up conv2
I0824 17:34:15.056378  7468 net.cpp:148] Top shape: 10 32 112 112 (4014080)
I0824 17:34:15.056393  7468 net.cpp:156] Memory required for data: 808837320
I0824 17:34:15.056414  7468 layer_factory.hpp:77] Creating layer pool2
I0824 17:34:15.056445  7468 net.cpp:91] Creating Layer pool2
I0824 17:34:15.056462  7468 net.cpp:425] pool2 <- conv2
I0824 17:34:15.056481  7468 net.cpp:399] pool2 -> pool2
I0824 17:34:15.056524  7468 net.cpp:141] Setting up pool2
I0824 17:34:15.056551  7468 net.cpp:148] Top shape: 10 32 56 56 (1003520)
I0824 17:34:15.056566  7468 net.cpp:156] Memory required for data: 812851400
I0824 17:34:15.056579  7468 layer_factory.hpp:77] Creating layer relu2
I0824 17:34:15.056619  7468 net.cpp:91] Creating Layer relu2
I0824 17:34:15.056638  7468 net.cpp:425] relu2 <- pool2
I0824 17:34:15.056654  7468 net.cpp:386] relu2 -> pool2 (in-place)
I0824 17:34:15.056675  7468 net.cpp:141] Setting up relu2
I0824 17:34:15.056694  7468 net.cpp:148] Top shape: 10 32 56 56 (1003520)
I0824 17:34:15.056706  7468 net.cpp:156] Memory required for data: 816865480
I0824 17:34:15.056720  7468 layer_factory.hpp:77] Creating layer norm2
I0824 17:34:15.056741  7468 net.cpp:91] Creating Layer norm2
I0824 17:34:15.056756  7468 net.cpp:425] norm2 <- pool2
I0824 17:34:15.056772  7468 net.cpp:399] norm2 -> norm2
I0824 17:34:15.056893  7468 net.cpp:141] Setting up norm2
I0824 17:34:15.056917  7468 net.cpp:148] Top shape: 10 32 56 56 (1003520)
I0824 17:34:15.056932  7468 net.cpp:156] Memory required for data: 820879560
I0824 17:34:15.056946  7468 layer_factory.hpp:77] Creating layer conv3
I0824 17:34:15.056974  7468 net.cpp:91] Creating Layer conv3
I0824 17:34:15.056989  7468 net.cpp:425] conv3 <- norm2
I0824 17:34:15.057008  7468 net.cpp:399] conv3 -> conv3
I0824 17:34:15.057701  7468 net.cpp:141] Setting up conv3
I0824 17:34:15.057729  7468 net.cpp:148] Top shape: 10 64 56 56 (2007040)
I0824 17:34:15.057744  7468 net.cpp:156] Memory required for data: 828907720
I0824 17:34:15.057765  7468 layer_factory.hpp:77] Creating layer relu3
I0824 17:34:15.057785  7468 net.cpp:91] Creating Layer relu3
I0824 17:34:15.057798  7468 net.cpp:425] relu3 <- conv3
I0824 17:34:15.057818  7468 net.cpp:386] relu3 -> conv3 (in-place)
I0824 17:34:15.057837  7468 net.cpp:141] Setting up relu3
I0824 17:34:15.057853  7468 net.cpp:148] Top shape: 10 64 56 56 (2007040)
I0824 17:34:15.057867  7468 net.cpp:156] Memory required for data: 836935880
I0824 17:34:15.057880  7468 layer_factory.hpp:77] Creating layer pool3
I0824 17:34:15.057898  7468 net.cpp:91] Creating Layer pool3
I0824 17:34:15.057912  7468 net.cpp:425] pool3 <- conv3
I0824 17:34:15.057929  7468 net.cpp:399] pool3 -> pool3
I0824 17:34:15.057971  7468 net.cpp:141] Setting up pool3
I0824 17:34:15.057992  7468 net.cpp:148] Top shape: 10 64 28 28 (501760)
I0824 17:34:15.058006  7468 net.cpp:156] Memory required for data: 838942920
I0824 17:34:15.058042  7468 layer_factory.hpp:77] Creating layer ip2
I0824 17:34:15.058065  7468 net.cpp:91] Creating Layer ip2
I0824 17:34:15.058081  7468 net.cpp:425] ip2 <- pool3
I0824 17:34:15.058099  7468 net.cpp:399] ip2 -> ip2
I0824 17:34:15.985250  7468 net.cpp:141] Setting up ip2
I0824 17:34:15.985338  7468 net.cpp:148] Top shape: 10 500 (5000)
I0824 17:34:15.985357  7468 net.cpp:156] Memory required for data: 838962920
I0824 17:34:15.985389  7468 layer_factory.hpp:77] Creating layer relu_ip2
I0824 17:34:15.985419  7468 net.cpp:91] Creating Layer relu_ip2
I0824 17:34:15.985438  7468 net.cpp:425] relu_ip2 <- ip2
I0824 17:34:15.985457  7468 net.cpp:386] relu_ip2 -> ip2 (in-place)
I0824 17:34:15.985497  7468 net.cpp:141] Setting up relu_ip2
I0824 17:34:15.985514  7468 net.cpp:148] Top shape: 10 500 (5000)
I0824 17:34:15.985527  7468 net.cpp:156] Memory required for data: 838982920
I0824 17:34:15.985541  7468 layer_factory.hpp:77] Creating layer ip2_relu_ip2_0_split
I0824 17:34:15.985558  7468 net.cpp:91] Creating Layer ip2_relu_ip2_0_split
I0824 17:34:15.985572  7468 net.cpp:425] ip2_relu_ip2_0_split <- ip2
I0824 17:34:15.985589  7468 net.cpp:399] ip2_relu_ip2_0_split -> ip2_relu_ip2_0_split_0
I0824 17:34:15.985608  7468 net.cpp:399] ip2_relu_ip2_0_split -> ip2_relu_ip2_0_split_1
I0824 17:34:15.985690  7468 net.cpp:141] Setting up ip2_relu_ip2_0_split
I0824 17:34:15.985714  7468 net.cpp:148] Top shape: 10 500 (5000)
I0824 17:34:15.985731  7468 net.cpp:148] Top shape: 10 500 (5000)
I0824 17:34:15.985745  7468 net.cpp:156] Memory required for data: 839022920
I0824 17:34:15.985767  7468 layer_factory.hpp:77] Creating layer ip_hash
I0824 17:34:15.985800  7468 net.cpp:91] Creating Layer ip_hash
I0824 17:34:15.985819  7468 net.cpp:425] ip_hash <- ip2_relu_ip2_0_split_0
I0824 17:34:15.985841  7468 net.cpp:399] ip_hash -> ip_hash
I0824 17:34:15.986245  7468 net.cpp:141] Setting up ip_hash
I0824 17:34:15.986268  7468 net.cpp:148] Top shape: 10 12 (120)
I0824 17:34:15.986295  7468 net.cpp:156] Memory required for data: 839023400
I0824 17:34:15.986321  7468 layer_factory.hpp:77] Creating layer ip_classification
I0824 17:34:15.986343  7468 net.cpp:91] Creating Layer ip_classification
I0824 17:34:15.986357  7468 net.cpp:425] ip_classification <- ip2_relu_ip2_0_split_1
I0824 17:34:15.986392  7468 net.cpp:399] ip_classification -> ip_classification
I0824 17:34:15.986661  7468 net.cpp:141] Setting up ip_classification
I0824 17:34:15.986685  7468 net.cpp:148] Top shape: 10 7 (70)
I0824 17:34:15.986701  7468 net.cpp:156] Memory required for data: 839023680
I0824 17:34:15.986732  7468 layer_factory.hpp:77] Creating layer ip_classification_ip_classification_0_split
I0824 17:34:15.986752  7468 net.cpp:91] Creating Layer ip_classification_ip_classification_0_split
I0824 17:34:15.986768  7468 net.cpp:425] ip_classification_ip_classification_0_split <- ip_classification
I0824 17:34:15.986798  7468 net.cpp:399] ip_classification_ip_classification_0_split -> ip_classification_ip_classification_0_split_0
I0824 17:34:15.986817  7468 net.cpp:399] ip_classification_ip_classification_0_split -> ip_classification_ip_classification_0_split_1
I0824 17:34:15.986836  7468 net.cpp:399] ip_classification_ip_classification_0_split -> ip_classification_ip_classification_0_split_2
I0824 17:34:15.986904  7468 net.cpp:141] Setting up ip_classification_ip_classification_0_split
I0824 17:34:15.986927  7468 net.cpp:148] Top shape: 10 7 (70)
I0824 17:34:15.986943  7468 net.cpp:148] Top shape: 10 7 (70)
I0824 17:34:15.986958  7468 net.cpp:148] Top shape: 10 7 (70)
I0824 17:34:15.986971  7468 net.cpp:156] Memory required for data: 839024520
I0824 17:34:15.986985  7468 layer_factory.hpp:77] Creating layer loss_hash
I0824 17:34:15.987009  7468 net.cpp:91] Creating Layer loss_hash
I0824 17:34:15.987025  7468 net.cpp:425] loss_hash <- ip_hash
I0824 17:34:15.987040  7468 net.cpp:425] loss_hash <- label_cifar_1_split_0
I0824 17:34:15.987057  7468 net.cpp:399] loss_hash -> loss_hash
…
