…
I0825 11:12:28.703009 30170 net.cpp:313] The NetState phase (0) differed from the phase (1) specified by a rule in layer accuracy_at_5
I0825 11:12:28.703413 30170 net.cpp:49] Initializing net from parameters: 
name: "docomo_pattern_CNN"
state {
  phase: TRAIN
}
layer {
  name: "cifar"
  type: "Data"
  top: "data"
  top: "label"
  include {
    phase: TRAIN
  }
  transform_param {
    mirror: true
    mean_file: "PATTERN/extra/pattern_mean.binaryproto"
  }
  data_param {
    source: "PATTERN/pattern_train_lmdb"
    batch_size: 10
    backend: LMDB
  }
}
layer {
  name: "conv1"
  type: "Convolution"
  bottom: "data"
  top: "conv1"
  param {
    lr_mult: 1
    decay_mult: 1
  }
  param {
    lr_mult: 2
    decay_mult: 0
  }
  convolution_param {
    num_output: 224
    pad: 2
    kernel_size: 5
    stride: 1
    weight_filler {
      type: "xavier"
    }
    bias_filler {
      type: "constant"
    }
  }
}
layer {
  name: "pool1"
  type: "Pooling"
  bottom: "conv1"
  top: "pool1"
  pooling_param {
    pool: MAX
    kernel_size: 3
    stride: 2
  }
}
layer {
  name: "relu1"
  type: "ReLU"
  bottom: "pool1"
  top: "pool1"
}
layer {
  name: "norm1"
  type: "LRN"
  bottom: "pool1"
  top: "norm1"
  lrn_param {
    local_size: 3
    alpha: 5e-05
    beta: 0.75
    norm_region: WITHIN_CHANNEL
  }
}
layer {
  name: "conv2"
  type: "Convolution"
  bottom: "norm1"
  top: "conv2"
  param {
    lr_mult: 1
    decay_mult: 1
  }
  param {
    lr_mult: 2
    decay_mult: 0
  }
  convolution_param {
    num_output: 32
    pad: 2
    kernel_size: 5
    stride: 1
    weight_filler {
      type: "xavier"
    }
    bias_filler {
      type: "constant"
    }
  }
}
layer {
  name: "pool2"
  type: "Pooling"
  bottom: "conv2"
  top: "pool2"
  pooling_param {
    pool: AVE
    kernel_size: 3
    stride: 2
  }
}
layer {
  name: "relu2"
  type: "ReLU"
  bottom: "pool2"
  top: "pool2"
}
layer {
  name: "norm2"
  type: "LRN"
  bottom: "pool2"
  top: "norm2"
  lrn_param {
    local_size: 3
    alpha: 5e-05
    beta: 0.75
    norm_region: WITHIN_CHANNEL
  }
}
layer {
  name: "conv3"
  type: "Convolution"
  bottom: "norm2"
  top: "conv3"
  param {
    lr_mult: 1
    decay_mult: 1
  }
  param {
    lr_mult: 2
    decay_mult: 0
  }
  convolution_param {
    num_output: 64
    pad: 2
    kernel_size: 5
    stride: 1
    weight_filler {
      type: "xavier"
    }
    bias_filler {
      type: "constant"
    }
  }
}
layer {
  name: "relu3"
  type: "ReLU"
  bottom: "conv3"
  top: "conv3"
}
layer {
  name: "pool3"
  type: "Pooling"
  bottom: "conv3"
  top: "pool3"
  pooling_param {
    pool: AVE
    kernel_size: 3
    stride: 2
  }
}
layer {
  name: "ip2"
  type: "InnerProduct"
  bottom: "pool3"
  top: "ip2"
  param {
    lr_mult: 1
    decay_mult: 1
  }
  param {
    lr_mult: 2
    decay_mult: 0
  }
  inner_product_param {
    num_output: 500
    weight_filler {
      type: "gaussian"
      std: 0.005
    }
    bias_filler {
      type: "constant"
      value: 0.1
    }
  }
}
layer {
  name: "relu_ip2"
  type: "ReLU"
  bottom: "ip2"
  top: "ip2"
}
layer {
  name: "ip_hash"
  type: "InnerProduct"
  bottom: "ip2"
  top: "ip_hash"
  param {
    lr_mult: 1
    decay_mult: 1
  }
  param {
    lr_mult: 2
    decay_mult: 0
  }
  inner_product_param {
    num_output: 12
    weight_filler {
      type: "gaussian"
      std: 0.005
    }
    bias_filler {
      type: "constant"
      value: 0.1
    }
  }
}
layer {
  name: "ip_classification"
  type: "InnerProduct"
  bottom: "ip2"
  top: "ip_classification"
  param {
    lr_mult: 1
    decay_mult: 1
  }
  param {
    lr_mult: 2
    decay_mult: 0
  }
  inner_product_param {
    num_output: 7
    weight_filler {
      type: "gaussian"
      std: 0.005
    }
    bias_filler {
      type: "constant"
      value: 0.1
    }
  }
}
layer {
  name: "loss_hash"
  type: "HashingLoss"
  bottom: "ip_hash"
  bottom: "label"
  top: "loss_hash"
  loss_weight: 0.1
  hashing_loss_param {
    bi_margin: 24
    tradeoff: 0.01
  }
}
layer {
  name: "loss_classification"
  type: "SoftmaxWithLoss"
  bottom: "ip_classification"
  bottom: "label"
  top: "loss_classification"
}
I0825 11:12:28.706110 30170 layer_factory.hpp:77] Creating layer cifar
I0825 11:12:28.707352 30170 net.cpp:91] Creating Layer cifar
I0825 11:12:28.707427 30170 net.cpp:399] cifar -> data
I0825 11:12:28.707531 30170 net.cpp:399] cifar -> label
I0825 11:12:28.707612 30170 data_transformer.cpp:25] Loading mean file from: PATTERN/extra/pattern_mean.binaryproto
I0825 11:12:28.709287 30176 db_lmdb.cpp:38] Opened lmdb PATTERN/pattern_train_lmdb
I0825 11:12:28.740819 30170 data_layer.cpp:41] output data size: 10,3,224,224
I0825 11:12:28.760957 30170 net.cpp:141] Setting up cifar
I0825 11:12:28.761060 30170 net.cpp:148] Top shape: 10 3 224 224 (1505280)
I0825 11:12:28.761090 30170 net.cpp:148] Top shape: 10 1 1 1 (10)
I0825 11:12:28.761116 30170 net.cpp:156] Memory required for data: 6021160
I0825 11:12:28.761147 30170 layer_factory.hpp:77] Creating layer label_cifar_1_split
I0825 11:12:28.761188 30170 net.cpp:91] Creating Layer label_cifar_1_split
I0825 11:12:28.761219 30170 net.cpp:425] label_cifar_1_split <- label
I0825 11:12:28.761261 30170 net.cpp:399] label_cifar_1_split -> label_cifar_1_split_0
I0825 11:12:28.761297 30170 net.cpp:399] label_cifar_1_split -> label_cifar_1_split_1
I0825 11:12:28.761395 30170 net.cpp:141] Setting up label_cifar_1_split
I0825 11:12:28.761430 30170 net.cpp:148] Top shape: 10 1 1 1 (10)
I0825 11:12:28.761454 30170 net.cpp:148] Top shape: 10 1 1 1 (10)
I0825 11:12:28.761479 30170 net.cpp:156] Memory required for data: 6021240
I0825 11:12:28.761502 30170 layer_factory.hpp:77] Creating layer conv1
I0825 11:12:28.761555 30170 net.cpp:91] Creating Layer conv1
I0825 11:12:28.761584 30170 net.cpp:425] conv1 <- data
I0825 11:12:28.761613 30170 net.cpp:399] conv1 -> conv1
I0825 11:12:28.763972 30170 net.cpp:141] Setting up conv1
I0825 11:12:28.764039 30170 net.cpp:148] Top shape: 10 224 224 224 (112394240)
I0825 11:12:28.764072 30170 net.cpp:156] Memory required for data: 455598200
I0825 11:12:28.764145 30170 layer_factory.hpp:77] Creating layer pool1
I0825 11:12:28.764204 30170 net.cpp:91] Creating Layer pool1
I0825 11:12:28.764242 30170 net.cpp:425] pool1 <- conv1
I0825 11:12:28.764289 30170 net.cpp:399] pool1 -> pool1
I0825 11:12:28.764456 30170 net.cpp:141] Setting up pool1
I0825 11:12:28.764508 30170 net.cpp:148] Top shape: 10 224 112 112 (28098560)
I0825 11:12:28.764544 30170 net.cpp:156] Memory required for data: 567992440
I0825 11:12:28.764580 30170 layer_factory.hpp:77] Creating layer relu1
I0825 11:12:28.764641 30170 net.cpp:91] Creating Layer relu1
I0825 11:12:28.764680 30170 net.cpp:425] relu1 <- pool1
I0825 11:12:28.764715 30170 net.cpp:386] relu1 -> pool1 (in-place)
I0825 11:12:28.764762 30170 net.cpp:141] Setting up relu1
I0825 11:12:28.764803 30170 net.cpp:148] Top shape: 10 224 112 112 (28098560)
I0825 11:12:28.764838 30170 net.cpp:156] Memory required for data: 680386680
I0825 11:12:28.764873 30170 layer_factory.hpp:77] Creating layer norm1
I0825 11:12:28.764925 30170 net.cpp:91] Creating Layer norm1
I0825 11:12:28.764961 30170 net.cpp:425] norm1 <- pool1
I0825 11:12:28.765003 30170 net.cpp:399] norm1 -> norm1
I0825 11:12:28.765296 30170 net.cpp:141] Setting up norm1
I0825 11:12:28.765413 30170 net.cpp:148] Top shape: 10 224 112 112 (28098560)
I0825 11:12:28.765445 30170 net.cpp:156] Memory required for data: 792780920
I0825 11:12:28.765477 30170 layer_factory.hpp:77] Creating layer conv2
I0825 11:12:28.765527 30170 net.cpp:91] Creating Layer conv2
I0825 11:12:28.765560 30170 net.cpp:425] conv2 <- norm1
I0825 11:12:28.765605 30170 net.cpp:399] conv2 -> conv2
I0825 11:12:28.771296 30170 net.cpp:141] Setting up conv2
I0825 11:12:28.771368 30170 net.cpp:148] Top shape: 10 32 112 112 (4014080)
I0825 11:12:28.771400 30170 net.cpp:156] Memory required for data: 808837240
I0825 11:12:28.771447 30170 layer_factory.hpp:77] Creating layer pool2
I0825 11:12:28.771498 30170 net.cpp:91] Creating Layer pool2
I0825 11:12:28.771538 30170 net.cpp:425] pool2 <- conv2
I0825 11:12:28.771579 30170 net.cpp:399] pool2 -> pool2
I0825 11:12:28.771675 30170 net.cpp:141] Setting up pool2
I0825 11:12:28.771724 30170 net.cpp:148] Top shape: 10 32 56 56 (1003520)
I0825 11:12:28.771759 30170 net.cpp:156] Memory required for data: 812851320
I0825 11:12:28.771795 30170 layer_factory.hpp:77] Creating layer relu2
I0825 11:12:28.771838 30170 net.cpp:91] Creating Layer relu2
I0825 11:12:28.771874 30170 net.cpp:425] relu2 <- pool2
I0825 11:12:28.771912 30170 net.cpp:386] relu2 -> pool2 (in-place)
I0825 11:12:28.771955 30170 net.cpp:141] Setting up relu2
I0825 11:12:28.771994 30170 net.cpp:148] Top shape: 10 32 56 56 (1003520)
I0825 11:12:28.772028 30170 net.cpp:156] Memory required for data: 816865400
I0825 11:12:28.772063 30170 layer_factory.hpp:77] Creating layer norm2
I0825 11:12:28.772101 30170 net.cpp:91] Creating Layer norm2
I0825 11:12:28.772136 30170 net.cpp:425] norm2 <- pool2
I0825 11:12:28.772183 30170 net.cpp:399] norm2 -> norm2
I0825 11:12:28.772423 30170 net.cpp:141] Setting up norm2
I0825 11:12:28.772474 30170 net.cpp:148] Top shape: 10 32 56 56 (1003520)
I0825 11:12:28.772507 30170 net.cpp:156] Memory required for data: 820879480
I0825 11:12:28.772543 30170 layer_factory.hpp:77] Creating layer conv3
I0825 11:12:28.772615 30170 net.cpp:91] Creating Layer conv3
I0825 11:12:28.772675 30170 net.cpp:425] conv3 <- norm2
I0825 11:12:28.772734 30170 net.cpp:399] conv3 -> conv3
I0825 11:12:28.775192 30170 net.cpp:141] Setting up conv3
I0825 11:12:28.775250 30170 net.cpp:148] Top shape: 10 64 56 56 (2007040)
I0825 11:12:28.775283 30170 net.cpp:156] Memory required for data: 828907640
I0825 11:12:28.775329 30170 layer_factory.hpp:77] Creating layer relu3
I0825 11:12:28.775372 30170 net.cpp:91] Creating Layer relu3
I0825 11:12:28.775406 30170 net.cpp:425] relu3 <- conv3
I0825 11:12:28.775452 30170 net.cpp:386] relu3 -> conv3 (in-place)
I0825 11:12:28.775494 30170 net.cpp:141] Setting up relu3
I0825 11:12:28.775535 30170 net.cpp:148] Top shape: 10 64 56 56 (2007040)
I0825 11:12:28.775569 30170 net.cpp:156] Memory required for data: 836935800
I0825 11:12:28.775605 30170 layer_factory.hpp:77] Creating layer pool3
I0825 11:12:28.775641 30170 net.cpp:91] Creating Layer pool3
I0825 11:12:28.775677 30170 net.cpp:425] pool3 <- conv3
I0825 11:12:28.775723 30170 net.cpp:399] pool3 -> pool3
I0825 11:12:28.775810 30170 net.cpp:141] Setting up pool3
I0825 11:12:28.775857 30170 net.cpp:148] Top shape: 10 64 28 28 (501760)
I0825 11:12:28.775890 30170 net.cpp:156] Memory required for data: 838942840
I0825 11:12:28.775925 30170 layer_factory.hpp:77] Creating layer ip2
I0825 11:12:28.775979 30170 net.cpp:91] Creating Layer ip2
I0825 11:12:28.776016 30170 net.cpp:425] ip2 <- pool3
I0825 11:12:28.776063 30170 net.cpp:399] ip2 -> ip2
I0825 11:12:29.874819 30170 net.cpp:141] Setting up ip2
I0825 11:12:29.874893 30170 net.cpp:148] Top shape: 10 500 (5000)
I0825 11:12:29.874910 30170 net.cpp:156] Memory required for data: 838962840
I0825 11:12:29.874938 30170 layer_factory.hpp:77] Creating layer relu_ip2
I0825 11:12:29.874969 30170 net.cpp:91] Creating Layer relu_ip2
I0825 11:12:29.874987 30170 net.cpp:425] relu_ip2 <- ip2
I0825 11:12:29.875006 30170 net.cpp:386] relu_ip2 -> ip2 (in-place)
I0825 11:12:29.875042 30170 net.cpp:141] Setting up relu_ip2
I0825 11:12:29.875107 30170 net.cpp:148] Top shape: 10 500 (5000)
I0825 11:12:29.875123 30170 net.cpp:156] Memory required for data: 838982840
I0825 11:12:29.875136 30170 layer_factory.hpp:77] Creating layer ip2_relu_ip2_0_split
I0825 11:12:29.875157 30170 net.cpp:91] Creating Layer ip2_relu_ip2_0_split
I0825 11:12:29.875171 30170 net.cpp:425] ip2_relu_ip2_0_split <- ip2
I0825 11:12:29.875188 30170 net.cpp:399] ip2_relu_ip2_0_split -> ip2_relu_ip2_0_split_0
I0825 11:12:29.875206 30170 net.cpp:399] ip2_relu_ip2_0_split -> ip2_relu_ip2_0_split_1
I0825 11:12:29.875262 30170 net.cpp:141] Setting up ip2_relu_ip2_0_split
I0825 11:12:29.875285 30170 net.cpp:148] Top shape: 10 500 (5000)
I0825 11:12:29.875301 30170 net.cpp:148] Top shape: 10 500 (5000)
I0825 11:12:29.875315 30170 net.cpp:156] Memory required for data: 839022840
I0825 11:12:29.875330 30170 layer_factory.hpp:77] Creating layer ip_hash
I0825 11:12:29.875358 30170 net.cpp:91] Creating Layer ip_hash
I0825 11:12:29.875377 30170 net.cpp:425] ip_hash <- ip2_relu_ip2_0_split_0
I0825 11:12:29.875397 30170 net.cpp:399] ip_hash -> ip_hash
I0825 11:12:29.875720 30170 net.cpp:141] Setting up ip_hash
I0825 11:12:29.875753 30170 net.cpp:148] Top shape: 10 12 (120)
I0825 11:12:29.875768 30170 net.cpp:156] Memory required for data: 839023320
I0825 11:12:29.875792 30170 layer_factory.hpp:77] Creating layer ip_classification
I0825 11:12:29.875828 30170 net.cpp:91] Creating Layer ip_classification
I0825 11:12:29.875844 30170 net.cpp:425] ip_classification <- ip2_relu_ip2_0_split_1
I0825 11:12:29.875861 30170 net.cpp:399] ip_classification -> ip_classification
I0825 11:12:29.876096 30170 net.cpp:141] Setting up ip_classification
I0825 11:12:29.876121 30170 net.cpp:148] Top shape: 10 7 (70)
I0825 11:12:29.876135 30170 net.cpp:156] Memory required for data: 839023600
I0825 11:12:29.876153 30170 layer_factory.hpp:77] Creating layer loss_hash
I0825 11:12:29.876183 30170 net.cpp:91] Creating Layer loss_hash
I0825 11:12:29.876201 30170 net.cpp:425] loss_hash <- ip_hash
I0825 11:12:29.876217 30170 net.cpp:425] loss_hash <- label_cifar_1_split_0
I0825 11:12:29.876235 30170 net.cpp:399] loss_hash -> loss_hash
…
I0825 11:12:29.877697 30170 solver.cpp:181] Creating test net (#0) specified by net file: PATTERN/train_cnn_model.prototxt
I0825 11:12:29.877780 30170 net.cpp:313] The NetState phase (1) differed from the phase (0) specified by a rule in layer cifar
I0825 11:12:29.877985 30170 net.cpp:49] Initializing net from parameters: 
name: "docomo_pattern_CNN"
state {
  phase: TEST
}
layer {
  name: "cifar"
  type: "Data"
  top: "data"
  top: "label"
  include {
    phase: TEST
  }
  transform_param {
    mirror: false
    mean_file: "PATTERN/extra/pattern_mean.binaryproto"
  }
  data_param {
    source: "PATTERN/pattern_val_lmdb"
    batch_size: 10
    backend: LMDB
  }
}
layer {
  name: "conv1"
  type: "Convolution"
  bottom: "data"
  top: "conv1"
  param {
    lr_mult: 1
    decay_mult: 1
  }
  param {
    lr_mult: 2
    decay_mult: 0
  }
  convolution_param {
    num_output: 224
    pad: 2
    kernel_size: 5
    stride: 1
    weight_filler {
      type: "xavier"
    }
    bias_filler {
      type: "constant"
    }
  }
}
layer {
  name: "pool1"
  type: "Pooling"
  bottom: "conv1"
  top: "pool1"
  pooling_param {
    pool: MAX
    kernel_size: 3
    stride: 2
  }
}
layer {
  name: "relu1"
  type: "ReLU"
  bottom: "pool1"
  top: "pool1"
}
layer {
  name: "norm1"
  type: "LRN"
  bottom: "pool1"
  top: "norm1"
  lrn_param {
    local_size: 3
    alpha: 5e-05
    beta: 0.75
    norm_region: WITHIN_CHANNEL
  }
}
layer {
  name: "conv2"
  type: "Convolution"
  bottom: "norm1"
  top: "conv2"
  param {
    lr_mult: 1
    decay_mult: 1
  }
  param {
    lr_mult: 2
    decay_mult: 0
  }
  convolution_param {
    num_output: 32
    pad: 2
    kernel_size: 5
    stride: 1
    weight_filler {
      type: "xavier"
    }
    bias_filler {
      type: "constant"
    }
  }
}
layer {
  name: "pool2"
  type: "Pooling"
  bottom: "conv2"
  top: "pool2"
  pooling_param {
    pool: AVE
    kernel_size: 3
    stride: 2
  }
}
layer {
  name: "relu2"
  type: "ReLU"
  bottom: "pool2"
  top: "pool2"
}
layer {
  name: "norm2"
  type: "LRN"
  bottom: "pool2"
  top: "norm2"
  lrn_param {
    local_size: 3
    alpha: 5e-05
    beta: 0.75
    norm_region: WITHIN_CHANNEL
  }
}
layer {
  name: "conv3"
  type: "Convolution"
  bottom: "norm2"
  top: "conv3"
  param {
    lr_mult: 1
    decay_mult: 1
  }
  param {
    lr_mult: 2
    decay_mult: 0
  }
  convolution_param {
    num_output: 64
    pad: 2
    kernel_size: 5
    stride: 1
    weight_filler {
      type: "xavier"
    }
    bias_filler {
      type: "constant"
    }
  }
}
layer {
  name: "relu3"
  type: "ReLU"
  bottom: "conv3"
  top: "conv3"
}
layer {
  name: "pool3"
  type: "Pooling"
  bottom: "conv3"
  top: "pool3"
  pooling_param {
    pool: AVE
    kernel_size: 3
    stride: 2
  }
}
layer {
  name: "ip2"
  type: "InnerProduct"
  bottom: "pool3"
  top: "ip2"
  param {
    lr_mult: 1
    decay_mult: 1
  }
  param {
    lr_mult: 2
    decay_mult: 0
  }
  inner_product_param {
    num_output: 500
    weight_filler {
      type: "gaussian"
      std: 0.005
    }
    bias_filler {
      type: "constant"
      value: 0.1
    }
  }
}
layer {
  name: "relu_ip2"
  type: "ReLU"
  bottom: "ip2"
  top: "ip2"
}
layer {
  name: "ip_hash"
  type: "InnerProduct"
  bottom: "ip2"
  top: "ip_hash"
  param {
    lr_mult: 1
    decay_mult: 1
  }
  param {
    lr_mult: 2
    decay_mult: 0
  }
  inner_product_param {
    num_output: 12
    weight_filler {
      type: "gaussian"
      std: 0.005
    }
    bias_filler {
      type: "constant"
      value: 0.1
    }
  }
}
layer {
  name: "ip_classification"
  type: "InnerProduct"
  bottom: "ip2"
  top: "ip_classification"
  param {
    lr_mult: 1
    decay_mult: 1
  }
  param {
    lr_mult: 2
    decay_mult: 0
  }
  inner_product_param {
    num_output: 7
    weight_filler {
      type: "gaussian"
      std: 0.005
    }
    bias_filler {
      type: "constant"
      value: 0.1
    }
  }
}
layer {
  name: "loss_hash"
  type: "HashingLoss"
  bottom: "ip_hash"
  bottom: "label"
  top: "loss_hash"
  loss_weight: 0.1
  hashing_loss_param {
    bi_margin: 24
    tradeoff: 0.01
  }
}
layer {
  name: "loss_classification"
  type: "SoftmaxWithLoss"
  bottom: "ip_classification"
  bottom: "label"
  top: "loss_classification"
}
layer {
  name: "accuracy_at_1"
  type: "Accuracy"
  bottom: "ip_classification"
  bottom: "label"
  top: "accuracy_at_1"
  include {
    phase: TEST
  }
  accuracy_param {
    top_k: 1
  }
}
layer {
  name: "accuracy_at_5"
  type: "Accuracy"
  bottom: "ip_classification"
  bottom: "label"
  top: "accuracy_at_5"
  include {
    phase: TEST
  }
  accuracy_param {
    top_k: 5
  }
}
I0825 11:12:29.879179 30170 layer_factory.hpp:77] Creating layer cifar
I0825 11:12:29.879283 30170 net.cpp:91] Creating Layer cifar
I0825 11:12:29.879323 30170 net.cpp:399] cifar -> data
I0825 11:12:29.879345 30170 net.cpp:399] cifar -> label
I0825 11:12:29.879371 30170 data_transformer.cpp:25] Loading mean file from: PATTERN/extra/pattern_mean.binaryproto
I0825 11:12:29.880539 30178 db_lmdb.cpp:38] Opened lmdb PATTERN/pattern_val_lmdb
I0825 11:12:29.882477 30170 data_layer.cpp:41] output data size: 10,3,224,224
I0825 11:12:29.894454 30170 net.cpp:141] Setting up cifar
I0825 11:12:29.894523 30170 net.cpp:148] Top shape: 10 3 224 224 (1505280)
I0825 11:12:29.894544 30170 net.cpp:148] Top shape: 10 1 1 1 (10)
I0825 11:12:29.894562 30170 net.cpp:156] Memory required for data: 6021160
I0825 11:12:29.894580 30170 layer_factory.hpp:77] Creating layer label_cifar_1_split
I0825 11:12:29.894609 30170 net.cpp:91] Creating Layer label_cifar_1_split
I0825 11:12:29.894632 30170 net.cpp:425] label_cifar_1_split <- label
I0825 11:12:29.894654 30170 net.cpp:399] label_cifar_1_split -> label_cifar_1_split_0
I0825 11:12:29.894682 30170 net.cpp:399] label_cifar_1_split -> label_cifar_1_split_1
I0825 11:12:29.894703 30170 net.cpp:399] label_cifar_1_split -> label_cifar_1_split_2
I0825 11:12:29.894723 30170 net.cpp:399] label_cifar_1_split -> label_cifar_1_split_3
I0825 11:12:29.894811 30170 net.cpp:141] Setting up label_cifar_1_split
I0825 11:12:29.894839 30170 net.cpp:148] Top shape: 10 1 1 1 (10)
I0825 11:12:29.894856 30170 net.cpp:148] Top shape: 10 1 1 1 (10)
I0825 11:12:29.894875 30170 net.cpp:148] Top shape: 10 1 1 1 (10)
I0825 11:12:29.894891 30170 net.cpp:148] Top shape: 10 1 1 1 (10)
I0825 11:12:29.894908 30170 net.cpp:156] Memory required for data: 6021320
I0825 11:12:29.894924 30170 layer_factory.hpp:77] Creating layer conv1
I0825 11:12:29.894954 30170 net.cpp:91] Creating Layer conv1
I0825 11:12:29.894974 30170 net.cpp:425] conv1 <- data
I0825 11:12:29.894994 30170 net.cpp:399] conv1 -> conv1
I0825 11:12:29.895479 30170 net.cpp:141] Setting up conv1
I0825 11:12:29.895514 30170 net.cpp:148] Top shape: 10 224 224 224 (112394240)
I0825 11:12:29.895530 30170 net.cpp:156] Memory required for data: 455598280
I0825 11:12:29.895560 30170 layer_factory.hpp:77] Creating layer pool1
I0825 11:12:29.895583 30170 net.cpp:91] Creating Layer pool1
I0825 11:12:29.895601 30170 net.cpp:425] pool1 <- conv1
I0825 11:12:29.895619 30170 net.cpp:399] pool1 -> pool1
I0825 11:12:29.896090 30170 net.cpp:141] Setting up pool1
I0825 11:12:29.896126 30170 net.cpp:148] Top shape: 10 224 112 112 (28098560)
I0825 11:12:29.896142 30170 net.cpp:156] Memory required for data: 567992520
I0825 11:12:29.896208 30170 layer_factory.hpp:77] Creating layer relu1
I0825 11:12:29.896229 30170 net.cpp:91] Creating Layer relu1
I0825 11:12:29.896250 30170 net.cpp:425] relu1 <- pool1
I0825 11:12:29.896268 30170 net.cpp:386] relu1 -> pool1 (in-place)
I0825 11:12:29.896291 30170 net.cpp:141] Setting up relu1
I0825 11:12:29.896309 30170 net.cpp:148] Top shape: 10 224 112 112 (28098560)
I0825 11:12:29.896325 30170 net.cpp:156] Memory required for data: 680386760
I0825 11:12:29.896340 30170 layer_factory.hpp:77] Creating layer norm1
I0825 11:12:29.896361 30170 net.cpp:91] Creating Layer norm1
I0825 11:12:29.896378 30170 net.cpp:425] norm1 <- pool1
I0825 11:12:29.896397 30170 net.cpp:399] norm1 -> norm1
I0825 11:12:29.896534 30170 net.cpp:141] Setting up norm1
I0825 11:12:29.896561 30170 net.cpp:148] Top shape: 10 224 112 112 (28098560)
I0825 11:12:29.896577 30170 net.cpp:156] Memory required for data: 792781000
I0825 11:12:29.896595 30170 layer_factory.hpp:77] Creating layer conv2
I0825 11:12:29.896625 30170 net.cpp:91] Creating Layer conv2
I0825 11:12:29.896646 30170 net.cpp:425] conv2 <- norm1
I0825 11:12:29.896667 30170 net.cpp:399] conv2 -> conv2
I0825 11:12:29.899163 30170 net.cpp:141] Setting up conv2
I0825 11:12:29.899201 30170 net.cpp:148] Top shape: 10 32 112 112 (4014080)
I0825 11:12:29.899217 30170 net.cpp:156] Memory required for data: 808837320
I0825 11:12:29.899245 30170 layer_factory.hpp:77] Creating layer pool2
I0825 11:12:29.899268 30170 net.cpp:91] Creating Layer pool2
I0825 11:12:29.899286 30170 net.cpp:425] pool2 <- conv2
I0825 11:12:29.899303 30170 net.cpp:399] pool2 -> pool2
I0825 11:12:29.899351 30170 net.cpp:141] Setting up pool2
I0825 11:12:29.899389 30170 net.cpp:148] Top shape: 10 32 56 56 (1003520)
I0825 11:12:29.899405 30170 net.cpp:156] Memory required for data: 812851400
I0825 11:12:29.899420 30170 layer_factory.hpp:77] Creating layer relu2
I0825 11:12:29.899438 30170 net.cpp:91] Creating Layer relu2
I0825 11:12:29.899454 30170 net.cpp:425] relu2 <- pool2
I0825 11:12:29.899474 30170 net.cpp:386] relu2 -> pool2 (in-place)
I0825 11:12:29.899498 30170 net.cpp:141] Setting up relu2
I0825 11:12:29.899515 30170 net.cpp:148] Top shape: 10 32 56 56 (1003520)
I0825 11:12:29.899533 30170 net.cpp:156] Memory required for data: 816865480
I0825 11:12:29.899547 30170 layer_factory.hpp:77] Creating layer norm2
I0825 11:12:29.899567 30170 net.cpp:91] Creating Layer norm2
I0825 11:12:29.899583 30170 net.cpp:425] norm2 <- pool2
I0825 11:12:29.899600 30170 net.cpp:399] norm2 -> norm2
I0825 11:12:29.899737 30170 net.cpp:141] Setting up norm2
I0825 11:12:29.899765 30170 net.cpp:148] Top shape: 10 32 56 56 (1003520)
I0825 11:12:29.899780 30170 net.cpp:156] Memory required for data: 820879560
I0825 11:12:29.899796 30170 layer_factory.hpp:77] Creating layer conv3
I0825 11:12:29.899821 30170 net.cpp:91] Creating Layer conv3
I0825 11:12:29.899842 30170 net.cpp:425] conv3 <- norm2
I0825 11:12:29.899862 30170 net.cpp:399] conv3 -> conv3
I0825 11:12:29.900580 30170 net.cpp:141] Setting up conv3
I0825 11:12:29.900615 30170 net.cpp:148] Top shape: 10 64 56 56 (2007040)
I0825 11:12:29.900632 30170 net.cpp:156] Memory required for data: 828907720
I0825 11:12:29.900656 30170 layer_factory.hpp:77] Creating layer relu3
I0825 11:12:29.900679 30170 net.cpp:91] Creating Layer relu3
I0825 11:12:29.900696 30170 net.cpp:425] relu3 <- conv3
I0825 11:12:29.900717 30170 net.cpp:386] relu3 -> conv3 (in-place)
I0825 11:12:29.900737 30170 net.cpp:141] Setting up relu3
I0825 11:12:29.900754 30170 net.cpp:148] Top shape: 10 64 56 56 (2007040)
I0825 11:12:29.900774 30170 net.cpp:156] Memory required for data: 836935880
I0825 11:12:29.900789 30170 layer_factory.hpp:77] Creating layer pool3
I0825 11:12:29.900810 30170 net.cpp:91] Creating Layer pool3
I0825 11:12:29.900827 30170 net.cpp:425] pool3 <- conv3
I0825 11:12:29.900843 30170 net.cpp:399] pool3 -> pool3
I0825 11:12:29.900893 30170 net.cpp:141] Setting up pool3
I0825 11:12:29.900918 30170 net.cpp:148] Top shape: 10 64 28 28 (501760)
I0825 11:12:29.900967 30170 net.cpp:156] Memory required for data: 838942920
I0825 11:12:29.900985 30170 layer_factory.hpp:77] Creating layer ip2
I0825 11:12:29.901005 30170 net.cpp:91] Creating Layer ip2
I0825 11:12:29.901021 30170 net.cpp:425] ip2 <- pool3
I0825 11:12:29.901042 30170 net.cpp:399] ip2 -> ip2
I0825 11:12:30.830798 30170 net.cpp:141] Setting up ip2
I0825 11:12:30.830873 30170 net.cpp:148] Top shape: 10 500 (5000)
I0825 11:12:30.830889 30170 net.cpp:156] Memory required for data: 838962920
I0825 11:12:30.830915 30170 layer_factory.hpp:77] Creating layer relu_ip2
I0825 11:12:30.830945 30170 net.cpp:91] Creating Layer relu_ip2
I0825 11:12:30.830963 30170 net.cpp:425] relu_ip2 <- ip2
I0825 11:12:30.830982 30170 net.cpp:386] relu_ip2 -> ip2 (in-place)
I0825 11:12:30.831020 30170 net.cpp:141] Setting up relu_ip2
I0825 11:12:30.831039 30170 net.cpp:148] Top shape: 10 500 (5000)
I0825 11:12:30.831053 30170 net.cpp:156] Memory required for data: 838982920
I0825 11:12:30.831068 30170 layer_factory.hpp:77] Creating layer ip2_relu_ip2_0_split
I0825 11:12:30.831085 30170 net.cpp:91] Creating Layer ip2_relu_ip2_0_split
I0825 11:12:30.831100 30170 net.cpp:425] ip2_relu_ip2_0_split <- ip2
I0825 11:12:30.831120 30170 net.cpp:399] ip2_relu_ip2_0_split -> ip2_relu_ip2_0_split_0
I0825 11:12:30.831140 30170 net.cpp:399] ip2_relu_ip2_0_split -> ip2_relu_ip2_0_split_1
I0825 11:12:30.831202 30170 net.cpp:141] Setting up ip2_relu_ip2_0_split
I0825 11:12:30.831225 30170 net.cpp:148] Top shape: 10 500 (5000)
I0825 11:12:30.831244 30170 net.cpp:148] Top shape: 10 500 (5000)
I0825 11:12:30.831264 30170 net.cpp:156] Memory required for data: 839022920
I0825 11:12:30.831279 30170 layer_factory.hpp:77] Creating layer ip_hash
I0825 11:12:30.831302 30170 net.cpp:91] Creating Layer ip_hash
I0825 11:12:30.831322 30170 net.cpp:425] ip_hash <- ip2_relu_ip2_0_split_0
I0825 11:12:30.831346 30170 net.cpp:399] ip_hash -> ip_hash
I0825 11:12:30.831712 30170 net.cpp:141] Setting up ip_hash
I0825 11:12:30.831737 30170 net.cpp:148] Top shape: 10 12 (120)
I0825 11:12:30.831751 30170 net.cpp:156] Memory required for data: 839023400
I0825 11:12:30.831776 30170 layer_factory.hpp:77] Creating layer ip_classification
I0825 11:12:30.831799 30170 net.cpp:91] Creating Layer ip_classification
I0825 11:12:30.831815 30170 net.cpp:425] ip_classification <- ip2_relu_ip2_0_split_1
I0825 11:12:30.831840 30170 net.cpp:399] ip_classification -> ip_classification
I0825 11:12:30.832087 30170 net.cpp:141] Setting up ip_classification
I0825 11:12:30.832113 30170 net.cpp:148] Top shape: 10 7 (70)
I0825 11:12:30.832128 30170 net.cpp:156] Memory required for data: 839023680
I0825 11:12:30.832145 30170 layer_factory.hpp:77] Creating layer ip_classification_ip_classification_0_split
I0825 11:12:30.832165 30170 net.cpp:91] Creating Layer ip_classification_ip_classification_0_split
I0825 11:12:30.832182 30170 net.cpp:425] ip_classification_ip_classification_0_split <- ip_classification
I0825 11:12:30.832203 30170 net.cpp:399] ip_classification_ip_classification_0_split -> ip_classification_ip_classification_0_split_0
I0825 11:12:30.832224 30170 net.cpp:399] ip_classification_ip_classification_0_split -> ip_classification_ip_classification_0_split_1
I0825 11:12:30.832245 30170 net.cpp:399] ip_classification_ip_classification_0_split -> ip_classification_ip_classification_0_split_2
I0825 11:12:30.832314 30170 net.cpp:141] Setting up ip_classification_ip_classification_0_split
I0825 11:12:30.832340 30170 net.cpp:148] Top shape: 10 7 (70)
I0825 11:12:30.832356 30170 net.cpp:148] Top shape: 10 7 (70)
I0825 11:12:30.832372 30170 net.cpp:148] Top shape: 10 7 (70)
I0825 11:12:30.832386 30170 net.cpp:156] Memory required for data: 839024520
I0825 11:12:30.832404 30170 layer_factory.hpp:77] Creating layer loss_hash
I0825 11:12:30.832425 30170 net.cpp:91] Creating Layer loss_hash
I0825 11:12:30.832442 30170 net.cpp:425] loss_hash <- ip_hash
I0825 11:12:30.832459 30170 net.cpp:425] loss_hash <- label_cifar_1_split_0
I0825 11:12:30.832480 30170 net.cpp:399] loss_hash -> loss_hash
…
