…
I0912 17:34:54.268826 19662 net.cpp:313] The NetState phase (0) differed from the phase (1) specified by a rule in layer accuracy_at_1_Type
I0912 17:34:54.269251 19662 net.cpp:49] Initializing net from parameters: 
name: "docomo_VGG16"
state {
  phase: TRAIN
}
layer {
  name: "data"
  type: "Data"
  top: "data"
  top: "label"
  include {
    phase: TRAIN
  }
  transform_param {
    mirror: true
    crop_size: 224
    mean_value: 103.939
    mean_value: 116.779
    mean_value: 123.68
  }
  data_param {
    source: "FASHION/fashion_train_lmdb/"
    batch_size: 10
    backend: LMDB
  }
}
layer {
  name: "conv1_1"
  type: "Convolution"
  bottom: "data"
  top: "conv1_1"
  param {
    lr_mult: 1
    decay_mult: 1
  }
  param {
    lr_mult: 2
    decay_mult: 0
  }
  convolution_param {
    num_output: 64
    pad: 1
    kernel_size: 3
    weight_filler {
      type: "gaussian"
      std: 0.01
    }
    bias_filler {
      type: "constant"
      value: 0
    }
  }
}
layer {
  name: "relu1_1"
  type: "ReLU"
  bottom: "conv1_1"
  top: "conv1_1"
}
layer {
  name: "conv1_2"
  type: "Convolution"
  bottom: "conv1_1"
  top: "conv1_2"
  param {
    lr_mult: 1
    decay_mult: 1
  }
  param {
    lr_mult: 2
    decay_mult: 0
  }
  convolution_param {
    num_output: 64
    pad: 1
    kernel_size: 3
    weight_filler {
      type: "gaussian"
      std: 0.01
    }
    bias_filler {
      type: "constant"
      value: 0
    }
  }
}
layer {
  name: "relu1_2"
  type: "ReLU"
  bottom: "conv1_2"
  top: "conv1_2"
}
layer {
  name: "pool1"
  type: "Pooling"
  bottom: "conv1_2"
  top: "pool1"
  pooling_param {
    pool: MAX
    kernel_size: 2
    stride: 2
  }
}
layer {
  name: "conv2_1"
  type: "Convolution"
  bottom: "pool1"
  top: "conv2_1"
  param {
    lr_mult: 1
    decay_mult: 1
  }
  param {
    lr_mult: 2
    decay_mult: 0
  }
  convolution_param {
    num_output: 128
    pad: 1
    kernel_size: 3
    weight_filler {
      type: "gaussian"
      std: 0.01
    }
    bias_filler {
      type: "constant"
      value: 0
    }
  }
}
layer {
  name: "relu2_1"
  type: "ReLU"
  bottom: "conv2_1"
  top: "conv2_1"
}
layer {
  name: "conv2_2"
  type: "Convolution"
  bottom: "conv2_1"
  top: "conv2_2"
  param {
    lr_mult: 1
    decay_mult: 1
  }
  param {
    lr_mult: 2
    decay_mult: 0
  }
  convolution_param {
    num_output: 128
    pad: 1
    kernel_size: 3
    weight_filler {
      type: "gaussian"
      std: 0.01
    }
    bias_filler {
      type: "constant"
      value: 0
    }
  }
}
layer {
  name: "relu2_2"
  type: "ReLU"
  bottom: "conv2_2"
  top: "conv2_2"
}
layer {
  name: "pool2"
  type: "Pooling"
  bottom: "conv2_2"
  top: "pool2"
  pooling_param {
    pool: MAX
    kernel_size: 2
    stride: 2
  }
}
layer {
  name: "conv3_1"
  type: "Convolution"
  bottom: "pool2"
  top: "conv3_1"
  param {
    lr_mult: 1
    decay_mult: 1
  }
  param {
    lr_mult: 2
    decay_mult: 0
  }
  convolution_param {
    num_output: 256
    pad: 1
    kernel_size: 3
    weight_filler {
      type: "gaussian"
      std: 0.01
    }
    bias_filler {
      type: "constant"
      value: 0
    }
  }
}
layer {
  name: "relu3_1"
  type: "ReLU"
  bottom: "conv3_1"
  top: "conv3_1"
}
layer {
  name: "conv3_2"
  type: "Convolution"
  bottom: "conv3_1"
  top: "conv3_2"
  param {
    lr_mult: 1
    decay_mult: 1
  }
  param {
    lr_mult: 2
    decay_mult: 0
  }
  convolution_param {
    num_output: 256
    pad: 1
    kernel_size: 3
    weight_filler {
      type: "gaussian"
      std: 0.01
    }
    bias_filler {
      type: "constant"
      value: 0
    }
  }
}
layer {
  name: "relu3_2"
  type: "ReLU"
  bottom: "conv3_2"
  top: "conv3_2"
}
layer {
  name: "conv3_3"
  type: "Convolution"
  bottom: "conv3_2"
  top: "conv3_3"
  param {
    lr_mult: 1
    decay_mult: 1
  }
  param {
    lr_mult: 2
    decay_mult: 0
  }
  convolution_param {
    num_output: 256
    pad: 1
    kernel_size: 3
    weight_filler {
      type: "gaussian"
      std: 0.01
    }
    bias_filler {
      type: "constant"
      value: 0
    }
  }
}
layer {
  name: "relu3_3"
  type: "ReLU"
  bottom: "conv3_3"
  top: "conv3_3"
}
layer {
  name: "pool3"
  type: "Pooling"
  bottom: "conv3_3"
  top: "pool3"
  pooling_param {
    pool: MAX
    kernel_size: 2
    stride: 2
  }
}
layer {
  name: "conv4_1"
  type: "Convolution"
  bottom: "pool3"
  top: "conv4_1"
  param {
    lr_mult: 1
    decay_mult: 1
  }
  param {
    lr_mult: 2
    decay_mult: 0
  }
  convolution_param {
    num_output: 512
    pad: 1
    kernel_size: 3
    weight_filler {
      type: "gaussian"
      std: 0.01
    }
    bias_filler {
      type: "constant"
      value: 0
    }
  }
}
layer {
  name: "relu4_1"
  type: "ReLU"
  bottom: "conv4_1"
  top: "conv4_1"
}
layer {
  name: "conv4_2"
  type: "Convolution"
  bottom: "conv4_1"
  top: "conv4_2"
  param {
    lr_mult: 1
    decay_mult: 1
  }
  param {
    lr_mult: 2
    decay_mult: 0
  }
  convolution_param {
    num_output: 512
    pad: 1
    kernel_size: 3
    weight_filler {
      type: "gaussian"
      std: 0.01
    }
    bias_filler {
      type: "constant"
      value: 0
    }
  }
}
layer {
  name: "relu4_2"
  type: "ReLU"
  bottom: "conv4_2"
  top: "conv4_2"
}
layer {
  name: "conv4_3"
  type: "Convolution"
  bottom: "conv4_2"
  top: "conv4_3"
  param {
    lr_mult: 1
    decay_mult: 1
  }
  param {
    lr_mult: 2
    decay_mult: 0
  }
  convolution_param {
    num_output: 512
    pad: 1
    kernel_size: 3
    weight_filler {
      type: "gaussian"
      std: 0.01
    }
    bias_filler {
      type: "constant"
      value: 0
    }
  }
}
layer {
  name: "relu4_3"
  type: "ReLU"
  bottom: "conv4_3"
  top: "conv4_3"
}
layer {
  name: "pool4"
  type: "Pooling"
  bottom: "conv4_3"
  top: "pool4"
  pooling_param {
    pool: MAX
    kernel_size: 2
    stride: 2
  }
}
layer {
  name: "conv5_1"
  type: "Convolution"
  bottom: "pool4"
  top: "conv5_1"
  param {
    lr_mult: 1
    decay_mult: 1
  }
  param {
    lr_mult: 2
    decay_mult: 0
  }
  convolution_param {
    num_output: 512
    pad: 1
    kernel_size: 3
    weight_filler {
      type: "gaussian"
      std: 0.01
    }
    bias_filler {
      type: "constant"
      value: 0
    }
  }
}
layer {
  name: "relu5_1"
  type: "ReLU"
  bottom: "conv5_1"
  top: "conv5_1"
}
layer {
  name: "conv5_2"
  type: "Convolution"
  bottom: "conv5_1"
  top: "conv5_2"
  param {
    lr_mult: 1
    decay_mult: 1
  }
  param {
    lr_mult: 2
    decay_mult: 0
  }
  convolution_param {
    num_output: 512
    pad: 1
    kernel_size: 3
    weight_filler {
      type: "gaussian"
      std: 0.01
    }
    bias_filler {
      type: "constant"
      value: 0
    }
  }
}
layer {
  name: "relu5_2"
  type: "ReLU"
  bottom: "conv5_2"
  top: "conv5_2"
}
layer {
  name: "conv5_3"
  type: "Convolution"
  bottom: "conv5_2"
  top: "conv5_3"
  param {
    lr_mult: 1
    decay_mult: 1
  }
  param {
    lr_mult: 2
    decay_mult: 0
  }
  convolution_param {
    num_output: 512
    pad: 1
    kernel_size: 3
    weight_filler {
      type: "gaussian"
      std: 0.01
    }
    bias_filler {
      type: "constant"
      value: 0
    }
  }
}
layer {
  name: "relu5_3"
  type: "ReLU"
  bottom: "conv5_3"
  top: "conv5_3"
}
layer {
  name: "pool5"
  type: "Pooling"
  bottom: "conv5_3"
  top: "pool5"
  pooling_param {
    pool: MAX
    kernel_size: 2
    stride: 2
  }
}
layer {
  name: "fc6"
  type: "InnerProduct"
  bottom: "pool5"
  top: "fc6"
  param {
    lr_mult: 1
    decay_mult: 1
  }
  param {
    lr_mult: 2
    decay_mult: 0
  }
  inner_product_param {
    num_output: 4096
    weight_filler {
      type: "gaussian"
      std: 0.005
    }
    bias_filler {
      type: "constant"
      value: 0.1
    }
  }
}
layer {
  name: "relu6"
  type: "ReLU"
  bottom: "fc6"
  top: "fc6"
}
layer {
  name: "drop6"
  type: "Dropout"
  bottom: "fc6"
  top: "fc6"
  dropout_param {
    dropout_ratio: 0.5
  }
}
layer {
  name: "fc7"
  type: "InnerProduct"
  bottom: "fc6"
  top: "fc7"
  param {
    lr_mult: 1
    decay_mult: 1
  }
  param {
    lr_mult: 2
    decay_mult: 0
  }
  inner_product_param {
    num_output: 4096
    weight_filler {
      type: "gaussian"
      std: 0.005
    }
    bias_filler {
      type: "constant"
      value: 0.1
    }
  }
}
layer {
  name: "relu7"
  type: "ReLU"
  bottom: "fc7"
  top: "fc7"
}
layer {
  name: "drop7"
  type: "Dropout"
  bottom: "fc7"
  top: "fc7"
  dropout_param {
    dropout_ratio: 0.5
  }
}
layer {
  name: "fc8_binary_Type"
  type: "InnerProduct"
  bottom: "fc7"
  top: "fc8_binary_Type"
  param {
    lr_mult: 10
    decay_mult: 1
  }
  param {
    lr_mult: 20
    decay_mult: 0
  }
  inner_product_param {
    num_output: 12
    weight_filler {
      type: "gaussian"
      std: 0.005
    }
    bias_filler {
      type: "constant"
      value: 0.1
    }
  }
}
layer {
  name: "fc8_classification_Type"
  type: "InnerProduct"
  bottom: "fc7"
  top: "fc8_classification_Type"
  param {
    lr_mult: 10
    decay_mult: 1
  }
  param {
    lr_mult: 20
    decay_mult: 0
  }
  inner_product_param {
    num_output: 25
    weight_filler {
      type: "gaussian"
      std: 0.05
    }
    bias_filler {
      type: "constant"
      value: 0.1
    }
  }
}
layer {
  name: "fc_binary_Pattern"
  type: "InnerProduct"
  bottom: "fc7"
  top: "fc_binary_Pattern"
  param {
    lr_mult: 0
    decay_mult: 0
  }
  param {
    lr_mult: 0
    decay_mult: 0
  }
  inner_product_param {
    num_output: 12
    weight_filler {
      type: "gaussian"
      std: 0.005
    }
    bias_filler {
      type: "constant"
      value: 0.1
    }
  }
}
layer {
  name: "fc_classification_Pattern"
  type: "InnerProduct"
  bottom: "fc7"
  top: "fc_classification_Pattern"
  param {
    lr_mult: 0
    decay_mult: 0
  }
  param {
    lr_mult: 0
    decay_mult: 0
  }
  inner_product_param {
    num_output: 7
    weight_filler {
      type: "gaussian"
      std: 0.05
    }
    bias_filler {
      type: "constant"
      value: 0.1
    }
  }
}
layer {
  name: "loss_hashing_Type"
  type: "HashingLoss"
  bottom: "fc8_binary_Type"
  bottom: "label"
  top: "loss_hashing_Type"
  loss_weight: 0.1
  hashing_loss_param {
    bi_margin: 24
    tradeoff: 0.01
  }
}
layer {
  name: "loss_classification_Type"
  type: "SoftmaxWithLoss"
  bottom: "fc8_classification_Type"
  bottom: "label"
  top: "loss_classification_Type"
}
layer {
  name: "loss_hashing"
  type: "HashingLoss"
  bottom: "fc_binary_Pattern"
  bottom: "label"
  top: "loss_hashing"
  loss_weight: 0
  hashing_loss_param {
    bi_margin: 24
    tradeoff: 0.01
  }
}
layer {
  name: "loss_classification"
  type: "SoftmaxWithLoss"
  bottom: "fc_classification_Pattern"
  bottom: "label"
  top: "loss_classification"
  loss_weight: 0
}
I0912 17:34:54.272208 19662 layer_factory.hpp:77] Creating layer data
I0912 17:34:54.272825 19662 net.cpp:91] Creating Layer data
I0912 17:34:54.272861 19662 net.cpp:399] data -> data
I0912 17:34:54.273041 19662 net.cpp:399] data -> label
I0912 17:34:54.274101 19666 db_lmdb.cpp:38] Opened lmdb FASHION/fashion_train_lmdb/
I0912 17:34:54.289984 19662 data_layer.cpp:41] output data size: 10,3,224,224
I0912 17:34:54.301944 19662 net.cpp:141] Setting up data
I0912 17:34:54.302029 19662 net.cpp:148] Top shape: 10 3 224 224 (1505280)
I0912 17:34:54.302050 19662 net.cpp:148] Top shape: 10 1 1 1 (10)
I0912 17:34:54.302067 19662 net.cpp:156] Memory required for data: 6021160
I0912 17:34:54.302090 19662 layer_factory.hpp:77] Creating layer label_data_1_split
I0912 17:34:54.302125 19662 net.cpp:91] Creating Layer label_data_1_split
I0912 17:34:54.302198 19662 net.cpp:425] label_data_1_split <- label
I0912 17:34:54.302233 19662 net.cpp:399] label_data_1_split -> label_data_1_split_0
I0912 17:34:54.302261 19662 net.cpp:399] label_data_1_split -> label_data_1_split_1
I0912 17:34:54.302281 19662 net.cpp:399] label_data_1_split -> label_data_1_split_2
I0912 17:34:54.302309 19662 net.cpp:399] label_data_1_split -> label_data_1_split_3
I0912 17:34:54.302413 19662 net.cpp:141] Setting up label_data_1_split
I0912 17:34:54.302438 19662 net.cpp:148] Top shape: 10 1 1 1 (10)
I0912 17:34:54.302454 19662 net.cpp:148] Top shape: 10 1 1 1 (10)
I0912 17:34:54.302470 19662 net.cpp:148] Top shape: 10 1 1 1 (10)
I0912 17:34:54.302486 19662 net.cpp:148] Top shape: 10 1 1 1 (10)
I0912 17:34:54.302501 19662 net.cpp:156] Memory required for data: 6021320
I0912 17:34:54.302516 19662 layer_factory.hpp:77] Creating layer conv1_1
I0912 17:34:54.302558 19662 net.cpp:91] Creating Layer conv1_1
I0912 17:34:54.302577 19662 net.cpp:425] conv1_1 <- data
I0912 17:34:54.302598 19662 net.cpp:399] conv1_1 -> conv1_1
I0912 17:34:54.304853 19662 net.cpp:141] Setting up conv1_1
I0912 17:34:54.304894 19662 net.cpp:148] Top shape: 10 64 224 224 (32112640)
I0912 17:34:54.304915 19662 net.cpp:156] Memory required for data: 134471880
I0912 17:34:54.304950 19662 layer_factory.hpp:77] Creating layer relu1_1
I0912 17:34:54.304978 19662 net.cpp:91] Creating Layer relu1_1
I0912 17:34:54.304998 19662 net.cpp:425] relu1_1 <- conv1_1
I0912 17:34:54.305016 19662 net.cpp:386] relu1_1 -> conv1_1 (in-place)
I0912 17:34:54.305040 19662 net.cpp:141] Setting up relu1_1
I0912 17:34:54.305058 19662 net.cpp:148] Top shape: 10 64 224 224 (32112640)
I0912 17:34:54.305073 19662 net.cpp:156] Memory required for data: 262922440
I0912 17:34:54.305088 19662 layer_factory.hpp:77] Creating layer conv1_2
I0912 17:34:54.305119 19662 net.cpp:91] Creating Layer conv1_2
I0912 17:34:54.305140 19662 net.cpp:425] conv1_2 <- conv1_1
I0912 17:34:54.305161 19662 net.cpp:399] conv1_2 -> conv1_2
I0912 17:34:54.306854 19662 net.cpp:141] Setting up conv1_2
I0912 17:34:54.306896 19662 net.cpp:148] Top shape: 10 64 224 224 (32112640)
I0912 17:34:54.306915 19662 net.cpp:156] Memory required for data: 391373000
I0912 17:34:54.306937 19662 layer_factory.hpp:77] Creating layer relu1_2
I0912 17:34:54.306957 19662 net.cpp:91] Creating Layer relu1_2
I0912 17:34:54.306972 19662 net.cpp:425] relu1_2 <- conv1_2
I0912 17:34:54.306988 19662 net.cpp:386] relu1_2 -> conv1_2 (in-place)
I0912 17:34:54.307006 19662 net.cpp:141] Setting up relu1_2
I0912 17:34:54.307024 19662 net.cpp:148] Top shape: 10 64 224 224 (32112640)
I0912 17:34:54.307042 19662 net.cpp:156] Memory required for data: 519823560
I0912 17:34:54.307056 19662 layer_factory.hpp:77] Creating layer pool1
I0912 17:34:54.307080 19662 net.cpp:91] Creating Layer pool1
I0912 17:34:54.307096 19662 net.cpp:425] pool1 <- conv1_2
I0912 17:34:54.307112 19662 net.cpp:399] pool1 -> pool1
I0912 17:34:54.307193 19662 net.cpp:141] Setting up pool1
I0912 17:34:54.307219 19662 net.cpp:148] Top shape: 10 64 112 112 (8028160)
I0912 17:34:54.307235 19662 net.cpp:156] Memory required for data: 551936200
I0912 17:34:54.307250 19662 layer_factory.hpp:77] Creating layer conv2_1
I0912 17:34:54.307277 19662 net.cpp:91] Creating Layer conv2_1
I0912 17:34:54.307296 19662 net.cpp:425] conv2_1 <- pool1
I0912 17:34:54.307314 19662 net.cpp:399] conv2_1 -> conv2_1
I0912 17:34:54.311620 19662 net.cpp:141] Setting up conv2_1
I0912 17:34:54.311666 19662 net.cpp:148] Top shape: 10 128 112 112 (16056320)
I0912 17:34:54.311683 19662 net.cpp:156] Memory required for data: 616161480
I0912 17:34:54.311707 19662 layer_factory.hpp:77] Creating layer relu2_1
I0912 17:34:54.311727 19662 net.cpp:91] Creating Layer relu2_1
I0912 17:34:54.311741 19662 net.cpp:425] relu2_1 <- conv2_1
I0912 17:34:54.311763 19662 net.cpp:386] relu2_1 -> conv2_1 (in-place)
I0912 17:34:54.311787 19662 net.cpp:141] Setting up relu2_1
I0912 17:34:54.311805 19662 net.cpp:148] Top shape: 10 128 112 112 (16056320)
I0912 17:34:54.311820 19662 net.cpp:156] Memory required for data: 680386760
I0912 17:34:54.311854 19662 layer_factory.hpp:77] Creating layer conv2_2
I0912 17:34:54.311882 19662 net.cpp:91] Creating Layer conv2_2
I0912 17:34:54.311902 19662 net.cpp:425] conv2_2 <- conv2_1
I0912 17:34:54.311920 19662 net.cpp:399] conv2_2 -> conv2_2
I0912 17:34:54.317750 19662 net.cpp:141] Setting up conv2_2
I0912 17:34:54.317780 19662 net.cpp:148] Top shape: 10 128 112 112 (16056320)
I0912 17:34:54.317795 19662 net.cpp:156] Memory required for data: 744612040
I0912 17:34:54.317814 19662 layer_factory.hpp:77] Creating layer relu2_2
I0912 17:34:54.317832 19662 net.cpp:91] Creating Layer relu2_2
I0912 17:34:54.317859 19662 net.cpp:425] relu2_2 <- conv2_2
I0912 17:34:54.317876 19662 net.cpp:386] relu2_2 -> conv2_2 (in-place)
I0912 17:34:54.317895 19662 net.cpp:141] Setting up relu2_2
I0912 17:34:54.317914 19662 net.cpp:148] Top shape: 10 128 112 112 (16056320)
I0912 17:34:54.317927 19662 net.cpp:156] Memory required for data: 808837320
I0912 17:34:54.317941 19662 layer_factory.hpp:77] Creating layer pool2
I0912 17:34:54.317961 19662 net.cpp:91] Creating Layer pool2
I0912 17:34:54.317981 19662 net.cpp:425] pool2 <- conv2_2
I0912 17:34:54.317997 19662 net.cpp:399] pool2 -> pool2
I0912 17:34:54.318054 19662 net.cpp:141] Setting up pool2
I0912 17:34:54.318078 19662 net.cpp:148] Top shape: 10 128 56 56 (4014080)
I0912 17:34:54.318091 19662 net.cpp:156] Memory required for data: 824893640
I0912 17:34:54.318106 19662 layer_factory.hpp:77] Creating layer conv3_1
I0912 17:34:54.318130 19662 net.cpp:91] Creating Layer conv3_1
I0912 17:34:54.318148 19662 net.cpp:425] conv3_1 <- pool2
I0912 17:34:54.318167 19662 net.cpp:399] conv3_1 -> conv3_1
I0912 17:34:54.330143 19662 net.cpp:141] Setting up conv3_1
I0912 17:34:54.330189 19662 net.cpp:148] Top shape: 10 256 56 56 (8028160)
I0912 17:34:54.330206 19662 net.cpp:156] Memory required for data: 857006280
I0912 17:34:54.330229 19662 layer_factory.hpp:77] Creating layer relu3_1
I0912 17:34:54.330248 19662 net.cpp:91] Creating Layer relu3_1
I0912 17:34:54.330265 19662 net.cpp:425] relu3_1 <- conv3_1
I0912 17:34:54.330284 19662 net.cpp:386] relu3_1 -> conv3_1 (in-place)
I0912 17:34:54.330305 19662 net.cpp:141] Setting up relu3_1
I0912 17:34:54.330327 19662 net.cpp:148] Top shape: 10 256 56 56 (8028160)
I0912 17:34:54.330341 19662 net.cpp:156] Memory required for data: 889118920
I0912 17:34:54.330356 19662 layer_factory.hpp:77] Creating layer conv3_2
I0912 17:34:54.330380 19662 net.cpp:91] Creating Layer conv3_2
I0912 17:34:54.330395 19662 net.cpp:425] conv3_2 <- conv3_1
I0912 17:34:54.330413 19662 net.cpp:399] conv3_2 -> conv3_2
I0912 17:34:54.352990 19662 net.cpp:141] Setting up conv3_2
I0912 17:34:54.353037 19662 net.cpp:148] Top shape: 10 256 56 56 (8028160)
I0912 17:34:54.353055 19662 net.cpp:156] Memory required for data: 921231560
I0912 17:34:54.353073 19662 layer_factory.hpp:77] Creating layer relu3_2
I0912 17:34:54.353092 19662 net.cpp:91] Creating Layer relu3_2
I0912 17:34:54.353107 19662 net.cpp:425] relu3_2 <- conv3_2
I0912 17:34:54.353124 19662 net.cpp:386] relu3_2 -> conv3_2 (in-place)
I0912 17:34:54.353142 19662 net.cpp:141] Setting up relu3_2
I0912 17:34:54.353159 19662 net.cpp:148] Top shape: 10 256 56 56 (8028160)
I0912 17:34:54.353173 19662 net.cpp:156] Memory required for data: 953344200
I0912 17:34:54.353188 19662 layer_factory.hpp:77] Creating layer conv3_3
I0912 17:34:54.353214 19662 net.cpp:91] Creating Layer conv3_3
I0912 17:34:54.353233 19662 net.cpp:425] conv3_3 <- conv3_2
I0912 17:34:54.353255 19662 net.cpp:399] conv3_3 -> conv3_3
I0912 17:34:54.375768 19662 net.cpp:141] Setting up conv3_3
I0912 17:34:54.375813 19662 net.cpp:148] Top shape: 10 256 56 56 (8028160)
I0912 17:34:54.375828 19662 net.cpp:156] Memory required for data: 985456840
I0912 17:34:54.375847 19662 layer_factory.hpp:77] Creating layer relu3_3
I0912 17:34:54.375866 19662 net.cpp:91] Creating Layer relu3_3
I0912 17:34:54.375885 19662 net.cpp:425] relu3_3 <- conv3_3
I0912 17:34:54.375902 19662 net.cpp:386] relu3_3 -> conv3_3 (in-place)
I0912 17:34:54.375921 19662 net.cpp:141] Setting up relu3_3
I0912 17:34:54.375964 19662 net.cpp:148] Top shape: 10 256 56 56 (8028160)
I0912 17:34:54.375980 19662 net.cpp:156] Memory required for data: 1017569480
I0912 17:34:54.375994 19662 layer_factory.hpp:77] Creating layer pool3
I0912 17:34:54.376014 19662 net.cpp:91] Creating Layer pool3
I0912 17:34:54.376029 19662 net.cpp:425] pool3 <- conv3_3
I0912 17:34:54.376046 19662 net.cpp:399] pool3 -> pool3
I0912 17:34:54.376116 19662 net.cpp:141] Setting up pool3
I0912 17:34:54.376142 19662 net.cpp:148] Top shape: 10 256 28 28 (2007040)
I0912 17:34:54.376157 19662 net.cpp:156] Memory required for data: 1025597640
I0912 17:34:54.376170 19662 layer_factory.hpp:77] Creating layer conv4_1
I0912 17:34:54.376196 19662 net.cpp:91] Creating Layer conv4_1
I0912 17:34:54.376219 19662 net.cpp:425] conv4_1 <- pool3
I0912 17:34:54.376241 19662 net.cpp:399] conv4_1 -> conv4_1
I0912 17:34:54.421593 19662 net.cpp:141] Setting up conv4_1
I0912 17:34:54.421640 19662 net.cpp:148] Top shape: 10 512 28 28 (4014080)
I0912 17:34:54.421658 19662 net.cpp:156] Memory required for data: 1041653960
I0912 17:34:54.421676 19662 layer_factory.hpp:77] Creating layer relu4_1
I0912 17:34:54.421695 19662 net.cpp:91] Creating Layer relu4_1
I0912 17:34:54.421710 19662 net.cpp:425] relu4_1 <- conv4_1
I0912 17:34:54.421727 19662 net.cpp:386] relu4_1 -> conv4_1 (in-place)
I0912 17:34:54.421746 19662 net.cpp:141] Setting up relu4_1
I0912 17:34:54.421762 19662 net.cpp:148] Top shape: 10 512 28 28 (4014080)
I0912 17:34:54.421777 19662 net.cpp:156] Memory required for data: 1057710280
I0912 17:34:54.421792 19662 layer_factory.hpp:77] Creating layer conv4_2
I0912 17:34:54.421818 19662 net.cpp:91] Creating Layer conv4_2
I0912 17:34:54.421838 19662 net.cpp:425] conv4_2 <- conv4_1
I0912 17:34:54.421862 19662 net.cpp:399] conv4_2 -> conv4_2
I0912 17:34:54.510756 19662 net.cpp:141] Setting up conv4_2
I0912 17:34:54.510813 19662 net.cpp:148] Top shape: 10 512 28 28 (4014080)
I0912 17:34:54.510829 19662 net.cpp:156] Memory required for data: 1073766600
I0912 17:34:54.510857 19662 layer_factory.hpp:77] Creating layer relu4_2
I0912 17:34:54.510879 19662 net.cpp:91] Creating Layer relu4_2
I0912 17:34:54.510895 19662 net.cpp:425] relu4_2 <- conv4_2
I0912 17:34:54.510915 19662 net.cpp:386] relu4_2 -> conv4_2 (in-place)
I0912 17:34:54.510939 19662 net.cpp:141] Setting up relu4_2
I0912 17:34:54.510957 19662 net.cpp:148] Top shape: 10 512 28 28 (4014080)
I0912 17:34:54.510972 19662 net.cpp:156] Memory required for data: 1089822920
I0912 17:34:54.510985 19662 layer_factory.hpp:77] Creating layer conv4_3
I0912 17:34:54.511013 19662 net.cpp:91] Creating Layer conv4_3
I0912 17:34:54.511029 19662 net.cpp:425] conv4_3 <- conv4_2
I0912 17:34:54.511047 19662 net.cpp:399] conv4_3 -> conv4_3
I0912 17:34:54.600024 19662 net.cpp:141] Setting up conv4_3
I0912 17:34:54.600081 19662 net.cpp:148] Top shape: 10 512 28 28 (4014080)
I0912 17:34:54.600098 19662 net.cpp:156] Memory required for data: 1105879240
I0912 17:34:54.600118 19662 layer_factory.hpp:77] Creating layer relu4_3
I0912 17:34:54.600138 19662 net.cpp:91] Creating Layer relu4_3
I0912 17:34:54.600154 19662 net.cpp:425] relu4_3 <- conv4_3
I0912 17:34:54.600172 19662 net.cpp:386] relu4_3 -> conv4_3 (in-place)
I0912 17:34:54.600193 19662 net.cpp:141] Setting up relu4_3
I0912 17:34:54.600209 19662 net.cpp:148] Top shape: 10 512 28 28 (4014080)
I0912 17:34:54.600224 19662 net.cpp:156] Memory required for data: 1121935560
I0912 17:34:54.600237 19662 layer_factory.hpp:77] Creating layer pool4
I0912 17:34:54.600260 19662 net.cpp:91] Creating Layer pool4
I0912 17:34:54.600278 19662 net.cpp:425] pool4 <- conv4_3
I0912 17:34:54.600296 19662 net.cpp:399] pool4 -> pool4
I0912 17:34:54.600354 19662 net.cpp:141] Setting up pool4
I0912 17:34:54.600378 19662 net.cpp:148] Top shape: 10 512 14 14 (1003520)
I0912 17:34:54.600394 19662 net.cpp:156] Memory required for data: 1125949640
I0912 17:34:54.600409 19662 layer_factory.hpp:77] Creating layer conv5_1
I0912 17:34:54.600437 19662 net.cpp:91] Creating Layer conv5_1
I0912 17:34:54.600453 19662 net.cpp:425] conv5_1 <- pool4
I0912 17:34:54.600514 19662 net.cpp:399] conv5_1 -> conv5_1
I0912 17:34:54.689834 19662 net.cpp:141] Setting up conv5_1
I0912 17:34:54.689924 19662 net.cpp:148] Top shape: 10 512 14 14 (1003520)
I0912 17:34:54.689942 19662 net.cpp:156] Memory required for data: 1129963720
I0912 17:34:54.689965 19662 layer_factory.hpp:77] Creating layer relu5_1
I0912 17:34:54.689988 19662 net.cpp:91] Creating Layer relu5_1
I0912 17:34:54.690006 19662 net.cpp:425] relu5_1 <- conv5_1
I0912 17:34:54.690024 19662 net.cpp:386] relu5_1 -> conv5_1 (in-place)
I0912 17:34:54.690047 19662 net.cpp:141] Setting up relu5_1
I0912 17:34:54.690064 19662 net.cpp:148] Top shape: 10 512 14 14 (1003520)
I0912 17:34:54.690085 19662 net.cpp:156] Memory required for data: 1133977800
I0912 17:34:54.690099 19662 layer_factory.hpp:77] Creating layer conv5_2
I0912 17:34:54.690129 19662 net.cpp:91] Creating Layer conv5_2
I0912 17:34:54.690146 19662 net.cpp:425] conv5_2 <- conv5_1
I0912 17:34:54.690165 19662 net.cpp:399] conv5_2 -> conv5_2
I0912 17:34:54.779073 19662 net.cpp:141] Setting up conv5_2
I0912 17:34:54.779130 19662 net.cpp:148] Top shape: 10 512 14 14 (1003520)
I0912 17:34:54.779148 19662 net.cpp:156] Memory required for data: 1137991880
I0912 17:34:54.779167 19662 layer_factory.hpp:77] Creating layer relu5_2
I0912 17:34:54.779188 19662 net.cpp:91] Creating Layer relu5_2
I0912 17:34:54.779203 19662 net.cpp:425] relu5_2 <- conv5_2
I0912 17:34:54.779220 19662 net.cpp:386] relu5_2 -> conv5_2 (in-place)
I0912 17:34:54.779240 19662 net.cpp:141] Setting up relu5_2
I0912 17:34:54.779258 19662 net.cpp:148] Top shape: 10 512 14 14 (1003520)
I0912 17:34:54.779271 19662 net.cpp:156] Memory required for data: 1142005960
I0912 17:34:54.779285 19662 layer_factory.hpp:77] Creating layer conv5_3
I0912 17:34:54.779310 19662 net.cpp:91] Creating Layer conv5_3
I0912 17:34:54.779331 19662 net.cpp:425] conv5_3 <- conv5_2
I0912 17:34:54.779352 19662 net.cpp:399] conv5_3 -> conv5_3
I0912 17:34:54.868386 19662 net.cpp:141] Setting up conv5_3
I0912 17:34:54.868449 19662 net.cpp:148] Top shape: 10 512 14 14 (1003520)
I0912 17:34:54.868466 19662 net.cpp:156] Memory required for data: 1146020040
I0912 17:34:54.868489 19662 layer_factory.hpp:77] Creating layer relu5_3
I0912 17:34:54.868510 19662 net.cpp:91] Creating Layer relu5_3
I0912 17:34:54.868526 19662 net.cpp:425] relu5_3 <- conv5_3
I0912 17:34:54.868547 19662 net.cpp:386] relu5_3 -> conv5_3 (in-place)
I0912 17:34:54.868569 19662 net.cpp:141] Setting up relu5_3
I0912 17:34:54.868589 19662 net.cpp:148] Top shape: 10 512 14 14 (1003520)
I0912 17:34:54.868603 19662 net.cpp:156] Memory required for data: 1150034120
I0912 17:34:54.868618 19662 layer_factory.hpp:77] Creating layer pool5
I0912 17:34:54.868643 19662 net.cpp:91] Creating Layer pool5
I0912 17:34:54.868659 19662 net.cpp:425] pool5 <- conv5_3
I0912 17:34:54.868680 19662 net.cpp:399] pool5 -> pool5
I0912 17:34:54.868746 19662 net.cpp:141] Setting up pool5
I0912 17:34:54.868774 19662 net.cpp:148] Top shape: 10 512 7 7 (250880)
I0912 17:34:54.868790 19662 net.cpp:156] Memory required for data: 1151037640
I0912 17:34:54.868805 19662 layer_factory.hpp:77] Creating layer fc6
I0912 17:34:54.868837 19662 net.cpp:91] Creating Layer fc6
I0912 17:34:54.868858 19662 net.cpp:425] fc6 <- pool5
I0912 17:34:54.868880 19662 net.cpp:399] fc6 -> fc6
I0912 17:34:58.752425 19662 net.cpp:141] Setting up fc6
I0912 17:34:58.752524 19662 net.cpp:148] Top shape: 10 4096 (40960)
I0912 17:34:58.752544 19662 net.cpp:156] Memory required for data: 1151201480
I0912 17:34:58.752593 19662 layer_factory.hpp:77] Creating layer relu6
I0912 17:34:58.752635 19662 net.cpp:91] Creating Layer relu6
I0912 17:34:58.752686 19662 net.cpp:425] relu6 <- fc6
I0912 17:34:58.752717 19662 net.cpp:386] relu6 -> fc6 (in-place)
I0912 17:34:58.752748 19662 net.cpp:141] Setting up relu6
I0912 17:34:58.752765 19662 net.cpp:148] Top shape: 10 4096 (40960)
I0912 17:34:58.752779 19662 net.cpp:156] Memory required for data: 1151365320
I0912 17:34:58.752794 19662 layer_factory.hpp:77] Creating layer drop6
I0912 17:34:58.752871 19662 net.cpp:91] Creating Layer drop6
I0912 17:34:58.752894 19662 net.cpp:425] drop6 <- fc6
I0912 17:34:58.752913 19662 net.cpp:386] drop6 -> fc6 (in-place)
I0912 17:34:58.752979 19662 net.cpp:141] Setting up drop6
I0912 17:34:58.753002 19662 net.cpp:148] Top shape: 10 4096 (40960)
I0912 17:34:58.753017 19662 net.cpp:156] Memory required for data: 1151529160
I0912 17:34:58.753032 19662 layer_factory.hpp:77] Creating layer fc7
I0912 17:34:58.753057 19662 net.cpp:91] Creating Layer fc7
I0912 17:34:58.753077 19662 net.cpp:425] fc7 <- fc6
I0912 17:34:58.753098 19662 net.cpp:399] fc7 -> fc7
I0912 17:34:59.388839 19662 net.cpp:141] Setting up fc7
I0912 17:34:59.388921 19662 net.cpp:148] Top shape: 10 4096 (40960)
I0912 17:34:59.388938 19662 net.cpp:156] Memory required for data: 1151693000
I0912 17:34:59.388962 19662 layer_factory.hpp:77] Creating layer relu7
I0912 17:34:59.389006 19662 net.cpp:91] Creating Layer relu7
I0912 17:34:59.389025 19662 net.cpp:425] relu7 <- fc7
I0912 17:34:59.389045 19662 net.cpp:386] relu7 -> fc7 (in-place)
I0912 17:34:59.389072 19662 net.cpp:141] Setting up relu7
I0912 17:34:59.389089 19662 net.cpp:148] Top shape: 10 4096 (40960)
I0912 17:34:59.389104 19662 net.cpp:156] Memory required for data: 1151856840
I0912 17:34:59.389118 19662 layer_factory.hpp:77] Creating layer drop7
I0912 17:34:59.389137 19662 net.cpp:91] Creating Layer drop7
I0912 17:34:59.389152 19662 net.cpp:425] drop7 <- fc7
I0912 17:34:59.389171 19662 net.cpp:386] drop7 -> fc7 (in-place)
I0912 17:34:59.389217 19662 net.cpp:141] Setting up drop7
I0912 17:34:59.389240 19662 net.cpp:148] Top shape: 10 4096 (40960)
I0912 17:34:59.389255 19662 net.cpp:156] Memory required for data: 1152020680
I0912 17:34:59.389269 19662 layer_factory.hpp:77] Creating layer fc7_drop7_0_split
I0912 17:34:59.389291 19662 net.cpp:91] Creating Layer fc7_drop7_0_split
I0912 17:34:59.389308 19662 net.cpp:425] fc7_drop7_0_split <- fc7
I0912 17:34:59.389333 19662 net.cpp:399] fc7_drop7_0_split -> fc7_drop7_0_split_0
I0912 17:34:59.389354 19662 net.cpp:399] fc7_drop7_0_split -> fc7_drop7_0_split_1
I0912 17:34:59.389374 19662 net.cpp:399] fc7_drop7_0_split -> fc7_drop7_0_split_2
I0912 17:34:59.389396 19662 net.cpp:399] fc7_drop7_0_split -> fc7_drop7_0_split_3
I0912 17:34:59.389473 19662 net.cpp:141] Setting up fc7_drop7_0_split
I0912 17:34:59.389497 19662 net.cpp:148] Top shape: 10 4096 (40960)
I0912 17:34:59.389513 19662 net.cpp:148] Top shape: 10 4096 (40960)
I0912 17:34:59.389528 19662 net.cpp:148] Top shape: 10 4096 (40960)
I0912 17:34:59.389544 19662 net.cpp:148] Top shape: 10 4096 (40960)
I0912 17:34:59.389559 19662 net.cpp:156] Memory required for data: 1152676040
I0912 17:34:59.389580 19662 layer_factory.hpp:77] Creating layer fc8_binary_Type
I0912 17:34:59.389617 19662 net.cpp:91] Creating Layer fc8_binary_Type
I0912 17:34:59.389636 19662 net.cpp:425] fc8_binary_Type <- fc7_drop7_0_split_0
I0912 17:34:59.389658 19662 net.cpp:399] fc8_binary_Type -> fc8_binary_Type
I0912 17:34:59.391716 19662 net.cpp:141] Setting up fc8_binary_Type
I0912 17:34:59.391757 19662 net.cpp:148] Top shape: 10 12 (120)
I0912 17:34:59.391772 19662 net.cpp:156] Memory required for data: 1152676520
I0912 17:34:59.391799 19662 layer_factory.hpp:77] Creating layer fc8_classification_Type
I0912 17:34:59.391821 19662 net.cpp:91] Creating Layer fc8_classification_Type
I0912 17:34:59.391836 19662 net.cpp:425] fc8_classification_Type <- fc7_drop7_0_split_1
I0912 17:34:59.391855 19662 net.cpp:399] fc8_classification_Type -> fc8_classification_Type
I0912 17:34:59.396385 19662 net.cpp:141] Setting up fc8_classification_Type
I0912 17:34:59.396430 19662 net.cpp:148] Top shape: 10 25 (250)
I0912 17:34:59.396446 19662 net.cpp:156] Memory required for data: 1152677520
I0912 17:34:59.396489 19662 layer_factory.hpp:77] Creating layer fc_binary_Pattern
I0912 17:34:59.396522 19662 net.cpp:91] Creating Layer fc_binary_Pattern
I0912 17:34:59.396538 19662 net.cpp:425] fc_binary_Pattern <- fc7_drop7_0_split_2
I0912 17:34:59.396558 19662 net.cpp:399] fc_binary_Pattern -> fc_binary_Pattern
I0912 17:34:59.398576 19662 net.cpp:141] Setting up fc_binary_Pattern
I0912 17:34:59.398620 19662 net.cpp:148] Top shape: 10 12 (120)
I0912 17:34:59.398638 19662 net.cpp:156] Memory required for data: 1152678000
I0912 17:34:59.398656 19662 layer_factory.hpp:77] Creating layer fc_classification_Pattern
I0912 17:34:59.398676 19662 net.cpp:91] Creating Layer fc_classification_Pattern
I0912 17:34:59.398692 19662 net.cpp:425] fc_classification_Pattern <- fc7_drop7_0_split_3
I0912 17:34:59.398713 19662 net.cpp:399] fc_classification_Pattern -> fc_classification_Pattern
I0912 17:34:59.400490 19662 net.cpp:141] Setting up fc_classification_Pattern
I0912 17:34:59.400532 19662 net.cpp:148] Top shape: 10 7 (70)
I0912 17:34:59.400547 19662 net.cpp:156] Memory required for data: 1152678280
I0912 17:34:59.400566 19662 layer_factory.hpp:77] Creating layer loss_hashing_Type
I0912 17:34:59.400604 19662 net.cpp:91] Creating Layer loss_hashing_Type
I0912 17:34:59.400624 19662 net.cpp:425] loss_hashing_Type <- fc8_binary_Type
I0912 17:34:59.400641 19662 net.cpp:425] loss_hashing_Type <- label_data_1_split_0
…
I0912 17:34:59.404098 19662 net.cpp:313] The NetState phase (1) differed from the phase (0) specified by a rule in layer data
I0912 17:34:59.404556 19662 net.cpp:49] Initializing net from parameters: 
name: "docomo_VGG16"
state {
  phase: TEST
}
layer {
  name: "data"
  type: "Data"
  top: "data"
  top: "label"
  include {
    phase: TEST
  }
  transform_param {
    mirror: false
    crop_size: 224
    mean_value: 103.939
    mean_value: 116.779
    mean_value: 123.68
  }
  data_param {
    source: "FASHION/fashion_val_lmdb/"
    batch_size: 10
    backend: LMDB
  }
}
layer {
  name: "conv1_1"
  type: "Convolution"
  bottom: "data"
  top: "conv1_1"
  param {
    lr_mult: 1
    decay_mult: 1
  }
  param {
    lr_mult: 2
    decay_mult: 0
  }
  convolution_param {
    num_output: 64
    pad: 1
    kernel_size: 3
    weight_filler {
      type: "gaussian"
      std: 0.01
    }
    bias_filler {
      type: "constant"
      value: 0
    }
  }
}
layer {
  name: "relu1_1"
  type: "ReLU"
  bottom: "conv1_1"
  top: "conv1_1"
}
layer {
  name: "conv1_2"
  type: "Convolution"
  bottom: "conv1_1"
  top: "conv1_2"
  param {
    lr_mult: 1
    decay_mult: 1
  }
  param {
    lr_mult: 2
    decay_mult: 0
  }
  convolution_param {
    num_output: 64
    pad: 1
    kernel_size: 3
    weight_filler {
      type: "gaussian"
      std: 0.01
    }
    bias_filler {
      type: "constant"
      value: 0
    }
  }
}
layer {
  name: "relu1_2"
  type: "ReLU"
  bottom: "conv1_2"
  top: "conv1_2"
}
layer {
  name: "pool1"
  type: "Pooling"
  bottom: "conv1_2"
  top: "pool1"
  pooling_param {
    pool: MAX
    kernel_size: 2
    stride: 2
  }
}
layer {
  name: "conv2_1"
  type: "Convolution"
  bottom: "pool1"
  top: "conv2_1"
  param {
    lr_mult: 1
    decay_mult: 1
  }
  param {
    lr_mult: 2
    decay_mult: 0
  }
  convolution_param {
    num_output: 128
    pad: 1
    kernel_size: 3
    weight_filler {
      type: "gaussian"
      std: 0.01
    }
    bias_filler {
      type: "constant"
      value: 0
    }
  }
}
layer {
  name: "relu2_1"
  type: "ReLU"
  bottom: "conv2_1"
  top: "conv2_1"
}
layer {
  name: "conv2_2"
  type: "Convolution"
  bottom: "conv2_1"
  top: "conv2_2"
  param {
    lr_mult: 1
    decay_mult: 1
  }
  param {
    lr_mult: 2
    decay_mult: 0
  }
  convolution_param {
    num_output: 128
    pad: 1
    kernel_size: 3
    weight_filler {
      type: "gaussian"
      std: 0.01
    }
    bias_filler {
      type: "constant"
      value: 0
    }
  }
}
layer {
  name: "relu2_2"
  type: "ReLU"
  bottom: "conv2_2"
  top: "conv2_2"
}
layer {
  name: "pool2"
  type: "Pooling"
  bottom: "conv2_2"
  top: "pool2"
  pooling_param {
    pool: MAX
    kernel_size: 2
    stride: 2
  }
}
layer {
  name: "conv3_1"
  type: "Convolution"
  bottom: "pool2"
  top: "conv3_1"
  param {
    lr_mult: 1
    decay_mult: 1
  }
  param {
    lr_mult: 2
    decay_mult: 0
  }
  convolution_param {
    num_output: 256
    pad: 1
    kernel_size: 3
    weight_filler {
      type: "gaussian"
      std: 0.01
    }
    bias_filler {
      type: "constant"
      value: 0
    }
  }
}
layer {
  name: "relu3_1"
  type: "ReLU"
  bottom: "conv3_1"
  top: "conv3_1"
}
layer {
  name: "conv3_2"
  type: "Convolution"
  bottom: "conv3_1"
  top: "conv3_2"
  param {
    lr_mult: 1
    decay_mult: 1
  }
  param {
    lr_mult: 2
    decay_mult: 0
  }
  convolution_param {
    num_output: 256
    pad: 1
    kernel_size: 3
    weight_filler {
      type: "gaussian"
      std: 0.01
    }
    bias_filler {
      type: "constant"
      value: 0
    }
  }
}
layer {
  name: "relu3_2"
  type: "ReLU"
  bottom: "conv3_2"
  top: "conv3_2"
}
layer {
  name: "conv3_3"
  type: "Convolution"
  bottom: "conv3_2"
  top: "conv3_3"
  param {
    lr_mult: 1
    decay_mult: 1
  }
  param {
    lr_mult: 2
    decay_mult: 0
  }
  convolution_param {
    num_output: 256
    pad: 1
    kernel_size: 3
    weight_filler {
      type: "gaussian"
      std: 0.01
    }
    bias_filler {
      type: "constant"
      value: 0
    }
  }
}
layer {
  name: "relu3_3"
  type: "ReLU"
  bottom: "conv3_3"
  top: "conv3_3"
}
layer {
  name: "pool3"
  type: "Pooling"
  bottom: "conv3_3"
  top: "pool3"
  pooling_param {
    pool: MAX
    kernel_size: 2
    stride: 2
  }
}
layer {
  name: "conv4_1"
  type: "Convolution"
  bottom: "pool3"
  top: "conv4_1"
  param {
    lr_mult: 1
    decay_mult: 1
  }
  param {
    lr_mult: 2
    decay_mult: 0
  }
  convolution_param {
    num_output: 512
    pad: 1
    kernel_size: 3
    weight_filler {
      type: "gaussian"
      std: 0.01
    }
    bias_filler {
      type: "constant"
      value: 0
    }
  }
}
layer {
  name: "relu4_1"
  type: "ReLU"
  bottom: "conv4_1"
  top: "conv4_1"
}
layer {
  name: "conv4_2"
  type: "Convolution"
  bottom: "conv4_1"
  top: "conv4_2"
  param {
    lr_mult: 1
    decay_mult: 1
  }
  param {
    lr_mult: 2
    decay_mult: 0
  }
  convolution_param {
    num_output: 512
    pad: 1
    kernel_size: 3
    weight_filler {
      type: "gaussian"
      std: 0.01
    }
    bias_filler {
      type: "constant"
      value: 0
    }
  }
}
layer {
  name: "relu4_2"
  type: "ReLU"
  bottom: "conv4_2"
  top: "conv4_2"
}
layer {
  name: "conv4_3"
  type: "Convolution"
  bottom: "conv4_2"
  top: "conv4_3"
  param {
    lr_mult: 1
    decay_mult: 1
  }
  param {
    lr_mult: 2
    decay_mult: 0
  }
  convolution_param {
    num_output: 512
    pad: 1
    kernel_size: 3
    weight_filler {
      type: "gaussian"
      std: 0.01
    }
    bias_filler {
      type: "constant"
      value: 0
    }
  }
}
layer {
  name: "relu4_3"
  type: "ReLU"
  bottom: "conv4_3"
  top: "conv4_3"
}
layer {
  name: "pool4"
  type: "Pooling"
  bottom: "conv4_3"
  top: "pool4"
  pooling_param {
    pool: MAX
    kernel_size: 2
    stride: 2
  }
}
layer {
  name: "conv5_1"
  type: "Convolution"
  bottom: "pool4"
  top: "conv5_1"
  param {
    lr_mult: 1
    decay_mult: 1
  }
  param {
    lr_mult: 2
    decay_mult: 0
  }
  convolution_param {
    num_output: 512
    pad: 1
    kernel_size: 3
    weight_filler {
      type: "gaussian"
      std: 0.01
    }
    bias_filler {
      type: "constant"
      value: 0
    }
  }
}
layer {
  name: "relu5_1"
  type: "ReLU"
  bottom: "conv5_1"
  top: "conv5_1"
}
layer {
  name: "conv5_2"
  type: "Convolution"
  bottom: "conv5_1"
  top: "conv5_2"
  param {
    lr_mult: 1
    decay_mult: 1
  }
  param {
    lr_mult: 2
    decay_mult: 0
  }
  convolution_param {
    num_output: 512
    pad: 1
    kernel_size: 3
    weight_filler {
      type: "gaussian"
      std: 0.01
    }
    bias_filler {
      type: "constant"
      value: 0
    }
  }
}
layer {
  name: "relu5_2"
  type: "ReLU"
  bottom: "conv5_2"
  top: "conv5_2"
}
layer {
  name: "conv5_3"
  type: "Convolution"
  bottom: "conv5_2"
  top: "conv5_3"
  param {
    lr_mult: 1
    decay_mult: 1
  }
  param {
    lr_mult: 2
    decay_mult: 0
  }
  convolution_param {
    num_output: 512
    pad: 1
    kernel_size: 3
    weight_filler {
      type: "gaussian"
      std: 0.01
    }
    bias_filler {
      type: "constant"
      value: 0
    }
  }
}
layer {
  name: "relu5_3"
  type: "ReLU"
  bottom: "conv5_3"
  top: "conv5_3"
}
layer {
  name: "pool5"
  type: "Pooling"
  bottom: "conv5_3"
  top: "pool5"
  pooling_param {
    pool: MAX
    kernel_size: 2
    stride: 2
  }
}
layer {
  name: "fc6"
  type: "InnerProduct"
  bottom: "pool5"
  top: "fc6"
  param {
    lr_mult: 1
    decay_mult: 1
  }
  param {
    lr_mult: 2
    decay_mult: 0
  }
  inner_product_param {
    num_output: 4096
    weight_filler {
      type: "gaussian"
      std: 0.005
    }
    bias_filler {
      type: "constant"
      value: 0.1
    }
  }
}
layer {
  name: "relu6"
  type: "ReLU"
  bottom: "fc6"
  top: "fc6"
}
layer {
  name: "drop6"
  type: "Dropout"
  bottom: "fc6"
  top: "fc6"
  dropout_param {
    dropout_ratio: 0.5
  }
}
layer {
  name: "fc7"
  type: "InnerProduct"
  bottom: "fc6"
  top: "fc7"
  param {
    lr_mult: 1
    decay_mult: 1
  }
  param {
    lr_mult: 2
    decay_mult: 0
  }
  inner_product_param {
    num_output: 4096
    weight_filler {
      type: "gaussian"
      std: 0.005
    }
    bias_filler {
      type: "constant"
      value: 0.1
    }
  }
}
layer {
  name: "relu7"
  type: "ReLU"
  bottom: "fc7"
  top: "fc7"
}
layer {
  name: "drop7"
  type: "Dropout"
  bottom: "fc7"
  top: "fc7"
  dropout_param {
    dropout_ratio: 0.5
  }
}
layer {
  name: "fc8_binary_Type"
  type: "InnerProduct"
  bottom: "fc7"
  top: "fc8_binary_Type"
  param {
    lr_mult: 10
    decay_mult: 1
  }
  param {
    lr_mult: 20
    decay_mult: 0
  }
  inner_product_param {
    num_output: 12
    weight_filler {
      type: "gaussian"
      std: 0.005
    }
    bias_filler {
      type: "constant"
      value: 0.1
    }
  }
}
layer {
  name: "fc8_classification_Type"
  type: "InnerProduct"
  bottom: "fc7"
  top: "fc8_classification_Type"
  param {
    lr_mult: 10
    decay_mult: 1
  }
  param {
    lr_mult: 20
    decay_mult: 0
  }
  inner_product_param {
    num_output: 25
    weight_filler {
      type: "gaussian"
      std: 0.05
    }
    bias_filler {
      type: "constant"
      value: 0.1
    }
  }
}
layer {
  name: "fc_binary_Pattern"
  type: "InnerProduct"
  bottom: "fc7"
  top: "fc_binary_Pattern"
  param {
    lr_mult: 0
    decay_mult: 0
  }
  param {
    lr_mult: 0
    decay_mult: 0
  }
  inner_product_param {
    num_output: 12
    weight_filler {
      type: "gaussian"
      std: 0.005
    }
    bias_filler {
      type: "constant"
      value: 0.1
    }
  }
}
layer {
  name: "fc_classification_Pattern"
  type: "InnerProduct"
  bottom: "fc7"
  top: "fc_classification_Pattern"
  param {
    lr_mult: 0
    decay_mult: 0
  }
  param {
    lr_mult: 0
    decay_mult: 0
  }
  inner_product_param {
    num_output: 7
    weight_filler {
      type: "gaussian"
      std: 0.05
    }
    bias_filler {
      type: "constant"
      value: 0.1
    }
  }
}
layer {
  name: "accuracy_at_1_Type"
  type: "Accuracy"
  bottom: "fc8_classification_Type"
  bottom: "label"
  top: "accuracy_at_1_Type"
  include {
    phase: TEST
  }
  accuracy_param {
    top_k: 1
  }
}
layer {
  name: "loss_hashing_Type"
  type: "HashingLoss"
  bottom: "fc8_binary_Type"
  bottom: "label"
  top: "loss_hashing_Type"
  loss_weight: 0.1
  hashing_loss_param {
    bi_margin: 24
    tradeoff: 0.01
  }
}
layer {
  name: "loss_classification_Type"
  type: "SoftmaxWithLoss"
  bottom: "fc8_classification_Type"
  bottom: "label"
  top: "loss_classification_Type"
}
layer {
  name: "loss_hashing"
  type: "HashingLoss"
  bottom: "fc_binary_Pattern"
  bottom: "label"
  top: "loss_hashing"
  loss_weight: 0
  hashing_loss_param {
    bi_margin: 24
    tradeoff: 0.01
  }
}
layer {
  name: "loss_classification"
  type: "SoftmaxWithLoss"
  bottom: "fc_classification_Pattern"
  bottom: "label"
  top: "loss_classification"
  loss_weight: 0
}
I0912 17:34:59.407459 19662 layer_factory.hpp:77] Creating layer data
I0912 17:34:59.407577 19662 net.cpp:91] Creating Layer data
I0912 17:34:59.407613 19662 net.cpp:399] data -> data
I0912 17:34:59.407639 19662 net.cpp:399] data -> label
I0912 17:34:59.408933 19668 db_lmdb.cpp:38] Opened lmdb FASHION/fashion_val_lmdb/
I0912 17:34:59.409451 19662 data_layer.cpp:41] output data size: 10,3,224,224
I0912 17:34:59.421404 19662 net.cpp:141] Setting up data
I0912 17:34:59.421496 19662 net.cpp:148] Top shape: 10 3 224 224 (1505280)
I0912 17:34:59.421516 19662 net.cpp:148] Top shape: 10 1 1 1 (10)
I0912 17:34:59.421531 19662 net.cpp:156] Memory required for data: 6021160
I0912 17:34:59.421552 19662 layer_factory.hpp:77] Creating layer label_data_1_split
I0912 17:34:59.421582 19662 net.cpp:91] Creating Layer label_data_1_split
I0912 17:34:59.421598 19662 net.cpp:425] label_data_1_split <- label
I0912 17:34:59.421619 19662 net.cpp:399] label_data_1_split -> label_data_1_split_0
I0912 17:34:59.421648 19662 net.cpp:399] label_data_1_split -> label_data_1_split_1
I0912 17:34:59.421671 19662 net.cpp:399] label_data_1_split -> label_data_1_split_2
I0912 17:34:59.421691 19662 net.cpp:399] label_data_1_split -> label_data_1_split_3
I0912 17:34:59.421717 19662 net.cpp:399] label_data_1_split -> label_data_1_split_4
I0912 17:34:59.421829 19662 net.cpp:141] Setting up label_data_1_split
I0912 17:34:59.421874 19662 net.cpp:148] Top shape: 10 1 1 1 (10)
I0912 17:34:59.421895 19662 net.cpp:148] Top shape: 10 1 1 1 (10)
I0912 17:34:59.421912 19662 net.cpp:148] Top shape: 10 1 1 1 (10)
I0912 17:34:59.421931 19662 net.cpp:148] Top shape: 10 1 1 1 (10)
I0912 17:34:59.421984 19662 net.cpp:148] Top shape: 10 1 1 1 (10)
I0912 17:34:59.422000 19662 net.cpp:156] Memory required for data: 6021360
I0912 17:34:59.422014 19662 layer_factory.hpp:77] Creating layer conv1_1
I0912 17:34:59.422045 19662 net.cpp:91] Creating Layer conv1_1
I0912 17:34:59.422062 19662 net.cpp:425] conv1_1 <- data
I0912 17:34:59.422086 19662 net.cpp:399] conv1_1 -> conv1_1
I0912 17:34:59.422554 19662 net.cpp:141] Setting up conv1_1
I0912 17:34:59.422583 19662 net.cpp:148] Top shape: 10 64 224 224 (32112640)
I0912 17:34:59.422600 19662 net.cpp:156] Memory required for data: 134471920
I0912 17:34:59.422629 19662 layer_factory.hpp:77] Creating layer relu1_1
I0912 17:34:59.422650 19662 net.cpp:91] Creating Layer relu1_1
I0912 17:34:59.422667 19662 net.cpp:425] relu1_1 <- conv1_1
I0912 17:34:59.422688 19662 net.cpp:386] relu1_1 -> conv1_1 (in-place)
I0912 17:34:59.422709 19662 net.cpp:141] Setting up relu1_1
I0912 17:34:59.422732 19662 net.cpp:148] Top shape: 10 64 224 224 (32112640)
I0912 17:34:59.422749 19662 net.cpp:156] Memory required for data: 262922480
I0912 17:34:59.422765 19662 layer_factory.hpp:77] Creating layer conv1_2
I0912 17:34:59.422791 19662 net.cpp:91] Creating Layer conv1_2
I0912 17:34:59.422811 19662 net.cpp:425] conv1_2 <- conv1_1
I0912 17:34:59.422829 19662 net.cpp:399] conv1_2 -> conv1_2
I0912 17:34:59.425199 19662 net.cpp:141] Setting up conv1_2
I0912 17:34:59.425238 19662 net.cpp:148] Top shape: 10 64 224 224 (32112640)
I0912 17:34:59.425256 19662 net.cpp:156] Memory required for data: 391373040
I0912 17:34:59.425278 19662 layer_factory.hpp:77] Creating layer relu1_2
I0912 17:34:59.425299 19662 net.cpp:91] Creating Layer relu1_2
I0912 17:34:59.425314 19662 net.cpp:425] relu1_2 <- conv1_2
I0912 17:34:59.425336 19662 net.cpp:386] relu1_2 -> conv1_2 (in-place)
I0912 17:34:59.425357 19662 net.cpp:141] Setting up relu1_2
I0912 17:34:59.425374 19662 net.cpp:148] Top shape: 10 64 224 224 (32112640)
I0912 17:34:59.425388 19662 net.cpp:156] Memory required for data: 519823600
I0912 17:34:59.425403 19662 layer_factory.hpp:77] Creating layer pool1
I0912 17:34:59.425422 19662 net.cpp:91] Creating Layer pool1
I0912 17:34:59.425436 19662 net.cpp:425] pool1 <- conv1_2
I0912 17:34:59.425453 19662 net.cpp:399] pool1 -> pool1
I0912 17:34:59.425516 19662 net.cpp:141] Setting up pool1
I0912 17:34:59.425541 19662 net.cpp:148] Top shape: 10 64 112 112 (8028160)
I0912 17:34:59.425556 19662 net.cpp:156] Memory required for data: 551936240
I0912 17:34:59.425571 19662 layer_factory.hpp:77] Creating layer conv2_1
I0912 17:34:59.425595 19662 net.cpp:91] Creating Layer conv2_1
I0912 17:34:59.425612 19662 net.cpp:425] conv2_1 <- pool1
I0912 17:34:59.425633 19662 net.cpp:399] conv2_1 -> conv2_1
I0912 17:34:59.428761 19662 net.cpp:141] Setting up conv2_1
I0912 17:34:59.428789 19662 net.cpp:148] Top shape: 10 128 112 112 (16056320)
I0912 17:34:59.428804 19662 net.cpp:156] Memory required for data: 616161520
I0912 17:34:59.428828 19662 layer_factory.hpp:77] Creating layer relu2_1
I0912 17:34:59.428850 19662 net.cpp:91] Creating Layer relu2_1
I0912 17:34:59.428866 19662 net.cpp:425] relu2_1 <- conv2_1
I0912 17:34:59.428884 19662 net.cpp:386] relu2_1 -> conv2_1 (in-place)
I0912 17:34:59.428901 19662 net.cpp:141] Setting up relu2_1
I0912 17:34:59.428922 19662 net.cpp:148] Top shape: 10 128 112 112 (16056320)
I0912 17:34:59.428941 19662 net.cpp:156] Memory required for data: 680386800
I0912 17:34:59.428956 19662 layer_factory.hpp:77] Creating layer conv2_2
I0912 17:34:59.428980 19662 net.cpp:91] Creating Layer conv2_2
I0912 17:34:59.428997 19662 net.cpp:425] conv2_2 <- conv2_1
I0912 17:34:59.429018 19662 net.cpp:399] conv2_2 -> conv2_2
I0912 17:34:59.435624 19662 net.cpp:141] Setting up conv2_2
I0912 17:34:59.435662 19662 net.cpp:148] Top shape: 10 128 112 112 (16056320)
I0912 17:34:59.435678 19662 net.cpp:156] Memory required for data: 744612080
I0912 17:34:59.435696 19662 layer_factory.hpp:77] Creating layer relu2_2
I0912 17:34:59.435715 19662 net.cpp:91] Creating Layer relu2_2
I0912 17:34:59.435730 19662 net.cpp:425] relu2_2 <- conv2_2
I0912 17:34:59.435787 19662 net.cpp:386] relu2_2 -> conv2_2 (in-place)
I0912 17:34:59.435811 19662 net.cpp:141] Setting up relu2_2
I0912 17:34:59.435828 19662 net.cpp:148] Top shape: 10 128 112 112 (16056320)
I0912 17:34:59.435843 19662 net.cpp:156] Memory required for data: 808837360
I0912 17:34:59.435858 19662 layer_factory.hpp:77] Creating layer pool2
I0912 17:34:59.435878 19662 net.cpp:91] Creating Layer pool2
I0912 17:34:59.435892 19662 net.cpp:425] pool2 <- conv2_2
I0912 17:34:59.435912 19662 net.cpp:399] pool2 -> pool2
I0912 17:34:59.435981 19662 net.cpp:141] Setting up pool2
I0912 17:34:59.436007 19662 net.cpp:148] Top shape: 10 128 56 56 (4014080)
I0912 17:34:59.436022 19662 net.cpp:156] Memory required for data: 824893680
I0912 17:34:59.436035 19662 layer_factory.hpp:77] Creating layer conv3_1
I0912 17:34:59.436059 19662 net.cpp:91] Creating Layer conv3_1
I0912 17:34:59.436077 19662 net.cpp:425] conv3_1 <- pool2
I0912 17:34:59.436100 19662 net.cpp:399] conv3_1 -> conv3_1
I0912 17:34:59.448343 19662 net.cpp:141] Setting up conv3_1
I0912 17:34:59.448386 19662 net.cpp:148] Top shape: 10 256 56 56 (8028160)
I0912 17:34:59.448402 19662 net.cpp:156] Memory required for data: 857006320
I0912 17:34:59.448431 19662 layer_factory.hpp:77] Creating layer relu3_1
I0912 17:34:59.448454 19662 net.cpp:91] Creating Layer relu3_1
I0912 17:34:59.448472 19662 net.cpp:425] relu3_1 <- conv3_1
I0912 17:34:59.448489 19662 net.cpp:386] relu3_1 -> conv3_1 (in-place)
I0912 17:34:59.448509 19662 net.cpp:141] Setting up relu3_1
I0912 17:34:59.448526 19662 net.cpp:148] Top shape: 10 256 56 56 (8028160)
I0912 17:34:59.448540 19662 net.cpp:156] Memory required for data: 889118960
I0912 17:34:59.448554 19662 layer_factory.hpp:77] Creating layer conv3_2
I0912 17:34:59.448580 19662 net.cpp:91] Creating Layer conv3_2
I0912 17:34:59.448598 19662 net.cpp:425] conv3_2 <- conv3_1
I0912 17:34:59.448619 19662 net.cpp:399] conv3_2 -> conv3_2
I0912 17:34:59.472545 19662 net.cpp:141] Setting up conv3_2
I0912 17:34:59.472579 19662 net.cpp:148] Top shape: 10 256 56 56 (8028160)
I0912 17:34:59.472595 19662 net.cpp:156] Memory required for data: 921231600
I0912 17:34:59.472614 19662 layer_factory.hpp:77] Creating layer relu3_2
I0912 17:34:59.472632 19662 net.cpp:91] Creating Layer relu3_2
I0912 17:34:59.472647 19662 net.cpp:425] relu3_2 <- conv3_2
I0912 17:34:59.472664 19662 net.cpp:386] relu3_2 -> conv3_2 (in-place)
I0912 17:34:59.472683 19662 net.cpp:141] Setting up relu3_2
I0912 17:34:59.472700 19662 net.cpp:148] Top shape: 10 256 56 56 (8028160)
I0912 17:34:59.472714 19662 net.cpp:156] Memory required for data: 953344240
I0912 17:34:59.472728 19662 layer_factory.hpp:77] Creating layer conv3_3
I0912 17:34:59.472760 19662 net.cpp:91] Creating Layer conv3_3
I0912 17:34:59.472780 19662 net.cpp:425] conv3_3 <- conv3_2
I0912 17:34:59.472798 19662 net.cpp:399] conv3_3 -> conv3_3
I0912 17:34:59.496697 19662 net.cpp:141] Setting up conv3_3
I0912 17:34:59.496729 19662 net.cpp:148] Top shape: 10 256 56 56 (8028160)
I0912 17:34:59.496745 19662 net.cpp:156] Memory required for data: 985456880
I0912 17:34:59.496764 19662 layer_factory.hpp:77] Creating layer relu3_3
I0912 17:34:59.496783 19662 net.cpp:91] Creating Layer relu3_3
I0912 17:34:59.496796 19662 net.cpp:425] relu3_3 <- conv3_3
I0912 17:34:59.496814 19662 net.cpp:386] relu3_3 -> conv3_3 (in-place)
I0912 17:34:59.496831 19662 net.cpp:141] Setting up relu3_3
I0912 17:34:59.496848 19662 net.cpp:148] Top shape: 10 256 56 56 (8028160)
I0912 17:34:59.496867 19662 net.cpp:156] Memory required for data: 1017569520
I0912 17:34:59.496881 19662 layer_factory.hpp:77] Creating layer pool3
I0912 17:34:59.496903 19662 net.cpp:91] Creating Layer pool3
I0912 17:34:59.496919 19662 net.cpp:425] pool3 <- conv3_3
I0912 17:34:59.496935 19662 net.cpp:399] pool3 -> pool3
I0912 17:34:59.497006 19662 net.cpp:141] Setting up pool3
I0912 17:34:59.497032 19662 net.cpp:148] Top shape: 10 256 28 28 (2007040)
I0912 17:34:59.497047 19662 net.cpp:156] Memory required for data: 1025597680
I0912 17:34:59.497062 19662 layer_factory.hpp:77] Creating layer conv4_1
I0912 17:34:59.497124 19662 net.cpp:91] Creating Layer conv4_1
I0912 17:34:59.497143 19662 net.cpp:425] conv4_1 <- pool3
I0912 17:34:59.497165 19662 net.cpp:399] conv4_1 -> conv4_1
I0912 17:34:59.542866 19662 net.cpp:141] Setting up conv4_1
I0912 17:34:59.542912 19662 net.cpp:148] Top shape: 10 512 28 28 (4014080)
I0912 17:34:59.542927 19662 net.cpp:156] Memory required for data: 1041654000
I0912 17:34:59.542946 19662 layer_factory.hpp:77] Creating layer relu4_1
I0912 17:34:59.542965 19662 net.cpp:91] Creating Layer relu4_1
I0912 17:34:59.542981 19662 net.cpp:425] relu4_1 <- conv4_1
I0912 17:34:59.542997 19662 net.cpp:386] relu4_1 -> conv4_1 (in-place)
I0912 17:34:59.543017 19662 net.cpp:141] Setting up relu4_1
I0912 17:34:59.543033 19662 net.cpp:148] Top shape: 10 512 28 28 (4014080)
I0912 17:34:59.543053 19662 net.cpp:156] Memory required for data: 1057710320
I0912 17:34:59.543068 19662 layer_factory.hpp:77] Creating layer conv4_2
I0912 17:34:59.543092 19662 net.cpp:91] Creating Layer conv4_2
I0912 17:34:59.543108 19662 net.cpp:425] conv4_2 <- conv4_1
I0912 17:34:59.543130 19662 net.cpp:399] conv4_2 -> conv4_2
I0912 17:34:59.633903 19662 net.cpp:141] Setting up conv4_2
I0912 17:34:59.633955 19662 net.cpp:148] Top shape: 10 512 28 28 (4014080)
I0912 17:34:59.633972 19662 net.cpp:156] Memory required for data: 1073766640
I0912 17:34:59.634004 19662 layer_factory.hpp:77] Creating layer relu4_2
I0912 17:34:59.634027 19662 net.cpp:91] Creating Layer relu4_2
I0912 17:34:59.634042 19662 net.cpp:425] relu4_2 <- conv4_2
I0912 17:34:59.634059 19662 net.cpp:386] relu4_2 -> conv4_2 (in-place)
I0912 17:34:59.634084 19662 net.cpp:141] Setting up relu4_2
I0912 17:34:59.634101 19662 net.cpp:148] Top shape: 10 512 28 28 (4014080)
I0912 17:34:59.634115 19662 net.cpp:156] Memory required for data: 1089822960
I0912 17:34:59.634130 19662 layer_factory.hpp:77] Creating layer conv4_3
I0912 17:34:59.634155 19662 net.cpp:91] Creating Layer conv4_3
I0912 17:34:59.634171 19662 net.cpp:425] conv4_3 <- conv4_2
I0912 17:34:59.634202 19662 net.cpp:399] conv4_3 -> conv4_3
I0912 17:34:59.724854 19662 net.cpp:141] Setting up conv4_3
I0912 17:34:59.724907 19662 net.cpp:148] Top shape: 10 512 28 28 (4014080)
I0912 17:34:59.724925 19662 net.cpp:156] Memory required for data: 1105879280
I0912 17:34:59.724944 19662 layer_factory.hpp:77] Creating layer relu4_3
I0912 17:34:59.724963 19662 net.cpp:91] Creating Layer relu4_3
I0912 17:34:59.724979 19662 net.cpp:425] relu4_3 <- conv4_3
I0912 17:34:59.725000 19662 net.cpp:386] relu4_3 -> conv4_3 (in-place)
I0912 17:34:59.725023 19662 net.cpp:141] Setting up relu4_3
I0912 17:34:59.725044 19662 net.cpp:148] Top shape: 10 512 28 28 (4014080)
I0912 17:34:59.725059 19662 net.cpp:156] Memory required for data: 1121935600
I0912 17:34:59.725072 19662 layer_factory.hpp:77] Creating layer pool4
I0912 17:34:59.725091 19662 net.cpp:91] Creating Layer pool4
I0912 17:34:59.725106 19662 net.cpp:425] pool4 <- conv4_3
I0912 17:34:59.725124 19662 net.cpp:399] pool4 -> pool4
I0912 17:34:59.725190 19662 net.cpp:141] Setting up pool4
I0912 17:34:59.725219 19662 net.cpp:148] Top shape: 10 512 14 14 (1003520)
I0912 17:34:59.725234 19662 net.cpp:156] Memory required for data: 1125949680
I0912 17:34:59.725248 19662 layer_factory.hpp:77] Creating layer conv5_1
I0912 17:34:59.725276 19662 net.cpp:91] Creating Layer conv5_1
I0912 17:34:59.725297 19662 net.cpp:425] conv5_1 <- pool4
I0912 17:34:59.725322 19662 net.cpp:399] conv5_1 -> conv5_1
I0912 17:34:59.820155 19662 net.cpp:141] Setting up conv5_1
I0912 17:34:59.820219 19662 net.cpp:148] Top shape: 10 512 14 14 (1003520)
I0912 17:34:59.820235 19662 net.cpp:156] Memory required for data: 1129963760
I0912 17:34:59.820257 19662 layer_factory.hpp:77] Creating layer relu5_1
I0912 17:34:59.820283 19662 net.cpp:91] Creating Layer relu5_1
I0912 17:34:59.820302 19662 net.cpp:425] relu5_1 <- conv5_1
I0912 17:34:59.820320 19662 net.cpp:386] relu5_1 -> conv5_1 (in-place)
I0912 17:34:59.820343 19662 net.cpp:141] Setting up relu5_1
I0912 17:34:59.820359 19662 net.cpp:148] Top shape: 10 512 14 14 (1003520)
I0912 17:34:59.820411 19662 net.cpp:156] Memory required for data: 1133977840
I0912 17:34:59.820427 19662 layer_factory.hpp:77] Creating layer conv5_2
I0912 17:34:59.820456 19662 net.cpp:91] Creating Layer conv5_2
I0912 17:34:59.820473 19662 net.cpp:425] conv5_2 <- conv5_1
I0912 17:34:59.820495 19662 net.cpp:399] conv5_2 -> conv5_2
I0912 17:34:59.913985 19662 net.cpp:141] Setting up conv5_2
I0912 17:34:59.914036 19662 net.cpp:148] Top shape: 10 512 14 14 (1003520)
I0912 17:34:59.914052 19662 net.cpp:156] Memory required for data: 1137991920
I0912 17:34:59.914072 19662 layer_factory.hpp:77] Creating layer relu5_2
I0912 17:34:59.914090 19662 net.cpp:91] Creating Layer relu5_2
I0912 17:34:59.914105 19662 net.cpp:425] relu5_2 <- conv5_2
I0912 17:34:59.914126 19662 net.cpp:386] relu5_2 -> conv5_2 (in-place)
I0912 17:34:59.914146 19662 net.cpp:141] Setting up relu5_2
I0912 17:34:59.914170 19662 net.cpp:148] Top shape: 10 512 14 14 (1003520)
I0912 17:34:59.914188 19662 net.cpp:156] Memory required for data: 1142006000
I0912 17:34:59.914203 19662 layer_factory.hpp:77] Creating layer conv5_3
I0912 17:34:59.914225 19662 net.cpp:91] Creating Layer conv5_3
I0912 17:34:59.914240 19662 net.cpp:425] conv5_3 <- conv5_2
I0912 17:34:59.914261 19662 net.cpp:399] conv5_3 -> conv5_3
I0912 17:35:00.004974 19662 net.cpp:141] Setting up conv5_3
I0912 17:35:00.005033 19662 net.cpp:148] Top shape: 10 512 14 14 (1003520)
I0912 17:35:00.005050 19662 net.cpp:156] Memory required for data: 1146020080
I0912 17:35:00.005071 19662 layer_factory.hpp:77] Creating layer relu5_3
I0912 17:35:00.005095 19662 net.cpp:91] Creating Layer relu5_3
I0912 17:35:00.005112 19662 net.cpp:425] relu5_3 <- conv5_3
I0912 17:35:00.005131 19662 net.cpp:386] relu5_3 -> conv5_3 (in-place)
I0912 17:35:00.005151 19662 net.cpp:141] Setting up relu5_3
I0912 17:35:00.005168 19662 net.cpp:148] Top shape: 10 512 14 14 (1003520)
I0912 17:35:00.005188 19662 net.cpp:156] Memory required for data: 1150034160
I0912 17:35:00.005203 19662 layer_factory.hpp:77] Creating layer pool5
I0912 17:35:00.005234 19662 net.cpp:91] Creating Layer pool5
I0912 17:35:00.005250 19662 net.cpp:425] pool5 <- conv5_3
I0912 17:35:00.005269 19662 net.cpp:399] pool5 -> pool5
I0912 17:35:00.005337 19662 net.cpp:141] Setting up pool5
I0912 17:35:00.005363 19662 net.cpp:148] Top shape: 10 512 7 7 (250880)
I0912 17:35:00.005378 19662 net.cpp:156] Memory required for data: 1151037680
I0912 17:35:00.005394 19662 layer_factory.hpp:77] Creating layer fc6
I0912 17:35:00.005415 19662 net.cpp:91] Creating Layer fc6
I0912 17:35:00.005429 19662 net.cpp:425] fc6 <- pool5
I0912 17:35:00.005452 19662 net.cpp:399] fc6 -> fc6
I0912 17:35:03.966100 19662 net.cpp:141] Setting up fc6
I0912 17:35:03.966197 19662 net.cpp:148] Top shape: 10 4096 (40960)
I0912 17:35:03.966215 19662 net.cpp:156] Memory required for data: 1151201520
I0912 17:35:03.966250 19662 layer_factory.hpp:77] Creating layer relu6
I0912 17:35:03.966284 19662 net.cpp:91] Creating Layer relu6
I0912 17:35:03.966308 19662 net.cpp:425] relu6 <- fc6
I0912 17:35:03.966336 19662 net.cpp:386] relu6 -> fc6 (in-place)
I0912 17:35:03.966361 19662 net.cpp:141] Setting up relu6
I0912 17:35:03.966378 19662 net.cpp:148] Top shape: 10 4096 (40960)
I0912 17:35:03.966392 19662 net.cpp:156] Memory required for data: 1151365360
I0912 17:35:03.966408 19662 layer_factory.hpp:77] Creating layer drop6
I0912 17:35:03.966428 19662 net.cpp:91] Creating Layer drop6
I0912 17:35:03.966444 19662 net.cpp:425] drop6 <- fc6
I0912 17:35:03.966462 19662 net.cpp:386] drop6 -> fc6 (in-place)
I0912 17:35:03.966528 19662 net.cpp:141] Setting up drop6
I0912 17:35:03.966554 19662 net.cpp:148] Top shape: 10 4096 (40960)
I0912 17:35:03.966570 19662 net.cpp:156] Memory required for data: 1151529200
I0912 17:35:03.966586 19662 layer_factory.hpp:77] Creating layer fc7
I0912 17:35:03.966611 19662 net.cpp:91] Creating Layer fc7
I0912 17:35:03.966634 19662 net.cpp:425] fc7 <- fc6
I0912 17:35:03.966657 19662 net.cpp:399] fc7 -> fc7
I0912 17:35:04.620062 19662 net.cpp:141] Setting up fc7
I0912 17:35:04.620158 19662 net.cpp:148] Top shape: 10 4096 (40960)
I0912 17:35:04.620177 19662 net.cpp:156] Memory required for data: 1151693040
I0912 17:35:04.620203 19662 layer_factory.hpp:77] Creating layer relu7
I0912 17:35:04.620229 19662 net.cpp:91] Creating Layer relu7
I0912 17:35:04.620246 19662 net.cpp:425] relu7 <- fc7
I0912 17:35:04.620265 19662 net.cpp:386] relu7 -> fc7 (in-place)
I0912 17:35:04.620298 19662 net.cpp:141] Setting up relu7
I0912 17:35:04.620318 19662 net.cpp:148] Top shape: 10 4096 (40960)
I0912 17:35:04.620332 19662 net.cpp:156] Memory required for data: 1151856880
I0912 17:35:04.620348 19662 layer_factory.hpp:77] Creating layer drop7
I0912 17:35:04.620369 19662 net.cpp:91] Creating Layer drop7
I0912 17:35:04.620384 19662 net.cpp:425] drop7 <- fc7
I0912 17:35:04.620400 19662 net.cpp:386] drop7 -> fc7 (in-place)
I0912 17:35:04.620453 19662 net.cpp:141] Setting up drop7
I0912 17:35:04.620476 19662 net.cpp:148] Top shape: 10 4096 (40960)
I0912 17:35:04.620492 19662 net.cpp:156] Memory required for data: 1152020720
I0912 17:35:04.620507 19662 layer_factory.hpp:77] Creating layer fc7_drop7_0_split
I0912 17:35:04.620527 19662 net.cpp:91] Creating Layer fc7_drop7_0_split
I0912 17:35:04.620548 19662 net.cpp:425] fc7_drop7_0_split <- fc7
I0912 17:35:04.620573 19662 net.cpp:399] fc7_drop7_0_split -> fc7_drop7_0_split_0
I0912 17:35:04.620595 19662 net.cpp:399] fc7_drop7_0_split -> fc7_drop7_0_split_1
I0912 17:35:04.620615 19662 net.cpp:399] fc7_drop7_0_split -> fc7_drop7_0_split_2
I0912 17:35:04.620635 19662 net.cpp:399] fc7_drop7_0_split -> fc7_drop7_0_split_3
I0912 17:35:04.620720 19662 net.cpp:141] Setting up fc7_drop7_0_split
I0912 17:35:04.620745 19662 net.cpp:148] Top shape: 10 4096 (40960)
I0912 17:35:04.620761 19662 net.cpp:148] Top shape: 10 4096 (40960)
I0912 17:35:04.620779 19662 net.cpp:148] Top shape: 10 4096 (40960)
I0912 17:35:04.620801 19662 net.cpp:148] Top shape: 10 4096 (40960)
I0912 17:35:04.620815 19662 net.cpp:156] Memory required for data: 1152676080
I0912 17:35:04.620832 19662 layer_factory.hpp:77] Creating layer fc8_binary_Type
I0912 17:35:04.620859 19662 net.cpp:91] Creating Layer fc8_binary_Type
I0912 17:35:04.620874 19662 net.cpp:425] fc8_binary_Type <- fc7_drop7_0_split_0
I0912 17:35:04.620898 19662 net.cpp:399] fc8_binary_Type -> fc8_binary_Type
I0912 17:35:04.622923 19662 net.cpp:141] Setting up fc8_binary_Type
I0912 17:35:04.622951 19662 net.cpp:148] Top shape: 10 12 (120)
I0912 17:35:04.622967 19662 net.cpp:156] Memory required for data: 1152676560
I0912 17:35:04.622985 19662 layer_factory.hpp:77] Creating layer fc8_classification_Type
I0912 17:35:04.623013 19662 net.cpp:91] Creating Layer fc8_classification_Type
I0912 17:35:04.623029 19662 net.cpp:425] fc8_classification_Type <- fc7_drop7_0_split_1
I0912 17:35:04.623047 19662 net.cpp:399] fc8_classification_Type -> fc8_classification_Type
I0912 17:35:04.627084 19662 net.cpp:141] Setting up fc8_classification_Type
I0912 17:35:04.627113 19662 net.cpp:148] Top shape: 10 25 (250)
I0912 17:35:04.627128 19662 net.cpp:156] Memory required for data: 1152677560
I0912 17:35:04.627162 19662 layer_factory.hpp:77] Creating layer fc8_classification_Type_fc8_classification_Type_0_split
I0912 17:35:04.627183 19662 net.cpp:91] Creating Layer fc8_classification_Type_fc8_classification_Type_0_split
I0912 17:35:04.627198 19662 net.cpp:425] fc8_classification_Type_fc8_classification_Type_0_split <- fc8_classification_Type
I0912 17:35:04.627215 19662 net.cpp:399] fc8_classification_Type_fc8_classification_Type_0_split -> fc8_classification_Type_fc8_classification_Type_0_split_0
I0912 17:35:04.627236 19662 net.cpp:399] fc8_classification_Type_fc8_classification_Type_0_split -> fc8_classification_Type_fc8_classification_Type_0_split_1
I0912 17:35:04.627295 19662 net.cpp:141] Setting up fc8_classification_Type_fc8_classification_Type_0_split
I0912 17:35:04.627318 19662 net.cpp:148] Top shape: 10 25 (250)
I0912 17:35:04.627334 19662 net.cpp:148] Top shape: 10 25 (250)
I0912 17:35:04.627349 19662 net.cpp:156] Memory required for data: 1152679560
I0912 17:35:04.627382 19662 layer_factory.hpp:77] Creating layer fc_binary_Pattern
I0912 17:35:04.627406 19662 net.cpp:91] Creating Layer fc_binary_Pattern
I0912 17:35:04.627425 19662 net.cpp:425] fc_binary_Pattern <- fc7_drop7_0_split_2
I0912 17:35:04.627444 19662 net.cpp:399] fc_binary_Pattern -> fc_binary_Pattern
I0912 17:35:04.630120 19662 net.cpp:141] Setting up fc_binary_Pattern
I0912 17:35:04.630151 19662 net.cpp:148] Top shape: 10 12 (120)
I0912 17:35:04.630167 19662 net.cpp:156] Memory required for data: 1152680040
I0912 17:35:04.630187 19662 layer_factory.hpp:77] Creating layer fc_classification_Pattern
I0912 17:35:04.630208 19662 net.cpp:91] Creating Layer fc_classification_Pattern
I0912 17:35:04.630224 19662 net.cpp:425] fc_classification_Pattern <- fc7_drop7_0_split_3
I0912 17:35:04.630249 19662 net.cpp:399] fc_classification_Pattern -> fc_classification_Pattern
I0912 17:35:04.631459 19662 net.cpp:141] Setting up fc_classification_Pattern
I0912 17:35:04.631485 19662 net.cpp:148] Top shape: 10 7 (70)
I0912 17:35:04.631500 19662 net.cpp:156] Memory required for data: 1152680320
I0912 17:35:04.631518 19662 layer_factory.hpp:77] Creating layer accuracy_at_1_Type
I0912 17:35:04.631547 19662 net.cpp:91] Creating Layer accuracy_at_1_Type
I0912 17:35:04.631563 19662 net.cpp:425] accuracy_at_1_Type <- fc8_classification_Type_fc8_classification_Type_0_split_0
I0912 17:35:04.631580 19662 net.cpp:425] accuracy_at_1_Type <- label_data_1_split_0
…
