…
I0816 10:53:07.799859 22298 net.cpp:313] The NetState phase (0) differed from the phase (1) specified by a rule in layer data
I0816 10:53:07.800302 22298 net.cpp:49] Initializing net from parameters: 
name: "docomo_VGG16"
state {
  phase: TRAIN
}
layer {
  name: "data"
  type: "Data"
  top: "data"
  top: "label"
  include {
    phase: TRAIN
  }
  transform_param {
    mirror: true
    crop_size: 224
    mean_value: 103.939
    mean_value: 116.779
    mean_value: 123.68
  }
  data_param {
    source: "FASHION/fashion_train_lmdb/"
    batch_size: 10
    backend: LMDB
  }
}
layer {
  name: "conv1_1"
  type: "Convolution"
  bottom: "data"
  top: "conv1_1"
  param {
    lr_mult: 1
    decay_mult: 1
  }
  param {
    lr_mult: 2
    decay_mult: 0
  }
  convolution_param {
    num_output: 64
    pad: 1
    kernel_size: 3
    weight_filler {
      type: "gaussian"
      std: 0.01
    }
    bias_filler {
      type: "constant"
      value: 0
    }
  }
}
layer {
  name: "relu1_1"
  type: "ReLU"
  bottom: "conv1_1"
  top: "conv1_1"
}
layer {
  name: "conv1_2"
  type: "Convolution"
  bottom: "conv1_1"
  top: "conv1_2"
  param {
    lr_mult: 1
    decay_mult: 1
  }
  param {
    lr_mult: 2
    decay_mult: 0
  }
  convolution_param {
    num_output: 64
    pad: 1
    kernel_size: 3
    weight_filler {
      type: "gaussian"
      std: 0.01
    }
    bias_filler {
      type: "constant"
      value: 0
    }
  }
}
layer {
  name: "relu1_2"
  type: "ReLU"
  bottom: "conv1_2"
  top: "conv1_2"
}
layer {
  name: "pool1"
  type: "Pooling"
  bottom: "conv1_2"
  top: "pool1"
  pooling_param {
    pool: MAX
    kernel_size: 2
    stride: 2
  }
}
layer {
  name: "conv2_1"
  type: "Convolution"
  bottom: "pool1"
  top: "conv2_1"
  param {
    lr_mult: 1
    decay_mult: 1
  }
  param {
    lr_mult: 2
    decay_mult: 0
  }
  convolution_param {
    num_output: 128
    pad: 1
    kernel_size: 3
    weight_filler {
      type: "gaussian"
      std: 0.01
    }
    bias_filler {
      type: "constant"
      value: 0
    }
  }
}
layer {
  name: "relu2_1"
  type: "ReLU"
  bottom: "conv2_1"
  top: "conv2_1"
}
layer {
  name: "conv2_2"
  type: "Convolution"
  bottom: "conv2_1"
  top: "conv2_2"
  param {
    lr_mult: 1
    decay_mult: 1
  }
  param {
    lr_mult: 2
    decay_mult: 0
  }
  convolution_param {
    num_output: 128
    pad: 1
    kernel_size: 3
    weight_filler {
      type: "gaussian"
      std: 0.01
    }
    bias_filler {
      type: "constant"
      value: 0
    }
  }
}
layer {
  name: "relu2_2"
  type: "ReLU"
  bottom: "conv2_2"
  top: "conv2_2"
}
layer {
  name: "pool2"
  type: "Pooling"
  bottom: "conv2_2"
  top: "pool2"
  pooling_param {
    pool: MAX
    kernel_size: 2
    stride: 2
  }
}
layer {
  name: "conv3_1"
  type: "Convolution"
  bottom: "pool2"
  top: "conv3_1"
  param {
    lr_mult: 1
    decay_mult: 1
  }
  param {
    lr_mult: 2
    decay_mult: 0
  }
  convolution_param {
    num_output: 256
    pad: 1
    kernel_size: 3
    weight_filler {
      type: "gaussian"
      std: 0.01
    }
    bias_filler {
      type: "constant"
      value: 0
    }
  }
}
layer {
  name: "relu3_1"
  type: "ReLU"
  bottom: "conv3_1"
  top: "conv3_1"
}
layer {
  name: "conv3_2"
  type: "Convolution"
  bottom: "conv3_1"
  top: "conv3_2"
  param {
    lr_mult: 1
    decay_mult: 1
  }
  param {
    lr_mult: 2
    decay_mult: 0
  }
  convolution_param {
    num_output: 256
    pad: 1
    kernel_size: 3
    weight_filler {
      type: "gaussian"
      std: 0.01
    }
    bias_filler {
      type: "constant"
      value: 0
    }
  }
}
layer {
  name: "relu3_2"
  type: "ReLU"
  bottom: "conv3_2"
  top: "conv3_2"
}
layer {
  name: "conv3_3"
  type: "Convolution"
  bottom: "conv3_2"
  top: "conv3_3"
  param {
    lr_mult: 1
    decay_mult: 1
  }
  param {
    lr_mult: 2
    decay_mult: 0
  }
  convolution_param {
    num_output: 256
    pad: 1
    kernel_size: 3
    weight_filler {
      type: "gaussian"
      std: 0.01
    }
    bias_filler {
      type: "constant"
      value: 0
    }
  }
}
layer {
  name: "relu3_3"
  type: "ReLU"
  bottom: "conv3_3"
  top: "conv3_3"
}
layer {
  name: "pool3"
  type: "Pooling"
  bottom: "conv3_3"
  top: "pool3"
  pooling_param {
    pool: MAX
    kernel_size: 2
    stride: 2
  }
}
layer {
  name: "conv4_1"
  type: "Convolution"
  bottom: "pool3"
  top: "conv4_1"
  param {
    lr_mult: 1
    decay_mult: 1
  }
  param {
    lr_mult: 2
    decay_mult: 0
  }
  convolution_param {
    num_output: 512
    pad: 1
    kernel_size: 3
    weight_filler {
      type: "gaussian"
      std: 0.01
    }
    bias_filler {
      type: "constant"
      value: 0
    }
  }
}
layer {
  name: "relu4_1"
  type: "ReLU"
  bottom: "conv4_1"
  top: "conv4_1"
}
layer {
  name: "conv4_2"
  type: "Convolution"
  bottom: "conv4_1"
  top: "conv4_2"
  param {
    lr_mult: 1
    decay_mult: 1
  }
  param {
    lr_mult: 2
    decay_mult: 0
  }
  convolution_param {
    num_output: 512
    pad: 1
    kernel_size: 3
    weight_filler {
      type: "gaussian"
      std: 0.01
    }
    bias_filler {
      type: "constant"
      value: 0
    }
  }
}
layer {
  name: "relu4_2"
  type: "ReLU"
  bottom: "conv4_2"
  top: "conv4_2"
}
layer {
  name: "conv4_3"
  type: "Convolution"
  bottom: "conv4_2"
  top: "conv4_3"
  param {
    lr_mult: 1
    decay_mult: 1
  }
  param {
    lr_mult: 2
    decay_mult: 0
  }
  convolution_param {
    num_output: 512
    pad: 1
    kernel_size: 3
    weight_filler {
      type: "gaussian"
      std: 0.01
    }
    bias_filler {
      type: "constant"
      value: 0
    }
  }
}
layer {
  name: "relu4_3"
  type: "ReLU"
  bottom: "conv4_3"
  top: "conv4_3"
}
layer {
  name: "pool4"
  type: "Pooling"
  bottom: "conv4_3"
  top: "pool4"
  pooling_param {
    pool: MAX
    kernel_size: 2
    stride: 2
  }
}
layer {
  name: "conv5_1"
  type: "Convolution"
  bottom: "pool4"
  top: "conv5_1"
  param {
    lr_mult: 1
    decay_mult: 1
  }
  param {
    lr_mult: 2
    decay_mult: 0
  }
  convolution_param {
    num_output: 512
    pad: 1
    kernel_size: 3
    weight_filler {
      type: "gaussian"
      std: 0.01
    }
    bias_filler {
      type: "constant"
      value: 0
    }
  }
}
layer {
  name: "relu5_1"
  type: "ReLU"
  bottom: "conv5_1"
  top: "conv5_1"
}
layer {
  name: "conv5_2"
  type: "Convolution"
  bottom: "conv5_1"
  top: "conv5_2"
  param {
    lr_mult: 1
    decay_mult: 1
  }
  param {
    lr_mult: 2
    decay_mult: 0
  }
  convolution_param {
    num_output: 512
    pad: 1
    kernel_size: 3
    weight_filler {
      type: "gaussian"
      std: 0.01
    }
    bias_filler {
      type: "constant"
      value: 0
    }
  }
}
layer {
  name: "relu5_2"
  type: "ReLU"
  bottom: "conv5_2"
  top: "conv5_2"
}
layer {
  name: "conv5_3"
  type: "Convolution"
  bottom: "conv5_2"
  top: "conv5_3"
  param {
    lr_mult: 1
    decay_mult: 1
  }
  param {
    lr_mult: 2
    decay_mult: 0
  }
  convolution_param {
    num_output: 512
    pad: 1
    kernel_size: 3
    weight_filler {
      type: "gaussian"
      std: 0.01
    }
    bias_filler {
      type: "constant"
      value: 0
    }
  }
}
layer {
  name: "relu5_3"
  type: "ReLU"
  bottom: "conv5_3"
  top: "conv5_3"
}
layer {
  name: "pool5"
  type: "Pooling"
  bottom: "conv5_3"
  top: "pool5"
  pooling_param {
    pool: MAX
    kernel_size: 2
    stride: 2
  }
}
layer {
  name: "fc6"
  type: "InnerProduct"
  bottom: "pool5"
  top: "fc6"
  param {
    lr_mult: 1
    decay_mult: 1
  }
  param {
    lr_mult: 2
    decay_mult: 0
  }
  inner_product_param {
    num_output: 4096
    weight_filler {
      type: "gaussian"
      std: 0.005
    }
    bias_filler {
      type: "constant"
      value: 0.1
    }
  }
}
layer {
  name: "relu6"
  type: "ReLU"
  bottom: "fc6"
  top: "fc6"
}
layer {
  name: "drop6"
  type: "Dropout"
  bottom: "fc6"
  top: "fc6"
  dropout_param {
    dropout_ratio: 0.5
  }
}
layer {
  name: "fc7"
  type: "InnerProduct"
  bottom: "fc6"
  top: "fc7"
  param {
    lr_mult: 1
    decay_mult: 1
  }
  param {
    lr_mult: 2
    decay_mult: 0
  }
  inner_product_param {
    num_output: 4096
    weight_filler {
      type: "gaussian"
      std: 0.005
    }
    bias_filler {
      type: "constant"
      value: 0.1
    }
  }
}
layer {
  name: "relu7"
  type: "ReLU"
  bottom: "fc7"
  top: "fc7"
}
layer {
  name: "drop7"
  type: "Dropout"
  bottom: "fc7"
  top: "fc7"
  dropout_param {
    dropout_ratio: 0.5
  }
}
layer {
  name: "fc8_binary_f48"
  type: "InnerProduct"
  bottom: "fc7"
  top: "fc8_binary_f48"
  param {
    lr_mult: 10
    decay_mult: 1
  }
  param {
    lr_mult: 20
    decay_mult: 0
  }
  inner_product_param {
    num_output: 48
    weight_filler {
      type: "gaussian"
      std: 0.005
    }
    bias_filler {
      type: "constant"
      value: 0.1
    }
  }
}
layer {
  name: "loss_hashing"
  type: "HashingLoss"
  bottom: "fc8_binary_f48"
  bottom: "label"
  top: "loss_hashing"
  hashing_loss_param {
    bi_margin: 96
    tradeoff: 0.01
  }
}
I0816 10:53:07.803006 22298 layer_factory.hpp:77] Creating layer data
I0816 10:53:07.803668 22298 net.cpp:91] Creating Layer data
I0816 10:53:07.803722 22298 net.cpp:399] data -> data
I0816 10:53:07.803781 22298 net.cpp:399] data -> label
I0816 10:53:07.804736 22303 db_lmdb.cpp:38] Opened lmdb FASHION/fashion_train_lmdb/
I0816 10:53:07.821099 22298 data_layer.cpp:41] output data size: 10,3,224,224
I0816 10:53:07.833618 22298 net.cpp:141] Setting up data
I0816 10:53:07.833701 22298 net.cpp:148] Top shape: 10 3 224 224 (1505280)
I0816 10:53:07.833724 22298 net.cpp:148] Top shape: 10 1 1 1 (10)
I0816 10:53:07.833739 22298 net.cpp:156] Memory required for data: 6021160
I0816 10:53:07.833763 22298 layer_factory.hpp:77] Creating layer conv1_1
I0816 10:53:07.833822 22298 net.cpp:91] Creating Layer conv1_1
I0816 10:53:07.833851 22298 net.cpp:425] conv1_1 <- data
I0816 10:53:07.833884 22298 net.cpp:399] conv1_1 -> conv1_1
I0816 10:53:07.835623 22298 net.cpp:141] Setting up conv1_1
I0816 10:53:07.835655 22298 net.cpp:148] Top shape: 10 64 224 224 (32112640)
I0816 10:53:07.835678 22298 net.cpp:156] Memory required for data: 134471720
I0816 10:53:07.835712 22298 layer_factory.hpp:77] Creating layer relu1_1
I0816 10:53:07.835739 22298 net.cpp:91] Creating Layer relu1_1
I0816 10:53:07.835757 22298 net.cpp:425] relu1_1 <- conv1_1
I0816 10:53:07.835788 22298 net.cpp:386] relu1_1 -> conv1_1 (in-place)
I0816 10:53:07.835816 22298 net.cpp:141] Setting up relu1_1
I0816 10:53:07.835839 22298 net.cpp:148] Top shape: 10 64 224 224 (32112640)
I0816 10:53:07.835855 22298 net.cpp:156] Memory required for data: 262922280
I0816 10:53:07.835871 22298 layer_factory.hpp:77] Creating layer conv1_2
I0816 10:53:07.835898 22298 net.cpp:91] Creating Layer conv1_2
I0816 10:53:07.835929 22298 net.cpp:425] conv1_2 <- conv1_1
I0816 10:53:07.835952 22298 net.cpp:399] conv1_2 -> conv1_2
I0816 10:53:07.837916 22298 net.cpp:141] Setting up conv1_2
I0816 10:53:07.837949 22298 net.cpp:148] Top shape: 10 64 224 224 (32112640)
I0816 10:53:07.837967 22298 net.cpp:156] Memory required for data: 391372840
I0816 10:53:07.837990 22298 layer_factory.hpp:77] Creating layer relu1_2
I0816 10:53:07.838012 22298 net.cpp:91] Creating Layer relu1_2
I0816 10:53:07.838028 22298 net.cpp:425] relu1_2 <- conv1_2
I0816 10:53:07.838050 22298 net.cpp:386] relu1_2 -> conv1_2 (in-place)
I0816 10:53:07.838071 22298 net.cpp:141] Setting up relu1_2
I0816 10:53:07.838093 22298 net.cpp:148] Top shape: 10 64 224 224 (32112640)
I0816 10:53:07.838109 22298 net.cpp:156] Memory required for data: 519823400
I0816 10:53:07.838124 22298 layer_factory.hpp:77] Creating layer pool1
I0816 10:53:07.838142 22298 net.cpp:91] Creating Layer pool1
I0816 10:53:07.838203 22298 net.cpp:425] pool1 <- conv1_2
I0816 10:53:07.838227 22298 net.cpp:399] pool1 -> pool1
I0816 10:53:07.838313 22298 net.cpp:141] Setting up pool1
I0816 10:53:07.838341 22298 net.cpp:148] Top shape: 10 64 112 112 (8028160)
I0816 10:53:07.838357 22298 net.cpp:156] Memory required for data: 551936040
I0816 10:53:07.838372 22298 layer_factory.hpp:77] Creating layer conv2_1
I0816 10:53:07.838398 22298 net.cpp:91] Creating Layer conv2_1
I0816 10:53:07.838415 22298 net.cpp:425] conv2_1 <- pool1
I0816 10:53:07.838438 22298 net.cpp:399] conv2_1 -> conv2_1
I0816 10:53:07.842855 22298 net.cpp:141] Setting up conv2_1
I0816 10:53:07.842898 22298 net.cpp:148] Top shape: 10 128 112 112 (16056320)
I0816 10:53:07.842916 22298 net.cpp:156] Memory required for data: 616161320
I0816 10:53:07.842939 22298 layer_factory.hpp:77] Creating layer relu2_1
I0816 10:53:07.842962 22298 net.cpp:91] Creating Layer relu2_1
I0816 10:53:07.842979 22298 net.cpp:425] relu2_1 <- conv2_1
I0816 10:53:07.842996 22298 net.cpp:386] relu2_1 -> conv2_1 (in-place)
I0816 10:53:07.843019 22298 net.cpp:141] Setting up relu2_1
I0816 10:53:07.843039 22298 net.cpp:148] Top shape: 10 128 112 112 (16056320)
I0816 10:53:07.843055 22298 net.cpp:156] Memory required for data: 680386600
I0816 10:53:07.843070 22298 layer_factory.hpp:77] Creating layer conv2_2
I0816 10:53:07.843097 22298 net.cpp:91] Creating Layer conv2_2
I0816 10:53:07.843113 22298 net.cpp:425] conv2_2 <- conv2_1
I0816 10:53:07.843135 22298 net.cpp:399] conv2_2 -> conv2_2
I0816 10:53:07.849154 22298 net.cpp:141] Setting up conv2_2
I0816 10:53:07.849186 22298 net.cpp:148] Top shape: 10 128 112 112 (16056320)
I0816 10:53:07.849202 22298 net.cpp:156] Memory required for data: 744611880
I0816 10:53:07.849222 22298 layer_factory.hpp:77] Creating layer relu2_2
I0816 10:53:07.849241 22298 net.cpp:91] Creating Layer relu2_2
I0816 10:53:07.849256 22298 net.cpp:425] relu2_2 <- conv2_2
I0816 10:53:07.849279 22298 net.cpp:386] relu2_2 -> conv2_2 (in-place)
I0816 10:53:07.849300 22298 net.cpp:141] Setting up relu2_2
I0816 10:53:07.849321 22298 net.cpp:148] Top shape: 10 128 112 112 (16056320)
I0816 10:53:07.849336 22298 net.cpp:156] Memory required for data: 808837160
I0816 10:53:07.849354 22298 layer_factory.hpp:77] Creating layer pool2
I0816 10:53:07.849371 22298 net.cpp:91] Creating Layer pool2
I0816 10:53:07.849387 22298 net.cpp:425] pool2 <- conv2_2
I0816 10:53:07.849408 22298 net.cpp:399] pool2 -> pool2
I0816 10:53:07.849468 22298 net.cpp:141] Setting up pool2
I0816 10:53:07.849493 22298 net.cpp:148] Top shape: 10 128 56 56 (4014080)
I0816 10:53:07.849510 22298 net.cpp:156] Memory required for data: 824893480
I0816 10:53:07.849525 22298 layer_factory.hpp:77] Creating layer conv3_1
I0816 10:53:07.849550 22298 net.cpp:91] Creating Layer conv3_1
I0816 10:53:07.849577 22298 net.cpp:425] conv3_1 <- pool2
I0816 10:53:07.849599 22298 net.cpp:399] conv3_1 -> conv3_1
I0816 10:53:07.862081 22298 net.cpp:141] Setting up conv3_1
I0816 10:53:07.862133 22298 net.cpp:148] Top shape: 10 256 56 56 (8028160)
I0816 10:53:07.862150 22298 net.cpp:156] Memory required for data: 857006120
I0816 10:53:07.862175 22298 layer_factory.hpp:77] Creating layer relu3_1
I0816 10:53:07.862203 22298 net.cpp:91] Creating Layer relu3_1
I0816 10:53:07.862221 22298 net.cpp:425] relu3_1 <- conv3_1
I0816 10:53:07.862241 22298 net.cpp:386] relu3_1 -> conv3_1 (in-place)
I0816 10:53:07.862262 22298 net.cpp:141] Setting up relu3_1
I0816 10:53:07.862280 22298 net.cpp:148] Top shape: 10 256 56 56 (8028160)
I0816 10:53:07.862298 22298 net.cpp:156] Memory required for data: 889118760
I0816 10:53:07.862313 22298 layer_factory.hpp:77] Creating layer conv3_2
I0816 10:53:07.862339 22298 net.cpp:91] Creating Layer conv3_2
I0816 10:53:07.862356 22298 net.cpp:425] conv3_2 <- conv3_1
I0816 10:53:07.862380 22298 net.cpp:399] conv3_2 -> conv3_2
I0816 10:53:07.886831 22298 net.cpp:141] Setting up conv3_2
I0816 10:53:07.886862 22298 net.cpp:148] Top shape: 10 256 56 56 (8028160)
I0816 10:53:07.886881 22298 net.cpp:156] Memory required for data: 921231400
I0816 10:53:07.886943 22298 layer_factory.hpp:77] Creating layer relu3_2
I0816 10:53:07.886965 22298 net.cpp:91] Creating Layer relu3_2
I0816 10:53:07.886981 22298 net.cpp:425] relu3_2 <- conv3_2
I0816 10:53:07.886998 22298 net.cpp:386] relu3_2 -> conv3_2 (in-place)
I0816 10:53:07.887019 22298 net.cpp:141] Setting up relu3_2
I0816 10:53:07.887038 22298 net.cpp:148] Top shape: 10 256 56 56 (8028160)
I0816 10:53:07.887054 22298 net.cpp:156] Memory required for data: 953344040
I0816 10:53:07.887069 22298 layer_factory.hpp:77] Creating layer conv3_3
I0816 10:53:07.887099 22298 net.cpp:91] Creating Layer conv3_3
I0816 10:53:07.887122 22298 net.cpp:425] conv3_3 <- conv3_2
I0816 10:53:07.887141 22298 net.cpp:399] conv3_3 -> conv3_3
I0816 10:53:07.911528 22298 net.cpp:141] Setting up conv3_3
I0816 10:53:07.911571 22298 net.cpp:148] Top shape: 10 256 56 56 (8028160)
I0816 10:53:07.911587 22298 net.cpp:156] Memory required for data: 985456680
I0816 10:53:07.911609 22298 layer_factory.hpp:77] Creating layer relu3_3
I0816 10:53:07.911631 22298 net.cpp:91] Creating Layer relu3_3
I0816 10:53:07.911648 22298 net.cpp:425] relu3_3 <- conv3_3
I0816 10:53:07.911665 22298 net.cpp:386] relu3_3 -> conv3_3 (in-place)
I0816 10:53:07.911685 22298 net.cpp:141] Setting up relu3_3
I0816 10:53:07.911703 22298 net.cpp:148] Top shape: 10 256 56 56 (8028160)
I0816 10:53:07.911718 22298 net.cpp:156] Memory required for data: 1017569320
I0816 10:53:07.911734 22298 layer_factory.hpp:77] Creating layer pool3
I0816 10:53:07.911756 22298 net.cpp:91] Creating Layer pool3
I0816 10:53:07.911774 22298 net.cpp:425] pool3 <- conv3_3
I0816 10:53:07.911792 22298 net.cpp:399] pool3 -> pool3
I0816 10:53:07.911855 22298 net.cpp:141] Setting up pool3
I0816 10:53:07.911881 22298 net.cpp:148] Top shape: 10 256 28 28 (2007040)
I0816 10:53:07.911897 22298 net.cpp:156] Memory required for data: 1025597480
I0816 10:53:07.911913 22298 layer_factory.hpp:77] Creating layer conv4_1
I0816 10:53:07.911938 22298 net.cpp:91] Creating Layer conv4_1
I0816 10:53:07.911955 22298 net.cpp:425] conv4_1 <- pool3
I0816 10:53:07.911975 22298 net.cpp:399] conv4_1 -> conv4_1
I0816 10:53:07.961019 22298 net.cpp:141] Setting up conv4_1
I0816 10:53:07.961053 22298 net.cpp:148] Top shape: 10 512 28 28 (4014080)
I0816 10:53:07.961078 22298 net.cpp:156] Memory required for data: 1041653800
I0816 10:53:07.961098 22298 layer_factory.hpp:77] Creating layer relu4_1
I0816 10:53:07.961118 22298 net.cpp:91] Creating Layer relu4_1
I0816 10:53:07.961133 22298 net.cpp:425] relu4_1 <- conv4_1
I0816 10:53:07.961153 22298 net.cpp:386] relu4_1 -> conv4_1 (in-place)
I0816 10:53:07.961174 22298 net.cpp:141] Setting up relu4_1
I0816 10:53:07.961197 22298 net.cpp:148] Top shape: 10 512 28 28 (4014080)
I0816 10:53:07.961212 22298 net.cpp:156] Memory required for data: 1057710120
I0816 10:53:07.961227 22298 layer_factory.hpp:77] Creating layer conv4_2
I0816 10:53:07.961252 22298 net.cpp:91] Creating Layer conv4_2
I0816 10:53:07.961269 22298 net.cpp:425] conv4_2 <- conv4_1
I0816 10:53:07.961289 22298 net.cpp:399] conv4_2 -> conv4_2
I0816 10:53:08.054005 22298 net.cpp:141] Setting up conv4_2
I0816 10:53:08.054044 22298 net.cpp:148] Top shape: 10 512 28 28 (4014080)
I0816 10:53:08.054065 22298 net.cpp:156] Memory required for data: 1073766440
I0816 10:53:08.054090 22298 layer_factory.hpp:77] Creating layer relu4_2
I0816 10:53:08.054111 22298 net.cpp:91] Creating Layer relu4_2
I0816 10:53:08.054126 22298 net.cpp:425] relu4_2 <- conv4_2
I0816 10:53:08.054142 22298 net.cpp:386] relu4_2 -> conv4_2 (in-place)
I0816 10:53:08.054162 22298 net.cpp:141] Setting up relu4_2
I0816 10:53:08.054188 22298 net.cpp:148] Top shape: 10 512 28 28 (4014080)
I0816 10:53:08.054199 22298 net.cpp:156] Memory required for data: 1089822760
I0816 10:53:08.054214 22298 layer_factory.hpp:77] Creating layer conv4_3
I0816 10:53:08.054236 22298 net.cpp:91] Creating Layer conv4_3
I0816 10:53:08.054252 22298 net.cpp:425] conv4_3 <- conv4_2
I0816 10:53:08.054270 22298 net.cpp:399] conv4_3 -> conv4_3
I0816 10:53:08.139952 22298 net.cpp:141] Setting up conv4_3
I0816 10:53:08.140024 22298 net.cpp:148] Top shape: 10 512 28 28 (4014080)
I0816 10:53:08.140045 22298 net.cpp:156] Memory required for data: 1105879080
I0816 10:53:08.140064 22298 layer_factory.hpp:77] Creating layer relu4_3
I0816 10:53:08.140082 22298 net.cpp:91] Creating Layer relu4_3
I0816 10:53:08.140097 22298 net.cpp:425] relu4_3 <- conv4_3
I0816 10:53:08.140113 22298 net.cpp:386] relu4_3 -> conv4_3 (in-place)
I0816 10:53:08.140132 22298 net.cpp:141] Setting up relu4_3
I0816 10:53:08.140154 22298 net.cpp:148] Top shape: 10 512 28 28 (4014080)
I0816 10:53:08.140167 22298 net.cpp:156] Memory required for data: 1121935400
I0816 10:53:08.140180 22298 layer_factory.hpp:77] Creating layer pool4
I0816 10:53:08.140204 22298 net.cpp:91] Creating Layer pool4
I0816 10:53:08.140218 22298 net.cpp:425] pool4 <- conv4_3
I0816 10:53:08.140235 22298 net.cpp:399] pool4 -> pool4
I0816 10:53:08.140292 22298 net.cpp:141] Setting up pool4
I0816 10:53:08.140316 22298 net.cpp:148] Top shape: 10 512 14 14 (1003520)
I0816 10:53:08.140329 22298 net.cpp:156] Memory required for data: 1125949480
I0816 10:53:08.140343 22298 layer_factory.hpp:77] Creating layer conv5_1
I0816 10:53:08.140369 22298 net.cpp:91] Creating Layer conv5_1
I0816 10:53:08.140385 22298 net.cpp:425] conv5_1 <- pool4
I0816 10:53:08.140409 22298 net.cpp:399] conv5_1 -> conv5_1
I0816 10:53:08.225961 22298 net.cpp:141] Setting up conv5_1
I0816 10:53:08.226009 22298 net.cpp:148] Top shape: 10 512 14 14 (1003520)
I0816 10:53:08.226024 22298 net.cpp:156] Memory required for data: 1129963560
I0816 10:53:08.226045 22298 layer_factory.hpp:77] Creating layer relu5_1
I0816 10:53:08.226066 22298 net.cpp:91] Creating Layer relu5_1
I0816 10:53:08.226081 22298 net.cpp:425] relu5_1 <- conv5_1
I0816 10:53:08.226097 22298 net.cpp:386] relu5_1 -> conv5_1 (in-place)
I0816 10:53:08.226115 22298 net.cpp:141] Setting up relu5_1
I0816 10:53:08.226131 22298 net.cpp:148] Top shape: 10 512 14 14 (1003520)
I0816 10:53:08.226145 22298 net.cpp:156] Memory required for data: 1133977640
I0816 10:53:08.226157 22298 layer_factory.hpp:77] Creating layer conv5_2
I0816 10:53:08.226181 22298 net.cpp:91] Creating Layer conv5_2
I0816 10:53:08.226196 22298 net.cpp:425] conv5_2 <- conv5_1
I0816 10:53:08.226214 22298 net.cpp:399] conv5_2 -> conv5_2
I0816 10:53:08.311877 22298 net.cpp:141] Setting up conv5_2
I0816 10:53:08.311913 22298 net.cpp:148] Top shape: 10 512 14 14 (1003520)
I0816 10:53:08.311936 22298 net.cpp:156] Memory required for data: 1137991720
I0816 10:53:08.311954 22298 layer_factory.hpp:77] Creating layer relu5_2
I0816 10:53:08.311972 22298 net.cpp:91] Creating Layer relu5_2
I0816 10:53:08.311986 22298 net.cpp:425] relu5_2 <- conv5_2
I0816 10:53:08.312003 22298 net.cpp:386] relu5_2 -> conv5_2 (in-place)
I0816 10:53:08.312021 22298 net.cpp:141] Setting up relu5_2
I0816 10:53:08.312036 22298 net.cpp:148] Top shape: 10 512 14 14 (1003520)
I0816 10:53:08.312057 22298 net.cpp:156] Memory required for data: 1142005800
I0816 10:53:08.312069 22298 layer_factory.hpp:77] Creating layer conv5_3
I0816 10:53:08.312094 22298 net.cpp:91] Creating Layer conv5_3
I0816 10:53:08.312109 22298 net.cpp:425] conv5_3 <- conv5_2
I0816 10:53:08.312127 22298 net.cpp:399] conv5_3 -> conv5_3
I0816 10:53:08.397897 22298 net.cpp:141] Setting up conv5_3
I0816 10:53:08.397938 22298 net.cpp:148] Top shape: 10 512 14 14 (1003520)
I0816 10:53:08.397958 22298 net.cpp:156] Memory required for data: 1146019880
I0816 10:53:08.397977 22298 layer_factory.hpp:77] Creating layer relu5_3
I0816 10:53:08.397995 22298 net.cpp:91] Creating Layer relu5_3
I0816 10:53:08.398010 22298 net.cpp:425] relu5_3 <- conv5_3
I0816 10:53:08.398027 22298 net.cpp:386] relu5_3 -> conv5_3 (in-place)
I0816 10:53:08.398046 22298 net.cpp:141] Setting up relu5_3
I0816 10:53:08.398061 22298 net.cpp:148] Top shape: 10 512 14 14 (1003520)
I0816 10:53:08.398080 22298 net.cpp:156] Memory required for data: 1150033960
I0816 10:53:08.398093 22298 layer_factory.hpp:77] Creating layer pool5
I0816 10:53:08.398110 22298 net.cpp:91] Creating Layer pool5
I0816 10:53:08.398156 22298 net.cpp:425] pool5 <- conv5_3
I0816 10:53:08.398178 22298 net.cpp:399] pool5 -> pool5
I0816 10:53:08.398247 22298 net.cpp:141] Setting up pool5
I0816 10:53:08.398270 22298 net.cpp:148] Top shape: 10 512 7 7 (250880)
I0816 10:53:08.398284 22298 net.cpp:156] Memory required for data: 1151037480
I0816 10:53:08.398298 22298 layer_factory.hpp:77] Creating layer fc6
I0816 10:53:08.398337 22298 net.cpp:91] Creating Layer fc6
I0816 10:53:08.398355 22298 net.cpp:425] fc6 <- pool5
I0816 10:53:08.398373 22298 net.cpp:399] fc6 -> fc6
I0816 10:53:12.143237 22298 net.cpp:141] Setting up fc6
I0816 10:53:12.143318 22298 net.cpp:148] Top shape: 10 4096 (40960)
I0816 10:53:12.143334 22298 net.cpp:156] Memory required for data: 1151201320
I0816 10:53:12.143364 22298 layer_factory.hpp:77] Creating layer relu6
I0816 10:53:12.143396 22298 net.cpp:91] Creating Layer relu6
I0816 10:53:12.143419 22298 net.cpp:425] relu6 <- fc6
I0816 10:53:12.143442 22298 net.cpp:386] relu6 -> fc6 (in-place)
I0816 10:53:12.143467 22298 net.cpp:141] Setting up relu6
I0816 10:53:12.143486 22298 net.cpp:148] Top shape: 10 4096 (40960)
I0816 10:53:12.143507 22298 net.cpp:156] Memory required for data: 1151365160
I0816 10:53:12.143522 22298 layer_factory.hpp:77] Creating layer drop6
I0816 10:53:12.143553 22298 net.cpp:91] Creating Layer drop6
I0816 10:53:12.143568 22298 net.cpp:425] drop6 <- fc6
I0816 10:53:12.143585 22298 net.cpp:386] drop6 -> fc6 (in-place)
I0816 10:53:12.143646 22298 net.cpp:141] Setting up drop6
I0816 10:53:12.143668 22298 net.cpp:148] Top shape: 10 4096 (40960)
I0816 10:53:12.143684 22298 net.cpp:156] Memory required for data: 1151529000
I0816 10:53:12.143700 22298 layer_factory.hpp:77] Creating layer fc7
I0816 10:53:12.143724 22298 net.cpp:91] Creating Layer fc7
I0816 10:53:12.143740 22298 net.cpp:425] fc7 <- fc6
I0816 10:53:12.143761 22298 net.cpp:399] fc7 -> fc7
I0816 10:53:12.754890 22298 net.cpp:141] Setting up fc7
I0816 10:53:12.754961 22298 net.cpp:148] Top shape: 10 4096 (40960)
I0816 10:53:12.754976 22298 net.cpp:156] Memory required for data: 1151692840
I0816 10:53:12.755002 22298 layer_factory.hpp:77] Creating layer relu7
I0816 10:53:12.755028 22298 net.cpp:91] Creating Layer relu7
I0816 10:53:12.755045 22298 net.cpp:425] relu7 <- fc7
I0816 10:53:12.755075 22298 net.cpp:386] relu7 -> fc7 (in-place)
I0816 10:53:12.755102 22298 net.cpp:141] Setting up relu7
I0816 10:53:12.755120 22298 net.cpp:148] Top shape: 10 4096 (40960)
I0816 10:53:12.755141 22298 net.cpp:156] Memory required for data: 1151856680
I0816 10:53:12.755156 22298 layer_factory.hpp:77] Creating layer drop7
I0816 10:53:12.755179 22298 net.cpp:91] Creating Layer drop7
I0816 10:53:12.755195 22298 net.cpp:425] drop7 <- fc7
I0816 10:53:12.755211 22298 net.cpp:386] drop7 -> fc7 (in-place)
I0816 10:53:12.755257 22298 net.cpp:141] Setting up drop7
I0816 10:53:12.755280 22298 net.cpp:148] Top shape: 10 4096 (40960)
I0816 10:53:12.755295 22298 net.cpp:156] Memory required for data: 1152020520
I0816 10:53:12.755309 22298 layer_factory.hpp:77] Creating layer fc8_binary_f48
I0816 10:53:12.755331 22298 net.cpp:91] Creating Layer fc8_binary_f48
I0816 10:53:12.755345 22298 net.cpp:425] fc8_binary_f48 <- fc7
I0816 10:53:12.755365 22298 net.cpp:399] fc8_binary_f48 -> fc8_binary_f48
I0816 10:53:12.762917 22298 net.cpp:141] Setting up fc8_binary_f48
I0816 10:53:12.762948 22298 net.cpp:148] Top shape: 10 48 (480)
I0816 10:53:12.762967 22298 net.cpp:156] Memory required for data: 1152022440
I0816 10:53:12.762985 22298 layer_factory.hpp:77] Creating layer loss_hashing
I0816 10:53:12.763015 22298 net.cpp:91] Creating Layer loss_hashing
I0816 10:53:12.763032 22298 net.cpp:425] loss_hashing <- fc8_binary_f48
I0816 10:53:12.763054 22298 net.cpp:425] loss_hashing <- label
I0816 10:53:12.763080 22298 net.cpp:399] loss_hashing -> loss_hashing
…
