…
I0814 17:27:21.088857 17023 net.cpp:313] The NetState phase (0) differed from the phase (1) specified by a rule in layer data
I0814 17:27:21.089315 17023 net.cpp:49] Initializing net from parameters: 
name: "docomo_VGG16"
state {
  phase: TRAIN
}
layer {
  name: "data"
  type: "Data"
  top: "data"
  top: "label"
  include {
    phase: TRAIN
  }
  transform_param {
    mirror: true
    crop_size: 224
    mean_value: 103.939
    mean_value: 116.779
    mean_value: 123.68
  }
  data_param {
    source: "FASHION/fashion_train_lmdb/"
    batch_size: 10
    backend: LMDB
  }
}
layer {
  name: "conv1_1"
  type: "Convolution"
  bottom: "data"
  top: "conv1_1"
  param {
    lr_mult: 1
    decay_mult: 1
  }
  param {
    lr_mult: 2
    decay_mult: 0
  }
  convolution_param {
    num_output: 64
    pad: 1
    kernel_size: 3
    weight_filler {
      type: "gaussian"
      std: 0.01
    }
    bias_filler {
      type: "constant"
      value: 0
    }
  }
}
layer {
  name: "relu1_1"
  type: "ReLU"
  bottom: "conv1_1"
  top: "conv1_1"
}
layer {
  name: "conv1_2"
  type: "Convolution"
  bottom: "conv1_1"
  top: "conv1_2"
  param {
    lr_mult: 1
    decay_mult: 1
  }
  param {
    lr_mult: 2
    decay_mult: 0
  }
  convolution_param {
    num_output: 64
    pad: 1
    kernel_size: 3
    weight_filler {
      type: "gaussian"
      std: 0.01
    }
    bias_filler {
      type: "constant"
      value: 0
    }
  }
}
layer {
  name: "relu1_2"
  type: "ReLU"
  bottom: "conv1_2"
  top: "conv1_2"
}
layer {
  name: "pool1"
  type: "Pooling"
  bottom: "conv1_2"
  top: "pool1"
  pooling_param {
    pool: MAX
    kernel_size: 2
    stride: 2
  }
}
layer {
  name: "conv2_1"
  type: "Convolution"
  bottom: "pool1"
  top: "conv2_1"
  param {
    lr_mult: 1
    decay_mult: 1
  }
  param {
    lr_mult: 2
    decay_mult: 0
  }
  convolution_param {
    num_output: 128
    pad: 1
    kernel_size: 3
    weight_filler {
      type: "gaussian"
      std: 0.01
    }
    bias_filler {
      type: "constant"
      value: 0
    }
  }
}
layer {
  name: "relu2_1"
  type: "ReLU"
  bottom: "conv2_1"
  top: "conv2_1"
}
layer {
  name: "conv2_2"
  type: "Convolution"
  bottom: "conv2_1"
  top: "conv2_2"
  param {
    lr_mult: 1
    decay_mult: 1
  }
  param {
    lr_mult: 2
    decay_mult: 0
  }
  convolution_param {
    num_output: 128
    pad: 1
    kernel_size: 3
    weight_filler {
      type: "gaussian"
      std: 0.01
    }
    bias_filler {
      type: "constant"
      value: 0
    }
  }
}
layer {
  name: "relu2_2"
  type: "ReLU"
  bottom: "conv2_2"
  top: "conv2_2"
}
layer {
  name: "pool2"
  type: "Pooling"
  bottom: "conv2_2"
  top: "pool2"
  pooling_param {
    pool: MAX
    kernel_size: 2
    stride: 2
  }
}
layer {
  name: "conv3_1"
  type: "Convolution"
  bottom: "pool2"
  top: "conv3_1"
  param {
    lr_mult: 1
    decay_mult: 1
  }
  param {
    lr_mult: 2
    decay_mult: 0
  }
  convolution_param {
    num_output: 256
    pad: 1
    kernel_size: 3
    weight_filler {
      type: "gaussian"
      std: 0.01
    }
    bias_filler {
      type: "constant"
      value: 0
    }
  }
}
layer {
  name: "relu3_1"
  type: "ReLU"
  bottom: "conv3_1"
  top: "conv3_1"
}
layer {
  name: "conv3_2"
  type: "Convolution"
  bottom: "conv3_1"
  top: "conv3_2"
  param {
    lr_mult: 1
    decay_mult: 1
  }
  param {
    lr_mult: 2
    decay_mult: 0
  }
  convolution_param {
    num_output: 256
    pad: 1
    kernel_size: 3
    weight_filler {
      type: "gaussian"
      std: 0.01
    }
    bias_filler {
      type: "constant"
      value: 0
    }
  }
}
layer {
  name: "relu3_2"
  type: "ReLU"
  bottom: "conv3_2"
  top: "conv3_2"
}
layer {
  name: "conv3_3"
  type: "Convolution"
  bottom: "conv3_2"
  top: "conv3_3"
  param {
    lr_mult: 1
    decay_mult: 1
  }
  param {
    lr_mult: 2
    decay_mult: 0
  }
  convolution_param {
    num_output: 256
    pad: 1
    kernel_size: 3
    weight_filler {
      type: "gaussian"
      std: 0.01
    }
    bias_filler {
      type: "constant"
      value: 0
    }
  }
}
layer {
  name: "relu3_3"
  type: "ReLU"
  bottom: "conv3_3"
  top: "conv3_3"
}
layer {
  name: "pool3"
  type: "Pooling"
  bottom: "conv3_3"
  top: "pool3"
  pooling_param {
    pool: MAX
    kernel_size: 2
    stride: 2
  }
}
layer {
  name: "conv4_1"
  type: "Convolution"
  bottom: "pool3"
  top: "conv4_1"
  param {
    lr_mult: 1
    decay_mult: 1
  }
  param {
    lr_mult: 2
    decay_mult: 0
  }
  convolution_param {
    num_output: 512
    pad: 1
    kernel_size: 3
    weight_filler {
      type: "gaussian"
      std: 0.01
    }
    bias_filler {
      type: "constant"
      value: 0
    }
  }
}
layer {
  name: "relu4_1"
  type: "ReLU"
  bottom: "conv4_1"
  top: "conv4_1"
}
layer {
  name: "conv4_2"
  type: "Convolution"
  bottom: "conv4_1"
  top: "conv4_2"
  param {
    lr_mult: 1
    decay_mult: 1
  }
  param {
    lr_mult: 2
    decay_mult: 0
  }
  convolution_param {
    num_output: 512
    pad: 1
    kernel_size: 3
    weight_filler {
      type: "gaussian"
      std: 0.01
    }
    bias_filler {
      type: "constant"
      value: 0
    }
  }
}
layer {
  name: "relu4_2"
  type: "ReLU"
  bottom: "conv4_2"
  top: "conv4_2"
}
layer {
  name: "conv4_3"
  type: "Convolution"
  bottom: "conv4_2"
  top: "conv4_3"
  param {
    lr_mult: 1
    decay_mult: 1
  }
  param {
    lr_mult: 2
    decay_mult: 0
  }
  convolution_param {
    num_output: 512
    pad: 1
    kernel_size: 3
    weight_filler {
      type: "gaussian"
      std: 0.01
    }
    bias_filler {
      type: "constant"
      value: 0
    }
  }
}
layer {
  name: "relu4_3"
  type: "ReLU"
  bottom: "conv4_3"
  top: "conv4_3"
}
layer {
  name: "pool4"
  type: "Pooling"
  bottom: "conv4_3"
  top: "pool4"
  pooling_param {
    pool: MAX
    kernel_size: 2
    stride: 2
  }
}
layer {
  name: "conv5_1"
  type: "Convolution"
  bottom: "pool4"
  top: "conv5_1"
  param {
    lr_mult: 1
    decay_mult: 1
  }
  param {
    lr_mult: 2
    decay_mult: 0
  }
  convolution_param {
    num_output: 512
    pad: 1
    kernel_size: 3
    weight_filler {
      type: "gaussian"
      std: 0.01
    }
    bias_filler {
      type: "constant"
      value: 0
    }
  }
}
layer {
  name: "relu5_1"
  type: "ReLU"
  bottom: "conv5_1"
  top: "conv5_1"
}
layer {
  name: "conv5_2"
  type: "Convolution"
  bottom: "conv5_1"
  top: "conv5_2"
  param {
    lr_mult: 1
    decay_mult: 1
  }
  param {
    lr_mult: 2
    decay_mult: 0
  }
  convolution_param {
    num_output: 512
    pad: 1
    kernel_size: 3
    weight_filler {
      type: "gaussian"
      std: 0.01
    }
    bias_filler {
      type: "constant"
      value: 0
    }
  }
}
layer {
  name: "relu5_2"
  type: "ReLU"
  bottom: "conv5_2"
  top: "conv5_2"
}
layer {
  name: "conv5_3"
  type: "Convolution"
  bottom: "conv5_2"
  top: "conv5_3"
  param {
    lr_mult: 1
    decay_mult: 1
  }
  param {
    lr_mult: 2
    decay_mult: 0
  }
  convolution_param {
    num_output: 512
    pad: 1
    kernel_size: 3
    weight_filler {
      type: "gaussian"
      std: 0.01
    }
    bias_filler {
      type: "constant"
      value: 0
    }
  }
}
layer {
  name: "relu5_3"
  type: "ReLU"
  bottom: "conv5_3"
  top: "conv5_3"
}
layer {
  name: "pool5"
  type: "Pooling"
  bottom: "conv5_3"
  top: "pool5"
  pooling_param {
    pool: MAX
    kernel_size: 2
    stride: 2
  }
}
layer {
  name: "fc6"
  type: "InnerProduct"
  bottom: "pool5"
  top: "fc6"
  param {
    lr_mult: 1
    decay_mult: 1
  }
  param {
    lr_mult: 2
    decay_mult: 0
  }
  inner_product_param {
    num_output: 4096
    weight_filler {
      type: "gaussian"
      std: 0.005
    }
    bias_filler {
      type: "constant"
      value: 0.1
    }
  }
}
layer {
  name: "relu6"
  type: "ReLU"
  bottom: "fc6"
  top: "fc6"
}
layer {
  name: "drop6"
  type: "Dropout"
  bottom: "fc6"
  top: "fc6"
  dropout_param {
    dropout_ratio: 0.5
  }
}
layer {
  name: "fc7"
  type: "InnerProduct"
  bottom: "fc6"
  top: "fc7"
  param {
    lr_mult: 1
    decay_mult: 1
  }
  param {
    lr_mult: 2
    decay_mult: 0
  }
  inner_product_param {
    num_output: 4096
    weight_filler {
      type: "gaussian"
      std: 0.005
    }
    bias_filler {
      type: "constant"
      value: 0.1
    }
  }
}
layer {
  name: "relu7"
  type: "ReLU"
  bottom: "fc7"
  top: "fc7"
}
layer {
  name: "drop7"
  type: "Dropout"
  bottom: "fc7"
  top: "fc7"
  dropout_param {
    dropout_ratio: 0.5
  }
}
layer {
  name: "fc8_binary_f24"
  type: "InnerProduct"
  bottom: "fc7"
  top: "fc8_binary_f24"
  param {
    lr_mult: 10
    decay_mult: 1
  }
  param {
    lr_mult: 20
    decay_mult: 0
  }
  inner_product_param {
    num_output: 24
    weight_filler {
      type: "gaussian"
      std: 0.005
    }
    bias_filler {
      type: "constant"
      value: 0.1
    }
  }
}
layer {
  name: "loss_hashing"
  type: "HashingLoss"
  bottom: "fc8_binary_f24"
  bottom: "label"
  top: "loss_hashing"
  hashing_loss_param {
    bi_margin: 48
    tradeoff: 0.01
  }
}
I0814 17:27:21.091766 17023 layer_factory.hpp:77] Creating layer data
I0814 17:27:21.092448 17023 net.cpp:91] Creating Layer data
I0814 17:27:21.092566 17023 net.cpp:399] data -> data
I0814 17:27:21.092691 17023 net.cpp:399] data -> label
I0814 17:27:21.093677 17029 db_lmdb.cpp:38] Opened lmdb FASHION/fashion_train_lmdb/
I0814 17:27:21.109802 17023 data_layer.cpp:41] output data size: 10,3,224,224
I0814 17:27:21.122686 17023 net.cpp:141] Setting up data
I0814 17:27:21.122764 17023 net.cpp:148] Top shape: 10 3 224 224 (1505280)
I0814 17:27:21.122786 17023 net.cpp:148] Top shape: 10 1 1 1 (10)
I0814 17:27:21.122802 17023 net.cpp:156] Memory required for data: 6021160
I0814 17:27:21.122825 17023 layer_factory.hpp:77] Creating layer conv1_1
I0814 17:27:21.122874 17023 net.cpp:91] Creating Layer conv1_1
I0814 17:27:21.122902 17023 net.cpp:425] conv1_1 <- data
I0814 17:27:21.122934 17023 net.cpp:399] conv1_1 -> conv1_1
I0814 17:27:21.124771 17023 net.cpp:141] Setting up conv1_1
I0814 17:27:21.124804 17023 net.cpp:148] Top shape: 10 64 224 224 (32112640)
I0814 17:27:21.124820 17023 net.cpp:156] Memory required for data: 134471720
I0814 17:27:21.124855 17023 layer_factory.hpp:77] Creating layer relu1_1
I0814 17:27:21.124883 17023 net.cpp:91] Creating Layer relu1_1
I0814 17:27:21.124902 17023 net.cpp:425] relu1_1 <- conv1_1
I0814 17:27:21.124919 17023 net.cpp:386] relu1_1 -> conv1_1 (in-place)
I0814 17:27:21.124943 17023 net.cpp:141] Setting up relu1_1
I0814 17:27:21.124965 17023 net.cpp:148] Top shape: 10 64 224 224 (32112640)
I0814 17:27:21.124980 17023 net.cpp:156] Memory required for data: 262922280
I0814 17:27:21.124994 17023 layer_factory.hpp:77] Creating layer conv1_2
I0814 17:27:21.125020 17023 net.cpp:91] Creating Layer conv1_2
I0814 17:27:21.125036 17023 net.cpp:425] conv1_2 <- conv1_1
I0814 17:27:21.125057 17023 net.cpp:399] conv1_2 -> conv1_2
I0814 17:27:21.127018 17023 net.cpp:141] Setting up conv1_2
I0814 17:27:21.127049 17023 net.cpp:148] Top shape: 10 64 224 224 (32112640)
I0814 17:27:21.127065 17023 net.cpp:156] Memory required for data: 391372840
I0814 17:27:21.127089 17023 layer_factory.hpp:77] Creating layer relu1_2
I0814 17:27:21.127109 17023 net.cpp:91] Creating Layer relu1_2
I0814 17:27:21.127123 17023 net.cpp:425] relu1_2 <- conv1_2
I0814 17:27:21.127146 17023 net.cpp:386] relu1_2 -> conv1_2 (in-place)
I0814 17:27:21.127166 17023 net.cpp:141] Setting up relu1_2
I0814 17:27:21.127182 17023 net.cpp:148] Top shape: 10 64 224 224 (32112640)
I0814 17:27:21.127195 17023 net.cpp:156] Memory required for data: 519823400
I0814 17:27:21.127209 17023 layer_factory.hpp:77] Creating layer pool1
I0814 17:27:21.127228 17023 net.cpp:91] Creating Layer pool1
I0814 17:27:21.127269 17023 net.cpp:425] pool1 <- conv1_2
I0814 17:27:21.127292 17023 net.cpp:399] pool1 -> pool1
I0814 17:27:21.127382 17023 net.cpp:141] Setting up pool1
I0814 17:27:21.127410 17023 net.cpp:148] Top shape: 10 64 112 112 (8028160)
I0814 17:27:21.127429 17023 net.cpp:156] Memory required for data: 551936040
I0814 17:27:21.127444 17023 layer_factory.hpp:77] Creating layer conv2_1
I0814 17:27:21.127465 17023 net.cpp:91] Creating Layer conv2_1
I0814 17:27:21.127480 17023 net.cpp:425] conv2_1 <- pool1
I0814 17:27:21.127501 17023 net.cpp:399] conv2_1 -> conv2_1
I0814 17:27:21.131914 17023 net.cpp:141] Setting up conv2_1
I0814 17:27:21.131953 17023 net.cpp:148] Top shape: 10 128 112 112 (16056320)
I0814 17:27:21.131968 17023 net.cpp:156] Memory required for data: 616161320
I0814 17:27:21.131991 17023 layer_factory.hpp:77] Creating layer relu2_1
I0814 17:27:21.132010 17023 net.cpp:91] Creating Layer relu2_1
I0814 17:27:21.132025 17023 net.cpp:425] relu2_1 <- conv2_1
I0814 17:27:21.132041 17023 net.cpp:386] relu2_1 -> conv2_1 (in-place)
I0814 17:27:21.132061 17023 net.cpp:141] Setting up relu2_1
I0814 17:27:21.132077 17023 net.cpp:148] Top shape: 10 128 112 112 (16056320)
I0814 17:27:21.132091 17023 net.cpp:156] Memory required for data: 680386600
I0814 17:27:21.132105 17023 layer_factory.hpp:77] Creating layer conv2_2
I0814 17:27:21.132131 17023 net.cpp:91] Creating Layer conv2_2
I0814 17:27:21.132151 17023 net.cpp:425] conv2_2 <- conv2_1
I0814 17:27:21.132174 17023 net.cpp:399] conv2_2 -> conv2_2
I0814 17:27:21.137984 17023 net.cpp:141] Setting up conv2_2
I0814 17:27:21.138013 17023 net.cpp:148] Top shape: 10 128 112 112 (16056320)
I0814 17:27:21.138041 17023 net.cpp:156] Memory required for data: 744611880
I0814 17:27:21.138061 17023 layer_factory.hpp:77] Creating layer relu2_2
I0814 17:27:21.138078 17023 net.cpp:91] Creating Layer relu2_2
I0814 17:27:21.138093 17023 net.cpp:425] relu2_2 <- conv2_2
I0814 17:27:21.138115 17023 net.cpp:386] relu2_2 -> conv2_2 (in-place)
I0814 17:27:21.138135 17023 net.cpp:141] Setting up relu2_2
I0814 17:27:21.138151 17023 net.cpp:148] Top shape: 10 128 112 112 (16056320)
I0814 17:27:21.138165 17023 net.cpp:156] Memory required for data: 808837160
I0814 17:27:21.138180 17023 layer_factory.hpp:77] Creating layer pool2
I0814 17:27:21.138197 17023 net.cpp:91] Creating Layer pool2
I0814 17:27:21.138211 17023 net.cpp:425] pool2 <- conv2_2
I0814 17:27:21.138231 17023 net.cpp:399] pool2 -> pool2
I0814 17:27:21.138291 17023 net.cpp:141] Setting up pool2
I0814 17:27:21.138314 17023 net.cpp:148] Top shape: 10 128 56 56 (4014080)
I0814 17:27:21.138327 17023 net.cpp:156] Memory required for data: 824893480
I0814 17:27:21.138341 17023 layer_factory.hpp:77] Creating layer conv3_1
I0814 17:27:21.138365 17023 net.cpp:91] Creating Layer conv3_1
I0814 17:27:21.138381 17023 net.cpp:425] conv3_1 <- pool2
I0814 17:27:21.138402 17023 net.cpp:399] conv3_1 -> conv3_1
I0814 17:27:21.150485 17023 net.cpp:141] Setting up conv3_1
I0814 17:27:21.150532 17023 net.cpp:148] Top shape: 10 256 56 56 (8028160)
I0814 17:27:21.150547 17023 net.cpp:156] Memory required for data: 857006120
I0814 17:27:21.150574 17023 layer_factory.hpp:77] Creating layer relu3_1
I0814 17:27:21.150594 17023 net.cpp:91] Creating Layer relu3_1
I0814 17:27:21.150609 17023 net.cpp:425] relu3_1 <- conv3_1
I0814 17:27:21.150626 17023 net.cpp:386] relu3_1 -> conv3_1 (in-place)
I0814 17:27:21.150645 17023 net.cpp:141] Setting up relu3_1
I0814 17:27:21.150661 17023 net.cpp:148] Top shape: 10 256 56 56 (8028160)
I0814 17:27:21.150676 17023 net.cpp:156] Memory required for data: 889118760
I0814 17:27:21.150688 17023 layer_factory.hpp:77] Creating layer conv3_2
I0814 17:27:21.150713 17023 net.cpp:91] Creating Layer conv3_2
I0814 17:27:21.150730 17023 net.cpp:425] conv3_2 <- conv3_1
I0814 17:27:21.150751 17023 net.cpp:399] conv3_2 -> conv3_2
I0814 17:27:21.173444 17023 net.cpp:141] Setting up conv3_2
I0814 17:27:21.173491 17023 net.cpp:148] Top shape: 10 256 56 56 (8028160)
I0814 17:27:21.173506 17023 net.cpp:156] Memory required for data: 921231400
I0814 17:27:21.173553 17023 layer_factory.hpp:77] Creating layer relu3_2
I0814 17:27:21.173574 17023 net.cpp:91] Creating Layer relu3_2
I0814 17:27:21.173589 17023 net.cpp:425] relu3_2 <- conv3_2
I0814 17:27:21.173609 17023 net.cpp:386] relu3_2 -> conv3_2 (in-place)
I0814 17:27:21.173633 17023 net.cpp:141] Setting up relu3_2
I0814 17:27:21.173650 17023 net.cpp:148] Top shape: 10 256 56 56 (8028160)
I0814 17:27:21.173665 17023 net.cpp:156] Memory required for data: 953344040
I0814 17:27:21.173678 17023 layer_factory.hpp:77] Creating layer conv3_3
I0814 17:27:21.173704 17023 net.cpp:91] Creating Layer conv3_3
I0814 17:27:21.173720 17023 net.cpp:425] conv3_3 <- conv3_2
I0814 17:27:21.173738 17023 net.cpp:399] conv3_3 -> conv3_3
I0814 17:27:21.196475 17023 net.cpp:141] Setting up conv3_3
I0814 17:27:21.196519 17023 net.cpp:148] Top shape: 10 256 56 56 (8028160)
I0814 17:27:21.196535 17023 net.cpp:156] Memory required for data: 985456680
I0814 17:27:21.196554 17023 layer_factory.hpp:77] Creating layer relu3_3
I0814 17:27:21.196575 17023 net.cpp:91] Creating Layer relu3_3
I0814 17:27:21.196591 17023 net.cpp:425] relu3_3 <- conv3_3
I0814 17:27:21.196615 17023 net.cpp:386] relu3_3 -> conv3_3 (in-place)
I0814 17:27:21.196635 17023 net.cpp:141] Setting up relu3_3
I0814 17:27:21.196651 17023 net.cpp:148] Top shape: 10 256 56 56 (8028160)
I0814 17:27:21.196666 17023 net.cpp:156] Memory required for data: 1017569320
I0814 17:27:21.196679 17023 layer_factory.hpp:77] Creating layer pool3
I0814 17:27:21.196702 17023 net.cpp:91] Creating Layer pool3
I0814 17:27:21.196717 17023 net.cpp:425] pool3 <- conv3_3
I0814 17:27:21.196734 17023 net.cpp:399] pool3 -> pool3
I0814 17:27:21.196794 17023 net.cpp:141] Setting up pool3
I0814 17:27:21.196817 17023 net.cpp:148] Top shape: 10 256 28 28 (2007040)
I0814 17:27:21.196831 17023 net.cpp:156] Memory required for data: 1025597480
I0814 17:27:21.196846 17023 layer_factory.hpp:77] Creating layer conv4_1
I0814 17:27:21.196877 17023 net.cpp:91] Creating Layer conv4_1
I0814 17:27:21.196895 17023 net.cpp:425] conv4_1 <- pool3
I0814 17:27:21.196918 17023 net.cpp:399] conv4_1 -> conv4_1
I0814 17:27:21.242574 17023 net.cpp:141] Setting up conv4_1
I0814 17:27:21.242635 17023 net.cpp:148] Top shape: 10 512 28 28 (4014080)
I0814 17:27:21.242651 17023 net.cpp:156] Memory required for data: 1041653800
I0814 17:27:21.242672 17023 layer_factory.hpp:77] Creating layer relu4_1
I0814 17:27:21.242697 17023 net.cpp:91] Creating Layer relu4_1
I0814 17:27:21.242714 17023 net.cpp:425] relu4_1 <- conv4_1
I0814 17:27:21.242733 17023 net.cpp:386] relu4_1 -> conv4_1 (in-place)
I0814 17:27:21.242753 17023 net.cpp:141] Setting up relu4_1
I0814 17:27:21.242769 17023 net.cpp:148] Top shape: 10 512 28 28 (4014080)
I0814 17:27:21.242784 17023 net.cpp:156] Memory required for data: 1057710120
I0814 17:27:21.242797 17023 layer_factory.hpp:77] Creating layer conv4_2
I0814 17:27:21.242825 17023 net.cpp:91] Creating Layer conv4_2
I0814 17:27:21.242841 17023 net.cpp:425] conv4_2 <- conv4_1
I0814 17:27:21.242858 17023 net.cpp:399] conv4_2 -> conv4_2
I0814 17:27:21.332810 17023 net.cpp:141] Setting up conv4_2
I0814 17:27:21.332866 17023 net.cpp:148] Top shape: 10 512 28 28 (4014080)
I0814 17:27:21.332883 17023 net.cpp:156] Memory required for data: 1073766440
I0814 17:27:21.332918 17023 layer_factory.hpp:77] Creating layer relu4_2
I0814 17:27:21.332943 17023 net.cpp:91] Creating Layer relu4_2
I0814 17:27:21.332960 17023 net.cpp:425] relu4_2 <- conv4_2
I0814 17:27:21.332978 17023 net.cpp:386] relu4_2 -> conv4_2 (in-place)
I0814 17:27:21.333000 17023 net.cpp:141] Setting up relu4_2
I0814 17:27:21.333017 17023 net.cpp:148] Top shape: 10 512 28 28 (4014080)
I0814 17:27:21.333031 17023 net.cpp:156] Memory required for data: 1089822760
I0814 17:27:21.333045 17023 layer_factory.hpp:77] Creating layer conv4_3
I0814 17:27:21.333073 17023 net.cpp:91] Creating Layer conv4_3
I0814 17:27:21.333089 17023 net.cpp:425] conv4_3 <- conv4_2
I0814 17:27:21.333111 17023 net.cpp:399] conv4_3 -> conv4_3
I0814 17:27:21.422793 17023 net.cpp:141] Setting up conv4_3
I0814 17:27:21.422881 17023 net.cpp:148] Top shape: 10 512 28 28 (4014080)
I0814 17:27:21.422899 17023 net.cpp:156] Memory required for data: 1105879080
I0814 17:27:21.422921 17023 layer_factory.hpp:77] Creating layer relu4_3
I0814 17:27:21.422945 17023 net.cpp:91] Creating Layer relu4_3
I0814 17:27:21.422962 17023 net.cpp:425] relu4_3 <- conv4_3
I0814 17:27:21.422983 17023 net.cpp:386] relu4_3 -> conv4_3 (in-place)
I0814 17:27:21.423007 17023 net.cpp:141] Setting up relu4_3
I0814 17:27:21.423023 17023 net.cpp:148] Top shape: 10 512 28 28 (4014080)
I0814 17:27:21.423038 17023 net.cpp:156] Memory required for data: 1121935400
I0814 17:27:21.423051 17023 layer_factory.hpp:77] Creating layer pool4
I0814 17:27:21.423070 17023 net.cpp:91] Creating Layer pool4
I0814 17:27:21.423085 17023 net.cpp:425] pool4 <- conv4_3
I0814 17:27:21.423105 17023 net.cpp:399] pool4 -> pool4
I0814 17:27:21.423163 17023 net.cpp:141] Setting up pool4
I0814 17:27:21.423187 17023 net.cpp:148] Top shape: 10 512 14 14 (1003520)
I0814 17:27:21.423200 17023 net.cpp:156] Memory required for data: 1125949480
I0814 17:27:21.423215 17023 layer_factory.hpp:77] Creating layer conv5_1
I0814 17:27:21.423249 17023 net.cpp:91] Creating Layer conv5_1
I0814 17:27:21.423269 17023 net.cpp:425] conv5_1 <- pool4
I0814 17:27:21.423290 17023 net.cpp:399] conv5_1 -> conv5_1
I0814 17:27:21.513186 17023 net.cpp:141] Setting up conv5_1
I0814 17:27:21.513254 17023 net.cpp:148] Top shape: 10 512 14 14 (1003520)
I0814 17:27:21.513272 17023 net.cpp:156] Memory required for data: 1129963560
I0814 17:27:21.513293 17023 layer_factory.hpp:77] Creating layer relu5_1
I0814 17:27:21.513319 17023 net.cpp:91] Creating Layer relu5_1
I0814 17:27:21.513337 17023 net.cpp:425] relu5_1 <- conv5_1
I0814 17:27:21.513356 17023 net.cpp:386] relu5_1 -> conv5_1 (in-place)
I0814 17:27:21.513378 17023 net.cpp:141] Setting up relu5_1
I0814 17:27:21.513396 17023 net.cpp:148] Top shape: 10 512 14 14 (1003520)
I0814 17:27:21.513411 17023 net.cpp:156] Memory required for data: 1133977640
I0814 17:27:21.513424 17023 layer_factory.hpp:77] Creating layer conv5_2
I0814 17:27:21.513451 17023 net.cpp:91] Creating Layer conv5_2
I0814 17:27:21.513470 17023 net.cpp:425] conv5_2 <- conv5_1
I0814 17:27:21.513492 17023 net.cpp:399] conv5_2 -> conv5_2
I0814 17:27:21.603746 17023 net.cpp:141] Setting up conv5_2
I0814 17:27:21.603813 17023 net.cpp:148] Top shape: 10 512 14 14 (1003520)
I0814 17:27:21.603829 17023 net.cpp:156] Memory required for data: 1137991720
I0814 17:27:21.603852 17023 layer_factory.hpp:77] Creating layer relu5_2
I0814 17:27:21.603876 17023 net.cpp:91] Creating Layer relu5_2
I0814 17:27:21.603893 17023 net.cpp:425] relu5_2 <- conv5_2
I0814 17:27:21.603915 17023 net.cpp:386] relu5_2 -> conv5_2 (in-place)
I0814 17:27:21.603938 17023 net.cpp:141] Setting up relu5_2
I0814 17:27:21.603956 17023 net.cpp:148] Top shape: 10 512 14 14 (1003520)
I0814 17:27:21.603971 17023 net.cpp:156] Memory required for data: 1142005800
I0814 17:27:21.603984 17023 layer_factory.hpp:77] Creating layer conv5_3
I0814 17:27:21.604012 17023 net.cpp:91] Creating Layer conv5_3
I0814 17:27:21.604030 17023 net.cpp:425] conv5_3 <- conv5_2
I0814 17:27:21.604049 17023 net.cpp:399] conv5_3 -> conv5_3
I0814 17:27:21.694438 17023 net.cpp:141] Setting up conv5_3
I0814 17:27:21.694510 17023 net.cpp:148] Top shape: 10 512 14 14 (1003520)
I0814 17:27:21.694526 17023 net.cpp:156] Memory required for data: 1146019880
I0814 17:27:21.694548 17023 layer_factory.hpp:77] Creating layer relu5_3
I0814 17:27:21.694572 17023 net.cpp:91] Creating Layer relu5_3
I0814 17:27:21.694589 17023 net.cpp:425] relu5_3 <- conv5_3
I0814 17:27:21.694607 17023 net.cpp:386] relu5_3 -> conv5_3 (in-place)
I0814 17:27:21.694630 17023 net.cpp:141] Setting up relu5_3
I0814 17:27:21.694646 17023 net.cpp:148] Top shape: 10 512 14 14 (1003520)
I0814 17:27:21.694660 17023 net.cpp:156] Memory required for data: 1150033960
I0814 17:27:21.694674 17023 layer_factory.hpp:77] Creating layer pool5
I0814 17:27:21.694696 17023 net.cpp:91] Creating Layer pool5
I0814 17:27:21.694736 17023 net.cpp:425] pool5 <- conv5_3
I0814 17:27:21.694756 17023 net.cpp:399] pool5 -> pool5
I0814 17:27:21.694828 17023 net.cpp:141] Setting up pool5
I0814 17:27:21.694851 17023 net.cpp:148] Top shape: 10 512 7 7 (250880)
I0814 17:27:21.694866 17023 net.cpp:156] Memory required for data: 1151037480
I0814 17:27:21.694880 17023 layer_factory.hpp:77] Creating layer fc6
I0814 17:27:21.694916 17023 net.cpp:91] Creating Layer fc6
I0814 17:27:21.694936 17023 net.cpp:425] fc6 <- pool5
I0814 17:27:21.694954 17023 net.cpp:399] fc6 -> fc6
I0814 17:27:25.623199 17023 net.cpp:141] Setting up fc6
I0814 17:27:25.623293 17023 net.cpp:148] Top shape: 10 4096 (40960)
I0814 17:27:25.623311 17023 net.cpp:156] Memory required for data: 1151201320
I0814 17:27:25.623353 17023 layer_factory.hpp:77] Creating layer relu6
I0814 17:27:25.623391 17023 net.cpp:91] Creating Layer relu6
I0814 17:27:25.623425 17023 net.cpp:425] relu6 <- fc6
I0814 17:27:25.623453 17023 net.cpp:386] relu6 -> fc6 (in-place)
I0814 17:27:25.623482 17023 net.cpp:141] Setting up relu6
I0814 17:27:25.623500 17023 net.cpp:148] Top shape: 10 4096 (40960)
I0814 17:27:25.623517 17023 net.cpp:156] Memory required for data: 1151365160
I0814 17:27:25.623533 17023 layer_factory.hpp:77] Creating layer drop6
I0814 17:27:25.623561 17023 net.cpp:91] Creating Layer drop6
I0814 17:27:25.623579 17023 net.cpp:425] drop6 <- fc6
I0814 17:27:25.623597 17023 net.cpp:386] drop6 -> fc6 (in-place)
I0814 17:27:25.623668 17023 net.cpp:141] Setting up drop6
I0814 17:27:25.623692 17023 net.cpp:148] Top shape: 10 4096 (40960)
I0814 17:27:25.623708 17023 net.cpp:156] Memory required for data: 1151529000
I0814 17:27:25.623724 17023 layer_factory.hpp:77] Creating layer fc7
I0814 17:27:25.623752 17023 net.cpp:91] Creating Layer fc7
I0814 17:27:25.623769 17023 net.cpp:425] fc7 <- fc6
I0814 17:27:25.623798 17023 net.cpp:399] fc7 -> fc7
I0814 17:27:26.285100 17023 net.cpp:141] Setting up fc7
I0814 17:27:26.285156 17023 net.cpp:148] Top shape: 10 4096 (40960)
I0814 17:27:26.285164 17023 net.cpp:156] Memory required for data: 1151692840
I0814 17:27:26.285194 17023 layer_factory.hpp:77] Creating layer relu7
I0814 17:27:26.285213 17023 net.cpp:91] Creating Layer relu7
I0814 17:27:26.285224 17023 net.cpp:425] relu7 <- fc7
I0814 17:27:26.285239 17023 net.cpp:386] relu7 -> fc7 (in-place)
I0814 17:27:26.285257 17023 net.cpp:141] Setting up relu7
I0814 17:27:26.285266 17023 net.cpp:148] Top shape: 10 4096 (40960)
I0814 17:27:26.285274 17023 net.cpp:156] Memory required for data: 1151856680
I0814 17:27:26.285282 17023 layer_factory.hpp:77] Creating layer drop7
I0814 17:27:26.285295 17023 net.cpp:91] Creating Layer drop7
I0814 17:27:26.285302 17023 net.cpp:425] drop7 <- fc7
I0814 17:27:26.285312 17023 net.cpp:386] drop7 -> fc7 (in-place)
I0814 17:27:26.285352 17023 net.cpp:141] Setting up drop7
I0814 17:27:26.285364 17023 net.cpp:148] Top shape: 10 4096 (40960)
I0814 17:27:26.285372 17023 net.cpp:156] Memory required for data: 1152020520
I0814 17:27:26.285379 17023 layer_factory.hpp:77] Creating layer fc8_binary_f24
I0814 17:27:26.285396 17023 net.cpp:91] Creating Layer fc8_binary_f24
I0814 17:27:26.285404 17023 net.cpp:425] fc8_binary_f24 <- fc7
I0814 17:27:26.285415 17023 net.cpp:399] fc8_binary_f24 -> fc8_binary_f24
I0814 17:27:26.289666 17023 net.cpp:141] Setting up fc8_binary_f24
I0814 17:27:26.289685 17023 net.cpp:148] Top shape: 10 24 (240)
I0814 17:27:26.289693 17023 net.cpp:156] Memory required for data: 1152021480
I0814 17:27:26.289705 17023 layer_factory.hpp:77] Creating layer loss_hashing
I0814 17:27:26.289733 17023 net.cpp:91] Creating Layer loss_hashing
I0814 17:27:26.289742 17023 net.cpp:425] loss_hashing <- fc8_binary_f24
I0814 17:27:26.289752 17023 net.cpp:425] loss_hashing <- label
I0814 17:27:26.289767 17023 net.cpp:399] loss_hashing -> loss_hashing
…
