…
I0830 10:34:09.284306 35214 net.cpp:313] The NetState phase (0) differed from the phase (1) specified by a rule in layer accuracy_top5
I0830 10:34:09.286249 35214 net.cpp:49] Initializing net from parameters: 
name: "docomo_ResNet50"
state {
  phase: TRAIN
}
layer {
  name: "data"
  type: "Data"
  top: "data"
  top: "label"
  include {
    phase: TRAIN
  }
  transform_param {
    mirror: true
    crop_size: 224
    mean_value: 104
    mean_value: 117
    mean_value: 123
  }
  data_param {
    source: "FASHION/fashion_train_lmdb"
    batch_size: 10
    backend: LMDB
  }
}
layer {
  name: "conv1"
  type: "Convolution"
  bottom: "data"
  top: "conv1"
  param {
    lr_mult: 1
    decay_mult: 1
  }
  param {
    lr_mult: 2
    decay_mult: 0
  }
  convolution_param {
    num_output: 64
    pad: 3
    kernel_size: 7
    stride: 2
    weight_filler {
      type: "xavier"
      std: 0.01
    }
    bias_filler {
      type: "constant"
      value: 0
    }
  }
}
layer {
  name: "bn_conv1"
  type: "BatchNorm"
  bottom: "conv1"
  top: "conv1"
  batch_norm_param {
    use_global_stats: true
  }
}
layer {
  name: "scale_conv1"
  type: "Scale"
  bottom: "conv1"
  top: "conv1"
  scale_param {
    bias_term: true
  }
}
layer {
  name: "conv1_relu"
  type: "ReLU"
  bottom: "conv1"
  top: "conv1"
}
layer {
  name: "pool1"
  type: "Pooling"
  bottom: "conv1"
  top: "pool1"
  pooling_param {
    pool: MAX
    kernel_size: 3
    stride: 2
  }
}
layer {
  name: "res2a_branch1"
  type: "Convolution"
  bottom: "pool1"
  top: "res2a_branch1"
  param {
    lr_mult: 1
    decay_mult: 1
  }
  convolution_param {
    num_output: 256
    bias_term: false
    pad: 0
    kernel_size: 1
    stride: 1
    weight_filler {
      type: "xavier"
      std: 0.01
    }
  }
}
layer {
  name: "bn2a_branch1"
  type: "BatchNorm"
  bottom: "res2a_branch1"
  top: "res2a_branch1"
  batch_norm_param {
    use_global_stats: true
  }
}
layer {
  name: "scale2a_branch1"
  type: "Scale"
  bottom: "res2a_branch1"
  top: "res2a_branch1"
  scale_param {
    bias_term: true
  }
}
layer {
  name: "res2a_branch2a"
  type: "Convolution"
  bottom: "pool1"
  top: "res2a_branch2a"
  param {
    lr_mult: 1
    decay_mult: 1
  }
  convolution_param {
    num_output: 64
    bias_term: false
    pad: 0
    kernel_size: 1
    stride: 1
    weight_filler {
      type: "xavier"
      std: 0.01
    }
  }
}
layer {
  name: "bn2a_branch2a"
  type: "BatchNorm"
  bottom: "res2a_branch2a"
  top: "res2a_branch2a"
  batch_norm_param {
    use_global_stats: true
  }
}
layer {
  name: "scale2a_branch2a"
  type: "Scale"
  bottom: "res2a_branch2a"
  top: "res2a_branch2a"
  scale_param {
    bias_term: true
  }
}
layer {
  name: "res2a_branch2a_relu"
  type: "ReLU"
  bottom: "res2a_branch2a"
  top: "res2a_branch2a"
}
layer {
  name: "res2a_branch2b"
  type: "Convolution"
  bottom: "res2a_branch2a"
  top: "res2a_branch2b"
  param {
    lr_mult: 1
    decay_mult: 1
  }
  convolution_param {
    num_output: 64
    bias_term: false
    pad: 1
    kernel_size: 3
    stride: 1
    weight_filler {
      type: "xavier"
      std: 0.01
    }
  }
}
layer {
  name: "bn2a_branch2b"
  type: "BatchNorm"
  bottom: "res2a_branch2b"
  top: "res2a_branch2b"
  batch_norm_param {
    use_global_stats: true
  }
}
layer {
  name: "scale2a_branch2b"
  type: "Scale"
  bottom: "res2a_branch2b"
  top: "res2a_branch2b"
  scale_param {
    bias_term: true
  }
}
layer {
  name: "res2a_branch2b_relu"
  type: "ReLU"
  bottom: "res2a_branch2b"
  top: "res2a_branch2b"
}
layer {
  name: "res2a_branch2c"
  type: "Convolution"
  bottom: "res2a_branch2b"
  top: "res2a_branch2c"
  param {
    lr_mult: 1
    decay_mult: 1
  }
  convolution_param {
    num_output: 256
    bias_term: false
    pad: 0
    kernel_size: 1
    stride: 1
    weight_filler {
      type: "xavier"
      std: 0.01
    }
  }
}
layer {
  name: "bn2a_branch2c"
  type: "BatchNorm"
  bottom: "res2a_branch2c"
  top: "res2a_branch2c"
  batch_norm_param {
    use_global_stats: true
  }
}
layer {
  name: "scale2a_branch2c"
  type: "Scale"
  bottom: "res2a_branch2c"
  top: "res2a_branch2c"
  scale_param {
    bias_term: true
  }
}
layer {
  name: "res2a"
  type: "Eltwise"
  bottom: "res2a_branch1"
  bottom: "res2a_branch2c"
  top: "res2a"
  eltwise_param {
    operation: SUM
  }
}
layer {
  name: "res2a_relu"
  type: "ReLU"
  bottom: "res2a"
  top: "res2a"
}
layer {
  name: "res2b_branch2a"
  type: "Convolution"
  bottom: "res2a"
  top: "res2b_branch2a"
  param {
    lr_mult: 1
    decay_mult: 1
  }
  convolution_param {
    num_output: 64
    bias_term: false
    pad: 0
    kernel_size: 1
    stride: 1
    weight_filler {
      type: "xavier"
      std: 0.01
    }
  }
}
layer {
  name: "bn2b_branch2a"
  type: "BatchNorm"
  bottom: "res2b_branch2a"
  top: "res2b_branch2a"
  batch_norm_param {
    use_global_stats: true
  }
}
layer {
  name: "scale2b_branch2a"
  type: "Scale"
  bottom: "res2b_branch2a"
  top: "res2b_branch2a"
  scale_param {
    bias_term: true
  }
}
layer {
  name: "res2b_branch2a_relu"
  type: "ReLU"
  bottom: "res2b_branch2a"
  top: "res2b_branch2a"
}
layer {
  name: "res2b_branch2b"
  type: "Convolution"
  bottom: "res2b_branch2a"
  top: "res2b_branch2b"
  param {
    lr_mult: 1
    decay_mult: 1
  }
  convolution_param {
    num_output: 64
    bias_term: false
    pad: 1
    kernel_size: 3
    stride: 1
    weight_filler {
      type: "xavier"
      std: 0.01
    }
  }
}
layer {
  name: "bn2b_branch2b"
  type: "BatchNorm"
  bottom: "res2b_branch2b"
  top: "res2b_branch2b"
  batch_norm_param {
    use_global_stats: true
  }
}
layer {
  name: "scale2b_branch2b"
  type: "Scale"
  bottom: "res2b_branch2b"
  top: "res2b_branch2b"
  scale_param {
    bias_term: true
  }
}
layer {
  name: "res2b_branch2b_relu"
  type: "ReLU"
  bottom: "res2b_branch2b"
  top: "res2b_branch2b"
}
layer {
  name: "res2b_branch2c"
  type: "Convolution"
  bottom: "res2b_branch2b"
  top: "res2b_branch2c"
  param {
    lr_mult: 1
    decay_mult: 1
  }
  convolution_param {
    num_output: 256
    bias_term: false
    pad: 0
    kernel_size: 1
    stride: 1
    weight_filler {
      type: "xavier"
      std: 0.01
    }
  }
}
layer {
  name: "bn2b_branch2c"
  type: "BatchNorm"
  bottom: "res2b_branch2c"
  top: "res2b_branch2c"
  batch_norm_param {
    use_global_stats: true
  }
}
layer {
  name: "scale2b_branch2c"
  type: "Scale"
  bottom: "res2b_branch2c"
  top: "res2b_branch2c"
  scale_param {
    bias_term: true
  }
}
layer {
  name: "res2b"
  type: "Eltwise"
  bottom: "res2a"
  bottom: "res2b_branch2c"
  top: "res2b"
  eltwise_param {
    operation: SUM
  }
}
layer {
  name: "res2b_relu"
  type: "ReLU"
  bottom: "res2b"
  top: "res2b"
}
layer {
  name: "res2c_branch2a"
  type: "Convolution"
  bottom: "res2b"
  top: "res2c_branch2a"
  param {
    lr_mult: 1
    decay_mult: 1
  }
  convolution_param {
    num_output: 64
    bias_term: false
    pad: 0
    kernel_size: 1
    stride: 1
    weight_filler {
      type: "xavier"
      std: 0.01
    }
  }
}
layer {
  name: "bn2c_branch2a"
  type: "BatchNorm"
  bottom: "res2c_branch2a"
  top: "res2c_branch2a"
  batch_norm_param {
    use_global_stats: true
  }
}
layer {
  name: "scale2c_branch2a"
  type: "Scale"
  bottom: "res2c_branch2a"
  top: "res2c_branch2a"
  scale_param {
    bias_term: true
  }
}
layer {
  name: "res2c_branch2a_relu"
  type: "ReLU"
  bottom: "res2c_branch2a"
  top: "res2c_branch2a"
}
layer {
  name: "res2c_branch2b"
  type: "Convolution"
  bottom: "res2c_branch2a"
  top: "res2c_branch2b"
  param {
    lr_mult: 1
    decay_mult: 1
  }
  convolution_param {
    num_output: 64
    bias_term: false
    pad: 1
    kernel_size: 3
    stride: 1
    weight_filler {
      type: "xavier"
      std: 0.01
    }
  }
}
layer {
  name: "bn2c_branch2b"
  type: "BatchNorm"
  bottom: "res2c_branch2b"
  top: "res2c_branch2b"
  batch_norm_param {
    use_global_stats: true
  }
}
layer {
  name: "scale2c_branch2b"
  type: "Scale"
  bottom: "res2c_branch2b"
  top: "res2c_branch2b"
  scale_param {
    bias_term: true
  }
}
layer {
  name: "res2c_branch2b_relu"
  type: "ReLU"
  bottom: "res2c_branch2b"
  top: "res2c_branch2b"
}
layer {
  name: "res2c_branch2c"
  type: "Convolution"
  bottom: "res2c_branch2b"
  top: "res2c_branch2c"
  param {
    lr_mult: 1
    decay_mult: 1
  }
  convolution_param {
    num_output: 256
    bias_term: false
    pad: 0
    kernel_size: 1
    stride: 1
    weight_filler {
      type: "xavier"
      std: 0.01
    }
  }
}
layer {
  name: "bn2c_branch2c"
  type: "BatchNorm"
  bottom: "res2c_branch2c"
  top: "res2c_branch2c"
  batch_norm_param {
    use_global_stats: true
  }
}
layer {
  name: "scale2c_branch2c"
  type: "Scale"
  bottom: "res2c_branch2c"
  top: "res2c_branch2c"
  scale_param {
    bias_term: true
  }
}
layer {
  name: "res2c"
  type: "Eltwise"
  bottom: "res2b"
  bottom: "res2c_branch2c"
  top: "res2c"
  eltwise_param {
    operation: SUM
  }
}
layer {
  name: "res2c_relu"
  type: "ReLU"
  bottom: "res2c"
  top: "res2c"
}
layer {
  name: "res3a_branch1"
  type: "Convolution"
  bottom: "res2c"
  top: "res3a_branch1"
  param {
    lr_mult: 1
    decay_mult: 1
  }
  convolution_param {
    num_output: 512
    bias_term: false
    pad: 0
    kernel_size: 1
    stride: 2
    weight_filler {
      type: "xavier"
      std: 0.01
    }
  }
}
layer {
  name: "bn3a_branch1"
  type: "BatchNorm"
  bottom: "res3a_branch1"
  top: "res3a_branch1"
  batch_norm_param {
    use_global_stats: true
  }
}
layer {
  name: "scale3a_branch1"
  type: "Scale"
  bottom: "res3a_branch1"
  top: "res3a_branch1"
  scale_param {
    bias_term: true
  }
}
layer {
  name: "res3a_branch2a"
  type: "Convolution"
  bottom: "res2c"
  top: "res3a_branch2a"
  param {
    lr_mult: 1
    decay_mult: 1
  }
  convolution_param {
    num_output: 128
    bias_term: false
    pad: 0
    kernel_size: 1
    stride: 2
    weight_filler {
      type: "xavier"
      std: 0.01
    }
  }
}
layer {
  name: "bn3a_branch2a"
  type: "BatchNorm"
  bottom: "res3a_branch2a"
  top: "res3a_branch2a"
  batch_norm_param {
    use_global_stats: true
  }
}
layer {
  name: "scale3a_branch2a"
  type: "Scale"
  bottom: "res3a_branch2a"
  top: "res3a_branch2a"
  scale_param {
    bias_term: true
  }
}
layer {
  name: "res3a_branch2a_relu"
  type: "ReLU"
  bottom: "res3a_branch2a"
  top: "res3a_branch2a"
}
layer {
  name: "res3a_branch2b"
  type: "Convolution"
  bottom: "res3a_branch2a"
  top: "res3a_branch2b"
  param {
    lr_mult: 1
    decay_mult: 1
  }
  convolution_param {
    num_output: 128
    bias_term: false
    pad: 1
    kernel_size: 3
    stride: 1
    weight_filler {
      type: "xavier"
      std: 0.01
    }
  }
}
layer {
  name: "bn3a_branch2b"
  type: "BatchNorm"
  bottom: "res3a_branch2b"
  top: "res3a_branch2b"
  batch_norm_param {
    use_global_stats: true
  }
}
layer {
  name: "scale3a_branch2b"
  type: "Scale"
  bottom: "res3a_branch2b"
  top: "res3a_branch2b"
  scale_param {
    bias_term: true
  }
}
layer {
  name: "res3a_branch2b_relu"
  type: "ReLU"
  bottom: "res3a_branch2b"
  top: "res3a_branch2b"
}
layer {
  name: "res3a_branch2c"
  type: "Convolution"
  bottom: "res3a_branch2b"
  top: "res3a_branch2c"
  param {
    lr_mult: 1
    decay_mult: 1
  }
  convolution_param {
    num_output: 512
    bias_term: false
    pad: 0
    kernel_size: 1
    stride: 1
    weight_filler {
      type: "xavier"
      std: 0.01
    }
  }
}
layer {
  name: "bn3a_branch2c"
  type: "BatchNorm"
  bottom: "res3a_branch2c"
  top: "res3a_branch2c"
  batch_norm_param {
    use_global_stats: true
  }
}
layer {
  name: "scale3a_branch2c"
  type: "Scale"
  bottom: "res3a_branch2c"
  top: "res3a_branch2c"
  scale_param {
    bias_term: true
  }
}
layer {
  name: "res3a"
  type: "Eltwise"
  bottom: "res3a_branch1"
  bottom: "res3a_branch2c"
  top: "res3a"
}
layer {
  name: "res3a_relu"
  type: "ReLU"
  bottom: "res3a"
  top: "res3a"
}
layer {
  name: "res3b_branch2a"
  type: "Convolution"
  bottom: "res3a"
  top: "res3b_branch2a"
  param {
    lr_mult: 1
    decay_mult: 1
  }
  convolution_param {
    num_output: 128
    bias_term: false
    pad: 0
    kernel_size: 1
    stride: 1
    weight_filler {
      type: "xavier"
      std: 0.01
    }
  }
}
layer {
  name: "bn3b_branch2a"
  type: "BatchNorm"
  bottom: "res3b_branch2a"
  top: "res3b_branch2a"
  batch_norm_param {
    use_global_stats: true
  }
}
layer {
  name: "scale3b_branch2a"
  type: "Scale"
  bottom: "res3b_branch2a"
  top: "res3b_branch2a"
  scale_param {
    bias_term: true
  }
}
layer {
  name: "res3b_branch2a_relu"
  type: "ReLU"
  bottom: "res3b_branch2a"
  top: "res3b_branch2a"
}
layer {
  name: "res3b_branch2b"
  type: "Convolution"
  bottom: "res3b_branch2a"
  top: "res3b_branch2b"
  param {
    lr_mult: 1
    decay_mult: 1
  }
  convolution_param {
    num_output: 128
    bias_term: false
    pad: 1
    kernel_size: 3
    stride: 1
    weight_filler {
      type: "xavier"
      std: 0.01
    }
  }
}
layer {
  name: "bn3b_branch2b"
  type: "BatchNorm"
  bottom: "res3b_branch2b"
  top: "res3b_branch2b"
  batch_norm_param {
    use_global_stats: true
  }
}
layer {
  name: "scale3b_branch2b"
  type: "Scale"
  bottom: "res3b_branch2b"
  top: "res3b_branch2b"
  scale_param {
    bias_term: true
  }
}
layer {
  name: "res3b_branch2b_relu"
  type: "ReLU"
  bottom: "res3b_branch2b"
  top: "res3b_branch2b"
}
layer {
  name: "res3b_branch2c"
  type: "Convolution"
  bottom: "res3b_branch2b"
  top: "res3b_branch2c"
  param {
    lr_mult: 1
    decay_mult: 1
  }
  convolution_param {
    num_output: 512
    bias_term: false
    pad: 0
    kernel_size: 1
    stride: 1
    weight_filler {
      type: "xavier"
      std: 0.01
    }
  }
}
layer {
  name: "bn3b_branch2c"
  type: "BatchNorm"
  bottom: "res3b_branch2c"
  top: "res3b_branch2c"
  batch_norm_param {
    use_global_stats: true
  }
}
layer {
  name: "scale3b_branch2c"
  type: "Scale"
  bottom: "res3b_branch2c"
  top: "res3b_branch2c"
  scale_param {
    bias_term: true
  }
}
layer {
  name: "res3b"
  type: "Eltwise"
  bottom: "res3a"
  bottom: "res3b_branch2c"
  top: "res3b"
}
layer {
  name: "res3b_relu"
  type: "ReLU"
  bottom: "res3b"
  top: "res3b"
}
layer {
  name: "res3c_branch2a"
  type: "Convolution"
  bottom: "res3b"
  top: "res3c_branch2a"
  param {
    lr_mult: 1
    decay_mult: 1
  }
  convolution_param {
    num_output: 128
    bias_term: false
    pad: 0
    kernel_size: 1
    stride: 1
    weight_filler {
      type: "xavier"
      std: 0.01
    }
  }
}
layer {
  name: "bn3c_branch2a"
  type: "BatchNorm"
  bottom: "res3c_branch2a"
  top: "res3c_branch2a"
  batch_norm_param {
    use_global_stats: true
  }
}
layer {
  name: "scale3c_branch2a"
  type: "Scale"
  bottom: "res3c_branch2a"
  top: "res3c_branch2a"
  scale_param {
    bias_term: true
  }
}
layer {
  name: "res3c_branch2a_relu"
  type: "ReLU"
  bottom: "res3c_branch2a"
  top: "res3c_branch2a"
}
layer {
  name: "res3c_branch2b"
  type: "Convolution"
  bottom: "res3c_branch2a"
  top: "res3c_branch2b"
  param {
    lr_mult: 1
    decay_mult: 1
  }
  convolution_param {
    num_output: 128
    bias_term: false
    pad: 1
    kernel_size: 3
    stride: 1
    weight_filler {
      type: "xavier"
      std: 0.01
    }
  }
}
layer {
  name: "bn3c_branch2b"
  type: "BatchNorm"
  bottom: "res3c_branch2b"
  top: "res3c_branch2b"
  batch_norm_param {
    use_global_stats: true
  }
}
layer {
  name: "scale3c_branch2b"
  type: "Scale"
  bottom: "res3c_branch2b"
  top: "res3c_branch2b"
  scale_param {
    bias_term: true
  }
}
layer {
  name: "res3c_branch2b_relu"
  type: "ReLU"
  bottom: "res3c_branch2b"
  top: "res3c_branch2b"
}
layer {
  name: "res3c_branch2c"
  type: "Convolution"
  bottom: "res3c_branch2b"
  top: "res3c_branch2c"
  param {
    lr_mult: 1
    decay_mult: 1
  }
  convolution_param {
    num_output: 512
    bias_term: false
    pad: 0
    kernel_size: 1
    stride: 1
    weight_filler {
      type: "xavier"
      std: 0.01
    }
  }
}
layer {
  name: "bn3c_branch2c"
  type: "BatchNorm"
  bottom: "res3c_branch2c"
  top: "res3c_branch2c"
  batch_norm_param {
    use_global_stats: true
  }
}
layer {
  name: "scale3c_branch2c"
  type: "Scale"
  bottom: "res3c_branch2c"
  top: "res3c_branch2c"
  scale_param {
    bias_term: true
  }
}
layer {
  name: "res3c"
  type: "Eltwise"
  bottom: "res3b"
  bottom: "res3c_branch2c"
  top: "res3c"
}
layer {
  name: "res3c_relu"
  type: "ReLU"
  bottom: "res3c"
  top: "res3c"
}
layer {
  name: "res3d_branch2a"
  type: "Convolution"
  bottom: "res3c"
  top: "res3d_branch2a"
  param {
    lr_mult: 1
    decay_mult: 1
  }
  convolution_param {
    num_output: 128
    bias_term: false
    pad: 0
    kernel_size: 1
    stride: 1
    weight_filler {
      type: "xavier"
      std: 0.01
    }
  }
}
layer {
  name: "bn3d_branch2a"
  type: "BatchNorm"
  bottom: "res3d_branch2a"
  top: "res3d_branch2a"
  batch_norm_param {
    use_global_stats: true
  }
}
layer {
  name: "scale3d_branch2a"
  type: "Scale"
  bottom: "res3d_branch2a"
  top: "res3d_branch2a"
  scale_param {
    bias_term: true
  }
}
layer {
  name: "res3d_branch2a_relu"
  type: "ReLU"
  bottom: "res3d_branch2a"
  top: "res3d_branch2a"
}
layer {
  name: "res3d_branch2b"
  type: "Convolution"
  bottom: "res3d_branch2a"
  top: "res3d_branch2b"
  param {
    lr_mult: 1
    decay_mult: 1
  }
  convolution_param {
    num_output: 128
    bias_term: false
    pad: 1
    kernel_size: 3
    stride: 1
    weight_filler {
      type: "xavier"
      std: 0.01
    }
  }
}
layer {
  name: "bn3d_branch2b"
  type: "BatchNorm"
  bottom: "res3d_branch2b"
  top: "res3d_branch2b"
  batch_norm_param {
    use_global_stats: true
  }
}
layer {
  name: "scale3d_branch2b"
  type: "Scale"
  bottom: "res3d_branch2b"
  top: "res3d_branch2b"
  scale_param {
    bias_term: true
  }
}
layer {
  name: "res3d_branch2b_relu"
  type: "ReLU"
  bottom: "res3d_branch2b"
  top: "res3d_branch2b"
}
layer {
  name: "res3d_branch2c"
  type: "Convolution"
  bottom: "res3d_branch2b"
  top: "res3d_branch2c"
  param {
    lr_mult: 1
    decay_mult: 1
  }
  convolution_param {
    num_output: 512
    bias_term: false
    pad: 0
    kernel_size: 1
    stride: 1
    weight_filler {
      type: "xavier"
      std: 0.01
    }
  }
}
layer {
  name: "bn3d_branch2c"
  type: "BatchNorm"
  bottom: "res3d_branch2c"
  top: "res3d_branch2c"
  batch_norm_param {
    use_global_stats: true
  }
}
layer {
  name: "scale3d_branch2c"
  type: "Scale"
  bottom: "res3d_branch2c"
  top: "res3d_branch2c"
  scale_param {
    bias_term: true
  }
}
layer {
  name: "res3d"
  type: "Eltwise"
  bottom: "res3c"
  bottom: "res3d_branch2c"
  top: "res3d"
}
layer {
  name: "res3d_relu"
  type: "ReLU"
  bottom: "res3d"
  top: "res3d"
}
layer {
  name: "res4a_branch1"
  type: "Convolution"
  bottom: "res3d"
  top: "res4a_branch1"
  convolution_param {
    num_output: 1024
    bias_term: false
    pad: 0
    kernel_size: 1
    stride: 2
  }
}
layer {
  name: "bn4a_branch1"
  type: "BatchNorm"
  bottom: "res4a_branch1"
  top: "res4a_branch1"
  batch_norm_param {
    use_global_stats: true
  }
}
layer {
  name: "scale4a_branch1"
  type: "Scale"
  bottom: "res4a_branch1"
  top: "res4a_branch1"
  scale_param {
    bias_term: true
  }
}
layer {
  name: "res4a_branch2a"
  type: "Convolution"
  bottom: "res3d"
  top: "res4a_branch2a"
  param {
    lr_mult: 1
    decay_mult: 1
  }
  convolution_param {
    num_output: 256
    bias_term: false
    pad: 0
    kernel_size: 1
    stride: 2
    weight_filler {
      type: "xavier"
      std: 0.01
    }
  }
}
layer {
  name: "bn4a_branch2a"
  type: "BatchNorm"
  bottom: "res4a_branch2a"
  top: "res4a_branch2a"
  batch_norm_param {
    use_global_stats: true
  }
}
layer {
  name: "scale4a_branch2a"
  type: "Scale"
  bottom: "res4a_branch2a"
  top: "res4a_branch2a"
  scale_param {
    bias_term: true
  }
}
layer {
  name: "res4a_branch2a_relu"
  type: "ReLU"
  bottom: "res4a_branch2a"
  top: "res4a_branch2a"
}
layer {
  name: "res4a_branch2b"
  type: "Convolution"
  bottom: "res4a_branch2a"
  top: "res4a_branch2b"
  param {
    lr_mult: 1
    decay_mult: 1
  }
  convolution_param {
    num_output: 256
    bias_term: false
    pad: 1
    kernel_size: 3
    stride: 1
    weight_filler {
      type: "xavier"
      std: 0.01
    }
  }
}
layer {
  name: "bn4a_branch2b"
  type: "BatchNorm"
  bottom: "res4a_branch2b"
  top: "res4a_branch2b"
  batch_norm_param {
    use_global_stats: true
  }
}
layer {
  name: "scale4a_branch2b"
  type: "Scale"
  bottom: "res4a_branch2b"
  top: "res4a_branch2b"
  scale_param {
    bias_term: true
  }
}
layer {
  name: "res4a_branch2b_relu"
  type: "ReLU"
  bottom: "res4a_branch2b"
  top: "res4a_branch2b"
}
layer {
  name: "res4a_branch2c"
  type: "Convolution"
  bottom: "res4a_branch2b"
  top: "res4a_branch2c"
  param {
    lr_mult: 1
    decay_mult: 1
  }
  convolution_param {
    num_output: 1024
    bias_term: false
    pad: 0
    kernel_size: 1
    stride: 1
    weight_filler {
      type: "xavier"
      std: 0.01
    }
  }
}
layer {
  name: "bn4a_branch2c"
  type: "BatchNorm"
  bottom: "res4a_branch2c"
  top: "res4a_branch2c"
  batch_norm_param {
    use_global_stats: true
  }
}
layer {
  name: "scale4a_branch2c"
  type: "Scale"
  bottom: "res4a_branch2c"
  top: "res4a_branch2c"
  scale_param {
    bias_term: true
  }
}
layer {
  name: "res4a"
  type: "Eltwise"
  bottom: "res4a_branch1"
  bottom: "res4a_branch2c"
  top: "res4a"
}
layer {
  name: "res4a_relu"
  type: "ReLU"
  bottom: "res4a"
  top: "res4a"
}
layer {
  name: "res4b_branch2a"
  type: "Convolution"
  bottom: "res4a"
  top: "res4b_branch2a"
  param {
    lr_mult: 1
    decay_mult: 1
  }
  convolution_param {
    num_output: 256
    bias_term: false
    pad: 0
    kernel_size: 1
    stride: 1
    weight_filler {
      type: "xavier"
      std: 0.01
    }
  }
}
layer {
  name: "bn4b_branch2a"
  type: "BatchNorm"
  bottom: "res4b_branch2a"
  top: "res4b_branch2a"
  batch_norm_param {
    use_global_stats: true
  }
}
layer {
  name: "scale4b_branch2a"
  type: "Scale"
  bottom: "res4b_branch2a"
  top: "res4b_branch2a"
  scale_param {
    bias_term: true
  }
}
layer {
  name: "res4b_branch2a_relu"
  type: "ReLU"
  bottom: "res4b_branch2a"
  top: "res4b_branch2a"
}
layer {
  name: "res4b_branch2b"
  type: "Convolution"
  bottom: "res4b_branch2a"
  top: "res4b_branch2b"
  param {
    lr_mult: 1
    decay_mult: 1
  }
  convolution_param {
    num_output: 256
    bias_term: false
    pad: 1
    kernel_size: 3
    stride: 1
    weight_filler {
      type: "xavier"
      std: 0.01
    }
  }
}
layer {
  name: "bn4b_branch2b"
  type: "BatchNorm"
  bottom: "res4b_branch2b"
  top: "res4b_branch2b"
  batch_norm_param {
    use_global_stats: true
  }
}
layer {
  name: "scale4b_branch2b"
  type: "Scale"
  bottom: "res4b_branch2b"
  top: "res4b_branch2b"
  scale_param {
    bias_term: true
  }
}
layer {
  name: "res4b_branch2b_relu"
  type: "ReLU"
  bottom: "res4b_branch2b"
  top: "res4b_branch2b"
}
layer {
  name: "res4b_branch2c"
  type: "Convolution"
  bottom: "res4b_branch2b"
  top: "res4b_branch2c"
  param {
    lr_mult: 1
    decay_mult: 1
  }
  convolution_param {
    num_output: 1024
    bias_term: false
    pad: 0
    kernel_size: 1
    stride: 1
    weight_filler {
      type: "xavier"
      std: 0.01
    }
  }
}
layer {
  name: "bn4b_branch2c"
  type: "BatchNorm"
  bottom: "res4b_branch2c"
  top: "res4b_branch2c"
  batch_norm_param {
    use_global_stats: true
  }
}
layer {
  name: "scale4b_branch2c"
  type: "Scale"
  bottom: "res4b_branch2c"
  top: "res4b_branch2c"
  scale_param {
    bias_term: true
  }
}
layer {
  name: "res4b"
  type: "Eltwise"
  bottom: "res4a"
  bottom: "res4b_branch2c"
  top: "res4b"
}
layer {
  name: "res4b_relu"
  type: "ReLU"
  bottom: "res4b"
  top: "res4b"
}
layer {
  name: "res4c_branch2a"
  type: "Convolution"
  bottom: "res4b"
  top: "res4c_branch2a"
  param {
    lr_mult: 1
    decay_mult: 1
  }
  convolution_param {
    num_output: 256
    bias_term: false
    pad: 0
    kernel_size: 1
    stride: 1
    weight_filler {
      type: "xavier"
      std: 0.01
    }
  }
}
layer {
  name: "bn4c_branch2a"
  type: "BatchNorm"
  bottom: "res4c_branch2a"
  top: "res4c_branch2a"
  batch_norm_param {
    use_global_stats: true
  }
}
layer {
  name: "scale4c_branch2a"
  type: "Scale"
  bottom: "res4c_branch2a"
  top: "res4c_branch2a"
  scale_param {
    bias_term: true
  }
}
layer {
  name: "res4c_branch2a_relu"
  type: "ReLU"
  bottom: "res4c_branch2a"
  top: "res4c_branch2a"
}
layer {
  name: "res4c_branch2b"
  type: "Convolution"
  bottom: "res4c_branch2a"
  top: "res4c_branch2b"
  param {
    lr_mult: 1
    decay_mult: 1
  }
  convolution_param {
    num_output: 256
    bias_term: false
    pad: 1
    kernel_size: 3
    stride: 1
    weight_filler {
      type: "xavier"
      std: 0.01
    }
  }
}
layer {
  name: "bn4c_branch2b"
  type: "BatchNorm"
  bottom: "res4c_branch2b"
  top: "res4c_branch2b"
  batch_norm_param {
    use_global_stats: true
  }
}
layer {
  name: "scale4c_branch2b"
  type: "Scale"
  bottom: "res4c_branch2b"
  top: "res4c_branch2b"
  scale_param {
    bias_term: true
  }
}
layer {
  name: "res4c_branch2b_relu"
  type: "ReLU"
  bottom: "res4c_branch2b"
  top: "res4c_branch2b"
}
layer {
  name: "res4c_branch2c"
  type: "Convolution"
  bottom: "res4c_branch2b"
  top: "res4c_branch2c"
  param {
    lr_mult: 1
    decay_mult: 1
  }
  convolution_param {
    num_output: 1024
    bias_term: false
    pad: 0
    kernel_size: 1
    stride: 1
    weight_filler {
      type: "xavier"
      std: 0.01
    }
  }
}
layer {
  name: "bn4c_branch2c"
  type: "BatchNorm"
  bottom: "res4c_branch2c"
  top: "res4c_branch2c"
  batch_norm_param {
    use_global_stats: true
  }
}
layer {
  name: "scale4c_branch2c"
  type: "Scale"
  bottom: "res4c_branch2c"
  top: "res4c_branch2c"
  scale_param {
    bias_term: true
  }
}
layer {
  name: "res4c"
  type: "Eltwise"
  bottom: "res4b"
  bottom: "res4c_branch2c"
  top: "res4c"
}
layer {
  name: "res4c_relu"
  type: "ReLU"
  bottom: "res4c"
  top: "res4c"
}
layer {
  name: "res4d_branch2a"
  type: "Convolution"
  bottom: "res4c"
  top: "res4d_branch2a"
  param {
    lr_mult: 1
    decay_mult: 1
  }
  convolution_param {
    num_output: 256
    bias_term: false
    pad: 0
    kernel_size: 1
    stride: 1
    weight_filler {
      type: "xavier"
      std: 0.01
    }
  }
}
layer {
  name: "bn4d_branch2a"
  type: "BatchNorm"
  bottom: "res4d_branch2a"
  top: "res4d_branch2a"
  batch_norm_param {
    use_global_stats: true
  }
}
layer {
  name: "scale4d_branch2a"
  type: "Scale"
  bottom: "res4d_branch2a"
  top: "res4d_branch2a"
  scale_param {
    bias_term: true
  }
}
layer {
  name: "res4d_branch2a_relu"
  type: "ReLU"
  bottom: "res4d_branch2a"
  top: "res4d_branch2a"
}
layer {
  name: "res4d_branch2b"
  type: "Convolution"
  bottom: "res4d_branch2a"
  top: "res4d_branch2b"
  param {
    lr_mult: 1
    decay_mult: 1
  }
  convolution_param {
    num_output: 256
    bias_term: false
    pad: 1
    kernel_size: 3
    stride: 1
    weight_filler {
      type: "xavier"
      std: 0.01
    }
  }
}
layer {
  name: "bn4d_branch2b"
  type: "BatchNorm"
  bottom: "res4d_branch2b"
  top: "res4d_branch2b"
  batch_norm_param {
    use_global_stats: true
  }
}
layer {
  name: "scale4d_branch2b"
  type: "Scale"
  bottom: "res4d_branch2b"
  top: "res4d_branch2b"
  scale_param {
    bias_term: true
  }
}
layer {
  name: "res4d_branch2b_relu"
  type: "ReLU"
  bottom: "res4d_branch2b"
  top: "res4d_branch2b"
}
layer {
  name: "res4d_branch2c"
  type: "Convolution"
  bottom: "res4d_branch2b"
  top: "res4d_branch2c"
  param {
    lr_mult: 1
    decay_mult: 1
  }
  convolution_param {
    num_output: 1024
    bias_term: false
    pad: 0
    kernel_size: 1
    stride: 1
    weight_filler {
      type: "xavier"
      std: 0.01
    }
  }
}
layer {
  name: "bn4d_branch2c"
  type: "BatchNorm"
  bottom: "res4d_branch2c"
  top: "res4d_branch2c"
  batch_norm_param {
    use_global_stats: true
  }
}
layer {
  name: "scale4d_branch2c"
  type: "Scale"
  bottom: "res4d_branch2c"
  top: "res4d_branch2c"
  scale_param {
    bias_term: true
  }
}
layer {
  name: "res4d"
  type: "Eltwise"
  bottom: "res4c"
  bottom: "res4d_branch2c"
  top: "res4d"
}
layer {
  name: "res4d_relu"
  type: "ReLU"
  bottom: "res4d"
  top: "res4d"
}
layer {
  name: "res4e_branch2a"
  type: "Convolution"
  bottom: "res4d"
  top: "res4e_branch2a"
  param {
    lr_mult: 1
    decay_mult: 1
  }
  convolution_param {
    num_output: 256
    bias_term: false
    pad: 0
    kernel_size: 1
    stride: 1
    weight_filler {
      type: "xavier"
      std: 0.01
    }
  }
}
layer {
  name: "bn4e_branch2a"
  type: "BatchNorm"
  bottom: "res4e_branch2a"
  top: "res4e_branch2a"
  batch_norm_param {
    use_global_stats: true
  }
}
layer {
  name: "scale4e_branch2a"
  type: "Scale"
  bottom: "res4e_branch2a"
  top: "res4e_branch2a"
  scale_param {
    bias_term: true
  }
}
layer {
  name: "res4e_branch2a_relu"
  type: "ReLU"
  bottom: "res4e_branch2a"
  top: "res4e_branch2a"
}
layer {
  name: "res4e_branch2b"
  type: "Convolution"
  bottom: "res4e_branch2a"
  top: "res4e_branch2b"
  param {
    lr_mult: 1
    decay_mult: 1
  }
  convolution_param {
    num_output: 256
    bias_term: false
    pad: 1
    kernel_size: 3
    stride: 1
    weight_filler {
      type: "xavier"
      std: 0.01
    }
  }
}
layer {
  name: "bn4e_branch2b"
  type: "BatchNorm"
  bottom: "res4e_branch2b"
  top: "res4e_branch2b"
  batch_norm_param {
    use_global_stats: true
  }
}
layer {
  name: "scale4e_branch2b"
  type: "Scale"
  bottom: "res4e_branch2b"
  top: "res4e_branch2b"
  scale_param {
    bias_term: true
  }
}
layer {
  name: "res4e_branch2b_relu"
  type: "ReLU"
  bottom: "res4e_branch2b"
  top: "res4e_branch2b"
}
layer {
  name: "res4e_branch2c"
  type: "Convolution"
  bottom: "res4e_branch2b"
  top: "res4e_branch2c"
  param {
    lr_mult: 1
    decay_mult: 1
  }
  convolution_param {
    num_output: 1024
    bias_term: false
    pad: 0
    kernel_size: 1
    stride: 1
    weight_filler {
      type: "xavier"
      std: 
I0830 10:34:09.300295 35214 layer_factory.hpp:77] Creating layer data
I0830 10:34:09.301347 35214 net.cpp:91] Creating Layer data
I0830 10:34:09.301411 35214 net.cpp:399] data -> data
I0830 10:34:09.301496 35214 net.cpp:399] data -> label
I0830 10:34:09.302944 35219 db_lmdb.cpp:38] Opened lmdb FASHION/fashion_train_lmdb
I0830 10:34:09.327904 35214 data_layer.cpp:41] output data size: 10,3,224,224
I0830 10:34:09.345114 35214 net.cpp:141] Setting up data
I0830 10:34:09.345221 35214 net.cpp:148] Top shape: 10 3 224 224 (1505280)
I0830 10:34:09.345264 35214 net.cpp:148] Top shape: 10 1 1 1 (10)
I0830 10:34:09.345293 35214 net.cpp:156] Memory required for data: 6021160
I0830 10:34:09.345337 35214 layer_factory.hpp:77] Creating layer label_data_1_split
I0830 10:34:09.345388 35214 net.cpp:91] Creating Layer label_data_1_split
I0830 10:34:09.345428 35214 net.cpp:425] label_data_1_split <- label
I0830 10:34:09.345484 35214 net.cpp:399] label_data_1_split -> label_data_1_split_0
I0830 10:34:09.345543 35214 net.cpp:399] label_data_1_split -> label_data_1_split_1
I0830 10:34:09.345659 35214 net.cpp:141] Setting up label_data_1_split
I0830 10:34:09.345701 35214 net.cpp:148] Top shape: 10 1 1 1 (10)
I0830 10:34:09.345732 35214 net.cpp:148] Top shape: 10 1 1 1 (10)
I0830 10:34:09.345760 35214 net.cpp:156] Memory required for data: 6021240
I0830 10:34:09.345785 35214 layer_factory.hpp:77] Creating layer conv1
I0830 10:34:09.345847 35214 net.cpp:91] Creating Layer conv1
I0830 10:34:09.345880 35214 net.cpp:425] conv1 <- data
I0830 10:34:09.345917 35214 net.cpp:399] conv1 -> conv1
I0830 10:34:09.348234 35214 net.cpp:141] Setting up conv1
I0830 10:34:09.348304 35214 net.cpp:148] Top shape: 10 64 112 112 (8028160)
I0830 10:34:09.348335 35214 net.cpp:156] Memory required for data: 38133880
I0830 10:34:09.348456 35214 layer_factory.hpp:77] Creating layer bn_conv1
I0830 10:34:09.348511 35214 net.cpp:91] Creating Layer bn_conv1
I0830 10:34:09.348543 35214 net.cpp:425] bn_conv1 <- conv1
I0830 10:34:09.348574 35214 net.cpp:386] bn_conv1 -> conv1 (in-place)
I0830 10:34:09.348942 35214 net.cpp:141] Setting up bn_conv1
I0830 10:34:09.348987 35214 net.cpp:148] Top shape: 10 64 112 112 (8028160)
I0830 10:34:09.349016 35214 net.cpp:156] Memory required for data: 70246520
I0830 10:34:09.349066 35214 layer_factory.hpp:77] Creating layer scale_conv1
I0830 10:34:09.349115 35214 net.cpp:91] Creating Layer scale_conv1
I0830 10:34:09.349146 35214 net.cpp:425] scale_conv1 <- conv1
I0830 10:34:09.349176 35214 net.cpp:386] scale_conv1 -> conv1 (in-place)
I0830 10:34:09.349294 35214 layer_factory.hpp:77] Creating layer scale_conv1
I0830 10:34:09.349578 35214 net.cpp:141] Setting up scale_conv1
I0830 10:34:09.349622 35214 net.cpp:148] Top shape: 10 64 112 112 (8028160)
I0830 10:34:09.349651 35214 net.cpp:156] Memory required for data: 102359160
I0830 10:34:09.349687 35214 layer_factory.hpp:77] Creating layer conv1_relu
I0830 10:34:09.349730 35214 net.cpp:91] Creating Layer conv1_relu
I0830 10:34:09.349759 35214 net.cpp:425] conv1_relu <- conv1
I0830 10:34:09.349793 35214 net.cpp:386] conv1_relu -> conv1 (in-place)
I0830 10:34:09.349834 35214 net.cpp:141] Setting up conv1_relu
I0830 10:34:09.349867 35214 net.cpp:148] Top shape: 10 64 112 112 (8028160)
I0830 10:34:09.349895 35214 net.cpp:156] Memory required for data: 134471800
I0830 10:34:09.349922 35214 layer_factory.hpp:77] Creating layer pool1
I0830 10:34:09.349956 35214 net.cpp:91] Creating Layer pool1
I0830 10:34:09.349985 35214 net.cpp:425] pool1 <- conv1
I0830 10:34:09.350015 35214 net.cpp:399] pool1 -> pool1
I0830 10:34:09.350136 35214 net.cpp:141] Setting up pool1
I0830 10:34:09.350178 35214 net.cpp:148] Top shape: 10 64 56 56 (2007040)
I0830 10:34:09.350208 35214 net.cpp:156] Memory required for data: 142499960
I0830 10:34:09.350234 35214 layer_factory.hpp:77] Creating layer pool1_pool1_0_split
I0830 10:34:09.350265 35214 net.cpp:91] Creating Layer pool1_pool1_0_split
I0830 10:34:09.350293 35214 net.cpp:425] pool1_pool1_0_split <- pool1
I0830 10:34:09.350328 35214 net.cpp:399] pool1_pool1_0_split -> pool1_pool1_0_split_0
I0830 10:34:09.350378 35214 net.cpp:399] pool1_pool1_0_split -> pool1_pool1_0_split_1
I0830 10:34:09.350466 35214 net.cpp:141] Setting up pool1_pool1_0_split
I0830 10:34:09.350505 35214 net.cpp:148] Top shape: 10 64 56 56 (2007040)
I0830 10:34:09.350536 35214 net.cpp:148] Top shape: 10 64 56 56 (2007040)
I0830 10:34:09.350564 35214 net.cpp:156] Memory required for data: 158556280
I0830 10:34:09.350591 35214 layer_factory.hpp:77] Creating layer res2a_branch1
I0830 10:34:09.350637 35214 net.cpp:91] Creating Layer res2a_branch1
I0830 10:34:09.350669 35214 net.cpp:425] res2a_branch1 <- pool1_pool1_0_split_0
I0830 10:34:09.350706 35214 net.cpp:399] res2a_branch1 -> res2a_branch1
I0830 10:34:09.351270 35214 net.cpp:141] Setting up res2a_branch1
I0830 10:34:09.351316 35214 net.cpp:148] Top shape: 10 256 56 56 (8028160)
I0830 10:34:09.351346 35214 net.cpp:156] Memory required for data: 190668920
I0830 10:34:09.351377 35214 layer_factory.hpp:77] Creating layer bn2a_branch1
I0830 10:34:09.351411 35214 net.cpp:91] Creating Layer bn2a_branch1
I0830 10:34:09.351440 35214 net.cpp:425] bn2a_branch1 <- res2a_branch1
I0830 10:34:09.351475 35214 net.cpp:386] bn2a_branch1 -> res2a_branch1 (in-place)
I0830 10:34:09.352748 35214 net.cpp:141] Setting up bn2a_branch1
I0830 10:34:09.352797 35214 net.cpp:148] Top shape: 10 256 56 56 (8028160)
I0830 10:34:09.352826 35214 net.cpp:156] Memory required for data: 222781560
I0830 10:34:09.352870 35214 layer_factory.hpp:77] Creating layer scale2a_branch1
I0830 10:34:09.352911 35214 net.cpp:91] Creating Layer scale2a_branch1
I0830 10:34:09.352942 35214 net.cpp:425] scale2a_branch1 <- res2a_branch1
I0830 10:34:09.352973 35214 net.cpp:386] scale2a_branch1 -> res2a_branch1 (in-place)
I0830 10:34:09.353109 35214 layer_factory.hpp:77] Creating layer scale2a_branch1
I0830 10:34:09.353350 35214 net.cpp:141] Setting up scale2a_branch1
I0830 10:34:09.353394 35214 net.cpp:148] Top shape: 10 256 56 56 (8028160)
I0830 10:34:09.353422 35214 net.cpp:156] Memory required for data: 254894200
I0830 10:34:09.353454 35214 layer_factory.hpp:77] Creating layer res2a_branch2a
I0830 10:34:09.353502 35214 net.cpp:91] Creating Layer res2a_branch2a
I0830 10:34:09.353533 35214 net.cpp:425] res2a_branch2a <- pool1_pool1_0_split_1
I0830 10:34:09.353571 35214 net.cpp:399] res2a_branch2a -> res2a_branch2a
I0830 10:34:09.353960 35214 net.cpp:141] Setting up res2a_branch2a
I0830 10:34:09.354001 35214 net.cpp:148] Top shape: 10 64 56 56 (2007040)
I0830 10:34:09.354030 35214 net.cpp:156] Memory required for data: 262922360
I0830 10:34:09.354060 35214 layer_factory.hpp:77] Creating layer bn2a_branch2a
I0830 10:34:09.354095 35214 net.cpp:91] Creating Layer bn2a_branch2a
I0830 10:34:09.354125 35214 net.cpp:425] bn2a_branch2a <- res2a_branch2a
I0830 10:34:09.354154 35214 net.cpp:386] bn2a_branch2a -> res2a_branch2a (in-place)
I0830 10:34:09.354512 35214 net.cpp:141] Setting up bn2a_branch2a
I0830 10:34:09.354554 35214 net.cpp:148] Top shape: 10 64 56 56 (2007040)
I0830 10:34:09.354584 35214 net.cpp:156] Memory required for data: 270950520
I0830 10:34:09.354625 35214 layer_factory.hpp:77] Creating layer scale2a_branch2a
I0830 10:34:09.354661 35214 net.cpp:91] Creating Layer scale2a_branch2a
I0830 10:34:09.354691 35214 net.cpp:425] scale2a_branch2a <- res2a_branch2a
I0830 10:34:09.354727 35214 net.cpp:386] scale2a_branch2a -> res2a_branch2a (in-place)
I0830 10:34:09.354830 35214 layer_factory.hpp:77] Creating layer scale2a_branch2a
I0830 10:34:09.355073 35214 net.cpp:141] Setting up scale2a_branch2a
I0830 10:34:09.355114 35214 net.cpp:148] Top shape: 10 64 56 56 (2007040)
I0830 10:34:09.355142 35214 net.cpp:156] Memory required for data: 278978680
I0830 10:34:09.355175 35214 layer_factory.hpp:77] Creating layer res2a_branch2a_relu
I0830 10:34:09.355208 35214 net.cpp:91] Creating Layer res2a_branch2a_relu
I0830 10:34:09.355237 35214 net.cpp:425] res2a_branch2a_relu <- res2a_branch2a
I0830 10:34:09.355271 35214 net.cpp:386] res2a_branch2a_relu -> res2a_branch2a (in-place)
I0830 10:34:09.355309 35214 net.cpp:141] Setting up res2a_branch2a_relu
I0830 10:34:09.355340 35214 net.cpp:148] Top shape: 10 64 56 56 (2007040)
I0830 10:34:09.355368 35214 net.cpp:156] Memory required for data: 287006840
I0830 10:34:09.355394 35214 layer_factory.hpp:77] Creating layer res2a_branch2b
I0830 10:34:09.355433 35214 net.cpp:91] Creating Layer res2a_branch2b
I0830 10:34:09.355463 35214 net.cpp:425] res2a_branch2b <- res2a_branch2a
I0830 10:34:09.355495 35214 net.cpp:399] res2a_branch2b -> res2a_branch2b
I0830 10:34:09.357287 35214 net.cpp:141] Setting up res2a_branch2b
I0830 10:34:09.357338 35214 net.cpp:148] Top shape: 10 64 56 56 (2007040)
I0830 10:34:09.357368 35214 net.cpp:156] Memory required for data: 295035000
I0830 10:34:09.357398 35214 layer_factory.hpp:77] Creating layer bn2a_branch2b
I0830 10:34:09.357442 35214 net.cpp:91] Creating Layer bn2a_branch2b
I0830 10:34:09.357475 35214 net.cpp:425] bn2a_branch2b <- res2a_branch2b
I0830 10:34:09.357504 35214 net.cpp:386] bn2a_branch2b -> res2a_branch2b (in-place)
I0830 10:34:09.357864 35214 net.cpp:141] Setting up bn2a_branch2b
I0830 10:34:09.357906 35214 net.cpp:148] Top shape: 10 64 56 56 (2007040)
I0830 10:34:09.357934 35214 net.cpp:156] Memory required for data: 303063160
I0830 10:34:09.357970 35214 layer_factory.hpp:77] Creating layer scale2a_branch2b
I0830 10:34:09.358006 35214 net.cpp:91] Creating Layer scale2a_branch2b
I0830 10:34:09.358036 35214 net.cpp:425] scale2a_branch2b <- res2a_branch2b
I0830 10:34:09.358067 35214 net.cpp:386] scale2a_branch2b -> res2a_branch2b (in-place)
I0830 10:34:09.358175 35214 layer_factory.hpp:77] Creating layer scale2a_branch2b
I0830 10:34:09.358443 35214 net.cpp:141] Setting up scale2a_branch2b
I0830 10:34:09.358485 35214 net.cpp:148] Top shape: 10 64 56 56 (2007040)
I0830 10:34:09.358544 35214 net.cpp:156] Memory required for data: 311091320
I0830 10:34:09.358582 35214 layer_factory.hpp:77] Creating layer res2a_branch2b_relu
I0830 10:34:09.358623 35214 net.cpp:91] Creating Layer res2a_branch2b_relu
I0830 10:34:09.358654 35214 net.cpp:425] res2a_branch2b_relu <- res2a_branch2b
I0830 10:34:09.358683 35214 net.cpp:386] res2a_branch2b_relu -> res2a_branch2b (in-place)
I0830 10:34:09.358721 35214 net.cpp:141] Setting up res2a_branch2b_relu
I0830 10:34:09.358752 35214 net.cpp:148] Top shape: 10 64 56 56 (2007040)
I0830 10:34:09.358781 35214 net.cpp:156] Memory required for data: 319119480
I0830 10:34:09.358808 35214 layer_factory.hpp:77] Creating layer res2a_branch2c
I0830 10:34:09.358850 35214 net.cpp:91] Creating Layer res2a_branch2c
I0830 10:34:09.358881 35214 net.cpp:425] res2a_branch2c <- res2a_branch2b
I0830 10:34:09.358913 35214 net.cpp:399] res2a_branch2c -> res2a_branch2c
I0830 10:34:09.359498 35214 net.cpp:141] Setting up res2a_branch2c
I0830 10:34:09.359541 35214 net.cpp:148] Top shape: 10 256 56 56 (8028160)
I0830 10:34:09.359570 35214 net.cpp:156] Memory required for data: 351232120
I0830 10:34:09.359601 35214 layer_factory.hpp:77] Creating layer bn2a_branch2c
I0830 10:34:09.359635 35214 net.cpp:91] Creating Layer bn2a_branch2c
I0830 10:34:09.359664 35214 net.cpp:425] bn2a_branch2c <- res2a_branch2c
I0830 10:34:09.359694 35214 net.cpp:386] bn2a_branch2c -> res2a_branch2c (in-place)
I0830 10:34:09.360028 35214 net.cpp:141] Setting up bn2a_branch2c
I0830 10:34:09.360070 35214 net.cpp:148] Top shape: 10 256 56 56 (8028160)
I0830 10:34:09.360100 35214 net.cpp:156] Memory required for data: 383344760
I0830 10:34:09.360136 35214 layer_factory.hpp:77] Creating layer scale2a_branch2c
I0830 10:34:09.360175 35214 net.cpp:91] Creating Layer scale2a_branch2c
I0830 10:34:09.360206 35214 net.cpp:425] scale2a_branch2c <- res2a_branch2c
I0830 10:34:09.360235 35214 net.cpp:386] scale2a_branch2c -> res2a_branch2c (in-place)
I0830 10:34:09.360364 35214 layer_factory.hpp:77] Creating layer scale2a_branch2c
I0830 10:34:09.360605 35214 net.cpp:141] Setting up scale2a_branch2c
I0830 10:34:09.360647 35214 net.cpp:148] Top shape: 10 256 56 56 (8028160)
I0830 10:34:09.360677 35214 net.cpp:156] Memory required for data: 415457400
I0830 10:34:09.360710 35214 layer_factory.hpp:77] Creating layer res2a
I0830 10:34:09.360751 35214 net.cpp:91] Creating Layer res2a
I0830 10:34:09.360782 35214 net.cpp:425] res2a <- res2a_branch1
I0830 10:34:09.360813 35214 net.cpp:425] res2a <- res2a_branch2c
I0830 10:34:09.360852 35214 net.cpp:399] res2a -> res2a
I0830 10:34:09.361526 35214 net.cpp:141] Setting up res2a
I0830 10:34:09.361591 35214 net.cpp:148] Top shape: 10 256 56 56 (8028160)
I0830 10:34:09.361624 35214 net.cpp:156] Memory required for data: 447570040
I0830 10:34:09.361651 35214 layer_factory.hpp:77] Creating layer res2a_relu
I0830 10:34:09.361683 35214 net.cpp:91] Creating Layer res2a_relu
I0830 10:34:09.361713 35214 net.cpp:425] res2a_relu <- res2a
I0830 10:34:09.361743 35214 net.cpp:386] res2a_relu -> res2a (in-place)
I0830 10:34:09.361780 35214 net.cpp:141] Setting up res2a_relu
I0830 10:34:09.361814 35214 net.cpp:148] Top shape: 10 256 56 56 (8028160)
I0830 10:34:09.361841 35214 net.cpp:156] Memory required for data: 479682680
I0830 10:34:09.361867 35214 layer_factory.hpp:77] Creating layer res2a_res2a_relu_0_split
I0830 10:34:09.361913 35214 net.cpp:91] Creating Layer res2a_res2a_relu_0_split
I0830 10:34:09.361946 35214 net.cpp:425] res2a_res2a_relu_0_split <- res2a
I0830 10:34:09.361977 35214 net.cpp:399] res2a_res2a_relu_0_split -> res2a_res2a_relu_0_split_0
I0830 10:34:09.362012 35214 net.cpp:399] res2a_res2a_relu_0_split -> res2a_res2a_relu_0_split_1
I0830 10:34:09.362112 35214 net.cpp:141] Setting up res2a_res2a_relu_0_split
I0830 10:34:09.362152 35214 net.cpp:148] Top shape: 10 256 56 56 (8028160)
I0830 10:34:09.362185 35214 net.cpp:148] Top shape: 10 256 56 56 (8028160)
I0830 10:34:09.362213 35214 net.cpp:156] Memory required for data: 543907960
I0830 10:34:09.362238 35214 layer_factory.hpp:77] Creating layer res2b_branch2a
I0830 10:34:09.362310 35214 net.cpp:91] Creating Layer res2b_branch2a
I0830 10:34:09.362344 35214 net.cpp:425] res2b_branch2a <- res2a_res2a_relu_0_split_0
I0830 10:34:09.362392 35214 net.cpp:399] res2b_branch2a -> res2b_branch2a
I0830 10:34:09.362982 35214 net.cpp:141] Setting up res2b_branch2a
I0830 10:34:09.363028 35214 net.cpp:148] Top shape: 10 64 56 56 (2007040)
I0830 10:34:09.363055 35214 net.cpp:156] Memory required for data: 551936120
I0830 10:34:09.363087 35214 layer_factory.hpp:77] Creating layer bn2b_branch2a
I0830 10:34:09.363126 35214 net.cpp:91] Creating Layer bn2b_branch2a
I0830 10:34:09.363157 35214 net.cpp:425] bn2b_branch2a <- res2b_branch2a
I0830 10:34:09.363185 35214 net.cpp:386] bn2b_branch2a -> res2b_branch2a (in-place)
I0830 10:34:09.363545 35214 net.cpp:141] Setting up bn2b_branch2a
I0830 10:34:09.363586 35214 net.cpp:148] Top shape: 10 64 56 56 (2007040)
I0830 10:34:09.363615 35214 net.cpp:156] Memory required for data: 559964280
I0830 10:34:09.363667 35214 layer_factory.hpp:77] Creating layer scale2b_branch2a
I0830 10:34:09.363705 35214 net.cpp:91] Creating Layer scale2b_branch2a
I0830 10:34:09.363735 35214 net.cpp:425] scale2b_branch2a <- res2b_branch2a
I0830 10:34:09.363765 35214 net.cpp:386] scale2b_branch2a -> res2b_branch2a (in-place)
I0830 10:34:09.363876 35214 layer_factory.hpp:77] Creating layer scale2b_branch2a
I0830 10:34:09.364128 35214 net.cpp:141] Setting up scale2b_branch2a
I0830 10:34:09.364176 35214 net.cpp:148] Top shape: 10 64 56 56 (2007040)
I0830 10:34:09.364205 35214 net.cpp:156] Memory required for data: 567992440
I0830 10:34:09.364238 35214 layer_factory.hpp:77] Creating layer res2b_branch2a_relu
I0830 10:34:09.364274 35214 net.cpp:91] Creating Layer res2b_branch2a_relu
I0830 10:34:09.364302 35214 net.cpp:425] res2b_branch2a_relu <- res2b_branch2a
I0830 10:34:09.364332 35214 net.cpp:386] res2b_branch2a_relu -> res2b_branch2a (in-place)
I0830 10:34:09.364364 35214 net.cpp:141] Setting up res2b_branch2a_relu
I0830 10:34:09.364395 35214 net.cpp:148] Top shape: 10 64 56 56 (2007040)
I0830 10:34:09.364421 35214 net.cpp:156] Memory required for data: 576020600
I0830 10:34:09.364446 35214 layer_factory.hpp:77] Creating layer res2b_branch2b
I0830 10:34:09.364486 35214 net.cpp:91] Creating Layer res2b_branch2b
I0830 10:34:09.364518 35214 net.cpp:425] res2b_branch2b <- res2b_branch2a
I0830 10:34:09.364552 35214 net.cpp:399] res2b_branch2b -> res2b_branch2b
I0830 10:34:09.365424 35214 net.cpp:141] Setting up res2b_branch2b
I0830 10:34:09.365469 35214 net.cpp:148] Top shape: 10 64 56 56 (2007040)
I0830 10:34:09.365499 35214 net.cpp:156] Memory required for data: 584048760
I0830 10:34:09.365530 35214 layer_factory.hpp:77] Creating layer bn2b_branch2b
I0830 10:34:09.365564 35214 net.cpp:91] Creating Layer bn2b_branch2b
I0830 10:34:09.365593 35214 net.cpp:425] bn2b_branch2b <- res2b_branch2b
I0830 10:34:09.365622 35214 net.cpp:386] bn2b_branch2b -> res2b_branch2b (in-place)
I0830 10:34:09.365986 35214 net.cpp:141] Setting up bn2b_branch2b
I0830 10:34:09.366029 35214 net.cpp:148] Top shape: 10 64 56 56 (2007040)
I0830 10:34:09.366057 35214 net.cpp:156] Memory required for data: 592076920
I0830 10:34:09.366094 35214 layer_factory.hpp:77] Creating layer scale2b_branch2b
I0830 10:34:09.366129 35214 net.cpp:91] Creating Layer scale2b_branch2b
I0830 10:34:09.366158 35214 net.cpp:425] scale2b_branch2b <- res2b_branch2b
I0830 10:34:09.366188 35214 net.cpp:386] scale2b_branch2b -> res2b_branch2b (in-place)
I0830 10:34:09.366294 35214 layer_factory.hpp:77] Creating layer scale2b_branch2b
I0830 10:34:09.366559 35214 net.cpp:141] Setting up scale2b_branch2b
I0830 10:34:09.366601 35214 net.cpp:148] Top shape: 10 64 56 56 (2007040)
I0830 10:34:09.366631 35214 net.cpp:156] Memory required for data: 600105080
I0830 10:34:09.366663 35214 layer_factory.hpp:77] Creating layer res2b_branch2b_relu
I0830 10:34:09.366703 35214 net.cpp:91] Creating Layer res2b_branch2b_relu
I0830 10:34:09.366731 35214 net.cpp:425] res2b_branch2b_relu <- res2b_branch2b
I0830 10:34:09.366766 35214 net.cpp:386] res2b_branch2b_relu -> res2b_branch2b (in-place)
I0830 10:34:09.366832 35214 net.cpp:141] Setting up res2b_branch2b_relu
I0830 10:34:09.366868 35214 net.cpp:148] Top shape: 10 64 56 56 (2007040)
I0830 10:34:09.366895 35214 net.cpp:156] Memory required for data: 608133240
I0830 10:34:09.366922 35214 layer_factory.hpp:77] Creating layer res2b_branch2c
I0830 10:34:09.366966 35214 net.cpp:91] Creating Layer res2b_branch2c
I0830 10:34:09.366997 35214 net.cpp:425] res2b_branch2c <- res2b_branch2b
I0830 10:34:09.367028 35214 net.cpp:399] res2b_branch2c -> res2b_branch2c
I0830 10:34:09.367605 35214 net.cpp:141] Setting up res2b_branch2c
I0830 10:34:09.367648 35214 net.cpp:148] Top shape: 10 256 56 56 (8028160)
I0830 10:34:09.367677 35214 net.cpp:156] Memory required for data: 640245880
I0830 10:34:09.367707 35214 layer_factory.hpp:77] Creating layer bn2b_branch2c
I0830 10:34:09.367740 35214 net.cpp:91] Creating Layer bn2b_branch2c
I0830 10:34:09.367769 35214 net.cpp:425] bn2b_branch2c <- res2b_branch2c
I0830 10:34:09.367804 35214 net.cpp:386] bn2b_branch2c -> res2b_branch2c (in-place)
I0830 10:34:09.368141 35214 net.cpp:141] Setting up bn2b_branch2c
I0830 10:34:09.368182 35214 net.cpp:148] Top shape: 10 256 56 56 (8028160)
I0830 10:34:09.368212 35214 net.cpp:156] Memory required for data: 672358520
I0830 10:34:09.368247 35214 layer_factory.hpp:77] Creating layer scale2b_branch2c
I0830 10:34:09.368283 35214 net.cpp:91] Creating Layer scale2b_branch2c
I0830 10:34:09.368311 35214 net.cpp:425] scale2b_branch2c <- res2b_branch2c
I0830 10:34:09.368341 35214 net.cpp:386] scale2b_branch2c -> res2b_branch2c (in-place)
I0830 10:34:09.368443 35214 layer_factory.hpp:77] Creating layer scale2b_branch2c
I0830 10:34:09.368680 35214 net.cpp:141] Setting up scale2b_branch2c
I0830 10:34:09.368736 35214 net.cpp:148] Top shape: 10 256 56 56 (8028160)
I0830 10:34:09.368765 35214 net.cpp:156] Memory required for data: 704471160
I0830 10:34:09.368798 35214 layer_factory.hpp:77] Creating layer res2b
I0830 10:34:09.368839 35214 net.cpp:91] Creating Layer res2b
I0830 10:34:09.368868 35214 net.cpp:425] res2b <- res2a_res2a_relu_0_split_1
I0830 10:34:09.368901 35214 net.cpp:425] res2b <- res2b_branch2c
I0830 10:34:09.368930 35214 net.cpp:399] res2b -> res2b
I0830 10:34:09.369004 35214 net.cpp:141] Setting up res2b
I0830 10:34:09.369043 35214 net.cpp:148] Top shape: 10 256 56 56 (8028160)
I0830 10:34:09.369072 35214 net.cpp:156] Memory required for data: 736583800
I0830 10:34:09.369098 35214 layer_factory.hpp:77] Creating layer res2b_relu
I0830 10:34:09.369132 35214 net.cpp:91] Creating Layer res2b_relu
I0830 10:34:09.369161 35214 net.cpp:425] res2b_relu <- res2b
I0830 10:34:09.369194 35214 net.cpp:386] res2b_relu -> res2b (in-place)
I0830 10:34:09.369230 35214 net.cpp:141] Setting up res2b_relu
I0830 10:34:09.369261 35214 net.cpp:148] Top shape: 10 256 56 56 (8028160)
I0830 10:34:09.369288 35214 net.cpp:156] Memory required for data: 768696440
I0830 10:34:09.369314 35214 layer_factory.hpp:77] Creating layer res2b_res2b_relu_0_split
I0830 10:34:09.369344 35214 net.cpp:91] Creating Layer res2b_res2b_relu_0_split
I0830 10:34:09.369369 35214 net.cpp:425] res2b_res2b_relu_0_split <- res2b
I0830 10:34:09.369398 35214 net.cpp:399] res2b_res2b_relu_0_split -> res2b_res2b_relu_0_split_0
I0830 10:34:09.369433 35214 net.cpp:399] res2b_res2b_relu_0_split -> res2b_res2b_relu_0_split_1
I0830 10:34:09.369523 35214 net.cpp:141] Setting up res2b_res2b_relu_0_split
I0830 10:34:09.369561 35214 net.cpp:148] Top shape: 10 256 56 56 (8028160)
I0830 10:34:09.369592 35214 net.cpp:148] Top shape: 10 256 56 56 (8028160)
I0830 10:34:09.369621 35214 net.cpp:156] Memory required for data: 832921720
I0830 10:34:09.369647 35214 layer_factory.hpp:77] Creating layer res2c_branch2a
I0830 10:34:09.369686 35214 net.cpp:91] Creating Layer res2c_branch2a
I0830 10:34:09.369719 35214 net.cpp:425] res2c_branch2a <- res2b_res2b_relu_0_split_0
I0830 10:34:09.369750 35214 net.cpp:399] res2c_branch2a -> res2c_branch2a
I0830 10:34:09.370335 35214 net.cpp:141] Setting up res2c_branch2a
I0830 10:34:09.370421 35214 net.cpp:148] Top shape: 10 64 56 56 (2007040)
I0830 10:34:09.370457 35214 net.cpp:156] Memory required for data: 840949880
I0830 10:34:09.370487 35214 layer_factory.hpp:77] Creating layer bn2c_branch2a
I0830 10:34:09.370522 35214 net.cpp:91] Creating Layer bn2c_branch2a
I0830 10:34:09.370553 35214 net.cpp:425] bn2c_branch2a <- res2c_branch2a
I0830 10:34:09.370582 35214 net.cpp:386] bn2c_branch2a -> res2c_branch2a (in-place)
I0830 10:34:09.370944 35214 net.cpp:141] Setting up bn2c_branch2a
I0830 10:34:09.370985 35214 net.cpp:148] Top shape: 10 64 56 56 (2007040)
I0830 10:34:09.371014 35214 net.cpp:156] Memory required for data: 848978040
I0830 10:34:09.371049 35214 layer_factory.hpp:77] Creating layer scale2c_branch2a
I0830 10:34:09.371085 35214 net.cpp:91] Creating Layer scale2c_branch2a
I0830 10:34:09.371114 35214 net.cpp:425] scale2c_branch2a <- res2c_branch2a
I0830 10:34:09.371145 35214 net.cpp:386] scale2c_branch2a -> res2c_branch2a (in-place)
I0830 10:34:09.371273 35214 layer_factory.hpp:77] Creating layer scale2c_branch2a
I0830 10:34:09.371517 35214 net.cpp:141] Setting up scale2c_branch2a
I0830 10:34:09.371564 35214 net.cpp:148] Top shape: 10 64 56 56 (2007040)
I0830 10:34:09.371594 35214 net.cpp:156] Memory required for data: 857006200
I0830 10:34:09.371625 35214 layer_factory.hpp:77] Creating layer res2c_branch2a_relu
I0830 10:34:09.371659 35214 net.cpp:91] Creating Layer res2c_branch2a_relu
I0830 10:34:09.371685 35214 net.cpp:425] res2c_branch2a_relu <- res2c_branch2a
I0830 10:34:09.371714 35214 net.cpp:386] res2c_branch2a_relu -> res2c_branch2a (in-place)
I0830 10:34:09.371749 35214 net.cpp:141] Setting up res2c_branch2a_relu
I0830 10:34:09.371781 35214 net.cpp:148] Top shape: 10 64 56 56 (2007040)
I0830 10:34:09.371807 35214 net.cpp:156] Memory required for data: 865034360
I0830 10:34:09.371834 35214 layer_factory.hpp:77] Creating layer res2c_branch2b
I0830 10:34:09.371875 35214 net.cpp:91] Creating Layer res2c_branch2b
I0830 10:34:09.371904 35214 net.cpp:425] res2c_branch2b <- res2c_branch2a
I0830 10:34:09.371942 35214 net.cpp:399] res2c_branch2b -> res2c_branch2b
I0830 10:34:09.372834 35214 net.cpp:141] Setting up res2c_branch2b
I0830 10:34:09.372879 35214 net.cpp:148] Top shape: 10 64 56 56 (2007040)
I0830 10:34:09.372908 35214 net.cpp:156] Memory required for data: 873062520
I0830 10:34:09.372938 35214 layer_factory.hpp:77] Creating layer bn2c_branch2b
I0830 10:34:09.372973 35214 net.cpp:91] Creating Layer bn2c_branch2b
I0830 10:34:09.373003 35214 net.cpp:425] bn2c_branch2b <- res2c_branch2b
I0830 10:34:09.373033 35214 net.cpp:386] bn2c_branch2b -> res2c_branch2b (in-place)
I0830 10:34:09.373389 35214 net.cpp:141] Setting up bn2c_branch2b
I0830 10:34:09.373431 35214 net.cpp:148] Top shape: 10 64 56 56 (2007040)
I0830 10:34:09.373461 35214 net.cpp:156] Memory required for data: 881090680
I0830 10:34:09.373495 35214 layer_factory.hpp:77] Creating layer scale2c_branch2b
I0830 10:34:09.373531 35214 net.cpp:91] Creating Layer scale2c_branch2b
I0830 10:34:09.373560 35214 net.cpp:425] scale2c_branch2b <- res2c_branch2b
I0830 10:34:09.373590 35214 net.cpp:386] scale2c_branch2b -> res2c_branch2b (in-place)
I0830 10:34:09.373697 35214 layer_factory.hpp:77] Creating layer scale2c_branch2b
I0830 10:34:09.373952 35214 net.cpp:141] Setting up scale2c_branch2b
I0830 10:34:09.373994 35214 net.cpp:148] Top shape: 10 64 56 56 (2007040)
I0830 10:34:09.374023 35214 net.cpp:156] Memory required for data: 889118840
I0830 10:34:09.374056 35214 layer_factory.hpp:77] Creating layer res2c_branch2b_relu
I0830 10:34:09.374089 35214 net.cpp:91] Creating Layer res2c_branch2b_relu
I0830 10:34:09.374117 35214 net.cpp:425] res2c_branch2b_relu <- res2c_branch2b
I0830 10:34:09.374147 35214 net.cpp:386] res2c_branch2b_relu -> res2c_branch2b (in-place)
I0830 10:34:09.374181 35214 net.cpp:141] Setting up res2c_branch2b_relu
I0830 10:34:09.374213 35214 net.cpp:148] Top shape: 10 64 56 56 (2007040)
I0830 10:34:09.374243 35214 net.cpp:156] Memory required for data: 897147000
I0830 10:34:09.374267 35214 layer_factory.hpp:77] Creating layer res2c_branch2c
I0830 10:34:09.374341 35214 net.cpp:91] Creating Layer res2c_branch2c
I0830 10:34:09.374387 35214 net.cpp:425] res2c_branch2c <- res2c_branch2b
I0830 10:34:09.374438 35214 net.cpp:399] res2c_branch2c -> res2c_branch2c
I0830 10:34:09.375259 35214 net.cpp:141] Setting up res2c_branch2c
I0830 10:34:09.375291 35214 net.cpp:148] Top shape: 10 256 56 56 (8028160)
I0830 10:34:09.375309 35214 net.cpp:156] Memory required for data: 929259640
I0830 10:34:09.375331 35214 layer_factory.hpp:77] Creating layer bn2c_branch2c
I0830 10:34:09.375353 35214 net.cpp:91] Creating Layer bn2c_branch2c
I0830 10:34:09.375372 35214 net.cpp:425] bn2c_branch2c <- res2c_branch2c
I0830 10:34:09.375393 35214 net.cpp:386] bn2c_branch2c -> res2c_branch2c (in-place)
I0830 10:34:09.375633 35214 net.cpp:141] Setting up bn2c_branch2c
I0830 10:34:09.375663 35214 net.cpp:148] Top shape: 10 256 56 56 (8028160)
I0830 10:34:09.375681 35214 net.cpp:156] Memory required for data: 961372280
I0830 10:34:09.375720 35214 layer_factory.hpp:77] Creating layer scale2c_branch2c
I0830 10:34:09.375749 35214 net.cpp:91] Creating Layer scale2c_branch2c
I0830 10:34:09.375769 35214 net.cpp:425] scale2c_branch2c <- res2c_branch2c
I0830 10:34:09.375795 35214 net.cpp:386] scale2c_branch2c -> res2c_branch2c (in-place)
I0830 10:34:09.375867 35214 layer_factory.hpp:77] Creating layer scale2c_branch2c
I0830 10:34:09.376056 35214 net.cpp:141] Setting up scale2c_branch2c
I0830 10:34:09.376099 35214 net.cpp:148] Top shape: 10 256 56 56 (8028160)
I0830 10:34:09.376128 35214 net.cpp:156] Memory required for data: 993484920
I0830 10:34:09.376161 35214 layer_factory.hpp:77] Creating layer res2c
I0830 10:34:09.376201 35214 net.cpp:91] Creating Layer res2c
I0830 10:34:09.376231 35214 net.cpp:425] res2c <- res2b_res2b_relu_0_split_1
I0830 10:34:09.376261 35214 net.cpp:425] res2c <- res2c_branch2c
I0830 10:34:09.376291 35214 net.cpp:399] res2c -> res2c
I0830 10:34:09.376361 35214 net.cpp:141] Setting up res2c
I0830 10:34:09.376401 35214 net.cpp:148] Top shape: 10 256 56 56 (8028160)
I0830 10:34:09.376430 35214 net.cpp:156] Memory required for data: 1025597560
I0830 10:34:09.376456 35214 layer_factory.hpp:77] Creating layer res2c_relu
I0830 10:34:09.376487 35214 net.cpp:91] Creating Layer res2c_relu
I0830 10:34:09.376515 35214 net.cpp:425] res2c_relu <- res2c
I0830 10:34:09.376549 35214 net.cpp:386] res2c_relu -> res2c (in-place)
I0830 10:34:09.376585 35214 net.cpp:141] Setting up res2c_relu
I0830 10:34:09.376617 35214 net.cpp:148] Top shape: 10 256 56 56 (8028160)
I0830 10:34:09.376644 35214 net.cpp:156] Memory required for data: 1057710200
I0830 10:34:09.376670 35214 layer_factory.hpp:77] Creating layer res2c_res2c_relu_0_split
I0830 10:34:09.376699 35214 net.cpp:91] Creating Layer res2c_res2c_relu_0_split
I0830 10:34:09.376729 35214 net.cpp:425] res2c_res2c_relu_0_split <- res2c
I0830 10:34:09.376757 35214 net.cpp:399] res2c_res2c_relu_0_split -> res2c_res2c_relu_0_split_0
I0830 10:34:09.376797 35214 net.cpp:399] res2c_res2c_relu_0_split -> res2c_res2c_relu_0_split_1
I0830 10:34:09.376891 35214 net.cpp:141] Setting up res2c_res2c_relu_0_split
I0830 10:34:09.376931 35214 net.cpp:148] Top shape: 10 256 56 56 (8028160)
I0830 10:34:09.376962 35214 net.cpp:148] Top shape: 10 256 56 56 (8028160)
I0830 10:34:09.376988 35214 net.cpp:156] Memory required for data: 1121935480
I0830 10:34:09.377013 35214 layer_factory.hpp:77] Creating layer res3a_branch1
I0830 10:34:09.377049 35214 net.cpp:91] Creating Layer res3a_branch1
I0830 10:34:09.377081 35214 net.cpp:425] res3a_branch1 <- res2c_res2c_relu_0_split_0
I0830 10:34:09.377118 35214 net.cpp:399] res3a_branch1 -> res3a_branch1
I0830 10:34:09.380355 35214 net.cpp:141] Setting up res3a_branch1
I0830 10:34:09.380408 35214 net.cpp:148] Top shape: 10 512 28 28 (4014080)
I0830 10:34:09.380439 35214 net.cpp:156] Memory required for data: 1137991800
I0830 10:34:09.380468 35214 layer_factory.hpp:77] Creating layer bn3a_branch1
I0830 10:34:09.380504 35214 net.cpp:91] Creating Layer bn3a_branch1
I0830 10:34:09.380535 35214 net.cpp:425] bn3a_branch1 <- res3a_branch1
I0830 10:34:09.380599 35214 net.cpp:386] bn3a_branch1 -> res3a_branch1 (in-place)
I0830 10:34:09.381863 35214 net.cpp:141] Setting up bn3a_branch1
I0830 10:34:09.381912 35214 net.cpp:148] Top shape: 10 512 28 28 (4014080)
I0830 10:34:09.381942 35214 net.cpp:156] Memory required for data: 1154048120
I0830 10:34:09.381979 35214 layer_factory.hpp:77] Creating layer scale3a_branch1
I0830 10:34:09.382015 35214 net.cpp:91] Creating Layer scale3a_branch1
I0830 10:34:09.382045 35214 net.cpp:425] scale3a_branch1 <- res3a_branch1
I0830 10:34:09.382076 35214 net.cpp:386] scale3a_branch1 -> res3a_branch1 (in-place)
I0830 10:34:09.382190 35214 layer_factory.hpp:77] Creating layer scale3a_branch1
I0830 10:34:09.382442 35214 net.cpp:141] Setting up scale3a_branch1
I0830 10:34:09.382486 35214 net.cpp:148] Top shape: 10 512 28 28 (4014080)
I0830 10:34:09.382515 35214 net.cpp:156] Memory required for data: 1170104440
I0830 10:34:09.382549 35214 layer_factory.hpp:77] Creating layer res3a_branch2a
I0830 10:34:09.382592 35214 net.cpp:91] Creating Layer res3a_branch2a
I0830 10:34:09.382625 35214 net.cpp:425] res3a_branch2a <- res2c_res2c_relu_0_split_1
I0830 10:34:09.382658 35214 net.cpp:399] res3a_branch2a -> res3a_branch2a
I0830 10:34:09.383496 35214 net.cpp:141] Setting up res3a_branch2a
I0830 10:34:09.383540 35214 net.cpp:148] Top shape: 10 128 28 28 (1003520)
I0830 10:34:09.383569 35214 net.cpp:156] Memory required for data: 1174118520
I0830 10:34:09.383599 35214 layer_factory.hpp:77] Creating layer bn3a_branch2a
I0830 10:34:09.383633 35214 net.cpp:91] Creating Layer bn3a_branch2a
I0830 10:34:09.383664 35214 net.cpp:425] bn3a_branch2a <- res3a_branch2a
I0830 10:34:09.383698 35214 net.cpp:386] bn3a_branch2a -> res3a_branch2a (in-place)
I0830 10:34:09.384050 35214 net.cpp:141] Setting up bn3a_branch2a
I0830 10:34:09.384093 35214 net.cpp:148] Top shape: 10 128 28 28 (1003520)
I0830 10:34:09.384121 35214 net.cpp:156] Memory required for data: 1178132600
I0830 10:34:09.384158 35214 layer_factory.hpp:77] Creating layer scale3a_branch2a
I0830 10:34:09.384193 35214 net.cpp:91] Creating Layer scale3a_branch2a
I0830 10:34:09.384223 35214 net.cpp:425] scale3a_branch2a <- res3a_branch2a
I0830 10:34:09.384253 35214 net.cpp:386] scale3a_branch2a -> res3a_branch2a (in-place)
I0830 10:34:09.384356 35214 layer_factory.hpp:77] Creating layer scale3a_branch2a
I0830 10:34:09.384584 35214 net.cpp:141] Setting up scale3a_branch2a
I0830 10:34:09.384625 35214 net.cpp:148] Top shape: 10 128 28 28 (1003520)
I0830 10:34:09.384654 35214 net.cpp:156] Memory required for data: 1182146680
I0830 10:34:09.384686 35214 layer_factory.hpp:77] Creating layer res3a_branch2a_relu
I0830 10:34:09.384724 35214 net.cpp:91] Creating Layer res3a_branch2a_relu
I0830 10:34:09.384754 35214 net.cpp:425] res3a_branch2a_relu <- res3a_branch2a
I0830 10:34:09.384783 35214 net.cpp:386] res3a_branch2a_relu -> res3a_branch2a (in-place)
I0830 10:34:09.384816 35214 net.cpp:141] Setting up res3a_branch2a_relu
I0830 10:34:09.384850 35214 net.cpp:148] Top shape: 10 128 28 28 (1003520)
I0830 10:34:09.384876 35214 net.cpp:156] Memory required for data: 1186160760
I0830 10:34:09.384902 35214 layer_factory.hpp:77] Creating layer res3a_branch2b
I0830 10:34:09.384943 35214 net.cpp:91] Creating Layer res3a_branch2b
I0830 10:34:09.384974 35214 net.cpp:425] res3a_branch2b <- res3a_branch2a
I0830 10:34:09.385006 35214 net.cpp:399] res3a_branch2b -> res3a_branch2b
I0830 10:34:09.388411 35214 net.cpp:141] Setting up res3a_branch2b
I0830 10:34:09.388463 35214 net.cpp:148] Top shape: 10 128 28 28 (1003520)
I0830 10:34:09.388494 35214 net.cpp:156] Memory required for data: 1190174840
I0830 10:34:09.388523 35214 layer_factory.hpp:77] Creating layer bn3a_branch2b
I0830 10:34:09.388559 35214 net.cpp:91] Creating Layer bn3a_branch2b
I0830 10:34:09.388589 35214 net.cpp:425] bn3a_branch2b <- res3a_branch2b
I0830 10:34:09.388624 35214 net.cpp:386] bn3a_branch2b -> res3a_branch2b (in-place)
I0830 10:34:09.388978 35214 net.cpp:141] Setting up bn3a_branch2b
I0830 10:34:09.389020 35214 net.cpp:148] Top shape: 10 128 28 28 (1003520)
I0830 10:34:09.389080 35214 net.cpp:156] Memory required for data: 1194188920
I0830 10:34:09.389122 35214 layer_factory.hpp:77] Creating layer scale3a_branch2b
I0830 10:34:09.389158 35214 net.cpp:91] Creating Layer scale3a_branch2b
I0830 10:34:09.389187 35214 net.cpp:425] scale3a_branch2b <- res3a_branch2b
I0830 10:34:09.389216 35214 net.cpp:386] scale3a_branch2b -> res3a_branch2b (in-place)
I0830 10:34:09.389325 35214 layer_factory.hpp:77] Creating layer scale3a_branch2b
I0830 10:34:09.389562 35214 net.cpp:141] Setting up scale3a_branch2b
I0830 10:34:09.389605 35214 net.cpp:148] Top shape: 10 128 28 28 (1003520)
I0830 10:34:09.389633 35214 net.cpp:156] Memory required for data: 1198203000
I0830 10:34:09.389665 35214 layer_factory.hpp:77] Creating layer res3a_branch2b_relu
I0830 10:34:09.389705 35214 net.cpp:91] Creating Layer res3a_branch2b_relu
I0830 10:34:09.389736 35214 net.cpp:425] res3a_branch2b_relu <- res3a_branch2b
I0830 10:34:09.389765 35214 net.cpp:386] res3a_branch2b_relu -> res3a_branch2b (in-place)
I0830 10:34:09.389798 35214 net.cpp:141] Setting up res3a_branch2b_relu
I0830 10:34:09.389832 35214 net.cpp:148] Top shape: 10 128 28 28 (1003520)
I0830 10:34:09.389858 35214 net.cpp:156] Memory required for data: 1202217080
I0830 10:34:09.389884 35214 layer_factory.hpp:77] Creating layer res3a_branch2c
I0830 10:34:09.389940 35214 net.cpp:91] Creating Layer res3a_branch2c
I0830 10:34:09.389972 35214 net.cpp:425] res3a_branch2c <- res3a_branch2b
I0830 10:34:09.390007 35214 net.cpp:399] res3a_branch2c -> res3a_branch2c
I0830 10:34:09.391340 35214 net.cpp:141] Setting up res3a_branch2c
I0830 10:34:09.391386 35214 net.cpp:148] Top shape: 10 512 28 28 (4014080)
I0830 10:34:09.391415 35214 net.cpp:156] Memory required for data: 1218273400
I0830 10:34:09.391446 35214 layer_factory.hpp:77] Creating layer bn3a_branch2c
I0830 10:34:09.391479 35214 net.cpp:91] Creating Layer bn3a_branch2c
I0830 10:34:09.391508 35214 net.cpp:425] bn3a_branch2c <- res3a_branch2c
I0830 10:34:09.391543 35214 net.cpp:386] bn3a_branch2c -> res3a_branch2c (in-place)
I0830 10:34:09.391891 35214 net.cpp:141] Setting up bn3a_branch2c
I0830 10:34:09.391932 35214 net.cpp:148] Top shape: 10 512 28 28 (4014080)
I0830 10:34:09.391961 35214 net.cpp:156] Memory required for data: 1234329720
I0830 10:34:09.391997 35214 layer_factory.hpp:77] Creating layer scale3a_branch2c
I0830 10:34:09.392031 35214 net.cpp:91] Creating Layer scale3a_branch2c
I0830 10:34:09.392061 35214 net.cpp:425] scale3a_branch2c <- res3a_branch2c
I0830 10:34:09.392091 35214 net.cpp:386] scale3a_branch2c -> res3a_branch2c (in-place)
I0830 10:34:09.392197 35214 layer_factory.hpp:77] Creating layer scale3a_branch2c
I0830 10:34:09.392424 35214 net.cpp:141] Setting up scale3a_branch2c
I0830 10:34:09.392464 35214 net.cpp:148] Top shape: 10 512 28 28 (4014080)
I0830 10:34:09.392493 35214 net.cpp:156] Memory required for data: 1250386040
I0830 10:34:09.392525 35214 layer_factory.hpp:77] Creating layer res3a
I0830 10:34:09.392560 35214 net.cpp:91] Creating Layer res3a
I0830 10:34:09.392588 35214 net.cpp:425] res3a <- res3a_branch1
I0830 10:34:09.392616 35214 net.cpp:425] res3a <- res3a_branch2c
I0830 10:34:09.392650 35214 net.cpp:399] res3a -> res3a
I0830 10:34:09.392720 35214 net.cpp:141] Setting up res3a
I0830 10:34:09.392760 35214 net.cpp:148] Top shape: 10 512 28 28 (4014080)
I0830 10:34:09.392788 35214 net.cpp:156] Memory required for data: 1266442360
I0830 10:34:09.392815 35214 layer_factory.hpp:77] Creating layer res3a_relu
I0830 10:34:09.392851 35214 net.cpp:91] Creating Layer res3a_relu
I0830 10:34:09.392882 35214 net.cpp:425] res3a_relu <- res3a
I0830 10:34:09.392910 35214 net.cpp:386] res3a_relu -> res3a (in-place)
I0830 10:34:09.392943 35214 net.cpp:141] Setting up res3a_relu
I0830 10:34:09.392976 35214 net.cpp:148] Top shape: 10 512 28 28 (4014080)
I0830 10:34:09.393004 35214 net.cpp:156] Memory required for data: 1282498680
I0830 10:34:09.393031 35214 layer_factory.hpp:77] Creating layer res3a_res3a_relu_0_split
I0830 10:34:09.393069 35214 net.cpp:91] Creating Layer res3a_res3a_relu_0_split
I0830 10:34:09.393126 35214 net.cpp:425] res3a_res3a_relu_0_split <- res3a
I0830 10:34:09.393162 35214 net.cpp:399] res3a_res3a_relu_0_split -> res3a_res3a_relu_0_split_0
I0830 10:34:09.393204 35214 net.cpp:399] res3a_res3a_relu_0_split -> res3a_res3a_relu_0_split_1
I0830 10:34:09.393299 35214 net.cpp:141] Setting up res3a_res3a_relu_0_split
I0830 10:34:09.393342 35214 net.cpp:148] Top shape: 10 512 28 28 (4014080)
I0830 10:34:09.393373 35214 net.cpp:148] Top shape: 10 512 28 28 (4014080)
I0830 10:34:09.393400 35214 net.cpp:156] Memory required for data: 1314611320
I0830 10:34:09.393425 35214 layer_factory.hpp:77] Creating layer res3b_branch2a
I0830 10:34:09.393468 35214 net.cpp:91] Creating Layer res3b_branch2a
I0830 10:34:09.393501 35214 net.cpp:425] res3b_branch2a <- res3a_res3a_relu_0_split_0
I0830 10:34:09.393535 35214 net.cpp:399] res3b_branch2a -> res3b_branch2a
I0830 10:34:09.395758 35214 net.cpp:141] Setting up res3b_branch2a
I0830 10:34:09.395809 35214 net.cpp:148] Top shape: 10 128 28 28 (1003520)
I0830 10:34:09.395839 35214 net.cpp:156] Memory required for data: 1318625400
I0830 10:34:09.395870 35214 layer_factory.hpp:77] Creating layer bn3b_branch2a
I0830 10:34:09.395916 35214 net.cpp:91] Creating Layer bn3b_branch2a
I0830 10:34:09.395951 35214 net.cpp:425] bn3b_branch2a <- res3b_branch2a
I0830 10:34:09.395983 35214 net.cpp:386] bn3b_branch2a -> res3b_branch2a (in-place)
I0830 10:34:09.396329 35214 net.cpp:141] Setting up bn3b_branch2a
I0830 10:34:09.396370 35214 net.cpp:148] Top shape: 10 128 28 28 (1003520)
I0830 10:34:09.396399 35214 net.cpp:156] Memory required for data: 1322639480
I0830 10:34:09.396435 35214 layer_factory.hpp:77] Creating layer scale3b_branch2a
I0830 10:34:09.396471 35214 net.cpp:91] Creating Layer scale3b_branch2a
I0830 10:34:09.396500 35214 net.cpp:425] scale3b_branch2a <- res3b_branch2a
I0830 10:34:09.396535 35214 net.cpp:386] scale3b_branch2a -> res3b_branch2a (in-place)
I0830 10:34:09.396634 35214 layer_factory.hpp:77] Creating layer scale3b_branch2a
I0830 10:34:09.396870 35214 net.cpp:141] Setting up scale3b_branch2a
I0830 10:34:09.396916 35214 net.cpp:148] Top shape: 10 128 28 28 (1003520)
I0830 10:34:09.396945 35214 net.cpp:156] Memory required for data: 1326653560
I0830 10:34:09.396978 35214 layer_factory.hpp:77] Creating layer res3b_branch2a_relu
I0830 10:34:09.397011 35214 net.cpp:91] Creating Layer res3b_branch2a_relu
I0830 10:34:09.397040 35214 net.cpp:425] res3b_branch2a_relu <- res3b_branch2a
I0830 10:34:09.397068 35214 net.cpp:386] res3b_branch2a_relu -> res3b_branch2a (in-place)
I0830 10:34:09.397104 35214 net.cpp:141] Setting up res3b_branch2a_relu
I0830 10:34:09.397136 35214 net.cpp:148] Top shape: 10 128 28 28 (1003520)
I0830 10:34:09.397163 35214 net.cpp:156] Memory required for data: 1330667640
I0830 10:34:09.397191 35214 layer_factory.hpp:77] Creating layer res3b_branch2b
I0830 10:34:09.397231 35214 net.cpp:91] Creating Layer res3b_branch2b
I0830 10:34:09.397261 35214 net.cpp:425] res3b_branch2b <- res3b_branch2a
I0830 10:34:09.397300 35214 net.cpp:399] res3b_branch2b -> res3b_branch2b
I0830 10:34:09.400686 35214 net.cpp:141] Setting up res3b_branch2b
I0830 10:34:09.400737 35214 net.cpp:148] Top shape: 10 128 28 28 (1003520)
I0830 10:34:09.400765 35214 net.cpp:156] Memory required for data: 1334681720
I0830 10:34:09.400795 35214 layer_factory.hpp:77] Creating layer bn3b_branch2b
I0830 10:34:09.400835 35214 net.cpp:91] Creating Layer bn3b_branch2b
I0830 10:34:09.400867 35214 net.cpp:425] bn3b_branch2b <- res3b_branch2b
I0830 10:34:09.400898 35214 net.cpp:386] bn3b_branch2b -> res3b_branch2b (in-place)
I0830 10:34:09.401262 35214 net.cpp:141] Setting up bn3b_branch2b
I0830 10:34:09.401304 35214 net.cpp:148] Top shape: 10 128 28 28 (1003520)
I0830 10:34:09.401332 35214 net.cpp:156] Memory required for data: 1338695800
I0830 10:34:09.401368 35214 layer_factory.hpp:77] Creating layer scale3b_branch2b
I0830 10:34:09.401403 35214 net.cpp:91] Creating Layer scale3b_branch2b
I0830 10:34:09.401432 35214 net.cpp:425] scale3b_branch2b <- res3b_branch2b
I0830 10:34:09.401500 35214 net.cpp:386] scale3b_branch2b -> res3b_branch2b (in-place)
I0830 10:34:09.401607 35214 layer_factory.hpp:77] Creating layer scale3b_branch2b
I0830 10:34:09.401842 35214 net.cpp:141] Setting up scale3b_branch2b
I0830 10:34:09.401890 35214 net.cpp:148] Top shape: 10 128 28 28 (1003520)
I0830 10:34:09.401918 35214 net.cpp:156] Memory required for data: 1342709880
I0830 10:34:09.401952 35214 layer_factory.hpp:77] Creating layer res3b_branch2b_relu
I0830 10:34:09.401986 35214 net.cpp:91] Creating Layer res3b_branch2b_relu
I0830 10:34:09.402015 35214 net.cpp:425] res3b_branch2b_relu <- res3b_branch2b
I0830 10:34:09.402045 35214 net.cpp:386] res3b_branch2b_relu -> res3b_branch2b (in-place)
I0830 10:34:09.402076 35214 net.cpp:141] Setting up res3b_branch2b_relu
I0830 10:34:09.402109 35214 net.cpp:148] Top shape: 10 128 28 28 (1003520)
I0830 10:34:09.402137 35214 net.cpp:156] Memory required for data: 1346723960
I0830 10:34:09.402163 35214 layer_factory.hpp:77] Creating layer res3b_branch2c
I0830 10:34:09.402206 35214 net.cpp:91] Creating Layer res3b_branch2c
I0830 10:34:09.402237 35214 net.cpp:425] res3b_branch2c <- res3b_branch2b
I0830 10:34:09.402276 35214 net.cpp:399] res3b_branch2c -> res3b_branch2c
I0830 10:34:09.403590 35214 net.cpp:141] Setting up res3b_branch2c
I0830 10:34:09.403637 35214 net.cpp:148] Top shape: 10 512 28 28 (4014080)
I0830 10:34:09.403666 35214 net.cpp:156] Memory required for data: 1362780280
I0830 10:34:09.403697 35214 layer_factory.hpp:77] Creating layer bn3b_branch2c
I0830 10:34:09.403731 35214 net.cpp:91] Creating Layer bn3b_branch2c
I0830 10:34:09.403762 35214 net.cpp:425] bn3b_branch2c <- res3b_branch2c
I0830 10:34:09.403791 35214 net.cpp:386] bn3b_branch2c -> res3b_branch2c (in-place)
I0830 10:34:09.404155 35214 net.cpp:141] Setting up bn3b_branch2c
I0830 10:34:09.404197 35214 net.cpp:148] Top shape: 10 512 28 28 (4014080)
I0830 10:34:09.404227 35214 net.cpp:156] Memory required for data: 1378836600
I0830 10:34:09.404263 35214 layer_factory.hpp:77] Creating layer scale3b_branch2c
I0830 10:34:09.404302 35214 net.cpp:91] Creating Layer scale3b_branch2c
I0830 10:34:09.404333 35214 net.cpp:425] scale3b_branch2c <- res3b_branch2c
I0830 10:34:09.404362 35214 net.cpp:386] scale3b_branch2c -> res3b_branch2c (in-place)
I0830 10:34:09.404472 35214 layer_factory.hpp:77] Creating layer scale3b_branch2c
I0830 10:34:09.404711 35214 net.cpp:141] Setting up scale3b_branch2c
I0830 10:34:09.404752 35214 net.cpp:148] Top shape: 10 512 28 28 (4014080)
I0830 10:34:09.404779 35214 net.cpp:156] Memory required for data: 1394892920
I0830 10:34:09.404812 35214 layer_factory.hpp:77] Creating layer res3b
I0830 10:34:09.404851 35214 net.cpp:91] Creating Layer res3b
I0830 10:34:09.404881 35214 net.cpp:425] res3b <- res3a_res3a_relu_0_split_1
I0830 10:34:09.404911 35214 net.cpp:425] res3b <- res3b_branch2c
I0830 10:34:09.404942 35214 net.cpp:399] res3b -> res3b
I0830 10:34:09.405023 35214 net.cpp:141] Setting up res3b
I0830 10:34:09.405063 35214 net.cpp:148] Top shape: 10 512 28 28 (4014080)
I0830 10:34:09.405092 35214 net.cpp:156] Memory required for data: 1410949240
I0830 10:34:09.405118 35214 layer_factory.hpp:77] Creating layer res3b_relu
I0830 10:34:09.405151 35214 net.cpp:91] Creating Layer res3b_relu
I0830 10:34:09.405180 35214 net.cpp:425] res3b_relu <- res3b
I0830 10:34:09.405215 35214 net.cpp:386] res3b_relu -> res3b (in-place)
I0830 10:34:09.405251 35214 net.cpp:141] Setting up res3b_relu
I0830 10:34:09.405283 35214 net.cpp:148] Top shape: 10 512 28 28 (4014080)
I0830 10:34:09.405313 35214 net.cpp:156] Memory required for data: 1427005560
I0830 10:34:09.405339 35214 layer_factory.hpp:77] Creating layer res3b_res3b_relu_0_split
I0830 10:34:09.405367 35214 net.cpp:91] Creating Layer res3b_res3b_relu_0_split
I0830 10:34:09.405396 35214 net.cpp:425] res3b_res3b_relu_0_split <- res3b
I0830 10:34:09.405426 35214 net.cpp:399] res3b_res3b_relu_0_split -> res3b_res3b_relu_0_split_0
I0830 10:34:09.405460 35214 net.cpp:399] res3b_res3b_relu_0_split -> res3b_res3b_relu_0_split_1
I0830 10:34:09.405585 35214 net.cpp:141] Setting up res3b_res3b_relu_0_split
I0830 10:34:09.405627 35214 net.cpp:148] Top shape: 10 512 28 28 (4014080)
I0830 10:34:09.405658 35214 net.cpp:148] Top shape: 10 512 28 28 (4014080)
I0830 10:34:09.405686 35214 net.cpp:156] Memory required for data: 1459118200
I0830 10:34:09.405712 35214 layer_factory.hpp:77] Creating layer res3c_branch2a
I0830 10:34:09.405750 35214 net.cpp:91] Creating Layer res3c_branch2a
I0830 10:34:09.405781 35214 net.cpp:425] res3c_branch2a <- res3b_res3b_relu_0_split_0
I0830 10:34:09.405817 35214 net.cpp:399] res3c_branch2a -> res3c_branch2a
I0830 10:34:09.407119 35214 net.cpp:141] Setting up res3c_branch2a
I0830 10:34:09.407165 35214 net.cpp:148] Top shape: 10 128 28 28 (1003520)
I0830 10:34:09.407194 35214 net.cpp:156] Memory required for data: 1463132280
I0830 10:34:09.407224 35214 layer_factory.hpp:77] Creating layer bn3c_branch2a
I0830 10:34:09.407264 35214 net.cpp:91] Creating Layer bn3c_branch2a
I0830 10:34:09.407294 35214 net.cpp:425] bn3c_branch2a <- res3c_branch2a
I0830 10:34:09.407328 35214 net.cpp:386] bn3c_branch2a -> res3c_branch2a (in-place)
I0830 10:34:09.407681 35214 net.cpp:141] Setting up bn3c_branch2a
I0830 10:34:09.407723 35214 net.cpp:148] Top shape: 10 128 28 28 (1003520)
I0830 10:34:09.407752 35214 net.cpp:156] Memory required for data: 1467146360
I0830 10:34:09.407788 35214 layer_factory.hpp:77] Creating layer scale3c_branch2a
I0830 10:34:09.407824 35214 net.cpp:91] Creating Layer scale3c_branch2a
I0830 10:34:09.407855 35214 net.cpp:425] scale3c_branch2a <- res3c_branch2a
I0830 10:34:09.407888 35214 net.cpp:386] scale3c_branch2a -> res3c_branch2a (in-place)
I0830 10:34:09.407989 35214 layer_factory.hpp:77] Creating layer scale3c_branch2a
I0830 10:34:09.408227 35214 net.cpp:141] Setting up scale3c_branch2a
I0830 10:34:09.408268 35214 net.cpp:148] Top shape: 10 128 28 28 (1003520)
I0830 10:34:09.408298 35214 net.cpp:156] Memory required for data: 1471160440
I0830 10:34:09.408329 35214 layer_factory.hpp:77] Creating layer res3c_branch2a_relu
I0830 10:34:09.408362 35214 net.cpp:91] Creating Layer res3c_branch2a_relu
I0830 10:34:09.408391 35214 net.cpp:425] res3c_branch2a_relu <- res3c_branch2a
I0830 10:34:09.408421 35214 net.cpp:386] res3c_branch2a_relu -> res3c_branch2a (in-place)
I0830 10:34:09.408453 35214 net.cpp:141] Setting up res3c_branch2a_relu
I0830 10:34:09.408485 35214 net.cpp:148] Top shape: 10 128 28 28 (1003520)
I0830 10:34:09.408514 35214 net.cpp:156] Memory required for data: 1475174520
I0830 10:34:09.408540 35214 layer_factory.hpp:77] Creating layer res3c_branch2b
I0830 10:34:09.408587 35214 net.cpp:91] Creating Layer res3c_branch2b
I0830 10:34:09.408619 35214 net.cpp:425] res3c_branch2b <- res3c_branch2a
I0830 10:34:09.408656 35214 net.cpp:399] res3c_branch2b -> res3c_branch2b
I0830 10:34:09.412066 35214 net.cpp:141] Setting up res3c_branch2b
I0830 10:34:09.412116 35214 net.cpp:148] Top shape: 10 128 28 28 (1003520)
I0830 10:34:09.412145 35214 net.cpp:156] Memory required for data: 1479188600
I0830 10:34:09.412174 35214 layer_factory.hpp:77] Creating layer bn3c_branch2b
I0830 10:34:09.412214 35214 net.cpp:91] Creating Layer bn3c_branch2b
I0830 10:34:09.412245 35214 net.cpp:425] bn3c_branch2b <- res3c_branch2b
I0830 10:34:09.412276 35214 net.cpp:386] bn3c_branch2b -> res3c_branch2b (in-place)
I0830 10:34:09.412634 35214 net.cpp:141] Setting up bn3c_branch2b
I0830 10:34:09.412677 35214 net.cpp:148] Top shape: 10 128 28 28 (1003520)
I0830 10:34:09.412706 35214 net.cpp:156] Memory required for data: 1483202680
I0830 10:34:09.412742 35214 layer_factory.hpp:77] Creating layer scale3c_branch2b
I0830 10:34:09.412778 35214 net.cpp:91] Creating Layer scale3c_branch2b
I0830 10:34:09.412808 35214 net.cpp:425] scale3c_branch2b <- res3c_branch2b
I0830 10:34:09.412842 35214 net.cpp:386] scale3c_branch2b -> res3c_branch2b (in-place)
I0830 10:34:09.412945 35214 layer_factory.hpp:77] Creating layer scale3c_branch2b
I0830 10:34:09.413187 35214 net.cpp:141] Setting up scale3c_branch2b
I0830 10:34:09.413233 35214 net.cpp:148] Top shape: 10 128 28 28 (1003520)
I0830 10:34:09.413288 35214 net.cpp:156] Memory required for data: 1487216760
I0830 10:34:09.413324 35214 layer_factory.hpp:77] Creating layer res3c_branch2b_relu
I0830 10:34:09.413359 35214 net.cpp:91] Creating Layer res3c_branch2b_relu
I0830 10:34:09.413388 35214 net.cpp:425] res3c_branch2b_relu <- res3c_branch2b
I0830 10:34:09.413417 35214 net.cpp:386] res3c_branch2b_relu -> res3c_branch2b (in-place)
I0830 10:34:09.413450 35214 net.cpp:141] Setting up res3c_branch2b_relu
I0830 10:34:09.413482 35214 net.cpp:148] Top shape: 10 128 28 28 (1003520)
I0830 10:34:09.413509 35214 net.cpp:156] Memory required for data: 1491230840
I0830 10:34:09.413535 35214 layer_factory.hpp:77] Creating layer res3c_branch2c
I0830 10:34:09.413576 35214 net.cpp:91] Creating Layer res3c_branch2c
I0830 10:34:09.413607 35214 net.cpp:425] res3c_branch2c <- res3c_branch2b
I0830 10:34:09.413645 35214 net.cpp:399] res3c_branch2c -> res3c_branch2c
I0830 10:34:09.414945 35214 net.cpp:141] Setting up res3c_branch2c
I0830 10:34:09.414990 35214 net.cpp:148] Top shape: 10 512 28 28 (4014080)
I0830 10:34:09.415019 35214 net.cpp:156] Memory required for data: 1507287160
I0830 10:34:09.415050 35214 layer_factory.hpp:77] Creating layer bn3c_branch2c
I0830 10:34:09.415084 35214 net.cpp:91] Creating Layer bn3c_branch2c
I0830 10:34:09.415113 35214 net.cpp:425] bn3c_branch2c <- res3c_branch2c
I0830 10:34:09.415143 35214 net.cpp:386] bn3c_branch2c -> res3c_branch2c (in-place)
I0830 10:34:09.415493 35214 net.cpp:141] Setting up bn3c_branch2c
I0830 10:34:09.415535 35214 net.cpp:148] Top shape: 10 512 28 28 (4014080)
I0830 10:34:09.415565 35214 net.cpp:156] Memory required for data: 1523343480
I0830 10:34:09.415601 35214 layer_factory.hpp:77] Creating layer scale3c_branch2c
I0830 10:34:09.415640 35214 net.cpp:91] Creating Layer scale3c_branch2c
I0830 10:34:09.415671 35214 net.cpp:425] scale3c_branch2c <- res3c_branch2c
I0830 10:34:09.415701 35214 net.cpp:386] scale3c_branch2c -> res3c_branch2c (in-place)
I0830 10:34:09.415815 35214 layer_factory.hpp:77] Creating layer scale3c_branch2c
I0830 10:34:09.416055 35214 net.cpp:141] Setting up scale3c_branch2c
I0830 10:34:09.416096 35214 net.cpp:148] Top shape: 10 512 28 28 (4014080)
I0830 10:34:09.416124 35214 net.cpp:156] Memory required for data: 1539399800
I0830 10:34:09.416157 35214 layer_factory.hpp:77] Creating layer res3c
I0830 10:34:09.416191 35214 net.cpp:91] Creating Layer res3c
I0830 10:34:09.416220 35214 net.cpp:425] res3c <- res3b_res3b_relu_0_split_1
I0830 10:34:09.416249 35214 net.cpp:425] res3c <- res3c_branch2c
I0830 10:34:09.416286 35214 net.cpp:399] res3c -> res3c
I0830 10:34:09.416363 35214 net.cpp:141] Setting up res3c
I0830 10:34:09.416404 35214 net.cpp:148] Top shape: 10 512 28 28 (4014080)
I0830 10:34:09.416432 35214 net.cpp:156] Memory required for data: 1555456120
I0830 10:34:09.416458 35214 layer_factory.hpp:77] Creating layer res3c_relu
I0830 10:34:09.416487 35214 net.cpp:91] Creating Layer res3c_relu
I0830 10:34:09.416514 35214 net.cpp:425] res3c_relu <- res3c
I0830 10:34:09.416543 35214 net.cpp:386] res3c_relu -> res3c (in-place)
I0830 10:34:09.416577 35214 net.cpp:141] Setting up res3c_relu
I0830 10:34:09.416610 35214 net.cpp:148] Top shape: 10 512 28 28 (4014080)
I0830 10:34:09.416637 35214 net.cpp:156] Memory required for data: 1571512440
I0830 10:34:09.416664 35214 layer_factory.hpp:77] Creating layer res3c_res3c_relu_0_split
I0830 10:34:09.416700 35214 net.cpp:91] Creating Layer res3c_res3c_relu_0_split
I0830 10:34:09.416728 35214 net.cpp:425] res3c_res3c_relu_0_split <- res3c
I0830 10:34:09.416757 35214 net.cpp:399] res3c_res3c_relu_0_split -> res3c_res3c_relu_0_split_0
I0830 10:34:09.416792 35214 net.cpp:399] res3c_res3c_relu_0_split -> res3c_res3c_relu_0_split_1
I0830 10:34:09.416887 35214 net.cpp:141] Setting up res3c_res3c_relu_0_split
I0830 10:34:09.416926 35214 net.cpp:148] Top shape: 10 512 28 28 (4014080)
I0830 10:34:09.416957 35214 net.cpp:148] Top shape: 10 512 28 28 (4014080)
I0830 10:34:09.416983 35214 net.cpp:156] Memory required for data: 1603625080
I0830 10:34:09.417037 35214 layer_factory.hpp:77] Creating layer res3d_branch2a
I0830 10:34:09.417078 35214 net.cpp:91] Creating Layer res3d_branch2a
I0830 10:34:09.417110 35214 net.cpp:425] res3d_branch2a <- res3c_res3c_relu_0_split_0
I0830 10:34:09.417142 35214 net.cpp:399] res3d_branch2a -> res3d_branch2a
I0830 10:34:09.419360 35214 net.cpp:141] Setting up res3d_branch2a
I0830 10:34:09.419411 35214 net.cpp:148] Top shape: 10 128 28 28 (1003520)
I0830 10:34:09.419440 35214 net.cpp:156] Memory required for data: 1607639160
I0830 10:34:09.419471 35214 layer_factory.hpp:77] Creating layer bn3d_branch2a
I0830 10:34:09.419507 35214 net.cpp:91] Creating Layer bn3d_branch2a
I0830 10:34:09.419535 35214 net.cpp:425] bn3d_branch2a <- res3d_branch2a
I0830 10:34:09.419565 35214 net.cpp:386] bn3d_branch2a -> res3d_branch2a (in-place)
I0830 10:34:09.419931 35214 net.cpp:141] Setting up bn3d_branch2a
I0830 10:34:09.419973 35214 net.cpp:148] Top shape: 10 128 28 28 (1003520)
I0830 10:34:09.420002 35214 net.cpp:156] Memory required for data: 1611653240
I0830 10:34:09.420074 35214 layer_factory.hpp:77] Creating layer scale3d_branch2a
I0830 10:34:09.420120 35214 net.cpp:91] Creating Layer scale3d_branch2a
I0830 10:34:09.420150 35214 net.cpp:425] scale3d_branch2a <- res3d_branch2a
I0830 10:34:09.420181 35214 net.cpp:386] scale3d_branch2a -> res3d_branch2a (in-place)
I0830 10:34:09.420296 35214 layer_factory.hpp:77] Creating layer scale3d_branch2a
I0830 10:34:09.420533 35214 net.cpp:141] Setting up scale3d_branch2a
I0830 10:34:09.420577 35214 net.cpp:148] Top shape: 10 128 28 28 (1003520)
I0830 10:34:09.420604 35214 net.cpp:156] Memory required for data: 1615667320
I0830 10:34:09.420639 35214 layer_factory.hpp:77] Creating layer res3d_branch2a_relu
I0830 10:34:09.420671 35214 net.cpp:91] Creating Layer res3d_branch2a_relu
I0830 10:34:09.420701 35214 net.cpp:425] res3d_branch2a_relu <- res3d_branch2a
I0830 10:34:09.420729 35214 net.cpp:386] res3d_branch2a_relu -> res3d_branch2a (in-place)
I0830 10:34:09.420761 35214 net.cpp:141] Setting up res3d_branch2a_relu
I0830 10:34:09.420792 35214 net.cpp:148] Top shape: 10 128 28 28 (1003520)
I0830 10:34:09.420817 35214 net.cpp:156] Memory required for data: 1619681400
I0830 10:34:09.420845 35214 layer_factory.hpp:77] Creating layer res3d_branch2b
I0830 10:34:09.420884 35214 net.cpp:91] Creating Layer res3d_branch2b
I0830 10:34:09.420919 35214 net.cpp:425] res3d_branch2b <- res3d_branch2a
I0830 10:34:09.420953 35214 net.cpp:399] res3d_branch2b -> res3d_branch2b
I0830 10:34:09.424353 35214 net.cpp:141] Setting up res3d_branch2b
I0830 10:34:09.424403 35214 net.cpp:148] Top shape: 10 128 28 28 (1003520)
I0830 10:34:09.424433 35214 net.cpp:156] Memory required for data: 1623695480
I0830 10:34:09.424465 35214 layer_factory.hpp:77] Creating layer bn3d_branch2b
I0830 10:34:09.424505 35214 net.cpp:91] Creating Layer bn3d_branch2b
I0830 10:34:09.424536 35214 net.cpp:425] bn3d_branch2b <- res3d_branch2b
I0830 10:34:09.424568 35214 net.cpp:386] bn3d_branch2b -> res3d_branch2b (in-place)
I0830 10:34:09.424933 35214 net.cpp:141] Setting up bn3d_branch2b
I0830 10:34:09.424975 35214 net.cpp:148] Top shape: 10 128 28 28 (1003520)
I0830 10:34:09.425005 35214 net.cpp:156] Memory required for data: 1627709560
I0830 10:34:09.425041 35214 layer_factory.hpp:77] Creating layer scale3d_branch2b
I0830 10:34:09.425076 35214 net.cpp:91] Creating Layer scale3d_branch2b
I0830 10:34:09.425106 35214 net.cpp:425] scale3d_branch2b <- res3d_branch2b
I0830 10:34:09.425140 35214 net.cpp:386] scale3d_branch2b -> res3d_branch2b (in-place)
I0830 10:34:09.425243 35214 layer_factory.hpp:77] Creating layer scale3d_branch2b
I0830 10:34:09.425499 35214 net.cpp:141] Setting up scale3d_branch2b
I0830 10:34:09.425541 35214 net.cpp:148] Top shape: 10 128 28 28 (1003520)
I0830 10:34:09.425570 35214 net.cpp:156] Memory required for data: 1631723640
I0830 10:34:09.425603 35214 layer_factory.hpp:77] Creating layer res3d_branch2b_relu
I0830 10:34:09.425637 35214 net.cpp:91] Creating Layer res3d_branch2b_relu
I0830 10:34:09.425667 35214 net.cpp:425] res3d_branch2b_relu <- res3d_branch2b
I0830 10:34:09.425725 35214 net.cpp:386] res3d_branch2b_relu -> res3d_branch2b (in-place)
I0830 10:34:09.425765 35214 net.cpp:141] Setting up res3d_branch2b_relu
I0830 10:34:09.425798 35214 net.cpp:148] Top shape: 10 128 28 28 (1003520)
I0830 10:34:09.425827 35214 net.cpp:156] Memory required for data: 1635737720
I0830 10:34:09.425853 35214 layer_factory.hpp:77] Creating layer res3d_branch2c
I0830 10:34:09.425899 35214 net.cpp:91] Creating Layer res3d_branch2c
I0830 10:34:09.425930 35214 net.cpp:425] res3d_branch2c <- res3d_branch2b
I0830 10:34:09.425966 35214 net.cpp:399] res3d_branch2c -> res3d_branch2c
I0830 10:34:09.427284 35214 net.cpp:141] Setting up res3d_branch2c
I0830 10:34:09.427328 35214 net.cpp:148] Top shape: 10 512 28 28 (4014080)
I0830 10:34:09.427358 35214 net.cpp:156] Memory required for data: 1651794040
I0830 10:34:09.427388 35214 layer_factory.hpp:77] Creating layer bn3d_branch2c
I0830 10:34:09.427423 35214 net.cpp:91] Creating Layer bn3d_branch2c
I0830 10:34:09.427453 35214 net.cpp:425] bn3d_branch2c <- res3d_branch2c
I0830 10:34:09.427481 35214 net.cpp:386] bn3d_branch2c -> res3d_branch2c (in-place)
I0830 10:34:09.427860 35214 net.cpp:141] Setting up bn3d_branch2c
I0830 10:34:09.427902 35214 net.cpp:148] Top shape: 10 512 28 28 (4014080)
I0830 10:34:09.427932 35214 net.cpp:156] Memory required for data: 1667850360
I0830 10:34:09.427966 35214 layer_factory.hpp:77] Creating layer scale3d_branch2c
I0830 10:34:09.428001 35214 net.cpp:91] Creating Layer scale3d_branch2c
I0830 10:34:09.428030 35214 net.cpp:425] scale3d_branch2c <- res3d_branch2c
I0830 10:34:09.428059 35214 net.cpp:386] scale3d_branch2c -> res3d_branch2c (in-place)
I0830 10:34:09.428170 35214 layer_factory.hpp:77] Creating layer scale3d_branch2c
I0830 10:34:09.428409 35214 net.cpp:141] Setting up scale3d_branch2c
I0830 10:34:09.428452 35214 net.cpp:148] Top shape: 10 512 28 28 (4014080)
I0830 10:34:09.428479 35214 net.cpp:156] Memory required for data: 1683906680
I0830 10:34:09.428511 35214 layer_factory.hpp:77] Creating layer res3d
I0830 10:34:09.428550 35214 net.cpp:91] Creating Layer res3d
I0830 10:34:09.428580 35214 net.cpp:425] res3d <- res3c_res3c_relu_0_split_1
I0830 10:34:09.428611 35214 net.cpp:425] res3d <- res3d_branch2c
I0830 10:34:09.428647 35214 net.cpp:399] res3d -> res3d
I0830 10:34:09.428719 35214 net.cpp:141] Setting up res3d
I0830 10:34:09.428756 35214 net.cpp:148] Top shape: 10 512 28 28 (4014080)
I0830 10:34:09.428786 35214 net.cpp:156] Memory required for data: 1699963000
I0830 10:34:09.428812 35214 layer_factory.hpp:77] Creating layer res3d_relu
I0830 10:34:09.428850 35214 net.cpp:91] Creating Layer res3d_relu
I0830 10:34:09.428880 35214 net.cpp:425] res3d_relu <- res3d
I0830 10:34:09.428908 35214 net.cpp:386] res3d_relu -> res3d (in-place)
I0830 10:34:09.428943 35214 net.cpp:141] Setting up res3d_relu
I0830 10:34:09.428974 35214 net.cpp:148] Top shape: 10 512 28 28 (4014080)
I0830 10:34:09.429003 35214 net.cpp:156] Memory required for data: 1716019320
I0830 10:34:09.429029 35214 layer_factory.hpp:77] Creating layer res3d_res3d_relu_0_split
I0830 10:34:09.429059 35214 net.cpp:91] Creating Layer res3d_res3d_relu_0_split
I0830 10:34:09.429085 35214 net.cpp:425] res3d_res3d_relu_0_split <- res3d
I0830 10:34:09.429112 35214 net.cpp:399] res3d_res3d_relu_0_split -> res3d_res3d_relu_0_split_0
I0830 10:34:09.429147 35214 net.cpp:399] res3d_res3d_relu_0_split -> res3d_res3d_relu_0_split_1
I0830 10:34:09.429250 35214 net.cpp:141] Setting up res3d_res3d_relu_0_split
I0830 10:34:09.429291 35214 net.cpp:148] Top shape: 10 512 28 28 (4014080)
I0830 10:34:09.429322 35214 net.cpp:148] Top shape: 10 512 28 28 (4014080)
I0830 10:34:09.429350 35214 net.cpp:156] Memory required for data: 1748131960
I0830 10:34:09.429376 35214 layer_factory.hpp:77] Creating layer res4a_branch1
I0830 10:34:09.429411 35214 net.cpp:91] Creating Layer res4a_branch1
I0830 10:34:09.429441 35214 net.cpp:425] res4a_branch1 <- res3d_res3d_relu_0_split_0
I0830 10:34:09.429481 35214 net.cpp:399] res4a_branch1 -> res4a_branch1
I0830 10:34:09.432116 35214 net.cpp:141] Setting up res4a_branch1
I0830 10:34:09.432165 35214 net.cpp:148] Top shape: 10 1024 14 14 (2007040)
I0830 10:34:09.432195 35214 net.cpp:156] Memory required for data: 1756160120
I0830 10:34:09.432227 35214 layer_factory.hpp:77] Creating layer bn4a_branch1
I0830 10:34:09.432262 35214 net.cpp:91] Creating Layer bn4a_branch1
I0830 10:34:09.432293 35214 net.cpp:425] bn4a_branch1 <- res4a_branch1
I0830 10:34:09.432324 35214 net.cpp:386] bn4a_branch1 -> res4a_branch1 (in-place)
I0830 10:34:09.432709 35214 net.cpp:141] Setting up bn4a_branch1
I0830 10:34:09.432752 35214 net.cpp:148] Top shape: 10 1024 14 14 (2007040)
I0830 10:34:09.432781 35214 net.cpp:156] Memory required for data: 1764188280
I0830 10:34:09.432818 35214 layer_factory.hpp:77] Creating layer scale4a_branch1
I0830 10:34:09.432853 35214 net.cpp:91] Creating Layer scale4a_branch1
I0830 10:34:09.432883 35214 net.cpp:425] scale4a_branch1 <- res4a_branch1
I0830 10:34:09.432914 35214 net.cpp:386] scale4a_branch1 -> res4a_branch1 (in-place)
I0830 10:34:09.433020 35214 layer_factory.hpp:77] Creating layer scale4a_branch1
I0830 10:34:09.433265 35214 net.cpp:141] Setting up scale4a_branch1
I0830 10:34:09.433307 35214 net.cpp:148] Top shape: 10 1024 14 14 (2007040)
I0830 10:34:09.433334 35214 net.cpp:156] Memory required for data: 1772216440
I0830 10:34:09.433367 35214 layer_factory.hpp:77] Creating layer res4a_branch2a
I0830 10:34:09.433410 35214 net.cpp:91] Creating Layer res4a_branch2a
I0830 10:34:09.433444 35214 net.cpp:425] res4a_branch2a <- res3d_res3d_relu_0_split_1
I0830 10:34:09.433477 35214 net.cpp:399] res4a_branch2a -> res4a_branch2a
I0830 10:34:09.435783 35214 net.cpp:141] Setting up res4a_branch2a
I0830 10:34:09.435828 35214 net.cpp:148] Top shape: 10 256 14 14 (501760)
I0830 10:34:09.435858 35214 net.cpp:156] Memory required for data: 1774223480
I0830 10:34:09.435887 35214 layer_factory.hpp:77] Creating layer bn4a_branch2a
I0830 10:34:09.435922 35214 net.cpp:91] Creating Layer bn4a_branch2a
I0830 10:34:09.435952 35214 net.cpp:425] bn4a_branch2a <- res4a_branch2a
I0830 10:34:09.435988 35214 net.cpp:386] bn4a_branch2a -> res4a_branch2a (in-place)
I0830 10:34:09.436348 35214 net.cpp:141] Setting up bn4a_branch2a
I0830 10:34:09.436389 35214 net.cpp:148] Top shape: 10 256 14 14 (501760)
I0830 10:34:09.436419 35214 net.cpp:156] Memory required for data: 1776230520
I0830 10:34:09.436455 35214 layer_factory.hpp:77] Creating layer scale4a_branch2a
I0830 10:34:09.436489 35214 net.cpp:91] Creating Layer scale4a_branch2a
I0830 10:34:09.436518 35214 net.cpp:425] scale4a_branch2a <- res4a_branch2a
I0830 10:34:09.436547 35214 net.cpp:386] scale4a_branch2a -> res4a_branch2a (in-place)
I0830 10:34:09.436655 35214 layer_factory.hpp:77] Creating layer scale4a_branch2a
I0830 10:34:09.436892 35214 net.cpp:141] Setting up scale4a_branch2a
I0830 10:34:09.436933 35214 net.cpp:148] Top shape: 10 256 14 14 (501760)
I0830 10:34:09.436961 35214 net.cpp:156] Memory required for data: 1778237560
I0830 10:34:09.436993 35214 layer_factory.hpp:77] Creating layer res4a_branch2a_relu
I0830 10:34:09.437027 35214 net.cpp:91] Creating Layer res4a_branch2a_relu
I0830 10:34:09.437057 35214 net.cpp:425] res4a_branch2a_relu <- res4a_branch2a
I0830 10:34:09.437090 35214 net.cpp:386] res4a_branch2a_relu -> res4a_branch2a (in-place)
I0830 10:34:09.437127 35214 net.cpp:141] Setting up res4a_branch2a_relu
I0830 10:34:09.437160 35214 net.cpp:148] Top shape: 10 256 14 14 (501760)
I0830 10:34:09.437187 35214 net.cpp:156] Memory required for data: 1780244600
I0830 10:34:09.437214 35214 layer_factory.hpp:77] Creating layer res4a_branch2b
I0830 10:34:09.437249 35214 net.cpp:91] Creating Layer res4a_branch2b
I0830 10:34:09.437279 35214 net.cpp:425] res4a_branch2b <- res4a_branch2a
I0830 10:34:09.437315 35214 net.cpp:399] res4a_branch2b -> res4a_branch2b
I0830 10:34:09.447927 35214 net.cpp:141] Setting up res4a_branch2b
I0830 10:34:09.447980 35214 net.cpp:148] Top shape: 10 256 14 14 (501760)
I0830 10:34:09.448014 35214 net.cpp:156] Memory required for data: 1782251640
I0830 10:34:09.448076 35214 layer_factory.hpp:77] Creating layer bn4a_branch2b
I0830 10:34:09.448115 35214 net.cpp:91] Creating Layer bn4a_branch2b
I0830 10:34:09.448149 35214 net.cpp:425] bn4a_branch2b <- res4a_branch2b
I0830 10:34:09.448179 35214 net.cpp:386] bn4a_branch2b -> res4a_branch2b (in-place)
I0830 10:34:09.448544 35214 net.cpp:141] Setting up bn4a_branch2b
I0830 10:34:09.448585 35214 net.cpp:148] Top shape: 10 256 14 14 (501760)
I0830 10:34:09.448614 35214 net.cpp:156] Memory required for data: 1784258680
I0830 10:34:09.448654 35214 layer_factory.hpp:77] Creating layer scale4a_branch2b
I0830 10:34:09.448691 35214 net.cpp:91] Creating Layer scale4a_branch2b
I0830 10:34:09.448721 35214 net.cpp:425] scale4a_branch2b <- res4a_branch2b
I0830 10:34:09.448750 35214 net.cpp:386] scale4a_branch2b -> res4a_branch2b (in-place)
I0830 10:34:09.448858 35214 layer_factory.hpp:77] Creating layer scale4a_branch2b
I0830 10:34:09.449098 35214 net.cpp:141] Setting up scale4a_branch2b
I0830 10:34:09.449141 35214 net.cpp:148] Top shape: 10 256 14 14 (501760)
I0830 10:34:09.449169 35214 net.cpp:156] Memory required for data: 1786265720
I0830 10:34:09.449201 35214 layer_factory.hpp:77] Creating layer res4a_branch2b_relu
I0830 10:34:09.449239 35214 net.cpp:91] Creating Layer res4a_branch2b_relu
I0830 10:34:09.449270 35214 net.cpp:425] res4a_branch2b_relu <- res4a_branch2b
I0830 10:34:09.449298 35214 net.cpp:386] res4a_branch2b_relu -> res4a_branch2b (in-place)
I0830 10:34:09.449334 35214 net.cpp:141] Setting up res4a_branch2b_relu
I0830 10:34:09.449367 35214 net.cpp:148] Top shape: 10 256 14 14 (501760)
I0830 10:34:09.449393 35214 net.cpp:156] Memory required for data: 1788272760
I0830 10:34:09.449419 35214 layer_factory.hpp:77] Creating layer res4a_branch2c
I0830 10:34:09.449457 35214 net.cpp:91] Creating Layer res4a_branch2c
I0830 10:34:09.449488 35214 net.cpp:425] res4a_branch2c <- res4a_branch2b
I0830 10:34:09.449525 35214 net.cpp:399] res4a_branch2c -> res4a_branch2c
I0830 10:34:09.454576 35214 net.cpp:141] Setting up res4a_branch2c
I0830 10:34:09.454625 35214 net.cpp:148] Top shape: 10 1024 14 14 (2007040)
I0830 10:34:09.454658 35214 net.cpp:156] Memory required for data: 1796300920
I0830 10:34:09.454689 35214 layer_factory.hpp:77] Creating layer bn4a_branch2c
I0830 10:34:09.454727 35214 net.cpp:91] Creating Layer bn4a_branch2c
I0830 10:34:09.454761 35214 net.cpp:425] bn4a_branch2c <- res4a_branch2c
I0830 10:34:09.454790 35214 net.cpp:386] bn4a_branch2c -> res4a_branch2c (in-place)
I0830 10:34:09.455169 35214 net.cpp:141] Setting up bn4a_branch2c
I0830 10:34:09.455212 35214 net.cpp:148] Top shape: 10 1024 14 14 (2007040)
I0830 10:34:09.455251 35214 net.cpp:156] Memory required for data: 1804329080
I0830 10:34:09.455288 35214 layer_factory.hpp:77] Creating layer scale4a_branch2c
I0830 10:34:09.455329 35214 net.cpp:91] Creating Layer scale4a_branch2c
I0830 10:34:09.455359 35214 net.cpp:425] scale4a_branch2c <- res4a_branch2c
I0830 10:34:09.455389 35214 net.cpp:386] scale4a_branch2c -> res4a_branch2c (in-place)
I0830 10:34:09.455493 35214 layer_factory.hpp:77] Creating layer scale4a_branch2c
I0830 10:34:09.455749 35214 net.cpp:141] Setting up scale4a_branch2c
I0830 10:34:09.455790 35214 net.cpp:148] Top shape: 10 1024 14 14 (2007040)
I0830 10:34:09.455819 35214 net.cpp:156] Memory required for data: 1812357240
I0830 10:34:09.455850 35214 layer_factory.hpp:77] Creating layer res4a
I0830 10:34:09.455884 35214 net.cpp:91] Creating Layer res4a
I0830 10:34:09.455914 35214 net.cpp:425] res4a <- res4a_branch1
I0830 10:34:09.455941 35214 net.cpp:425] res4a <- res4a_branch2c
I0830 10:34:09.455978 35214 net.cpp:399] res4a -> res4a
I0830 10:34:09.456058 35214 net.cpp:141] Setting up res4a
I0830 10:34:09.456099 35214 net.cpp:148] Top shape: 10 1024 14 14 (2007040)
I0830 10:34:09.456126 35214 net.cpp:156] Memory required for data: 1820385400
I0830 10:34:09.456152 35214 layer_factory.hpp:77] Creating layer res4a_relu
I0830 10:34:09.456183 35214 net.cpp:91] Creating Layer res4a_relu
I0830 10:34:09.456212 35214 net.cpp:425] res4a_relu <- res4a
I0830 10:34:09.456271 35214 net.cpp:386] res4a_relu -> res4a (in-place)
I0830 10:34:09.456310 35214 net.cpp:141] Setting up res4a_relu
I0830 10:34:09.456341 35214 net.cpp:148] Top shape: 10 1024 14 14 (2007040)
I0830 10:34:09.456369 35214 net.cpp:156] Memory required for data: 1828413560
I0830 10:34:09.456394 35214 layer_factory.hpp:77] Creating layer res4a_res4a_relu_0_split
I0830 10:34:09.456454 35214 net.cpp:91] Creating Layer res4a_res4a_relu_0_split
I0830 10:34:09.456486 35214 net.cpp:425] res4a_res4a_relu_0_split <- res4a
I0830 10:34:09.456521 35214 net.cpp:399] res4a_res4a_relu_0_split -> res4a_res4a_relu_0_split_0
I0830 10:34:09.456558 35214 net.cpp:399] res4a_res4a_relu_0_split -> res4a_res4a_relu_0_split_1
I0830 10:34:09.456652 35214 net.cpp:141] Setting up res4a_res4a_relu_0_split
I0830 10:34:09.456691 35214 net.cpp:148] Top shape: 10 1024 14 14 (2007040)
I0830 10:34:09.456723 35214 net.cpp:148] Top shape: 10 1024 14 14 (2007040)
I0830 10:34:09.456751 35214 net.cpp:156] Memory required for data: 1844469880
I0830 10:34:09.456778 35214 layer_factory.hpp:77] Creating layer res4b_branch2a
I0830 10:34:09.456820 35214 net.cpp:91] Creating Layer res4b_branch2a
I0830 10:34:09.456852 35214 net.cpp:425] res4b_branch2a <- res4a_res4a_relu_0_split_0
I0830 10:34:09.456885 35214 net.cpp:399] res4b_branch2a -> res4b_branch2a
I0830 10:34:09.461935 35214 net.cpp:141] Setting up res4b_branch2a
I0830 10:34:09.461984 35214 net.cpp:148] Top shape: 10 256 14 14 (501760)
I0830 10:34:09.462015 35214 net.cpp:156] Memory required for data: 1846476920
I0830 10:34:09.462046 35214 layer_factory.hpp:77] Creating layer bn4b_branch2a
I0830 10:34:09.462090 35214 net.cpp:91] Creating Layer bn4b_branch2a
I0830 10:34:09.462121 35214 net.cpp:425] bn4b_branch2a <- res4b_branch2a
I0830 10:34:09.462152 35214 net.cpp:386] bn4b_branch2a -> res4b_branch2a (in-place)
I0830 10:34:09.462533 35214 net.cpp:141] Setting up bn4b_branch2a
I0830 10:34:09.462576 35214 net.cpp:148] Top shape: 10 256 14 14 (501760)
I0830 10:34:09.462606 35214 net.cpp:156] Memory required for data: 1848483960
I0830 10:34:09.462642 35214 layer_factory.hpp:77] Creating layer scale4b_branch2a
I0830 10:34:09.462678 35214 net.cpp:91] Creating Layer scale4b_branch2a
I0830 10:34:09.462707 35214 net.cpp:425] scale4b_branch2a <- res4b_branch2a
I0830 10:34:09.462741 35214 net.cpp:386] scale4b_branch2a -> res4b_branch2a (in-place)
I0830 10:34:09.462846 35214 layer_factory.hpp:77] Creating layer scale4b_branch2a
I0830 10:34:09.463085 35214 net.cpp:141] Setting up scale4b_branch2a
I0830 10:34:09.463134 35214 net.cpp:148] Top shape: 10 256 14 14 (501760)
I0830 10:34:09.463163 35214 net.cpp:156] Memory required for data: 1850491000
I0830 10:34:09.463196 35214 layer_factory.hpp:77] Creating layer res4b_branch2a_relu
I0830 10:34:09.463229 35214 net.cpp:91] Creating Layer res4b_branch2a_relu
I0830 10:34:09.463258 35214 net.cpp:425] res4b_branch2a_relu <- res4b_branch2a
I0830 10:34:09.463287 35214 net.cpp:386] res4b_branch2a_relu -> res4b_branch2a (in-place)
I0830 10:34:09.463321 35214 net.cpp:141] Setting up res4b_branch2a_relu
I0830 10:34:09.463353 35214 net.cpp:148] Top shape: 10 256 14 14 (501760)
I0830 10:34:09.463382 35214 net.cpp:156] Memory required for data: 1852498040
I0830 10:34:09.463408 35214 layer_factory.hpp:77] Creating layer res4b_branch2b
I0830 10:34:09.463451 35214 net.cpp:91] Creating Layer res4b_branch2b
I0830 10:34:09.463484 35214 net.cpp:425] res4b_branch2b <- res4b_branch2a
I0830 10:34:09.463521 35214 net.cpp:399] res4b_branch2b -> res4b_branch2b
I0830 10:34:09.474135 35214 net.cpp:141] Setting up res4b_branch2b
I0830 10:34:09.474186 35214 net.cpp:148] Top shape: 10 256 14 14 (501760)
I0830 10:34:09.474218 35214 net.cpp:156] Memory required for data: 1854505080
I0830 10:34:09.474248 35214 layer_factory.hpp:77] Creating layer bn4b_branch2b
I0830 10:34:09.474287 35214 net.cpp:91] Creating Layer bn4b_branch2b
I0830 10:34:09.474320 35214 net.cpp:425] bn4b_branch2b <- res4b_branch2b
I0830 10:34:09.474356 35214 net.cpp:386] bn4b_branch2b -> res4b_branch2b (in-place)
I0830 10:34:09.474733 35214 net.cpp:141] Setting up bn4b_branch2b
I0830 10:34:09.474802 35214 net.cpp:148] Top shape: 10 256 14 14 (501760)
I0830 10:34:09.474834 35214 net.cpp:156] Memory required for data: 1856512120
I0830 10:34:09.474871 35214 layer_factory.hpp:77] Creating layer scale4b_branch2b
I0830 10:34:09.474906 35214 net.cpp:91] Creating Layer scale4b_branch2b
I0830 10:34:09.474936 35214 net.cpp:425] scale4b_branch2b <- res4b_branch2b
I0830 10:34:09.474967 35214 net.cpp:386] scale4b_branch2b -> res4b_branch2b (in-place)
I0830 10:34:09.475078 35214 layer_factory.hpp:77] Creating layer scale4b_branch2b
I0830 10:34:09.475317 35214 net.cpp:141] Setting up scale4b_branch2b
I0830 10:34:09.475358 35214 net.cpp:148] Top shape: 10 256 14 14 (501760)
I0830 10:34:09.475388 35214 net.cpp:156] Memory required for data: 1858519160
I0830 10:34:09.475420 35214 layer_factory.hpp:77] Creating layer res4b_branch2b_relu
I0830 10:34:09.475453 35214 net.cpp:91] Creating Layer res4b_branch2b_relu
I0830 10:34:09.475482 35214 net.cpp:425] res4b_branch2b_relu <- res4b_branch2b
I0830 10:34:09.475517 35214 net.cpp:386] res4b_branch2b_relu -> res4b_branch2b (in-place)
I0830 10:34:09.475553 35214 net.cpp:141] Setting up res4b_branch2b_relu
I0830 10:34:09.475584 35214 net.cpp:148] Top shape: 10 256 14 14 (501760)
I0830 10:34:09.475611 35214 net.cpp:156] Memory required for data: 1860526200
I0830 10:34:09.475636 35214 layer_factory.hpp:77] Creating layer res4b_branch2c
I0830 10:34:09.475672 35214 net.cpp:91] Creating Layer res4b_branch2c
I0830 10:34:09.475703 35214 net.cpp:425] res4b_branch2c <- res4b_branch2b
I0830 10:34:09.475740 35214 net.cpp:399] res4b_branch2c -> res4b_branch2c
I0830 10:34:09.480790 35214 net.cpp:141] Setting up res4b_branch2c
I0830 10:34:09.480841 35214 net.cpp:148] Top shape: 10 1024 14 14 (2007040)
I0830 10:34:09.480870 35214 net.cpp:156] Memory required for data: 1868554360
I0830 10:34:09.480901 35214 layer_factory.hpp:77] Creating layer bn4b_branch2c
I0830 10:34:09.480939 35214 net.cpp:91] Creating Layer bn4b_branch2c
I0830 10:34:09.480971 35214 net.cpp:425] bn4b_branch2c <- res4b_branch2c
I0830 10:34:09.481001 35214 net.cpp:386] bn4b_branch2c -> res4b_branch2c (in-place)
I0830 10:34:09.481382 35214 net.cpp:141] Setting up bn4b_branch2c
I0830 10:34:09.481425 35214 net.cpp:148] Top shape: 10 1024 14 14 (2007040)
I0830 10:34:09.481453 35214 net.cpp:156] Memory required for data: 1876582520
I0830 10:34:09.481494 35214 layer_factory.hpp:77] Creating layer scale4b_branch2c
I0830 10:34:09.481530 35214 net.cpp:91] Creating Layer scale4b_branch2c
I0830 10:34:09.481560 35214 net.cpp:425] scale4b_branch2c <- res4b_branch2c
I0830 10:34:09.481590 35214 net.cpp:386] scale4b_branch2c -> res4b_branch2c (in-place)
I0830 10:34:09.481698 35214 layer_factory.hpp:77] Creating layer scale4b_branch2c
I0830 10:34:09.481953 35214 net.cpp:141] Setting up scale4b_branch2c
I0830 10:34:09.481995 35214 net.cpp:148] Top shape: 10 1024 14 14 (2007040)
I0830 10:34:09.482023 35214 net.cpp:156] Memory required for data: 1884610680
I0830 10:34:09.482056 35214 layer_factory.hpp:77] Creating layer res4b
I0830 10:34:09.482095 35214 net.cpp:91] Creating Layer res4b
I0830 10:34:09.482126 35214 net.cpp:425] res4b <- res4a_res4a_relu_0_split_1
I0830 10:34:09.482158 35214 net.cpp:425] res4b <- res4b_branch2c
I0830 10:34:09.482192 35214 net.cpp:399] res4b -> res4b
I0830 10:34:09.482270 35214 net.cpp:141] Setting up res4b
I0830 10:34:09.482311 35214 net.cpp:148] Top shape: 10 1024 14 14 (2007040)
I0830 10:34:09.482338 35214 net.cpp:156] Memory required for data: 1892638840
I0830 10:34:09.482363 35214 layer_factory.hpp:77] Creating layer res4b_relu
I0830 10:34:09.482409 35214 net.cpp:91] Creating Layer res4b_relu
I0830 10:34:09.482439 35214 net.cpp:425] res4b_relu <- res4b
I0830 10:34:09.482472 35214 net.cpp:386] res4b_relu -> res4b (in-place)
I0830 10:34:09.482509 35214 net.cpp:141] Setting up res4b_relu
I0830 10:34:09.482542 35214 net.cpp:148] Top shape: 10 1024 14 14 (2007040)
I0830 10:34:09.482570 35214 net.cpp:156] Memory required for data: 1900667000
I0830 10:34:09.482596 35214 layer_factory.hpp:77] Creating layer res4b_res4b_relu_0_split
I0830 10:34:09.482657 35214 net.cpp:91] Creating Layer res4b_res4b_relu_0_split
I0830 10:34:09.482689 35214 net.cpp:425] res4b_res4b_relu_0_split <- res4b
I0830 10:34:09.482720 35214 net.cpp:399] res4b_res4b_relu_0_split -> res4b_res4b_relu_0_split_0
I0830 10:34:09.482755 35214 net.cpp:399] res4b_res4b_relu_0_split -> res4b_res4b_relu_0_split_1
I0830 10:34:09.482874 35214 net.cpp:141] Setting up res4b_res4b_relu_0_split
I0830 10:34:09.482915 35214 net.cpp:148] Top shape: 10 1024 14 14 (2007040)
I0830 10:34:09.482949 35214 net.cpp:148] Top shape: 10 1024 14 14 (2007040)
I0830 10:34:09.482976 35214 net.cpp:156] Memory required for data: 1916723320
I0830 10:34:09.483002 35214 layer_factory.hpp:77] Creating layer res4c_branch2a
I0830 10:34:09.483047 35214 net.cpp:91] Creating Layer res4c_branch2a
I0830 10:34:09.483078 35214 net.cpp:425] res4c_branch2a <- res4b_res4b_relu_0_split_0
I0830 10:34:09.483113 35214 net.cpp:399] res4c_branch2a -> res4c_branch2a
I0830 10:34:09.488164 35214 net.cpp:141] Setting up res4c_branch2a
I0830 10:34:09.488214 35214 net.cpp:148] Top shape: 10 256 14 14 (501760)
I0830 10:34:09.488246 35214 net.cpp:156] Memory required for data: 1918730360
I0830 10:34:09.488276 35214 layer_factory.hpp:77] Creating layer bn4c_branch2a
I0830 10:34:09.488317 35214 net.cpp:91] Creating Layer bn4c_branch2a
I0830 10:34:09.488348 35214 net.cpp:425] bn4c_branch2a <- res4c_branch2a
I0830 10:34:09.488385 35214 net.cpp:386] bn4c_branch2a -> res4c_branch2a (in-place)
I0830 10:34:09.488757 35214 net.cpp:141] Setting up bn4c_branch2a
I0830 10:34:09.488798 35214 net.cpp:148] Top shape: 10 256 14 14 (501760)
I0830 10:34:09.488827 35214 net.cpp:156] Memory required for data: 1920737400
I0830 10:34:09.488863 35214 layer_factory.hpp:77] Creating layer scale4c_branch2a
I0830 10:34:09.488899 35214 net.cpp:91] Creating Layer scale4c_branch2a
I0830 10:34:09.488929 35214 net.cpp:425] scale4c_branch2a <- res4c_branch2a
I0830 10:34:09.488960 35214 net.cpp:386] scale4c_branch2a -> res4c_branch2a (in-place)
I0830 10:34:09.489069 35214 layer_factory.hpp:77] Creating layer scale4c_branch2a
I0830 10:34:09.489315 35214 net.cpp:141] Setting up scale4c_branch2a
I0830 10:34:09.489356 35214 net.cpp:148] Top shape: 10 256 14 14 (501760)
I0830 10:34:09.489384 35214 net.cpp:156] Memory required for data: 1922744440
I0830 10:34:09.489418 35214 layer_factory.hpp:77] Creating layer res4c_branch2a_relu
I0830 10:34:09.489457 35214 net.cpp:91] Creating Layer res4c_branch2a_relu
I0830 10:34:09.489487 35214 net.cpp:425] res4c_branch2a_relu <- res4c_branch2a
I0830 10:34:09.489516 35214 net.cpp:386] res4c_branch2a_relu -> res4c_branch2a (in-place)
I0830 10:34:09.489547 35214 net.cpp:141] Setting up res4c_branch2a_relu
I0830 10:34:09.489579 35214 net.cpp:148] Top shape: 10 256 14 14 (501760)
I0830 10:34:09.489609 35214 net.cpp:156] Memory required for data: 1924751480
I0830 10:34:09.489634 35214 layer_factory.hpp:77] Creating layer res4c_branch2b
I0830 10:34:09.489673 35214 net.cpp:91] Creating Layer res4c_branch2b
I0830 10:34:09.489704 35214 net.cpp:425] res4c_branch2b <- res4c_branch2a
I0830 10:34:09.489737 35214 net.cpp:399] res4c_branch2b -> res4c_branch2b
I0830 10:34:09.500358 35214 net.cpp:141] Setting up res4c_branch2b
I0830 10:34:09.500409 35214 net.cpp:148] Top shape: 10 256 14 14 (501760)
I0830 10:34:09.500440 35214 net.cpp:156] Memory required for data: 1926758520
I0830 10:34:09.500471 35214 layer_factory.hpp:77] Creating layer bn4c_branch2b
I0830 10:34:09.500509 35214 net.cpp:91] Creating Layer bn4c_branch2b
I0830 10:34:09.500542 35214 net.cpp:425] bn4c_branch2b <- res4c_branch2b
I0830 10:34:09.500572 35214 net.cpp:386] bn4c_branch2b -> res4c_branch2b (in-place)
I0830 10:34:09.500953 35214 net.cpp:141] Setting up bn4c_branch2b
I0830 10:34:09.500996 35214 net.cpp:148] Top shape: 10 256 14 14 (501760)
I0830 10:34:09.501027 35214 net.cpp:156] Memory required for data: 1928765560
I0830 10:34:09.501063 35214 layer_factory.hpp:77] Creating layer scale4c_branch2b
I0830 10:34:09.501098 35214 net.cpp:91] Creating Layer scale4c_branch2b
I0830 10:34:09.501157 35214 net.cpp:425] scale4c_branch2b <- res4c_branch2b
I0830 10:34:09.501193 35214 net.cpp:386] scale4c_branch2b -> res4c_branch2b (in-place)
I0830 10:34:09.501308 35214 layer_factory.hpp:77] Creating layer scale4c_branch2b
I0830 10:34:09.501554 35214 net.cpp:141] Setting up scale4c_branch2b
I0830 10:34:09.501596 35214 net.cpp:148] Top shape: 10 256 14 14 (501760)
I0830 10:34:09.501624 35214 net.cpp:156] Memory required for data: 1930772600
I0830 10:34:09.501657 35214 layer_factory.hpp:77] Creating layer res4c_branch2b_relu
I0830 10:34:09.501690 35214 net.cpp:91] Creating Layer res4c_branch2b_relu
I0830 10:34:09.501718 35214 net.cpp:425] res4c_branch2b_relu <- res4c_branch2b
I0830 10:34:09.501752 35214 net.cpp:386] res4c_branch2b_relu -> res4c_branch2b (in-place)
I0830 10:34:09.501790 35214 net.cpp:141] Setting up res4c_branch2b_relu
I0830 10:34:09.501821 35214 net.cpp:148] Top shape: 10 256 14 14 (501760)
I0830 10:34:09.501848 35214 net.cpp:156] Memory required for data: 1932779640
I0830 10:34:09.501873 35214 layer_factory.hpp:77] Creating layer res4c_branch2c
I0830 10:34:09.501909 35214 net.cpp:91] Creating Layer res4c_branch2c
I0830 10:34:09.501940 35214 net.cpp:425] res4c_branch2c <- res4c_branch2b
I0830 10:34:09.501976 35214 net.cpp:399] res4c_branch2c -> res4c_branch2c
I0830 10:34:09.507027 35214 net.cpp:141] Setting up res4c_branch2c
I0830 10:34:09.507077 35214 net.cpp:148] Top shape: 10 1024 14 14 (2007040)
I0830 10:34:09.507108 35214 net.cpp:156] Memory required for data: 1940807800
I0830 10:34:09.507138 35214 layer_factory.hpp:77] Creating layer bn4c_branch2c
I0830 10:34:09.507176 35214 net.cpp:91] Creating Layer bn4c_branch2c
I0830 10:34:09.507210 35214 net.cpp:425] bn4c_branch2c <- res4c_branch2c
I0830 10:34:09.507241 35214 net.cpp:386] bn4c_branch2c -> res4c_branch2c (in-place)
I0830 10:34:09.507621 35214 net.cpp:141] Setting up bn4c_branch2c
I0830 10:34:09.507663 35214 net.cpp:148] Top shape: 10 1024 14 14 (2007040)
I0830 10:34:09.507692 35214 net.cpp:156] Memory required for data: 1948835960
I0830 10:34:09.507728 35214 layer_factory.hpp:77] Creating layer scale4c_branch2c
I0830 10:34:09.507769 35214 net.cpp:91] Creating Layer scale4c_branch2c
I0830 10:34:09.507798 35214 net.cpp:425] scale4c_branch2c <- res4c_branch2c
I0830 10:34:09.507828 35214 net.cpp:386] scale4c_branch2c -> res4c_branch2c (in-place)
I0830 10:34:09.507933 35214 layer_factory.hpp:77] Creating layer scale4c_branch2c
I0830 10:34:09.508188 35214 net.cpp:141] Setting up scale4c_branch2c
I0830 10:34:09.508230 35214 net.cpp:148] Top shape: 10 1024 14 14 (2007040)
I0830 10:34:09.508260 35214 net.cpp:156] Memory required for data: 1956864120
I0830 10:34:09.508291 35214 layer_factory.hpp:77] Creating layer res4c
I0830 10:34:09.508328 35214 net.cpp:91] Creating Layer res4c
I0830 10:34:09.508358 35214 net.cpp:425] res4c <- res4b_res4b_relu_0_split_1
I0830 10:34:09.508388 35214 net.cpp:425] res4c <- res4c_branch2c
I0830 10:34:09.508417 35214 net.cpp:399] res4c -> res4c
I0830 10:34:09.508494 35214 net.cpp:141] Setting up res4c
I0830 10:34:09.508534 35214 net.cpp:148] Top shape: 10 1024 14 14 (2007040)
I0830 10:34:09.508563 35214 net.cpp:156] Memory required for data: 1964892280
I0830 10:34:09.508589 35214 layer_factory.hpp:77] Creating layer res4c_relu
I0830 10:34:09.508622 35214 net.cpp:91] Creating Layer res4c_relu
I0830 10:34:09.508651 35214 net.cpp:425] res4c_relu <- res4c
I0830 10:34:09.508684 35214 net.cpp:386] res4c_relu -> res4c (in-place)
I0830 10:34:09.508720 35214 net.cpp:141] Setting up res4c_relu
I0830 10:34:09.508751 35214 net.cpp:148] Top shape: 10 1024 14 14 (2007040)
I0830 10:34:09.508779 35214 net.cpp:156] Memory required for data: 1972920440
I0830 10:34:09.508805 35214 layer_factory.hpp:77] Creating layer res4c_res4c_relu_0_split
I0830 10:34:09.508838 35214 net.cpp:91] Creating Layer res4c_res4c_relu_0_split
I0830 10:34:09.508867 35214 net.cpp:425] res4c_res4c_relu_0_split <- res4c
I0830 10:34:09.508895 35214 net.cpp:399] res4c_res4c_relu_0_split -> res4c_res4c_relu_0_split_0
I0830 10:34:09.508960 35214 net.cpp:399] res4c_res4c_relu_0_split -> res4c_res4c_relu_0_split_1
I0830 10:34:09.509063 35214 net.cpp:141] Setting up res4c_res4c_relu_0_split
I0830 10:34:09.509102 35214 net.cpp:148] Top shape: 10 1024 14 14 (2007040)
I0830 10:34:09.509133 35214 net.cpp:148] Top shape: 10 1024 14 14 (2007040)
I0830 10:34:09.509161 35214 net.cpp:156] Memory required for data: 1988976760
I0830 10:34:09.509188 35214 layer_factory.hpp:77] Creating layer res4d_branch2a
I0830 10:34:09.509223 35214 net.cpp:91] Creating Layer res4d_branch2a
I0830 10:34:09.509253 35214 net.cpp:425] res4d_branch2a <- res4c_res4c_relu_0_split_0
I0830 10:34:09.509291 35214 net.cpp:399] res4d_branch2a -> res4d_branch2a
I0830 10:34:09.514386 35214 net.cpp:141] Setting up res4d_branch2a
I0830 10:34:09.514436 35214 net.cpp:148] Top shape: 10 256 14 14 (501760)
I0830 10:34:09.514467 35214 net.cpp:156] Memory required for data: 1990983800
I0830 10:34:09.514497 35214 layer_factory.hpp:77] Creating layer bn4d_branch2a
I0830 10:34:09.514535 35214 net.cpp:91] Creating Layer bn4d_branch2a
I0830 10:34:09.514569 35214 net.cpp:425] bn4d_branch2a <- res4d_branch2a
I0830 10:34:09.514600 35214 net.cpp:386] bn4d_branch2a -> res4d_branch2a (in-place)
I0830 10:34:09.514974 35214 net.cpp:141] Setting up bn4d_branch2a
I0830 10:34:09.515017 35214 net.cpp:148] Top shape: 10 256 14 14 (501760)
I0830 10:34:09.515045 35214 net.cpp:156] Memory required for data: 1992990840
I0830 10:34:09.515082 35214 layer_factory.hpp:77] Creating layer scale4d_branch2a
I0830 10:34:09.515122 35214 net.cpp:91] Creating Layer scale4d_branch2a
I0830 10:34:09.515152 35214 net.cpp:425] scale4d_branch2a <- res4d_branch2a
I0830 10:34:09.515182 35214 net.cpp:386] scale4d_branch2a -> res4d_branch2a (in-place)
I0830 10:34:09.515292 35214 layer_factory.hpp:77] Creating layer scale4d_branch2a
I0830 10:34:09.515539 35214 net.cpp:141] Setting up scale4d_branch2a
I0830 10:34:09.515581 35214 net.cpp:148] Top shape: 10 256 14 14 (501760)
I0830 10:34:09.515610 35214 net.cpp:156] Memory required for data: 1994997880
I0830 10:34:09.515642 35214 layer_factory.hpp:77] Creating layer res4d_branch2a_relu
I0830 10:34:09.515676 35214 net.cpp:91] Creating Layer res4d_branch2a_relu
I0830 10:34:09.515705 35214 net.cpp:425] res4d_branch2a_relu <- res4d_branch2a
I0830 10:34:09.515739 35214 net.cpp:386] res4d_branch2a_relu -> res4d_branch2a (in-place)
I0830 10:34:09.515776 35214 net.cpp:141] Setting up res4d_branch2a_relu
I0830 10:34:09.515810 35214 net.cpp:148] Top shape: 10 256 14 14 (501760)
I0830 10:34:09.515837 35214 net.cpp:156] Memory required for data: 1997004920
I0830 10:34:09.515864 35214 layer_factory.hpp:77] Creating layer res4d_branch2b
I0830 10:34:09.515908 35214 net.cpp:91] Creating Layer res4d_branch2b
I0830 10:34:09.515940 35214 net.cpp:425] res4d_branch2b <- res4d_branch2a
I0830 10:34:09.515971 35214 net.cpp:399] res4d_branch2b -> res4d_branch2b
I0830 10:34:09.526576 35214 net.cpp:141] Setting up res4d_branch2b
I0830 10:34:09.526628 35214 net.cpp:148] Top shape: 10 256 14 14 (501760)
I0830 10:34:09.526660 35214 net.cpp:156] Memory required for data: 1999011960
I0830 10:34:09.526691 35214 layer_factory.hpp:77] Creating layer bn4d_branch2b
I0830 10:34:09.526734 35214 net.cpp:91] Creating Layer bn4d_branch2b
I0830 10:34:09.526767 35214 net.cpp:425] bn4d_branch2b <- res4d_branch2b
I0830 10:34:09.526798 35214 net.cpp:386] bn4d_branch2b -> res4d_branch2b (in-place)
I0830 10:34:09.527173 35214 net.cpp:141] Setting up bn4d_branch2b
I0830 10:34:09.527216 35214 net.cpp:148] Top shape: 10 256 14 14 (501760)
I0830 10:34:09.527247 35214 net.cpp:156] Memory required for data: 2001019000
I0830 10:34:09.527282 35214 layer_factory.hpp:77] Creating layer scale4d_branch2b
I0830 10:34:09.527318 35214 net.cpp:91] Creating Layer scale4d_branch2b
I0830 10:34:09.527348 35214 net.cpp:425] scale4d_branch2b <- res4d_branch2b
I0830 10:34:09.527382 35214 net.cpp:386] scale4d_branch2b -> res4d_branch2b (in-place)
I0830 10:34:09.527494 35214 layer_factory.hpp:77] Creating layer scale4d_branch2b
I0830 10:34:09.527741 35214 net.cpp:141] Setting up scale4d_branch2b
I0830 10:34:09.527811 35214 net.cpp:148] Top shape: 10 256 14 14 (501760)
I0830 10:34:09.527842 35214 net.cpp:156] Memory required for data: 2003026040
I0830 10:34:09.527875 35214 layer_factory.hpp:77] Creating layer res4d_branch2b_relu
I0830 10:34:09.527910 35214 net.cpp:91] Creating Layer res4d_branch2b_relu
I0830 10:34:09.527940 35214 net.cpp:425] res4d_branch2b_relu <- res4d_branch2b
I0830 10:34:09.527969 35214 net.cpp:386] res4d_branch2b_relu -> res4d_branch2b (in-place)
I0830 10:34:09.528003 35214 net.cpp:141] Setting up res4d_branch2b_relu
I0830 10:34:09.528036 35214 net.cpp:148] Top shape: 10 256 14 14 (501760)
I0830 10:34:09.528064 35214 net.cpp:156] Memory required for data: 2005033080
I0830 10:34:09.528091 35214 layer_factory.hpp:77] Creating layer res4d_branch2c
I0830 10:34:09.528136 35214 net.cpp:91] Creating Layer res4d_branch2c
I0830 10:34:09.528167 35214 net.cpp:425] res4d_branch2c <- res4d_branch2b
I0830 10:34:09.528203 35214 net.cpp:399] res4d_branch2c -> res4d_branch2c
I0830 10:34:09.533255 35214 net.cpp:141] Setting up res4d_branch2c
I0830 10:34:09.533305 35214 net.cpp:148] Top shape: 10 1024 14 14 (2007040)
I0830 10:34:09.533336 35214 net.cpp:156] Memory required for data: 2013061240
I0830 10:34:09.533367 35214 layer_factory.hpp:77] Creating layer bn4d_branch2c
I0830 10:34:09.533401 35214 net.cpp:91] Creating Layer bn4d_branch2c
I0830 10:34:09.533432 35214 net.cpp:425] bn4d_branch2c <- res4d_branch2c
I0830 10:34:09.533469 35214 net.cpp:386] bn4d_branch2c -> res4d_branch2c (in-place)
I0830 10:34:09.533854 35214 net.cpp:141] Setting up bn4d_branch2c
I0830 10:34:09.533895 35214 net.cpp:148] Top shape: 10 1024 14 14 (2007040)
I0830 10:34:09.533924 35214 net.cpp:156] Memory required for data: 2021089400
I0830 10:34:09.533962 35214 layer_factory.hpp:77] Creating layer scale4d_branch2c
I0830 10:34:09.533996 35214 net.cpp:91] Creating Layer scale4d_branch2c
I0830 10:34:09.534026 35214 net.cpp:425] scale4d_branch2c <- res4d_branch2c
I0830 10:34:09.534056 35214 net.cpp:386] scale4d_branch2c -> res4d_branch2c (in-place)
I0830 10:34:09.534162 35214 layer_factory.hpp:77] Creating layer scale4d_branch2c
I0830 10:34:09.534435 35214 net.cpp:141] Setting up scale4d_branch2c
I0830 10:34:09.534479 35214 net.cpp:148] Top shape: 10 1024 14 14 (2007040)
I0830 10:34:09.534507 35214 net.cpp:156] Memory required for data: 2029117560
I0830 10:34:09.534539 35214 layer_factory.hpp:77] Creating layer res4d
I0830 10:34:09.534577 35214 net.cpp:91] Creating Layer res4d
I0830 10:34:09.534607 35214 net.cpp:425] res4d <- res4c_res4c_relu_0_split_1
I0830 10:34:09.534636 35214 net.cpp:425] res4d <- res4d_branch2c
I0830 10:34:09.534667 35214 net.cpp:399] res4d -> res4d
I0830 10:34:09.534745 35214 net.cpp:141] Setting up res4d
I0830 10:34:09.534786 35214 net.cpp:148] Top shape: 10 1024 14 14 (2007040)
I0830 10:34:09.534816 35214 net.cpp:156] Memory required for data: 2037145720
I0830 10:34:09.534842 35214 layer_factory.hpp:77] Creating layer res4d_relu
I0830 10:34:09.534873 35214 net.cpp:91] Creating Layer res4d_relu
I0830 10:34:09.534903 35214 net.cpp:425] res4d_relu <- res4d
I0830 10:34:09.534935 35214 net.cpp:386] res4d_relu -> res4d (in-place)
I0830 10:34:09.534972 35214 net.cpp:141] Setting up res4d_relu
I0830 10:34:09.535004 35214 net.cpp:148] Top shape: 10 1024 14 14 (2007040)
I0830 10:34:09.535032 35214 net.cpp:156] Memory required for data: 2045173880
I0830 10:34:09.535058 35214 layer_factory.hpp:77] Creating layer res4d_res4d_relu_0_split
I0830 10:34:09.535086 35214 net.cpp:91] Creating Layer res4d_res4d_relu_0_split
I0830 10:34:09.535112 35214 net.cpp:425] res4d_res4d_relu_0_split <- res4d
I0830 10:34:09.535143 35214 net.cpp:399] res4d_res4d_relu_0_split -> res4d_res4d_relu_0_split_0
I0830 10:34:09.535178 35214 net.cpp:399] res4d_res4d_relu_0_split -> res4d_res4d_relu_0_split_1
I0830 10:34:09.535276 35214 net.cpp:141] Setting up res4d_res4d_relu_0_split
I0830 10:34:09.535316 35214 net.cpp:148] Top shape: 10 1024 14 14 (2007040)
I0830 10:34:09.535348 35214 net.cpp:148] Top shape: 10 1024 14 14 (2007040)
I0830 10:34:09.535405 35214 net.cpp:156] Memory required for data: 2061230200
I0830 10:34:09.535436 35214 layer_factory.hpp:77] Creating layer res4e_branch2a
I0830 10:34:09.535477 35214 net.cpp:91] Creating Layer res4e_branch2a
I0830 10:34:09.535511 35214 net.cpp:425] res4e_branch2a <- res4d_res4d_relu_0_split_0
I0830 10:34:09.535545 35214 net.cpp:399] res4e_branch2a -> res4e_branch2a
I0830 10:34:09.540603 35214 net.cpp:141] Setting up res4e_branch2a
I0830 10:34:09.540653 35214 net.cpp:148] Top shape: 10 256 14 14 (501760)
I0830 10:34:09.540686 35214 net.cpp:156] Memory required for data: 2063237240
I0830 10:34:09.540719 35214 layer_factory.hpp:77] Creating layer bn4e_branch2a
I0830 10:34:09.540755 35214 net.cpp:91] Creating Layer bn4e_branch2a
I0830 10:34:09.540789 35214 net.cpp:425] bn4e_branch2a <- res4e_branch2a
I0830 10:34:09.540824 35214 net.cpp:386] bn4e_branch2a -> res4e_branch2a (in-place)
I0830 10:34:09.541206 35214 net.cpp:141] Setting up bn4e_branch2a
I0830 10:34:09.541249 35214 net.cpp:148] Top shape: 10 256 14 14 (501760)
I0830 10:34:09.541276 35214 net.cpp:156] Memory required for data: 2065244280
I0830 10:34:09.541313 35214 layer_factory.hpp:77] Creating layer scale4e_branch2a
I0830 10:34:09.541348 35214 net.cpp:91] Creating Layer scale4e_branch2a
I0830 10:34:09.541378 35214 net.cpp:425] scale4e_branch2a <- res4e_branch2a
I0830 10:34:09.541407 35214 net.cpp:386] scale4e_branch2a -> res4e_branch2a (in-place)
I0830 10:34:09.541517 35214 layer_factory.hpp:77] Creating layer scale4e_branch2a
I0830 10:34:09.541769 35214 net.cpp:141] Setting up scale4e_branch2a
I0830 10:34:09.541812 35214 net.cpp:148] Top shape: 10 256 14 14 (501760)
I0830 10:34:09.541841 35214 net.cpp:156] Memory required for data: 2067251320
I0830 10:34:09.541873 35214 layer_factory.hpp:77] Creating layer res4e_branch2a_relu
I0830 10:34:09.541913 35214 net.cpp:91] Creating Layer res4e_branch2a_relu
I0830 10:34:09.541942 35214 net.cpp:425] res4e_branch2a_relu <- res4e_branch2a
I0830 10:34:09.541972 35214 net.cpp:386] res4e_branch2a_relu -> res4e_branch2a (in-place)
I0830 10:34:09.542008 35214 net.cpp:141] Setting up res4e_branch2a_relu
I0830 10:34:09.542040 35214 net.cpp:148] Top shape: 10 256 14 14 (501760)
I0830 10:34:09.542068 35214 net.cpp:156] Memory required for data: 2069258360
I0830 10:34:09.542093 35214 layer_factory.hpp:77] Creating layer res4e_branch2b
I0830 10:34:09.542134 35214 net.cpp:91] Creating Layer res4e_branch2b
I0830 10:34:09.542165 35214 net.cpp:425] res4e_branch2b <- res4e_branch2a
I0830 10:34:09.542197 35214 net.cpp:399] res4e_branch2b -> res4e_branch2b
I0830 10:34:09.552811 35214 net.cpp:141] Setting up res4e_branch2b
I0830 10:34:09.552863 35214 net.cpp:148] Top shape: 10 256 14 14 (501760)
I0830 10:34:09.552896 35214 net.cpp:156] Memory required for data: 2071265400
I0830 10:34:09.552927 35214 layer_factory.hpp:77] Creating layer bn4e_branch2b
I0830 10:34:09.552965 35214 net.cpp:91] Creating Layer bn4e_branch2b
I0830 10:34:09.552997 35214 net.cpp:425] bn4e_branch2b <- res4e_branch2b
I0830 10:34:09.553028 35214 net.cpp:386] bn4e_branch2b -> res4e_branch2b (in-place)
I0830 10:34:09.553413 35214 net.cpp:141] Setting up bn4e_branch2b
I0830 10:34:09.553457 35214 net.cpp:148] Top shape: 10 256 14 14 (501760)
I0830 10:34:09.553488 35214 net.cpp:156] Memory required for data: 2073272440
I0830 10:34:09.553526 35214 layer_factory.hpp:77] Creating layer scale4e_branch2b
I0830 10:34:09.553561 35214 net.cpp:91] Creating Layer scale4e_branch2b
I0830 10:34:09.553591 35214 net.cpp:425] scale4e_branch2b <- res4e_branch2b
I0830 10:34:09.553622 35214 net.cpp:386] scale4e_branch2b -> res4e_branch2b (in-place)
I0830 10:34:09.553735 35214 layer_factory.hpp:77] Creating layer scale4e_branch2b
I0830 10:34:09.553984 35214 net.cpp:141] Setting up scale4e_branch2b
I0830 10:34:09.554026 35214 net.cpp:148] Top shape: 10 256 14 14 (501760)
I0830 10:34:09.554055 35214 net.cpp:156] Memory required for data: 2075279480
I0830 10:34:09.554087 35214 layer_factory.hpp:77] Creating layer res4e_branch2b_relu
I0830 10:34:09.554126 35214 net.cpp:91] Creating Layer res4e_branch2b_relu
I0830 10:34:09.554185 35214 net.cpp:425] res4e_branch2b_relu <- res4e_branch2b
I0830 10:34:09.554219 35214 net.cpp:386] res4e_branch2b_relu -> res4e_branch2b (in-place)
I0830 10:34:09.554261 35214 net.cpp:141] Setting up res4e_branch2b_relu
I0830 10:34:09.554296 35214 net.cpp:148] Top shape: 10 256 14 14 (501760)
I0830 10:34:09.554323 35214 net.cpp:156] Memory required for data: 2077286520
I0830 10:34:09.554349 35214 layer_factory.hpp:77] Creating layer res4e_branch2c
I0830 10:34:09.554399 35214 net.cpp:91] Creating Layer res4e_branch2c
I0830 10:34:09.554435 35214 net.cpp:425] res4e_branch2c <- res4e_branch2b
I0830 10:34:09.554478 35214 net.cpp:399] res4e_branch2c -> res4e_branch2c
I0830 10:34:09.559535 35214 net.cpp:141] Setting up res4e_branch2c
I0830 10:34:09.559586 35214 net.cpp:148] Top shape: 10 1024 14 14 (2007040)
I0830 10:34:09.559617 35214 net.cpp:156] Memory required for data: 2085314680
I0830 10:34:09.559648 35214 layer_factory.hpp:77] Creating layer bn4e_branch2c
I0830 10:34:09.559686 35214 net.cpp:91] Creating Layer bn4e_branch2c
I0830 10:34:09.559718 35214 net.cpp:425] bn4e_branch2c <- res4e_branch2c
I0830 10:34:09.559748 35214 net.cpp:386] bn4e_branch2c -> res4e_branch2c (in-place)
I0830 10:34:09.560142 35214 net.cpp:141] Setting up bn4e_branch2c
I0830 10:34:09.560185 35214 net.cpp:148] Top shape: 10 1024 14 14 (2007040)
I0830 10:34:09.560215 35214 net.cpp:156] Memory required for data: 2093342840
I0830 10:34:09.560250 35214 layer_factory.hpp:77] Creating layer scale4e_branch2c
I0830 10:34:09.560297 35214 net.cpp:91] Creating Layer scale4e_branch2c
I0830 10:34:09.560329 35214 net.cpp:425] scale4e_branch2c <- res4e_branch2c
I0830 10:34:09.560359 35214 net.cpp:386] scale4e_branch2c -> res4e_branch2c (in-place)
I0830 10:34:09.560468 35214 layer_factory.hpp:77] Creating layer scale4e_branch2c
I0830 10:34:09.560732 35214 net.cpp:141] Setting up scale4e_branch2c
I0830 10:34:09.560775 35214 net.cpp:148] Top shape: 10 1024 14 14 (2007040)
I0830 10:34:09.560803 35214 net.cpp:156] Memory required for data: 2101371000
I0830 10:34:09.560837 35214 layer_factory.hpp:77] Creating layer res4e
I0830 10:34:09.560874 35214 net.cpp:91] Creating Layer res4e
I0830 10:34:09.560904 35214 net.cpp:425] res4e <- res4d_res4d_relu_0_split_1
I0830 10:34:09.560935 35214 net.cpp:425] res4e <- res4e_branch2c
I0830 10:34:09.560966 35214 net.cpp:399] res4e -> res4e
I0830 10:34:09.561048 35214 net.cpp:141] Setting up res4e
I0830 10:34:09.561087 35214 net.cpp:148] Top shape: 10 1024 14 14 (2007040)
I0830 10:34:09.561115 35214 net.cpp:156] Memory required for data: 2109399160
I0830 10:34:09.561141 35214 layer_factory.hpp:77] Creating layer res4e_relu
I0830 10:34:09.561169 35214 net.cpp:91] Creating Layer res4e_relu
I0830 10:34:09.561195 35214 net.cpp:425] res4e_relu <- res4e
I0830 10:34:09.561229 35214 net.cpp:386] res4e_relu -> res4e (in-place)
I0830 10:34:09.561265 35214 net.cpp:141] Setting up res4e_relu
I0830 10:34:09.561297 35214 net.cpp:148] Top shape: 10 1024 14 14 (2007040)
I0830 10:34:09.561326 35214 net.cpp:156] Memory required for data: 2117427320
I0830 10:34:09.561352 35214 layer_factory.hpp:77] Creating layer res4e_res4e_relu_0_split
I0830 10:34:09.561381 35214 net.cpp:91] Creating Layer res4e_res4e_relu_0_split
I0830 10:34:09.561408 35214 net.cpp:425] res4e_res4e_relu_0_split <- res4e
I0830 10:34:09.561437 35214 net.cpp:399] res4e_res4e_relu_0_split -> res4e_res4e_relu_0_split_0
I0830 10:34:09.561473 35214 net.cpp:399] res4e_res4e_relu_0_split -> res4e_res4e_relu_0_split_1
I0830 10:34:09.561573 35214 net.cpp:141] Setting up res4e_res4e_relu_0_split
I0830 10:34:09.561614 35214 net.cpp:148] Top shape: 10 1024 14 14 (2007040)
I0830 10:34:09.561646 35214 net.cpp:148] Top shape: 10 1024 14 14 (2007040)
I0830 10:34:09.561672 35214 net.cpp:156] Memory required for data: 2133483640
I0830 10:34:09.561698 35214 layer_factory.hpp:77] Creating layer res4f_branch2a
I0830 10:34:09.561733 35214 net.cpp:91] Creating Layer res4f_branch2a
I0830 10:34:09.561764 35214 net.cpp:425] res4f_branch2a <- res4e_res4e_relu_0_split_0
I0830 10:34:09.561833 35214 net.cpp:399] res4f_branch2a -> res4f_branch2a
I0830 10:34:09.566920 35214 net.cpp:141] Setting up res4f_branch2a
I0830 10:34:09.566970 35214 net.cpp:148] Top shape: 10 256 14 14 (501760)
I0830 10:34:09.567000 35214 net.cpp:156] Memory required for data: 2135490680
I0830 10:34:09.567030 35214 layer_factory.hpp:77] Creating layer bn4f_branch2a
I0830 10:34:09.567070 35214 net.cpp:91] Creating Layer bn4f_branch2a
I0830 10:34:09.567103 35214 net.cpp:425] bn4f_branch2a <- res4f_branch2a
I0830 10:34:09.567132 35214 net.cpp:386] bn4f_branch2a -> res4f_branch2a (in-place)
I0830 10:34:09.567514 35214 net.cpp:141] Setting up bn4f_branch2a
I0830 10:34:09.567556 35214 net.cpp:148] Top shape: 10 256 14 14 (501760)
I0830 10:34:09.567585 35214 net.cpp:156] Memory required for data: 2137497720
I0830 10:34:09.567622 35214 layer_factory.hpp:77] Creating layer scale4f_branch2a
I0830 10:34:09.567663 35214 net.cpp:91] Creating Layer scale4f_branch2a
I0830 10:34:09.567694 35214 net.cpp:425] scale4f_branch2a <- res4f_branch2a
I0830 10:34:09.567726 35214 net.cpp:386] scale4f_branch2a -> res4f_branch2a (in-place)
I0830 10:34:09.567837 35214 layer_factory.hpp:77] Creating layer scale4f_branch2a
I0830 10:34:09.568090 35214 net.cpp:141] Setting up scale4f_branch2a
I0830 10:34:09.568133 35214 net.cpp:148] Top shape: 10 256 14 14 (501760)
I0830 10:34:09.568162 35214 net.cpp:156] Memory required for data: 2139504760
I0830 10:34:09.568193 35214 layer_factory.hpp:77] Creating layer res4f_branch2a_relu
I0830 10:34:09.568228 35214 net.cpp:91] Creating Layer res4f_branch2a_relu
I0830 10:34:09.568258 35214 net.cpp:425] res4f_branch2a_relu <- res4f_branch2a
I0830 10:34:09.568290 35214 net.cpp:386] res4f_branch2a_relu -> res4f_branch2a (in-place)
I0830 10:34:09.568327 35214 net.cpp:141] Setting up res4f_branch2a_relu
I0830 10:34:09.568359 35214 net.cpp:148] Top shape: 10 256 14 14 (501760)
I0830 10:34:09.568385 35214 net.cpp:156] Memory required for data: 2141511800
I0830 10:34:09.568413 35214 layer_factory.hpp:77] Creating layer res4f_branch2b
I0830 10:34:09.568452 35214 net.cpp:91] Creating Layer res4f_branch2b
I0830 10:34:09.568483 35214 net.cpp:425] res4f_branch2b <- res4f_branch2a
I0830 10:34:09.568516 35214 net.cpp:399] res4f_branch2b -> res4f_branch2b
I0830 10:34:09.579131 35214 net.cpp:141] Setting up res4f_branch2b
I0830 10:34:09.579182 35214 net.cpp:148] Top shape: 10 256 14 14 (501760)
I0830 10:34:09.579212 35214 net.cpp:156] Memory required for data: 2143518840
I0830 10:34:09.579244 35214 layer_factory.hpp:77] Creating layer bn4f_branch2b
I0830 10:34:09.579295 35214 net.cpp:91] Creating Layer bn4f_branch2b
I0830 10:34:09.579329 35214 net.cpp:425] bn4f_branch2b <- res4f_branch2b
I0830 10:34:09.579367 35214 net.cpp:386] bn4f_branch2b -> res4f_branch2b (in-place)
I0830 10:34:09.579761 35214 net.cpp:141] Setting up bn4f_branch2b
I0830 10:34:09.579802 35214 net.cpp:148] Top shape: 10 256 14 14 (501760)
I0830 10:34:09.579831 35214 net.cpp:156] Memory required for data: 2145525880
I0830 10:34:09.579867 35214 layer_factory.hpp:77] Creating layer scale4f_branch2b
I0830 10:34:09.579903 35214 net.cpp:91] Creating Layer scale4f_branch2b
I0830 10:34:09.579933 35214 net.cpp:425] scale4f_branch2b <- res4f_branch2b
I0830 10:34:09.579967 35214 net.cpp:386] scale4f_branch2b -> res4f_branch2b (in-place)
I0830 10:34:09.580076 35214 layer_factory.hpp:77] Creating layer scale4f_branch2b
I0830 10:34:09.580334 35214 net.cpp:141] Setting up scale4f_branch2b
I0830 10:34:09.580377 35214 net.cpp:148] Top shape: 10 256 14 14 (501760)
I0830 10:34:09.580406 35214 net.cpp:156] Memory required for data: 2147532920
I0830 10:34:09.580440 35214 layer_factory.hpp:77] Creating layer res4f_branch2b_relu
I0830 10:34:09.580472 35214 net.cpp:91] Creating Layer res4f_branch2b_relu
I0830 10:34:09.580502 35214 net.cpp:425] res4f_branch2b_relu <- res4f_branch2b
I0830 10:34:09.580530 35214 net.cpp:386] res4f_branch2b_relu -> res4f_branch2b (in-place)
I0830 10:34:09.580565 35214 net.cpp:141] Setting up res4f_branch2b_relu
I0830 10:34:09.580598 35214 net.cpp:148] Top shape: 10 256 14 14 (501760)
I0830 10:34:09.580655 35214 net.cpp:156] Memory required for data: 2149539960
I0830 10:34:09.580687 35214 layer_factory.hpp:77] Creating layer res4f_branch2c
I0830 10:34:09.580729 35214 net.cpp:91] Creating Layer res4f_branch2c
I0830 10:34:09.580760 35214 net.cpp:425] res4f_branch2c <- res4f_branch2b
I0830 10:34:09.580802 35214 net.cpp:399] res4f_branch2c -> res4f_branch2c
I0830 10:34:09.585865 35214 net.cpp:141] Setting up res4f_branch2c
I0830 10:34:09.585916 35214 net.cpp:148] Top shape: 10 1024 14 14 (2007040)
I0830 10:34:09.585947 35214 net.cpp:156] Memory required for data: 2157568120
I0830 10:34:09.585979 35214 layer_factory.hpp:77] Creating layer bn4f_branch2c
I0830 10:34:09.586016 35214 net.cpp:91] Creating Layer bn4f_branch2c
I0830 10:34:09.586050 35214 net.cpp:425] bn4f_branch2c <- res4f_branch2c
I0830 10:34:09.586084 35214 net.cpp:386] bn4f_branch2c -> res4f_branch2c (in-place)
I0830 10:34:09.586495 35214 net.cpp:141] Setting up bn4f_branch2c
I0830 10:34:09.586539 35214 net.cpp:148] Top shape: 10 1024 14 14 (2007040)
I0830 10:34:09.586567 35214 net.cpp:156] Memory required for data: 2165596280
I0830 10:34:09.586679 35214 layer_factory.hpp:77] Creating layer scale4f_branch2c
I0830 10:34:09.586721 35214 net.cpp:91] Creating Layer scale4f_branch2c
I0830 10:34:09.586752 35214 net.cpp:425] scale4f_branch2c <- res4f_branch2c
I0830 10:34:09.586783 35214 net.cpp:386] scale4f_branch2c -> res4f_branch2c (in-place)
I0830 10:34:09.586894 35214 layer_factory.hpp:77] Creating layer scale4f_branch2c
I0830 10:34:09.587162 35214 net.cpp:141] Setting up scale4f_branch2c
I0830 10:34:09.587205 35214 net.cpp:148] Top shape: 10 1024 14 14 (2007040)
I0830 10:34:09.587234 35214 net.cpp:156] Memory required for data: 2173624440
I0830 10:34:09.587265 35214 layer_factory.hpp:77] Creating layer res4f
I0830 10:34:09.587304 35214 net.cpp:91] Creating Layer res4f
I0830 10:34:09.587335 35214 net.cpp:425] res4f <- res4e_res4e_relu_0_split_1
I0830 10:34:09.587365 35214 net.cpp:425] res4f <- res4f_branch2c
I0830 10:34:09.587397 35214 net.cpp:399] res4f -> res4f
I0830 10:34:09.587479 35214 net.cpp:141] Setting up res4f
I0830 10:34:09.587520 35214 net.cpp:148] Top shape: 10 1024 14 14 (2007040)
I0830 10:34:09.587548 35214 net.cpp:156] Memory required for data: 2181652600
I0830 10:34:09.587574 35214 layer_factory.hpp:77] Creating layer res4f_relu
I0830 10:34:09.587604 35214 net.cpp:91] Creating Layer res4f_relu
I0830 10:34:09.587635 35214 net.cpp:425] res4f_relu <- res4f
I0830 10:34:09.587676 35214 net.cpp:386] res4f_relu -> res4f (in-place)
I0830 10:34:09.587712 35214 net.cpp:141] Setting up res4f_relu
I0830 10:34:09.587744 35214 net.cpp:148] Top shape: 10 1024 14 14 (2007040)
I0830 10:34:09.587772 35214 net.cpp:156] Memory required for data: 2189680760
I0830 10:34:09.587798 35214 layer_factory.hpp:77] Creating layer res4f_res4f_relu_0_split
I0830 10:34:09.587827 35214 net.cpp:91] Creating Layer res4f_res4f_relu_0_split
I0830 10:34:09.587855 35214 net.cpp:425] res4f_res4f_relu_0_split <- res4f
I0830 10:34:09.587885 35214 net.cpp:399] res4f_res4f_relu_0_split -> res4f_res4f_relu_0_split_0
I0830 10:34:09.587919 35214 net.cpp:399] res4f_res4f_relu_0_split -> res4f_res4f_relu_0_split_1
I0830 10:34:09.588027 35214 net.cpp:141] Setting up res4f_res4f_relu_0_split
I0830 10:34:09.588066 35214 net.cpp:148] Top shape: 10 1024 14 14 (2007040)
I0830 10:34:09.588099 35214 net.cpp:148] Top shape: 10 1024 14 14 (2007040)
I0830 10:34:09.588127 35214 net.cpp:156] Memory required for data: 2205737080
I0830 10:34:09.588152 35214 layer_factory.hpp:77] Creating layer res5a_branch1
I0830 10:34:09.588187 35214 net.cpp:91] Creating Layer res5a_branch1
I0830 10:34:09.588217 35214 net.cpp:425] res5a_branch1 <- res4f_res4f_relu_0_split_0
I0830 10:34:09.588254 35214 net.cpp:399] res5a_branch1 -> res5a_branch1
I0830 10:34:09.624552 35214 net.cpp:141] Setting up res5a_branch1
I0830 10:34:09.624610 35214 net.cpp:148] Top shape: 10 2048 7 7 (1003520)
I0830 10:34:09.624642 35214 net.cpp:156] Memory required for data: 2209751160
I0830 10:34:09.624712 35214 layer_factory.hpp:77] Creating layer bn5a_branch1
I0830 10:34:09.624753 35214 net.cpp:91] Creating Layer bn5a_branch1
I0830 10:34:09.624785 35214 net.cpp:425] bn5a_branch1 <- res5a_branch1
I0830 10:34:09.624819 35214 net.cpp:386] bn5a_branch1 -> res5a_branch1 (in-place)
I0830 10:34:09.625249 35214 net.cpp:141] Setting up bn5a_branch1
I0830 10:34:09.625293 35214 net.cpp:148] Top shape: 10 2048 7 7 (1003520)
I0830 10:34:09.625325 35214 net.cpp:156] Memory required for data: 2213765240
I0830 10:34:09.625362 35214 layer_factory.hpp:77] Creating layer scale5a_branch1
I0830 10:34:09.625406 35214 net.cpp:91] Creating Layer scale5a_branch1
I0830 10:34:09.625437 35214 net.cpp:425] scale5a_branch1 <- res5a_branch1
I0830 10:34:09.625468 35214 net.cpp:386] scale5a_branch1 -> res5a_branch1 (in-place)
I0830 10:34:09.625582 35214 layer_factory.hpp:77] Creating layer scale5a_branch1
I0830 10:34:09.625857 35214 net.cpp:141] Setting up scale5a_branch1
I0830 10:34:09.625901 35214 net.cpp:148] Top shape: 10 2048 7 7 (1003520)
I0830 10:34:09.625929 35214 net.cpp:156] Memory required for data: 2217779320
I0830 10:34:09.625960 35214 layer_factory.hpp:77] Creating layer res5a_branch2a
I0830 10:34:09.626005 35214 net.cpp:91] Creating Layer res5a_branch2a
I0830 10:34:09.626037 35214 net.cpp:425] res5a_branch2a <- res4f_res4f_relu_0_split_1
I0830 10:34:09.626076 35214 net.cpp:399] res5a_branch2a -> res5a_branch2a
I0830 10:34:09.635614 35214 net.cpp:141] Setting up res5a_branch2a
I0830 10:34:09.635666 35214 net.cpp:148] Top shape: 10 512 7 7 (250880)
I0830 10:34:09.635706 35214 net.cpp:156] Memory required for data: 2218782840
I0830 10:34:09.635738 35214 layer_factory.hpp:77] Creating layer bn5a_branch2a
I0830 10:34:09.635771 35214 net.cpp:91] Creating Layer bn5a_branch2a
I0830 10:34:09.635804 35214 net.cpp:425] bn5a_branch2a <- res5a_branch2a
I0830 10:34:09.635840 35214 net.cpp:386] bn5a_branch2a -> res5a_branch2a (in-place)
I0830 10:34:09.636257 35214 net.cpp:141] Setting up bn5a_branch2a
I0830 10:34:09.636301 35214 net.cpp:148] Top shape: 10 512 7 7 (250880)
I0830 10:34:09.636332 35214 net.cpp:156] Memory required for data: 2219786360
I0830 10:34:09.636368 35214 layer_factory.hpp:77] Creating layer scale5a_branch2a
I0830 10:34:09.636404 35214 net.cpp:91] Creating Layer scale5a_branch2a
I0830 10:34:09.636435 35214 net.cpp:425] scale5a_branch2a <- res5a_branch2a
I0830 10:34:09.636463 35214 net.cpp:386] scale5a_branch2a -> res5a_branch2a (in-place)
I0830 10:34:09.636574 35214 layer_factory.hpp:77] Creating layer scale5a_branch2a
I0830 10:34:09.636839 35214 net.cpp:141] Setting up scale5a_branch2a
I0830 10:34:09.636883 35214 net.cpp:148] Top shape: 10 512 7 7 (250880)
I0830 10:34:09.636910 35214 net.cpp:156] Memory required for data: 2220789880
I0830 10:34:09.636945 35214 layer_factory.hpp:77] Creating layer res5a_branch2a_relu
I0830 10:34:09.636982 35214 net.cpp:91] Creating Layer res5a_branch2a_relu
I0830 10:34:09.637013 35214 net.cpp:425] res5a_branch2a_relu <- res5a_branch2a
I0830 10:34:09.637043 35214 net.cpp:386] res5a_branch2a_relu -> res5a_branch2a (in-place)
I0830 10:34:09.637076 35214 net.cpp:141] Setting up res5a_branch2a_relu
I0830 10:34:09.637109 35214 net.cpp:148] Top shape: 10 512 7 7 (250880)
I0830 10:34:09.637136 35214 net.cpp:156] Memory required for data: 2221793400
I0830 10:34:09.637162 35214 layer_factory.hpp:77] Creating layer res5a_branch2b
I0830 10:34:09.637204 35214 net.cpp:91] Creating Layer res5a_branch2b
I0830 10:34:09.637235 35214 net.cpp:425] res5a_branch2b <- res5a_branch2a
I0830 10:34:09.637271 35214 net.cpp:399] res5a_branch2b -> res5a_branch2b
I0830 10:34:09.678084 35214 net.cpp:141] Setting up res5a_branch2b
I0830 10:34:09.678143 35214 net.cpp:148] Top shape: 10 512 7 7 (250880)
I0830 10:34:09.678175 35214 net.cpp:156] Memory required for data: 2222796920
I0830 10:34:09.678206 35214 layer_factory.hpp:77] Creating layer bn5a_branch2b
I0830 10:34:09.678248 35214 net.cpp:91] Creating Layer bn5a_branch2b
I0830 10:34:09.678282 35214 net.cpp:425] bn5a_branch2b <- res5a_branch2b
I0830 10:34:09.678354 35214 net.cpp:386] bn5a_branch2b -> res5a_branch2b (in-place)
I0830 10:34:09.678782 35214 net.cpp:141] Setting up bn5a_branch2b
I0830 10:34:09.678825 35214 net.cpp:148] Top shape: 10 512 7 7 (250880)
I0830 10:34:09.678859 35214 net.cpp:156] Memory required for data: 2223800440
I0830 10:34:09.678897 35214 layer_factory.hpp:77] Creating layer scale5a_branch2b
I0830 10:34:09.678935 35214 net.cpp:91] Creating Layer scale5a_branch2b
I0830 10:34:09.678963 35214 net.cpp:425] scale5a_branch2b <- res5a_branch2b
I0830 10:34:09.678994 35214 net.cpp:386] scale5a_branch2b -> res5a_branch2b (in-place)
I0830 10:34:09.679106 35214 layer_factory.hpp:77] Creating layer scale5a_branch2b
I0830 10:34:09.679383 35214 net.cpp:141] Setting up scale5a_branch2b
I0830 10:34:09.679425 35214 net.cpp:148] Top shape: 10 512 7 7 (250880)
I0830 10:34:09.679453 35214 net.cpp:156] Memory required for data: 2224803960
I0830 10:34:09.679486 35214 layer_factory.hpp:77] Creating layer res5a_branch2b_relu
I0830 10:34:09.679519 35214 net.cpp:91] Creating Layer res5a_branch2b_relu
I0830 10:34:09.679548 35214 net.cpp:425] res5a_branch2b_relu <- res5a_branch2b
I0830 10:34:09.679582 35214 net.cpp:386] res5a_branch2b_relu -> res5a_branch2b (in-place)
I0830 10:34:09.679620 35214 net.cpp:141] Setting up res5a_branch2b_relu
I0830 10:34:09.679651 35214 net.cpp:148] Top shape: 10 512 7 7 (250880)
I0830 10:34:09.679678 35214 net.cpp:156] Memory required for data: 2225807480
I0830 10:34:09.679704 35214 layer_factory.hpp:77] Creating layer res5a_branch2c
I0830 10:34:09.679740 35214 net.cpp:91] Creating Layer res5a_branch2c
I0830 10:34:09.679770 35214 net.cpp:425] res5a_branch2c <- res5a_branch2b
I0830 10:34:09.679806 35214 net.cpp:399] res5a_branch2c -> res5a_branch2c
I0830 10:34:09.698544 35214 net.cpp:141] Setting up res5a_branch2c
I0830 10:34:09.698596 35214 net.cpp:148] Top shape: 10 2048 7 7 (1003520)
I0830 10:34:09.698627 35214 net.cpp:156] Memory required for data: 2229821560
I0830 10:34:09.698660 35214 layer_factory.hpp:77] Creating layer bn5a_branch2c
I0830 10:34:09.698696 35214 net.cpp:91] Creating Layer bn5a_branch2c
I0830 10:34:09.698729 35214 net.cpp:425] bn5a_branch2c <- res5a_branch2c
I0830 10:34:09.698760 35214 net.cpp:386] bn5a_branch2c -> res5a_branch2c (in-place)
I0830 10:34:09.699190 35214 net.cpp:141] Setting up bn5a_branch2c
I0830 10:34:09.699234 35214 net.cpp:148] Top shape: 10 2048 7 7 (1003520)
I0830 10:34:09.699267 35214 net.cpp:156] Memory required for data: 2233835640
I0830 10:34:09.699308 35214 layer_factory.hpp:77] Creating layer scale5a_branch2c
I0830 10:34:09.699347 35214 net.cpp:91] Creating Layer scale5a_branch2c
I0830 10:34:09.699378 35214 net.cpp:425] scale5a_branch2c <- res5a_branch2c
I0830 10:34:09.699407 35214 net.cpp:386] scale5a_branch2c -> res5a_branch2c (in-place)
I0830 10:34:09.699522 35214 layer_factory.hpp:77] Creating layer scale5a_branch2c
I0830 10:34:09.699798 35214 net.cpp:141] Setting up scale5a_branch2c
I0830 10:34:09.699839 35214 net.cpp:148] Top shape: 10 2048 7 7 (1003520)
I0830 10:34:09.699868 35214 net.cpp:156] Memory required for data: 2237849720
I0830 10:34:09.699901 35214 layer_factory.hpp:77] Creating layer res5a
I0830 10:34:09.699940 35214 net.cpp:91] Creating Layer res5a
I0830 10:34:09.699971 35214 net.cpp:425] res5a <- res5a_branch1
I0830 10:34:09.700001 35214 net.cpp:425] res5a <- res5a_branch2c
…
I0830 10:34:09.965926 35214 layer_factory.hpp:77] Creating layer res4d_branch2a_relu
I0830 10:34:09.965945 35214 net.cpp:91] Creating Layer res4d_branch2a_relu
I0830 10:34:09.965960 35214 net.cpp:425] res4d_branch2a_relu <- res4d_branch2a
I0830 10:34:09.965975 35214 net.cpp:386] res4d_branch2a_relu -> res4d_branch2a (in-place)
I0830 10:34:09.965993 35214 net.cpp:141] Setting up res4d_branch2a_relu
I0830 10:34:09.966009 35214 net.cpp:148] Top shape: 10 256 14 14 (501760)
I0830 10:34:09.966024 35214 net.cpp:156] Memory required for data: 1997005000
I0830 10:34:09.966038 35214 layer_factory.hpp:77] Creating layer res4d_branch2b
I0830 10:34:09.966063 35214 net.cpp:91] Creating Layer res4d_branch2b
I0830 10:34:09.966079 35214 net.cpp:425] res4d_branch2b <- res4d_branch2a
I0830 10:34:09.966100 35214 net.cpp:399] res4d_branch2b -> res4d_branch2b
I0830 10:34:09.972421 35214 net.cpp:141] Setting up res4d_branch2b
I0830 10:34:09.972451 35214 net.cpp:148] Top shape: 10 256 14 14 (501760)
I0830 10:34:09.972466 35214 net.cpp:156] Memory required for data: 1999012040
I0830 10:34:09.972484 35214 layer_factory.hpp:77] Creating layer bn4d_branch2b
I0830 10:34:09.972503 35214 net.cpp:91] Creating Layer bn4d_branch2b
I0830 10:34:09.972518 35214 net.cpp:425] bn4d_branch2b <- res4d_branch2b
I0830 10:34:09.972538 35214 net.cpp:386] bn4d_branch2b -> res4d_branch2b (in-place)
I0830 10:34:09.972774 35214 net.cpp:141] Setting up bn4d_branch2b
I0830 10:34:09.972800 35214 net.cpp:148] Top shape: 10 256 14 14 (501760)
I0830 10:34:09.972815 35214 net.cpp:156] Memory required for data: 2001019080
I0830 10:34:09.972834 35214 layer_factory.hpp:77] Creating layer scale4d_branch2b
I0830 10:34:09.972853 35214 net.cpp:91] Creating Layer scale4d_branch2b
I0830 10:34:09.972869 35214 net.cpp:425] scale4d_branch2b <- res4d_branch2b
I0830 10:34:09.972885 35214 net.cpp:386] scale4d_branch2b -> res4d_branch2b (in-place)
I0830 10:34:09.972952 35214 layer_factory.hpp:77] Creating layer scale4d_branch2b
I0830 10:34:09.973114 35214 net.cpp:141] Setting up scale4d_branch2b
I0830 10:34:09.973139 35214 net.cpp:148] Top shape: 10 256 14 14 (501760)
I0830 10:34:09.973152 35214 net.cpp:156] Memory required for data: 2003026120
I0830 10:34:09.973170 35214 layer_factory.hpp:77] Creating layer res4d_branch2b_relu
I0830 10:34:09.973188 35214 net.cpp:91] Creating Layer res4d_branch2b_relu
I0830 10:34:09.973203 35214 net.cpp:425] res4d_branch2b_relu <- res4d_branch2b
I0830 10:34:09.973222 35214 net.cpp:386] res4d_branch2b_relu -> res4d_branch2b (in-place)
I0830 10:34:09.973242 35214 net.cpp:141] Setting up res4d_branch2b_relu
I0830 10:34:09.973258 35214 net.cpp:148] Top shape: 10 256 14 14 (501760)
I0830 10:34:09.973273 35214 net.cpp:156] Memory required for data: 2005033160
I0830 10:34:09.973285 35214 layer_factory.hpp:77] Creating layer res4d_branch2c
I0830 10:34:09.973309 35214 net.cpp:91] Creating Layer res4d_branch2c
I0830 10:34:09.973346 35214 net.cpp:425] res4d_branch2c <- res4d_branch2b
I0830 10:34:09.973367 35214 net.cpp:399] res4d_branch2c -> res4d_branch2c
I0830 10:34:09.976403 35214 net.cpp:141] Setting up res4d_branch2c
I0830 10:34:09.976433 35214 net.cpp:148] Top shape: 10 1024 14 14 (2007040)
I0830 10:34:09.976447 35214 net.cpp:156] Memory required for data: 2013061320
I0830 10:34:09.976465 35214 layer_factory.hpp:77] Creating layer bn4d_branch2c
I0830 10:34:09.976485 35214 net.cpp:91] Creating Layer bn4d_branch2c
I0830 10:34:09.976500 35214 net.cpp:425] bn4d_branch2c <- res4d_branch2c
I0830 10:34:09.976516 35214 net.cpp:386] bn4d_branch2c -> res4d_branch2c (in-place)
I0830 10:34:09.976760 35214 net.cpp:141] Setting up bn4d_branch2c
I0830 10:34:09.976785 35214 net.cpp:148] Top shape: 10 1024 14 14 (2007040)
I0830 10:34:09.976800 35214 net.cpp:156] Memory required for data: 2021089480
I0830 10:34:09.976821 35214 layer_factory.hpp:77] Creating layer scale4d_branch2c
I0830 10:34:09.976840 35214 net.cpp:91] Creating Layer scale4d_branch2c
I0830 10:34:09.976855 35214 net.cpp:425] scale4d_branch2c <- res4d_branch2c
I0830 10:34:09.976872 35214 net.cpp:386] scale4d_branch2c -> res4d_branch2c (in-place)
I0830 10:34:09.976940 35214 layer_factory.hpp:77] Creating layer scale4d_branch2c
I0830 10:34:09.977108 35214 net.cpp:141] Setting up scale4d_branch2c
I0830 10:34:09.977133 35214 net.cpp:148] Top shape: 10 1024 14 14 (2007040)
I0830 10:34:09.977149 35214 net.cpp:156] Memory required for data: 2029117640
I0830 10:34:09.977166 35214 layer_factory.hpp:77] Creating layer res4d
I0830 10:34:09.977187 35214 net.cpp:91] Creating Layer res4d
I0830 10:34:09.977203 35214 net.cpp:425] res4d <- res4c_res4c_relu_0_split_1
I0830 10:34:09.977219 35214 net.cpp:425] res4d <- res4d_branch2c
I0830 10:34:09.977236 35214 net.cpp:399] res4d -> res4d
I0830 10:34:09.977282 35214 net.cpp:141] Setting up res4d
I0830 10:34:09.977305 35214 net.cpp:148] Top shape: 10 1024 14 14 (2007040)
I0830 10:34:09.977320 35214 net.cpp:156] Memory required for data: 2037145800
I0830 10:34:09.977334 35214 layer_factory.hpp:77] Creating layer res4d_relu
I0830 10:34:09.977351 35214 net.cpp:91] Creating Layer res4d_relu
I0830 10:34:09.977366 35214 net.cpp:425] res4d_relu <- res4d
I0830 10:34:09.977385 35214 net.cpp:386] res4d_relu -> res4d (in-place)
I0830 10:34:09.977404 35214 net.cpp:141] Setting up res4d_relu
I0830 10:34:09.977421 35214 net.cpp:148] Top shape: 10 1024 14 14 (2007040)
I0830 10:34:09.977434 35214 net.cpp:156] Memory required for data: 2045173960
I0830 10:34:09.977449 35214 layer_factory.hpp:77] Creating layer res4d_res4d_relu_0_split
I0830 10:34:09.977466 35214 net.cpp:91] Creating Layer res4d_res4d_relu_0_split
I0830 10:34:09.977481 35214 net.cpp:425] res4d_res4d_relu_0_split <- res4d
I0830 10:34:09.977497 35214 net.cpp:399] res4d_res4d_relu_0_split -> res4d_res4d_relu_0_split_0
I0830 10:34:09.977515 35214 net.cpp:399] res4d_res4d_relu_0_split -> res4d_res4d_relu_0_split_1
I0830 10:34:09.977578 35214 net.cpp:141] Setting up res4d_res4d_relu_0_split
I0830 10:34:09.977602 35214 net.cpp:148] Top shape: 10 1024 14 14 (2007040)
I0830 10:34:09.977619 35214 net.cpp:148] Top shape: 10 1024 14 14 (2007040)
I0830 10:34:09.977633 35214 net.cpp:156] Memory required for data: 2061230280
I0830 10:34:09.977648 35214 layer_factory.hpp:77] Creating layer res4e_branch2a
I0830 10:34:09.977669 35214 net.cpp:91] Creating Layer res4e_branch2a
I0830 10:34:09.977684 35214 net.cpp:425] res4e_branch2a <- res4d_res4d_relu_0_split_0
I0830 10:34:09.977705 35214 net.cpp:399] res4e_branch2a -> res4e_branch2a
I0830 10:34:09.980733 35214 net.cpp:141] Setting up res4e_branch2a
I0830 10:34:09.980762 35214 net.cpp:148] Top shape: 10 256 14 14 (501760)
I0830 10:34:09.980777 35214 net.cpp:156] Memory required for data: 2063237320
I0830 10:34:09.980794 35214 layer_factory.hpp:77] Creating layer bn4e_branch2a
I0830 10:34:09.980813 35214 net.cpp:91] Creating Layer bn4e_branch2a
I0830 10:34:09.980829 35214 net.cpp:425] bn4e_branch2a <- res4e_branch2a
I0830 10:34:09.980844 35214 net.cpp:386] bn4e_branch2a -> res4e_branch2a (in-place)
I0830 10:34:09.981094 35214 net.cpp:141] Setting up bn4e_branch2a
I0830 10:34:09.981120 35214 net.cpp:148] Top shape: 10 256 14 14 (501760)
I0830 10:34:09.981135 35214 net.cpp:156] Memory required for data: 2065244360
I0830 10:34:09.981159 35214 layer_factory.hpp:77] Creating layer scale4e_branch2a
I0830 10:34:09.981178 35214 net.cpp:91] Creating Layer scale4e_branch2a
I0830 10:34:09.981194 35214 net.cpp:425] scale4e_branch2a <- res4e_branch2a
I0830 10:34:09.981211 35214 net.cpp:386] scale4e_branch2a -> res4e_branch2a (in-place)
I0830 10:34:09.981276 35214 layer_factory.hpp:77] Creating layer scale4e_branch2a
I0830 10:34:09.981434 35214 net.cpp:141] Setting up scale4e_branch2a
I0830 10:34:09.981459 35214 net.cpp:148] Top shape: 10 256 14 14 (501760)
I0830 10:34:09.981474 35214 net.cpp:156] Memory required for data: 2067251400
I0830 10:34:09.981492 35214 layer_factory.hpp:77] Creating layer res4e_branch2a_relu
I0830 10:34:09.981513 35214 net.cpp:91] Creating Layer res4e_branch2a_relu
I0830 10:34:09.981528 35214 net.cpp:425] res4e_branch2a_relu <- res4e_branch2a
I0830 10:34:09.981545 35214 net.cpp:386] res4e_branch2a_relu -> res4e_branch2a (in-place)
I0830 10:34:09.981564 35214 net.cpp:141] Setting up res4e_branch2a_relu
I0830 10:34:09.981580 35214 net.cpp:148] Top shape: 10 256 14 14 (501760)
I0830 10:34:09.981595 35214 net.cpp:156] Memory required for data: 2069258440
I0830 10:34:09.981608 35214 layer_factory.hpp:77] Creating layer res4e_branch2b
I0830 10:34:09.981631 35214 net.cpp:91] Creating Layer res4e_branch2b
I0830 10:34:09.981647 35214 net.cpp:425] res4e_branch2b <- res4e_branch2a
I0830 10:34:09.981667 35214 net.cpp:399] res4e_branch2b -> res4e_branch2b
I0830 10:34:09.988018 35214 net.cpp:141] Setting up res4e_branch2b
I0830 10:34:09.988046 35214 net.cpp:148] Top shape: 10 256 14 14 (501760)
I0830 10:34:09.988062 35214 net.cpp:156] Memory required for data: 2071265480
I0830 10:34:09.988080 35214 layer_factory.hpp:77] Creating layer bn4e_branch2b
I0830 10:34:09.988101 35214 net.cpp:91] Creating Layer bn4e_branch2b
I0830 10:34:09.988118 35214 net.cpp:425] bn4e_branch2b <- res4e_branch2b
I0830 10:34:09.988134 35214 net.cpp:386] bn4e_branch2b -> res4e_branch2b (in-place)
I0830 10:34:09.988380 35214 net.cpp:141] Setting up bn4e_branch2b
I0830 10:34:09.988405 35214 net.cpp:148] Top shape: 10 256 14 14 (501760)
I0830 10:34:09.988420 35214 net.cpp:156] Memory required for data: 2073272520
I0830 10:34:09.988440 35214 layer_factory.hpp:77] Creating layer scale4e_branch2b
I0830 10:34:09.988466 35214 net.cpp:91] Creating Layer scale4e_branch2b
I0830 10:34:09.988482 35214 net.cpp:425] scale4e_branch2b <- res4e_branch2b
I0830 10:34:09.988499 35214 net.cpp:386] scale4e_branch2b -> res4e_branch2b (in-place)
I0830 10:34:09.988565 35214 layer_factory.hpp:77] Creating layer scale4e_branch2b
I0830 10:34:09.988734 35214 net.cpp:141] Setting up scale4e_branch2b
I0830 10:34:09.988759 35214 net.cpp:148] Top shape: 10 256 14 14 (501760)
I0830 10:34:09.988773 35214 net.cpp:156] Memory required for data: 2075279560
I0830 10:34:09.988791 35214 layer_factory.hpp:77] Creating layer res4e_branch2b_relu
I0830 10:34:09.988809 35214 net.cpp:91] Creating Layer res4e_branch2b_relu
I0830 10:34:09.988824 35214 net.cpp:425] res4e_branch2b_relu <- res4e_branch2b
I0830 10:34:09.988843 35214 net.cpp:386] res4e_branch2b_relu -> res4e_branch2b (in-place)
I0830 10:34:09.988862 35214 net.cpp:141] Setting up res4e_branch2b_relu
I0830 10:34:09.988879 35214 net.cpp:148] Top shape: 10 256 14 14 (501760)
I0830 10:34:09.988893 35214 net.cpp:156] Memory required for data: 2077286600
I0830 10:34:09.988907 35214 layer_factory.hpp:77] Creating layer res4e_branch2c
I0830 10:34:09.988931 35214 net.cpp:91] Creating Layer res4e_branch2c
I0830 10:34:09.988947 35214 net.cpp:425] res4e_branch2c <- res4e_branch2b
I0830 10:34:09.988965 35214 net.cpp:399] res4e_branch2c -> res4e_branch2c
I0830 10:34:09.991993 35214 net.cpp:141] Setting up res4e_branch2c
I0830 10:34:09.992022 35214 net.cpp:148] Top shape: 10 1024 14 14 (2007040)
I0830 10:34:09.992053 35214 net.cpp:156] Memory required for data: 2085314760
I0830 10:34:09.992074 35214 layer_factory.hpp:77] Creating layer bn4e_branch2c
I0830 10:34:09.992096 35214 net.cpp:91] Creating Layer bn4e_branch2c
I0830 10:34:09.992115 35214 net.cpp:425] bn4e_branch2c <- res4e_branch2c
I0830 10:34:09.992131 35214 net.cpp:386] bn4e_branch2c -> res4e_branch2c (in-place)
I0830 10:34:09.992388 35214 net.cpp:141] Setting up bn4e_branch2c
I0830 10:34:09.992413 35214 net.cpp:148] Top shape: 10 1024 14 14 (2007040)
I0830 10:34:09.992427 35214 net.cpp:156] Memory required for data: 2093342920
I0830 10:34:09.992449 35214 layer_factory.hpp:77] Creating layer scale4e_branch2c
I0830 10:34:09.992466 35214 net.cpp:91] Creating Layer scale4e_branch2c
I0830 10:34:09.992482 35214 net.cpp:425] scale4e_branch2c <- res4e_branch2c
I0830 10:34:09.992503 35214 net.cpp:386] scale4e_branch2c -> res4e_branch2c (in-place)
I0830 10:34:09.992568 35214 layer_factory.hpp:77] Creating layer scale4e_branch2c
I0830 10:34:09.992738 35214 net.cpp:141] Setting up scale4e_branch2c
I0830 10:34:09.992765 35214 net.cpp:148] Top shape: 10 1024 14 14 (2007040)
I0830 10:34:09.992779 35214 net.cpp:156] Memory required for data: 2101371080
I0830 10:34:09.992799 35214 layer_factory.hpp:77] Creating layer res4e
I0830 10:34:09.992815 35214 net.cpp:91] Creating Layer res4e
I0830 10:34:09.992831 35214 net.cpp:425] res4e <- res4d_res4d_relu_0_split_1
I0830 10:34:09.992847 35214 net.cpp:425] res4e <- res4e_branch2c
I0830 10:34:09.992863 35214 net.cpp:399] res4e -> res4e
I0830 10:34:09.992909 35214 net.cpp:141] Setting up res4e
I0830 10:34:09.992933 35214 net.cpp:148] Top shape: 10 1024 14 14 (2007040)
I0830 10:34:09.992947 35214 net.cpp:156] Memory required for data: 2109399240
I0830 10:34:09.992962 35214 layer_factory.hpp:77] Creating layer res4e_relu
I0830 10:34:09.992982 35214 net.cpp:91] Creating Layer res4e_relu
I0830 10:34:09.992998 35214 net.cpp:425] res4e_relu <- res4e
I0830 10:34:09.993015 35214 net.cpp:386] res4e_relu -> res4e (in-place)
I0830 10:34:09.993032 35214 net.cpp:141] Setting up res4e_relu
I0830 10:34:09.993048 35214 net.cpp:148] Top shape: 10 1024 14 14 (2007040)
I0830 10:34:09.993063 35214 net.cpp:156] Memory required for data: 2117427400
I0830 10:34:09.993078 35214 layer_factory.hpp:77] Creating layer res4e_res4e_relu_0_split
I0830 10:34:09.993094 35214 net.cpp:91] Creating Layer res4e_res4e_relu_0_split
I0830 10:34:09.993109 35214 net.cpp:425] res4e_res4e_relu_0_split <- res4e
I0830 10:34:09.993125 35214 net.cpp:399] res4e_res4e_relu_0_split -> res4e_res4e_relu_0_split_0
I0830 10:34:09.993146 35214 net.cpp:399] res4e_res4e_relu_0_split -> res4e_res4e_relu_0_split_1
I0830 10:34:09.993203 35214 net.cpp:141] Setting up res4e_res4e_relu_0_split
I0830 10:34:09.993227 35214 net.cpp:148] Top shape: 10 1024 14 14 (2007040)
I0830 10:34:09.993242 35214 net.cpp:148] Top shape: 10 1024 14 14 (2007040)
I0830 10:34:09.993257 35214 net.cpp:156] Memory required for data: 2133483720
I0830 10:34:09.993273 35214 layer_factory.hpp:77] Creating layer res4f_branch2a
I0830 10:34:09.993295 35214 net.cpp:91] Creating Layer res4f_branch2a
I0830 10:34:09.993312 35214 net.cpp:425] res4f_branch2a <- res4e_res4e_relu_0_split_0
I0830 10:34:09.993330 35214 net.cpp:399] res4f_branch2a -> res4f_branch2a
I0830 10:34:09.996372 35214 net.cpp:141] Setting up res4f_branch2a
I0830 10:34:09.996402 35214 net.cpp:148] Top shape: 10 256 14 14 (501760)
I0830 10:34:09.996417 35214 net.cpp:156] Memory required for data: 2135490760
I0830 10:34:09.996434 35214 layer_factory.hpp:77] Creating layer bn4f_branch2a
I0830 10:34:09.996459 35214 net.cpp:91] Creating Layer bn4f_branch2a
I0830 10:34:09.996475 35214 net.cpp:425] bn4f_branch2a <- res4f_branch2a
I0830 10:34:09.996492 35214 net.cpp:386] bn4f_branch2a -> res4f_branch2a (in-place)
I0830 10:34:09.996729 35214 net.cpp:141] Setting up bn4f_branch2a
I0830 10:34:09.996754 35214 net.cpp:148] Top shape: 10 256 14 14 (501760)
I0830 10:34:09.996769 35214 net.cpp:156] Memory required for data: 2137497800
I0830 10:34:09.996789 35214 layer_factory.hpp:77] Creating layer scale4f_branch2a
I0830 10:34:09.996831 35214 net.cpp:91] Creating Layer scale4f_branch2a
I0830 10:34:09.996848 35214 net.cpp:425] scale4f_branch2a <- res4f_branch2a
I0830 10:34:09.996868 35214 net.cpp:386] scale4f_branch2a -> res4f_branch2a (in-place)
I0830 10:34:09.996932 35214 layer_factory.hpp:77] Creating layer scale4f_branch2a
I0830 10:34:09.997095 35214 net.cpp:141] Setting up scale4f_branch2a
I0830 10:34:09.997122 35214 net.cpp:148] Top shape: 10 256 14 14 (501760)
I0830 10:34:09.997135 35214 net.cpp:156] Memory required for data: 2139504840
I0830 10:34:09.997153 35214 layer_factory.hpp:77] Creating layer res4f_branch2a_relu
I0830 10:34:09.997174 35214 net.cpp:91] Creating Layer res4f_branch2a_relu
I0830 10:34:09.997190 35214 net.cpp:425] res4f_branch2a_relu <- res4f_branch2a
I0830 10:34:09.997206 35214 net.cpp:386] res4f_branch2a_relu -> res4f_branch2a (in-place)
I0830 10:34:09.997225 35214 net.cpp:141] Setting up res4f_branch2a_relu
I0830 10:34:09.997241 35214 net.cpp:148] Top shape: 10 256 14 14 (501760)
I0830 10:34:09.997256 35214 net.cpp:156] Memory required for data: 2141511880
I0830 10:34:09.997269 35214 layer_factory.hpp:77] Creating layer res4f_branch2b
I0830 10:34:09.997292 35214 net.cpp:91] Creating Layer res4f_branch2b
I0830 10:34:09.997315 35214 net.cpp:425] res4f_branch2b <- res4f_branch2a
I0830 10:34:09.997337 35214 net.cpp:399] res4f_branch2b -> res4f_branch2b
I0830 10:34:10.003666 35214 net.cpp:141] Setting up res4f_branch2b
I0830 10:34:10.003700 35214 net.cpp:148] Top shape: 10 256 14 14 (501760)
I0830 10:34:10.003715 35214 net.cpp:156] Memory required for data: 2143518920
I0830 10:34:10.003732 35214 layer_factory.hpp:77] Creating layer bn4f_branch2b
I0830 10:34:10.003751 35214 net.cpp:91] Creating Layer bn4f_branch2b
I0830 10:34:10.003767 35214 net.cpp:425] bn4f_branch2b <- res4f_branch2b
I0830 10:34:10.003787 35214 net.cpp:386] bn4f_branch2b -> res4f_branch2b (in-place)
I0830 10:34:10.004035 35214 net.cpp:141] Setting up bn4f_branch2b
I0830 10:34:10.004061 35214 net.cpp:148] Top shape: 10 256 14 14 (501760)
I0830 10:34:10.004076 35214 net.cpp:156] Memory required for data: 2145525960
I0830 10:34:10.004096 35214 layer_factory.hpp:77] Creating layer scale4f_branch2b
I0830 10:34:10.004114 35214 net.cpp:91] Creating Layer scale4f_branch2b
I0830 10:34:10.004130 35214 net.cpp:425] scale4f_branch2b <- res4f_branch2b
I0830 10:34:10.004146 35214 net.cpp:386] scale4f_branch2b -> res4f_branch2b (in-place)
I0830 10:34:10.004214 35214 layer_factory.hpp:77] Creating layer scale4f_branch2b
I0830 10:34:10.004376 35214 net.cpp:141] Setting up scale4f_branch2b
I0830 10:34:10.004400 35214 net.cpp:148] Top shape: 10 256 14 14 (501760)
I0830 10:34:10.004415 35214 net.cpp:156] Memory required for data: 2147533000
I0830 10:34:10.004433 35214 layer_factory.hpp:77] Creating layer res4f_branch2b_relu
I0830 10:34:10.004451 35214 net.cpp:91] Creating Layer res4f_branch2b_relu
I0830 10:34:10.004467 35214 net.cpp:425] res4f_branch2b_relu <- res4f_branch2b
I0830 10:34:10.004485 35214 net.cpp:386] res4f_branch2b_relu -> res4f_branch2b (in-place)
I0830 10:34:10.004504 35214 net.cpp:141] Setting up res4f_branch2b_relu
I0830 10:34:10.004521 35214 net.cpp:148] Top shape: 10 256 14 14 (501760)
I0830 10:34:10.004535 35214 net.cpp:156] Memory required for data: 2149540040
I0830 10:34:10.004549 35214 layer_factory.hpp:77] Creating layer res4f_branch2c
I0830 10:34:10.004570 35214 net.cpp:91] Creating Layer res4f_branch2c
I0830 10:34:10.004585 35214 net.cpp:425] res4f_branch2c <- res4f_branch2b
I0830 10:34:10.004606 35214 net.cpp:399] res4f_branch2c -> res4f_branch2c
I0830 10:34:10.007908 35214 net.cpp:141] Setting up res4f_branch2c
I0830 10:34:10.007951 35214 net.cpp:148] Top shape: 10 1024 14 14 (2007040)
I0830 10:34:10.007966 35214 net.cpp:156] Memory required for data: 2157568200
I0830 10:34:10.007984 35214 layer_factory.hpp:77] Creating layer bn4f_branch2c
I0830 10:34:10.008003 35214 net.cpp:91] Creating Layer bn4f_branch2c
I0830 10:34:10.008019 35214 net.cpp:425] bn4f_branch2c <- res4f_branch2c
I0830 10:34:10.008036 35214 net.cpp:386] bn4f_branch2c -> res4f_branch2c (in-place)
I0830 10:34:10.008930 35214 net.cpp:141] Setting up bn4f_branch2c
I0830 10:34:10.008962 35214 net.cpp:148] Top shape: 10 1024 14 14 (2007040)
I0830 10:34:10.008980 35214 net.cpp:156] Memory required for data: 2165596360
I0830 10:34:10.009057 35214 layer_factory.hpp:77] Creating layer scale4f_branch2c
I0830 10:34:10.009084 35214 net.cpp:91] Creating Layer scale4f_branch2c
I0830 10:34:10.009104 35214 net.cpp:425] scale4f_branch2c <- res4f_branch2c
I0830 10:34:10.009122 35214 net.cpp:386] scale4f_branch2c -> res4f_branch2c (in-place)
I0830 10:34:10.009191 35214 layer_factory.hpp:77] Creating layer scale4f_branch2c
I0830 10:34:10.009361 35214 net.cpp:141] Setting up scale4f_branch2c
I0830 10:34:10.009388 35214 net.cpp:148] Top shape: 10 1024 14 14 (2007040)
I0830 10:34:10.009402 35214 net.cpp:156] Memory required for data: 2173624520
I0830 10:34:10.009423 35214 layer_factory.hpp:77] Creating layer res4f
I0830 10:34:10.009440 35214 net.cpp:91] Creating Layer res4f
I0830 10:34:10.009455 35214 net.cpp:425] res4f <- res4e_res4e_relu_0_split_1
I0830 10:34:10.009471 35214 net.cpp:425] res4f <- res4f_branch2c
I0830 10:34:10.009490 35214 net.cpp:399] res4f -> res4f
I0830 10:34:10.009537 35214 net.cpp:141] Setting up res4f
I0830 10:34:10.009560 35214 net.cpp:148] Top shape: 10 1024 14 14 (2007040)
I0830 10:34:10.009575 35214 net.cpp:156] Memory required for data: 2181652680
I0830 10:34:10.009589 35214 layer_factory.hpp:77] Creating layer res4f_relu
I0830 10:34:10.009613 35214 net.cpp:91] Creating Layer res4f_relu
I0830 10:34:10.009627 35214 net.cpp:425] res4f_relu <- res4f
I0830 10:34:10.009644 35214 net.cpp:386] res4f_relu -> res4f (in-place)
I0830 10:34:10.009662 35214 net.cpp:141] Setting up res4f_relu
I0830 10:34:10.009680 35214 net.cpp:148] Top shape: 10 1024 14 14 (2007040)
I0830 10:34:10.009693 35214 net.cpp:156] Memory required for data: 2189680840
I0830 10:34:10.009708 35214 layer_factory.hpp:77] Creating layer res4f_res4f_relu_0_split
I0830 10:34:10.009726 35214 net.cpp:91] Creating Layer res4f_res4f_relu_0_split
I0830 10:34:10.009739 35214 net.cpp:425] res4f_res4f_relu_0_split <- res4f
I0830 10:34:10.009755 35214 net.cpp:399] res4f_res4f_relu_0_split -> res4f_res4f_relu_0_split_0
I0830 10:34:10.009776 35214 net.cpp:399] res4f_res4f_relu_0_split -> res4f_res4f_relu_0_split_1
I0830 10:34:10.009838 35214 net.cpp:141] Setting up res4f_res4f_relu_0_split
I0830 10:34:10.009861 35214 net.cpp:148] Top shape: 10 1024 14 14 (2007040)
I0830 10:34:10.009878 35214 net.cpp:148] Top shape: 10 1024 14 14 (2007040)
I0830 10:34:10.009893 35214 net.cpp:156] Memory required for data: 2205737160
I0830 10:34:10.009907 35214 layer_factory.hpp:77] Creating layer res5a_branch1
I0830 10:34:10.009932 35214 net.cpp:91] Creating Layer res5a_branch1
I0830 10:34:10.009949 35214 net.cpp:425] res5a_branch1 <- res4f_res4f_relu_0_split_0
I0830 10:34:10.009968 35214 net.cpp:399] res5a_branch1 -> res5a_branch1
I0830 10:34:10.031594 35214 net.cpp:141] Setting up res5a_branch1
I0830 10:34:10.031635 35214 net.cpp:148] Top shape: 10 2048 7 7 (1003520)
I0830 10:34:10.031651 35214 net.cpp:156] Memory required for data: 2209751240
I0830 10:34:10.031668 35214 layer_factory.hpp:77] Creating layer bn5a_branch1
I0830 10:34:10.031692 35214 net.cpp:91] Creating Layer bn5a_branch1
I0830 10:34:10.031708 35214 net.cpp:425] bn5a_branch1 <- res5a_branch1
I0830 10:34:10.031726 35214 net.cpp:386] bn5a_branch1 -> res5a_branch1 (in-place)
I0830 10:34:10.032012 35214 net.cpp:141] Setting up bn5a_branch1
I0830 10:34:10.032037 35214 net.cpp:148] Top shape: 10 2048 7 7 (1003520)
I0830 10:34:10.032052 35214 net.cpp:156] Memory required for data: 2213765320
I0830 10:34:10.032073 35214 layer_factory.hpp:77] Creating layer scale5a_branch1
I0830 10:34:10.032091 35214 net.cpp:91] Creating Layer scale5a_branch1
I0830 10:34:10.032106 35214 net.cpp:425] scale5a_branch1 <- res5a_branch1
I0830 10:34:10.032126 35214 net.cpp:386] scale5a_branch1 -> res5a_branch1 (in-place)
I0830 10:34:10.032194 35214 layer_factory.hpp:77] Creating layer scale5a_branch1
I0830 10:34:10.032402 35214 net.cpp:141] Setting up scale5a_branch1
I0830 10:34:10.032428 35214 net.cpp:148] Top shape: 10 2048 7 7 (1003520)
I0830 10:34:10.032444 35214 net.cpp:156] Memory required for data: 2217779400
I0830 10:34:10.032461 35214 layer_factory.hpp:77] Creating layer res5a_branch2a
I0830 10:34:10.032486 35214 net.cpp:91] Creating Layer res5a_branch2a
I0830 10:34:10.032503 35214 net.cpp:425] res5a_branch2a <- res4f_res4f_relu_0_split_1
I0830 10:34:10.032522 35214 net.cpp:399] res5a_branch2a -> res5a_branch2a
I0830 10:34:10.038067 35214 net.cpp:141] Setting up res5a_branch2a
I0830 10:34:10.038110 35214 net.cpp:148] Top shape: 10 512 7 7 (250880)
I0830 10:34:10.038126 35214 net.cpp:156] Memory required for data: 2218782920
I0830 10:34:10.038143 35214 layer_factory.hpp:77] Creating layer bn5a_branch2a
I0830 10:34:10.038161 35214 net.cpp:91] Creating Layer bn5a_branch2a
I0830 10:34:10.038178 35214 net.cpp:425] bn5a_branch2a <- res5a_branch2a
I0830 10:34:10.038194 35214 net.cpp:386] bn5a_branch2a -> res5a_branch2a (in-place)
I0830 10:34:10.038460 35214 net.cpp:141] Setting up bn5a_branch2a
I0830 10:34:10.038491 35214 net.cpp:148] Top shape: 10 512 7 7 (250880)
I0830 10:34:10.038506 35214 net.cpp:156] Memory required for data: 2219786440
I0830 10:34:10.038527 35214 layer_factory.hpp:77] Creating layer scale5a_branch2a
I0830 10:34:10.038547 35214 net.cpp:91] Creating Layer scale5a_branch2a
I0830 10:34:10.038563 35214 net.cpp:425] scale5a_branch2a <- res5a_branch2a
I0830 10:34:10.038579 35214 net.cpp:386] scale5a_branch2a -> res5a_branch2a (in-place)
I0830 10:34:10.038655 35214 layer_factory.hpp:77] Creating layer scale5a_branch2a
I0830 10:34:10.038828 35214 net.cpp:141] Setting up scale5a_branch2a
I0830 10:34:10.038853 35214 net.cpp:148] Top shape: 10 512 7 7 (250880)
I0830 10:34:10.038868 35214 net.cpp:156] Memory required for data: 2220789960
I0830 10:34:10.038887 35214 layer_factory.hpp:77] Creating layer res5a_branch2a_relu
I0830 10:34:10.038908 35214 net.cpp:91] Creating Layer res5a_branch2a_relu
I0830 10:34:10.038923 35214 net.cpp:425] res5a_branch2a_relu <- res5a_branch2a
I0830 10:34:10.038939 35214 net.cpp:386] res5a_branch2a_relu -> res5a_branch2a (in-place)
I0830 10:34:10.038959 35214 net.cpp:141] Setting up res5a_branch2a_relu
I0830 10:34:10.038975 35214 net.cpp:148] Top shape: 10 512 7 7 (250880)
I0830 10:34:10.038990 35214 net.cpp:156] Memory required for data: 2221793480
I0830 10:34:10.039003 35214 layer_factory.hpp:77] Creating layer res5a_branch2b
I0830 10:34:10.039027 35214 net.cpp:91] Creating Layer res5a_branch2b
I0830 10:34:10.039043 35214 net.cpp:425] res5a_branch2b <- res5a_branch2a
I0830 10:34:10.039068 35214 net.cpp:399] res5a_branch2b -> res5a_branch2b
I0830 10:34:10.063243 35214 net.cpp:141] Setting up res5a_branch2b
I0830 10:34:10.063284 35214 net.cpp:148] Top shape: 10 512 7 7 (250880)
I0830 10:34:10.063300 35214 net.cpp:156] Memory required for data: 2222797000
I0830 10:34:10.063318 35214 layer_factory.hpp:77] Creating layer bn5a_branch2b
I0830 10:34:10.063338 35214 net.cpp:91] Creating Layer bn5a_branch2b
I0830 10:34:10.063355 35214 net.cpp:425] bn5a_branch2b <- res5a_branch2b
I0830 10:34:10.063372 35214 net.cpp:386] bn5a_branch2b -> res5a_branch2b (in-place)
I0830 10:34:10.063627 35214 net.cpp:141] Setting up bn5a_branch2b
I0830 10:34:10.063652 35214 net.cpp:148] Top shape: 10 512 7 7 (250880)
I0830 10:34:10.063666 35214 net.cpp:156] Memory required for data: 2223800520
I0830 10:34:10.063688 35214 layer_factory.hpp:77] Creating layer scale5a_branch2b
I0830 10:34:10.063714 35214 net.cpp:91] Creating Layer scale5a_branch2b
I0830 10:34:10.063730 35214 net.cpp:425] scale5a_branch2b <- res5a_branch2b
I0830 10:34:10.063748 35214 net.cpp:386] scale5a_branch2b -> res5a_branch2b (in-place)
I0830 10:34:10.063820 35214 layer_factory.hpp:77] Creating layer scale5a_branch2b
I0830 10:34:10.063999 35214 net.cpp:141] Setting up scale5a_branch2b
I0830 10:34:10.064024 35214 net.cpp:148] Top shape: 10 512 7 7 (250880)
I0830 10:34:10.064038 35214 net.cpp:156] Memory required for data: 2224804040
I0830 10:34:10.064088 35214 layer_factory.hpp:77] Creating layer res5a_branch2b_relu
I0830 10:34:10.064108 35214 net.cpp:91] Creating Layer res5a_branch2b_relu
I0830 10:34:10.064124 35214 net.cpp:425] res5a_branch2b_relu <- res5a_branch2b
I0830 10:34:10.064143 35214 net.cpp:386] res5a_branch2b_relu -> res5a_branch2b (in-place)
I0830 10:34:10.064163 35214 net.cpp:141] Setting up res5a_branch2b_relu
I0830 10:34:10.064179 35214 net.cpp:148] Top shape: 10 512 7 7 (250880)
I0830 10:34:10.064194 35214 net.cpp:156] Memory required for data: 2225807560
I0830 10:34:10.064209 35214 layer_factory.hpp:77] Creating layer res5a_branch2c
I0830 10:34:10.064234 35214 net.cpp:91] Creating Layer res5a_branch2c
I0830 10:34:10.064249 35214 net.cpp:425] res5a_branch2c <- res5a_branch2b
I0830 10:34:10.064275 35214 net.cpp:399] res5a_branch2c -> res5a_branch2c
I0830 10:34:10.075263 35214 net.cpp:141] Setting up res5a_branch2c
I0830 10:34:10.075299 35214 net.cpp:148] Top shape: 10 2048 7 7 (1003520)
I0830 10:34:10.075314 35214 net.cpp:156] Memory required for data: 2229821640
I0830 10:34:10.075332 35214 layer_factory.hpp:77] Creating layer bn5a_branch2c
I0830 10:34:10.075354 35214 net.cpp:91] Creating Layer bn5a_branch2c
I0830 10:34:10.075371 35214 net.cpp:425] bn5a_branch2c <- res5a_branch2c
I0830 10:34:10.075389 35214 net.cpp:386] bn5a_branch2c -> res5a_branch2c (in-place)
I0830 10:34:10.075649 35214 net.cpp:141] Setting up bn5a_branch2c
I0830 10:34:10.075675 35214 net.cpp:148] Top shape: 10 2048 7 7 (1003520)
I0830 10:34:10.075690 35214 net.cpp:156] Memory required for data: 2233835720
I0830 10:34:10.075711 35214 layer_factory.hpp:77] Creating layer scale5a_branch2c
I0830 10:34:10.075731 35214 net.cpp:91] Creating Layer scale5a_branch2c
I0830 10:34:10.075747 35214 net.cpp:425] scale5a_branch2c <- res5a_branch2c
I0830 10:34:10.075767 35214 net.cpp:386] scale5a_branch2c -> res5a_branch2c (in-place)
I0830 10:34:10.075837 35214 layer_factory.hpp:77] Creating layer scale5a_branch2c
I0830 10:34:10.076023 35214 net.cpp:141] Setting up scale5a_branch2c
I0830 10:34:10.076048 35214 net.cpp:148] Top shape: 10 2048 7 7 (1003520)
I0830 10:34:10.076063 35214 net.cpp:156] Memory required for data: 2237849800
I0830 10:34:10.076081 35214 layer_factory.hpp:77] Creating layer res5a
I0830 10:34:10.076100 35214 net.cpp:91] Creating Layer res5a
I0830 10:34:10.076117 35214 net.cpp:425] res5a <- res5a_branch1
I0830 10:34:10.076131 35214 net.cpp:425] res5a <- res5a_branch2c
I0830 10:34:10.076148 35214 net.cpp:399] res5a -> res5a
I0830 10:34:10.076196 35214 net.cpp:141] Setting up res5a
I0830 10:34:10.076220 35214 net.cpp:148] Top shape: 10 2048 7 7 (1003520)
I0830 10:34:10.076234 35214 net.cpp:156] Memory required for data: 2241863880
I0830 10:34:10.076248 35214 layer_factory.hpp:77] Creating layer res5a_relu
I0830 10:34:10.076269 35214 net.cpp:91] Creating Layer res5a_relu
I0830 10:34:10.076285 35214 net.cpp:425] res5a_relu <- res5a
I0830 10:34:10.076301 35214 net.cpp:386] res5a_relu -> res5a (in-place)
I0830 10:34:10.076319 35214 net.cpp:141] Setting up res5a_relu
I0830 10:34:10.076336 35214 net.cpp:148] Top shape: 10 2048 7 7 (1003520)
I0830 10:34:10.076349 35214 net.cpp:156] Memory required for data: 2245877960
I0830 10:34:10.076364 35214 layer_factory.hpp:77] Creating layer res5a_res5a_relu_0_split
I0830 10:34:10.076381 35214 net.cpp:91] Creating Layer res5a_res5a_relu_0_split
I0830 10:34:10.076396 35214 net.cpp:425] res5a_res5a_relu_0_split <- res5a
I0830 10:34:10.076414 35214 net.cpp:399] res5a_res5a_relu_0_split -> res5a_res5a_relu_0_split_0
I0830 10:34:10.076434 35214 net.cpp:399] res5a_res5a_relu_0_split -> res5a_res5a_relu_0_split_1
I0830 10:34:10.076493 35214 net.cpp:141] Setting up res5a_res5a_relu_0_split
I0830 10:34:10.076515 35214 net.cpp:148] Top shape: 10 2048 7 7 (1003520)
I0830 10:34:10.076531 35214 net.cpp:148] Top shape: 10 2048 7 7 (1003520)
I0830 10:34:10.076545 35214 net.cpp:156] Memory required for data: 2253906120
I0830 10:34:10.076560 35214 layer_factory.hpp:77] Creating layer res5b_branch2a
I0830 10:34:10.076583 35214 net.cpp:91] Creating Layer res5b_branch2a
I0830 10:34:10.076619 35214 net.cpp:425] res5b_branch2a <- res5a_res5a_relu_0_split_0
I0830 10:34:10.076640 35214 net.cpp:399] res5b_branch2a -> res5b_branch2a
I0830 10:34:10.087576 35214 net.cpp:141] Setting up res5b_branch2a
I0830 10:34:10.087606 35214 net.cpp:148] Top shape: 10 512 7 7 (250880)
I0830 10:34:10.087621 35214 net.cpp:156] Memory required for data: 2254909640
I0830 10:34:10.087640 35214 layer_factory.hpp:77] Creating layer bn5b_branch2a
I0830 10:34:10.087666 35214 net.cpp:91] Creating Layer bn5b_branch2a
I0830 10:34:10.087683 35214 net.cpp:425] bn5b_branch2a <- res5b_branch2a
I0830 10:34:10.087700 35214 net.cpp:386] bn5b_branch2a -> res5b_branch2a (in-place)
I0830 10:34:10.087956 35214 net.cpp:141] Setting up bn5b_branch2a
I0830 10:34:10.087982 35214 net.cpp:148] Top shape: 10 512 7 7 (250880)
I0830 10:34:10.087997 35214 net.cpp:156] Memory required for data: 2255913160
I0830 10:34:10.088018 35214 layer_factory.hpp:77] Creating layer scale5b_branch2a
I0830 10:34:10.088037 35214 net.cpp:91] Creating Layer scale5b_branch2a
I0830 10:34:10.088052 35214 net.cpp:425] scale5b_branch2a <- res5b_branch2a
I0830 10:34:10.088073 35214 net.cpp:386] scale5b_branch2a -> res5b_branch2a (in-place)
I0830 10:34:10.088140 35214 layer_factory.hpp:77] Creating layer scale5b_branch2a
I0830 10:34:10.088315 35214 net.cpp:141] Setting up scale5b_branch2a
I0830 10:34:10.088343 35214 net.cpp:148] Top shape: 10 512 7 7 (250880)
I0830 10:34:10.088358 35214 net.cpp:156] Memory required for data: 2256916680
I0830 10:34:10.088376 35214 layer_factory.hpp:77] Creating layer res5b_branch2a_relu
I0830 10:34:10.088394 35214 net.cpp:91] Creating Layer res5b_branch2a_relu
I0830 10:34:10.088409 35214 net.cpp:425] res5b_branch2a_relu <- res5b_branch2a
I0830 10:34:10.088425 35214 net.cpp:386] res5b_branch2a_relu -> res5b_branch2a (in-place)
I0830 10:34:10.088443 35214 net.cpp:141] Setting up res5b_branch2a_relu
I0830 10:34:10.088460 35214 net.cpp:148] Top shape: 10 512 7 7 (250880)
I0830 10:34:10.088474 35214 net.cpp:156] Memory required for data: 2257920200
I0830 10:34:10.088488 35214 layer_factory.hpp:77] Creating layer res5b_branch2b
I0830 10:34:10.088513 35214 net.cpp:91] Creating Layer res5b_branch2b
I0830 10:34:10.088529 35214 net.cpp:425] res5b_branch2b <- res5b_branch2a
I0830 10:34:10.088551 35214 net.cpp:399] res5b_branch2b -> res5b_branch2b
I0830 10:34:10.112767 35214 net.cpp:141] Setting up res5b_branch2b
I0830 10:34:10.112807 35214 net.cpp:148] Top shape: 10 512 7 7 (250880)
I0830 10:34:10.112823 35214 net.cpp:156] Memory required for data: 2258923720
I0830 10:34:10.112841 35214 layer_factory.hpp:77] Creating layer bn5b_branch2b
I0830 10:34:10.112860 35214 net.cpp:91] Creating Layer bn5b_branch2b
I0830 10:34:10.112877 35214 net.cpp:425] bn5b_branch2b <- res5b_branch2b
I0830 10:34:10.112897 35214 net.cpp:386] bn5b_branch2b -> res5b_branch2b (in-place)
I0830 10:34:10.113168 35214 net.cpp:141] Setting up bn5b_branch2b
I0830 10:34:10.113193 35214 net.cpp:148] Top shape: 10 512 7 7 (250880)
I0830 10:34:10.113209 35214 net.cpp:156] Memory required for data: 2259927240
I0830 10:34:10.113229 35214 layer_factory.hpp:77] Creating layer scale5b_branch2b
I0830 10:34:10.113248 35214 net.cpp:91] Creating Layer scale5b_branch2b
I0830 10:34:10.113265 35214 net.cpp:425] scale5b_branch2b <- res5b_branch2b
I0830 10:34:10.113281 35214 net.cpp:386] scale5b_branch2b -> res5b_branch2b (in-place)
I0830 10:34:10.113361 35214 layer_factory.hpp:77] Creating layer scale5b_branch2b
I0830 10:34:10.113540 35214 net.cpp:141] Setting up scale5b_branch2b
I0830 10:34:10.113564 35214 net.cpp:148] Top shape: 10 512 7 7 (250880)
I0830 10:34:10.113579 35214 net.cpp:156] Memory required for data: 2260930760
I0830 10:34:10.113597 35214 layer_factory.hpp:77] Creating layer res5b_branch2b_relu
I0830 10:34:10.113615 35214 net.cpp:91] Creating Layer res5b_branch2b_relu
I0830 10:34:10.113631 35214 net.cpp:425] res5b_branch2b_relu <- res5b_branch2b
I0830 10:34:10.113649 35214 net.cpp:386] res5b_branch2b_relu -> res5b_branch2b (in-place)
I0830 10:34:10.113695 35214 net.cpp:141] Setting up res5b_branch2b_relu
I0830 10:34:10.113714 35214 net.cpp:148] Top shape: 10 512 7 7 (250880)
I0830 10:34:10.113729 35214 net.cpp:156] Memory required for data: 2261934280
I0830 10:34:10.113744 35214 layer_factory.hpp:77] Creating layer res5b_branch2c
I0830 10:34:10.113777 35214 net.cpp:91] Creating Layer res5b_branch2c
I0830 10:34:10.113795 35214 net.cpp:425] res5b_branch2c <- res5b_branch2b
I0830 10:34:10.113812 35214 net.cpp:399] res5b_branch2c -> res5b_branch2c
I0830 10:34:10.124974 35214 net.cpp:141] Setting up res5b_branch2c
I0830 10:34:10.125005 35214 net.cpp:148] Top shape: 10 2048 7 7 (1003520)
I0830 10:34:10.125020 35214 net.cpp:156] Memory required for data: 2265948360
I0830 10:34:10.125038 35214 layer_factory.hpp:77] Creating layer bn5b_branch2c
I0830 10:34:10.125056 35214 net.cpp:91] Creating Layer bn5b_branch2c
I0830 10:34:10.125072 35214 net.cpp:425] bn5b_branch2c <- res5b_branch2c
I0830 10:34:10.125089 35214 net.cpp:386] bn5b_branch2c -> res5b_branch2c (in-place)
I0830 10:34:10.125352 35214 net.cpp:141] Setting up bn5b_branch2c
I0830 10:34:10.125378 35214 net.cpp:148] Top shape: 10 2048 7 7 (1003520)
I0830 10:34:10.125394 35214 net.cpp:156] Memory required for data: 2269962440
I0830 10:34:10.125414 35214 layer_factory.hpp:77] Creating layer scale5b_branch2c
I0830 10:34:10.125433 35214 net.cpp:91] Creating Layer scale5b_branch2c
I0830 10:34:10.125450 35214 net.cpp:425] scale5b_branch2c <- res5b_branch2c
I0830 10:34:10.125468 35214 net.cpp:386] scale5b_branch2c -> res5b_branch2c (in-place)
I0830 10:34:10.125537 35214 layer_factory.hpp:77] Creating layer scale5b_branch2c
I0830 10:34:10.125723 35214 net.cpp:141] Setting up scale5b_branch2c
I0830 10:34:10.125748 35214 net.cpp:148] Top shape: 10 2048 7 7 (1003520)
I0830 10:34:10.125763 35214 net.cpp:156] Memory required for data: 2273976520
I0830 10:34:10.125782 35214 layer_factory.hpp:77] Creating layer res5b
I0830 10:34:10.125802 35214 net.cpp:91] Creating Layer res5b
I0830 10:34:10.125819 35214 net.cpp:425] res5b <- res5a_res5a_relu_0_split_1
I0830 10:34:10.125834 35214 net.cpp:425] res5b <- res5b_branch2c
I0830 10:34:10.125854 35214 net.cpp:399] res5b -> res5b
I0830 10:34:10.125900 35214 net.cpp:141] Setting up res5b
I0830 10:34:10.125923 35214 net.cpp:148] Top shape: 10 2048 7 7 (1003520)
I0830 10:34:10.125937 35214 net.cpp:156] Memory required for data: 2277990600
I0830 10:34:10.125952 35214 layer_factory.hpp:77] Creating layer res5b_relu
I0830 10:34:10.125969 35214 net.cpp:91] Creating Layer res5b_relu
I0830 10:34:10.125985 35214 net.cpp:425] res5b_relu <- res5b
I0830 10:34:10.126003 35214 net.cpp:386] res5b_relu -> res5b (in-place)
I0830 10:34:10.126022 35214 net.cpp:141] Setting up res5b_relu
I0830 10:34:10.126039 35214 net.cpp:148] Top shape: 10 2048 7 7 (1003520)
I0830 10:34:10.126054 35214 net.cpp:156] Memory required for data: 2282004680
I0830 10:34:10.126068 35214 layer_factory.hpp:77] Creating layer res5b_res5b_relu_0_split
I0830 10:34:10.126085 35214 net.cpp:91] Creating Layer res5b_res5b_relu_0_split
I0830 10:34:10.126101 35214 net.cpp:425] res5b_res5b_relu_0_split <- res5b
I0830 10:34:10.126116 35214 net.cpp:399] res5b_res5b_relu_0_split -> res5b_res5b_relu_0_split_0
I0830 10:34:10.126135 35214 net.cpp:399] res5b_res5b_relu_0_split -> res5b_res5b_relu_0_split_1
I0830 10:34:10.126196 35214 net.cpp:141] Setting up res5b_res5b_relu_0_split
I0830 10:34:10.126220 35214 net.cpp:148] Top shape: 10 2048 7 7 (1003520)
I0830 10:34:10.126236 35214 net.cpp:148] Top shape: 10 2048 7 7 (1003520)
I0830 10:34:10.126250 35214 net.cpp:156] Memory required for data: 2290032840
I0830 10:34:10.126265 35214 layer_factory.hpp:77] Creating layer res5c_branch2a
I0830 10:34:10.126286 35214 net.cpp:91] Creating Layer res5c_branch2a
I0830 10:34:10.126301 35214 net.cpp:425] res5c_branch2a <- res5b_res5b_relu_0_split_0
I0830 10:34:10.126322 35214 net.cpp:399] res5c_branch2a -> res5c_branch2a
I0830 10:34:10.137269 35214 net.cpp:141] Setting up res5c_branch2a
I0830 10:34:10.137300 35214 net.cpp:148] Top shape: 10 512 7 7 (250880)
I0830 10:34:10.137336 35214 net.cpp:156] Memory required for data: 2291036360
I0830 10:34:10.137354 35214 layer_factory.hpp:77] Creating layer bn5c_branch2a
I0830 10:34:10.137373 35214 net.cpp:91] Creating Layer bn5c_branch2a
I0830 10:34:10.137389 35214 net.cpp:425] bn5c_branch2a <- res5c_branch2a
I0830 10:34:10.137406 35214 net.cpp:386] bn5c_branch2a -> res5c_branch2a (in-place)
I0830 10:34:10.137668 35214 net.cpp:141] Setting up bn5c_branch2a
I0830 10:34:10.137693 35214 net.cpp:148] Top shape: 10 512 7 7 (250880)
I0830 10:34:10.137708 35214 net.cpp:156] Memory required for data: 2292039880
I0830 10:34:10.137732 35214 layer_factory.hpp:77] Creating layer scale5c_branch2a
I0830 10:34:10.137753 35214 net.cpp:91] Creating Layer scale5c_branch2a
I0830 10:34:10.137768 35214 net.cpp:425] scale5c_branch2a <- res5c_branch2a
I0830 10:34:10.137784 35214 net.cpp:386] scale5c_branch2a -> res5c_branch2a (in-place)
I0830 10:34:10.137856 35214 layer_factory.hpp:77] Creating layer scale5c_branch2a
I0830 10:34:10.138031 35214 net.cpp:141] Setting up scale5c_branch2a
I0830 10:34:10.138056 35214 net.cpp:148] Top shape: 10 512 7 7 (250880)
I0830 10:34:10.138070 35214 net.cpp:156] Memory required for data: 2293043400
I0830 10:34:10.138088 35214 layer_factory.hpp:77] Creating layer res5c_branch2a_relu
I0830 10:34:10.138113 35214 net.cpp:91] Creating Layer res5c_branch2a_relu
I0830 10:34:10.138128 35214 net.cpp:425] res5c_branch2a_relu <- res5c_branch2a
I0830 10:34:10.138144 35214 net.cpp:386] res5c_branch2a_relu -> res5c_branch2a (in-place)
I0830 10:34:10.138164 35214 net.cpp:141] Setting up res5c_branch2a_relu
I0830 10:34:10.138181 35214 net.cpp:148] Top shape: 10 512 7 7 (250880)
I0830 10:34:10.138195 35214 net.cpp:156] Memory required for data: 2294046920
I0830 10:34:10.138211 35214 layer_factory.hpp:77] Creating layer res5c_branch2b
I0830 10:34:10.138234 35214 net.cpp:91] Creating Layer res5c_branch2b
I0830 10:34:10.138250 35214 net.cpp:425] res5c_branch2b <- res5c_branch2a
I0830 10:34:10.138272 35214 net.cpp:399] res5c_branch2b -> res5c_branch2b
I0830 10:34:10.161988 35214 net.cpp:141] Setting up res5c_branch2b
I0830 10:34:10.162036 35214 net.cpp:148] Top shape: 10 512 7 7 (250880)
I0830 10:34:10.162052 35214 net.cpp:156] Memory required for data: 2295050440
I0830 10:34:10.162070 35214 layer_factory.hpp:77] Creating layer bn5c_branch2b
I0830 10:34:10.162089 35214 net.cpp:91] Creating Layer bn5c_branch2b
I0830 10:34:10.162107 35214 net.cpp:425] bn5c_branch2b <- res5c_branch2b
I0830 10:34:10.162124 35214 net.cpp:386] bn5c_branch2b -> res5c_branch2b (in-place)
I0830 10:34:10.162395 35214 net.cpp:141] Setting up bn5c_branch2b
I0830 10:34:10.162420 35214 net.cpp:148] Top shape: 10 512 7 7 (250880)
I0830 10:34:10.162436 35214 net.cpp:156] Memory required for data: 2296053960
I0830 10:34:10.162456 35214 layer_factory.hpp:77] Creating layer scale5c_branch2b
I0830 10:34:10.162478 35214 net.cpp:91] Creating Layer scale5c_branch2b
I0830 10:34:10.162495 35214 net.cpp:425] scale5c_branch2b <- res5c_branch2b
I0830 10:34:10.162513 35214 net.cpp:386] scale5c_branch2b -> res5c_branch2b (in-place)
I0830 10:34:10.162586 35214 layer_factory.hpp:77] Creating layer scale5c_branch2b
I0830 10:34:10.162765 35214 net.cpp:141] Setting up scale5c_branch2b
I0830 10:34:10.162791 35214 net.cpp:148] Top shape: 10 512 7 7 (250880)
I0830 10:34:10.162806 35214 net.cpp:156] Memory required for data: 2297057480
I0830 10:34:10.162823 35214 layer_factory.hpp:77] Creating layer res5c_branch2b_relu
I0830 10:34:10.162840 35214 net.cpp:91] Creating Layer res5c_branch2b_relu
I0830 10:34:10.162856 35214 net.cpp:425] res5c_branch2b_relu <- res5c_branch2b
I0830 10:34:10.162875 35214 net.cpp:386] res5c_branch2b_relu -> res5c_branch2b (in-place)
I0830 10:34:10.162894 35214 net.cpp:141] Setting up res5c_branch2b_relu
I0830 10:34:10.162911 35214 net.cpp:148] Top shape: 10 512 7 7 (250880)
I0830 10:34:10.162925 35214 net.cpp:156] Memory required for data: 2298061000
I0830 10:34:10.162940 35214 layer_factory.hpp:77] Creating layer res5c_branch2c
I0830 10:34:10.162964 35214 net.cpp:91] Creating Layer res5c_branch2c
I0830 10:34:10.163002 35214 net.cpp:425] res5c_branch2c <- res5c_branch2b
I0830 10:34:10.163022 35214 net.cpp:399] res5c_branch2c -> res5c_branch2c
I0830 10:34:10.173604 35214 net.cpp:141] Setting up res5c_branch2c
I0830 10:34:10.173646 35214 net.cpp:148] Top shape: 10 2048 7 7 (1003520)
I0830 10:34:10.173662 35214 net.cpp:156] Memory required for data: 2302075080
I0830 10:34:10.173681 35214 layer_factory.hpp:77] Creating layer bn5c_branch2c
I0830 10:34:10.173702 35214 net.cpp:91] Creating Layer bn5c_branch2c
I0830 10:34:10.173718 35214 net.cpp:425] bn5c_branch2c <- res5c_branch2c
I0830 10:34:10.173738 35214 net.cpp:386] bn5c_branch2c -> res5c_branch2c (in-place)
I0830 10:34:10.174597 35214 net.cpp:141] Setting up bn5c_branch2c
I0830 10:34:10.174638 35214 net.cpp:148] Top shape: 10 2048 7 7 (1003520)
I0830 10:34:10.174654 35214 net.cpp:156] Memory required for data: 2306089160
I0830 10:34:10.174675 35214 layer_factory.hpp:77] Creating layer scale5c_branch2c
I0830 10:34:10.174702 35214 net.cpp:91] Creating Layer scale5c_branch2c
I0830 10:34:10.174720 35214 net.cpp:425] scale5c_branch2c <- res5c_branch2c
I0830 10:34:10.174738 35214 net.cpp:386] scale5c_branch2c -> res5c_branch2c (in-place)
I0830 10:34:10.175416 35214 layer_factory.hpp:77] Creating layer scale5c_branch2c
I0830 10:34:10.175597 35214 net.cpp:141] Setting up scale5c_branch2c
I0830 10:34:10.175633 35214 net.cpp:148] Top shape: 10 2048 7 7 (1003520)
I0830 10:34:10.175648 35214 net.cpp:156] Memory required for data: 2310103240
I0830 10:34:10.175668 35214 layer_factory.hpp:77] Creating layer res5c
I0830 10:34:10.175686 35214 net.cpp:91] Creating Layer res5c
I0830 10:34:10.175701 35214 net.cpp:425] res5c <- res5b_res5b_relu_0_split_1
I0830 10:34:10.175719 35214 net.cpp:425] res5c <- res5c_branch2c
I0830 10:34:10.175739 35214 net.cpp:399] res5c -> res5c
I0830 10:34:10.175782 35214 net.cpp:141] Setting up res5c
I0830 10:34:10.175806 35214 net.cpp:148] Top shape: 10 2048 7 7 (1003520)
I0830 10:34:10.175820 35214 net.cpp:156] Memory required for data: 2314117320
I0830 10:34:10.175834 35214 layer_factory.hpp:77] Creating layer res5c_relu
I0830 10:34:10.175854 35214 net.cpp:91] Creating Layer res5c_relu
I0830 10:34:10.175871 35214 net.cpp:425] res5c_relu <- res5c
I0830 10:34:10.175887 35214 net.cpp:386] res5c_relu -> res5c (in-place)
I0830 10:34:10.175906 35214 net.cpp:141] Setting up res5c_relu
I0830 10:34:10.175923 35214 net.cpp:148] Top shape: 10 2048 7 7 (1003520)
I0830 10:34:10.175937 35214 net.cpp:156] Memory required for data: 2318131400
I0830 10:34:10.175951 35214 layer_factory.hpp:77] Creating layer pool5
I0830 10:34:10.175971 35214 net.cpp:91] Creating Layer pool5
I0830 10:34:10.175984 35214 net.cpp:425] pool5 <- res5c
I0830 10:34:10.176002 35214 net.cpp:399] pool5 -> pool5
I0830 10:34:10.176049 35214 net.cpp:141] Setting up pool5
I0830 10:34:10.176072 35214 net.cpp:148] Top shape: 10 2048 1 1 (20480)
I0830 10:34:10.176086 35214 net.cpp:156] Memory required for data: 2318213320
I0830 10:34:10.176100 35214 layer_factory.hpp:77] Creating layer pool5_pool5_0_split
I0830 10:34:10.176120 35214 net.cpp:91] Creating Layer pool5_pool5_0_split
I0830 10:34:10.176134 35214 net.cpp:425] pool5_pool5_0_split <- pool5
I0830 10:34:10.176151 35214 net.cpp:399] pool5_pool5_0_split -> pool5_pool5_0_split_0
I0830 10:34:10.176170 35214 net.cpp:399] pool5_pool5_0_split -> pool5_pool5_0_split_1
I0830 10:34:10.176229 35214 net.cpp:141] Setting up pool5_pool5_0_split
I0830 10:34:10.176252 35214 net.cpp:148] Top shape: 10 2048 1 1 (20480)
I0830 10:34:10.176268 35214 net.cpp:148] Top shape: 10 2048 1 1 (20480)
I0830 10:34:10.176283 35214 net.cpp:156] Memory required for data: 2318377160
I0830 10:34:10.176297 35214 layer_factory.hpp:77] Creating layer fc_hash
I0830 10:34:10.176317 35214 net.cpp:91] Creating Layer fc_hash
I0830 10:34:10.176333 35214 net.cpp:425] fc_hash <- pool5_pool5_0_split_0
I0830 10:34:10.176353 35214 net.cpp:399] fc_hash -> fc_hash
I0830 10:34:10.177414 35214 net.cpp:141] Setting up fc_hash
I0830 10:34:10.177453 35214 net.cpp:148] Top shape: 10 12 (120)
I0830 10:34:10.177485 35214 net.cpp:156] Memory required for data: 2318377640
I0830 10:34:10.177506 35214 layer_factory.hpp:77] Creating layer fc_classification
I0830 10:34:10.177530 35214 net.cpp:91] Creating Layer fc_classification
I0830 10:34:10.177546 35214 net.cpp:425] fc_classification <- pool5_pool5_0_split_1
I0830 10:34:10.177564 35214 net.cpp:399] fc_classification -> fc_classification
I0830 10:34:10.179580 35214 net.cpp:141] Setting up fc_classification
I0830 10:34:10.179620 35214 net.cpp:148] Top shape: 10 25 (250)
I0830 10:34:10.179636 35214 net.cpp:156] Memory required for data: 2318378640
I0830 10:34:10.179653 35214 layer_factory.hpp:77] Creating layer fc_classification_fc_classification_0_split
I0830 10:34:10.179672 35214 net.cpp:91] Creating Layer fc_classification_fc_classification_0_split
I0830 10:34:10.179688 35214 net.cpp:425] fc_classification_fc_classification_0_split <- fc_classification
I0830 10:34:10.179705 35214 net.cpp:399] fc_classification_fc_classification_0_split -> fc_classification_fc_classification_0_split_0
I0830 10:34:10.179725 35214 net.cpp:399] fc_classification_fc_classification_0_split -> fc_classification_fc_classification_0_split_1
I0830 10:34:10.179744 35214 net.cpp:399] fc_classification_fc_classification_0_split -> fc_classification_fc_classification_0_split_2
I0830 10:34:10.179816 35214 net.cpp:141] Setting up fc_classification_fc_classification_0_split
I0830 10:34:10.179841 35214 net.cpp:148] Top shape: 10 25 (250)
I0830 10:34:10.179857 35214 net.cpp:148] Top shape: 10 25 (250)
I0830 10:34:10.179872 35214 net.cpp:148] Top shape: 10 25 (250)
I0830 10:34:10.179886 35214 net.cpp:156] Memory required for data: 2318381640
I0830 10:34:10.179900 35214 layer_factory.hpp:77] Creating layer loss_hash
I0830 10:34:10.179920 35214 net.cpp:91] Creating Layer loss_hash
I0830 10:34:10.179936 35214 net.cpp:425] loss_hash <- fc_hash
I0830 10:34:10.179952 35214 net.cpp:425] loss_hash <- label_data_1_split_0
I0830 10:34:10.179972 35214 net.cpp:399] loss_hash -> loss_hash
…
