…
I0917 18:36:31.010607 17809 net.cpp:313] The NetState phase (0) differed from the phase (1) specified by a rule in layer accuracy_at_1
I0917 18:36:31.011003 17809 net.cpp:49] Initializing net from parameters: 
name: "docomo_VGG16"
state {
  phase: TRAIN
}
layer {
  name: "data"
  type: "Data"
  top: "data"
  top: "label"
  include {
    phase: TRAIN
  }
  transform_param {
    mirror: true
    crop_size: 224
    mean_value: 103.939
    mean_value: 116.779
    mean_value: 123.68
  }
  data_param {
    source: "PATTERN/pattern_train_lmdb/"
    batch_size: 10
    backend: LMDB
  }
}
layer {
  name: "conv1_1"
  type: "Convolution"
  bottom: "data"
  top: "conv1_1"
  param {
    lr_mult: 1
    decay_mult: 1
  }
  param {
    lr_mult: 2
    decay_mult: 0
  }
  convolution_param {
    num_output: 64
    pad: 1
    kernel_size: 3
    weight_filler {
      type: "gaussian"
      std: 0.01
    }
    bias_filler {
      type: "constant"
      value: 0
    }
  }
}
layer {
  name: "relu1_1"
  type: "ReLU"
  bottom: "conv1_1"
  top: "conv1_1"
}
layer {
  name: "conv1_2"
  type: "Convolution"
  bottom: "conv1_1"
  top: "conv1_2"
  param {
    lr_mult: 1
    decay_mult: 1
  }
  param {
    lr_mult: 2
    decay_mult: 0
  }
  convolution_param {
    num_output: 64
    pad: 1
    kernel_size: 3
    weight_filler {
      type: "gaussian"
      std: 0.01
    }
    bias_filler {
      type: "constant"
      value: 0
    }
  }
}
layer {
  name: "relu1_2"
  type: "ReLU"
  bottom: "conv1_2"
  top: "conv1_2"
}
layer {
  name: "pool1"
  type: "Pooling"
  bottom: "conv1_2"
  top: "pool1"
  pooling_param {
    pool: MAX
    kernel_size: 2
    stride: 2
  }
}
layer {
  name: "conv2_1"
  type: "Convolution"
  bottom: "pool1"
  top: "conv2_1"
  param {
    lr_mult: 1
    decay_mult: 1
  }
  param {
    lr_mult: 2
    decay_mult: 0
  }
  convolution_param {
    num_output: 128
    pad: 1
    kernel_size: 3
    weight_filler {
      type: "gaussian"
      std: 0.01
    }
    bias_filler {
      type: "constant"
      value: 0
    }
  }
}
layer {
  name: "relu2_1"
  type: "ReLU"
  bottom: "conv2_1"
  top: "conv2_1"
}
layer {
  name: "conv2_2"
  type: "Convolution"
  bottom: "conv2_1"
  top: "conv2_2"
  param {
    lr_mult: 1
    decay_mult: 1
  }
  param {
    lr_mult: 2
    decay_mult: 0
  }
  convolution_param {
    num_output: 128
    pad: 1
    kernel_size: 3
    weight_filler {
      type: "gaussian"
      std: 0.01
    }
    bias_filler {
      type: "constant"
      value: 0
    }
  }
}
layer {
  name: "relu2_2"
  type: "ReLU"
  bottom: "conv2_2"
  top: "conv2_2"
}
layer {
  name: "pool2"
  type: "Pooling"
  bottom: "conv2_2"
  top: "pool2"
  pooling_param {
    pool: MAX
    kernel_size: 2
    stride: 2
  }
}
layer {
  name: "conv3_1"
  type: "Convolution"
  bottom: "pool2"
  top: "conv3_1"
  param {
    lr_mult: 1
    decay_mult: 1
  }
  param {
    lr_mult: 2
    decay_mult: 0
  }
  convolution_param {
    num_output: 256
    pad: 1
    kernel_size: 3
    weight_filler {
      type: "gaussian"
      std: 0.01
    }
    bias_filler {
      type: "constant"
      value: 0
    }
  }
}
layer {
  name: "relu3_1"
  type: "ReLU"
  bottom: "conv3_1"
  top: "conv3_1"
}
layer {
  name: "conv3_2"
  type: "Convolution"
  bottom: "conv3_1"
  top: "conv3_2"
  param {
    lr_mult: 1
    decay_mult: 1
  }
  param {
    lr_mult: 2
    decay_mult: 0
  }
  convolution_param {
    num_output: 256
    pad: 1
    kernel_size: 3
    weight_filler {
      type: "gaussian"
      std: 0.01
    }
    bias_filler {
      type: "constant"
      value: 0
    }
  }
}
layer {
  name: "relu3_2"
  type: "ReLU"
  bottom: "conv3_2"
  top: "conv3_2"
}
layer {
  name: "conv3_3"
  type: "Convolution"
  bottom: "conv3_2"
  top: "conv3_3"
  param {
    lr_mult: 1
    decay_mult: 1
  }
  param {
    lr_mult: 2
    decay_mult: 0
  }
  convolution_param {
    num_output: 256
    pad: 1
    kernel_size: 3
    weight_filler {
      type: "gaussian"
      std: 0.01
    }
    bias_filler {
      type: "constant"
      value: 0
    }
  }
}
layer {
  name: "relu3_3"
  type: "ReLU"
  bottom: "conv3_3"
  top: "conv3_3"
}
layer {
  name: "pool3"
  type: "Pooling"
  bottom: "conv3_3"
  top: "pool3"
  pooling_param {
    pool: MAX
    kernel_size: 2
    stride: 2
  }
}
layer {
  name: "conv4_1"
  type: "Convolution"
  bottom: "pool3"
  top: "conv4_1"
  param {
    lr_mult: 1
    decay_mult: 1
  }
  param {
    lr_mult: 2
    decay_mult: 0
  }
  convolution_param {
    num_output: 512
    pad: 1
    kernel_size: 3
    weight_filler {
      type: "gaussian"
      std: 0.01
    }
    bias_filler {
      type: "constant"
      value: 0
    }
  }
}
layer {
  name: "relu4_1"
  type: "ReLU"
  bottom: "conv4_1"
  top: "conv4_1"
}
layer {
  name: "conv4_2"
  type: "Convolution"
  bottom: "conv4_1"
  top: "conv4_2"
  param {
    lr_mult: 1
    decay_mult: 1
  }
  param {
    lr_mult: 2
    decay_mult: 0
  }
  convolution_param {
    num_output: 512
    pad: 1
    kernel_size: 3
    weight_filler {
      type: "gaussian"
      std: 0.01
    }
    bias_filler {
      type: "constant"
      value: 0
    }
  }
}
layer {
  name: "relu4_2"
  type: "ReLU"
  bottom: "conv4_2"
  top: "conv4_2"
}
layer {
  name: "conv4_3"
  type: "Convolution"
  bottom: "conv4_2"
  top: "conv4_3"
  param {
    lr_mult: 1
    decay_mult: 1
  }
  param {
    lr_mult: 2
    decay_mult: 0
  }
  convolution_param {
    num_output: 512
    pad: 1
    kernel_size: 3
    weight_filler {
      type: "gaussian"
      std: 0.01
    }
    bias_filler {
      type: "constant"
      value: 0
    }
  }
}
layer {
  name: "relu4_3"
  type: "ReLU"
  bottom: "conv4_3"
  top: "conv4_3"
}
layer {
  name: "pool4"
  type: "Pooling"
  bottom: "conv4_3"
  top: "pool4"
  pooling_param {
    pool: MAX
    kernel_size: 2
    stride: 2
  }
}
layer {
  name: "conv5_1"
  type: "Convolution"
  bottom: "pool4"
  top: "conv5_1"
  param {
    lr_mult: 1
    decay_mult: 1
  }
  param {
    lr_mult: 2
    decay_mult: 0
  }
  convolution_param {
    num_output: 512
    pad: 1
    kernel_size: 3
    weight_filler {
      type: "gaussian"
      std: 0.01
    }
    bias_filler {
      type: "constant"
      value: 0
    }
  }
}
layer {
  name: "relu5_1"
  type: "ReLU"
  bottom: "conv5_1"
  top: "conv5_1"
}
layer {
  name: "conv5_2"
  type: "Convolution"
  bottom: "conv5_1"
  top: "conv5_2"
  param {
    lr_mult: 1
    decay_mult: 1
  }
  param {
    lr_mult: 2
    decay_mult: 0
  }
  convolution_param {
    num_output: 512
    pad: 1
    kernel_size: 3
    weight_filler {
      type: "gaussian"
      std: 0.01
    }
    bias_filler {
      type: "constant"
      value: 0
    }
  }
}
layer {
  name: "relu5_2"
  type: "ReLU"
  bottom: "conv5_2"
  top: "conv5_2"
}
layer {
  name: "conv5_3"
  type: "Convolution"
  bottom: "conv5_2"
  top: "conv5_3"
  param {
    lr_mult: 1
    decay_mult: 1
  }
  param {
    lr_mult: 2
    decay_mult: 0
  }
  convolution_param {
    num_output: 512
    pad: 1
    kernel_size: 3
    weight_filler {
      type: "gaussian"
      std: 0.01
    }
    bias_filler {
      type: "constant"
      value: 0
    }
  }
}
layer {
  name: "relu5_3"
  type: "ReLU"
  bottom: "conv5_3"
  top: "conv5_3"
}
layer {
  name: "pool5"
  type: "Pooling"
  bottom: "conv5_3"
  top: "pool5"
  pooling_param {
    pool: MAX
    kernel_size: 2
    stride: 2
  }
}
layer {
  name: "fc6"
  type: "InnerProduct"
  bottom: "pool5"
  top: "fc6"
  param {
    lr_mult: 1
    decay_mult: 1
  }
  param {
    lr_mult: 2
    decay_mult: 0
  }
  inner_product_param {
    num_output: 4096
    weight_filler {
      type: "gaussian"
      std: 0.005
    }
    bias_filler {
      type: "constant"
      value: 0.1
    }
  }
}
layer {
  name: "relu6"
  type: "ReLU"
  bottom: "fc6"
  top: "fc6"
}
layer {
  name: "drop6"
  type: "Dropout"
  bottom: "fc6"
  top: "fc6"
  dropout_param {
    dropout_ratio: 0.5
  }
}
layer {
  name: "fc7"
  type: "InnerProduct"
  bottom: "fc6"
  top: "fc7"
  param {
    lr_mult: 1
    decay_mult: 1
  }
  param {
    lr_mult: 2
    decay_mult: 0
  }
  inner_product_param {
    num_output: 4096
    weight_filler {
      type: "gaussian"
      std: 0.005
    }
    bias_filler {
      type: "constant"
      value: 0.1
    }
  }
}
layer {
  name: "relu7"
  type: "ReLU"
  bottom: "fc7"
  top: "fc7"
}
layer {
  name: "drop7"
  type: "Dropout"
  bottom: "fc7"
  top: "fc7"
  dropout_param {
    dropout_ratio: 0.5
  }
}
layer {
  name: "fc_binary_f48_Pattern"
  type: "InnerProduct"
  bottom: "fc7"
  top: "fc_binary_f48_Pattern"
  param {
    lr_mult: 10
    decay_mult: 1
  }
  param {
    lr_mult: 20
    decay_mult: 0
  }
  inner_product_param {
    num_output: 48
    weight_filler {
      type: "gaussian"
      std: 0.005
    }
    bias_filler {
      type: "constant"
      value: 0.1
    }
  }
}
layer {
  name: "fc_classification_Pattern"
  type: "InnerProduct"
  bottom: "fc7"
  top: "fc_classification_Pattern"
  param {
    lr_mult: 0.5
    decay_mult: 1
  }
  param {
    lr_mult: 1
    decay_mult: 0
  }
  inner_product_param {
    num_output: 7
    weight_filler {
      type: "gaussian"
      std: 0.05
    }
    bias_filler {
      type: "constant"
      value: 0.1
    }
  }
}
layer {
  name: "loss_hashing"
  type: "HashingLoss"
  bottom: "fc_binary_f48_Pattern"
  bottom: "label"
  top: "loss_hashing"
  loss_weight: 0.6
  hashing_loss_param {
    bi_margin: 96
    tradeoff: 0.01
  }
}
layer {
  name: "loss_classification"
  type: "SoftmaxWithLoss"
  bottom: "fc_classification_Pattern"
  bottom: "label"
  top: "loss_classification"
}
I0917 18:36:31.011471 17809 layer_factory.hpp:77] Creating layer data
I0917 18:36:31.012104 17809 net.cpp:91] Creating Layer data
I0917 18:36:31.012126 17809 net.cpp:399] data -> data
I0917 18:36:31.012276 17809 net.cpp:399] data -> label
I0917 18:36:31.013825 17815 db_lmdb.cpp:38] Opened lmdb PATTERN/pattern_train_lmdb/
I0917 18:36:31.039117 17809 data_layer.cpp:41] output data size: 10,3,224,224
I0917 18:36:31.056000 17809 net.cpp:141] Setting up data
I0917 18:36:31.056128 17809 net.cpp:148] Top shape: 10 3 224 224 (1505280)
I0917 18:36:31.056167 17809 net.cpp:148] Top shape: 10 1 1 1 (10)
I0917 18:36:31.056198 17809 net.cpp:156] Memory required for data: 6021160
I0917 18:36:31.056238 17809 layer_factory.hpp:77] Creating layer label_data_1_split
I0917 18:36:31.056289 17809 net.cpp:91] Creating Layer label_data_1_split
I0917 18:36:31.056329 17809 net.cpp:425] label_data_1_split <- label
I0917 18:36:31.056383 17809 net.cpp:399] label_data_1_split -> label_data_1_split_0
I0917 18:36:31.056429 17809 net.cpp:399] label_data_1_split -> label_data_1_split_1
I0917 18:36:31.056548 17809 net.cpp:141] Setting up label_data_1_split
I0917 18:36:31.056591 17809 net.cpp:148] Top shape: 10 1 1 1 (10)
I0917 18:36:31.056622 17809 net.cpp:148] Top shape: 10 1 1 1 (10)
I0917 18:36:31.056650 17809 net.cpp:156] Memory required for data: 6021240
I0917 18:36:31.056677 17809 layer_factory.hpp:77] Creating layer conv1_1
I0917 18:36:31.056761 17809 net.cpp:91] Creating Layer conv1_1
I0917 18:36:31.056797 17809 net.cpp:425] conv1_1 <- data
I0917 18:36:31.056838 17809 net.cpp:399] conv1_1 -> conv1_1
I0917 18:36:31.060096 17809 net.cpp:141] Setting up conv1_1
I0917 18:36:31.060165 17809 net.cpp:148] Top shape: 10 64 224 224 (32112640)
I0917 18:36:31.060199 17809 net.cpp:156] Memory required for data: 134471800
I0917 18:36:31.060272 17809 layer_factory.hpp:77] Creating layer relu1_1
I0917 18:36:31.060322 17809 net.cpp:91] Creating Layer relu1_1
I0917 18:36:31.060353 17809 net.cpp:425] relu1_1 <- conv1_1
I0917 18:36:31.060446 17809 net.cpp:386] relu1_1 -> conv1_1 (in-place)
I0917 18:36:31.060492 17809 net.cpp:141] Setting up relu1_1
I0917 18:36:31.060528 17809 net.cpp:148] Top shape: 10 64 224 224 (32112640)
I0917 18:36:31.060555 17809 net.cpp:156] Memory required for data: 262922360
I0917 18:36:31.060582 17809 layer_factory.hpp:77] Creating layer conv1_2
I0917 18:36:31.060631 17809 net.cpp:91] Creating Layer conv1_2
I0917 18:36:31.060662 17809 net.cpp:425] conv1_2 <- conv1_1
I0917 18:36:31.060696 17809 net.cpp:399] conv1_2 -> conv1_2
I0917 18:36:31.063545 17809 net.cpp:141] Setting up conv1_2
I0917 18:36:31.063594 17809 net.cpp:148] Top shape: 10 64 224 224 (32112640)
I0917 18:36:31.063624 17809 net.cpp:156] Memory required for data: 391372920
I0917 18:36:31.063663 17809 layer_factory.hpp:77] Creating layer relu1_2
I0917 18:36:31.063704 17809 net.cpp:91] Creating Layer relu1_2
I0917 18:36:31.063733 17809 net.cpp:425] relu1_2 <- conv1_2
I0917 18:36:31.063765 17809 net.cpp:386] relu1_2 -> conv1_2 (in-place)
I0917 18:36:31.063799 17809 net.cpp:141] Setting up relu1_2
I0917 18:36:31.063832 17809 net.cpp:148] Top shape: 10 64 224 224 (32112640)
I0917 18:36:31.063858 17809 net.cpp:156] Memory required for data: 519823480
I0917 18:36:31.063886 17809 layer_factory.hpp:77] Creating layer pool1
I0917 18:36:31.063920 17809 net.cpp:91] Creating Layer pool1
I0917 18:36:31.063948 17809 net.cpp:425] pool1 <- conv1_2
I0917 18:36:31.063984 17809 net.cpp:399] pool1 -> pool1
I0917 18:36:31.064110 17809 net.cpp:141] Setting up pool1
I0917 18:36:31.064153 17809 net.cpp:148] Top shape: 10 64 112 112 (8028160)
I0917 18:36:31.064182 17809 net.cpp:156] Memory required for data: 551936120
I0917 18:36:31.064209 17809 layer_factory.hpp:77] Creating layer conv2_1
I0917 18:36:31.064258 17809 net.cpp:91] Creating Layer conv2_1
I0917 18:36:31.064291 17809 net.cpp:425] conv2_1 <- pool1
I0917 18:36:31.064326 17809 net.cpp:399] conv2_1 -> conv2_1
I0917 18:36:31.071269 17809 net.cpp:141] Setting up conv2_1
I0917 18:36:31.071327 17809 net.cpp:148] Top shape: 10 128 112 112 (16056320)
I0917 18:36:31.071358 17809 net.cpp:156] Memory required for data: 616161400
I0917 18:36:31.071401 17809 layer_factory.hpp:77] Creating layer relu2_1
I0917 18:36:31.071445 17809 net.cpp:91] Creating Layer relu2_1
I0917 18:36:31.071477 17809 net.cpp:425] relu2_1 <- conv2_1
I0917 18:36:31.071511 17809 net.cpp:386] relu2_1 -> conv2_1 (in-place)
I0917 18:36:31.071547 17809 net.cpp:141] Setting up relu2_1
I0917 18:36:31.071580 17809 net.cpp:148] Top shape: 10 128 112 112 (16056320)
I0917 18:36:31.071607 17809 net.cpp:156] Memory required for data: 680386680
I0917 18:36:31.071635 17809 layer_factory.hpp:77] Creating layer conv2_2
I0917 18:36:31.071679 17809 net.cpp:91] Creating Layer conv2_2
I0917 18:36:31.071710 17809 net.cpp:425] conv2_2 <- conv2_1
I0917 18:36:31.071749 17809 net.cpp:399] conv2_2 -> conv2_2
I0917 18:36:31.081665 17809 net.cpp:141] Setting up conv2_2
I0917 18:36:31.081714 17809 net.cpp:148] Top shape: 10 128 112 112 (16056320)
I0917 18:36:31.081744 17809 net.cpp:156] Memory required for data: 744611960
I0917 18:36:31.081779 17809 layer_factory.hpp:77] Creating layer relu2_2
I0917 18:36:31.081812 17809 net.cpp:91] Creating Layer relu2_2
I0917 18:36:31.081841 17809 net.cpp:425] relu2_2 <- conv2_2
I0917 18:36:31.081872 17809 net.cpp:386] relu2_2 -> conv2_2 (in-place)
I0917 18:36:31.081908 17809 net.cpp:141] Setting up relu2_2
I0917 18:36:31.081940 17809 net.cpp:148] Top shape: 10 128 112 112 (16056320)
I0917 18:36:31.081967 17809 net.cpp:156] Memory required for data: 808837240
I0917 18:36:31.081995 17809 layer_factory.hpp:77] Creating layer pool2
I0917 18:36:31.082027 17809 net.cpp:91] Creating Layer pool2
I0917 18:36:31.082056 17809 net.cpp:425] pool2 <- conv2_2
I0917 18:36:31.082093 17809 net.cpp:399] pool2 -> pool2
I0917 18:36:31.082195 17809 net.cpp:141] Setting up pool2
I0917 18:36:31.082234 17809 net.cpp:148] Top shape: 10 128 56 56 (4014080)
I0917 18:36:31.082262 17809 net.cpp:156] Memory required for data: 824893560
I0917 18:36:31.082335 17809 layer_factory.hpp:77] Creating layer conv3_1
I0917 18:36:31.082386 17809 net.cpp:91] Creating Layer conv3_1
I0917 18:36:31.082419 17809 net.cpp:425] conv3_1 <- pool2
I0917 18:36:31.082454 17809 net.cpp:399] conv3_1 -> conv3_1
I0917 18:36:31.102366 17809 net.cpp:141] Setting up conv3_1
I0917 18:36:31.102434 17809 net.cpp:148] Top shape: 10 256 56 56 (8028160)
I0917 18:36:31.102463 17809 net.cpp:156] Memory required for data: 857006200
I0917 18:36:31.102512 17809 layer_factory.hpp:77] Creating layer relu3_1
I0917 18:36:31.102550 17809 net.cpp:91] Creating Layer relu3_1
I0917 18:36:31.102581 17809 net.cpp:425] relu3_1 <- conv3_1
I0917 18:36:31.102612 17809 net.cpp:386] relu3_1 -> conv3_1 (in-place)
I0917 18:36:31.102650 17809 net.cpp:141] Setting up relu3_1
I0917 18:36:31.102682 17809 net.cpp:148] Top shape: 10 256 56 56 (8028160)
I0917 18:36:31.102710 17809 net.cpp:156] Memory required for data: 889118840
I0917 18:36:31.102736 17809 layer_factory.hpp:77] Creating layer conv3_2
I0917 18:36:31.102780 17809 net.cpp:91] Creating Layer conv3_2
I0917 18:36:31.102811 17809 net.cpp:425] conv3_2 <- conv3_1
I0917 18:36:31.102849 17809 net.cpp:399] conv3_2 -> conv3_2
I0917 18:36:31.142724 17809 net.cpp:141] Setting up conv3_2
I0917 18:36:31.142779 17809 net.cpp:148] Top shape: 10 256 56 56 (8028160)
I0917 18:36:31.142810 17809 net.cpp:156] Memory required for data: 921231480
I0917 18:36:31.142846 17809 layer_factory.hpp:77] Creating layer relu3_2
I0917 18:36:31.142886 17809 net.cpp:91] Creating Layer relu3_2
I0917 18:36:31.142917 17809 net.cpp:425] relu3_2 <- conv3_2
I0917 18:36:31.142951 17809 net.cpp:386] relu3_2 -> conv3_2 (in-place)
I0917 18:36:31.142987 17809 net.cpp:141] Setting up relu3_2
I0917 18:36:31.143019 17809 net.cpp:148] Top shape: 10 256 56 56 (8028160)
I0917 18:36:31.143046 17809 net.cpp:156] Memory required for data: 953344120
I0917 18:36:31.143074 17809 layer_factory.hpp:77] Creating layer conv3_3
I0917 18:36:31.143121 17809 net.cpp:91] Creating Layer conv3_3
I0917 18:36:31.143151 17809 net.cpp:425] conv3_3 <- conv3_2
I0917 18:36:31.143190 17809 net.cpp:399] conv3_3 -> conv3_3
I0917 18:36:31.182966 17809 net.cpp:141] Setting up conv3_3
I0917 18:36:31.183020 17809 net.cpp:148] Top shape: 10 256 56 56 (8028160)
I0917 18:36:31.183050 17809 net.cpp:156] Memory required for data: 985456760
I0917 18:36:31.183087 17809 layer_factory.hpp:77] Creating layer relu3_3
I0917 18:36:31.183121 17809 net.cpp:91] Creating Layer relu3_3
I0917 18:36:31.183151 17809 net.cpp:425] relu3_3 <- conv3_3
I0917 18:36:31.183188 17809 net.cpp:386] relu3_3 -> conv3_3 (in-place)
I0917 18:36:31.183226 17809 net.cpp:141] Setting up relu3_3
I0917 18:36:31.183259 17809 net.cpp:148] Top shape: 10 256 56 56 (8028160)
I0917 18:36:31.183286 17809 net.cpp:156] Memory required for data: 1017569400
I0917 18:36:31.183312 17809 layer_factory.hpp:77] Creating layer pool3
I0917 18:36:31.183346 17809 net.cpp:91] Creating Layer pool3
I0917 18:36:31.183375 17809 net.cpp:425] pool3 <- conv3_3
I0917 18:36:31.183408 17809 net.cpp:399] pool3 -> pool3
I0917 18:36:31.183512 17809 net.cpp:141] Setting up pool3
I0917 18:36:31.183553 17809 net.cpp:148] Top shape: 10 256 28 28 (2007040)
I0917 18:36:31.183581 17809 net.cpp:156] Memory required for data: 1025597560
I0917 18:36:31.183607 17809 layer_factory.hpp:77] Creating layer conv4_1
I0917 18:36:31.183650 17809 net.cpp:91] Creating Layer conv4_1
I0917 18:36:31.183681 17809 net.cpp:425] conv4_1 <- pool3
I0917 18:36:31.183720 17809 net.cpp:399] conv4_1 -> conv4_1
I0917 18:36:31.263558 17809 net.cpp:141] Setting up conv4_1
I0917 18:36:31.263619 17809 net.cpp:148] Top shape: 10 512 28 28 (4014080)
I0917 18:36:31.263653 17809 net.cpp:156] Memory required for data: 1041653880
I0917 18:36:31.263689 17809 layer_factory.hpp:77] Creating layer relu4_1
I0917 18:36:31.263725 17809 net.cpp:91] Creating Layer relu4_1
I0917 18:36:31.263753 17809 net.cpp:425] relu4_1 <- conv4_1
I0917 18:36:31.263787 17809 net.cpp:386] relu4_1 -> conv4_1 (in-place)
I0917 18:36:31.263823 17809 net.cpp:141] Setting up relu4_1
I0917 18:36:31.263903 17809 net.cpp:148] Top shape: 10 512 28 28 (4014080)
I0917 18:36:31.263932 17809 net.cpp:156] Memory required for data: 1057710200
I0917 18:36:31.263960 17809 layer_factory.hpp:77] Creating layer conv4_2
I0917 18:36:31.264006 17809 net.cpp:91] Creating Layer conv4_2
I0917 18:36:31.264036 17809 net.cpp:425] conv4_2 <- conv4_1
I0917 18:36:31.264076 17809 net.cpp:399] conv4_2 -> conv4_2
I0917 18:36:31.421401 17809 net.cpp:141] Setting up conv4_2
I0917 18:36:31.421459 17809 net.cpp:148] Top shape: 10 512 28 28 (4014080)
I0917 18:36:31.421491 17809 net.cpp:156] Memory required for data: 1073766520
I0917 18:36:31.421543 17809 layer_factory.hpp:77] Creating layer relu4_2
I0917 18:36:31.421581 17809 net.cpp:91] Creating Layer relu4_2
I0917 18:36:31.421613 17809 net.cpp:425] relu4_2 <- conv4_2
I0917 18:36:31.421654 17809 net.cpp:386] relu4_2 -> conv4_2 (in-place)
I0917 18:36:31.421692 17809 net.cpp:141] Setting up relu4_2
I0917 18:36:31.421725 17809 net.cpp:148] Top shape: 10 512 28 28 (4014080)
I0917 18:36:31.421751 17809 net.cpp:156] Memory required for data: 1089822840
I0917 18:36:31.421778 17809 layer_factory.hpp:77] Creating layer conv4_3
I0917 18:36:31.421821 17809 net.cpp:91] Creating Layer conv4_3
I0917 18:36:31.421852 17809 net.cpp:425] conv4_3 <- conv4_2
I0917 18:36:31.421891 17809 net.cpp:399] conv4_3 -> conv4_3
I0917 18:36:31.570848 17809 net.cpp:141] Setting up conv4_3
I0917 18:36:31.570916 17809 net.cpp:148] Top shape: 10 512 28 28 (4014080)
I0917 18:36:31.570945 17809 net.cpp:156] Memory required for data: 1105879160
I0917 18:36:31.570984 17809 layer_factory.hpp:77] Creating layer relu4_3
I0917 18:36:31.571023 17809 net.cpp:91] Creating Layer relu4_3
I0917 18:36:31.571054 17809 net.cpp:425] relu4_3 <- conv4_3
I0917 18:36:31.571085 17809 net.cpp:386] relu4_3 -> conv4_3 (in-place)
I0917 18:36:31.571121 17809 net.cpp:141] Setting up relu4_3
I0917 18:36:31.571152 17809 net.cpp:148] Top shape: 10 512 28 28 (4014080)
I0917 18:36:31.571178 17809 net.cpp:156] Memory required for data: 1121935480
I0917 18:36:31.571203 17809 layer_factory.hpp:77] Creating layer pool4
I0917 18:36:31.571234 17809 net.cpp:91] Creating Layer pool4
I0917 18:36:31.571260 17809 net.cpp:425] pool4 <- conv4_3
I0917 18:36:31.571295 17809 net.cpp:399] pool4 -> pool4
I0917 18:36:31.571393 17809 net.cpp:141] Setting up pool4
I0917 18:36:31.571430 17809 net.cpp:148] Top shape: 10 512 14 14 (1003520)
I0917 18:36:31.571456 17809 net.cpp:156] Memory required for data: 1125949560
I0917 18:36:31.571481 17809 layer_factory.hpp:77] Creating layer conv5_1
I0917 18:36:31.571528 17809 net.cpp:91] Creating Layer conv5_1
I0917 18:36:31.571558 17809 net.cpp:425] conv5_1 <- pool4
I0917 18:36:31.571591 17809 net.cpp:399] conv5_1 -> conv5_1
I0917 18:36:31.718572 17809 net.cpp:141] Setting up conv5_1
I0917 18:36:31.718629 17809 net.cpp:148] Top shape: 10 512 14 14 (1003520)
I0917 18:36:31.718658 17809 net.cpp:156] Memory required for data: 1129963640
I0917 18:36:31.718693 17809 layer_factory.hpp:77] Creating layer relu5_1
I0917 18:36:31.718726 17809 net.cpp:91] Creating Layer relu5_1
I0917 18:36:31.718755 17809 net.cpp:425] relu5_1 <- conv5_1
I0917 18:36:31.718786 17809 net.cpp:386] relu5_1 -> conv5_1 (in-place)
I0917 18:36:31.718822 17809 net.cpp:141] Setting up relu5_1
I0917 18:36:31.718852 17809 net.cpp:148] Top shape: 10 512 14 14 (1003520)
I0917 18:36:31.718876 17809 net.cpp:156] Memory required for data: 1133977720
I0917 18:36:31.718902 17809 layer_factory.hpp:77] Creating layer conv5_2
I0917 18:36:31.718945 17809 net.cpp:91] Creating Layer conv5_2
I0917 18:36:31.718973 17809 net.cpp:425] conv5_2 <- conv5_1
I0917 18:36:31.719012 17809 net.cpp:399] conv5_2 -> conv5_2
I0917 18:36:31.865937 17809 net.cpp:141] Setting up conv5_2
I0917 18:36:31.865998 17809 net.cpp:148] Top shape: 10 512 14 14 (1003520)
I0917 18:36:31.866024 17809 net.cpp:156] Memory required for data: 1137991800
I0917 18:36:31.866068 17809 layer_factory.hpp:77] Creating layer relu5_2
I0917 18:36:31.866101 17809 net.cpp:91] Creating Layer relu5_2
I0917 18:36:31.866134 17809 net.cpp:425] relu5_2 <- conv5_2
I0917 18:36:31.866214 17809 net.cpp:386] relu5_2 -> conv5_2 (in-place)
I0917 18:36:31.866250 17809 net.cpp:141] Setting up relu5_2
I0917 18:36:31.866282 17809 net.cpp:148] Top shape: 10 512 14 14 (1003520)
I0917 18:36:31.866308 17809 net.cpp:156] Memory required for data: 1142005880
I0917 18:36:31.866334 17809 layer_factory.hpp:77] Creating layer conv5_3
I0917 18:36:31.866377 17809 net.cpp:91] Creating Layer conv5_3
I0917 18:36:31.866406 17809 net.cpp:425] conv5_3 <- conv5_2
I0917 18:36:31.866439 17809 net.cpp:399] conv5_3 -> conv5_3
I0917 18:36:31.987151 17809 net.cpp:141] Setting up conv5_3
I0917 18:36:31.987185 17809 net.cpp:148] Top shape: 10 512 14 14 (1003520)
I0917 18:36:31.987208 17809 net.cpp:156] Memory required for data: 1146019960
I0917 18:36:31.987228 17809 layer_factory.hpp:77] Creating layer relu5_3
I0917 18:36:31.987249 17809 net.cpp:91] Creating Layer relu5_3
I0917 18:36:31.987272 17809 net.cpp:425] relu5_3 <- conv5_3
I0917 18:36:31.987293 17809 net.cpp:386] relu5_3 -> conv5_3 (in-place)
I0917 18:36:31.987316 17809 net.cpp:141] Setting up relu5_3
I0917 18:36:31.987335 17809 net.cpp:148] Top shape: 10 512 14 14 (1003520)
I0917 18:36:31.987354 17809 net.cpp:156] Memory required for data: 1150034040
I0917 18:36:31.987367 17809 layer_factory.hpp:77] Creating layer pool5
I0917 18:36:31.987398 17809 net.cpp:91] Creating Layer pool5
I0917 18:36:31.987416 17809 net.cpp:425] pool5 <- conv5_3
I0917 18:36:31.987434 17809 net.cpp:399] pool5 -> pool5
I0917 18:36:31.987499 17809 net.cpp:141] Setting up pool5
I0917 18:36:31.987521 17809 net.cpp:148] Top shape: 10 512 7 7 (250880)
I0917 18:36:31.987538 17809 net.cpp:156] Memory required for data: 1151037560
I0917 18:36:31.987553 17809 layer_factory.hpp:77] Creating layer fc6
I0917 18:36:31.987583 17809 net.cpp:91] Creating Layer fc6
I0917 18:36:31.987601 17809 net.cpp:425] fc6 <- pool5
I0917 18:36:31.987620 17809 net.cpp:399] fc6 -> fc6
I0917 18:36:35.736469 17809 net.cpp:141] Setting up fc6
I0917 18:36:35.736557 17809 net.cpp:148] Top shape: 10 4096 (40960)
I0917 18:36:35.736577 17809 net.cpp:156] Memory required for data: 1151201400
I0917 18:36:35.736627 17809 layer_factory.hpp:77] Creating layer relu6
I0917 18:36:35.736665 17809 net.cpp:91] Creating Layer relu6
I0917 18:36:35.736711 17809 net.cpp:425] relu6 <- fc6
I0917 18:36:35.736742 17809 net.cpp:386] relu6 -> fc6 (in-place)
I0917 18:36:35.736768 17809 net.cpp:141] Setting up relu6
I0917 18:36:35.736786 17809 net.cpp:148] Top shape: 10 4096 (40960)
I0917 18:36:35.736805 17809 net.cpp:156] Memory required for data: 1151365240
I0917 18:36:35.736821 17809 layer_factory.hpp:77] Creating layer drop6
I0917 18:36:35.736847 17809 net.cpp:91] Creating Layer drop6
I0917 18:36:35.736865 17809 net.cpp:425] drop6 <- fc6
I0917 18:36:35.736883 17809 net.cpp:386] drop6 -> fc6 (in-place)
I0917 18:36:35.736946 17809 net.cpp:141] Setting up drop6
I0917 18:36:35.736969 17809 net.cpp:148] Top shape: 10 4096 (40960)
I0917 18:36:35.736985 17809 net.cpp:156] Memory required for data: 1151529080
I0917 18:36:35.737007 17809 layer_factory.hpp:77] Creating layer fc7
I0917 18:36:35.737035 17809 net.cpp:91] Creating Layer fc7
I0917 18:36:35.737052 17809 net.cpp:425] fc7 <- fc6
I0917 18:36:35.737074 17809 net.cpp:399] fc7 -> fc7
I0917 18:36:36.383137 17809 net.cpp:141] Setting up fc7
I0917 18:36:36.383244 17809 net.cpp:148] Top shape: 10 4096 (40960)
I0917 18:36:36.383261 17809 net.cpp:156] Memory required for data: 1151692920
I0917 18:36:36.383287 17809 layer_factory.hpp:77] Creating layer relu7
I0917 18:36:36.383317 17809 net.cpp:91] Creating Layer relu7
I0917 18:36:36.383338 17809 net.cpp:425] relu7 <- fc7
I0917 18:36:36.383363 17809 net.cpp:386] relu7 -> fc7 (in-place)
I0917 18:36:36.383391 17809 net.cpp:141] Setting up relu7
I0917 18:36:36.383409 17809 net.cpp:148] Top shape: 10 4096 (40960)
I0917 18:36:36.383425 17809 net.cpp:156] Memory required for data: 1151856760
I0917 18:36:36.383441 17809 layer_factory.hpp:77] Creating layer drop7
I0917 18:36:36.383463 17809 net.cpp:91] Creating Layer drop7
I0917 18:36:36.383479 17809 net.cpp:425] drop7 <- fc7
I0917 18:36:36.383545 17809 net.cpp:386] drop7 -> fc7 (in-place)
I0917 18:36:36.383601 17809 net.cpp:141] Setting up drop7
I0917 18:36:36.383623 17809 net.cpp:148] Top shape: 10 4096 (40960)
I0917 18:36:36.383640 17809 net.cpp:156] Memory required for data: 1152020600
I0917 18:36:36.383654 17809 layer_factory.hpp:77] Creating layer fc7_drop7_0_split
I0917 18:36:36.383675 17809 net.cpp:91] Creating Layer fc7_drop7_0_split
I0917 18:36:36.383692 17809 net.cpp:425] fc7_drop7_0_split <- fc7
I0917 18:36:36.383714 17809 net.cpp:399] fc7_drop7_0_split -> fc7_drop7_0_split_0
I0917 18:36:36.383738 17809 net.cpp:399] fc7_drop7_0_split -> fc7_drop7_0_split_1
I0917 18:36:36.383795 17809 net.cpp:141] Setting up fc7_drop7_0_split
I0917 18:36:36.383817 17809 net.cpp:148] Top shape: 10 4096 (40960)
I0917 18:36:36.383834 17809 net.cpp:148] Top shape: 10 4096 (40960)
I0917 18:36:36.383849 17809 net.cpp:156] Memory required for data: 1152348280
I0917 18:36:36.383865 17809 layer_factory.hpp:77] Creating layer fc_binary_f48_Pattern
I0917 18:36:36.383891 17809 net.cpp:91] Creating Layer fc_binary_f48_Pattern
I0917 18:36:36.383909 17809 net.cpp:425] fc_binary_f48_Pattern <- fc7_drop7_0_split_0
I0917 18:36:36.383937 17809 net.cpp:399] fc_binary_f48_Pattern -> fc_binary_f48_Pattern
I0917 18:36:36.392304 17809 net.cpp:141] Setting up fc_binary_f48_Pattern
I0917 18:36:36.392335 17809 net.cpp:148] Top shape: 10 48 (480)
I0917 18:36:36.392352 17809 net.cpp:156] Memory required for data: 1152350200
I0917 18:36:36.392374 17809 layer_factory.hpp:77] Creating layer fc_classification_Pattern
I0917 18:36:36.392398 17809 net.cpp:91] Creating Layer fc_classification_Pattern
I0917 18:36:36.392417 17809 net.cpp:425] fc_classification_Pattern <- fc7_drop7_0_split_1
I0917 18:36:36.392437 17809 net.cpp:399] fc_classification_Pattern -> fc_classification_Pattern
I0917 18:36:36.393690 17809 net.cpp:141] Setting up fc_classification_Pattern
I0917 18:36:36.393717 17809 net.cpp:148] Top shape: 10 7 (70)
I0917 18:36:36.393731 17809 net.cpp:156] Memory required for data: 1152350480
I0917 18:36:36.393820 17809 layer_factory.hpp:77] Creating layer loss_hashing
I0917 18:36:36.393854 17809 net.cpp:91] Creating Layer loss_hashing
I0917 18:36:36.393873 17809 net.cpp:425] loss_hashing <- fc_binary_f48_Pattern
I0917 18:36:36.393890 17809 net.cpp:425] loss_hashing <- label_data_1_split_0
I0917 18:36:36.393924 17809 net.cpp:399] loss_hashing -> loss_hashing
…
I0917 18:36:36.398507 17809 net.cpp:313] The NetState phase (1) differed from the phase (0) specified by a rule in layer data
I0917 18:36:36.399317 17809 net.cpp:49] Initializing net from parameters: 
name: "docomo_VGG16"
state {
  phase: TEST
}
layer {
  name: "data"
  type: "Data"
  top: "data"
  top: "label"
  include {
    phase: TEST
  }
  transform_param {
    mirror: false
    crop_size: 224
    mean_value: 103.939
    mean_value: 116.779
    mean_value: 123.68
  }
  data_param {
    source: "PATTERN/pattern_val_lmdb/"
    batch_size: 10
    backend: LMDB
  }
}
layer {
  name: "conv1_1"
  type: "Convolution"
  bottom: "data"
  top: "conv1_1"
  param {
    lr_mult: 1
    decay_mult: 1
  }
  param {
    lr_mult: 2
    decay_mult: 0
  }
  convolution_param {
    num_output: 64
    pad: 1
    kernel_size: 3
    weight_filler {
      type: "gaussian"
      std: 0.01
    }
    bias_filler {
      type: "constant"
      value: 0
    }
  }
}
layer {
  name: "relu1_1"
  type: "ReLU"
  bottom: "conv1_1"
  top: "conv1_1"
}
layer {
  name: "conv1_2"
  type: "Convolution"
  bottom: "conv1_1"
  top: "conv1_2"
  param {
    lr_mult: 1
    decay_mult: 1
  }
  param {
    lr_mult: 2
    decay_mult: 0
  }
  convolution_param {
    num_output: 64
    pad: 1
    kernel_size: 3
    weight_filler {
      type: "gaussian"
      std: 0.01
    }
    bias_filler {
      type: "constant"
      value: 0
    }
  }
}
layer {
  name: "relu1_2"
  type: "ReLU"
  bottom: "conv1_2"
  top: "conv1_2"
}
layer {
  name: "pool1"
  type: "Pooling"
  bottom: "conv1_2"
  top: "pool1"
  pooling_param {
    pool: MAX
    kernel_size: 2
    stride: 2
  }
}
layer {
  name: "conv2_1"
  type: "Convolution"
  bottom: "pool1"
  top: "conv2_1"
  param {
    lr_mult: 1
    decay_mult: 1
  }
  param {
    lr_mult: 2
    decay_mult: 0
  }
  convolution_param {
    num_output: 128
    pad: 1
    kernel_size: 3
    weight_filler {
      type: "gaussian"
      std: 0.01
    }
    bias_filler {
      type: "constant"
      value: 0
    }
  }
}
layer {
  name: "relu2_1"
  type: "ReLU"
  bottom: "conv2_1"
  top: "conv2_1"
}
layer {
  name: "conv2_2"
  type: "Convolution"
  bottom: "conv2_1"
  top: "conv2_2"
  param {
    lr_mult: 1
    decay_mult: 1
  }
  param {
    lr_mult: 2
    decay_mult: 0
  }
  convolution_param {
    num_output: 128
    pad: 1
    kernel_size: 3
    weight_filler {
      type: "gaussian"
      std: 0.01
    }
    bias_filler {
      type: "constant"
      value: 0
    }
  }
}
layer {
  name: "relu2_2"
  type: "ReLU"
  bottom: "conv2_2"
  top: "conv2_2"
}
layer {
  name: "pool2"
  type: "Pooling"
  bottom: "conv2_2"
  top: "pool2"
  pooling_param {
    pool: MAX
    kernel_size: 2
    stride: 2
  }
}
layer {
  name: "conv3_1"
  type: "Convolution"
  bottom: "pool2"
  top: "conv3_1"
  param {
    lr_mult: 1
    decay_mult: 1
  }
  param {
    lr_mult: 2
    decay_mult: 0
  }
  convolution_param {
    num_output: 256
    pad: 1
    kernel_size: 3
    weight_filler {
      type: "gaussian"
      std: 0.01
    }
    bias_filler {
      type: "constant"
      value: 0
    }
  }
}
layer {
  name: "relu3_1"
  type: "ReLU"
  bottom: "conv3_1"
  top: "conv3_1"
}
layer {
  name: "conv3_2"
  type: "Convolution"
  bottom: "conv3_1"
  top: "conv3_2"
  param {
    lr_mult: 1
    decay_mult: 1
  }
  param {
    lr_mult: 2
    decay_mult: 0
  }
  convolution_param {
    num_output: 256
    pad: 1
    kernel_size: 3
    weight_filler {
      type: "gaussian"
      std: 0.01
    }
    bias_filler {
      type: "constant"
      value: 0
    }
  }
}
layer {
  name: "relu3_2"
  type: "ReLU"
  bottom: "conv3_2"
  top: "conv3_2"
}
layer {
  name: "conv3_3"
  type: "Convolution"
  bottom: "conv3_2"
  top: "conv3_3"
  param {
    lr_mult: 1
    decay_mult: 1
  }
  param {
    lr_mult: 2
    decay_mult: 0
  }
  convolution_param {
    num_output: 256
    pad: 1
    kernel_size: 3
    weight_filler {
      type: "gaussian"
      std: 0.01
    }
    bias_filler {
      type: "constant"
      value: 0
    }
  }
}
layer {
  name: "relu3_3"
  type: "ReLU"
  bottom: "conv3_3"
  top: "conv3_3"
}
layer {
  name: "pool3"
  type: "Pooling"
  bottom: "conv3_3"
  top: "pool3"
  pooling_param {
    pool: MAX
    kernel_size: 2
    stride: 2
  }
}
layer {
  name: "conv4_1"
  type: "Convolution"
  bottom: "pool3"
  top: "conv4_1"
  param {
    lr_mult: 1
    decay_mult: 1
  }
  param {
    lr_mult: 2
    decay_mult: 0
  }
  convolution_param {
    num_output: 512
    pad: 1
    kernel_size: 3
    weight_filler {
      type: "gaussian"
      std: 0.01
    }
    bias_filler {
      type: "constant"
      value: 0
    }
  }
}
layer {
  name: "relu4_1"
  type: "ReLU"
  bottom: "conv4_1"
  top: "conv4_1"
}
layer {
  name: "conv4_2"
  type: "Convolution"
  bottom: "conv4_1"
  top: "conv4_2"
  param {
    lr_mult: 1
    decay_mult: 1
  }
  param {
    lr_mult: 2
    decay_mult: 0
  }
  convolution_param {
    num_output: 512
    pad: 1
    kernel_size: 3
    weight_filler {
      type: "gaussian"
      std: 0.01
    }
    bias_filler {
      type: "constant"
      value: 0
    }
  }
}
layer {
  name: "relu4_2"
  type: "ReLU"
  bottom: "conv4_2"
  top: "conv4_2"
}
layer {
  name: "conv4_3"
  type: "Convolution"
  bottom: "conv4_2"
  top: "conv4_3"
  param {
    lr_mult: 1
    decay_mult: 1
  }
  param {
    lr_mult: 2
    decay_mult: 0
  }
  convolution_param {
    num_output: 512
    pad: 1
    kernel_size: 3
    weight_filler {
      type: "gaussian"
      std: 0.01
    }
    bias_filler {
      type: "constant"
      value: 0
    }
  }
}
layer {
  name: "relu4_3"
  type: "ReLU"
  bottom: "conv4_3"
  top: "conv4_3"
}
layer {
  name: "pool4"
  type: "Pooling"
  bottom: "conv4_3"
  top: "pool4"
  pooling_param {
    pool: MAX
    kernel_size: 2
    stride: 2
  }
}
layer {
  name: "conv5_1"
  type: "Convolution"
  bottom: "pool4"
  top: "conv5_1"
  param {
    lr_mult: 1
    decay_mult: 1
  }
  param {
    lr_mult: 2
    decay_mult: 0
  }
  convolution_param {
    num_output: 512
    pad: 1
    kernel_size: 3
    weight_filler {
      type: "gaussian"
      std: 0.01
    }
    bias_filler {
      type: "constant"
      value: 0
    }
  }
}
layer {
  name: "relu5_1"
  type: "ReLU"
  bottom: "conv5_1"
  top: "conv5_1"
}
layer {
  name: "conv5_2"
  type: "Convolution"
  bottom: "conv5_1"
  top: "conv5_2"
  param {
    lr_mult: 1
    decay_mult: 1
  }
  param {
    lr_mult: 2
    decay_mult: 0
  }
  convolution_param {
    num_output: 512
    pad: 1
    kernel_size: 3
    weight_filler {
      type: "gaussian"
      std: 0.01
    }
    bias_filler {
      type: "constant"
      value: 0
    }
  }
}
layer {
  name: "relu5_2"
  type: "ReLU"
  bottom: "conv5_2"
  top: "conv5_2"
}
layer {
  name: "conv5_3"
  type: "Convolution"
  bottom: "conv5_2"
  top: "conv5_3"
  param {
    lr_mult: 1
    decay_mult: 1
  }
  param {
    lr_mult: 2
    decay_mult: 0
  }
  convolution_param {
    num_output: 512
    pad: 1
    kernel_size: 3
    weight_filler {
      type: "gaussian"
      std: 0.01
    }
    bias_filler {
      type: "constant"
      value: 0
    }
  }
}
layer {
  name: "relu5_3"
  type: "ReLU"
  bottom: "conv5_3"
  top: "conv5_3"
}
layer {
  name: "pool5"
  type: "Pooling"
  bottom: "conv5_3"
  top: "pool5"
  pooling_param {
    pool: MAX
    kernel_size: 2
    stride: 2
  }
}
layer {
  name: "fc6"
  type: "InnerProduct"
  bottom: "pool5"
  top: "fc6"
  param {
    lr_mult: 1
    decay_mult: 1
  }
  param {
    lr_mult: 2
    decay_mult: 0
  }
  inner_product_param {
    num_output: 4096
    weight_filler {
      type: "gaussian"
      std: 0.005
    }
    bias_filler {
      type: "constant"
      value: 0.1
    }
  }
}
layer {
  name: "relu6"
  type: "ReLU"
  bottom: "fc6"
  top: "fc6"
}
layer {
  name: "drop6"
  type: "Dropout"
  bottom: "fc6"
  top: "fc6"
  dropout_param {
    dropout_ratio: 0.5
  }
}
layer {
  name: "fc7"
  type: "InnerProduct"
  bottom: "fc6"
  top: "fc7"
  param {
    lr_mult: 1
    decay_mult: 1
  }
  param {
    lr_mult: 2
    decay_mult: 0
  }
  inner_product_param {
    num_output: 4096
    weight_filler {
      type: "gaussian"
      std: 0.005
    }
    bias_filler {
      type: "constant"
      value: 0.1
    }
  }
}
layer {
  name: "relu7"
  type: "ReLU"
  bottom: "fc7"
  top: "fc7"
}
layer {
  name: "drop7"
  type: "Dropout"
  bottom: "fc7"
  top: "fc7"
  dropout_param {
    dropout_ratio: 0.5
  }
}
layer {
  name: "fc_binary_f48_Pattern"
  type: "InnerProduct"
  bottom: "fc7"
  top: "fc_binary_f48_Pattern"
  param {
    lr_mult: 10
    decay_mult: 1
  }
  param {
    lr_mult: 20
    decay_mult: 0
  }
  inner_product_param {
    num_output: 48
    weight_filler {
      type: "gaussian"
      std: 0.005
    }
    bias_filler {
      type: "constant"
      value: 0.1
    }
  }
}
layer {
  name: "fc_classification_Pattern"
  type: "InnerProduct"
  bottom: "fc7"
  top: "fc_classification_Pattern"
  param {
    lr_mult: 0.5
    decay_mult: 1
  }
  param {
    lr_mult: 1
    decay_mult: 0
  }
  inner_product_param {
    num_output: 7
    weight_filler {
      type: "gaussian"
      std: 0.05
    }
    bias_filler {
      type: "constant"
      value: 0.1
    }
  }
}
layer {
  name: "accuracy_at_1"
  type: "Accuracy"
  bottom: "fc_classification_Pattern"
  bottom: "label"
  top: "accuracy_at_1"
  include {
    phase: TEST
  }
}
layer {
  name: "loss_hashing"
  type: "HashingLoss"
  bottom: "fc_binary_f48_Pattern"
  bottom: "label"
  top: "loss_hashing"
  loss_weight: 0.6
  hashing_loss_param {
    bi_margin: 96
    tradeoff: 0.01
  }
}
layer {
  name: "loss_classification"
  type: "SoftmaxWithLoss"
  bottom: "fc_classification_Pattern"
  bottom: "label"
  top: "loss_classification"
}
I0917 18:36:36.406321 17809 layer_factory.hpp:77] Creating layer data
I0917 18:36:36.406544 17809 net.cpp:91] Creating Layer data
I0917 18:36:36.406642 17809 net.cpp:399] data -> data
I0917 18:36:36.406702 17809 net.cpp:399] data -> label
I0917 18:36:36.408692 17817 db_lmdb.cpp:38] Opened lmdb PATTERN/pattern_val_lmdb/
I0917 18:36:36.409497 17809 data_layer.cpp:41] output data size: 10,3,224,224
I0917 18:36:36.428859 17809 net.cpp:141] Setting up data
I0917 18:36:36.428972 17809 net.cpp:148] Top shape: 10 3 224 224 (1505280)
I0917 18:36:36.429023 17809 net.cpp:148] Top shape: 10 1 1 1 (10)
I0917 18:36:36.429055 17809 net.cpp:156] Memory required for data: 6021160
I0917 18:36:36.429093 17809 layer_factory.hpp:77] Creating layer label_data_1_split
I0917 18:36:36.429147 17809 net.cpp:91] Creating Layer label_data_1_split
I0917 18:36:36.429183 17809 net.cpp:425] label_data_1_split <- label
I0917 18:36:36.429230 17809 net.cpp:399] label_data_1_split -> label_data_1_split_0
I0917 18:36:36.429282 17809 net.cpp:399] label_data_1_split -> label_data_1_split_1
I0917 18:36:36.429325 17809 net.cpp:399] label_data_1_split -> label_data_1_split_2
I0917 18:36:36.429512 17809 net.cpp:141] Setting up label_data_1_split
I0917 18:36:36.429563 17809 net.cpp:148] Top shape: 10 1 1 1 (10)
I0917 18:36:36.429600 17809 net.cpp:148] Top shape: 10 1 1 1 (10)
I0917 18:36:36.429646 17809 net.cpp:148] Top shape: 10 1 1 1 (10)
I0917 18:36:36.429680 17809 net.cpp:156] Memory required for data: 6021280
I0917 18:36:36.429713 17809 layer_factory.hpp:77] Creating layer conv1_1
I0917 18:36:36.429785 17809 net.cpp:91] Creating Layer conv1_1
I0917 18:36:36.429822 17809 net.cpp:425] conv1_1 <- data
I0917 18:36:36.429869 17809 net.cpp:399] conv1_1 -> conv1_1
I0917 18:36:36.430672 17809 net.cpp:141] Setting up conv1_1
I0917 18:36:36.430727 17809 net.cpp:148] Top shape: 10 64 224 224 (32112640)
I0917 18:36:36.430768 17809 net.cpp:156] Memory required for data: 134471840
I0917 18:36:36.430822 17809 layer_factory.hpp:77] Creating layer relu1_1
I0917 18:36:36.430871 17809 net.cpp:91] Creating Layer relu1_1
I0917 18:36:36.430907 17809 net.cpp:425] relu1_1 <- conv1_1
I0917 18:36:36.430943 17809 net.cpp:386] relu1_1 -> conv1_1 (in-place)
I0917 18:36:36.430985 17809 net.cpp:141] Setting up relu1_1
I0917 18:36:36.431025 17809 net.cpp:148] Top shape: 10 64 224 224 (32112640)
I0917 18:36:36.431061 17809 net.cpp:156] Memory required for data: 262922400
I0917 18:36:36.431093 17809 layer_factory.hpp:77] Creating layer conv1_2
I0917 18:36:36.431150 17809 net.cpp:91] Creating Layer conv1_2
I0917 18:36:36.431190 17809 net.cpp:425] conv1_2 <- conv1_1
I0917 18:36:36.431238 17809 net.cpp:399] conv1_2 -> conv1_2
I0917 18:36:36.436372 17809 net.cpp:141] Setting up conv1_2
I0917 18:36:36.436450 17809 net.cpp:148] Top shape: 10 64 224 224 (32112640)
I0917 18:36:36.436486 17809 net.cpp:156] Memory required for data: 391372960
I0917 18:36:36.436534 17809 layer_factory.hpp:77] Creating layer relu1_2
I0917 18:36:36.436576 17809 net.cpp:91] Creating Layer relu1_2
I0917 18:36:36.436610 17809 net.cpp:425] relu1_2 <- conv1_2
I0917 18:36:36.436653 17809 net.cpp:386] relu1_2 -> conv1_2 (in-place)
I0917 18:36:36.436698 17809 net.cpp:141] Setting up relu1_2
I0917 18:36:36.436738 17809 net.cpp:148] Top shape: 10 64 224 224 (32112640)
I0917 18:36:36.436770 17809 net.cpp:156] Memory required for data: 519823520
I0917 18:36:36.436802 17809 layer_factory.hpp:77] Creating layer pool1
I0917 18:36:36.436902 17809 net.cpp:91] Creating Layer pool1
I0917 18:36:36.436939 17809 net.cpp:425] pool1 <- conv1_2
I0917 18:36:36.436985 17809 net.cpp:399] pool1 -> pool1
I0917 18:36:36.437114 17809 net.cpp:141] Setting up pool1
I0917 18:36:36.437168 17809 net.cpp:148] Top shape: 10 64 112 112 (8028160)
I0917 18:36:36.437203 17809 net.cpp:156] Memory required for data: 551936160
I0917 18:36:36.437234 17809 layer_factory.hpp:77] Creating layer conv2_1
I0917 18:36:36.437280 17809 net.cpp:91] Creating Layer conv2_1
I0917 18:36:36.437315 17809 net.cpp:425] conv2_1 <- pool1
I0917 18:36:36.437371 17809 net.cpp:399] conv2_1 -> conv2_1
I0917 18:36:36.444473 17809 net.cpp:141] Setting up conv2_1
I0917 18:36:36.444538 17809 net.cpp:148] Top shape: 10 128 112 112 (16056320)
I0917 18:36:36.444574 17809 net.cpp:156] Memory required for data: 616161440
I0917 18:36:36.444622 17809 layer_factory.hpp:77] Creating layer relu2_1
I0917 18:36:36.444674 17809 net.cpp:91] Creating Layer relu2_1
I0917 18:36:36.444711 17809 net.cpp:425] relu2_1 <- conv2_1
I0917 18:36:36.444754 17809 net.cpp:386] relu2_1 -> conv2_1 (in-place)
I0917 18:36:36.444798 17809 net.cpp:141] Setting up relu2_1
I0917 18:36:36.444836 17809 net.cpp:148] Top shape: 10 128 112 112 (16056320)
I0917 18:36:36.444867 17809 net.cpp:156] Memory required for data: 680386720
I0917 18:36:36.444898 17809 layer_factory.hpp:77] Creating layer conv2_2
I0917 18:36:36.444943 17809 net.cpp:91] Creating Layer conv2_2
I0917 18:36:36.444978 17809 net.cpp:425] conv2_2 <- conv2_1
I0917 18:36:36.445024 17809 net.cpp:399] conv2_2 -> conv2_2
I0917 18:36:36.456046 17809 net.cpp:141] Setting up conv2_2
I0917 18:36:36.456105 17809 net.cpp:148] Top shape: 10 128 112 112 (16056320)
I0917 18:36:36.456137 17809 net.cpp:156] Memory required for data: 744612000
I0917 18:36:36.456184 17809 layer_factory.hpp:77] Creating layer relu2_2
I0917 18:36:36.456224 17809 net.cpp:91] Creating Layer relu2_2
I0917 18:36:36.456257 17809 net.cpp:425] relu2_2 <- conv2_2
I0917 18:36:36.456295 17809 net.cpp:386] relu2_2 -> conv2_2 (in-place)
I0917 18:36:36.456336 17809 net.cpp:141] Setting up relu2_2
I0917 18:36:36.456373 17809 net.cpp:148] Top shape: 10 128 112 112 (16056320)
I0917 18:36:36.456404 17809 net.cpp:156] Memory required for data: 808837280
I0917 18:36:36.456435 17809 layer_factory.hpp:77] Creating layer pool2
I0917 18:36:36.456473 17809 net.cpp:91] Creating Layer pool2
I0917 18:36:36.456506 17809 net.cpp:425] pool2 <- conv2_2
I0917 18:36:36.456550 17809 net.cpp:399] pool2 -> pool2
I0917 18:36:36.456678 17809 net.cpp:141] Setting up pool2
I0917 18:36:36.456727 17809 net.cpp:148] Top shape: 10 128 56 56 (4014080)
I0917 18:36:36.456758 17809 net.cpp:156] Memory required for data: 824893600
I0917 18:36:36.456790 17809 layer_factory.hpp:77] Creating layer conv3_1
I0917 18:36:36.456846 17809 net.cpp:91] Creating Layer conv3_1
I0917 18:36:36.456883 17809 net.cpp:425] conv3_1 <- pool2
I0917 18:36:36.456923 17809 net.cpp:399] conv3_1 -> conv3_1
I0917 18:36:36.480726 17809 net.cpp:141] Setting up conv3_1
I0917 18:36:36.480811 17809 net.cpp:148] Top shape: 10 256 56 56 (8028160)
I0917 18:36:36.480847 17809 net.cpp:156] Memory required for data: 857006240
I0917 18:36:36.480901 17809 layer_factory.hpp:77] Creating layer relu3_1
I0917 18:36:36.480943 17809 net.cpp:91] Creating Layer relu3_1
I0917 18:36:36.480978 17809 net.cpp:425] relu3_1 <- conv3_1
I0917 18:36:36.481016 17809 net.cpp:386] relu3_1 -> conv3_1 (in-place)
I0917 18:36:36.481060 17809 net.cpp:141] Setting up relu3_1
I0917 18:36:36.481098 17809 net.cpp:148] Top shape: 10 256 56 56 (8028160)
I0917 18:36:36.481128 17809 net.cpp:156] Memory required for data: 889118880
I0917 18:36:36.481160 17809 layer_factory.hpp:77] Creating layer conv3_2
I0917 18:36:36.481211 17809 net.cpp:91] Creating Layer conv3_2
I0917 18:36:36.481248 17809 net.cpp:425] conv3_2 <- conv3_1
I0917 18:36:36.481295 17809 net.cpp:399] conv3_2 -> conv3_2
I0917 18:36:36.527834 17809 net.cpp:141] Setting up conv3_2
I0917 18:36:36.527897 17809 net.cpp:148] Top shape: 10 256 56 56 (8028160)
I0917 18:36:36.527987 17809 net.cpp:156] Memory required for data: 921231520
I0917 18:36:36.528031 17809 layer_factory.hpp:77] Creating layer relu3_2
I0917 18:36:36.528077 17809 net.cpp:91] Creating Layer relu3_2
I0917 18:36:36.528113 17809 net.cpp:425] relu3_2 <- conv3_2
I0917 18:36:36.528151 17809 net.cpp:386] relu3_2 -> conv3_2 (in-place)
I0917 18:36:36.528193 17809 net.cpp:141] Setting up relu3_2
I0917 18:36:36.528230 17809 net.cpp:148] Top shape: 10 256 56 56 (8028160)
I0917 18:36:36.528261 17809 net.cpp:156] Memory required for data: 953344160
I0917 18:36:36.528292 17809 layer_factory.hpp:77] Creating layer conv3_3
I0917 18:36:36.528348 17809 net.cpp:91] Creating Layer conv3_3
I0917 18:36:36.528384 17809 net.cpp:425] conv3_3 <- conv3_2
I0917 18:36:36.528430 17809 net.cpp:399] conv3_3 -> conv3_3
I0917 18:36:36.574867 17809 net.cpp:141] Setting up conv3_3
I0917 18:36:36.574929 17809 net.cpp:148] Top shape: 10 256 56 56 (8028160)
I0917 18:36:36.574964 17809 net.cpp:156] Memory required for data: 985456800
I0917 18:36:36.575004 17809 layer_factory.hpp:77] Creating layer relu3_3
I0917 18:36:36.575044 17809 net.cpp:91] Creating Layer relu3_3
I0917 18:36:36.575078 17809 net.cpp:425] relu3_3 <- conv3_3
I0917 18:36:36.575121 17809 net.cpp:386] relu3_3 -> conv3_3 (in-place)
I0917 18:36:36.575165 17809 net.cpp:141] Setting up relu3_3
I0917 18:36:36.575203 17809 net.cpp:148] Top shape: 10 256 56 56 (8028160)
I0917 18:36:36.575235 17809 net.cpp:156] Memory required for data: 1017569440
I0917 18:36:36.575266 17809 layer_factory.hpp:77] Creating layer pool3
I0917 18:36:36.575306 17809 net.cpp:91] Creating Layer pool3
I0917 18:36:36.575338 17809 net.cpp:425] pool3 <- conv3_3
I0917 18:36:36.575376 17809 net.cpp:399] pool3 -> pool3
I0917 18:36:36.575505 17809 net.cpp:141] Setting up pool3
I0917 18:36:36.575552 17809 net.cpp:148] Top shape: 10 256 28 28 (2007040)
I0917 18:36:36.575584 17809 net.cpp:156] Memory required for data: 1025597600
I0917 18:36:36.575616 17809 layer_factory.hpp:77] Creating layer conv4_1
I0917 18:36:36.575667 17809 net.cpp:91] Creating Layer conv4_1
I0917 18:36:36.575704 17809 net.cpp:425] conv4_1 <- pool3
I0917 18:36:36.575750 17809 net.cpp:399] conv4_1 -> conv4_1
I0917 18:36:36.667757 17809 net.cpp:141] Setting up conv4_1
I0917 18:36:36.667821 17809 net.cpp:148] Top shape: 10 512 28 28 (4014080)
I0917 18:36:36.667857 17809 net.cpp:156] Memory required for data: 1041653920
I0917 18:36:36.667897 17809 layer_factory.hpp:77] Creating layer relu4_1
I0917 18:36:36.667937 17809 net.cpp:91] Creating Layer relu4_1
I0917 18:36:36.667971 17809 net.cpp:425] relu4_1 <- conv4_1
I0917 18:36:36.668009 17809 net.cpp:386] relu4_1 -> conv4_1 (in-place)
I0917 18:36:36.668051 17809 net.cpp:141] Setting up relu4_1
I0917 18:36:36.668087 17809 net.cpp:148] Top shape: 10 512 28 28 (4014080)
I0917 18:36:36.668118 17809 net.cpp:156] Memory required for data: 1057710240
I0917 18:36:36.668149 17809 layer_factory.hpp:77] Creating layer conv4_2
I0917 18:36:36.668200 17809 net.cpp:91] Creating Layer conv4_2
I0917 18:36:36.668238 17809 net.cpp:425] conv4_2 <- conv4_1
I0917 18:36:36.668284 17809 net.cpp:399] conv4_2 -> conv4_2
I0917 18:36:36.851672 17809 net.cpp:141] Setting up conv4_2
I0917 18:36:36.851753 17809 net.cpp:148] Top shape: 10 512 28 28 (4014080)
I0917 18:36:36.851790 17809 net.cpp:156] Memory required for data: 1073766560
I0917 18:36:36.851848 17809 layer_factory.hpp:77] Creating layer relu4_2
I0917 18:36:36.851893 17809 net.cpp:91] Creating Layer relu4_2
I0917 18:36:36.851928 17809 net.cpp:425] relu4_2 <- conv4_2
I0917 18:36:36.851971 17809 net.cpp:386] relu4_2 -> conv4_2 (in-place)
I0917 18:36:36.852016 17809 net.cpp:141] Setting up relu4_2
I0917 18:36:36.852054 17809 net.cpp:148] Top shape: 10 512 28 28 (4014080)
I0917 18:36:36.852085 17809 net.cpp:156] Memory required for data: 1089822880
I0917 18:36:36.852116 17809 layer_factory.hpp:77] Creating layer conv4_3
I0917 18:36:36.852160 17809 net.cpp:91] Creating Layer conv4_3
I0917 18:36:36.852195 17809 net.cpp:425] conv4_3 <- conv4_2
I0917 18:36:36.852238 17809 net.cpp:399] conv4_3 -> conv4_3
I0917 18:36:36.990088 17809 net.cpp:141] Setting up conv4_3
I0917 18:36:36.990126 17809 net.cpp:148] Top shape: 10 512 28 28 (4014080)
I0917 18:36:36.990149 17809 net.cpp:156] Memory required for data: 1105879200
I0917 18:36:36.990167 17809 layer_factory.hpp:77] Creating layer relu4_3
I0917 18:36:36.990188 17809 net.cpp:91] Creating Layer relu4_3
I0917 18:36:36.990211 17809 net.cpp:425] relu4_3 <- conv4_3
I0917 18:36:36.990234 17809 net.cpp:386] relu4_3 -> conv4_3 (in-place)
I0917 18:36:36.990257 17809 net.cpp:141] Setting up relu4_3
I0917 18:36:36.990276 17809 net.cpp:148] Top shape: 10 512 28 28 (4014080)
I0917 18:36:36.990294 17809 net.cpp:156] Memory required for data: 1121935520
I0917 18:36:36.990309 17809 layer_factory.hpp:77] Creating layer pool4
I0917 18:36:36.990331 17809 net.cpp:91] Creating Layer pool4
I0917 18:36:36.990347 17809 net.cpp:425] pool4 <- conv4_3
I0917 18:36:36.990368 17809 net.cpp:399] pool4 -> pool4
I0917 18:36:36.990430 17809 net.cpp:141] Setting up pool4
I0917 18:36:36.990455 17809 net.cpp:148] Top shape: 10 512 14 14 (1003520)
I0917 18:36:36.990473 17809 net.cpp:156] Memory required for data: 1125949600
I0917 18:36:36.990487 17809 layer_factory.hpp:77] Creating layer conv5_1
I0917 18:36:36.990510 17809 net.cpp:91] Creating Layer conv5_1
I0917 18:36:36.990527 17809 net.cpp:425] conv5_1 <- pool4
I0917 18:36:36.990550 17809 net.cpp:399] conv5_1 -> conv5_1
I0917 18:36:37.076215 17809 net.cpp:141] Setting up conv5_1
I0917 18:36:37.076249 17809 net.cpp:148] Top shape: 10 512 14 14 (1003520)
I0917 18:36:37.076269 17809 net.cpp:156] Memory required for data: 1129963680
I0917 18:36:37.076288 17809 layer_factory.hpp:77] Creating layer relu5_1
I0917 18:36:37.076309 17809 net.cpp:91] Creating Layer relu5_1
I0917 18:36:37.076328 17809 net.cpp:425] relu5_1 <- conv5_1
I0917 18:36:37.076351 17809 net.cpp:386] relu5_1 -> conv5_1 (in-place)
I0917 18:36:37.076375 17809 net.cpp:141] Setting up relu5_1
I0917 18:36:37.076393 17809 net.cpp:148] Top shape: 10 512 14 14 (1003520)
I0917 18:36:37.076409 17809 net.cpp:156] Memory required for data: 1133977760
I0917 18:36:37.076424 17809 layer_factory.hpp:77] Creating layer conv5_2
I0917 18:36:37.076450 17809 net.cpp:91] Creating Layer conv5_2
I0917 18:36:37.076468 17809 net.cpp:425] conv5_2 <- conv5_1
I0917 18:36:37.076490 17809 net.cpp:399] conv5_2 -> conv5_2
I0917 18:36:37.161770 17809 net.cpp:141] Setting up conv5_2
I0917 18:36:37.161808 17809 net.cpp:148] Top shape: 10 512 14 14 (1003520)
I0917 18:36:37.161825 17809 net.cpp:156] Memory required for data: 1137991840
I0917 18:36:37.161844 17809 layer_factory.hpp:77] Creating layer relu5_2
I0917 18:36:37.161864 17809 net.cpp:91] Creating Layer relu5_2
I0917 18:36:37.161885 17809 net.cpp:425] relu5_2 <- conv5_2
I0917 18:36:37.161911 17809 net.cpp:386] relu5_2 -> conv5_2 (in-place)
I0917 18:36:37.161932 17809 net.cpp:141] Setting up relu5_2
I0917 18:36:37.161950 17809 net.cpp:148] Top shape: 10 512 14 14 (1003520)
I0917 18:36:37.161965 17809 net.cpp:156] Memory required for data: 1142005920
I0917 18:36:37.161980 17809 layer_factory.hpp:77] Creating layer conv5_3
I0917 18:36:37.162005 17809 net.cpp:91] Creating Layer conv5_3
I0917 18:36:37.162022 17809 net.cpp:425] conv5_3 <- conv5_2
I0917 18:36:37.162041 17809 net.cpp:399] conv5_3 -> conv5_3
I0917 18:36:37.248595 17809 net.cpp:141] Setting up conv5_3
I0917 18:36:37.248632 17809 net.cpp:148] Top shape: 10 512 14 14 (1003520)
I0917 18:36:37.248649 17809 net.cpp:156] Memory required for data: 1146020000
I0917 18:36:37.248678 17809 layer_factory.hpp:77] Creating layer relu5_3
I0917 18:36:37.248699 17809 net.cpp:91] Creating Layer relu5_3
I0917 18:36:37.248718 17809 net.cpp:425] relu5_3 <- conv5_3
I0917 18:36:37.248739 17809 net.cpp:386] relu5_3 -> conv5_3 (in-place)
I0917 18:36:37.248761 17809 net.cpp:141] Setting up relu5_3
I0917 18:36:37.248780 17809 net.cpp:148] Top shape: 10 512 14 14 (1003520)
I0917 18:36:37.248796 17809 net.cpp:156] Memory required for data: 1150034080
I0917 18:36:37.248811 17809 layer_factory.hpp:77] Creating layer pool5
I0917 18:36:37.248878 17809 net.cpp:91] Creating Layer pool5
I0917 18:36:37.248898 17809 net.cpp:425] pool5 <- conv5_3
I0917 18:36:37.248921 17809 net.cpp:399] pool5 -> pool5
I0917 18:36:37.248988 17809 net.cpp:141] Setting up pool5
I0917 18:36:37.249012 17809 net.cpp:148] Top shape: 10 512 7 7 (250880)
I0917 18:36:37.249028 17809 net.cpp:156] Memory required for data: 1151037600
I0917 18:36:37.249044 17809 layer_factory.hpp:77] Creating layer fc6
I0917 18:36:37.249069 17809 net.cpp:91] Creating Layer fc6
I0917 18:36:37.249088 17809 net.cpp:425] fc6 <- pool5
I0917 18:36:37.249106 17809 net.cpp:399] fc6 -> fc6
I0917 18:36:41.023957 17809 net.cpp:141] Setting up fc6
I0917 18:36:41.024037 17809 net.cpp:148] Top shape: 10 4096 (40960)
I0917 18:36:41.024057 17809 net.cpp:156] Memory required for data: 1151201440
I0917 18:36:41.024093 17809 layer_factory.hpp:77] Creating layer relu6
I0917 18:36:41.024132 17809 net.cpp:91] Creating Layer relu6
I0917 18:36:41.024159 17809 net.cpp:425] relu6 <- fc6
I0917 18:36:41.024183 17809 net.cpp:386] relu6 -> fc6 (in-place)
I0917 18:36:41.024209 17809 net.cpp:141] Setting up relu6
I0917 18:36:41.024226 17809 net.cpp:148] Top shape: 10 4096 (40960)
I0917 18:36:41.024245 17809 net.cpp:156] Memory required for data: 1151365280
I0917 18:36:41.024263 17809 layer_factory.hpp:77] Creating layer drop6
I0917 18:36:41.024287 17809 net.cpp:91] Creating Layer drop6
I0917 18:36:41.024303 17809 net.cpp:425] drop6 <- fc6
I0917 18:36:41.024322 17809 net.cpp:386] drop6 -> fc6 (in-place)
I0917 18:36:41.024390 17809 net.cpp:141] Setting up drop6
I0917 18:36:41.024413 17809 net.cpp:148] Top shape: 10 4096 (40960)
I0917 18:36:41.024430 17809 net.cpp:156] Memory required for data: 1151529120
I0917 18:36:41.024444 17809 layer_factory.hpp:77] Creating layer fc7
I0917 18:36:41.024469 17809 net.cpp:91] Creating Layer fc7
I0917 18:36:41.024487 17809 net.cpp:425] fc7 <- fc6
I0917 18:36:41.024507 17809 net.cpp:399] fc7 -> fc7
I0917 18:36:41.645730 17809 net.cpp:141] Setting up fc7
I0917 18:36:41.645799 17809 net.cpp:148] Top shape: 10 4096 (40960)
I0917 18:36:41.645815 17809 net.cpp:156] Memory required for data: 1151692960
I0917 18:36:41.645838 17809 layer_factory.hpp:77] Creating layer relu7
I0917 18:36:41.645869 17809 net.cpp:91] Creating Layer relu7
I0917 18:36:41.645889 17809 net.cpp:425] relu7 <- fc7
I0917 18:36:41.645915 17809 net.cpp:386] relu7 -> fc7 (in-place)
I0917 18:36:41.645941 17809 net.cpp:141] Setting up relu7
I0917 18:36:41.645958 17809 net.cpp:148] Top shape: 10 4096 (40960)
I0917 18:36:41.645975 17809 net.cpp:156] Memory required for data: 1151856800
I0917 18:36:41.645992 17809 layer_factory.hpp:77] Creating layer drop7
I0917 18:36:41.646014 17809 net.cpp:91] Creating Layer drop7
I0917 18:36:41.646030 17809 net.cpp:425] drop7 <- fc7
I0917 18:36:41.646051 17809 net.cpp:386] drop7 -> fc7 (in-place)
I0917 18:36:41.646100 17809 net.cpp:141] Setting up drop7
I0917 18:36:41.646121 17809 net.cpp:148] Top shape: 10 4096 (40960)
I0917 18:36:41.646136 17809 net.cpp:156] Memory required for data: 1152020640
I0917 18:36:41.646153 17809 layer_factory.hpp:77] Creating layer fc7_drop7_0_split
I0917 18:36:41.646173 17809 net.cpp:91] Creating Layer fc7_drop7_0_split
I0917 18:36:41.646189 17809 net.cpp:425] fc7_drop7_0_split <- fc7
I0917 18:36:41.646211 17809 net.cpp:399] fc7_drop7_0_split -> fc7_drop7_0_split_0
I0917 18:36:41.646234 17809 net.cpp:399] fc7_drop7_0_split -> fc7_drop7_0_split_1
I0917 18:36:41.646286 17809 net.cpp:141] Setting up fc7_drop7_0_split
I0917 18:36:41.646311 17809 net.cpp:148] Top shape: 10 4096 (40960)
I0917 18:36:41.646329 17809 net.cpp:148] Top shape: 10 4096 (40960)
I0917 18:36:41.646345 17809 net.cpp:156] Memory required for data: 1152348320
I0917 18:36:41.646373 17809 layer_factory.hpp:77] Creating layer fc_binary_f48_Pattern
I0917 18:36:41.646402 17809 net.cpp:91] Creating Layer fc_binary_f48_Pattern
I0917 18:36:41.646420 17809 net.cpp:425] fc_binary_f48_Pattern <- fc7_drop7_0_split_0
I0917 18:36:41.646438 17809 net.cpp:399] fc_binary_f48_Pattern -> fc_binary_f48_Pattern
I0917 18:36:41.654019 17809 net.cpp:141] Setting up fc_binary_f48_Pattern
I0917 18:36:41.654083 17809 net.cpp:148] Top shape: 10 48 (480)
I0917 18:36:41.654101 17809 net.cpp:156] Memory required for data: 1152350240
I0917 18:36:41.654125 17809 layer_factory.hpp:77] Creating layer fc_classification_Pattern
I0917 18:36:41.654153 17809 net.cpp:91] Creating Layer fc_classification_Pattern
I0917 18:36:41.654171 17809 net.cpp:425] fc_classification_Pattern <- fc7_drop7_0_split_1
I0917 18:36:41.654196 17809 net.cpp:399] fc_classification_Pattern -> fc_classification_Pattern
I0917 18:36:41.655329 17809 net.cpp:141] Setting up fc_classification_Pattern
I0917 18:36:41.655354 17809 net.cpp:148] Top shape: 10 7 (70)
I0917 18:36:41.655371 17809 net.cpp:156] Memory required for data: 1152350520
I0917 18:36:41.655411 17809 layer_factory.hpp:77] Creating layer fc_classification_Pattern_fc_classification_Pattern_0_split
I0917 18:36:41.655434 17809 net.cpp:91] Creating Layer fc_classification_Pattern_fc_classification_Pattern_0_split
I0917 18:36:41.655452 17809 net.cpp:425] fc_classification_Pattern_fc_classification_Pattern_0_split <- fc_classification_Pattern
I0917 18:36:41.655470 17809 net.cpp:399] fc_classification_Pattern_fc_classification_Pattern_0_split -> fc_classification_Pattern_fc_classification_Pattern_0_split_0
I0917 18:36:41.655491 17809 net.cpp:399] fc_classification_Pattern_fc_classification_Pattern_0_split -> fc_classification_Pattern_fc_classification_Pattern_0_split_1
I0917 18:36:41.655550 17809 net.cpp:141] Setting up fc_classification_Pattern_fc_classification_Pattern_0_split
I0917 18:36:41.655573 17809 net.cpp:148] Top shape: 10 7 (70)
I0917 18:36:41.655591 17809 net.cpp:148] Top shape: 10 7 (70)
I0917 18:36:41.655606 17809 net.cpp:156] Memory required for data: 1152351080
I0917 18:36:41.655620 17809 layer_factory.hpp:77] Creating layer accuracy_at_1
I0917 18:36:41.655652 17809 net.cpp:91] Creating Layer accuracy_at_1
I0917 18:36:41.655670 17809 net.cpp:425] accuracy_at_1 <- fc_classification_Pattern_fc_classification_Pattern_0_split_0
I0917 18:36:41.655690 17809 net.cpp:425] accuracy_at_1 <- label_data_1_split_0
…
