…
I0920 19:01:14.682476  7571 net.cpp:313] The NetState phase (0) differed from the phase (1) specified by a rule in layer accuracy_at_1_Color
I0920 19:01:14.683032  7571 net.cpp:49] Initializing net from parameters: 
name: "docomo_AlexNet"
state {
  phase: TRAIN
}
layer {
  name: "data"
  type: "Data"
  top: "data"
  top: "label"
  include {
    phase: TRAIN
  }
  transform_param {
    mirror: true
    crop_size: 224
    mean_value: 103.939
    mean_value: 116.779
    mean_value: 123.68
  }
  data_param {
    source: "COLOR/color_train_lmdb"
    batch_size: 30
    backend: LMDB
  }
}
layer {
  name: "conv1"
  type: "Convolution"
  bottom: "data"
  top: "conv1"
  param {
    lr_mult: 1
    decay_mult: 1
  }
  param {
    lr_mult: 2
    decay_mult: 0
  }
  convolution_param {
    num_output: 96
    kernel_size: 11
    stride: 4
    weight_filler {
      type: "gaussian"
      std: 0.01
    }
    bias_filler {
      type: "constant"
      value: 0
    }
  }
}
layer {
  name: "relu1"
  type: "ReLU"
  bottom: "conv1"
  top: "conv1"
}
layer {
  name: "norm1"
  type: "LRN"
  bottom: "conv1"
  top: "norm1"
  lrn_param {
    local_size: 5
    alpha: 0.0001
    beta: 0.75
  }
}
layer {
  name: "pool1"
  type: "Pooling"
  bottom: "norm1"
  top: "pool1"
  pooling_param {
    pool: MAX
    kernel_size: 3
    stride: 2
  }
}
layer {
  name: "conv2"
  type: "Convolution"
  bottom: "pool1"
  top: "conv2"
  param {
    lr_mult: 1
    decay_mult: 1
  }
  param {
    lr_mult: 2
    decay_mult: 0
  }
  convolution_param {
    num_output: 256
    pad: 2
    kernel_size: 5
    group: 2
    weight_filler {
      type: "gaussian"
      std: 0.01
    }
    bias_filler {
      type: "constant"
      value: 0.1
    }
  }
}
layer {
  name: "relu2"
  type: "ReLU"
  bottom: "conv2"
  top: "conv2"
}
layer {
  name: "norm2"
  type: "LRN"
  bottom: "conv2"
  top: "norm2"
  lrn_param {
    local_size: 5
    alpha: 0.0001
    beta: 0.75
  }
}
layer {
  name: "pool2"
  type: "Pooling"
  bottom: "norm2"
  top: "pool2"
  pooling_param {
    pool: MAX
    kernel_size: 3
    stride: 2
  }
}
layer {
  name: "conv3"
  type: "Convolution"
  bottom: "pool2"
  top: "conv3"
  param {
    lr_mult: 1
    decay_mult: 1
  }
  param {
    lr_mult: 2
    decay_mult: 0
  }
  convolution_param {
    num_output: 384
    pad: 1
    kernel_size: 3
    weight_filler {
      type: "gaussian"
      std: 0.01
    }
    bias_filler {
      type: "constant"
      value: 0
    }
  }
}
layer {
  name: "relu3"
  type: "ReLU"
  bottom: "conv3"
  top: "conv3"
}
layer {
  name: "conv4"
  type: "Convolution"
  bottom: "conv3"
  top: "conv4"
  param {
    lr_mult: 1
    decay_mult: 1
  }
  param {
    lr_mult: 2
    decay_mult: 0
  }
  convolution_param {
    num_output: 384
    pad: 1
    kernel_size: 3
    group: 2
    weight_filler {
      type: "gaussian"
      std: 0.01
    }
    bias_filler {
      type: "constant"
      value: 0.1
    }
  }
}
layer {
  name: "relu4"
  type: "ReLU"
  bottom: "conv4"
  top: "conv4"
}
layer {
  name: "conv5"
  type: "Convolution"
  bottom: "conv4"
  top: "conv5"
  param {
    lr_mult: 1
    decay_mult: 1
  }
  param {
    lr_mult: 2
    decay_mult: 0
  }
  convolution_param {
    num_output: 256
    pad: 1
    kernel_size: 3
    group: 2
    weight_filler {
      type: "gaussian"
      std: 0.01
    }
    bias_filler {
      type: "constant"
      value: 0.1
    }
  }
}
layer {
  name: "relu5"
  type: "ReLU"
  bottom: "conv5"
  top: "conv5"
}
layer {
  name: "pool5"
  type: "Pooling"
  bottom: "conv5"
  top: "pool5"
  pooling_param {
    pool: MAX
    kernel_size: 3
    stride: 2
  }
}
layer {
  name: "fc6"
  type: "InnerProduct"
  bottom: "pool5"
  top: "fc6"
  param {
    lr_mult: 1
    decay_mult: 1
  }
  param {
    lr_mult: 2
    decay_mult: 0
  }
  inner_product_param {
    num_output: 4096
    weight_filler {
      type: "gaussian"
      std: 0.005
    }
    bias_filler {
      type: "constant"
      value: 0.1
    }
  }
}
layer {
  name: "relu6"
  type: "ReLU"
  bottom: "fc6"
  top: "fc6"
}
layer {
  name: "drop6"
  type: "Dropout"
  bottom: "fc6"
  top: "fc6"
  dropout_param {
    dropout_ratio: 0.5
  }
}
layer {
  name: "fc7"
  type: "InnerProduct"
  bottom: "fc6"
  top: "fc7"
  param {
    lr_mult: 1
    decay_mult: 1
  }
  param {
    lr_mult: 2
    decay_mult: 0
  }
  inner_product_param {
    num_output: 4096
    weight_filler {
      type: "gaussian"
      std: 0.005
    }
    bias_filler {
      type: "constant"
      value: 0.1
    }
  }
}
layer {
  name: "relu7"
  type: "ReLU"
  bottom: "fc7"
  top: "fc7"
}
layer {
  name: "drop7"
  type: "Dropout"
  bottom: "fc7"
  top: "fc7"
  dropout_param {
    dropout_ratio: 0.5
  }
}
layer {
  name: "fc_binary_Color_f48"
  type: "InnerProduct"
  bottom: "fc7"
  top: "fc_binary_Color_f48"
  param {
    lr_mult: 200
    decay_mult: 1
  }
  param {
    lr_mult: 400
    decay_mult: 0
  }
  inner_product_param {
    num_output: 48
    weight_filler {
      type: "gaussian"
      std: 0.005
    }
    bias_filler {
      type: "constant"
      value: 0.1
    }
  }
}
layer {
  name: "fc_classification_Color"
  type: "InnerProduct"
  bottom: "fc7"
  top: "fc_classification_Color"
  param {
    lr_mult: 1
    decay_mult: 1
  }
  param {
    lr_mult: 2
    decay_mult: 0
  }
  inner_product_param {
    num_output: 8
    weight_filler {
      type: "gaussian"
      std: 0.05
    }
    bias_filler {
      type: "constant"
      value: 0.1
    }
  }
}
layer {
  name: "loss_hashing"
  type: "HashingLoss"
  bottom: "fc_binary_Color_f48"
  bottom: "label"
  top: "loss_hashing"
  loss_weight: 0.1
  hashing_loss_param {
    bi_margin: 96
    tradeoff: 0.01
  }
}
layer {
  name: "loss"
  type: "SoftmaxWithLoss"
  bottom: "fc_classification_Color"
  bottom: "label"
  top: "loss"
}
I0920 19:01:14.686589  7571 layer_factory.hpp:77] Creating layer data
I0920 19:01:14.687839  7571 net.cpp:91] Creating Layer data
I0920 19:01:14.687911  7571 net.cpp:399] data -> data
I0920 19:01:14.688014  7571 net.cpp:399] data -> label
I0920 19:01:14.689712  7577 db_lmdb.cpp:38] Opened lmdb COLOR/color_train_lmdb
I0920 19:01:14.720544  7571 data_layer.cpp:41] output data size: 30,3,224,224
I0920 19:01:14.782945  7571 net.cpp:141] Setting up data
I0920 19:01:14.783066  7571 net.cpp:148] Top shape: 30 3 224 224 (4515840)
I0920 19:01:14.783092  7571 net.cpp:148] Top shape: 30 1 1 1 (30)
I0920 19:01:14.783110  7571 net.cpp:156] Memory required for data: 18063480
I0920 19:01:14.783143  7571 layer_factory.hpp:77] Creating layer label_data_1_split
I0920 19:01:14.783182  7571 net.cpp:91] Creating Layer label_data_1_split
I0920 19:01:14.783210  7571 net.cpp:425] label_data_1_split <- label
I0920 19:01:14.783249  7571 net.cpp:399] label_data_1_split -> label_data_1_split_0
I0920 19:01:14.783283  7571 net.cpp:399] label_data_1_split -> label_data_1_split_1
I0920 19:01:14.783376  7571 net.cpp:141] Setting up label_data_1_split
I0920 19:01:14.783406  7571 net.cpp:148] Top shape: 30 1 1 1 (30)
I0920 19:01:14.783428  7571 net.cpp:148] Top shape: 30 1 1 1 (30)
I0920 19:01:14.783447  7571 net.cpp:156] Memory required for data: 18063720
I0920 19:01:14.783465  7571 layer_factory.hpp:77] Creating layer conv1
I0920 19:01:14.783515  7571 net.cpp:91] Creating Layer conv1
I0920 19:01:14.783538  7571 net.cpp:425] conv1 <- data
I0920 19:01:14.783566  7571 net.cpp:399] conv1 -> conv1
I0920 19:01:14.788434  7571 net.cpp:141] Setting up conv1
I0920 19:01:14.788561  7571 net.cpp:148] Top shape: 30 96 54 54 (8398080)
I0920 19:01:14.788599  7571 net.cpp:156] Memory required for data: 51656040
I0920 19:01:14.788663  7571 layer_factory.hpp:77] Creating layer relu1
I0920 19:01:14.788717  7571 net.cpp:91] Creating Layer relu1
I0920 19:01:14.788753  7571 net.cpp:425] relu1 <- conv1
I0920 19:01:14.788789  7571 net.cpp:386] relu1 -> conv1 (in-place)
I0920 19:01:14.788836  7571 net.cpp:141] Setting up relu1
I0920 19:01:14.788873  7571 net.cpp:148] Top shape: 30 96 54 54 (8398080)
I0920 19:01:14.788903  7571 net.cpp:156] Memory required for data: 85248360
I0920 19:01:14.788934  7571 layer_factory.hpp:77] Creating layer norm1
I0920 19:01:14.788983  7571 net.cpp:91] Creating Layer norm1
I0920 19:01:14.789017  7571 net.cpp:425] norm1 <- conv1
I0920 19:01:14.789053  7571 net.cpp:399] norm1 -> norm1
I0920 19:01:14.789182  7571 net.cpp:141] Setting up norm1
I0920 19:01:14.789232  7571 net.cpp:148] Top shape: 30 96 54 54 (8398080)
I0920 19:01:14.789264  7571 net.cpp:156] Memory required for data: 118840680
I0920 19:01:14.789294  7571 layer_factory.hpp:77] Creating layer pool1
I0920 19:01:14.789333  7571 net.cpp:91] Creating Layer pool1
I0920 19:01:14.789366  7571 net.cpp:425] pool1 <- norm1
I0920 19:01:14.789405  7571 net.cpp:399] pool1 -> pool1
I0920 19:01:14.789548  7571 net.cpp:141] Setting up pool1
I0920 19:01:14.789603  7571 net.cpp:148] Top shape: 30 96 27 27 (2099520)
I0920 19:01:14.789649  7571 net.cpp:156] Memory required for data: 127238760
I0920 19:01:14.789683  7571 layer_factory.hpp:77] Creating layer conv2
I0920 19:01:14.789733  7571 net.cpp:91] Creating Layer conv2
I0920 19:01:14.789768  7571 net.cpp:425] conv2 <- pool1
I0920 19:01:14.789805  7571 net.cpp:399] conv2 -> conv2
I0920 19:01:14.815713  7571 net.cpp:141] Setting up conv2
I0920 19:01:14.815799  7571 net.cpp:148] Top shape: 30 256 27 27 (5598720)
I0920 19:01:14.815830  7571 net.cpp:156] Memory required for data: 149633640
I0920 19:01:14.815886  7571 layer_factory.hpp:77] Creating layer relu2
I0920 19:01:14.815937  7571 net.cpp:91] Creating Layer relu2
I0920 19:01:14.815973  7571 net.cpp:425] relu2 <- conv2
I0920 19:01:14.816010  7571 net.cpp:386] relu2 -> conv2 (in-place)
I0920 19:01:14.816056  7571 net.cpp:141] Setting up relu2
I0920 19:01:14.816092  7571 net.cpp:148] Top shape: 30 256 27 27 (5598720)
I0920 19:01:14.816121  7571 net.cpp:156] Memory required for data: 172028520
I0920 19:01:14.816151  7571 layer_factory.hpp:77] Creating layer norm2
I0920 19:01:14.816195  7571 net.cpp:91] Creating Layer norm2
I0920 19:01:14.816227  7571 net.cpp:425] norm2 <- conv2
I0920 19:01:14.816269  7571 net.cpp:399] norm2 -> norm2
I0920 19:01:14.816391  7571 net.cpp:141] Setting up norm2
I0920 19:01:14.816439  7571 net.cpp:148] Top shape: 30 256 27 27 (5598720)
I0920 19:01:14.816474  7571 net.cpp:156] Memory required for data: 194423400
I0920 19:01:14.816503  7571 layer_factory.hpp:77] Creating layer pool2
I0920 19:01:14.816543  7571 net.cpp:91] Creating Layer pool2
I0920 19:01:14.816576  7571 net.cpp:425] pool2 <- norm2
I0920 19:01:14.816622  7571 net.cpp:399] pool2 -> pool2
I0920 19:01:14.816732  7571 net.cpp:141] Setting up pool2
I0920 19:01:14.816784  7571 net.cpp:148] Top shape: 30 256 13 13 (1297920)
I0920 19:01:14.816817  7571 net.cpp:156] Memory required for data: 199615080
I0920 19:01:14.816848  7571 layer_factory.hpp:77] Creating layer conv3
I0920 19:01:14.816892  7571 net.cpp:91] Creating Layer conv3
I0920 19:01:14.816925  7571 net.cpp:425] conv3 <- pool2
I0920 19:01:14.816968  7571 net.cpp:399] conv3 -> conv3
I0920 19:01:14.883327  7571 net.cpp:141] Setting up conv3
I0920 19:01:14.883422  7571 net.cpp:148] Top shape: 30 384 13 13 (1946880)
I0920 19:01:14.883469  7571 net.cpp:156] Memory required for data: 207402600
I0920 19:01:14.883525  7571 layer_factory.hpp:77] Creating layer relu3
I0920 19:01:14.883574  7571 net.cpp:91] Creating Layer relu3
I0920 19:01:14.883607  7571 net.cpp:425] relu3 <- conv3
I0920 19:01:14.883652  7571 net.cpp:386] relu3 -> conv3 (in-place)
I0920 19:01:14.883700  7571 net.cpp:141] Setting up relu3
I0920 19:01:14.883807  7571 net.cpp:148] Top shape: 30 384 13 13 (1946880)
I0920 19:01:14.883841  7571 net.cpp:156] Memory required for data: 215190120
I0920 19:01:14.883872  7571 layer_factory.hpp:77] Creating layer conv4
I0920 19:01:14.883920  7571 net.cpp:91] Creating Layer conv4
I0920 19:01:14.883954  7571 net.cpp:425] conv4 <- conv3
I0920 19:01:14.884003  7571 net.cpp:399] conv4 -> conv4
I0920 19:01:14.936497  7571 net.cpp:141] Setting up conv4
I0920 19:01:14.936604  7571 net.cpp:148] Top shape: 30 384 13 13 (1946880)
I0920 19:01:14.936646  7571 net.cpp:156] Memory required for data: 222977640
I0920 19:01:14.936697  7571 layer_factory.hpp:77] Creating layer relu4
I0920 19:01:14.936743  7571 net.cpp:91] Creating Layer relu4
I0920 19:01:14.936776  7571 net.cpp:425] relu4 <- conv4
I0920 19:01:14.936821  7571 net.cpp:386] relu4 -> conv4 (in-place)
I0920 19:01:14.936873  7571 net.cpp:141] Setting up relu4
I0920 19:01:14.936910  7571 net.cpp:148] Top shape: 30 384 13 13 (1946880)
I0920 19:01:14.936940  7571 net.cpp:156] Memory required for data: 230765160
I0920 19:01:14.936971  7571 layer_factory.hpp:77] Creating layer conv5
I0920 19:01:14.937024  7571 net.cpp:91] Creating Layer conv5
I0920 19:01:14.937058  7571 net.cpp:425] conv5 <- conv4
I0920 19:01:14.937098  7571 net.cpp:399] conv5 -> conv5
I0920 19:01:14.972266  7571 net.cpp:141] Setting up conv5
I0920 19:01:14.972326  7571 net.cpp:148] Top shape: 30 256 13 13 (1297920)
I0920 19:01:14.972359  7571 net.cpp:156] Memory required for data: 235956840
I0920 19:01:14.972410  7571 layer_factory.hpp:77] Creating layer relu5
I0920 19:01:14.972455  7571 net.cpp:91] Creating Layer relu5
I0920 19:01:14.972491  7571 net.cpp:425] relu5 <- conv5
I0920 19:01:14.972525  7571 net.cpp:386] relu5 -> conv5 (in-place)
I0920 19:01:14.972566  7571 net.cpp:141] Setting up relu5
I0920 19:01:14.972601  7571 net.cpp:148] Top shape: 30 256 13 13 (1297920)
I0920 19:01:14.972631  7571 net.cpp:156] Memory required for data: 241148520
I0920 19:01:14.972661  7571 layer_factory.hpp:77] Creating layer pool5
I0920 19:01:14.972712  7571 net.cpp:91] Creating Layer pool5
I0920 19:01:14.972744  7571 net.cpp:425] pool5 <- conv5
I0920 19:01:14.972779  7571 net.cpp:399] pool5 -> pool5
I0920 19:01:14.972898  7571 net.cpp:141] Setting up pool5
I0920 19:01:14.972944  7571 net.cpp:148] Top shape: 30 256 6 6 (276480)
I0920 19:01:14.972975  7571 net.cpp:156] Memory required for data: 242254440
I0920 19:01:14.973006  7571 layer_factory.hpp:77] Creating layer fc6
I0920 19:01:14.973057  7571 net.cpp:91] Creating Layer fc6
I0920 19:01:14.973091  7571 net.cpp:425] fc6 <- pool5
I0920 19:01:14.973134  7571 net.cpp:399] fc6 -> fc6
I0920 19:01:16.448081  7571 net.cpp:141] Setting up fc6
I0920 19:01:16.448165  7571 net.cpp:148] Top shape: 30 4096 (122880)
I0920 19:01:16.448182  7571 net.cpp:156] Memory required for data: 242745960
I0920 19:01:16.448207  7571 layer_factory.hpp:77] Creating layer relu6
I0920 19:01:16.448231  7571 net.cpp:91] Creating Layer relu6
I0920 19:01:16.448249  7571 net.cpp:425] relu6 <- fc6
I0920 19:01:16.448269  7571 net.cpp:386] relu6 -> fc6 (in-place)
I0920 19:01:16.448295  7571 net.cpp:141] Setting up relu6
I0920 19:01:16.448312  7571 net.cpp:148] Top shape: 30 4096 (122880)
I0920 19:01:16.448328  7571 net.cpp:156] Memory required for data: 243237480
I0920 19:01:16.448343  7571 layer_factory.hpp:77] Creating layer drop6
I0920 19:01:16.448369  7571 net.cpp:91] Creating Layer drop6
I0920 19:01:16.448385  7571 net.cpp:425] drop6 <- fc6
I0920 19:01:16.448405  7571 net.cpp:386] drop6 -> fc6 (in-place)
I0920 19:01:16.448460  7571 net.cpp:141] Setting up drop6
I0920 19:01:16.448482  7571 net.cpp:148] Top shape: 30 4096 (122880)
I0920 19:01:16.448498  7571 net.cpp:156] Memory required for data: 243729000
I0920 19:01:16.448513  7571 layer_factory.hpp:77] Creating layer fc7
I0920 19:01:16.448535  7571 net.cpp:91] Creating Layer fc7
I0920 19:01:16.448550  7571 net.cpp:425] fc7 <- fc6
I0920 19:01:16.448572  7571 net.cpp:399] fc7 -> fc7
I0920 19:01:17.083696  7571 net.cpp:141] Setting up fc7
I0920 19:01:17.083803  7571 net.cpp:148] Top shape: 30 4096 (122880)
I0920 19:01:17.083820  7571 net.cpp:156] Memory required for data: 244220520
I0920 19:01:17.083850  7571 layer_factory.hpp:77] Creating layer relu7
I0920 19:01:17.083878  7571 net.cpp:91] Creating Layer relu7
I0920 19:01:17.083894  7571 net.cpp:425] relu7 <- fc7
I0920 19:01:17.083914  7571 net.cpp:386] relu7 -> fc7 (in-place)
I0920 19:01:17.083940  7571 net.cpp:141] Setting up relu7
I0920 19:01:17.083957  7571 net.cpp:148] Top shape: 30 4096 (122880)
I0920 19:01:17.083971  7571 net.cpp:156] Memory required for data: 244712040
I0920 19:01:17.083986  7571 layer_factory.hpp:77] Creating layer drop7
I0920 19:01:17.084008  7571 net.cpp:91] Creating Layer drop7
I0920 19:01:17.084024  7571 net.cpp:425] drop7 <- fc7
I0920 19:01:17.084041  7571 net.cpp:386] drop7 -> fc7 (in-place)
I0920 19:01:17.084086  7571 net.cpp:141] Setting up drop7
I0920 19:01:17.084108  7571 net.cpp:148] Top shape: 30 4096 (122880)
I0920 19:01:17.084123  7571 net.cpp:156] Memory required for data: 245203560
I0920 19:01:17.084138  7571 layer_factory.hpp:77] Creating layer fc7_drop7_0_split
I0920 19:01:17.084157  7571 net.cpp:91] Creating Layer fc7_drop7_0_split
I0920 19:01:17.084172  7571 net.cpp:425] fc7_drop7_0_split <- fc7
I0920 19:01:17.084192  7571 net.cpp:399] fc7_drop7_0_split -> fc7_drop7_0_split_0
I0920 19:01:17.084218  7571 net.cpp:399] fc7_drop7_0_split -> fc7_drop7_0_split_1
I0920 19:01:17.084270  7571 net.cpp:141] Setting up fc7_drop7_0_split
I0920 19:01:17.084295  7571 net.cpp:148] Top shape: 30 4096 (122880)
I0920 19:01:17.084311  7571 net.cpp:148] Top shape: 30 4096 (122880)
I0920 19:01:17.084326  7571 net.cpp:156] Memory required for data: 246186600
I0920 19:01:17.084341  7571 layer_factory.hpp:77] Creating layer fc_binary_Color_f48
I0920 19:01:17.084362  7571 net.cpp:91] Creating Layer fc_binary_Color_f48
I0920 19:01:17.084377  7571 net.cpp:425] fc_binary_Color_f48 <- fc7_drop7_0_split_0
I0920 19:01:17.084398  7571 net.cpp:399] fc_binary_Color_f48 -> fc_binary_Color_f48
I0920 19:01:17.092254  7571 net.cpp:141] Setting up fc_binary_Color_f48
I0920 19:01:17.092283  7571 net.cpp:148] Top shape: 30 48 (1440)
I0920 19:01:17.092299  7571 net.cpp:156] Memory required for data: 246192360
I0920 19:01:17.092319  7571 layer_factory.hpp:77] Creating layer fc_classification_Color
I0920 19:01:17.092339  7571 net.cpp:91] Creating Layer fc_classification_Color
I0920 19:01:17.092355  7571 net.cpp:425] fc_classification_Color <- fc7_drop7_0_split_1
I0920 19:01:17.092373  7571 net.cpp:399] fc_classification_Color -> fc_classification_Color
I0920 19:01:17.093688  7571 net.cpp:141] Setting up fc_classification_Color
I0920 19:01:17.093713  7571 net.cpp:148] Top shape: 30 8 (240)
I0920 19:01:17.093729  7571 net.cpp:156] Memory required for data: 246193320
I0920 19:01:17.093755  7571 layer_factory.hpp:77] Creating layer loss_hashing
I0920 19:01:17.093783  7571 net.cpp:91] Creating Layer loss_hashing
I0920 19:01:17.093801  7571 net.cpp:425] loss_hashing <- fc_binary_Color_f48
I0920 19:01:17.093816  7571 net.cpp:425] loss_hashing <- label_data_1_split_0
I0920 19:01:17.093835  7571 net.cpp:399] loss_hashing -> loss_hashing
…
I0920 19:01:17.095692  7571 net.cpp:313] The NetState phase (1) differed from the phase (0) specified by a rule in layer data
I0920 19:01:17.095985  7571 net.cpp:49] Initializing net from parameters: 
name: "docomo_AlexNet"
state {
  phase: TEST
}
layer {
  name: "data"
  type: "Data"
  top: "data"
  top: "label"
  include {
    phase: TEST
  }
  transform_param {
    mirror: false
    crop_size: 224
    mean_value: 103.939
    mean_value: 116.779
    mean_value: 123.68
  }
  data_param {
    source: "COLOR/color_val_lmdb"
    batch_size: 40
    backend: LMDB
  }
}
layer {
  name: "conv1"
  type: "Convolution"
  bottom: "data"
  top: "conv1"
  param {
    lr_mult: 1
    decay_mult: 1
  }
  param {
    lr_mult: 2
    decay_mult: 0
  }
  convolution_param {
    num_output: 96
    kernel_size: 11
    stride: 4
    weight_filler {
      type: "gaussian"
      std: 0.01
    }
    bias_filler {
      type: "constant"
      value: 0
    }
  }
}
layer {
  name: "relu1"
  type: "ReLU"
  bottom: "conv1"
  top: "conv1"
}
layer {
  name: "norm1"
  type: "LRN"
  bottom: "conv1"
  top: "norm1"
  lrn_param {
    local_size: 5
    alpha: 0.0001
    beta: 0.75
  }
}
layer {
  name: "pool1"
  type: "Pooling"
  bottom: "norm1"
  top: "pool1"
  pooling_param {
    pool: MAX
    kernel_size: 3
    stride: 2
  }
}
layer {
  name: "conv2"
  type: "Convolution"
  bottom: "pool1"
  top: "conv2"
  param {
    lr_mult: 1
    decay_mult: 1
  }
  param {
    lr_mult: 2
    decay_mult: 0
  }
  convolution_param {
    num_output: 256
    pad: 2
    kernel_size: 5
    group: 2
    weight_filler {
      type: "gaussian"
      std: 0.01
    }
    bias_filler {
      type: "constant"
      value: 0.1
    }
  }
}
layer {
  name: "relu2"
  type: "ReLU"
  bottom: "conv2"
  top: "conv2"
}
layer {
  name: "norm2"
  type: "LRN"
  bottom: "conv2"
  top: "norm2"
  lrn_param {
    local_size: 5
    alpha: 0.0001
    beta: 0.75
  }
}
layer {
  name: "pool2"
  type: "Pooling"
  bottom: "norm2"
  top: "pool2"
  pooling_param {
    pool: MAX
    kernel_size: 3
    stride: 2
  }
}
layer {
  name: "conv3"
  type: "Convolution"
  bottom: "pool2"
  top: "conv3"
  param {
    lr_mult: 1
    decay_mult: 1
  }
  param {
    lr_mult: 2
    decay_mult: 0
  }
  convolution_param {
    num_output: 384
    pad: 1
    kernel_size: 3
    weight_filler {
      type: "gaussian"
      std: 0.01
    }
    bias_filler {
      type: "constant"
      value: 0
    }
  }
}
layer {
  name: "relu3"
  type: "ReLU"
  bottom: "conv3"
  top: "conv3"
}
layer {
  name: "conv4"
  type: "Convolution"
  bottom: "conv3"
  top: "conv4"
  param {
    lr_mult: 1
    decay_mult: 1
  }
  param {
    lr_mult: 2
    decay_mult: 0
  }
  convolution_param {
    num_output: 384
    pad: 1
    kernel_size: 3
    group: 2
    weight_filler {
      type: "gaussian"
      std: 0.01
    }
    bias_filler {
      type: "constant"
      value: 0.1
    }
  }
}
layer {
  name: "relu4"
  type: "ReLU"
  bottom: "conv4"
  top: "conv4"
}
layer {
  name: "conv5"
  type: "Convolution"
  bottom: "conv4"
  top: "conv5"
  param {
    lr_mult: 1
    decay_mult: 1
  }
  param {
    lr_mult: 2
    decay_mult: 0
  }
  convolution_param {
    num_output: 256
    pad: 1
    kernel_size: 3
    group: 2
    weight_filler {
      type: "gaussian"
      std: 0.01
    }
    bias_filler {
      type: "constant"
      value: 0.1
    }
  }
}
layer {
  name: "relu5"
  type: "ReLU"
  bottom: "conv5"
  top: "conv5"
}
layer {
  name: "pool5"
  type: "Pooling"
  bottom: "conv5"
  top: "pool5"
  pooling_param {
    pool: MAX
    kernel_size: 3
    stride: 2
  }
}
layer {
  name: "fc6"
  type: "InnerProduct"
  bottom: "pool5"
  top: "fc6"
  param {
    lr_mult: 1
    decay_mult: 1
  }
  param {
    lr_mult: 2
    decay_mult: 0
  }
  inner_product_param {
    num_output: 4096
    weight_filler {
      type: "gaussian"
      std: 0.005
    }
    bias_filler {
      type: "constant"
      value: 0.1
    }
  }
}
layer {
  name: "relu6"
  type: "ReLU"
  bottom: "fc6"
  top: "fc6"
}
layer {
  name: "drop6"
  type: "Dropout"
  bottom: "fc6"
  top: "fc6"
  dropout_param {
    dropout_ratio: 0.5
  }
}
layer {
  name: "fc7"
  type: "InnerProduct"
  bottom: "fc6"
  top: "fc7"
  param {
    lr_mult: 1
    decay_mult: 1
  }
  param {
    lr_mult: 2
    decay_mult: 0
  }
  inner_product_param {
    num_output: 4096
    weight_filler {
      type: "gaussian"
      std: 0.005
    }
    bias_filler {
      type: "constant"
      value: 0.1
    }
  }
}
layer {
  name: "relu7"
  type: "ReLU"
  bottom: "fc7"
  top: "fc7"
}
layer {
  name: "drop7"
  type: "Dropout"
  bottom: "fc7"
  top: "fc7"
  dropout_param {
    dropout_ratio: 0.5
  }
}
layer {
  name: "fc_binary_Color_f48"
  type: "InnerProduct"
  bottom: "fc7"
  top: "fc_binary_Color_f48"
  param {
    lr_mult: 200
    decay_mult: 1
  }
  param {
    lr_mult: 400
    decay_mult: 0
  }
  inner_product_param {
    num_output: 48
    weight_filler {
      type: "gaussian"
      std: 0.005
    }
    bias_filler {
      type: "constant"
      value: 0.1
    }
  }
}
layer {
  name: "fc_classification_Color"
  type: "InnerProduct"
  bottom: "fc7"
  top: "fc_classification_Color"
  param {
    lr_mult: 1
    decay_mult: 1
  }
  param {
    lr_mult: 2
    decay_mult: 0
  }
  inner_product_param {
    num_output: 8
    weight_filler {
      type: "gaussian"
      std: 0.05
    }
    bias_filler {
      type: "constant"
      value: 0.1
    }
  }
}
layer {
  name: "accuracy_at_1_Color"
  type: "Accuracy"
  bottom: "fc_classification_Color"
  bottom: "label"
  top: "accuracy_at_1_Color"
  include {
    phase: TEST
  }
}
layer {
  name: "loss_hashing"
  type: "HashingLoss"
  bottom: "fc_binary_Color_f48"
  bottom: "label"
  top: "loss_hashing"
  loss_weight: 0.1
  hashing_loss_param {
    bi_margin: 96
    tradeoff: 0.01
  }
}
layer {
  name: "loss"
  type: "SoftmaxWithLoss"
  bottom: "fc_classification_Color"
  bottom: "label"
  top: "loss"
}
I0920 19:01:17.097676  7571 layer_factory.hpp:77] Creating layer data
I0920 19:01:17.097807  7571 net.cpp:91] Creating Layer data
I0920 19:01:17.097834  7571 net.cpp:399] data -> data
I0920 19:01:17.097859  7571 net.cpp:399] data -> label
I0920 19:01:17.098975  7579 db_lmdb.cpp:38] Opened lmdb COLOR/color_val_lmdb
I0920 19:01:17.099365  7571 data_layer.cpp:41] output data size: 40,3,224,224
I0920 19:01:17.147584  7571 net.cpp:141] Setting up data
I0920 19:01:17.147660  7571 net.cpp:148] Top shape: 40 3 224 224 (6021120)
I0920 19:01:17.147680  7571 net.cpp:148] Top shape: 40 1 1 1 (40)
I0920 19:01:17.147696  7571 net.cpp:156] Memory required for data: 24084640
I0920 19:01:17.147714  7571 layer_factory.hpp:77] Creating layer label_data_1_split
I0920 19:01:17.147749  7571 net.cpp:91] Creating Layer label_data_1_split
I0920 19:01:17.147768  7571 net.cpp:425] label_data_1_split <- label
I0920 19:01:17.147789  7571 net.cpp:399] label_data_1_split -> label_data_1_split_0
I0920 19:01:17.147816  7571 net.cpp:399] label_data_1_split -> label_data_1_split_1
I0920 19:01:17.147840  7571 net.cpp:399] label_data_1_split -> label_data_1_split_2
I0920 19:01:17.147933  7571 net.cpp:141] Setting up label_data_1_split
I0920 19:01:17.147958  7571 net.cpp:148] Top shape: 40 1 1 1 (40)
I0920 19:01:17.147976  7571 net.cpp:148] Top shape: 40 1 1 1 (40)
I0920 19:01:17.147994  7571 net.cpp:148] Top shape: 40 1 1 1 (40)
I0920 19:01:17.148010  7571 net.cpp:156] Memory required for data: 24085120
I0920 19:01:17.148025  7571 layer_factory.hpp:77] Creating layer conv1
I0920 19:01:17.148059  7571 net.cpp:91] Creating Layer conv1
I0920 19:01:17.148077  7571 net.cpp:425] conv1 <- data
I0920 19:01:17.148119  7571 net.cpp:399] conv1 -> conv1
I0920 19:01:17.150689  7571 net.cpp:141] Setting up conv1
I0920 19:01:17.150718  7571 net.cpp:148] Top shape: 40 96 54 54 (11197440)
I0920 19:01:17.150734  7571 net.cpp:156] Memory required for data: 68874880
I0920 19:01:17.150760  7571 layer_factory.hpp:77] Creating layer relu1
I0920 19:01:17.150781  7571 net.cpp:91] Creating Layer relu1
I0920 19:01:17.150797  7571 net.cpp:425] relu1 <- conv1
I0920 19:01:17.150815  7571 net.cpp:386] relu1 -> conv1 (in-place)
I0920 19:01:17.150835  7571 net.cpp:141] Setting up relu1
I0920 19:01:17.150852  7571 net.cpp:148] Top shape: 40 96 54 54 (11197440)
I0920 19:01:17.150867  7571 net.cpp:156] Memory required for data: 113664640
I0920 19:01:17.150883  7571 layer_factory.hpp:77] Creating layer norm1
I0920 19:01:17.150909  7571 net.cpp:91] Creating Layer norm1
I0920 19:01:17.150926  7571 net.cpp:425] norm1 <- conv1
I0920 19:01:17.150948  7571 net.cpp:399] norm1 -> norm1
I0920 19:01:17.151006  7571 net.cpp:141] Setting up norm1
I0920 19:01:17.151031  7571 net.cpp:148] Top shape: 40 96 54 54 (11197440)
I0920 19:01:17.151046  7571 net.cpp:156] Memory required for data: 158454400
I0920 19:01:17.151062  7571 layer_factory.hpp:77] Creating layer pool1
I0920 19:01:17.151087  7571 net.cpp:91] Creating Layer pool1
I0920 19:01:17.151103  7571 net.cpp:425] pool1 <- norm1
I0920 19:01:17.151120  7571 net.cpp:399] pool1 -> pool1
I0920 19:01:17.151180  7571 net.cpp:141] Setting up pool1
I0920 19:01:17.151203  7571 net.cpp:148] Top shape: 40 96 27 27 (2799360)
I0920 19:01:17.151218  7571 net.cpp:156] Memory required for data: 169651840
I0920 19:01:17.151233  7571 layer_factory.hpp:77] Creating layer conv2
I0920 19:01:17.151259  7571 net.cpp:91] Creating Layer conv2
I0920 19:01:17.151276  7571 net.cpp:425] conv2 <- pool1
I0920 19:01:17.151298  7571 net.cpp:399] conv2 -> conv2
I0920 19:01:17.163805  7571 net.cpp:141] Setting up conv2
I0920 19:01:17.163864  7571 net.cpp:148] Top shape: 40 256 27 27 (7464960)
I0920 19:01:17.163880  7571 net.cpp:156] Memory required for data: 199511680
I0920 19:01:17.163913  7571 layer_factory.hpp:77] Creating layer relu2
I0920 19:01:17.163974  7571 net.cpp:91] Creating Layer relu2
I0920 19:01:17.163993  7571 net.cpp:425] relu2 <- conv2
I0920 19:01:17.164017  7571 net.cpp:386] relu2 -> conv2 (in-place)
I0920 19:01:17.164043  7571 net.cpp:141] Setting up relu2
I0920 19:01:17.164062  7571 net.cpp:148] Top shape: 40 256 27 27 (7464960)
I0920 19:01:17.164077  7571 net.cpp:156] Memory required for data: 229371520
I0920 19:01:17.164093  7571 layer_factory.hpp:77] Creating layer norm2
I0920 19:01:17.164116  7571 net.cpp:91] Creating Layer norm2
I0920 19:01:17.164132  7571 net.cpp:425] norm2 <- conv2
I0920 19:01:17.164153  7571 net.cpp:399] norm2 -> norm2
I0920 19:01:17.164214  7571 net.cpp:141] Setting up norm2
I0920 19:01:17.164238  7571 net.cpp:148] Top shape: 40 256 27 27 (7464960)
I0920 19:01:17.164254  7571 net.cpp:156] Memory required for data: 259231360
I0920 19:01:17.164270  7571 layer_factory.hpp:77] Creating layer pool2
I0920 19:01:17.164294  7571 net.cpp:91] Creating Layer pool2
I0920 19:01:17.164309  7571 net.cpp:425] pool2 <- norm2
I0920 19:01:17.164327  7571 net.cpp:399] pool2 -> pool2
I0920 19:01:17.164386  7571 net.cpp:141] Setting up pool2
I0920 19:01:17.164410  7571 net.cpp:148] Top shape: 40 256 13 13 (1730560)
I0920 19:01:17.164425  7571 net.cpp:156] Memory required for data: 266153600
I0920 19:01:17.164441  7571 layer_factory.hpp:77] Creating layer conv3
I0920 19:01:17.164470  7571 net.cpp:91] Creating Layer conv3
I0920 19:01:17.164487  7571 net.cpp:425] conv3 <- pool2
I0920 19:01:17.164510  7571 net.cpp:399] conv3 -> conv3
I0920 19:01:17.198974  7571 net.cpp:141] Setting up conv3
I0920 19:01:17.199035  7571 net.cpp:148] Top shape: 40 384 13 13 (2595840)
I0920 19:01:17.199051  7571 net.cpp:156] Memory required for data: 276536960
I0920 19:01:17.199086  7571 layer_factory.hpp:77] Creating layer relu3
I0920 19:01:17.199115  7571 net.cpp:91] Creating Layer relu3
I0920 19:01:17.199133  7571 net.cpp:425] relu3 <- conv3
I0920 19:01:17.199152  7571 net.cpp:386] relu3 -> conv3 (in-place)
I0920 19:01:17.199177  7571 net.cpp:141] Setting up relu3
I0920 19:01:17.199194  7571 net.cpp:148] Top shape: 40 384 13 13 (2595840)
I0920 19:01:17.199209  7571 net.cpp:156] Memory required for data: 286920320
I0920 19:01:17.199224  7571 layer_factory.hpp:77] Creating layer conv4
I0920 19:01:17.199251  7571 net.cpp:91] Creating Layer conv4
I0920 19:01:17.199267  7571 net.cpp:425] conv4 <- conv3
I0920 19:01:17.199290  7571 net.cpp:399] conv4 -> conv4
I0920 19:01:17.224952  7571 net.cpp:141] Setting up conv4
I0920 19:01:17.224982  7571 net.cpp:148] Top shape: 40 384 13 13 (2595840)
I0920 19:01:17.224998  7571 net.cpp:156] Memory required for data: 297303680
I0920 19:01:17.225018  7571 layer_factory.hpp:77] Creating layer relu4
I0920 19:01:17.225044  7571 net.cpp:91] Creating Layer relu4
I0920 19:01:17.225059  7571 net.cpp:425] relu4 <- conv4
I0920 19:01:17.225076  7571 net.cpp:386] relu4 -> conv4 (in-place)
I0920 19:01:17.225095  7571 net.cpp:141] Setting up relu4
I0920 19:01:17.225113  7571 net.cpp:148] Top shape: 40 384 13 13 (2595840)
I0920 19:01:17.225145  7571 net.cpp:156] Memory required for data: 307687040
I0920 19:01:17.225160  7571 layer_factory.hpp:77] Creating layer conv5
I0920 19:01:17.225188  7571 net.cpp:91] Creating Layer conv5
I0920 19:01:17.225204  7571 net.cpp:425] conv5 <- conv4
I0920 19:01:17.225226  7571 net.cpp:399] conv5 -> conv5
I0920 19:01:17.242375  7571 net.cpp:141] Setting up conv5
I0920 19:01:17.242409  7571 net.cpp:148] Top shape: 40 256 13 13 (1730560)
I0920 19:01:17.242426  7571 net.cpp:156] Memory required for data: 314609280
I0920 19:01:17.242449  7571 layer_factory.hpp:77] Creating layer relu5
I0920 19:01:17.242471  7571 net.cpp:91] Creating Layer relu5
I0920 19:01:17.242487  7571 net.cpp:425] relu5 <- conv5
I0920 19:01:17.242504  7571 net.cpp:386] relu5 -> conv5 (in-place)
I0920 19:01:17.242523  7571 net.cpp:141] Setting up relu5
I0920 19:01:17.242540  7571 net.cpp:148] Top shape: 40 256 13 13 (1730560)
I0920 19:01:17.242555  7571 net.cpp:156] Memory required for data: 321531520
I0920 19:01:17.242611  7571 layer_factory.hpp:77] Creating layer pool5
I0920 19:01:17.242640  7571 net.cpp:91] Creating Layer pool5
I0920 19:01:17.242657  7571 net.cpp:425] pool5 <- conv5
I0920 19:01:17.242676  7571 net.cpp:399] pool5 -> pool5
I0920 19:01:17.242751  7571 net.cpp:141] Setting up pool5
I0920 19:01:17.242774  7571 net.cpp:148] Top shape: 40 256 6 6 (368640)
I0920 19:01:17.242789  7571 net.cpp:156] Memory required for data: 323006080
I0920 19:01:17.242804  7571 layer_factory.hpp:77] Creating layer fc6
I0920 19:01:17.242827  7571 net.cpp:91] Creating Layer fc6
I0920 19:01:17.242844  7571 net.cpp:425] fc6 <- pool5
I0920 19:01:17.242862  7571 net.cpp:399] fc6 -> fc6
I0920 19:01:18.670469  7571 net.cpp:141] Setting up fc6
I0920 19:01:18.670558  7571 net.cpp:148] Top shape: 40 4096 (163840)
I0920 19:01:18.670575  7571 net.cpp:156] Memory required for data: 323661440
I0920 19:01:18.670609  7571 layer_factory.hpp:77] Creating layer relu6
I0920 19:01:18.670642  7571 net.cpp:91] Creating Layer relu6
I0920 19:01:18.670665  7571 net.cpp:425] relu6 <- fc6
I0920 19:01:18.670689  7571 net.cpp:386] relu6 -> fc6 (in-place)
I0920 19:01:18.670717  7571 net.cpp:141] Setting up relu6
I0920 19:01:18.670734  7571 net.cpp:148] Top shape: 40 4096 (163840)
I0920 19:01:18.670748  7571 net.cpp:156] Memory required for data: 324316800
I0920 19:01:18.670765  7571 layer_factory.hpp:77] Creating layer drop6
I0920 19:01:18.670786  7571 net.cpp:91] Creating Layer drop6
I0920 19:01:18.670802  7571 net.cpp:425] drop6 <- fc6
I0920 19:01:18.670819  7571 net.cpp:386] drop6 -> fc6 (in-place)
I0920 19:01:18.670879  7571 net.cpp:141] Setting up drop6
I0920 19:01:18.670902  7571 net.cpp:148] Top shape: 40 4096 (163840)
I0920 19:01:18.670917  7571 net.cpp:156] Memory required for data: 324972160
I0920 19:01:18.670933  7571 layer_factory.hpp:77] Creating layer fc7
I0920 19:01:18.670956  7571 net.cpp:91] Creating Layer fc7
I0920 19:01:18.670972  7571 net.cpp:425] fc7 <- fc6
I0920 19:01:18.670990  7571 net.cpp:399] fc7 -> fc7
I0920 19:01:19.306067  7571 net.cpp:141] Setting up fc7
I0920 19:01:19.306136  7571 net.cpp:148] Top shape: 40 4096 (163840)
I0920 19:01:19.306154  7571 net.cpp:156] Memory required for data: 325627520
I0920 19:01:19.306181  7571 layer_factory.hpp:77] Creating layer relu7
I0920 19:01:19.306211  7571 net.cpp:91] Creating Layer relu7
I0920 19:01:19.306229  7571 net.cpp:425] relu7 <- fc7
I0920 19:01:19.306251  7571 net.cpp:386] relu7 -> fc7 (in-place)
I0920 19:01:19.306275  7571 net.cpp:141] Setting up relu7
I0920 19:01:19.306293  7571 net.cpp:148] Top shape: 40 4096 (163840)
I0920 19:01:19.306308  7571 net.cpp:156] Memory required for data: 326282880
I0920 19:01:19.306322  7571 layer_factory.hpp:77] Creating layer drop7
I0920 19:01:19.306341  7571 net.cpp:91] Creating Layer drop7
I0920 19:01:19.306360  7571 net.cpp:425] drop7 <- fc7
I0920 19:01:19.306378  7571 net.cpp:386] drop7 -> fc7 (in-place)
I0920 19:01:19.306422  7571 net.cpp:141] Setting up drop7
I0920 19:01:19.306444  7571 net.cpp:148] Top shape: 40 4096 (163840)
I0920 19:01:19.306460  7571 net.cpp:156] Memory required for data: 326938240
I0920 19:01:19.306476  7571 layer_factory.hpp:77] Creating layer fc7_drop7_0_split
I0920 19:01:19.306499  7571 net.cpp:91] Creating Layer fc7_drop7_0_split
I0920 19:01:19.306514  7571 net.cpp:425] fc7_drop7_0_split <- fc7
I0920 19:01:19.306531  7571 net.cpp:399] fc7_drop7_0_split -> fc7_drop7_0_split_0
I0920 19:01:19.306552  7571 net.cpp:399] fc7_drop7_0_split -> fc7_drop7_0_split_1
I0920 19:01:19.306607  7571 net.cpp:141] Setting up fc7_drop7_0_split
I0920 19:01:19.306630  7571 net.cpp:148] Top shape: 40 4096 (163840)
I0920 19:01:19.306646  7571 net.cpp:148] Top shape: 40 4096 (163840)
I0920 19:01:19.306660  7571 net.cpp:156] Memory required for data: 328248960
I0920 19:01:19.306675  7571 layer_factory.hpp:77] Creating layer fc_binary_Color_f48
I0920 19:01:19.306701  7571 net.cpp:91] Creating Layer fc_binary_Color_f48
I0920 19:01:19.306716  7571 net.cpp:425] fc_binary_Color_f48 <- fc7_drop7_0_split_0
I0920 19:01:19.306738  7571 net.cpp:399] fc_binary_Color_f48 -> fc_binary_Color_f48
I0920 19:01:19.314657  7571 net.cpp:141] Setting up fc_binary_Color_f48
I0920 19:01:19.314687  7571 net.cpp:148] Top shape: 40 48 (1920)
I0920 19:01:19.314702  7571 net.cpp:156] Memory required for data: 328256640
I0920 19:01:19.314721  7571 layer_factory.hpp:77] Creating layer fc_classification_Color
I0920 19:01:19.314745  7571 net.cpp:91] Creating Layer fc_classification_Color
I0920 19:01:19.314761  7571 net.cpp:425] fc_classification_Color <- fc7_drop7_0_split_1
I0920 19:01:19.314779  7571 net.cpp:399] fc_classification_Color -> fc_classification_Color
I0920 19:01:19.316109  7571 net.cpp:141] Setting up fc_classification_Color
I0920 19:01:19.316134  7571 net.cpp:148] Top shape: 40 8 (320)
I0920 19:01:19.316150  7571 net.cpp:156] Memory required for data: 328257920
I0920 19:01:19.316180  7571 layer_factory.hpp:77] Creating layer fc_classification_Color_fc_classification_Color_0_split
I0920 19:01:19.316203  7571 net.cpp:91] Creating Layer fc_classification_Color_fc_classification_Color_0_split
I0920 19:01:19.316220  7571 net.cpp:425] fc_classification_Color_fc_classification_Color_0_split <- fc_classification_Color
I0920 19:01:19.316237  7571 net.cpp:399] fc_classification_Color_fc_classification_Color_0_split -> fc_classification_Color_fc_classification_Color_0_split_0
I0920 19:01:19.316257  7571 net.cpp:399] fc_classification_Color_fc_classification_Color_0_split -> fc_classification_Color_fc_classification_Color_0_split_1
I0920 19:01:19.316313  7571 net.cpp:141] Setting up fc_classification_Color_fc_classification_Color_0_split
I0920 19:01:19.316336  7571 net.cpp:148] Top shape: 40 8 (320)
I0920 19:01:19.316352  7571 net.cpp:148] Top shape: 40 8 (320)
I0920 19:01:19.316366  7571 net.cpp:156] Memory required for data: 328260480
I0920 19:01:19.316381  7571 layer_factory.hpp:77] Creating layer accuracy_at_1_Color
I0920 19:01:19.316409  7571 net.cpp:91] Creating Layer accuracy_at_1_Color
I0920 19:01:19.316426  7571 net.cpp:425] accuracy_at_1_Color <- fc_classification_Color_fc_classification_Color_0_split_0
I0920 19:01:19.316442  7571 net.cpp:425] accuracy_at_1_Color <- label_data_1_split_0
…
