…
I0918 18:08:55.926961 24660 net.cpp:313] The NetState phase (0) differed from the phase (1) specified by a rule in layer accuracy_at_1_Color
I0918 18:08:55.927235 24660 net.cpp:49] Initializing net from parameters: 
name: "docomo_AlexNet"
state {
  phase: TRAIN
}
layer {
  name: "data"
  type: "Data"
  top: "data"
  top: "label"
  include {
    phase: TRAIN
  }
  transform_param {
    mirror: true
    crop_size: 224
    mean_value: 103.939
    mean_value: 116.779
    mean_value: 123.68
  }
  data_param {
    source: "COLOR/color_train_lmdb"
    batch_size: 30
    backend: LMDB
  }
}
layer {
  name: "conv1"
  type: "Convolution"
  bottom: "data"
  top: "conv1"
  param {
    lr_mult: 1
    decay_mult: 1
  }
  param {
    lr_mult: 2
    decay_mult: 0
  }
  convolution_param {
    num_output: 96
    kernel_size: 11
    stride: 4
    weight_filler {
      type: "gaussian"
      std: 0.01
    }
    bias_filler {
      type: "constant"
      value: 0
    }
  }
}
layer {
  name: "relu1"
  type: "ReLU"
  bottom: "conv1"
  top: "conv1"
}
layer {
  name: "norm1"
  type: "LRN"
  bottom: "conv1"
  top: "norm1"
  lrn_param {
    local_size: 5
    alpha: 0.0001
    beta: 0.75
  }
}
layer {
  name: "pool1"
  type: "Pooling"
  bottom: "norm1"
  top: "pool1"
  pooling_param {
    pool: MAX
    kernel_size: 3
    stride: 2
  }
}
layer {
  name: "conv2"
  type: "Convolution"
  bottom: "pool1"
  top: "conv2"
  param {
    lr_mult: 1
    decay_mult: 1
  }
  param {
    lr_mult: 2
    decay_mult: 0
  }
  convolution_param {
    num_output: 256
    pad: 2
    kernel_size: 5
    group: 2
    weight_filler {
      type: "gaussian"
      std: 0.01
    }
    bias_filler {
      type: "constant"
      value: 0.1
    }
  }
}
layer {
  name: "relu2"
  type: "ReLU"
  bottom: "conv2"
  top: "conv2"
}
layer {
  name: "norm2"
  type: "LRN"
  bottom: "conv2"
  top: "norm2"
  lrn_param {
    local_size: 5
    alpha: 0.0001
    beta: 0.75
  }
}
layer {
  name: "pool2"
  type: "Pooling"
  bottom: "norm2"
  top: "pool2"
  pooling_param {
    pool: MAX
    kernel_size: 3
    stride: 2
  }
}
layer {
  name: "conv3"
  type: "Convolution"
  bottom: "pool2"
  top: "conv3"
  param {
    lr_mult: 1
    decay_mult: 1
  }
  param {
    lr_mult: 2
    decay_mult: 0
  }
  convolution_param {
    num_output: 384
    pad: 1
    kernel_size: 3
    weight_filler {
      type: "gaussian"
      std: 0.01
    }
    bias_filler {
      type: "constant"
      value: 0
    }
  }
}
layer {
  name: "relu3"
  type: "ReLU"
  bottom: "conv3"
  top: "conv3"
}
layer {
  name: "conv4"
  type: "Convolution"
  bottom: "conv3"
  top: "conv4"
  param {
    lr_mult: 1
    decay_mult: 1
  }
  param {
    lr_mult: 2
    decay_mult: 0
  }
  convolution_param {
    num_output: 384
    pad: 1
    kernel_size: 3
    group: 2
    weight_filler {
      type: "gaussian"
      std: 0.01
    }
    bias_filler {
      type: "constant"
      value: 0.1
    }
  }
}
layer {
  name: "relu4"
  type: "ReLU"
  bottom: "conv4"
  top: "conv4"
}
layer {
  name: "conv5"
  type: "Convolution"
  bottom: "conv4"
  top: "conv5"
  param {
    lr_mult: 1
    decay_mult: 1
  }
  param {
    lr_mult: 2
    decay_mult: 0
  }
  convolution_param {
    num_output: 256
    pad: 1
    kernel_size: 3
    group: 2
    weight_filler {
      type: "gaussian"
      std: 0.01
    }
    bias_filler {
      type: "constant"
      value: 0.1
    }
  }
}
layer {
  name: "relu5"
  type: "ReLU"
  bottom: "conv5"
  top: "conv5"
}
layer {
  name: "pool5"
  type: "Pooling"
  bottom: "conv5"
  top: "pool5"
  pooling_param {
    pool: MAX
    kernel_size: 3
    stride: 2
  }
}
layer {
  name: "fc6"
  type: "InnerProduct"
  bottom: "pool5"
  top: "fc6"
  param {
    lr_mult: 1
    decay_mult: 1
  }
  param {
    lr_mult: 2
    decay_mult: 0
  }
  inner_product_param {
    num_output: 4096
    weight_filler {
      type: "gaussian"
      std: 0.005
    }
    bias_filler {
      type: "constant"
      value: 0.1
    }
  }
}
layer {
  name: "relu6"
  type: "ReLU"
  bottom: "fc6"
  top: "fc6"
}
layer {
  name: "drop6"
  type: "Dropout"
  bottom: "fc6"
  top: "fc6"
  dropout_param {
    dropout_ratio: 0.5
  }
}
layer {
  name: "fc7"
  type: "InnerProduct"
  bottom: "fc6"
  top: "fc7"
  param {
    lr_mult: 1
    decay_mult: 1
  }
  param {
    lr_mult: 2
    decay_mult: 0
  }
  inner_product_param {
    num_output: 4096
    weight_filler {
      type: "gaussian"
      std: 0.005
    }
    bias_filler {
      type: "constant"
      value: 0.1
    }
  }
}
layer {
  name: "relu7"
  type: "ReLU"
  bottom: "fc7"
  top: "fc7"
}
layer {
  name: "drop7"
  type: "Dropout"
  bottom: "fc7"
  top: "fc7"
  dropout_param {
    dropout_ratio: 0.5
  }
}
layer {
  name: "fc_binary_Color_f24"
  type: "InnerProduct"
  bottom: "fc7"
  top: "fc_binary_Color_f24"
  param {
    lr_mult: 10
    decay_mult: 1
  }
  param {
    lr_mult: 20
    decay_mult: 0
  }
  inner_product_param {
    num_output: 24
    weight_filler {
      type: "gaussian"
      std: 0.005
    }
    bias_filler {
      type: "constant"
      value: 0.1
    }
  }
}
layer {
  name: "fc_classification_Color"
  type: "InnerProduct"
  bottom: "fc7"
  top: "fc_classification_Color"
  param {
    lr_mult: 5
    decay_mult: 1
  }
  param {
    lr_mult: 10
    decay_mult: 0
  }
  inner_product_param {
    num_output: 8
    weight_filler {
      type: "gaussian"
      std: 0.05
    }
    bias_filler {
      type: "constant"
      value: 0.1
    }
  }
}
layer {
  name: "loss_hashing"
  type: "HashingLoss"
  bottom: "fc_binary_Color_f24"
  bottom: "label"
  top: "loss_hashing"
  loss_weight: 0.4
  hashing_loss_param {
    bi_margin: 48
    tradeoff: 0.01
  }
}
layer {
  name: "loss"
  type: "SoftmaxWithLoss"
  bottom: "fc_classification_Color"
  bottom: "label"
  top: "loss"
}
I0918 18:08:55.930023 24660 layer_factory.hpp:77] Creating layer data
I0918 18:08:55.930672 24660 net.cpp:91] Creating Layer data
I0918 18:08:55.930713 24660 net.cpp:399] data -> data
I0918 18:08:55.930776 24660 net.cpp:399] data -> label
I0918 18:08:55.931655 24665 db_lmdb.cpp:38] Opened lmdb COLOR/color_train_lmdb
I0918 18:08:55.990995 24660 data_layer.cpp:41] output data size: 30,3,224,224
I0918 18:08:56.035121 24660 net.cpp:141] Setting up data
I0918 18:08:56.035215 24660 net.cpp:148] Top shape: 30 3 224 224 (4515840)
I0918 18:08:56.035251 24660 net.cpp:148] Top shape: 30 1 1 1 (30)
I0918 18:08:56.035279 24660 net.cpp:156] Memory required for data: 18063480
I0918 18:08:56.035315 24660 layer_factory.hpp:77] Creating layer label_data_1_split
I0918 18:08:56.035357 24660 net.cpp:91] Creating Layer label_data_1_split
I0918 18:08:56.035388 24660 net.cpp:425] label_data_1_split <- label
I0918 18:08:56.035434 24660 net.cpp:399] label_data_1_split -> label_data_1_split_0
I0918 18:08:56.035473 24660 net.cpp:399] label_data_1_split -> label_data_1_split_1
I0918 18:08:56.035558 24660 net.cpp:141] Setting up label_data_1_split
I0918 18:08:56.035589 24660 net.cpp:148] Top shape: 30 1 1 1 (30)
I0918 18:08:56.035617 24660 net.cpp:148] Top shape: 30 1 1 1 (30)
I0918 18:08:56.035641 24660 net.cpp:156] Memory required for data: 18063720
I0918 18:08:56.035666 24660 layer_factory.hpp:77] Creating layer conv1
I0918 18:08:56.035719 24660 net.cpp:91] Creating Layer conv1
I0918 18:08:56.035743 24660 net.cpp:425] conv1 <- data
I0918 18:08:56.035779 24660 net.cpp:399] conv1 -> conv1
I0918 18:08:56.038938 24660 net.cpp:141] Setting up conv1
I0918 18:08:56.038976 24660 net.cpp:148] Top shape: 30 96 54 54 (8398080)
I0918 18:08:56.039041 24660 net.cpp:156] Memory required for data: 51656040
I0918 18:08:56.039094 24660 layer_factory.hpp:77] Creating layer relu1
I0918 18:08:56.039127 24660 net.cpp:91] Creating Layer relu1
I0918 18:08:56.039152 24660 net.cpp:425] relu1 <- conv1
I0918 18:08:56.039186 24660 net.cpp:386] relu1 -> conv1 (in-place)
I0918 18:08:56.039221 24660 net.cpp:141] Setting up relu1
I0918 18:08:56.039247 24660 net.cpp:148] Top shape: 30 96 54 54 (8398080)
I0918 18:08:56.039270 24660 net.cpp:156] Memory required for data: 85248360
I0918 18:08:56.039295 24660 layer_factory.hpp:77] Creating layer norm1
I0918 18:08:56.039330 24660 net.cpp:91] Creating Layer norm1
I0918 18:08:56.039352 24660 net.cpp:425] norm1 <- conv1
I0918 18:08:56.039381 24660 net.cpp:399] norm1 -> norm1
I0918 18:08:56.039459 24660 net.cpp:141] Setting up norm1
I0918 18:08:56.039489 24660 net.cpp:148] Top shape: 30 96 54 54 (8398080)
I0918 18:08:56.039515 24660 net.cpp:156] Memory required for data: 118840680
I0918 18:08:56.039538 24660 layer_factory.hpp:77] Creating layer pool1
I0918 18:08:56.039572 24660 net.cpp:91] Creating Layer pool1
I0918 18:08:56.039595 24660 net.cpp:425] pool1 <- norm1
I0918 18:08:56.039625 24660 net.cpp:399] pool1 -> pool1
I0918 18:08:56.039707 24660 net.cpp:141] Setting up pool1
I0918 18:08:56.039737 24660 net.cpp:148] Top shape: 30 96 27 27 (2099520)
I0918 18:08:56.039763 24660 net.cpp:156] Memory required for data: 127238760
I0918 18:08:56.039788 24660 layer_factory.hpp:77] Creating layer conv2
I0918 18:08:56.039829 24660 net.cpp:91] Creating Layer conv2
I0918 18:08:56.039852 24660 net.cpp:425] conv2 <- pool1
I0918 18:08:56.039885 24660 net.cpp:399] conv2 -> conv2
I0918 18:08:56.053048 24660 net.cpp:141] Setting up conv2
I0918 18:08:56.053109 24660 net.cpp:148] Top shape: 30 256 27 27 (5598720)
I0918 18:08:56.053150 24660 net.cpp:156] Memory required for data: 149633640
I0918 18:08:56.053195 24660 layer_factory.hpp:77] Creating layer relu2
I0918 18:08:56.053232 24660 net.cpp:91] Creating Layer relu2
I0918 18:08:56.053259 24660 net.cpp:425] relu2 <- conv2
I0918 18:08:56.053292 24660 net.cpp:386] relu2 -> conv2 (in-place)
I0918 18:08:56.053325 24660 net.cpp:141] Setting up relu2
I0918 18:08:56.053352 24660 net.cpp:148] Top shape: 30 256 27 27 (5598720)
I0918 18:08:56.053376 24660 net.cpp:156] Memory required for data: 172028520
I0918 18:08:56.053401 24660 layer_factory.hpp:77] Creating layer norm2
I0918 18:08:56.053439 24660 net.cpp:91] Creating Layer norm2
I0918 18:08:56.053464 24660 net.cpp:425] norm2 <- conv2
I0918 18:08:56.053493 24660 net.cpp:399] norm2 -> norm2
I0918 18:08:56.053567 24660 net.cpp:141] Setting up norm2
I0918 18:08:56.053597 24660 net.cpp:148] Top shape: 30 256 27 27 (5598720)
I0918 18:08:56.053630 24660 net.cpp:156] Memory required for data: 194423400
I0918 18:08:56.053663 24660 layer_factory.hpp:77] Creating layer pool2
I0918 18:08:56.053696 24660 net.cpp:91] Creating Layer pool2
I0918 18:08:56.053722 24660 net.cpp:425] pool2 <- norm2
I0918 18:08:56.053761 24660 net.cpp:399] pool2 -> pool2
I0918 18:08:56.053833 24660 net.cpp:141] Setting up pool2
I0918 18:08:56.053864 24660 net.cpp:148] Top shape: 30 256 13 13 (1297920)
I0918 18:08:56.053889 24660 net.cpp:156] Memory required for data: 199615080
I0918 18:08:56.053912 24660 layer_factory.hpp:77] Creating layer conv3
I0918 18:08:56.053953 24660 net.cpp:91] Creating Layer conv3
I0918 18:08:56.053982 24660 net.cpp:425] conv3 <- pool2
I0918 18:08:56.054013 24660 net.cpp:399] conv3 -> conv3
I0918 18:08:56.089110 24660 net.cpp:141] Setting up conv3
I0918 18:08:56.089179 24660 net.cpp:148] Top shape: 30 384 13 13 (1946880)
I0918 18:08:56.089203 24660 net.cpp:156] Memory required for data: 207402600
I0918 18:08:56.089252 24660 layer_factory.hpp:77] Creating layer relu3
I0918 18:08:56.089290 24660 net.cpp:91] Creating Layer relu3
I0918 18:08:56.089316 24660 net.cpp:425] relu3 <- conv3
I0918 18:08:56.089349 24660 net.cpp:386] relu3 -> conv3 (in-place)
I0918 18:08:56.089385 24660 net.cpp:141] Setting up relu3
I0918 18:08:56.089452 24660 net.cpp:148] Top shape: 30 384 13 13 (1946880)
I0918 18:08:56.089478 24660 net.cpp:156] Memory required for data: 215190120
I0918 18:08:56.089504 24660 layer_factory.hpp:77] Creating layer conv4
I0918 18:08:56.089550 24660 net.cpp:91] Creating Layer conv4
I0918 18:08:56.089576 24660 net.cpp:425] conv4 <- conv3
I0918 18:08:56.089607 24660 net.cpp:399] conv4 -> conv4
I0918 18:08:56.116094 24660 net.cpp:141] Setting up conv4
I0918 18:08:56.116161 24660 net.cpp:148] Top shape: 30 384 13 13 (1946880)
I0918 18:08:56.116185 24660 net.cpp:156] Memory required for data: 222977640
I0918 18:08:56.116225 24660 layer_factory.hpp:77] Creating layer relu4
I0918 18:08:56.116257 24660 net.cpp:91] Creating Layer relu4
I0918 18:08:56.116284 24660 net.cpp:425] relu4 <- conv4
I0918 18:08:56.116317 24660 net.cpp:386] relu4 -> conv4 (in-place)
I0918 18:08:56.116350 24660 net.cpp:141] Setting up relu4
I0918 18:08:56.116376 24660 net.cpp:148] Top shape: 30 384 13 13 (1946880)
I0918 18:08:56.116400 24660 net.cpp:156] Memory required for data: 230765160
I0918 18:08:56.116422 24660 layer_factory.hpp:77] Creating layer conv5
I0918 18:08:56.116462 24660 net.cpp:91] Creating Layer conv5
I0918 18:08:56.116484 24660 net.cpp:425] conv5 <- conv4
I0918 18:08:56.116519 24660 net.cpp:399] conv5 -> conv5
I0918 18:08:56.133744 24660 net.cpp:141] Setting up conv5
I0918 18:08:56.133785 24660 net.cpp:148] Top shape: 30 256 13 13 (1297920)
I0918 18:08:56.133811 24660 net.cpp:156] Memory required for data: 235956840
I0918 18:08:56.133852 24660 layer_factory.hpp:77] Creating layer relu5
I0918 18:08:56.133879 24660 net.cpp:91] Creating Layer relu5
I0918 18:08:56.133904 24660 net.cpp:425] relu5 <- conv5
I0918 18:08:56.133934 24660 net.cpp:386] relu5 -> conv5 (in-place)
I0918 18:08:56.133970 24660 net.cpp:141] Setting up relu5
I0918 18:08:56.133997 24660 net.cpp:148] Top shape: 30 256 13 13 (1297920)
I0918 18:08:56.134021 24660 net.cpp:156] Memory required for data: 241148520
I0918 18:08:56.134044 24660 layer_factory.hpp:77] Creating layer pool5
I0918 18:08:56.134081 24660 net.cpp:91] Creating Layer pool5
I0918 18:08:56.134104 24660 net.cpp:425] pool5 <- conv5
I0918 18:08:56.134132 24660 net.cpp:399] pool5 -> pool5
I0918 18:08:56.134203 24660 net.cpp:141] Setting up pool5
I0918 18:08:56.134232 24660 net.cpp:148] Top shape: 30 256 6 6 (276480)
I0918 18:08:56.134256 24660 net.cpp:156] Memory required for data: 242254440
I0918 18:08:56.134280 24660 layer_factory.hpp:77] Creating layer fc6
I0918 18:08:56.134318 24660 net.cpp:91] Creating Layer fc6
I0918 18:08:56.134342 24660 net.cpp:425] fc6 <- pool5
I0918 18:08:56.134371 24660 net.cpp:399] fc6 -> fc6
I0918 18:08:57.569658 24660 net.cpp:141] Setting up fc6
I0918 18:08:57.569743 24660 net.cpp:148] Top shape: 30 4096 (122880)
I0918 18:08:57.569782 24660 net.cpp:156] Memory required for data: 242745960
I0918 18:08:57.569829 24660 layer_factory.hpp:77] Creating layer relu6
I0918 18:08:57.569870 24660 net.cpp:91] Creating Layer relu6
I0918 18:08:57.569900 24660 net.cpp:425] relu6 <- fc6
I0918 18:08:57.569934 24660 net.cpp:386] relu6 -> fc6 (in-place)
I0918 18:08:57.569974 24660 net.cpp:141] Setting up relu6
I0918 18:08:57.570000 24660 net.cpp:148] Top shape: 30 4096 (122880)
I0918 18:08:57.570024 24660 net.cpp:156] Memory required for data: 243237480
I0918 18:08:57.570050 24660 layer_factory.hpp:77] Creating layer drop6
I0918 18:08:57.570087 24660 net.cpp:91] Creating Layer drop6
I0918 18:08:57.570111 24660 net.cpp:425] drop6 <- fc6
I0918 18:08:57.570139 24660 net.cpp:386] drop6 -> fc6 (in-place)
I0918 18:08:57.570222 24660 net.cpp:141] Setting up drop6
I0918 18:08:57.570250 24660 net.cpp:148] Top shape: 30 4096 (122880)
I0918 18:08:57.570276 24660 net.cpp:156] Memory required for data: 243729000
I0918 18:08:57.570299 24660 layer_factory.hpp:77] Creating layer fc7
I0918 18:08:57.570332 24660 net.cpp:91] Creating Layer fc7
I0918 18:08:57.570353 24660 net.cpp:425] fc7 <- fc6
I0918 18:08:57.570385 24660 net.cpp:399] fc7 -> fc7
I0918 18:08:58.207841 24660 net.cpp:141] Setting up fc7
I0918 18:08:58.207912 24660 net.cpp:148] Top shape: 30 4096 (122880)
I0918 18:08:58.207979 24660 net.cpp:156] Memory required for data: 244220520
I0918 18:08:58.208019 24660 layer_factory.hpp:77] Creating layer relu7
I0918 18:08:58.208055 24660 net.cpp:91] Creating Layer relu7
I0918 18:08:58.208081 24660 net.cpp:425] relu7 <- fc7
I0918 18:08:58.208117 24660 net.cpp:386] relu7 -> fc7 (in-place)
I0918 18:08:58.208153 24660 net.cpp:141] Setting up relu7
I0918 18:08:58.208178 24660 net.cpp:148] Top shape: 30 4096 (122880)
I0918 18:08:58.208200 24660 net.cpp:156] Memory required for data: 244712040
I0918 18:08:58.208225 24660 layer_factory.hpp:77] Creating layer drop7
I0918 18:08:58.208256 24660 net.cpp:91] Creating Layer drop7
I0918 18:08:58.208277 24660 net.cpp:425] drop7 <- fc7
I0918 18:08:58.208309 24660 net.cpp:386] drop7 -> fc7 (in-place)
I0918 18:08:58.208364 24660 net.cpp:141] Setting up drop7
I0918 18:08:58.208391 24660 net.cpp:148] Top shape: 30 4096 (122880)
I0918 18:08:58.208415 24660 net.cpp:156] Memory required for data: 245203560
I0918 18:08:58.208441 24660 layer_factory.hpp:77] Creating layer fc7_drop7_0_split
I0918 18:08:58.208469 24660 net.cpp:91] Creating Layer fc7_drop7_0_split
I0918 18:08:58.208493 24660 net.cpp:425] fc7_drop7_0_split <- fc7
I0918 18:08:58.208526 24660 net.cpp:399] fc7_drop7_0_split -> fc7_drop7_0_split_0
I0918 18:08:58.208565 24660 net.cpp:399] fc7_drop7_0_split -> fc7_drop7_0_split_1
I0918 18:08:58.208634 24660 net.cpp:141] Setting up fc7_drop7_0_split
I0918 18:08:58.208664 24660 net.cpp:148] Top shape: 30 4096 (122880)
I0918 18:08:58.208690 24660 net.cpp:148] Top shape: 30 4096 (122880)
I0918 18:08:58.208714 24660 net.cpp:156] Memory required for data: 246186600
I0918 18:08:58.208736 24660 layer_factory.hpp:77] Creating layer fc_binary_Color_f24
I0918 18:08:58.208770 24660 net.cpp:91] Creating Layer fc_binary_Color_f24
I0918 18:08:58.208792 24660 net.cpp:425] fc_binary_Color_f24 <- fc7_drop7_0_split_0
I0918 18:08:58.208822 24660 net.cpp:399] fc_binary_Color_f24 -> fc_binary_Color_f24
I0918 18:08:58.213189 24660 net.cpp:141] Setting up fc_binary_Color_f24
I0918 18:08:58.213224 24660 net.cpp:148] Top shape: 30 24 (720)
I0918 18:08:58.213253 24660 net.cpp:156] Memory required for data: 246189480
I0918 18:08:58.213286 24660 layer_factory.hpp:77] Creating layer fc_classification_Color
I0918 18:08:58.213323 24660 net.cpp:91] Creating Layer fc_classification_Color
I0918 18:08:58.213348 24660 net.cpp:425] fc_classification_Color <- fc7_drop7_0_split_1
I0918 18:08:58.213378 24660 net.cpp:399] fc_classification_Color -> fc_classification_Color
I0918 18:08:58.214725 24660 net.cpp:141] Setting up fc_classification_Color
I0918 18:08:58.214758 24660 net.cpp:148] Top shape: 30 8 (240)
I0918 18:08:58.214782 24660 net.cpp:156] Memory required for data: 246190440
I0918 18:08:58.214823 24660 layer_factory.hpp:77] Creating layer loss_hashing
I0918 18:08:58.214864 24660 net.cpp:91] Creating Layer loss_hashing
I0918 18:08:58.214886 24660 net.cpp:425] loss_hashing <- fc_binary_Color_f24
I0918 18:08:58.214912 24660 net.cpp:425] loss_hashing <- label_data_1_split_0
I0918 18:08:58.214941 24660 net.cpp:399] loss_hashing -> loss_hashing
…
I0918 18:08:58.217329 24660 net.cpp:313] The NetState phase (1) differed from the phase (0) specified by a rule in layer data
I0918 18:08:58.217653 24660 net.cpp:49] Initializing net from parameters: 
name: "docomo_AlexNet"
state {
  phase: TEST
}
layer {
  name: "data"
  type: "Data"
  top: "data"
  top: "label"
  include {
    phase: TEST
  }
  transform_param {
    mirror: false
    crop_size: 224
    mean_value: 103.939
    mean_value: 116.779
    mean_value: 123.68
  }
  data_param {
    source: "COLOR/color_val_lmdb"
    batch_size: 40
    backend: LMDB
  }
}
layer {
  name: "conv1"
  type: "Convolution"
  bottom: "data"
  top: "conv1"
  param {
    lr_mult: 1
    decay_mult: 1
  }
  param {
    lr_mult: 2
    decay_mult: 0
  }
  convolution_param {
    num_output: 96
    kernel_size: 11
    stride: 4
    weight_filler {
      type: "gaussian"
      std: 0.01
    }
    bias_filler {
      type: "constant"
      value: 0
    }
  }
}
layer {
  name: "relu1"
  type: "ReLU"
  bottom: "conv1"
  top: "conv1"
}
layer {
  name: "norm1"
  type: "LRN"
  bottom: "conv1"
  top: "norm1"
  lrn_param {
    local_size: 5
    alpha: 0.0001
    beta: 0.75
  }
}
layer {
  name: "pool1"
  type: "Pooling"
  bottom: "norm1"
  top: "pool1"
  pooling_param {
    pool: MAX
    kernel_size: 3
    stride: 2
  }
}
layer {
  name: "conv2"
  type: "Convolution"
  bottom: "pool1"
  top: "conv2"
  param {
    lr_mult: 1
    decay_mult: 1
  }
  param {
    lr_mult: 2
    decay_mult: 0
  }
  convolution_param {
    num_output: 256
    pad: 2
    kernel_size: 5
    group: 2
    weight_filler {
      type: "gaussian"
      std: 0.01
    }
    bias_filler {
      type: "constant"
      value: 0.1
    }
  }
}
layer {
  name: "relu2"
  type: "ReLU"
  bottom: "conv2"
  top: "conv2"
}
layer {
  name: "norm2"
  type: "LRN"
  bottom: "conv2"
  top: "norm2"
  lrn_param {
    local_size: 5
    alpha: 0.0001
    beta: 0.75
  }
}
layer {
  name: "pool2"
  type: "Pooling"
  bottom: "norm2"
  top: "pool2"
  pooling_param {
    pool: MAX
    kernel_size: 3
    stride: 2
  }
}
layer {
  name: "conv3"
  type: "Convolution"
  bottom: "pool2"
  top: "conv3"
  param {
    lr_mult: 1
    decay_mult: 1
  }
  param {
    lr_mult: 2
    decay_mult: 0
  }
  convolution_param {
    num_output: 384
    pad: 1
    kernel_size: 3
    weight_filler {
      type: "gaussian"
      std: 0.01
    }
    bias_filler {
      type: "constant"
      value: 0
    }
  }
}
layer {
  name: "relu3"
  type: "ReLU"
  bottom: "conv3"
  top: "conv3"
}
layer {
  name: "conv4"
  type: "Convolution"
  bottom: "conv3"
  top: "conv4"
  param {
    lr_mult: 1
    decay_mult: 1
  }
  param {
    lr_mult: 2
    decay_mult: 0
  }
  convolution_param {
    num_output: 384
    pad: 1
    kernel_size: 3
    group: 2
    weight_filler {
      type: "gaussian"
      std: 0.01
    }
    bias_filler {
      type: "constant"
      value: 0.1
    }
  }
}
layer {
  name: "relu4"
  type: "ReLU"
  bottom: "conv4"
  top: "conv4"
}
layer {
  name: "conv5"
  type: "Convolution"
  bottom: "conv4"
  top: "conv5"
  param {
    lr_mult: 1
    decay_mult: 1
  }
  param {
    lr_mult: 2
    decay_mult: 0
  }
  convolution_param {
    num_output: 256
    pad: 1
    kernel_size: 3
    group: 2
    weight_filler {
      type: "gaussian"
      std: 0.01
    }
    bias_filler {
      type: "constant"
      value: 0.1
    }
  }
}
layer {
  name: "relu5"
  type: "ReLU"
  bottom: "conv5"
  top: "conv5"
}
layer {
  name: "pool5"
  type: "Pooling"
  bottom: "conv5"
  top: "pool5"
  pooling_param {
    pool: MAX
    kernel_size: 3
    stride: 2
  }
}
layer {
  name: "fc6"
  type: "InnerProduct"
  bottom: "pool5"
  top: "fc6"
  param {
    lr_mult: 1
    decay_mult: 1
  }
  param {
    lr_mult: 2
    decay_mult: 0
  }
  inner_product_param {
    num_output: 4096
    weight_filler {
      type: "gaussian"
      std: 0.005
    }
    bias_filler {
      type: "constant"
      value: 0.1
    }
  }
}
layer {
  name: "relu6"
  type: "ReLU"
  bottom: "fc6"
  top: "fc6"
}
layer {
  name: "drop6"
  type: "Dropout"
  bottom: "fc6"
  top: "fc6"
  dropout_param {
    dropout_ratio: 0.5
  }
}
layer {
  name: "fc7"
  type: "InnerProduct"
  bottom: "fc6"
  top: "fc7"
  param {
    lr_mult: 1
    decay_mult: 1
  }
  param {
    lr_mult: 2
    decay_mult: 0
  }
  inner_product_param {
    num_output: 4096
    weight_filler {
      type: "gaussian"
      std: 0.005
    }
    bias_filler {
      type: "constant"
      value: 0.1
    }
  }
}
layer {
  name: "relu7"
  type: "ReLU"
  bottom: "fc7"
  top: "fc7"
}
layer {
  name: "drop7"
  type: "Dropout"
  bottom: "fc7"
  top: "fc7"
  dropout_param {
    dropout_ratio: 0.5
  }
}
layer {
  name: "fc_binary_Color_f24"
  type: "InnerProduct"
  bottom: "fc7"
  top: "fc_binary_Color_f24"
  param {
    lr_mult: 10
    decay_mult: 1
  }
  param {
    lr_mult: 20
    decay_mult: 0
  }
  inner_product_param {
    num_output: 24
    weight_filler {
      type: "gaussian"
      std: 0.005
    }
    bias_filler {
      type: "constant"
      value: 0.1
    }
  }
}
layer {
  name: "fc_classification_Color"
  type: "InnerProduct"
  bottom: "fc7"
  top: "fc_classification_Color"
  param {
    lr_mult: 5
    decay_mult: 1
  }
  param {
    lr_mult: 10
    decay_mult: 0
  }
  inner_product_param {
    num_output: 8
    weight_filler {
      type: "gaussian"
      std: 0.05
    }
    bias_filler {
      type: "constant"
      value: 0.1
    }
  }
}
layer {
  name: "accuracy_at_1_Color"
  type: "Accuracy"
  bottom: "fc_classification_Color"
  bottom: "label"
  top: "accuracy_at_1_Color"
  include {
    phase: TEST
  }
}
layer {
  name: "loss_hashing"
  type: "HashingLoss"
  bottom: "fc_binary_Color_f24"
  bottom: "label"
  top: "loss_hashing"
  loss_weight: 0.4
  hashing_loss_param {
    bi_margin: 48
    tradeoff: 0.01
  }
}
layer {
  name: "loss"
  type: "SoftmaxWithLoss"
  bottom: "fc_classification_Color"
  bottom: "label"
  top: "loss"
}
I0918 18:08:58.220392 24660 layer_factory.hpp:77] Creating layer data
I0918 18:08:58.220544 24660 net.cpp:91] Creating Layer data
I0918 18:08:58.220597 24660 net.cpp:399] data -> data
I0918 18:08:58.220633 24660 net.cpp:399] data -> label
I0918 18:08:58.221834 24667 db_lmdb.cpp:38] Opened lmdb COLOR/color_val_lmdb
I0918 18:08:58.222326 24660 data_layer.cpp:41] output data size: 40,3,224,224
I0918 18:08:58.280257 24660 net.cpp:141] Setting up data
I0918 18:08:58.280336 24660 net.cpp:148] Top shape: 40 3 224 224 (6021120)
I0918 18:08:58.280381 24660 net.cpp:148] Top shape: 40 1 1 1 (40)
I0918 18:08:58.280408 24660 net.cpp:156] Memory required for data: 24084640
I0918 18:08:58.280438 24660 layer_factory.hpp:77] Creating layer label_data_1_split
I0918 18:08:58.280478 24660 net.cpp:91] Creating Layer label_data_1_split
I0918 18:08:58.280503 24660 net.cpp:425] label_data_1_split <- label
I0918 18:08:58.280541 24660 net.cpp:399] label_data_1_split -> label_data_1_split_0
I0918 18:08:58.280578 24660 net.cpp:399] label_data_1_split -> label_data_1_split_1
I0918 18:08:58.280608 24660 net.cpp:399] label_data_1_split -> label_data_1_split_2
I0918 18:08:58.280716 24660 net.cpp:141] Setting up label_data_1_split
I0918 18:08:58.280746 24660 net.cpp:148] Top shape: 40 1 1 1 (40)
I0918 18:08:58.280776 24660 net.cpp:148] Top shape: 40 1 1 1 (40)
I0918 18:08:58.280803 24660 net.cpp:148] Top shape: 40 1 1 1 (40)
I0918 18:08:58.280827 24660 net.cpp:156] Memory required for data: 24085120
I0918 18:08:58.280853 24660 layer_factory.hpp:77] Creating layer conv1
I0918 18:08:58.280899 24660 net.cpp:91] Creating Layer conv1
I0918 18:08:58.280923 24660 net.cpp:425] conv1 <- data
I0918 18:08:58.280956 24660 net.cpp:399] conv1 -> conv1
I0918 18:08:58.288414 24660 net.cpp:141] Setting up conv1
I0918 18:08:58.288447 24660 net.cpp:148] Top shape: 40 96 54 54 (11197440)
I0918 18:08:58.288473 24660 net.cpp:156] Memory required for data: 68874880
I0918 18:08:58.288514 24660 layer_factory.hpp:77] Creating layer relu1
I0918 18:08:58.288544 24660 net.cpp:91] Creating Layer relu1
I0918 18:08:58.288576 24660 net.cpp:425] relu1 <- conv1
I0918 18:08:58.288607 24660 net.cpp:386] relu1 -> conv1 (in-place)
I0918 18:08:58.288640 24660 net.cpp:141] Setting up relu1
I0918 18:08:58.288667 24660 net.cpp:148] Top shape: 40 96 54 54 (11197440)
I0918 18:08:58.288691 24660 net.cpp:156] Memory required for data: 113664640
I0918 18:08:58.288717 24660 layer_factory.hpp:77] Creating layer norm1
I0918 18:08:58.288749 24660 net.cpp:91] Creating Layer norm1
I0918 18:08:58.288772 24660 net.cpp:425] norm1 <- conv1
I0918 18:08:58.288805 24660 net.cpp:399] norm1 -> norm1
I0918 18:08:58.288877 24660 net.cpp:141] Setting up norm1
I0918 18:08:58.288906 24660 net.cpp:148] Top shape: 40 96 54 54 (11197440)
I0918 18:08:58.288930 24660 net.cpp:156] Memory required for data: 158454400
I0918 18:08:58.288956 24660 layer_factory.hpp:77] Creating layer pool1
I0918 18:08:58.288990 24660 net.cpp:91] Creating Layer pool1
I0918 18:08:58.289014 24660 net.cpp:425] pool1 <- norm1
I0918 18:08:58.289047 24660 net.cpp:399] pool1 -> pool1
I0918 18:08:58.289117 24660 net.cpp:141] Setting up pool1
I0918 18:08:58.289146 24660 net.cpp:148] Top shape: 40 96 27 27 (2799360)
I0918 18:08:58.289171 24660 net.cpp:156] Memory required for data: 169651840
I0918 18:08:58.289196 24660 layer_factory.hpp:77] Creating layer conv2
I0918 18:08:58.289235 24660 net.cpp:91] Creating Layer conv2
I0918 18:08:58.289259 24660 net.cpp:425] conv2 <- pool1
I0918 18:08:58.289294 24660 net.cpp:399] conv2 -> conv2
I0918 18:08:58.301810 24660 net.cpp:141] Setting up conv2
I0918 18:08:58.301864 24660 net.cpp:148] Top shape: 40 256 27 27 (7464960)
I0918 18:08:58.301901 24660 net.cpp:156] Memory required for data: 199511680
I0918 18:08:58.301944 24660 layer_factory.hpp:77] Creating layer relu2
I0918 18:08:58.302018 24660 net.cpp:91] Creating Layer relu2
I0918 18:08:58.302045 24660 net.cpp:425] relu2 <- conv2
I0918 18:08:58.302078 24660 net.cpp:386] relu2 -> conv2 (in-place)
I0918 18:08:58.302111 24660 net.cpp:141] Setting up relu2
I0918 18:08:58.302139 24660 net.cpp:148] Top shape: 40 256 27 27 (7464960)
I0918 18:08:58.302162 24660 net.cpp:156] Memory required for data: 229371520
I0918 18:08:58.302187 24660 layer_factory.hpp:77] Creating layer norm2
I0918 18:08:58.302224 24660 net.cpp:91] Creating Layer norm2
I0918 18:08:58.302248 24660 net.cpp:425] norm2 <- conv2
I0918 18:08:58.302283 24660 net.cpp:399] norm2 -> norm2
I0918 18:08:58.302356 24660 net.cpp:141] Setting up norm2
I0918 18:08:58.302386 24660 net.cpp:148] Top shape: 40 256 27 27 (7464960)
I0918 18:08:58.302412 24660 net.cpp:156] Memory required for data: 259231360
I0918 18:08:58.302436 24660 layer_factory.hpp:77] Creating layer pool2
I0918 18:08:58.302466 24660 net.cpp:91] Creating Layer pool2
I0918 18:08:58.302490 24660 net.cpp:425] pool2 <- norm2
I0918 18:08:58.302525 24660 net.cpp:399] pool2 -> pool2
I0918 18:08:58.302594 24660 net.cpp:141] Setting up pool2
I0918 18:08:58.302623 24660 net.cpp:148] Top shape: 40 256 13 13 (1730560)
I0918 18:08:58.302649 24660 net.cpp:156] Memory required for data: 266153600
I0918 18:08:58.302672 24660 layer_factory.hpp:77] Creating layer conv3
I0918 18:08:58.302727 24660 net.cpp:91] Creating Layer conv3
I0918 18:08:58.302752 24660 net.cpp:425] conv3 <- pool2
I0918 18:08:58.302784 24660 net.cpp:399] conv3 -> conv3
I0918 18:08:58.337929 24660 net.cpp:141] Setting up conv3
I0918 18:08:58.338014 24660 net.cpp:148] Top shape: 40 384 13 13 (2595840)
I0918 18:08:58.338039 24660 net.cpp:156] Memory required for data: 276536960
I0918 18:08:58.338095 24660 layer_factory.hpp:77] Creating layer relu3
I0918 18:08:58.338129 24660 net.cpp:91] Creating Layer relu3
I0918 18:08:58.338156 24660 net.cpp:425] relu3 <- conv3
I0918 18:08:58.338189 24660 net.cpp:386] relu3 -> conv3 (in-place)
I0918 18:08:58.338224 24660 net.cpp:141] Setting up relu3
I0918 18:08:58.338251 24660 net.cpp:148] Top shape: 40 384 13 13 (2595840)
I0918 18:08:58.338276 24660 net.cpp:156] Memory required for data: 286920320
I0918 18:08:58.338300 24660 layer_factory.hpp:77] Creating layer conv4
I0918 18:08:58.338340 24660 net.cpp:91] Creating Layer conv4
I0918 18:08:58.338366 24660 net.cpp:425] conv4 <- conv3
I0918 18:08:58.338402 24660 net.cpp:399] conv4 -> conv4
I0918 18:08:58.364905 24660 net.cpp:141] Setting up conv4
I0918 18:08:58.364972 24660 net.cpp:148] Top shape: 40 384 13 13 (2595840)
I0918 18:08:58.364997 24660 net.cpp:156] Memory required for data: 297303680
I0918 18:08:58.365036 24660 layer_factory.hpp:77] Creating layer relu4
I0918 18:08:58.365070 24660 net.cpp:91] Creating Layer relu4
I0918 18:08:58.365097 24660 net.cpp:425] relu4 <- conv4
I0918 18:08:58.365135 24660 net.cpp:386] relu4 -> conv4 (in-place)
I0918 18:08:58.365170 24660 net.cpp:141] Setting up relu4
I0918 18:08:58.365198 24660 net.cpp:148] Top shape: 40 384 13 13 (2595840)
I0918 18:08:58.365222 24660 net.cpp:156] Memory required for data: 307687040
I0918 18:08:58.365247 24660 layer_factory.hpp:77] Creating layer conv5
I0918 18:08:58.365288 24660 net.cpp:91] Creating Layer conv5
I0918 18:08:58.365312 24660 net.cpp:425] conv5 <- conv4
I0918 18:08:58.365344 24660 net.cpp:399] conv5 -> conv5
I0918 18:08:58.383250 24660 net.cpp:141] Setting up conv5
I0918 18:08:58.383311 24660 net.cpp:148] Top shape: 40 256 13 13 (1730560)
I0918 18:08:58.383335 24660 net.cpp:156] Memory required for data: 314609280
I0918 18:08:58.383379 24660 layer_factory.hpp:77] Creating layer relu5
I0918 18:08:58.383415 24660 net.cpp:91] Creating Layer relu5
I0918 18:08:58.383441 24660 net.cpp:425] relu5 <- conv5
I0918 18:08:58.383473 24660 net.cpp:386] relu5 -> conv5 (in-place)
I0918 18:08:58.383505 24660 net.cpp:141] Setting up relu5
I0918 18:08:58.383532 24660 net.cpp:148] Top shape: 40 256 13 13 (1730560)
I0918 18:08:58.383554 24660 net.cpp:156] Memory required for data: 321531520
I0918 18:08:58.383579 24660 layer_factory.hpp:77] Creating layer pool5
I0918 18:08:58.383649 24660 net.cpp:91] Creating Layer pool5
I0918 18:08:58.383672 24660 net.cpp:425] pool5 <- conv5
I0918 18:08:58.383705 24660 net.cpp:399] pool5 -> pool5
I0918 18:08:58.383780 24660 net.cpp:141] Setting up pool5
I0918 18:08:58.383810 24660 net.cpp:148] Top shape: 40 256 6 6 (368640)
I0918 18:08:58.383832 24660 net.cpp:156] Memory required for data: 323006080
I0918 18:08:58.383857 24660 layer_factory.hpp:77] Creating layer fc6
I0918 18:08:58.383893 24660 net.cpp:91] Creating Layer fc6
I0918 18:08:58.383915 24660 net.cpp:425] fc6 <- pool5
I0918 18:08:58.383947 24660 net.cpp:399] fc6 -> fc6
I0918 18:08:59.814774 24660 net.cpp:141] Setting up fc6
I0918 18:08:59.814848 24660 net.cpp:148] Top shape: 40 4096 (163840)
I0918 18:08:59.814885 24660 net.cpp:156] Memory required for data: 323661440
I0918 18:08:59.814924 24660 layer_factory.hpp:77] Creating layer relu6
I0918 18:08:59.814957 24660 net.cpp:91] Creating Layer relu6
I0918 18:08:59.814982 24660 net.cpp:425] relu6 <- fc6
I0918 18:08:59.815021 24660 net.cpp:386] relu6 -> fc6 (in-place)
I0918 18:08:59.815054 24660 net.cpp:141] Setting up relu6
I0918 18:08:59.815079 24660 net.cpp:148] Top shape: 40 4096 (163840)
I0918 18:08:59.815102 24660 net.cpp:156] Memory required for data: 324316800
I0918 18:08:59.815125 24660 layer_factory.hpp:77] Creating layer drop6
I0918 18:08:59.815155 24660 net.cpp:91] Creating Layer drop6
I0918 18:08:59.815177 24660 net.cpp:425] drop6 <- fc6
I0918 18:08:59.815204 24660 net.cpp:386] drop6 -> fc6 (in-place)
I0918 18:08:59.815260 24660 net.cpp:141] Setting up drop6
I0918 18:08:59.815289 24660 net.cpp:148] Top shape: 40 4096 (163840)
I0918 18:08:59.815312 24660 net.cpp:156] Memory required for data: 324972160
I0918 18:08:59.815336 24660 layer_factory.hpp:77] Creating layer fc7
I0918 18:08:59.815382 24660 net.cpp:91] Creating Layer fc7
I0918 18:08:59.815405 24660 net.cpp:425] fc7 <- fc6
I0918 18:08:59.815436 24660 net.cpp:399] fc7 -> fc7
I0918 18:09:00.452756 24660 net.cpp:141] Setting up fc7
I0918 18:09:00.452844 24660 net.cpp:148] Top shape: 40 4096 (163840)
I0918 18:09:00.452878 24660 net.cpp:156] Memory required for data: 325627520
I0918 18:09:00.452930 24660 layer_factory.hpp:77] Creating layer relu7
I0918 18:09:00.452971 24660 net.cpp:91] Creating Layer relu7
I0918 18:09:00.453002 24660 net.cpp:425] relu7 <- fc7
I0918 18:09:00.453033 24660 net.cpp:386] relu7 -> fc7 (in-place)
I0918 18:09:00.453069 24660 net.cpp:141] Setting up relu7
I0918 18:09:00.453094 24660 net.cpp:148] Top shape: 40 4096 (163840)
I0918 18:09:00.453119 24660 net.cpp:156] Memory required for data: 326282880
I0918 18:09:00.453143 24660 layer_factory.hpp:77] Creating layer drop7
I0918 18:09:00.453179 24660 net.cpp:91] Creating Layer drop7
I0918 18:09:00.453202 24660 net.cpp:425] drop7 <- fc7
I0918 18:09:00.453230 24660 net.cpp:386] drop7 -> fc7 (in-place)
I0918 18:09:00.453305 24660 net.cpp:141] Setting up drop7
I0918 18:09:00.453331 24660 net.cpp:148] Top shape: 40 4096 (163840)
I0918 18:09:00.453356 24660 net.cpp:156] Memory required for data: 326938240
I0918 18:09:00.453379 24660 layer_factory.hpp:77] Creating layer fc7_drop7_0_split
I0918 18:09:00.453408 24660 net.cpp:91] Creating Layer fc7_drop7_0_split
I0918 18:09:00.453430 24660 net.cpp:425] fc7_drop7_0_split <- fc7
I0918 18:09:00.453459 24660 net.cpp:399] fc7_drop7_0_split -> fc7_drop7_0_split_0
I0918 18:09:00.453495 24660 net.cpp:399] fc7_drop7_0_split -> fc7_drop7_0_split_1
I0918 18:09:00.453563 24660 net.cpp:141] Setting up fc7_drop7_0_split
I0918 18:09:00.453591 24660 net.cpp:148] Top shape: 40 4096 (163840)
I0918 18:09:00.453619 24660 net.cpp:148] Top shape: 40 4096 (163840)
I0918 18:09:00.453649 24660 net.cpp:156] Memory required for data: 328248960
I0918 18:09:00.453675 24660 layer_factory.hpp:77] Creating layer fc_binary_Color_f24
I0918 18:09:00.453716 24660 net.cpp:91] Creating Layer fc_binary_Color_f24
I0918 18:09:00.453738 24660 net.cpp:425] fc_binary_Color_f24 <- fc7_drop7_0_split_0
I0918 18:09:00.453771 24660 net.cpp:399] fc_binary_Color_f24 -> fc_binary_Color_f24
I0918 18:09:00.457648 24660 net.cpp:141] Setting up fc_binary_Color_f24
I0918 18:09:00.457695 24660 net.cpp:148] Top shape: 40 24 (960)
I0918 18:09:00.457722 24660 net.cpp:156] Memory required for data: 328252800
I0918 18:09:00.457754 24660 layer_factory.hpp:77] Creating layer fc_classification_Color
I0918 18:09:00.457787 24660 net.cpp:91] Creating Layer fc_classification_Color
I0918 18:09:00.457811 24660 net.cpp:425] fc_classification_Color <- fc7_drop7_0_split_1
I0918 18:09:00.457840 24660 net.cpp:399] fc_classification_Color -> fc_classification_Color
I0918 18:09:00.459177 24660 net.cpp:141] Setting up fc_classification_Color
I0918 18:09:00.459208 24660 net.cpp:148] Top shape: 40 8 (320)
I0918 18:09:00.459233 24660 net.cpp:156] Memory required for data: 328254080
I0918 18:09:00.459280 24660 layer_factory.hpp:77] Creating layer fc_classification_Color_fc_classification_Color_0_split
I0918 18:09:00.459307 24660 net.cpp:91] Creating Layer fc_classification_Color_fc_classification_Color_0_split
I0918 18:09:00.459333 24660 net.cpp:425] fc_classification_Color_fc_classification_Color_0_split <- fc_classification_Color
I0918 18:09:00.459365 24660 net.cpp:399] fc_classification_Color_fc_classification_Color_0_split -> fc_classification_Color_fc_classification_Color_0_split_0
I0918 18:09:00.459396 24660 net.cpp:399] fc_classification_Color_fc_classification_Color_0_split -> fc_classification_Color_fc_classification_Color_0_split_1
I0918 18:09:00.459468 24660 net.cpp:141] Setting up fc_classification_Color_fc_classification_Color_0_split
I0918 18:09:00.459501 24660 net.cpp:148] Top shape: 40 8 (320)
I0918 18:09:00.459528 24660 net.cpp:148] Top shape: 40 8 (320)
I0918 18:09:00.459552 24660 net.cpp:156] Memory required for data: 328256640
I0918 18:09:00.459574 24660 layer_factory.hpp:77] Creating layer accuracy_at_1_Color
I0918 18:09:00.459612 24660 net.cpp:91] Creating Layer accuracy_at_1_Color
I0918 18:09:00.459635 24660 net.cpp:425] accuracy_at_1_Color <- fc_classification_Color_fc_classification_Color_0_split_0
I0918 18:09:00.459661 24660 net.cpp:425] accuracy_at_1_Color <- label_data_1_split_0
…
