…
I0830 16:28:43.223597  8215 net.cpp:313] The NetState phase (0) differed from the phase (1) specified by a rule in layer accuracy_at_5
I0830 16:28:43.223804  8215 net.cpp:49] Initializing net from parameters: 
name: "docomo_pattern_CNN"
state {
  phase: TRAIN
}
layer {
  name: "cifar"
  type: "Data"
  top: "data"
  top: "label"
  include {
    phase: TRAIN
  }
  transform_param {
    mirror: true
    mean_value: 103.939
    mean_value: 116.779
    mean_value: 123.68
  }
  data_param {
    source: "PATTERN/pattern_train_lmdb"
    batch_size: 200
    backend: LMDB
  }
}
layer {
  name: "conv1"
  type: "Convolution"
  bottom: "data"
  top: "conv1"
  param {
    lr_mult: 1
    decay_mult: 1
  }
  param {
    lr_mult: 2
    decay_mult: 0
  }
  convolution_param {
    num_output: 32
    pad: 2
    kernel_size: 5
    stride: 8
    weight_filler {
      type: "xavier"
    }
    bias_filler {
      type: "constant"
    }
  }
}
layer {
  name: "pool1"
  type: "Pooling"
  bottom: "conv1"
  top: "pool1"
  pooling_param {
    pool: MAX
    kernel_size: 3
    stride: 2
  }
}
layer {
  name: "relu1"
  type: "ReLU"
  bottom: "pool1"
  top: "pool1"
}
layer {
  name: "norm1"
  type: "LRN"
  bottom: "pool1"
  top: "norm1"
  lrn_param {
    local_size: 3
    alpha: 5e-05
    beta: 0.75
    norm_region: WITHIN_CHANNEL
  }
}
layer {
  name: "conv2"
  type: "Convolution"
  bottom: "norm1"
  top: "conv2"
  param {
    lr_mult: 1
    decay_mult: 1
  }
  param {
    lr_mult: 2
    decay_mult: 0
  }
  convolution_param {
    num_output: 32
    pad: 2
    kernel_size: 5
    stride: 1
    weight_filler {
      type: "xavier"
    }
    bias_filler {
      type: "constant"
    }
  }
}
layer {
  name: "pool2"
  type: "Pooling"
  bottom: "conv2"
  top: "pool2"
  pooling_param {
    pool: AVE
    kernel_size: 3
    stride: 2
  }
}
layer {
  name: "relu2"
  type: "ReLU"
  bottom: "pool2"
  top: "pool2"
}
layer {
  name: "norm2"
  type: "LRN"
  bottom: "pool2"
  top: "norm2"
  lrn_param {
    local_size: 3
    alpha: 5e-05
    beta: 0.75
    norm_region: WITHIN_CHANNEL
  }
}
layer {
  name: "conv3"
  type: "Convolution"
  bottom: "norm2"
  top: "conv3"
  param {
    lr_mult: 1
    decay_mult: 1
  }
  param {
    lr_mult: 2
    decay_mult: 0
  }
  convolution_param {
    num_output: 64
    pad: 2
    kernel_size: 5
    stride: 1
    weight_filler {
      type: "xavier"
    }
    bias_filler {
      type: "constant"
    }
  }
}
layer {
  name: "relu3"
  type: "ReLU"
  bottom: "conv3"
  top: "conv3"
}
layer {
  name: "pool3"
  type: "Pooling"
  bottom: "conv3"
  top: "pool3"
  pooling_param {
    pool: AVE
    kernel_size: 3
    stride: 2
  }
}
layer {
  name: "dropout_conv3"
  type: "Dropout"
  bottom: "pool3"
  top: "dropout_conv3"
  dropout_param {
    dropout_ratio: 0.5
  }
}
layer {
  name: "ip500"
  type: "InnerProduct"
  bottom: "dropout_conv3"
  top: "ip500"
  param {
    lr_mult: 1
    decay_mult: 1
  }
  param {
    lr_mult: 2
    decay_mult: 0
  }
  inner_product_param {
    num_output: 500
    weight_filler {
      type: "gaussian"
      std: 0.005
    }
    bias_filler {
      type: "constant"
      value: 0.1
    }
  }
}
layer {
  name: "relu_ip500"
  type: "ReLU"
  bottom: "ip500"
  top: "ip500"
}
layer {
  name: "dropout_ip500"
  type: "Dropout"
  bottom: "ip500"
  top: "ip500"
  dropout_param {
    dropout_ratio: 0.5
  }
}
layer {
  name: "ip_hash"
  type: "InnerProduct"
  bottom: "ip500"
  top: "ip_hash"
  param {
    lr_mult: 1
    decay_mult: 1
  }
  param {
    lr_mult: 2
    decay_mult: 0
  }
  inner_product_param {
    num_output: 12
    weight_filler {
      type: "gaussian"
      std: 0.005
    }
    bias_filler {
      type: "constant"
      value: 0.1
    }
  }
}
layer {
  name: "ip_classification"
  type: "InnerProduct"
  bottom: "ip500"
  top: "ip_classification"
  param {
    lr_mult: 1
    decay_mult: 1
  }
  param {
    lr_mult: 2
    decay_mult: 0
  }
  inner_product_param {
    num_output: 7
    weight_filler {
      type: "gaussian"
      std: 0.005
    }
    bias_filler {
      type: "constant"
      value: 0.1
    }
  }
}
layer {
  name: "loss_hash"
  type: "HashingLoss"
  bottom: "ip_hash"
  bottom: "label"
  top: "loss_hash"
  loss_weight: 0.1
  hashing_loss_param {
    bi_margin: 24
    tradeoff: 0.01
  }
}
layer {
  name: "loss_classification"
  type: "SoftmaxWithLoss"
  bottom: "ip_classification"
  bottom: "label"
  top: "loss_classification"
}
I0830 16:28:43.225116  8215 layer_factory.hpp:77] Creating layer cifar
I0830 16:28:43.225872  8215 net.cpp:91] Creating Layer cifar
I0830 16:28:43.225906  8215 net.cpp:399] cifar -> data
I0830 16:28:43.226094  8215 net.cpp:399] cifar -> label
I0830 16:28:43.227622  8219 db_lmdb.cpp:38] Opened lmdb PATTERN/pattern_train_lmdb
I0830 16:28:43.243686  8215 data_layer.cpp:41] output data size: 200,3,224,224
I0830 16:28:43.483908  8215 net.cpp:141] Setting up cifar
I0830 16:28:43.484061  8215 net.cpp:148] Top shape: 200 3 224 224 (30105600)
I0830 16:28:43.484097  8215 net.cpp:148] Top shape: 200 1 1 1 (200)
I0830 16:28:43.484107  8215 net.cpp:156] Memory required for data: 120423200
I0830 16:28:43.484123  8215 layer_factory.hpp:77] Creating layer label_cifar_1_split
I0830 16:28:43.484145  8215 net.cpp:91] Creating Layer label_cifar_1_split
I0830 16:28:43.484160  8215 net.cpp:425] label_cifar_1_split <- label
I0830 16:28:43.484187  8215 net.cpp:399] label_cifar_1_split -> label_cifar_1_split_0
I0830 16:28:43.484207  8215 net.cpp:399] label_cifar_1_split -> label_cifar_1_split_1
I0830 16:28:43.484745  8215 net.cpp:141] Setting up label_cifar_1_split
I0830 16:28:43.484772  8215 net.cpp:148] Top shape: 200 1 1 1 (200)
I0830 16:28:43.484783  8215 net.cpp:148] Top shape: 200 1 1 1 (200)
I0830 16:28:43.484792  8215 net.cpp:156] Memory required for data: 120424800
I0830 16:28:43.484802  8215 layer_factory.hpp:77] Creating layer conv1
I0830 16:28:43.484840  8215 net.cpp:91] Creating Layer conv1
I0830 16:28:43.484851  8215 net.cpp:425] conv1 <- data
I0830 16:28:43.484863  8215 net.cpp:399] conv1 -> conv1
I0830 16:28:43.495901  8215 net.cpp:141] Setting up conv1
I0830 16:28:43.495944  8215 net.cpp:148] Top shape: 200 32 28 28 (5017600)
I0830 16:28:43.495954  8215 net.cpp:156] Memory required for data: 140495200
I0830 16:28:43.495985  8215 layer_factory.hpp:77] Creating layer pool1
I0830 16:28:43.496006  8215 net.cpp:91] Creating Layer pool1
I0830 16:28:43.496016  8215 net.cpp:425] pool1 <- conv1
I0830 16:28:43.496032  8215 net.cpp:399] pool1 -> pool1
I0830 16:28:43.496104  8215 net.cpp:141] Setting up pool1
I0830 16:28:43.496121  8215 net.cpp:148] Top shape: 200 32 14 14 (1254400)
I0830 16:28:43.496130  8215 net.cpp:156] Memory required for data: 145512800
I0830 16:28:43.496140  8215 layer_factory.hpp:77] Creating layer relu1
I0830 16:28:43.496152  8215 net.cpp:91] Creating Layer relu1
I0830 16:28:43.496161  8215 net.cpp:425] relu1 <- pool1
I0830 16:28:43.496171  8215 net.cpp:386] relu1 -> pool1 (in-place)
I0830 16:28:43.496187  8215 net.cpp:141] Setting up relu1
I0830 16:28:43.496197  8215 net.cpp:148] Top shape: 200 32 14 14 (1254400)
I0830 16:28:43.496206  8215 net.cpp:156] Memory required for data: 150530400
I0830 16:28:43.496214  8215 layer_factory.hpp:77] Creating layer norm1
I0830 16:28:43.496232  8215 net.cpp:91] Creating Layer norm1
I0830 16:28:43.496284  8215 net.cpp:425] norm1 <- pool1
I0830 16:28:43.496296  8215 net.cpp:399] norm1 -> norm1
I0830 16:28:43.496438  8215 net.cpp:141] Setting up norm1
I0830 16:28:43.496454  8215 net.cpp:148] Top shape: 200 32 14 14 (1254400)
I0830 16:28:43.496462  8215 net.cpp:156] Memory required for data: 155548000
I0830 16:28:43.496470  8215 layer_factory.hpp:77] Creating layer conv2
I0830 16:28:43.496489  8215 net.cpp:91] Creating Layer conv2
I0830 16:28:43.496497  8215 net.cpp:425] conv2 <- norm1
I0830 16:28:43.496512  8215 net.cpp:399] conv2 -> conv2
I0830 16:28:43.497561  8215 net.cpp:141] Setting up conv2
I0830 16:28:43.497581  8215 net.cpp:148] Top shape: 200 32 14 14 (1254400)
I0830 16:28:43.497589  8215 net.cpp:156] Memory required for data: 160565600
I0830 16:28:43.497604  8215 layer_factory.hpp:77] Creating layer pool2
I0830 16:28:43.497617  8215 net.cpp:91] Creating Layer pool2
I0830 16:28:43.497625  8215 net.cpp:425] pool2 <- conv2
I0830 16:28:43.497639  8215 net.cpp:399] pool2 -> pool2
I0830 16:28:43.497678  8215 net.cpp:141] Setting up pool2
I0830 16:28:43.497691  8215 net.cpp:148] Top shape: 200 32 7 7 (313600)
I0830 16:28:43.497699  8215 net.cpp:156] Memory required for data: 161820000
I0830 16:28:43.497707  8215 layer_factory.hpp:77] Creating layer relu2
I0830 16:28:43.497722  8215 net.cpp:91] Creating Layer relu2
I0830 16:28:43.497730  8215 net.cpp:425] relu2 <- pool2
I0830 16:28:43.497741  8215 net.cpp:386] relu2 -> pool2 (in-place)
I0830 16:28:43.497756  8215 net.cpp:141] Setting up relu2
I0830 16:28:43.497766  8215 net.cpp:148] Top shape: 200 32 7 7 (313600)
I0830 16:28:43.497773  8215 net.cpp:156] Memory required for data: 163074400
I0830 16:28:43.497781  8215 layer_factory.hpp:77] Creating layer norm2
I0830 16:28:43.497792  8215 net.cpp:91] Creating Layer norm2
I0830 16:28:43.497800  8215 net.cpp:425] norm2 <- pool2
I0830 16:28:43.497810  8215 net.cpp:399] norm2 -> norm2
I0830 16:28:43.497918  8215 net.cpp:141] Setting up norm2
I0830 16:28:43.497933  8215 net.cpp:148] Top shape: 200 32 7 7 (313600)
I0830 16:28:43.497941  8215 net.cpp:156] Memory required for data: 164328800
I0830 16:28:43.497949  8215 layer_factory.hpp:77] Creating layer conv3
I0830 16:28:43.497967  8215 net.cpp:91] Creating Layer conv3
I0830 16:28:43.497975  8215 net.cpp:425] conv3 <- norm2
I0830 16:28:43.497987  8215 net.cpp:399] conv3 -> conv3
I0830 16:28:43.498706  8215 net.cpp:141] Setting up conv3
I0830 16:28:43.498742  8215 net.cpp:148] Top shape: 200 64 7 7 (627200)
I0830 16:28:43.498759  8215 net.cpp:156] Memory required for data: 166837600
I0830 16:28:43.498780  8215 layer_factory.hpp:77] Creating layer relu3
I0830 16:28:43.498800  8215 net.cpp:91] Creating Layer relu3
I0830 16:28:43.498814  8215 net.cpp:425] relu3 <- conv3
I0830 16:28:43.498833  8215 net.cpp:386] relu3 -> conv3 (in-place)
I0830 16:28:43.498852  8215 net.cpp:141] Setting up relu3
I0830 16:28:43.498868  8215 net.cpp:148] Top shape: 200 64 7 7 (627200)
I0830 16:28:43.498883  8215 net.cpp:156] Memory required for data: 169346400
I0830 16:28:43.498896  8215 layer_factory.hpp:77] Creating layer pool3
I0830 16:28:43.498914  8215 net.cpp:91] Creating Layer pool3
I0830 16:28:43.498927  8215 net.cpp:425] pool3 <- conv3
I0830 16:28:43.498944  8215 net.cpp:399] pool3 -> pool3
I0830 16:28:43.498986  8215 net.cpp:141] Setting up pool3
I0830 16:28:43.499007  8215 net.cpp:148] Top shape: 200 64 3 3 (115200)
I0830 16:28:43.499022  8215 net.cpp:156] Memory required for data: 169807200
I0830 16:28:43.499035  8215 layer_factory.hpp:77] Creating layer dropout_conv3
I0830 16:28:43.499061  8215 net.cpp:91] Creating Layer dropout_conv3
I0830 16:28:43.499078  8215 net.cpp:425] dropout_conv3 <- pool3
I0830 16:28:43.499094  8215 net.cpp:399] dropout_conv3 -> dropout_conv3
I0830 16:28:43.499155  8215 net.cpp:141] Setting up dropout_conv3
I0830 16:28:43.499176  8215 net.cpp:148] Top shape: 200 64 3 3 (115200)
I0830 16:28:43.499191  8215 net.cpp:156] Memory required for data: 170268000
I0830 16:28:43.499207  8215 layer_factory.hpp:77] Creating layer ip500
I0830 16:28:43.499228  8215 net.cpp:91] Creating Layer ip500
I0830 16:28:43.499267  8215 net.cpp:425] ip500 <- dropout_conv3
I0830 16:28:43.499291  8215 net.cpp:399] ip500 -> ip500
I0830 16:28:43.511760  8215 net.cpp:141] Setting up ip500
I0830 16:28:43.511818  8215 net.cpp:148] Top shape: 200 500 (100000)
I0830 16:28:43.511835  8215 net.cpp:156] Memory required for data: 170668000
I0830 16:28:43.511860  8215 layer_factory.hpp:77] Creating layer relu_ip500
I0830 16:28:43.511885  8215 net.cpp:91] Creating Layer relu_ip500
I0830 16:28:43.511903  8215 net.cpp:425] relu_ip500 <- ip500
I0830 16:28:43.511922  8215 net.cpp:386] relu_ip500 -> ip500 (in-place)
I0830 16:28:43.511945  8215 net.cpp:141] Setting up relu_ip500
I0830 16:28:43.511962  8215 net.cpp:148] Top shape: 200 500 (100000)
I0830 16:28:43.511976  8215 net.cpp:156] Memory required for data: 171068000
I0830 16:28:43.511991  8215 layer_factory.hpp:77] Creating layer dropout_ip500
I0830 16:28:43.512019  8215 net.cpp:91] Creating Layer dropout_ip500
I0830 16:28:43.512039  8215 net.cpp:425] dropout_ip500 <- ip500
I0830 16:28:43.512056  8215 net.cpp:386] dropout_ip500 -> ip500 (in-place)
I0830 16:28:43.512101  8215 net.cpp:141] Setting up dropout_ip500
I0830 16:28:43.512125  8215 net.cpp:148] Top shape: 200 500 (100000)
I0830 16:28:43.512140  8215 net.cpp:156] Memory required for data: 171468000
I0830 16:28:43.512154  8215 layer_factory.hpp:77] Creating layer ip500_dropout_ip500_0_split
I0830 16:28:43.512173  8215 net.cpp:91] Creating Layer ip500_dropout_ip500_0_split
I0830 16:28:43.512187  8215 net.cpp:425] ip500_dropout_ip500_0_split <- ip500
I0830 16:28:43.512204  8215 net.cpp:399] ip500_dropout_ip500_0_split -> ip500_dropout_ip500_0_split_0
I0830 16:28:43.512228  8215 net.cpp:399] ip500_dropout_ip500_0_split -> ip500_dropout_ip500_0_split_1
I0830 16:28:43.512280  8215 net.cpp:141] Setting up ip500_dropout_ip500_0_split
I0830 16:28:43.512303  8215 net.cpp:148] Top shape: 200 500 (100000)
I0830 16:28:43.512320  8215 net.cpp:148] Top shape: 200 500 (100000)
I0830 16:28:43.512334  8215 net.cpp:156] Memory required for data: 172268000
I0830 16:28:43.512348  8215 layer_factory.hpp:77] Creating layer ip_hash
I0830 16:28:43.512373  8215 net.cpp:91] Creating Layer ip_hash
I0830 16:28:43.512392  8215 net.cpp:425] ip_hash <- ip500_dropout_ip500_0_split_0
I0830 16:28:43.512409  8215 net.cpp:399] ip_hash -> ip_hash
I0830 16:28:43.513504  8215 net.cpp:141] Setting up ip_hash
I0830 16:28:43.513535  8215 net.cpp:148] Top shape: 200 12 (2400)
I0830 16:28:43.513550  8215 net.cpp:156] Memory required for data: 172277600
I0830 16:28:43.513576  8215 layer_factory.hpp:77] Creating layer ip_classification
I0830 16:28:43.513597  8215 net.cpp:91] Creating Layer ip_classification
I0830 16:28:43.513615  8215 net.cpp:425] ip_classification <- ip500_dropout_ip500_0_split_1
I0830 16:28:43.513633  8215 net.cpp:399] ip_classification -> ip_classification
I0830 16:28:43.513895  8215 net.cpp:141] Setting up ip_classification
I0830 16:28:43.513921  8215 net.cpp:148] Top shape: 200 7 (1400)
I0830 16:28:43.513936  8215 net.cpp:156] Memory required for data: 172283200
I0830 16:28:43.513953  8215 layer_factory.hpp:77] Creating layer loss_hash
I0830 16:28:43.513979  8215 net.cpp:91] Creating Layer loss_hash
I0830 16:28:43.513996  8215 net.cpp:425] loss_hash <- ip_hash
I0830 16:28:43.514014  8215 net.cpp:425] loss_hash <- label_cifar_1_split_0
I0830 16:28:43.514034  8215 net.cpp:399] loss_hash -> loss_hash
…
I0830 16:28:43.515769  8215 net.cpp:313] The NetState phase (1) differed from the phase (0) specified by a rule in layer cifar
I0830 16:28:43.515998  8215 net.cpp:49] Initializing net from parameters: 
name: "docomo_pattern_CNN"
state {
  phase: TEST
}
layer {
  name: "cifar"
  type: "Data"
  top: "data"
  top: "label"
  include {
    phase: TEST
  }
  transform_param {
    mirror: false
    mean_value: 103.939
    mean_value: 116.779
    mean_value: 123.68
  }
  data_param {
    source: "PATTERN/pattern_val_lmdb"
    batch_size: 100
    backend: LMDB
  }
}
layer {
  name: "conv1"
  type: "Convolution"
  bottom: "data"
  top: "conv1"
  param {
    lr_mult: 1
    decay_mult: 1
  }
  param {
    lr_mult: 2
    decay_mult: 0
  }
  convolution_param {
    num_output: 32
    pad: 2
    kernel_size: 5
    stride: 8
    weight_filler {
      type: "xavier"
    }
    bias_filler {
      type: "constant"
    }
  }
}
layer {
  name: "pool1"
  type: "Pooling"
  bottom: "conv1"
  top: "pool1"
  pooling_param {
    pool: MAX
    kernel_size: 3
    stride: 2
  }
}
layer {
  name: "relu1"
  type: "ReLU"
  bottom: "pool1"
  top: "pool1"
}
layer {
  name: "norm1"
  type: "LRN"
  bottom: "pool1"
  top: "norm1"
  lrn_param {
    local_size: 3
    alpha: 5e-05
    beta: 0.75
    norm_region: WITHIN_CHANNEL
  }
}
layer {
  name: "conv2"
  type: "Convolution"
  bottom: "norm1"
  top: "conv2"
  param {
    lr_mult: 1
    decay_mult: 1
  }
  param {
    lr_mult: 2
    decay_mult: 0
  }
  convolution_param {
    num_output: 32
    pad: 2
    kernel_size: 5
    stride: 1
    weight_filler {
      type: "xavier"
    }
    bias_filler {
      type: "constant"
    }
  }
}
layer {
  name: "pool2"
  type: "Pooling"
  bottom: "conv2"
  top: "pool2"
  pooling_param {
    pool: AVE
    kernel_size: 3
    stride: 2
  }
}
layer {
  name: "relu2"
  type: "ReLU"
  bottom: "pool2"
  top: "pool2"
}
layer {
  name: "norm2"
  type: "LRN"
  bottom: "pool2"
  top: "norm2"
  lrn_param {
    local_size: 3
    alpha: 5e-05
    beta: 0.75
    norm_region: WITHIN_CHANNEL
  }
}
layer {
  name: "conv3"
  type: "Convolution"
  bottom: "norm2"
  top: "conv3"
  param {
    lr_mult: 1
    decay_mult: 1
  }
  param {
    lr_mult: 2
    decay_mult: 0
  }
  convolution_param {
    num_output: 64
    pad: 2
    kernel_size: 5
    stride: 1
    weight_filler {
      type: "xavier"
    }
    bias_filler {
      type: "constant"
    }
  }
}
layer {
  name: "relu3"
  type: "ReLU"
  bottom: "conv3"
  top: "conv3"
}
layer {
  name: "pool3"
  type: "Pooling"
  bottom: "conv3"
  top: "pool3"
  pooling_param {
    pool: AVE
    kernel_size: 3
    stride: 2
  }
}
layer {
  name: "dropout_conv3"
  type: "Dropout"
  bottom: "pool3"
  top: "dropout_conv3"
  dropout_param {
    dropout_ratio: 0.5
  }
}
layer {
  name: "ip500"
  type: "InnerProduct"
  bottom: "dropout_conv3"
  top: "ip500"
  param {
    lr_mult: 1
    decay_mult: 1
  }
  param {
    lr_mult: 2
    decay_mult: 0
  }
  inner_product_param {
    num_output: 500
    weight_filler {
      type: "gaussian"
      std: 0.005
    }
    bias_filler {
      type: "constant"
      value: 0.1
    }
  }
}
layer {
  name: "relu_ip500"
  type: "ReLU"
  bottom: "ip500"
  top: "ip500"
}
layer {
  name: "dropout_ip500"
  type: "Dropout"
  bottom: "ip500"
  top: "ip500"
  dropout_param {
    dropout_ratio: 0.5
  }
}
layer {
  name: "ip_hash"
  type: "InnerProduct"
  bottom: "ip500"
  top: "ip_hash"
  param {
    lr_mult: 1
    decay_mult: 1
  }
  param {
    lr_mult: 2
    decay_mult: 0
  }
  inner_product_param {
    num_output: 12
    weight_filler {
      type: "gaussian"
      std: 0.005
    }
    bias_filler {
      type: "constant"
      value: 0.1
    }
  }
}
layer {
  name: "ip_classification"
  type: "InnerProduct"
  bottom: "ip500"
  top: "ip_classification"
  param {
    lr_mult: 1
    decay_mult: 1
  }
  param {
    lr_mult: 2
    decay_mult: 0
  }
  inner_product_param {
    num_output: 7
    weight_filler {
      type: "gaussian"
      std: 0.005
    }
    bias_filler {
      type: "constant"
      value: 0.1
    }
  }
}
layer {
  name: "loss_hash"
  type: "HashingLoss"
  bottom: "ip_hash"
  bottom: "label"
  top: "loss_hash"
  loss_weight: 0.1
  hashing_loss_param {
    bi_margin: 24
    tradeoff: 0.01
  }
}
layer {
  name: "loss_classification"
  type: "SoftmaxWithLoss"
  bottom: "ip_classification"
  bottom: "label"
  top: "loss_classification"
}
layer {
  name: "accuracy_at_1"
  type: "Accuracy"
  bottom: "ip_classification"
  bottom: "label"
  top: "accuracy_at_1"
  include {
    phase: TEST
  }
  accuracy_param {
    top_k: 1
  }
}
layer {
  name: "accuracy_at_5"
  type: "Accuracy"
  bottom: "ip_classification"
  bottom: "label"
  top: "accuracy_at_5"
  include {
    phase: TEST
  }
  accuracy_param {
    top_k: 5
  }
}
I0830 16:28:43.517307  8215 layer_factory.hpp:77] Creating layer cifar
I0830 16:28:43.517935  8215 net.cpp:91] Creating Layer cifar
I0830 16:28:43.517964  8215 net.cpp:399] cifar -> data
I0830 16:28:43.517988  8215 net.cpp:399] cifar -> label
I0830 16:28:43.519045  8221 db_lmdb.cpp:38] Opened lmdb PATTERN/pattern_val_lmdb
I0830 16:28:43.519479  8215 data_layer.cpp:41] output data size: 100,3,224,224
I0830 16:28:43.638738  8215 net.cpp:141] Setting up cifar
I0830 16:28:43.638820  8215 net.cpp:148] Top shape: 100 3 224 224 (15052800)
I0830 16:28:43.638840  8215 net.cpp:148] Top shape: 100 1 1 1 (100)
I0830 16:28:43.638859  8215 net.cpp:156] Memory required for data: 60211600
I0830 16:28:43.638878  8215 layer_factory.hpp:77] Creating layer label_cifar_1_split
I0830 16:28:43.638912  8215 net.cpp:91] Creating Layer label_cifar_1_split
I0830 16:28:43.638931  8215 net.cpp:425] label_cifar_1_split <- label
I0830 16:28:43.639008  8215 net.cpp:399] label_cifar_1_split -> label_cifar_1_split_0
I0830 16:28:43.639039  8215 net.cpp:399] label_cifar_1_split -> label_cifar_1_split_1
I0830 16:28:43.639060  8215 net.cpp:399] label_cifar_1_split -> label_cifar_1_split_2
I0830 16:28:43.639078  8215 net.cpp:399] label_cifar_1_split -> label_cifar_1_split_3
I0830 16:28:43.639190  8215 net.cpp:141] Setting up label_cifar_1_split
I0830 16:28:43.639216  8215 net.cpp:148] Top shape: 100 1 1 1 (100)
I0830 16:28:43.639233  8215 net.cpp:148] Top shape: 100 1 1 1 (100)
I0830 16:28:43.639250  8215 net.cpp:148] Top shape: 100 1 1 1 (100)
I0830 16:28:43.639266  8215 net.cpp:148] Top shape: 100 1 1 1 (100)
I0830 16:28:43.639281  8215 net.cpp:156] Memory required for data: 60213200
I0830 16:28:43.639297  8215 layer_factory.hpp:77] Creating layer conv1
I0830 16:28:43.639330  8215 net.cpp:91] Creating Layer conv1
I0830 16:28:43.639348  8215 net.cpp:425] conv1 <- data
I0830 16:28:43.639371  8215 net.cpp:399] conv1 -> conv1
I0830 16:28:43.639688  8215 net.cpp:141] Setting up conv1
I0830 16:28:43.639717  8215 net.cpp:148] Top shape: 100 32 28 28 (2508800)
I0830 16:28:43.639734  8215 net.cpp:156] Memory required for data: 70248400
I0830 16:28:43.639760  8215 layer_factory.hpp:77] Creating layer pool1
I0830 16:28:43.639782  8215 net.cpp:91] Creating Layer pool1
I0830 16:28:43.639801  8215 net.cpp:425] pool1 <- conv1
I0830 16:28:43.639819  8215 net.cpp:399] pool1 -> pool1
I0830 16:28:43.639884  8215 net.cpp:141] Setting up pool1
I0830 16:28:43.639915  8215 net.cpp:148] Top shape: 100 32 14 14 (627200)
I0830 16:28:43.639932  8215 net.cpp:156] Memory required for data: 72757200
I0830 16:28:43.639947  8215 layer_factory.hpp:77] Creating layer relu1
I0830 16:28:43.639968  8215 net.cpp:91] Creating Layer relu1
I0830 16:28:43.639983  8215 net.cpp:425] relu1 <- pool1
I0830 16:28:43.640000  8215 net.cpp:386] relu1 -> pool1 (in-place)
I0830 16:28:43.640022  8215 net.cpp:141] Setting up relu1
I0830 16:28:43.640041  8215 net.cpp:148] Top shape: 100 32 14 14 (627200)
I0830 16:28:43.640056  8215 net.cpp:156] Memory required for data: 75266000
I0830 16:28:43.640070  8215 layer_factory.hpp:77] Creating layer norm1
I0830 16:28:43.640094  8215 net.cpp:91] Creating Layer norm1
I0830 16:28:43.640112  8215 net.cpp:425] norm1 <- pool1
I0830 16:28:43.640132  8215 net.cpp:399] norm1 -> norm1
I0830 16:28:43.662619  8215 net.cpp:141] Setting up norm1
I0830 16:28:43.662663  8215 net.cpp:148] Top shape: 100 32 14 14 (627200)
I0830 16:28:43.662680  8215 net.cpp:156] Memory required for data: 77774800
I0830 16:28:43.662696  8215 layer_factory.hpp:77] Creating layer conv2
I0830 16:28:43.662719  8215 net.cpp:91] Creating Layer conv2
I0830 16:28:43.662735  8215 net.cpp:425] conv2 <- norm1
I0830 16:28:43.662756  8215 net.cpp:399] conv2 -> conv2
I0830 16:28:43.663249  8215 net.cpp:141] Setting up conv2
I0830 16:28:43.663276  8215 net.cpp:148] Top shape: 100 32 14 14 (627200)
I0830 16:28:43.663292  8215 net.cpp:156] Memory required for data: 80283600
I0830 16:28:43.663314  8215 layer_factory.hpp:77] Creating layer pool2
I0830 16:28:43.663334  8215 net.cpp:91] Creating Layer pool2
I0830 16:28:43.663349  8215 net.cpp:425] pool2 <- conv2
I0830 16:28:43.663367  8215 net.cpp:399] pool2 -> pool2
I0830 16:28:43.663413  8215 net.cpp:141] Setting up pool2
I0830 16:28:43.663435  8215 net.cpp:148] Top shape: 100 32 7 7 (156800)
I0830 16:28:43.663450  8215 net.cpp:156] Memory required for data: 80910800
I0830 16:28:43.663465  8215 layer_factory.hpp:77] Creating layer relu2
I0830 16:28:43.663486  8215 net.cpp:91] Creating Layer relu2
I0830 16:28:43.663504  8215 net.cpp:425] relu2 <- pool2
I0830 16:28:43.663522  8215 net.cpp:386] relu2 -> pool2 (in-place)
I0830 16:28:43.663542  8215 net.cpp:141] Setting up relu2
I0830 16:28:43.663558  8215 net.cpp:148] Top shape: 100 32 7 7 (156800)
I0830 16:28:43.663573  8215 net.cpp:156] Memory required for data: 81538000
I0830 16:28:43.663586  8215 layer_factory.hpp:77] Creating layer norm2
I0830 16:28:43.663606  8215 net.cpp:91] Creating Layer norm2
I0830 16:28:43.663646  8215 net.cpp:425] norm2 <- pool2
I0830 16:28:43.663666  8215 net.cpp:399] norm2 -> norm2
I0830 16:28:43.663781  8215 net.cpp:141] Setting up norm2
I0830 16:28:43.663806  8215 net.cpp:148] Top shape: 100 32 7 7 (156800)
I0830 16:28:43.663836  8215 net.cpp:156] Memory required for data: 82165200
I0830 16:28:43.663851  8215 layer_factory.hpp:77] Creating layer conv3
I0830 16:28:43.663875  8215 net.cpp:91] Creating Layer conv3
I0830 16:28:43.663892  8215 net.cpp:425] conv3 <- norm2
I0830 16:28:43.663910  8215 net.cpp:399] conv3 -> conv3
I0830 16:28:43.664613  8215 net.cpp:141] Setting up conv3
I0830 16:28:43.664638  8215 net.cpp:148] Top shape: 100 64 7 7 (313600)
I0830 16:28:43.664654  8215 net.cpp:156] Memory required for data: 83419600
I0830 16:28:43.664677  8215 layer_factory.hpp:77] Creating layer relu3
I0830 16:28:43.664697  8215 net.cpp:91] Creating Layer relu3
I0830 16:28:43.664712  8215 net.cpp:425] relu3 <- conv3
I0830 16:28:43.664728  8215 net.cpp:386] relu3 -> conv3 (in-place)
I0830 16:28:43.664747  8215 net.cpp:141] Setting up relu3
I0830 16:28:43.664767  8215 net.cpp:148] Top shape: 100 64 7 7 (313600)
I0830 16:28:43.664783  8215 net.cpp:156] Memory required for data: 84674000
I0830 16:28:43.664796  8215 layer_factory.hpp:77] Creating layer pool3
I0830 16:28:43.664813  8215 net.cpp:91] Creating Layer pool3
I0830 16:28:43.664829  8215 net.cpp:425] pool3 <- conv3
I0830 16:28:43.664849  8215 net.cpp:399] pool3 -> pool3
I0830 16:28:43.664891  8215 net.cpp:141] Setting up pool3
I0830 16:28:43.664912  8215 net.cpp:148] Top shape: 100 64 3 3 (57600)
I0830 16:28:43.664928  8215 net.cpp:156] Memory required for data: 84904400
I0830 16:28:43.664947  8215 layer_factory.hpp:77] Creating layer dropout_conv3
I0830 16:28:43.664964  8215 net.cpp:91] Creating Layer dropout_conv3
I0830 16:28:43.664979  8215 net.cpp:425] dropout_conv3 <- pool3
I0830 16:28:43.664999  8215 net.cpp:399] dropout_conv3 -> dropout_conv3
I0830 16:28:43.665055  8215 net.cpp:141] Setting up dropout_conv3
I0830 16:28:43.665077  8215 net.cpp:148] Top shape: 100 64 3 3 (57600)
I0830 16:28:43.665093  8215 net.cpp:156] Memory required for data: 85134800
I0830 16:28:43.665108  8215 layer_factory.hpp:77] Creating layer ip500
I0830 16:28:43.665130  8215 net.cpp:91] Creating Layer ip500
I0830 16:28:43.665146  8215 net.cpp:425] ip500 <- dropout_conv3
I0830 16:28:43.665166  8215 net.cpp:399] ip500 -> ip500
I0830 16:28:43.676857  8215 net.cpp:141] Setting up ip500
I0830 16:28:43.676913  8215 net.cpp:148] Top shape: 100 500 (50000)
I0830 16:28:43.676929  8215 net.cpp:156] Memory required for data: 85334800
I0830 16:28:43.676952  8215 layer_factory.hpp:77] Creating layer relu_ip500
I0830 16:28:43.676975  8215 net.cpp:91] Creating Layer relu_ip500
I0830 16:28:43.676991  8215 net.cpp:425] relu_ip500 <- ip500
I0830 16:28:43.677013  8215 net.cpp:386] relu_ip500 -> ip500 (in-place)
I0830 16:28:43.677036  8215 net.cpp:141] Setting up relu_ip500
I0830 16:28:43.677052  8215 net.cpp:148] Top shape: 100 500 (50000)
I0830 16:28:43.677067  8215 net.cpp:156] Memory required for data: 85534800
I0830 16:28:43.677080  8215 layer_factory.hpp:77] Creating layer dropout_ip500
I0830 16:28:43.677103  8215 net.cpp:91] Creating Layer dropout_ip500
I0830 16:28:43.677122  8215 net.cpp:425] dropout_ip500 <- ip500
I0830 16:28:43.677139  8215 net.cpp:386] dropout_ip500 -> ip500 (in-place)
I0830 16:28:43.677183  8215 net.cpp:141] Setting up dropout_ip500
I0830 16:28:43.677206  8215 net.cpp:148] Top shape: 100 500 (50000)
I0830 16:28:43.677222  8215 net.cpp:156] Memory required for data: 85734800
I0830 16:28:43.677237  8215 layer_factory.hpp:77] Creating layer ip500_dropout_ip500_0_split
I0830 16:28:43.677260  8215 net.cpp:91] Creating Layer ip500_dropout_ip500_0_split
I0830 16:28:43.677275  8215 net.cpp:425] ip500_dropout_ip500_0_split <- ip500
I0830 16:28:43.677294  8215 net.cpp:399] ip500_dropout_ip500_0_split -> ip500_dropout_ip500_0_split_0
I0830 16:28:43.677316  8215 net.cpp:399] ip500_dropout_ip500_0_split -> ip500_dropout_ip500_0_split_1
I0830 16:28:43.677373  8215 net.cpp:141] Setting up ip500_dropout_ip500_0_split
I0830 16:28:43.677443  8215 net.cpp:148] Top shape: 100 500 (50000)
I0830 16:28:43.677464  8215 net.cpp:148] Top shape: 100 500 (50000)
I0830 16:28:43.677477  8215 net.cpp:156] Memory required for data: 86134800
I0830 16:28:43.677492  8215 layer_factory.hpp:77] Creating layer ip_hash
I0830 16:28:43.677513  8215 net.cpp:91] Creating Layer ip_hash
I0830 16:28:43.677531  8215 net.cpp:425] ip_hash <- ip500_dropout_ip500_0_split_0
I0830 16:28:43.677554  8215 net.cpp:399] ip_hash -> ip_hash
I0830 16:28:43.677920  8215 net.cpp:141] Setting up ip_hash
I0830 16:28:43.677944  8215 net.cpp:148] Top shape: 100 12 (1200)
I0830 16:28:43.677959  8215 net.cpp:156] Memory required for data: 86139600
I0830 16:28:43.677986  8215 layer_factory.hpp:77] Creating layer ip_classification
I0830 16:28:43.678007  8215 net.cpp:91] Creating Layer ip_classification
I0830 16:28:43.678023  8215 net.cpp:425] ip_classification <- ip500_dropout_ip500_0_split_1
I0830 16:28:43.678040  8215 net.cpp:399] ip_classification -> ip_classification
I0830 16:28:43.678300  8215 net.cpp:141] Setting up ip_classification
I0830 16:28:43.678326  8215 net.cpp:148] Top shape: 100 7 (700)
I0830 16:28:43.678341  8215 net.cpp:156] Memory required for data: 86142400
I0830 16:28:43.678360  8215 layer_factory.hpp:77] Creating layer ip_classification_ip_classification_0_split
I0830 16:28:43.678385  8215 net.cpp:91] Creating Layer ip_classification_ip_classification_0_split
I0830 16:28:43.678400  8215 net.cpp:425] ip_classification_ip_classification_0_split <- ip_classification
I0830 16:28:43.678421  8215 net.cpp:399] ip_classification_ip_classification_0_split -> ip_classification_ip_classification_0_split_0
I0830 16:28:43.678442  8215 net.cpp:399] ip_classification_ip_classification_0_split -> ip_classification_ip_classification_0_split_1
I0830 16:28:43.678462  8215 net.cpp:399] ip_classification_ip_classification_0_split -> ip_classification_ip_classification_0_split_2
I0830 16:28:43.678525  8215 net.cpp:141] Setting up ip_classification_ip_classification_0_split
I0830 16:28:43.678551  8215 net.cpp:148] Top shape: 100 7 (700)
I0830 16:28:43.678568  8215 net.cpp:148] Top shape: 100 7 (700)
I0830 16:28:43.678584  8215 net.cpp:148] Top shape: 100 7 (700)
I0830 16:28:43.678598  8215 net.cpp:156] Memory required for data: 86150800
I0830 16:28:43.678612  8215 layer_factory.hpp:77] Creating layer loss_hash
I0830 16:28:43.678632  8215 net.cpp:91] Creating Layer loss_hash
I0830 16:28:43.678650  8215 net.cpp:425] loss_hash <- ip_hash
I0830 16:28:43.678666  8215 net.cpp:425] loss_hash <- label_cifar_1_split_0
I0830 16:28:43.678684  8215 net.cpp:399] loss_hash -> loss_hash
…
