…
I0825 13:05:12.911586 48818 net.cpp:313] The NetState phase (0) differed from the phase (1) specified by a rule in layer data
I0825 13:05:12.914126 48818 net.cpp:49] Initializing net from parameters: 
name: "docomo_ResNet50"
state {
  phase: TRAIN
}
layer {
  name: "data"
  type: "Data"
  top: "data"
  top: "label"
  include {
    phase: TRAIN
  }
  transform_param {
    mirror: true
    crop_size: 224
    mean_value: 104
    mean_value: 117
    mean_value: 123
  }
  data_param {
    source: "FASHION/fashion_train_lmdb"
    batch_size: 10
    backend: LMDB
  }
}
layer {
  name: "conv1"
  type: "Convolution"
  bottom: "data"
  top: "conv1"
  param {
    lr_mult: 1
    decay_mult: 1
  }
  param {
    lr_mult: 2
    decay_mult: 0
  }
  convolution_param {
    num_output: 64
    pad: 3
    kernel_size: 7
    stride: 2
    weight_filler {
      type: "xavier"
      std: 0.01
    }
    bias_filler {
      type: "constant"
      value: 0
    }
  }
}
layer {
  name: "bn_conv1"
  type: "BatchNorm"
  bottom: "conv1"
  top: "conv1"
  batch_norm_param {
    use_global_stats: true
  }
}
layer {
  name: "scale_conv1"
  type: "Scale"
  bottom: "conv1"
  top: "conv1"
  scale_param {
    bias_term: true
  }
}
layer {
  name: "conv1_relu"
  type: "ReLU"
  bottom: "conv1"
  top: "conv1"
}
layer {
  name: "pool1"
  type: "Pooling"
  bottom: "conv1"
  top: "pool1"
  pooling_param {
    pool: MAX
    kernel_size: 3
    stride: 2
  }
}
layer {
  name: "res2a_branch1"
  type: "Convolution"
  bottom: "pool1"
  top: "res2a_branch1"
  param {
    lr_mult: 1
    decay_mult: 1
  }
  convolution_param {
    num_output: 256
    bias_term: false
    pad: 0
    kernel_size: 1
    stride: 1
    weight_filler {
      type: "xavier"
      std: 0.01
    }
  }
}
layer {
  name: "bn2a_branch1"
  type: "BatchNorm"
  bottom: "res2a_branch1"
  top: "res2a_branch1"
  batch_norm_param {
    use_global_stats: true
  }
}
layer {
  name: "scale2a_branch1"
  type: "Scale"
  bottom: "res2a_branch1"
  top: "res2a_branch1"
  scale_param {
    bias_term: true
  }
}
layer {
  name: "res2a_branch2a"
  type: "Convolution"
  bottom: "pool1"
  top: "res2a_branch2a"
  param {
    lr_mult: 1
    decay_mult: 1
  }
  convolution_param {
    num_output: 64
    bias_term: false
    pad: 0
    kernel_size: 1
    stride: 1
    weight_filler {
      type: "xavier"
      std: 0.01
    }
  }
}
layer {
  name: "bn2a_branch2a"
  type: "BatchNorm"
  bottom: "res2a_branch2a"
  top: "res2a_branch2a"
  batch_norm_param {
    use_global_stats: true
  }
}
layer {
  name: "scale2a_branch2a"
  type: "Scale"
  bottom: "res2a_branch2a"
  top: "res2a_branch2a"
  scale_param {
    bias_term: true
  }
}
layer {
  name: "res2a_branch2a_relu"
  type: "ReLU"
  bottom: "res2a_branch2a"
  top: "res2a_branch2a"
}
layer {
  name: "res2a_branch2b"
  type: "Convolution"
  bottom: "res2a_branch2a"
  top: "res2a_branch2b"
  param {
    lr_mult: 1
    decay_mult: 1
  }
  convolution_param {
    num_output: 64
    bias_term: false
    pad: 1
    kernel_size: 3
    stride: 1
    weight_filler {
      type: "xavier"
      std: 0.01
    }
  }
}
layer {
  name: "bn2a_branch2b"
  type: "BatchNorm"
  bottom: "res2a_branch2b"
  top: "res2a_branch2b"
  batch_norm_param {
    use_global_stats: true
  }
}
layer {
  name: "scale2a_branch2b"
  type: "Scale"
  bottom: "res2a_branch2b"
  top: "res2a_branch2b"
  scale_param {
    bias_term: true
  }
}
layer {
  name: "res2a_branch2b_relu"
  type: "ReLU"
  bottom: "res2a_branch2b"
  top: "res2a_branch2b"
}
layer {
  name: "res2a_branch2c"
  type: "Convolution"
  bottom: "res2a_branch2b"
  top: "res2a_branch2c"
  param {
    lr_mult: 1
    decay_mult: 1
  }
  convolution_param {
    num_output: 256
    bias_term: false
    pad: 0
    kernel_size: 1
    stride: 1
    weight_filler {
      type: "xavier"
      std: 0.01
    }
  }
}
layer {
  name: "bn2a_branch2c"
  type: "BatchNorm"
  bottom: "res2a_branch2c"
  top: "res2a_branch2c"
  batch_norm_param {
    use_global_stats: true
  }
}
layer {
  name: "scale2a_branch2c"
  type: "Scale"
  bottom: "res2a_branch2c"
  top: "res2a_branch2c"
  scale_param {
    bias_term: true
  }
}
layer {
  name: "res2a"
  type: "Eltwise"
  bottom: "res2a_branch1"
  bottom: "res2a_branch2c"
  top: "res2a"
  eltwise_param {
    operation: SUM
  }
}
layer {
  name: "res2a_relu"
  type: "ReLU"
  bottom: "res2a"
  top: "res2a"
}
layer {
  name: "res2b_branch2a"
  type: "Convolution"
  bottom: "res2a"
  top: "res2b_branch2a"
  param {
    lr_mult: 1
    decay_mult: 1
  }
  convolution_param {
    num_output: 64
    bias_term: false
    pad: 0
    kernel_size: 1
    stride: 1
    weight_filler {
      type: "xavier"
      std: 0.01
    }
  }
}
layer {
  name: "bn2b_branch2a"
  type: "BatchNorm"
  bottom: "res2b_branch2a"
  top: "res2b_branch2a"
  batch_norm_param {
    use_global_stats: true
  }
}
layer {
  name: "scale2b_branch2a"
  type: "Scale"
  bottom: "res2b_branch2a"
  top: "res2b_branch2a"
  scale_param {
    bias_term: true
  }
}
layer {
  name: "res2b_branch2a_relu"
  type: "ReLU"
  bottom: "res2b_branch2a"
  top: "res2b_branch2a"
}
layer {
  name: "res2b_branch2b"
  type: "Convolution"
  bottom: "res2b_branch2a"
  top: "res2b_branch2b"
  param {
    lr_mult: 1
    decay_mult: 1
  }
  convolution_param {
    num_output: 64
    bias_term: false
    pad: 1
    kernel_size: 3
    stride: 1
    weight_filler {
      type: "xavier"
      std: 0.01
    }
  }
}
layer {
  name: "bn2b_branch2b"
  type: "BatchNorm"
  bottom: "res2b_branch2b"
  top: "res2b_branch2b"
  batch_norm_param {
    use_global_stats: true
  }
}
layer {
  name: "scale2b_branch2b"
  type: "Scale"
  bottom: "res2b_branch2b"
  top: "res2b_branch2b"
  scale_param {
    bias_term: true
  }
}
layer {
  name: "res2b_branch2b_relu"
  type: "ReLU"
  bottom: "res2b_branch2b"
  top: "res2b_branch2b"
}
layer {
  name: "res2b_branch2c"
  type: "Convolution"
  bottom: "res2b_branch2b"
  top: "res2b_branch2c"
  param {
    lr_mult: 1
    decay_mult: 1
  }
  convolution_param {
    num_output: 256
    bias_term: false
    pad: 0
    kernel_size: 1
    stride: 1
    weight_filler {
      type: "xavier"
      std: 0.01
    }
  }
}
layer {
  name: "bn2b_branch2c"
  type: "BatchNorm"
  bottom: "res2b_branch2c"
  top: "res2b_branch2c"
  batch_norm_param {
    use_global_stats: true
  }
}
layer {
  name: "scale2b_branch2c"
  type: "Scale"
  bottom: "res2b_branch2c"
  top: "res2b_branch2c"
  scale_param {
    bias_term: true
  }
}
layer {
  name: "res2b"
  type: "Eltwise"
  bottom: "res2a"
  bottom: "res2b_branch2c"
  top: "res2b"
  eltwise_param {
    operation: SUM
  }
}
layer {
  name: "res2b_relu"
  type: "ReLU"
  bottom: "res2b"
  top: "res2b"
}
layer {
  name: "res2c_branch2a"
  type: "Convolution"
  bottom: "res2b"
  top: "res2c_branch2a"
  param {
    lr_mult: 1
    decay_mult: 1
  }
  convolution_param {
    num_output: 64
    bias_term: false
    pad: 0
    kernel_size: 1
    stride: 1
    weight_filler {
      type: "xavier"
      std: 0.01
    }
  }
}
layer {
  name: "bn2c_branch2a"
  type: "BatchNorm"
  bottom: "res2c_branch2a"
  top: "res2c_branch2a"
  batch_norm_param {
    use_global_stats: true
  }
}
layer {
  name: "scale2c_branch2a"
  type: "Scale"
  bottom: "res2c_branch2a"
  top: "res2c_branch2a"
  scale_param {
    bias_term: true
  }
}
layer {
  name: "res2c_branch2a_relu"
  type: "ReLU"
  bottom: "res2c_branch2a"
  top: "res2c_branch2a"
}
layer {
  name: "res2c_branch2b"
  type: "Convolution"
  bottom: "res2c_branch2a"
  top: "res2c_branch2b"
  param {
    lr_mult: 1
    decay_mult: 1
  }
  convolution_param {
    num_output: 64
    bias_term: false
    pad: 1
    kernel_size: 3
    stride: 1
    weight_filler {
      type: "xavier"
      std: 0.01
    }
  }
}
layer {
  name: "bn2c_branch2b"
  type: "BatchNorm"
  bottom: "res2c_branch2b"
  top: "res2c_branch2b"
  batch_norm_param {
    use_global_stats: true
  }
}
layer {
  name: "scale2c_branch2b"
  type: "Scale"
  bottom: "res2c_branch2b"
  top: "res2c_branch2b"
  scale_param {
    bias_term: true
  }
}
layer {
  name: "res2c_branch2b_relu"
  type: "ReLU"
  bottom: "res2c_branch2b"
  top: "res2c_branch2b"
}
layer {
  name: "res2c_branch2c"
  type: "Convolution"
  bottom: "res2c_branch2b"
  top: "res2c_branch2c"
  param {
    lr_mult: 1
    decay_mult: 1
  }
  convolution_param {
    num_output: 256
    bias_term: false
    pad: 0
    kernel_size: 1
    stride: 1
    weight_filler {
      type: "xavier"
      std: 0.01
    }
  }
}
layer {
  name: "bn2c_branch2c"
  type: "BatchNorm"
  bottom: "res2c_branch2c"
  top: "res2c_branch2c"
  batch_norm_param {
    use_global_stats: true
  }
}
layer {
  name: "scale2c_branch2c"
  type: "Scale"
  bottom: "res2c_branch2c"
  top: "res2c_branch2c"
  scale_param {
    bias_term: true
  }
}
layer {
  name: "res2c"
  type: "Eltwise"
  bottom: "res2b"
  bottom: "res2c_branch2c"
  top: "res2c"
  eltwise_param {
    operation: SUM
  }
}
layer {
  name: "res2c_relu"
  type: "ReLU"
  bottom: "res2c"
  top: "res2c"
}
layer {
  name: "res3a_branch1"
  type: "Convolution"
  bottom: "res2c"
  top: "res3a_branch1"
  param {
    lr_mult: 1
    decay_mult: 1
  }
  convolution_param {
    num_output: 512
    bias_term: false
    pad: 0
    kernel_size: 1
    stride: 2
    weight_filler {
      type: "xavier"
      std: 0.01
    }
  }
}
layer {
  name: "bn3a_branch1"
  type: "BatchNorm"
  bottom: "res3a_branch1"
  top: "res3a_branch1"
  batch_norm_param {
    use_global_stats: true
  }
}
layer {
  name: "scale3a_branch1"
  type: "Scale"
  bottom: "res3a_branch1"
  top: "res3a_branch1"
  scale_param {
    bias_term: true
  }
}
layer {
  name: "res3a_branch2a"
  type: "Convolution"
  bottom: "res2c"
  top: "res3a_branch2a"
  param {
    lr_mult: 1
    decay_mult: 1
  }
  convolution_param {
    num_output: 128
    bias_term: false
    pad: 0
    kernel_size: 1
    stride: 2
    weight_filler {
      type: "xavier"
      std: 0.01
    }
  }
}
layer {
  name: "bn3a_branch2a"
  type: "BatchNorm"
  bottom: "res3a_branch2a"
  top: "res3a_branch2a"
  batch_norm_param {
    use_global_stats: true
  }
}
layer {
  name: "scale3a_branch2a"
  type: "Scale"
  bottom: "res3a_branch2a"
  top: "res3a_branch2a"
  scale_param {
    bias_term: true
  }
}
layer {
  name: "res3a_branch2a_relu"
  type: "ReLU"
  bottom: "res3a_branch2a"
  top: "res3a_branch2a"
}
layer {
  name: "res3a_branch2b"
  type: "Convolution"
  bottom: "res3a_branch2a"
  top: "res3a_branch2b"
  param {
    lr_mult: 1
    decay_mult: 1
  }
  convolution_param {
    num_output: 128
    bias_term: false
    pad: 1
    kernel_size: 3
    stride: 1
    weight_filler {
      type: "xavier"
      std: 0.01
    }
  }
}
layer {
  name: "bn3a_branch2b"
  type: "BatchNorm"
  bottom: "res3a_branch2b"
  top: "res3a_branch2b"
  batch_norm_param {
    use_global_stats: true
  }
}
layer {
  name: "scale3a_branch2b"
  type: "Scale"
  bottom: "res3a_branch2b"
  top: "res3a_branch2b"
  scale_param {
    bias_term: true
  }
}
layer {
  name: "res3a_branch2b_relu"
  type: "ReLU"
  bottom: "res3a_branch2b"
  top: "res3a_branch2b"
}
layer {
  name: "res3a_branch2c"
  type: "Convolution"
  bottom: "res3a_branch2b"
  top: "res3a_branch2c"
  param {
    lr_mult: 1
    decay_mult: 1
  }
  convolution_param {
    num_output: 512
    bias_term: false
    pad: 0
    kernel_size: 1
    stride: 1
    weight_filler {
      type: "xavier"
      std: 0.01
    }
  }
}
layer {
  name: "bn3a_branch2c"
  type: "BatchNorm"
  bottom: "res3a_branch2c"
  top: "res3a_branch2c"
  batch_norm_param {
    use_global_stats: true
  }
}
layer {
  name: "scale3a_branch2c"
  type: "Scale"
  bottom: "res3a_branch2c"
  top: "res3a_branch2c"
  scale_param {
    bias_term: true
  }
}
layer {
  name: "res3a"
  type: "Eltwise"
  bottom: "res3a_branch1"
  bottom: "res3a_branch2c"
  top: "res3a"
}
layer {
  name: "res3a_relu"
  type: "ReLU"
  bottom: "res3a"
  top: "res3a"
}
layer {
  name: "res3b_branch2a"
  type: "Convolution"
  bottom: "res3a"
  top: "res3b_branch2a"
  param {
    lr_mult: 1
    decay_mult: 1
  }
  convolution_param {
    num_output: 128
    bias_term: false
    pad: 0
    kernel_size: 1
    stride: 1
    weight_filler {
      type: "xavier"
      std: 0.01
    }
  }
}
layer {
  name: "bn3b_branch2a"
  type: "BatchNorm"
  bottom: "res3b_branch2a"
  top: "res3b_branch2a"
  batch_norm_param {
    use_global_stats: true
  }
}
layer {
  name: "scale3b_branch2a"
  type: "Scale"
  bottom: "res3b_branch2a"
  top: "res3b_branch2a"
  scale_param {
    bias_term: true
  }
}
layer {
  name: "res3b_branch2a_relu"
  type: "ReLU"
  bottom: "res3b_branch2a"
  top: "res3b_branch2a"
}
layer {
  name: "res3b_branch2b"
  type: "Convolution"
  bottom: "res3b_branch2a"
  top: "res3b_branch2b"
  param {
    lr_mult: 1
    decay_mult: 1
  }
  convolution_param {
    num_output: 128
    bias_term: false
    pad: 1
    kernel_size: 3
    stride: 1
    weight_filler {
      type: "xavier"
      std: 0.01
    }
  }
}
layer {
  name: "bn3b_branch2b"
  type: "BatchNorm"
  bottom: "res3b_branch2b"
  top: "res3b_branch2b"
  batch_norm_param {
    use_global_stats: true
  }
}
layer {
  name: "scale3b_branch2b"
  type: "Scale"
  bottom: "res3b_branch2b"
  top: "res3b_branch2b"
  scale_param {
    bias_term: true
  }
}
layer {
  name: "res3b_branch2b_relu"
  type: "ReLU"
  bottom: "res3b_branch2b"
  top: "res3b_branch2b"
}
layer {
  name: "res3b_branch2c"
  type: "Convolution"
  bottom: "res3b_branch2b"
  top: "res3b_branch2c"
  param {
    lr_mult: 1
    decay_mult: 1
  }
  convolution_param {
    num_output: 512
    bias_term: false
    pad: 0
    kernel_size: 1
    stride: 1
    weight_filler {
      type: "xavier"
      std: 0.01
    }
  }
}
layer {
  name: "bn3b_branch2c"
  type: "BatchNorm"
  bottom: "res3b_branch2c"
  top: "res3b_branch2c"
  batch_norm_param {
    use_global_stats: true
  }
}
layer {
  name: "scale3b_branch2c"
  type: "Scale"
  bottom: "res3b_branch2c"
  top: "res3b_branch2c"
  scale_param {
    bias_term: true
  }
}
layer {
  name: "res3b"
  type: "Eltwise"
  bottom: "res3a"
  bottom: "res3b_branch2c"
  top: "res3b"
}
layer {
  name: "res3b_relu"
  type: "ReLU"
  bottom: "res3b"
  top: "res3b"
}
layer {
  name: "res3c_branch2a"
  type: "Convolution"
  bottom: "res3b"
  top: "res3c_branch2a"
  param {
    lr_mult: 1
    decay_mult: 1
  }
  convolution_param {
    num_output: 128
    bias_term: false
    pad: 0
    kernel_size: 1
    stride: 1
    weight_filler {
      type: "xavier"
      std: 0.01
    }
  }
}
layer {
  name: "bn3c_branch2a"
  type: "BatchNorm"
  bottom: "res3c_branch2a"
  top: "res3c_branch2a"
  batch_norm_param {
    use_global_stats: true
  }
}
layer {
  name: "scale3c_branch2a"
  type: "Scale"
  bottom: "res3c_branch2a"
  top: "res3c_branch2a"
  scale_param {
    bias_term: true
  }
}
layer {
  name: "res3c_branch2a_relu"
  type: "ReLU"
  bottom: "res3c_branch2a"
  top: "res3c_branch2a"
}
layer {
  name: "res3c_branch2b"
  type: "Convolution"
  bottom: "res3c_branch2a"
  top: "res3c_branch2b"
  param {
    lr_mult: 1
    decay_mult: 1
  }
  convolution_param {
    num_output: 128
    bias_term: false
    pad: 1
    kernel_size: 3
    stride: 1
    weight_filler {
      type: "xavier"
      std: 0.01
    }
  }
}
layer {
  name: "bn3c_branch2b"
  type: "BatchNorm"
  bottom: "res3c_branch2b"
  top: "res3c_branch2b"
  batch_norm_param {
    use_global_stats: true
  }
}
layer {
  name: "scale3c_branch2b"
  type: "Scale"
  bottom: "res3c_branch2b"
  top: "res3c_branch2b"
  scale_param {
    bias_term: true
  }
}
layer {
  name: "res3c_branch2b_relu"
  type: "ReLU"
  bottom: "res3c_branch2b"
  top: "res3c_branch2b"
}
layer {
  name: "res3c_branch2c"
  type: "Convolution"
  bottom: "res3c_branch2b"
  top: "res3c_branch2c"
  param {
    lr_mult: 1
    decay_mult: 1
  }
  convolution_param {
    num_output: 512
    bias_term: false
    pad: 0
    kernel_size: 1
    stride: 1
    weight_filler {
      type: "xavier"
      std: 0.01
    }
  }
}
layer {
  name: "bn3c_branch2c"
  type: "BatchNorm"
  bottom: "res3c_branch2c"
  top: "res3c_branch2c"
  batch_norm_param {
    use_global_stats: true
  }
}
layer {
  name: "scale3c_branch2c"
  type: "Scale"
  bottom: "res3c_branch2c"
  top: "res3c_branch2c"
  scale_param {
    bias_term: true
  }
}
layer {
  name: "res3c"
  type: "Eltwise"
  bottom: "res3b"
  bottom: "res3c_branch2c"
  top: "res3c"
}
layer {
  name: "res3c_relu"
  type: "ReLU"
  bottom: "res3c"
  top: "res3c"
}
layer {
  name: "res3d_branch2a"
  type: "Convolution"
  bottom: "res3c"
  top: "res3d_branch2a"
  param {
    lr_mult: 1
    decay_mult: 1
  }
  convolution_param {
    num_output: 128
    bias_term: false
    pad: 0
    kernel_size: 1
    stride: 1
    weight_filler {
      type: "xavier"
      std: 0.01
    }
  }
}
layer {
  name: "bn3d_branch2a"
  type: "BatchNorm"
  bottom: "res3d_branch2a"
  top: "res3d_branch2a"
  batch_norm_param {
    use_global_stats: true
  }
}
layer {
  name: "scale3d_branch2a"
  type: "Scale"
  bottom: "res3d_branch2a"
  top: "res3d_branch2a"
  scale_param {
    bias_term: true
  }
}
layer {
  name: "res3d_branch2a_relu"
  type: "ReLU"
  bottom: "res3d_branch2a"
  top: "res3d_branch2a"
}
layer {
  name: "res3d_branch2b"
  type: "Convolution"
  bottom: "res3d_branch2a"
  top: "res3d_branch2b"
  param {
    lr_mult: 1
    decay_mult: 1
  }
  convolution_param {
    num_output: 128
    bias_term: false
    pad: 1
    kernel_size: 3
    stride: 1
    weight_filler {
      type: "xavier"
      std: 0.01
    }
  }
}
layer {
  name: "bn3d_branch2b"
  type: "BatchNorm"
  bottom: "res3d_branch2b"
  top: "res3d_branch2b"
  batch_norm_param {
    use_global_stats: true
  }
}
layer {
  name: "scale3d_branch2b"
  type: "Scale"
  bottom: "res3d_branch2b"
  top: "res3d_branch2b"
  scale_param {
    bias_term: true
  }
}
layer {
  name: "res3d_branch2b_relu"
  type: "ReLU"
  bottom: "res3d_branch2b"
  top: "res3d_branch2b"
}
layer {
  name: "res3d_branch2c"
  type: "Convolution"
  bottom: "res3d_branch2b"
  top: "res3d_branch2c"
  param {
    lr_mult: 1
    decay_mult: 1
  }
  convolution_param {
    num_output: 512
    bias_term: false
    pad: 0
    kernel_size: 1
    stride: 1
    weight_filler {
      type: "xavier"
      std: 0.01
    }
  }
}
layer {
  name: "bn3d_branch2c"
  type: "BatchNorm"
  bottom: "res3d_branch2c"
  top: "res3d_branch2c"
  batch_norm_param {
    use_global_stats: true
  }
}
layer {
  name: "scale3d_branch2c"
  type: "Scale"
  bottom: "res3d_branch2c"
  top: "res3d_branch2c"
  scale_param {
    bias_term: true
  }
}
layer {
  name: "res3d"
  type: "Eltwise"
  bottom: "res3c"
  bottom: "res3d_branch2c"
  top: "res3d"
}
layer {
  name: "res3d_relu"
  type: "ReLU"
  bottom: "res3d"
  top: "res3d"
}
layer {
  name: "res4a_branch1"
  type: "Convolution"
  bottom: "res3d"
  top: "res4a_branch1"
  convolution_param {
    num_output: 1024
    bias_term: false
    pad: 0
    kernel_size: 1
    stride: 2
  }
}
layer {
  name: "bn4a_branch1"
  type: "BatchNorm"
  bottom: "res4a_branch1"
  top: "res4a_branch1"
  batch_norm_param {
    use_global_stats: true
  }
}
layer {
  name: "scale4a_branch1"
  type: "Scale"
  bottom: "res4a_branch1"
  top: "res4a_branch1"
  scale_param {
    bias_term: true
  }
}
layer {
  name: "res4a_branch2a"
  type: "Convolution"
  bottom: "res3d"
  top: "res4a_branch2a"
  param {
    lr_mult: 1
    decay_mult: 1
  }
  convolution_param {
    num_output: 256
    bias_term: false
    pad: 0
    kernel_size: 1
    stride: 2
    weight_filler {
      type: "xavier"
      std: 0.01
    }
  }
}
layer {
  name: "bn4a_branch2a"
  type: "BatchNorm"
  bottom: "res4a_branch2a"
  top: "res4a_branch2a"
  batch_norm_param {
    use_global_stats: true
  }
}
layer {
  name: "scale4a_branch2a"
  type: "Scale"
  bottom: "res4a_branch2a"
  top: "res4a_branch2a"
  scale_param {
    bias_term: true
  }
}
layer {
  name: "res4a_branch2a_relu"
  type: "ReLU"
  bottom: "res4a_branch2a"
  top: "res4a_branch2a"
}
layer {
  name: "res4a_branch2b"
  type: "Convolution"
  bottom: "res4a_branch2a"
  top: "res4a_branch2b"
  param {
    lr_mult: 1
    decay_mult: 1
  }
  convolution_param {
    num_output: 256
    bias_term: false
    pad: 1
    kernel_size: 3
    stride: 1
    weight_filler {
      type: "xavier"
      std: 0.01
    }
  }
}
layer {
  name: "bn4a_branch2b"
  type: "BatchNorm"
  bottom: "res4a_branch2b"
  top: "res4a_branch2b"
  batch_norm_param {
    use_global_stats: true
  }
}
layer {
  name: "scale4a_branch2b"
  type: "Scale"
  bottom: "res4a_branch2b"
  top: "res4a_branch2b"
  scale_param {
    bias_term: true
  }
}
layer {
  name: "res4a_branch2b_relu"
  type: "ReLU"
  bottom: "res4a_branch2b"
  top: "res4a_branch2b"
}
layer {
  name: "res4a_branch2c"
  type: "Convolution"
  bottom: "res4a_branch2b"
  top: "res4a_branch2c"
  param {
    lr_mult: 1
    decay_mult: 1
  }
  convolution_param {
    num_output: 1024
    bias_term: false
    pad: 0
    kernel_size: 1
    stride: 1
    weight_filler {
      type: "xavier"
      std: 0.01
    }
  }
}
layer {
  name: "bn4a_branch2c"
  type: "BatchNorm"
  bottom: "res4a_branch2c"
  top: "res4a_branch2c"
  batch_norm_param {
    use_global_stats: true
  }
}
layer {
  name: "scale4a_branch2c"
  type: "Scale"
  bottom: "res4a_branch2c"
  top: "res4a_branch2c"
  scale_param {
    bias_term: true
  }
}
layer {
  name: "res4a"
  type: "Eltwise"
  bottom: "res4a_branch1"
  bottom: "res4a_branch2c"
  top: "res4a"
}
layer {
  name: "res4a_relu"
  type: "ReLU"
  bottom: "res4a"
  top: "res4a"
}
layer {
  name: "res4b_branch2a"
  type: "Convolution"
  bottom: "res4a"
  top: "res4b_branch2a"
  param {
    lr_mult: 1
    decay_mult: 1
  }
  convolution_param {
    num_output: 256
    bias_term: false
    pad: 0
    kernel_size: 1
    stride: 1
    weight_filler {
      type: "xavier"
      std: 0.01
    }
  }
}
layer {
  name: "bn4b_branch2a"
  type: "BatchNorm"
  bottom: "res4b_branch2a"
  top: "res4b_branch2a"
  batch_norm_param {
    use_global_stats: true
  }
}
layer {
  name: "scale4b_branch2a"
  type: "Scale"
  bottom: "res4b_branch2a"
  top: "res4b_branch2a"
  scale_param {
    bias_term: true
  }
}
layer {
  name: "res4b_branch2a_relu"
  type: "ReLU"
  bottom: "res4b_branch2a"
  top: "res4b_branch2a"
}
layer {
  name: "res4b_branch2b"
  type: "Convolution"
  bottom: "res4b_branch2a"
  top: "res4b_branch2b"
  param {
    lr_mult: 1
    decay_mult: 1
  }
  convolution_param {
    num_output: 256
    bias_term: false
    pad: 1
    kernel_size: 3
    stride: 1
    weight_filler {
      type: "xavier"
      std: 0.01
    }
  }
}
layer {
  name: "bn4b_branch2b"
  type: "BatchNorm"
  bottom: "res4b_branch2b"
  top: "res4b_branch2b"
  batch_norm_param {
    use_global_stats: true
  }
}
layer {
  name: "scale4b_branch2b"
  type: "Scale"
  bottom: "res4b_branch2b"
  top: "res4b_branch2b"
  scale_param {
    bias_term: true
  }
}
layer {
  name: "res4b_branch2b_relu"
  type: "ReLU"
  bottom: "res4b_branch2b"
  top: "res4b_branch2b"
}
layer {
  name: "res4b_branch2c"
  type: "Convolution"
  bottom: "res4b_branch2b"
  top: "res4b_branch2c"
  param {
    lr_mult: 1
    decay_mult: 1
  }
  convolution_param {
    num_output: 1024
    bias_term: false
    pad: 0
    kernel_size: 1
    stride: 1
    weight_filler {
      type: "xavier"
      std: 0.01
    }
  }
}
layer {
  name: "bn4b_branch2c"
  type: "BatchNorm"
  bottom: "res4b_branch2c"
  top: "res4b_branch2c"
  batch_norm_param {
    use_global_stats: true
  }
}
layer {
  name: "scale4b_branch2c"
  type: "Scale"
  bottom: "res4b_branch2c"
  top: "res4b_branch2c"
  scale_param {
    bias_term: true
  }
}
layer {
  name: "res4b"
  type: "Eltwise"
  bottom: "res4a"
  bottom: "res4b_branch2c"
  top: "res4b"
}
layer {
  name: "res4b_relu"
  type: "ReLU"
  bottom: "res4b"
  top: "res4b"
}
layer {
  name: "res4c_branch2a"
  type: "Convolution"
  bottom: "res4b"
  top: "res4c_branch2a"
  param {
    lr_mult: 1
    decay_mult: 1
  }
  convolution_param {
    num_output: 256
    bias_term: false
    pad: 0
    kernel_size: 1
    stride: 1
    weight_filler {
      type: "xavier"
      std: 0.01
    }
  }
}
layer {
  name: "bn4c_branch2a"
  type: "BatchNorm"
  bottom: "res4c_branch2a"
  top: "res4c_branch2a"
  batch_norm_param {
    use_global_stats: true
  }
}
layer {
  name: "scale4c_branch2a"
  type: "Scale"
  bottom: "res4c_branch2a"
  top: "res4c_branch2a"
  scale_param {
    bias_term: true
  }
}
layer {
  name: "res4c_branch2a_relu"
  type: "ReLU"
  bottom: "res4c_branch2a"
  top: "res4c_branch2a"
}
layer {
  name: "res4c_branch2b"
  type: "Convolution"
  bottom: "res4c_branch2a"
  top: "res4c_branch2b"
  param {
    lr_mult: 1
    decay_mult: 1
  }
  convolution_param {
    num_output: 256
    bias_term: false
    pad: 1
    kernel_size: 3
    stride: 1
    weight_filler {
      type: "xavier"
      std: 0.01
    }
  }
}
layer {
  name: "bn4c_branch2b"
  type: "BatchNorm"
  bottom: "res4c_branch2b"
  top: "res4c_branch2b"
  batch_norm_param {
    use_global_stats: true
  }
}
layer {
  name: "scale4c_branch2b"
  type: "Scale"
  bottom: "res4c_branch2b"
  top: "res4c_branch2b"
  scale_param {
    bias_term: true
  }
}
layer {
  name: "res4c_branch2b_relu"
  type: "ReLU"
  bottom: "res4c_branch2b"
  top: "res4c_branch2b"
}
layer {
  name: "res4c_branch2c"
  type: "Convolution"
  bottom: "res4c_branch2b"
  top: "res4c_branch2c"
  param {
    lr_mult: 1
    decay_mult: 1
  }
  convolution_param {
    num_output: 1024
    bias_term: false
    pad: 0
    kernel_size: 1
    stride: 1
    weight_filler {
      type: "xavier"
      std: 0.01
    }
  }
}
layer {
  name: "bn4c_branch2c"
  type: "BatchNorm"
  bottom: "res4c_branch2c"
  top: "res4c_branch2c"
  batch_norm_param {
    use_global_stats: true
  }
}
layer {
  name: "scale4c_branch2c"
  type: "Scale"
  bottom: "res4c_branch2c"
  top: "res4c_branch2c"
  scale_param {
    bias_term: true
  }
}
layer {
  name: "res4c"
  type: "Eltwise"
  bottom: "res4b"
  bottom: "res4c_branch2c"
  top: "res4c"
}
layer {
  name: "res4c_relu"
  type: "ReLU"
  bottom: "res4c"
  top: "res4c"
}
layer {
  name: "res4d_branch2a"
  type: "Convolution"
  bottom: "res4c"
  top: "res4d_branch2a"
  param {
    lr_mult: 1
    decay_mult: 1
  }
  convolution_param {
    num_output: 256
    bias_term: false
    pad: 0
    kernel_size: 1
    stride: 1
    weight_filler {
      type: "xavier"
      std: 0.01
    }
  }
}
layer {
  name: "bn4d_branch2a"
  type: "BatchNorm"
  bottom: "res4d_branch2a"
  top: "res4d_branch2a"
  batch_norm_param {
    use_global_stats: true
  }
}
layer {
  name: "scale4d_branch2a"
  type: "Scale"
  bottom: "res4d_branch2a"
  top: "res4d_branch2a"
  scale_param {
    bias_term: true
  }
}
layer {
  name: "res4d_branch2a_relu"
  type: "ReLU"
  bottom: "res4d_branch2a"
  top: "res4d_branch2a"
}
layer {
  name: "res4d_branch2b"
  type: "Convolution"
  bottom: "res4d_branch2a"
  top: "res4d_branch2b"
  param {
    lr_mult: 1
    decay_mult: 1
  }
  convolution_param {
    num_output: 256
    bias_term: false
    pad: 1
    kernel_size: 3
    stride: 1
    weight_filler {
      type: "xavier"
      std: 0.01
    }
  }
}
layer {
  name: "bn4d_branch2b"
  type: "BatchNorm"
  bottom: "res4d_branch2b"
  top: "res4d_branch2b"
  batch_norm_param {
    use_global_stats: true
  }
}
layer {
  name: "scale4d_branch2b"
  type: "Scale"
  bottom: "res4d_branch2b"
  top: "res4d_branch2b"
  scale_param {
    bias_term: true
  }
}
layer {
  name: "res4d_branch2b_relu"
  type: "ReLU"
  bottom: "res4d_branch2b"
  top: "res4d_branch2b"
}
layer {
  name: "res4d_branch2c"
  type: "Convolution"
  bottom: "res4d_branch2b"
  top: "res4d_branch2c"
  param {
    lr_mult: 1
    decay_mult: 1
  }
  convolution_param {
    num_output: 1024
    bias_term: false
    pad: 0
    kernel_size: 1
    stride: 1
    weight_filler {
      type: "xavier"
      std: 0.01
    }
  }
}
layer {
  name: "bn4d_branch2c"
  type: "BatchNorm"
  bottom: "res4d_branch2c"
  top: "res4d_branch2c"
  batch_norm_param {
    use_global_stats: true
  }
}
layer {
  name: "scale4d_branch2c"
  type: "Scale"
  bottom: "res4d_branch2c"
  top: "res4d_branch2c"
  scale_param {
    bias_term: true
  }
}
layer {
  name: "res4d"
  type: "Eltwise"
  bottom: "res4c"
  bottom: "res4d_branch2c"
  top: "res4d"
}
layer {
  name: "res4d_relu"
  type: "ReLU"
  bottom: "res4d"
  top: "res4d"
}
layer {
  name: "res4e_branch2a"
  type: "Convolution"
  bottom: "res4d"
  top: "res4e_branch2a"
  param {
    lr_mult: 1
    decay_mult: 1
  }
  convolution_param {
    num_output: 256
    bias_term: false
    pad: 0
    kernel_size: 1
    stride: 1
    weight_filler {
      type: "xavier"
      std: 0.01
    }
  }
}
layer {
  name: "bn4e_branch2a"
  type: "BatchNorm"
  bottom: "res4e_branch2a"
  top: "res4e_branch2a"
  batch_norm_param {
    use_global_stats: true
  }
}
layer {
  name: "scale4e_branch2a"
  type: "Scale"
  bottom: "res4e_branch2a"
  top: "res4e_branch2a"
  scale_param {
    bias_term: true
  }
}
layer {
  name: "res4e_branch2a_relu"
  type: "ReLU"
  bottom: "res4e_branch2a"
  top: "res4e_branch2a"
}
layer {
  name: "res4e_branch2b"
  type: "Convolution"
  bottom: "res4e_branch2a"
  top: "res4e_branch2b"
  param {
    lr_mult: 1
    decay_mult: 1
  }
  convolution_param {
    num_output: 256
    bias_term: false
    pad: 1
    kernel_size: 3
    stride: 1
    weight_filler {
      type: "xavier"
      std: 0.01
    }
  }
}
layer {
  name: "bn4e_branch2b"
  type: "BatchNorm"
  bottom: "res4e_branch2b"
  top: "res4e_branch2b"
  batch_norm_param {
    use_global_stats: true
  }
}
layer {
  name: "scale4e_branch2b"
  type: "Scale"
  bottom: "res4e_branch2b"
  top: "res4e_branch2b"
  scale_param {
    bias_term: true
  }
}
layer {
  name: "res4e_branch2b_relu"
  type: "ReLU"
  bottom: "res4e_branch2b"
  top: "res4e_branch2b"
}
layer {
  name: "res4e_branch2c"
  type: "Convolution"
  bottom: "res4e_branch2b"
  top: "res4e_branch2c"
  param {
    lr_mult: 1
    decay_mult: 1
  }
  convolution_param {
    num_output: 1024
    bias_term: false
    pad: 0
    kernel_size: 1
    stride: 1
    weight_filler {
      type: "xavier"
      std: 
I0825 13:05:12.926827 48818 layer_factory.hpp:77] Creating layer data
I0825 13:05:12.928019 48818 net.cpp:91] Creating Layer data
I0825 13:05:12.928066 48818 net.cpp:399] data -> data
I0825 13:05:12.928155 48818 net.cpp:399] data -> label
I0825 13:05:12.929826 48969 db_lmdb.cpp:38] Opened lmdb FASHION/fashion_train_lmdb
I0825 13:05:12.958947 48818 data_layer.cpp:41] output data size: 10,3,224,224
I0825 13:05:12.978643 48818 net.cpp:141] Setting up data
I0825 13:05:12.978783 48818 net.cpp:148] Top shape: 10 3 224 224 (1505280)
I0825 13:05:12.978824 48818 net.cpp:148] Top shape: 10 1 1 1 (10)
I0825 13:05:12.978857 48818 net.cpp:156] Memory required for data: 6021160
I0825 13:05:12.978901 48818 layer_factory.hpp:77] Creating layer conv1
I0825 13:05:12.978992 48818 net.cpp:91] Creating Layer conv1
I0825 13:05:12.979043 48818 net.cpp:425] conv1 <- data
I0825 13:05:12.979107 48818 net.cpp:399] conv1 -> conv1
I0825 13:05:12.981705 48818 net.cpp:141] Setting up conv1
I0825 13:05:12.981788 48818 net.cpp:148] Top shape: 10 64 112 112 (8028160)
I0825 13:05:12.981825 48818 net.cpp:156] Memory required for data: 38133800
I0825 13:05:12.981889 48818 layer_factory.hpp:77] Creating layer bn_conv1
I0825 13:05:12.981950 48818 net.cpp:91] Creating Layer bn_conv1
I0825 13:05:12.981987 48818 net.cpp:425] bn_conv1 <- conv1
I0825 13:05:12.982023 48818 net.cpp:386] bn_conv1 -> conv1 (in-place)
I0825 13:05:12.982465 48818 net.cpp:141] Setting up bn_conv1
I0825 13:05:12.982517 48818 net.cpp:148] Top shape: 10 64 112 112 (8028160)
I0825 13:05:12.982549 48818 net.cpp:156] Memory required for data: 70246440
I0825 13:05:12.982599 48818 layer_factory.hpp:77] Creating layer scale_conv1
I0825 13:05:12.982656 48818 net.cpp:91] Creating Layer scale_conv1
I0825 13:05:12.982689 48818 net.cpp:425] scale_conv1 <- conv1
I0825 13:05:12.982723 48818 net.cpp:386] scale_conv1 -> conv1 (in-place)
I0825 13:05:12.982854 48818 layer_factory.hpp:77] Creating layer scale_conv1
I0825 13:05:12.983187 48818 net.cpp:141] Setting up scale_conv1
I0825 13:05:12.983299 48818 net.cpp:148] Top shape: 10 64 112 112 (8028160)
I0825 13:05:12.983331 48818 net.cpp:156] Memory required for data: 102359080
I0825 13:05:12.983369 48818 layer_factory.hpp:77] Creating layer conv1_relu
I0825 13:05:12.983417 48818 net.cpp:91] Creating Layer conv1_relu
I0825 13:05:12.983449 48818 net.cpp:425] conv1_relu <- conv1
I0825 13:05:12.983489 48818 net.cpp:386] conv1_relu -> conv1 (in-place)
I0825 13:05:12.983541 48818 net.cpp:141] Setting up conv1_relu
I0825 13:05:12.983578 48818 net.cpp:148] Top shape: 10 64 112 112 (8028160)
I0825 13:05:12.983608 48818 net.cpp:156] Memory required for data: 134471720
I0825 13:05:12.983638 48818 layer_factory.hpp:77] Creating layer pool1
I0825 13:05:12.983675 48818 net.cpp:91] Creating Layer pool1
I0825 13:05:12.983703 48818 net.cpp:425] pool1 <- conv1
I0825 13:05:12.983742 48818 net.cpp:399] pool1 -> pool1
I0825 13:05:12.983885 48818 net.cpp:141] Setting up pool1
I0825 13:05:12.983934 48818 net.cpp:148] Top shape: 10 64 56 56 (2007040)
I0825 13:05:12.983966 48818 net.cpp:156] Memory required for data: 142499880
I0825 13:05:12.983995 48818 layer_factory.hpp:77] Creating layer pool1_pool1_0_split
I0825 13:05:12.984036 48818 net.cpp:91] Creating Layer pool1_pool1_0_split
I0825 13:05:12.984074 48818 net.cpp:425] pool1_pool1_0_split <- pool1
I0825 13:05:12.984107 48818 net.cpp:399] pool1_pool1_0_split -> pool1_pool1_0_split_0
I0825 13:05:12.984148 48818 net.cpp:399] pool1_pool1_0_split -> pool1_pool1_0_split_1
I0825 13:05:12.984249 48818 net.cpp:141] Setting up pool1_pool1_0_split
I0825 13:05:12.984297 48818 net.cpp:148] Top shape: 10 64 56 56 (2007040)
I0825 13:05:12.984330 48818 net.cpp:148] Top shape: 10 64 56 56 (2007040)
I0825 13:05:12.984359 48818 net.cpp:156] Memory required for data: 158556200
I0825 13:05:12.984388 48818 layer_factory.hpp:77] Creating layer res2a_branch1
I0825 13:05:12.984441 48818 net.cpp:91] Creating Layer res2a_branch1
I0825 13:05:12.984500 48818 net.cpp:425] res2a_branch1 <- pool1_pool1_0_split_0
I0825 13:05:12.984539 48818 net.cpp:399] res2a_branch1 -> res2a_branch1
I0825 13:05:12.985206 48818 net.cpp:141] Setting up res2a_branch1
I0825 13:05:12.985260 48818 net.cpp:148] Top shape: 10 256 56 56 (8028160)
I0825 13:05:12.985291 48818 net.cpp:156] Memory required for data: 190668840
I0825 13:05:12.985324 48818 layer_factory.hpp:77] Creating layer bn2a_branch1
I0825 13:05:12.985364 48818 net.cpp:91] Creating Layer bn2a_branch1
I0825 13:05:12.985395 48818 net.cpp:425] bn2a_branch1 <- res2a_branch1
I0825 13:05:12.985429 48818 net.cpp:386] bn2a_branch1 -> res2a_branch1 (in-place)
I0825 13:05:12.986920 48818 net.cpp:141] Setting up bn2a_branch1
I0825 13:05:12.986980 48818 net.cpp:148] Top shape: 10 256 56 56 (8028160)
I0825 13:05:12.987011 48818 net.cpp:156] Memory required for data: 222781480
I0825 13:05:12.987061 48818 layer_factory.hpp:77] Creating layer scale2a_branch1
I0825 13:05:12.987098 48818 net.cpp:91] Creating Layer scale2a_branch1
I0825 13:05:12.987129 48818 net.cpp:425] scale2a_branch1 <- res2a_branch1
I0825 13:05:12.987162 48818 net.cpp:386] scale2a_branch1 -> res2a_branch1 (in-place)
I0825 13:05:12.987287 48818 layer_factory.hpp:77] Creating layer scale2a_branch1
I0825 13:05:12.987568 48818 net.cpp:141] Setting up scale2a_branch1
I0825 13:05:12.987619 48818 net.cpp:148] Top shape: 10 256 56 56 (8028160)
I0825 13:05:12.987648 48818 net.cpp:156] Memory required for data: 254894120
I0825 13:05:12.987686 48818 layer_factory.hpp:77] Creating layer res2a_branch2a
I0825 13:05:12.987740 48818 net.cpp:91] Creating Layer res2a_branch2a
I0825 13:05:12.987772 48818 net.cpp:425] res2a_branch2a <- pool1_pool1_0_split_1
I0825 13:05:12.987814 48818 net.cpp:399] res2a_branch2a -> res2a_branch2a
I0825 13:05:12.988282 48818 net.cpp:141] Setting up res2a_branch2a
I0825 13:05:12.988332 48818 net.cpp:148] Top shape: 10 64 56 56 (2007040)
I0825 13:05:12.988363 48818 net.cpp:156] Memory required for data: 262922280
I0825 13:05:12.988397 48818 layer_factory.hpp:77] Creating layer bn2a_branch2a
I0825 13:05:12.988440 48818 net.cpp:91] Creating Layer bn2a_branch2a
I0825 13:05:12.988512 48818 net.cpp:425] bn2a_branch2a <- res2a_branch2a
I0825 13:05:12.988550 48818 net.cpp:386] bn2a_branch2a -> res2a_branch2a (in-place)
I0825 13:05:12.988965 48818 net.cpp:141] Setting up bn2a_branch2a
I0825 13:05:12.989017 48818 net.cpp:148] Top shape: 10 64 56 56 (2007040)
I0825 13:05:12.989048 48818 net.cpp:156] Memory required for data: 270950440
I0825 13:05:12.989106 48818 layer_factory.hpp:77] Creating layer scale2a_branch2a
I0825 13:05:12.989146 48818 net.cpp:91] Creating Layer scale2a_branch2a
I0825 13:05:12.989177 48818 net.cpp:425] scale2a_branch2a <- res2a_branch2a
I0825 13:05:12.989210 48818 net.cpp:386] scale2a_branch2a -> res2a_branch2a (in-place)
I0825 13:05:12.989331 48818 layer_factory.hpp:77] Creating layer scale2a_branch2a
I0825 13:05:12.989614 48818 net.cpp:141] Setting up scale2a_branch2a
I0825 13:05:12.989662 48818 net.cpp:148] Top shape: 10 64 56 56 (2007040)
I0825 13:05:12.989691 48818 net.cpp:156] Memory required for data: 278978600
I0825 13:05:12.989728 48818 layer_factory.hpp:77] Creating layer res2a_branch2a_relu
I0825 13:05:12.989773 48818 net.cpp:91] Creating Layer res2a_branch2a_relu
I0825 13:05:12.989806 48818 net.cpp:425] res2a_branch2a_relu <- res2a_branch2a
I0825 13:05:12.989840 48818 net.cpp:386] res2a_branch2a_relu -> res2a_branch2a (in-place)
I0825 13:05:12.989876 48818 net.cpp:141] Setting up res2a_branch2a_relu
I0825 13:05:12.989909 48818 net.cpp:148] Top shape: 10 64 56 56 (2007040)
I0825 13:05:12.989938 48818 net.cpp:156] Memory required for data: 287006760
I0825 13:05:12.989967 48818 layer_factory.hpp:77] Creating layer res2a_branch2b
I0825 13:05:12.990015 48818 net.cpp:91] Creating Layer res2a_branch2b
I0825 13:05:12.990047 48818 net.cpp:425] res2a_branch2b <- res2a_branch2a
I0825 13:05:12.990083 48818 net.cpp:399] res2a_branch2b -> res2a_branch2b
I0825 13:05:12.992167 48818 net.cpp:141] Setting up res2a_branch2b
I0825 13:05:12.992228 48818 net.cpp:148] Top shape: 10 64 56 56 (2007040)
I0825 13:05:12.992259 48818 net.cpp:156] Memory required for data: 295034920
I0825 13:05:12.992293 48818 layer_factory.hpp:77] Creating layer bn2a_branch2b
I0825 13:05:12.992333 48818 net.cpp:91] Creating Layer bn2a_branch2b
I0825 13:05:12.992364 48818 net.cpp:425] bn2a_branch2b <- res2a_branch2b
I0825 13:05:12.992404 48818 net.cpp:386] bn2a_branch2b -> res2a_branch2b (in-place)
I0825 13:05:12.992839 48818 net.cpp:141] Setting up bn2a_branch2b
I0825 13:05:12.992890 48818 net.cpp:148] Top shape: 10 64 56 56 (2007040)
I0825 13:05:12.992921 48818 net.cpp:156] Memory required for data: 303063080
I0825 13:05:12.992964 48818 layer_factory.hpp:77] Creating layer scale2a_branch2b
I0825 13:05:12.993013 48818 net.cpp:91] Creating Layer scale2a_branch2b
I0825 13:05:12.993048 48818 net.cpp:425] scale2a_branch2b <- res2a_branch2b
I0825 13:05:12.993083 48818 net.cpp:386] scale2a_branch2b -> res2a_branch2b (in-place)
I0825 13:05:12.993202 48818 layer_factory.hpp:77] Creating layer scale2a_branch2b
I0825 13:05:12.993502 48818 net.cpp:141] Setting up scale2a_branch2b
I0825 13:05:12.993552 48818 net.cpp:148] Top shape: 10 64 56 56 (2007040)
I0825 13:05:12.993582 48818 net.cpp:156] Memory required for data: 311091240
I0825 13:05:12.993619 48818 layer_factory.hpp:77] Creating layer res2a_branch2b_relu
I0825 13:05:12.993665 48818 net.cpp:91] Creating Layer res2a_branch2b_relu
I0825 13:05:12.993696 48818 net.cpp:425] res2a_branch2b_relu <- res2a_branch2b
I0825 13:05:12.993728 48818 net.cpp:386] res2a_branch2b_relu -> res2a_branch2b (in-place)
I0825 13:05:12.993764 48818 net.cpp:141] Setting up res2a_branch2b_relu
I0825 13:05:12.993798 48818 net.cpp:148] Top shape: 10 64 56 56 (2007040)
I0825 13:05:12.993826 48818 net.cpp:156] Memory required for data: 319119400
I0825 13:05:12.993854 48818 layer_factory.hpp:77] Creating layer res2a_branch2c
I0825 13:05:12.993902 48818 net.cpp:91] Creating Layer res2a_branch2c
I0825 13:05:12.993934 48818 net.cpp:425] res2a_branch2c <- res2a_branch2b
I0825 13:05:12.993976 48818 net.cpp:399] res2a_branch2c -> res2a_branch2c
I0825 13:05:12.994681 48818 net.cpp:141] Setting up res2a_branch2c
I0825 13:05:12.994734 48818 net.cpp:148] Top shape: 10 256 56 56 (8028160)
I0825 13:05:12.994765 48818 net.cpp:156] Memory required for data: 351232040
I0825 13:05:12.994797 48818 layer_factory.hpp:77] Creating layer bn2a_branch2c
I0825 13:05:12.994843 48818 net.cpp:91] Creating Layer bn2a_branch2c
I0825 13:05:12.994874 48818 net.cpp:425] bn2a_branch2c <- res2a_branch2c
I0825 13:05:12.994909 48818 net.cpp:386] bn2a_branch2c -> res2a_branch2c (in-place)
I0825 13:05:12.995295 48818 net.cpp:141] Setting up bn2a_branch2c
I0825 13:05:12.995342 48818 net.cpp:148] Top shape: 10 256 56 56 (8028160)
I0825 13:05:12.995373 48818 net.cpp:156] Memory required for data: 383344680
I0825 13:05:12.995414 48818 layer_factory.hpp:77] Creating layer scale2a_branch2c
I0825 13:05:12.995450 48818 net.cpp:91] Creating Layer scale2a_branch2c
I0825 13:05:12.995481 48818 net.cpp:425] scale2a_branch2c <- res2a_branch2c
I0825 13:05:12.995519 48818 net.cpp:386] scale2a_branch2c -> res2a_branch2c (in-place)
I0825 13:05:12.995630 48818 layer_factory.hpp:77] Creating layer scale2a_branch2c
I0825 13:05:12.995929 48818 net.cpp:141] Setting up scale2a_branch2c
I0825 13:05:12.995985 48818 net.cpp:148] Top shape: 10 256 56 56 (8028160)
I0825 13:05:12.996016 48818 net.cpp:156] Memory required for data: 415457320
I0825 13:05:12.996053 48818 layer_factory.hpp:77] Creating layer res2a
I0825 13:05:12.996098 48818 net.cpp:91] Creating Layer res2a
I0825 13:05:12.996130 48818 net.cpp:425] res2a <- res2a_branch1
I0825 13:05:12.996161 48818 net.cpp:425] res2a <- res2a_branch2c
I0825 13:05:12.996196 48818 net.cpp:399] res2a -> res2a
I0825 13:05:12.996300 48818 net.cpp:141] Setting up res2a
I0825 13:05:12.996345 48818 net.cpp:148] Top shape: 10 256 56 56 (8028160)
I0825 13:05:12.996374 48818 net.cpp:156] Memory required for data: 447569960
I0825 13:05:12.996403 48818 layer_factory.hpp:77] Creating layer res2a_relu
I0825 13:05:12.996443 48818 net.cpp:91] Creating Layer res2a_relu
I0825 13:05:12.996479 48818 net.cpp:425] res2a_relu <- res2a
I0825 13:05:12.996511 48818 net.cpp:386] res2a_relu -> res2a (in-place)
I0825 13:05:12.996548 48818 net.cpp:141] Setting up res2a_relu
I0825 13:05:12.996582 48818 net.cpp:148] Top shape: 10 256 56 56 (8028160)
I0825 13:05:12.996629 48818 net.cpp:156] Memory required for data: 479682600
I0825 13:05:12.996661 48818 layer_factory.hpp:77] Creating layer res2a_res2a_relu_0_split
I0825 13:05:12.996696 48818 net.cpp:91] Creating Layer res2a_res2a_relu_0_split
I0825 13:05:12.996726 48818 net.cpp:425] res2a_res2a_relu_0_split <- res2a
I0825 13:05:12.996759 48818 net.cpp:399] res2a_res2a_relu_0_split -> res2a_res2a_relu_0_split_0
I0825 13:05:12.996814 48818 net.cpp:399] res2a_res2a_relu_0_split -> res2a_res2a_relu_0_split_1
I0825 13:05:12.997238 48818 net.cpp:141] Setting up res2a_res2a_relu_0_split
I0825 13:05:12.997289 48818 net.cpp:148] Top shape: 10 256 56 56 (8028160)
I0825 13:05:12.997314 48818 net.cpp:148] Top shape: 10 256 56 56 (8028160)
I0825 13:05:12.997334 48818 net.cpp:156] Memory required for data: 543907880
I0825 13:05:12.997354 48818 layer_factory.hpp:77] Creating layer res2b_branch2a
I0825 13:05:12.997392 48818 net.cpp:91] Creating Layer res2b_branch2a
I0825 13:05:12.997416 48818 net.cpp:425] res2b_branch2a <- res2a_res2a_relu_0_split_0
I0825 13:05:12.997442 48818 net.cpp:399] res2b_branch2a -> res2b_branch2a
I0825 13:05:12.997900 48818 net.cpp:141] Setting up res2b_branch2a
I0825 13:05:12.997936 48818 net.cpp:148] Top shape: 10 64 56 56 (2007040)
I0825 13:05:12.997956 48818 net.cpp:156] Memory required for data: 551936040
I0825 13:05:12.997979 48818 layer_factory.hpp:77] Creating layer bn2b_branch2a
I0825 13:05:12.998005 48818 net.cpp:91] Creating Layer bn2b_branch2a
I0825 13:05:12.998025 48818 net.cpp:425] bn2b_branch2a <- res2b_branch2a
I0825 13:05:12.998046 48818 net.cpp:386] bn2b_branch2a -> res2b_branch2a (in-place)
I0825 13:05:12.998461 48818 net.cpp:141] Setting up bn2b_branch2a
I0825 13:05:12.998512 48818 net.cpp:148] Top shape: 10 64 56 56 (2007040)
I0825 13:05:12.998587 48818 net.cpp:156] Memory required for data: 559964200
I0825 13:05:12.998646 48818 layer_factory.hpp:77] Creating layer scale2b_branch2a
I0825 13:05:12.998692 48818 net.cpp:91] Creating Layer scale2b_branch2a
I0825 13:05:12.998725 48818 net.cpp:425] scale2b_branch2a <- res2b_branch2a
I0825 13:05:12.998769 48818 net.cpp:386] scale2b_branch2a -> res2b_branch2a (in-place)
I0825 13:05:12.998893 48818 layer_factory.hpp:77] Creating layer scale2b_branch2a
I0825 13:05:12.999192 48818 net.cpp:141] Setting up scale2b_branch2a
I0825 13:05:12.999244 48818 net.cpp:148] Top shape: 10 64 56 56 (2007040)
I0825 13:05:12.999274 48818 net.cpp:156] Memory required for data: 567992360
I0825 13:05:12.999311 48818 layer_factory.hpp:77] Creating layer res2b_branch2a_relu
I0825 13:05:12.999348 48818 net.cpp:91] Creating Layer res2b_branch2a_relu
I0825 13:05:12.999378 48818 net.cpp:425] res2b_branch2a_relu <- res2b_branch2a
I0825 13:05:12.999416 48818 net.cpp:386] res2b_branch2a_relu -> res2b_branch2a (in-place)
I0825 13:05:12.999454 48818 net.cpp:141] Setting up res2b_branch2a_relu
I0825 13:05:12.999490 48818 net.cpp:148] Top shape: 10 64 56 56 (2007040)
I0825 13:05:12.999521 48818 net.cpp:156] Memory required for data: 576020520
I0825 13:05:12.999552 48818 layer_factory.hpp:77] Creating layer res2b_branch2b
I0825 13:05:12.999591 48818 net.cpp:91] Creating Layer res2b_branch2b
I0825 13:05:12.999621 48818 net.cpp:425] res2b_branch2b <- res2b_branch2a
I0825 13:05:12.999665 48818 net.cpp:399] res2b_branch2b -> res2b_branch2b
I0825 13:05:13.000813 48818 net.cpp:141] Setting up res2b_branch2b
I0825 13:05:13.000867 48818 net.cpp:148] Top shape: 10 64 56 56 (2007040)
I0825 13:05:13.000898 48818 net.cpp:156] Memory required for data: 584048680
I0825 13:05:13.000932 48818 layer_factory.hpp:77] Creating layer bn2b_branch2b
I0825 13:05:13.000974 48818 net.cpp:91] Creating Layer bn2b_branch2b
I0825 13:05:13.001006 48818 net.cpp:425] bn2b_branch2b <- res2b_branch2b
I0825 13:05:13.001039 48818 net.cpp:386] bn2b_branch2b -> res2b_branch2b (in-place)
I0825 13:05:13.001466 48818 net.cpp:141] Setting up bn2b_branch2b
I0825 13:05:13.001515 48818 net.cpp:148] Top shape: 10 64 56 56 (2007040)
I0825 13:05:13.001546 48818 net.cpp:156] Memory required for data: 592076840
I0825 13:05:13.001587 48818 layer_factory.hpp:77] Creating layer scale2b_branch2b
I0825 13:05:13.001631 48818 net.cpp:91] Creating Layer scale2b_branch2b
I0825 13:05:13.001663 48818 net.cpp:425] scale2b_branch2b <- res2b_branch2b
I0825 13:05:13.001698 48818 net.cpp:386] scale2b_branch2b -> res2b_branch2b (in-place)
I0825 13:05:13.001818 48818 layer_factory.hpp:77] Creating layer scale2b_branch2b
I0825 13:05:13.002118 48818 net.cpp:141] Setting up scale2b_branch2b
I0825 13:05:13.002167 48818 net.cpp:148] Top shape: 10 64 56 56 (2007040)
I0825 13:05:13.002197 48818 net.cpp:156] Memory required for data: 600105000
I0825 13:05:13.002234 48818 layer_factory.hpp:77] Creating layer res2b_branch2b_relu
I0825 13:05:13.002269 48818 net.cpp:91] Creating Layer res2b_branch2b_relu
I0825 13:05:13.002300 48818 net.cpp:425] res2b_branch2b_relu <- res2b_branch2b
I0825 13:05:13.002341 48818 net.cpp:386] res2b_branch2b_relu -> res2b_branch2b (in-place)
I0825 13:05:13.002380 48818 net.cpp:141] Setting up res2b_branch2b_relu
I0825 13:05:13.002414 48818 net.cpp:148] Top shape: 10 64 56 56 (2007040)
I0825 13:05:13.002442 48818 net.cpp:156] Memory required for data: 608133160
I0825 13:05:13.002478 48818 layer_factory.hpp:77] Creating layer res2b_branch2c
I0825 13:05:13.002534 48818 net.cpp:91] Creating Layer res2b_branch2c
I0825 13:05:13.002571 48818 net.cpp:425] res2b_branch2c <- res2b_branch2b
I0825 13:05:13.002609 48818 net.cpp:399] res2b_branch2c -> res2b_branch2c
I0825 13:05:13.003273 48818 net.cpp:141] Setting up res2b_branch2c
I0825 13:05:13.003324 48818 net.cpp:148] Top shape: 10 256 56 56 (8028160)
I0825 13:05:13.003355 48818 net.cpp:156] Memory required for data: 640245800
I0825 13:05:13.003387 48818 layer_factory.hpp:77] Creating layer bn2b_branch2c
I0825 13:05:13.003423 48818 net.cpp:91] Creating Layer bn2b_branch2c
I0825 13:05:13.003490 48818 net.cpp:425] bn2b_branch2c <- res2b_branch2c
I0825 13:05:13.003527 48818 net.cpp:386] bn2b_branch2c -> res2b_branch2c (in-place)
I0825 13:05:13.003922 48818 net.cpp:141] Setting up bn2b_branch2c
I0825 13:05:13.003970 48818 net.cpp:148] Top shape: 10 256 56 56 (8028160)
I0825 13:05:13.004003 48818 net.cpp:156] Memory required for data: 672358440
I0825 13:05:13.004043 48818 layer_factory.hpp:77] Creating layer scale2b_branch2c
I0825 13:05:13.004089 48818 net.cpp:91] Creating Layer scale2b_branch2c
I0825 13:05:13.004122 48818 net.cpp:425] scale2b_branch2c <- res2b_branch2c
I0825 13:05:13.004154 48818 net.cpp:386] scale2b_branch2c -> res2b_branch2c (in-place)
I0825 13:05:13.004271 48818 layer_factory.hpp:77] Creating layer scale2b_branch2c
I0825 13:05:13.004549 48818 net.cpp:141] Setting up scale2b_branch2c
I0825 13:05:13.004612 48818 net.cpp:148] Top shape: 10 256 56 56 (8028160)
I0825 13:05:13.004643 48818 net.cpp:156] Memory required for data: 704471080
I0825 13:05:13.004686 48818 layer_factory.hpp:77] Creating layer res2b
I0825 13:05:13.004729 48818 net.cpp:91] Creating Layer res2b
I0825 13:05:13.004763 48818 net.cpp:425] res2b <- res2a_res2a_relu_0_split_1
I0825 13:05:13.004794 48818 net.cpp:425] res2b <- res2b_branch2c
I0825 13:05:13.004829 48818 net.cpp:399] res2b -> res2b
I0825 13:05:13.004917 48818 net.cpp:141] Setting up res2b
I0825 13:05:13.004966 48818 net.cpp:148] Top shape: 10 256 56 56 (8028160)
I0825 13:05:13.004995 48818 net.cpp:156] Memory required for data: 736583720
I0825 13:05:13.005025 48818 layer_factory.hpp:77] Creating layer res2b_relu
I0825 13:05:13.005060 48818 net.cpp:91] Creating Layer res2b_relu
I0825 13:05:13.005089 48818 net.cpp:425] res2b_relu <- res2b
I0825 13:05:13.005126 48818 net.cpp:386] res2b_relu -> res2b (in-place)
I0825 13:05:13.005164 48818 net.cpp:141] Setting up res2b_relu
I0825 13:05:13.005198 48818 net.cpp:148] Top shape: 10 256 56 56 (8028160)
I0825 13:05:13.005228 48818 net.cpp:156] Memory required for data: 768696360
I0825 13:05:13.005256 48818 layer_factory.hpp:77] Creating layer res2b_res2b_relu_0_split
I0825 13:05:13.005290 48818 net.cpp:91] Creating Layer res2b_res2b_relu_0_split
I0825 13:05:13.005318 48818 net.cpp:425] res2b_res2b_relu_0_split <- res2b
I0825 13:05:13.005350 48818 net.cpp:399] res2b_res2b_relu_0_split -> res2b_res2b_relu_0_split_0
I0825 13:05:13.005388 48818 net.cpp:399] res2b_res2b_relu_0_split -> res2b_res2b_relu_0_split_1
I0825 13:05:13.005492 48818 net.cpp:141] Setting up res2b_res2b_relu_0_split
I0825 13:05:13.005539 48818 net.cpp:148] Top shape: 10 256 56 56 (8028160)
I0825 13:05:13.005573 48818 net.cpp:148] Top shape: 10 256 56 56 (8028160)
I0825 13:05:13.005602 48818 net.cpp:156] Memory required for data: 832921640
I0825 13:05:13.005631 48818 layer_factory.hpp:77] Creating layer res2c_branch2a
I0825 13:05:13.005671 48818 net.cpp:91] Creating Layer res2c_branch2a
I0825 13:05:13.005702 48818 net.cpp:425] res2c_branch2a <- res2b_res2b_relu_0_split_0
I0825 13:05:13.005743 48818 net.cpp:399] res2c_branch2a -> res2c_branch2a
I0825 13:05:13.006427 48818 net.cpp:141] Setting up res2c_branch2a
I0825 13:05:13.006479 48818 net.cpp:148] Top shape: 10 64 56 56 (2007040)
I0825 13:05:13.006508 48818 net.cpp:156] Memory required for data: 840949800
I0825 13:05:13.006541 48818 layer_factory.hpp:77] Creating layer bn2c_branch2a
I0825 13:05:13.006588 48818 net.cpp:91] Creating Layer bn2c_branch2a
I0825 13:05:13.006624 48818 net.cpp:425] bn2c_branch2a <- res2c_branch2a
I0825 13:05:13.006659 48818 net.cpp:386] bn2c_branch2a -> res2c_branch2a (in-place)
I0825 13:05:13.007071 48818 net.cpp:141] Setting up bn2c_branch2a
I0825 13:05:13.007120 48818 net.cpp:148] Top shape: 10 64 56 56 (2007040)
I0825 13:05:13.007149 48818 net.cpp:156] Memory required for data: 848977960
I0825 13:05:13.007191 48818 layer_factory.hpp:77] Creating layer scale2c_branch2a
I0825 13:05:13.007236 48818 net.cpp:91] Creating Layer scale2c_branch2a
I0825 13:05:13.007272 48818 net.cpp:425] scale2c_branch2a <- res2c_branch2a
I0825 13:05:13.007306 48818 net.cpp:386] scale2c_branch2a -> res2c_branch2a (in-place)
I0825 13:05:13.007462 48818 layer_factory.hpp:77] Creating layer scale2c_branch2a
I0825 13:05:13.007761 48818 net.cpp:141] Setting up scale2c_branch2a
I0825 13:05:13.007810 48818 net.cpp:148] Top shape: 10 64 56 56 (2007040)
I0825 13:05:13.007840 48818 net.cpp:156] Memory required for data: 857006120
I0825 13:05:13.007877 48818 layer_factory.hpp:77] Creating layer res2c_branch2a_relu
I0825 13:05:13.007913 48818 net.cpp:91] Creating Layer res2c_branch2a_relu
I0825 13:05:13.007942 48818 net.cpp:425] res2c_branch2a_relu <- res2c_branch2a
I0825 13:05:13.007980 48818 net.cpp:386] res2c_branch2a_relu -> res2c_branch2a (in-place)
I0825 13:05:13.008019 48818 net.cpp:141] Setting up res2c_branch2a_relu
I0825 13:05:13.008054 48818 net.cpp:148] Top shape: 10 64 56 56 (2007040)
I0825 13:05:13.008081 48818 net.cpp:156] Memory required for data: 865034280
I0825 13:05:13.008111 48818 layer_factory.hpp:77] Creating layer res2c_branch2b
I0825 13:05:13.008149 48818 net.cpp:91] Creating Layer res2c_branch2b
I0825 13:05:13.008179 48818 net.cpp:425] res2c_branch2b <- res2c_branch2a
I0825 13:05:13.008222 48818 net.cpp:399] res2c_branch2b -> res2c_branch2b
I0825 13:05:13.009255 48818 net.cpp:141] Setting up res2c_branch2b
I0825 13:05:13.009308 48818 net.cpp:148] Top shape: 10 64 56 56 (2007040)
I0825 13:05:13.009338 48818 net.cpp:156] Memory required for data: 873062440
I0825 13:05:13.009371 48818 layer_factory.hpp:77] Creating layer bn2c_branch2b
I0825 13:05:13.009413 48818 net.cpp:91] Creating Layer bn2c_branch2b
I0825 13:05:13.009444 48818 net.cpp:425] bn2c_branch2b <- res2c_branch2b
I0825 13:05:13.009477 48818 net.cpp:386] bn2c_branch2b -> res2c_branch2b (in-place)
I0825 13:05:13.009883 48818 net.cpp:141] Setting up bn2c_branch2b
I0825 13:05:13.009932 48818 net.cpp:148] Top shape: 10 64 56 56 (2007040)
I0825 13:05:13.009963 48818 net.cpp:156] Memory required for data: 881090600
I0825 13:05:13.010002 48818 layer_factory.hpp:77] Creating layer scale2c_branch2b
I0825 13:05:13.010046 48818 net.cpp:91] Creating Layer scale2c_branch2b
I0825 13:05:13.010082 48818 net.cpp:425] scale2c_branch2b <- res2c_branch2b
I0825 13:05:13.010116 48818 net.cpp:386] scale2c_branch2b -> res2c_branch2b (in-place)
I0825 13:05:13.010237 48818 layer_factory.hpp:77] Creating layer scale2c_branch2b
I0825 13:05:13.010538 48818 net.cpp:141] Setting up scale2c_branch2b
I0825 13:05:13.010588 48818 net.cpp:148] Top shape: 10 64 56 56 (2007040)
I0825 13:05:13.010619 48818 net.cpp:156] Memory required for data: 889118760
I0825 13:05:13.010656 48818 layer_factory.hpp:77] Creating layer res2c_branch2b_relu
I0825 13:05:13.010692 48818 net.cpp:91] Creating Layer res2c_branch2b_relu
I0825 13:05:13.010721 48818 net.cpp:425] res2c_branch2b_relu <- res2c_branch2b
I0825 13:05:13.010759 48818 net.cpp:386] res2c_branch2b_relu -> res2c_branch2b (in-place)
I0825 13:05:13.010797 48818 net.cpp:141] Setting up res2c_branch2b_relu
I0825 13:05:13.010830 48818 net.cpp:148] Top shape: 10 64 56 56 (2007040)
I0825 13:05:13.010859 48818 net.cpp:156] Memory required for data: 897146920
I0825 13:05:13.010887 48818 layer_factory.hpp:77] Creating layer res2c_branch2c
I0825 13:05:13.010926 48818 net.cpp:91] Creating Layer res2c_branch2c
I0825 13:05:13.010956 48818 net.cpp:425] res2c_branch2c <- res2c_branch2b
I0825 13:05:13.011004 48818 net.cpp:399] res2c_branch2c -> res2c_branch2c
I0825 13:05:13.011730 48818 net.cpp:141] Setting up res2c_branch2c
I0825 13:05:13.011782 48818 net.cpp:148] Top shape: 10 256 56 56 (8028160)
I0825 13:05:13.011811 48818 net.cpp:156] Memory required for data: 929259560
I0825 13:05:13.011845 48818 layer_factory.hpp:77] Creating layer bn2c_branch2c
I0825 13:05:13.011886 48818 net.cpp:91] Creating Layer bn2c_branch2c
I0825 13:05:13.011945 48818 net.cpp:425] bn2c_branch2c <- res2c_branch2c
I0825 13:05:13.011981 48818 net.cpp:386] bn2c_branch2c -> res2c_branch2c (in-place)
I0825 13:05:13.013003 48818 net.cpp:141] Setting up bn2c_branch2c
I0825 13:05:13.013082 48818 net.cpp:148] Top shape: 10 256 56 56 (8028160)
I0825 13:05:13.013159 48818 net.cpp:156] Memory required for data: 961372200
I0825 13:05:13.013232 48818 layer_factory.hpp:77] Creating layer scale2c_branch2c
I0825 13:05:13.013285 48818 net.cpp:91] Creating Layer scale2c_branch2c
I0825 13:05:13.013319 48818 net.cpp:425] scale2c_branch2c <- res2c_branch2c
I0825 13:05:13.013355 48818 net.cpp:386] scale2c_branch2c -> res2c_branch2c (in-place)
I0825 13:05:13.013484 48818 layer_factory.hpp:77] Creating layer scale2c_branch2c
I0825 13:05:13.013770 48818 net.cpp:141] Setting up scale2c_branch2c
I0825 13:05:13.013820 48818 net.cpp:148] Top shape: 10 256 56 56 (8028160)
I0825 13:05:13.013849 48818 net.cpp:156] Memory required for data: 993484840
I0825 13:05:13.013887 48818 layer_factory.hpp:77] Creating layer res2c
I0825 13:05:13.013926 48818 net.cpp:91] Creating Layer res2c
I0825 13:05:13.013955 48818 net.cpp:425] res2c <- res2b_res2b_relu_0_split_1
I0825 13:05:13.013988 48818 net.cpp:425] res2c <- res2c_branch2c
I0825 13:05:13.014020 48818 net.cpp:399] res2c -> res2c
I0825 13:05:13.014117 48818 net.cpp:141] Setting up res2c
I0825 13:05:13.014168 48818 net.cpp:148] Top shape: 10 256 56 56 (8028160)
I0825 13:05:13.014197 48818 net.cpp:156] Memory required for data: 1025597480
I0825 13:05:13.014226 48818 layer_factory.hpp:77] Creating layer res2c_relu
I0825 13:05:13.014261 48818 net.cpp:91] Creating Layer res2c_relu
I0825 13:05:13.014292 48818 net.cpp:425] res2c_relu <- res2c
I0825 13:05:13.014324 48818 net.cpp:386] res2c_relu -> res2c (in-place)
I0825 13:05:13.014359 48818 net.cpp:141] Setting up res2c_relu
I0825 13:05:13.014392 48818 net.cpp:148] Top shape: 10 256 56 56 (8028160)
I0825 13:05:13.014423 48818 net.cpp:156] Memory required for data: 1057710120
I0825 13:05:13.014452 48818 layer_factory.hpp:77] Creating layer res2c_res2c_relu_0_split
I0825 13:05:13.014487 48818 net.cpp:91] Creating Layer res2c_res2c_relu_0_split
I0825 13:05:13.014515 48818 net.cpp:425] res2c_res2c_relu_0_split <- res2c
I0825 13:05:13.014554 48818 net.cpp:399] res2c_res2c_relu_0_split -> res2c_res2c_relu_0_split_0
I0825 13:05:13.014593 48818 net.cpp:399] res2c_res2c_relu_0_split -> res2c_res2c_relu_0_split_1
I0825 13:05:13.014691 48818 net.cpp:141] Setting up res2c_res2c_relu_0_split
I0825 13:05:13.014737 48818 net.cpp:148] Top shape: 10 256 56 56 (8028160)
I0825 13:05:13.014770 48818 net.cpp:148] Top shape: 10 256 56 56 (8028160)
I0825 13:05:13.014799 48818 net.cpp:156] Memory required for data: 1121935400
I0825 13:05:13.014827 48818 layer_factory.hpp:77] Creating layer res3a_branch1
I0825 13:05:13.014875 48818 net.cpp:91] Creating Layer res3a_branch1
I0825 13:05:13.014909 48818 net.cpp:425] res3a_branch1 <- res2c_res2c_relu_0_split_0
I0825 13:05:13.014945 48818 net.cpp:399] res3a_branch1 -> res3a_branch1
I0825 13:05:13.018745 48818 net.cpp:141] Setting up res3a_branch1
I0825 13:05:13.018808 48818 net.cpp:148] Top shape: 10 512 28 28 (4014080)
I0825 13:05:13.018839 48818 net.cpp:156] Memory required for data: 1137991720
I0825 13:05:13.018874 48818 layer_factory.hpp:77] Creating layer bn3a_branch1
I0825 13:05:13.018919 48818 net.cpp:91] Creating Layer bn3a_branch1
I0825 13:05:13.018951 48818 net.cpp:425] bn3a_branch1 <- res3a_branch1
I0825 13:05:13.018985 48818 net.cpp:386] bn3a_branch1 -> res3a_branch1 (in-place)
I0825 13:05:13.020464 48818 net.cpp:141] Setting up bn3a_branch1
I0825 13:05:13.020524 48818 net.cpp:148] Top shape: 10 512 28 28 (4014080)
I0825 13:05:13.020555 48818 net.cpp:156] Memory required for data: 1154048040
I0825 13:05:13.020608 48818 layer_factory.hpp:77] Creating layer scale3a_branch1
I0825 13:05:13.020656 48818 net.cpp:91] Creating Layer scale3a_branch1
I0825 13:05:13.020690 48818 net.cpp:425] scale3a_branch1 <- res3a_branch1
I0825 13:05:13.020726 48818 net.cpp:386] scale3a_branch1 -> res3a_branch1 (in-place)
I0825 13:05:13.020854 48818 layer_factory.hpp:77] Creating layer scale3a_branch1
I0825 13:05:13.021128 48818 net.cpp:141] Setting up scale3a_branch1
I0825 13:05:13.021180 48818 net.cpp:148] Top shape: 10 512 28 28 (4014080)
I0825 13:05:13.021210 48818 net.cpp:156] Memory required for data: 1170104360
I0825 13:05:13.021286 48818 layer_factory.hpp:77] Creating layer res3a_branch2a
I0825 13:05:13.021339 48818 net.cpp:91] Creating Layer res3a_branch2a
I0825 13:05:13.021380 48818 net.cpp:425] res3a_branch2a <- res2c_res2c_relu_0_split_1
I0825 13:05:13.021430 48818 net.cpp:399] res3a_branch2a -> res3a_branch2a
I0825 13:05:13.022394 48818 net.cpp:141] Setting up res3a_branch2a
I0825 13:05:13.022447 48818 net.cpp:148] Top shape: 10 128 28 28 (1003520)
I0825 13:05:13.022477 48818 net.cpp:156] Memory required for data: 1174118440
I0825 13:05:13.022511 48818 layer_factory.hpp:77] Creating layer bn3a_branch2a
I0825 13:05:13.022547 48818 net.cpp:91] Creating Layer bn3a_branch2a
I0825 13:05:13.022578 48818 net.cpp:425] bn3a_branch2a <- res3a_branch2a
I0825 13:05:13.022613 48818 net.cpp:386] bn3a_branch2a -> res3a_branch2a (in-place)
I0825 13:05:13.023020 48818 net.cpp:141] Setting up bn3a_branch2a
I0825 13:05:13.023068 48818 net.cpp:148] Top shape: 10 128 28 28 (1003520)
I0825 13:05:13.023099 48818 net.cpp:156] Memory required for data: 1178132520
I0825 13:05:13.023140 48818 layer_factory.hpp:77] Creating layer scale3a_branch2a
I0825 13:05:13.023178 48818 net.cpp:91] Creating Layer scale3a_branch2a
I0825 13:05:13.023208 48818 net.cpp:425] scale3a_branch2a <- res3a_branch2a
I0825 13:05:13.023243 48818 net.cpp:386] scale3a_branch2a -> res3a_branch2a (in-place)
I0825 13:05:13.023363 48818 layer_factory.hpp:77] Creating layer scale3a_branch2a
I0825 13:05:13.023629 48818 net.cpp:141] Setting up scale3a_branch2a
I0825 13:05:13.023679 48818 net.cpp:148] Top shape: 10 128 28 28 (1003520)
I0825 13:05:13.023708 48818 net.cpp:156] Memory required for data: 1182146600
I0825 13:05:13.023746 48818 layer_factory.hpp:77] Creating layer res3a_branch2a_relu
I0825 13:05:13.023787 48818 net.cpp:91] Creating Layer res3a_branch2a_relu
I0825 13:05:13.023823 48818 net.cpp:425] res3a_branch2a_relu <- res3a_branch2a
I0825 13:05:13.023857 48818 net.cpp:386] res3a_branch2a_relu -> res3a_branch2a (in-place)
I0825 13:05:13.023895 48818 net.cpp:141] Setting up res3a_branch2a_relu
I0825 13:05:13.023928 48818 net.cpp:148] Top shape: 10 128 28 28 (1003520)
I0825 13:05:13.023957 48818 net.cpp:156] Memory required for data: 1186160680
I0825 13:05:13.023985 48818 layer_factory.hpp:77] Creating layer res3a_branch2b
I0825 13:05:13.024030 48818 net.cpp:91] Creating Layer res3a_branch2b
I0825 13:05:13.024072 48818 net.cpp:425] res3a_branch2b <- res3a_branch2a
I0825 13:05:13.024116 48818 net.cpp:399] res3a_branch2b -> res3a_branch2b
I0825 13:05:13.028059 48818 net.cpp:141] Setting up res3a_branch2b
I0825 13:05:13.028120 48818 net.cpp:148] Top shape: 10 128 28 28 (1003520)
I0825 13:05:13.028149 48818 net.cpp:156] Memory required for data: 1190174760
I0825 13:05:13.028184 48818 layer_factory.hpp:77] Creating layer bn3a_branch2b
I0825 13:05:13.028221 48818 net.cpp:91] Creating Layer bn3a_branch2b
I0825 13:05:13.028251 48818 net.cpp:425] bn3a_branch2b <- res3a_branch2b
I0825 13:05:13.028285 48818 net.cpp:386] bn3a_branch2b -> res3a_branch2b (in-place)
I0825 13:05:13.028715 48818 net.cpp:141] Setting up bn3a_branch2b
I0825 13:05:13.028765 48818 net.cpp:148] Top shape: 10 128 28 28 (1003520)
I0825 13:05:13.028796 48818 net.cpp:156] Memory required for data: 1194188840
I0825 13:05:13.028843 48818 layer_factory.hpp:77] Creating layer scale3a_branch2b
I0825 13:05:13.028884 48818 net.cpp:91] Creating Layer scale3a_branch2b
I0825 13:05:13.028915 48818 net.cpp:425] scale3a_branch2b <- res3a_branch2b
I0825 13:05:13.028949 48818 net.cpp:386] scale3a_branch2b -> res3a_branch2b (in-place)
I0825 13:05:13.029067 48818 layer_factory.hpp:77] Creating layer scale3a_branch2b
I0825 13:05:13.029350 48818 net.cpp:141] Setting up scale3a_branch2b
I0825 13:05:13.029398 48818 net.cpp:148] Top shape: 10 128 28 28 (1003520)
I0825 13:05:13.029428 48818 net.cpp:156] Memory required for data: 1198202920
I0825 13:05:13.029465 48818 layer_factory.hpp:77] Creating layer res3a_branch2b_relu
I0825 13:05:13.029507 48818 net.cpp:91] Creating Layer res3a_branch2b_relu
I0825 13:05:13.029538 48818 net.cpp:425] res3a_branch2b_relu <- res3a_branch2b
I0825 13:05:13.029614 48818 net.cpp:386] res3a_branch2b_relu -> res3a_branch2b (in-place)
I0825 13:05:13.029656 48818 net.cpp:141] Setting up res3a_branch2b_relu
I0825 13:05:13.029690 48818 net.cpp:148] Top shape: 10 128 28 28 (1003520)
I0825 13:05:13.029719 48818 net.cpp:156] Memory required for data: 1202217000
I0825 13:05:13.029747 48818 layer_factory.hpp:77] Creating layer res3a_branch2c
I0825 13:05:13.029794 48818 net.cpp:91] Creating Layer res3a_branch2c
I0825 13:05:13.029826 48818 net.cpp:425] res3a_branch2c <- res3a_branch2b
I0825 13:05:13.029870 48818 net.cpp:399] res3a_branch2c -> res3a_branch2c
I0825 13:05:13.031389 48818 net.cpp:141] Setting up res3a_branch2c
I0825 13:05:13.031442 48818 net.cpp:148] Top shape: 10 512 28 28 (4014080)
I0825 13:05:13.031473 48818 net.cpp:156] Memory required for data: 1218273320
I0825 13:05:13.031507 48818 layer_factory.hpp:77] Creating layer bn3a_branch2c
I0825 13:05:13.031564 48818 net.cpp:91] Creating Layer bn3a_branch2c
I0825 13:05:13.031597 48818 net.cpp:425] bn3a_branch2c <- res3a_branch2c
I0825 13:05:13.031632 48818 net.cpp:386] bn3a_branch2c -> res3a_branch2c (in-place)
I0825 13:05:13.032030 48818 net.cpp:141] Setting up bn3a_branch2c
I0825 13:05:13.032079 48818 net.cpp:148] Top shape: 10 512 28 28 (4014080)
I0825 13:05:13.032110 48818 net.cpp:156] Memory required for data: 1234329640
I0825 13:05:13.032152 48818 layer_factory.hpp:77] Creating layer scale3a_branch2c
I0825 13:05:13.032198 48818 net.cpp:91] Creating Layer scale3a_branch2c
I0825 13:05:13.032229 48818 net.cpp:425] scale3a_branch2c <- res3a_branch2c
I0825 13:05:13.032263 48818 net.cpp:386] scale3a_branch2c -> res3a_branch2c (in-place)
I0825 13:05:13.032382 48818 layer_factory.hpp:77] Creating layer scale3a_branch2c
I0825 13:05:13.032675 48818 net.cpp:141] Setting up scale3a_branch2c
I0825 13:05:13.032724 48818 net.cpp:148] Top shape: 10 512 28 28 (4014080)
I0825 13:05:13.032754 48818 net.cpp:156] Memory required for data: 1250385960
I0825 13:05:13.032791 48818 layer_factory.hpp:77] Creating layer res3a
I0825 13:05:13.032835 48818 net.cpp:91] Creating Layer res3a
I0825 13:05:13.032866 48818 net.cpp:425] res3a <- res3a_branch1
I0825 13:05:13.032896 48818 net.cpp:425] res3a <- res3a_branch2c
I0825 13:05:13.032930 48818 net.cpp:399] res3a -> res3a
I0825 13:05:13.033015 48818 net.cpp:141] Setting up res3a
I0825 13:05:13.033062 48818 net.cpp:148] Top shape: 10 512 28 28 (4014080)
I0825 13:05:13.033092 48818 net.cpp:156] Memory required for data: 1266442280
I0825 13:05:13.033120 48818 layer_factory.hpp:77] Creating layer res3a_relu
I0825 13:05:13.033154 48818 net.cpp:91] Creating Layer res3a_relu
I0825 13:05:13.033183 48818 net.cpp:425] res3a_relu <- res3a
I0825 13:05:13.033221 48818 net.cpp:386] res3a_relu -> res3a (in-place)
I0825 13:05:13.033257 48818 net.cpp:141] Setting up res3a_relu
I0825 13:05:13.033291 48818 net.cpp:148] Top shape: 10 512 28 28 (4014080)
I0825 13:05:13.033320 48818 net.cpp:156] Memory required for data: 1282498600
I0825 13:05:13.033349 48818 layer_factory.hpp:77] Creating layer res3a_res3a_relu_0_split
I0825 13:05:13.033381 48818 net.cpp:91] Creating Layer res3a_res3a_relu_0_split
I0825 13:05:13.033411 48818 net.cpp:425] res3a_res3a_relu_0_split <- res3a
I0825 13:05:13.033442 48818 net.cpp:399] res3a_res3a_relu_0_split -> res3a_res3a_relu_0_split_0
I0825 13:05:13.033479 48818 net.cpp:399] res3a_res3a_relu_0_split -> res3a_res3a_relu_0_split_1
I0825 13:05:13.033584 48818 net.cpp:141] Setting up res3a_res3a_relu_0_split
I0825 13:05:13.033632 48818 net.cpp:148] Top shape: 10 512 28 28 (4014080)
I0825 13:05:13.033664 48818 net.cpp:148] Top shape: 10 512 28 28 (4014080)
I0825 13:05:13.033692 48818 net.cpp:156] Memory required for data: 1314611240
I0825 13:05:13.033720 48818 layer_factory.hpp:77] Creating layer res3b_branch2a
I0825 13:05:13.033761 48818 net.cpp:91] Creating Layer res3b_branch2a
I0825 13:05:13.033790 48818 net.cpp:425] res3b_branch2a <- res3a_res3a_relu_0_split_0
I0825 13:05:13.033833 48818 net.cpp:399] res3b_branch2a -> res3b_branch2a
I0825 13:05:13.036430 48818 net.cpp:141] Setting up res3b_branch2a
I0825 13:05:13.036491 48818 net.cpp:148] Top shape: 10 128 28 28 (1003520)
I0825 13:05:13.036522 48818 net.cpp:156] Memory required for data: 1318625320
I0825 13:05:13.036556 48818 layer_factory.hpp:77] Creating layer bn3b_branch2a
I0825 13:05:13.036597 48818 net.cpp:91] Creating Layer bn3b_branch2a
I0825 13:05:13.036643 48818 net.cpp:425] bn3b_branch2a <- res3b_branch2a
I0825 13:05:13.036684 48818 net.cpp:386] bn3b_branch2a -> res3b_branch2a (in-place)
I0825 13:05:13.037088 48818 net.cpp:141] Setting up bn3b_branch2a
I0825 13:05:13.037137 48818 net.cpp:148] Top shape: 10 128 28 28 (1003520)
I0825 13:05:13.037168 48818 net.cpp:156] Memory required for data: 1322639400
I0825 13:05:13.037209 48818 layer_factory.hpp:77] Creating layer scale3b_branch2a
I0825 13:05:13.037248 48818 net.cpp:91] Creating Layer scale3b_branch2a
I0825 13:05:13.037278 48818 net.cpp:425] scale3b_branch2a <- res3b_branch2a
I0825 13:05:13.037312 48818 net.cpp:386] scale3b_branch2a -> res3b_branch2a (in-place)
I0825 13:05:13.037428 48818 layer_factory.hpp:77] Creating layer scale3b_branch2a
I0825 13:05:13.037715 48818 net.cpp:141] Setting up scale3b_branch2a
I0825 13:05:13.037766 48818 net.cpp:148] Top shape: 10 128 28 28 (1003520)
I0825 13:05:13.037796 48818 net.cpp:156] Memory required for data: 1326653480
I0825 13:05:13.037832 48818 layer_factory.hpp:77] Creating layer res3b_branch2a_relu
I0825 13:05:13.037868 48818 net.cpp:91] Creating Layer res3b_branch2a_relu
I0825 13:05:13.037897 48818 net.cpp:425] res3b_branch2a_relu <- res3b_branch2a
I0825 13:05:13.037936 48818 net.cpp:386] res3b_branch2a_relu -> res3b_branch2a (in-place)
I0825 13:05:13.037976 48818 net.cpp:141] Setting up res3b_branch2a_relu
I0825 13:05:13.038009 48818 net.cpp:148] Top shape: 10 128 28 28 (1003520)
I0825 13:05:13.038039 48818 net.cpp:156] Memory required for data: 1330667560
I0825 13:05:13.038069 48818 layer_factory.hpp:77] Creating layer res3b_branch2b
I0825 13:05:13.038107 48818 net.cpp:91] Creating Layer res3b_branch2b
I0825 13:05:13.038137 48818 net.cpp:425] res3b_branch2b <- res3b_branch2a
I0825 13:05:13.038179 48818 net.cpp:399] res3b_branch2b -> res3b_branch2b
I0825 13:05:13.042115 48818 net.cpp:141] Setting up res3b_branch2b
I0825 13:05:13.042174 48818 net.cpp:148] Top shape: 10 128 28 28 (1003520)
I0825 13:05:13.042206 48818 net.cpp:156] Memory required for data: 1334681640
I0825 13:05:13.042240 48818 layer_factory.hpp:77] Creating layer bn3b_branch2b
I0825 13:05:13.042279 48818 net.cpp:91] Creating Layer bn3b_branch2b
I0825 13:05:13.042309 48818 net.cpp:425] bn3b_branch2b <- res3b_branch2b
I0825 13:05:13.042341 48818 net.cpp:386] bn3b_branch2b -> res3b_branch2b (in-place)
I0825 13:05:13.042757 48818 net.cpp:141] Setting up bn3b_branch2b
I0825 13:05:13.042806 48818 net.cpp:148] Top shape: 10 128 28 28 (1003520)
I0825 13:05:13.042836 48818 net.cpp:156] Memory required for data: 1338695720
I0825 13:05:13.042877 48818 layer_factory.hpp:77] Creating layer scale3b_branch2b
I0825 13:05:13.042917 48818 net.cpp:91] Creating Layer scale3b_branch2b
I0825 13:05:13.042948 48818 net.cpp:425] scale3b_branch2b <- res3b_branch2b
I0825 13:05:13.042980 48818 net.cpp:386] scale3b_branch2b -> res3b_branch2b (in-place)
I0825 13:05:13.043105 48818 layer_factory.hpp:77] Creating layer scale3b_branch2b
I0825 13:05:13.043387 48818 net.cpp:141] Setting up scale3b_branch2b
I0825 13:05:13.043437 48818 net.cpp:148] Top shape: 10 128 28 28 (1003520)
I0825 13:05:13.043467 48818 net.cpp:156] Memory required for data: 1342709800
I0825 13:05:13.043503 48818 layer_factory.hpp:77] Creating layer res3b_branch2b_relu
I0825 13:05:13.043539 48818 net.cpp:91] Creating Layer res3b_branch2b_relu
I0825 13:05:13.043568 48818 net.cpp:425] res3b_branch2b_relu <- res3b_branch2b
I0825 13:05:13.043606 48818 net.cpp:386] res3b_branch2b_relu -> res3b_branch2b (in-place)
I0825 13:05:13.043653 48818 net.cpp:141] Setting up res3b_branch2b_relu
I0825 13:05:13.043700 48818 net.cpp:148] Top shape: 10 128 28 28 (1003520)
I0825 13:05:13.043728 48818 net.cpp:156] Memory required for data: 1346723880
I0825 13:05:13.043797 48818 layer_factory.hpp:77] Creating layer res3b_branch2c
I0825 13:05:13.043841 48818 net.cpp:91] Creating Layer res3b_branch2c
I0825 13:05:13.043874 48818 net.cpp:425] res3b_branch2c <- res3b_branch2b
I0825 13:05:13.043915 48818 net.cpp:399] res3b_branch2c -> res3b_branch2c
I0825 13:05:13.045454 48818 net.cpp:141] Setting up res3b_branch2c
I0825 13:05:13.045506 48818 net.cpp:148] Top shape: 10 512 28 28 (4014080)
I0825 13:05:13.045536 48818 net.cpp:156] Memory required for data: 1362780200
I0825 13:05:13.045570 48818 layer_factory.hpp:77] Creating layer bn3b_branch2c
I0825 13:05:13.045614 48818 net.cpp:91] Creating Layer bn3b_branch2c
I0825 13:05:13.045645 48818 net.cpp:425] bn3b_branch2c <- res3b_branch2c
I0825 13:05:13.045680 48818 net.cpp:386] bn3b_branch2c -> res3b_branch2c (in-place)
I0825 13:05:13.046093 48818 net.cpp:141] Setting up bn3b_branch2c
I0825 13:05:13.046141 48818 net.cpp:148] Top shape: 10 512 28 28 (4014080)
I0825 13:05:13.046172 48818 net.cpp:156] Memory required for data: 1378836520
I0825 13:05:13.046213 48818 layer_factory.hpp:77] Creating layer scale3b_branch2c
I0825 13:05:13.046252 48818 net.cpp:91] Creating Layer scale3b_branch2c
I0825 13:05:13.046283 48818 net.cpp:425] scale3b_branch2c <- res3b_branch2c
I0825 13:05:13.046324 48818 net.cpp:386] scale3b_branch2c -> res3b_branch2c (in-place)
I0825 13:05:13.046448 48818 layer_factory.hpp:77] Creating layer scale3b_branch2c
I0825 13:05:13.046731 48818 net.cpp:141] Setting up scale3b_branch2c
I0825 13:05:13.046790 48818 net.cpp:148] Top shape: 10 512 28 28 (4014080)
I0825 13:05:13.046821 48818 net.cpp:156] Memory required for data: 1394892840
I0825 13:05:13.046859 48818 layer_factory.hpp:77] Creating layer res3b
I0825 13:05:13.046895 48818 net.cpp:91] Creating Layer res3b
I0825 13:05:13.046924 48818 net.cpp:425] res3b <- res3a_res3a_relu_0_split_1
I0825 13:05:13.046957 48818 net.cpp:425] res3b <- res3b_branch2c
I0825 13:05:13.046990 48818 net.cpp:399] res3b -> res3b
I0825 13:05:13.047076 48818 net.cpp:141] Setting up res3b
I0825 13:05:13.047123 48818 net.cpp:148] Top shape: 10 512 28 28 (4014080)
I0825 13:05:13.047160 48818 net.cpp:156] Memory required for data: 1410949160
I0825 13:05:13.047190 48818 layer_factory.hpp:77] Creating layer res3b_relu
I0825 13:05:13.047224 48818 net.cpp:91] Creating Layer res3b_relu
I0825 13:05:13.047253 48818 net.cpp:425] res3b_relu <- res3b
I0825 13:05:13.047286 48818 net.cpp:386] res3b_relu -> res3b (in-place)
I0825 13:05:13.047322 48818 net.cpp:141] Setting up res3b_relu
I0825 13:05:13.047355 48818 net.cpp:148] Top shape: 10 512 28 28 (4014080)
I0825 13:05:13.047384 48818 net.cpp:156] Memory required for data: 1427005480
I0825 13:05:13.047412 48818 layer_factory.hpp:77] Creating layer res3b_res3b_relu_0_split
I0825 13:05:13.047444 48818 net.cpp:91] Creating Layer res3b_res3b_relu_0_split
I0825 13:05:13.047473 48818 net.cpp:425] res3b_res3b_relu_0_split <- res3b
I0825 13:05:13.047510 48818 net.cpp:399] res3b_res3b_relu_0_split -> res3b_res3b_relu_0_split_0
I0825 13:05:13.047549 48818 net.cpp:399] res3b_res3b_relu_0_split -> res3b_res3b_relu_0_split_1
I0825 13:05:13.047648 48818 net.cpp:141] Setting up res3b_res3b_relu_0_split
I0825 13:05:13.047694 48818 net.cpp:148] Top shape: 10 512 28 28 (4014080)
I0825 13:05:13.047729 48818 net.cpp:148] Top shape: 10 512 28 28 (4014080)
I0825 13:05:13.047756 48818 net.cpp:156] Memory required for data: 1459118120
I0825 13:05:13.047785 48818 layer_factory.hpp:77] Creating layer res3c_branch2a
I0825 13:05:13.047833 48818 net.cpp:91] Creating Layer res3c_branch2a
I0825 13:05:13.047871 48818 net.cpp:425] res3c_branch2a <- res3b_res3b_relu_0_split_0
I0825 13:05:13.047909 48818 net.cpp:399] res3c_branch2a -> res3c_branch2a
I0825 13:05:13.049432 48818 net.cpp:141] Setting up res3c_branch2a
I0825 13:05:13.049484 48818 net.cpp:148] Top shape: 10 128 28 28 (1003520)
I0825 13:05:13.049515 48818 net.cpp:156] Memory required for data: 1463132200
I0825 13:05:13.049547 48818 layer_factory.hpp:77] Creating layer bn3c_branch2a
I0825 13:05:13.049616 48818 net.cpp:91] Creating Layer bn3c_branch2a
I0825 13:05:13.049650 48818 net.cpp:425] bn3c_branch2a <- res3c_branch2a
I0825 13:05:13.049690 48818 net.cpp:386] bn3c_branch2a -> res3c_branch2a (in-place)
I0825 13:05:13.050127 48818 net.cpp:141] Setting up bn3c_branch2a
I0825 13:05:13.050176 48818 net.cpp:148] Top shape: 10 128 28 28 (1003520)
I0825 13:05:13.050205 48818 net.cpp:156] Memory required for data: 1467146280
I0825 13:05:13.050246 48818 layer_factory.hpp:77] Creating layer scale3c_branch2a
I0825 13:05:13.050287 48818 net.cpp:91] Creating Layer scale3c_branch2a
I0825 13:05:13.050317 48818 net.cpp:425] scale3c_branch2a <- res3c_branch2a
I0825 13:05:13.050349 48818 net.cpp:386] scale3c_branch2a -> res3c_branch2a (in-place)
I0825 13:05:13.050467 48818 layer_factory.hpp:77] Creating layer scale3c_branch2a
I0825 13:05:13.050766 48818 net.cpp:141] Setting up scale3c_branch2a
I0825 13:05:13.050817 48818 net.cpp:148] Top shape: 10 128 28 28 (1003520)
I0825 13:05:13.050846 48818 net.cpp:156] Memory required for data: 1471160360
I0825 13:05:13.050882 48818 layer_factory.hpp:77] Creating layer res3c_branch2a_relu
I0825 13:05:13.050918 48818 net.cpp:91] Creating Layer res3c_branch2a_relu
I0825 13:05:13.050948 48818 net.cpp:425] res3c_branch2a_relu <- res3c_branch2a
I0825 13:05:13.050987 48818 net.cpp:386] res3c_branch2a_relu -> res3c_branch2a (in-place)
I0825 13:05:13.051026 48818 net.cpp:141] Setting up res3c_branch2a_relu
I0825 13:05:13.051060 48818 net.cpp:148] Top shape: 10 128 28 28 (1003520)
I0825 13:05:13.051090 48818 net.cpp:156] Memory required for data: 1475174440
I0825 13:05:13.051118 48818 layer_factory.hpp:77] Creating layer res3c_branch2b
I0825 13:05:13.051157 48818 net.cpp:91] Creating Layer res3c_branch2b
I0825 13:05:13.051187 48818 net.cpp:425] res3c_branch2b <- res3c_branch2a
I0825 13:05:13.051229 48818 net.cpp:399] res3c_branch2b -> res3c_branch2b
I0825 13:05:13.055182 48818 net.cpp:141] Setting up res3c_branch2b
I0825 13:05:13.055241 48818 net.cpp:148] Top shape: 10 128 28 28 (1003520)
I0825 13:05:13.055274 48818 net.cpp:156] Memory required for data: 1479188520
I0825 13:05:13.055308 48818 layer_factory.hpp:77] Creating layer bn3c_branch2b
I0825 13:05:13.055346 48818 net.cpp:91] Creating Layer bn3c_branch2b
I0825 13:05:13.055377 48818 net.cpp:425] bn3c_branch2b <- res3c_branch2b
I0825 13:05:13.055416 48818 net.cpp:386] bn3c_branch2b -> res3c_branch2b (in-place)
I0825 13:05:13.055833 48818 net.cpp:141] Setting up bn3c_branch2b
I0825 13:05:13.055882 48818 net.cpp:148] Top shape: 10 128 28 28 (1003520)
I0825 13:05:13.055913 48818 net.cpp:156] Memory required for data: 1483202600
I0825 13:05:13.055955 48818 layer_factory.hpp:77] Creating layer scale3c_branch2b
I0825 13:05:13.055994 48818 net.cpp:91] Creating Layer scale3c_branch2b
I0825 13:05:13.056025 48818 net.cpp:425] scale3c_branch2b <- res3c_branch2b
I0825 13:05:13.056056 48818 net.cpp:386] scale3c_branch2b -> res3c_branch2b (in-place)
I0825 13:05:13.056180 48818 layer_factory.hpp:77] Creating layer scale3c_branch2b
I0825 13:05:13.056468 48818 net.cpp:141] Setting up scale3c_branch2b
I0825 13:05:13.056517 48818 net.cpp:148] Top shape: 10 128 28 28 (1003520)
I0825 13:05:13.056547 48818 net.cpp:156] Memory required for data: 1487216680
I0825 13:05:13.056583 48818 layer_factory.hpp:77] Creating layer res3c_branch2b_relu
I0825 13:05:13.056638 48818 net.cpp:91] Creating Layer res3c_branch2b_relu
I0825 13:05:13.056670 48818 net.cpp:425] res3c_branch2b_relu <- res3c_branch2b
I0825 13:05:13.056710 48818 net.cpp:386] res3c_branch2b_relu -> res3c_branch2b (in-place)
I0825 13:05:13.056748 48818 net.cpp:141] Setting up res3c_branch2b_relu
I0825 13:05:13.056783 48818 net.cpp:148] Top shape: 10 128 28 28 (1003520)
I0825 13:05:13.056813 48818 net.cpp:156] Memory required for data: 1491230760
I0825 13:05:13.056841 48818 layer_factory.hpp:77] Creating layer res3c_branch2c
I0825 13:05:13.056880 48818 net.cpp:91] Creating Layer res3c_branch2c
I0825 13:05:13.056910 48818 net.cpp:425] res3c_branch2c <- res3c_branch2b
I0825 13:05:13.056952 48818 net.cpp:399] res3c_branch2c -> res3c_branch2c
I0825 13:05:13.058485 48818 net.cpp:141] Setting up res3c_branch2c
I0825 13:05:13.058537 48818 net.cpp:148] Top shape: 10 512 28 28 (4014080)
I0825 13:05:13.058568 48818 net.cpp:156] Memory required for data: 1507287080
I0825 13:05:13.058601 48818 layer_factory.hpp:77] Creating layer bn3c_branch2c
I0825 13:05:13.058643 48818 net.cpp:91] Creating Layer bn3c_branch2c
I0825 13:05:13.058676 48818 net.cpp:425] bn3c_branch2c <- res3c_branch2c
I0825 13:05:13.058708 48818 net.cpp:386] bn3c_branch2c -> res3c_branch2c (in-place)
I0825 13:05:13.059110 48818 net.cpp:141] Setting up bn3c_branch2c
I0825 13:05:13.059159 48818 net.cpp:148] Top shape: 10 512 28 28 (4014080)
I0825 13:05:13.059190 48818 net.cpp:156] Memory required for data: 1523343400
I0825 13:05:13.059229 48818 layer_factory.hpp:77] Creating layer scale3c_branch2c
I0825 13:05:13.059267 48818 net.cpp:91] Creating Layer scale3c_branch2c
I0825 13:05:13.059298 48818 net.cpp:425] scale3c_branch2c <- res3c_branch2c
I0825 13:05:13.059343 48818 net.cpp:386] scale3c_branch2c -> res3c_branch2c (in-place)
I0825 13:05:13.059459 48818 layer_factory.hpp:77] Creating layer scale3c_branch2c
I0825 13:05:13.059731 48818 net.cpp:141] Setting up scale3c_branch2c
I0825 13:05:13.059785 48818 net.cpp:148] Top shape: 10 512 28 28 (4014080)
I0825 13:05:13.059816 48818 net.cpp:156] Memory required for data: 1539399720
I0825 13:05:13.059854 48818 layer_factory.hpp:77] Creating layer res3c
I0825 13:05:13.059888 48818 net.cpp:91] Creating Layer res3c
I0825 13:05:13.059918 48818 net.cpp:425] res3c <- res3b_res3b_relu_0_split_1
I0825 13:05:13.059952 48818 net.cpp:425] res3c <- res3c_branch2c
I0825 13:05:13.059984 48818 net.cpp:399] res3c -> res3c
I0825 13:05:13.060067 48818 net.cpp:141] Setting up res3c
I0825 13:05:13.060114 48818 net.cpp:148] Top shape: 10 512 28 28 (4014080)
I0825 13:05:13.060144 48818 net.cpp:156] Memory required for data: 1555456040
I0825 13:05:13.060173 48818 layer_factory.hpp:77] Creating layer res3c_relu
I0825 13:05:13.060211 48818 net.cpp:91] Creating Layer res3c_relu
I0825 13:05:13.060242 48818 net.cpp:425] res3c_relu <- res3c
I0825 13:05:13.060274 48818 net.cpp:386] res3c_relu -> res3c (in-place)
I0825 13:05:13.060310 48818 net.cpp:141] Setting up res3c_relu
I0825 13:05:13.060343 48818 net.cpp:148] Top shape: 10 512 28 28 (4014080)
I0825 13:05:13.060372 48818 net.cpp:156] Memory required for data: 1571512360
I0825 13:05:13.060401 48818 layer_factory.hpp:77] Creating layer res3c_res3c_relu_0_split
I0825 13:05:13.060433 48818 net.cpp:91] Creating Layer res3c_res3c_relu_0_split
I0825 13:05:13.060462 48818 net.cpp:425] res3c_res3c_relu_0_split <- res3c
I0825 13:05:13.060494 48818 net.cpp:399] res3c_res3c_relu_0_split -> res3c_res3c_relu_0_split_0
I0825 13:05:13.060539 48818 net.cpp:399] res3c_res3c_relu_0_split -> res3c_res3c_relu_0_split_1
I0825 13:05:13.060652 48818 net.cpp:141] Setting up res3c_res3c_relu_0_split
I0825 13:05:13.060700 48818 net.cpp:148] Top shape: 10 512 28 28 (4014080)
I0825 13:05:13.060734 48818 net.cpp:148] Top shape: 10 512 28 28 (4014080)
I0825 13:05:13.060763 48818 net.cpp:156] Memory required for data: 1603625000
I0825 13:05:13.060792 48818 layer_factory.hpp:77] Creating layer res3d_branch2a
I0825 13:05:13.060839 48818 net.cpp:91] Creating Layer res3d_branch2a
I0825 13:05:13.060874 48818 net.cpp:425] res3d_branch2a <- res3c_res3c_relu_0_split_0
I0825 13:05:13.060911 48818 net.cpp:399] res3d_branch2a -> res3d_branch2a
I0825 13:05:13.063500 48818 net.cpp:141] Setting up res3d_branch2a
I0825 13:05:13.063560 48818 net.cpp:148] Top shape: 10 128 28 28 (1003520)
I0825 13:05:13.063591 48818 net.cpp:156] Memory required for data: 1607639080
I0825 13:05:13.063626 48818 layer_factory.hpp:77] Creating layer bn3d_branch2a
I0825 13:05:13.063668 48818 net.cpp:91] Creating Layer bn3d_branch2a
I0825 13:05:13.063700 48818 net.cpp:425] bn3d_branch2a <- res3d_branch2a
I0825 13:05:13.063733 48818 net.cpp:386] bn3d_branch2a -> res3d_branch2a (in-place)
I0825 13:05:13.064151 48818 net.cpp:141] Setting up bn3d_branch2a
I0825 13:05:13.064198 48818 net.cpp:148] Top shape: 10 128 28 28 (1003520)
I0825 13:05:13.064260 48818 net.cpp:156] Memory required for data: 1611653160
I0825 13:05:13.064348 48818 layer_factory.hpp:77] Creating layer scale3d_branch2a
I0825 13:05:13.064414 48818 net.cpp:91] Creating Layer scale3d_branch2a
I0825 13:05:13.064447 48818 net.cpp:425] scale3d_branch2a <- res3d_branch2a
I0825 13:05:13.064482 48818 net.cpp:386] scale3d_branch2a -> res3d_branch2a (in-place)
I0825 13:05:13.064625 48818 layer_factory.hpp:77] Creating layer scale3d_branch2a
I0825 13:05:13.064913 48818 net.cpp:141] Setting up scale3d_branch2a
I0825 13:05:13.064962 48818 net.cpp:148] Top shape: 10 128 28 28 (1003520)
I0825 13:05:13.064992 48818 net.cpp:156] Memory required for data: 1615667240
I0825 13:05:13.065029 48818 layer_factory.hpp:77] Creating layer res3d_branch2a_relu
I0825 13:05:13.065065 48818 net.cpp:91] Creating Layer res3d_branch2a_relu
I0825 13:05:13.065095 48818 net.cpp:425] res3d_branch2a_relu <- res3d_branch2a
I0825 13:05:13.065127 48818 net.cpp:386] res3d_branch2a_relu -> res3d_branch2a (in-place)
I0825 13:05:13.065163 48818 net.cpp:141] Setting up res3d_branch2a_relu
I0825 13:05:13.065197 48818 net.cpp:148] Top shape: 10 128 28 28 (1003520)
I0825 13:05:13.065225 48818 net.cpp:156] Memory required for data: 1619681320
I0825 13:05:13.065253 48818 layer_factory.hpp:77] Creating layer res3d_branch2b
I0825 13:05:13.065299 48818 net.cpp:91] Creating Layer res3d_branch2b
I0825 13:05:13.065331 48818 net.cpp:425] res3d_branch2b <- res3d_branch2a
I0825 13:05:13.065367 48818 net.cpp:399] res3d_branch2b -> res3d_branch2b
I0825 13:05:13.069327 48818 net.cpp:141] Setting up res3d_branch2b
I0825 13:05:13.069386 48818 net.cpp:148] Top shape: 10 128 28 28 (1003520)
I0825 13:05:13.069416 48818 net.cpp:156] Memory required for data: 1623695400
I0825 13:05:13.069452 48818 layer_factory.hpp:77] Creating layer bn3d_branch2b
I0825 13:05:13.069489 48818 net.cpp:91] Creating Layer bn3d_branch2b
I0825 13:05:13.069520 48818 net.cpp:425] bn3d_branch2b <- res3d_branch2b
I0825 13:05:13.069560 48818 net.cpp:386] bn3d_branch2b -> res3d_branch2b (in-place)
I0825 13:05:13.069975 48818 net.cpp:141] Setting up bn3d_branch2b
I0825 13:05:13.070025 48818 net.cpp:148] Top shape: 10 128 28 28 (1003520)
I0825 13:05:13.070056 48818 net.cpp:156] Memory required for data: 1627709480
I0825 13:05:13.070097 48818 layer_factory.hpp:77] Creating layer scale3d_branch2b
I0825 13:05:13.070137 48818 net.cpp:91] Creating Layer scale3d_branch2b
I0825 13:05:13.070166 48818 net.cpp:425] scale3d_branch2b <- res3d_branch2b
I0825 13:05:13.070200 48818 net.cpp:386] scale3d_branch2b -> res3d_branch2b (in-place)
I0825 13:05:13.070320 48818 layer_factory.hpp:77] Creating layer scale3d_branch2b
I0825 13:05:13.070605 48818 net.cpp:141] Setting up scale3d_branch2b
I0825 13:05:13.070655 48818 net.cpp:148] Top shape: 10 128 28 28 (1003520)
I0825 13:05:13.070684 48818 net.cpp:156] Memory required for data: 1631723560
I0825 13:05:13.070720 48818 layer_factory.hpp:77] Creating layer res3d_branch2b_relu
I0825 13:05:13.070756 48818 net.cpp:91] Creating Layer res3d_branch2b_relu
I0825 13:05:13.070793 48818 net.cpp:425] res3d_branch2b_relu <- res3d_branch2b
I0825 13:05:13.070827 48818 net.cpp:386] res3d_branch2b_relu -> res3d_branch2b (in-place)
I0825 13:05:13.070864 48818 net.cpp:141] Setting up res3d_branch2b_relu
I0825 13:05:13.070899 48818 net.cpp:148] Top shape: 10 128 28 28 (1003520)
I0825 13:05:13.070927 48818 net.cpp:156] Memory required for data: 1635737640
I0825 13:05:13.070955 48818 layer_factory.hpp:77] Creating layer res3d_branch2c
I0825 13:05:13.071000 48818 net.cpp:91] Creating Layer res3d_branch2c
I0825 13:05:13.071045 48818 net.cpp:425] res3d_branch2c <- res3d_branch2b
I0825 13:05:13.071082 48818 net.cpp:399] res3d_branch2c -> res3d_branch2c
I0825 13:05:13.072625 48818 net.cpp:141] Setting up res3d_branch2c
I0825 13:05:13.072677 48818 net.cpp:148] Top shape: 10 512 28 28 (4014080)
I0825 13:05:13.072707 48818 net.cpp:156] Memory required for data: 1651793960
I0825 13:05:13.072742 48818 layer_factory.hpp:77] Creating layer bn3d_branch2c
I0825 13:05:13.072811 48818 net.cpp:91] Creating Layer bn3d_branch2c
I0825 13:05:13.072845 48818 net.cpp:425] bn3d_branch2c <- res3d_branch2c
I0825 13:05:13.072878 48818 net.cpp:386] bn3d_branch2c -> res3d_branch2c (in-place)
I0825 13:05:13.073313 48818 net.cpp:141] Setting up bn3d_branch2c
I0825 13:05:13.073364 48818 net.cpp:148] Top shape: 10 512 28 28 (4014080)
I0825 13:05:13.073395 48818 net.cpp:156] Memory required for data: 1667850280
I0825 13:05:13.073436 48818 layer_factory.hpp:77] Creating layer scale3d_branch2c
I0825 13:05:13.073478 48818 net.cpp:91] Creating Layer scale3d_branch2c
I0825 13:05:13.073510 48818 net.cpp:425] scale3d_branch2c <- res3d_branch2c
I0825 13:05:13.073544 48818 net.cpp:386] scale3d_branch2c -> res3d_branch2c (in-place)
I0825 13:05:13.073669 48818 layer_factory.hpp:77] Creating layer scale3d_branch2c
I0825 13:05:13.073951 48818 net.cpp:141] Setting up scale3d_branch2c
I0825 13:05:13.074002 48818 net.cpp:148] Top shape: 10 512 28 28 (4014080)
I0825 13:05:13.074030 48818 net.cpp:156] Memory required for data: 1683906600
I0825 13:05:13.074067 48818 layer_factory.hpp:77] Creating layer res3d
I0825 13:05:13.074103 48818 net.cpp:91] Creating Layer res3d
I0825 13:05:13.074132 48818 net.cpp:425] res3d <- res3c_res3c_relu_0_split_1
I0825 13:05:13.074163 48818 net.cpp:425] res3d <- res3d_branch2c
I0825 13:05:13.074203 48818 net.cpp:399] res3d -> res3d
I0825 13:05:13.074290 48818 net.cpp:141] Setting up res3d
I0825 13:05:13.074337 48818 net.cpp:148] Top shape: 10 512 28 28 (4014080)
I0825 13:05:13.074365 48818 net.cpp:156] Memory required for data: 1699962920
I0825 13:05:13.074394 48818 layer_factory.hpp:77] Creating layer res3d_relu
I0825 13:05:13.074427 48818 net.cpp:91] Creating Layer res3d_relu
I0825 13:05:13.074456 48818 net.cpp:425] res3d_relu <- res3d
I0825 13:05:13.074487 48818 net.cpp:386] res3d_relu -> res3d (in-place)
I0825 13:05:13.074523 48818 net.cpp:141] Setting up res3d_relu
I0825 13:05:13.074556 48818 net.cpp:148] Top shape: 10 512 28 28 (4014080)
I0825 13:05:13.074585 48818 net.cpp:156] Memory required for data: 1716019240
I0825 13:05:13.074614 48818 layer_factory.hpp:77] Creating layer res3d_res3d_relu_0_split
I0825 13:05:13.074653 48818 net.cpp:91] Creating Layer res3d_res3d_relu_0_split
I0825 13:05:13.074684 48818 net.cpp:425] res3d_res3d_relu_0_split <- res3d
I0825 13:05:13.074717 48818 net.cpp:399] res3d_res3d_relu_0_split -> res3d_res3d_relu_0_split_0
I0825 13:05:13.074754 48818 net.cpp:399] res3d_res3d_relu_0_split -> res3d_res3d_relu_0_split_1
I0825 13:05:13.074867 48818 net.cpp:141] Setting up res3d_res3d_relu_0_split
I0825 13:05:13.074913 48818 net.cpp:148] Top shape: 10 512 28 28 (4014080)
I0825 13:05:13.074947 48818 net.cpp:148] Top shape: 10 512 28 28 (4014080)
I0825 13:05:13.074976 48818 net.cpp:156] Memory required for data: 1748131880
I0825 13:05:13.075006 48818 layer_factory.hpp:77] Creating layer res4a_branch1
I0825 13:05:13.075042 48818 net.cpp:91] Creating Layer res4a_branch1
I0825 13:05:13.075073 48818 net.cpp:425] res4a_branch1 <- res3d_res3d_relu_0_split_0
I0825 13:05:13.075109 48818 net.cpp:399] res4a_branch1 -> res4a_branch1
I0825 13:05:13.078164 48818 net.cpp:141] Setting up res4a_branch1
I0825 13:05:13.078225 48818 net.cpp:148] Top shape: 10 1024 14 14 (2007040)
I0825 13:05:13.078258 48818 net.cpp:156] Memory required for data: 1756160040
I0825 13:05:13.078294 48818 layer_factory.hpp:77] Creating layer bn4a_branch1
I0825 13:05:13.078332 48818 net.cpp:91] Creating Layer bn4a_branch1
I0825 13:05:13.078363 48818 net.cpp:425] bn4a_branch1 <- res4a_branch1
I0825 13:05:13.078397 48818 net.cpp:386] bn4a_branch1 -> res4a_branch1 (in-place)
I0825 13:05:13.078846 48818 net.cpp:141] Setting up bn4a_branch1
I0825 13:05:13.078897 48818 net.cpp:148] Top shape: 10 1024 14 14 (2007040)
I0825 13:05:13.078928 48818 net.cpp:156] Memory required for data: 1764188200
I0825 13:05:13.078969 48818 layer_factory.hpp:77] Creating layer scale4a_branch1
I0825 13:05:13.079015 48818 net.cpp:91] Creating Layer scale4a_branch1
I0825 13:05:13.079047 48818 net.cpp:425] scale4a_branch1 <- res4a_branch1
I0825 13:05:13.079114 48818 net.cpp:386] scale4a_branch1 -> res4a_branch1 (in-place)
I0825 13:05:13.079246 48818 layer_factory.hpp:77] Creating layer scale4a_branch1
I0825 13:05:13.079536 48818 net.cpp:141] Setting up scale4a_branch1
I0825 13:05:13.079587 48818 net.cpp:148] Top shape: 10 1024 14 14 (2007040)
I0825 13:05:13.079617 48818 net.cpp:156] Memory required for data: 1772216360
I0825 13:05:13.079653 48818 layer_factory.hpp:77] Creating layer res4a_branch2a
I0825 13:05:13.079700 48818 net.cpp:91] Creating Layer res4a_branch2a
I0825 13:05:13.079735 48818 net.cpp:425] res4a_branch2a <- res3d_res3d_relu_0_split_1
I0825 13:05:13.079776 48818 net.cpp:399] res4a_branch2a -> res4a_branch2a
I0825 13:05:13.082468 48818 net.cpp:141] Setting up res4a_branch2a
I0825 13:05:13.082521 48818 net.cpp:148] Top shape: 10 256 14 14 (501760)
I0825 13:05:13.082552 48818 net.cpp:156] Memory required for data: 1774223400
I0825 13:05:13.082587 48818 layer_factory.hpp:77] Creating layer bn4a_branch2a
I0825 13:05:13.082623 48818 net.cpp:91] Creating Layer bn4a_branch2a
I0825 13:05:13.082653 48818 net.cpp:425] bn4a_branch2a <- res4a_branch2a
I0825 13:05:13.082686 48818 net.cpp:386] bn4a_branch2a -> res4a_branch2a (in-place)
I0825 13:05:13.083112 48818 net.cpp:141] Setting up bn4a_branch2a
I0825 13:05:13.083161 48818 net.cpp:148] Top shape: 10 256 14 14 (501760)
I0825 13:05:13.083192 48818 net.cpp:156] Memory required for data: 1776230440
I0825 13:05:13.083233 48818 layer_factory.hpp:77] Creating layer scale4a_branch2a
I0825 13:05:13.083277 48818 net.cpp:91] Creating Layer scale4a_branch2a
I0825 13:05:13.083310 48818 net.cpp:425] scale4a_branch2a <- res4a_branch2a
I0825 13:05:13.083345 48818 net.cpp:386] scale4a_branch2a -> res4a_branch2a (in-place)
I0825 13:05:13.083472 48818 layer_factory.hpp:77] Creating layer scale4a_branch2a
I0825 13:05:13.083760 48818 net.cpp:141] Setting up scale4a_branch2a
I0825 13:05:13.083811 48818 net.cpp:148] Top shape: 10 256 14 14 (501760)
I0825 13:05:13.083839 48818 net.cpp:156] Memory required for data: 1778237480
I0825 13:05:13.083878 48818 layer_factory.hpp:77] Creating layer res4a_branch2a_relu
I0825 13:05:13.083920 48818 net.cpp:91] Creating Layer res4a_branch2a_relu
I0825 13:05:13.083961 48818 net.cpp:425] res4a_branch2a_relu <- res4a_branch2a
I0825 13:05:13.083995 48818 net.cpp:386] res4a_branch2a_relu -> res4a_branch2a (in-place)
I0825 13:05:13.084033 48818 net.cpp:141] Setting up res4a_branch2a_relu
I0825 13:05:13.084067 48818 net.cpp:148] Top shape: 10 256 14 14 (501760)
I0825 13:05:13.084096 48818 net.cpp:156] Memory required for data: 1780244520
I0825 13:05:13.084125 48818 layer_factory.hpp:77] Creating layer res4a_branch2b
I0825 13:05:13.084170 48818 net.cpp:91] Creating Layer res4a_branch2b
I0825 13:05:13.084202 48818 net.cpp:425] res4a_branch2b <- res4a_branch2a
I0825 13:05:13.084237 48818 net.cpp:399] res4a_branch2b -> res4a_branch2b
I0825 13:05:13.096565 48818 net.cpp:141] Setting up res4a_branch2b
I0825 13:05:13.096642 48818 net.cpp:148] Top shape: 10 256 14 14 (501760)
I0825 13:05:13.096674 48818 net.cpp:156] Memory required for data: 1782251560
I0825 13:05:13.096712 48818 layer_factory.hpp:77] Creating layer bn4a_branch2b
I0825 13:05:13.096756 48818 net.cpp:91] Creating Layer bn4a_branch2b
I0825 13:05:13.096788 48818 net.cpp:425] bn4a_branch2b <- res4a_branch2b
I0825 13:05:13.096822 48818 net.cpp:386] bn4a_branch2b -> res4a_branch2b (in-place)
I0825 13:05:13.097235 48818 net.cpp:141] Setting up bn4a_branch2b
I0825 13:05:13.097285 48818 net.cpp:148] Top shape: 10 256 14 14 (501760)
I0825 13:05:13.097314 48818 net.cpp:156] Memory required for data: 1784258600
I0825 13:05:13.097357 48818 layer_factory.hpp:77] Creating layer scale4a_branch2b
I0825 13:05:13.097403 48818 net.cpp:91] Creating Layer scale4a_branch2b
I0825 13:05:13.097434 48818 net.cpp:425] scale4a_branch2b <- res4a_branch2b
I0825 13:05:13.097470 48818 net.cpp:386] scale4a_branch2b -> res4a_branch2b (in-place)
I0825 13:05:13.097591 48818 layer_factory.hpp:77] Creating layer scale4a_branch2b
I0825 13:05:13.097903 48818 net.cpp:141] Setting up scale4a_branch2b
I0825 13:05:13.097954 48818 net.cpp:148] Top shape: 10 256 14 14 (501760)
I0825 13:05:13.097983 48818 net.cpp:156] Memory required for data: 1786265640
I0825 13:05:13.098021 48818 layer_factory.hpp:77] Creating layer res4a_branch2b_relu
I0825 13:05:13.098057 48818 net.cpp:91] Creating Layer res4a_branch2b_relu
I0825 13:05:13.098088 48818 net.cpp:425] res4a_branch2b_relu <- res4a_branch2b
I0825 13:05:13.098125 48818 net.cpp:386] res4a_branch2b_relu -> res4a_branch2b (in-place)
I0825 13:05:13.098165 48818 net.cpp:141] Setting up res4a_branch2b_relu
I0825 13:05:13.098199 48818 net.cpp:148] Top shape: 10 256 14 14 (501760)
I0825 13:05:13.098228 48818 net.cpp:156] Memory required for data: 1788272680
I0825 13:05:13.098258 48818 layer_factory.hpp:77] Creating layer res4a_branch2c
I0825 13:05:13.098304 48818 net.cpp:91] Creating Layer res4a_branch2c
I0825 13:05:13.098336 48818 net.cpp:425] res4a_branch2c <- res4a_branch2b
I0825 13:05:13.098372 48818 net.cpp:399] res4a_branch2c -> res4a_branch2c
I0825 13:05:13.104220 48818 net.cpp:141] Setting up res4a_branch2c
I0825 13:05:13.104279 48818 net.cpp:148] Top shape: 10 1024 14 14 (2007040)
I0825 13:05:13.104311 48818 net.cpp:156] Memory required for data: 1796300840
I0825 13:05:13.104346 48818 layer_factory.hpp:77] Creating layer bn4a_branch2c
I0825 13:05:13.104388 48818 net.cpp:91] Creating Layer bn4a_branch2c
I0825 13:05:13.104420 48818 net.cpp:425] bn4a_branch2c <- res4a_branch2c
I0825 13:05:13.104454 48818 net.cpp:386] bn4a_branch2c -> res4a_branch2c (in-place)
I0825 13:05:13.104918 48818 net.cpp:141] Setting up bn4a_branch2c
I0825 13:05:13.104969 48818 net.cpp:148] Top shape: 10 1024 14 14 (2007040)
I0825 13:05:13.105000 48818 net.cpp:156] Memory required for data: 1804329000
I0825 13:05:13.105042 48818 layer_factory.hpp:77] Creating layer scale4a_branch2c
I0825 13:05:13.105082 48818 net.cpp:91] Creating Layer scale4a_branch2c
I0825 13:05:13.105113 48818 net.cpp:425] scale4a_branch2c <- res4a_branch2c
I0825 13:05:13.105152 48818 net.cpp:386] scale4a_branch2c -> res4a_branch2c (in-place)
I0825 13:05:13.105264 48818 layer_factory.hpp:77] Creating layer scale4a_branch2c
I0825 13:05:13.105572 48818 net.cpp:141] Setting up scale4a_branch2c
I0825 13:05:13.105628 48818 net.cpp:148] Top shape: 10 1024 14 14 (2007040)
I0825 13:05:13.105659 48818 net.cpp:156] Memory required for data: 1812357160
I0825 13:05:13.105696 48818 layer_factory.hpp:77] Creating layer res4a
I0825 13:05:13.105731 48818 net.cpp:91] Creating Layer res4a
I0825 13:05:13.105762 48818 net.cpp:425] res4a <- res4a_branch1
I0825 13:05:13.105792 48818 net.cpp:425] res4a <- res4a_branch2c
I0825 13:05:13.105826 48818 net.cpp:399] res4a -> res4a
I0825 13:05:13.105911 48818 net.cpp:141] Setting up res4a
I0825 13:05:13.105958 48818 net.cpp:148] Top shape: 10 1024 14 14 (2007040)
I0825 13:05:13.105988 48818 net.cpp:156] Memory required for data: 1820385320
I0825 13:05:13.106015 48818 layer_factory.hpp:77] Creating layer res4a_relu
I0825 13:05:13.106055 48818 net.cpp:91] Creating Layer res4a_relu
I0825 13:05:13.106086 48818 net.cpp:425] res4a_relu <- res4a
I0825 13:05:13.106118 48818 net.cpp:386] res4a_relu -> res4a (in-place)
I0825 13:05:13.106154 48818 net.cpp:141] Setting up res4a_relu
I0825 13:05:13.106187 48818 net.cpp:148] Top shape: 10 1024 14 14 (2007040)
I0825 13:05:13.106216 48818 net.cpp:156] Memory required for data: 1828413480
I0825 13:05:13.106245 48818 layer_factory.hpp:77] Creating layer res4a_res4a_relu_0_split
I0825 13:05:13.106276 48818 net.cpp:91] Creating Layer res4a_res4a_relu_0_split
I0825 13:05:13.106305 48818 net.cpp:425] res4a_res4a_relu_0_split <- res4a
I0825 13:05:13.106338 48818 net.cpp:399] res4a_res4a_relu_0_split -> res4a_res4a_relu_0_split_0
I0825 13:05:13.106381 48818 net.cpp:399] res4a_res4a_relu_0_split -> res4a_res4a_relu_0_split_1
I0825 13:05:13.106484 48818 net.cpp:141] Setting up res4a_res4a_relu_0_split
I0825 13:05:13.106531 48818 net.cpp:148] Top shape: 10 1024 14 14 (2007040)
I0825 13:05:13.106565 48818 net.cpp:148] Top shape: 10 1024 14 14 (2007040)
I0825 13:05:13.106640 48818 net.cpp:156] Memory required for data: 1844469800
I0825 13:05:13.106673 48818 layer_factory.hpp:77] Creating layer res4b_branch2a
I0825 13:05:13.106751 48818 net.cpp:91] Creating Layer res4b_branch2a
I0825 13:05:13.106792 48818 net.cpp:425] res4b_branch2a <- res4a_res4a_relu_0_split_0
I0825 13:05:13.106832 48818 net.cpp:399] res4b_branch2a -> res4b_branch2a
I0825 13:05:13.112715 48818 net.cpp:141] Setting up res4b_branch2a
I0825 13:05:13.112778 48818 net.cpp:148] Top shape: 10 256 14 14 (501760)
I0825 13:05:13.112810 48818 net.cpp:156] Memory required for data: 1846476840
I0825 13:05:13.112846 48818 layer_factory.hpp:77] Creating layer bn4b_branch2a
I0825 13:05:13.112884 48818 net.cpp:91] Creating Layer bn4b_branch2a
I0825 13:05:13.112915 48818 net.cpp:425] bn4b_branch2a <- res4b_branch2a
I0825 13:05:13.112948 48818 net.cpp:386] bn4b_branch2a -> res4b_branch2a (in-place)
I0825 13:05:13.113385 48818 net.cpp:141] Setting up bn4b_branch2a
I0825 13:05:13.113435 48818 net.cpp:148] Top shape: 10 256 14 14 (501760)
I0825 13:05:13.113466 48818 net.cpp:156] Memory required for data: 1848483880
I0825 13:05:13.113507 48818 layer_factory.hpp:77] Creating layer scale4b_branch2a
I0825 13:05:13.113546 48818 net.cpp:91] Creating Layer scale4b_branch2a
I0825 13:05:13.113576 48818 net.cpp:425] scale4b_branch2a <- res4b_branch2a
I0825 13:05:13.113610 48818 net.cpp:386] scale4b_branch2a -> res4b_branch2a (in-place)
I0825 13:05:13.113739 48818 layer_factory.hpp:77] Creating layer scale4b_branch2a
I0825 13:05:13.114040 48818 net.cpp:141] Setting up scale4b_branch2a
I0825 13:05:13.114090 48818 net.cpp:148] Top shape: 10 256 14 14 (501760)
I0825 13:05:13.114120 48818 net.cpp:156] Memory required for data: 1850490920
I0825 13:05:13.114156 48818 layer_factory.hpp:77] Creating layer res4b_branch2a_relu
I0825 13:05:13.114192 48818 net.cpp:91] Creating Layer res4b_branch2a_relu
I0825 13:05:13.114223 48818 net.cpp:425] res4b_branch2a_relu <- res4b_branch2a
I0825 13:05:13.114260 48818 net.cpp:386] res4b_branch2a_relu -> res4b_branch2a (in-place)
I0825 13:05:13.114300 48818 net.cpp:141] Setting up res4b_branch2a_relu
I0825 13:05:13.114334 48818 net.cpp:148] Top shape: 10 256 14 14 (501760)
I0825 13:05:13.114362 48818 net.cpp:156] Memory required for data: 1852497960
I0825 13:05:13.114390 48818 layer_factory.hpp:77] Creating layer res4b_branch2b
I0825 13:05:13.114430 48818 net.cpp:91] Creating Layer res4b_branch2b
I0825 13:05:13.114460 48818 net.cpp:425] res4b_branch2b <- res4b_branch2a
I0825 13:05:13.114502 48818 net.cpp:399] res4b_branch2b -> res4b_branch2b
I0825 13:05:13.126870 48818 net.cpp:141] Setting up res4b_branch2b
I0825 13:05:13.126930 48818 net.cpp:148] Top shape: 10 256 14 14 (501760)
I0825 13:05:13.126962 48818 net.cpp:156] Memory required for data: 1854505000
I0825 13:05:13.126996 48818 layer_factory.hpp:77] Creating layer bn4b_branch2b
I0825 13:05:13.127034 48818 net.cpp:91] Creating Layer bn4b_branch2b
I0825 13:05:13.127065 48818 net.cpp:425] bn4b_branch2b <- res4b_branch2b
I0825 13:05:13.127099 48818 net.cpp:386] bn4b_branch2b -> res4b_branch2b (in-place)
I0825 13:05:13.127533 48818 net.cpp:141] Setting up bn4b_branch2b
I0825 13:05:13.127583 48818 net.cpp:148] Top shape: 10 256 14 14 (501760)
I0825 13:05:13.127614 48818 net.cpp:156] Memory required for data: 1856512040
I0825 13:05:13.127655 48818 layer_factory.hpp:77] Creating layer scale4b_branch2b
I0825 13:05:13.127702 48818 net.cpp:91] Creating Layer scale4b_branch2b
I0825 13:05:13.127734 48818 net.cpp:425] scale4b_branch2b <- res4b_branch2b
I0825 13:05:13.127768 48818 net.cpp:386] scale4b_branch2b -> res4b_branch2b (in-place)
I0825 13:05:13.127899 48818 layer_factory.hpp:77] Creating layer scale4b_branch2b
I0825 13:05:13.128185 48818 net.cpp:141] Setting up scale4b_branch2b
I0825 13:05:13.128234 48818 net.cpp:148] Top shape: 10 256 14 14 (501760)
I0825 13:05:13.128263 48818 net.cpp:156] Memory required for data: 1858519080
I0825 13:05:13.128300 48818 layer_factory.hpp:77] Creating layer res4b_branch2b_relu
I0825 13:05:13.128341 48818 net.cpp:91] Creating Layer res4b_branch2b_relu
I0825 13:05:13.128409 48818 net.cpp:425] res4b_branch2b_relu <- res4b_branch2b
I0825 13:05:13.128445 48818 net.cpp:386] res4b_branch2b_relu -> res4b_branch2b (in-place)
I0825 13:05:13.128484 48818 net.cpp:141] Setting up res4b_branch2b_relu
I0825 13:05:13.128518 48818 net.cpp:148] Top shape: 10 256 14 14 (501760)
I0825 13:05:13.128547 48818 net.cpp:156] Memory required for data: 1860526120
I0825 13:05:13.128576 48818 layer_factory.hpp:77] Creating layer res4b_branch2c
I0825 13:05:13.128633 48818 net.cpp:91] Creating Layer res4b_branch2c
I0825 13:05:13.128669 48818 net.cpp:425] res4b_branch2c <- res4b_branch2b
I0825 13:05:13.128705 48818 net.cpp:399] res4b_branch2c -> res4b_branch2c
I0825 13:05:13.134588 48818 net.cpp:141] Setting up res4b_branch2c
I0825 13:05:13.134646 48818 net.cpp:148] Top shape: 10 1024 14 14 (2007040)
I0825 13:05:13.134677 48818 net.cpp:156] Memory required for data: 1868554280
I0825 13:05:13.134712 48818 layer_factory.hpp:77] Creating layer bn4b_branch2c
I0825 13:05:13.134754 48818 net.cpp:91] Creating Layer bn4b_branch2c
I0825 13:05:13.134786 48818 net.cpp:425] bn4b_branch2c <- res4b_branch2c
I0825 13:05:13.134820 48818 net.cpp:386] bn4b_branch2c -> res4b_branch2c (in-place)
I0825 13:05:13.135277 48818 net.cpp:141] Setting up bn4b_branch2c
I0825 13:05:13.135326 48818 net.cpp:148] Top shape: 10 1024 14 14 (2007040)
I0825 13:05:13.135359 48818 net.cpp:156] Memory required for data: 1876582440
I0825 13:05:13.135398 48818 layer_factory.hpp:77] Creating layer scale4b_branch2c
I0825 13:05:13.135443 48818 net.cpp:91] Creating Layer scale4b_branch2c
I0825 13:05:13.135475 48818 net.cpp:425] scale4b_branch2c <- res4b_branch2c
I0825 13:05:13.135511 48818 net.cpp:386] scale4b_branch2c -> res4b_branch2c (in-place)
I0825 13:05:13.135627 48818 layer_factory.hpp:77] Creating layer scale4b_branch2c
I0825 13:05:13.135941 48818 net.cpp:141] Setting up scale4b_branch2c
I0825 13:05:13.135990 48818 net.cpp:148] Top shape: 10 1024 14 14 (2007040)
I0825 13:05:13.136020 48818 net.cpp:156] Memory required for data: 1884610600
I0825 13:05:13.136057 48818 layer_factory.hpp:77] Creating layer res4b
I0825 13:05:13.136092 48818 net.cpp:91] Creating Layer res4b
I0825 13:05:13.136123 48818 net.cpp:425] res4b <- res4a_res4a_relu_0_split_1
I0825 13:05:13.136154 48818 net.cpp:425] res4b <- res4b_branch2c
I0825 13:05:13.136194 48818 net.cpp:399] res4b -> res4b
I0825 13:05:13.136276 48818 net.cpp:141] Setting up res4b
I0825 13:05:13.136329 48818 net.cpp:148] Top shape: 10 1024 14 14 (2007040)
I0825 13:05:13.136361 48818 net.cpp:156] Memory required for data: 1892638760
I0825 13:05:13.136399 48818 layer_factory.hpp:77] Creating layer res4b_relu
I0825 13:05:13.136435 48818 net.cpp:91] Creating Layer res4b_relu
I0825 13:05:13.136464 48818 net.cpp:425] res4b_relu <- res4b
I0825 13:05:13.136502 48818 net.cpp:386] res4b_relu -> res4b (in-place)
I0825 13:05:13.136540 48818 net.cpp:141] Setting up res4b_relu
I0825 13:05:13.136574 48818 net.cpp:148] Top shape: 10 1024 14 14 (2007040)
I0825 13:05:13.136612 48818 net.cpp:156] Memory required for data: 1900666920
I0825 13:05:13.136643 48818 layer_factory.hpp:77] Creating layer res4b_res4b_relu_0_split
I0825 13:05:13.136677 48818 net.cpp:91] Creating Layer res4b_res4b_relu_0_split
I0825 13:05:13.136706 48818 net.cpp:425] res4b_res4b_relu_0_split <- res4b
I0825 13:05:13.136745 48818 net.cpp:399] res4b_res4b_relu_0_split -> res4b_res4b_relu_0_split_0
I0825 13:05:13.136792 48818 net.cpp:399] res4b_res4b_relu_0_split -> res4b_res4b_relu_0_split_1
I0825 13:05:13.136910 48818 net.cpp:141] Setting up res4b_res4b_relu_0_split
I0825 13:05:13.136957 48818 net.cpp:148] Top shape: 10 1024 14 14 (2007040)
I0825 13:05:13.136992 48818 net.cpp:148] Top shape: 10 1024 14 14 (2007040)
I0825 13:05:13.137020 48818 net.cpp:156] Memory required for data: 1916723240
I0825 13:05:13.137049 48818 layer_factory.hpp:77] Creating layer res4c_branch2a
I0825 13:05:13.137090 48818 net.cpp:91] Creating Layer res4c_branch2a
I0825 13:05:13.137123 48818 net.cpp:425] res4c_branch2a <- res4b_res4b_relu_0_split_0
I0825 13:05:13.137202 48818 net.cpp:399] res4c_branch2a -> res4c_branch2a
I0825 13:05:13.143085 48818 net.cpp:141] Setting up res4c_branch2a
I0825 13:05:13.143144 48818 net.cpp:148] Top shape: 10 256 14 14 (501760)
I0825 13:05:13.143175 48818 net.cpp:156] Memory required for data: 1918730280
I0825 13:05:13.143210 48818 layer_factory.hpp:77] Creating layer bn4c_branch2a
I0825 13:05:13.143254 48818 net.cpp:91] Creating Layer bn4c_branch2a
I0825 13:05:13.143286 48818 net.cpp:425] bn4c_branch2a <- res4c_branch2a
I0825 13:05:13.143321 48818 net.cpp:386] bn4c_branch2a -> res4c_branch2a (in-place)
I0825 13:05:13.143759 48818 net.cpp:141] Setting up bn4c_branch2a
I0825 13:05:13.143807 48818 net.cpp:148] Top shape: 10 256 14 14 (501760)
I0825 13:05:13.143837 48818 net.cpp:156] Memory required for data: 1920737320
I0825 13:05:13.143878 48818 layer_factory.hpp:77] Creating layer scale4c_branch2a
I0825 13:05:13.143919 48818 net.cpp:91] Creating Layer scale4c_branch2a
I0825 13:05:13.143949 48818 net.cpp:425] scale4c_branch2a <- res4c_branch2a
I0825 13:05:13.143990 48818 net.cpp:386] scale4c_branch2a -> res4c_branch2a (in-place)
I0825 13:05:13.144107 48818 layer_factory.hpp:77] Creating layer scale4c_branch2a
I0825 13:05:13.144414 48818 net.cpp:141] Setting up scale4c_branch2a
I0825 13:05:13.144465 48818 net.cpp:148] Top shape: 10 256 14 14 (501760)
I0825 13:05:13.144495 48818 net.cpp:156] Memory required for data: 1922744360
I0825 13:05:13.144532 48818 layer_factory.hpp:77] Creating layer res4c_branch2a_relu
I0825 13:05:13.144568 48818 net.cpp:91] Creating Layer res4c_branch2a_relu
I0825 13:05:13.144608 48818 net.cpp:425] res4c_branch2a_relu <- res4c_branch2a
I0825 13:05:13.144641 48818 net.cpp:386] res4c_branch2a_relu -> res4c_branch2a (in-place)
I0825 13:05:13.144686 48818 net.cpp:141] Setting up res4c_branch2a_relu
I0825 13:05:13.144722 48818 net.cpp:148] Top shape: 10 256 14 14 (501760)
I0825 13:05:13.144752 48818 net.cpp:156] Memory required for data: 1924751400
I0825 13:05:13.144781 48818 layer_factory.hpp:77] Creating layer res4c_branch2b
I0825 13:05:13.144827 48818 net.cpp:91] Creating Layer res4c_branch2b
I0825 13:05:13.144875 48818 net.cpp:425] res4c_branch2b <- res4c_branch2a
I0825 13:05:13.144918 48818 net.cpp:399] res4c_branch2b -> res4c_branch2b
I0825 13:05:13.157310 48818 net.cpp:141] Setting up res4c_branch2b
I0825 13:05:13.157371 48818 net.cpp:148] Top shape: 10 256 14 14 (501760)
I0825 13:05:13.157403 48818 net.cpp:156] Memory required for data: 1926758440
I0825 13:05:13.157438 48818 layer_factory.hpp:77] Creating layer bn4c_branch2b
I0825 13:05:13.157476 48818 net.cpp:91] Creating Layer bn4c_branch2b
I0825 13:05:13.157507 48818 net.cpp:425] bn4c_branch2b <- res4c_branch2b
I0825 13:05:13.157541 48818 net.cpp:386] bn4c_branch2b -> res4c_branch2b (in-place)
I0825 13:05:13.157986 48818 net.cpp:141] Setting up bn4c_branch2b
I0825 13:05:13.158037 48818 net.cpp:148] Top shape: 10 256 14 14 (501760)
I0825 13:05:13.158068 48818 net.cpp:156] Memory required for data: 1928765480
I0825 13:05:13.158108 48818 layer_factory.hpp:77] Creating layer scale4c_branch2b
I0825 13:05:13.158159 48818 net.cpp:91] Creating Layer scale4c_branch2b
I0825 13:05:13.158192 48818 net.cpp:425] scale4c_branch2b <- res4c_branch2b
I0825 13:05:13.158226 48818 net.cpp:386] scale4c_branch2b -> res4c_branch2b (in-place)
I0825 13:05:13.158354 48818 layer_factory.hpp:77] Creating layer scale4c_branch2b
I0825 13:05:13.158638 48818 net.cpp:141] Setting up scale4c_branch2b
I0825 13:05:13.158686 48818 net.cpp:148] Top shape: 10 256 14 14 (501760)
I0825 13:05:13.158716 48818 net.cpp:156] Memory required for data: 1930772520
I0825 13:05:13.158753 48818 layer_factory.hpp:77] Creating layer res4c_branch2b_relu
I0825 13:05:13.158788 48818 net.cpp:91] Creating Layer res4c_branch2b_relu
I0825 13:05:13.158819 48818 net.cpp:425] res4c_branch2b_relu <- res4c_branch2b
I0825 13:05:13.158856 48818 net.cpp:386] res4c_branch2b_relu -> res4c_branch2b (in-place)
I0825 13:05:13.158895 48818 net.cpp:141] Setting up res4c_branch2b_relu
I0825 13:05:13.158931 48818 net.cpp:148] Top shape: 10 256 14 14 (501760)
I0825 13:05:13.158995 48818 net.cpp:156] Memory required for data: 1932779560
I0825 13:05:13.159027 48818 layer_factory.hpp:77] Creating layer res4c_branch2c
I0825 13:05:13.159075 48818 net.cpp:91] Creating Layer res4c_branch2c
I0825 13:05:13.159108 48818 net.cpp:425] res4c_branch2c <- res4c_branch2b
I0825 13:05:13.159145 48818 net.cpp:399] res4c_branch2c -> res4c_branch2c
I0825 13:05:13.165031 48818 net.cpp:141] Setting up res4c_branch2c
I0825 13:05:13.165091 48818 net.cpp:148] Top shape: 10 1024 14 14 (2007040)
I0825 13:05:13.165122 48818 net.cpp:156] Memory required for data: 1940807720
I0825 13:05:13.165158 48818 layer_factory.hpp:77] Creating layer bn4c_branch2c
I0825 13:05:13.165202 48818 net.cpp:91] Creating Layer bn4c_branch2c
I0825 13:05:13.165235 48818 net.cpp:425] bn4c_branch2c <- res4c_branch2c
I0825 13:05:13.165268 48818 net.cpp:386] bn4c_branch2c -> res4c_branch2c (in-place)
I0825 13:05:13.165715 48818 net.cpp:141] Setting up bn4c_branch2c
I0825 13:05:13.165766 48818 net.cpp:148] Top shape: 10 1024 14 14 (2007040)
I0825 13:05:13.165796 48818 net.cpp:156] Memory required for data: 1948835880
I0825 13:05:13.165838 48818 layer_factory.hpp:77] Creating layer scale4c_branch2c
I0825 13:05:13.165876 48818 net.cpp:91] Creating Layer scale4c_branch2c
I0825 13:05:13.165906 48818 net.cpp:425] scale4c_branch2c <- res4c_branch2c
I0825 13:05:13.165946 48818 net.cpp:386] scale4c_branch2c -> res4c_branch2c (in-place)
I0825 13:05:13.166060 48818 layer_factory.hpp:77] Creating layer scale4c_branch2c
I0825 13:05:13.166376 48818 net.cpp:141] Setting up scale4c_branch2c
I0825 13:05:13.166426 48818 net.cpp:148] Top shape: 10 1024 14 14 (2007040)
I0825 13:05:13.166456 48818 net.cpp:156] Memory required for data: 1956864040
I0825 13:05:13.166493 48818 layer_factory.hpp:77] Creating layer res4c
I0825 13:05:13.166529 48818 net.cpp:91] Creating Layer res4c
I0825 13:05:13.166561 48818 net.cpp:425] res4c <- res4b_res4b_relu_0_split_1
I0825 13:05:13.166595 48818 net.cpp:425] res4c <- res4c_branch2c
I0825 13:05:13.166628 48818 net.cpp:399] res4c -> res4c
I0825 13:05:13.166715 48818 net.cpp:141] Setting up res4c
I0825 13:05:13.166762 48818 net.cpp:148] Top shape: 10 1024 14 14 (2007040)
I0825 13:05:13.166806 48818 net.cpp:156] Memory required for data: 1964892200
I0825 13:05:13.166837 48818 layer_factory.hpp:77] Creating layer res4c_relu
I0825 13:05:13.166870 48818 net.cpp:91] Creating Layer res4c_relu
I0825 13:05:13.166899 48818 net.cpp:425] res4c_relu <- res4c
I0825 13:05:13.166931 48818 net.cpp:386] res4c_relu -> res4c (in-place)
I0825 13:05:13.166966 48818 net.cpp:141] Setting up res4c_relu
I0825 13:05:13.167001 48818 net.cpp:148] Top shape: 10 1024 14 14 (2007040)
I0825 13:05:13.167028 48818 net.cpp:156] Memory required for data: 1972920360
I0825 13:05:13.167058 48818 layer_factory.hpp:77] Creating layer res4c_res4c_relu_0_split
I0825 13:05:13.167090 48818 net.cpp:91] Creating Layer res4c_res4c_relu_0_split
I0825 13:05:13.167119 48818 net.cpp:425] res4c_res4c_relu_0_split <- res4c
I0825 13:05:13.167158 48818 net.cpp:399] res4c_res4c_relu_0_split -> res4c_res4c_relu_0_split_0
I0825 13:05:13.167207 48818 net.cpp:399] res4c_res4c_relu_0_split -> res4c_res4c_relu_0_split_1
I0825 13:05:13.167311 48818 net.cpp:141] Setting up res4c_res4c_relu_0_split
I0825 13:05:13.167358 48818 net.cpp:148] Top shape: 10 1024 14 14 (2007040)
I0825 13:05:13.167400 48818 net.cpp:148] Top shape: 10 1024 14 14 (2007040)
I0825 13:05:13.167431 48818 net.cpp:156] Memory required for data: 1988976680
I0825 13:05:13.167460 48818 layer_factory.hpp:77] Creating layer res4d_branch2a
I0825 13:05:13.167506 48818 net.cpp:91] Creating Layer res4d_branch2a
I0825 13:05:13.167560 48818 net.cpp:425] res4d_branch2a <- res4c_res4c_relu_0_split_0
I0825 13:05:13.167598 48818 net.cpp:399] res4d_branch2a -> res4d_branch2a
I0825 13:05:13.173496 48818 net.cpp:141] Setting up res4d_branch2a
I0825 13:05:13.173555 48818 net.cpp:148] Top shape: 10 256 14 14 (501760)
I0825 13:05:13.173588 48818 net.cpp:156] Memory required for data: 1990983720
I0825 13:05:13.173657 48818 layer_factory.hpp:77] Creating layer bn4d_branch2a
I0825 13:05:13.173710 48818 net.cpp:91] Creating Layer bn4d_branch2a
I0825 13:05:13.173743 48818 net.cpp:425] bn4d_branch2a <- res4d_branch2a
I0825 13:05:13.173777 48818 net.cpp:386] bn4d_branch2a -> res4d_branch2a (in-place)
I0825 13:05:13.174221 48818 net.cpp:141] Setting up bn4d_branch2a
I0825 13:05:13.174270 48818 net.cpp:148] Top shape: 10 256 14 14 (501760)
I0825 13:05:13.174301 48818 net.cpp:156] Memory required for data: 1992990760
I0825 13:05:13.174343 48818 layer_factory.hpp:77] Creating layer scale4d_branch2a
I0825 13:05:13.174382 48818 net.cpp:91] Creating Layer scale4d_branch2a
I0825 13:05:13.174412 48818 net.cpp:425] scale4d_branch2a <- res4d_branch2a
I0825 13:05:13.174451 48818 net.cpp:386] scale4d_branch2a -> res4d_branch2a (in-place)
I0825 13:05:13.174571 48818 layer_factory.hpp:77] Creating layer scale4d_branch2a
I0825 13:05:13.174872 48818 net.cpp:141] Setting up scale4d_branch2a
I0825 13:05:13.174926 48818 net.cpp:148] Top shape: 10 256 14 14 (501760)
I0825 13:05:13.174957 48818 net.cpp:156] Memory required for data: 1994997800
I0825 13:05:13.174993 48818 layer_factory.hpp:77] Creating layer res4d_branch2a_relu
I0825 13:05:13.175029 48818 net.cpp:91] Creating Layer res4d_branch2a_relu
I0825 13:05:13.175060 48818 net.cpp:425] res4d_branch2a_relu <- res4d_branch2a
I0825 13:05:13.175091 48818 net.cpp:386] res4d_branch2a_relu -> res4d_branch2a (in-place)
I0825 13:05:13.175127 48818 net.cpp:141] Setting up res4d_branch2a_relu
I0825 13:05:13.175160 48818 net.cpp:148] Top shape: 10 256 14 14 (501760)
I0825 13:05:13.175189 48818 net.cpp:156] Memory required for data: 1997004840
I0825 13:05:13.175217 48818 layer_factory.hpp:77] Creating layer res4d_branch2b
I0825 13:05:13.175262 48818 net.cpp:91] Creating Layer res4d_branch2b
I0825 13:05:13.175294 48818 net.cpp:425] res4d_branch2b <- res4d_branch2a
I0825 13:05:13.175336 48818 net.cpp:399] res4d_branch2b -> res4d_branch2b
I0825 13:05:13.187705 48818 net.cpp:141] Setting up res4d_branch2b
I0825 13:05:13.187767 48818 net.cpp:148] Top shape: 10 256 14 14 (501760)
I0825 13:05:13.187798 48818 net.cpp:156] Memory required for data: 1999011880
I0825 13:05:13.187832 48818 layer_factory.hpp:77] Creating layer bn4d_branch2b
I0825 13:05:13.187870 48818 net.cpp:91] Creating Layer bn4d_branch2b
I0825 13:05:13.187901 48818 net.cpp:425] bn4d_branch2b <- res4d_branch2b
I0825 13:05:13.187939 48818 net.cpp:386] bn4d_branch2b -> res4d_branch2b (in-place)
I0825 13:05:13.188380 48818 net.cpp:141] Setting up bn4d_branch2b
I0825 13:05:13.188431 48818 net.cpp:148] Top shape: 10 256 14 14 (501760)
I0825 13:05:13.188460 48818 net.cpp:156] Memory required for data: 2001018920
I0825 13:05:13.188501 48818 layer_factory.hpp:77] Creating layer scale4d_branch2b
I0825 13:05:13.188540 48818 net.cpp:91] Creating Layer scale4d_branch2b
I0825 13:05:13.188570 48818 net.cpp:425] scale4d_branch2b <- res4d_branch2b
I0825 13:05:13.188614 48818 net.cpp:386] scale4d_branch2b -> res4d_branch2b (in-place)
I0825 13:05:13.188742 48818 layer_factory.hpp:77] Creating layer scale4d_branch2b
I0825 13:05:13.189043 48818 net.cpp:141] Setting up scale4d_branch2b
I0825 13:05:13.189092 48818 net.cpp:148] Top shape: 10 256 14 14 (501760)
I0825 13:05:13.189129 48818 net.cpp:156] Memory required for data: 2003025960
I0825 13:05:13.189167 48818 layer_factory.hpp:77] Creating layer res4d_branch2b_relu
I0825 13:05:13.189201 48818 net.cpp:91] Creating Layer res4d_branch2b_relu
I0825 13:05:13.189239 48818 net.cpp:425] res4d_branch2b_relu <- res4d_branch2b
I0825 13:05:13.189271 48818 net.cpp:386] res4d_branch2b_relu -> res4d_branch2b (in-place)
I0825 13:05:13.189314 48818 net.cpp:141] Setting up res4d_branch2b_relu
I0825 13:05:13.189349 48818 net.cpp:148] Top shape: 10 256 14 14 (501760)
I0825 13:05:13.189378 48818 net.cpp:156] Memory required for data: 2005033000
I0825 13:05:13.189406 48818 layer_factory.hpp:77] Creating layer res4d_branch2c
I0825 13:05:13.189452 48818 net.cpp:91] Creating Layer res4d_branch2c
I0825 13:05:13.189484 48818 net.cpp:425] res4d_branch2c <- res4d_branch2b
I0825 13:05:13.189558 48818 net.cpp:399] res4d_branch2c -> res4d_branch2c
I0825 13:05:13.195457 48818 net.cpp:141] Setting up res4d_branch2c
I0825 13:05:13.195515 48818 net.cpp:148] Top shape: 10 1024 14 14 (2007040)
I0825 13:05:13.195547 48818 net.cpp:156] Memory required for data: 2013061160
I0825 13:05:13.195581 48818 layer_factory.hpp:77] Creating layer bn4d_branch2c
I0825 13:05:13.195621 48818 net.cpp:91] Creating Layer bn4d_branch2c
I0825 13:05:13.195650 48818 net.cpp:425] bn4d_branch2c <- res4d_branch2c
I0825 13:05:13.195683 48818 net.cpp:386] bn4d_branch2c -> res4d_branch2c (in-place)
I0825 13:05:13.196143 48818 net.cpp:141] Setting up bn4d_branch2c
I0825 13:05:13.196192 48818 net.cpp:148] Top shape: 10 1024 14 14 (2007040)
I0825 13:05:13.196224 48818 net.cpp:156] Memory required for data: 2021089320
I0825 13:05:13.196266 48818 layer_factory.hpp:77] Creating layer scale4d_branch2c
I0825 13:05:13.196305 48818 net.cpp:91] Creating Layer scale4d_branch2c
I0825 13:05:13.196336 48818 net.cpp:425] scale4d_branch2c <- res4d_branch2c
I0825 13:05:13.196369 48818 net.cpp:386] scale4d_branch2c -> res4d_branch2c (in-place)
I0825 13:05:13.196493 48818 layer_factory.hpp:77] Creating layer scale4d_branch2c
I0825 13:05:13.196831 48818 net.cpp:141] Setting up scale4d_branch2c
I0825 13:05:13.196882 48818 net.cpp:148] Top shape: 10 1024 14 14 (2007040)
I0825 13:05:13.196913 48818 net.cpp:156] Memory required for data: 2029117480
I0825 13:05:13.196950 48818 layer_factory.hpp:77] Creating layer res4d
I0825 13:05:13.196991 48818 net.cpp:91] Creating Layer res4d
I0825 13:05:13.197023 48818 net.cpp:425] res4d <- res4c_res4c_relu_0_split_1
I0825 13:05:13.197055 48818 net.cpp:425] res4d <- res4d_branch2c
I0825 13:05:13.197093 48818 net.cpp:399] res4d -> res4d
I0825 13:05:13.197175 48818 net.cpp:141] Setting up res4d
I0825 13:05:13.197223 48818 net.cpp:148] Top shape: 10 1024 14 14 (2007040)
I0825 13:05:13.197252 48818 net.cpp:156] Memory required for data: 2037145640
I0825 13:05:13.197293 48818 layer_factory.hpp:77] Creating layer res4d_relu
I0825 13:05:13.197335 48818 net.cpp:91] Creating Layer res4d_relu
I0825 13:05:13.197365 48818 net.cpp:425] res4d_relu <- res4d
I0825 13:05:13.197398 48818 net.cpp:386] res4d_relu -> res4d (in-place)
I0825 13:05:13.197435 48818 net.cpp:141] Setting up res4d_relu
I0825 13:05:13.197469 48818 net.cpp:148] Top shape: 10 1024 14 14 (2007040)
I0825 13:05:13.197497 48818 net.cpp:156] Memory required for data: 2045173800
I0825 13:05:13.197525 48818 layer_factory.hpp:77] Creating layer res4d_res4d_relu_0_split
I0825 13:05:13.197557 48818 net.cpp:91] Creating Layer res4d_res4d_relu_0_split
I0825 13:05:13.197587 48818 net.cpp:425] res4d_res4d_relu_0_split <- res4d
I0825 13:05:13.197618 48818 net.cpp:399] res4d_res4d_relu_0_split -> res4d_res4d_relu_0_split_0
I0825 13:05:13.197657 48818 net.cpp:399] res4d_res4d_relu_0_split -> res4d_res4d_relu_0_split_1
I0825 13:05:13.197778 48818 net.cpp:141] Setting up res4d_res4d_relu_0_split
I0825 13:05:13.197826 48818 net.cpp:148] Top shape: 10 1024 14 14 (2007040)
I0825 13:05:13.197867 48818 net.cpp:148] Top shape: 10 1024 14 14 (2007040)
I0825 13:05:13.197898 48818 net.cpp:156] Memory required for data: 2061230120
I0825 13:05:13.197927 48818 layer_factory.hpp:77] Creating layer res4e_branch2a
I0825 13:05:13.197968 48818 net.cpp:91] Creating Layer res4e_branch2a
I0825 13:05:13.197999 48818 net.cpp:425] res4e_branch2a <- res4d_res4d_relu_0_split_0
I0825 13:05:13.198046 48818 net.cpp:399] res4e_branch2a -> res4e_branch2a
I0825 13:05:13.203940 48818 net.cpp:141] Setting up res4e_branch2a
I0825 13:05:13.204000 48818 net.cpp:148] Top shape: 10 256 14 14 (501760)
I0825 13:05:13.204031 48818 net.cpp:156] Memory required for data: 2063237160
I0825 13:05:13.204066 48818 layer_factory.hpp:77] Creating layer bn4e_branch2a
I0825 13:05:13.204105 48818 net.cpp:91] Creating Layer bn4e_branch2a
I0825 13:05:13.204136 48818 net.cpp:425] bn4e_branch2a <- res4e_branch2a
I0825 13:05:13.204169 48818 net.cpp:386] bn4e_branch2a -> res4e_branch2a (in-place)
I0825 13:05:13.204687 48818 net.cpp:141] Setting up bn4e_branch2a
I0825 13:05:13.204737 48818 net.cpp:148] Top shape: 10 256 14 14 (501760)
I0825 13:05:13.204768 48818 net.cpp:156] Memory required for data: 2065244200
I0825 13:05:13.204816 48818 layer_factory.hpp:77] Creating layer scale4e_branch2a
I0825 13:05:13.204855 48818 net.cpp:91] Creating Layer scale4e_branch2a
I0825 13:05:13.204886 48818 net.cpp:425] scale4e_branch2a <- res4e_branch2a
I0825 13:05:13.204919 48818 net.cpp:386] scale4e_branch2a -> res4e_branch2a (in-place)
I0825 13:05:13.205049 48818 layer_factory.hpp:77] Creating layer scale4e_branch2a
I0825 13:05:13.205358 48818 net.cpp:141] Setting up scale4e_branch2a
I0825 13:05:13.205410 48818 net.cpp:148] Top shape: 10 256 14 14 (501760)
I0825 13:05:13.205438 48818 net.cpp:156] Memory required for data: 2067251240
I0825 13:05:13.205476 48818 layer_factory.hpp:77] Creating layer res4e_branch2a_relu
I0825 13:05:13.205524 48818 net.cpp:91] Creating Layer res4e_branch2a_relu
I0825 13:05:13.205559 48818 net.cpp:425] res4e_branch2a_relu <- res4e_branch2a
I0825 13:05:13.205590 48818 net.cpp:386] res4e_branch2a_relu -> res4e_branch2a (in-place)
I0825 13:05:13.205628 48818 net.cpp:141] Setting up res4e_branch2a_relu
I0825 13:05:13.205663 48818 net.cpp:148] Top shape: 10 256 14 14 (501760)
I0825 13:05:13.205691 48818 net.cpp:156] Memory required for data: 2069258280
I0825 13:05:13.205719 48818 layer_factory.hpp:77] Creating layer res4e_branch2b
I0825 13:05:13.205765 48818 net.cpp:91] Creating Layer res4e_branch2b
I0825 13:05:13.205796 48818 net.cpp:425] res4e_branch2b <- res4e_branch2a
I0825 13:05:13.205837 48818 net.cpp:399] res4e_branch2b -> res4e_branch2b
I0825 13:05:13.218225 48818 net.cpp:141] Setting up res4e_branch2b
I0825 13:05:13.218287 48818 net.cpp:148] Top shape: 10 256 14 14 (501760)
I0825 13:05:13.218318 48818 net.cpp:156] Memory required for data: 2071265320
I0825 13:05:13.218353 48818 layer_factory.hpp:77] Creating layer bn4e_branch2b
I0825 13:05:13.218390 48818 net.cpp:91] Creating Layer bn4e_branch2b
I0825 13:05:13.218421 48818 net.cpp:425] bn4e_branch2b <- res4e_branch2b
I0825 13:05:13.218453 48818 net.cpp:386] bn4e_branch2b -> res4e_branch2b (in-place)
I0825 13:05:13.218912 48818 net.cpp:141] Setting up bn4e_branch2b
I0825 13:05:13.218962 48818 net.cpp:148] Top shape: 10 256 14 14 (501760)
I0825 13:05:13.218992 48818 net.cpp:156] Memory required for data: 2073272360
I0825 13:05:13.219033 48818 layer_factory.hpp:77] Creating layer scale4e_branch2b
I0825 13:05:13.219079 48818 net.cpp:91] Creating Layer scale4e_branch2b
I0825 13:05:13.219110 48818 net.cpp:425] scale4e_branch2b <- res4e_branch2b
I0825 13:05:13.219143 48818 net.cpp:386] scale4e_branch2b -> res4e_branch2b (in-place)
I0825 13:05:13.219279 48818 layer_factory.hpp:77] Creating layer scale4e_branch2b
I0825 13:05:13.219589 48818 net.cpp:141] Setting up scale4e_branch2b
I0825 13:05:13.219640 48818 net.cpp:148] Top shape: 10 256 14 14 (501760)
I0825 13:05:13.219669 48818 net.cpp:156] Memory required for data: 2075279400
I0825 13:05:13.219705 48818 layer_factory.hpp:77] Creating layer res4e_branch2b_relu
I0825 13:05:13.219740 48818 net.cpp:91] Creating Layer res4e_branch2b_relu
I0825 13:05:13.219770 48818 net.cpp:425] res4e_branch2b_relu <- res4e_branch2b
I0825 13:05:13.219808 48818 net.cpp:386] res4e_branch2b_relu -> res4e_branch2b (in-place)
I0825 13:05:13.219853 48818 net.cpp:141] Setting up res4e_branch2b_relu
I0825 13:05:13.219890 48818 net.cpp:148] Top shape: 10 256 14 14 (501760)
I0825 13:05:13.219919 48818 net.cpp:156] Memory required for data: 2077286440
I0825 13:05:13.219949 48818 layer_factory.hpp:77] Creating layer res4e_branch2c
I0825 13:05:13.219995 48818 net.cpp:91] Creating Layer res4e_branch2c
I0825 13:05:13.220036 48818 net.cpp:425] res4e_branch2c <- res4e_branch2b
I0825 13:05:13.220073 48818 net.cpp:399] res4e_branch2c -> res4e_branch2c
I0825 13:05:13.226053 48818 net.cpp:141] Setting up res4e_branch2c
I0825 13:05:13.226114 48818 net.cpp:148] Top shape: 10 1024 14 14 (2007040)
I0825 13:05:13.226145 48818 net.cpp:156] Memory required for data: 2085314600
I0825 13:05:13.226213 48818 layer_factory.hpp:77] Creating layer bn4e_branch2c
I0825 13:05:13.226259 48818 net.cpp:91] Creating Layer bn4e_branch2c
I0825 13:05:13.226291 48818 net.cpp:425] bn4e_branch2c <- res4e_branch2c
I0825 13:05:13.226325 48818 net.cpp:386] bn4e_branch2c -> res4e_branch2c (in-place)
I0825 13:05:13.226801 48818 net.cpp:141] Setting up bn4e_branch2c
I0825 13:05:13.226851 48818 net.cpp:148] Top shape: 10 1024 14 14 (2007040)
I0825 13:05:13.226881 48818 net.cpp:156] Memory required for data: 2093342760
I0825 13:05:13.226922 48818 layer_factory.hpp:77] Creating layer scale4e_branch2c
I0825 13:05:13.226963 48818 net.cpp:91] Creating Layer scale4e_branch2c
I0825 13:05:13.226994 48818 net.cpp:425] scale4e_branch2c <- res4e_branch2c
I0825 13:05:13.227041 48818 net.cpp:386] scale4e_branch2c -> res4e_branch2c (in-place)
I0825 13:05:13.227162 48818 layer_factory.hpp:77] Creating layer scale4e_branch2c
I0825 13:05:13.227488 48818 net.cpp:141] Setting up scale4e_branch2c
I0825 13:05:13.227540 48818 net.cpp:148] Top shape: 10 1024 14 14 (2007040)
I0825 13:05:13.227568 48818 net.cpp:156] Memory required for data: 2101370920
I0825 13:05:13.227605 48818 layer_factory.hpp:77] Creating layer res4e
I0825 13:05:13.227641 48818 net.cpp:91] Creating Layer res4e
I0825 13:05:13.227671 48818 net.cpp:425] res4e <- res4d_res4d_relu_0_split_1
I0825 13:05:13.227704 48818 net.cpp:425] res4e <- res4e_branch2c
I0825 13:05:13.227737 48818 net.cpp:399] res4e -> res4e
I0825 13:05:13.227826 48818 net.cpp:141] Setting up res4e
I0825 13:05:13.227874 48818 net.cpp:148] Top shape: 10 1024 14 14 (2007040)
I0825 13:05:13.227903 48818 net.cpp:156] Memory required for data: 2109399080
I0825 13:05:13.227941 48818 layer_factory.hpp:77] Creating layer res4e_relu
I0825 13:05:13.227982 48818 net.cpp:91] Creating Layer res4e_relu
I0825 13:05:13.228013 48818 net.cpp:425] res4e_relu <- res4e
I0825 13:05:13.228045 48818 net.cpp:386] res4e_relu -> res4e (in-place)
I0825 13:05:13.228081 48818 net.cpp:141] Setting up res4e_relu
I0825 13:05:13.228114 48818 net.cpp:148] Top shape: 10 1024 14 14 (2007040)
I0825 13:05:13.228142 48818 net.cpp:156] Memory required for data: 2117427240
I0825 13:05:13.228170 48818 layer_factory.hpp:77] Creating layer res4e_res4e_relu_0_split
I0825 13:05:13.228202 48818 net.cpp:91] Creating Layer res4e_res4e_relu_0_split
I0825 13:05:13.228230 48818 net.cpp:425] res4e_res4e_relu_0_split <- res4e
I0825 13:05:13.228262 48818 net.cpp:399] res4e_res4e_relu_0_split -> res4e_res4e_relu_0_split_0
I0825 13:05:13.228307 48818 net.cpp:399] res4e_res4e_relu_0_split -> res4e_res4e_relu_0_split_1
I0825 13:05:13.228415 48818 net.cpp:141] Setting up res4e_res4e_relu_0_split
I0825 13:05:13.228461 48818 net.cpp:148] Top shape: 10 1024 14 14 (2007040)
I0825 13:05:13.228494 48818 net.cpp:148] Top shape: 10 1024 14 14 (2007040)
I0825 13:05:13.228534 48818 net.cpp:156] Memory required for data: 2133483560
I0825 13:05:13.228564 48818 layer_factory.hpp:77] Creating layer res4f_branch2a
I0825 13:05:13.228622 48818 net.cpp:91] Creating Layer res4f_branch2a
I0825 13:05:13.228658 48818 net.cpp:425] res4f_branch2a <- res4e_res4e_relu_0_split_0
I0825 13:05:13.228704 48818 net.cpp:399] res4f_branch2a -> res4f_branch2a
I0825 13:05:13.234611 48818 net.cpp:141] Setting up res4f_branch2a
I0825 13:05:13.234673 48818 net.cpp:148] Top shape: 10 256 14 14 (501760)
I0825 13:05:13.234704 48818 net.cpp:156] Memory required for data: 2135490600
I0825 13:05:13.234737 48818 layer_factory.hpp:77] Creating layer bn4f_branch2a
I0825 13:05:13.234782 48818 net.cpp:91] Creating Layer bn4f_branch2a
I0825 13:05:13.234815 48818 net.cpp:425] bn4f_branch2a <- res4f_branch2a
I0825 13:05:13.234848 48818 net.cpp:386] bn4f_branch2a -> res4f_branch2a (in-place)
I0825 13:05:13.235308 48818 net.cpp:141] Setting up bn4f_branch2a
I0825 13:05:13.235358 48818 net.cpp:148] Top shape: 10 256 14 14 (501760)
I0825 13:05:13.235388 48818 net.cpp:156] Memory required for data: 2137497640
I0825 13:05:13.235430 48818 layer_factory.hpp:77] Creating layer scale4f_branch2a
I0825 13:05:13.235501 48818 net.cpp:91] Creating Layer scale4f_branch2a
I0825 13:05:13.235533 48818 net.cpp:425] scale4f_branch2a <- res4f_branch2a
I0825 13:05:13.235574 48818 net.cpp:386] scale4f_branch2a -> res4f_branch2a (in-place)
I0825 13:05:13.235697 48818 layer_factory.hpp:77] Creating layer scale4f_branch2a
I0825 13:05:13.236011 48818 net.cpp:141] Setting up scale4f_branch2a
I0825 13:05:13.236068 48818 net.cpp:148] Top shape: 10 256 14 14 (501760)
I0825 13:05:13.236099 48818 net.cpp:156] Memory required for data: 2139504680
I0825 13:05:13.236136 48818 layer_factory.hpp:77] Creating layer res4f_branch2a_relu
I0825 13:05:13.236172 48818 net.cpp:91] Creating Layer res4f_branch2a_relu
I0825 13:05:13.236202 48818 net.cpp:425] res4f_branch2a_relu <- res4f_branch2a
I0825 13:05:13.236234 48818 net.cpp:386] res4f_branch2a_relu -> res4f_branch2a (in-place)
I0825 13:05:13.236279 48818 net.cpp:141] Setting up res4f_branch2a_relu
I0825 13:05:13.236315 48818 net.cpp:148] Top shape: 10 256 14 14 (501760)
I0825 13:05:13.236348 48818 net.cpp:156] Memory required for data: 2141511720
I0825 13:05:13.236378 48818 layer_factory.hpp:77] Creating layer res4f_branch2b
I0825 13:05:13.236424 48818 net.cpp:91] Creating Layer res4f_branch2b
I0825 13:05:13.236456 48818 net.cpp:425] res4f_branch2b <- res4f_branch2a
I0825 13:05:13.236497 48818 net.cpp:399] res4f_branch2b -> res4f_branch2b
I0825 13:05:13.248895 48818 net.cpp:141] Setting up res4f_branch2b
I0825 13:05:13.248955 48818 net.cpp:148] Top shape: 10 256 14 14 (501760)
I0825 13:05:13.248986 48818 net.cpp:156] Memory required for data: 2143518760
I0825 13:05:13.249020 48818 layer_factory.hpp:77] Creating layer bn4f_branch2b
I0825 13:05:13.249058 48818 net.cpp:91] Creating Layer bn4f_branch2b
I0825 13:05:13.249089 48818 net.cpp:425] bn4f_branch2b <- res4f_branch2b
I0825 13:05:13.249133 48818 net.cpp:386] bn4f_branch2b -> res4f_branch2b (in-place)
I0825 13:05:13.249603 48818 net.cpp:141] Setting up bn4f_branch2b
I0825 13:05:13.249652 48818 net.cpp:148] Top shape: 10 256 14 14 (501760)
I0825 13:05:13.249682 48818 net.cpp:156] Memory required for data: 2145525800
I0825 13:05:13.249723 48818 layer_factory.hpp:77] Creating layer scale4f_branch2b
I0825 13:05:13.249761 48818 net.cpp:91] Creating Layer scale4f_branch2b
I0825 13:05:13.249791 48818 net.cpp:425] scale4f_branch2b <- res4f_branch2b
I0825 13:05:13.249824 48818 net.cpp:386] scale4f_branch2b -> res4f_branch2b (in-place)
I0825 13:05:13.249953 48818 layer_factory.hpp:77] Creating layer scale4f_branch2b
I0825 13:05:13.250267 48818 net.cpp:141] Setting up scale4f_branch2b
I0825 13:05:13.250318 48818 net.cpp:148] Top shape: 10 256 14 14 (501760)
I0825 13:05:13.250347 48818 net.cpp:156] Memory required for data: 2147532840
I0825 13:05:13.250383 48818 layer_factory.hpp:77] Creating layer res4f_branch2b_relu
I0825 13:05:13.250418 48818 net.cpp:91] Creating Layer res4f_branch2b_relu
I0825 13:05:13.250452 48818 net.cpp:425] res4f_branch2b_relu <- res4f_branch2b
I0825 13:05:13.250491 48818 net.cpp:386] res4f_branch2b_relu -> res4f_branch2b (in-place)
I0825 13:05:13.250530 48818 net.cpp:141] Setting up res4f_branch2b_relu
I0825 13:05:13.250566 48818 net.cpp:148] Top shape: 10 256 14 14 (501760)
I0825 13:05:13.250596 48818 net.cpp:156] Memory required for data: 2149539880
I0825 13:05:13.250623 48818 layer_factory.hpp:77] Creating layer res4f_branch2c
I0825 13:05:13.250663 48818 net.cpp:91] Creating Layer res4f_branch2c
I0825 13:05:13.250694 48818 net.cpp:425] res4f_branch2c <- res4f_branch2b
I0825 13:05:13.250744 48818 net.cpp:399] res4f_branch2c -> res4f_branch2c
I0825 13:05:13.256655 48818 net.cpp:141] Setting up res4f_branch2c
I0825 13:05:13.256714 48818 net.cpp:148] Top shape: 10 1024 14 14 (2007040)
I0825 13:05:13.256747 48818 net.cpp:156] Memory required for data: 2157568040
I0825 13:05:13.256780 48818 layer_factory.hpp:77] Creating layer bn4f_branch2c
I0825 13:05:13.256819 48818 net.cpp:91] Creating Layer bn4f_branch2c
I0825 13:05:13.256850 48818 net.cpp:425] bn4f_branch2c <- res4f_branch2c
I0825 13:05:13.256881 48818 net.cpp:386] bn4f_branch2c -> res4f_branch2c (in-place)
I0825 13:05:13.257369 48818 net.cpp:141] Setting up bn4f_branch2c
I0825 13:05:13.257419 48818 net.cpp:148] Top shape: 10 1024 14 14 (2007040)
I0825 13:05:13.257450 48818 net.cpp:156] Memory required for data: 2165596200
I0825 13:05:13.257576 48818 layer_factory.hpp:77] Creating layer scale4f_branch2c
I0825 13:05:13.257632 48818 net.cpp:91] Creating Layer scale4f_branch2c
I0825 13:05:13.257666 48818 net.cpp:425] scale4f_branch2c <- res4f_branch2c
I0825 13:05:13.257702 48818 net.cpp:386] scale4f_branch2c -> res4f_branch2c (in-place)
I0825 13:05:13.257822 48818 layer_factory.hpp:77] Creating layer scale4f_branch2c
I0825 13:05:13.258133 48818 net.cpp:141] Setting up scale4f_branch2c
I0825 13:05:13.258184 48818 net.cpp:148] Top shape: 10 1024 14 14 (2007040)
I0825 13:05:13.258214 48818 net.cpp:156] Memory required for data: 2173624360
I0825 13:05:13.258251 48818 layer_factory.hpp:77] Creating layer res4f
I0825 13:05:13.258287 48818 net.cpp:91] Creating Layer res4f
I0825 13:05:13.258317 48818 net.cpp:425] res4f <- res4e_res4e_relu_0_split_1
I0825 13:05:13.258349 48818 net.cpp:425] res4f <- res4f_branch2c
I0825 13:05:13.258383 48818 net.cpp:399] res4f -> res4f
I0825 13:05:13.258471 48818 net.cpp:141] Setting up res4f
I0825 13:05:13.258519 48818 net.cpp:148] Top shape: 10 1024 14 14 (2007040)
I0825 13:05:13.258548 48818 net.cpp:156] Memory required for data: 2181652520
I0825 13:05:13.258576 48818 layer_factory.hpp:77] Creating layer res4f_relu
I0825 13:05:13.258615 48818 net.cpp:91] Creating Layer res4f_relu
I0825 13:05:13.258646 48818 net.cpp:425] res4f_relu <- res4f
I0825 13:05:13.258678 48818 net.cpp:386] res4f_relu -> res4f (in-place)
I0825 13:05:13.258714 48818 net.cpp:141] Setting up res4f_relu
I0825 13:05:13.258749 48818 net.cpp:148] Top shape: 10 1024 14 14 (2007040)
I0825 13:05:13.258776 48818 net.cpp:156] Memory required for data: 2189680680
I0825 13:05:13.258805 48818 layer_factory.hpp:77] Creating layer res4f_res4f_relu_0_split
I0825 13:05:13.258838 48818 net.cpp:91] Creating Layer res4f_res4f_relu_0_split
I0825 13:05:13.258867 48818 net.cpp:425] res4f_res4f_relu_0_split <- res4f
I0825 13:05:13.258899 48818 net.cpp:399] res4f_res4f_relu_0_split -> res4f_res4f_relu_0_split_0
I0825 13:05:13.258941 48818 net.cpp:399] res4f_res4f_relu_0_split -> res4f_res4f_relu_0_split_1
I0825 13:05:13.259057 48818 net.cpp:141] Setting up res4f_res4f_relu_0_split
I0825 13:05:13.259104 48818 net.cpp:148] Top shape: 10 1024 14 14 (2007040)
I0825 13:05:13.259136 48818 net.cpp:148] Top shape: 10 1024 14 14 (2007040)
I0825 13:05:13.259166 48818 net.cpp:156] Memory required for data: 2205737000
I0825 13:05:13.259194 48818 layer_factory.hpp:77] Creating layer res5a_branch1
I0825 13:05:13.259240 48818 net.cpp:91] Creating Layer res5a_branch1
I0825 13:05:13.259274 48818 net.cpp:425] res5a_branch1 <- res4f_res4f_relu_0_split_0
I0825 13:05:13.259310 48818 net.cpp:399] res5a_branch1 -> res5a_branch1
I0825 13:05:13.301688 48818 net.cpp:141] Setting up res5a_branch1
I0825 13:05:13.301769 48818 net.cpp:148] Top shape: 10 2048 7 7 (1003520)
I0825 13:05:13.301800 48818 net.cpp:156] Memory required for data: 2209751080
I0825 13:05:13.301836 48818 layer_factory.hpp:77] Creating layer bn5a_branch1
I0825 13:05:13.301880 48818 net.cpp:91] Creating Layer bn5a_branch1
I0825 13:05:13.301913 48818 net.cpp:425] bn5a_branch1 <- res5a_branch1
I0825 13:05:13.301949 48818 net.cpp:386] bn5a_branch1 -> res5a_branch1 (in-place)
I0825 13:05:13.302453 48818 net.cpp:141] Setting up bn5a_branch1
I0825 13:05:13.302503 48818 net.cpp:148] Top shape: 10 2048 7 7 (1003520)
I0825 13:05:13.302533 48818 net.cpp:156] Memory required for data: 2213765160
I0825 13:05:13.302575 48818 layer_factory.hpp:77] Creating layer scale5a_branch1
I0825 13:05:13.302615 48818 net.cpp:91] Creating Layer scale5a_branch1
I0825 13:05:13.302645 48818 net.cpp:425] scale5a_branch1 <- res5a_branch1
I0825 13:05:13.302685 48818 net.cpp:386] scale5a_branch1 -> res5a_branch1 (in-place)
I0825 13:05:13.302805 48818 layer_factory.hpp:77] Creating layer scale5a_branch1
I0825 13:05:13.303143 48818 net.cpp:141] Setting up scale5a_branch1
I0825 13:05:13.303230 48818 net.cpp:148] Top shape: 10 2048 7 7 (1003520)
I0825 13:05:13.303261 48818 net.cpp:156] Memory required for data: 2217779240
I0825 13:05:13.303298 48818 layer_factory.hpp:77] Creating layer res5a_branch2a
I0825 13:05:13.303350 48818 net.cpp:91] Creating Layer res5a_branch2a
I0825 13:05:13.303383 48818 net.cpp:425] res5a_branch2a <- res4f_res4f_relu_0_split_1
I0825 13:05:13.303419 48818 net.cpp:399] res5a_branch2a -> res5a_branch2a
I0825 13:05:13.314558 48818 net.cpp:141] Setting up res5a_branch2a
I0825 13:05:13.314618 48818 net.cpp:148] Top shape: 10 512 7 7 (250880)
I0825 13:05:13.314651 48818 net.cpp:156] Memory required for data: 2218782760
I0825 13:05:13.314684 48818 layer_factory.hpp:77] Creating layer bn5a_branch2a
I0825 13:05:13.314721 48818 net.cpp:91] Creating Layer bn5a_branch2a
I0825 13:05:13.314752 48818 net.cpp:425] bn5a_branch2a <- res5a_branch2a
I0825 13:05:13.314785 48818 net.cpp:386] bn5a_branch2a -> res5a_branch2a (in-place)
I0825 13:05:13.315279 48818 net.cpp:141] Setting up bn5a_branch2a
I0825 13:05:13.315331 48818 net.cpp:148] Top shape: 10 512 7 7 (250880)
I0825 13:05:13.315362 48818 net.cpp:156] Memory required for data: 2219786280
I0825 13:05:13.315404 48818 layer_factory.hpp:77] Creating layer scale5a_branch2a
I0825 13:05:13.315443 48818 net.cpp:91] Creating Layer scale5a_branch2a
I0825 13:05:13.315474 48818 net.cpp:425] scale5a_branch2a <- res5a_branch2a
I0825 13:05:13.315507 48818 net.cpp:386] scale5a_branch2a -> res5a_branch2a (in-place)
I0825 13:05:13.315634 48818 layer_factory.hpp:77] Creating layer scale5a_branch2a
I0825 13:05:13.315965 48818 net.cpp:141] Setting up scale5a_branch2a
I0825 13:05:13.316016 48818 net.cpp:148] Top shape: 10 512 7 7 (250880)
I0825 13:05:13.316045 48818 net.cpp:156] Memory required for data: 2220789800
I0825 13:05:13.316082 48818 layer_factory.hpp:77] Creating layer res5a_branch2a_relu
I0825 13:05:13.316123 48818 net.cpp:91] Creating Layer res5a_branch2a_relu
I0825 13:05:13.316155 48818 net.cpp:425] res5a_branch2a_relu <- res5a_branch2a
I0825 13:05:13.316187 48818 net.cpp:386] res5a_branch2a_relu -> res5a_branch2a (in-place)
I0825 13:05:13.316224 48818 net.cpp:141] Setting up res5a_branch2a_relu
I0825 13:05:13.316258 48818 net.cpp:148] Top shape: 10 512 7 7 (250880)
I0825 13:05:13.316287 48818 net.cpp:156] Memory required for data: 2221793320
I0825 13:05:13.316316 48818 layer_factory.hpp:77] Creating layer res5a_branch2b
I0825 13:05:13.316362 48818 net.cpp:91] Creating Layer res5a_branch2b
I0825 13:05:13.316395 48818 net.cpp:425] res5a_branch2b <- res5a_branch2a
I0825 13:05:13.316445 48818 net.cpp:399] res5a_branch2b -> res5a_branch2b
I0825 13:05:13.364126 48818 net.cpp:141] Setting up res5a_branch2b
I0825 13:05:13.364207 48818 net.cpp:148] Top shape: 10 512 7 7 (250880)
I0825 13:05:13.364239 48818 net.cpp:156] Memory required for data: 2222796840
I0825 13:05:13.364274 48818 layer_factory.hpp:77] Creating layer bn5a_branch2b
I0825 13:05:13.364316 48818 net.cpp:91] Creating Layer bn5a_branch2b
I0825 13:05:13.364348 48818 net.cpp:425] bn5a_branch2b <- res5a_branch2b
I0825 13:05:13.364382 48818 net.cpp:386] bn5a_branch2b -> res5a_branch2b (in-place)
I0825 13:05:13.364895 48818 net.cpp:141] Setting up bn5a_branch2b
I0825 13:05:13.364946 48818 net.cpp:148] Top shape: 10 512 7 7 (250880)
I0825 13:05:13.364977 48818 net.cpp:156] Memory required for data: 2223800360
I0825 13:05:13.365020 48818 layer_factory.hpp:77] Creating layer scale5a_branch2b
I0825 13:05:13.365065 48818 net.cpp:91] Creating Layer scale5a_branch2b
I0825 13:05:13.365098 48818 net.cpp:425] scale5a_branch2b <- res5a_branch2b
I0825 13:05:13.365131 48818 net.cpp:386] scale5a_branch2b -> res5a_branch2b (in-place)
I0825 13:05:13.365258 48818 layer_factory.hpp:77] Creating layer scale5a_branch2b
I0825 13:05:13.365593 48818 net.cpp:141] Setting up scale5a_branch2b
I0825 13:05:13.365644 48818 net.cpp:148] Top shape: 10 512 7 7 (250880)
I0825 13:05:13.365675 48818 net.cpp:156] Memory required for data: 2224803880
I0825 13:05:13.365713 48818 layer_factory.hpp:77] Creating layer res5a_branch2b_relu
I0825 13:05:13.365795 48818 net.cpp:91] Creating Layer res5a_branch2b_relu
I0825 13:05:13.365829 48818 net.cpp:425] res5a_branch2b_relu <- res5a_branch2b
I0825 13:05:13.365867 48818 net.cpp:386] res5a_branch2b_relu -> res5a_branch2b (in-place)
I0825 13:05:13.365906 48818 net.cpp:141] Setting up res5a_branch2b_relu
I0825 13:05:13.365942 48818 net.cpp:148] Top shape: 10 512 7 7 (250880)
I0825 13:05:13.365969 48818 net.cpp:156] Memory required for data: 2225807400
I0825 13:05:13.365998 48818 layer_factory.hpp:77] Creating layer res5a_branch2c
I0825 13:05:13.366045 48818 net.cpp:91] Creating Layer res5a_branch2c
I0825 13:05:13.366076 48818 net.cpp:425] res5a_branch2c <- res5a_branch2b
I0825 13:05:13.366112 48818 net.cpp:399] res5a_branch2c -> res5a_branch2c
I0825 13:05:13.387989 48818 net.cpp:141] Setting up res5a_branch2c
I0825 13:05:13.388057 48818 net.cpp:148] Top shape: 10 2048 7 7 (1003520)
I0825 13:05:13.388089 48818 net.cpp:156] Memory required for data: 2229821480
I0825 13:05:13.388124 48818 layer_factory.hpp:77] Creating layer bn5a_branch2c
I0825 13:05:13.388171 48818 net.cpp:91] Creating Layer bn5a_branch2c
I0825 13:05:13.388203 48818 net.cpp:425] bn5a_branch2c <- res5a_branch2c
I0825 13:05:13.388240 48818 net.cpp:386] bn5a_branch2c -> res5a_branch2c (in-place)
I0825 13:05:13.388762 48818 net.cpp:141] Setting up bn5a_branch2c
I0825 13:05:13.388813 48818 net.cpp:148] Top shape: 10 2048 7 7 (1003520)
I0825 13:05:13.388844 48818 net.cpp:156] Memory required for data: 2233835560
I0825 13:05:13.388887 48818 layer_factory.hpp:77] Creating layer scale5a_branch2c
I0825 13:05:13.388927 48818 net.cpp:91] Creating Layer scale5a_branch2c
I0825 13:05:13.388958 48818 net.cpp:425] scale5a_branch2c <- res5a_branch2c
I0825 13:05:13.388998 48818 net.cpp:386] scale5a_branch2c -> res5a_branch2c (in-place)
I0825 13:05:13.389120 48818 layer_factory.hpp:77] Creating layer scale5a_branch2c
I0825 13:05:13.389462 48818 net.cpp:141] Setting up scale5a_branch2c
I0825 13:05:13.389513 48818 net.cpp:148] Top shape: 10 2048 7 7 (1003520)
I0825 13:05:13.389544 48818 net.cpp:156] Memory required for data: 2237849640
I0825 13:05:13.389580 48818 layer_factory.hpp:77] Creating layer res5a
I0825 13:05:13.389618 48818 net.cpp:91] Creating Layer res5a
I0825 13:05:13.389649 48818 net.cpp:425] res5a <- res5a_branch1
I0825 13:05:13.389680 48818 net.cpp:425] res5a <- res5a_branch2c
I0825 13:05:13.389714 48818 net.cpp:399] res5a -> res5a
I0825 13:05:13.389807 48818 net.cpp:141] Setting up res5a
I0825 13:05:13.389855 48818 net.cpp:148] Top shape: 10 2048 7 7 (1003520)
I0825 13:05:13.389899 48818 net.cpp:156] Memory required for data: 2241863720
I0825 13:05:13.389930 48818 layer_factory.hpp:77] Creating layer res5a_relu
I0825 13:05:13.389966 48818 net.cpp:91] Creating Layer res5a_relu
I0825 13:05:13.389995 48818 net.cpp:425] res5a_relu <- res5a
I0825 13:05:13.390034 48818 net.cpp:386] res5a_relu -> res5a (in-place)
I0825 13:05:13.390072 48818 net.cpp:141] Setting up res5a_relu
I0825 13:05:13.390106 48818 net.cpp:148] Top shape: 10 2048 7 7 (1003520)
I0825 13:05:13.390136 48818 net.cpp:156] Memory required for data: 2245877800
I0825 13:05:13.390163 48818 layer_factory.hpp:77] Creating layer res5a_res5a_relu_0_split
I0825 13:05:13.390198 48818 net.cpp:91] Creating Layer res5a_res5a_relu_0_split
I0825 13:05:13.390228 48818 net.cpp:425] res5a_res5a_relu_0_split <- res5a
I0825 13:05:13.390277 48818 net.cpp:399] res5a_res5a_relu_0_split -> res5a_res5a_relu_0_split_0
I0825 13:05:13.390318 48818 net.cpp:399] res5a_res5a_relu_0_split -> res5a_res5a_relu_0_split_1
I0825 13:05:13.390429 48818 net.cpp:141] Setting up res5a_res5a_relu_0_split
I0825 13:05:13.390475 48818 net.cpp:148] Top shape: 10 2048 7 7 (1003520)
I0825 13:05:13.390517 48818 net.cpp:148] Top shape: 10 2048 7 7 (1003520)
I0825 13:05:13.390548 48818 net.cpp:156] Memory required for data: 2253905960
I0825 13:05:13.390578 48818 layer_factory.hpp:77] Creating layer res5b_branch2a
I0825 13:05:13.390625 48818 net.cpp:91] Creating Layer res5b_branch2a
I0825 13:05:13.390693 48818 net.cpp:425] res5b_branch2a <- res5a_res5a_relu_0_split_0
I0825 13:05:13.390734 48818 net.cpp:399] res5b_branch2a -> res5b_branch2a
I0825 13:05:13.412245 48818 net.cpp:141] Setting up res5b_branch2a
I0825 13:05:13.412307 48818 net.cpp:148] Top shape: 10 512 7 7 (250880)
I0825 13:05:13.412338 48818 net.cpp:156] Memory required for data: 2254909480
I0825 13:05:13.412372 48818 layer_factory.hpp:77] Creating layer bn5b_branch2a
I0825 13:05:13.412420 48818 net.cpp:91] Creating Layer bn5b_branch2a
I0825 13:05:13.412453 48818 net.cpp:425] bn5b_branch2a <- res5b_branch2a
I0825 13:05:13.412487 48818 net.cpp:386] bn5b_branch2a -> res5b_branch2a (in-place)
I0825 13:05:13.412981 48818 net.cpp:141] Setting up bn5b_branch2a
I0825 13:05:13.413033 48818 net.cpp:148] Top shape: 10 512 7 7 (250880)
I0825 13:05:13.413064 48818 net.cpp:156] Memory required for data: 2255913000
I0825 13:05:13.413105 48818 layer_factory.hpp:77] Creating layer scale5b_branch2a
I0825 13:05:13.413144 48818 net.cpp:91] Creating Layer scale5b_branch2a
I0825 13:05:13.413174 48818 net.cpp:425] scale5b_branch2a <- res5b_branch2a
I0825 13:05:13.413213 48818 net.cpp:386] scale5b_branch2a -> res5b_branch2a (in-place)
I0825 13:05:13.413333 48818 layer_factory.hpp:77] Creating layer scale5b_branch2a
I0825 13:05:13.413666 48818 net.cpp:141] Setting up scale5b_branch2a
I0825 13:05:13.413717 48818 net.cpp:148] Top shape: 10 512 7 7 (250880)
I0825 13:05:13.413746 48818 net.cpp:156] Memory required for data: 2256916520
I0825 13:05:13.413784 48818 layer_factory.hpp:77] Creating layer res5b_branch2a_relu
I0825 13:05:13.413820 48818 net.cpp:91] Creating Layer res5b_branch2a_relu
I0825 13:05:13.413849 48818 net.cpp:425] res5b_branch2a_relu <- res5b_branch2a
I0825 13:05:13.413882 48818 net.cpp:386] res5b_branch2a_relu -> res5b_branch2a (in-place)
I0825 13:05:13.413918 48818 net.cpp:141] Setting up res5b_branch2a_relu
I0825 13:05:13.413951 48818 net.cpp:148] Top shape: 10 512 7 7 (250880)
I0825 13:05:13.413980 48818 net.cpp:156] Memory required for data: 2257920040
I0825 13:05:13.414008 48818 layer_factory.hpp:77] Creating layer res5b_branch2b
I0825 13:05:13.414053 48818 net.cpp:91] Creating Layer res5b_branch2b
I0825 13:05:13.414084 48818 net.cpp:425] res5b_branch2b <- res5b_branch2a
I0825 13:05:13.414125 48818 net.cpp:399] res5b_branch2b -> res5b_branch2b
I0825 13:05:13.461882 48818 net.cpp:141] Setting up res5b_branch2b
I0825 13:05:13.461961 48818 net.cpp:148] Top shape: 10 512 7 7 (250880)
I0825 13:05:13.461993 48818 net.cpp:156] Memory required for data: 2258923560
I0825 13:05:13.462031 48818 layer_factory.hpp:77] Creating layer bn5b_branch2b
I0825 13:05:13.462072 48818 net.cpp:91] Creating Layer bn5b_branch2b
I0825 13:05:13.462105 48818 net.cpp:425] bn5b_branch2b <- res5b_branch2b
I0825 13:05:13.462144 48818 net.cpp:386] bn5b_branch2b -> res5b_branch2b (in-place)
I0825 13:05:13.462640 48818 net.cpp:141] Setting up bn5b_branch2b
I0825 13:05:13.462690 48818 net.cpp:148] Top shape: 10 512 7 7 (250880)
I0825 13:05:13.462721 48818 net.cpp:156] Memory required for data: 2259927080
I0825 13:05:13.462764 48818 layer_factory.hpp:77] Creating layer scale5b_branch2b
I0825 13:05:13.462806 48818 net.cpp:91] Creating Layer scale5b_branch2b
I0825 13:05:13.462836 48818 net.cpp:425] scale5b_branch2b <- res5b_branch2b
I0825 13:05:13.462869 48818 net.cpp:386] scale5b_branch2b -> res5b_branch2b (in-place)
I0825 13:05:13.463001 48818 layer_factory.hpp:77] Creating layer scale5b_branch2b
I0825 13:05:13.463330 48818 net.cpp:141] Setting up scale5b_branch2b
I0825 13:05:13.463380 48818 net.cpp:148] Top shape: 10 512 7 7 (250880)
I0825 13:05:13.463410 48818 net.cpp:156] Memory required for data: 2260930600
I0825 13:05:13.463448 48818 layer_factory.hpp:77] Creating layer res5b_branch2b_relu
I0825 13:05:13.463484 48818 net.cpp:91] Creating Layer res5b_branch2b_relu
I0825 13:05:13.463521 48818 net.cpp:425] res5b_branch2b_relu <- res5b_branch2b
I0825 13:05:13.463554 48818 net.cpp:386] res5b_branch2b_relu -> res5b_branch2b (in-place)
I0825 13:05:13.463591 48818 net.cpp:141] Setting up res5b_branch2b_relu
I0825 13:05:13.463675 48818 net.cpp:148] Top shape: 10 512 7 7 (250880)
I0825 13:05:13.463706 48818 net.cpp:156] Memory required for data: 2261934120
I0825 13:05:13.463734 48818 layer_factory.hpp:77] Creating layer res5b_branch2c
I0825 13:05:13.463793 48818 net.cpp:91] Creating Layer res5b_branch2c
I0825 13:05:13.463826 48818 net.cpp:425] res5b_branch2c <- res5b_branch2b
I0825 13:05:13.463863 48818 net.cpp:399] res5b_branch2c -> res5b_branch2c
I0825 13:05:13.485415 48818 net.cpp:141] Setting up res5b_branch2c
I0825 13:05:13.485481 48818 net.cpp:148] Top shape: 10 2048 7 7 (1003520)
I0825 13:05:13.485512 48818 net.cpp:156] Memory required for data: 2265948200
I0825 13:05:13.485548 48818 layer_factory.hpp:77] Creating layer bn5b_branch2c
I0825 13:05:13.485585 48818 net.cpp:91] Creating Layer bn5b_branch2c
I0825 13:05:13.485616 48818 net.cpp:425] bn5b_branch2c <- res5b_branch2c
I0825 13:05:13.485649 48818 net.cpp:386] bn5b_branch2c -> res5b_branch2c (in-place)
I0825 13:05:13.486148 48818 net.cpp:141] Setting up bn5b_branch2c
I0825 13:05:13.486199 48818 net.cpp:148] Top shape: 10 2048 7 7 (1003520)
I0825 13:05:13.486232 48818 net.cpp:156] Memory required for data: 2269962280
I0825 13:05:13.486274 48818 layer_factory.hpp:77] Creating layer scale5b_branch2c
I0825 13:05:13.486313 48818 net.cpp:91] Creating Layer scale5b_branch2c
I0825 13:05:13.486343 48818 net.cpp:425] scale5b_branch2c <- res5b_branch2c
I0825 13:05:13.486377 48818 net.cpp:386] scale5b_branch2c -> res5b_branch2c (in-place)
I0825 13:05:13.486505 48818 layer_factory.hpp:77] Creating layer scale5b_branch2c
I0825 13:05:13.486843 48818 net.cpp:141] Setting up scale5b_branch2c
I0825 13:05:13.486893 48818 net.cpp:148] Top shape: 10 2048 7 7 (1003520)
I0825 13:05:13.486924 48818 net.cpp:156] Memory required for data: 2273976360
I0825 13:05:13.486963 48818 layer_factory.hpp:77] Creating layer res5b
I0825 13:05:13.487006 48818 net.cpp:91] Creating Layer res5b
I0825 13:05:13.487038 48818 net.cpp:425] res5b <- res5a_res5a_relu_0_split_1
I0825 13:05:13.487071 48818 net.cpp:425] res5b <- res5b_branch2c
I0825 13:05:13.487110 48818 net.cpp:399] res5b -> res5b
I0825 13:05:13.487198 48818 net.cpp:141] Setting up res5b
I0825 13:05:13.487246 48818 net.cpp:148] Top shape: 10 2048 7 7 (1003520)
I0825 13:05:13.487277 48818 net.cpp:156] Memory required for data: 2277990440
I0825 13:05:13.487313 48818 layer_factory.hpp:77] Creating layer res5b_relu
I0825 13:05:13.487355 48818 net.cpp:91] Creating Layer res5b_relu
I0825 13:05:13.487387 48818 net.cpp:425] res5b_relu <- res5b
I0825 13:05:13.487419 48818 net.cpp:386] res5b_relu -> res5b (in-place)
I0825 13:05:13.487457 48818 net.cpp:141] Setting up res5b_relu
I0825 13:05:13.487489 48818 net.cpp:148] Top shape: 10 2048 7 7 (1003520)
I0825 13:05:13.487517 48818 net.cpp:156] Memory required for data: 2282004520
I0825 13:05:13.487546 48818 layer_factory.hpp:77] Creating layer res5b_res5b_relu_0_split
I0825 13:05:13.487579 48818 net.cpp:91] Creating Layer res5b_res5b_relu_0_split
I0825 13:05:13.487608 48818 net.cpp:425] res5b_res5b_relu_0_split <- res5b
I0825 13:05:13.487640 48818 net.cpp:399] res5b_res5b_relu_0_split -> res5b_res5b_relu_0_split_0
I0825 13:05:13.487687 48818 net.cpp:399] res5b_res5b_relu_0_split -> res5b_res5b_relu_0_split_1
I0825 13:05:13.487819 48818 net.cpp:141] Setting up res5b_res5b_relu_0_split
I0825 13:05:13.487874 48818 net.cpp:148] Top shape: 10 2048 7 7 (1003520)
I0825 13:05:13.487907 48818 net.cpp:148] Top shape: 10 2048 7 7 (1003520)
I0825 13:05:13.487936 48818 net.cpp:156] Memory required for data: 2290032680
I0825 13:05:13.487965 48818 layer_factory.hpp:77] Creating layer res5c_branch2a
I0825 13:05:13.488006 48818 net.cpp:91] Creating Layer res5c_branch2a
I0825 13:05:13.488037 48818 net.cpp:425] res5c_branch2a <- res5b_res5b_relu_0_split_0
I0825 13:05:13.488080 48818 net.cpp:399] res5c_branch2a -> res5c_branch2a
I0825 13:05:13.504556 48818 net.cpp:141] Setting up res5c_branch2a
I0825 13:05:13.504585 48818 net.cpp:148] Top shape: 10 512 7 7 (250880)
I0825 13:05:13.504619 48818 net.cpp:156] Memory required for data: 2291036200
I0825 13:05:13.504658 48818 layer_factory.hpp:77] Creating layer bn5c_branch2a
I0825 13:05:13.504691 48818 net.cpp:91] Creating Layer bn5c_branch2a
I0825 13:05:13.504707 48818 net.cpp:425] bn5c_branch2a <- res5c_branch2a
I0825 13:05:13.504724 48818 net.cpp:386] bn5c_branch2a -> res5c_branch2a (in-place)
I0825 13:05:13.504971 48818 net.cpp:141] Setting up bn5c_branch2a
I0825 13:05:13.504995 48818 net.cpp:148] Top shape: 10 512 7 7 (250880)
I0825 13:05:13.505010 48818 net.cpp:156] Memory required for data: 2292039720
I0825 13:05:13.505034 48818 layer_factory.hpp:77] Creating layer scale5c_branch2a
I0825 13:05:13.505055 48818 net.cpp:91] Creating Layer scale5c_branch2a
I0825 13:05:13.505070 48818 net.cpp:425] scale5c_branch2a <- res5c_branch2a
I0825 13:05:13.505087 48818 net.cpp:386] scale5c_branch2a -> res5c_branch2a (in-place)
I0825 13:05:13.505151 48818 layer_factory.hpp:77] Creating layer scale5c_branch2a
I0825 13:05:13.505316 48818 net.cpp:141] Setting up scale5c_branch2a
I0825 13:05:13.505342 48818 net.cpp:148] Top shape: 10 512 7 7 (250880)
I0825 13:05:13.505357 48818 net.cpp:156] Memory required for data: 2293043240
I0825 13:05:13.505375 48818 layer_factory.hpp:77] Creating layer res5c_branch2a_relu
I0825 13:05:13.505396 48818 net.cpp:91] Creating Layer res5c_branch2a_relu
I0825 13:05:13.505412 48818 net.cpp:425] res5c_branch2a_relu <- res5c_branch2a
I0825 13:05:13.505429 48818 net.cpp:386] res5c_branch2a_relu -> res5c_branch2a (in-place)
I0825 13:05:13.505447 48818 net.cpp:141] Setting up res5c_branch2a_relu
I0825 13:05:13.505465 48818 net.cpp:148] Top shape: 10 512 7 7 (250880)
I0825 13:05:13.505478 48818 net.cpp:156] Memory required for data: 2294046760
I0825 13:05:13.505492 48818 layer_factory.hpp:77] Creating layer res5c_branch2b
I0825 13:05:13.505519 48818 net.cpp:91] Creating Layer res5c_branch2b
I0825 13:05:13.505535 48818 net.cpp:425] res5c_branch2b <- res5c_branch2a
I0825 13:05:13.505555 48818 net.cpp:399] res5c_branch2b -> res5c_branch2b
I0825 13:05:13.528978 48818 net.cpp:141] Setting up res5c_branch2b
I0825 13:05:13.529022 48818 net.cpp:148] Top shape: 10 512 7 7 (250880)
I0825 13:05:13.529052 48818 net.cpp:156] Memory required for data: 2295050280
I0825 13:05:13.529070 48818 layer_factory.hpp:77] Creating layer bn5c_branch2b
I0825 13:05:13.529091 48818 net.cpp:91] Creating Layer bn5c_branch2b
I0825 13:05:13.529108 48818 net.cpp:425] bn5c_branch2b <- res5c_branch2b
I0825 13:05:13.529124 48818 net.cpp:386] bn5c_branch2b -> res5c_branch2b (in-place)
I0825 13:05:13.529392 48818 net.cpp:141] Setting up bn5c_branch2b
I0825 13:05:13.529418 48818 net.cpp:148] Top shape: 10 512 7 7 (250880)
I0825 13:05:13.529433 48818 net.cpp:156] Memory required for data: 2296053800
I0825 13:05:13.529454 48818 layer_factory.hpp:77] Creating layer scale5c_branch2b
I0825 13:05:13.529482 48818 net.cpp:91] Creating Layer scale5c_branch2b
I0825 13:05:13.529503 48818 net.cpp:425] scale5c_branch2b <- res5c_branch2b
I0825 13:05:13.529521 48818 net.cpp:386] scale5c_branch2b -> res5c_branch2b (in-place)
I0825 13:05:13.529592 48818 layer_factory.hpp:77] Creating layer scale5c_branch2b
I0825 13:05:13.529770 48818 net.cpp:141] Setting up scale5c_branch2b
I0825 13:05:13.529795 48818 net.cpp:148] Top shape: 10 512 7 7 (250880)
I0825 13:05:13.529810 48818 net.cpp:156] Memory required for data: 2297057320
I0825 13:05:13.529829 48818 layer_factory.hpp:77] Creating layer res5c_branch2b_relu
I0825 13:05:13.529848 48818 net.cpp:91] Creating Layer res5c_branch2b_relu
I0825 13:05:13.529863 48818 net.cpp:425] res5c_branch2b_relu <- res5c_branch2b
I0825 13:05:13.529882 48818 net.cpp:386] res5c_branch2b_relu -> res5c_branch2b (in-place)
I0825 13:05:13.529902 48818 net.cpp:141] Setting up res5c_branch2b_relu
I0825 13:05:13.529920 48818 net.cpp:148] Top shape: 10 512 7 7 (250880)
I0825 13:05:13.529934 48818 net.cpp:156] Memory required for data: 2298060840
I0825 13:05:13.529948 48818 layer_factory.hpp:77] Creating layer res5c_branch2c
I0825 13:05:13.529973 48818 net.cpp:91] Creating Layer res5c_branch2c
I0825 13:05:13.529990 48818 net.cpp:425] res5c_branch2c <- res5c_branch2b
I0825 13:05:13.530035 48818 net.cpp:399] res5c_branch2c -> res5c_branch2c
I0825 13:05:13.540554 48818 net.cpp:141] Setting up res5c_branch2c
I0825 13:05:13.540585 48818 net.cpp:148] Top shape: 10 2048 7 7 (1003520)
I0825 13:05:13.540619 48818 net.cpp:156] Memory required for data: 2302074920
I0825 13:05:13.540637 48818 layer_factory.hpp:77] Creating layer bn5c_branch2c
I0825 13:05:13.540659 48818 net.cpp:91] Creating Layer bn5c_branch2c
I0825 13:05:13.540674 48818 net.cpp:425] bn5c_branch2c <- res5c_branch2c
I0825 13:05:13.540704 48818 net.cpp:386] bn5c_branch2c -> res5c_branch2c (in-place)
I0825 13:05:13.540961 48818 net.cpp:141] Setting up bn5c_branch2c
I0825 13:05:13.540987 48818 net.cpp:148] Top shape: 10 2048 7 7 (1003520)
I0825 13:05:13.541002 48818 net.cpp:156] Memory required for data: 2306089000
I0825 13:05:13.541023 48818 layer_factory.hpp:77] Creating layer scale5c_branch2c
I0825 13:05:13.541043 48818 net.cpp:91] Creating Layer scale5c_branch2c
I0825 13:05:13.541059 48818 net.cpp:425] scale5c_branch2c <- res5c_branch2c
I0825 13:05:13.541079 48818 net.cpp:386] scale5c_branch2c -> res5c_branch2c (in-place)
I0825 13:05:13.541141 48818 layer_factory.hpp:77] Creating layer scale5c_branch2c
I0825 13:05:13.541318 48818 net.cpp:141] Setting up scale5c_branch2c
I0825 13:05:13.541344 48818 net.cpp:148] Top shape: 10 2048 7 7 (1003520)
I0825 13:05:13.541359 48818 net.cpp:156] Memory required for data: 2310103080
I0825 13:05:13.541378 48818 layer_factory.hpp:77] Creating layer res5c
I0825 13:05:13.541398 48818 net.cpp:91] Creating Layer res5c
I0825 13:05:13.541412 48818 net.cpp:425] res5c <- res5b_res5b_relu_0_split_1
I0825 13:05:13.541429 48818 net.cpp:425] res5c <- res5c_branch2c
I0825 13:05:13.541445 48818 net.cpp:399] res5c -> res5c
I0825 13:05:13.541494 48818 net.cpp:141] Setting up res5c
I0825 13:05:13.541518 48818 net.cpp:148] Top shape: 10 2048 7 7 (1003520)
I0825 13:05:13.541533 48818 net.cpp:156] Memory required for data: 2314117160
I0825 13:05:13.541548 48818 layer_factory.hpp:77] Creating layer res5c_relu
I0825 13:05:13.541569 48818 net.cpp:91] Creating Layer res5c_relu
I0825 13:05:13.541584 48818 net.cpp:425] res5c_relu <- res5c
I0825 13:05:13.541600 48818 net.cpp:386] res5c_relu -> res5c (in-place)
I0825 13:05:13.541620 48818 net.cpp:141] Setting up res5c_relu
I0825 13:05:13.541635 48818 net.cpp:148] Top shape: 10 2048 7 7 (1003520)
I0825 13:05:13.541651 48818 net.cpp:156] Memory required for data: 2318131240
I0825 13:05:13.541666 48818 layer_factory.hpp:77] Creating layer pool5
I0825 13:05:13.541685 48818 net.cpp:91] Creating Layer pool5
I0825 13:05:13.541700 48818 net.cpp:425] pool5 <- res5c
I0825 13:05:13.541720 48818 net.cpp:399] pool5 -> pool5
I0825 13:05:13.541774 48818 net.cpp:141] Setting up pool5
I0825 13:05:13.541798 48818 net.cpp:148] Top shape: 10 2048 1 1 (20480)
I0825 13:05:13.541813 48818 net.cpp:156] Memory required for data: 2318213160
I0825 13:05:13.541827 48818 layer_factory.hpp:77] Creating layer fc_hash48
I0825 13:05:13.541856 48818 net.cpp:91] Creating Layer fc_hash48
I0825 13:05:13.541872 48818 net.cpp:425] fc_hash48 <- pool5
I0825 13:05:13.541894 48818 net.cpp:399] fc_hash48 -> fc_hash48
I0825 13:05:13.545663 48818 net.cpp:141] Setting up fc_hash48
I0825 13:05:13.545702 48818 net.cpp:148] Top shape: 10 48 (480)
I0825 13:05:13.545718 48818 net.cpp:156] Memory required for data: 2318215080
I0825 13:05:13.545738 48818 layer_factory.hpp:77] Creating layer loss_hash
I0825 13:05:13.545766 48818 net.cpp:91] Creating Layer loss_hash
I0825 13:05:13.545783 48818 net.cpp:425] loss_hash <- fc_hash48
I0825 13:05:13.545799 48818 net.cpp:425] loss_hash <- label
I0825 13:05:13.545819 48818 net.cpp:399] loss_hash -> loss_hash
…
