…
I0823 12:50:42.533756 16577 net.cpp:313] The NetState phase (0) differed from the phase (1) specified by a rule in layer data
I0823 12:50:42.536270 16577 net.cpp:49] Initializing net from parameters: 
name: "docomo_ResNet50"
state {
  phase: TRAIN
}
layer {
  name: "data"
  type: "Data"
  top: "data"
  top: "label"
  include {
    phase: TRAIN
  }
  transform_param {
    mirror: true
    crop_size: 224
    mean_value: 104
    mean_value: 117
    mean_value: 123
  }
  data_param {
    source: "FASHION/fashion_train_lmdb"
    batch_size: 10
    backend: LMDB
  }
}
layer {
  name: "conv1"
  type: "Convolution"
  bottom: "data"
  top: "conv1"
  param {
    lr_mult: 1
    decay_mult: 1
  }
  param {
    lr_mult: 2
    decay_mult: 0
  }
  convolution_param {
    num_output: 64
    pad: 3
    kernel_size: 7
    stride: 2
    weight_filler {
      type: "xavier"
      std: 0.01
    }
    bias_filler {
      type: "constant"
      value: 0
    }
  }
}
layer {
  name: "bn_conv1"
  type: "BatchNorm"
  bottom: "conv1"
  top: "conv1"
  batch_norm_param {
    use_global_stats: true
  }
}
layer {
  name: "scale_conv1"
  type: "Scale"
  bottom: "conv1"
  top: "conv1"
  scale_param {
    bias_term: true
  }
}
layer {
  name: "conv1_relu"
  type: "ReLU"
  bottom: "conv1"
  top: "conv1"
}
layer {
  name: "pool1"
  type: "Pooling"
  bottom: "conv1"
  top: "pool1"
  pooling_param {
    pool: MAX
    kernel_size: 3
    stride: 2
  }
}
layer {
  name: "res2a_branch1"
  type: "Convolution"
  bottom: "pool1"
  top: "res2a_branch1"
  param {
    lr_mult: 1
    decay_mult: 1
  }
  convolution_param {
    num_output: 256
    bias_term: false
    pad: 0
    kernel_size: 1
    stride: 1
    weight_filler {
      type: "xavier"
      std: 0.01
    }
  }
}
layer {
  name: "bn2a_branch1"
  type: "BatchNorm"
  bottom: "res2a_branch1"
  top: "res2a_branch1"
  batch_norm_param {
    use_global_stats: true
  }
}
layer {
  name: "scale2a_branch1"
  type: "Scale"
  bottom: "res2a_branch1"
  top: "res2a_branch1"
  scale_param {
    bias_term: true
  }
}
layer {
  name: "res2a_branch2a"
  type: "Convolution"
  bottom: "pool1"
  top: "res2a_branch2a"
  param {
    lr_mult: 1
    decay_mult: 1
  }
  convolution_param {
    num_output: 64
    bias_term: false
    pad: 0
    kernel_size: 1
    stride: 1
    weight_filler {
      type: "xavier"
      std: 0.01
    }
  }
}
layer {
  name: "bn2a_branch2a"
  type: "BatchNorm"
  bottom: "res2a_branch2a"
  top: "res2a_branch2a"
  batch_norm_param {
    use_global_stats: true
  }
}
layer {
  name: "scale2a_branch2a"
  type: "Scale"
  bottom: "res2a_branch2a"
  top: "res2a_branch2a"
  scale_param {
    bias_term: true
  }
}
layer {
  name: "res2a_branch2a_relu"
  type: "ReLU"
  bottom: "res2a_branch2a"
  top: "res2a_branch2a"
}
layer {
  name: "res2a_branch2b"
  type: "Convolution"
  bottom: "res2a_branch2a"
  top: "res2a_branch2b"
  param {
    lr_mult: 1
    decay_mult: 1
  }
  convolution_param {
    num_output: 64
    bias_term: false
    pad: 1
    kernel_size: 3
    stride: 1
    weight_filler {
      type: "xavier"
      std: 0.01
    }
  }
}
layer {
  name: "bn2a_branch2b"
  type: "BatchNorm"
  bottom: "res2a_branch2b"
  top: "res2a_branch2b"
  batch_norm_param {
    use_global_stats: true
  }
}
layer {
  name: "scale2a_branch2b"
  type: "Scale"
  bottom: "res2a_branch2b"
  top: "res2a_branch2b"
  scale_param {
    bias_term: true
  }
}
layer {
  name: "res2a_branch2b_relu"
  type: "ReLU"
  bottom: "res2a_branch2b"
  top: "res2a_branch2b"
}
layer {
  name: "res2a_branch2c"
  type: "Convolution"
  bottom: "res2a_branch2b"
  top: "res2a_branch2c"
  param {
    lr_mult: 1
    decay_mult: 1
  }
  convolution_param {
    num_output: 256
    bias_term: false
    pad: 0
    kernel_size: 1
    stride: 1
    weight_filler {
      type: "xavier"
      std: 0.01
    }
  }
}
layer {
  name: "bn2a_branch2c"
  type: "BatchNorm"
  bottom: "res2a_branch2c"
  top: "res2a_branch2c"
  batch_norm_param {
    use_global_stats: true
  }
}
layer {
  name: "scale2a_branch2c"
  type: "Scale"
  bottom: "res2a_branch2c"
  top: "res2a_branch2c"
  scale_param {
    bias_term: true
  }
}
layer {
  name: "res2a"
  type: "Eltwise"
  bottom: "res2a_branch1"
  bottom: "res2a_branch2c"
  top: "res2a"
  eltwise_param {
    operation: SUM
  }
}
layer {
  name: "res2a_relu"
  type: "ReLU"
  bottom: "res2a"
  top: "res2a"
}
layer {
  name: "res2b_branch2a"
  type: "Convolution"
  bottom: "res2a"
  top: "res2b_branch2a"
  param {
    lr_mult: 1
    decay_mult: 1
  }
  convolution_param {
    num_output: 64
    bias_term: false
    pad: 0
    kernel_size: 1
    stride: 1
    weight_filler {
      type: "xavier"
      std: 0.01
    }
  }
}
layer {
  name: "bn2b_branch2a"
  type: "BatchNorm"
  bottom: "res2b_branch2a"
  top: "res2b_branch2a"
  batch_norm_param {
    use_global_stats: true
  }
}
layer {
  name: "scale2b_branch2a"
  type: "Scale"
  bottom: "res2b_branch2a"
  top: "res2b_branch2a"
  scale_param {
    bias_term: true
  }
}
layer {
  name: "res2b_branch2a_relu"
  type: "ReLU"
  bottom: "res2b_branch2a"
  top: "res2b_branch2a"
}
layer {
  name: "res2b_branch2b"
  type: "Convolution"
  bottom: "res2b_branch2a"
  top: "res2b_branch2b"
  param {
    lr_mult: 1
    decay_mult: 1
  }
  convolution_param {
    num_output: 64
    bias_term: false
    pad: 1
    kernel_size: 3
    stride: 1
    weight_filler {
      type: "xavier"
      std: 0.01
    }
  }
}
layer {
  name: "bn2b_branch2b"
  type: "BatchNorm"
  bottom: "res2b_branch2b"
  top: "res2b_branch2b"
  batch_norm_param {
    use_global_stats: true
  }
}
layer {
  name: "scale2b_branch2b"
  type: "Scale"
  bottom: "res2b_branch2b"
  top: "res2b_branch2b"
  scale_param {
    bias_term: true
  }
}
layer {
  name: "res2b_branch2b_relu"
  type: "ReLU"
  bottom: "res2b_branch2b"
  top: "res2b_branch2b"
}
layer {
  name: "res2b_branch2c"
  type: "Convolution"
  bottom: "res2b_branch2b"
  top: "res2b_branch2c"
  param {
    lr_mult: 1
    decay_mult: 1
  }
  convolution_param {
    num_output: 256
    bias_term: false
    pad: 0
    kernel_size: 1
    stride: 1
    weight_filler {
      type: "xavier"
      std: 0.01
    }
  }
}
layer {
  name: "bn2b_branch2c"
  type: "BatchNorm"
  bottom: "res2b_branch2c"
  top: "res2b_branch2c"
  batch_norm_param {
    use_global_stats: true
  }
}
layer {
  name: "scale2b_branch2c"
  type: "Scale"
  bottom: "res2b_branch2c"
  top: "res2b_branch2c"
  scale_param {
    bias_term: true
  }
}
layer {
  name: "res2b"
  type: "Eltwise"
  bottom: "res2a"
  bottom: "res2b_branch2c"
  top: "res2b"
  eltwise_param {
    operation: SUM
  }
}
layer {
  name: "res2b_relu"
  type: "ReLU"
  bottom: "res2b"
  top: "res2b"
}
layer {
  name: "res2c_branch2a"
  type: "Convolution"
  bottom: "res2b"
  top: "res2c_branch2a"
  param {
    lr_mult: 1
    decay_mult: 1
  }
  convolution_param {
    num_output: 64
    bias_term: false
    pad: 0
    kernel_size: 1
    stride: 1
    weight_filler {
      type: "xavier"
      std: 0.01
    }
  }
}
layer {
  name: "bn2c_branch2a"
  type: "BatchNorm"
  bottom: "res2c_branch2a"
  top: "res2c_branch2a"
  batch_norm_param {
    use_global_stats: true
  }
}
layer {
  name: "scale2c_branch2a"
  type: "Scale"
  bottom: "res2c_branch2a"
  top: "res2c_branch2a"
  scale_param {
    bias_term: true
  }
}
layer {
  name: "res2c_branch2a_relu"
  type: "ReLU"
  bottom: "res2c_branch2a"
  top: "res2c_branch2a"
}
layer {
  name: "res2c_branch2b"
  type: "Convolution"
  bottom: "res2c_branch2a"
  top: "res2c_branch2b"
  param {
    lr_mult: 1
    decay_mult: 1
  }
  convolution_param {
    num_output: 64
    bias_term: false
    pad: 1
    kernel_size: 3
    stride: 1
    weight_filler {
      type: "xavier"
      std: 0.01
    }
  }
}
layer {
  name: "bn2c_branch2b"
  type: "BatchNorm"
  bottom: "res2c_branch2b"
  top: "res2c_branch2b"
  batch_norm_param {
    use_global_stats: true
  }
}
layer {
  name: "scale2c_branch2b"
  type: "Scale"
  bottom: "res2c_branch2b"
  top: "res2c_branch2b"
  scale_param {
    bias_term: true
  }
}
layer {
  name: "res2c_branch2b_relu"
  type: "ReLU"
  bottom: "res2c_branch2b"
  top: "res2c_branch2b"
}
layer {
  name: "res2c_branch2c"
  type: "Convolution"
  bottom: "res2c_branch2b"
  top: "res2c_branch2c"
  param {
    lr_mult: 1
    decay_mult: 1
  }
  convolution_param {
    num_output: 256
    bias_term: false
    pad: 0
    kernel_size: 1
    stride: 1
    weight_filler {
      type: "xavier"
      std: 0.01
    }
  }
}
layer {
  name: "bn2c_branch2c"
  type: "BatchNorm"
  bottom: "res2c_branch2c"
  top: "res2c_branch2c"
  batch_norm_param {
    use_global_stats: true
  }
}
layer {
  name: "scale2c_branch2c"
  type: "Scale"
  bottom: "res2c_branch2c"
  top: "res2c_branch2c"
  scale_param {
    bias_term: true
  }
}
layer {
  name: "res2c"
  type: "Eltwise"
  bottom: "res2b"
  bottom: "res2c_branch2c"
  top: "res2c"
  eltwise_param {
    operation: SUM
  }
}
layer {
  name: "res2c_relu"
  type: "ReLU"
  bottom: "res2c"
  top: "res2c"
}
layer {
  name: "res3a_branch1"
  type: "Convolution"
  bottom: "res2c"
  top: "res3a_branch1"
  param {
    lr_mult: 1
    decay_mult: 1
  }
  convolution_param {
    num_output: 512
    bias_term: false
    pad: 0
    kernel_size: 1
    stride: 2
    weight_filler {
      type: "xavier"
      std: 0.01
    }
  }
}
layer {
  name: "bn3a_branch1"
  type: "BatchNorm"
  bottom: "res3a_branch1"
  top: "res3a_branch1"
  batch_norm_param {
    use_global_stats: true
  }
}
layer {
  name: "scale3a_branch1"
  type: "Scale"
  bottom: "res3a_branch1"
  top: "res3a_branch1"
  scale_param {
    bias_term: true
  }
}
layer {
  name: "res3a_branch2a"
  type: "Convolution"
  bottom: "res2c"
  top: "res3a_branch2a"
  param {
    lr_mult: 1
    decay_mult: 1
  }
  convolution_param {
    num_output: 128
    bias_term: false
    pad: 0
    kernel_size: 1
    stride: 2
    weight_filler {
      type: "xavier"
      std: 0.01
    }
  }
}
layer {
  name: "bn3a_branch2a"
  type: "BatchNorm"
  bottom: "res3a_branch2a"
  top: "res3a_branch2a"
  batch_norm_param {
    use_global_stats: true
  }
}
layer {
  name: "scale3a_branch2a"
  type: "Scale"
  bottom: "res3a_branch2a"
  top: "res3a_branch2a"
  scale_param {
    bias_term: true
  }
}
layer {
  name: "res3a_branch2a_relu"
  type: "ReLU"
  bottom: "res3a_branch2a"
  top: "res3a_branch2a"
}
layer {
  name: "res3a_branch2b"
  type: "Convolution"
  bottom: "res3a_branch2a"
  top: "res3a_branch2b"
  param {
    lr_mult: 1
    decay_mult: 1
  }
  convolution_param {
    num_output: 128
    bias_term: false
    pad: 1
    kernel_size: 3
    stride: 1
    weight_filler {
      type: "xavier"
      std: 0.01
    }
  }
}
layer {
  name: "bn3a_branch2b"
  type: "BatchNorm"
  bottom: "res3a_branch2b"
  top: "res3a_branch2b"
  batch_norm_param {
    use_global_stats: true
  }
}
layer {
  name: "scale3a_branch2b"
  type: "Scale"
  bottom: "res3a_branch2b"
  top: "res3a_branch2b"
  scale_param {
    bias_term: true
  }
}
layer {
  name: "res3a_branch2b_relu"
  type: "ReLU"
  bottom: "res3a_branch2b"
  top: "res3a_branch2b"
}
layer {
  name: "res3a_branch2c"
  type: "Convolution"
  bottom: "res3a_branch2b"
  top: "res3a_branch2c"
  param {
    lr_mult: 1
    decay_mult: 1
  }
  convolution_param {
    num_output: 512
    bias_term: false
    pad: 0
    kernel_size: 1
    stride: 1
    weight_filler {
      type: "xavier"
      std: 0.01
    }
  }
}
layer {
  name: "bn3a_branch2c"
  type: "BatchNorm"
  bottom: "res3a_branch2c"
  top: "res3a_branch2c"
  batch_norm_param {
    use_global_stats: true
  }
}
layer {
  name: "scale3a_branch2c"
  type: "Scale"
  bottom: "res3a_branch2c"
  top: "res3a_branch2c"
  scale_param {
    bias_term: true
  }
}
layer {
  name: "res3a"
  type: "Eltwise"
  bottom: "res3a_branch1"
  bottom: "res3a_branch2c"
  top: "res3a"
}
layer {
  name: "res3a_relu"
  type: "ReLU"
  bottom: "res3a"
  top: "res3a"
}
layer {
  name: "res3b_branch2a"
  type: "Convolution"
  bottom: "res3a"
  top: "res3b_branch2a"
  param {
    lr_mult: 1
    decay_mult: 1
  }
  convolution_param {
    num_output: 128
    bias_term: false
    pad: 0
    kernel_size: 1
    stride: 1
    weight_filler {
      type: "xavier"
      std: 0.01
    }
  }
}
layer {
  name: "bn3b_branch2a"
  type: "BatchNorm"
  bottom: "res3b_branch2a"
  top: "res3b_branch2a"
  batch_norm_param {
    use_global_stats: true
  }
}
layer {
  name: "scale3b_branch2a"
  type: "Scale"
  bottom: "res3b_branch2a"
  top: "res3b_branch2a"
  scale_param {
    bias_term: true
  }
}
layer {
  name: "res3b_branch2a_relu"
  type: "ReLU"
  bottom: "res3b_branch2a"
  top: "res3b_branch2a"
}
layer {
  name: "res3b_branch2b"
  type: "Convolution"
  bottom: "res3b_branch2a"
  top: "res3b_branch2b"
  param {
    lr_mult: 1
    decay_mult: 1
  }
  convolution_param {
    num_output: 128
    bias_term: false
    pad: 1
    kernel_size: 3
    stride: 1
    weight_filler {
      type: "xavier"
      std: 0.01
    }
  }
}
layer {
  name: "bn3b_branch2b"
  type: "BatchNorm"
  bottom: "res3b_branch2b"
  top: "res3b_branch2b"
  batch_norm_param {
    use_global_stats: true
  }
}
layer {
  name: "scale3b_branch2b"
  type: "Scale"
  bottom: "res3b_branch2b"
  top: "res3b_branch2b"
  scale_param {
    bias_term: true
  }
}
layer {
  name: "res3b_branch2b_relu"
  type: "ReLU"
  bottom: "res3b_branch2b"
  top: "res3b_branch2b"
}
layer {
  name: "res3b_branch2c"
  type: "Convolution"
  bottom: "res3b_branch2b"
  top: "res3b_branch2c"
  param {
    lr_mult: 1
    decay_mult: 1
  }
  convolution_param {
    num_output: 512
    bias_term: false
    pad: 0
    kernel_size: 1
    stride: 1
    weight_filler {
      type: "xavier"
      std: 0.01
    }
  }
}
layer {
  name: "bn3b_branch2c"
  type: "BatchNorm"
  bottom: "res3b_branch2c"
  top: "res3b_branch2c"
  batch_norm_param {
    use_global_stats: true
  }
}
layer {
  name: "scale3b_branch2c"
  type: "Scale"
  bottom: "res3b_branch2c"
  top: "res3b_branch2c"
  scale_param {
    bias_term: true
  }
}
layer {
  name: "res3b"
  type: "Eltwise"
  bottom: "res3a"
  bottom: "res3b_branch2c"
  top: "res3b"
}
layer {
  name: "res3b_relu"
  type: "ReLU"
  bottom: "res3b"
  top: "res3b"
}
layer {
  name: "res3c_branch2a"
  type: "Convolution"
  bottom: "res3b"
  top: "res3c_branch2a"
  param {
    lr_mult: 1
    decay_mult: 1
  }
  convolution_param {
    num_output: 128
    bias_term: false
    pad: 0
    kernel_size: 1
    stride: 1
    weight_filler {
      type: "xavier"
      std: 0.01
    }
  }
}
layer {
  name: "bn3c_branch2a"
  type: "BatchNorm"
  bottom: "res3c_branch2a"
  top: "res3c_branch2a"
  batch_norm_param {
    use_global_stats: true
  }
}
layer {
  name: "scale3c_branch2a"
  type: "Scale"
  bottom: "res3c_branch2a"
  top: "res3c_branch2a"
  scale_param {
    bias_term: true
  }
}
layer {
  name: "res3c_branch2a_relu"
  type: "ReLU"
  bottom: "res3c_branch2a"
  top: "res3c_branch2a"
}
layer {
  name: "res3c_branch2b"
  type: "Convolution"
  bottom: "res3c_branch2a"
  top: "res3c_branch2b"
  param {
    lr_mult: 1
    decay_mult: 1
  }
  convolution_param {
    num_output: 128
    bias_term: false
    pad: 1
    kernel_size: 3
    stride: 1
    weight_filler {
      type: "xavier"
      std: 0.01
    }
  }
}
layer {
  name: "bn3c_branch2b"
  type: "BatchNorm"
  bottom: "res3c_branch2b"
  top: "res3c_branch2b"
  batch_norm_param {
    use_global_stats: true
  }
}
layer {
  name: "scale3c_branch2b"
  type: "Scale"
  bottom: "res3c_branch2b"
  top: "res3c_branch2b"
  scale_param {
    bias_term: true
  }
}
layer {
  name: "res3c_branch2b_relu"
  type: "ReLU"
  bottom: "res3c_branch2b"
  top: "res3c_branch2b"
}
layer {
  name: "res3c_branch2c"
  type: "Convolution"
  bottom: "res3c_branch2b"
  top: "res3c_branch2c"
  param {
    lr_mult: 1
    decay_mult: 1
  }
  convolution_param {
    num_output: 512
    bias_term: false
    pad: 0
    kernel_size: 1
    stride: 1
    weight_filler {
      type: "xavier"
      std: 0.01
    }
  }
}
layer {
  name: "bn3c_branch2c"
  type: "BatchNorm"
  bottom: "res3c_branch2c"
  top: "res3c_branch2c"
  batch_norm_param {
    use_global_stats: true
  }
}
layer {
  name: "scale3c_branch2c"
  type: "Scale"
  bottom: "res3c_branch2c"
  top: "res3c_branch2c"
  scale_param {
    bias_term: true
  }
}
layer {
  name: "res3c"
  type: "Eltwise"
  bottom: "res3b"
  bottom: "res3c_branch2c"
  top: "res3c"
}
layer {
  name: "res3c_relu"
  type: "ReLU"
  bottom: "res3c"
  top: "res3c"
}
layer {
  name: "res3d_branch2a"
  type: "Convolution"
  bottom: "res3c"
  top: "res3d_branch2a"
  param {
    lr_mult: 1
    decay_mult: 1
  }
  convolution_param {
    num_output: 128
    bias_term: false
    pad: 0
    kernel_size: 1
    stride: 1
    weight_filler {
      type: "xavier"
      std: 0.01
    }
  }
}
layer {
  name: "bn3d_branch2a"
  type: "BatchNorm"
  bottom: "res3d_branch2a"
  top: "res3d_branch2a"
  batch_norm_param {
    use_global_stats: true
  }
}
layer {
  name: "scale3d_branch2a"
  type: "Scale"
  bottom: "res3d_branch2a"
  top: "res3d_branch2a"
  scale_param {
    bias_term: true
  }
}
layer {
  name: "res3d_branch2a_relu"
  type: "ReLU"
  bottom: "res3d_branch2a"
  top: "res3d_branch2a"
}
layer {
  name: "res3d_branch2b"
  type: "Convolution"
  bottom: "res3d_branch2a"
  top: "res3d_branch2b"
  param {
    lr_mult: 1
    decay_mult: 1
  }
  convolution_param {
    num_output: 128
    bias_term: false
    pad: 1
    kernel_size: 3
    stride: 1
    weight_filler {
      type: "xavier"
      std: 0.01
    }
  }
}
layer {
  name: "bn3d_branch2b"
  type: "BatchNorm"
  bottom: "res3d_branch2b"
  top: "res3d_branch2b"
  batch_norm_param {
    use_global_stats: true
  }
}
layer {
  name: "scale3d_branch2b"
  type: "Scale"
  bottom: "res3d_branch2b"
  top: "res3d_branch2b"
  scale_param {
    bias_term: true
  }
}
layer {
  name: "res3d_branch2b_relu"
  type: "ReLU"
  bottom: "res3d_branch2b"
  top: "res3d_branch2b"
}
layer {
  name: "res3d_branch2c"
  type: "Convolution"
  bottom: "res3d_branch2b"
  top: "res3d_branch2c"
  param {
    lr_mult: 1
    decay_mult: 1
  }
  convolution_param {
    num_output: 512
    bias_term: false
    pad: 0
    kernel_size: 1
    stride: 1
    weight_filler {
      type: "xavier"
      std: 0.01
    }
  }
}
layer {
  name: "bn3d_branch2c"
  type: "BatchNorm"
  bottom: "res3d_branch2c"
  top: "res3d_branch2c"
  batch_norm_param {
    use_global_stats: true
  }
}
layer {
  name: "scale3d_branch2c"
  type: "Scale"
  bottom: "res3d_branch2c"
  top: "res3d_branch2c"
  scale_param {
    bias_term: true
  }
}
layer {
  name: "res3d"
  type: "Eltwise"
  bottom: "res3c"
  bottom: "res3d_branch2c"
  top: "res3d"
}
layer {
  name: "res3d_relu"
  type: "ReLU"
  bottom: "res3d"
  top: "res3d"
}
layer {
  name: "res4a_branch1"
  type: "Convolution"
  bottom: "res3d"
  top: "res4a_branch1"
  convolution_param {
    num_output: 1024
    bias_term: false
    pad: 0
    kernel_size: 1
    stride: 2
  }
}
layer {
  name: "bn4a_branch1"
  type: "BatchNorm"
  bottom: "res4a_branch1"
  top: "res4a_branch1"
  batch_norm_param {
    use_global_stats: true
  }
}
layer {
  name: "scale4a_branch1"
  type: "Scale"
  bottom: "res4a_branch1"
  top: "res4a_branch1"
  scale_param {
    bias_term: true
  }
}
layer {
  name: "res4a_branch2a"
  type: "Convolution"
  bottom: "res3d"
  top: "res4a_branch2a"
  param {
    lr_mult: 1
    decay_mult: 1
  }
  convolution_param {
    num_output: 256
    bias_term: false
    pad: 0
    kernel_size: 1
    stride: 2
    weight_filler {
      type: "xavier"
      std: 0.01
    }
  }
}
layer {
  name: "bn4a_branch2a"
  type: "BatchNorm"
  bottom: "res4a_branch2a"
  top: "res4a_branch2a"
  batch_norm_param {
    use_global_stats: true
  }
}
layer {
  name: "scale4a_branch2a"
  type: "Scale"
  bottom: "res4a_branch2a"
  top: "res4a_branch2a"
  scale_param {
    bias_term: true
  }
}
layer {
  name: "res4a_branch2a_relu"
  type: "ReLU"
  bottom: "res4a_branch2a"
  top: "res4a_branch2a"
}
layer {
  name: "res4a_branch2b"
  type: "Convolution"
  bottom: "res4a_branch2a"
  top: "res4a_branch2b"
  param {
    lr_mult: 1
    decay_mult: 1
  }
  convolution_param {
    num_output: 256
    bias_term: false
    pad: 1
    kernel_size: 3
    stride: 1
    weight_filler {
      type: "xavier"
      std: 0.01
    }
  }
}
layer {
  name: "bn4a_branch2b"
  type: "BatchNorm"
  bottom: "res4a_branch2b"
  top: "res4a_branch2b"
  batch_norm_param {
    use_global_stats: true
  }
}
layer {
  name: "scale4a_branch2b"
  type: "Scale"
  bottom: "res4a_branch2b"
  top: "res4a_branch2b"
  scale_param {
    bias_term: true
  }
}
layer {
  name: "res4a_branch2b_relu"
  type: "ReLU"
  bottom: "res4a_branch2b"
  top: "res4a_branch2b"
}
layer {
  name: "res4a_branch2c"
  type: "Convolution"
  bottom: "res4a_branch2b"
  top: "res4a_branch2c"
  param {
    lr_mult: 1
    decay_mult: 1
  }
  convolution_param {
    num_output: 1024
    bias_term: false
    pad: 0
    kernel_size: 1
    stride: 1
    weight_filler {
      type: "xavier"
      std: 0.01
    }
  }
}
layer {
  name: "bn4a_branch2c"
  type: "BatchNorm"
  bottom: "res4a_branch2c"
  top: "res4a_branch2c"
  batch_norm_param {
    use_global_stats: true
  }
}
layer {
  name: "scale4a_branch2c"
  type: "Scale"
  bottom: "res4a_branch2c"
  top: "res4a_branch2c"
  scale_param {
    bias_term: true
  }
}
layer {
  name: "res4a"
  type: "Eltwise"
  bottom: "res4a_branch1"
  bottom: "res4a_branch2c"
  top: "res4a"
}
layer {
  name: "res4a_relu"
  type: "ReLU"
  bottom: "res4a"
  top: "res4a"
}
layer {
  name: "res4b_branch2a"
  type: "Convolution"
  bottom: "res4a"
  top: "res4b_branch2a"
  param {
    lr_mult: 1
    decay_mult: 1
  }
  convolution_param {
    num_output: 256
    bias_term: false
    pad: 0
    kernel_size: 1
    stride: 1
    weight_filler {
      type: "xavier"
      std: 0.01
    }
  }
}
layer {
  name: "bn4b_branch2a"
  type: "BatchNorm"
  bottom: "res4b_branch2a"
  top: "res4b_branch2a"
  batch_norm_param {
    use_global_stats: true
  }
}
layer {
  name: "scale4b_branch2a"
  type: "Scale"
  bottom: "res4b_branch2a"
  top: "res4b_branch2a"
  scale_param {
    bias_term: true
  }
}
layer {
  name: "res4b_branch2a_relu"
  type: "ReLU"
  bottom: "res4b_branch2a"
  top: "res4b_branch2a"
}
layer {
  name: "res4b_branch2b"
  type: "Convolution"
  bottom: "res4b_branch2a"
  top: "res4b_branch2b"
  param {
    lr_mult: 1
    decay_mult: 1
  }
  convolution_param {
    num_output: 256
    bias_term: false
    pad: 1
    kernel_size: 3
    stride: 1
    weight_filler {
      type: "xavier"
      std: 0.01
    }
  }
}
layer {
  name: "bn4b_branch2b"
  type: "BatchNorm"
  bottom: "res4b_branch2b"
  top: "res4b_branch2b"
  batch_norm_param {
    use_global_stats: true
  }
}
layer {
  name: "scale4b_branch2b"
  type: "Scale"
  bottom: "res4b_branch2b"
  top: "res4b_branch2b"
  scale_param {
    bias_term: true
  }
}
layer {
  name: "res4b_branch2b_relu"
  type: "ReLU"
  bottom: "res4b_branch2b"
  top: "res4b_branch2b"
}
layer {
  name: "res4b_branch2c"
  type: "Convolution"
  bottom: "res4b_branch2b"
  top: "res4b_branch2c"
  param {
    lr_mult: 1
    decay_mult: 1
  }
  convolution_param {
    num_output: 1024
    bias_term: false
    pad: 0
    kernel_size: 1
    stride: 1
    weight_filler {
      type: "xavier"
      std: 0.01
    }
  }
}
layer {
  name: "bn4b_branch2c"
  type: "BatchNorm"
  bottom: "res4b_branch2c"
  top: "res4b_branch2c"
  batch_norm_param {
    use_global_stats: true
  }
}
layer {
  name: "scale4b_branch2c"
  type: "Scale"
  bottom: "res4b_branch2c"
  top: "res4b_branch2c"
  scale_param {
    bias_term: true
  }
}
layer {
  name: "res4b"
  type: "Eltwise"
  bottom: "res4a"
  bottom: "res4b_branch2c"
  top: "res4b"
}
layer {
  name: "res4b_relu"
  type: "ReLU"
  bottom: "res4b"
  top: "res4b"
}
layer {
  name: "res4c_branch2a"
  type: "Convolution"
  bottom: "res4b"
  top: "res4c_branch2a"
  param {
    lr_mult: 1
    decay_mult: 1
  }
  convolution_param {
    num_output: 256
    bias_term: false
    pad: 0
    kernel_size: 1
    stride: 1
    weight_filler {
      type: "xavier"
      std: 0.01
    }
  }
}
layer {
  name: "bn4c_branch2a"
  type: "BatchNorm"
  bottom: "res4c_branch2a"
  top: "res4c_branch2a"
  batch_norm_param {
    use_global_stats: true
  }
}
layer {
  name: "scale4c_branch2a"
  type: "Scale"
  bottom: "res4c_branch2a"
  top: "res4c_branch2a"
  scale_param {
    bias_term: true
  }
}
layer {
  name: "res4c_branch2a_relu"
  type: "ReLU"
  bottom: "res4c_branch2a"
  top: "res4c_branch2a"
}
layer {
  name: "res4c_branch2b"
  type: "Convolution"
  bottom: "res4c_branch2a"
  top: "res4c_branch2b"
  param {
    lr_mult: 1
    decay_mult: 1
  }
  convolution_param {
    num_output: 256
    bias_term: false
    pad: 1
    kernel_size: 3
    stride: 1
    weight_filler {
      type: "xavier"
      std: 0.01
    }
  }
}
layer {
  name: "bn4c_branch2b"
  type: "BatchNorm"
  bottom: "res4c_branch2b"
  top: "res4c_branch2b"
  batch_norm_param {
    use_global_stats: true
  }
}
layer {
  name: "scale4c_branch2b"
  type: "Scale"
  bottom: "res4c_branch2b"
  top: "res4c_branch2b"
  scale_param {
    bias_term: true
  }
}
layer {
  name: "res4c_branch2b_relu"
  type: "ReLU"
  bottom: "res4c_branch2b"
  top: "res4c_branch2b"
}
layer {
  name: "res4c_branch2c"
  type: "Convolution"
  bottom: "res4c_branch2b"
  top: "res4c_branch2c"
  param {
    lr_mult: 1
    decay_mult: 1
  }
  convolution_param {
    num_output: 1024
    bias_term: false
    pad: 0
    kernel_size: 1
    stride: 1
    weight_filler {
      type: "xavier"
      std: 0.01
    }
  }
}
layer {
  name: "bn4c_branch2c"
  type: "BatchNorm"
  bottom: "res4c_branch2c"
  top: "res4c_branch2c"
  batch_norm_param {
    use_global_stats: true
  }
}
layer {
  name: "scale4c_branch2c"
  type: "Scale"
  bottom: "res4c_branch2c"
  top: "res4c_branch2c"
  scale_param {
    bias_term: true
  }
}
layer {
  name: "res4c"
  type: "Eltwise"
  bottom: "res4b"
  bottom: "res4c_branch2c"
  top: "res4c"
}
layer {
  name: "res4c_relu"
  type: "ReLU"
  bottom: "res4c"
  top: "res4c"
}
layer {
  name: "res4d_branch2a"
  type: "Convolution"
  bottom: "res4c"
  top: "res4d_branch2a"
  param {
    lr_mult: 1
    decay_mult: 1
  }
  convolution_param {
    num_output: 256
    bias_term: false
    pad: 0
    kernel_size: 1
    stride: 1
    weight_filler {
      type: "xavier"
      std: 0.01
    }
  }
}
layer {
  name: "bn4d_branch2a"
  type: "BatchNorm"
  bottom: "res4d_branch2a"
  top: "res4d_branch2a"
  batch_norm_param {
    use_global_stats: true
  }
}
layer {
  name: "scale4d_branch2a"
  type: "Scale"
  bottom: "res4d_branch2a"
  top: "res4d_branch2a"
  scale_param {
    bias_term: true
  }
}
layer {
  name: "res4d_branch2a_relu"
  type: "ReLU"
  bottom: "res4d_branch2a"
  top: "res4d_branch2a"
}
layer {
  name: "res4d_branch2b"
  type: "Convolution"
  bottom: "res4d_branch2a"
  top: "res4d_branch2b"
  param {
    lr_mult: 1
    decay_mult: 1
  }
  convolution_param {
    num_output: 256
    bias_term: false
    pad: 1
    kernel_size: 3
    stride: 1
    weight_filler {
      type: "xavier"
      std: 0.01
    }
  }
}
layer {
  name: "bn4d_branch2b"
  type: "BatchNorm"
  bottom: "res4d_branch2b"
  top: "res4d_branch2b"
  batch_norm_param {
    use_global_stats: true
  }
}
layer {
  name: "scale4d_branch2b"
  type: "Scale"
  bottom: "res4d_branch2b"
  top: "res4d_branch2b"
  scale_param {
    bias_term: true
  }
}
layer {
  name: "res4d_branch2b_relu"
  type: "ReLU"
  bottom: "res4d_branch2b"
  top: "res4d_branch2b"
}
layer {
  name: "res4d_branch2c"
  type: "Convolution"
  bottom: "res4d_branch2b"
  top: "res4d_branch2c"
  param {
    lr_mult: 1
    decay_mult: 1
  }
  convolution_param {
    num_output: 1024
    bias_term: false
    pad: 0
    kernel_size: 1
    stride: 1
    weight_filler {
      type: "xavier"
      std: 0.01
    }
  }
}
layer {
  name: "bn4d_branch2c"
  type: "BatchNorm"
  bottom: "res4d_branch2c"
  top: "res4d_branch2c"
  batch_norm_param {
    use_global_stats: true
  }
}
layer {
  name: "scale4d_branch2c"
  type: "Scale"
  bottom: "res4d_branch2c"
  top: "res4d_branch2c"
  scale_param {
    bias_term: true
  }
}
layer {
  name: "res4d"
  type: "Eltwise"
  bottom: "res4c"
  bottom: "res4d_branch2c"
  top: "res4d"
}
layer {
  name: "res4d_relu"
  type: "ReLU"
  bottom: "res4d"
  top: "res4d"
}
layer {
  name: "res4e_branch2a"
  type: "Convolution"
  bottom: "res4d"
  top: "res4e_branch2a"
  param {
    lr_mult: 1
    decay_mult: 1
  }
  convolution_param {
    num_output: 256
    bias_term: false
    pad: 0
    kernel_size: 1
    stride: 1
    weight_filler {
      type: "xavier"
      std: 0.01
    }
  }
}
layer {
  name: "bn4e_branch2a"
  type: "BatchNorm"
  bottom: "res4e_branch2a"
  top: "res4e_branch2a"
  batch_norm_param {
    use_global_stats: true
  }
}
layer {
  name: "scale4e_branch2a"
  type: "Scale"
  bottom: "res4e_branch2a"
  top: "res4e_branch2a"
  scale_param {
    bias_term: true
  }
}
layer {
  name: "res4e_branch2a_relu"
  type: "ReLU"
  bottom: "res4e_branch2a"
  top: "res4e_branch2a"
}
layer {
  name: "res4e_branch2b"
  type: "Convolution"
  bottom: "res4e_branch2a"
  top: "res4e_branch2b"
  param {
    lr_mult: 1
    decay_mult: 1
  }
  convolution_param {
    num_output: 256
    bias_term: false
    pad: 1
    kernel_size: 3
    stride: 1
    weight_filler {
      type: "xavier"
      std: 0.01
    }
  }
}
layer {
  name: "bn4e_branch2b"
  type: "BatchNorm"
  bottom: "res4e_branch2b"
  top: "res4e_branch2b"
  batch_norm_param {
    use_global_stats: true
  }
}
layer {
  name: "scale4e_branch2b"
  type: "Scale"
  bottom: "res4e_branch2b"
  top: "res4e_branch2b"
  scale_param {
    bias_term: true
  }
}
layer {
  name: "res4e_branch2b_relu"
  type: "ReLU"
  bottom: "res4e_branch2b"
  top: "res4e_branch2b"
}
layer {
  name: "res4e_branch2c"
  type: "Convolution"
  bottom: "res4e_branch2b"
  top: "res4e_branch2c"
  param {
    lr_mult: 1
    decay_mult: 1
  }
  convolution_param {
    num_output: 1024
    bias_term: false
    pad: 0
    kernel_size: 1
    stride: 1
    weight_filler {
      type: "xavier"
      std: 
I0823 12:50:42.550729 16577 layer_factory.hpp:77] Creating layer data
I0823 12:50:42.551931 16577 net.cpp:91] Creating Layer data
I0823 12:50:42.552064 16577 net.cpp:399] data -> data
I0823 12:50:42.552186 16577 net.cpp:399] data -> label
I0823 12:50:42.553863 16583 db_lmdb.cpp:38] Opened lmdb FASHION/fashion_train_lmdb
I0823 12:50:42.583427 16577 data_layer.cpp:41] output data size: 10,3,224,224
I0823 12:50:42.603026 16577 net.cpp:141] Setting up data
I0823 12:50:42.603152 16577 net.cpp:148] Top shape: 10 3 224 224 (1505280)
I0823 12:50:42.603193 16577 net.cpp:148] Top shape: 10 1 1 1 (10)
I0823 12:50:42.603224 16577 net.cpp:156] Memory required for data: 6021160
I0823 12:50:42.603265 16577 layer_factory.hpp:77] Creating layer conv1
I0823 12:50:42.603345 16577 net.cpp:91] Creating Layer conv1
I0823 12:50:42.603389 16577 net.cpp:425] conv1 <- data
I0823 12:50:42.603452 16577 net.cpp:399] conv1 -> conv1
I0823 12:50:42.605325 16577 net.cpp:141] Setting up conv1
I0823 12:50:42.605396 16577 net.cpp:148] Top shape: 10 64 112 112 (8028160)
I0823 12:50:42.605428 16577 net.cpp:156] Memory required for data: 38133800
I0823 12:50:42.605491 16577 layer_factory.hpp:77] Creating layer bn_conv1
I0823 12:50:42.605541 16577 net.cpp:91] Creating Layer bn_conv1
I0823 12:50:42.605573 16577 net.cpp:425] bn_conv1 <- conv1
I0823 12:50:42.605613 16577 net.cpp:386] bn_conv1 -> conv1 (in-place)
I0823 12:50:42.606241 16577 net.cpp:141] Setting up bn_conv1
I0823 12:50:42.606294 16577 net.cpp:148] Top shape: 10 64 112 112 (8028160)
I0823 12:50:42.606324 16577 net.cpp:156] Memory required for data: 70246440
I0823 12:50:42.606376 16577 layer_factory.hpp:77] Creating layer scale_conv1
I0823 12:50:42.606426 16577 net.cpp:91] Creating Layer scale_conv1
I0823 12:50:42.606457 16577 net.cpp:425] scale_conv1 <- conv1
I0823 12:50:42.606490 16577 net.cpp:386] scale_conv1 -> conv1 (in-place)
I0823 12:50:42.607203 16577 layer_factory.hpp:77] Creating layer scale_conv1
I0823 12:50:42.607559 16577 net.cpp:141] Setting up scale_conv1
I0823 12:50:42.607616 16577 net.cpp:148] Top shape: 10 64 112 112 (8028160)
I0823 12:50:42.607724 16577 net.cpp:156] Memory required for data: 102359080
I0823 12:50:42.607769 16577 layer_factory.hpp:77] Creating layer conv1_relu
I0823 12:50:42.607820 16577 net.cpp:91] Creating Layer conv1_relu
I0823 12:50:42.607854 16577 net.cpp:425] conv1_relu <- conv1
I0823 12:50:42.607889 16577 net.cpp:386] conv1_relu -> conv1 (in-place)
I0823 12:50:42.607933 16577 net.cpp:141] Setting up conv1_relu
I0823 12:50:42.607969 16577 net.cpp:148] Top shape: 10 64 112 112 (8028160)
I0823 12:50:42.607997 16577 net.cpp:156] Memory required for data: 134471720
I0823 12:50:42.608026 16577 layer_factory.hpp:77] Creating layer pool1
I0823 12:50:42.608059 16577 net.cpp:91] Creating Layer pool1
I0823 12:50:42.608089 16577 net.cpp:425] pool1 <- conv1
I0823 12:50:42.608129 16577 net.cpp:399] pool1 -> pool1
I0823 12:50:42.608266 16577 net.cpp:141] Setting up pool1
I0823 12:50:42.608317 16577 net.cpp:148] Top shape: 10 64 56 56 (2007040)
I0823 12:50:42.608346 16577 net.cpp:156] Memory required for data: 142499880
I0823 12:50:42.608374 16577 layer_factory.hpp:77] Creating layer pool1_pool1_0_split
I0823 12:50:42.608418 16577 net.cpp:91] Creating Layer pool1_pool1_0_split
I0823 12:50:42.608450 16577 net.cpp:425] pool1_pool1_0_split <- pool1
I0823 12:50:42.608484 16577 net.cpp:399] pool1_pool1_0_split -> pool1_pool1_0_split_0
I0823 12:50:42.608522 16577 net.cpp:399] pool1_pool1_0_split -> pool1_pool1_0_split_1
I0823 12:50:42.608645 16577 net.cpp:141] Setting up pool1_pool1_0_split
I0823 12:50:42.608692 16577 net.cpp:148] Top shape: 10 64 56 56 (2007040)
I0823 12:50:42.608726 16577 net.cpp:148] Top shape: 10 64 56 56 (2007040)
I0823 12:50:42.608755 16577 net.cpp:156] Memory required for data: 158556200
I0823 12:50:42.608783 16577 layer_factory.hpp:77] Creating layer res2a_branch1
I0823 12:50:42.608824 16577 net.cpp:91] Creating Layer res2a_branch1
I0823 12:50:42.608855 16577 net.cpp:425] res2a_branch1 <- pool1_pool1_0_split_0
I0823 12:50:42.608898 16577 net.cpp:399] res2a_branch1 -> res2a_branch1
I0823 12:50:42.609560 16577 net.cpp:141] Setting up res2a_branch1
I0823 12:50:42.609612 16577 net.cpp:148] Top shape: 10 256 56 56 (8028160)
I0823 12:50:42.609642 16577 net.cpp:156] Memory required for data: 190668840
I0823 12:50:42.609676 16577 layer_factory.hpp:77] Creating layer bn2a_branch1
I0823 12:50:42.609721 16577 net.cpp:91] Creating Layer bn2a_branch1
I0823 12:50:42.609753 16577 net.cpp:425] bn2a_branch1 <- res2a_branch1
I0823 12:50:42.609787 16577 net.cpp:386] bn2a_branch1 -> res2a_branch1 (in-place)
I0823 12:50:42.611248 16577 net.cpp:141] Setting up bn2a_branch1
I0823 12:50:42.611306 16577 net.cpp:148] Top shape: 10 256 56 56 (8028160)
I0823 12:50:42.611337 16577 net.cpp:156] Memory required for data: 222781480
I0823 12:50:42.611394 16577 layer_factory.hpp:77] Creating layer scale2a_branch1
I0823 12:50:42.611436 16577 net.cpp:91] Creating Layer scale2a_branch1
I0823 12:50:42.611466 16577 net.cpp:425] scale2a_branch1 <- res2a_branch1
I0823 12:50:42.611500 16577 net.cpp:386] scale2a_branch1 -> res2a_branch1 (in-place)
I0823 12:50:42.611618 16577 layer_factory.hpp:77] Creating layer scale2a_branch1
I0823 12:50:42.611898 16577 net.cpp:141] Setting up scale2a_branch1
I0823 12:50:42.611948 16577 net.cpp:148] Top shape: 10 256 56 56 (8028160)
I0823 12:50:42.611979 16577 net.cpp:156] Memory required for data: 254894120
I0823 12:50:42.612016 16577 layer_factory.hpp:77] Creating layer res2a_branch2a
I0823 12:50:42.612066 16577 net.cpp:91] Creating Layer res2a_branch2a
I0823 12:50:42.612099 16577 net.cpp:425] res2a_branch2a <- pool1_pool1_0_split_1
I0823 12:50:42.612136 16577 net.cpp:399] res2a_branch2a -> res2a_branch2a
I0823 12:50:42.612587 16577 net.cpp:141] Setting up res2a_branch2a
I0823 12:50:42.612658 16577 net.cpp:148] Top shape: 10 64 56 56 (2007040)
I0823 12:50:42.612689 16577 net.cpp:156] Memory required for data: 262922280
I0823 12:50:42.612725 16577 layer_factory.hpp:77] Creating layer bn2a_branch2a
I0823 12:50:42.612761 16577 net.cpp:91] Creating Layer bn2a_branch2a
I0823 12:50:42.612826 16577 net.cpp:425] bn2a_branch2a <- res2a_branch2a
I0823 12:50:42.612869 16577 net.cpp:386] bn2a_branch2a -> res2a_branch2a (in-place)
I0823 12:50:42.613275 16577 net.cpp:141] Setting up bn2a_branch2a
I0823 12:50:42.613324 16577 net.cpp:148] Top shape: 10 64 56 56 (2007040)
I0823 12:50:42.613355 16577 net.cpp:156] Memory required for data: 270950440
I0823 12:50:42.613404 16577 layer_factory.hpp:77] Creating layer scale2a_branch2a
I0823 12:50:42.613447 16577 net.cpp:91] Creating Layer scale2a_branch2a
I0823 12:50:42.613478 16577 net.cpp:425] scale2a_branch2a <- res2a_branch2a
I0823 12:50:42.613512 16577 net.cpp:386] scale2a_branch2a -> res2a_branch2a (in-place)
I0823 12:50:42.613626 16577 layer_factory.hpp:77] Creating layer scale2a_branch2a
I0823 12:50:42.613909 16577 net.cpp:141] Setting up scale2a_branch2a
I0823 12:50:42.613957 16577 net.cpp:148] Top shape: 10 64 56 56 (2007040)
I0823 12:50:42.613986 16577 net.cpp:156] Memory required for data: 278978600
I0823 12:50:42.614023 16577 layer_factory.hpp:77] Creating layer res2a_branch2a_relu
I0823 12:50:42.614064 16577 net.cpp:91] Creating Layer res2a_branch2a_relu
I0823 12:50:42.614095 16577 net.cpp:425] res2a_branch2a_relu <- res2a_branch2a
I0823 12:50:42.614128 16577 net.cpp:386] res2a_branch2a_relu -> res2a_branch2a (in-place)
I0823 12:50:42.614164 16577 net.cpp:141] Setting up res2a_branch2a_relu
I0823 12:50:42.614197 16577 net.cpp:148] Top shape: 10 64 56 56 (2007040)
I0823 12:50:42.614230 16577 net.cpp:156] Memory required for data: 287006760
I0823 12:50:42.614259 16577 layer_factory.hpp:77] Creating layer res2a_branch2b
I0823 12:50:42.614305 16577 net.cpp:91] Creating Layer res2a_branch2b
I0823 12:50:42.614337 16577 net.cpp:425] res2a_branch2b <- res2a_branch2a
I0823 12:50:42.614373 16577 net.cpp:399] res2a_branch2b -> res2a_branch2b
I0823 12:50:42.616427 16577 net.cpp:141] Setting up res2a_branch2b
I0823 12:50:42.616488 16577 net.cpp:148] Top shape: 10 64 56 56 (2007040)
I0823 12:50:42.616519 16577 net.cpp:156] Memory required for data: 295034920
I0823 12:50:42.616555 16577 layer_factory.hpp:77] Creating layer bn2a_branch2b
I0823 12:50:42.616592 16577 net.cpp:91] Creating Layer bn2a_branch2b
I0823 12:50:42.616637 16577 net.cpp:425] bn2a_branch2b <- res2a_branch2b
I0823 12:50:42.616672 16577 net.cpp:386] bn2a_branch2b -> res2a_branch2b (in-place)
I0823 12:50:42.617103 16577 net.cpp:141] Setting up bn2a_branch2b
I0823 12:50:42.617152 16577 net.cpp:148] Top shape: 10 64 56 56 (2007040)
I0823 12:50:42.617182 16577 net.cpp:156] Memory required for data: 303063080
I0823 12:50:42.617223 16577 layer_factory.hpp:77] Creating layer scale2a_branch2b
I0823 12:50:42.617264 16577 net.cpp:91] Creating Layer scale2a_branch2b
I0823 12:50:42.617295 16577 net.cpp:425] scale2a_branch2b <- res2a_branch2b
I0823 12:50:42.617328 16577 net.cpp:386] scale2a_branch2b -> res2a_branch2b (in-place)
I0823 12:50:42.617455 16577 layer_factory.hpp:77] Creating layer scale2a_branch2b
I0823 12:50:42.617753 16577 net.cpp:141] Setting up scale2a_branch2b
I0823 12:50:42.617802 16577 net.cpp:148] Top shape: 10 64 56 56 (2007040)
I0823 12:50:42.617831 16577 net.cpp:156] Memory required for data: 311091240
I0823 12:50:42.617869 16577 layer_factory.hpp:77] Creating layer res2a_branch2b_relu
I0823 12:50:42.617903 16577 net.cpp:91] Creating Layer res2a_branch2b_relu
I0823 12:50:42.617933 16577 net.cpp:425] res2a_branch2b_relu <- res2a_branch2b
I0823 12:50:42.617964 16577 net.cpp:386] res2a_branch2b_relu -> res2a_branch2b (in-place)
I0823 12:50:42.618000 16577 net.cpp:141] Setting up res2a_branch2b_relu
I0823 12:50:42.618034 16577 net.cpp:148] Top shape: 10 64 56 56 (2007040)
I0823 12:50:42.618062 16577 net.cpp:156] Memory required for data: 319119400
I0823 12:50:42.618089 16577 layer_factory.hpp:77] Creating layer res2a_branch2c
I0823 12:50:42.618134 16577 net.cpp:91] Creating Layer res2a_branch2c
I0823 12:50:42.618165 16577 net.cpp:425] res2a_branch2c <- res2a_branch2b
I0823 12:50:42.618206 16577 net.cpp:399] res2a_branch2c -> res2a_branch2c
I0823 12:50:42.618871 16577 net.cpp:141] Setting up res2a_branch2c
I0823 12:50:42.618955 16577 net.cpp:148] Top shape: 10 256 56 56 (8028160)
I0823 12:50:42.618988 16577 net.cpp:156] Memory required for data: 351232040
I0823 12:50:42.619021 16577 layer_factory.hpp:77] Creating layer bn2a_branch2c
I0823 12:50:42.619056 16577 net.cpp:91] Creating Layer bn2a_branch2c
I0823 12:50:42.619086 16577 net.cpp:425] bn2a_branch2c <- res2a_branch2c
I0823 12:50:42.619117 16577 net.cpp:386] bn2a_branch2c -> res2a_branch2c (in-place)
I0823 12:50:42.619519 16577 net.cpp:141] Setting up bn2a_branch2c
I0823 12:50:42.619570 16577 net.cpp:148] Top shape: 10 256 56 56 (8028160)
I0823 12:50:42.619599 16577 net.cpp:156] Memory required for data: 383344680
I0823 12:50:42.619639 16577 layer_factory.hpp:77] Creating layer scale2a_branch2c
I0823 12:50:42.619675 16577 net.cpp:91] Creating Layer scale2a_branch2c
I0823 12:50:42.619705 16577 net.cpp:425] scale2a_branch2c <- res2a_branch2c
I0823 12:50:42.619738 16577 net.cpp:386] scale2a_branch2c -> res2a_branch2c (in-place)
I0823 12:50:42.619860 16577 layer_factory.hpp:77] Creating layer scale2a_branch2c
I0823 12:50:42.620131 16577 net.cpp:141] Setting up scale2a_branch2c
I0823 12:50:42.620179 16577 net.cpp:148] Top shape: 10 256 56 56 (8028160)
I0823 12:50:42.620209 16577 net.cpp:156] Memory required for data: 415457320
I0823 12:50:42.620246 16577 layer_factory.hpp:77] Creating layer res2a
I0823 12:50:42.620291 16577 net.cpp:91] Creating Layer res2a
I0823 12:50:42.620322 16577 net.cpp:425] res2a <- res2a_branch1
I0823 12:50:42.620353 16577 net.cpp:425] res2a <- res2a_branch2c
I0823 12:50:42.620394 16577 net.cpp:399] res2a -> res2a
I0823 12:50:42.620486 16577 net.cpp:141] Setting up res2a
I0823 12:50:42.620529 16577 net.cpp:148] Top shape: 10 256 56 56 (8028160)
I0823 12:50:42.620558 16577 net.cpp:156] Memory required for data: 447569960
I0823 12:50:42.620586 16577 layer_factory.hpp:77] Creating layer res2a_relu
I0823 12:50:42.620642 16577 net.cpp:91] Creating Layer res2a_relu
I0823 12:50:42.620676 16577 net.cpp:425] res2a_relu <- res2a
I0823 12:50:42.620741 16577 net.cpp:386] res2a_relu -> res2a (in-place)
I0823 12:50:42.620777 16577 net.cpp:141] Setting up res2a_relu
I0823 12:50:42.620800 16577 net.cpp:148] Top shape: 10 256 56 56 (8028160)
I0823 12:50:42.620815 16577 net.cpp:156] Memory required for data: 479682600
I0823 12:50:42.620832 16577 layer_factory.hpp:77] Creating layer res2a_res2a_relu_0_split
I0823 12:50:42.620854 16577 net.cpp:91] Creating Layer res2a_res2a_relu_0_split
I0823 12:50:42.620870 16577 net.cpp:425] res2a_res2a_relu_0_split <- res2a
I0823 12:50:42.620890 16577 net.cpp:399] res2a_res2a_relu_0_split -> res2a_res2a_relu_0_split_0
I0823 12:50:42.620914 16577 net.cpp:399] res2a_res2a_relu_0_split -> res2a_res2a_relu_0_split_1
I0823 12:50:42.621011 16577 net.cpp:141] Setting up res2a_res2a_relu_0_split
I0823 12:50:42.621039 16577 net.cpp:148] Top shape: 10 256 56 56 (8028160)
I0823 12:50:42.621058 16577 net.cpp:148] Top shape: 10 256 56 56 (8028160)
I0823 12:50:42.621074 16577 net.cpp:156] Memory required for data: 543907880
I0823 12:50:42.621090 16577 layer_factory.hpp:77] Creating layer res2b_branch2a
I0823 12:50:42.621124 16577 net.cpp:91] Creating Layer res2b_branch2a
I0823 12:50:42.621145 16577 net.cpp:425] res2b_branch2a <- res2a_res2a_relu_0_split_0
I0823 12:50:42.621167 16577 net.cpp:399] res2b_branch2a -> res2b_branch2a
I0823 12:50:42.621841 16577 net.cpp:141] Setting up res2b_branch2a
I0823 12:50:42.621879 16577 net.cpp:148] Top shape: 10 64 56 56 (2007040)
I0823 12:50:42.621896 16577 net.cpp:156] Memory required for data: 551936040
I0823 12:50:42.621917 16577 layer_factory.hpp:77] Creating layer bn2b_branch2a
I0823 12:50:42.621942 16577 net.cpp:91] Creating Layer bn2b_branch2a
I0823 12:50:42.621958 16577 net.cpp:425] bn2b_branch2a <- res2b_branch2a
I0823 12:50:42.621978 16577 net.cpp:386] bn2b_branch2a -> res2b_branch2a (in-place)
I0823 12:50:42.622370 16577 net.cpp:141] Setting up bn2b_branch2a
I0823 12:50:42.622404 16577 net.cpp:148] Top shape: 10 64 56 56 (2007040)
I0823 12:50:42.622421 16577 net.cpp:156] Memory required for data: 559964200
I0823 12:50:42.622495 16577 layer_factory.hpp:77] Creating layer scale2b_branch2a
I0823 12:50:42.622524 16577 net.cpp:91] Creating Layer scale2b_branch2a
I0823 12:50:42.622541 16577 net.cpp:425] scale2b_branch2a <- res2b_branch2a
I0823 12:50:42.622568 16577 net.cpp:386] scale2b_branch2a -> res2b_branch2a (in-place)
I0823 12:50:42.622678 16577 layer_factory.hpp:77] Creating layer scale2b_branch2a
I0823 12:50:42.622957 16577 net.cpp:141] Setting up scale2b_branch2a
I0823 12:50:42.622987 16577 net.cpp:148] Top shape: 10 64 56 56 (2007040)
I0823 12:50:42.623003 16577 net.cpp:156] Memory required for data: 567992360
I0823 12:50:42.623028 16577 layer_factory.hpp:77] Creating layer res2b_branch2a_relu
I0823 12:50:42.623049 16577 net.cpp:91] Creating Layer res2b_branch2a_relu
I0823 12:50:42.623066 16577 net.cpp:425] res2b_branch2a_relu <- res2b_branch2a
I0823 12:50:42.623091 16577 net.cpp:386] res2b_branch2a_relu -> res2b_branch2a (in-place)
I0823 12:50:42.623116 16577 net.cpp:141] Setting up res2b_branch2a_relu
I0823 12:50:42.623136 16577 net.cpp:148] Top shape: 10 64 56 56 (2007040)
I0823 12:50:42.623152 16577 net.cpp:156] Memory required for data: 576020520
I0823 12:50:42.623168 16577 layer_factory.hpp:77] Creating layer res2b_branch2b
I0823 12:50:42.623194 16577 net.cpp:91] Creating Layer res2b_branch2b
I0823 12:50:42.623211 16577 net.cpp:425] res2b_branch2b <- res2b_branch2a
I0823 12:50:42.623234 16577 net.cpp:399] res2b_branch2b -> res2b_branch2b
I0823 12:50:42.624225 16577 net.cpp:141] Setting up res2b_branch2b
I0823 12:50:42.624258 16577 net.cpp:148] Top shape: 10 64 56 56 (2007040)
I0823 12:50:42.624275 16577 net.cpp:156] Memory required for data: 584048680
I0823 12:50:42.624295 16577 layer_factory.hpp:77] Creating layer bn2b_branch2b
I0823 12:50:42.624320 16577 net.cpp:91] Creating Layer bn2b_branch2b
I0823 12:50:42.624336 16577 net.cpp:425] bn2b_branch2b <- res2b_branch2b
I0823 12:50:42.624361 16577 net.cpp:386] bn2b_branch2b -> res2b_branch2b (in-place)
I0823 12:50:42.625723 16577 net.cpp:141] Setting up bn2b_branch2b
I0823 12:50:42.625798 16577 net.cpp:148] Top shape: 10 64 56 56 (2007040)
I0823 12:50:42.625830 16577 net.cpp:156] Memory required for data: 592076840
I0823 12:50:42.625875 16577 layer_factory.hpp:77] Creating layer scale2b_branch2b
I0823 12:50:42.625916 16577 net.cpp:91] Creating Layer scale2b_branch2b
I0823 12:50:42.625946 16577 net.cpp:425] scale2b_branch2b <- res2b_branch2b
I0823 12:50:42.625988 16577 net.cpp:386] scale2b_branch2b -> res2b_branch2b (in-place)
I0823 12:50:42.626106 16577 layer_factory.hpp:77] Creating layer scale2b_branch2b
I0823 12:50:42.626400 16577 net.cpp:141] Setting up scale2b_branch2b
I0823 12:50:42.626446 16577 net.cpp:148] Top shape: 10 64 56 56 (2007040)
I0823 12:50:42.626477 16577 net.cpp:156] Memory required for data: 600105000
I0823 12:50:42.626513 16577 layer_factory.hpp:77] Creating layer res2b_branch2b_relu
I0823 12:50:42.626549 16577 net.cpp:91] Creating Layer res2b_branch2b_relu
I0823 12:50:42.626579 16577 net.cpp:425] res2b_branch2b_relu <- res2b_branch2b
I0823 12:50:42.626616 16577 net.cpp:386] res2b_branch2b_relu -> res2b_branch2b (in-place)
I0823 12:50:42.626653 16577 net.cpp:141] Setting up res2b_branch2b_relu
I0823 12:50:42.626688 16577 net.cpp:148] Top shape: 10 64 56 56 (2007040)
I0823 12:50:42.626715 16577 net.cpp:156] Memory required for data: 608133160
I0823 12:50:42.626744 16577 layer_factory.hpp:77] Creating layer res2b_branch2c
I0823 12:50:42.626796 16577 net.cpp:91] Creating Layer res2b_branch2c
I0823 12:50:42.626828 16577 net.cpp:425] res2b_branch2c <- res2b_branch2b
I0823 12:50:42.626879 16577 net.cpp:399] res2b_branch2c -> res2b_branch2c
I0823 12:50:42.627557 16577 net.cpp:141] Setting up res2b_branch2c
I0823 12:50:42.627606 16577 net.cpp:148] Top shape: 10 256 56 56 (8028160)
I0823 12:50:42.627636 16577 net.cpp:156] Memory required for data: 640245800
I0823 12:50:42.627668 16577 layer_factory.hpp:77] Creating layer bn2b_branch2c
I0823 12:50:42.627717 16577 net.cpp:91] Creating Layer bn2b_branch2c
I0823 12:50:42.627748 16577 net.cpp:425] bn2b_branch2c <- res2b_branch2c
I0823 12:50:42.627823 16577 net.cpp:386] bn2b_branch2c -> res2b_branch2c (in-place)
I0823 12:50:42.628222 16577 net.cpp:141] Setting up bn2b_branch2c
I0823 12:50:42.628273 16577 net.cpp:148] Top shape: 10 256 56 56 (8028160)
I0823 12:50:42.628303 16577 net.cpp:156] Memory required for data: 672358440
I0823 12:50:42.628345 16577 layer_factory.hpp:77] Creating layer scale2b_branch2c
I0823 12:50:42.628381 16577 net.cpp:91] Creating Layer scale2b_branch2c
I0823 12:50:42.628412 16577 net.cpp:425] scale2b_branch2c <- res2b_branch2c
I0823 12:50:42.628450 16577 net.cpp:386] scale2b_branch2c -> res2b_branch2c (in-place)
I0823 12:50:42.628562 16577 layer_factory.hpp:77] Creating layer scale2b_branch2c
I0823 12:50:42.628855 16577 net.cpp:141] Setting up scale2b_branch2c
I0823 12:50:42.628912 16577 net.cpp:148] Top shape: 10 256 56 56 (8028160)
I0823 12:50:42.628943 16577 net.cpp:156] Memory required for data: 704471080
I0823 12:50:42.628980 16577 layer_factory.hpp:77] Creating layer res2b
I0823 12:50:42.629016 16577 net.cpp:91] Creating Layer res2b
I0823 12:50:42.629046 16577 net.cpp:425] res2b <- res2a_res2a_relu_0_split_1
I0823 12:50:42.629077 16577 net.cpp:425] res2b <- res2b_branch2c
I0823 12:50:42.629110 16577 net.cpp:399] res2b -> res2b
I0823 12:50:42.629199 16577 net.cpp:141] Setting up res2b
I0823 12:50:42.629250 16577 net.cpp:148] Top shape: 10 256 56 56 (8028160)
I0823 12:50:42.629278 16577 net.cpp:156] Memory required for data: 736583720
I0823 12:50:42.629307 16577 layer_factory.hpp:77] Creating layer res2b_relu
I0823 12:50:42.629340 16577 net.cpp:91] Creating Layer res2b_relu
I0823 12:50:42.629371 16577 net.cpp:425] res2b_relu <- res2b
I0823 12:50:42.629403 16577 net.cpp:386] res2b_relu -> res2b (in-place)
I0823 12:50:42.629441 16577 net.cpp:141] Setting up res2b_relu
I0823 12:50:42.629474 16577 net.cpp:148] Top shape: 10 256 56 56 (8028160)
I0823 12:50:42.629503 16577 net.cpp:156] Memory required for data: 768696360
I0823 12:50:42.629530 16577 layer_factory.hpp:77] Creating layer res2b_res2b_relu_0_split
I0823 12:50:42.629562 16577 net.cpp:91] Creating Layer res2b_res2b_relu_0_split
I0823 12:50:42.629590 16577 net.cpp:425] res2b_res2b_relu_0_split <- res2b
I0823 12:50:42.629627 16577 net.cpp:399] res2b_res2b_relu_0_split -> res2b_res2b_relu_0_split_0
I0823 12:50:42.629665 16577 net.cpp:399] res2b_res2b_relu_0_split -> res2b_res2b_relu_0_split_1
I0823 12:50:42.629770 16577 net.cpp:141] Setting up res2b_res2b_relu_0_split
I0823 12:50:42.629812 16577 net.cpp:148] Top shape: 10 256 56 56 (8028160)
I0823 12:50:42.629844 16577 net.cpp:148] Top shape: 10 256 56 56 (8028160)
I0823 12:50:42.629873 16577 net.cpp:156] Memory required for data: 832921640
I0823 12:50:42.629900 16577 layer_factory.hpp:77] Creating layer res2c_branch2a
I0823 12:50:42.629947 16577 net.cpp:91] Creating Layer res2c_branch2a
I0823 12:50:42.629981 16577 net.cpp:425] res2c_branch2a <- res2b_res2b_relu_0_split_0
I0823 12:50:42.630017 16577 net.cpp:399] res2c_branch2a -> res2c_branch2a
I0823 12:50:42.630690 16577 net.cpp:141] Setting up res2c_branch2a
I0823 12:50:42.630741 16577 net.cpp:148] Top shape: 10 64 56 56 (2007040)
I0823 12:50:42.630770 16577 net.cpp:156] Memory required for data: 840949800
I0823 12:50:42.630805 16577 layer_factory.hpp:77] Creating layer bn2c_branch2a
I0823 12:50:42.630841 16577 net.cpp:91] Creating Layer bn2c_branch2a
I0823 12:50:42.630872 16577 net.cpp:425] bn2c_branch2a <- res2c_branch2a
I0823 12:50:42.630909 16577 net.cpp:386] bn2c_branch2a -> res2c_branch2a (in-place)
I0823 12:50:42.631333 16577 net.cpp:141] Setting up bn2c_branch2a
I0823 12:50:42.631382 16577 net.cpp:148] Top shape: 10 64 56 56 (2007040)
I0823 12:50:42.631412 16577 net.cpp:156] Memory required for data: 848977960
I0823 12:50:42.631453 16577 layer_factory.hpp:77] Creating layer scale2c_branch2a
I0823 12:50:42.631490 16577 net.cpp:91] Creating Layer scale2c_branch2a
I0823 12:50:42.631520 16577 net.cpp:425] scale2c_branch2a <- res2c_branch2a
I0823 12:50:42.631559 16577 net.cpp:386] scale2c_branch2a -> res2c_branch2a (in-place)
I0823 12:50:42.631707 16577 layer_factory.hpp:77] Creating layer scale2c_branch2a
I0823 12:50:42.632020 16577 net.cpp:141] Setting up scale2c_branch2a
I0823 12:50:42.632071 16577 net.cpp:148] Top shape: 10 64 56 56 (2007040)
I0823 12:50:42.632099 16577 net.cpp:156] Memory required for data: 857006120
I0823 12:50:42.632138 16577 layer_factory.hpp:77] Creating layer res2c_branch2a_relu
I0823 12:50:42.632174 16577 net.cpp:91] Creating Layer res2c_branch2a_relu
I0823 12:50:42.632202 16577 net.cpp:425] res2c_branch2a_relu <- res2c_branch2a
I0823 12:50:42.632239 16577 net.cpp:386] res2c_branch2a_relu -> res2c_branch2a (in-place)
I0823 12:50:42.632277 16577 net.cpp:141] Setting up res2c_branch2a_relu
I0823 12:50:42.632309 16577 net.cpp:148] Top shape: 10 64 56 56 (2007040)
I0823 12:50:42.632339 16577 net.cpp:156] Memory required for data: 865034280
I0823 12:50:42.632366 16577 layer_factory.hpp:77] Creating layer res2c_branch2b
I0823 12:50:42.632411 16577 net.cpp:91] Creating Layer res2c_branch2b
I0823 12:50:42.632442 16577 net.cpp:425] res2c_branch2b <- res2c_branch2a
I0823 12:50:42.632477 16577 net.cpp:399] res2c_branch2b -> res2c_branch2b
I0823 12:50:42.633519 16577 net.cpp:141] Setting up res2c_branch2b
I0823 12:50:42.633572 16577 net.cpp:148] Top shape: 10 64 56 56 (2007040)
I0823 12:50:42.633601 16577 net.cpp:156] Memory required for data: 873062440
I0823 12:50:42.633635 16577 layer_factory.hpp:77] Creating layer bn2c_branch2b
I0823 12:50:42.633671 16577 net.cpp:91] Creating Layer bn2c_branch2b
I0823 12:50:42.633699 16577 net.cpp:425] bn2c_branch2b <- res2c_branch2b
I0823 12:50:42.633738 16577 net.cpp:386] bn2c_branch2b -> res2c_branch2b (in-place)
I0823 12:50:42.634153 16577 net.cpp:141] Setting up bn2c_branch2b
I0823 12:50:42.634203 16577 net.cpp:148] Top shape: 10 64 56 56 (2007040)
I0823 12:50:42.634232 16577 net.cpp:156] Memory required for data: 881090600
I0823 12:50:42.634274 16577 layer_factory.hpp:77] Creating layer scale2c_branch2b
I0823 12:50:42.634310 16577 net.cpp:91] Creating Layer scale2c_branch2b
I0823 12:50:42.634340 16577 net.cpp:425] scale2c_branch2b <- res2c_branch2b
I0823 12:50:42.634377 16577 net.cpp:386] scale2c_branch2b -> res2c_branch2b (in-place)
I0823 12:50:42.634491 16577 layer_factory.hpp:77] Creating layer scale2c_branch2b
I0823 12:50:42.634785 16577 net.cpp:141] Setting up scale2c_branch2b
I0823 12:50:42.634835 16577 net.cpp:148] Top shape: 10 64 56 56 (2007040)
I0823 12:50:42.634865 16577 net.cpp:156] Memory required for data: 889118760
I0823 12:50:42.634902 16577 layer_factory.hpp:77] Creating layer res2c_branch2b_relu
I0823 12:50:42.634968 16577 net.cpp:91] Creating Layer res2c_branch2b_relu
I0823 12:50:42.634999 16577 net.cpp:425] res2c_branch2b_relu <- res2c_branch2b
I0823 12:50:42.635037 16577 net.cpp:386] res2c_branch2b_relu -> res2c_branch2b (in-place)
I0823 12:50:42.635076 16577 net.cpp:141] Setting up res2c_branch2b_relu
I0823 12:50:42.635110 16577 net.cpp:148] Top shape: 10 64 56 56 (2007040)
I0823 12:50:42.635138 16577 net.cpp:156] Memory required for data: 897146920
I0823 12:50:42.635166 16577 layer_factory.hpp:77] Creating layer res2c_branch2c
I0823 12:50:42.635213 16577 net.cpp:91] Creating Layer res2c_branch2c
I0823 12:50:42.635244 16577 net.cpp:425] res2c_branch2c <- res2c_branch2b
I0823 12:50:42.635279 16577 net.cpp:399] res2c_branch2c -> res2c_branch2c
I0823 12:50:42.635957 16577 net.cpp:141] Setting up res2c_branch2c
I0823 12:50:42.636008 16577 net.cpp:148] Top shape: 10 256 56 56 (8028160)
I0823 12:50:42.636039 16577 net.cpp:156] Memory required for data: 929259560
I0823 12:50:42.636073 16577 layer_factory.hpp:77] Creating layer bn2c_branch2c
I0823 12:50:42.636109 16577 net.cpp:91] Creating Layer bn2c_branch2c
I0823 12:50:42.636138 16577 net.cpp:425] bn2c_branch2c <- res2c_branch2c
I0823 12:50:42.636175 16577 net.cpp:386] bn2c_branch2c -> res2c_branch2c (in-place)
I0823 12:50:42.636587 16577 net.cpp:141] Setting up bn2c_branch2c
I0823 12:50:42.636648 16577 net.cpp:148] Top shape: 10 256 56 56 (8028160)
I0823 12:50:42.636708 16577 net.cpp:156] Memory required for data: 961372200
I0823 12:50:42.636809 16577 layer_factory.hpp:77] Creating layer scale2c_branch2c
I0823 12:50:42.636857 16577 net.cpp:91] Creating Layer scale2c_branch2c
I0823 12:50:42.636888 16577 net.cpp:425] scale2c_branch2c <- res2c_branch2c
I0823 12:50:42.636922 16577 net.cpp:386] scale2c_branch2c -> res2c_branch2c (in-place)
I0823 12:50:42.637051 16577 layer_factory.hpp:77] Creating layer scale2c_branch2c
I0823 12:50:42.637336 16577 net.cpp:141] Setting up scale2c_branch2c
I0823 12:50:42.637384 16577 net.cpp:148] Top shape: 10 256 56 56 (8028160)
I0823 12:50:42.637413 16577 net.cpp:156] Memory required for data: 993484840
I0823 12:50:42.637451 16577 layer_factory.hpp:77] Creating layer res2c
I0823 12:50:42.637487 16577 net.cpp:91] Creating Layer res2c
I0823 12:50:42.637516 16577 net.cpp:425] res2c <- res2b_res2b_relu_0_split_1
I0823 12:50:42.637547 16577 net.cpp:425] res2c <- res2c_branch2c
I0823 12:50:42.637588 16577 net.cpp:399] res2c -> res2c
I0823 12:50:42.637665 16577 net.cpp:141] Setting up res2c
I0823 12:50:42.637707 16577 net.cpp:148] Top shape: 10 256 56 56 (8028160)
I0823 12:50:42.637735 16577 net.cpp:156] Memory required for data: 1025597480
I0823 12:50:42.637764 16577 layer_factory.hpp:77] Creating layer res2c_relu
I0823 12:50:42.637804 16577 net.cpp:91] Creating Layer res2c_relu
I0823 12:50:42.637833 16577 net.cpp:425] res2c_relu <- res2c
I0823 12:50:42.637866 16577 net.cpp:386] res2c_relu -> res2c (in-place)
I0823 12:50:42.637900 16577 net.cpp:141] Setting up res2c_relu
I0823 12:50:42.637933 16577 net.cpp:148] Top shape: 10 256 56 56 (8028160)
I0823 12:50:42.637961 16577 net.cpp:156] Memory required for data: 1057710120
I0823 12:50:42.637991 16577 layer_factory.hpp:77] Creating layer res2c_res2c_relu_0_split
I0823 12:50:42.638023 16577 net.cpp:91] Creating Layer res2c_res2c_relu_0_split
I0823 12:50:42.638051 16577 net.cpp:425] res2c_res2c_relu_0_split <- res2c
I0823 12:50:42.638082 16577 net.cpp:399] res2c_res2c_relu_0_split -> res2c_res2c_relu_0_split_0
I0823 12:50:42.638118 16577 net.cpp:399] res2c_res2c_relu_0_split -> res2c_res2c_relu_0_split_1
I0823 12:50:42.638221 16577 net.cpp:141] Setting up res2c_res2c_relu_0_split
I0823 12:50:42.638264 16577 net.cpp:148] Top shape: 10 256 56 56 (8028160)
I0823 12:50:42.638296 16577 net.cpp:148] Top shape: 10 256 56 56 (8028160)
I0823 12:50:42.638324 16577 net.cpp:156] Memory required for data: 1121935400
I0823 12:50:42.638351 16577 layer_factory.hpp:77] Creating layer res3a_branch1
I0823 12:50:42.638396 16577 net.cpp:91] Creating Layer res3a_branch1
I0823 12:50:42.638428 16577 net.cpp:425] res3a_branch1 <- res2c_res2c_relu_0_split_0
I0823 12:50:42.638464 16577 net.cpp:399] res3a_branch1 -> res3a_branch1
I0823 12:50:42.642194 16577 net.cpp:141] Setting up res3a_branch1
I0823 12:50:42.642256 16577 net.cpp:148] Top shape: 10 512 28 28 (4014080)
I0823 12:50:42.642285 16577 net.cpp:156] Memory required for data: 1137991720
I0823 12:50:42.642321 16577 layer_factory.hpp:77] Creating layer bn3a_branch1
I0823 12:50:42.642359 16577 net.cpp:91] Creating Layer bn3a_branch1
I0823 12:50:42.642388 16577 net.cpp:425] bn3a_branch1 <- res3a_branch1
I0823 12:50:42.642428 16577 net.cpp:386] bn3a_branch1 -> res3a_branch1 (in-place)
I0823 12:50:42.643939 16577 net.cpp:141] Setting up bn3a_branch1
I0823 12:50:42.643995 16577 net.cpp:148] Top shape: 10 512 28 28 (4014080)
I0823 12:50:42.644026 16577 net.cpp:156] Memory required for data: 1154048040
I0823 12:50:42.644068 16577 layer_factory.hpp:77] Creating layer scale3a_branch1
I0823 12:50:42.644105 16577 net.cpp:91] Creating Layer scale3a_branch1
I0823 12:50:42.644136 16577 net.cpp:425] scale3a_branch1 <- res3a_branch1
I0823 12:50:42.644177 16577 net.cpp:386] scale3a_branch1 -> res3a_branch1 (in-place)
I0823 12:50:42.644304 16577 layer_factory.hpp:77] Creating layer scale3a_branch1
I0823 12:50:42.644595 16577 net.cpp:141] Setting up scale3a_branch1
I0823 12:50:42.644700 16577 net.cpp:148] Top shape: 10 512 28 28 (4014080)
I0823 12:50:42.644731 16577 net.cpp:156] Memory required for data: 1170104360
I0823 12:50:42.644770 16577 layer_factory.hpp:77] Creating layer res3a_branch2a
I0823 12:50:42.644857 16577 net.cpp:91] Creating Layer res3a_branch2a
I0823 12:50:42.644893 16577 net.cpp:425] res3a_branch2a <- res2c_res2c_relu_0_split_1
I0823 12:50:42.644930 16577 net.cpp:399] res3a_branch2a -> res3a_branch2a
I0823 12:50:42.646359 16577 net.cpp:141] Setting up res3a_branch2a
I0823 12:50:42.646436 16577 net.cpp:148] Top shape: 10 128 28 28 (1003520)
I0823 12:50:42.646469 16577 net.cpp:156] Memory required for data: 1174118440
I0823 12:50:42.646507 16577 layer_factory.hpp:77] Creating layer bn3a_branch2a
I0823 12:50:42.646545 16577 net.cpp:91] Creating Layer bn3a_branch2a
I0823 12:50:42.646577 16577 net.cpp:425] bn3a_branch2a <- res3a_branch2a
I0823 12:50:42.646611 16577 net.cpp:386] bn3a_branch2a -> res3a_branch2a (in-place)
I0823 12:50:42.647025 16577 net.cpp:141] Setting up bn3a_branch2a
I0823 12:50:42.647076 16577 net.cpp:148] Top shape: 10 128 28 28 (1003520)
I0823 12:50:42.647106 16577 net.cpp:156] Memory required for data: 1178132520
I0823 12:50:42.647150 16577 layer_factory.hpp:77] Creating layer scale3a_branch2a
I0823 12:50:42.647195 16577 net.cpp:91] Creating Layer scale3a_branch2a
I0823 12:50:42.647228 16577 net.cpp:425] scale3a_branch2a <- res3a_branch2a
I0823 12:50:42.647261 16577 net.cpp:386] scale3a_branch2a -> res3a_branch2a (in-place)
I0823 12:50:42.647382 16577 layer_factory.hpp:77] Creating layer scale3a_branch2a
I0823 12:50:42.647655 16577 net.cpp:141] Setting up scale3a_branch2a
I0823 12:50:42.647704 16577 net.cpp:148] Top shape: 10 128 28 28 (1003520)
I0823 12:50:42.647733 16577 net.cpp:156] Memory required for data: 1182146600
I0823 12:50:42.647771 16577 layer_factory.hpp:77] Creating layer res3a_branch2a_relu
I0823 12:50:42.647806 16577 net.cpp:91] Creating Layer res3a_branch2a_relu
I0823 12:50:42.647837 16577 net.cpp:425] res3a_branch2a_relu <- res3a_branch2a
I0823 12:50:42.647876 16577 net.cpp:386] res3a_branch2a_relu -> res3a_branch2a (in-place)
I0823 12:50:42.647914 16577 net.cpp:141] Setting up res3a_branch2a_relu
I0823 12:50:42.647948 16577 net.cpp:148] Top shape: 10 128 28 28 (1003520)
I0823 12:50:42.647977 16577 net.cpp:156] Memory required for data: 1186160680
I0823 12:50:42.648005 16577 layer_factory.hpp:77] Creating layer res3a_branch2b
I0823 12:50:42.648051 16577 net.cpp:91] Creating Layer res3a_branch2b
I0823 12:50:42.648082 16577 net.cpp:425] res3a_branch2b <- res3a_branch2a
I0823 12:50:42.648118 16577 net.cpp:399] res3a_branch2b -> res3a_branch2b
I0823 12:50:42.652081 16577 net.cpp:141] Setting up res3a_branch2b
I0823 12:50:42.652143 16577 net.cpp:148] Top shape: 10 128 28 28 (1003520)
I0823 12:50:42.652174 16577 net.cpp:156] Memory required for data: 1190174760
I0823 12:50:42.652209 16577 layer_factory.hpp:77] Creating layer bn3a_branch2b
I0823 12:50:42.652252 16577 net.cpp:91] Creating Layer bn3a_branch2b
I0823 12:50:42.652284 16577 net.cpp:425] bn3a_branch2b <- res3a_branch2b
I0823 12:50:42.652318 16577 net.cpp:386] bn3a_branch2b -> res3a_branch2b (in-place)
I0823 12:50:42.652746 16577 net.cpp:141] Setting up bn3a_branch2b
I0823 12:50:42.652796 16577 net.cpp:148] Top shape: 10 128 28 28 (1003520)
I0823 12:50:42.652827 16577 net.cpp:156] Memory required for data: 1194188840
I0823 12:50:42.652868 16577 layer_factory.hpp:77] Creating layer scale3a_branch2b
I0823 12:50:42.652911 16577 net.cpp:91] Creating Layer scale3a_branch2b
I0823 12:50:42.652942 16577 net.cpp:425] scale3a_branch2b <- res3a_branch2b
I0823 12:50:42.652976 16577 net.cpp:386] scale3a_branch2b -> res3a_branch2b (in-place)
I0823 12:50:42.653100 16577 layer_factory.hpp:77] Creating layer scale3a_branch2b
I0823 12:50:42.653385 16577 net.cpp:141] Setting up scale3a_branch2b
I0823 12:50:42.653434 16577 net.cpp:148] Top shape: 10 128 28 28 (1003520)
I0823 12:50:42.653463 16577 net.cpp:156] Memory required for data: 1198202920
I0823 12:50:42.653501 16577 layer_factory.hpp:77] Creating layer res3a_branch2b_relu
I0823 12:50:42.653535 16577 net.cpp:91] Creating Layer res3a_branch2b_relu
I0823 12:50:42.653564 16577 net.cpp:425] res3a_branch2b_relu <- res3a_branch2b
I0823 12:50:42.653640 16577 net.cpp:386] res3a_branch2b_relu -> res3a_branch2b (in-place)
I0823 12:50:42.653679 16577 net.cpp:141] Setting up res3a_branch2b_relu
I0823 12:50:42.653713 16577 net.cpp:148] Top shape: 10 128 28 28 (1003520)
I0823 12:50:42.653743 16577 net.cpp:156] Memory required for data: 1202217000
I0823 12:50:42.653770 16577 layer_factory.hpp:77] Creating layer res3a_branch2c
I0823 12:50:42.653816 16577 net.cpp:91] Creating Layer res3a_branch2c
I0823 12:50:42.653849 16577 net.cpp:425] res3a_branch2c <- res3a_branch2b
I0823 12:50:42.653890 16577 net.cpp:399] res3a_branch2c -> res3a_branch2c
I0823 12:50:42.655421 16577 net.cpp:141] Setting up res3a_branch2c
I0823 12:50:42.655473 16577 net.cpp:148] Top shape: 10 512 28 28 (4014080)
I0823 12:50:42.655503 16577 net.cpp:156] Memory required for data: 1218273320
I0823 12:50:42.655537 16577 layer_factory.hpp:77] Creating layer bn3a_branch2c
I0823 12:50:42.655594 16577 net.cpp:91] Creating Layer bn3a_branch2c
I0823 12:50:42.655627 16577 net.cpp:425] bn3a_branch2c <- res3a_branch2c
I0823 12:50:42.655661 16577 net.cpp:386] bn3a_branch2c -> res3a_branch2c (in-place)
I0823 12:50:42.656069 16577 net.cpp:141] Setting up bn3a_branch2c
I0823 12:50:42.656118 16577 net.cpp:148] Top shape: 10 512 28 28 (4014080)
I0823 12:50:42.656148 16577 net.cpp:156] Memory required for data: 1234329640
I0823 12:50:42.656190 16577 layer_factory.hpp:77] Creating layer scale3a_branch2c
I0823 12:50:42.656229 16577 net.cpp:91] Creating Layer scale3a_branch2c
I0823 12:50:42.656258 16577 net.cpp:425] scale3a_branch2c <- res3a_branch2c
I0823 12:50:42.656296 16577 net.cpp:386] scale3a_branch2c -> res3a_branch2c (in-place)
I0823 12:50:42.656412 16577 layer_factory.hpp:77] Creating layer scale3a_branch2c
I0823 12:50:42.656697 16577 net.cpp:141] Setting up scale3a_branch2c
I0823 12:50:42.656754 16577 net.cpp:148] Top shape: 10 512 28 28 (4014080)
I0823 12:50:42.656785 16577 net.cpp:156] Memory required for data: 1250385960
I0823 12:50:42.656821 16577 layer_factory.hpp:77] Creating layer res3a
I0823 12:50:42.656857 16577 net.cpp:91] Creating Layer res3a
I0823 12:50:42.656886 16577 net.cpp:425] res3a <- res3a_branch1
I0823 12:50:42.656916 16577 net.cpp:425] res3a <- res3a_branch2c
I0823 12:50:42.656949 16577 net.cpp:399] res3a -> res3a
I0823 12:50:42.657033 16577 net.cpp:141] Setting up res3a
I0823 12:50:42.657078 16577 net.cpp:148] Top shape: 10 512 28 28 (4014080)
I0823 12:50:42.657107 16577 net.cpp:156] Memory required for data: 1266442280
I0823 12:50:42.657135 16577 layer_factory.hpp:77] Creating layer res3a_relu
I0823 12:50:42.657172 16577 net.cpp:91] Creating Layer res3a_relu
I0823 12:50:42.657203 16577 net.cpp:425] res3a_relu <- res3a
I0823 12:50:42.657235 16577 net.cpp:386] res3a_relu -> res3a (in-place)
I0823 12:50:42.657271 16577 net.cpp:141] Setting up res3a_relu
I0823 12:50:42.657305 16577 net.cpp:148] Top shape: 10 512 28 28 (4014080)
I0823 12:50:42.657331 16577 net.cpp:156] Memory required for data: 1282498600
I0823 12:50:42.657359 16577 layer_factory.hpp:77] Creating layer res3a_res3a_relu_0_split
I0823 12:50:42.657392 16577 net.cpp:91] Creating Layer res3a_res3a_relu_0_split
I0823 12:50:42.657419 16577 net.cpp:425] res3a_res3a_relu_0_split <- res3a
I0823 12:50:42.657450 16577 net.cpp:399] res3a_res3a_relu_0_split -> res3a_res3a_relu_0_split_0
I0823 12:50:42.657492 16577 net.cpp:399] res3a_res3a_relu_0_split -> res3a_res3a_relu_0_split_1
I0823 12:50:42.657590 16577 net.cpp:141] Setting up res3a_res3a_relu_0_split
I0823 12:50:42.657632 16577 net.cpp:148] Top shape: 10 512 28 28 (4014080)
I0823 12:50:42.657665 16577 net.cpp:148] Top shape: 10 512 28 28 (4014080)
I0823 12:50:42.657693 16577 net.cpp:156] Memory required for data: 1314611240
I0823 12:50:42.657721 16577 layer_factory.hpp:77] Creating layer res3b_branch2a
I0823 12:50:42.657768 16577 net.cpp:91] Creating Layer res3b_branch2a
I0823 12:50:42.657800 16577 net.cpp:425] res3b_branch2a <- res3a_res3a_relu_0_split_0
I0823 12:50:42.657836 16577 net.cpp:399] res3b_branch2a -> res3b_branch2a
I0823 12:50:42.660403 16577 net.cpp:141] Setting up res3b_branch2a
I0823 12:50:42.660500 16577 net.cpp:148] Top shape: 10 128 28 28 (1003520)
I0823 12:50:42.660532 16577 net.cpp:156] Memory required for data: 1318625320
I0823 12:50:42.660568 16577 layer_factory.hpp:77] Creating layer bn3b_branch2a
I0823 12:50:42.660620 16577 net.cpp:91] Creating Layer bn3b_branch2a
I0823 12:50:42.660653 16577 net.cpp:425] bn3b_branch2a <- res3b_branch2a
I0823 12:50:42.660691 16577 net.cpp:386] bn3b_branch2a -> res3b_branch2a (in-place)
I0823 12:50:42.661099 16577 net.cpp:141] Setting up bn3b_branch2a
I0823 12:50:42.661149 16577 net.cpp:148] Top shape: 10 128 28 28 (1003520)
I0823 12:50:42.661180 16577 net.cpp:156] Memory required for data: 1322639400
I0823 12:50:42.661222 16577 layer_factory.hpp:77] Creating layer scale3b_branch2a
I0823 12:50:42.661274 16577 net.cpp:91] Creating Layer scale3b_branch2a
I0823 12:50:42.661305 16577 net.cpp:425] scale3b_branch2a <- res3b_branch2a
I0823 12:50:42.661339 16577 net.cpp:386] scale3b_branch2a -> res3b_branch2a (in-place)
I0823 12:50:42.661460 16577 layer_factory.hpp:77] Creating layer scale3b_branch2a
I0823 12:50:42.661782 16577 net.cpp:141] Setting up scale3b_branch2a
I0823 12:50:42.661831 16577 net.cpp:148] Top shape: 10 128 28 28 (1003520)
I0823 12:50:42.661860 16577 net.cpp:156] Memory required for data: 1326653480
I0823 12:50:42.661900 16577 layer_factory.hpp:77] Creating layer res3b_branch2a_relu
I0823 12:50:42.661936 16577 net.cpp:91] Creating Layer res3b_branch2a_relu
I0823 12:50:42.661965 16577 net.cpp:425] res3b_branch2a_relu <- res3b_branch2a
I0823 12:50:42.662012 16577 net.cpp:386] res3b_branch2a_relu -> res3b_branch2a (in-place)
I0823 12:50:42.662050 16577 net.cpp:141] Setting up res3b_branch2a_relu
I0823 12:50:42.662084 16577 net.cpp:148] Top shape: 10 128 28 28 (1003520)
I0823 12:50:42.662112 16577 net.cpp:156] Memory required for data: 1330667560
I0823 12:50:42.662140 16577 layer_factory.hpp:77] Creating layer res3b_branch2b
I0823 12:50:42.662185 16577 net.cpp:91] Creating Layer res3b_branch2b
I0823 12:50:42.662216 16577 net.cpp:425] res3b_branch2b <- res3b_branch2a
I0823 12:50:42.662252 16577 net.cpp:399] res3b_branch2b -> res3b_branch2b
I0823 12:50:42.666188 16577 net.cpp:141] Setting up res3b_branch2b
I0823 12:50:42.666247 16577 net.cpp:148] Top shape: 10 128 28 28 (1003520)
I0823 12:50:42.666277 16577 net.cpp:156] Memory required for data: 1334681640
I0823 12:50:42.666311 16577 layer_factory.hpp:77] Creating layer bn3b_branch2b
I0823 12:50:42.666349 16577 net.cpp:91] Creating Layer bn3b_branch2b
I0823 12:50:42.666380 16577 net.cpp:425] bn3b_branch2b <- res3b_branch2b
I0823 12:50:42.666412 16577 net.cpp:386] bn3b_branch2b -> res3b_branch2b (in-place)
I0823 12:50:42.666834 16577 net.cpp:141] Setting up bn3b_branch2b
I0823 12:50:42.666884 16577 net.cpp:148] Top shape: 10 128 28 28 (1003520)
I0823 12:50:42.666914 16577 net.cpp:156] Memory required for data: 1338695720
I0823 12:50:42.666954 16577 layer_factory.hpp:77] Creating layer scale3b_branch2b
I0823 12:50:42.667001 16577 net.cpp:91] Creating Layer scale3b_branch2b
I0823 12:50:42.667033 16577 net.cpp:425] scale3b_branch2b <- res3b_branch2b
I0823 12:50:42.667067 16577 net.cpp:386] scale3b_branch2b -> res3b_branch2b (in-place)
I0823 12:50:42.667191 16577 layer_factory.hpp:77] Creating layer scale3b_branch2b
I0823 12:50:42.667470 16577 net.cpp:141] Setting up scale3b_branch2b
I0823 12:50:42.667518 16577 net.cpp:148] Top shape: 10 128 28 28 (1003520)
I0823 12:50:42.667548 16577 net.cpp:156] Memory required for data: 1342709800
I0823 12:50:42.667584 16577 layer_factory.hpp:77] Creating layer res3b_branch2b_relu
I0823 12:50:42.667619 16577 net.cpp:91] Creating Layer res3b_branch2b_relu
I0823 12:50:42.667650 16577 net.cpp:425] res3b_branch2b_relu <- res3b_branch2b
I0823 12:50:42.667687 16577 net.cpp:386] res3b_branch2b_relu -> res3b_branch2b (in-place)
I0823 12:50:42.667724 16577 net.cpp:141] Setting up res3b_branch2b_relu
I0823 12:50:42.667758 16577 net.cpp:148] Top shape: 10 128 28 28 (1003520)
I0823 12:50:42.667788 16577 net.cpp:156] Memory required for data: 1346723880
I0823 12:50:42.667853 16577 layer_factory.hpp:77] Creating layer res3b_branch2c
I0823 12:50:42.667902 16577 net.cpp:91] Creating Layer res3b_branch2c
I0823 12:50:42.667935 16577 net.cpp:425] res3b_branch2c <- res3b_branch2b
I0823 12:50:42.667971 16577 net.cpp:399] res3b_branch2c -> res3b_branch2c
I0823 12:50:42.669492 16577 net.cpp:141] Setting up res3b_branch2c
I0823 12:50:42.669545 16577 net.cpp:148] Top shape: 10 512 28 28 (4014080)
I0823 12:50:42.669576 16577 net.cpp:156] Memory required for data: 1362780200
I0823 12:50:42.669610 16577 layer_factory.hpp:77] Creating layer bn3b_branch2c
I0823 12:50:42.669646 16577 net.cpp:91] Creating Layer bn3b_branch2c
I0823 12:50:42.669675 16577 net.cpp:425] bn3b_branch2c <- res3b_branch2c
I0823 12:50:42.669713 16577 net.cpp:386] bn3b_branch2c -> res3b_branch2c (in-place)
I0823 12:50:42.670148 16577 net.cpp:141] Setting up bn3b_branch2c
I0823 12:50:42.670197 16577 net.cpp:148] Top shape: 10 512 28 28 (4014080)
I0823 12:50:42.670228 16577 net.cpp:156] Memory required for data: 1378836520
I0823 12:50:42.670267 16577 layer_factory.hpp:77] Creating layer scale3b_branch2c
I0823 12:50:42.670305 16577 net.cpp:91] Creating Layer scale3b_branch2c
I0823 12:50:42.670334 16577 net.cpp:425] scale3b_branch2c <- res3b_branch2c
I0823 12:50:42.670367 16577 net.cpp:386] scale3b_branch2c -> res3b_branch2c (in-place)
I0823 12:50:42.670490 16577 layer_factory.hpp:77] Creating layer scale3b_branch2c
I0823 12:50:42.670769 16577 net.cpp:141] Setting up scale3b_branch2c
I0823 12:50:42.670817 16577 net.cpp:148] Top shape: 10 512 28 28 (4014080)
I0823 12:50:42.670846 16577 net.cpp:156] Memory required for data: 1394892840
I0823 12:50:42.670883 16577 layer_factory.hpp:77] Creating layer res3b
I0823 12:50:42.670918 16577 net.cpp:91] Creating Layer res3b
I0823 12:50:42.670948 16577 net.cpp:425] res3b <- res3a_res3a_relu_0_split_1
I0823 12:50:42.670980 16577 net.cpp:425] res3b <- res3b_branch2c
I0823 12:50:42.671020 16577 net.cpp:399] res3b -> res3b
I0823 12:50:42.671099 16577 net.cpp:141] Setting up res3b
I0823 12:50:42.671145 16577 net.cpp:148] Top shape: 10 512 28 28 (4014080)
I0823 12:50:42.671175 16577 net.cpp:156] Memory required for data: 1410949160
I0823 12:50:42.671203 16577 layer_factory.hpp:77] Creating layer res3b_relu
I0823 12:50:42.671243 16577 net.cpp:91] Creating Layer res3b_relu
I0823 12:50:42.671274 16577 net.cpp:425] res3b_relu <- res3b
I0823 12:50:42.671308 16577 net.cpp:386] res3b_relu -> res3b (in-place)
I0823 12:50:42.671344 16577 net.cpp:141] Setting up res3b_relu
I0823 12:50:42.671376 16577 net.cpp:148] Top shape: 10 512 28 28 (4014080)
I0823 12:50:42.671406 16577 net.cpp:156] Memory required for data: 1427005480
I0823 12:50:42.671434 16577 layer_factory.hpp:77] Creating layer res3b_res3b_relu_0_split
I0823 12:50:42.671473 16577 net.cpp:91] Creating Layer res3b_res3b_relu_0_split
I0823 12:50:42.671501 16577 net.cpp:425] res3b_res3b_relu_0_split <- res3b
I0823 12:50:42.671533 16577 net.cpp:399] res3b_res3b_relu_0_split -> res3b_res3b_relu_0_split_0
I0823 12:50:42.671571 16577 net.cpp:399] res3b_res3b_relu_0_split -> res3b_res3b_relu_0_split_1
I0823 12:50:42.671676 16577 net.cpp:141] Setting up res3b_res3b_relu_0_split
I0823 12:50:42.671721 16577 net.cpp:148] Top shape: 10 512 28 28 (4014080)
I0823 12:50:42.671754 16577 net.cpp:148] Top shape: 10 512 28 28 (4014080)
I0823 12:50:42.671782 16577 net.cpp:156] Memory required for data: 1459118120
I0823 12:50:42.671811 16577 layer_factory.hpp:77] Creating layer res3c_branch2a
I0823 12:50:42.671857 16577 net.cpp:91] Creating Layer res3c_branch2a
I0823 12:50:42.671891 16577 net.cpp:425] res3c_branch2a <- res3b_res3b_relu_0_split_0
I0823 12:50:42.671928 16577 net.cpp:399] res3c_branch2a -> res3c_branch2a
I0823 12:50:42.673450 16577 net.cpp:141] Setting up res3c_branch2a
I0823 12:50:42.673504 16577 net.cpp:148] Top shape: 10 128 28 28 (1003520)
I0823 12:50:42.673533 16577 net.cpp:156] Memory required for data: 1463132200
I0823 12:50:42.673566 16577 layer_factory.hpp:77] Creating layer bn3c_branch2a
I0823 12:50:42.673602 16577 net.cpp:91] Creating Layer bn3c_branch2a
I0823 12:50:42.673667 16577 net.cpp:425] bn3c_branch2a <- res3c_branch2a
I0823 12:50:42.673703 16577 net.cpp:386] bn3c_branch2a -> res3c_branch2a (in-place)
I0823 12:50:42.674127 16577 net.cpp:141] Setting up bn3c_branch2a
I0823 12:50:42.674175 16577 net.cpp:148] Top shape: 10 128 28 28 (1003520)
I0823 12:50:42.674206 16577 net.cpp:156] Memory required for data: 1467146280
I0823 12:50:42.674245 16577 layer_factory.hpp:77] Creating layer scale3c_branch2a
I0823 12:50:42.674288 16577 net.cpp:91] Creating Layer scale3c_branch2a
I0823 12:50:42.674320 16577 net.cpp:425] scale3c_branch2a <- res3c_branch2a
I0823 12:50:42.674353 16577 net.cpp:386] scale3c_branch2a -> res3c_branch2a (in-place)
I0823 12:50:42.674473 16577 layer_factory.hpp:77] Creating layer scale3c_branch2a
I0823 12:50:42.674756 16577 net.cpp:141] Setting up scale3c_branch2a
I0823 12:50:42.674803 16577 net.cpp:148] Top shape: 10 128 28 28 (1003520)
I0823 12:50:42.674834 16577 net.cpp:156] Memory required for data: 1471160360
I0823 12:50:42.674870 16577 layer_factory.hpp:77] Creating layer res3c_branch2a_relu
I0823 12:50:42.674906 16577 net.cpp:91] Creating Layer res3c_branch2a_relu
I0823 12:50:42.674934 16577 net.cpp:425] res3c_branch2a_relu <- res3c_branch2a
I0823 12:50:42.674973 16577 net.cpp:386] res3c_branch2a_relu -> res3c_branch2a (in-place)
I0823 12:50:42.675010 16577 net.cpp:141] Setting up res3c_branch2a_relu
I0823 12:50:42.675045 16577 net.cpp:148] Top shape: 10 128 28 28 (1003520)
I0823 12:50:42.675073 16577 net.cpp:156] Memory required for data: 1475174440
I0823 12:50:42.675102 16577 layer_factory.hpp:77] Creating layer res3c_branch2b
I0823 12:50:42.675148 16577 net.cpp:91] Creating Layer res3c_branch2b
I0823 12:50:42.675179 16577 net.cpp:425] res3c_branch2b <- res3c_branch2a
I0823 12:50:42.675215 16577 net.cpp:399] res3c_branch2b -> res3c_branch2b
I0823 12:50:42.679153 16577 net.cpp:141] Setting up res3c_branch2b
I0823 12:50:42.679214 16577 net.cpp:148] Top shape: 10 128 28 28 (1003520)
I0823 12:50:42.679244 16577 net.cpp:156] Memory required for data: 1479188520
I0823 12:50:42.679278 16577 layer_factory.hpp:77] Creating layer bn3c_branch2b
I0823 12:50:42.679317 16577 net.cpp:91] Creating Layer bn3c_branch2b
I0823 12:50:42.679347 16577 net.cpp:425] bn3c_branch2b <- res3c_branch2b
I0823 12:50:42.679380 16577 net.cpp:386] bn3c_branch2b -> res3c_branch2b (in-place)
I0823 12:50:42.679800 16577 net.cpp:141] Setting up bn3c_branch2b
I0823 12:50:42.679850 16577 net.cpp:148] Top shape: 10 128 28 28 (1003520)
I0823 12:50:42.679879 16577 net.cpp:156] Memory required for data: 1483202600
I0823 12:50:42.679920 16577 layer_factory.hpp:77] Creating layer scale3c_branch2b
I0823 12:50:42.679963 16577 net.cpp:91] Creating Layer scale3c_branch2b
I0823 12:50:42.679994 16577 net.cpp:425] scale3c_branch2b <- res3c_branch2b
I0823 12:50:42.680028 16577 net.cpp:386] scale3c_branch2b -> res3c_branch2b (in-place)
I0823 12:50:42.680150 16577 layer_factory.hpp:77] Creating layer scale3c_branch2b
I0823 12:50:42.680433 16577 net.cpp:141] Setting up scale3c_branch2b
I0823 12:50:42.680480 16577 net.cpp:148] Top shape: 10 128 28 28 (1003520)
I0823 12:50:42.680510 16577 net.cpp:156] Memory required for data: 1487216680
I0823 12:50:42.680546 16577 layer_factory.hpp:77] Creating layer res3c_branch2b_relu
I0823 12:50:42.680582 16577 net.cpp:91] Creating Layer res3c_branch2b_relu
I0823 12:50:42.680624 16577 net.cpp:425] res3c_branch2b_relu <- res3c_branch2b
I0823 12:50:42.680663 16577 net.cpp:386] res3c_branch2b_relu -> res3c_branch2b (in-place)
I0823 12:50:42.680701 16577 net.cpp:141] Setting up res3c_branch2b_relu
I0823 12:50:42.680735 16577 net.cpp:148] Top shape: 10 128 28 28 (1003520)
I0823 12:50:42.680763 16577 net.cpp:156] Memory required for data: 1491230760
I0823 12:50:42.680791 16577 layer_factory.hpp:77] Creating layer res3c_branch2c
I0823 12:50:42.680836 16577 net.cpp:91] Creating Layer res3c_branch2c
I0823 12:50:42.680867 16577 net.cpp:425] res3c_branch2c <- res3c_branch2b
I0823 12:50:42.680903 16577 net.cpp:399] res3c_branch2c -> res3c_branch2c
I0823 12:50:42.682435 16577 net.cpp:141] Setting up res3c_branch2c
I0823 12:50:42.682488 16577 net.cpp:148] Top shape: 10 512 28 28 (4014080)
I0823 12:50:42.682518 16577 net.cpp:156] Memory required for data: 1507287080
I0823 12:50:42.682554 16577 layer_factory.hpp:77] Creating layer bn3c_branch2c
I0823 12:50:42.682590 16577 net.cpp:91] Creating Layer bn3c_branch2c
I0823 12:50:42.682620 16577 net.cpp:425] bn3c_branch2c <- res3c_branch2c
I0823 12:50:42.682651 16577 net.cpp:386] bn3c_branch2c -> res3c_branch2c (in-place)
I0823 12:50:42.683078 16577 net.cpp:141] Setting up bn3c_branch2c
I0823 12:50:42.683126 16577 net.cpp:148] Top shape: 10 512 28 28 (4014080)
I0823 12:50:42.683156 16577 net.cpp:156] Memory required for data: 1523343400
I0823 12:50:42.683195 16577 layer_factory.hpp:77] Creating layer scale3c_branch2c
I0823 12:50:42.683231 16577 net.cpp:91] Creating Layer scale3c_branch2c
I0823 12:50:42.683261 16577 net.cpp:425] scale3c_branch2c <- res3c_branch2c
I0823 12:50:42.683295 16577 net.cpp:386] scale3c_branch2c -> res3c_branch2c (in-place)
I0823 12:50:42.683419 16577 layer_factory.hpp:77] Creating layer scale3c_branch2c
I0823 12:50:42.683694 16577 net.cpp:141] Setting up scale3c_branch2c
I0823 12:50:42.683743 16577 net.cpp:148] Top shape: 10 512 28 28 (4014080)
I0823 12:50:42.683773 16577 net.cpp:156] Memory required for data: 1539399720
I0823 12:50:42.683809 16577 layer_factory.hpp:77] Creating layer res3c
I0823 12:50:42.683843 16577 net.cpp:91] Creating Layer res3c
I0823 12:50:42.683873 16577 net.cpp:425] res3c <- res3b_res3b_relu_0_split_1
I0823 12:50:42.683904 16577 net.cpp:425] res3c <- res3c_branch2c
I0823 12:50:42.683945 16577 net.cpp:399] res3c -> res3c
I0823 12:50:42.684023 16577 net.cpp:141] Setting up res3c
I0823 12:50:42.684069 16577 net.cpp:148] Top shape: 10 512 28 28 (4014080)
I0823 12:50:42.684098 16577 net.cpp:156] Memory required for data: 1555456040
I0823 12:50:42.684128 16577 layer_factory.hpp:77] Creating layer res3c_relu
I0823 12:50:42.684175 16577 net.cpp:91] Creating Layer res3c_relu
I0823 12:50:42.684206 16577 net.cpp:425] res3c_relu <- res3c
I0823 12:50:42.684239 16577 net.cpp:386] res3c_relu -> res3c (in-place)
I0823 12:50:42.684278 16577 net.cpp:141] Setting up res3c_relu
I0823 12:50:42.684310 16577 net.cpp:148] Top shape: 10 512 28 28 (4014080)
I0823 12:50:42.684339 16577 net.cpp:156] Memory required for data: 1571512360
I0823 12:50:42.684366 16577 layer_factory.hpp:77] Creating layer res3c_res3c_relu_0_split
I0823 12:50:42.684398 16577 net.cpp:91] Creating Layer res3c_res3c_relu_0_split
I0823 12:50:42.684427 16577 net.cpp:425] res3c_res3c_relu_0_split <- res3c
I0823 12:50:42.684458 16577 net.cpp:399] res3c_res3c_relu_0_split -> res3c_res3c_relu_0_split_0
I0823 12:50:42.684494 16577 net.cpp:399] res3c_res3c_relu_0_split -> res3c_res3c_relu_0_split_1
I0823 12:50:42.684613 16577 net.cpp:141] Setting up res3c_res3c_relu_0_split
I0823 12:50:42.684660 16577 net.cpp:148] Top shape: 10 512 28 28 (4014080)
I0823 12:50:42.684695 16577 net.cpp:148] Top shape: 10 512 28 28 (4014080)
I0823 12:50:42.684723 16577 net.cpp:156] Memory required for data: 1603625000
I0823 12:50:42.684752 16577 layer_factory.hpp:77] Creating layer res3d_branch2a
I0823 12:50:42.684792 16577 net.cpp:91] Creating Layer res3d_branch2a
I0823 12:50:42.684823 16577 net.cpp:425] res3d_branch2a <- res3c_res3c_relu_0_split_0
I0823 12:50:42.684873 16577 net.cpp:399] res3d_branch2a -> res3d_branch2a
I0823 12:50:42.687446 16577 net.cpp:141] Setting up res3d_branch2a
I0823 12:50:42.687506 16577 net.cpp:148] Top shape: 10 128 28 28 (1003520)
I0823 12:50:42.687537 16577 net.cpp:156] Memory required for data: 1607639080
I0823 12:50:42.687572 16577 layer_factory.hpp:77] Creating layer bn3d_branch2a
I0823 12:50:42.687608 16577 net.cpp:91] Creating Layer bn3d_branch2a
I0823 12:50:42.687638 16577 net.cpp:425] bn3d_branch2a <- res3d_branch2a
I0823 12:50:42.687676 16577 net.cpp:386] bn3d_branch2a -> res3d_branch2a (in-place)
I0823 12:50:42.688117 16577 net.cpp:141] Setting up bn3d_branch2a
I0823 12:50:42.688166 16577 net.cpp:148] Top shape: 10 128 28 28 (1003520)
I0823 12:50:42.688231 16577 net.cpp:156] Memory required for data: 1611653160
I0823 12:50:42.688321 16577 layer_factory.hpp:77] Creating layer scale3d_branch2a
I0823 12:50:42.688367 16577 net.cpp:91] Creating Layer scale3d_branch2a
I0823 12:50:42.688398 16577 net.cpp:425] scale3d_branch2a <- res3d_branch2a
I0823 12:50:42.688433 16577 net.cpp:386] scale3d_branch2a -> res3d_branch2a (in-place)
I0823 12:50:42.688560 16577 layer_factory.hpp:77] Creating layer scale3d_branch2a
I0823 12:50:42.688864 16577 net.cpp:141] Setting up scale3d_branch2a
I0823 12:50:42.688915 16577 net.cpp:148] Top shape: 10 128 28 28 (1003520)
I0823 12:50:42.688946 16577 net.cpp:156] Memory required for data: 1615667240
I0823 12:50:42.688982 16577 layer_factory.hpp:77] Creating layer res3d_branch2a_relu
I0823 12:50:42.689023 16577 net.cpp:91] Creating Layer res3d_branch2a_relu
I0823 12:50:42.689054 16577 net.cpp:425] res3d_branch2a_relu <- res3d_branch2a
I0823 12:50:42.689086 16577 net.cpp:386] res3d_branch2a_relu -> res3d_branch2a (in-place)
I0823 12:50:42.689122 16577 net.cpp:141] Setting up res3d_branch2a_relu
I0823 12:50:42.689155 16577 net.cpp:148] Top shape: 10 128 28 28 (1003520)
I0823 12:50:42.689183 16577 net.cpp:156] Memory required for data: 1619681320
I0823 12:50:42.689211 16577 layer_factory.hpp:77] Creating layer res3d_branch2b
I0823 12:50:42.689252 16577 net.cpp:91] Creating Layer res3d_branch2b
I0823 12:50:42.689282 16577 net.cpp:425] res3d_branch2b <- res3d_branch2a
I0823 12:50:42.689317 16577 net.cpp:399] res3d_branch2b -> res3d_branch2b
I0823 12:50:42.693254 16577 net.cpp:141] Setting up res3d_branch2b
I0823 12:50:42.693313 16577 net.cpp:148] Top shape: 10 128 28 28 (1003520)
I0823 12:50:42.693344 16577 net.cpp:156] Memory required for data: 1623695400
I0823 12:50:42.693377 16577 layer_factory.hpp:77] Creating layer bn3d_branch2b
I0823 12:50:42.693414 16577 net.cpp:91] Creating Layer bn3d_branch2b
I0823 12:50:42.693444 16577 net.cpp:425] bn3d_branch2b <- res3d_branch2b
I0823 12:50:42.693477 16577 net.cpp:386] bn3d_branch2b -> res3d_branch2b (in-place)
I0823 12:50:42.693915 16577 net.cpp:141] Setting up bn3d_branch2b
I0823 12:50:42.693965 16577 net.cpp:148] Top shape: 10 128 28 28 (1003520)
I0823 12:50:42.693995 16577 net.cpp:156] Memory required for data: 1627709480
I0823 12:50:42.694036 16577 layer_factory.hpp:77] Creating layer scale3d_branch2b
I0823 12:50:42.694080 16577 net.cpp:91] Creating Layer scale3d_branch2b
I0823 12:50:42.694111 16577 net.cpp:425] scale3d_branch2b <- res3d_branch2b
I0823 12:50:42.694145 16577 net.cpp:386] scale3d_branch2b -> res3d_branch2b (in-place)
I0823 12:50:42.694267 16577 layer_factory.hpp:77] Creating layer scale3d_branch2b
I0823 12:50:42.694556 16577 net.cpp:141] Setting up scale3d_branch2b
I0823 12:50:42.694604 16577 net.cpp:148] Top shape: 10 128 28 28 (1003520)
I0823 12:50:42.694634 16577 net.cpp:156] Memory required for data: 1631723560
I0823 12:50:42.694671 16577 layer_factory.hpp:77] Creating layer res3d_branch2b_relu
I0823 12:50:42.694712 16577 net.cpp:91] Creating Layer res3d_branch2b_relu
I0823 12:50:42.694743 16577 net.cpp:425] res3d_branch2b_relu <- res3d_branch2b
I0823 12:50:42.694775 16577 net.cpp:386] res3d_branch2b_relu -> res3d_branch2b (in-place)
I0823 12:50:42.694813 16577 net.cpp:141] Setting up res3d_branch2b_relu
I0823 12:50:42.694845 16577 net.cpp:148] Top shape: 10 128 28 28 (1003520)
I0823 12:50:42.694875 16577 net.cpp:156] Memory required for data: 1635737640
I0823 12:50:42.694903 16577 layer_factory.hpp:77] Creating layer res3d_branch2c
I0823 12:50:42.694948 16577 net.cpp:91] Creating Layer res3d_branch2c
I0823 12:50:42.694979 16577 net.cpp:425] res3d_branch2c <- res3d_branch2b
I0823 12:50:42.695015 16577 net.cpp:399] res3d_branch2c -> res3d_branch2c
I0823 12:50:42.696523 16577 net.cpp:141] Setting up res3d_branch2c
I0823 12:50:42.696574 16577 net.cpp:148] Top shape: 10 512 28 28 (4014080)
I0823 12:50:42.696620 16577 net.cpp:156] Memory required for data: 1651793960
I0823 12:50:42.696656 16577 layer_factory.hpp:77] Creating layer bn3d_branch2c
I0823 12:50:42.696710 16577 net.cpp:91] Creating Layer bn3d_branch2c
I0823 12:50:42.696779 16577 net.cpp:425] bn3d_branch2c <- res3d_branch2c
I0823 12:50:42.696816 16577 net.cpp:386] bn3d_branch2c -> res3d_branch2c (in-place)
I0823 12:50:42.697248 16577 net.cpp:141] Setting up bn3d_branch2c
I0823 12:50:42.697298 16577 net.cpp:148] Top shape: 10 512 28 28 (4014080)
I0823 12:50:42.697327 16577 net.cpp:156] Memory required for data: 1667850280
I0823 12:50:42.697369 16577 layer_factory.hpp:77] Creating layer scale3d_branch2c
I0823 12:50:42.697407 16577 net.cpp:91] Creating Layer scale3d_branch2c
I0823 12:50:42.697437 16577 net.cpp:425] scale3d_branch2c <- res3d_branch2c
I0823 12:50:42.697468 16577 net.cpp:386] scale3d_branch2c -> res3d_branch2c (in-place)
I0823 12:50:42.697593 16577 layer_factory.hpp:77] Creating layer scale3d_branch2c
I0823 12:50:42.697880 16577 net.cpp:141] Setting up scale3d_branch2c
I0823 12:50:42.697927 16577 net.cpp:148] Top shape: 10 512 28 28 (4014080)
I0823 12:50:42.697957 16577 net.cpp:156] Memory required for data: 1683906600
I0823 12:50:42.697993 16577 layer_factory.hpp:77] Creating layer res3d
I0823 12:50:42.698035 16577 net.cpp:91] Creating Layer res3d
I0823 12:50:42.698065 16577 net.cpp:425] res3d <- res3c_res3c_relu_0_split_1
I0823 12:50:42.698096 16577 net.cpp:425] res3d <- res3d_branch2c
I0823 12:50:42.698130 16577 net.cpp:399] res3d -> res3d
I0823 12:50:42.698215 16577 net.cpp:141] Setting up res3d
I0823 12:50:42.698261 16577 net.cpp:148] Top shape: 10 512 28 28 (4014080)
I0823 12:50:42.698292 16577 net.cpp:156] Memory required for data: 1699962920
I0823 12:50:42.698320 16577 layer_factory.hpp:77] Creating layer res3d_relu
I0823 12:50:42.698354 16577 net.cpp:91] Creating Layer res3d_relu
I0823 12:50:42.698382 16577 net.cpp:425] res3d_relu <- res3d
I0823 12:50:42.698421 16577 net.cpp:386] res3d_relu -> res3d (in-place)
I0823 12:50:42.698457 16577 net.cpp:141] Setting up res3d_relu
I0823 12:50:42.698490 16577 net.cpp:148] Top shape: 10 512 28 28 (4014080)
I0823 12:50:42.698519 16577 net.cpp:156] Memory required for data: 1716019240
I0823 12:50:42.698547 16577 layer_factory.hpp:77] Creating layer res3d_res3d_relu_0_split
I0823 12:50:42.698580 16577 net.cpp:91] Creating Layer res3d_res3d_relu_0_split
I0823 12:50:42.698607 16577 net.cpp:425] res3d_res3d_relu_0_split <- res3d
I0823 12:50:42.698638 16577 net.cpp:399] res3d_res3d_relu_0_split -> res3d_res3d_relu_0_split_0
I0823 12:50:42.698674 16577 net.cpp:399] res3d_res3d_relu_0_split -> res3d_res3d_relu_0_split_1
I0823 12:50:42.698786 16577 net.cpp:141] Setting up res3d_res3d_relu_0_split
I0823 12:50:42.698832 16577 net.cpp:148] Top shape: 10 512 28 28 (4014080)
I0823 12:50:42.698865 16577 net.cpp:148] Top shape: 10 512 28 28 (4014080)
I0823 12:50:42.698894 16577 net.cpp:156] Memory required for data: 1748131880
I0823 12:50:42.698923 16577 layer_factory.hpp:77] Creating layer res4a_branch1
I0823 12:50:42.698967 16577 net.cpp:91] Creating Layer res4a_branch1
I0823 12:50:42.699000 16577 net.cpp:425] res4a_branch1 <- res3d_res3d_relu_0_split_0
I0823 12:50:42.699035 16577 net.cpp:399] res4a_branch1 -> res4a_branch1
I0823 12:50:42.702064 16577 net.cpp:141] Setting up res4a_branch1
I0823 12:50:42.702122 16577 net.cpp:148] Top shape: 10 1024 14 14 (2007040)
I0823 12:50:42.702153 16577 net.cpp:156] Memory required for data: 1756160040
I0823 12:50:42.702188 16577 layer_factory.hpp:77] Creating layer bn4a_branch1
I0823 12:50:42.702231 16577 net.cpp:91] Creating Layer bn4a_branch1
I0823 12:50:42.702263 16577 net.cpp:425] bn4a_branch1 <- res4a_branch1
I0823 12:50:42.702296 16577 net.cpp:386] bn4a_branch1 -> res4a_branch1 (in-place)
I0823 12:50:42.702740 16577 net.cpp:141] Setting up bn4a_branch1
I0823 12:50:42.702790 16577 net.cpp:148] Top shape: 10 1024 14 14 (2007040)
I0823 12:50:42.702819 16577 net.cpp:156] Memory required for data: 1764188200
I0823 12:50:42.702860 16577 layer_factory.hpp:77] Creating layer scale4a_branch1
I0823 12:50:42.702898 16577 net.cpp:91] Creating Layer scale4a_branch1
I0823 12:50:42.702929 16577 net.cpp:425] scale4a_branch1 <- res4a_branch1
I0823 12:50:42.703006 16577 net.cpp:386] scale4a_branch1 -> res4a_branch1 (in-place)
I0823 12:50:42.703125 16577 layer_factory.hpp:77] Creating layer scale4a_branch1
I0823 12:50:42.703420 16577 net.cpp:141] Setting up scale4a_branch1
I0823 12:50:42.703469 16577 net.cpp:148] Top shape: 10 1024 14 14 (2007040)
I0823 12:50:42.703500 16577 net.cpp:156] Memory required for data: 1772216360
I0823 12:50:42.703536 16577 layer_factory.hpp:77] Creating layer res4a_branch2a
I0823 12:50:42.703577 16577 net.cpp:91] Creating Layer res4a_branch2a
I0823 12:50:42.703608 16577 net.cpp:425] res4a_branch2a <- res3d_res3d_relu_0_split_1
I0823 12:50:42.703651 16577 net.cpp:399] res4a_branch2a -> res4a_branch2a
I0823 12:50:42.706332 16577 net.cpp:141] Setting up res4a_branch2a
I0823 12:50:42.706387 16577 net.cpp:148] Top shape: 10 256 14 14 (501760)
I0823 12:50:42.706415 16577 net.cpp:156] Memory required for data: 1774223400
I0823 12:50:42.706449 16577 layer_factory.hpp:77] Creating layer bn4a_branch2a
I0823 12:50:42.706491 16577 net.cpp:91] Creating Layer bn4a_branch2a
I0823 12:50:42.706522 16577 net.cpp:425] bn4a_branch2a <- res4a_branch2a
I0823 12:50:42.706555 16577 net.cpp:386] bn4a_branch2a -> res4a_branch2a (in-place)
I0823 12:50:42.706967 16577 net.cpp:141] Setting up bn4a_branch2a
I0823 12:50:42.707015 16577 net.cpp:148] Top shape: 10 256 14 14 (501760)
I0823 12:50:42.707046 16577 net.cpp:156] Memory required for data: 1776230440
I0823 12:50:42.707085 16577 layer_factory.hpp:77] Creating layer scale4a_branch2a
I0823 12:50:42.707123 16577 net.cpp:91] Creating Layer scale4a_branch2a
I0823 12:50:42.707152 16577 net.cpp:425] scale4a_branch2a <- res4a_branch2a
I0823 12:50:42.707191 16577 net.cpp:386] scale4a_branch2a -> res4a_branch2a (in-place)
I0823 12:50:42.707304 16577 layer_factory.hpp:77] Creating layer scale4a_branch2a
I0823 12:50:42.707578 16577 net.cpp:141] Setting up scale4a_branch2a
I0823 12:50:42.707626 16577 net.cpp:148] Top shape: 10 256 14 14 (501760)
I0823 12:50:42.707655 16577 net.cpp:156] Memory required for data: 1778237480
I0823 12:50:42.707691 16577 layer_factory.hpp:77] Creating layer res4a_branch2a_relu
I0823 12:50:42.707726 16577 net.cpp:91] Creating Layer res4a_branch2a_relu
I0823 12:50:42.707756 16577 net.cpp:425] res4a_branch2a_relu <- res4a_branch2a
I0823 12:50:42.707788 16577 net.cpp:386] res4a_branch2a_relu -> res4a_branch2a (in-place)
I0823 12:50:42.707824 16577 net.cpp:141] Setting up res4a_branch2a_relu
I0823 12:50:42.707856 16577 net.cpp:148] Top shape: 10 256 14 14 (501760)
I0823 12:50:42.707885 16577 net.cpp:156] Memory required for data: 1780244520
I0823 12:50:42.707914 16577 layer_factory.hpp:77] Creating layer res4a_branch2b
I0823 12:50:42.707958 16577 net.cpp:91] Creating Layer res4a_branch2b
I0823 12:50:42.707998 16577 net.cpp:425] res4a_branch2b <- res4a_branch2a
I0823 12:50:42.708043 16577 net.cpp:399] res4a_branch2b -> res4a_branch2b
I0823 12:50:42.720397 16577 net.cpp:141] Setting up res4a_branch2b
I0823 12:50:42.720458 16577 net.cpp:148] Top shape: 10 256 14 14 (501760)
I0823 12:50:42.720487 16577 net.cpp:156] Memory required for data: 1782251560
I0823 12:50:42.720521 16577 layer_factory.hpp:77] Creating layer bn4a_branch2b
I0823 12:50:42.720558 16577 net.cpp:91] Creating Layer bn4a_branch2b
I0823 12:50:42.720589 16577 net.cpp:425] bn4a_branch2b <- res4a_branch2b
I0823 12:50:42.720640 16577 net.cpp:386] bn4a_branch2b -> res4a_branch2b (in-place)
I0823 12:50:42.721067 16577 net.cpp:141] Setting up bn4a_branch2b
I0823 12:50:42.721117 16577 net.cpp:148] Top shape: 10 256 14 14 (501760)
I0823 12:50:42.721146 16577 net.cpp:156] Memory required for data: 1784258600
I0823 12:50:42.721187 16577 layer_factory.hpp:77] Creating layer scale4a_branch2b
I0823 12:50:42.721225 16577 net.cpp:91] Creating Layer scale4a_branch2b
I0823 12:50:42.721256 16577 net.cpp:425] scale4a_branch2b <- res4a_branch2b
I0823 12:50:42.721292 16577 net.cpp:386] scale4a_branch2b -> res4a_branch2b (in-place)
I0823 12:50:42.721412 16577 layer_factory.hpp:77] Creating layer scale4a_branch2b
I0823 12:50:42.721691 16577 net.cpp:141] Setting up scale4a_branch2b
I0823 12:50:42.721770 16577 net.cpp:148] Top shape: 10 256 14 14 (501760)
I0823 12:50:42.721801 16577 net.cpp:156] Memory required for data: 1786265640
I0823 12:50:42.721837 16577 layer_factory.hpp:77] Creating layer res4a_branch2b_relu
I0823 12:50:42.721879 16577 net.cpp:91] Creating Layer res4a_branch2b_relu
I0823 12:50:42.721911 16577 net.cpp:425] res4a_branch2b_relu <- res4a_branch2b
I0823 12:50:42.721945 16577 net.cpp:386] res4a_branch2b_relu -> res4a_branch2b (in-place)
I0823 12:50:42.721982 16577 net.cpp:141] Setting up res4a_branch2b_relu
I0823 12:50:42.722015 16577 net.cpp:148] Top shape: 10 256 14 14 (501760)
I0823 12:50:42.722043 16577 net.cpp:156] Memory required for data: 1788272680
I0823 12:50:42.722071 16577 layer_factory.hpp:77] Creating layer res4a_branch2c
I0823 12:50:42.722116 16577 net.cpp:91] Creating Layer res4a_branch2c
I0823 12:50:42.722147 16577 net.cpp:425] res4a_branch2c <- res4a_branch2b
I0823 12:50:42.722184 16577 net.cpp:399] res4a_branch2c -> res4a_branch2c
I0823 12:50:42.728052 16577 net.cpp:141] Setting up res4a_branch2c
I0823 12:50:42.728111 16577 net.cpp:148] Top shape: 10 1024 14 14 (2007040)
I0823 12:50:42.728140 16577 net.cpp:156] Memory required for data: 1796300840
I0823 12:50:42.728176 16577 layer_factory.hpp:77] Creating layer bn4a_branch2c
I0823 12:50:42.728214 16577 net.cpp:91] Creating Layer bn4a_branch2c
I0823 12:50:42.728245 16577 net.cpp:425] bn4a_branch2c <- res4a_branch2c
I0823 12:50:42.728277 16577 net.cpp:386] bn4a_branch2c -> res4a_branch2c (in-place)
I0823 12:50:42.728729 16577 net.cpp:141] Setting up bn4a_branch2c
I0823 12:50:42.728780 16577 net.cpp:148] Top shape: 10 1024 14 14 (2007040)
I0823 12:50:42.728809 16577 net.cpp:156] Memory required for data: 1804329000
I0823 12:50:42.728849 16577 layer_factory.hpp:77] Creating layer scale4a_branch2c
I0823 12:50:42.728886 16577 net.cpp:91] Creating Layer scale4a_branch2c
I0823 12:50:42.728916 16577 net.cpp:425] scale4a_branch2c <- res4a_branch2c
I0823 12:50:42.728950 16577 net.cpp:386] scale4a_branch2c -> res4a_branch2c (in-place)
I0823 12:50:42.729070 16577 layer_factory.hpp:77] Creating layer scale4a_branch2c
I0823 12:50:42.729370 16577 net.cpp:141] Setting up scale4a_branch2c
I0823 12:50:42.729420 16577 net.cpp:148] Top shape: 10 1024 14 14 (2007040)
I0823 12:50:42.729450 16577 net.cpp:156] Memory required for data: 1812357160
I0823 12:50:42.729486 16577 layer_factory.hpp:77] Creating layer res4a
I0823 12:50:42.729521 16577 net.cpp:91] Creating Layer res4a
I0823 12:50:42.729552 16577 net.cpp:425] res4a <- res4a_branch1
I0823 12:50:42.729581 16577 net.cpp:425] res4a <- res4a_branch2c
I0823 12:50:42.729620 16577 net.cpp:399] res4a -> res4a
I0823 12:50:42.729702 16577 net.cpp:141] Setting up res4a
I0823 12:50:42.729749 16577 net.cpp:148] Top shape: 10 1024 14 14 (2007040)
I0823 12:50:42.729779 16577 net.cpp:156] Memory required for data: 1820385320
I0823 12:50:42.729806 16577 layer_factory.hpp:77] Creating layer res4a_relu
I0823 12:50:42.729845 16577 net.cpp:91] Creating Layer res4a_relu
I0823 12:50:42.729876 16577 net.cpp:425] res4a_relu <- res4a
I0823 12:50:42.729907 16577 net.cpp:386] res4a_relu -> res4a (in-place)
I0823 12:50:42.729943 16577 net.cpp:141] Setting up res4a_relu
I0823 12:50:42.729975 16577 net.cpp:148] Top shape: 10 1024 14 14 (2007040)
I0823 12:50:42.730003 16577 net.cpp:156] Memory required for data: 1828413480
I0823 12:50:42.730031 16577 layer_factory.hpp:77] Creating layer res4a_res4a_relu_0_split
I0823 12:50:42.730063 16577 net.cpp:91] Creating Layer res4a_res4a_relu_0_split
I0823 12:50:42.730092 16577 net.cpp:425] res4a_res4a_relu_0_split <- res4a
I0823 12:50:42.730123 16577 net.cpp:399] res4a_res4a_relu_0_split -> res4a_res4a_relu_0_split_0
I0823 12:50:42.730159 16577 net.cpp:399] res4a_res4a_relu_0_split -> res4a_res4a_relu_0_split_1
I0823 12:50:42.730273 16577 net.cpp:141] Setting up res4a_res4a_relu_0_split
I0823 12:50:42.730319 16577 net.cpp:148] Top shape: 10 1024 14 14 (2007040)
I0823 12:50:42.730352 16577 net.cpp:148] Top shape: 10 1024 14 14 (2007040)
I0823 12:50:42.730381 16577 net.cpp:156] Memory required for data: 1844469800
I0823 12:50:42.730445 16577 layer_factory.hpp:77] Creating layer res4b_branch2a
I0823 12:50:42.730526 16577 net.cpp:91] Creating Layer res4b_branch2a
I0823 12:50:42.730566 16577 net.cpp:425] res4b_branch2a <- res4a_res4a_relu_0_split_0
I0823 12:50:42.730612 16577 net.cpp:399] res4b_branch2a -> res4b_branch2a
I0823 12:50:42.736467 16577 net.cpp:141] Setting up res4b_branch2a
I0823 12:50:42.736526 16577 net.cpp:148] Top shape: 10 256 14 14 (501760)
I0823 12:50:42.736557 16577 net.cpp:156] Memory required for data: 1846476840
I0823 12:50:42.736593 16577 layer_factory.hpp:77] Creating layer bn4b_branch2a
I0823 12:50:42.736642 16577 net.cpp:91] Creating Layer bn4b_branch2a
I0823 12:50:42.736682 16577 net.cpp:425] bn4b_branch2a <- res4b_branch2a
I0823 12:50:42.736716 16577 net.cpp:386] bn4b_branch2a -> res4b_branch2a (in-place)
I0823 12:50:42.737136 16577 net.cpp:141] Setting up bn4b_branch2a
I0823 12:50:42.737187 16577 net.cpp:148] Top shape: 10 256 14 14 (501760)
I0823 12:50:42.737217 16577 net.cpp:156] Memory required for data: 1848483880
I0823 12:50:42.737258 16577 layer_factory.hpp:77] Creating layer scale4b_branch2a
I0823 12:50:42.737301 16577 net.cpp:91] Creating Layer scale4b_branch2a
I0823 12:50:42.737334 16577 net.cpp:425] scale4b_branch2a <- res4b_branch2a
I0823 12:50:42.737367 16577 net.cpp:386] scale4b_branch2a -> res4b_branch2a (in-place)
I0823 12:50:42.737493 16577 layer_factory.hpp:77] Creating layer scale4b_branch2a
I0823 12:50:42.737779 16577 net.cpp:141] Setting up scale4b_branch2a
I0823 12:50:42.737829 16577 net.cpp:148] Top shape: 10 256 14 14 (501760)
I0823 12:50:42.737859 16577 net.cpp:156] Memory required for data: 1850490920
I0823 12:50:42.737895 16577 layer_factory.hpp:77] Creating layer res4b_branch2a_relu
I0823 12:50:42.737931 16577 net.cpp:91] Creating Layer res4b_branch2a_relu
I0823 12:50:42.737960 16577 net.cpp:425] res4b_branch2a_relu <- res4b_branch2a
I0823 12:50:42.737998 16577 net.cpp:386] res4b_branch2a_relu -> res4b_branch2a (in-place)
I0823 12:50:42.738036 16577 net.cpp:141] Setting up res4b_branch2a_relu
I0823 12:50:42.738070 16577 net.cpp:148] Top shape: 10 256 14 14 (501760)
I0823 12:50:42.738098 16577 net.cpp:156] Memory required for data: 1852497960
I0823 12:50:42.738126 16577 layer_factory.hpp:77] Creating layer res4b_branch2b
I0823 12:50:42.738171 16577 net.cpp:91] Creating Layer res4b_branch2b
I0823 12:50:42.738204 16577 net.cpp:425] res4b_branch2b <- res4b_branch2a
I0823 12:50:42.738240 16577 net.cpp:399] res4b_branch2b -> res4b_branch2b
I0823 12:50:42.750587 16577 net.cpp:141] Setting up res4b_branch2b
I0823 12:50:42.750648 16577 net.cpp:148] Top shape: 10 256 14 14 (501760)
I0823 12:50:42.750679 16577 net.cpp:156] Memory required for data: 1854505000
I0823 12:50:42.750712 16577 layer_factory.hpp:77] Creating layer bn4b_branch2b
I0823 12:50:42.750756 16577 net.cpp:91] Creating Layer bn4b_branch2b
I0823 12:50:42.750788 16577 net.cpp:425] bn4b_branch2b <- res4b_branch2b
I0823 12:50:42.750823 16577 net.cpp:386] bn4b_branch2b -> res4b_branch2b (in-place)
I0823 12:50:42.751253 16577 net.cpp:141] Setting up bn4b_branch2b
I0823 12:50:42.751312 16577 net.cpp:148] Top shape: 10 256 14 14 (501760)
I0823 12:50:42.751343 16577 net.cpp:156] Memory required for data: 1856512040
I0823 12:50:42.751382 16577 layer_factory.hpp:77] Creating layer scale4b_branch2b
I0823 12:50:42.751420 16577 net.cpp:91] Creating Layer scale4b_branch2b
I0823 12:50:42.751451 16577 net.cpp:425] scale4b_branch2b <- res4b_branch2b
I0823 12:50:42.751489 16577 net.cpp:386] scale4b_branch2b -> res4b_branch2b (in-place)
I0823 12:50:42.751608 16577 layer_factory.hpp:77] Creating layer scale4b_branch2b
I0823 12:50:42.751898 16577 net.cpp:141] Setting up scale4b_branch2b
I0823 12:50:42.751946 16577 net.cpp:148] Top shape: 10 256 14 14 (501760)
I0823 12:50:42.751976 16577 net.cpp:156] Memory required for data: 1858519080
I0823 12:50:42.752012 16577 layer_factory.hpp:77] Creating layer res4b_branch2b_relu
I0823 12:50:42.752048 16577 net.cpp:91] Creating Layer res4b_branch2b_relu
I0823 12:50:42.752122 16577 net.cpp:425] res4b_branch2b_relu <- res4b_branch2b
I0823 12:50:42.752159 16577 net.cpp:386] res4b_branch2b_relu -> res4b_branch2b (in-place)
I0823 12:50:42.752197 16577 net.cpp:141] Setting up res4b_branch2b_relu
I0823 12:50:42.752233 16577 net.cpp:148] Top shape: 10 256 14 14 (501760)
I0823 12:50:42.752261 16577 net.cpp:156] Memory required for data: 1860526120
I0823 12:50:42.752290 16577 layer_factory.hpp:77] Creating layer res4b_branch2c
I0823 12:50:42.752336 16577 net.cpp:91] Creating Layer res4b_branch2c
I0823 12:50:42.752367 16577 net.cpp:425] res4b_branch2c <- res4b_branch2b
I0823 12:50:42.752408 16577 net.cpp:399] res4b_branch2c -> res4b_branch2c
I0823 12:50:42.758285 16577 net.cpp:141] Setting up res4b_branch2c
I0823 12:50:42.758343 16577 net.cpp:148] Top shape: 10 1024 14 14 (2007040)
I0823 12:50:42.758374 16577 net.cpp:156] Memory required for data: 1868554280
I0823 12:50:42.758409 16577 layer_factory.hpp:77] Creating layer bn4b_branch2c
I0823 12:50:42.758445 16577 net.cpp:91] Creating Layer bn4b_branch2c
I0823 12:50:42.758477 16577 net.cpp:425] bn4b_branch2c <- res4b_branch2c
I0823 12:50:42.758517 16577 net.cpp:386] bn4b_branch2c -> res4b_branch2c (in-place)
I0823 12:50:42.758960 16577 net.cpp:141] Setting up bn4b_branch2c
I0823 12:50:42.759009 16577 net.cpp:148] Top shape: 10 1024 14 14 (2007040)
I0823 12:50:42.759039 16577 net.cpp:156] Memory required for data: 1876582440
I0823 12:50:42.759081 16577 layer_factory.hpp:77] Creating layer scale4b_branch2c
I0823 12:50:42.759119 16577 net.cpp:91] Creating Layer scale4b_branch2c
I0823 12:50:42.759150 16577 net.cpp:425] scale4b_branch2c <- res4b_branch2c
I0823 12:50:42.759182 16577 net.cpp:386] scale4b_branch2c -> res4b_branch2c (in-place)
I0823 12:50:42.759304 16577 layer_factory.hpp:77] Creating layer scale4b_branch2c
I0823 12:50:42.759600 16577 net.cpp:141] Setting up scale4b_branch2c
I0823 12:50:42.759649 16577 net.cpp:148] Top shape: 10 1024 14 14 (2007040)
I0823 12:50:42.759678 16577 net.cpp:156] Memory required for data: 1884610600
I0823 12:50:42.759716 16577 layer_factory.hpp:77] Creating layer res4b
I0823 12:50:42.759757 16577 net.cpp:91] Creating Layer res4b
I0823 12:50:42.759788 16577 net.cpp:425] res4b <- res4a_res4a_relu_0_split_1
I0823 12:50:42.759819 16577 net.cpp:425] res4b <- res4b_branch2c
I0823 12:50:42.759855 16577 net.cpp:399] res4b -> res4b
I0823 12:50:42.759943 16577 net.cpp:141] Setting up res4b
I0823 12:50:42.759989 16577 net.cpp:148] Top shape: 10 1024 14 14 (2007040)
I0823 12:50:42.760020 16577 net.cpp:156] Memory required for data: 1892638760
I0823 12:50:42.760047 16577 layer_factory.hpp:77] Creating layer res4b_relu
I0823 12:50:42.760080 16577 net.cpp:91] Creating Layer res4b_relu
I0823 12:50:42.760110 16577 net.cpp:425] res4b_relu <- res4b
I0823 12:50:42.760148 16577 net.cpp:386] res4b_relu -> res4b (in-place)
I0823 12:50:42.760185 16577 net.cpp:141] Setting up res4b_relu
I0823 12:50:42.760218 16577 net.cpp:148] Top shape: 10 1024 14 14 (2007040)
I0823 12:50:42.760246 16577 net.cpp:156] Memory required for data: 1900666920
I0823 12:50:42.760274 16577 layer_factory.hpp:77] Creating layer res4b_res4b_relu_0_split
I0823 12:50:42.760306 16577 net.cpp:91] Creating Layer res4b_res4b_relu_0_split
I0823 12:50:42.760334 16577 net.cpp:425] res4b_res4b_relu_0_split <- res4b
I0823 12:50:42.760366 16577 net.cpp:399] res4b_res4b_relu_0_split -> res4b_res4b_relu_0_split_0
I0823 12:50:42.760402 16577 net.cpp:399] res4b_res4b_relu_0_split -> res4b_res4b_relu_0_split_1
I0823 12:50:42.760510 16577 net.cpp:141] Setting up res4b_res4b_relu_0_split
I0823 12:50:42.760557 16577 net.cpp:148] Top shape: 10 1024 14 14 (2007040)
I0823 12:50:42.760591 16577 net.cpp:148] Top shape: 10 1024 14 14 (2007040)
I0823 12:50:42.760632 16577 net.cpp:156] Memory required for data: 1916723240
I0823 12:50:42.760669 16577 layer_factory.hpp:77] Creating layer res4c_branch2a
I0823 12:50:42.760722 16577 net.cpp:91] Creating Layer res4c_branch2a
I0823 12:50:42.760766 16577 net.cpp:425] res4c_branch2a <- res4b_res4b_relu_0_split_0
I0823 12:50:42.760803 16577 net.cpp:399] res4c_branch2a -> res4c_branch2a
I0823 12:50:42.766808 16577 net.cpp:141] Setting up res4c_branch2a
I0823 12:50:42.766867 16577 net.cpp:148] Top shape: 10 256 14 14 (501760)
I0823 12:50:42.766898 16577 net.cpp:156] Memory required for data: 1918730280
I0823 12:50:42.766932 16577 layer_factory.hpp:77] Creating layer bn4c_branch2a
I0823 12:50:42.766969 16577 net.cpp:91] Creating Layer bn4c_branch2a
I0823 12:50:42.767002 16577 net.cpp:425] bn4c_branch2a <- res4c_branch2a
I0823 12:50:42.767042 16577 net.cpp:386] bn4c_branch2a -> res4c_branch2a (in-place)
I0823 12:50:42.767470 16577 net.cpp:141] Setting up bn4c_branch2a
I0823 12:50:42.767520 16577 net.cpp:148] Top shape: 10 256 14 14 (501760)
I0823 12:50:42.767549 16577 net.cpp:156] Memory required for data: 1920737320
I0823 12:50:42.767591 16577 layer_factory.hpp:77] Creating layer scale4c_branch2a
I0823 12:50:42.767628 16577 net.cpp:91] Creating Layer scale4c_branch2a
I0823 12:50:42.767658 16577 net.cpp:425] scale4c_branch2a <- res4c_branch2a
I0823 12:50:42.767691 16577 net.cpp:386] scale4c_branch2a -> res4c_branch2a (in-place)
I0823 12:50:42.767814 16577 layer_factory.hpp:77] Creating layer scale4c_branch2a
I0823 12:50:42.768096 16577 net.cpp:141] Setting up scale4c_branch2a
I0823 12:50:42.768146 16577 net.cpp:148] Top shape: 10 256 14 14 (501760)
I0823 12:50:42.768174 16577 net.cpp:156] Memory required for data: 1922744360
I0823 12:50:42.768211 16577 layer_factory.hpp:77] Creating layer res4c_branch2a_relu
I0823 12:50:42.768246 16577 net.cpp:91] Creating Layer res4c_branch2a_relu
I0823 12:50:42.768275 16577 net.cpp:425] res4c_branch2a_relu <- res4c_branch2a
I0823 12:50:42.768313 16577 net.cpp:386] res4c_branch2a_relu -> res4c_branch2a (in-place)
I0823 12:50:42.768350 16577 net.cpp:141] Setting up res4c_branch2a_relu
I0823 12:50:42.768383 16577 net.cpp:148] Top shape: 10 256 14 14 (501760)
I0823 12:50:42.768411 16577 net.cpp:156] Memory required for data: 1924751400
I0823 12:50:42.768440 16577 layer_factory.hpp:77] Creating layer res4c_branch2b
I0823 12:50:42.768478 16577 net.cpp:91] Creating Layer res4c_branch2b
I0823 12:50:42.768508 16577 net.cpp:425] res4c_branch2b <- res4c_branch2a
I0823 12:50:42.768550 16577 net.cpp:399] res4c_branch2b -> res4c_branch2b
I0823 12:50:42.780910 16577 net.cpp:141] Setting up res4c_branch2b
I0823 12:50:42.780972 16577 net.cpp:148] Top shape: 10 256 14 14 (501760)
I0823 12:50:42.781004 16577 net.cpp:156] Memory required for data: 1926758440
I0823 12:50:42.781038 16577 layer_factory.hpp:77] Creating layer bn4c_branch2b
I0823 12:50:42.781081 16577 net.cpp:91] Creating Layer bn4c_branch2b
I0823 12:50:42.781114 16577 net.cpp:425] bn4c_branch2b <- res4c_branch2b
I0823 12:50:42.781149 16577 net.cpp:386] bn4c_branch2b -> res4c_branch2b (in-place)
I0823 12:50:42.781582 16577 net.cpp:141] Setting up bn4c_branch2b
I0823 12:50:42.781641 16577 net.cpp:148] Top shape: 10 256 14 14 (501760)
I0823 12:50:42.781672 16577 net.cpp:156] Memory required for data: 1928765480
I0823 12:50:42.781711 16577 layer_factory.hpp:77] Creating layer scale4c_branch2b
I0823 12:50:42.781749 16577 net.cpp:91] Creating Layer scale4c_branch2b
I0823 12:50:42.781780 16577 net.cpp:425] scale4c_branch2b <- res4c_branch2b
I0823 12:50:42.781818 16577 net.cpp:386] scale4c_branch2b -> res4c_branch2b (in-place)
I0823 12:50:42.781937 16577 layer_factory.hpp:77] Creating layer scale4c_branch2b
I0823 12:50:42.782223 16577 net.cpp:141] Setting up scale4c_branch2b
I0823 12:50:42.782277 16577 net.cpp:148] Top shape: 10 256 14 14 (501760)
I0823 12:50:42.782308 16577 net.cpp:156] Memory required for data: 1930772520
I0823 12:50:42.782344 16577 layer_factory.hpp:77] Creating layer res4c_branch2b_relu
I0823 12:50:42.782379 16577 net.cpp:91] Creating Layer res4c_branch2b_relu
I0823 12:50:42.782410 16577 net.cpp:425] res4c_branch2b_relu <- res4c_branch2b
I0823 12:50:42.782441 16577 net.cpp:386] res4c_branch2b_relu -> res4c_branch2b (in-place)
I0823 12:50:42.782479 16577 net.cpp:141] Setting up res4c_branch2b_relu
I0823 12:50:42.782511 16577 net.cpp:148] Top shape: 10 256 14 14 (501760)
I0823 12:50:42.782577 16577 net.cpp:156] Memory required for data: 1932779560
I0823 12:50:42.782610 16577 layer_factory.hpp:77] Creating layer res4c_branch2c
I0823 12:50:42.782657 16577 net.cpp:91] Creating Layer res4c_branch2c
I0823 12:50:42.782690 16577 net.cpp:425] res4c_branch2c <- res4c_branch2b
I0823 12:50:42.782730 16577 net.cpp:399] res4c_branch2c -> res4c_branch2c
I0823 12:50:42.788614 16577 net.cpp:141] Setting up res4c_branch2c
I0823 12:50:42.788671 16577 net.cpp:148] Top shape: 10 1024 14 14 (2007040)
I0823 12:50:42.788702 16577 net.cpp:156] Memory required for data: 1940807720
I0823 12:50:42.788736 16577 layer_factory.hpp:77] Creating layer bn4c_branch2c
I0823 12:50:42.788774 16577 net.cpp:91] Creating Layer bn4c_branch2c
I0823 12:50:42.788805 16577 net.cpp:425] bn4c_branch2c <- res4c_branch2c
I0823 12:50:42.788843 16577 net.cpp:386] bn4c_branch2c -> res4c_branch2c (in-place)
I0823 12:50:42.789283 16577 net.cpp:141] Setting up bn4c_branch2c
I0823 12:50:42.789335 16577 net.cpp:148] Top shape: 10 1024 14 14 (2007040)
I0823 12:50:42.789363 16577 net.cpp:156] Memory required for data: 1948835880
I0823 12:50:42.789404 16577 layer_factory.hpp:77] Creating layer scale4c_branch2c
I0823 12:50:42.789441 16577 net.cpp:91] Creating Layer scale4c_branch2c
I0823 12:50:42.789472 16577 net.cpp:425] scale4c_branch2c <- res4c_branch2c
I0823 12:50:42.789506 16577 net.cpp:386] scale4c_branch2c -> res4c_branch2c (in-place)
I0823 12:50:42.789628 16577 layer_factory.hpp:77] Creating layer scale4c_branch2c
I0823 12:50:42.789922 16577 net.cpp:141] Setting up scale4c_branch2c
I0823 12:50:42.789971 16577 net.cpp:148] Top shape: 10 1024 14 14 (2007040)
I0823 12:50:42.790000 16577 net.cpp:156] Memory required for data: 1956864040
I0823 12:50:42.790037 16577 layer_factory.hpp:77] Creating layer res4c
I0823 12:50:42.790072 16577 net.cpp:91] Creating Layer res4c
I0823 12:50:42.790102 16577 net.cpp:425] res4c <- res4b_res4b_relu_0_split_1
I0823 12:50:42.790133 16577 net.cpp:425] res4c <- res4c_branch2c
I0823 12:50:42.790172 16577 net.cpp:399] res4c -> res4c
I0823 12:50:42.790254 16577 net.cpp:141] Setting up res4c
I0823 12:50:42.790302 16577 net.cpp:148] Top shape: 10 1024 14 14 (2007040)
I0823 12:50:42.790331 16577 net.cpp:156] Memory required for data: 1964892200
I0823 12:50:42.790359 16577 layer_factory.hpp:77] Creating layer res4c_relu
I0823 12:50:42.790400 16577 net.cpp:91] Creating Layer res4c_relu
I0823 12:50:42.790429 16577 net.cpp:425] res4c_relu <- res4c
I0823 12:50:42.790462 16577 net.cpp:386] res4c_relu -> res4c (in-place)
I0823 12:50:42.790498 16577 net.cpp:141] Setting up res4c_relu
I0823 12:50:42.790530 16577 net.cpp:148] Top shape: 10 1024 14 14 (2007040)
I0823 12:50:42.790557 16577 net.cpp:156] Memory required for data: 1972920360
I0823 12:50:42.790586 16577 layer_factory.hpp:77] Creating layer res4c_res4c_relu_0_split
I0823 12:50:42.790628 16577 net.cpp:91] Creating Layer res4c_res4c_relu_0_split
I0823 12:50:42.790658 16577 net.cpp:425] res4c_res4c_relu_0_split <- res4c
I0823 12:50:42.790691 16577 net.cpp:399] res4c_res4c_relu_0_split -> res4c_res4c_relu_0_split_0
I0823 12:50:42.790727 16577 net.cpp:399] res4c_res4c_relu_0_split -> res4c_res4c_relu_0_split_1
I0823 12:50:42.790837 16577 net.cpp:141] Setting up res4c_res4c_relu_0_split
I0823 12:50:42.790884 16577 net.cpp:148] Top shape: 10 1024 14 14 (2007040)
I0823 12:50:42.790917 16577 net.cpp:148] Top shape: 10 1024 14 14 (2007040)
I0823 12:50:42.790946 16577 net.cpp:156] Memory required for data: 1988976680
I0823 12:50:42.790973 16577 layer_factory.hpp:77] Creating layer res4d_branch2a
I0823 12:50:42.791018 16577 net.cpp:91] Creating Layer res4d_branch2a
I0823 12:50:42.791051 16577 net.cpp:425] res4d_branch2a <- res4c_res4c_relu_0_split_0
I0823 12:50:42.791087 16577 net.cpp:399] res4d_branch2a -> res4d_branch2a
I0823 12:50:42.796962 16577 net.cpp:141] Setting up res4d_branch2a
I0823 12:50:42.797020 16577 net.cpp:148] Top shape: 10 256 14 14 (501760)
I0823 12:50:42.797050 16577 net.cpp:156] Memory required for data: 1990983720
I0823 12:50:42.797085 16577 layer_factory.hpp:77] Creating layer bn4d_branch2a
I0823 12:50:42.797158 16577 net.cpp:91] Creating Layer bn4d_branch2a
I0823 12:50:42.797191 16577 net.cpp:425] bn4d_branch2a <- res4d_branch2a
I0823 12:50:42.797225 16577 net.cpp:386] bn4d_branch2a -> res4d_branch2a (in-place)
I0823 12:50:42.797669 16577 net.cpp:141] Setting up bn4d_branch2a
I0823 12:50:42.797719 16577 net.cpp:148] Top shape: 10 256 14 14 (501760)
I0823 12:50:42.797749 16577 net.cpp:156] Memory required for data: 1992990760
I0823 12:50:42.797790 16577 layer_factory.hpp:77] Creating layer scale4d_branch2a
I0823 12:50:42.797827 16577 net.cpp:91] Creating Layer scale4d_branch2a
I0823 12:50:42.797857 16577 net.cpp:425] scale4d_branch2a <- res4d_branch2a
I0823 12:50:42.797889 16577 net.cpp:386] scale4d_branch2a -> res4d_branch2a (in-place)
I0823 12:50:42.798022 16577 layer_factory.hpp:77] Creating layer scale4d_branch2a
I0823 12:50:42.798316 16577 net.cpp:141] Setting up scale4d_branch2a
I0823 12:50:42.798367 16577 net.cpp:148] Top shape: 10 256 14 14 (501760)
I0823 12:50:42.798395 16577 net.cpp:156] Memory required for data: 1994997800
I0823 12:50:42.798432 16577 layer_factory.hpp:77] Creating layer res4d_branch2a_relu
I0823 12:50:42.798468 16577 net.cpp:91] Creating Layer res4d_branch2a_relu
I0823 12:50:42.798497 16577 net.cpp:425] res4d_branch2a_relu <- res4d_branch2a
I0823 12:50:42.798534 16577 net.cpp:386] res4d_branch2a_relu -> res4d_branch2a (in-place)
I0823 12:50:42.798571 16577 net.cpp:141] Setting up res4d_branch2a_relu
I0823 12:50:42.798605 16577 net.cpp:148] Top shape: 10 256 14 14 (501760)
I0823 12:50:42.798633 16577 net.cpp:156] Memory required for data: 1997004840
I0823 12:50:42.798661 16577 layer_factory.hpp:77] Creating layer res4d_branch2b
I0823 12:50:42.798702 16577 net.cpp:91] Creating Layer res4d_branch2b
I0823 12:50:42.798730 16577 net.cpp:425] res4d_branch2b <- res4d_branch2a
I0823 12:50:42.798776 16577 net.cpp:399] res4d_branch2b -> res4d_branch2b
I0823 12:50:42.811122 16577 net.cpp:141] Setting up res4d_branch2b
I0823 12:50:42.811182 16577 net.cpp:148] Top shape: 10 256 14 14 (501760)
I0823 12:50:42.811213 16577 net.cpp:156] Memory required for data: 1999011880
I0823 12:50:42.811247 16577 layer_factory.hpp:77] Creating layer bn4d_branch2b
I0823 12:50:42.811285 16577 net.cpp:91] Creating Layer bn4d_branch2b
I0823 12:50:42.811318 16577 net.cpp:425] bn4d_branch2b <- res4d_branch2b
I0823 12:50:42.811352 16577 net.cpp:386] bn4d_branch2b -> res4d_branch2b (in-place)
I0823 12:50:42.811782 16577 net.cpp:141] Setting up bn4d_branch2b
I0823 12:50:42.811837 16577 net.cpp:148] Top shape: 10 256 14 14 (501760)
I0823 12:50:42.811867 16577 net.cpp:156] Memory required for data: 2001018920
I0823 12:50:42.811908 16577 layer_factory.hpp:77] Creating layer scale4d_branch2b
I0823 12:50:42.811950 16577 net.cpp:91] Creating Layer scale4d_branch2b
I0823 12:50:42.811982 16577 net.cpp:425] scale4d_branch2b <- res4d_branch2b
I0823 12:50:42.812018 16577 net.cpp:386] scale4d_branch2b -> res4d_branch2b (in-place)
I0823 12:50:42.812144 16577 layer_factory.hpp:77] Creating layer scale4d_branch2b
I0823 12:50:42.812435 16577 net.cpp:141] Setting up scale4d_branch2b
I0823 12:50:42.812484 16577 net.cpp:148] Top shape: 10 256 14 14 (501760)
I0823 12:50:42.812513 16577 net.cpp:156] Memory required for data: 2003025960
I0823 12:50:42.812551 16577 layer_factory.hpp:77] Creating layer res4d_branch2b_relu
I0823 12:50:42.812592 16577 net.cpp:91] Creating Layer res4d_branch2b_relu
I0823 12:50:42.812635 16577 net.cpp:425] res4d_branch2b_relu <- res4d_branch2b
I0823 12:50:42.812672 16577 net.cpp:386] res4d_branch2b_relu -> res4d_branch2b (in-place)
I0823 12:50:42.812711 16577 net.cpp:141] Setting up res4d_branch2b_relu
I0823 12:50:42.812744 16577 net.cpp:148] Top shape: 10 256 14 14 (501760)
I0823 12:50:42.812773 16577 net.cpp:156] Memory required for data: 2005033000
I0823 12:50:42.812801 16577 layer_factory.hpp:77] Creating layer res4d_branch2c
I0823 12:50:42.812847 16577 net.cpp:91] Creating Layer res4d_branch2c
I0823 12:50:42.812878 16577 net.cpp:425] res4d_branch2c <- res4d_branch2b
I0823 12:50:42.812950 16577 net.cpp:399] res4d_branch2c -> res4d_branch2c
I0823 12:50:42.818822 16577 net.cpp:141] Setting up res4d_branch2c
I0823 12:50:42.818881 16577 net.cpp:148] Top shape: 10 1024 14 14 (2007040)
I0823 12:50:42.818912 16577 net.cpp:156] Memory required for data: 2013061160
I0823 12:50:42.818945 16577 layer_factory.hpp:77] Creating layer bn4d_branch2c
I0823 12:50:42.818987 16577 net.cpp:91] Creating Layer bn4d_branch2c
I0823 12:50:42.819020 16577 net.cpp:425] bn4d_branch2c <- res4d_branch2c
I0823 12:50:42.819053 16577 net.cpp:386] bn4d_branch2c -> res4d_branch2c (in-place)
I0823 12:50:42.819497 16577 net.cpp:141] Setting up bn4d_branch2c
I0823 12:50:42.819551 16577 net.cpp:148] Top shape: 10 1024 14 14 (2007040)
I0823 12:50:42.819581 16577 net.cpp:156] Memory required for data: 2021089320
I0823 12:50:42.819622 16577 layer_factory.hpp:77] Creating layer scale4d_branch2c
I0823 12:50:42.819670 16577 net.cpp:91] Creating Layer scale4d_branch2c
I0823 12:50:42.819703 16577 net.cpp:425] scale4d_branch2c <- res4d_branch2c
I0823 12:50:42.819736 16577 net.cpp:386] scale4d_branch2c -> res4d_branch2c (in-place)
I0823 12:50:42.819852 16577 layer_factory.hpp:77] Creating layer scale4d_branch2c
I0823 12:50:42.820158 16577 net.cpp:141] Setting up scale4d_branch2c
I0823 12:50:42.820209 16577 net.cpp:148] Top shape: 10 1024 14 14 (2007040)
I0823 12:50:42.820237 16577 net.cpp:156] Memory required for data: 2029117480
I0823 12:50:42.820274 16577 layer_factory.hpp:77] Creating layer res4d
I0823 12:50:42.820309 16577 net.cpp:91] Creating Layer res4d
I0823 12:50:42.820339 16577 net.cpp:425] res4d <- res4c_res4c_relu_0_split_1
I0823 12:50:42.820370 16577 net.cpp:425] res4d <- res4d_branch2c
I0823 12:50:42.820415 16577 net.cpp:399] res4d -> res4d
I0823 12:50:42.820507 16577 net.cpp:141] Setting up res4d
I0823 12:50:42.820559 16577 net.cpp:148] Top shape: 10 1024 14 14 (2007040)
I0823 12:50:42.820590 16577 net.cpp:156] Memory required for data: 2037145640
I0823 12:50:42.820631 16577 layer_factory.hpp:77] Creating layer res4d_relu
I0823 12:50:42.820670 16577 net.cpp:91] Creating Layer res4d_relu
I0823 12:50:42.820699 16577 net.cpp:425] res4d_relu <- res4d
I0823 12:50:42.820731 16577 net.cpp:386] res4d_relu -> res4d (in-place)
I0823 12:50:42.820767 16577 net.cpp:141] Setting up res4d_relu
I0823 12:50:42.820801 16577 net.cpp:148] Top shape: 10 1024 14 14 (2007040)
I0823 12:50:42.820829 16577 net.cpp:156] Memory required for data: 2045173800
I0823 12:50:42.820859 16577 layer_factory.hpp:77] Creating layer res4d_res4d_relu_0_split
I0823 12:50:42.820891 16577 net.cpp:91] Creating Layer res4d_res4d_relu_0_split
I0823 12:50:42.820919 16577 net.cpp:425] res4d_res4d_relu_0_split <- res4d
I0823 12:50:42.820957 16577 net.cpp:399] res4d_res4d_relu_0_split -> res4d_res4d_relu_0_split_0
I0823 12:50:42.820994 16577 net.cpp:399] res4d_res4d_relu_0_split -> res4d_res4d_relu_0_split_1
I0823 12:50:42.821099 16577 net.cpp:141] Setting up res4d_res4d_relu_0_split
I0823 12:50:42.821151 16577 net.cpp:148] Top shape: 10 1024 14 14 (2007040)
I0823 12:50:42.821187 16577 net.cpp:148] Top shape: 10 1024 14 14 (2007040)
I0823 12:50:42.821214 16577 net.cpp:156] Memory required for data: 2061230120
I0823 12:50:42.821243 16577 layer_factory.hpp:77] Creating layer res4e_branch2a
I0823 12:50:42.821282 16577 net.cpp:91] Creating Layer res4e_branch2a
I0823 12:50:42.821313 16577 net.cpp:425] res4e_branch2a <- res4d_res4d_relu_0_split_0
I0823 12:50:42.821349 16577 net.cpp:399] res4e_branch2a -> res4e_branch2a
I0823 12:50:42.827220 16577 net.cpp:141] Setting up res4e_branch2a
I0823 12:50:42.827280 16577 net.cpp:148] Top shape: 10 256 14 14 (501760)
I0823 12:50:42.827311 16577 net.cpp:156] Memory required for data: 2063237160
I0823 12:50:42.827344 16577 layer_factory.hpp:77] Creating layer bn4e_branch2a
I0823 12:50:42.827388 16577 net.cpp:91] Creating Layer bn4e_branch2a
I0823 12:50:42.827419 16577 net.cpp:425] bn4e_branch2a <- res4e_branch2a
I0823 12:50:42.827452 16577 net.cpp:386] bn4e_branch2a -> res4e_branch2a (in-place)
I0823 12:50:42.827889 16577 net.cpp:141] Setting up bn4e_branch2a
I0823 12:50:42.827968 16577 net.cpp:148] Top shape: 10 256 14 14 (501760)
I0823 12:50:42.828001 16577 net.cpp:156] Memory required for data: 2065244200
I0823 12:50:42.828042 16577 layer_factory.hpp:77] Creating layer scale4e_branch2a
I0823 12:50:42.828079 16577 net.cpp:91] Creating Layer scale4e_branch2a
I0823 12:50:42.828110 16577 net.cpp:425] scale4e_branch2a <- res4e_branch2a
I0823 12:50:42.828150 16577 net.cpp:386] scale4e_branch2a -> res4e_branch2a (in-place)
I0823 12:50:42.828274 16577 layer_factory.hpp:77] Creating layer scale4e_branch2a
I0823 12:50:42.828564 16577 net.cpp:141] Setting up scale4e_branch2a
I0823 12:50:42.828627 16577 net.cpp:148] Top shape: 10 256 14 14 (501760)
I0823 12:50:42.828725 16577 net.cpp:156] Memory required for data: 2067251240
I0823 12:50:42.828812 16577 layer_factory.hpp:77] Creating layer res4e_branch2a_relu
I0823 12:50:42.828866 16577 net.cpp:91] Creating Layer res4e_branch2a_relu
I0823 12:50:42.828900 16577 net.cpp:425] res4e_branch2a_relu <- res4e_branch2a
I0823 12:50:42.828934 16577 net.cpp:386] res4e_branch2a_relu -> res4e_branch2a (in-place)
I0823 12:50:42.828974 16577 net.cpp:141] Setting up res4e_branch2a_relu
I0823 12:50:42.829010 16577 net.cpp:148] Top shape: 10 256 14 14 (501760)
I0823 12:50:42.829038 16577 net.cpp:156] Memory required for data: 2069258280
I0823 12:50:42.829066 16577 layer_factory.hpp:77] Creating layer res4e_branch2b
I0823 12:50:42.829118 16577 net.cpp:91] Creating Layer res4e_branch2b
I0823 12:50:42.829162 16577 net.cpp:425] res4e_branch2b <- res4e_branch2a
I0823 12:50:42.829205 16577 net.cpp:399] res4e_branch2b -> res4e_branch2b
I0823 12:50:42.841663 16577 net.cpp:141] Setting up res4e_branch2b
I0823 12:50:42.841725 16577 net.cpp:148] Top shape: 10 256 14 14 (501760)
I0823 12:50:42.841758 16577 net.cpp:156] Memory required for data: 2071265320
I0823 12:50:42.841792 16577 layer_factory.hpp:77] Creating layer bn4e_branch2b
I0823 12:50:42.841830 16577 net.cpp:91] Creating Layer bn4e_branch2b
I0823 12:50:42.841861 16577 net.cpp:425] bn4e_branch2b <- res4e_branch2b
I0823 12:50:42.841909 16577 net.cpp:386] bn4e_branch2b -> res4e_branch2b (in-place)
I0823 12:50:42.842376 16577 net.cpp:141] Setting up bn4e_branch2b
I0823 12:50:42.842429 16577 net.cpp:148] Top shape: 10 256 14 14 (501760)
I0823 12:50:42.842459 16577 net.cpp:156] Memory required for data: 2073272360
I0823 12:50:42.842502 16577 layer_factory.hpp:77] Creating layer scale4e_branch2b
I0823 12:50:42.842540 16577 net.cpp:91] Creating Layer scale4e_branch2b
I0823 12:50:42.842571 16577 net.cpp:425] scale4e_branch2b <- res4e_branch2b
I0823 12:50:42.842605 16577 net.cpp:386] scale4e_branch2b -> res4e_branch2b (in-place)
I0823 12:50:42.842734 16577 layer_factory.hpp:77] Creating layer scale4e_branch2b
I0823 12:50:42.843032 16577 net.cpp:141] Setting up scale4e_branch2b
I0823 12:50:42.843081 16577 net.cpp:148] Top shape: 10 256 14 14 (501760)
I0823 12:50:42.843111 16577 net.cpp:156] Memory required for data: 2075279400
I0823 12:50:42.843148 16577 layer_factory.hpp:77] Creating layer res4e_branch2b_relu
I0823 12:50:42.843189 16577 net.cpp:91] Creating Layer res4e_branch2b_relu
I0823 12:50:42.843221 16577 net.cpp:425] res4e_branch2b_relu <- res4e_branch2b
I0823 12:50:42.843253 16577 net.cpp:386] res4e_branch2b_relu -> res4e_branch2b (in-place)
I0823 12:50:42.843291 16577 net.cpp:141] Setting up res4e_branch2b_relu
I0823 12:50:42.843323 16577 net.cpp:148] Top shape: 10 256 14 14 (501760)
I0823 12:50:42.843351 16577 net.cpp:156] Memory required for data: 2077286440
I0823 12:50:42.843379 16577 layer_factory.hpp:77] Creating layer res4e_branch2c
I0823 12:50:42.843425 16577 net.cpp:91] Creating Layer res4e_branch2c
I0823 12:50:42.843456 16577 net.cpp:425] res4e_branch2c <- res4e_branch2b
I0823 12:50:42.843492 16577 net.cpp:399] res4e_branch2c -> res4e_branch2c
I0823 12:50:42.849411 16577 net.cpp:141] Setting up res4e_branch2c
I0823 12:50:42.849472 16577 net.cpp:148] Top shape: 10 1024 14 14 (2007040)
I0823 12:50:42.849503 16577 net.cpp:156] Memory required for data: 2085314600
I0823 12:50:42.849536 16577 layer_factory.hpp:77] Creating layer bn4e_branch2c
I0823 12:50:42.849625 16577 net.cpp:91] Creating Layer bn4e_branch2c
I0823 12:50:42.849660 16577 net.cpp:425] bn4e_branch2c <- res4e_branch2c
I0823 12:50:42.849694 16577 net.cpp:386] bn4e_branch2c -> res4e_branch2c (in-place)
I0823 12:50:42.850169 16577 net.cpp:141] Setting up bn4e_branch2c
I0823 12:50:42.850220 16577 net.cpp:148] Top shape: 10 1024 14 14 (2007040)
I0823 12:50:42.850250 16577 net.cpp:156] Memory required for data: 2093342760
I0823 12:50:42.850291 16577 layer_factory.hpp:77] Creating layer scale4e_branch2c
I0823 12:50:42.850328 16577 net.cpp:91] Creating Layer scale4e_branch2c
I0823 12:50:42.850358 16577 net.cpp:425] scale4e_branch2c <- res4e_branch2c
I0823 12:50:42.850392 16577 net.cpp:386] scale4e_branch2c -> res4e_branch2c (in-place)
I0823 12:50:42.850519 16577 layer_factory.hpp:77] Creating layer scale4e_branch2c
I0823 12:50:42.850836 16577 net.cpp:141] Setting up scale4e_branch2c
I0823 12:50:42.850886 16577 net.cpp:148] Top shape: 10 1024 14 14 (2007040)
I0823 12:50:42.850916 16577 net.cpp:156] Memory required for data: 2101370920
I0823 12:50:42.850952 16577 layer_factory.hpp:77] Creating layer res4e
I0823 12:50:42.850987 16577 net.cpp:91] Creating Layer res4e
I0823 12:50:42.851017 16577 net.cpp:425] res4e <- res4d_res4d_relu_0_split_1
I0823 12:50:42.851048 16577 net.cpp:425] res4e <- res4e_branch2c
I0823 12:50:42.851089 16577 net.cpp:399] res4e -> res4e
I0823 12:50:42.851173 16577 net.cpp:141] Setting up res4e
I0823 12:50:42.851220 16577 net.cpp:148] Top shape: 10 1024 14 14 (2007040)
I0823 12:50:42.851250 16577 net.cpp:156] Memory required for data: 2109399080
I0823 12:50:42.851279 16577 layer_factory.hpp:77] Creating layer res4e_relu
I0823 12:50:42.851316 16577 net.cpp:91] Creating Layer res4e_relu
I0823 12:50:42.851347 16577 net.cpp:425] res4e_relu <- res4e
I0823 12:50:42.851378 16577 net.cpp:386] res4e_relu -> res4e (in-place)
I0823 12:50:42.851414 16577 net.cpp:141] Setting up res4e_relu
I0823 12:50:42.851446 16577 net.cpp:148] Top shape: 10 1024 14 14 (2007040)
I0823 12:50:42.851475 16577 net.cpp:156] Memory required for data: 2117427240
I0823 12:50:42.851502 16577 layer_factory.hpp:77] Creating layer res4e_res4e_relu_0_split
I0823 12:50:42.851534 16577 net.cpp:91] Creating Layer res4e_res4e_relu_0_split
I0823 12:50:42.851562 16577 net.cpp:425] res4e_res4e_relu_0_split <- res4e
I0823 12:50:42.851599 16577 net.cpp:399] res4e_res4e_relu_0_split -> res4e_res4e_relu_0_split_0
I0823 12:50:42.851637 16577 net.cpp:399] res4e_res4e_relu_0_split -> res4e_res4e_relu_0_split_1
I0823 12:50:42.851750 16577 net.cpp:141] Setting up res4e_res4e_relu_0_split
I0823 12:50:42.851797 16577 net.cpp:148] Top shape: 10 1024 14 14 (2007040)
I0823 12:50:42.851830 16577 net.cpp:148] Top shape: 10 1024 14 14 (2007040)
I0823 12:50:42.851858 16577 net.cpp:156] Memory required for data: 2133483560
I0823 12:50:42.851886 16577 layer_factory.hpp:77] Creating layer res4f_branch2a
I0823 12:50:42.851938 16577 net.cpp:91] Creating Layer res4f_branch2a
I0823 12:50:42.851972 16577 net.cpp:425] res4f_branch2a <- res4e_res4e_relu_0_split_0
I0823 12:50:42.852010 16577 net.cpp:399] res4f_branch2a -> res4f_branch2a
I0823 12:50:42.857914 16577 net.cpp:141] Setting up res4f_branch2a
I0823 12:50:42.857975 16577 net.cpp:148] Top shape: 10 256 14 14 (501760)
I0823 12:50:42.858005 16577 net.cpp:156] Memory required for data: 2135490600
I0823 12:50:42.858038 16577 layer_factory.hpp:77] Creating layer bn4f_branch2a
I0823 12:50:42.858075 16577 net.cpp:91] Creating Layer bn4f_branch2a
I0823 12:50:42.858109 16577 net.cpp:425] bn4f_branch2a <- res4f_branch2a
I0823 12:50:42.858142 16577 net.cpp:386] bn4f_branch2a -> res4f_branch2a (in-place)
I0823 12:50:42.858605 16577 net.cpp:141] Setting up bn4f_branch2a
I0823 12:50:42.858655 16577 net.cpp:148] Top shape: 10 256 14 14 (501760)
I0823 12:50:42.858685 16577 net.cpp:156] Memory required for data: 2137497640
I0823 12:50:42.858728 16577 layer_factory.hpp:77] Creating layer scale4f_branch2a
I0823 12:50:42.858767 16577 net.cpp:91] Creating Layer scale4f_branch2a
I0823 12:50:42.858835 16577 net.cpp:425] scale4f_branch2a <- res4f_branch2a
I0823 12:50:42.858873 16577 net.cpp:386] scale4f_branch2a -> res4f_branch2a (in-place)
I0823 12:50:42.859012 16577 layer_factory.hpp:77] Creating layer scale4f_branch2a
I0823 12:50:42.859308 16577 net.cpp:141] Setting up scale4f_branch2a
I0823 12:50:42.859357 16577 net.cpp:148] Top shape: 10 256 14 14 (501760)
I0823 12:50:42.859387 16577 net.cpp:156] Memory required for data: 2139504680
I0823 12:50:42.859423 16577 layer_factory.hpp:77] Creating layer res4f_branch2a_relu
I0823 12:50:42.859463 16577 net.cpp:91] Creating Layer res4f_branch2a_relu
I0823 12:50:42.859495 16577 net.cpp:425] res4f_branch2a_relu <- res4f_branch2a
I0823 12:50:42.859527 16577 net.cpp:386] res4f_branch2a_relu -> res4f_branch2a (in-place)
I0823 12:50:42.859570 16577 net.cpp:141] Setting up res4f_branch2a_relu
I0823 12:50:42.859604 16577 net.cpp:148] Top shape: 10 256 14 14 (501760)
I0823 12:50:42.859633 16577 net.cpp:156] Memory required for data: 2141511720
I0823 12:50:42.859661 16577 layer_factory.hpp:77] Creating layer res4f_branch2b
I0823 12:50:42.859701 16577 net.cpp:91] Creating Layer res4f_branch2b
I0823 12:50:42.859730 16577 net.cpp:425] res4f_branch2b <- res4f_branch2a
I0823 12:50:42.859771 16577 net.cpp:399] res4f_branch2b -> res4f_branch2b
I0823 12:50:42.872139 16577 net.cpp:141] Setting up res4f_branch2b
I0823 12:50:42.872200 16577 net.cpp:148] Top shape: 10 256 14 14 (501760)
I0823 12:50:42.872229 16577 net.cpp:156] Memory required for data: 2143518760
I0823 12:50:42.872267 16577 layer_factory.hpp:77] Creating layer bn4f_branch2b
I0823 12:50:42.872303 16577 net.cpp:91] Creating Layer bn4f_branch2b
I0823 12:50:42.872335 16577 net.cpp:425] bn4f_branch2b <- res4f_branch2b
I0823 12:50:42.872369 16577 net.cpp:386] bn4f_branch2b -> res4f_branch2b (in-place)
I0823 12:50:42.872840 16577 net.cpp:141] Setting up bn4f_branch2b
I0823 12:50:42.872891 16577 net.cpp:148] Top shape: 10 256 14 14 (501760)
I0823 12:50:42.872921 16577 net.cpp:156] Memory required for data: 2145525800
I0823 12:50:42.872963 16577 layer_factory.hpp:77] Creating layer scale4f_branch2b
I0823 12:50:42.873006 16577 net.cpp:91] Creating Layer scale4f_branch2b
I0823 12:50:42.873049 16577 net.cpp:425] scale4f_branch2b <- res4f_branch2b
I0823 12:50:42.873083 16577 net.cpp:386] scale4f_branch2b -> res4f_branch2b (in-place)
I0823 12:50:42.873221 16577 layer_factory.hpp:77] Creating layer scale4f_branch2b
I0823 12:50:42.873525 16577 net.cpp:141] Setting up scale4f_branch2b
I0823 12:50:42.873575 16577 net.cpp:148] Top shape: 10 256 14 14 (501760)
I0823 12:50:42.873605 16577 net.cpp:156] Memory required for data: 2147532840
I0823 12:50:42.873641 16577 layer_factory.hpp:77] Creating layer res4f_branch2b_relu
I0823 12:50:42.873677 16577 net.cpp:91] Creating Layer res4f_branch2b_relu
I0823 12:50:42.873708 16577 net.cpp:425] res4f_branch2b_relu <- res4f_branch2b
I0823 12:50:42.873744 16577 net.cpp:386] res4f_branch2b_relu -> res4f_branch2b (in-place)
I0823 12:50:42.873781 16577 net.cpp:141] Setting up res4f_branch2b_relu
I0823 12:50:42.873816 16577 net.cpp:148] Top shape: 10 256 14 14 (501760)
I0823 12:50:42.873843 16577 net.cpp:156] Memory required for data: 2149539880
I0823 12:50:42.873872 16577 layer_factory.hpp:77] Creating layer res4f_branch2c
I0823 12:50:42.873916 16577 net.cpp:91] Creating Layer res4f_branch2c
I0823 12:50:42.873949 16577 net.cpp:425] res4f_branch2c <- res4f_branch2b
I0823 12:50:42.873984 16577 net.cpp:399] res4f_branch2c -> res4f_branch2c
I0823 12:50:42.879870 16577 net.cpp:141] Setting up res4f_branch2c
I0823 12:50:42.879930 16577 net.cpp:148] Top shape: 10 1024 14 14 (2007040)
I0823 12:50:42.879961 16577 net.cpp:156] Memory required for data: 2157568040
I0823 12:50:42.879995 16577 layer_factory.hpp:77] Creating layer bn4f_branch2c
I0823 12:50:42.880038 16577 net.cpp:91] Creating Layer bn4f_branch2c
I0823 12:50:42.880069 16577 net.cpp:425] bn4f_branch2c <- res4f_branch2c
I0823 12:50:42.880106 16577 net.cpp:386] bn4f_branch2c -> res4f_branch2c (in-place)
I0823 12:50:42.880568 16577 net.cpp:141] Setting up bn4f_branch2c
I0823 12:50:42.880661 16577 net.cpp:148] Top shape: 10 1024 14 14 (2007040)
I0823 12:50:42.880693 16577 net.cpp:156] Memory required for data: 2165596200
I0823 12:50:42.880817 16577 layer_factory.hpp:77] Creating layer scale4f_branch2c
I0823 12:50:42.880872 16577 net.cpp:91] Creating Layer scale4f_branch2c
I0823 12:50:42.880905 16577 net.cpp:425] scale4f_branch2c <- res4f_branch2c
I0823 12:50:42.880939 16577 net.cpp:386] scale4f_branch2c -> res4f_branch2c (in-place)
I0823 12:50:42.881063 16577 layer_factory.hpp:77] Creating layer scale4f_branch2c
I0823 12:50:42.881381 16577 net.cpp:141] Setting up scale4f_branch2c
I0823 12:50:42.881431 16577 net.cpp:148] Top shape: 10 1024 14 14 (2007040)
I0823 12:50:42.881460 16577 net.cpp:156] Memory required for data: 2173624360
I0823 12:50:42.881505 16577 layer_factory.hpp:77] Creating layer res4f
I0823 12:50:42.881542 16577 net.cpp:91] Creating Layer res4f
I0823 12:50:42.881572 16577 net.cpp:425] res4f <- res4e_res4e_relu_0_split_1
I0823 12:50:42.881603 16577 net.cpp:425] res4f <- res4f_branch2c
I0823 12:50:42.881642 16577 net.cpp:399] res4f -> res4f
I0823 12:50:42.881726 16577 net.cpp:141] Setting up res4f
I0823 12:50:42.881774 16577 net.cpp:148] Top shape: 10 1024 14 14 (2007040)
I0823 12:50:42.881803 16577 net.cpp:156] Memory required for data: 2181652520
I0823 12:50:42.881830 16577 layer_factory.hpp:77] Creating layer res4f_relu
I0823 12:50:42.881870 16577 net.cpp:91] Creating Layer res4f_relu
I0823 12:50:42.881901 16577 net.cpp:425] res4f_relu <- res4f
I0823 12:50:42.881932 16577 net.cpp:386] res4f_relu -> res4f (in-place)
I0823 12:50:42.881968 16577 net.cpp:141] Setting up res4f_relu
I0823 12:50:42.882001 16577 net.cpp:148] Top shape: 10 1024 14 14 (2007040)
I0823 12:50:42.882030 16577 net.cpp:156] Memory required for data: 2189680680
I0823 12:50:42.882057 16577 layer_factory.hpp:77] Creating layer res4f_res4f_relu_0_split
I0823 12:50:42.882088 16577 net.cpp:91] Creating Layer res4f_res4f_relu_0_split
I0823 12:50:42.882117 16577 net.cpp:425] res4f_res4f_relu_0_split <- res4f
I0823 12:50:42.882154 16577 net.cpp:399] res4f_res4f_relu_0_split -> res4f_res4f_relu_0_split_0
I0823 12:50:42.882191 16577 net.cpp:399] res4f_res4f_relu_0_split -> res4f_res4f_relu_0_split_1
I0823 12:50:42.882305 16577 net.cpp:141] Setting up res4f_res4f_relu_0_split
I0823 12:50:42.882354 16577 net.cpp:148] Top shape: 10 1024 14 14 (2007040)
I0823 12:50:42.882385 16577 net.cpp:148] Top shape: 10 1024 14 14 (2007040)
I0823 12:50:42.882414 16577 net.cpp:156] Memory required for data: 2205737000
I0823 12:50:42.882442 16577 layer_factory.hpp:77] Creating layer res5a_branch1
I0823 12:50:42.882489 16577 net.cpp:91] Creating Layer res5a_branch1
I0823 12:50:42.882524 16577 net.cpp:425] res5a_branch1 <- res4f_res4f_relu_0_split_0
I0823 12:50:42.882560 16577 net.cpp:399] res5a_branch1 -> res5a_branch1
I0823 12:50:42.924839 16577 net.cpp:141] Setting up res5a_branch1
I0823 12:50:42.924911 16577 net.cpp:148] Top shape: 10 2048 7 7 (1003520)
I0823 12:50:42.924942 16577 net.cpp:156] Memory required for data: 2209751080
I0823 12:50:42.924978 16577 layer_factory.hpp:77] Creating layer bn5a_branch1
I0823 12:50:42.925020 16577 net.cpp:91] Creating Layer bn5a_branch1
I0823 12:50:42.925052 16577 net.cpp:425] bn5a_branch1 <- res5a_branch1
I0823 12:50:42.925089 16577 net.cpp:386] bn5a_branch1 -> res5a_branch1 (in-place)
I0823 12:50:42.925606 16577 net.cpp:141] Setting up bn5a_branch1
I0823 12:50:42.925657 16577 net.cpp:148] Top shape: 10 2048 7 7 (1003520)
I0823 12:50:42.925688 16577 net.cpp:156] Memory required for data: 2213765160
I0823 12:50:42.925729 16577 layer_factory.hpp:77] Creating layer scale5a_branch1
I0823 12:50:42.925767 16577 net.cpp:91] Creating Layer scale5a_branch1
I0823 12:50:42.925798 16577 net.cpp:425] scale5a_branch1 <- res5a_branch1
I0823 12:50:42.925832 16577 net.cpp:386] scale5a_branch1 -> res5a_branch1 (in-place)
I0823 12:50:42.925964 16577 layer_factory.hpp:77] Creating layer scale5a_branch1
I0823 12:50:42.926283 16577 net.cpp:141] Setting up scale5a_branch1
I0823 12:50:42.926371 16577 net.cpp:148] Top shape: 10 2048 7 7 (1003520)
I0823 12:50:42.926403 16577 net.cpp:156] Memory required for data: 2217779240
I0823 12:50:42.926440 16577 layer_factory.hpp:77] Creating layer res5a_branch2a
I0823 12:50:42.926489 16577 net.cpp:91] Creating Layer res5a_branch2a
I0823 12:50:42.926523 16577 net.cpp:425] res5a_branch2a <- res4f_res4f_relu_0_split_1
I0823 12:50:42.926560 16577 net.cpp:399] res5a_branch2a -> res5a_branch2a
I0823 12:50:42.937675 16577 net.cpp:141] Setting up res5a_branch2a
I0823 12:50:42.937736 16577 net.cpp:148] Top shape: 10 512 7 7 (250880)
I0823 12:50:42.937767 16577 net.cpp:156] Memory required for data: 2218782760
I0823 12:50:42.937803 16577 layer_factory.hpp:77] Creating layer bn5a_branch2a
I0823 12:50:42.937846 16577 net.cpp:91] Creating Layer bn5a_branch2a
I0823 12:50:42.937878 16577 net.cpp:425] bn5a_branch2a <- res5a_branch2a
I0823 12:50:42.937916 16577 net.cpp:386] bn5a_branch2a -> res5a_branch2a (in-place)
I0823 12:50:42.938392 16577 net.cpp:141] Setting up bn5a_branch2a
I0823 12:50:42.938443 16577 net.cpp:148] Top shape: 10 512 7 7 (250880)
I0823 12:50:42.938473 16577 net.cpp:156] Memory required for data: 2219786280
I0823 12:50:42.938516 16577 layer_factory.hpp:77] Creating layer scale5a_branch2a
I0823 12:50:42.938560 16577 net.cpp:91] Creating Layer scale5a_branch2a
I0823 12:50:42.938593 16577 net.cpp:425] scale5a_branch2a <- res5a_branch2a
I0823 12:50:42.938627 16577 net.cpp:386] scale5a_branch2a -> res5a_branch2a (in-place)
I0823 12:50:42.938748 16577 layer_factory.hpp:77] Creating layer scale5a_branch2a
I0823 12:50:42.939066 16577 net.cpp:141] Setting up scale5a_branch2a
I0823 12:50:42.939116 16577 net.cpp:148] Top shape: 10 512 7 7 (250880)
I0823 12:50:42.939146 16577 net.cpp:156] Memory required for data: 2220789800
I0823 12:50:42.939182 16577 layer_factory.hpp:77] Creating layer res5a_branch2a_relu
I0823 12:50:42.939218 16577 net.cpp:91] Creating Layer res5a_branch2a_relu
I0823 12:50:42.939249 16577 net.cpp:425] res5a_branch2a_relu <- res5a_branch2a
I0823 12:50:42.939286 16577 net.cpp:386] res5a_branch2a_relu -> res5a_branch2a (in-place)
I0823 12:50:42.939323 16577 net.cpp:141] Setting up res5a_branch2a_relu
I0823 12:50:42.939357 16577 net.cpp:148] Top shape: 10 512 7 7 (250880)
I0823 12:50:42.939385 16577 net.cpp:156] Memory required for data: 2221793320
I0823 12:50:42.939414 16577 layer_factory.hpp:77] Creating layer res5a_branch2b
I0823 12:50:42.939457 16577 net.cpp:91] Creating Layer res5a_branch2b
I0823 12:50:42.939489 16577 net.cpp:425] res5a_branch2b <- res5a_branch2a
I0823 12:50:42.939525 16577 net.cpp:399] res5a_branch2b -> res5a_branch2b
I0823 12:50:42.987104 16577 net.cpp:141] Setting up res5a_branch2b
I0823 12:50:42.987179 16577 net.cpp:148] Top shape: 10 512 7 7 (250880)
I0823 12:50:42.987210 16577 net.cpp:156] Memory required for data: 2222796840
I0823 12:50:42.987244 16577 layer_factory.hpp:77] Creating layer bn5a_branch2b
I0823 12:50:42.987301 16577 net.cpp:91] Creating Layer bn5a_branch2b
I0823 12:50:42.987346 16577 net.cpp:425] bn5a_branch2b <- res5a_branch2b
I0823 12:50:42.987382 16577 net.cpp:386] bn5a_branch2b -> res5a_branch2b (in-place)
I0823 12:50:42.987874 16577 net.cpp:141] Setting up bn5a_branch2b
I0823 12:50:42.987926 16577 net.cpp:148] Top shape: 10 512 7 7 (250880)
I0823 12:50:42.987956 16577 net.cpp:156] Memory required for data: 2223800360
I0823 12:50:42.988001 16577 layer_factory.hpp:77] Creating layer scale5a_branch2b
I0823 12:50:42.988039 16577 net.cpp:91] Creating Layer scale5a_branch2b
I0823 12:50:42.988070 16577 net.cpp:425] scale5a_branch2b <- res5a_branch2b
I0823 12:50:42.988111 16577 net.cpp:386] scale5a_branch2b -> res5a_branch2b (in-place)
I0823 12:50:42.988234 16577 layer_factory.hpp:77] Creating layer scale5a_branch2b
I0823 12:50:42.988551 16577 net.cpp:141] Setting up scale5a_branch2b
I0823 12:50:42.988626 16577 net.cpp:148] Top shape: 10 512 7 7 (250880)
I0823 12:50:42.988661 16577 net.cpp:156] Memory required for data: 2224803880
I0823 12:50:42.988705 16577 layer_factory.hpp:77] Creating layer res5a_branch2b_relu
I0823 12:50:42.988796 16577 net.cpp:91] Creating Layer res5a_branch2b_relu
I0823 12:50:42.988831 16577 net.cpp:425] res5a_branch2b_relu <- res5a_branch2b
I0823 12:50:42.988863 16577 net.cpp:386] res5a_branch2b_relu -> res5a_branch2b (in-place)
I0823 12:50:42.988900 16577 net.cpp:141] Setting up res5a_branch2b_relu
I0823 12:50:42.988934 16577 net.cpp:148] Top shape: 10 512 7 7 (250880)
I0823 12:50:42.988961 16577 net.cpp:156] Memory required for data: 2225807400
I0823 12:50:42.988989 16577 layer_factory.hpp:77] Creating layer res5a_branch2c
I0823 12:50:42.989037 16577 net.cpp:91] Creating Layer res5a_branch2c
I0823 12:50:42.989068 16577 net.cpp:425] res5a_branch2c <- res5a_branch2b
I0823 12:50:42.989109 16577 net.cpp:399] res5a_branch2c -> res5a_branch2c
I0823 12:50:43.010946 16577 net.cpp:141] Setting up res5a_branch2c
I0823 12:50:43.011013 16577 net.cpp:148] Top shape: 10 2048 7 7 (1003520)
I0823 12:50:43.011044 16577 net.cpp:156] Memory required for data: 2229821480
I0823 12:50:43.011078 16577 layer_factory.hpp:77] Creating layer bn5a_branch2c
I0823 12:50:43.011117 16577 net.cpp:91] Creating Layer bn5a_branch2c
I0823 12:50:43.011147 16577 net.cpp:425] bn5a_branch2c <- res5a_branch2c
I0823 12:50:43.011186 16577 net.cpp:386] bn5a_branch2c -> res5a_branch2c (in-place)
I0823 12:50:43.011685 16577 net.cpp:141] Setting up bn5a_branch2c
I0823 12:50:43.011736 16577 net.cpp:148] Top shape: 10 2048 7 7 (1003520)
I0823 12:50:43.011767 16577 net.cpp:156] Memory required for data: 2233835560
I0823 12:50:43.011807 16577 layer_factory.hpp:77] Creating layer scale5a_branch2c
I0823 12:50:43.011844 16577 net.cpp:91] Creating Layer scale5a_branch2c
I0823 12:50:43.011875 16577 net.cpp:425] scale5a_branch2c <- res5a_branch2c
I0823 12:50:43.011909 16577 net.cpp:386] scale5a_branch2c -> res5a_branch2c (in-place)
I0823 12:50:43.012037 16577 layer_factory.hpp:77] Creating layer scale5a_branch2c
I0823 12:50:43.012363 16577 net.cpp:141] Setting up scale5a_branch2c
I0823 12:50:43.012414 16577 net.cpp:148] Top shape: 10 2048 7 7 (1003520)
I0823 12:50:43.012444 16577 net.cpp:156] Memory required for data: 2237849640
I0823 12:50:43.012480 16577 layer_factory.hpp:77] Creating layer res5a
I0823 12:50:43.012516 16577 net.cpp:91] Creating Layer res5a
I0823 12:50:43.012547 16577 net.cpp:425] res5a <- res5a_branch1
I0823 12:50:43.012578 16577 net.cpp:425] res5a <- res5a_branch2c
I0823 12:50:43.012630 16577 net.cpp:399] res5a -> res5a
I0823 12:50:43.012724 16577 net.cpp:141] Setting up res5a
I0823 12:50:43.012773 16577 net.cpp:148] Top shape: 10 2048 7 7 (1003520)
I0823 12:50:43.012804 16577 net.cpp:156] Memory required for data: 2241863720
I0823 12:50:43.012831 16577 layer_factory.hpp:77] Creating layer res5a_relu
I0823 12:50:43.012871 16577 net.cpp:91] Creating Layer res5a_relu
I0823 12:50:43.012902 16577 net.cpp:425] res5a_relu <- res5a
I0823 12:50:43.012933 16577 net.cpp:386] res5a_relu -> res5a (in-place)
I0823 12:50:43.012969 16577 net.cpp:141] Setting up res5a_relu
I0823 12:50:43.013001 16577 net.cpp:148] Top shape: 10 2048 7 7 (1003520)
I0823 12:50:43.013031 16577 net.cpp:156] Memory required for data: 2245877800
I0823 12:50:43.013058 16577 layer_factory.hpp:77] Creating layer res5a_res5a_relu_0_split
I0823 12:50:43.013098 16577 net.cpp:91] Creating Layer res5a_res5a_relu_0_split
I0823 12:50:43.013126 16577 net.cpp:425] res5a_res5a_relu_0_split <- res5a
I0823 12:50:43.013159 16577 net.cpp:399] res5a_res5a_relu_0_split -> res5a_res5a_relu_0_split_0
I0823 12:50:43.013195 16577 net.cpp:399] res5a_res5a_relu_0_split -> res5a_res5a_relu_0_split_1
I0823 12:50:43.013319 16577 net.cpp:141] Setting up res5a_res5a_relu_0_split
I0823 12:50:43.013367 16577 net.cpp:148] Top shape: 10 2048 7 7 (1003520)
I0823 12:50:43.013401 16577 net.cpp:148] Top shape: 10 2048 7 7 (1003520)
I0823 12:50:43.013429 16577 net.cpp:156] Memory required for data: 2253905960
I0823 12:50:43.013458 16577 layer_factory.hpp:77] Creating layer res5b_branch2a
I0823 12:50:43.013502 16577 net.cpp:91] Creating Layer res5b_branch2a
I0823 12:50:43.013535 16577 net.cpp:425] res5b_branch2a <- res5a_res5a_relu_0_split_0
I0823 12:50:43.013612 16577 net.cpp:399] res5b_branch2a -> res5b_branch2a
I0823 12:50:43.035110 16577 net.cpp:141] Setting up res5b_branch2a
I0823 12:50:43.035174 16577 net.cpp:148] Top shape: 10 512 7 7 (250880)
I0823 12:50:43.035205 16577 net.cpp:156] Memory required for data: 2254909480
I0823 12:50:43.035239 16577 layer_factory.hpp:77] Creating layer bn5b_branch2a
I0823 12:50:43.035275 16577 net.cpp:91] Creating Layer bn5b_branch2a
I0823 12:50:43.035306 16577 net.cpp:425] bn5b_branch2a <- res5b_branch2a
I0823 12:50:43.035339 16577 net.cpp:386] bn5b_branch2a -> res5b_branch2a (in-place)
I0823 12:50:43.035820 16577 net.cpp:141] Setting up bn5b_branch2a
I0823 12:50:43.035871 16577 net.cpp:148] Top shape: 10 512 7 7 (250880)
I0823 12:50:43.035900 16577 net.cpp:156] Memory required for data: 2255913000
I0823 12:50:43.035940 16577 layer_factory.hpp:77] Creating layer scale5b_branch2a
I0823 12:50:43.035977 16577 net.cpp:91] Creating Layer scale5b_branch2a
I0823 12:50:43.036010 16577 net.cpp:425] scale5b_branch2a <- res5b_branch2a
I0823 12:50:43.036043 16577 net.cpp:386] scale5b_branch2a -> res5b_branch2a (in-place)
I0823 12:50:43.036170 16577 layer_factory.hpp:77] Creating layer scale5b_branch2a
I0823 12:50:43.036496 16577 net.cpp:141] Setting up scale5b_branch2a
I0823 12:50:43.036546 16577 net.cpp:148] Top shape: 10 512 7 7 (250880)
I0823 12:50:43.036576 16577 net.cpp:156] Memory required for data: 2256916520
I0823 12:50:43.036623 16577 layer_factory.hpp:77] Creating layer res5b_branch2a_relu
I0823 12:50:43.036666 16577 net.cpp:91] Creating Layer res5b_branch2a_relu
I0823 12:50:43.036697 16577 net.cpp:425] res5b_branch2a_relu <- res5b_branch2a
I0823 12:50:43.036736 16577 net.cpp:386] res5b_branch2a_relu -> res5b_branch2a (in-place)
I0823 12:50:43.036774 16577 net.cpp:141] Setting up res5b_branch2a_relu
I0823 12:50:43.036808 16577 net.cpp:148] Top shape: 10 512 7 7 (250880)
I0823 12:50:43.036837 16577 net.cpp:156] Memory required for data: 2257920040
I0823 12:50:43.036864 16577 layer_factory.hpp:77] Creating layer res5b_branch2b
I0823 12:50:43.036905 16577 net.cpp:91] Creating Layer res5b_branch2b
I0823 12:50:43.036933 16577 net.cpp:425] res5b_branch2b <- res5b_branch2a
I0823 12:50:43.036974 16577 net.cpp:399] res5b_branch2b -> res5b_branch2b
I0823 12:50:43.084547 16577 net.cpp:141] Setting up res5b_branch2b
I0823 12:50:43.084642 16577 net.cpp:148] Top shape: 10 512 7 7 (250880)
I0823 12:50:43.084681 16577 net.cpp:156] Memory required for data: 2258923560
I0823 12:50:43.084717 16577 layer_factory.hpp:77] Creating layer bn5b_branch2b
I0823 12:50:43.084756 16577 net.cpp:91] Creating Layer bn5b_branch2b
I0823 12:50:43.084787 16577 net.cpp:425] bn5b_branch2b <- res5b_branch2b
I0823 12:50:43.084827 16577 net.cpp:386] bn5b_branch2b -> res5b_branch2b (in-place)
I0823 12:50:43.085319 16577 net.cpp:141] Setting up bn5b_branch2b
I0823 12:50:43.085369 16577 net.cpp:148] Top shape: 10 512 7 7 (250880)
I0823 12:50:43.085399 16577 net.cpp:156] Memory required for data: 2259927080
I0823 12:50:43.085439 16577 layer_factory.hpp:77] Creating layer scale5b_branch2b
I0823 12:50:43.085492 16577 net.cpp:91] Creating Layer scale5b_branch2b
I0823 12:50:43.085536 16577 net.cpp:425] scale5b_branch2b <- res5b_branch2b
I0823 12:50:43.085569 16577 net.cpp:386] scale5b_branch2b -> res5b_branch2b (in-place)
I0823 12:50:43.085700 16577 layer_factory.hpp:77] Creating layer scale5b_branch2b
I0823 12:50:43.086024 16577 net.cpp:141] Setting up scale5b_branch2b
I0823 12:50:43.086073 16577 net.cpp:148] Top shape: 10 512 7 7 (250880)
I0823 12:50:43.086103 16577 net.cpp:156] Memory required for data: 2260930600
I0823 12:50:43.086141 16577 layer_factory.hpp:77] Creating layer res5b_branch2b_relu
I0823 12:50:43.086184 16577 net.cpp:91] Creating Layer res5b_branch2b_relu
I0823 12:50:43.086215 16577 net.cpp:425] res5b_branch2b_relu <- res5b_branch2b
I0823 12:50:43.086247 16577 net.cpp:386] res5b_branch2b_relu -> res5b_branch2b (in-place)
I0823 12:50:43.086282 16577 net.cpp:141] Setting up res5b_branch2b_relu
I0823 12:50:43.086316 16577 net.cpp:148] Top shape: 10 512 7 7 (250880)
I0823 12:50:43.086395 16577 net.cpp:156] Memory required for data: 2261934120
I0823 12:50:43.086427 16577 layer_factory.hpp:77] Creating layer res5b_branch2c
I0823 12:50:43.086474 16577 net.cpp:91] Creating Layer res5b_branch2c
I0823 12:50:43.086506 16577 net.cpp:425] res5b_branch2c <- res5b_branch2b
I0823 12:50:43.086542 16577 net.cpp:399] res5b_branch2c -> res5b_branch2c
I0823 12:50:43.108067 16577 net.cpp:141] Setting up res5b_branch2c
I0823 12:50:43.108130 16577 net.cpp:148] Top shape: 10 2048 7 7 (1003520)
I0823 12:50:43.108161 16577 net.cpp:156] Memory required for data: 2265948200
I0823 12:50:43.108196 16577 layer_factory.hpp:77] Creating layer bn5b_branch2c
I0823 12:50:43.108244 16577 net.cpp:91] Creating Layer bn5b_branch2c
I0823 12:50:43.108276 16577 net.cpp:425] bn5b_branch2c <- res5b_branch2c
I0823 12:50:43.108314 16577 net.cpp:386] bn5b_branch2c -> res5b_branch2c (in-place)
I0823 12:50:43.108816 16577 net.cpp:141] Setting up bn5b_branch2c
I0823 12:50:43.108868 16577 net.cpp:148] Top shape: 10 2048 7 7 (1003520)
I0823 12:50:43.108898 16577 net.cpp:156] Memory required for data: 2269962280
I0823 12:50:43.108938 16577 layer_factory.hpp:77] Creating layer scale5b_branch2c
I0823 12:50:43.108983 16577 net.cpp:91] Creating Layer scale5b_branch2c
I0823 12:50:43.109014 16577 net.cpp:425] scale5b_branch2c <- res5b_branch2c
I0823 12:50:43.109047 16577 net.cpp:386] scale5b_branch2c -> res5b_branch2c (in-place)
I0823 12:50:43.109167 16577 layer_factory.hpp:77] Creating layer scale5b_branch2c
I0823 12:50:43.109493 16577 net.cpp:141] Setting up scale5b_branch2c
I0823 12:50:43.109542 16577 net.cpp:148] Top shape: 10 2048 7 7 (1003520)
I0823 12:50:43.109572 16577 net.cpp:156] Memory required for data: 2273976360
I0823 12:50:43.109608 16577 layer_factory.hpp:77] Creating layer res5b
I0823 12:50:43.109644 16577 net.cpp:91] Creating Layer res5b
I0823 12:50:43.109675 16577 net.cpp:425] res5b <- res5a_res5a_relu_0_split_1
I0823 12:50:43.109706 16577 net.cpp:425] res5b <- res5b_branch2c
I0823 12:50:43.109745 16577 net.cpp:399] res5b -> res5b
I0823 12:50:43.109833 16577 net.cpp:141] Setting up res5b
I0823 12:50:43.109889 16577 net.cpp:148] Top shape: 10 2048 7 7 (1003520)
I0823 12:50:43.109920 16577 net.cpp:156] Memory required for data: 2277990440
I0823 12:50:43.109947 16577 layer_factory.hpp:77] Creating layer res5b_relu
I0823 12:50:43.109979 16577 net.cpp:91] Creating Layer res5b_relu
I0823 12:50:43.110009 16577 net.cpp:425] res5b_relu <- res5b
I0823 12:50:43.110040 16577 net.cpp:386] res5b_relu -> res5b (in-place)
I0823 12:50:43.110075 16577 net.cpp:141] Setting up res5b_relu
I0823 12:50:43.110108 16577 net.cpp:148] Top shape: 10 2048 7 7 (1003520)
I0823 12:50:43.110136 16577 net.cpp:156] Memory required for data: 2282004520
I0823 12:50:43.110164 16577 layer_factory.hpp:77] Creating layer res5b_res5b_relu_0_split
I0823 12:50:43.110198 16577 net.cpp:91] Creating Layer res5b_res5b_relu_0_split
I0823 12:50:43.110225 16577 net.cpp:425] res5b_res5b_relu_0_split <- res5b
I0823 12:50:43.110263 16577 net.cpp:399] res5b_res5b_relu_0_split -> res5b_res5b_relu_0_split_0
I0823 12:50:43.110301 16577 net.cpp:399] res5b_res5b_relu_0_split -> res5b_res5b_relu_0_split_1
I0823 12:50:43.110416 16577 net.cpp:141] Setting up res5b_res5b_relu_0_split
I0823 12:50:43.110465 16577 net.cpp:148] Top shape: 10 2048 7 7 (1003520)
I0823 12:50:43.110496 16577 net.cpp:148] Top shape: 10 2048 7 7 (1003520)
I0823 12:50:43.110524 16577 net.cpp:156] Memory required for data: 2290032680
I0823 12:50:43.110553 16577 layer_factory.hpp:77] Creating layer res5c_branch2a
I0823 12:50:43.110592 16577 net.cpp:91] Creating Layer res5c_branch2a
I0823 12:50:43.110623 16577 net.cpp:425] res5c_branch2a <- res5b_res5b_relu_0_split_0
I0823 12:50:43.110659 16577 net.cpp:399] res5c_branch2a -> res5c_branch2a
I0823 12:50:43.132098 16577 net.cpp:141] Setting up res5c_branch2a
I0823 12:50:43.132159 16577 net.cpp:148] Top shape: 10 512 7 7 (250880)
I0823 12:50:43.132189 16577 net.cpp:156] Memory required for data: 2291036200
I0823 12:50:43.132268 16577 layer_factory.hpp:77] Creating layer bn5c_branch2a
I0823 12:50:43.132323 16577 net.cpp:91] Creating Layer bn5c_branch2a
I0823 12:50:43.132369 16577 net.cpp:425] bn5c_branch2a <- res5c_branch2a
I0823 12:50:43.132403 16577 net.cpp:386] bn5c_branch2a -> res5c_branch2a (in-place)
I0823 12:50:43.132901 16577 net.cpp:141] Setting up bn5c_branch2a
I0823 12:50:43.132953 16577 net.cpp:148] Top shape: 10 512 7 7 (250880)
I0823 12:50:43.132982 16577 net.cpp:156] Memory required for data: 2292039720
I0823 12:50:43.133028 16577 layer_factory.hpp:77] Creating layer scale5c_branch2a
I0823 12:50:43.133069 16577 net.cpp:91] Creating Layer scale5c_branch2a
I0823 12:50:43.133100 16577 net.cpp:425] scale5c_branch2a <- res5c_branch2a
I0823 12:50:43.133138 16577 net.cpp:386] scale5c_branch2a -> res5c_branch2a (in-place)
I0823 12:50:43.133261 16577 layer_factory.hpp:77] Creating layer scale5c_branch2a
I0823 12:50:43.133590 16577 net.cpp:141] Setting up scale5c_branch2a
I0823 12:50:43.133641 16577 net.cpp:148] Top shape: 10 512 7 7 (250880)
I0823 12:50:43.133671 16577 net.cpp:156] Memory required for data: 2293043240
I0823 12:50:43.133707 16577 layer_factory.hpp:77] Creating layer res5c_branch2a_relu
I0823 12:50:43.133741 16577 net.cpp:91] Creating Layer res5c_branch2a_relu
I0823 12:50:43.133771 16577 net.cpp:425] res5c_branch2a_relu <- res5c_branch2a
I0823 12:50:43.133803 16577 net.cpp:386] res5c_branch2a_relu -> res5c_branch2a (in-place)
I0823 12:50:43.133841 16577 net.cpp:141] Setting up res5c_branch2a_relu
I0823 12:50:43.133873 16577 net.cpp:148] Top shape: 10 512 7 7 (250880)
I0823 12:50:43.133901 16577 net.cpp:156] Memory required for data: 2294046760
I0823 12:50:43.133929 16577 layer_factory.hpp:77] Creating layer res5c_branch2b
I0823 12:50:43.133975 16577 net.cpp:91] Creating Layer res5c_branch2b
I0823 12:50:43.134007 16577 net.cpp:425] res5c_branch2b <- res5c_branch2a
I0823 12:50:43.134048 16577 net.cpp:399] res5c_branch2b -> res5c_branch2b
I0823 12:50:43.181649 16577 net.cpp:141] Setting up res5c_branch2b
I0823 12:50:43.181720 16577 net.cpp:148] Top shape: 10 512 7 7 (250880)
I0823 12:50:43.181751 16577 net.cpp:156] Memory required for data: 2295050280
I0823 12:50:43.181785 16577 layer_factory.hpp:77] Creating layer bn5c_branch2b
I0823 12:50:43.181823 16577 net.cpp:91] Creating Layer bn5c_branch2b
I0823 12:50:43.181854 16577 net.cpp:425] bn5c_branch2b <- res5c_branch2b
I0823 12:50:43.181895 16577 net.cpp:386] bn5c_branch2b -> res5c_branch2b (in-place)
I0823 12:50:43.182389 16577 net.cpp:141] Setting up bn5c_branch2b
I0823 12:50:43.182441 16577 net.cpp:148] Top shape: 10 512 7 7 (250880)
I0823 12:50:43.182471 16577 net.cpp:156] Memory required for data: 2296053800
I0823 12:50:43.182514 16577 layer_factory.hpp:77] Creating layer scale5c_branch2b
I0823 12:50:43.182552 16577 net.cpp:91] Creating Layer scale5c_branch2b
I0823 12:50:43.182585 16577 net.cpp:425] scale5c_branch2b <- res5c_branch2b
I0823 12:50:43.182618 16577 net.cpp:386] scale5c_branch2b -> res5c_branch2b (in-place)
I0823 12:50:43.182747 16577 layer_factory.hpp:77] Creating layer scale5c_branch2b
I0823 12:50:43.183079 16577 net.cpp:141] Setting up scale5c_branch2b
I0823 12:50:43.183128 16577 net.cpp:148] Top shape: 10 512 7 7 (250880)
I0823 12:50:43.183157 16577 net.cpp:156] Memory required for data: 2297057320
I0823 12:50:43.183194 16577 layer_factory.hpp:77] Creating layer res5c_branch2b_relu
I0823 12:50:43.183235 16577 net.cpp:91] Creating Layer res5c_branch2b_relu
I0823 12:50:43.183266 16577 net.cpp:425] res5c_branch2b_relu <- res5c_branch2b
I0823 12:50:43.183298 16577 net.cpp:386] res5c_branch2b_relu -> res5c_branch2b (in-place)
I0823 12:50:43.183336 16577 net.cpp:141] Setting up res5c_branch2b_relu
I0823 12:50:43.183368 16577 net.cpp:148] Top shape: 10 512 7 7 (250880)
I0823 12:50:43.183396 16577 net.cpp:156] Memory required for data: 2298060840
I0823 12:50:43.183423 16577 layer_factory.hpp:77] Creating layer res5c_branch2c
I0823 12:50:43.183470 16577 net.cpp:91] Creating Layer res5c_branch2c
I0823 12:50:43.183501 16577 net.cpp:425] res5c_branch2c <- res5c_branch2b
I0823 12:50:43.183581 16577 net.cpp:399] res5c_branch2c -> res5c_branch2c
I0823 12:50:43.205128 16577 net.cpp:141] Setting up res5c_branch2c
I0823 12:50:43.205188 16577 net.cpp:148] Top shape: 10 2048 7 7 (1003520)
I0823 12:50:43.205219 16577 net.cpp:156] Memory required for data: 2302074920
I0823 12:50:43.205253 16577 layer_factory.hpp:77] Creating layer bn5c_branch2c
I0823 12:50:43.205291 16577 net.cpp:91] Creating Layer bn5c_branch2c
I0823 12:50:43.205322 16577 net.cpp:425] bn5c_branch2c <- res5c_branch2c
I0823 12:50:43.205355 16577 net.cpp:386] bn5c_branch2c -> res5c_branch2c (in-place)
I0823 12:50:43.205859 16577 net.cpp:141] Setting up bn5c_branch2c
I0823 12:50:43.205909 16577 net.cpp:148] Top shape: 10 2048 7 7 (1003520)
I0823 12:50:43.205940 16577 net.cpp:156] Memory required for data: 2306089000
I0823 12:50:43.205982 16577 layer_factory.hpp:77] Creating layer scale5c_branch2c
I0823 12:50:43.206022 16577 net.cpp:91] Creating Layer scale5c_branch2c
I0823 12:50:43.206053 16577 net.cpp:425] scale5c_branch2c <- res5c_branch2c
I0823 12:50:43.206087 16577 net.cpp:386] scale5c_branch2c -> res5c_branch2c (in-place)
I0823 12:50:43.206218 16577 layer_factory.hpp:77] Creating layer scale5c_branch2c
I0823 12:50:43.206564 16577 net.cpp:141] Setting up scale5c_branch2c
I0823 12:50:43.206614 16577 net.cpp:148] Top shape: 10 2048 7 7 (1003520)
I0823 12:50:43.206643 16577 net.cpp:156] Memory required for data: 2310103080
I0823 12:50:43.206681 16577 layer_factory.hpp:77] Creating layer res5c
I0823 12:50:43.206717 16577 net.cpp:91] Creating Layer res5c
I0823 12:50:43.206746 16577 net.cpp:425] res5c <- res5b_res5b_relu_0_split_1
I0823 12:50:43.206778 16577 net.cpp:425] res5c <- res5c_branch2c
I0823 12:50:43.206816 16577 net.cpp:399] res5c -> res5c
I0823 12:50:43.206904 16577 net.cpp:141] Setting up res5c
I0823 12:50:43.206953 16577 net.cpp:148] Top shape: 10 2048 7 7 (1003520)
I0823 12:50:43.206982 16577 net.cpp:156] Memory required for data: 2314117160
I0823 12:50:43.207010 16577 layer_factory.hpp:77] Creating layer res5c_relu
I0823 12:50:43.207049 16577 net.cpp:91] Creating Layer res5c_relu
I0823 12:50:43.207080 16577 net.cpp:425] res5c_relu <- res5c
I0823 12:50:43.207113 16577 net.cpp:386] res5c_relu -> res5c (in-place)
I0823 12:50:43.207149 16577 net.cpp:141] Setting up res5c_relu
I0823 12:50:43.207180 16577 net.cpp:148] Top shape: 10 2048 7 7 (1003520)
I0823 12:50:43.207208 16577 net.cpp:156] Memory required for data: 2318131240
I0823 12:50:43.207235 16577 layer_factory.hpp:77] Creating layer pool5
I0823 12:50:43.207276 16577 net.cpp:91] Creating Layer pool5
I0823 12:50:43.207306 16577 net.cpp:425] pool5 <- res5c
I0823 12:50:43.207340 16577 net.cpp:399] pool5 -> pool5
I0823 12:50:43.207437 16577 net.cpp:141] Setting up pool5
I0823 12:50:43.207484 16577 net.cpp:148] Top shape: 10 2048 1 1 (20480)
I0823 12:50:43.207514 16577 net.cpp:156] Memory required for data: 2318213160
I0823 12:50:43.207541 16577 layer_factory.hpp:77] Creating layer fc_hash
I0823 12:50:43.207588 16577 net.cpp:91] Creating Layer fc_hash
I0823 12:50:43.207620 16577 net.cpp:425] fc_hash <- pool5
I0823 12:50:43.207654 16577 net.cpp:399] fc_hash -> fc_hash
I0823 12:50:43.209864 16577 net.cpp:141] Setting up fc_hash
I0823 12:50:43.209918 16577 net.cpp:148] Top shape: 10 12 (120)
I0823 12:50:43.209949 16577 net.cpp:156] Memory required for data: 2318213640
I0823 12:50:43.209985 16577 layer_factory.hpp:77] Creating layer loss_hash
I0823 12:50:43.210031 16577 net.cpp:91] Creating Layer loss_hash
I0823 12:50:43.210062 16577 net.cpp:425] loss_hash <- fc_hash
I0823 12:50:43.210093 16577 net.cpp:425] loss_hash <- label
I0823 12:50:43.210142 16577 net.cpp:399] loss_hash -> loss_hash
…
