…
I0914 11:39:17.405104 38730 net.cpp:313] The NetState phase (0) differed from the phase (1) specified by a rule in layer accuracy_at_1
I0914 11:39:17.405524 38730 net.cpp:49] Initializing net from parameters: 
name: "docomo_VGG16"
state {
  phase: TRAIN
}
layer {
  name: "data"
  type: "Data"
  top: "data"
  top: "label"
  include {
    phase: TRAIN
  }
  transform_param {
    mirror: true
    crop_size: 224
    mean_value: 103.939
    mean_value: 116.779
    mean_value: 123.68
  }
  data_param {
    source: "PATTERN/pattern_train_lmdb/"
    batch_size: 10
    backend: LMDB
  }
}
layer {
  name: "conv1_1"
  type: "Convolution"
  bottom: "data"
  top: "conv1_1"
  param {
    lr_mult: 1
    decay_mult: 1
  }
  param {
    lr_mult: 2
    decay_mult: 0
  }
  convolution_param {
    num_output: 64
    pad: 1
    kernel_size: 3
    weight_filler {
      type: "gaussian"
      std: 0.01
    }
    bias_filler {
      type: "constant"
      value: 0
    }
  }
}
layer {
  name: "relu1_1"
  type: "ReLU"
  bottom: "conv1_1"
  top: "conv1_1"
}
layer {
  name: "conv1_2"
  type: "Convolution"
  bottom: "conv1_1"
  top: "conv1_2"
  param {
    lr_mult: 1
    decay_mult: 1
  }
  param {
    lr_mult: 2
    decay_mult: 0
  }
  convolution_param {
    num_output: 64
    pad: 1
    kernel_size: 3
    weight_filler {
      type: "gaussian"
      std: 0.01
    }
    bias_filler {
      type: "constant"
      value: 0
    }
  }
}
layer {
  name: "relu1_2"
  type: "ReLU"
  bottom: "conv1_2"
  top: "conv1_2"
}
layer {
  name: "pool1"
  type: "Pooling"
  bottom: "conv1_2"
  top: "pool1"
  pooling_param {
    pool: MAX
    kernel_size: 2
    stride: 2
  }
}
layer {
  name: "conv2_1"
  type: "Convolution"
  bottom: "pool1"
  top: "conv2_1"
  param {
    lr_mult: 1
    decay_mult: 1
  }
  param {
    lr_mult: 2
    decay_mult: 0
  }
  convolution_param {
    num_output: 128
    pad: 1
    kernel_size: 3
    weight_filler {
      type: "gaussian"
      std: 0.01
    }
    bias_filler {
      type: "constant"
      value: 0
    }
  }
}
layer {
  name: "relu2_1"
  type: "ReLU"
  bottom: "conv2_1"
  top: "conv2_1"
}
layer {
  name: "conv2_2"
  type: "Convolution"
  bottom: "conv2_1"
  top: "conv2_2"
  param {
    lr_mult: 1
    decay_mult: 1
  }
  param {
    lr_mult: 2
    decay_mult: 0
  }
  convolution_param {
    num_output: 128
    pad: 1
    kernel_size: 3
    weight_filler {
      type: "gaussian"
      std: 0.01
    }
    bias_filler {
      type: "constant"
      value: 0
    }
  }
}
layer {
  name: "relu2_2"
  type: "ReLU"
  bottom: "conv2_2"
  top: "conv2_2"
}
layer {
  name: "pool2"
  type: "Pooling"
  bottom: "conv2_2"
  top: "pool2"
  pooling_param {
    pool: MAX
    kernel_size: 2
    stride: 2
  }
}
layer {
  name: "conv3_1"
  type: "Convolution"
  bottom: "pool2"
  top: "conv3_1"
  param {
    lr_mult: 1
    decay_mult: 1
  }
  param {
    lr_mult: 2
    decay_mult: 0
  }
  convolution_param {
    num_output: 256
    pad: 1
    kernel_size: 3
    weight_filler {
      type: "gaussian"
      std: 0.01
    }
    bias_filler {
      type: "constant"
      value: 0
    }
  }
}
layer {
  name: "relu3_1"
  type: "ReLU"
  bottom: "conv3_1"
  top: "conv3_1"
}
layer {
  name: "conv3_2"
  type: "Convolution"
  bottom: "conv3_1"
  top: "conv3_2"
  param {
    lr_mult: 1
    decay_mult: 1
  }
  param {
    lr_mult: 2
    decay_mult: 0
  }
  convolution_param {
    num_output: 256
    pad: 1
    kernel_size: 3
    weight_filler {
      type: "gaussian"
      std: 0.01
    }
    bias_filler {
      type: "constant"
      value: 0
    }
  }
}
layer {
  name: "relu3_2"
  type: "ReLU"
  bottom: "conv3_2"
  top: "conv3_2"
}
layer {
  name: "conv3_3"
  type: "Convolution"
  bottom: "conv3_2"
  top: "conv3_3"
  param {
    lr_mult: 1
    decay_mult: 1
  }
  param {
    lr_mult: 2
    decay_mult: 0
  }
  convolution_param {
    num_output: 256
    pad: 1
    kernel_size: 3
    weight_filler {
      type: "gaussian"
      std: 0.01
    }
    bias_filler {
      type: "constant"
      value: 0
    }
  }
}
layer {
  name: "relu3_3"
  type: "ReLU"
  bottom: "conv3_3"
  top: "conv3_3"
}
layer {
  name: "pool3"
  type: "Pooling"
  bottom: "conv3_3"
  top: "pool3"
  pooling_param {
    pool: MAX
    kernel_size: 2
    stride: 2
  }
}
layer {
  name: "conv4_1"
  type: "Convolution"
  bottom: "pool3"
  top: "conv4_1"
  param {
    lr_mult: 1
    decay_mult: 1
  }
  param {
    lr_mult: 2
    decay_mult: 0
  }
  convolution_param {
    num_output: 512
    pad: 1
    kernel_size: 3
    weight_filler {
      type: "gaussian"
      std: 0.01
    }
    bias_filler {
      type: "constant"
      value: 0
    }
  }
}
layer {
  name: "relu4_1"
  type: "ReLU"
  bottom: "conv4_1"
  top: "conv4_1"
}
layer {
  name: "conv4_2"
  type: "Convolution"
  bottom: "conv4_1"
  top: "conv4_2"
  param {
    lr_mult: 1
    decay_mult: 1
  }
  param {
    lr_mult: 2
    decay_mult: 0
  }
  convolution_param {
    num_output: 512
    pad: 1
    kernel_size: 3
    weight_filler {
      type: "gaussian"
      std: 0.01
    }
    bias_filler {
      type: "constant"
      value: 0
    }
  }
}
layer {
  name: "relu4_2"
  type: "ReLU"
  bottom: "conv4_2"
  top: "conv4_2"
}
layer {
  name: "conv4_3"
  type: "Convolution"
  bottom: "conv4_2"
  top: "conv4_3"
  param {
    lr_mult: 1
    decay_mult: 1
  }
  param {
    lr_mult: 2
    decay_mult: 0
  }
  convolution_param {
    num_output: 512
    pad: 1
    kernel_size: 3
    weight_filler {
      type: "gaussian"
      std: 0.01
    }
    bias_filler {
      type: "constant"
      value: 0
    }
  }
}
layer {
  name: "relu4_3"
  type: "ReLU"
  bottom: "conv4_3"
  top: "conv4_3"
}
layer {
  name: "pool4"
  type: "Pooling"
  bottom: "conv4_3"
  top: "pool4"
  pooling_param {
    pool: MAX
    kernel_size: 2
    stride: 2
  }
}
layer {
  name: "conv5_1"
  type: "Convolution"
  bottom: "pool4"
  top: "conv5_1"
  param {
    lr_mult: 1
    decay_mult: 1
  }
  param {
    lr_mult: 2
    decay_mult: 0
  }
  convolution_param {
    num_output: 512
    pad: 1
    kernel_size: 3
    weight_filler {
      type: "gaussian"
      std: 0.01
    }
    bias_filler {
      type: "constant"
      value: 0
    }
  }
}
layer {
  name: "relu5_1"
  type: "ReLU"
  bottom: "conv5_1"
  top: "conv5_1"
}
layer {
  name: "conv5_2"
  type: "Convolution"
  bottom: "conv5_1"
  top: "conv5_2"
  param {
    lr_mult: 1
    decay_mult: 1
  }
  param {
    lr_mult: 2
    decay_mult: 0
  }
  convolution_param {
    num_output: 512
    pad: 1
    kernel_size: 3
    weight_filler {
      type: "gaussian"
      std: 0.01
    }
    bias_filler {
      type: "constant"
      value: 0
    }
  }
}
layer {
  name: "relu5_2"
  type: "ReLU"
  bottom: "conv5_2"
  top: "conv5_2"
}
layer {
  name: "conv5_3"
  type: "Convolution"
  bottom: "conv5_2"
  top: "conv5_3"
  param {
    lr_mult: 1
    decay_mult: 1
  }
  param {
    lr_mult: 2
    decay_mult: 0
  }
  convolution_param {
    num_output: 512
    pad: 1
    kernel_size: 3
    weight_filler {
      type: "gaussian"
      std: 0.01
    }
    bias_filler {
      type: "constant"
      value: 0
    }
  }
}
layer {
  name: "relu5_3"
  type: "ReLU"
  bottom: "conv5_3"
  top: "conv5_3"
}
layer {
  name: "pool5"
  type: "Pooling"
  bottom: "conv5_3"
  top: "pool5"
  pooling_param {
    pool: MAX
    kernel_size: 2
    stride: 2
  }
}
layer {
  name: "fc6"
  type: "InnerProduct"
  bottom: "pool5"
  top: "fc6"
  param {
    lr_mult: 1
    decay_mult: 1
  }
  param {
    lr_mult: 2
    decay_mult: 0
  }
  inner_product_param {
    num_output: 4096
    weight_filler {
      type: "gaussian"
      std: 0.005
    }
    bias_filler {
      type: "constant"
      value: 0.1
    }
  }
}
layer {
  name: "relu6"
  type: "ReLU"
  bottom: "fc6"
  top: "fc6"
}
layer {
  name: "drop6"
  type: "Dropout"
  bottom: "fc6"
  top: "fc6"
  dropout_param {
    dropout_ratio: 0.5
  }
}
layer {
  name: "fc7"
  type: "InnerProduct"
  bottom: "fc6"
  top: "fc7"
  param {
    lr_mult: 1
    decay_mult: 1
  }
  param {
    lr_mult: 2
    decay_mult: 0
  }
  inner_product_param {
    num_output: 4096
    weight_filler {
      type: "gaussian"
      std: 0.005
    }
    bias_filler {
      type: "constant"
      value: 0.1
    }
  }
}
layer {
  name: "relu7"
  type: "ReLU"
  bottom: "fc7"
  top: "fc7"
}
layer {
  name: "drop7"
  type: "Dropout"
  bottom: "fc7"
  top: "fc7"
  dropout_param {
    dropout_ratio: 0.5
  }
}
layer {
  name: "fc_binary_f48_Pattern"
  type: "InnerProduct"
  bottom: "fc7"
  top: "fc_binary_f48_Pattern"
  param {
    lr_mult: 10
    decay_mult: 1
  }
  param {
    lr_mult: 20
    decay_mult: 0
  }
  inner_product_param {
    num_output: 48
    weight_filler {
      type: "gaussian"
      std: 0.005
    }
    bias_filler {
      type: "constant"
      value: 0.1
    }
  }
}
layer {
  name: "fc_classification_Pattern"
  type: "InnerProduct"
  bottom: "fc7"
  top: "fc_classification_Pattern"
  param {
    lr_mult: 0.5
    decay_mult: 1
  }
  param {
    lr_mult: 1
    decay_mult: 0
  }
  inner_product_param {
    num_output: 7
    weight_filler {
      type: "gaussian"
      std: 0.05
    }
    bias_filler {
      type: "constant"
      value: 0.1
    }
  }
}
layer {
  name: "loss_hashing"
  type: "HashingLoss"
  bottom: "fc_binary_f48_Pattern"
  bottom: "label"
  top: "loss_hashing"
  loss_weight: 0.6
  hashing_loss_param {
    bi_margin: 96
    tradeoff: 0.01
  }
}
layer {
  name: "loss_classification"
  type: "SoftmaxWithLoss"
  bottom: "fc_classification_Pattern"
  bottom: "label"
  top: "loss_classification"
}
I0914 11:39:17.408166 38730 layer_factory.hpp:77] Creating layer data
I0914 11:39:17.408825 38730 net.cpp:91] Creating Layer data
I0914 11:39:17.409001 38730 net.cpp:399] data -> data
I0914 11:39:17.409191 38730 net.cpp:399] data -> label
I0914 11:39:17.410831 38737 db_lmdb.cpp:38] Opened lmdb PATTERN/pattern_train_lmdb/
I0914 11:39:17.440518 38730 data_layer.cpp:41] output data size: 10,3,224,224
I0914 11:39:17.460654 38730 net.cpp:141] Setting up data
I0914 11:39:17.460782 38730 net.cpp:148] Top shape: 10 3 224 224 (1505280)
I0914 11:39:17.460824 38730 net.cpp:148] Top shape: 10 1 1 1 (10)
I0914 11:39:17.460855 38730 net.cpp:156] Memory required for data: 6021160
I0914 11:39:17.460899 38730 layer_factory.hpp:77] Creating layer label_data_1_split
I0914 11:39:17.460954 38730 net.cpp:91] Creating Layer label_data_1_split
I0914 11:39:17.461002 38730 net.cpp:425] label_data_1_split <- label
I0914 11:39:17.461061 38730 net.cpp:399] label_data_1_split -> label_data_1_split_0
I0914 11:39:17.461113 38730 net.cpp:399] label_data_1_split -> label_data_1_split_1
I0914 11:39:17.461256 38730 net.cpp:141] Setting up label_data_1_split
I0914 11:39:17.461303 38730 net.cpp:148] Top shape: 10 1 1 1 (10)
I0914 11:39:17.461336 38730 net.cpp:148] Top shape: 10 1 1 1 (10)
I0914 11:39:17.461364 38730 net.cpp:156] Memory required for data: 6021240
I0914 11:39:17.461395 38730 layer_factory.hpp:77] Creating layer conv1_1
I0914 11:39:17.461468 38730 net.cpp:91] Creating Layer conv1_1
I0914 11:39:17.461506 38730 net.cpp:425] conv1_1 <- data
I0914 11:39:17.461550 38730 net.cpp:399] conv1_1 -> conv1_1
I0914 11:39:17.465438 38730 net.cpp:141] Setting up conv1_1
I0914 11:39:17.465524 38730 net.cpp:148] Top shape: 10 64 224 224 (32112640)
I0914 11:39:17.465564 38730 net.cpp:156] Memory required for data: 134471800
I0914 11:39:17.465646 38730 layer_factory.hpp:77] Creating layer relu1_1
I0914 11:39:17.465697 38730 net.cpp:91] Creating Layer relu1_1
I0914 11:39:17.465739 38730 net.cpp:425] relu1_1 <- conv1_1
I0914 11:39:17.465838 38730 net.cpp:386] relu1_1 -> conv1_1 (in-place)
I0914 11:39:17.465888 38730 net.cpp:141] Setting up relu1_1
I0914 11:39:17.465925 38730 net.cpp:148] Top shape: 10 64 224 224 (32112640)
I0914 11:39:17.465953 38730 net.cpp:156] Memory required for data: 262922360
I0914 11:39:17.465982 38730 layer_factory.hpp:77] Creating layer conv1_2
I0914 11:39:17.466034 38730 net.cpp:91] Creating Layer conv1_2
I0914 11:39:17.466073 38730 net.cpp:425] conv1_2 <- conv1_1
I0914 11:39:17.466117 38730 net.cpp:399] conv1_2 -> conv1_2
I0914 11:39:17.469419 38730 net.cpp:141] Setting up conv1_2
I0914 11:39:17.469475 38730 net.cpp:148] Top shape: 10 64 224 224 (32112640)
I0914 11:39:17.469506 38730 net.cpp:156] Memory required for data: 391372920
I0914 11:39:17.469547 38730 layer_factory.hpp:77] Creating layer relu1_2
I0914 11:39:17.469591 38730 net.cpp:91] Creating Layer relu1_2
I0914 11:39:17.469636 38730 net.cpp:425] relu1_2 <- conv1_2
I0914 11:39:17.469679 38730 net.cpp:386] relu1_2 -> conv1_2 (in-place)
I0914 11:39:17.469720 38730 net.cpp:141] Setting up relu1_2
I0914 11:39:17.469763 38730 net.cpp:148] Top shape: 10 64 224 224 (32112640)
I0914 11:39:17.469791 38730 net.cpp:156] Memory required for data: 519823480
I0914 11:39:17.469820 38730 layer_factory.hpp:77] Creating layer pool1
I0914 11:39:17.469863 38730 net.cpp:91] Creating Layer pool1
I0914 11:39:17.469894 38730 net.cpp:425] pool1 <- conv1_2
I0914 11:39:17.469928 38730 net.cpp:399] pool1 -> pool1
I0914 11:39:17.470077 38730 net.cpp:141] Setting up pool1
I0914 11:39:17.470127 38730 net.cpp:148] Top shape: 10 64 112 112 (8028160)
I0914 11:39:17.470156 38730 net.cpp:156] Memory required for data: 551936120
I0914 11:39:17.470185 38730 layer_factory.hpp:77] Creating layer conv2_1
I0914 11:39:17.470232 38730 net.cpp:91] Creating Layer conv2_1
I0914 11:39:17.470269 38730 net.cpp:425] conv2_1 <- pool1
I0914 11:39:17.470314 38730 net.cpp:399] conv2_1 -> conv2_1
I0914 11:39:17.478495 38730 net.cpp:141] Setting up conv2_1
I0914 11:39:17.478562 38730 net.cpp:148] Top shape: 10 128 112 112 (16056320)
I0914 11:39:17.478595 38730 net.cpp:156] Memory required for data: 616161400
I0914 11:39:17.478641 38730 layer_factory.hpp:77] Creating layer relu2_1
I0914 11:39:17.478679 38730 net.cpp:91] Creating Layer relu2_1
I0914 11:39:17.478710 38730 net.cpp:425] relu2_1 <- conv2_1
I0914 11:39:17.478744 38730 net.cpp:386] relu2_1 -> conv2_1 (in-place)
I0914 11:39:17.478781 38730 net.cpp:141] Setting up relu2_1
I0914 11:39:17.478816 38730 net.cpp:148] Top shape: 10 128 112 112 (16056320)
I0914 11:39:17.478852 38730 net.cpp:156] Memory required for data: 680386680
I0914 11:39:17.478881 38730 layer_factory.hpp:77] Creating layer conv2_2
I0914 11:39:17.478935 38730 net.cpp:91] Creating Layer conv2_2
I0914 11:39:17.478968 38730 net.cpp:425] conv2_2 <- conv2_1
I0914 11:39:17.479005 38730 net.cpp:399] conv2_2 -> conv2_2
I0914 11:39:17.490592 38730 net.cpp:141] Setting up conv2_2
I0914 11:39:17.490653 38730 net.cpp:148] Top shape: 10 128 112 112 (16056320)
I0914 11:39:17.490685 38730 net.cpp:156] Memory required for data: 744611960
I0914 11:39:17.490721 38730 layer_factory.hpp:77] Creating layer relu2_2
I0914 11:39:17.490767 38730 net.cpp:91] Creating Layer relu2_2
I0914 11:39:17.490799 38730 net.cpp:425] relu2_2 <- conv2_2
I0914 11:39:17.490833 38730 net.cpp:386] relu2_2 -> conv2_2 (in-place)
I0914 11:39:17.490869 38730 net.cpp:141] Setting up relu2_2
I0914 11:39:17.490903 38730 net.cpp:148] Top shape: 10 128 112 112 (16056320)
I0914 11:39:17.490931 38730 net.cpp:156] Memory required for data: 808837240
I0914 11:39:17.490959 38730 layer_factory.hpp:77] Creating layer pool2
I0914 11:39:17.491001 38730 net.cpp:91] Creating Layer pool2
I0914 11:39:17.491037 38730 net.cpp:425] pool2 <- conv2_2
I0914 11:39:17.491072 38730 net.cpp:399] pool2 -> pool2
I0914 11:39:17.491188 38730 net.cpp:141] Setting up pool2
I0914 11:39:17.491235 38730 net.cpp:148] Top shape: 10 128 56 56 (4014080)
I0914 11:39:17.491264 38730 net.cpp:156] Memory required for data: 824893560
I0914 11:39:17.491348 38730 layer_factory.hpp:77] Creating layer conv3_1
I0914 11:39:17.491400 38730 net.cpp:91] Creating Layer conv3_1
I0914 11:39:17.491438 38730 net.cpp:425] conv3_1 <- pool2
I0914 11:39:17.491482 38730 net.cpp:399] conv3_1 -> conv3_1
I0914 11:39:17.514515 38730 net.cpp:141] Setting up conv3_1
I0914 11:39:17.514590 38730 net.cpp:148] Top shape: 10 256 56 56 (8028160)
I0914 11:39:17.514622 38730 net.cpp:156] Memory required for data: 857006200
I0914 11:39:17.514670 38730 layer_factory.hpp:77] Creating layer relu3_1
I0914 11:39:17.514717 38730 net.cpp:91] Creating Layer relu3_1
I0914 11:39:17.514751 38730 net.cpp:425] relu3_1 <- conv3_1
I0914 11:39:17.514794 38730 net.cpp:386] relu3_1 -> conv3_1 (in-place)
I0914 11:39:17.514834 38730 net.cpp:141] Setting up relu3_1
I0914 11:39:17.514873 38730 net.cpp:148] Top shape: 10 256 56 56 (8028160)
I0914 11:39:17.514901 38730 net.cpp:156] Memory required for data: 889118840
I0914 11:39:17.514932 38730 layer_factory.hpp:77] Creating layer conv3_2
I0914 11:39:17.514978 38730 net.cpp:91] Creating Layer conv3_2
I0914 11:39:17.515010 38730 net.cpp:425] conv3_2 <- conv3_1
I0914 11:39:17.515048 38730 net.cpp:399] conv3_2 -> conv3_2
I0914 11:39:17.561686 38730 net.cpp:141] Setting up conv3_2
I0914 11:39:17.561748 38730 net.cpp:148] Top shape: 10 256 56 56 (8028160)
I0914 11:39:17.561782 38730 net.cpp:156] Memory required for data: 921231480
I0914 11:39:17.561820 38730 layer_factory.hpp:77] Creating layer relu3_2
I0914 11:39:17.561864 38730 net.cpp:91] Creating Layer relu3_2
I0914 11:39:17.561897 38730 net.cpp:425] relu3_2 <- conv3_2
I0914 11:39:17.561933 38730 net.cpp:386] relu3_2 -> conv3_2 (in-place)
I0914 11:39:17.561970 38730 net.cpp:141] Setting up relu3_2
I0914 11:39:17.562010 38730 net.cpp:148] Top shape: 10 256 56 56 (8028160)
I0914 11:39:17.562039 38730 net.cpp:156] Memory required for data: 953344120
I0914 11:39:17.562068 38730 layer_factory.hpp:77] Creating layer conv3_3
I0914 11:39:17.562120 38730 net.cpp:91] Creating Layer conv3_3
I0914 11:39:17.562153 38730 net.cpp:425] conv3_3 <- conv3_2
I0914 11:39:17.562196 38730 net.cpp:399] conv3_3 -> conv3_3
I0914 11:39:17.608707 38730 net.cpp:141] Setting up conv3_3
I0914 11:39:17.608768 38730 net.cpp:148] Top shape: 10 256 56 56 (8028160)
I0914 11:39:17.608800 38730 net.cpp:156] Memory required for data: 985456760
I0914 11:39:17.608836 38730 layer_factory.hpp:77] Creating layer relu3_3
I0914 11:39:17.608872 38730 net.cpp:91] Creating Layer relu3_3
I0914 11:39:17.608904 38730 net.cpp:425] relu3_3 <- conv3_3
I0914 11:39:17.608944 38730 net.cpp:386] relu3_3 -> conv3_3 (in-place)
I0914 11:39:17.608994 38730 net.cpp:141] Setting up relu3_3
I0914 11:39:17.609030 38730 net.cpp:148] Top shape: 10 256 56 56 (8028160)
I0914 11:39:17.609057 38730 net.cpp:156] Memory required for data: 1017569400
I0914 11:39:17.609086 38730 layer_factory.hpp:77] Creating layer pool3
I0914 11:39:17.609120 38730 net.cpp:91] Creating Layer pool3
I0914 11:39:17.609150 38730 net.cpp:425] pool3 <- conv3_3
I0914 11:39:17.609189 38730 net.cpp:399] pool3 -> pool3
I0914 11:39:17.609305 38730 net.cpp:141] Setting up pool3
I0914 11:39:17.609352 38730 net.cpp:148] Top shape: 10 256 28 28 (2007040)
I0914 11:39:17.609381 38730 net.cpp:156] Memory required for data: 1025597560
I0914 11:39:17.609411 38730 layer_factory.hpp:77] Creating layer conv4_1
I0914 11:39:17.609463 38730 net.cpp:91] Creating Layer conv4_1
I0914 11:39:17.609500 38730 net.cpp:425] conv4_1 <- pool3
I0914 11:39:17.609544 38730 net.cpp:399] conv4_1 -> conv4_1
I0914 11:39:17.702906 38730 net.cpp:141] Setting up conv4_1
I0914 11:39:17.702975 38730 net.cpp:148] Top shape: 10 512 28 28 (4014080)
I0914 11:39:17.703007 38730 net.cpp:156] Memory required for data: 1041653880
I0914 11:39:17.703044 38730 layer_factory.hpp:77] Creating layer relu4_1
I0914 11:39:17.703088 38730 net.cpp:91] Creating Layer relu4_1
I0914 11:39:17.703121 38730 net.cpp:425] relu4_1 <- conv4_1
I0914 11:39:17.703155 38730 net.cpp:386] relu4_1 -> conv4_1 (in-place)
I0914 11:39:17.703196 38730 net.cpp:141] Setting up relu4_1
I0914 11:39:17.703289 38730 net.cpp:148] Top shape: 10 512 28 28 (4014080)
I0914 11:39:17.703322 38730 net.cpp:156] Memory required for data: 1057710200
I0914 11:39:17.703351 38730 layer_factory.hpp:77] Creating layer conv4_2
I0914 11:39:17.703402 38730 net.cpp:91] Creating Layer conv4_2
I0914 11:39:17.703438 38730 net.cpp:425] conv4_2 <- conv4_1
I0914 11:39:17.703480 38730 net.cpp:399] conv4_2 -> conv4_2
I0914 11:39:17.883951 38730 net.cpp:141] Setting up conv4_2
I0914 11:39:17.884026 38730 net.cpp:148] Top shape: 10 512 28 28 (4014080)
I0914 11:39:17.884055 38730 net.cpp:156] Memory required for data: 1073766520
I0914 11:39:17.884107 38730 layer_factory.hpp:77] Creating layer relu4_2
I0914 11:39:17.884151 38730 net.cpp:91] Creating Layer relu4_2
I0914 11:39:17.884182 38730 net.cpp:425] relu4_2 <- conv4_2
I0914 11:39:17.884219 38730 net.cpp:386] relu4_2 -> conv4_2 (in-place)
I0914 11:39:17.884260 38730 net.cpp:141] Setting up relu4_2
I0914 11:39:17.884292 38730 net.cpp:148] Top shape: 10 512 28 28 (4014080)
I0914 11:39:17.884318 38730 net.cpp:156] Memory required for data: 1089822840
I0914 11:39:17.884343 38730 layer_factory.hpp:77] Creating layer conv4_3
I0914 11:39:17.884382 38730 net.cpp:91] Creating Layer conv4_3
I0914 11:39:17.884409 38730 net.cpp:425] conv4_3 <- conv4_2
I0914 11:39:17.884447 38730 net.cpp:399] conv4_3 -> conv4_3
I0914 11:39:18.054519 38730 net.cpp:141] Setting up conv4_3
I0914 11:39:18.054594 38730 net.cpp:148] Top shape: 10 512 28 28 (4014080)
I0914 11:39:18.054625 38730 net.cpp:156] Memory required for data: 1105879160
I0914 11:39:18.054661 38730 layer_factory.hpp:77] Creating layer relu4_3
I0914 11:39:18.054702 38730 net.cpp:91] Creating Layer relu4_3
I0914 11:39:18.054733 38730 net.cpp:425] relu4_3 <- conv4_3
I0914 11:39:18.054766 38730 net.cpp:386] relu4_3 -> conv4_3 (in-place)
I0914 11:39:18.054805 38730 net.cpp:141] Setting up relu4_3
I0914 11:39:18.054841 38730 net.cpp:148] Top shape: 10 512 28 28 (4014080)
I0914 11:39:18.054869 38730 net.cpp:156] Memory required for data: 1121935480
I0914 11:39:18.054896 38730 layer_factory.hpp:77] Creating layer pool4
I0914 11:39:18.054934 38730 net.cpp:91] Creating Layer pool4
I0914 11:39:18.054963 38730 net.cpp:425] pool4 <- conv4_3
I0914 11:39:18.054994 38730 net.cpp:399] pool4 -> pool4
I0914 11:39:18.055109 38730 net.cpp:141] Setting up pool4
I0914 11:39:18.055152 38730 net.cpp:148] Top shape: 10 512 14 14 (1003520)
I0914 11:39:18.055179 38730 net.cpp:156] Memory required for data: 1125949560
I0914 11:39:18.055205 38730 layer_factory.hpp:77] Creating layer conv5_1
I0914 11:39:18.055253 38730 net.cpp:91] Creating Layer conv5_1
I0914 11:39:18.055287 38730 net.cpp:425] conv5_1 <- pool4
I0914 11:39:18.055323 38730 net.cpp:399] conv5_1 -> conv5_1
I0914 11:39:18.225450 38730 net.cpp:141] Setting up conv5_1
I0914 11:39:18.225522 38730 net.cpp:148] Top shape: 10 512 14 14 (1003520)
I0914 11:39:18.225553 38730 net.cpp:156] Memory required for data: 1129963640
I0914 11:39:18.225589 38730 layer_factory.hpp:77] Creating layer relu5_1
I0914 11:39:18.225634 38730 net.cpp:91] Creating Layer relu5_1
I0914 11:39:18.225672 38730 net.cpp:425] relu5_1 <- conv5_1
I0914 11:39:18.225715 38730 net.cpp:386] relu5_1 -> conv5_1 (in-place)
I0914 11:39:18.225764 38730 net.cpp:141] Setting up relu5_1
I0914 11:39:18.225800 38730 net.cpp:148] Top shape: 10 512 14 14 (1003520)
I0914 11:39:18.225826 38730 net.cpp:156] Memory required for data: 1133977720
I0914 11:39:18.225852 38730 layer_factory.hpp:77] Creating layer conv5_2
I0914 11:39:18.225891 38730 net.cpp:91] Creating Layer conv5_2
I0914 11:39:18.225919 38730 net.cpp:425] conv5_2 <- conv5_1
I0914 11:39:18.225958 38730 net.cpp:399] conv5_2 -> conv5_2
I0914 11:39:18.370291 38730 net.cpp:141] Setting up conv5_2
I0914 11:39:18.370337 38730 net.cpp:148] Top shape: 10 512 14 14 (1003520)
I0914 11:39:18.370354 38730 net.cpp:156] Memory required for data: 1137991800
I0914 11:39:18.370374 38730 layer_factory.hpp:77] Creating layer relu5_2
I0914 11:39:18.370398 38730 net.cpp:91] Creating Layer relu5_2
I0914 11:39:18.370419 38730 net.cpp:425] relu5_2 <- conv5_2
I0914 11:39:18.370471 38730 net.cpp:386] relu5_2 -> conv5_2 (in-place)
I0914 11:39:18.370498 38730 net.cpp:141] Setting up relu5_2
I0914 11:39:18.370517 38730 net.cpp:148] Top shape: 10 512 14 14 (1003520)
I0914 11:39:18.370532 38730 net.cpp:156] Memory required for data: 1142005880
I0914 11:39:18.370545 38730 layer_factory.hpp:77] Creating layer conv5_3
I0914 11:39:18.370570 38730 net.cpp:91] Creating Layer conv5_3
I0914 11:39:18.370587 38730 net.cpp:425] conv5_3 <- conv5_2
I0914 11:39:18.370610 38730 net.cpp:399] conv5_3 -> conv5_3
I0914 11:39:18.463654 38730 net.cpp:141] Setting up conv5_3
I0914 11:39:18.463698 38730 net.cpp:148] Top shape: 10 512 14 14 (1003520)
I0914 11:39:18.463716 38730 net.cpp:156] Memory required for data: 1146019960
I0914 11:39:18.463735 38730 layer_factory.hpp:77] Creating layer relu5_3
I0914 11:39:18.463757 38730 net.cpp:91] Creating Layer relu5_3
I0914 11:39:18.463773 38730 net.cpp:425] relu5_3 <- conv5_3
I0914 11:39:18.463790 38730 net.cpp:386] relu5_3 -> conv5_3 (in-place)
I0914 11:39:18.463811 38730 net.cpp:141] Setting up relu5_3
I0914 11:39:18.463835 38730 net.cpp:148] Top shape: 10 512 14 14 (1003520)
I0914 11:39:18.463848 38730 net.cpp:156] Memory required for data: 1150034040
I0914 11:39:18.463863 38730 layer_factory.hpp:77] Creating layer pool5
I0914 11:39:18.463896 38730 net.cpp:91] Creating Layer pool5
I0914 11:39:18.463913 38730 net.cpp:425] pool5 <- conv5_3
I0914 11:39:18.463932 38730 net.cpp:399] pool5 -> pool5
I0914 11:39:18.463995 38730 net.cpp:141] Setting up pool5
I0914 11:39:18.464023 38730 net.cpp:148] Top shape: 10 512 7 7 (250880)
I0914 11:39:18.464040 38730 net.cpp:156] Memory required for data: 1151037560
I0914 11:39:18.464054 38730 layer_factory.hpp:77] Creating layer fc6
I0914 11:39:18.464081 38730 net.cpp:91] Creating Layer fc6
I0914 11:39:18.464097 38730 net.cpp:425] fc6 <- pool5
I0914 11:39:18.464119 38730 net.cpp:399] fc6 -> fc6
I0914 11:39:22.275887 38730 net.cpp:141] Setting up fc6
I0914 11:39:22.275986 38730 net.cpp:148] Top shape: 10 4096 (40960)
I0914 11:39:22.276006 38730 net.cpp:156] Memory required for data: 1151201400
I0914 11:39:22.276068 38730 layer_factory.hpp:77] Creating layer relu6
I0914 11:39:22.276103 38730 net.cpp:91] Creating Layer relu6
I0914 11:39:22.276151 38730 net.cpp:425] relu6 <- fc6
I0914 11:39:22.276181 38730 net.cpp:386] relu6 -> fc6 (in-place)
I0914 11:39:22.276211 38730 net.cpp:141] Setting up relu6
I0914 11:39:22.276228 38730 net.cpp:148] Top shape: 10 4096 (40960)
I0914 11:39:22.276243 38730 net.cpp:156] Memory required for data: 1151365240
I0914 11:39:22.276257 38730 layer_factory.hpp:77] Creating layer drop6
I0914 11:39:22.276280 38730 net.cpp:91] Creating Layer drop6
I0914 11:39:22.276295 38730 net.cpp:425] drop6 <- fc6
I0914 11:39:22.276312 38730 net.cpp:386] drop6 -> fc6 (in-place)
I0914 11:39:22.276382 38730 net.cpp:141] Setting up drop6
I0914 11:39:22.276406 38730 net.cpp:148] Top shape: 10 4096 (40960)
I0914 11:39:22.276422 38730 net.cpp:156] Memory required for data: 1151529080
I0914 11:39:22.276435 38730 layer_factory.hpp:77] Creating layer fc7
I0914 11:39:22.276458 38730 net.cpp:91] Creating Layer fc7
I0914 11:39:22.276476 38730 net.cpp:425] fc7 <- fc6
I0914 11:39:22.276494 38730 net.cpp:399] fc7 -> fc7
I0914 11:39:22.901669 38730 net.cpp:141] Setting up fc7
I0914 11:39:22.901751 38730 net.cpp:148] Top shape: 10 4096 (40960)
I0914 11:39:22.901768 38730 net.cpp:156] Memory required for data: 1151692920
I0914 11:39:22.901808 38730 layer_factory.hpp:77] Creating layer relu7
I0914 11:39:22.901840 38730 net.cpp:91] Creating Layer relu7
I0914 11:39:22.901857 38730 net.cpp:425] relu7 <- fc7
I0914 11:39:22.901882 38730 net.cpp:386] relu7 -> fc7 (in-place)
I0914 11:39:22.901924 38730 net.cpp:141] Setting up relu7
I0914 11:39:22.901942 38730 net.cpp:148] Top shape: 10 4096 (40960)
I0914 11:39:22.901957 38730 net.cpp:156] Memory required for data: 1151856760
I0914 11:39:22.901971 38730 layer_factory.hpp:77] Creating layer drop7
I0914 11:39:22.901990 38730 net.cpp:91] Creating Layer drop7
I0914 11:39:22.902005 38730 net.cpp:425] drop7 <- fc7
I0914 11:39:22.902065 38730 net.cpp:386] drop7 -> fc7 (in-place)
I0914 11:39:22.902117 38730 net.cpp:141] Setting up drop7
I0914 11:39:22.902138 38730 net.cpp:148] Top shape: 10 4096 (40960)
I0914 11:39:22.902154 38730 net.cpp:156] Memory required for data: 1152020600
I0914 11:39:22.902169 38730 layer_factory.hpp:77] Creating layer fc7_drop7_0_split
I0914 11:39:22.902190 38730 net.cpp:91] Creating Layer fc7_drop7_0_split
I0914 11:39:22.902209 38730 net.cpp:425] fc7_drop7_0_split <- fc7
I0914 11:39:22.902227 38730 net.cpp:399] fc7_drop7_0_split -> fc7_drop7_0_split_0
I0914 11:39:22.902249 38730 net.cpp:399] fc7_drop7_0_split -> fc7_drop7_0_split_1
I0914 11:39:22.902309 38730 net.cpp:141] Setting up fc7_drop7_0_split
I0914 11:39:22.902333 38730 net.cpp:148] Top shape: 10 4096 (40960)
I0914 11:39:22.902349 38730 net.cpp:148] Top shape: 10 4096 (40960)
I0914 11:39:22.902364 38730 net.cpp:156] Memory required for data: 1152348280
I0914 11:39:22.902379 38730 layer_factory.hpp:77] Creating layer fc_binary_f48_Pattern
I0914 11:39:22.902398 38730 net.cpp:91] Creating Layer fc_binary_f48_Pattern
I0914 11:39:22.902416 38730 net.cpp:425] fc_binary_f48_Pattern <- fc7_drop7_0_split_0
I0914 11:39:22.902436 38730 net.cpp:399] fc_binary_f48_Pattern -> fc_binary_f48_Pattern
I0914 11:39:22.910087 38730 net.cpp:141] Setting up fc_binary_f48_Pattern
I0914 11:39:22.910115 38730 net.cpp:148] Top shape: 10 48 (480)
I0914 11:39:22.910143 38730 net.cpp:156] Memory required for data: 1152350200
I0914 11:39:22.910164 38730 layer_factory.hpp:77] Creating layer fc_classification_Pattern
I0914 11:39:22.910194 38730 net.cpp:91] Creating Layer fc_classification_Pattern
I0914 11:39:22.910210 38730 net.cpp:425] fc_classification_Pattern <- fc7_drop7_0_split_1
I0914 11:39:22.910228 38730 net.cpp:399] fc_classification_Pattern -> fc_classification_Pattern
I0914 11:39:22.911415 38730 net.cpp:141] Setting up fc_classification_Pattern
I0914 11:39:22.911440 38730 net.cpp:148] Top shape: 10 7 (70)
I0914 11:39:22.911468 38730 net.cpp:156] Memory required for data: 1152350480
I0914 11:39:22.911499 38730 layer_factory.hpp:77] Creating layer loss_hashing
I0914 11:39:22.911528 38730 net.cpp:91] Creating Layer loss_hashing
I0914 11:39:22.911545 38730 net.cpp:425] loss_hashing <- fc_binary_f48_Pattern
I0914 11:39:22.911559 38730 net.cpp:425] loss_hashing <- label_data_1_split_0
I0914 11:39:22.911593 38730 net.cpp:399] loss_hashing -> loss_hashing
…
I0914 11:39:22.914432 38730 net.cpp:313] The NetState phase (1) differed from the phase (0) specified by a rule in layer data
I0914 11:39:22.914856 38730 net.cpp:49] Initializing net from parameters: 
name: "docomo_VGG16"
state {
  phase: TEST
}
layer {
  name: "data"
  type: "Data"
  top: "data"
  top: "label"
  include {
    phase: TEST
  }
  transform_param {
    mirror: false
    crop_size: 224
    mean_value: 103.939
    mean_value: 116.779
    mean_value: 123.68
  }
  data_param {
    source: "PATTERN/pattern_val_lmdb/"
    batch_size: 10
    backend: LMDB
  }
}
layer {
  name: "conv1_1"
  type: "Convolution"
  bottom: "data"
  top: "conv1_1"
  param {
    lr_mult: 1
    decay_mult: 1
  }
  param {
    lr_mult: 2
    decay_mult: 0
  }
  convolution_param {
    num_output: 64
    pad: 1
    kernel_size: 3
    weight_filler {
      type: "gaussian"
      std: 0.01
    }
    bias_filler {
      type: "constant"
      value: 0
    }
  }
}
layer {
  name: "relu1_1"
  type: "ReLU"
  bottom: "conv1_1"
  top: "conv1_1"
}
layer {
  name: "conv1_2"
  type: "Convolution"
  bottom: "conv1_1"
  top: "conv1_2"
  param {
    lr_mult: 1
    decay_mult: 1
  }
  param {
    lr_mult: 2
    decay_mult: 0
  }
  convolution_param {
    num_output: 64
    pad: 1
    kernel_size: 3
    weight_filler {
      type: "gaussian"
      std: 0.01
    }
    bias_filler {
      type: "constant"
      value: 0
    }
  }
}
layer {
  name: "relu1_2"
  type: "ReLU"
  bottom: "conv1_2"
  top: "conv1_2"
}
layer {
  name: "pool1"
  type: "Pooling"
  bottom: "conv1_2"
  top: "pool1"
  pooling_param {
    pool: MAX
    kernel_size: 2
    stride: 2
  }
}
layer {
  name: "conv2_1"
  type: "Convolution"
  bottom: "pool1"
  top: "conv2_1"
  param {
    lr_mult: 1
    decay_mult: 1
  }
  param {
    lr_mult: 2
    decay_mult: 0
  }
  convolution_param {
    num_output: 128
    pad: 1
    kernel_size: 3
    weight_filler {
      type: "gaussian"
      std: 0.01
    }
    bias_filler {
      type: "constant"
      value: 0
    }
  }
}
layer {
  name: "relu2_1"
  type: "ReLU"
  bottom: "conv2_1"
  top: "conv2_1"
}
layer {
  name: "conv2_2"
  type: "Convolution"
  bottom: "conv2_1"
  top: "conv2_2"
  param {
    lr_mult: 1
    decay_mult: 1
  }
  param {
    lr_mult: 2
    decay_mult: 0
  }
  convolution_param {
    num_output: 128
    pad: 1
    kernel_size: 3
    weight_filler {
      type: "gaussian"
      std: 0.01
    }
    bias_filler {
      type: "constant"
      value: 0
    }
  }
}
layer {
  name: "relu2_2"
  type: "ReLU"
  bottom: "conv2_2"
  top: "conv2_2"
}
layer {
  name: "pool2"
  type: "Pooling"
  bottom: "conv2_2"
  top: "pool2"
  pooling_param {
    pool: MAX
    kernel_size: 2
    stride: 2
  }
}
layer {
  name: "conv3_1"
  type: "Convolution"
  bottom: "pool2"
  top: "conv3_1"
  param {
    lr_mult: 1
    decay_mult: 1
  }
  param {
    lr_mult: 2
    decay_mult: 0
  }
  convolution_param {
    num_output: 256
    pad: 1
    kernel_size: 3
    weight_filler {
      type: "gaussian"
      std: 0.01
    }
    bias_filler {
      type: "constant"
      value: 0
    }
  }
}
layer {
  name: "relu3_1"
  type: "ReLU"
  bottom: "conv3_1"
  top: "conv3_1"
}
layer {
  name: "conv3_2"
  type: "Convolution"
  bottom: "conv3_1"
  top: "conv3_2"
  param {
    lr_mult: 1
    decay_mult: 1
  }
  param {
    lr_mult: 2
    decay_mult: 0
  }
  convolution_param {
    num_output: 256
    pad: 1
    kernel_size: 3
    weight_filler {
      type: "gaussian"
      std: 0.01
    }
    bias_filler {
      type: "constant"
      value: 0
    }
  }
}
layer {
  name: "relu3_2"
  type: "ReLU"
  bottom: "conv3_2"
  top: "conv3_2"
}
layer {
  name: "conv3_3"
  type: "Convolution"
  bottom: "conv3_2"
  top: "conv3_3"
  param {
    lr_mult: 1
    decay_mult: 1
  }
  param {
    lr_mult: 2
    decay_mult: 0
  }
  convolution_param {
    num_output: 256
    pad: 1
    kernel_size: 3
    weight_filler {
      type: "gaussian"
      std: 0.01
    }
    bias_filler {
      type: "constant"
      value: 0
    }
  }
}
layer {
  name: "relu3_3"
  type: "ReLU"
  bottom: "conv3_3"
  top: "conv3_3"
}
layer {
  name: "pool3"
  type: "Pooling"
  bottom: "conv3_3"
  top: "pool3"
  pooling_param {
    pool: MAX
    kernel_size: 2
    stride: 2
  }
}
layer {
  name: "conv4_1"
  type: "Convolution"
  bottom: "pool3"
  top: "conv4_1"
  param {
    lr_mult: 1
    decay_mult: 1
  }
  param {
    lr_mult: 2
    decay_mult: 0
  }
  convolution_param {
    num_output: 512
    pad: 1
    kernel_size: 3
    weight_filler {
      type: "gaussian"
      std: 0.01
    }
    bias_filler {
      type: "constant"
      value: 0
    }
  }
}
layer {
  name: "relu4_1"
  type: "ReLU"
  bottom: "conv4_1"
  top: "conv4_1"
}
layer {
  name: "conv4_2"
  type: "Convolution"
  bottom: "conv4_1"
  top: "conv4_2"
  param {
    lr_mult: 1
    decay_mult: 1
  }
  param {
    lr_mult: 2
    decay_mult: 0
  }
  convolution_param {
    num_output: 512
    pad: 1
    kernel_size: 3
    weight_filler {
      type: "gaussian"
      std: 0.01
    }
    bias_filler {
      type: "constant"
      value: 0
    }
  }
}
layer {
  name: "relu4_2"
  type: "ReLU"
  bottom: "conv4_2"
  top: "conv4_2"
}
layer {
  name: "conv4_3"
  type: "Convolution"
  bottom: "conv4_2"
  top: "conv4_3"
  param {
    lr_mult: 1
    decay_mult: 1
  }
  param {
    lr_mult: 2
    decay_mult: 0
  }
  convolution_param {
    num_output: 512
    pad: 1
    kernel_size: 3
    weight_filler {
      type: "gaussian"
      std: 0.01
    }
    bias_filler {
      type: "constant"
      value: 0
    }
  }
}
layer {
  name: "relu4_3"
  type: "ReLU"
  bottom: "conv4_3"
  top: "conv4_3"
}
layer {
  name: "pool4"
  type: "Pooling"
  bottom: "conv4_3"
  top: "pool4"
  pooling_param {
    pool: MAX
    kernel_size: 2
    stride: 2
  }
}
layer {
  name: "conv5_1"
  type: "Convolution"
  bottom: "pool4"
  top: "conv5_1"
  param {
    lr_mult: 1
    decay_mult: 1
  }
  param {
    lr_mult: 2
    decay_mult: 0
  }
  convolution_param {
    num_output: 512
    pad: 1
    kernel_size: 3
    weight_filler {
      type: "gaussian"
      std: 0.01
    }
    bias_filler {
      type: "constant"
      value: 0
    }
  }
}
layer {
  name: "relu5_1"
  type: "ReLU"
  bottom: "conv5_1"
  top: "conv5_1"
}
layer {
  name: "conv5_2"
  type: "Convolution"
  bottom: "conv5_1"
  top: "conv5_2"
  param {
    lr_mult: 1
    decay_mult: 1
  }
  param {
    lr_mult: 2
    decay_mult: 0
  }
  convolution_param {
    num_output: 512
    pad: 1
    kernel_size: 3
    weight_filler {
      type: "gaussian"
      std: 0.01
    }
    bias_filler {
      type: "constant"
      value: 0
    }
  }
}
layer {
  name: "relu5_2"
  type: "ReLU"
  bottom: "conv5_2"
  top: "conv5_2"
}
layer {
  name: "conv5_3"
  type: "Convolution"
  bottom: "conv5_2"
  top: "conv5_3"
  param {
    lr_mult: 1
    decay_mult: 1
  }
  param {
    lr_mult: 2
    decay_mult: 0
  }
  convolution_param {
    num_output: 512
    pad: 1
    kernel_size: 3
    weight_filler {
      type: "gaussian"
      std: 0.01
    }
    bias_filler {
      type: "constant"
      value: 0
    }
  }
}
layer {
  name: "relu5_3"
  type: "ReLU"
  bottom: "conv5_3"
  top: "conv5_3"
}
layer {
  name: "pool5"
  type: "Pooling"
  bottom: "conv5_3"
  top: "pool5"
  pooling_param {
    pool: MAX
    kernel_size: 2
    stride: 2
  }
}
layer {
  name: "fc6"
  type: "InnerProduct"
  bottom: "pool5"
  top: "fc6"
  param {
    lr_mult: 1
    decay_mult: 1
  }
  param {
    lr_mult: 2
    decay_mult: 0
  }
  inner_product_param {
    num_output: 4096
    weight_filler {
      type: "gaussian"
      std: 0.005
    }
    bias_filler {
      type: "constant"
      value: 0.1
    }
  }
}
layer {
  name: "relu6"
  type: "ReLU"
  bottom: "fc6"
  top: "fc6"
}
layer {
  name: "drop6"
  type: "Dropout"
  bottom: "fc6"
  top: "fc6"
  dropout_param {
    dropout_ratio: 0.5
  }
}
layer {
  name: "fc7"
  type: "InnerProduct"
  bottom: "fc6"
  top: "fc7"
  param {
    lr_mult: 1
    decay_mult: 1
  }
  param {
    lr_mult: 2
    decay_mult: 0
  }
  inner_product_param {
    num_output: 4096
    weight_filler {
      type: "gaussian"
      std: 0.005
    }
    bias_filler {
      type: "constant"
      value: 0.1
    }
  }
}
layer {
  name: "relu7"
  type: "ReLU"
  bottom: "fc7"
  top: "fc7"
}
layer {
  name: "drop7"
  type: "Dropout"
  bottom: "fc7"
  top: "fc7"
  dropout_param {
    dropout_ratio: 0.5
  }
}
layer {
  name: "fc_binary_f48_Pattern"
  type: "InnerProduct"
  bottom: "fc7"
  top: "fc_binary_f48_Pattern"
  param {
    lr_mult: 10
    decay_mult: 1
  }
  param {
    lr_mult: 20
    decay_mult: 0
  }
  inner_product_param {
    num_output: 48
    weight_filler {
      type: "gaussian"
      std: 0.005
    }
    bias_filler {
      type: "constant"
      value: 0.1
    }
  }
}
layer {
  name: "fc_classification_Pattern"
  type: "InnerProduct"
  bottom: "fc7"
  top: "fc_classification_Pattern"
  param {
    lr_mult: 0.5
    decay_mult: 1
  }
  param {
    lr_mult: 1
    decay_mult: 0
  }
  inner_product_param {
    num_output: 7
    weight_filler {
      type: "gaussian"
      std: 0.05
    }
    bias_filler {
      type: "constant"
      value: 0.1
    }
  }
}
layer {
  name: "accuracy_at_1"
  type: "Accuracy"
  bottom: "fc_classification_Pattern"
  bottom: "label"
  top: "accuracy_at_1"
  include {
    phase: TEST
  }
}
layer {
  name: "loss_hashing"
  type: "HashingLoss"
  bottom: "fc_binary_f48_Pattern"
  bottom: "label"
  top: "loss_hashing"
  loss_weight: 0.6
  hashing_loss_param {
    bi_margin: 96
    tradeoff: 0.01
  }
}
layer {
  name: "loss_classification"
  type: "SoftmaxWithLoss"
  bottom: "fc_classification_Pattern"
  bottom: "label"
  top: "loss_classification"
}
I0914 11:39:22.917385 38730 layer_factory.hpp:77] Creating layer data
I0914 11:39:22.917498 38730 net.cpp:91] Creating Layer data
I0914 11:39:22.917527 38730 net.cpp:399] data -> data
I0914 11:39:22.917551 38730 net.cpp:399] data -> label
I0914 11:39:22.918756 38739 db_lmdb.cpp:38] Opened lmdb PATTERN/pattern_val_lmdb/
I0914 11:39:22.919208 38730 data_layer.cpp:41] output data size: 10,3,224,224
I0914 11:39:22.931367 38730 net.cpp:141] Setting up data
I0914 11:39:22.931439 38730 net.cpp:148] Top shape: 10 3 224 224 (1505280)
I0914 11:39:22.931462 38730 net.cpp:148] Top shape: 10 1 1 1 (10)
I0914 11:39:22.931476 38730 net.cpp:156] Memory required for data: 6021160
I0914 11:39:22.931498 38730 layer_factory.hpp:77] Creating layer label_data_1_split
I0914 11:39:22.931525 38730 net.cpp:91] Creating Layer label_data_1_split
I0914 11:39:22.931542 38730 net.cpp:425] label_data_1_split <- label
I0914 11:39:22.931565 38730 net.cpp:399] label_data_1_split -> label_data_1_split_0
I0914 11:39:22.931589 38730 net.cpp:399] label_data_1_split -> label_data_1_split_1
I0914 11:39:22.931609 38730 net.cpp:399] label_data_1_split -> label_data_1_split_2
I0914 11:39:22.931697 38730 net.cpp:141] Setting up label_data_1_split
I0914 11:39:22.931722 38730 net.cpp:148] Top shape: 10 1 1 1 (10)
I0914 11:39:22.931738 38730 net.cpp:148] Top shape: 10 1 1 1 (10)
I0914 11:39:22.931753 38730 net.cpp:148] Top shape: 10 1 1 1 (10)
I0914 11:39:22.931768 38730 net.cpp:156] Memory required for data: 6021280
I0914 11:39:22.931783 38730 layer_factory.hpp:77] Creating layer conv1_1
I0914 11:39:22.931815 38730 net.cpp:91] Creating Layer conv1_1
I0914 11:39:22.931833 38730 net.cpp:425] conv1_1 <- data
I0914 11:39:22.931854 38730 net.cpp:399] conv1_1 -> conv1_1
I0914 11:39:22.932273 38730 net.cpp:141] Setting up conv1_1
I0914 11:39:22.932301 38730 net.cpp:148] Top shape: 10 64 224 224 (32112640)
I0914 11:39:22.932317 38730 net.cpp:156] Memory required for data: 134471840
I0914 11:39:22.932340 38730 layer_factory.hpp:77] Creating layer relu1_1
I0914 11:39:22.932360 38730 net.cpp:91] Creating Layer relu1_1
I0914 11:39:22.932375 38730 net.cpp:425] relu1_1 <- conv1_1
I0914 11:39:22.932391 38730 net.cpp:386] relu1_1 -> conv1_1 (in-place)
I0914 11:39:22.932410 38730 net.cpp:141] Setting up relu1_1
I0914 11:39:22.932426 38730 net.cpp:148] Top shape: 10 64 224 224 (32112640)
I0914 11:39:22.932440 38730 net.cpp:156] Memory required for data: 262922400
I0914 11:39:22.932456 38730 layer_factory.hpp:77] Creating layer conv1_2
I0914 11:39:22.932482 38730 net.cpp:91] Creating Layer conv1_2
I0914 11:39:22.932497 38730 net.cpp:425] conv1_2 <- conv1_1
I0914 11:39:22.932518 38730 net.cpp:399] conv1_2 -> conv1_2
I0914 11:39:22.935664 38730 net.cpp:141] Setting up conv1_2
I0914 11:39:22.935703 38730 net.cpp:148] Top shape: 10 64 224 224 (32112640)
I0914 11:39:22.935721 38730 net.cpp:156] Memory required for data: 391372960
I0914 11:39:22.935745 38730 layer_factory.hpp:77] Creating layer relu1_2
I0914 11:39:22.935765 38730 net.cpp:91] Creating Layer relu1_2
I0914 11:39:22.935780 38730 net.cpp:425] relu1_2 <- conv1_2
I0914 11:39:22.935796 38730 net.cpp:386] relu1_2 -> conv1_2 (in-place)
I0914 11:39:22.935817 38730 net.cpp:141] Setting up relu1_2
I0914 11:39:22.935834 38730 net.cpp:148] Top shape: 10 64 224 224 (32112640)
I0914 11:39:22.935848 38730 net.cpp:156] Memory required for data: 519823520
I0914 11:39:22.935863 38730 layer_factory.hpp:77] Creating layer pool1
I0914 11:39:22.935936 38730 net.cpp:91] Creating Layer pool1
I0914 11:39:22.935953 38730 net.cpp:425] pool1 <- conv1_2
I0914 11:39:22.935971 38730 net.cpp:399] pool1 -> pool1
I0914 11:39:22.936048 38730 net.cpp:141] Setting up pool1
I0914 11:39:22.936074 38730 net.cpp:148] Top shape: 10 64 112 112 (8028160)
I0914 11:39:22.936087 38730 net.cpp:156] Memory required for data: 551936160
I0914 11:39:22.936102 38730 layer_factory.hpp:77] Creating layer conv2_1
I0914 11:39:22.936127 38730 net.cpp:91] Creating Layer conv2_1
I0914 11:39:22.936143 38730 net.cpp:425] conv2_1 <- pool1
I0914 11:39:22.936161 38730 net.cpp:399] conv2_1 -> conv2_1
I0914 11:39:22.939872 38730 net.cpp:141] Setting up conv2_1
I0914 11:39:22.939903 38730 net.cpp:148] Top shape: 10 128 112 112 (16056320)
I0914 11:39:22.939919 38730 net.cpp:156] Memory required for data: 616161440
I0914 11:39:22.939941 38730 layer_factory.hpp:77] Creating layer relu2_1
I0914 11:39:22.939961 38730 net.cpp:91] Creating Layer relu2_1
I0914 11:39:22.939976 38730 net.cpp:425] relu2_1 <- conv2_1
I0914 11:39:22.939996 38730 net.cpp:386] relu2_1 -> conv2_1 (in-place)
I0914 11:39:22.940016 38730 net.cpp:141] Setting up relu2_1
I0914 11:39:22.940044 38730 net.cpp:148] Top shape: 10 128 112 112 (16056320)
I0914 11:39:22.940059 38730 net.cpp:156] Memory required for data: 680386720
I0914 11:39:22.940074 38730 layer_factory.hpp:77] Creating layer conv2_2
I0914 11:39:22.940099 38730 net.cpp:91] Creating Layer conv2_2
I0914 11:39:22.940115 38730 net.cpp:425] conv2_2 <- conv2_1
I0914 11:39:22.940135 38730 net.cpp:399] conv2_2 -> conv2_2
I0914 11:39:22.946024 38730 net.cpp:141] Setting up conv2_2
I0914 11:39:22.946053 38730 net.cpp:148] Top shape: 10 128 112 112 (16056320)
I0914 11:39:22.946069 38730 net.cpp:156] Memory required for data: 744612000
I0914 11:39:22.946086 38730 layer_factory.hpp:77] Creating layer relu2_2
I0914 11:39:22.946105 38730 net.cpp:91] Creating Layer relu2_2
I0914 11:39:22.946118 38730 net.cpp:425] relu2_2 <- conv2_2
I0914 11:39:22.946135 38730 net.cpp:386] relu2_2 -> conv2_2 (in-place)
I0914 11:39:22.946151 38730 net.cpp:141] Setting up relu2_2
I0914 11:39:22.946167 38730 net.cpp:148] Top shape: 10 128 112 112 (16056320)
I0914 11:39:22.946182 38730 net.cpp:156] Memory required for data: 808837280
I0914 11:39:22.946194 38730 layer_factory.hpp:77] Creating layer pool2
I0914 11:39:22.946214 38730 net.cpp:91] Creating Layer pool2
I0914 11:39:22.946229 38730 net.cpp:425] pool2 <- conv2_2
I0914 11:39:22.946245 38730 net.cpp:399] pool2 -> pool2
I0914 11:39:22.946319 38730 net.cpp:141] Setting up pool2
I0914 11:39:22.946341 38730 net.cpp:148] Top shape: 10 128 56 56 (4014080)
I0914 11:39:22.946357 38730 net.cpp:156] Memory required for data: 824893600
I0914 11:39:22.946372 38730 layer_factory.hpp:77] Creating layer conv3_1
I0914 11:39:22.946398 38730 net.cpp:91] Creating Layer conv3_1
I0914 11:39:22.946414 38730 net.cpp:425] conv3_1 <- pool2
I0914 11:39:22.946435 38730 net.cpp:399] conv3_1 -> conv3_1
I0914 11:39:22.958549 38730 net.cpp:141] Setting up conv3_1
I0914 11:39:22.958600 38730 net.cpp:148] Top shape: 10 256 56 56 (8028160)
I0914 11:39:22.958616 38730 net.cpp:156] Memory required for data: 857006240
I0914 11:39:22.958642 38730 layer_factory.hpp:77] Creating layer relu3_1
I0914 11:39:22.958667 38730 net.cpp:91] Creating Layer relu3_1
I0914 11:39:22.958683 38730 net.cpp:425] relu3_1 <- conv3_1
I0914 11:39:22.958699 38730 net.cpp:386] relu3_1 -> conv3_1 (in-place)
I0914 11:39:22.958719 38730 net.cpp:141] Setting up relu3_1
I0914 11:39:22.958735 38730 net.cpp:148] Top shape: 10 256 56 56 (8028160)
I0914 11:39:22.958750 38730 net.cpp:156] Memory required for data: 889118880
I0914 11:39:22.958763 38730 layer_factory.hpp:77] Creating layer conv3_2
I0914 11:39:22.958787 38730 net.cpp:91] Creating Layer conv3_2
I0914 11:39:22.958806 38730 net.cpp:425] conv3_2 <- conv3_1
I0914 11:39:22.958838 38730 net.cpp:399] conv3_2 -> conv3_2
I0914 11:39:22.980568 38730 net.cpp:141] Setting up conv3_2
I0914 11:39:22.980597 38730 net.cpp:148] Top shape: 10 256 56 56 (8028160)
I0914 11:39:22.980659 38730 net.cpp:156] Memory required for data: 921231520
I0914 11:39:22.980680 38730 layer_factory.hpp:77] Creating layer relu3_2
I0914 11:39:22.980701 38730 net.cpp:91] Creating Layer relu3_2
I0914 11:39:22.980732 38730 net.cpp:425] relu3_2 <- conv3_2
I0914 11:39:22.980751 38730 net.cpp:386] relu3_2 -> conv3_2 (in-place)
I0914 11:39:22.980772 38730 net.cpp:141] Setting up relu3_2
I0914 11:39:22.980787 38730 net.cpp:148] Top shape: 10 256 56 56 (8028160)
I0914 11:39:22.980803 38730 net.cpp:156] Memory required for data: 953344160
I0914 11:39:22.980816 38730 layer_factory.hpp:77] Creating layer conv3_3
I0914 11:39:22.980844 38730 net.cpp:91] Creating Layer conv3_3
I0914 11:39:22.980860 38730 net.cpp:425] conv3_3 <- conv3_2
I0914 11:39:22.980882 38730 net.cpp:399] conv3_3 -> conv3_3
I0914 11:39:23.003218 38730 net.cpp:141] Setting up conv3_3
I0914 11:39:23.003271 38730 net.cpp:148] Top shape: 10 256 56 56 (8028160)
I0914 11:39:23.003301 38730 net.cpp:156] Memory required for data: 985456800
I0914 11:39:23.003332 38730 layer_factory.hpp:77] Creating layer relu3_3
I0914 11:39:23.003370 38730 net.cpp:91] Creating Layer relu3_3
I0914 11:39:23.003392 38730 net.cpp:425] relu3_3 <- conv3_3
I0914 11:39:23.003422 38730 net.cpp:386] relu3_3 -> conv3_3 (in-place)
I0914 11:39:23.003442 38730 net.cpp:141] Setting up relu3_3
I0914 11:39:23.003458 38730 net.cpp:148] Top shape: 10 256 56 56 (8028160)
I0914 11:39:23.003471 38730 net.cpp:156] Memory required for data: 1017569440
I0914 11:39:23.003485 38730 layer_factory.hpp:77] Creating layer pool3
I0914 11:39:23.003504 38730 net.cpp:91] Creating Layer pool3
I0914 11:39:23.003517 38730 net.cpp:425] pool3 <- conv3_3
I0914 11:39:23.003540 38730 net.cpp:399] pool3 -> pool3
I0914 11:39:23.003600 38730 net.cpp:141] Setting up pool3
I0914 11:39:23.003623 38730 net.cpp:148] Top shape: 10 256 28 28 (2007040)
I0914 11:39:23.003638 38730 net.cpp:156] Memory required for data: 1025597600
I0914 11:39:23.003651 38730 layer_factory.hpp:77] Creating layer conv4_1
I0914 11:39:23.003679 38730 net.cpp:91] Creating Layer conv4_1
I0914 11:39:23.003698 38730 net.cpp:425] conv4_1 <- pool3
I0914 11:39:23.003720 38730 net.cpp:399] conv4_1 -> conv4_1
I0914 11:39:23.046679 38730 net.cpp:141] Setting up conv4_1
I0914 11:39:23.046710 38730 net.cpp:148] Top shape: 10 512 28 28 (4014080)
I0914 11:39:23.046738 38730 net.cpp:156] Memory required for data: 1041653920
I0914 11:39:23.046758 38730 layer_factory.hpp:77] Creating layer relu4_1
I0914 11:39:23.046778 38730 net.cpp:91] Creating Layer relu4_1
I0914 11:39:23.046794 38730 net.cpp:425] relu4_1 <- conv4_1
I0914 11:39:23.046813 38730 net.cpp:386] relu4_1 -> conv4_1 (in-place)
I0914 11:39:23.046833 38730 net.cpp:141] Setting up relu4_1
I0914 11:39:23.046849 38730 net.cpp:148] Top shape: 10 512 28 28 (4014080)
I0914 11:39:23.046864 38730 net.cpp:156] Memory required for data: 1057710240
I0914 11:39:23.046880 38730 layer_factory.hpp:77] Creating layer conv4_2
I0914 11:39:23.046903 38730 net.cpp:91] Creating Layer conv4_2
I0914 11:39:23.046918 38730 net.cpp:425] conv4_2 <- conv4_1
I0914 11:39:23.046936 38730 net.cpp:399] conv4_2 -> conv4_2
I0914 11:39:23.132474 38730 net.cpp:141] Setting up conv4_2
I0914 11:39:23.132532 38730 net.cpp:148] Top shape: 10 512 28 28 (4014080)
I0914 11:39:23.132550 38730 net.cpp:156] Memory required for data: 1073766560
I0914 11:39:23.132580 38730 layer_factory.hpp:77] Creating layer relu4_2
I0914 11:39:23.132608 38730 net.cpp:91] Creating Layer relu4_2
I0914 11:39:23.132627 38730 net.cpp:425] relu4_2 <- conv4_2
I0914 11:39:23.132644 38730 net.cpp:386] relu4_2 -> conv4_2 (in-place)
I0914 11:39:23.132666 38730 net.cpp:141] Setting up relu4_2
I0914 11:39:23.132683 38730 net.cpp:148] Top shape: 10 512 28 28 (4014080)
I0914 11:39:23.132697 38730 net.cpp:156] Memory required for data: 1089822880
I0914 11:39:23.132714 38730 layer_factory.hpp:77] Creating layer conv4_3
I0914 11:39:23.132738 38730 net.cpp:91] Creating Layer conv4_3
I0914 11:39:23.132755 38730 net.cpp:425] conv4_3 <- conv4_2
I0914 11:39:23.132773 38730 net.cpp:399] conv4_3 -> conv4_3
I0914 11:39:23.218407 38730 net.cpp:141] Setting up conv4_3
I0914 11:39:23.218461 38730 net.cpp:148] Top shape: 10 512 28 28 (4014080)
I0914 11:39:23.218478 38730 net.cpp:156] Memory required for data: 1105879200
I0914 11:39:23.218497 38730 layer_factory.hpp:77] Creating layer relu4_3
I0914 11:39:23.218521 38730 net.cpp:91] Creating Layer relu4_3
I0914 11:39:23.218536 38730 net.cpp:425] relu4_3 <- conv4_3
I0914 11:39:23.218554 38730 net.cpp:386] relu4_3 -> conv4_3 (in-place)
I0914 11:39:23.218574 38730 net.cpp:141] Setting up relu4_3
I0914 11:39:23.218590 38730 net.cpp:148] Top shape: 10 512 28 28 (4014080)
I0914 11:39:23.218605 38730 net.cpp:156] Memory required for data: 1121935520
I0914 11:39:23.218618 38730 layer_factory.hpp:77] Creating layer pool4
I0914 11:39:23.218641 38730 net.cpp:91] Creating Layer pool4
I0914 11:39:23.218655 38730 net.cpp:425] pool4 <- conv4_3
I0914 11:39:23.218672 38730 net.cpp:399] pool4 -> pool4
I0914 11:39:23.218736 38730 net.cpp:141] Setting up pool4
I0914 11:39:23.218760 38730 net.cpp:148] Top shape: 10 512 14 14 (1003520)
I0914 11:39:23.218773 38730 net.cpp:156] Memory required for data: 1125949600
I0914 11:39:23.218787 38730 layer_factory.hpp:77] Creating layer conv5_1
I0914 11:39:23.218816 38730 net.cpp:91] Creating Layer conv5_1
I0914 11:39:23.218832 38730 net.cpp:425] conv5_1 <- pool4
I0914 11:39:23.218849 38730 net.cpp:399] conv5_1 -> conv5_1
I0914 11:39:23.308086 38730 net.cpp:141] Setting up conv5_1
I0914 11:39:23.308140 38730 net.cpp:148] Top shape: 10 512 14 14 (1003520)
I0914 11:39:23.308157 38730 net.cpp:156] Memory required for data: 1129963680
I0914 11:39:23.308177 38730 layer_factory.hpp:77] Creating layer relu5_1
I0914 11:39:23.308200 38730 net.cpp:91] Creating Layer relu5_1
I0914 11:39:23.308217 38730 net.cpp:425] relu5_1 <- conv5_1
I0914 11:39:23.308238 38730 net.cpp:386] relu5_1 -> conv5_1 (in-place)
I0914 11:39:23.308260 38730 net.cpp:141] Setting up relu5_1
I0914 11:39:23.308279 38730 net.cpp:148] Top shape: 10 512 14 14 (1003520)
I0914 11:39:23.308292 38730 net.cpp:156] Memory required for data: 1133977760
I0914 11:39:23.308308 38730 layer_factory.hpp:77] Creating layer conv5_2
I0914 11:39:23.308336 38730 net.cpp:91] Creating Layer conv5_2
I0914 11:39:23.308351 38730 net.cpp:425] conv5_2 <- conv5_1
I0914 11:39:23.308372 38730 net.cpp:399] conv5_2 -> conv5_2
I0914 11:39:23.397457 38730 net.cpp:141] Setting up conv5_2
I0914 11:39:23.397516 38730 net.cpp:148] Top shape: 10 512 14 14 (1003520)
I0914 11:39:23.397532 38730 net.cpp:156] Memory required for data: 1137991840
I0914 11:39:23.397552 38730 layer_factory.hpp:77] Creating layer relu5_2
I0914 11:39:23.397573 38730 net.cpp:91] Creating Layer relu5_2
I0914 11:39:23.397588 38730 net.cpp:425] relu5_2 <- conv5_2
I0914 11:39:23.397606 38730 net.cpp:386] relu5_2 -> conv5_2 (in-place)
I0914 11:39:23.397635 38730 net.cpp:141] Setting up relu5_2
I0914 11:39:23.397655 38730 net.cpp:148] Top shape: 10 512 14 14 (1003520)
I0914 11:39:23.397668 38730 net.cpp:156] Memory required for data: 1142005920
I0914 11:39:23.397689 38730 layer_factory.hpp:77] Creating layer conv5_3
I0914 11:39:23.397717 38730 net.cpp:91] Creating Layer conv5_3
I0914 11:39:23.397734 38730 net.cpp:425] conv5_3 <- conv5_2
I0914 11:39:23.397756 38730 net.cpp:399] conv5_3 -> conv5_3
I0914 11:39:23.486502 38730 net.cpp:141] Setting up conv5_3
I0914 11:39:23.486564 38730 net.cpp:148] Top shape: 10 512 14 14 (1003520)
I0914 11:39:23.486582 38730 net.cpp:156] Memory required for data: 1146020000
I0914 11:39:23.486603 38730 layer_factory.hpp:77] Creating layer relu5_3
I0914 11:39:23.486625 38730 net.cpp:91] Creating Layer relu5_3
I0914 11:39:23.486642 38730 net.cpp:425] relu5_3 <- conv5_3
I0914 11:39:23.486663 38730 net.cpp:386] relu5_3 -> conv5_3 (in-place)
I0914 11:39:23.486686 38730 net.cpp:141] Setting up relu5_3
I0914 11:39:23.486708 38730 net.cpp:148] Top shape: 10 512 14 14 (1003520)
I0914 11:39:23.486722 38730 net.cpp:156] Memory required for data: 1150034080
I0914 11:39:23.486739 38730 layer_factory.hpp:77] Creating layer pool5
I0914 11:39:23.486786 38730 net.cpp:91] Creating Layer pool5
I0914 11:39:23.486810 38730 net.cpp:425] pool5 <- conv5_3
I0914 11:39:23.486834 38730 net.cpp:399] pool5 -> pool5
I0914 11:39:23.486901 38730 net.cpp:141] Setting up pool5
I0914 11:39:23.486923 38730 net.cpp:148] Top shape: 10 512 7 7 (250880)
I0914 11:39:23.486938 38730 net.cpp:156] Memory required for data: 1151037600
I0914 11:39:23.486953 38730 layer_factory.hpp:77] Creating layer fc6
I0914 11:39:23.486979 38730 net.cpp:91] Creating Layer fc6
I0914 11:39:23.486995 38730 net.cpp:425] fc6 <- pool5
I0914 11:39:23.487015 38730 net.cpp:399] fc6 -> fc6
I0914 11:39:27.282591 38730 net.cpp:141] Setting up fc6
I0914 11:39:27.282680 38730 net.cpp:148] Top shape: 10 4096 (40960)
I0914 11:39:27.282699 38730 net.cpp:156] Memory required for data: 1151201440
I0914 11:39:27.282734 38730 layer_factory.hpp:77] Creating layer relu6
I0914 11:39:27.282768 38730 net.cpp:91] Creating Layer relu6
I0914 11:39:27.282793 38730 net.cpp:425] relu6 <- fc6
I0914 11:39:27.282819 38730 net.cpp:386] relu6 -> fc6 (in-place)
I0914 11:39:27.282850 38730 net.cpp:141] Setting up relu6
I0914 11:39:27.282871 38730 net.cpp:148] Top shape: 10 4096 (40960)
I0914 11:39:27.282884 38730 net.cpp:156] Memory required for data: 1151365280
I0914 11:39:27.282899 38730 layer_factory.hpp:77] Creating layer drop6
I0914 11:39:27.282920 38730 net.cpp:91] Creating Layer drop6
I0914 11:39:27.282934 38730 net.cpp:425] drop6 <- fc6
I0914 11:39:27.282959 38730 net.cpp:386] drop6 -> fc6 (in-place)
I0914 11:39:27.283015 38730 net.cpp:141] Setting up drop6
I0914 11:39:27.283037 38730 net.cpp:148] Top shape: 10 4096 (40960)
I0914 11:39:27.283052 38730 net.cpp:156] Memory required for data: 1151529120
I0914 11:39:27.283068 38730 layer_factory.hpp:77] Creating layer fc7
I0914 11:39:27.283094 38730 net.cpp:91] Creating Layer fc7
I0914 11:39:27.283110 38730 net.cpp:425] fc7 <- fc6
I0914 11:39:27.283128 38730 net.cpp:399] fc7 -> fc7
I0914 11:39:27.907850 38730 net.cpp:141] Setting up fc7
I0914 11:39:27.907932 38730 net.cpp:148] Top shape: 10 4096 (40960)
I0914 11:39:27.907949 38730 net.cpp:156] Memory required for data: 1151692960
I0914 11:39:27.907974 38730 layer_factory.hpp:77] Creating layer relu7
I0914 11:39:27.907999 38730 net.cpp:91] Creating Layer relu7
I0914 11:39:27.908015 38730 net.cpp:425] relu7 <- fc7
I0914 11:39:27.908035 38730 net.cpp:386] relu7 -> fc7 (in-place)
I0914 11:39:27.908072 38730 net.cpp:141] Setting up relu7
I0914 11:39:27.908090 38730 net.cpp:148] Top shape: 10 4096 (40960)
I0914 11:39:27.908104 38730 net.cpp:156] Memory required for data: 1151856800
I0914 11:39:27.908118 38730 layer_factory.hpp:77] Creating layer drop7
I0914 11:39:27.908139 38730 net.cpp:91] Creating Layer drop7
I0914 11:39:27.908154 38730 net.cpp:425] drop7 <- fc7
I0914 11:39:27.908174 38730 net.cpp:386] drop7 -> fc7 (in-place)
I0914 11:39:27.908221 38730 net.cpp:141] Setting up drop7
I0914 11:39:27.908248 38730 net.cpp:148] Top shape: 10 4096 (40960)
I0914 11:39:27.908263 38730 net.cpp:156] Memory required for data: 1152020640
I0914 11:39:27.908278 38730 layer_factory.hpp:77] Creating layer fc7_drop7_0_split
I0914 11:39:27.908296 38730 net.cpp:91] Creating Layer fc7_drop7_0_split
I0914 11:39:27.908311 38730 net.cpp:425] fc7_drop7_0_split <- fc7
I0914 11:39:27.908329 38730 net.cpp:399] fc7_drop7_0_split -> fc7_drop7_0_split_0
I0914 11:39:27.908350 38730 net.cpp:399] fc7_drop7_0_split -> fc7_drop7_0_split_1
I0914 11:39:27.908408 38730 net.cpp:141] Setting up fc7_drop7_0_split
I0914 11:39:27.908432 38730 net.cpp:148] Top shape: 10 4096 (40960)
I0914 11:39:27.908447 38730 net.cpp:148] Top shape: 10 4096 (40960)
I0914 11:39:27.908463 38730 net.cpp:156] Memory required for data: 1152348320
I0914 11:39:27.908478 38730 layer_factory.hpp:77] Creating layer fc_binary_f48_Pattern
I0914 11:39:27.908504 38730 net.cpp:91] Creating Layer fc_binary_f48_Pattern
I0914 11:39:27.908520 38730 net.cpp:425] fc_binary_f48_Pattern <- fc7_drop7_0_split_0
I0914 11:39:27.908540 38730 net.cpp:399] fc_binary_f48_Pattern -> fc_binary_f48_Pattern
I0914 11:39:27.916437 38730 net.cpp:141] Setting up fc_binary_f48_Pattern
I0914 11:39:27.916510 38730 net.cpp:148] Top shape: 10 48 (480)
I0914 11:39:27.916527 38730 net.cpp:156] Memory required for data: 1152350240
I0914 11:39:27.916546 38730 layer_factory.hpp:77] Creating layer fc_classification_Pattern
I0914 11:39:27.916569 38730 net.cpp:91] Creating Layer fc_classification_Pattern
I0914 11:39:27.916586 38730 net.cpp:425] fc_classification_Pattern <- fc7_drop7_0_split_1
I0914 11:39:27.916607 38730 net.cpp:399] fc_classification_Pattern -> fc_classification_Pattern
I0914 11:39:27.917820 38730 net.cpp:141] Setting up fc_classification_Pattern
I0914 11:39:27.917860 38730 net.cpp:148] Top shape: 10 7 (70)
I0914 11:39:27.917876 38730 net.cpp:156] Memory required for data: 1152350520
I0914 11:39:27.917918 38730 layer_factory.hpp:77] Creating layer fc_classification_Pattern_fc_classification_Pattern_0_split
I0914 11:39:27.917939 38730 net.cpp:91] Creating Layer fc_classification_Pattern_fc_classification_Pattern_0_split
I0914 11:39:27.917955 38730 net.cpp:425] fc_classification_Pattern_fc_classification_Pattern_0_split <- fc_classification_Pattern
I0914 11:39:27.917973 38730 net.cpp:399] fc_classification_Pattern_fc_classification_Pattern_0_split -> fc_classification_Pattern_fc_classification_Pattern_0_split_0
I0914 11:39:27.917994 38730 net.cpp:399] fc_classification_Pattern_fc_classification_Pattern_0_split -> fc_classification_Pattern_fc_classification_Pattern_0_split_1
I0914 11:39:27.918057 38730 net.cpp:141] Setting up fc_classification_Pattern_fc_classification_Pattern_0_split
I0914 11:39:27.918081 38730 net.cpp:148] Top shape: 10 7 (70)
I0914 11:39:27.918097 38730 net.cpp:148] Top shape: 10 7 (70)
I0914 11:39:27.918112 38730 net.cpp:156] Memory required for data: 1152351080
I0914 11:39:27.918125 38730 layer_factory.hpp:77] Creating layer accuracy_at_1
I0914 11:39:27.918150 38730 net.cpp:91] Creating Layer accuracy_at_1
I0914 11:39:27.918166 38730 net.cpp:425] accuracy_at_1 <- fc_classification_Pattern_fc_classification_Pattern_0_split_0
I0914 11:39:27.918185 38730 net.cpp:425] accuracy_at_1 <- label_data_1_split_0
…
